TS-CVAE/experiments/pedestrians/models/hotel/models_21_Jun_2021_21_52_00_hotel_ar3/model_registrar-65.pt (torch_old, 545378 bytes, 43 tensors)

weight_ih_l0 f4 [128, 6]
000000 b1 37 c1 bd 09 5e 0a 3e 10 68 04 be b1 86 d3 bd
       -0.094344504 0.13512434 -0.12930322 -0.10328425
000010 67 07 81 3d f3 98 fe 3d d8 b4 15 be 2c 1a 50 be
       0.0630024 0.124315165 -0.14619768 -0.20322484
000020 ca e8 65 bd 6d cf 81 3e b6 4a b2 bd cc 62 44 bd
       -0.056130208 0.25353566 -0.08705656 -0.047945783
000030 e0 39 dc bd 5b 55 8a 3d a0 d8 f0 bd fb 95 42 be
       -0.10753226 0.067545615 -0.11760068 -0.19002526
000040 04 9c 46 be c9 68 ee 3d 0e 8b 0d be ed 47 98 3d
       -0.19395453 0.1164108 -0.13822576 0.07435594
000050 1d 24 1d 3e 84 25 f1 3d 08 36 2b bd 9f 91 db 3d
       0.15345807 0.11774734 -0.041799575 0.107211344
000060 75 7c 88 3d bb e0 05 be c6 64 3f be c8 c2 bf 3e
       0.06664363 -0.13074009 -0.18690786 0.37453294
000070 55 be 2a be 15 27 2f be 7e 69 1f 3e 8c e7 9a 3b
       -0.16674168 -0.17104752 0.15567586 0.0047273096
000080 7f aa 0e 3d ae bb 83 3e 1c 2a 16 3d 82 68 1a be
       0.034830566 0.25729126 0.036661252 -0.15078929
000090 9f 14 72 be 9a 54 ae bd f9 b7 76 bd df 17 c1 bb
       -0.23640679 -0.0851223 -0.060234044 -0.0058927382
0000a0 0e 7a 11 be d3 aa 7f be f8 7f 33 bc f8 95 71 3e
       -0.14206716 -0.24967508 -0.010955803 0.23592365
0000b0 85 dd ae 3d 53 a8 27 3c f6 eb 33 be b6 45 48 3d
       0.08538345 0.010233003 -0.1757048 0.048894607
0000c0 e0 7d a4 3e c3 14 4b 3d 9a 3c 46 3e dc f6 d5 3b
       0.32127285 0.049580347 0.19359055 0.006529672
0000d0 34 0a 45 be 26 cb 86 bd 99 de 6e be a1 2b 71 be
       -0.19242173 -0.06581716 -0.23327102 -0.235518
0000e0 58 3c 01 3e f8 f5 a5 3e 7a 6d 65 bc 82 d4 7b be
       0.12620676 0.32414222 -0.014003152 -0.24592784
0000f0 48 d9 89 3e 3d e4 d1 bd 01 f9 bf be 14 df 05 3e
       0.26923585 -0.10248611 -0.37494662 0.13073379
000100 8d 16 35 be 92 ae aa 3c d5 8f 60 be 82 a1 a0 bd
       -0.17684384 0.020835195 -0.21929868 -0.07843305
000110 46 a7 74 3c 49 b7 29 3e ec 41 97 3e 45 50 0b 3e
       0.014932459 0.16573824 0.29542482 0.13604839
000120 d6 b2 e1 bd 76 95 18 3d 69 7d d1 3d 31 bf ee bd
       -0.110204384 0.037251912 0.10228998 -0.116575606
000130 34 3f 29 3d 6e e1 64 be 6f ef 05 3e 19 2b a3 3e
       0.04132004 -0.2235162 0.13079618 0.31868818
000140 c1 fb 29 3c c6 91 80 bd 4e 31 19 3e 1b 98 93 3e
       0.010374964 -0.06277804 0.14960214 0.28826985
000150 59 75 45 be 21 1b f5 bc 64 d8 05 bf 51 73 97 3d
       -0.19283046 -0.029920163 -0.5228331 0.07395042
000160 6a 34 50 3f df fc 05 be 41 3d 1a be a1 04 6c 3e
       0.8132998 -0.13084744 -0.15062429 0.23048641
000170 c9 c6 a3 3e cc 66 a8 bc 66 d6 b9 bd 85 3d 95 3d
       0.319876 -0.02055683 -0.090740964 0.072871245
000180 13 f1 87 3d 9f b1 b9 3e f0 9e 47 3e 96 96 3d bd
       0.06637778 0.36268327 0.19494224 -0.046286188
000190 47 06 66 be be 5f d5 be 85 a5 00 3d e6 31 24 be
       -0.22463332 -0.41674608 0.03140785 -0.1603466
0001a0 91 d4 0e 3e 27 a1 81 bd a6 1d e2 bd 3c 5c 11 bc
       0.13948275 -0.063295655 -0.11040811 -0.008872088
0001b0 ce 45 7f 3c f8 2a bc bb 45 84 13 3e 8b 63 2b bd
       0.015580608 -0.005742427 0.14405926 -0.04184298
0001c0 22 22 2c 3e 78 7f e0 3e 47 a4 79 be 5f bb df bc
       0.16809896 0.4384725 -0.24379073 -0.027311025
0001d0 a0 e8 da 3d 9a 7a 45 3e 32 6d 81 3c e7 44 0e 3e
       0.10688901 0.1928505 0.015799139 0.13893472
0001e0 2a ad b9 be bb d0 a1 3e d6 c4 5d 3e 87 47 a9 be
       -0.36264926 0.3160456 0.21657118 -0.33062384
0001f0 ce dc 58 bc ad 95 a0 bc 48 28 44 3e 20 dd b7 3e
       -0.013236238 -0.019602621 0.19155991 0.35910892
000200 ee 01 8c be 0c e1 5a be 10 c8 9e 3e 17 1e ab 3d
       -0.27345222 -0.21374911 0.3101201 0.083553486
000210 2f 7c 93 bc 3a c6 33 be 63 8a 69 3d 36 da e8 3d
       -0.018003551 -0.17556086 0.05701674 0.113697454
000220 45 3e a8 3c 72 6d 5b 3c 8d e5 28 bd 5b 10 20 bd
       0.020537505 0.013392793 -0.04123454 -0.039078098
000230 57 f8 f0 3d b4 6a 0f be 8d aa e6 3d cf b6 26 bc
       0.11766117 -0.14005548 0.11262999 -0.010175421
000240 7f 99 99 3d b4 b8 e9 bd 2f 3f ae bd cd 35 3f 3d
       0.0749998 -0.114121825 -0.08508145 0.046682168
000250 c3 24 65 bf f5 37 e6 3c 84 93 19 3d 99 6b 9b bd
       -0.8950922 0.028102854 0.037494197 -0.07588882
000260 54 90 44 be aa 87 4f 3d 98 4d 87 bc e0 40 a5 3d
       -0.19195682 0.05066649 -0.016516492 0.080690145
000270 11 a4 5c 3e 1b 40 b3 be 3b 0d bf be 97 b8 c8 3e
       0.21546961 -0.35009846 -0.37314782 0.3920333
000280 16 60 e2 3d e6 59 70 3d 6b b3 15 3c 28 a1 5d 3e
       0.11053483 0.058679484 0.009137015 0.21643507
000290 75 47 b9 3e 2d 5a 96 3e 9f 4f ab bd b9 01 0e 3e
       0.3618733 0.29365674 -0.08364796 0.13867845
0002a0 4f 22 dc bd 32 5f 54 3e c1 4a 17 be 02 a0 c9 3d
       -0.10748731 0.20739439 -0.1477461 0.09844972
0002b0 51 b1 3e 3e 41 53 f2 3d 15 c8 25 be e2 23 18 bd
       0.18622328 0.11832286 -0.16189606 -0.037143596
0002c0 04 57 6c be 5e 3f 24 3d 65 c0 53 3e f8 45 b9 3d
       -0.23080069 0.040099494 0.20678861 0.090465486
0002d0 98 21 1f bb d2 75 57 bd 34 db 5d 3e 11 a0 ea 3c
       -0.0024281498 -0.052602597 0.2166565 0.028640779
0002e0 08 55 1d be b6 c2 03 be f0 1e ff bd 2a 8e 25 bd
       -0.15364468 -0.12867245 -0.12457073 -0.04041878
0002f0 e3 e7 ee 3d 09 5a b3 bd d1 15 4f be 65 1a 7b bd
       0.11665323 -0.08757407 -0.20223166 -0.06130447
000300 01 c7 c8 3d 97 7f 77 3e ab 45 47 be 13 95 2e be
       0.09803582 0.24169765 -0.1946017 -0.17049055
000310 da a6 a0 3d 15 ef f7 bd 47 97 1c 3e ef 3c a0 bd
       0.078443244 -0.12106148 0.15292083 -0.07824122
000320 99 57 83 bd fa 71 65 3d 8a 20 eb 3d cb 0d e1 bd
       -0.06413192 0.0560169 0.11480816 -0.10988959
000330 cc 53 a5 be ad d0 8f 3d 69 0f ba 3c e1 67 0d bd
       -0.32290494 0.070222236 0.022712426 -0.034522895
000340 6a db b2 3c e6 9f 74 be 3a ec 54 bd 29 a5 a0 bb
       0.02183314 -0.23889121 -0.051983096 -0.004902501
000350 96 d4 1d 3d 21 eb 5c bd ad 1a eb bd 30 85 c1 be
       0.038532816 -0.053935174 -0.114796974 -0.37796926
000360 1e 14 5d 3d 02 bf 7a be 8a 45 c7 3d fe ed a4 3e
       0.053974263 -0.24486926 0.097300604 0.32212824
000370 61 83 36 be 23 bb 0d be 14 84 3d 3e 25 56 d9 bd
       -0.17823555 -0.13840918 0.18507415 -0.10612134
000380 e7 1a 20 3e 5c e6 33 be 6b 46 9a bd 62 a6 f0 bd
       0.15635262 -0.17568344 -0.075329624 -0.11750485
000390 65 17 83 3b a7 20 57 bc c6 27 29 3d 92 d1 be 3b
       0.0040005916 -0.0131303435 0.041297697 0.0058233226
0003a0 9d 8d ed bd 27 74 49 bb e3 3d 6d 3c 3c 44 fe bd
       -0.11599276 -0.0030739398 0.014480087 -0.124153584
0003b0 62 c6 67 3e ed 1f 99 3b 08 7c 8a 3d f0 c6 69 3d
       0.22634271 0.0046729953 0.06761938 0.057074487
0003c0 74 17 f2 3e a3 37 38 be cb 34 0e be 02 0a b0 3d
       0.47283518 -0.17989974 -0.13887326 0.08595659
0003d0 bf 8a f9 be 4b 94 5a 3e ea 0c 8b bd ff 29 ab bd
       -0.48738667 0.21345632 -0.067895725 -0.083576195
0003e0 38 af cd 3d 15 c0 21 3e 2f 60 22 3e 5d bb 5a 3d
       0.10043186 0.1579593 0.15857004 0.05340134
0003f0 ad c7 27 3e f1 8b 27 bc cb 56 0b be e0 10 4c ba
       0.16384764 -0.010226236 -0.13607328 -0.0007784497

weight_hh_l0 f4 [128, 32]
000000 b3 24 0e bb 97 58 88 be 68 cc 4d 3e 31 4d b7 3d
       -0.0021689355 -0.2663009 0.20097506 0.0895027
000010 a6 44 7f 3d de d4 cf 3c 78 8b 63 bd 48 a5 e0 bd
       0.062321328 0.025370058 -0.05555293 -0.10969025
000020 ad 09 f9 3d 4c f1 54 3e 7b 3e 1a be 80 46 b9 3e
       0.12160049 0.20795172 -0.15062897 0.361866
000030 c1 a5 80 be f5 34 d2 3d ef 91 e1 3d cb 28 fe bd
       -0.2512646 0.10264007 0.11014163 -0.124101244
000040 c2 fc e1 bd bb b5 44 bd aa 34 8c 3d 57 b5 95 be
       -0.11034538 -0.048024874 0.068459824 -0.29239914
000050 2a cc a9 be 9b c2 c8 3d 8b 10 2e be 40 93 a1 be
       -0.33163577 0.09802743 -0.16998498 -0.31557655
000060 8e 44 60 3e 4f 62 40 be 9d 01 a8 3e a5 f1 33 3e
       0.21901152 -0.18787502 0.3281373 0.17572649
000070 14 19 b7 bc f7 7c a1 3d 84 0d 1f 3e 8c 44 ef bd
       -0.022350825 0.07885163 0.155325 -0.11682996
000080 3e 92 94 3d e9 56 9c be 69 05 6e 3e a6 c5 b8 bd
       0.07254456 -0.30535057 0.23244251 -0.090220734
000090 52 c3 69 3d fa bf 84 3e d1 92 0c 3d 4a 1d 5c be
       0.057071038 0.25927716 0.034319703 -0.21495548
0000a0 a0 ea 86 3e b3 2d ff bb a2 9e 91 be 8c 9f 69 3d
       0.2635088 -0.00778743 -0.2844134 0.05703692
0000b0 9c 67 a5 be 6b db ef 3d 3c c8 6a 3e 01 e9 31 bd
       -0.3230561 0.117117725 0.22927946 -0.0434351
0000c0 36 15 8e bc 4e 2f 3f 3e 78 e5 ca b9 61 a4 37 be
       -0.017344099 0.18670389 -0.0003869941 -0.179338
0000d0 63 d3 1e be c9 b2 65 3e b6 e8 f8 bd b1 9f 48 be
       -0.15510325 0.22431482 -0.12153761 -0.19592167
0000e0 d6 bd 0a 3e 8f 68 91 bd 7e 12 bc 3d 8f ed 6c be
       0.13548979 -0.07100021 0.091832146 -0.23137496
0000f0 d6 58 45 be 5b 1a ce 3d f3 c5 03 3e b1 44 27 be
       -0.1927217 0.10063621 0.1286848 -0.16334797
000100 db 2d f1 3d 9a cf 28 be a0 4a 48 bd c1 5b 2a 3e
       0.11776324 -0.16485444 -0.048899293 0.16636564
000110 f3 8c 9e 3d ce f8 0b 3e c7 d0 68 be 04 54 70 be
       0.07741728 0.1366913 -0.22735892 -0.2346955
000120 1e 5c f5 bd 75 33 b4 3d 7a f8 86 be a6 a2 1a 3e
       -0.119804606 0.08798877 -0.26361448 0.15101108
000130 69 8b 8f bd 2a e6 d2 bd 4a 16 47 3e 2f 82 5b be
       -0.07009012 -0.102978066 0.19442096 -0.2143638
000140 13 f0 da 3b 8a 96 95 bc f9 99 d9 3d 54 a5 8f bd
       0.006681451 -0.01826026 0.10625071 -0.07013956
000150 18 b6 93 3d 76 76 aa 3d 08 5c de 3d 29 e0 9c 3d
       0.07212466 0.08323376 0.10857397 0.07659943
000160 9a b0 c8 3e 88 ac 9c 3d af 83 05 3e 2f c6 4c 3e
       0.39197236 0.07650095 0.13038515 0.19997476
000170 72 8b fc 3d b6 2d 15 3e 76 32 22 be 7c 27 ff 3d
       0.123312846 0.14568219 -0.15839562 0.12458703
000180 78 29 f2 bc bf 9a 14 be c4 a9 89 3d 54 34 9f 3d
       -0.02956079 -0.14512156 0.06721833 0.07773653
000190 a4 6a 80 bd 9d 17 93 3d 32 30 40 be 4c 27 cc bb
       -0.0627034 0.07182238 -0.18768385 -0.0062302705
0001a0 6e 58 2a 3c fe 78 b5 3d 5a 3c 94 be 5e 0f 6e 3d
       0.01039706 0.08860968 -0.28952295 0.058120124
0001b0 a8 2a f0 bd 9f 38 c9 bd a7 d3 63 be 4e fe 59 be
       -0.11726886 -0.09825253 -0.22248708 -0.21288416
0001c0 ab 9b d9 bd b4 8b 2b 3e 1b 40 3e 3d a8 e2 86 be
       -0.106253944 0.16752511 0.046447854 -0.263448
0001d0 90 e6 9e bd e5 53 2f 3e 7d 47 1a 3d 84 31 2a be
       -0.0775882 0.17121847 0.037665833 -0.16620451
0001e0 e5 92 f8 3d 94 24 cb bd 53 79 f1 3b 40 e2 e7 3c
       0.12137393 -0.09919086 0.0073691993 0.028306127
0001f0 63 e6 8d be 22 70 44 3e f7 80 6e 3e 24 63 a3 bd
       -0.27714834 0.191834 0.23291384 -0.07977894
000200 33 f0 c5 bd 29 a1 91 be 12 1e 11 3f 48 d0 86 be
       -0.09664955 -0.28443268 0.5668651 -0.2633078
000210 73 90 3c 3e 72 46 cb 3a da cc 35 3c 39 3d 36 3d
       0.18414478 0.0015508665 0.011096204 0.04449198
000220 42 3a 0f 3f 72 7c 77 be c0 91 8e be bf fe 45 3e
       0.5594827 -0.24168566 -0.27845573 0.19335459
000230 82 46 15 be 28 96 29 be 8d 9d 17 bf 1f 56 26 bd
       -0.14577678 -0.16561186 -0.5922478 -0.040609475
000240 ec b1 9b be 82 63 15 3d c8 3f 49 3f a8 10 8e bf
       -0.3040918 0.03647185 0.7861295 -1.1098833
000250 1c 1f 21 bd 19 2c 3b 3f 4b 1f ef 3d c9 b0 58 be
       -0.03933631 0.7311416 0.116758905 -0.21161188
000260 dd 68 6f be cb 69 b0 be 0c fe a6 3e 67 0d 82 bf
       -0.23379846 -0.34455714 0.32615697 -1.016034
000270 2e 9c 46 bf 6d 87 fe 3c 81 bd 1c 3e 98 a5 03 3e
       -0.7758206 0.031070435 0.15306665 0.12856138
000280 67 4e 6b 3d 1a 29 a6 be b7 eb 17 3e de 65 2b be
       0.057447817 -0.32453233 0.14836012 -0.16738078
000290 74 6d 36 3e 7f e2 b0 3e 4b 98 01 be 04 08 68 bd
       0.1781519 0.34547803 -0.12655751 -0.05664827
0002a0 b1 f8 ac 3d b1 93 39 3e b7 f6 28 bd 86 6e 72 bd
       0.084458716 0.18122746 -0.04125091 -0.059187435
0002b0 79 08 f8 bd 9d 3a 1a 3e 76 02 24 bd 9c 8e 2a be
       -0.12110991 0.15061422 -0.04004141 -0.16655964
0002c0 7b 34 00 be 3b c6 d9 3d 50 bd 74 be 59 14 a7 bd
       -0.1252002 0.106335126 -0.23900342 -0.08158178
0002d0 7c 09 a6 3d db de 87 3d 86 53 d3 be 46 d6 2b bd
       0.08107278 0.06634303 -0.4127466 -0.041952394
0002e0 f6 60 d9 3d 82 42 91 be 4e 6d dd 3e 46 03 b3 3d
       0.10614197 -0.28371054 0.43247455 0.08740859
0002f0 0b 9c 46 bd 7c 2b 0e 3e 5a df a4 3e ec 7b da bb
       -0.048488658 0.13883775 0.32201654 -0.0066676047
000300 8b 76 52 3d 65 5b 20 bd 03 e1 83 bd 52 11 11 3e
       0.051382583 -0.03914966 -0.06439402 0.14166763
000310 aa 57 48 bd 99 b3 82 bc f4 66 73 3d 10 a9 a1 be
       -0.048911728 -0.01595478 0.059424356 -0.31574297
000320 a3 27 53 bd 22 ca 1b 3e 81 76 5c be 8c de c9 3d
       -0.051551472 0.15213826 -0.2152958 0.098569006
000330 70 71 ac bd 5d 7b f6 3d e6 f5 8f 3d 19 25 dd bc
       -0.08420074 0.120352484 0.07029323 -0.026995229
000340 67 b6 e3 bc d8 88 be bd e7 2d ad bc 42 43 42 be
       -0.027796937 -0.093034446 -0.021140052 -0.1897097
000350 3b 01 1b be 72 0d 87 3e cc cb 83 3d cd 36 b8 bd
       -0.15137188 0.26377445 0.064353555 -0.089948274
000360 b7 1c 2d 3c a9 a3 ae 3b 8d a3 a6 3e 2d 6c 79 3d
       0.010565928 0.0053295684 0.32546654 0.06089418
000370 0d 2f 41 be 44 c6 00 3e 1e f8 02 be 03 87 42 3d
       -0.18865605 0.12575632 -0.12789962 0.04749204
000380 7a 7e f0 3d 86 46 87 be 11 71 74 3d 98 24 f5 3d
       0.117428735 -0.26420993 0.05967814 0.1196987
000390 86 47 07 3e 32 8f 3a 3e 32 34 c8 3c 7b 1f f4 3d
       0.13210878 0.18218687 0.024438951 0.11920067
0003a0 0e 20 7c 3d fa 88 03 be 1a b6 05 be 17 45 9f be
       0.061554007 -0.12845221 -0.13057747 -0.311074
0003b0 21 7f 84 3e 34 36 7d 3b 47 ee d4 3e 20 40 63 3e
       0.25878242 0.0038637044 0.4158804 0.2219243
0003c0 64 5a 94 3d d7 95 66 bd 61 c1 cb bd 51 ac 71 bd
       0.07243803 -0.056295242 -0.099489935 -0.059002224
0003d0 a3 03 21 be 47 0e a1 3e 31 df cc bd df 17 58 be
       -0.15724044 0.31456205 -0.10003508 -0.21102856
0003e0 23 d8 19 3e 23 63 8d 3d 78 07 7a 3e 7b ca 06 3e
       0.15023856 0.069036745 0.24416912 0.13163178
0003f0 1c be ef 3d 0f d8 8a 3e 61 4a ef bc 19 a2 ee 3d
       0.11706182 0.27117965 -0.029210271 0.116520114

bias_ih_l0 f4 [128]
000000 57 db a7 3d fe a4 8c 3e ad 34 a3 3d 5a 09 bf 3d
       0.08196133 0.2746963 0.079690315 0.093279555
000010 00 e8 00 3f fb 32 f9 3e 01 6f 75 3e 38 ad cb 3d
       0.50354004 0.48671708 0.23968126 0.09945148
000020 6b df fd 3d 67 54 9d 3e 1e 53 e9 3e 6e 2e b2 3e
       0.12396129 0.30728456 0.45571226 0.34801048
000030 82 7b 0c 3f b3 4c 8d 3e 9f b8 2d 3e 20 6b 13 3f
       0.5487596 0.2759758 0.16964959 0.57585335
000040 8f 85 87 3d c3 6e af 3e 1f fa 8a 3c fc 17 29 3e
       0.06617271 0.34264192 0.01696497 0.16513056
000050 25 95 1e 3f 17 92 2c 3e 75 3e 04 3f 70 de 55 3d
       0.61946326 0.16852604 0.516578 0.052214086
000060 56 9f dc 3e e3 33 fd 3d aa cb 07 3e 8b 95 60 3d
       0.43090314 0.12363412 0.13261285 0.054830115
000070 c1 02 00 bb 3c 17 b7 3e 22 33 9f 3e a9 be c9 3d
       -0.0019532891 0.35759914 0.310937 0.09850819
000080 62 e6 87 bd 3f ed dd be ac 6b 8b be c2 80 4f 3c
       -0.06635739 -0.43345067 -0.27230585 0.012664976
000090 e7 48 41 bf 7f 4a d4 be 89 d2 c7 be 6d 27 d0 be
       -0.75501865 -0.41463086 -0.39027813 -0.4065508
0000a0 93 2d 15 be 26 28 9d be 0d 20 6f be 26 03 9f bd
       -0.14568166 -0.30694693 -0.2335207 -0.077642724
0000b0 e8 3b b8 be 59 18 9d bd 08 9c 14 bd b5 30 47 bf
       -0.35983205 -0.076706596 -0.036281615 -0.77808696
0000c0 8d 84 18 bc 12 d8 52 be ba ce 80 bd a8 0b c0 3d
       -0.009308946 -0.20590237 -0.0628943 0.09377223
0000d0 50 f0 2b bf 98 0f 08 be 85 31 b9 be 67 5b 92 bd
       -0.6716356 -0.13287199 -0.36170593 -0.0714634
0000e0 6f 23 8a be c3 ed 77 3d 4c 2d 7e bc c8 4f 12 3e
       -0.2698016 0.06052948 -0.015513729 0.14288247
0000f0 b9 03 e0 bc 9d ff 23 bf 43 e8 ff be d8 51 98 be
       -0.027345525 -0.6406191 -0.4998189 -0.29749942
000100 a3 ee 0d 3e 6e 50 db 3d 65 16 3b bd 01 1c d8 3c
       0.13860564 0.107087 -0.045675654 0.02638054
000110 e8 08 e3 bd 1b 6d 21 bb 5a 03 e3 3d 45 ec 27 bd
       -0.11085683 -0.0024631682 0.11084624 -0.04099681
000120 f2 e2 9d bc 16 6a 7d 3d 8b 6a a3 bd f3 dc 1d 3c
       -0.019273255 0.06186875 -0.07979306 0.009635198
000130 1d 05 f6 bd 3b a2 29 bd 63 6e 1c ba a8 43 bb bd
       -0.12012694 -0.04141448 -0.00059673766 -0.09143764
000140 70 5b 99 bd d4 75 e1 bd 0f 31 16 3e c1 94 a2 bd
       -0.074881434 -0.11008802 0.14667152 -0.07938529
000150 7b 5c 7f 3d 06 e5 91 3d d5 7b e0 3d be ef 08 be
       0.062344056 0.07123761 0.10961119 -0.13372704
000160 0e 76 e3 3d 3b ec b3 bd 87 41 20 3d 93 b5 46 be
       0.111065015 -0.08785292 0.03912499 -0.19405203
000170 f8 4b dc bd f0 74 0b 3e 83 01 b7 3c bb d6 91 bd
       -0.107566774 0.13618827 0.022339588 -0.07121035
000180 e8 05 98 3e 3c 9c 7a 3e 28 be f8 3d b8 8b 1a 3e
       0.29692006 0.24473661 0.121456444 0.15092361
000190 20 47 27 3f 8a ea dc 3e 2f f6 86 3e b4 80 0c 3e
       0.65342903 0.4314769 0.26359698 0.13720971
0001a0 1d ac 86 3c 91 71 b7 3e da 0c 6d 3e 2b 73 94 3e
       0.016439492 0.35828832 0.23149434 0.28994116
0001b0 d5 0a d8 3e 1d 8a 78 3e 47 27 46 3e ef 22 41 3f
       0.42195764 0.24271436 0.1935092 0.7544393
0001c0 7f fb 68 3e 26 3f 8b 3e 45 14 e1 3d a2 63 4e 3d
       0.22752188 0.27196616 0.10990194 0.050387986
0001d0 f7 ed 36 3f ef ce 34 3e 11 e2 f5 3e bf 2a e6 3d
       0.71456856 0.17657064 0.48024037 0.11238622
0001e0 78 3d 4f 3e 8b c1 4a 3e 84 09 9a 3e 96 94 26 ba
       0.20238292 0.19800393 0.30085385 -0.00063545385
0001f0 2c 6e 0a 3e d3 64 0e 3f c3 eb b8 3e 2c 4f 80 3d
       0.1351859 0.55622596 0.36117372 0.06265101

bias_hh_l0 f4 [128]
000000 f3 4c 1a 3d fe 5a 93 3e 7e 98 5d bd 65 70 82 3e
       0.03767104 0.2878036 -0.054100506 0.25476375
000010 88 b6 25 3f b6 a4 78 3e 18 58 0d 3e 0d d5 8d 3e
       0.64731646 0.24281582 0.13803136 0.27701607
000020 47 1e 56 3e 8f c1 f1 3e 6b 0a 4c 3e 32 8a 64 3e
       0.20909987 0.47217986 0.19925849 0.22318342
000030 47 f5 9e 3e 78 fb 11 3f 1a 42 57 3e 77 7c 3c 3f
       0.31046507 0.57024336 0.2102131 0.7362742
000040 bf 58 aa bc 9f 9f ab 3e 13 3b a1 bd 2a 82 f7 3d
       -0.02079427 0.3352022 -0.07872596 0.12085374
000050 39 63 44 3f f7 cf b2 3e f8 8b 0b 3f dc 9d ee 3d
       0.767139 0.3492429 0.5451045 0.11651203
000060 d9 45 aa 3e 19 38 de 3d a8 1d 53 3e 0c 89 16 bd
       0.33256415 0.108505435 0.20616782 -0.03675179
000070 c2 2b ab bd a1 4e b2 3e 51 cb c2 3e 85 44 18 3e
       -0.083579555 0.34825614 0.38045743 0.14869888
000080 f6 d6 1e be 9d 91 d0 be a7 ca 0d bd 60 1f 46 be
       -0.15511689 -0.40736094 -0.034617092 -0.19347906
000090 00 b0 e4 be 31 ea 80 be d2 51 7f be 0a 27 0d bf
       -0.44665527 -0.25178674 -0.24933556 -0.55137694
0000a0 f9 15 95 bd 52 f1 b9 be 6b bc 5b be d7 29 0e be
       -0.072795816 -0.36316925 -0.21458595 -0.13883148
0000b0 94 a8 b9 be 46 25 83 be 9e b0 8e 3d 86 5c 3a bf
       -0.36261427 -0.25614375 0.06967281 -0.7279743
0000c0 47 78 0f be 07 33 8c be cb 7a 0d bd 50 3a b3 bd
       -0.14010726 -0.2738268 -0.034540933 -0.087513566
0000d0 49 19 07 bf d4 61 97 be 9d b3 15 bf 04 ad cb bd
       -0.5277296 -0.29566824 -0.58477193 -0.099451095
0000e0 93 5f f2 be de 0d 7e be 11 c1 89 be 66 53 a8 3d
       -0.47338542 -0.24809977 -0.2690511 0.08219032
0000f0 e1 99 63 bd f6 3a d0 be 91 47 bc be f7 13 7f 3b
       -0.055566672 -0.40669984 -0.3677335 0.0038921812
000100 01 20 14 be e8 90 25 be 4d c7 fe 3d 7f 9e ef bc
       -0.14465334 -0.16168559 0.12440357 -0.029250382
000110 bf 4d 15 3e cf 98 f4 3c eb 34 9a bd c1 22 c1 3b
       0.14580439 0.029858021 -0.075296246 0.0058940356
000120 51 d3 f9 3d f1 0b 02 bd e2 c5 44 3d e1 99 dc 3c
       0.121985085 -0.03174967 0.04804028 0.026928844
000130 d8 29 78 3d 25 0b cd 3c a3 5c a0 bd 7b 8b 60 3d
       0.06058678 0.025029728 -0.07830169 0.05482052
000140 f0 f2 93 3c 0b 7a 07 3e f9 b2 93 3d 06 e9 52 be
       0.018060178 0.1323015 0.07211871 -0.20596704
000150 d9 cd c1 bd 50 b3 30 3c 05 33 09 be 0d 31 ea 3d
       -0.094630904 0.010784939 -0.13398369 0.11435137
000160 85 7d 02 be 78 b7 91 3c b5 68 2c 3d 75 36 a2 bd
       -0.12743194 0.01778768 0.042092044 -0.07920543
000170 5d d6 c4 bd fc df 11 be f3 cc 10 bb a2 4a 06 3d
       -0.09611199 -0.142456 -0.0022094816 0.03278602
000180 dc 3e 3a 3e 6a 14 c2 3e 8b e6 0d bd 48 a8 c1 3e
       0.18188041 0.379062 -0.03464369 0.378237
000190 dc 85 40 3f 8d 73 ab 3e 6a a2 ec 3e 7d 46 e5 3e
       0.75204253 0.33486596 0.46217662 0.4478034
0001a0 5d da 19 bd 1e e3 c2 3e ac 0d f2 3e 81 d1 bb 3e
       -0.037561763 0.38063902 0.47276056 0.36683276
0001b0 df 44 de 3e d4 2d df 3e 75 2a e8 3d 4d 26 43 3f
       0.4341192 0.43589652 0.11336223 0.7623032
0001c0 2e eb 7b 3e 4e 6b 0a 3e 76 28 5c 3e 37 b6 95 bd
       0.24601433 0.13517496 0.2149981 -0.07310145
0001d0 4d 78 2d 3f b4 3e bc 3e c6 cb 21 3f d0 da 7a 3e
       0.6776169 0.3676659 0.6320156 0.24497533
0001e0 db c9 c7 3e ef d1 31 3e 21 9e b4 3e 7e 74 b6 3b
       0.3902119 0.1736524 0.35276893 0.005568086
0001f0 92 90 bf 3b 9b f9 0c 3f 0b c1 c6 3e f2 da 86 3e
       0.0058460915 0.5506837 0.38819155 0.26338917

weight_ih_l0 f4 [128, 2]
000000 52 88 8b 3e 35 ee d9 3d b5 80 93 bd f4 48 6c 3c
       0.27252442 0.106411375 -0.07202283 0.01442169
000010 91 70 53 3d e9 e9 f4 bb d7 62 f0 bd b0 10 c4 3b
       0.051621024 -0.0074741733 -0.11737602 0.0059834346
000020 ea f0 a5 3c 2d e2 3b bd 5d cf 2a 3d 00 99 e9 3d
       0.020256478 -0.045869995 0.041701663 0.114061356
000030 8f ed 0a 3c f0 1f 6b 3d f9 a5 14 be 10 a7 a4 bd
       0.00847949 0.057403505 -0.14516439 -0.08039677
000040 e8 a9 86 bc d3 bc 31 be 5c f6 0e bc 69 f4 39 bc
       -0.01643844 -0.17357187 -0.008725729 -0.011349776
000050 bc 07 6c bd 04 0f 41 3d 01 f8 3c bb 11 ee ff bd
       -0.057624564 0.04713346 -0.0028834345 -0.124965794
000060 8c 6e 2d be 5e ea 57 3d 27 8f 4d 3d 44 24 84 bd
       -0.16936702 0.052713744 0.05018535 -0.064522296
000070 37 a1 0e be 4b 25 30 3c 66 1f 73 bd 35 b2 93 3d
       -0.13928686 0.010751079 -0.059356116 0.07211725
000080 f3 35 fd bc 5b 0e 63 3d 82 01 a6 3c 3c cd 85 3d
       -0.030909514 0.055433612 0.02026439 0.06533286
000090 ad b0 b8 3d dc 63 54 3d c0 59 75 3d 78 76 6a 3d
       0.09018073 0.051853046 0.059900045 0.057241887
0000a0 45 33 64 bd d8 33 19 3c 6f d9 f9 3c 2b 89 c9 3d
       -0.055712957 0.009350739 0.030499188 0.09840616
0000b0 bb 8f 1a bc 76 21 d4 3d 28 5f 86 be f8 fa 22 bc
       -0.009433682 0.10357945 -0.26244473 -0.009947531
0000c0 1c fc ec 3c cc ec 06 bd df 0e b2 bd 55 14 95 bc
       0.028928809 -0.03294067 -0.08694243 -0.018198172
0000d0 86 f7 cf 3d 73 02 c8 3d d1 16 61 bd 53 fd 05 3e
       0.10154633 0.09766092 -0.0549534 0.13084917
0000e0 01 41 59 3c c7 1e c0 3d 14 b4 e1 3b 33 32 4e 3b
       0.013260127 0.0938087 0.006887922 0.0031463027
0000f0 e3 03 95 3e 4a 77 df bb 61 f6 4b bd 79 20 83 bd
       0.29104528 -0.0068196403 -0.049795512 -0.06402678
000100 81 a6 35 bd 67 ee 21 be f9 31 33 3e d6 f8 9c bd
       -0.044348244 -0.158136 0.17499532 -0.07664649
000110 43 fc 0f 3e 28 cb db bd e2 0f da 3d 2f a0 05 3d
       0.14061074 -0.10732108 0.10647561 0.032623466
000120 d1 5d 9a 3e a0 81 31 be bd a0 13 3e 8c 58 9d bd
       0.301497 -0.17334604 0.14416786 -0.076829046
000130 62 2b 95 3c 87 24 b0 3e f3 a1 b3 3d ae e3 b5 3d
       0.018209163 0.34402868 0.08771124 0.08881317
000140 a0 2c a3 be 08 01 0e be 7d 43 1a 3e e5 b8 ae bd
       -0.31869984 -0.13867581 0.15064807 -0.085313596
000150 be 9d 20 3e 84 c0 92 3d b6 c5 15 be c0 96 3d bd
       0.15685174 0.07165626 -0.14626202 -0.046286345
000160 6e 07 2d be 60 74 c5 3d 55 c1 88 be db a7 0e 3d
       -0.16897365 0.096413374 -0.2671 0.03482805
000170 2c 1b 49 3c 4c 40 c0 3d 34 55 81 3e f8 85 c4 3c
       0.012274545 0.09387264 0.25260317 0.023989663
000180 0c 89 4b bb a8 12 05 3e ca 6f 45 be 6b 3d 4b be
       -0.0031057028 0.12995398 -0.19280925 -0.19847648
000190 6a 5f 1d bd 30 4a 56 3e 55 27 4c be b6 4d 0c bd
       -0.038421072 0.20926738 -0.19936879 -0.0342538
0001a0 4d 6e 64 be 07 22 69 bd 39 ae 80 3e 25 04 9f bd
       -0.22307701 -0.056917217 0.2513292 -0.077644624
0001b0 b8 d5 f1 3d 84 d4 28 3e 8c 38 67 be af 7c fe bd
       0.11808342 0.16487318 -0.22580165 -0.12426125
0001c0 39 d5 1d be a3 43 53 bd 64 2a b9 bd 23 53 6e bc
       -0.15413369 -0.051578175 -0.090412885 -0.0145461885
0001d0 6a 98 45 3c bc f8 c2 3d dc dc 2c be 38 bc 73 3d
       0.012060264 0.095200986 -0.16881126 0.05950567
0001e0 72 43 68 3e 30 8a 8e bd df 37 99 3c 62 95 f5 3d
       0.22681978 -0.06959951 0.0187034 0.11991383
0001f0 a5 58 88 3e e4 57 25 3d b4 da d1 bd c1 36 63 be
       0.2663013 0.040367022 -0.102467924 -0.22188856
000200 b2 d1 45 3e 45 ff fa 3d 04 70 1e bc d3 07 15 be
       0.19318274 0.1225572 -0.009670261 -0.14553766
000210 9a 59 2d ba cc 6d 04 be 6b e5 e7 bd 8b 40 2f be
       -0.0006612778 -0.12932509 -0.11323055 -0.17114465
000220 fa 2a 6a bd 46 0c 97 3d b4 f5 85 3e 87 27 c4 bd
       -0.057169892 0.07375388 0.2616402 -0.09577852
000230 d5 7f 88 3e 31 db 08 bd 13 61 c3 3e a3 19 a7 bc
       0.26660028 -0.033412162 0.3816 -0.020397967
000240 22 fb de 3e e7 7e 0f 3e c8 94 0d be 07 41 93 3e
       0.43550974 0.14013253 -0.13826287 0.2876055
000250 77 ae 81 3e 2c f3 37 3e ef 80 50 be 07 c7 75 3d
       0.2532842 0.17963856 -0.20361684 0.06000426
000260 75 45 3b be 70 be ed bd 23 83 17 3f fd aa d2 3d
       -0.18288215 -0.11608589 0.59184474 0.1028652
000270 c5 6a 2a bd d4 53 35 be 76 3d 12 be 63 8f cc 3d
       -0.04160573 -0.17707759 -0.14281258 0.09988286
000280 0c 81 af 3d a9 c8 24 bd b9 ad 61 be 9b 2e 6d 3d
       0.085695356 -0.040230427 -0.22038926 0.057905775
000290 2f 4d 53 3e cb c3 16 3e dc d6 03 3e 9c cc e0 3d
       0.20634912 0.14723127 0.12874931 0.10976526
0002a0 84 65 c5 bd 73 2a 55 bd 4e a9 0c be 96 75 d4 3c
       -0.09638503 -0.052042436 -0.1373646 0.025934976
0002b0 43 8e 2f bb af 26 28 be 3b 2f bd 3e 4b 65 e0 3d
       -0.0026787675 -0.16421007 0.36950096 0.1095682
0002c0 fa 8d 9c 3e c3 73 6e 3d 7f 3d 32 3d eb 35 2e 3e
       0.3057707 0.058215868 0.04351568 0.17012756
0002d0 18 80 53 be 68 32 22 3c fd c0 c1 3d 9e 16 b6 bd
       -0.20654333 0.009899713 0.09460638 -0.08891033
0002e0 ac 02 9b 3e bf cb c5 3d b0 3d 9f 3d 90 ef 3d 3e
       0.30275476 0.09658002 0.07775438 0.18548417
0002f0 1d 05 dd 3e a3 60 99 3d 5c 67 a2 3c 6a 6f b0 bd
       0.43167964 0.07489135 0.019824676 -0.086150005
000300 ce 21 74 bd 97 93 64 bd 1a 22 4d 3e ba f2 7f 3d
       -0.05960255 -0.055804815 0.2003254 0.06248734
000310 e5 9e 04 3e ae 6f 59 be 39 a0 48 3d f6 22 31 bd
       0.12951238 -0.21234009 0.048980925 -0.043246232
000320 79 be 64 3c ad 86 5b be 0a fb fa 3d 4d 8a 10 3d
       0.013961428 -0.21438093 0.12254913 0.035288144
000330 46 13 64 3d 91 7d d2 3d 10 5c 0a be 85 73 dc bc
       0.055682443 0.10277856 -0.13511682 -0.026910553
000340 98 1b 82 be 35 cd 9a bc a2 78 9e 3a 12 0f 49 be
       -0.25411677 -0.018896678 0.0012090395 -0.19634655
000350 ef 6e 5e 3e 26 4e a1 3d 68 2b cd 3d bb e7 80 bd
       0.21722005 0.07876234 0.10018045 -0.06294199
000360 6a d6 bc 3d 01 0b ab 3d 90 03 9a be 30 c3 61 3d
       0.09220584 0.08351708 -0.30080843 0.055117786
000370 ed f7 8e bd e6 3a 40 3e 44 d3 ce 3c 8e fb 20 3e
       -0.06980882 0.18772468 0.025247224 0.1572096
000380 e8 f7 c9 bd 3b 57 88 3d 51 8b 9b be f6 06 7e be
       -0.098617375 0.06657263 -0.30379727 -0.24807343
000390 65 e8 42 be eb 0c 6d bc df 3a a2 3c 27 86 b9 3d
       -0.19033964 -0.014468412 0.019803463 0.09058791
0003a0 38 4e 25 3d d0 28 5b bc 23 15 fb 3b fc 11 8d bd
       0.0403578 -0.01337643 0.007662432 -0.06888196
0003b0 50 da 0a 3e c7 a6 0b 3e c8 06 8c be 31 9c db bd
       0.13559842 0.1363784 -0.27348924 -0.107231505
0003c0 f4 9a 83 3e dc 02 b7 3d 88 fb 96 be 41 58 75 bd
       0.25704157 0.08936092 -0.29488778 -0.05989862
0003d0 60 74 a9 bc ca b5 85 bd 09 1f f2 bb a2 c7 50 3e
       -0.020685375 -0.06528814 -0.0073889536 0.20388654
0003e0 6e 38 1e bb d4 ae 7f bc 79 01 9c 3d 4e 51 de bd
       -0.0024142521 -0.015605647 0.076174684 -0.108553514
0003f0 c0 8c 73 3e ae 6c 11 3e 03 fa e9 bc a4 a9 99 be
       0.2378416 0.14201614 -0.028561598 -0.30012238

weight_hh_l0 f4 [128, 32]
000000 5c 32 07 be 88 af c1 bd 1b cf 43 be ac 87 a0 3e
       -0.13202804 -0.09457308 -0.19121973 0.3135351
000010 52 ee e2 3d 8c 87 f9 3e fd 96 19 3e d3 91 a5 bd
       0.11080612 0.48736227 0.14999004 -0.080844544
000020 b0 2b 5d bc 59 4a c6 bc 9b 88 80 3e c7 ea e0 bc
       -0.013499185 -0.024205374 0.25104222 -0.0274557
000030 39 66 bc 3d 64 7e da 3d 00 99 62 be d3 f8 29 3e
       0.09199185 0.10668638 -0.22128677 0.16598825
000040 d2 15 87 3e 88 76 1f be 94 fb dc 3d db 1c 21 3e
       0.26383835 -0.1557256 0.10790172 0.15733664
000050 07 a4 7f 3d 34 5f f0 3d b3 b4 08 be 51 20 5a be
       0.062412288 0.117369086 -0.13350181 -0.2130139
000060 05 4e 66 3e 77 73 49 bd 3b 99 d1 bd 90 89 09 3e
       0.224907 -0.04918238 -0.102343045 0.13431382
000070 37 4a 9b 3e 0d 1a 67 bd 71 a8 44 3d 0f 69 ac 3e
       0.3033006 -0.05642133 0.0480122 0.33673903
000080 fa 09 34 3d 54 ea 81 bd d0 6c 49 3e bf 08 fb 3d
       0.043954827 -0.06343523 0.19670415 0.122575276
000090 e5 1b 4f be 5f 23 99 3d b8 b4 e3 bd 4f 79 77 bd
       -0.20225485 0.074774496 -0.11118454 -0.060418423
0000a0 cd c3 30 be de 3d f6 bd 89 38 37 be dc ae 91 be
       -0.17262192 -0.12023519 -0.1789266 -0.2845372
0000b0 c2 60 7b 3c 95 28 bd 3d 31 0a 53 be 6d fb bf 3d
       0.015342893 0.09236256 -0.20609356 0.093741275
0000c0 b6 42 cd 3c 7e 3c 14 be 9d c3 57 3e ba 0b 5f 3e
       0.025056224 -0.14476201 0.21070714 0.21781817
0000d0 b6 b7 8e 3e 34 ca 02 be ed db af 3d e0 13 cd 3d
       0.27874535 -0.12772447 0.085868694 0.100135565
0000e0 a7 4a 13 3e 04 cd 6b be dd 7f c4 bc 02 67 b3 be
       0.14383946 -0.23027426 -0.023986751 -0.35039526
0000f0 98 c3 e4 bd 35 5e 0f 3d 34 22 2b 3d 4d 50 0b 3e
       -0.11170119 0.035001952 0.041780666 0.13604851
000100 d6 fe 0c bd 62 a8 a1 bd d6 f3 ae 3d 03 03 16 3d
       -0.034422718 -0.078934446 0.08542602 0.036623966
000110 0b c6 45 be 9e 46 f8 bd f4 86 7a bd 07 46 07 be
       -0.19313829 -0.12122844 -0.061163858 -0.13210307
000120 a1 de 86 be cf 1c 89 be 6c 06 f4 bd 17 23 ea bd
       -0.26341727 -0.26779792 -0.119152874 -0.11432474
000130 f8 a2 45 bd 70 6c 15 3e 63 9b c8 bd a7 db ab 3d
       -0.048251122 0.14592147 -0.09795263 0.08391505
000140 13 43 68 bc 55 28 12 bd e9 ad a9 bd 27 43 0c be
       -0.014176148 -0.035682995 -0.08285124 -0.13697492
000150 d4 88 c0 bd d0 0d 37 3d 32 cf 88 be 8c 1b 25 3d
       -0.09401098 0.044690907 -0.26720577 0.040309474
000160 8c fa 21 bd 79 bd 68 be f4 df a0 bd 2b 28 34 be
       -0.03954558 -0.22728528 -0.07855216 -0.17593448
000170 5f 66 32 be e1 2b 0e 3e fc 36 be 3d ef d8 07 3b
       -0.17421864 0.13883926 0.09287831 0.0020728668
000180 8e 37 e1 3d 84 ae 9a bc 2d 57 5c 3e cd 45 e4 3c
       0.10996924 -0.018882044 0.2151763 0.027865315
000190 fd ac a7 bd cd ff 3f bb 40 63 fe bb a6 f1 76 bd
       -0.08187292 -0.0029296756 -0.0077632964 -0.060289048
0001a0 ea ff cd bc 82 d6 21 3d 3d 31 1f be 25 18 b0 bd
       -0.025146443 0.03951121 -0.15546127 -0.08598355
0001b0 31 3b 69 bd e7 22 68 be 07 68 3b be d6 93 f3 bd
       -0.056941215 -0.22669564 -0.18301402 -0.11893432
0001c0 50 5c 7a be 1b 56 27 be 65 bc 49 be 5f 4f 11 be
       -0.24449277 -0.1634144 -0.19700773 -0.14190434
0001d0 42 ee de 3d 7c 3a 10 3e 9a 7c 62 bd d8 bd 9b bc
       0.10885288 0.1408481 -0.05529461 -0.019011423
0001e0 a0 6a ab bd d6 a2 bb 3c d7 b7 b8 bc fd 61 67 bd
       -0.083699465 0.022904795 -0.0225486 -0.056489933
0001f0 6c d9 2f be e6 de 03 be f1 c6 82 3d f3 f1 88 3d
       -0.17172784 -0.12877998 0.06385601 0.06686773
000200 2a 18 5b 3d 6d f0 0a 3e 88 62 0c 3e 8d 89 a1 bd
       0.05348984 0.13568278 0.13709462 -0.07887564
000210 a1 77 d8 3c f7 f9 f0 3b cd 9d 80 3d 14 9a 52 be
       0.026424231 0.007354017 0.06280098 -0.20566589
000220 9b 46 f5 3d 57 77 d5 3d f2 12 0e be bd 20 f8 bd
       0.119763575 0.10423153 -0.13874415 -0.12115619
000230 3b 3e a6 3c 2c 59 11 3e fe e5 e9 bd 59 a6 b4 ba
       0.020293346 0.14194173 -0.11420821 -0.0013782486
000240 18 7f 8b be 82 91 af 3d 43 66 12 3e 63 ee ec 3c
       -0.27245402 0.08572675 0.14296822 0.028922265
000250 0e 6b 0e 3e d4 22 d8 3d fe 86 55 3d 8d 99 a3 be
       0.13908026 0.10553518 0.05213069 -0.31953087
000260 44 68 ae bc b2 41 e4 3d bf c1 fa bd 6d d8 01 bd
       -0.021289952 0.11145343 -0.122439854 -0.03170054
000270 81 34 23 be 77 ff 2d 3e db 4a 22 3e 8e cd 2d bc
       -0.15937997 0.16991983 0.15848868 -0.01060809
000280 17 1f ab 3c 2c 16 2e be bc 7a 69 bc 9a cf 16 be
       0.020888848 -0.17000645 -0.014250454 -0.14727631
000290 b1 42 82 be ce 8d 3c 3e eb 42 08 be 00 32 97 3e
       -0.25441507 0.18413469 -0.13306777 0.29530334
0002a0 dd 50 56 3e 47 65 73 be 28 f1 09 be f4 dc 21 bd
       0.20929284 -0.23769103 -0.134709 -0.039517358
0002b0 1c ee a3 bd c3 05 9c 3d bd 9c da 3c 1c 5c 10 be
       -0.080044 0.076182865 0.026686067 -0.14097637
0002c0 ba e2 09 be 22 c2 ef bd 82 b8 ba bd ae c7 72 3e
       -0.13465396 -0.1170695 -0.09117223 0.23708984
0002d0 08 6f 22 be f3 69 da bd 75 cf a2 bd b2 4e 9a 3e
       -0.15862668 -0.106647395 -0.079497255 0.30138165
0002e0 9c 2c dc 3d 42 75 89 3d 5c 7b 42 3d 2e 72 cf 3d
       0.10750696 0.06711818 0.047480926 0.101292
0002f0 38 be a7 3c b8 68 91 be 5d 1d 70 3e 5a 12 17 3d
       0.020476446 -0.28400207 0.23448701 0.036882736
000300 40 aa 39 3d b1 48 93 bc ce 1e 07 3e ee 1c 35 bd
       0.04532838 -0.017978998 0.13195345 -0.044217043
000310 29 a0 9c 3d e3 b0 3a be 9a 1c 07 be ea ce 8c 3d
       0.076477356 -0.1823154 -0.13194504 0.06875403
000320 4b 9f 1c 3e 47 76 3c be 60 a2 46 bd 0a 7b de bd
       0.1529514 -0.18404494 -0.048494697 -0.108633116
000330 75 ce f1 bd 8d b5 dd 3e ff 4f cc be 5e fc 8e be
       -0.11806957 0.43302575 -0.39904782 -0.27926916
000340 69 16 61 bc fb 37 5d be a2 6d 2e 3e 01 73 9a bd
       -0.013738253 -0.21603386 0.17034009 -0.075414665
000350 d8 10 88 3e 62 b2 0c 3d 31 f8 4a be 30 3c 40 3e
       0.2657535 0.034349807 -0.1982124 0.1877296
000360 bf fb 3e 3e d1 a0 09 be bc fb 0f bd 4e 0e 04 3e
       0.18650721 -0.13440253 -0.035152182 0.12896082
000370 83 2c 83 3e 89 78 0e be 13 43 f5 bc 65 ad 3b 3e
       0.25619897 -0.13913168 -0.02993921 0.18327864
000380 34 e6 b5 3c 4d 3c b2 3d 20 2f 91 3c 37 97 15 bc
       0.022204496 0.08702908 0.017722666 -0.009130291
000390 87 50 ba 3d cd 78 b4 be fc 92 a6 3c 29 a5 06 3d
       0.090973906 -0.35248414 0.02033376 0.032872353
0003a0 21 33 a8 bd 66 9a 02 be 27 9b 63 be 4f 2a 69 3e
       -0.08212877 -0.12754211 -0.22227155 0.22770046
0003b0 3b 92 ab 3e b8 23 12 be 98 a6 2c 3e 5d 3e d7 bb
       0.33510002 -0.14271438 0.16860425 -0.0065687136
0003c0 eb 4a 5f bd dc 13 5d bd 5d af a6 bd 44 1d 5f bd
       -0.054514807 -0.053974018 -0.08138917 -0.05447127
0003d0 d1 64 7b bc f4 e3 a8 3b 5d 70 40 bd 5a be 14 be
       -0.015343861 0.0051541273 -0.046982158 -0.14525738
0003e0 39 67 f8 bd 84 4e 9e 3d 7f 79 0b 3e c2 7b ee 3d
       -0.12129063 0.077298194 0.13620566 0.11644699
0003f0 cb c3 89 be 80 97 19 bd 15 e3 80 bd 7e 6a 0e 3e
       -0.2690719 -0.037497997 -0.062933125 0.13907811

bias_ih_l0 f4 [128]
000000 fb a6 dd bd 5a fe 0b be c9 ac 50 bc 51 d4 56 3d
       -0.108228646 -0.13671246 -0.012736508 0.052448574
000010 21 7c 17 bc df b2 9f 3d 01 2a c8 3d 1a 88 9f bd
       -0.009245903 0.07797789 0.097736366 -0.07789631
000020 28 a3 24 bd 05 26 c2 3c f9 58 21 be 32 95 37 be
       -0.04019466 0.02369977 -0.15756597 -0.17928007
000030 78 b7 3e 39 ff df 23 3e 73 46 10 be 88 48 3a bd
       0.0001818816 0.16003416 -0.14089374 -0.045479327
000040 08 56 2b bc 9b 87 d3 3d eb d8 ac 3d 8c 8d 06 be
       -0.010457523 0.10328599 0.08439811 -0.13139933
000050 02 92 7b 3d 2c 68 6c bd 63 7e 30 be 45 17 2d bd
       0.06141854 -0.057716534 -0.17235713 -0.04225852
000060 ea d7 a8 3c ed a2 bd bb 14 b2 a7 3c 81 5b 17 bd
       0.020610768 -0.0057872445 0.020470656 -0.0369525
000070 ab 58 d3 3d b6 e7 a3 3d f3 ff 00 3e 1c c0 62 bd
       0.103196464 0.0800318 0.12597637 -0.05535899
000080 a9 b0 19 3e e1 66 eb bd 92 3a 08 be 9c f5 c8 bd
       0.15008797 -0.11494232 -0.13303593 -0.09812471
000090 85 db a5 3c 55 cc cf 3d b3 a2 b7 3d 49 94 85 3e
       0.020246277 0.10146395 0.08966579 0.26089695
0000a0 f7 81 3c 3e 57 0e 2e 3e 2d e8 8c 3d 2e a7 1d 3e
       0.18408953 0.16997658 0.068802215 0.15395805
0000b0 99 47 6d bc 91 38 75 3e e0 60 69 3d a0 f5 ab bd
       -0.014482402 0.2394736 0.056977153 -0.083964586
0000c0 48 a1 e0 bd ca 21 3f 3e db 80 78 3e 1b 7c 2e 3e
       -0.10968262 0.18665233 0.24267904 0.1703953
0000d0 1d d1 80 3d 05 8c 29 3e 37 8c cd bd a5 35 d7 3d
       0.06289885 0.1655732 -0.100365095 0.10508279
0000e0 79 80 1b bd d3 d0 b7 3d d2 21 ee 3c 39 13 84 3e
       -0.037964318 0.08975377 0.029068861 0.25795916
0000f0 b1 0f 09 be fc d5 58 3d 8e 8d 28 3c c9 99 6c bd
       -0.13384892 0.052938446 0.0102876555 -0.05776385
000100 35 1a 73 be 39 f9 08 bc ef 8e 11 3e 1b ce 1f be
       -0.23740466 -0.008360201 0.14214681 -0.15605967
000110 df 10 91 3d ee 9d 00 bd 5e ec 2b 3d 7a 99 66 3d
       0.07083296 -0.031400613 0.041973464 0.05629871
000120 6c 89 2f 3e dd 04 2f bc ab ca af 3d fc f8 66 3d
       0.17142266 -0.010682312 0.08583578 0.056389794
000130 bf 3d cc 3d 89 6c b4 3b bf 1a b0 3d 0e 28 2c be
       0.09972715 0.0055061025 0.085988514 -0.16812155
000140 5d 3d e7 bd 4b 5c 84 bd 9d 23 4f 3e c2 da 27 be
       -0.11291001 -0.06462916 0.20228429 -0.16392043
000150 a9 86 fb bb 87 10 75 be 1d 2b b7 bd d0 c4 99 3e
       -0.007675965 -0.23932086 -0.0894377 0.3003297
000160 40 ba 60 be 8c a6 42 bd 14 24 4f 3d 34 96 02 3d
       -0.21946049 -0.047522113 0.050571516 0.031881526
000170 b3 ac 34 be 28 4b 75 bd f2 20 46 be 7c 79 69 3d
       -0.17644005 -0.059886128 -0.19348505 0.057000622
000180 56 24 68 bc 66 7a 41 3e d8 cf ef 3d c3 6b d7 3d
       -0.014168819 0.18894348 0.11709565 0.10518601
000190 cc 49 6d 3e a8 15 79 3e 32 dc b4 3e 2a 25 d4 3d
       0.23172683 0.24324667 0.35324246 0.10358651
0001a0 b5 ca 1e bc e9 a0 64 3e 97 36 c7 3c dc 31 ed bd
       -0.009691884 0.22327007 0.024318023 -0.115817755
0001b0 2f c0 89 bc 05 e5 81 3e cd 68 19 3e 60 db b5 3d
       -0.016815273 0.2537004 0.14981385 0.08879733
0001c0 56 89 c6 3d 6b c7 93 bd 7e b4 4e 3e cd 87 df 3d
       0.096941635 -0.0721577 0.2018604 0.10914574
0001d0 cf a7 3f bc 99 eb 4a 3e db f5 de bc e6 95 ff bc
       -0.0116977235 0.19816436 -0.027216842 -0.031199407
0001e0 d9 9d 76 3e d6 71 35 3d d9 5d 54 3e 22 17 51 3c
       0.24083652 0.044298016 0.20738925 0.012761863
0001f0 c5 16 42 bd 4d bc 59 3d 05 79 37 3e c3 c9 8d 3c
       -0.047384996 0.053158093 0.17917259 0.017308122

bias_hh_l0 f4 [128]
000000 9e 6b f7 3d a0 71 fb 3d 71 0f a9 bd 4c 8e ee bd
       0.12081073 0.122775316 -0.08254898 -0.11648235
000010 ef a5 ad 3d 39 a2 29 3e 67 74 18 be 23 88 d6 3c
       0.08478915 0.1656579 -0.14888154 0.026187962
000020 61 a0 1d 3d ed 42 c4 3d 4a 86 42 3d c9 72 f1 3c
       0.038483027 0.095830776 0.04749135 0.02947368
000030 ee a2 3d 3a 1f 62 2d 3e b7 05 b5 3d c9 5b b7 3b
       0.0007234056 0.16931961 0.08838981 0.0055956584
000040 02 ec 7b bd 66 f2 c5 3c b2 7a bf bb ed 97 34 be
       -0.06150437 0.024163436 -0.005843484 -0.1763608
000050 84 28 88 3d 51 d6 53 3d 53 e9 f9 3d f9 06 ed bd
       0.06648353 0.05171806 0.12202706 -0.115735956
000060 a4 eb b0 bd 08 29 b6 bd fd 77 7a bc 8b 52 08 be
       -0.08638695 -0.08894545 -0.0152873965 -0.13312738
000070 0c 23 04 3e 3c 7c d5 3d 39 1d 73 bc 9b 2b d8 bc
       0.12903994 0.104240865 -0.01483851 -0.02638798
000080 e5 15 82 3c ff 3b d9 3d 84 4a 15 bc c4 e0 cd 3b
       0.01587958 0.106071465 -0.009112004 0.0062828977
000090 37 27 fb 3c a0 f1 85 bd 5f f9 08 bd 17 2c ee bc
       0.030658348 -0.06540227 -0.033440944 -0.029073758
0000a0 a3 d4 9e bd e0 d9 0e bc f0 49 4d bc a0 70 45 3d
       -0.07755401 -0.008718938 -0.012529835 0.04820311
0000b0 02 2f 05 3e 52 50 81 3e f3 b4 cb bd f8 ad 21 be
       0.13006213 0.25256592 -0.09946623 -0.1578902
0000c0 55 eb 2c bd 25 6a 96 bd 14 0a c8 3d 66 87 89 bc
       -0.042216618 -0.07344464 0.09767547 -0.016788196
0000d0 fa 87 62 3d 58 a5 b5 3d df 27 36 3d a9 0b 2e bd
       0.05530546 0.088694274 0.044471618 -0.04249159
0000e0 5d a9 5d bc c1 e3 09 3e 61 99 76 bd a1 c2 1f 3d
       -0.013529149 0.13465787 -0.060204867 0.039003972
0000f0 f6 4c 84 3d a4 ad 0e be ff bd df bd 28 19 f4 3d
       0.06459992 -0.13933426 -0.10924911 0.11918861
000100 9e 0b 6e bd e2 fd 1c 3c a6 bb 3e bd f2 a8 fb bd
       -0.058116548 0.009582015 -0.046565674 -0.12288083
000110 f5 ca 13 3e 4f 3f 6e be 6f 1e 26 be 20 db 63 3d
       0.1443289 -0.23266338 -0.16222547 0.055628896
000120 eb e6 b6 bd 38 10 59 3e c0 3e 30 3c b6 a5 27 3e
       -0.08930763 0.21197593 0.010757148 0.16371807
000130 22 47 79 3d ee 89 a0 3d 05 35 81 3d 5d 49 7b bd
       0.060858853 0.07838808 0.06308941 -0.06134926
000140 46 af c4 bc 38 35 da 3d b7 b8 a5 bd c7 e7 86 bd
       -0.024009358 0.10654682 -0.08091872 -0.06587177
000150 63 ee 20 3d 44 60 4a be 08 a2 2c 3d e7 aa 71 3e
       0.039289843 -0.19763285 0.042146713 0.2360035
000160 ce 08 1f be 03 37 33 3e a9 50 1d be ee ae 44 3d
       -0.15530702 0.17501454 -0.153628 0.04801839
000170 d2 7b a6 be e5 d0 c9 bd 47 32 01 3d 1b 03 fb bd
       -0.32516342 -0.098542966 0.03154209 -0.12256452
000180 23 1c 80 3e a1 df 28 3e 44 2d 87 3c ab ff 24 be
       0.25021467 0.16491558 0.016501077 -0.16113155
000190 be cd 6f 3d 71 4c 83 3e 67 81 8e 3e 0c 91 35 3e
       0.05854582 0.25644258 0.278331 0.17731112
0001a0 97 ba 08 3d d3 a8 71 3e f2 75 f9 bc e1 a7 c2 bd
       0.03338107 0.23599558 -0.030451749 -0.095046766
0001b0 63 60 12 bc 9c 22 e7 3d 00 bb 5c 3e c1 75 43 3e
       -0.008934113 0.11285898 0.2155571 0.19087888
0001c0 70 ea 7a 3e 94 a5 61 bc 3b 9a a4 bc 8f 67 c1 3d
       0.24503493 -0.013772387 -0.020093074 0.0944358
0001d0 6a 76 ec bc 1b 9b 03 3c 95 c9 bf 3d 66 db 82 3e
       -0.028865058 0.0080325855 0.093646206 0.25558013
0001e0 81 19 ed 3d 7f 36 2e 3e ed 1d 8c bb bf ea 4a 3e
       0.1157713 0.17012976 -0.0042760284 0.19816111
0001f0 6d 9b 69 3e fd 79 f6 3d 88 fa d4 3d 3d f9 a7 3d
       0.22813196 0.12034986 0.103993475 0.08201835

weight_ih_l0_reverse f4 [128, 2]
000000 49 e5 bf bd bf 3d f6 bd 5d fd d4 3e 99 c0 35 3e
       -0.093699045 -0.12023496 0.4159955 0.17749251
000010 8d 0a ba bd 47 ae 06 bf 7f c8 43 3e c4 4c 04 bf
       -0.09084044 -0.52609676 0.19119452 -0.51679635
000020 0f f8 9f be 31 53 ea be 41 69 48 3e df 60 37 bf
       -0.3124394 -0.45766595 0.19571401 -0.7163219
000030 bb c8 b3 bd 6a fe a5 3e 0f 63 cf 3d 71 8a ae be
       -0.08778521 0.32420665 0.10126316 -0.34089997
000040 05 56 28 be 62 8a 29 bf ed ac 15 be cb ab ae 3e
       -0.16439064 -0.6622678 -0.14616747 0.34115443
000050 31 98 c3 be a9 b0 ad 3e 15 95 0c 3f 92 85 82 bd
       -0.3820205 0.33923844 0.5491498 -0.06373133
000060 8c 85 70 be 42 c3 5d be fa 40 4d be 3e ed 77 be
       -0.23488444 -0.21656516 -0.20044318 -0.24211594
000070 34 ed 2b 3e 35 53 55 3d 0f 5c 1f 3f 1b 5d b1 3e
       0.16789705 0.052081306 0.62249845 0.34641346
000080 7e ca e6 bd 34 2b 51 be 95 cc bd bd 03 66 22 3e
       -0.11269091 -0.20426637 -0.092675366 0.15859227
000090 41 bd f7 bd ad c2 43 be 69 21 5d be 8c b4 c6 3e
       -0.12096644 -0.19117232 -0.21594776 0.3880962
0000a0 8e b0 9a be 64 b3 5e 3e 9f 16 52 be 7c 27 0c 3f
       -0.30212826 0.2174812 -0.20516442 0.5474775
0000b0 00 60 69 bf e7 1c 3c 3e 95 99 aa 3e bc ab 08 be
       -0.9116211 0.183704 0.333203 -0.13346761
0000c0 27 c6 88 be 65 a4 b9 3e 70 a5 40 bf 33 26 b6 be
       -0.26713678 0.36258236 -0.7525244 -0.3557602
0000d0 2a db 68 3d f0 17 77 3e 16 98 d0 be 84 b9 7c 3e
       0.056849636 0.24130225 -0.40741032 0.24680144
0000e0 8f b1 81 3e 46 e4 ba 3d 9f 8b c5 bd 19 35 5d 3e
       0.2533078 0.09125571 -0.09645771 0.21602286
0000f0 8c 53 f2 3c 06 0b d1 3d 10 72 78 3e d6 d0 ea be
       0.029580854 0.10207181 0.24262261 -0.45862454
000100 da fe 96 be ff e4 fa 3c 4f 6d bf 3e 8e a5 84 bd
       -0.2949131 0.030626772 0.37388083 -0.064768896
000110 6d 4f 60 bd 19 5e aa be 5a 1c 0d 3d 82 ba d1 be
       -0.054763246 -0.33274916 0.034450866 -0.40962607
000120 41 4d 61 be f4 5d 10 be 0e 38 9a 3e 97 19 97 be
       -0.22002126 -0.1409834 0.3012089 -0.2951171
000130 4a 51 60 be 14 ed 0a 3f 40 e3 43 3e 2f 79 3d be
       -0.2190601 0.54268 0.19129658 -0.18503259
000140 1b 1b 91 3d 5d 04 31 be c6 a7 0f 3e 69 0a 91 bd
       0.07085248 -0.1728682 0.14028844 -0.07082064
000150 f8 65 ac 3d d7 fe 28 bd d4 9d 6b 3e 3e c8 5f bb
       0.084178865 -0.04125866 0.23009425 -0.0034146453
000160 32 ec 5e bc 1c 5d 4c 3d 57 0f 0a 3d ff f6 a3 bd
       -0.013606118 0.049893484 0.033706035 -0.08006095
000170 07 8b 6a 3d bf df e8 bd 1c bf 6f 3e 23 4c 62 3e
       0.057261493 -0.11370801 0.23412746 0.22099356
000180 1a 65 64 bd e4 68 97 be bc 6c 6e bc de 2b 78 3e
       -0.05576048 -0.29572213 -0.0145522915 0.24235484
000190 c6 05 56 bd 7b de 99 bd f3 5a 08 be 56 f0 22 3e
       -0.0522516 -0.07513138 -0.13315944 0.15911993
0001a0 7a 64 4f be 63 47 4c 3e 2c e9 46 be f7 29 a4 3e
       -0.20253173 0.19949107 -0.19424886 0.32063267
0001b0 81 78 1b be 41 e7 ea bc 91 90 96 bd 67 34 51 be
       -0.15182687 -0.028674724 -0.073517926 -0.20430146
0001c0 98 63 81 bc 71 fc 65 3d 58 2f a0 be f3 43 a0 be
       -0.01579456 0.05614895 -0.3128612 -0.3130184
0001d0 3b 38 81 3d a3 46 78 3e c7 4e b7 bd 72 6d e7 3d
       0.06309553 0.24245696 -0.089505725 0.11300172
0001e0 0c b2 3b be 00 f1 11 3e d8 0c e7 3d 5d 8f cd 3d
       -0.18329638 0.1425209 0.112817466 0.1003711
0001f0 84 63 a6 3d 88 13 af 3d 38 a7 29 3e 4c a6 eb be
       0.0812445 0.08548647 0.16567695 -0.46025312
000200 da 30 15 be 26 db eb be f8 ae 39 bd f7 01 c1 3e
       -0.14569417 -0.46065634 -0.04533288 0.37696812
000210 bb 84 7e 3d 8f ab 58 3e 2e b2 98 bd 18 dd b4 be
       0.0621383 0.21159194 -0.0745586 -0.3532493
000220 43 62 dc 3e ba de 34 3f 92 a7 10 3f 2a 88 b8 be
       0.43043718 0.70652354 0.5650569 -0.36041385
000230 53 5e 30 3d ea 11 0e be 2e a8 43 bf 4c 2d 38 3f
       0.043058705 -0.13874021 -0.76428497 0.7194412
000240 61 cd 0b be 99 9d 81 be db b9 97 be c5 eb 3f 3f
       -0.13652565 -0.2531555 -0.29633984 0.7496913
000250 0b 87 d6 3d 9d 49 00 3e 6f 0c 56 3f f8 a9 27 bd
       0.10474976 0.12528081 0.8361272 -0.04093358
000260 b1 7e 39 3e 94 9f 80 3c 09 fd d4 3d d9 28 80 3e
       0.18114735 0.015701093 0.10399825 0.25031164
000270 3b 4d 7e 3d 6a 16 d8 be b6 96 30 3f 9f b7 1c 3f
       0.06208537 -0.422046 0.68979967 0.61217684
000280 5d ee b4 3d 8f b3 96 3c 74 04 16 3e 02 02 6e 3e
       0.08834527 0.018396167 0.14650136 0.23242953
000290 7a 8b f6 bb 9a b5 cd be 46 42 05 bf 4c fb c1 3e
       -0.007523951 -0.40177613 -0.5205425 0.37887037
0002a0 6b 5c ac be 17 4c ab 3d 28 e4 0c 3e cf ca bd be
       -0.3366426 0.08364122 0.1375891 -0.37068793
0002b0 8b 41 22 bf f8 ee 56 3d b5 86 b9 bc 1d 87 9a 3e
       -0.6338126 0.052473992 -0.022647241 0.30181208
0002c0 c5 b8 a1 be de 68 2f 3f 7f f2 22 3f 1f 43 06 3f
       -0.3158628 0.6851939 0.6365127 0.5244617
0002d0 28 93 ca bc 7c 80 66 bf 0b 0e 33 3a 3a 79 55 be
       -0.024728373 -0.900398 0.00068304007 -0.20847026
0002e0 9f 3c e8 be e3 45 0d 3e 33 c4 9d 3e 01 c0 22 bb
       -0.4535875 0.13796191 0.3081375 -0.0024833682
0002f0 9e 80 f2 3d 28 a7 5b be 30 8b 82 3e 10 b2 8a be
       0.11840938 -0.21450484 0.25496817 -0.27088976
000300 e8 f6 0c 3e 5f fe 9c bd cd ba b3 3e 7a e5 ab bc
       0.13766062 -0.07665705 0.35103455 -0.020983446
000310 8e 8d eb bd da 6e 0a bf 63 64 3b be e0 3b 94 be
       -0.11501609 -0.54075396 -0.18300013 -0.2895193
000320 5d d4 4d be b6 15 29 be f3 b5 93 3e be a5 84 be
       -0.20100541 -0.16512188 0.28849754 -0.259077
000330 af 61 a0 be 98 5a 9d 3e 39 ef 59 3e bd e7 b1 be
       -0.31324527 0.3073318 0.21282662 -0.34747115
000340 bc 60 64 be ea fc dd be 89 ac 8a bd b5 a7 96 3d
       -0.22302526 -0.4335702 -0.0677119 0.07356206
000350 b3 ca fa bb 9b c0 2e bc 6f e6 08 3f 77 12 05 3e
       -0.007653558 -0.010666038 0.53476614 0.12995325
000360 af 6c 57 3c fd d8 69 be 36 89 89 be e5 59 ac bc
       0.013148471 -0.2283668 -0.26862496 -0.021038959
000370 f7 85 59 3e 20 55 1e 3e cf 51 ab 3e 6c d9 5a 3e
       0.2124251 0.1546216 0.33460853 0.21372002
000380 36 73 b8 bc 53 02 a0 bd b8 c6 a5 3d 88 71 16 3e
       -0.022515874 -0.07812943 0.08094543 0.14691746
000390 7e 91 b6 bd 0d c1 99 be 2c 2e a2 be 84 a2 94 3e
       -0.08914469 -0.300301 -0.3167585 0.2903024
0003a0 e8 ca 85 be f7 db dd bd a1 38 83 be 39 3b 87 3f
       -0.26131368 -0.108329706 -0.25629142 1.0564948
0003b0 ca 8b 10 bf be 60 f6 bc 07 9c 83 bd 96 fd 79 bc
       -0.564633 -0.030075427 -0.06426244 -0.0152582135
0003c0 a7 fd 4b be 86 88 0a 3f e6 ce 53 be 32 7e f9 be
       -0.1992098 0.5411457 -0.20684394 -0.48729092
0003d0 e9 ba 9e 3c 03 a6 fb 3e 83 d9 d4 be b1 68 5b 3e
       0.019376235 0.49150094 -0.41572198 0.21426655
0003e0 1b 91 14 3f fb cf 26 be 21 d2 cb bd 95 b1 99 3c
       0.58033913 -0.16290276 -0.09952188 0.018761436
0003f0 7c ab 30 3d 75 00 15 3e 18 cb a4 3e 75 24 19 bf
       0.04313229 0.14550956 0.32186198 -0.59821254
