TS-CVAE/experiments/pedestrians/models/zara2/models_22_Jun_2021_00_49_41_zara2_ar3/model_registrar-76.pt (torch_old, 545378 bytes, 43 tensors)

weight_ih_l0 f4 [128, 6]
-0.08800144 0.04807456 -0.1237102 -0.018912964 -0.07546189 0.17398112 -0.15881741 -0.22952752
-0.07887457 0.29105994 0.07779136 0.13481237 0.23947296 0.2581457 -0.3878813 -0.35299736
-0.044059217 0.10115449 -0.059149235 0.14999457 0.17355852 0.01428085 0.007330455 0.08828607
-0.0055660023 -0.12740527 -0.13420375 0.55670065 -0.12906717 -0.5339154 0.2447484 -0.12107751
0.01920035 0.20225865 0.046927527 -0.06262907 -0.1791383 -0.065322325 0.04997818 0.026198082
-0.34424046 -0.31361076 -0.13301119 0.24385867 0.2185333 -0.07438021 -0.055220112 0.08643138
0.2618971 0.017896984 0.14583686 -0.011168522 -0.17056681 0.046241052 -0.6478179 -0.49507633
0.32507822 0.3143992 0.009025105 -0.015192225 0.39045328 -0.11977111 -0.53866273 0.1935589
-0.14897548 0.11380929 -0.4506126 -0.16921401 0.23178416 0.2512837 0.217888 0.109952234
-0.0622731 -0.0923478 0.02820681 -0.11661628 -0.045542397 -0.016122982 -0.13813968 0.24566828
0.17087947 0.037061628 0.002059678 0.19765387 -0.24931172 0.033356488 -0.15719648 0.028403893
0.5405035 -0.008534586 -0.28535637 0.17269419 0.4254002 -0.0019356289 -0.055911254 0.1212377
-0.07025846 0.36504236 0.42747694 -0.04338262 -0.32917592 -0.6768309 -0.026642932 -0.1276486
0.004315206 -0.09345508 0.07357197 0.25686607 0.050209265 0.15137658 0.23673937 -0.21645325
0.15641676 0.24665135 -0.25138304 -0.10834001 -0.026216906 0.27114376 0.10825851 0.06400384
-0.16489093 0.22974162 0.13153498 -0.40631285 -0.047484368 0.11574049 0.3653331 0.51786417
-0.2501264 -0.39036492 0.06931892 0.15867671 -0.09026559 -0.26050916 0.030356271 0.092012785
-0.068541825 -0.094323315 -0.004514094 -0.043968413 0.11415841 -0.106681414 0.15234986 0.04246326
-0.03901489 -0.21174724 -0.07056847 0.10608451 -0.6152344 0.10305251 0.07330915 0.082866736
-0.24135861 0.033115197 -0.14453876 -0.08369126 0.023077687 -0.38268444 -0.24867368 0.1764279
0.00473669 0.08645566 0.13207608 0.34750566 0.24705762 0.2921426 -0.09393008 0.22681293
-0.26150945 0.19164634 -0.033329472 0.01792584 0.22197258 0.02666481 -0.17053908 -0.0806762
-0.06056519 -0.04776487 0.0007195774 0.14707142 -0.0038932902 -0.054968413 0.15490921 -0.025646692
-0.13714829 -0.012960282 0.13098714 0.05158871 0.027724594 -0.04880616 -0.17057504 -0.1256197
0.2598045 0.15671067 -0.14954188 -0.20644306 -0.07094203 -0.18997234 0.036609475 -0.15307406
-0.031494085 0.11316075 -0.053893633 -0.07084431 -0.2295518 0.045272138 0.07397661 -0.031291753
-0.10026482 -0.3254249 0.0688095 0.038993314 0.1427842 -0.05429136 -0.108944595 -0.26474962
0.0856984 -0.2637021 0.07791638 0.037545826 -0.18277521 0.09054671 0.15196814 -0.059012197
0.054681145 -0.17382212 -0.30584633 -0.08402773 -0.09492393 -0.10076272 0.10260932 -0.0061978605
0.06745383 0.051160086 0.051754083 -0.015040621 0.17741117 -0.02527972 0.007921951 -0.062009443
0.22530822 0.0051255417 -0.0043081692 -0.044006675 -0.51096386 0.22634588 -0.4402825 -0.15774171
0.23472421 0.24016373 0.2180224 0.008463536 0.44727525 -0.05883715 -0.28064513 0.10804271
00000000: 193a b4bd d4e9 443d c65b fdbd 5cef 9abc
00000010: c38b 9abd 1b28 323e 08a1 22be 4309 6bbe
00000020: fe88 a1bd cf05 953e 1451 9f3d 410c 0a3e
00000030: 6638 753e ac2b 843e 6198 c6be 12bc b4be
00000040: 7077 34bd 162a cf3d 7846 72bd 2d98 193e
00000050: 53b9 313e 3afa 693c 5034 f03b 54cf b43d
00000060: 0363 b6bb 8776 02be b56c 09be ef83 0e3f
00000070: 2f2a 04be aeae 08bf 539f 7a3e 7cf7 f7bd
00000080: 0d4a 9d3c e41c 4f3e 1437 403d ab43 80bd
00000090: 0870 37be b6c7 85bd ecb5 4c3d 5c9d d63c
000000a0: 4940 b0be 9791 a0be 1634 08be 16b6 793e
000000b0: 32c7 5f3e a754 98bd 7c2e 62bd ef02 b13d
000000c0: 6017 863e b29c 923c 4256 153e 2dfc 36bc
000000d0: 11a9 2ebe 4267 3d3d 65d7 25bf a57a fdbe
000000e0: a770 a63e eff8 a03e 09de 133c cfe8 78bc
000000f0: 7ee9 c73e 8e4a f5bd cde5 09bf 4e34 463e
00000100: 078d 18be d814 e93d b2b6 e6be 7046 2dbe
00000110: d458 6d3e 42a8 803e 081e 5f3e a32e e13d
00000120: 1412 7fbd d820 bdbd f811 e73c 84d4 eebd
00000130: aa8a 3abd 5814 84bc 7d74 0dbe 7790 7b3e
00000140: 07fb 2e3e efcd 173d aafb 063b c765 4a3e
00000150: 924b 7fbe d0a0 083d 1df8 20be 48af e83c
00000160: 705e 0a3f a6d4 0bbc 3b1a 92be bfd6 303e
00000170: 0ece d93e eeb4 fdba 3303 65bd 794b f83d
00000180: abe3 8fbd d5e6 ba3e 42de da3e f9b1 31bd
00000190: bf89 a8be ca44 2dbf 4742 dabc 51b6 02be
000001a0: 9266 8d3b 6165 bfbd e7ac 963d f383 833e
000001b0: 3ba8 4d3d 7602 1b3e ce6b 723e eca5 5dbe
000001c0: b72b 203e 2c92 7c3e 47b5 80be 5ee1 ddbd
000001d0: d6c4 d6bc 5bd3 8a3e a3b6 dd3d 7214 833d
000001e0: 2bd9 28be 6341 6b3e 1bb1 063e 3d08 d0be
000001f0: f87e 42bd 5a09 ed3d f10c bb3e bf92 043f
00000200: 9110 80be e9dd c7be 14f7 8d3d 267c 223e
00000210: 2add b8bd 7561 85be b7ad f83c 3371 bc3d
00000220: a85f 8cbd 952c c1bd f7ea 93bb 3918 34bd
00000230: e2cb e93d c97b dabd 9a01 1c3e f5ed 2d3d
00000240: 14ce 1fbd 45d4 58be 3486 90bd d642 d93d
00000250: 0080 1dbf 320d d33d 1c23 963d 09b6 a93d
00000260: b626 77be cda3 073d f801 14be 5366 abbd
00000270: 6b0d bd3c 37ef c3be 50a4 7ebe 84a9 343e
00000280: 3c36 9b3b aa0f b13d f43e 073e 43ec b13e
00000290: acfc 7c3e b793 953e 6a5e c0bd a641 683e
000002a0: 91e4 85be f03e 443e 7c84 08bd 36d9 923c
000002b0: c84c 633e 2970 da3c cca1 2ebe 9039 a5bd
000002c0: 3413 78bd 19a5 43bd 06a2 3c3a e499 163e
000002d0: 9226 7fbb 8f26 61bd 85a0 1e3e 0319 d2bc
000002e0: 9a70 0cbe 5d57 54bc 7e21 063e af4e 533d
000002f0: b01e e33c f8e8 47bd 39ab 2ebe 73a2 00be
00000300: 1805 853e c378 203e 8221 19be cf65 53be
00000310: 0e4a 91bd 1c88 42be d1f3 153d 72bf 1cbe
00000320: f1ff 00bd d3c0 e73d 92bf 5cbd d216 91bd
00000330: a10f 6bbe 476f 393d 0d81 973d c82b 00bd
00000340: a457 cdbd 189e a6be ffeb 8c3d 74b7 1f3d
00000350: 0536 123e 9e60 5ebd 581e dfbd 438d 87be
00000360: a582 af3d f603 87be 9f92 9f3d a7c9 193d
00000370: 6d29 3bbe 8e70 b93d 899d 1b3e c6b6 71bd
00000380: 56f9 5f3d 6dfe 31be e497 9cbe bb16 acbd
00000390: 7a67 c2bd af5c cebd d624 d23d 6c17 cbbb
000003a0: 3c25 8a3d 3d8d 513d 17fc 533d f06c 76bc
000003b0: 46ab 353e 6a17 cfbc 12cb 013c 9dfd 7dbd
000003c0: 33b7 663e 29f4 a73b 8b2b 8dbb 5840 34bd
000003d0: 87ce 02bf 37c7 673e b56c e1be 0b87 21be
000003e0: 8b5b 703e 7bed 753e 4441 5f3e a5aa 0a3c
000003f0: 4301 e53e 39ff 70bd b8b0 8fbe 7f45 dd3d

weight_hh_l0 f4 [128, 32]
-0.04887763 -0.16589595 0.43398315 0.05243844 0.22969863 0.27360287 -0.263669 -0.017180985
0.30304608 0.46494144 -0.31027234 0.5172931 -0.14911668 0.18651345 -0.18422826 0.1414089
-0.17520373 -0.025311515 0.35414958 -0.5536916 -0.22172551 0.31820175 -0.022579888 -0.31646717
0.10368396 -0.38020253 0.36870515 -0.013041229 -0.2489648 0.22027375 -0.03137684 -0.27999002
0.20140448 -0.45449418 0.3029124 -0.18788265 0.26182398 0.36035743 -0.04792242 -0.13487116
0.47440347 0.1086982 -0.30184507 0.050574392 -0.032328296 0.2845262 -0.24406713 -0.019336095
-0.14927231 0.14161283 0.49939176 -0.5982406 0.047052246 0.15212548 -0.25263366 -0.29427883
-0.12200452 -0.23403111 0.23466699 -0.5529453 -0.61643624 -0.0028307582 0.2280233 -0.09213229
0.104718015 0.009868014 -0.10657766 0.14259255 0.09234733 -0.0012712885 -0.18904603 -0.26078013
-0.07336567 0.09116358 -0.26236132 0.023359438 -0.1604986 -0.22250812 0.23324701 -0.24062766
-0.00049378735 0.007548989 0.13258491 -0.03845635 -0.01896237 0.050398916 0.26048538 0.09032607
0.2562327 0.10492161 0.035227887 0.13890333 0.15268153 0.07611055 -0.25653788 0.15186024
-0.017373277 -0.014154432 0.2904514 0.1053734 -0.08007801 0.13030423 -0.25922027 0.014887149
0.23665988 0.32836556 -0.57292724 0.122055575 -0.23119363 -0.1307605 -0.5444679 -0.16912858
-0.19973107 0.20124583 0.5015604 -0.724066 -0.16834094 0.3673609 0.10976336 -0.16407545
0.055825505 -0.19803852 0.2820829 -0.35789496 -0.62694174 0.13768928 0.13076577 -0.087217845
-0.28795043 -0.08587832 0.55546933 -0.17336781 0.16253695 0.086653575 -0.08555 -0.116491914
0.30488694 0.086713895 -0.24470975 0.20861238 -0.047509868 0.044812042 -0.18855034 -0.030785976
-0.3091133 0.22537975 0.23391326 -0.5481468 -0.11392759 0.7303512 0.20026466 -0.26938242
0.0045484067 -0.2242677 0.23532951 -0.5313081 -0.45639485 0.038477544 0.033990536 -0.1303508
0.0325717 -0.1918536 0.18167002 -0.17296065 0.019100051 0.022323234 0.04396089 -0.09434418
-0.01786471 0.16354136 0.06183635 0.039620858 -0.24499287 0.09124185 -0.120094 -0.2622776
-0.029908298 0.20602547 -0.1548895 0.031052692 0.084766515 0.17044322 -0.24043375 -0.1298873
-0.091173925 -0.20943338 0.22393307 0.11208112 0.0061384863 0.17309287 0.2593577 0.0763633
0.04118658 0.00065682805 -0.016268875 0.04263123 0.054447096 0.057485875 -0.014456322 -0.2945966
-0.024879217 0.30342367 -0.22755395 0.19385229 -0.024396218 0.17010987 -0.032137387 0.1208891
-0.044675134 0.019353788 0.08410127 -0.32280168 0.007580335 0.41910273 0.26120058 -0.11466796
-0.07125553 -0.02491196 0.28698215 -0.07640922 -0.34795746 0.27669498 -0.22659098 0.04100953
0.2344475 -0.16280387 -0.09185771 0.049598005 0.0763361 0.073826 0.17794617 0.001361069
0.16372761 -0.24161214 -0.033914965 -0.20259617 0.1727729 0.046663735 -0.0744297 0.073892124
0.041796066 -0.029457266 0.23933432 -0.34263164 -0.2123577 -0.005393842 -0.0051873107 -0.21956164
-0.013944663 0.1898205 0.19643198 -0.18878654 -0.14701232 0.066380516 0.006223956 0.1551019
00000000: e933 48bd a1e0 29be 0a33 de3e b1c9 563d
00000010: 1e36 6b3e ad15 8c3e a0ff 86be 23bf 8cbc
00000020: db28 9b3e ce0c ee3e 04dc 9ebe 526d 043f
00000030: 0bb2 18be 62fd 3e3e 55a6 3cbe 7fcd 103e
00000040: 9b68 33be 185a cfbc 1853 b53e bcbe 0dbf
00000050: 030c 63be 57eb a23e 75f9 b8bc fc07 a2be
00000060: 4258 d43d e8a9 c2be ecc6 bc3e e1aa 55bc
00000070: a1f0 7ebe 718f 613e 0085 00bd da5a 8fbe
00000080: fa3c 4e3e 76b3 e8be 5617 9b3e 4f64 40be
00000090: cb0d 863e c580 b83e 4d4a 44bd aa1b 0abe
000000a0: 03e5 f23e 299d de3d 708b 9abe 1827 4f3d
000000b0: ad6a 04bd 6bad 913e bcec 79be bb66 9ebc
000000c0: d7da 18be f402 113e 47b0 ff3e 4c26 19bf
000000d0: dbb9 403d c8c6 1b3e 3359 81be b7ab 96be
000000e0: 81dd f9bd daa5 6fbe 8b4c 703e d38d 0dbf
000000f0: c4ce 1dbf 3e84 39bb f17e 693e dbaf bcbd
00000100: 6676 d63d 73ad 213c 6345 dabd c803 123e
00000110: 9920 bd3d 5da1 a6ba 4895 41be f984 85be
00000120: be40 96bd f9b3 ba3d 3954 86be 4b5c bf3c
00000130: bf59 24be 2bd9 63be 4ed8 6e3e 1967 76be
00000140: 8271 01ba 825d f73b 57c4 073e 6884 1dbd
00000150: f956 9bbc 186f 4e3d 575e 853e e0fc b83d
00000160: ef30 833e 24e1 d63d 1e4b 103d ad3c 0e3e
00000170: 8c58 1c3e d9df 9b3d ef58 83be 4081 1b3e
00000180: 6752 8ebc fee7 67bc 0cb6 943e 02ce d73d
00000190: f1ff a3bd 796e 053e 85b8 84be 3be9 733c
000001a0: f856 723e 881f a83e 5cab 12bf 46f8 f93d
000001b0: 06be 6cbe 15e6 05be 4062 0bbf 0b30 2dbe
000001c0: 4d86 4cbe 6313 4e3e 4366 003f 645c 39bf
000001d0: 9161 2cbe ba16 bc3e 9dcb e03d 6503 28be
000001e0: 49a9 643d 9cca 4abe 2b6d 903e 023e b7be
000001f0: 417f 20bf 6bfe 0c3e 76e7 053e 459f b2bd
00000200: 3d6e 93be f9e0 afbd 3d33 0e3f 5587 31be
00000210: 1670 263e 6e77 b13d d734 afbd 5093 eebd
00000220: 241a 9c3e 0e97 b13d 3195 7abe 7c9e 553e
00000230: b599 42bd d58c 373d 5713 41be df32 fcbc
00000240: 1944 9ebe f3c9 663e f586 6f3e 5953 0cbf
00000250: de52 e9bd 4cf8 3a3f 2e12 4d3e 7eec 89be
00000260: cd0a 953b 6fa6 65be 38fa 703e cf03 08bf
00000270: 96ac e9be a19a 1d3d a939 0b3d ae7a 05be
00000280: e769 053d 4575 44be b507 3a3e 991c 31be
00000290: b677 9c3c 37df b63c 5610 343d 8537 c1bd
000002a0: 0359 92bc 6377 273e 1d48 7d3d 7b49 223d
000002b0: 69df 7abe 02dd ba3d d8f3 f5bd 4049 86be
000002c0: 3f02 f5bc 57f8 523e 5a9b 1ebe 3762 fe3c
000002d0: 119a ad3d ab88 2e3e 4434 76be 2d01 05be
000002e0: 65b9 babd b475 56be b64e 653e c98a e53d
000002f0: 5b25 c93b 423f 313e 88ca 843e 5d64 9c3d
00000300: 42b3 283d fc2e 2c3a 4e46 85bc 169e 2e3d
00000310: eb03 5f3d 4f76 6b3d 36da 6cbc 5ed5 96be
00000320: 80cf cbbc 595a 9b3e e703 69be 3781 463e
00000330: 94da c7bc 4831 2e3e 7ea2 03bd b494 f73d
00000340: 46fd 36bd d68b 9e3c 493d ac3d 4346 a5be
00000350: 7564 f83b a294 d63e 15bc 853e 09d7 eabd
00000360: 6bee 91bd 2b14 ccbc 53ef 923e 707c 9cbd
00000370: 7b27 b2be f7aa 8d3e 7707 68be 9cf9 273d
00000380: 0113 703e 0fb6 26be e51f bcbd 4727 4b3d
00000390: 1a56 9c3d 1632 973d 8537 363e e665 b23a
000003a0: 36a8 273e 2c69 77be 6bea 0abd 5f75 4fbe
000003b0: 61eb 303e 7922 3f3d 996e 98bd c154 973d
000003c0: 5a32 2b3d 5d50 f1bc 0e14 753e 6a6d afbe
000003d0: 4c74 59be d3be b0bb 51fa a9bb c4d4 60be
000003e0: 2878 64bc 4e60 423e 7725 493e 4251 41be
000003f0: 668a 16be 82f2 873d 54f2 cb3b 08d3 1e3e

bias_ih_l0 f4 [128]
0.078897536 0.36567968 0.1991686 0.06459567 0.23400047 0.3418485 0.235983 0.18219998
0.13408253 0.25219867 0.39009437 0.29552084 0.51041627 0.2549797 0.21930866 0.41920707
0.05644385 0.35527226 0.07840003 0.17296039 0.5153552 0.16924386 0.58780444 0.03841946
0.3633291 0.15469663 0.056114152 0.060864806 0.023428539 0.32191068 0.34033033 0.383203
0.037522137 -0.54245967 -0.36942312 0.02999661 -0.4213289 -0.24605234 -0.36551815 -0.36955407
-0.17600334 -0.17151096 -0.14679915 -0.05685277 -0.4296465 -0.19530278 -0.09639533 -0.75642276
-0.028142318 -0.25539264 -0.049404282 0.089354925 -0.5902584 -0.12656154 -0.2903238 -0.06329298
-0.18301404 0.10376542 0.06911428 0.10807328 -0.026188016 -0.60925996 -0.49651444 -0.5432623
0.13531663 0.114889115 -0.042674474 0.036715247 -0.09417213 0.027528154 0.09096872 -0.040198207
-0.003060981 0.08054142 -0.08897464 0.0355198 -0.11230412 -0.026801854 -0.056782257 -0.09293335
-0.073643245 -0.0949811 0.16868316 -0.15346417 0.051571976 0.0841721 0.107392386 -0.14005002
0.1150282 -0.08917714 0.072651945 -0.16362344 -0.11471767 0.12503938 0.0214325 -0.08103426
0.28103113 0.28124088 0.2276667 0.180354 0.38188368 0.29098552 0.2731791 0.20089993
0.025829963 0.31121102 0.17963064 0.23095867 0.444858 0.23541619 0.2414784 0.57357824
0.2294461 0.268792 0.16457549 0.059486352 0.5802331 0.18473946 0.52844054 0.09579635
0.13611653 0.20217249 0.24854662 -0.007290073 0.16463982 0.52037805 0.37602532 0.3001452
00000000: 0895 a13d 5e3a bb3e daf2 4b3e bc4a 843d
00000010: d29d 6f3e c406 af3e 87a5 713e a292 3a3e
00000020: ee4c 093e 2f20 813e 73ba c73e 824e 973e
00000030: a4aa 023f b38c 823e 7392 603e 4fa2 d63e
00000040: ab31 673d 3fe6 b53e 3290 a03d 871c 313e
00000050: 52ee 033f 434e 2d3e 5a7a 163f b95d 1d3d
00000060: 4606 ba3e cb68 1e3e f4d7 653d 604d 793d
00000070: 35ed bf3c 7ad1 a43e c73f ae3e 2f33 c43e
00000080: d0b0 193d a3de 0abf 0725 bdbe 73bb f53c
00000090: 6cb8 d7be 25f5 7bbe 3225 bbbe 3136 bdbe
000000a0: 383a 34be 92a0 2fbe 8452 16be 73de 68bd
000000b0: a0fa dbbe 74fd 47be ea6a c5bd eca4 41bf
000000c0: b88a e6bc d3c2 82be 255c 4abd b7ff b63d
000000d0: 2d1b 17bf 5999 01be 52a5 94be c09f 81bd
000000e0: 0868 3bbe f782 d43d ca8b 8d3d 8655 dd3d
000000f0: 4088 d6bc 76f8 1bbf 2437 febe 3d13 0bbf
00000100: 7190 0a3e fc4a eb3d 6ecb 2ebd ba62 163d
00000110: 51dd c0bd b982 e13c cf4d ba3d e0a6 24bd
00000120: bd9a 48bb e6f2 a43d 5638 b6bd 367d 113d
00000130: b4ff e5bd 908f dbbc 8394 68bd d753 bebd
00000140: 45d2 96bd 7385 c2bd 47bb 2c3e b625 1dbe
00000150: 233d 533d 6c62 ac3d 8af0 db3d 4669 0fbe
00000160: e893 eb3d 81a2 b6bd 8bca 943d e78c 27be
00000170: 19f1 eabd 530a 003e 3693 af3c 4af5 a5bd
00000180: 50e3 8f3e cefe 8f3e 7621 693e b8ae 383e
00000190: 4286 c33e 0efc 943e 22de 8b3e b6b8 4d3e
000001a0: 5c99 d33c 0d57 9f3e 18f1 373e 6e80 6c3e
000001b0: 6ec4 e33e f110 713e 1d46 773e 06d6 123f
000001c0: ebf3 6a3e 1b9f 893e 7a86 283e f6a7 733d
000001d0: 288a 143f 572c 3d3e e147 073f e030 c43d
000001e0: 2262 0b3e 4e06 4f3e 0183 7e3e 91e1 eebb
000001f0: 5797 283e 7f37 053f 6486 c03e a2ac 993e

bias_hh_l0 f4 [128]
0.03460727 0.37878716 0.06537852 0.22607842 0.37777582 0.09794766 0.13433267 0.35976464
0.21921946 0.41709444 0.13364066 0.17069319 0.27212298 0.5492486 0.25987345 0.5796287
-0.030523086 0.34783244 -0.01729054 0.12868315 0.66303295 0.34996122 0.6163301 0.102717094
0.26498985 0.1395682 0.1296688 -0.030717257 -0.05819744 0.31256768 0.40984955 0.43339333
-0.05123702 -0.5163704 -0.13173433 -0.17614867 -0.11296219 -0.083208695 -0.22457547 -0.51438034
-0.10311737 -0.2277329 -0.12786454 -0.11804194 -0.43242878 -0.37473965 0.009559214 -0.70631075
-0.15894026 -0.32331643 -0.02105137 -0.09193087 -0.44635043 -0.28935775 -0.5133898 -0.09128066
-0.38659585 -0.2048627 -0.18442291 0.047380738 -0.054409336 -0.37534422 -0.36442992 -0.2418722
-0.14794235 -0.1538832 0.12740476 -0.01891558 0.16248766 0.059849154 -0.09517376 0.006692466
0.13819692 -0.013076941 0.038858183 0.052813224 0.06840902 0.039642513 -0.13448764 0.05332511
0.019297965 0.14740886 0.094128765 -0.2800446 -0.105403125 0.023718974 -0.13620219 0.108028896
-0.12346875 0.016463086 0.07561896 -0.0487759 -0.103263184 -0.15360506 -0.0031165963 0.022961298
0.16599123 0.41556665 0.071566105 0.40766728 0.4804977 0.1943748 0.4717583 0.51149476
-0.028171299 0.33356163 0.42089814 0.30785084 0.4570197 0.4285993 0.1613328 0.5814422
0.24793872 0.13200063 0.26967233 -0.06400304 0.5432817 0.37583467 0.6802151 0.22838531
0.32394677 0.17782092 0.3004611 -0.0010865242 0.035299275 0.51483595 0.4030435 0.5008826
00000000: 5ac0 0d3d 64f0 c13e 2ce5 853d 1a81 673e
00000010: d56b c13e c898 c83d 818e 093e 1233 b83e
00000020: 117b 603e 678d d53e 19d9 083e 32ca 2e3e
00000030: b453 8b3e 8e9b 0c3f 220e 853e 8c62 143f
00000040: 8d0b fabc 1817 b23e e4a4 8dbc 84c5 033e
00000050: 87bc 293f 1e2e b33e cfc7 1d3f 575d d23d
00000060: c0ac 873e f7ea 0e3e e6c7 043e c2a2 fbbc
00000070: 7060 6ebd df08 a03e cdd7 d13e bbe5 dd3e
00000080: e9dd 51bd da30 04bf 5de5 06be 5160 34be
00000090: b858 e7bd 5269 aabd 1df7 65be 6eae 03bf
000000a0: 332f d3bd d032 69be ecee 02be f9bf f1bd
000000b0: 4e67 ddbe e0dd bfbe 409e 1c3c c8d0 34bf
000000c0: 3cc1 22be bb89 a5be ec73 acbc 4146 bcbd
000000d0: 0b88 e4be b326 94be 846d 03bf 5bf1 babd
000000e0: e4ef c5be 87c7 51be 5cd9 3cbe 4e12 423d
000000f0: 53dc 5ebd 1e2d c0be 8f96 babe 59ad 77be
00000100: 337e 17be 8f93 1dbe 6576 023e d9f4 9abc
00000110: 2a63 263e 6324 753d 76ea c2bd 794c db3b
00000120: 7e83 0d3e aa40 56bc c229 1f3d ae52 583d
00000130: 071a 8c3d 3060 223d 21b7 09be 6e6b 5a3d
00000140: c416 9e3c 59f2 163e 95c6 c03d 0162 8fbe
00000150: 98dd d7bd 4b4e c23c 9678 0bbe 413e dd3d
00000160: 2fdd fcbd 98dd 863c 1dde 9a3d 3dc9 47bd
00000170: a67b d3bd a54a 1dbe cf3f 4cbb 5519 bc3c
00000180: 9bf9 293e 27c5 d43e 4091 923d c4b9 d03e
00000190: cb03 f63e 300a 473e 4e8a f13e 52f1 023f
000001a0: 7fc7 e6bc 97c8 aa3e f67f d73e a09e 9d3e
000001b0: 7cfe e93e 5e71 db3e 6d34 253e 65d9 143f
000001c0: a6e3 7d3e 2c2b 073e 7e12 8a3e 0714 83bd
000001d0: 8214 0b3f 676d c03e 9422 2e3f d7dd 693e
000001e0: 5adc a53e b016 363e 0ad6 993e b469 8eba
000001f0: f995 103d 4acc 033f b85b ce3e d839 003f

weight_ih_l0 f4 [128, 2]
-0.037540454 -0.03740534 -0.09503543 0.048007835 0.14417303 -0.044090826 -0.0010476409 0.11894919
-0.028799636 -0.097143784 -0.05149967 0.19784535 0.067245565 0.03521169 -0.14373705 -0.088078074
0.070537746 -0.06332483 -0.047169585 0.021487806 -0.060854312 0.035390653 -0.02919612 -0.067229144
-0.07620067 0.001559701 0.075945444 0.0017275009 -0.12693532 -0.014028461 0.064231105 0.06956209
-0.0271808 0.03861604 0.044296257 0.025636336 0.09588432 0.052368566 -0.017620055 -0.040950008
0.11411605 0.07285053 0.08948438 0.35417718 0.11958798 0.07163963 -0.19289814 -0.034677465
-0.03539279 -0.046794854 -0.060383797 -0.01873889 0.124925524 0.037848342 -0.044316888 0.1062196
-0.017149897 0.1515521 -0.051218968 -0.018519714 0.40166607 0.030146614 -0.4582426 -0.028307643
-0.21489514 -0.23436694 0.09881109 0.07001402 0.077694744 -0.101318605 0.106594905 0.11291046
0.34972152 -0.19222072 -0.05331531 0.16576408 0.15946792 0.17134619 -0.02771918 0.021723462
-0.31535378 -0.28476834 0.13430151 0.009882135 -0.02232022 -0.04652137 -0.24040529 0.035680506
-0.057688653 0.193589 -0.12773459 0.08052016 -0.08495394 0.061903015 0.32309663 0.024965988
-0.09298288 0.18550417 -0.120958984 -0.23338994 -0.073347844 0.068022855 -0.19252849 -0.06921604
-0.12256424 -0.029155068 0.16955158 -0.14604467 0.16665737 0.09056743 -0.09449673 -0.12665926
-0.22327815 -0.13996367 -0.10295304 -0.051472355 0.03881034 -0.04520599 -0.23426025 -0.011722744
0.07137178 -0.2087899 -0.055019617 0.1079296 0.29812425 0.08718592 -0.02424782 -0.086096905
-0.014078142 0.07984545 -0.18237938 -0.15653817 0.015389553 -0.16350408 -0.18241632 -0.18022107
-0.0025975865 0.050094087 0.27678847 -0.006843233 0.15491942 -0.023520866 0.30599785 0.004569942
0.3947972 0.2225992 -0.14360757 0.27204195 0.10811478 0.13300738 -0.099756315 0.065279834
-0.16201186 -0.07019577 0.4544526 0.12991017 -0.040436316 -0.13040817 -0.03499645 0.11992199
0.048602648 -0.052404203 -0.22199354 0.026796233 0.094710484 0.1747621 0.051163934 0.091935724
-0.3484988 -0.13622469 -0.23036198 0.029249217 -0.1380757 -0.22655919 0.15549307 0.026368657
0.22604917 0.060647834 0.0040985486 0.16738132 -0.23593667 -0.05197488 0.072414115 -0.06906915
0.28382418 0.1314626 0.10942804 0.14858866 0.42657977 0.1279624 -0.30946177 -0.1449281
-0.32378525 -0.24502979 0.1796597 0.12110563 0.20716448 -0.21983434 -0.04617173 -0.007941844
0.051636755 -0.21877448 -0.0146677755 0.21932745 0.12162597 0.025040077 -0.23414688 -0.13126935
-0.17097776 -0.09673887 0.11834763 -0.17417066 0.07096089 0.08824939 0.06149225 -0.059163094
0.21364568 0.23757929 -0.100128 0.13747482 -0.04212815 0.13665812 0.13662851 0.1269639
-0.11637242 0.15694372 -0.10658184 -0.3242881 -0.14323087 -0.028345853 -0.007997137 0.015865702
-0.08868541 0.122681096 -0.053706806 -0.01684743 0.16983035 0.08077052 -0.28088108 -0.10080048
0.29527587 -0.006473619 -0.14898573 -0.11225641 0.057681933 -0.02728279 -0.06366591 0.10851441
-0.025647862 0.08971951 -0.12350073 -0.045314316 0.27643955 0.16444984 -0.018168645 -0.32024223
00000000: 05c4 19bd 5736 19bd efa1 c2bd dda3 443d
00000010: 18a2 133e 9598 34bd ff50 89ba a29b f33d
00000020: 37ed ebbc 52f3 c6bd 51f1 52bd f997 4a3e
00000030: 0bb8 893d 223a 103d ce2f 13be 4762 b4bd
00000040: 1876 903d 73b0 81bd e534 41bd 3207 b03c
00000050: 5f42 79bd caf5 103d b42c efbc 6faf 89bd
00000060: 190f 9cbd e26e cc3a 4989 9b3d 506d e23a
00000070: 55fb 01be a1d7 65bc 998b 833d 9276 8e3d
00000080: 45aa debc da2b 1e3d fe6f 353d 4b03 d23c
00000090: 005f c43d 6c80 563d ef57 90bc 32bb 27bd
000000a0: adb5 e93d a932 953d 9643 b73d b656 b53e
000000b0: 8bea f43d ccb7 923d 1787 45be f509 0ebd
000000c0: 08f8 10bd f6ab 3fbd 0055 77bd 4d82 99bc
000000d0: f4d8 ff3d dd06 1b3d a085 35bd a989 d93d
000000e0: f17d 8cbc 7930 1b3e fbca 51bd a8b6 97bc
000000f0: 2da7 cd3e 08f6 f63c c69e eabe 6ee5 e7bc
00000100: 790d 5cbe e3fd 6fbe 785d ca3d 8363 8f3d
00000110: 6c1e 9f3d 2180 cfbd 6e4e da3d 993d e73d
00000120: b30e b33e 82d5 44be 2861 5abd 0fbe 293e
00000130: 8f4b 233e 6075 2f3e 5513 e3bc 67f5 b13c
00000140: 0d76 a1be 28cd 91be 5686 093e aee8 213c
00000150: e5d8 b6bc 318d 3ebd ce2c 76be b925 123d
00000160: f04a 6cbd 323c 463e dbcc 02be c1e7 a43d
00000170: 55fc adbd 048e 7d3d ec6c a53e 7985 cc3c
00000180: cf6d bebd cef4 3d3e 58b9 f7bd c6fd 6ebe
00000190: 6537 96bd 914f 8b3d 3026 45be 24c1 8dbd
000001a0: f602 fbbd 9cd6 eebc ee9e 2d3e bc8c 15be
000001b0: 3ba8 2a3e 6b7b b93d 8087 c1bd f7b2 01be
000001c0: 07a3 64be a352 0fbe 0bd9 d2bd add4 52bd
000001d0: 97f7 1e3d eb29 39bd ebe1 6fbe c110 40bc
000001e0: 5e2b 923d 05cd 55be 405c 61bd 320a dd3d
000001f0: bea3 983e 888e b23d 5da3 c6bc 9353 b0bd
00000200: 02a8 66bc 0386 a33d a9c1 3abe 8b4b 20be
00000210: 7724 7c3c 9d6d 27be 58cb 3abe df8b 38be
00000220: 453c 2abb 752f 4d3d 38b7 8d3e 333d e0bb
00000230: 32a3 1e3e d5ae c0bc c0ab 9c3e 74bf 953b
00000240: dc22 ca3e 0bf1 633e dd0d 13be 1549 8b3e
00000250: 486b dd3d 1633 083e 0a4d ccbd 6fb1 853d
00000260: 70e6 25be cdc2 8fbd 03ae e83e 2c07 053e
00000270: 8da0 25bd b889 05be 7058 0fbd a999 f53d
00000280: 9213 473d caa5 56bd 4652 63be c683 db3c
00000290: 92f7 c13d d6f4 323e 4691 513d cc48 bc3d
000002a0: 6f6e b2be 7c7e 0bbe 03e4 6bbe 0e9c ef3c
000002b0: b763 0dbe 22ff 67be 9339 1f3e 1503 d83c
000002c0: 6f79 673e dd69 783d 1e4d 863b 0266 2b3e
000002d0: 6299 71be 9de3 54bd da4d 943d 2074 8dbd
000002e0: 6751 913e 229e 063e cf1b e03d a027 183e
000002f0: aa68 da3e 9308 033e c671 9ebe 0868 14be
00000300: 2ec7 a5be 17e9 7abe b6f8 373e 3b06 f83d
00000310: ed22 543e 411c 61be 911e 3dbd 821e 02bc
00000320: 1081 533d 6b06 60be 1c51 70bc 6097 603e
00000330: 0917 f93d d920 cd3c 33c4 6fbe 796b 06be
00000340: cb14 2fbe 071f c6bd 3e60 f23d cb59 32be
00000350: f153 913d 19bc b43d 4cdf 7b3d 0055 72bd
00000360: efc5 5a3e fc47 733e e90f cdbd 33c6 0c3e
00000370: 918e 2cbd 1bf0 0b3e 58e8 0b3e d302 023e
00000380: aa54 eebd dbb5 203e 9447 dabd 1709 a6be
00000390: 1dab 12be 9035 e8bc 6c06 03bc caf8 813c
000003a0: b2a0 b5bd 3a40 fb3d abfb 5bbd 9f03 8abc
000003b0: 02e8 2d3e 046b a53d a5cf 8fbe 7b70 cebd
000003c0: 662e 973e a720 d4bb b78f 18be b0e6 e5bd
000003d0: e443 6c3d 2880 dfbc 4663 82bd ce3c de3d
000003e0: 771b d2bc ddbe b73d f3ed fcbd 819b 39bd
000003f0: 7c89 8d3e 8a65 283e 69d6 94bc caf6 a3be

weight_hh_l0 f4 [128, 32]
-0.19586778 0.07099648 0.2221107 0.3756745 -0.1398889 0.05835225 -0.0088595515 -0.19205706
-0.3458366 -0.12753391 0.050936416 0.017210739 0.07844828 -0.03808066 -0.10570125 -0.018401764
0.14454094 -0.10317306 0.0006096086 0.07665655 0.34455967 0.050090093 -0.14166443 -0.24791604
-0.17469351 -0.07189016 -0.075621545 0.10898242 0.01233821 -0.26188335 -0.17503613 0.41472828
-0.072458364 -0.18809171 0.14755058 -6.497281e-05 -0.12388734 -0.093338154 -0.17380215 -0.08345185
-0.2832974 0.044903595 -0.19156949 -0.13352183 -0.049921222 0.12700737 -0.11262908 -0.07421813
0.030697655 -0.11031247 0.09482684 0.15230498 0.19620213 -0.22438197 0.090428166 -0.04466272
-0.025920736 -0.19231702 0.10973236 -0.053416204 -0.09196021 0.09959821 -0.05756882 0.056467663
-0.020290252 -0.15364452 0.09448651 -0.08727603 -0.12898567 -0.107309386 -0.002452451 -0.0516353
-0.19320531 -0.22283937 -0.07881178 -0.10377767 -0.13898551 0.16895688 -0.100146405 0.065614715
0.06061898 0.019797746 -0.102960676 -0.077699855 -0.10703094 0.004751191 -0.33133796 -0.020658877
0.011072096 -0.24686168 -0.14651415 -0.016738733 -0.10188399 0.12859574 0.10851941 -0.08437946
-0.038103815 -0.014762036 0.1096583 -0.02457384 -0.06985375 -0.09128001 -0.022156592 0.26140386
-0.09051644 0.28632942 -0.1524323 0.18385 0.11359519 0.043742187 0.084123254 -0.2782718
-0.29959786 -0.2502514 -0.15989932 -0.28581792 -0.32800928 -0.0035301684 0.26842746 0.16495535
-0.5622697 0.2887407 -0.10107211 -0.0038359975 -0.5168489 -0.15056707 -0.08710931 -0.21888751
0.06947755 0.03782741 0.07788709 0.0051071327 0.0049935016 0.14344223 0.01858187 -0.07144411
0.15752617 -0.023649435 -0.112079605 -0.09084142 -0.18994933 0.19353968 -0.031082364 -0.0047012516
-0.3333204 -0.019375743 0.17435366 0.023205658 0.0720203 0.12819898 0.05067926 -0.15810381
-0.022514665 0.08003595 -0.1714516 -0.025467524 0.039531842 0.39366612 0.17437287 -0.05498152
0.032373093 -0.18244077 0.012279451 -0.19157083 -0.20487797 0.11788622 -0.11435804 0.23452395
0.32983625 -0.21457006 -0.108095415 0.043880127 -0.10405914 -0.08317481 -0.057242487 -0.118154615
-0.16560528 -0.017418016 -0.022687372 0.13800222 -0.05893835 -0.09649202 -0.16269784 0.050488412
0.19008046 0.09797557 0.09596071 0.031330798 0.08777749 -0.055027764 0.18828112 0.0066141807
0.029616678 -0.19512036 0.11283604 -0.05320134 0.03575833 -0.15943994 -0.06441596 0.18264164
0.120304726 -0.20152517 0.14736545 -0.18699542 -0.18612991 0.2656471 -0.46976697 -0.26366863
-0.031719815 -0.26995263 0.2530782 0.12834695 0.3012771 0.20538984 -0.31100082 -0.096331045
0.46277907 -0.18584077 -0.050479498 0.05543159 0.7064646 0.33083647 0.047233038 0.20513466
0.021147238 0.23798706 0.02100575 0.07701165 0.091586836 -0.28073663 -0.017896172 0.04540665
-0.0012104318 -0.17076921 -0.14946134 0.27128053 0.1504532 -0.14889531 0.19966991 0.031990446
-0.042151988 -0.029027864 -0.1332858 -0.026667781 -0.057578363 -0.0038891158 -0.052758154 -0.13943961
-0.01122434 0.042611472 0.13476509 0.088738814 -0.15627418 -0.036470216 -0.07777726 -0.007911071
00000000: 9091 48be 9a66 913d fd70 633e 6858 c03e
00000010: 093f 0fbe c502 6f3d a727 11bc 9baa 44be
00000020: 7f11 b1be 4098 02be b4a2 503d 89fd 8c3c
00000030: 7ea9 a03d 77fa 1bbd e679 d8bd 4cbf 96bc
00000040: 8a02 143e 664c d3bd 24ce 1f3a 1cfe 9c3d
00000050: 206a b03e 452b 4d3d 7b10 11be b4dd 7dbe
00000060: dbe2 32be 263b 93bd 78df 9abd 2d32 df3d
00000070: 3426 4a3c 9315 86be ac3c 33be 4457 d43e
00000080: 0d65 94bd 1d9b 40be 8017 173e 0342 88b8
00000090: a5b8 fdbd 1328 bfbd 31f9 31be cee8 aabd
000000a0: 5b0c 91be d5ec 373d cb2a 44be f2b9 08be
000000b0: 327a 4cbd 380e 023e 13aa e6bd adff 97bd
000000c0: a679 fb3c 81eb e1bd 9334 c23d d6f5 1b3e
000000d0: 36e9 483e 63c4 65be 6732 b93d 42f0 36bd
000000e0: b957 d4bc c1ee 44be 5cbb e03d f3ca 5abd
000000f0: a255 bcbd 25fa cb3d 48cd 6bbd a34a 673d
00000100: be37 a6bc fd54 1dbe 2582 c13d c6bd b2bd
00000110: d214 04be 06c5 dbbd 4db9 20bb 897f 53bd
00000120: 9dd7 45be 0130 64be 1268 a1bd 6389 d4bd
00000130: 3852 0ebe 0803 2d3e 8f19 cdbd 0261 863d
00000140: 9c4b 783d e22e a23c 0cdd d2bd 1a21 9fbd
00000150: 0a33 dbbd e1af 9b3b 21a5 a9be ce3c a9bc
00000160: bd67 353c 4fc9 7cbe ce07 16be ab1f 89bc
00000170: 8ea8 d0bd 9aae 033e 6d3f de3d 23cf acbd
00000180: bf12 1cbd 77dc 71bc 8894 e03d 144f c9bc
00000190: 7c0f 8fbd 04f1 babd be81 b5bc bad6 853e
000001a0: af60 b9bd c599 923e 3617 1cbe 2d43 3c3e
000001b0: 98a4 e83d 022b 333d d048 ac3d a479 8ebe
000001c0: e464 99be f420 80be a6bc 23be ba56 92be
000001d0: d5f0 a7be 665a 67bb 536f 893e 0eea 283e
000001e0: e8f0 0fbf d2d5 933e e5fe cebd 5c65 7bbb
000001f0: 3650 04bf 412e 1abe 5e66 b2bd 0c24 60be
00000200: 3f4a 8e3d eaf0 1a3d 4483 9f3d bc59 a73b
00000210: 87a0 a33b 85e2 123e 0139 983c 4a51 92bd
00000220: 8a4e 213e 76bc c1bc fe89 e5bd 110b babd
00000230: 1482 42be 442f 463e 71a0 febc f50c 9abb
00000240: f9a8 aabe e1b9 9ebc c489 323e cb19 be3c
00000250: 617f 933d 9846 033e 0e95 4f3d f7e5 21be
00000260: ad70 b8bc e3e9 a33d 0291 2fbe 45a1 d0bc
00000270: 24ec 213d 9b8e c93e cd8e 323e 4d34 61bd
00000280: a699 043d c1d1 3abe c02f 493c 252b 44be
00000290: 88cb 51be 556e f13d 8c34 eabd 0c27 703e
000002a0: 4ce0 a83e 41b8 5bbe 2161 ddbd a6bb 333d
000002b0: f51c d5bd 8e57 aabd 1977 6abd 0cfb f1bd
000002c0: 6e94 29be 3ab0 8ebc deda b9bc 7450 0d3e
000002d0: 5769 71bd 9c9d c5bd 439a 26be f0cc 4e3d
000002e0: 74a4 423e 6aa7 c83d 0c87 c43d b954 003d
000002f0: afc4 b33d cb64 61bd c4cc 403e c5bb d83b
00000300: ad9e f23c a2cd 47be 9516 e73d a6e9 59bd
00000310: 5477 123d 3944 23be 84ec 83bd 6906 3b3e
00000320: 5362 f63d 9d5c 4ebe f8e6 163e ba7b 3fbe
00000330: d798 3ebe e602 883e 4c85 f0be 93ff 86be
00000340: a3ec 01bd 3b37 8abe 7793 813e 626d 033e
00000350: fe40 9a3e b751 523e 803b 9fbe 3649 c5bd
00000360: 61f1 ec3e 0b4d 3ebe 97c3 4ebd 3c0c 633d
00000370: ddda 343f 6663 a93e 6e77 413d d20e 523e
00000380: f93c ad3c e1b2 733e 4014 ac3c 49b8 9d3d
00000390: e191 bb3d b6bc 8fbe fe9a 92bc 53fc 393d
000003a0: 5aa7 9eba 20de 2ebe 650c 19be 48e5 8a3e
000003b0: 6710 1a3e 0378 18be 4576 4c3e 6a08 033d
000003c0: 90a7 2cbd d8cb edbc 137c 08be 6476 dabc
000003d0: 4ad7 6bbd 89e0 7ebb ef18 58bd 42c9 0ebe
000003e0: 4be6 37bc 5e89 2e3d dcff 093e b2bc b53d
000003f0: 5706 20be cb61 15bd af49 9fbd 709d 01bc

bias_ih_l0 f4 [128]
-0.10056857 -0.07200385 0.010403269 0.13075593 -0.027358599 0.10341962 0.08818027 -0.10422639
-0.057174224 0.014240852 -0.14015079 -0.14607061 -0.020076847 0.1875281 -0.16363694 -0.010939822
0.00028985686 0.109134644 0.094413385 -0.083845414 0.0901911 -0.037483387 -0.109159 -0.10161858
0.01871883 -0.013070275 0.03466471 -0.04496734 0.16481745 0.11669179 0.15343082 -0.01884476
0.21250111 -0.078290924 -0.10753918 -0.12896277 0.028814148 0.18568048 0.074328676 0.23688698
0.20902935 0.14816435 0.09497441 0.16894236 -0.03485349 0.2671975 0.03436276 0.0012944042
-0.14039794 0.21000618 0.20823129 0.22878958 0.05260656 0.18123995 -0.097424746 -0.050256357
-0.05595427 0.088414416 0.022026693 0.24684888 -0.1222933 0.031050792 0.06093063 -0.019582408
-0.08619726 0.08262839 0.10006401 -0.12826154 0.015657604 0.09179247 0.0900472 0.08315686
0.2088737 -0.06680174 0.085745774 0.010812001 0.03536553 0.02205017 0.051259656 -0.07881637
-0.100233056 -0.05874324 0.19987248 -0.05667124 -0.20936072 -0.23206067 -0.097539335 0.22567472
-0.21642846 -0.07055473 0.13647015 0.003949915 -0.23640375 -0.06235608 -0.3044861 -0.12348714
0.05255437 0.28198552 0.17265712 0.16144472 0.23474999 0.29344556 0.39042914 0.084839255
0.065044545 0.22239111 0.054702755 -0.084442645 0.029344423 0.32402986 0.10835522 0.13961802
0.05672257 -0.053091068 0.19962786 0.16520798 0.008332351 0.20082536 0.10461434 -0.07433984
0.26148728 0.013350301 0.21881253 0.0069215745 -0.024400325 0.07820676 0.22591259 0.032264087
00000000: e5f6 cdbd c176 93bd 7972 2a3c e2e4 053e
00000010: 241f e0bc aacd d33d db97 b43d a574 d5bd
00000020: 852f 6abd 7652 693c b083 0fbe 8993 15be
00000030: 3378 a4bc 5e07 403e 7190 27be f03c 33bc
00000040: eef7 9739 fc81 df3d ce5b c13d 25b7 abbd
00000050: 1db6 b83d 2e88 19bd c18e dfbd 671d d0bd
00000060: 3b58 993c b524 56bc 95fc 0d3d ac2f 38bd
00000070: e8c5 283e 1bfc ee3d f81c 1d3e 5360 9abc
00000080: e499 593e fe56 a0bd 803d dcbd d10e 04be
00000090: a60b ec3c 0623 3e3e a239 983d 8092 723e
000000a0: ca0b 563e 65b8 173e f281 c23d 3aff 2c3e
000000b0: 88c2 0ebd 1cce 883e f7bf 0c3d ffa8 a93a
000000c0: 7ac4 0fbe dc0b 573e 953a 553e d147 6a3e
000000d0: fa79 573d f796 393e a086 c7bd 9cd9 4dbd
000000e0: 4e30 65bd 9e12 b53d 5371 b43c f4c5 7c3e
000000f0: e974 fabd 3b5e fe3c 6592 793d 496b a0bc
00000100: 3088 b0bd 1339 a93d 5cee cc3d fe56 03be
00000110: 6044 803c b1fd bb3d ab6a b83d 254e aa3d
00000120: fde2 553e 5acf 88bd 7b9b af3d d224 313c
00000130: 72db 103d 8fa2 b43c a5f5 513d 7a6a a1bd
00000140: fd46 cdbd c09c 70bd 5fab 4c3e 1a20 68bd
00000150: a862 56be 50a1 6dbe b4c2 c7bd 4617 673e
00000160: 6c9f 5dbe 007f 90bd d5be 0b3e 4a6e 813b
00000170: d313 72be 1769 7fbd 9ae5 9bbe d3e6 fcbd
00000180: 4043 573d 6860 903e 07cd 303e c451 253e
00000190: 4d62 703e 7f3e 963e 54e6 c73e 34c0 ad3d
000001a0: 1336 853d 7fba 633e ff0f 603d 44f0 acbd
000001b0: b763 f03c 3ee7 a53e 57e9 dd3d 07f8 0e3e
000001c0: ed55 683d 0576 59bd 3f6b 4c3e 482c 293e
000001d0: 6a84 083c 2aa5 4d3e 0b40 d63d 7c3f 98bd
000001e0: a9e1 853e 39bb 5a3c 6410 603e 60ce e23b
000001f0: 31e3 c7bc de2a a03d a155 673e 5927 043d

bias_hh_l0 f4 [128]
0.12847066 0.18748467 -0.059408832 -0.038175 0.06667619 0.19110063 -0.1584385 -0.00014135407
0.02150315 0.08637151 0.06490611 0.06268427 -0.019535314 0.19681355 0.065647684 0.040134806
-0.05075706 0.030012349 0.004170493 -0.12880667 0.095255844 0.071951374 0.18522505 -0.17509516
-0.08827853 -0.09622868 -0.0010935259 -0.14114225 0.19065987 0.1409008 0.012615828 0.01012642
0.07829304 0.14272302 0.016385559 -0.024554553 0.039226223 0.018814078 -0.048777916 -0.053083446
-0.052613426 -0.030531058 0.013642714 0.063186936 0.109690934 0.28028995 -0.122080594 -0.07263092
-0.07293247 -0.050089892 0.06322729 0.041605953 0.045013234 0.10436075 0.04741175 -0.1978309
-0.031519152 0.1333188 -0.06724712 0.027892958 0.076155365 -0.16122237 -0.058606073 0.15736958
0.09309127 0.100570336 -0.08864835 -0.09508327 0.089153685 -0.109469764 -0.11415195 0.08248701
-0.051856782 0.1558572 0.010666643 0.11814091 -0.003502889 0.09493187 0.028360633 0.027955888
-0.011332951 0.112432405 -0.08333064 0.04137729 -0.16239484 -0.19037218 0.03404505 0.16134836
-0.15227523 0.15198185 -0.06772834 0.020086693 -0.3851272 -0.10101267 -0.079457685 -0.30305132
0.31693703 0.2579583 0.07206273 -0.104872674 0.061569303 0.30664185 0.31551808 0.15856506
0.108118005 0.2351159 -6.68465e-05 -0.06367163 0.03722579 0.18318664 0.1740977 0.24169898
0.20481594 0.0052943844 -0.022325208 0.1504976 -0.008835239 0.01069448 0.22547735 0.21243857
0.13642234 0.13918303 0.0071465108 0.19232033 0.2511169 0.14539799 0.15073358 0.09697415
00000000: d08d 033e fbfb 3f3e ad56 73bd 645d 1cbd
00000010: 878d 883d e2af 433e b43d 22be 7238 14b9
00000020: 6027 b03c 8ce3 b03d 7fed 843d 9c60 803d
00000030: 8608 a0bc 7e89 493e 4b72 863d 6564 243d
00000040: a3e6 4fbd 75dc f53c a2a8 883b e5e5 03be
00000050: 7f15 c33d 3e5b 933d a3ab 3d3e 254c 33be
00000060: 60cb b4bd 8b13 c5bd a454 8fba 9887 10be
00000070: 573c 433e 4d48 103e 9eb2 4e3c 49e9 253c
00000080: 1a58 a03d fc25 123e 023b 863c a126 c9bc
00000090: adab 203d fb1f 9a3c 5acb 47bd 076e 59bd
000000a0: 2d81 57bd 451c fabc b185 5f3c 2768 813d
000000b0: a4a5 e03d 2a82 8f3e 6405 fabd 85bf 94bd
000000c0: 9e5d 95bd 0f2b 4dbd 4f7d 813d 016b 2a3d
000000d0: cc5f 383d 17bb d53d d332 423d 2f94 4abe
000000e0: 3a1a 01bd b984 083e dcb8 89bd c67f e43c
000000f0: 58f7 9b3d 7a17 25be ec0c 70bd 7e25 213e
00000100: a3a6 be3d d2f7 cd3d 448d b5bd 04bb c2bd
00000110: 3596 b63d af31 e0bd 7fc8 e9bd f3ee a83d
00000120: c767 54bd 0899 1f3e 25c3 2e3c ddf3 f13d
00000130: ba90 65bb a46b c23d 8f54 e83c bf03 e53c
00000140: d7ad 39bc f642 e63d 41a9 aabd 3c7b 293d
00000150: d54a 26be edf0 42be d372 0b3d 8138 253e
00000160: 0aee 1bbe 21a1 1b3e 28b5 8abd d98c a43c
00000170: 642f c5be bbdf cebd b6ba a2bd 8b29 9bbe
00000180: 9245 a23e 1c13 843e a095 933d 7cc7 d6bd
00000190: 1830 7c3d 2900 9d3e 968b a13e e15e 223e
000001a0: f96c dd3d 39c2 703e f12f 8cb8 4666 82bd
000001b0: 127a 183d 4795 3b3e ab46 323e f07f 773e
000001c0: 45bb 513e 847c ad3b 5be3 b6bc 0b1c 1a3e
000001d0: aec1 10bc e637 2f3c 89e3 663e 7f89 593e
000001e0: 4cb2 0b3e ff85 0e3e 472d ea3b 9fef 443e
000001f0: 6592 803e 36e3 143e e759 1a3e 629a c63d

weight_ih_l0_reverse f4 [128, 2]
0.46259418 -0.42301872 0.06910463 0.02264465 -0.020954309 -0.31131953 0.34013796 -0.531345
0.0056094113 -0.21447673 0.12697 -0.2410567 -0.29609498 0.33184263 0.03949053 -0.23394717
-0.043096606 -0.58870035 0.041985072 -0.10472577 -0.34063405 0.08150852 0.3615569 -0.16904084
-0.35217288 -0.1485919 -0.47374636 -0.29804176 0.25781932 -0.12605326 0.5099 0.17055961
0.012549433 0.05313318 -0.1353727 0.003724562 -0.17320764 0.05784681 -0.13054036 0.11692145
-0.25378582 0.09820894 -0.31978187 0.4318571 -0.8532435 -0.08705769 0.2858934 -0.13708156
-0.024041744 0.32505998 -0.69499403 -0.57156116 0.03807289 0.41871426 -0.11106772 0.2852895
0.17015392 -0.05500868 -0.10506369 0.14363639 -0.03269205 0.17283696 0.06159957 -0.20158859
0.30141622 -0.16883713 0.07227161 -0.13539362 0.0062720394 -0.34988105 0.22461507 -0.41692445
0.038915526 -0.070999235 0.3385859 -0.029261464 -0.42641488 0.26652527 0.13094017 -0.12282886
0.120822325 -0.20059673 0.024023352 -0.042675994 0.13043234 -0.058123693 0.13831079 -0.1868867
-0.17135635 0.09956924 -0.18482046 -0.15962581 0.16809726 -0.15683508 0.35779232 0.33372304
0.18468899 -0.024126804 -0.15719838 0.15535074 -0.07119332 0.16445722 -0.24276218 0.08339823
-0.08832962 0.23648688 -0.22627656 0.15607211 -0.10490068 -0.26869288 -0.099238515 -0.14124614
0.024058353 0.030495878 -0.15725756 -0.4082613 0.03813439 0.2845705 -0.07789429 0.09316087
-0.11763817 0.03159357 0.200119 0.08847826 0.04382392 0.068160854 0.1685568 -0.3340632
0.14161836 -0.265564 -0.06932979 0.6599009 -0.07180753 0.09305377 0.12265481 -0.27719292
0.24190004 0.50639373 0.40093666 0.009335713 0.252375 -0.32604757 -0.67433983 0.5559229
-0.08698489 -0.31072536 -0.29146522 0.7938315 0.14734451 -0.033337846 0.4391976 -0.32847813
0.116515785 -0.20863774 0.24483095 0.19513285 0.015242412 -0.12729418 0.6892149 0.3949011
0.052555997 -0.03467035 0.11263815 0.1865704 0.08463833 -0.3087214 -0.2321821 0.11560893
-0.17466009 0.17622581 0.17586327 -0.122316934 -0.5379706 -0.021470616 -0.002670377 0.24232394
-0.07532286 0.32284725 0.4807823 0.63582164 -0.041385923 -0.4547148 0.041268848 -0.22200911
-0.49887136 0.22328627 0.26710197 -0.15060113 0.10512812 -0.20897159 0.17410834 -0.1383526
0.32194763 -0.07428196 0.09523101 0.0017527859 -0.08661784 -0.15713462 -0.08852512 -0.27579793
-0.041328914 0.14713712 0.0959376 0.22614242 -0.56835943 0.37497613 0.11067259 -0.2235167
-0.20806669 -0.32457978 0.026188623 -0.09588524 0.24088052 0.14501785 0.461541 -0.09478598
-0.13064228 -0.09675002 -0.31107116 -0.14373124 0.2961774 -0.18619323 0.30010185 0.16193917
0.29496744 0.06480795 0.089833364 -0.4442742 -0.14564593 -0.085545965 -0.26001275 0.2065879
-0.3292484 -0.031132065 -0.28935882 0.46426693 -0.26238084 -0.2113099 -0.122367434 -0.26714557
0.033653047 0.3325965 -0.14732243 -0.44384596 -0.081948385 0.6220374 -0.19288336 0.2852096
0.40726072 -0.08015097 0.06025507 -0.05454955 -0.088852555 0.23428462 -0.024302838 -0.09499705
00000000: 25d9 ec3e e995 d8be ba86 8d3d 4681 b93c
00000010: 5fa8 abbc 4665 9fbe 9026 ae3e 3a06 08bf
00000020: 27cf b73b ca9f 5bbe 6c04 023e 91d7 76be
00000030: c399 97be 47e7 a93e d2c0 213d d98f 6fbe
00000040: 1186 30bd 11b5 16bf 8af8 2b3d 777a d6bd
00000050: 9667 aebe f0ed a63d fc1d b93e 0b19 2dbe
00000060: 0150 b4be 7a28 18be e28e f2be ee98 98be
00000070: e500 843e 1b14 01be ce88 023f 2ea7 2e3e
00000080: 239c 4d3c 2da2 593d 249f 0abe c817 743b
00000090: 585d 31be c7f0 6c3d 5fac 05be 8374 ef3d
000000a0: 37f0 81be c521 c93d 73ba a3be 601c dd3e
000000b0: 2b6e 5abf 4d4b b2bd 9f60 923e 1c5f 0cbe
000000c0: 31f3 c4bc 436e a63e 21eb 31bf d551 12bf
000000d0: 52f2 1b3d b761 d63e 7977 e3bd 7711 923e
000000e0: d43c 2e3e c850 61bd a22b d7bd 6b15 133e
000000f0: 19e8 05bd 2cfc 303e d54f 7c3d 3d6d 4ebe
00000100: 3a53 9a3e a4e3 2cbe 2303 943d a0a4 0abe
00000110: ae85 cd3b 9c23 b3be 7e01 663e 1f77 d5be
00000120: e365 1f3d 0c68 91bd 225b ad3e bdb5 efbc
00000130: 0d53 dabe 0076 883e 2e15 063e b38d fbbd
00000140: b271 f73d 3b69 4dbe 9fcc c43c 06cd 2ebd
00000150: 0e90 053e 1c13 6ebd 58a1 0d3e 3a5f 3fbe
00000160: 0a78 2fbe f5ea cb3d 9341 3dbe f374 23be
00000170: b021 2c3e 6099 20be 8e30 b73e bfdd aa3e
00000180: 1c1f 3d3e 93a5 c5bc 9df8 20be 4414 1f3e
00000190: cecd 91bd 7967 283e a696 78be b1cc aa3d
000001a0: 29e6 b4bd 9e29 723e 0bb5 67be 5ed1 1f3e
000001b0: 2bd6 d6bd 1d92 89be 903d cbbd d4a2 10be
000001c0: 0616 c53c 7ed2 f93c 2008 21be a007 d1be
000001d0: ce32 1c3d 39b3 913e 0b87 9fbd 20cb be3d
000001e0: 48ec f0bd 4268 013d ffeb 4c3e 1734 b53d
000001f0: b680 333d eb97 8b3d 279a 2c3e 550a abbe
00000200: 6704 113e 01f8 87be c7fc 8dbd 44ef 283f
00000210: d40f 93bd fa92 be3d 7232 fb3d 3bec 8dbe
00000220: a5b4 773e 05a3 013f 9247 cd3e d2f4 183c
00000230: 4c37 813e b5ef a6be 89a1 2cbf f750 0e3f
00000240: 2225 b2bd 6517 9fbe ee3a 95be 8b38 4b3f
00000250: 7be1 163e 448d 08bd 82de e03e 492e a8be
00000260: d49f ee3d 22a5 55be f7b4 7a3e e8d0 473e
00000270: 4fbb 793c 6859 02be 6370 303f 7a30 ca3e
00000280: f544 573d 7f02 0ebd d5ae e63d 500c 3f3e
00000290: dc56 ad3d bb10 9ebe 25c1 6dbe 60c4 ec3d
000002a0: 18da 32be 8a74 343e 8015 343e 4d81 fabd
000002b0: 71b8 09bf 25e3 afbc 7e01 2fbb c423 783e
000002c0: df42 9abd 3c4c a53e 1929 f63e 35c5 223f
000002d0: 4984 29bd 61d0 e8be 8609 293d 5b56 63be
000002e0: 116c ffbe 28a5 643e 97c1 883e 2f37 1abe
000002f0: 694d d73d a6fc 55be 7549 323e 4eac 0dbe
00000300: 52d6 a43e 2421 98bd 7a08 c33d bcbd e53a
00000310: b264 b1bd e6e7 20be a84c b5bd 6335 8dbe
00000320: 8248 29bd 1dab 163e ef7a c43d e191 673e
00000330: 0180 11bf dffc bf3e 50a8 e23d 90e1 64be
00000340: 6f0f 55be 522f a6be 8689 d63c 7b5f c4bd
00000350: 62a9 763e 8f7f 143e 1a4f ec3e 271f c2bd
00000360: 17c7 05be e024 c6bd b844 9fbe 482e 13be
00000370: 90a4 973e 70a9 3ebe f3a6 993e 62d3 253e
00000380: f905 973e 08ba 843d 8efa b73d e877 e3be
00000390: 3524 15be b932 afbd 6420 85be c78b 533e
000003a0: 3f93 a8be ac08 ffbc d726 94be 65b4 ed3e
000003b0: c856 86be 9f61 58be c79b fabd 4ec7 88be
000003c0: c7d7 093d 174a aa3e b1db 16be c73f e3be
000003d0: 8ed4 a7bd d83d 1f3f 3783 45be fe06 923e
000003e0: 7a84 d03e 3126 a4bd 05ce 763d 596f 5fbd
000003f0: 54f8 b5bd 4fe8 6f3e bf16 c7bc d08d c2bd

weight_hh_l0_reverse f4 [128, 32]
0.36171997 0.020033576 -0.3838436 0.56489307 -0.40802014 0.45442075 0.6714022 -0.27951834
0.4950264 -0.23903613 -0.003757091 0.22446953 -0.51198494 0.42828816 -0.250658 0.11329838
-0.5908397 -0.42739928 0.5072561 -0.24262245 0.04109136 0.64218265 -0.24387753 0.029633107
0.10968107 0.05479986 0.19621052 -0.20240262 -0.50421697 -0.32226056 -0.13270995 0.27095112
-0.034333218 0.23390853 0.1899169 0.070360556 0.1390973 0.04409809 -0.081566535 -0.39395422
-0.13730806 0.11142096 0.11053706 -0.04326942 0.2707287 -0.34890756 -0.09383912 0.120354995
0.21081218 0.3572599 -0.23273635 0.25884098 -0.41618124 -0.05284714 0.0921146 0.13975345
-0.33659437 -0.012309904 -0.22864665 0.06289842 0.023683006 0.24437214 0.22542706 -0.12976651
0.32760042 -0.3787383 -0.11314986 0.026424836 0.058571503 0.15663402 0.26610756 -0.4007248
0.08894681 -0.09627102 -0.034093942 0.120348215 0.070342414 -0.11685919 0.13669768 -0.033889264
-0.21976842 0.00024860518 -0.024239967 -0.01756448 0.021021774 -0.083891615 0.009094343 -0.25156617
-0.11788177 0.22169164 0.056779575 0.04582536 -0.0361214 0.18077986 -0.047817584 -0.192833
0.1453218 -0.48190117 -0.19132437 0.0033688154 -0.20001015 -0.014052981 0.5460297 -0.3579312
-0.06560761 -0.48988503 -0.08402335 0.27080742 0.027909655 0.073754005 0.29805958 -0.03254345
-0.17245087 0.047353275 0.119647555 -0.23323803 0.018678844 0.1578849 -0.3698698 -0.11117462
-0.060427666 0.2239778 0.5141467 -0.023820411 -0.31203732 -0.15162447 -0.062905535 0.07907323
0.21166587 -0.32367197 0.04434975 0.02922262 -0.19269133 -0.10076881 0.5106189 -0.16095628
0.08679396 -0.548329 -0.03928028 0.12922823 -0.118082665 0.04110849 -0.02221259 -0.4094927
-0.31272346 -0.2039702 0.11619523 -0.21118818 -0.13842563 0.24145718 -0.22047484 0.13891676
-0.2777938 0.23570433 0.1165698 0.5009846 -0.041394256 -0.03891274 0.16378222 -0.16277218
0.25063995 -0.30077904 0.016717497 0.097074635 0.06859165 0.28368253 0.042520966 -0.47183132
-0.14250065 -0.38986546 0.016288007 -0.060770277 0.026431734 0.43602115 0.14922452 0.058131013
-0.122918785 -0.22363529 -0.05301686 -0.5278573 0.12593713 0.101386145 -0.37611017 0.005074591
0.11477343 0.11240648 0.1180189 -0.12192754 -0.4006249 0.15136519 0.20100504 0.038690135
-0.1733688 0.097988665 0.30145505 -0.43028447 0.13799101 -0.5794018 0.012404727 0.049339812
-0.37676203 0.026904866 0.08755411 0.024441857 -0.03490715 -0.3158816 0.043456808 -0.18985388
0.24166144 0.52041835 -0.22786756 0.5901893 0.085645735 0.123308465 0.05895286 -0.10130139
-0.0975856 0.27047884 -0.012605559 0.047790248 0.2915234 0.047964834 -0.13573541 -0.18529245
0.090887345 0.026427101 0.4268622 -0.20159183 -0.02882998 -0.10327154 -0.36646882 -0.2456826
-0.070269436 -0.008534891 0.41919577 -0.08362884 -0.009316455 -0.10859163 -0.18753454 -0.2773834
0.19584708 -0.021707151 -0.47194862 0.20220031 -0.66331536 -0.019454947 0.03833281 0.43208873
-0.107134886 0.012520164 -0.32283977 0.48386574 -0.018148614 0.12779203 0.033432048 -0.3469969
00000000: 5c33 b93e 741d a43c 2687 c4be d59c 103f
00000010: 04e8 d0be d6a9 e83e 04e1 2b3f 071d 8fbe
00000020: 1a74 fd3e e3c5 74be 8739 76bb 57db 653e
00000030: 7211 03bf 9648 db3e 3f56 80be fb08 e83d
00000040: 4541 17bf 14d4 dabe 89db 013f 0572 78be
00000050: 6a4f 283d 1566 243f 08bb 79be 21c1 f23c
00000060: 78a0 e03d d175 603d 69eb 483e a242 4fbe
00000070: 5d14 01bf 56ff a4be 1ee5 07be 1bba 8a3e
00000080: fda0 0cbd b885 6f3e 9379 423e 3219 903d
00000090: 866f 0e3e 33a0 343d 5b0c a7bd 5eb4 c9be
000000a0: 7c9a 0cbe ac30 e43d 4161 e23d 463b 31bd
000000b0: f49c 8a3e 03a4 b2be b92e c0bd ae7c f63d
000000c0: 26df 573e c5ea b63e 7052 6ebe ce86 843e
000000d0: b515 d5be 3e76 58bd 94a6 bc3d 871b 0f3e
000000e0: 1956 acbe 7baf 49bc 5922 6abe e3d0 803d
000000f0: dd02 c23c b13c 7a3e 5ad6 663e 83e1 04be
00000100: 3ebb a73e fde9 c1be 1dbb e7bd e678 d83c
00000110: ace8 6f3d ab64 203e 403f 883e cd2b cdbe
00000120: bf29 b63d be29 c5bd 17a6 0bbd 2079 f63d
00000130: af0f 903d df53 efbd 7afa 0b3e 78cf 0abd
00000140: f90a 61be 3957 8239 e592 c6bc 62e3 8fbc
00000150: db35 ac3c 5ecf abbd 7000 153c 48cd 80be
00000160: ff6b f1bd 2203 633e b391 683d 5fb3 3b3d
00000170: 08f4 13bd 5b1e 393e 5fdc 43bd 0476 45be
00000180: 3dcf 143e c0bb f6be 89ea 43be 58c7 5c3b
00000190: 76cf 4cbe 793e 66bc 9ac8 0b3f c242 b7be
000001a0: 485d 86bd 36d2 fabe 6f14 acbd 45a7 8a3e
000001b0: caa2 e43c 570c 973d 449b 983e 484c 05bd
000001c0: f696 30be 82f5 413d c709 f53d f3d5 6ebe
000001d0: 6004 993c 94ac 213e 935f bdbe 85af e3bd
000001e0: 0083 77bd 705a 653e 1e9f 033f 0623 c3bc
000001f0: 5bc3 9fbe 7243 1bbe 9ed4 80bd 25f1 a13d
00000200: f0be 583e 55b8 a5be 15a8 353d 4764 ef3c
00000210: e050 45be e15f cebd ecb7 023f b9d1 24be
00000220: 08c1 b13d 4a5f 0cbf 5ce4 20bd 6854 043e
00000230: 53d5 f1bd 6061 283d 2df7 b5bc 07a9 d1be
00000240: 4a1d a0be 90dd 50be c4f7 ed3d b741 58be
00000250: 73bf 0dbe 8d40 773e 28c4 61be 3240 0e3e
00000260: fd3a 8ebe 7a5c 713e 26bc ee3d 8740 003f
00000270: 068d 29bd f762 1fbd 87b6 273e c0ad 26be
00000280: e153 803e b6ff 99be 22f3 883c 11cf c63d
00000290: c779 8c3d d63e 913e 772a 2e3d e093 f1be
000002a0: b1eb 11be 729c c7be 6d6e 853c 41ea 78bd
000002b0: 5d87 d83c 2a3e df3e 50ce 183e c91a 6e3d
000002c0: d8bc fbbd a600 65be 3528 59bd a821 07bf
000002d0: aaf5 003e 8aa3 cf3d 8391 c0be c148 a63b
000002e0: 550e eb3d 5e35 e63d e5b3 f13d 25b5 f9bd
000002f0: b51e cdbe 7aff 1a3e 44d4 4d3e 8c79 1e3d
00000300: 9787 31be 48ae c83d 5158 9a3e 3f4e dcbe
00000310: 844d 0d3e ad53 14bf 323d 4b3c 8b18 4a3d
00000320: f4e6 c0be 9867 dc3c 924f b33d 4a3a c83c
00000330: cdfa 0ebd 3cbb a1be c4ff 313d 0e69 42be
00000340: 1976 773e 233a 053f 1d56 69be a516 173f
00000350: 0867 af3d 2689 fc3d 8e78 713d 1a77 cfbd
00000360: f6da c7bd 347c 8a3e 8c87 4ebc b5bf 433d
00000370: 8e42 953e c676 443d 39fe 0abe 4ebd 3dbe
00000380: 2523 ba3d a67d d83c af8d da3e 176e 4ebe
00000390: da2c ecbc 0780 d3bd cda1 bbbe 3894 7bbe
000003a0: 6ce9 8fbd edd5 0bbc d4a0 d63e 9945 abbd
000003b0: 0ba4 18bc 4a65 debd 0e09 40be 3205 8ebe
000003c0: 238c 483e 32d3 b1bc 40a3 f1be 990d 4f3e
000003d0: 09cf 29bf fb5f 9fbc dd02 1d3d bc3a dd3e
000003e0: 8969 dbbd 6021 4d3c 414b a5be 40bd f73e
000003f0: 67ac 94bc eadb 023e 0bf0 083d 94a9 b1be
