TS-CVAE/experiments/pedestrians/models/zara2/models_22_Jun_2021_00_49_41_zara2_ar3/model_registrar-94.pt (torch_old, 545378 bytes, 43 tensors)

weight_ih_l0 f4 [128, 6]
000000 6f b6 b6 bd bf 8e 8a 3d d9 57 05 be cf 6f 4c bd
       -0.08921515 0.06765508 -0.13021792 -0.049911316
000010 42 b5 3a bd 7a af 53 3e c1 e2 18 be 37 ad 6d be
       -0.045583017 0.20672408 -0.1493025 -0.23210607
000020 d9 f9 ae bd 9f e3 9b 3e 30 fe 8d 3d bd 9a 08 3e
       -0.085437484 0.304471 0.06933248 0.13340278
000030 c9 92 66 3e 93 97 a3 3e 16 16 d6 be 07 4f e1 be
       0.22516932 0.3195158 -0.41813725 -0.44005606
000040 31 cf 8c 3c be f2 50 3e 25 59 35 bd 65 19 2a 3e
       0.01718864 0.20405099 -0.044274468 0.1661125
000050 ab bd 2a 3e 28 9c 33 bc 29 19 19 3d b3 34 a8 3d
       0.16673915 -0.0109625235 0.03737751 0.082131766
000060 a1 01 59 3d a5 4b 14 be 58 c8 15 be 25 22 1b 3f
       0.05298007 -0.14481981 -0.14627206 0.60598975
000070 b7 23 04 be c6 54 0d bf 13 6d 76 3e b4 ba e3 bd
       -0.12904249 -0.5520748 0.24065046 -0.11119595
000080 e1 33 83 3c ce ab 46 3e 89 d2 3a 3d 9f c1 9c bd
       0.016015949 0.19401476 0.04561094 -0.07654118
000090 69 d5 21 be 55 43 99 bd 4b 66 8c 3d 54 b0 31 3d
       -0.15804066 -0.07483546 0.06855448 0.04338105
0000a0 fd c0 b7 be 0f 94 ac be 94 4c e7 bd 53 0a 73 3e
       -0.35889426 -0.3370671 -0.11293903 0.23734407
0000b0 30 4d 79 3e 7f 3a 90 bd 2e ad 29 bd 08 a6 96 3d
       0.24345851 -0.07042407 -0.041424923 0.07355887
0000c0 31 51 79 3e 37 da f1 bb c9 67 26 3e 95 32 57 3c
       0.24347378 -0.0073807496 0.16250528 0.013134618
0000d0 25 39 29 be 54 75 2a 3d 2d bd 2b bf a3 3e 07 bf
       -0.16525705 0.0416158 -0.67085534 -0.5282995
0000e0 02 5a c9 3e 95 0a 93 3e 3e 4f 9e bc 8c a0 70 3a
       0.39326483 0.2871901 -0.019324895 0.0009179197
0000f0 6a 78 c0 3e 18 a8 e1 bd 11 4f 14 bf 7d a2 56 3e
       0.3759187 -0.110183895 -0.57933146 0.20960422
000100 eb 8e 00 be 95 4a da 3d b5 14 f2 be 9f ee 30 be
       -0.12554519 0.10658757 -0.47281423 -0.17278527
000110 da c0 9e 3e 1d 8a 85 3e 4c d0 52 3e cc 58 e0 3d
       0.3100651 0.26081935 0.20587271 0.10954437
000120 92 08 3b bd 71 dd d5 bd 18 88 13 3d 3f 63 e5 bd
       -0.04566247 -0.10442627 0.03601846 -0.1120057
000130 94 19 88 bc 94 d4 85 bc 0b d6 1e be 82 4e 87 3e
       -0.01661376 -0.016336717 -0.15511338 0.26427084
000140 1f 39 41 3e 33 bc 83 3c 56 45 f3 3b 11 74 50 3e
       0.18869446 0.016080951 0.007424037 0.20356776
000150 2a ff 81 be bb 5e e2 3c 71 26 0c be ab a0 3b 3d
       -0.25389987 0.027633062 -0.13686539 0.04580752
000160 2c 9a 04 3f d9 42 2c bb 03 62 93 be 21 5c 3a 3e
       0.5179775 -0.0026284961 -0.28785715 0.18199207
000170 f0 66 dd 3e f8 75 c2 bc 99 90 2a bd ac 09 f8 3d
       0.43242598 -0.023737893 -0.041641805 0.1211122
000180 4c 71 db bd 80 e8 d9 3e 36 5a fe 3e 14 ba 9a bd
       -0.10714969 0.42560196 0.496782 -0.07555023
000190 b4 13 bd be a0 84 39 bf 6d 94 dc bc ce 06 11 be
       -0.36929095 -0.72467995 -0.026926244 -0.14162752
0001a0 08 9d d1 bb 2c 11 dc bd f3 49 d9 3d b2 99 8b 3e
       -0.0063968934 -0.10745463 0.10609808 0.27265698
0001b0 89 ef 24 3d 55 5a 1e 3e 5f c1 84 3e 24 4b 6b be
       0.0402675 0.15464146 0.2592878 -0.22977883
0001c0 13 6f 32 3e 6a 58 75 3e 65 7f 8b be 1d 75 c5 bd
       0.17425184 0.23959509 -0.27245632 -0.09641478
0001d0 7e 02 02 bc 04 d6 89 3e ac ef cf 3d 09 65 a0 3d
       -0.0079351645 0.26921093 0.10153136 0.07831771
0001e0 15 68 0e be 88 5f 63 3e 04 ad fc 3d 40 0b df be
       -0.13906892 0.22204411 0.123376876 -0.4356327
0001f0 12 5d 01 bd 17 2f fa 3d 49 92 d2 3e a8 2a 09 3f
       -0.0315829 0.12216013 0.41127232 0.53580713
000200 98 67 a2 be 3e 66 ec be cc 8f c1 3d 0d 26 80 3e
       -0.3171966 -0.46171755 0.09451255 0.2502903
000210 d7 bf a6 bd ae 69 7a be 4f df 72 3d b9 62 a6 3d
       -0.08142059 -0.24454376 0.059294995 0.081242986
000220 c2 48 af bd 37 6e 08 be 34 56 04 3d fb 75 28 bd
       -0.08558799 -0.13323294 0.032308772 -0.04112814
000230 48 a8 d9 3d 05 b5 f1 bd c7 f0 41 3e 3c fa 51 3d
       0.106278 -0.11802105 0.18939506 0.051264033
000240 7e b9 39 bd 51 3c 81 be 91 ff 78 bd 6a b3 2f 3e
       -0.045342915 -0.2524133 -0.060790602 0.17158285
000250 52 ad 20 bf fb bb d0 3d b7 ca cb 3d f9 e5 dd 3d
       -0.62764466 0.101921044 0.09950774 0.108348794
000260 0f e3 7a be 06 76 db 3c 83 1a 31 be 70 55 ca bd
       -0.24500678 0.026789676 -0.1729527 -0.09879577
000270 cb 57 8a bb 8f 0f dc be af 45 6b be 9f 2d 46 3e
       -0.0042218915 -0.4298062 -0.22975801 0.1935334
000280 e7 7a 1e 3c e3 1e 0c 3d ec 49 05 3e d3 b5 ba 3e
       0.009672857 0.034209143 0.1301648 0.36466846
000290 11 40 7f 3e d1 81 82 3e 3e e9 99 bd 42 9b 7d 3e
       0.24926783 0.25489667 -0.075151905 0.24766257
0002a0 6a 0f 90 be a9 8e 3f 3e 9c ed 8c bc 83 40 3a 3c
       -0.2813676 0.18706764 -0.017203145 0.01136792
0002b0 ba a2 87 3e ce 74 89 3b b0 f9 3d be 1f bb aa bd
       0.26491338 0.0041948324 -0.1855228 -0.08336472
0002c0 6a 97 54 bd fe 25 45 bd ed b1 b6 3c 0f 9c 0f 3e
       -0.051902212 -0.048131935 0.022301638 0.14024375
0002d0 9d 35 eb bb 50 70 72 bd 3e c0 26 3e 6b 37 90 bc
       -0.007178022 -0.05918914 0.16284272 -0.01760455
0002e0 e6 c1 eb bd 8a a4 c2 ba 54 5f d5 3d 71 0c 89 3d
       -0.115115926 -0.0014850062 0.10418573 0.06691826
0002f0 48 b5 66 3b a7 bf 79 bc 5d 0c 4e be b4 a0 0d be
       0.0035203267 -0.015243447 -0.20121904 -0.13830835
000300 c0 f0 94 3e f4 2e 19 3e e6 ee 14 be f7 6b 59 be
       0.29089928 0.14959317 -0.14544258 -0.21232592
000310 10 59 87 bd 6e da 54 be 32 24 27 3c ee 9b 17 be
       -0.06608784 -0.2078645 0.010201501 -0.14805576
000320 64 f5 e8 bb 98 70 e5 3d ea d9 36 bd ac 3b a1 bd
       -0.007109331 0.11203116 -0.044641413 -0.0787271
000330 13 55 3b be d4 b8 c1 3c a9 70 86 3d 89 37 a2 bc
       -0.18294172 0.023647703 0.06564457 -0.019801872
000340 85 e5 8a bd a7 75 b3 be 6c 42 6e 3d fb 24 31 3d
       -0.067820586 -0.350507 0.058168814 0.043248158
000350 21 69 18 3e 1e 7c 44 bd 46 4b ca bd 4c b8 74 be
       0.14883853 -0.04796993 -0.098776385 -0.23898429
000360 58 a9 f0 3c d9 42 84 be 62 f3 d4 3d a7 35 5c bc
       0.029377624 -0.2583225 0.10397984 -0.013440526
000370 01 8d 28 be 58 ec 9c 3d 87 71 14 3e 67 c2 48 bd
       -0.16460039 0.076622665 0.14496432 -0.04901352
000380 23 65 c6 3d 0d 59 33 be 0c 79 bf be 58 ce d5 bd
       0.09687259 -0.17514439 -0.3739704 -0.104397476
000390 cb 0a 0e be 8a 8e e1 bd eb a9 bf 3d bd 23 b3 bc
       -0.13871305 -0.11013515 0.09358581 -0.021867627
0003a0 92 c4 eb 3d 00 51 2a 3d 70 f9 2a 3d 1d 76 37 3c
       0.11512102 0.041581154 0.04174179 0.011197594
0003b0 c2 b5 42 3e 38 cf 7e bd 3b 60 86 bc 1e d7 73 bd
       0.19014648 -0.062209338 -0.016403308 -0.059531324
0003c0 f5 8c 49 3e fb aa 87 3c 15 ba f6 3c e1 f9 9e bc
       0.19682677 0.016561022 0.030118028 -0.01940626
0003d0 ab 93 fe be 54 91 4d 3e d7 3d 00 bf 65 59 2d be
       -0.49722037 0.2007497 -0.5009436 -0.16928633
0003e0 b3 03 85 3e a6 af 71 3e 0e 27 7c 3e 9c a9 9b bd
       0.25979385 0.23602161 0.24624273 -0.0760071
0003f0 6f 4f d7 3e 2d 14 a6 bd 8b 4c 80 be f6 95 26 3e
       0.4205279 -0.08109317 -0.25058398 0.16268143

weight_hh_l0 f4 [128, 32]
000000 5f 7a 8a bd 76 a0 26 be 2f 14 f8 3e 68 05 36 3d
       -0.06761622 -0.16272148 0.484529 0.04443875
000010 95 57 83 3e 58 15 97 3e 30 59 99 be f3 fd 1c bc
       0.25652757 0.2950847 -0.29950857 -0.009582031
000020 ac bf b3 3e 3f e7 f6 3e 1e 34 ae be d7 9a 11 3f
       0.35107172 0.48223302 -0.34024137 0.5687689
000030 b1 57 11 be 61 0f 46 3e 30 c8 79 be dc 89 12 3e
       -0.14193608 0.19341804 -0.24392772 0.14310402
000040 6d 8e 59 be 33 35 f6 bc c4 29 d9 3e e4 f1 24 bf
       -0.21245737 -0.030054664 0.42414677 -0.64431596
000050 66 04 53 be 24 40 b9 3e bf 3d d8 bb ad eb a8 be
       -0.20607147 0.36181748 -0.0065991576 -0.32992306
000060 a6 87 86 3d a5 1a c8 be 22 18 d6 3e 0a 8d 6a bd
       0.06568842 -0.39082828 0.41815287 -0.05726341
000070 c2 1d a5 be 94 58 63 3e 8e 3d 09 bd 33 8a 96 be
       -0.32249266 0.22201759 -0.03350597 -0.29402313
000080 a4 68 54 3e fa 4b f2 be 5a 65 a2 3e 1c 27 3f be
       0.20743042 -0.4732359 0.3171795 -0.18667263
000090 31 39 85 3e a4 f3 c4 3e c6 36 1c bd 76 8a 0b be
       0.26020196 0.38467133 -0.038138174 -0.13627037
0000a0 47 b3 f9 3e 77 02 03 3e ca 94 99 be be 4d 5f 3d
       0.4876959 0.12793909 -0.2999633 0.0545175
0000b0 a4 a0 8e bc 98 68 99 3e a3 2d 8a be 7a f2 9e bc
       -0.017410584 0.2996261 -0.26987943 -0.019402731
0000c0 af 50 14 be a8 29 1e 3e 1f d8 07 3f 80 14 21 bf
       -0.14483903 0.15445578 0.5306415 -0.62921906
0000d0 6a 3a 5a 3d af 50 1f 3e 53 8a 83 be ca 1a 9e be
       0.053278364 0.15558122 -0.2569147 -0.30879813
0000e0 76 2a 03 be 1b 8c 79 be b3 b4 80 3e 3c fa 14 bf
       -0.12809166 -0.24369852 0.25137863 -0.5819433
0000f0 0f ee 28 bf a9 b3 43 3c 08 94 64 3e 66 3a af bd
       -0.6598825 0.01194469 0.22322094 -0.085560605
000100 0d 7e f4 3d 4c 0c 86 3c ef d7 04 be 7a 0b 0b 3e
       0.11938105 0.016363285 -0.12972997 0.13578597
000110 02 8c f0 3d 20 22 16 bd a2 93 4b be 63 38 8b be
       0.11745454 -0.036653638 -0.19880536 -0.27191457
000120 68 60 c6 bd c0 2d 37 3d 18 79 86 be fb 28 58 3b
       -0.09686357 0.044721365 -0.26264262 0.003298341
000130 8e 87 20 be 63 bd 5f be 0a a1 5b 3e a5 d2 64 be
       -0.1567671 -0.21849589 0.2144815 -0.2234598
000140 89 40 d3 bc a0 fb 42 bc 5d ad 23 3e ff 60 46 bd
       -0.025787609 -0.011900812 0.15984102 -0.048432346
000150 8b a3 9a bc 50 8a 8e 3c 79 f9 9d 3e b2 5a 93 3d
       -0.018876811 0.017399937 0.30854395 0.07195033
000160 48 8b 88 3e de ae db 3d 4c ba e5 3c f5 29 f8 3d
       0.26668763 0.10726713 0.028042935 0.12117378
000170 43 1f 09 3e b3 ba 45 3d 6c 8f 81 be d5 a5 2e 3e
       0.13390832 0.048273753 -0.25304735 0.17055447
000180 5c 08 23 bd 27 51 c3 bc 99 ac a3 3e 86 66 e8 3d
       -0.039802894 -0.023842407 0.3196762 0.1134768
000190 c1 54 a0 bd 64 cf 02 3e 47 88 81 be c0 3e 2b 3c
       -0.078286655 0.12774426 -0.25299284 0.0104519725
0001a0 25 fc 7f 3e f5 b8 b9 3e d6 59 21 bf 7c e7 2c 3e
       0.2499853 0.36273924 -0.63027704 0.1688518
0001b0 57 00 72 be 73 f9 d8 bd c5 87 1a bf 99 05 28 be
       -0.23632942 -0.10594454 -0.6036342 -0.16408385
0001c0 79 aa 54 be 8b f6 57 3e 10 06 16 3f 87 60 50 bf
       -0.20768155 0.21090142 0.58603 -0.8139729
0001d0 b0 a1 39 be 5e ee cb 3e a8 25 d1 3d af b8 3c be
       -0.18128085 0.39830297 0.102122605 -0.18429826
0001e0 d5 1b b6 3d 8b 73 6c be 69 99 aa 3e 60 6d e5 be
       0.08892027 -0.23090951 0.33320168 -0.4481001
0001f0 8d 38 2d bf 52 c1 06 3e 24 b0 07 3e 02 af cd bd
       -0.67664415 0.13159683 0.13250786 -0.10043146
000200 a5 5d a8 be 05 8f aa bd d3 7a 15 3f 13 39 12 be
       -0.32883945 -0.0832806 0.5839054 -0.14279585
000210 9d 10 fe 3d ae aa 8d 3d 72 cf 81 bd 83 7f f8 bd
       0.124055125 0.0691732 -0.06338395 -0.12133696
000220 49 5b a9 3e 76 b7 c4 3d 1e 24 82 be 7c c9 57 3e
       0.33077458 0.09605305 -0.2541818 0.21072954
000230 90 dd 63 bd 2e 9e 54 3d 6f b0 55 be 39 fb 1c bd
       -0.05563122 0.051908664 -0.20868085 -0.038325522
000240 64 42 b0 be e0 68 86 3e 4b d4 83 3e 93 bc 13 bf
       -0.34425652 0.26251888 0.25747904 -0.57709616
000250 7c 00 fb bd 9f fd 4a 3f fb aa 4c 3e 13 5c a1 be
       -0.12255952 0.79293245 0.19987099 -0.3151556
000260 b6 d1 97 3c 3c 70 5e be ca 88 69 3e dc aa 15 bf
       0.018532615 -0.21722502 0.22806087 -0.58463836
000270 ff 8e fa be dc 8d 65 3d 70 56 fe 3c aa a5 c1 bd
       -0.48937222 0.05604349 0.031047076 -0.09455426
000280 44 2f ab 3c ce 93 75 be f7 dc 56 3e 9c 60 3a be
       0.020896561 -0.23982164 0.20982729 -0.18200916
000290 8a 13 01 3d 71 69 2b 3c e4 99 21 3d 69 46 b6 bd
       0.031512775 0.010462151 0.039453402 -0.089001484
0002a0 85 01 da 3b 31 42 40 3e 53 09 4d 3d 07 40 8e 3d
       0.006653013 0.1877525 0.05005772 0.06945806
0002b0 f4 2e 74 be 32 08 04 3e 41 c3 06 be 4a d9 8c be
       -0.23846036 0.12893751 -0.13160421 -0.27509528
0002c0 81 f0 99 bd 46 dc 80 3e 35 51 d3 bd 0b b2 d4 bb
       -0.075165756 0.25168055 -0.103182234 -0.006490951
0002d0 b3 2d b0 3d 04 ce 77 3e 69 3d 8b be 1d 81 3f be
       0.086024664 0.24199682 -0.2719529 -0.18701597
0002e0 74 4b 1d be 7d ee 43 be f0 8d 6f 3e bb fe 7b 3d
       -0.15360814 -0.19133945 0.23393989 0.061522227
0002f0 92 15 6a bd 5f be 25 3e d1 e8 92 3e e2 16 8f 3d
       -0.057149477 0.16185902 0.2869325 0.069867864
000300 06 2e 2e 3d 09 7f 2a 3c 0c 75 1d bd f9 b9 59 3d
       0.04252436 0.010406264 -0.038441703 0.053155873
000310 7a 82 2b 3d 70 11 7f 3d fc b7 a7 bc e9 cc 8f be
       0.04187248 0.06227249 -0.020473473 -0.28086022
000320 9e 1a dc 3b 1d ae 95 3e f3 de 70 be 80 2b 43 3e
       0.00671704 0.292344 -0.23522548 0.19059563
000330 d2 3b a3 bc 7c 69 27 3e 5c 08 36 bd 21 77 0d 3e
       -0.019925985 0.16348833 -0.044441566 0.13814975
000340 f6 c7 37 bd 73 38 06 3d 8a 27 c9 3d 40 87 b3 be
       -0.044868432 0.032768678 0.098219946 -0.35064125
000350 2e c7 30 3d a5 47 d5 3e aa e3 96 3e 87 e0 ed bd
       0.043158703 0.41656223 0.2947057 -0.11615091
000360 ee 0e ad bd fe 47 f3 bc 2f a1 9d 3e 2f 4e d0 bd
       -0.08450113 -0.029697414 0.30787036 -0.10171162
000370 8d 3c b8 be d7 e4 9c 3e f5 82 6a be 75 6d 68 3d
       -0.35983697 0.3064334 -0.22901519 0.05674501
000380 dd ce 4f 3e 23 be 28 be 00 3e f7 bd 14 95 22 3d
       0.20293756 -0.16478781 -0.120723724 0.039692953
000390 5a 52 af 3d 1b 5d 9b 3d 83 a4 6a 3e c8 d7 fa 3a
       0.08560629 0.07586118 0.22914319 0.0019137794
0003a0 ef 6c 39 3e a7 b0 8a be e0 9f 72 bb e3 9f 5f be
       0.18107961 -0.270879 -0.0037021562 -0.21838336
0003b0 a9 06 1a 3e 27 7d ed 3c 74 e1 cb bd 59 4c 60 3d
       0.15041603 0.028990341 -0.09955111 0.05476031
0003c0 33 70 1f 3d c2 65 7e bb 3e 0d 89 3e 78 d2 bc be
       0.03892536 -0.0038817977 0.26767915 -0.36879325
0003d0 c9 7b 81 be bc de 87 bc 2d 24 1f bc 28 9a 75 be
       -0.25289753 -0.0165857 -0.009713215 -0.23984587
0003e0 73 9e 02 bc 06 d9 7b 3e ed db 57 3e 25 86 71 be
       -0.007972348 0.24594507 0.21079989 -0.23586328
0003f0 f5 e2 3d be 9c 06 eb 3c 84 78 27 bc 1b 7c 2c 3e
       -0.18543608 0.028689675 -0.010221604 0.16844217

bias_ih_l0 f4 [128]
000000 cf b3 a3 3d 68 e7 bd 3e ab 4f 8d 3e 19 10 67 3d
       0.0799328 0.3709061 0.27599844 0.056411836
000010 3c e6 7a 3e 99 44 b7 3e fc 5b 82 3e 83 fc 4a 3e
       0.2450189 0.35794523 0.25460804 0.19822888
000020 2d e9 0a 3e 14 d8 97 3e e0 9a d9 3e 3b 2c a5 3e
       0.13565512 0.29657042 0.42500973 0.32260308
000030 a1 fe f9 3e bf f0 92 3e 23 8c 5b 3e 08 42 c4 3e
       0.4882708 0.286993 0.21440177 0.38331628
000040 ae 85 6d 3d 22 f4 b9 3e 86 cf ae 3d d6 97 35 3e
       0.057988815 0.3631907 0.08535676 0.17733702
000050 6c 8f 00 3f c8 b3 5e 3e 82 09 19 3f 89 3f 7c 3d
       0.50218844 0.21748269 0.5978013 0.06158403
000060 bf 1d be 3e f8 5a 0c 3e 2c 56 8f 3d 1a 29 9e 3d
       0.3713207 0.13706577 0.06998858 0.07722683
000070 87 c7 22 3d 49 de ae 3e cc 72 ab 3e 03 c8 e9 3e
       0.039741065 0.34153965 0.3348602 0.4566041
000080 ef fd 35 3d a7 9c 0c bf 90 5b db be d8 18 8d 3c
       0.044431623 -0.5492653 -0.42843294 0.01722376
000090 ad b0 dd be 24 dd 74 be ea fd cb be 90 37 b3 be
       -0.43298855 -0.23912483 -0.3984216 -0.35003328
0000a0 93 8a 36 be 90 ad 84 be 65 bd 2c be 35 90 76 bd
       -0.178263 -0.25913668 -0.16869123 -0.06019612
0000b0 98 66 db be f5 eb 96 be 79 5a df bd 77 c4 42 bf
       -0.4285171 -0.29476896 -0.10905928 -0.7608103
0000c0 f2 d2 0e bd 1f 59 8f be 93 e7 39 bd 16 6a b2 3d
       -0.034869142 -0.27997681 -0.045386862 0.087116405
0000d0 cf 88 18 bf 81 1c 13 be bb 4b 8e be 65 bb 94 bd
       -0.59583753 -0.14366342 -0.27792153 -0.07262305
0000e0 95 85 41 be 38 45 ce 3d 06 75 78 3d 0c f4 dd 3d
       -0.18898614 0.10071796 0.060658477 0.10837564
0000f0 2f 30 90 bc 6e d8 1d bf 76 3f fb be 6a db 22 bf
       -0.0176011 -0.6165837 -0.49071854 -0.6361605
000100 66 7b 08 3e 74 37 e7 3d e9 42 23 bd 94 3d 36 3d
       0.13328323 0.11289874 -0.039858732 0.04449232
000110 50 b4 b4 bd 97 55 05 3d 24 d0 aa 3d b5 e9 2f bd
       -0.088234544 0.032552328 0.08340481 -0.04294749
000120 03 9c 32 3b c2 66 a5 3d a3 ba be bd 37 cf 2c 3d
       0.0027253635 0.0807624 -0.09312942 0.042189803
000130 c3 82 de bd b1 67 dc bc 59 0f 57 bd 49 0d c7 bd
       -0.108647846 -0.026904913 -0.05250487 -0.09719331
000140 94 72 9c bd 37 6d c4 bd 16 36 3b 3e 92 b5 2a be
       -0.076390415 -0.095911436 0.18282351 -0.16670826
000150 64 74 52 3d 7e 38 ab 3d 7a 8a d8 3d cd 7b 0d be
       0.05138053 0.083603844 0.10573287 -0.13816758
000160 44 45 ef 3d 01 e1 c8 bd bb 92 a2 3d 6a e3 34 be
       0.11683133 -0.09808541 0.07938143 -0.17664877
000170 dd 14 ed bd 57 8b 01 3e 4a 5a dd 3c b1 2a a4 bd
       -0.11576245 0.1265081 0.027020592 -0.08015955
000180 be b5 8d 3e 68 ed 90 3e 9f 7d 9b 3e d1 33 3f 3e
       0.2767772 0.28306127 0.3036928 0.1867211
000190 b0 24 c8 3e 3a 04 9c 3e ed de 96 3e 1c f4 58 3e
       0.3909049 0.30471975 0.29466954 0.2118687
0001a0 9e e0 10 3d f8 29 b7 3e e6 c4 58 3e fb 72 86 3e
       0.03537046 0.35774207 0.21168861 0.26259598
0001b0 8d b8 d4 3e 30 b2 87 3e eb 4e 73 3e 7c 09 09 3f
       0.4154705 0.26503134 0.23760574 0.53530097
0001c0 e9 61 76 3e a3 5a 8a 3e d4 46 2e 3e b9 4f 87 3d
       0.24060787 0.27022275 0.17019206 0.06607003
0001d0 bc 14 10 3f 3c 8f 76 3e f7 f9 08 3f 98 55 f7 3d
       0.5628164 0.24078077 0.53506416 0.120768726
0001e0 a2 d5 0e 3e 14 19 3e 3e 86 eb 86 3e 20 c8 2e 3c
       0.13948682 0.18564254 0.26351565 0.010667831
0001f0 ad f0 38 3e 90 1e 09 3f 77 51 bd 3e d7 3f bc 3e
       0.1806056 0.5356226 0.36976215 0.36767456

bias_hh_l0 f4 [128]
000000 f1 fd 11 3d 6e 9d c4 3e 0d 9f 11 3e b5 1f 5f 3e
       0.035642568 0.3840136 0.1422083 0.21789439
000010 f6 0f c7 3e f8 8f e9 3d ca a0 1c 3e 09 68 c0 3e
       0.38879365 0.11404413 0.15295711 0.37579373
000020 50 17 62 3e 4c 45 ec 3e e4 99 2c 3e b2 85 4a 3e
       0.22079206 0.4614662 0.1685558 0.19777563
000030 2c fa 7f 3e 9b cd 14 3f dd 8a 82 3e 5c 32 0b 3f
       0.24997777 0.5812623 0.2549657 0.5437372
000040 7a 63 ed bc fb 24 b6 3e 9f 4e 29 bc d3 40 08 3e
       -0.028978098 0.3557509 -0.010333686 0.13305978
000050 a1 5d 26 3f e1 e0 cb 3e f7 56 20 3f 1c e7 00 3e
       0.64986616 0.39820006 0.626327 0.12588161
000060 39 c4 8b 3e 43 ba f9 3d fd fc 12 3e d1 31 6b bc
       0.27298144 0.1219373 0.1435432 -0.014355139
000070 9b 8f 2b bd ae 15 aa 3e d2 0a cf 3e 42 bd 01 3f
       -0.041885 0.33219665 0.40437943 0.5067941
000080 ca 90 35 bd de ee 05 bf 53 52 43 be a2 74 41 be
       -0.044327535 -0.5231761 -0.19074373 -0.18892148
000090 3d 3a ff bd 68 39 9c bd 30 d4 83 be 57 5e fd be
       -0.1246228 -0.07628137 -0.25747824 -0.49486038
0000a0 21 d0 d7 bd b6 76 a1 be cd 59 19 be d7 98 f8 bd
       -0.10537744 -0.31535882 -0.14975663 -0.12138527
0000b0 46 d3 dc be 1a cb f2 be f2 79 4b bb 53 f0 35 bf
       -0.4312994 -0.4742058 -0.0031048027 -0.7106983
0000c0 ab a4 29 be 07 20 b2 be bd 8a 8b bc e2 db c0 bd
       -0.16566722 -0.3479006 -0.017033929 -0.09416939
0000d0 3f 63 e7 be 4a e8 9c be 8e 40 00 bf ff 0c ce bd
       -0.45192906 -0.30645972 -0.500985 -0.100610726
0000e0 c0 fe c8 be 68 e6 54 be ee 81 45 be 64 4f 43 3d
       -0.3925686 -0.20791018 -0.19287845 0.047683135
0000f0 42 b0 3b bd ca ec c3 be e1 9e b7 be 12 67 ab be
       -0.04582239 -0.38266593 -0.35863402 -0.33477074
000100 3e 93 19 be 49 9d 1f be 7b 58 05 3e bc 7e 36 bc
       -0.14997575 -0.15587343 0.13022034 -0.011138614
000110 b6 77 2c 3e 40 dc 84 3d 21 68 d2 bd 7f 36 81 3b
       0.16842541 0.06487322 -0.10273767 0.003943264
000120 4d 70 13 3e f2 a1 52 bc 36 25 0e 3d af a4 73 3d
       0.14398308 -0.012855994 0.034703456 0.059483226
000130 f8 96 93 3d 39 f4 21 3d e6 55 05 be b8 f8 48 3d
       0.072065294 0.03953955 -0.13021049 0.04906532
000140 ff 95 87 3c 8c fe 15 3e 2d bc dd 3d f8 29 96 be
       0.016551016 0.14647883 0.10826907 -0.29328895
000150 06 42 d8 bd 75 a6 bd 3c 82 2b 0d be 14 19 e1 3d
       -0.10559468 0.023150662 -0.13786128 0.109911114
000160 d3 2b f9 bd 2b 8e f7 3b 4d a6 a8 3d a2 23 7d bd
       -0.12166562 0.0075547895 0.08234844 -0.06180156
000170 6a 9f d5 bd 9d c9 1b be de f8 21 3b c7 43 c3 3c
       -0.104307964 -0.15213628 0.0024714987 0.02383603
000180 5d 9e 25 3e c1 b3 d5 3e 69 22 17 3e 40 fc d3 3e
       0.16173692 0.41738704 0.1475922 0.4140339
000190 39 a2 fa 3e 8d 1a 55 3e 19 8b fc 3e 27 c0 05 3f
       0.4895189 0.2081091 0.49324873 0.52246326
0001a0 6a 9f 98 bc 82 9b c2 3e d9 e9 e7 3e 70 d1 ad 3e
       -0.018630702 0.38009268 0.452956 0.3394885
0001b0 9b f2 da 3e 0b 9b ea 3e 3b 3d 21 3e db 0c 0b 3f
       0.42763218 0.45821413 0.15746014 0.5431649
0001c0 d2 a8 84 3e 28 a2 08 3e 7f f2 8c 3e 83 30 6b bd
       0.2591005 0.13343108 0.2752876 -0.05741931
0001d0 16 9f 06 3f d1 1e dd 3e aa d4 2f 3f 0e b8 81 3e
       0.52586496 0.43187574 0.68683875 0.25335735
0001e0 02 96 a7 3e 76 29 25 3e 04 80 a1 3e dc 35 8a 3c
       0.32731634 0.16129097 0.3154298 0.016871385
0001f0 35 fb 51 3d 5b b3 07 3f cb 26 cb 3e 8d 83 11 3f
       0.05126496 0.5300805 0.39678034 0.56841356

weight_ih_l0 f4 [128, 2]
000000 12 19 34 bd 63 01 20 bd 1e 2c b7 bd 9b d9 3b 3d
       -0.04396922 -0.039063822 -0.089439616 0.04586182
000010 10 12 1b 3e c1 7a c5 bc ac ae a5 3b 30 33 0f 3e
       0.15143609 -0.024106385 0.005056223 0.1398437
000020 90 4d 84 bc 72 cd d1 bd 17 c8 4e bd 6a 65 5d 3e
       -0.016150266 -0.10244264 -0.05048379 0.21620718
000030 a7 c2 99 3d d3 86 17 3d 5b 25 1d be dd 0b ae bd
       0.0750783 0.036993813 -0.15346281 -0.084983565
000040 2a 5d 87 3d d5 a2 86 bd c1 7f 90 bd a6 c8 d6 3c
       0.066095665 -0.065740265 -0.07055617 0.026218724
000050 7a 7b 7a bd dc 54 c6 3c a2 c2 03 bd 1b 63 62 bd
       -0.061152913 0.024210386 -0.03216804 -0.055270296
000060 8f 95 90 bd 72 1f 83 bc 1d 65 a0 3d a1 85 ab 3b
       -0.07059776 -0.016006205 0.07831786 0.0052344357
000070 b5 67 03 be 9b d4 bc bc d6 ba 95 3d 38 97 99 3d
       -0.1283253 -0.023050597 0.07311027 0.07499546
000080 b4 27 ee bc 4b 68 53 3d ff 91 d9 3c 80 19 ea 3c
       -0.029071666 0.051613133 0.026558874 0.028576612
000090 0f 5c c6 3d 1d 09 80 3d 7e bc a2 bc ff d2 36 bd
       0.096855275 0.06251738 -0.01986527 -0.044634815
0000a0 bb ba fb 3d bb a0 bf 3d b8 07 da 3d 64 1a c6 3e
       0.122914754 0.09356829 0.106460035 0.3869201
0000b0 0a 65 03 3e 8d 87 8b 3d 88 04 3a be 48 0e 28 bd
       0.12831512 0.06812964 -0.18165791 -0.041029245
0000c0 5d 31 34 bd 44 f8 15 bd de 6c 91 bd fd c0 11 bc
       -0.04399239 -0.036613718 -0.07100843 -0.00889611
0000d0 a1 f4 03 3e 3e d8 19 3d 1b 3d 58 bd 94 8e da 3d
       0.12886287 0.03755974 -0.05279265 0.10671726
0000e0 62 4e 49 bc ae ba 3f 3e 93 9a 6f bd a8 bb cf bc
       -0.012286754 0.18723556 -0.058497023 -0.025358036
0000f0 5d 56 d5 3e be 12 2e 3d 45 38 ee be 56 c1 30 bd
       0.41667452 0.042498343 -0.46527305 -0.04315313
000100 f2 98 5b be 46 9e 71 be 3a 98 d7 3d 6f 91 93 3d
       -0.21445063 -0.23595533 0.10527082 0.07205474
000110 2b bb 95 3d 4b 33 9d bd af 54 c9 3d 27 6d e6 3d
       0.0731109 -0.07675799 0.09830605 0.11251288
000120 cf 3e b8 3e b4 ec 44 be e6 87 60 bd 35 7b 31 3e
       0.3598542 -0.1923092 -0.054817103 0.17332156
000130 62 e0 35 3e c2 a2 20 3e cc 13 06 bd 18 1a c1 3c
       0.17761377 0.15687087 -0.032733724 0.023572013
000140 50 d8 ad be ea 5f 97 be f7 db 08 3e e5 fa 23 3d
       -0.33954096 -0.29565364 0.1336516 0.040034194
000150 3d 1e b4 bc f5 a5 23 bd f8 4a 80 be 6b e1 82 3c
       -0.021987075 -0.03995319 -0.25057197 0.015976628
000160 37 a3 43 bd 47 9a 47 3e dc 6d 02 be 2a 4d 94 3d
       -0.047763076 0.19492446 -0.1273722 0.072412804
000170 9a 6c bb bd ae 1c 15 3d 44 b5 aa 3e 86 90 1a 3d
       -0.091515735 0.036404304 0.3334142 0.037735485
000180 58 39 f9 bd 7b f8 46 3e 95 92 fc bd 3b bb 66 be
       -0.121691406 0.19430725 -0.12332646 -0.2253236
000190 ad 05 ac bd 23 79 47 3d 03 4c 44 be c7 dd 97 bd
       -0.0839952 0.04869951 -0.19169621 -0.074153475
0001a0 ce 87 df bd 1f 42 02 bd b8 04 29 3e d8 c5 14 be
       -0.109145746 -0.03180134 0.16505706 -0.14528596
0001b0 ff 10 38 3e 7f 9b b7 3d 68 03 bf bd f8 1a f5 bd
       0.17975233 0.089652054 -0.093268216 -0.119680345
0001c0 29 1f 81 be 8e 79 08 be 89 97 ce bd ca 4b 38 bd
       -0.25219086 -0.1332762 -0.10087497 -0.044994153
0001d0 76 24 f2 3c 34 e3 43 bd 59 e0 7f be 33 75 ce bc
       0.029558402 -0.0478241 -0.24987926 -0.02520237
0001e0 8c dc 70 3d cc 9e 4d be ea c4 58 bd da 72 ae 3d
       0.05880408 -0.20080107 -0.052922167 0.08518
0001f0 8c 84 9c 3e 87 9f bc 3d 7d f7 5c bc 46 98 9c bd
       0.30569875 0.09210115 -0.01348674 -0.07646231
000200 f7 1b e6 bc 56 63 8b 3d 03 c7 43 be 3d a4 22 be
       -0.028089507 0.06806056 -0.19118886 -0.15882964
000210 88 e7 56 3c f8 7d 1e be 59 8f 3d be 92 97 41 be
       0.013116725 -0.15477741 -0.18511714 -0.18905476
000220 8c 90 d0 3c ae 4d 5c 3d 97 86 9c 3e d5 cd 7f 3c
       0.02545955 0.05378502 0.30571434 0.015613039
000230 b2 68 3c 3e 5d 35 f3 bb 1c 11 a1 3e 7b 49 b2 3c
       0.18399313 -0.007422133 0.31458366 0.021763554
000240 d1 80 d6 3e 92 cd 6f 3e 64 c0 18 be 0b e2 85 3e
       0.41895154 0.23418263 -0.14917141 0.2614902
000250 3e 1c e2 3d fa be 04 3e 5e 31 bc bd 47 fd 76 3d
       0.11040543 0.12963477 -0.091891035 0.060300138
000260 b5 4d 3b be d0 d2 93 bd a2 10 fa 3e eb 91 16 3e
       -0.18291362 -0.07217944 0.48840815 0.14704101
000270 02 05 09 bd 36 b6 0a be 22 d9 80 bc 0a 9d ed 3d
       -0.03345204 -0.1354607 -0.015728537 0.116022184
000280 13 c1 24 3d 9b 8c 51 bd dd f6 62 be a9 0f 01 3c
       0.040223192 -0.051159482 -0.22164483 0.007877269
000290 13 a8 e9 3d ac 84 36 3e 02 78 3b 3d 8c 75 c1 3d
       0.11409011 0.17824048 0.045768745 0.094462484
0002a0 32 51 bd be 77 95 18 be db 1b 7a be 7a d1 83 3c
       -0.3697601 -0.14900766 -0.24424689 0.016091097
0002b0 a8 65 1c be 40 5b 79 be 43 a8 18 3e bb 2c c9 3c
       -0.15273154 -0.24351215 0.14907937 0.024557462
0002c0 a0 ec 64 3e 21 1d 7f 3d 98 0b 2a 3c fd 65 1f 3e
       0.2235589 0.06228364 0.010378741 0.15566249
0002d0 ee 00 77 be a9 d9 7a bd cc 8d 7e 3d 86 a3 8f bd
       -0.24121448 -0.061242733 0.062146947 -0.070136115
0002e0 5e 35 99 3e cc ec 12 3e 25 25 f1 3d 59 23 0d 3e
       0.29923528 0.14348143 0.11774663 0.13783015
0002f0 3f 61 e2 3e 17 6a 13 3e e3 1a a1 be 81 4c 22 be
       0.44214818 0.14395939 -0.31465825 -0.15849496
000300 ca 64 aa be 78 5a 80 be aa 65 3c 3e cd 13 f2 3d
       -0.3328002 -0.25069022 0.18398157 0.11820183
000310 a5 2a 69 3e 2d ea 54 be a6 90 64 bd ab 4d de bb
       0.22770174 -0.20792456 -0.05580201 -0.006784161
000320 19 2f 59 3d f5 dd 5c be 4b 7d 1f bc fa c7 6f 3e
       0.05302343 -0.21569045 -0.009734462 0.23416129
000330 c9 45 14 3e 19 1a c8 3c 48 91 74 be eb 78 02 be
       0.14479746 0.024426507 -0.23883545 -0.12741439
000340 72 65 42 be 2e 5c d4 bd ca 15 13 3e 68 ec 2c be
       -0.18984011 -0.103691444 0.1436378 -0.16887057
000350 39 8f aa 3d 56 2c b2 3d 80 5c 79 3d 5a 27 6d bd
       0.08328099 0.08699863 0.06087923 -0.057898857
000360 ee 6a 64 3e 78 72 79 3e c8 27 cb bd 03 93 15 3e
       0.22306415 0.24360073 -0.09919697 0.14606862
000370 43 84 3d bd c6 00 05 3e 71 d7 1a 3e f1 f5 09 3e
       -0.046268713 0.12988576 0.15121247 0.13472725
000380 9f 34 f0 bd 7d b3 39 3e 74 af f5 bd cd 87 a9 be
       -0.11728787 0.18134876 -0.11996356 -0.3311142
000390 ee 76 14 be ac 68 23 bd b0 e4 51 bc bd 49 79 3c
       -0.14498493 -0.039894745 -0.012810871 0.0152153345
0003a0 08 f0 e2 bd ef a5 10 3e 9a 75 2e bd 83 87 85 bc
       -0.110809386 0.14125799 -0.042592622 -0.016299969
0003b0 ff ec 23 3e 5c 24 a6 3d 7e d8 95 be dc 09 cf bd
       0.16008376 0.08112404 -0.29266733 -0.101093024
0003c0 0b 45 ab 3e 6c 56 09 bc 93 28 24 be d7 ad d3 bd
       0.33451113 -0.008382421 -0.16031103 -0.10335892
0003d0 bc 0b 20 3d 2b 59 95 bc 8d 48 97 bd 9d a3 bc 3d
       0.03907369 -0.018230995 -0.07386885 0.09210894
0003e0 1a ce 89 bc b8 bd e3 3d f4 3e 0b be 87 f6 5f bd
       -0.01682191 0.1112017 -0.13598233 -0.054678466
0003f0 f7 f7 94 3e 85 44 2c 3e 5d 36 8a bb 7e 4b a8 be
       0.29095432 0.16823013 -0.0042179064 -0.32870096

weight_hh_l0 f4 [128, 32]
000000 b8 f0 48 be 60 5a 94 3d 5b cb 69 3e 62 dc c1 3e
       -0.19623077 0.072438 0.2283148 0.3786345
000010 3b 70 19 be a1 91 7f 3d 42 e3 78 bc d4 23 48 be
       -0.14984219 0.062394742 -0.015190901 -0.19544917
000020 d9 fe b6 be 00 fe 04 be 54 ea 53 3d 44 04 88 3c
       -0.35741308 -0.12987518 0.051737145 0.016603597
000030 0a 45 88 3d 68 fb 25 bd 7d d9 df bd 27 34 c1 bc
       0.06653793 -0.040522963 -0.109301545 -0.023584438
000040 4b 9b 16 3e 14 e0 bb bd 8c 47 64 b8 21 59 81 3d
       0.14707677 -0.09173599 -5.442607e-05 0.06315828
000050 c3 5c be 3e 34 7d 9c 3d 92 76 1a be 27 82 85 be
       0.37180147 0.07641068 -0.15084293 -0.2607586
000060 bc 31 31 be 79 37 a6 bd 2e 05 90 bd d0 b6 db 3d
       -0.17304128 -0.08116049 -0.07032238 0.10728228
000070 75 3e c3 3c 20 1e 84 be 47 b8 24 be 08 eb dc 3e
       0.023833493 -0.25804234 -0.16085921 0.43148065
000080 ec a2 ba bd 3f 1a 44 be 35 a6 16 3e 04 dd 21 3b
       -0.09113106 -0.19150637 0.1471184 0.0024698386
000090 ba bb 01 be 0d ff bb bd df 7a 1a be 5e d9 a6 bd
       -0.12669268 -0.091795065 -0.15085934 -0.08146928
0000a0 52 92 9b be cc c2 4a 3d 44 0e 47 be e3 89 0a be
       -0.3038507 0.04950218 -0.19439036 -0.13529162
0000b0 70 89 57 bd 2d eb f4 3d f8 60 e3 bd 39 94 9a bd
       -0.052621305 0.11958919 -0.1110248 -0.075478025
0000c0 cb 20 0e 3d 66 d9 f7 bd 98 2a c5 3d 66 a8 13 3e
       0.034699243 -0.12102012 0.09627265 0.14419708
0000d0 cd 75 52 3e 0a 4f 61 be 3d e3 b5 3d 90 ae 9e bd
       0.2055275 -0.22002807 0.08881233 -0.07748139
0000e0 f0 c2 a7 bc 1b 51 3e be a8 18 dc 3d 7a 73 39 bd
       -0.020478696 -0.18585627 0.1074689 -0.045276143
0000f0 94 0e ba bd 8f 3a d9 3d 88 c3 4b bd 25 88 94 3d
       -0.09084812 0.10606872 -0.04974702 0.0725253
000100 03 12 c6 bc 43 d5 20 be aa 68 ac 3d ef 72 bc bd
       -0.02417851 -0.15706353 0.084184006 -0.09201609
000110 62 79 f0 bd 27 96 dc bd 74 a0 6b 3c e8 76 46 bd
       -0.11741902 -0.10770827 0.014381517 -0.04845324
000120 2d 21 42 be 57 27 59 be e6 cd 99 bd 3a 22 ef bd
       -0.18957968 -0.21206413 -0.07509975 -0.1167645
000130 7f f8 09 be 94 a5 24 3e 8b 04 c9 bd fd c7 8a 3d
       -0.134737 0.16078788 -0.0981532 0.06776426
000140 8a f8 93 3d 99 40 a6 3c 1e 34 bb bd 7f 95 97 bd
       0.072251394 0.020294474 -0.091408 -0.07401561
000150 99 6a f3 bd af ee 8c 3b dd 5f aa be 70 35 10 bd
       -0.11885566 0.0043009142 -0.33276263 -0.035207212
000160 cd 4d 0c 3c 4b da 65 be f8 dd 15 be 1e f9 ea bb
       0.008563471 -0.22446553 -0.14635456 -0.0071708104
000170 f2 e0 e8 bd 0b c8 16 3e a5 54 db 3d 9b 70 cf bd
       -0.1137103 0.14724748 0.10709504 -0.101289
000180 5a b9 2e bd fe a5 c5 bc b6 a5 cb 3d dc e5 0b bd
       -0.042657234 -0.024127003 0.09943716 -0.034154758
000190 36 03 78 bd c8 4a d5 bd b1 21 06 bd 2a ab 8e 3e
       -0.060549937 -0.10414654 -0.032746974 0.27864963
0001a0 56 9c 31 bd b7 f0 97 3e 29 68 1c be 75 65 42 3e
       -0.043361984 0.29675838 -0.15274109 0.18984015
0001b0 72 9e ea 3d 17 43 6b 3d 24 98 b4 3d f8 40 97 be
       0.11456002 0.05743703 0.08818081 -0.29541755
0001c0 5a f6 9c be c7 42 85 be c2 f1 1f be 4d 21 93 be
       -0.306567 -0.2602751 -0.15619567 -0.28736344
0001d0 15 59 c3 be da 98 dd bc 02 fc 92 3e 44 b5 25 3e
       -0.38153902 -0.027050424 0.28707892 0.16182429
0001e0 d7 52 13 bf 47 6c 9b 3e 53 10 c9 bd 12 17 04 3c
       -0.5754828 0.30356047 -0.09817567 0.008062141
0001f0 09 ae 08 bf e8 2a 1b be cc 95 ff bd 8b cf 6b be
       -0.53390557 -0.15153086 -0.12479743 -0.2302839
000200 d2 f2 85 3d 3e 8c 19 3d ed 57 9d 3d ab a1 1a 3c
       0.06540455 0.03748726 0.07682786 0.009437959
000210 d5 0c 1f 3b 05 2e 1a 3e dd b9 d5 3c 9e ab 82 bd
       0.0024269123 0.15056618 0.026089603 -0.0638039
000220 e8 8e 2b 3e 94 97 24 bd 67 f1 f1 bd c3 36 b4 bd
       0.16753733 -0.04018362 -0.11813622 -0.087995075
000230 a1 0b 46 be 40 ca 4c 3e b9 fc df bc cf b7 9a bc
       -0.19340374 0.19999027 -0.027342187 -0.018886475
000240 3c e6 b6 be d8 e1 d2 bc 81 95 3f 3e 53 91 22 3c
       -0.3572253 -0.025742456 0.18709375 0.009922343
000250 cd e5 88 3d ae fe f3 3d 11 e7 79 3d d6 88 1a be
       0.06684456 0.11913811 0.061011378 -0.15091261
000260 31 ca ac bc 93 e3 ec 3d 7b be 26 be c8 43 aa bc
       -0.021092506 0.11566844 -0.162836 -0.020784274
000270 1a 84 0d 3d 65 89 df 3e 33 a1 28 3e b6 49 68 bd
       0.03454981 0.4365951 0.16467743 -0.05671092
000280 b5 13 ff 3c b2 4a 3f be 50 a2 fc 3b 87 37 4a be
       0.031137327 -0.18680838 0.007709779 -0.19747745
000290 67 70 4f be 7a b9 e9 3d dd 8c e6 bd df a6 75 3e
       -0.20257722 0.1141233 -0.11257336 0.23989438
0002a0 b0 36 ad 3e f0 0e 54 be cb 5d d8 bd 53 5b 54 3d
       0.33830786 -0.20708823 -0.105647646 0.051844906
0002b0 ac 2a d5 bd 83 2e 9b bd a6 d0 4d bd ad 56 f5 bd
       -0.1040853 -0.07577231 -0.05024781 -0.11979423
0002c0 1d 10 36 be f7 b5 a7 bc 8c 0b 18 bc 3c 39 02 3e
       -0.17779584 -0.02047251 -0.009280097 0.12717146
0002d0 25 a0 78 bd 80 50 cb bd 7b 22 26 be 40 f8 6f 3d
       -0.0606996 -0.099274635 -0.16224091 0.05858636
0002e0 f7 c1 43 3e 56 7a f2 3d 87 e6 ad 3d 8d 20 54 3d
       0.1911696 0.1183974 0.08491235 0.051788855
0002f0 a8 d0 c4 3d bf 62 4a bd 2d bf 3c 3e c3 a8 90 3b
       0.096101105 -0.049410578 0.18432303 0.004414649
000300 d5 f8 c6 3c 91 8a 51 be 6c 99 d8 3d 75 92 6c bd
       0.024288574 -0.20463015 0.10576138 -0.05775686
000310 ac 49 31 3d 65 f3 1e be 19 81 46 bd 23 ba 3e 3e
       0.04328315 -0.15522535 -0.04846296 0.18625693
000320 9f da 0b 3e e2 aa 52 be e1 40 1c 3e 21 3f 49 be
       0.13657616 -0.20572999 0.15259124 -0.19652988
000330 ce 3b 3d be bf af 8b 3e 30 50 f2 be 95 b0 85 be
       -0.18479845 0.2728252 -0.47326803 -0.26111284
000340 26 fb 08 bd ed 6e 8d be 26 2a 8e 3e 93 4a 11 3e
       -0.03344264 -0.27623692 0.27766532 0.14188604
000350 ac 5d 9a 3e 2d 04 52 3e 47 30 a2 be 69 bc 9c bd
       0.3014959 0.20509405 -0.31677458 -0.07653124
000360 ff 05 f8 3e 6d 86 2a be 03 fb 5a bd 3d 0a 88 3d
       0.48442075 -0.16652842 -0.05346204 0.06642578
000370 50 2e 3c 3f a0 b8 b5 3e 16 a4 5d 3d 27 8d 4c 3e
       0.7350817 0.3549242 0.054111563 0.1997572
000380 71 3d b0 3c 92 8f 7a 3e d6 ee a9 3c 68 3d a6 3d
       0.021513673 0.2446883 0.020743769 0.08117181
000390 47 c6 a3 3d b4 a9 90 be 99 05 25 bd dd 77 3b 3d
       0.07996803 -0.28254473 -0.04028854 0.045768607
0003a0 3d 46 27 bc 85 90 2a be d7 cd 1d be 4a 74 8e 3e
       -0.010209617 -0.16656692 -0.15410553 0.27823097
0003b0 d7 21 0d 3e b6 09 18 be 7f 65 4d 3e b4 38 b2 3c
       0.1378244 -0.14847454 0.20058249 0.021755554
0003c0 36 9e 49 bd 80 37 9f bc 0f 47 09 be 98 a3 16 bd
       -0.049223147 -0.019435644 -0.13406013 -0.03677711
0003d0 ca a9 25 bd 5b bf 47 bb 6b 30 5b bd af cd 0f be
       -0.040445127 -0.0030479047 -0.05351297 -0.14043306
0003e0 13 03 c7 ba 34 17 3e 3d 71 0c 12 3e 1d 43 ca 3d
       -0.0015183411 0.046408847 0.14262559 0.09876082
0003f0 31 af 0b be 6f 32 65 bd e6 74 d8 bd ae 50 7e bb
       -0.13641049 -0.0559563 -0.105691716 -0.0038805413

bias_ih_l0 f4 [128]
000000 1a cd cf bd 1c 5c 98 bd 95 cf c0 3b 43 4a 06 3e
       -0.10146542 -0.074394435 0.0058841207 0.13114266
000010 36 99 e3 bc a5 9b cc 3d 10 06 a5 3d 4f 5a d9 bd
       -0.027783018 0.09990624 0.08057797 -0.10612928
000020 fb 6f 76 bd 04 b1 8d bb 32 09 0f be de fe 16 be
       -0.060165387 -0.0043240804 -0.13968351 -0.14745662
000030 fa 78 5c 3a b7 03 3f 3e 79 6d 29 be fc 80 56 bc
       0.0008410361 0.18653761 -0.16545667 -0.013092276
000040 2e 0c f2 ba a8 3a d1 3d 28 99 b2 3d 02 35 a1 bd
       -0.0018466765 0.10216266 0.087206185 -0.078714386
000050 9b 32 9b 3d bc 6c 11 bd 06 58 c1 bd ac a3 ea bd
       0.075780116 -0.035504088 -0.09440617 -0.11456999
000060 55 ac 5d 3c 87 26 1c bc b7 03 01 3d ac 46 42 bd
       0.013529857 -0.00953067 0.031497683 -0.04743068
000070 7e be 23 3e 54 79 01 3e 8b 29 19 3e 0e 40 84 bc
       0.15990636 0.1264394 0.14957254 -0.016143825
000080 d5 22 5f 3e f8 4f a8 bd 47 de d7 bd 2e b1 0b be
       0.21790631 -0.08218378 -0.10540443 -0.13641807
000090 81 87 02 3d b7 8e 45 3e e2 0f 92 3d a3 04 76 3e
       0.031867508 0.19292723 0.07131936 0.24025206
0000a0 6c e6 59 3e 47 21 11 3e 62 2c d0 3d 24 c0 2b 3e
       0.21279305 0.1417285 0.10164715 0.16772515
0000b0 59 d5 d3 bc 0f ef 89 3e 9a 57 0c 3d d1 8b 80 3b
       -0.025858568 0.269402 0.03426323 0.0039229174
0000c0 5e 1b 14 be b6 d7 54 3e 32 ad 5a 3e b5 22 78 3e
       -0.14463565 0.20785412 0.21355131 0.2423199
0000d0 04 a0 31 3d 7e c5 46 3e a2 1f b9 bd 4e 5c 8b bd
       0.043365493 0.19411275 -0.090392366 -0.06804715
0000e0 fe 37 86 bd 15 e5 b3 3d 16 6a 24 3c 36 ac 7f 3e
       -0.065536484 0.08783928 0.0100350585 0.24968037
0000f0 bf 0b 07 be 11 22 54 3c 0a 55 87 3d 53 6f 92 bc
       -0.13188075 0.012947575 0.06608017 -0.01787535
000100 d5 f5 c4 bd c8 e7 a5 3d b1 1e c7 3d 47 cc 05 be
       -0.09617201 0.081008494 0.09722651 -0.13066207
000110 07 41 d9 3c 82 ad c0 3d e0 f1 a6 3d 19 65 a7 3d
       0.026520265 0.09408094 0.08151603 0.0817358
000120 3c 3b 5f 3e 0e 05 8d bd 14 aa a9 3d 2a 26 01 3c
       0.2179994 -0.0688573 0.08284393 0.007882634
000130 fc 91 c9 3c 55 eb a8 3c cf 90 53 3d 14 cd 9e bd
       0.024605744 0.020620028 0.051651772 -0.07753959
000140 c8 d8 c3 bd 9a dc 6e bd 07 b2 5c 3e 26 ed 37 bd
       -0.09562832 -0.05831585 0.21552287 -0.044903897
000150 45 8f 5f be 0c db 7f be 45 94 af bd bb a3 72 3e
       -0.21831997 -0.24985904 -0.08573202 0.2369527
000160 b8 f9 62 be 7a d3 98 bd 2c fd 0b 3e 71 e6 e6 3b
       -0.22165573 -0.07462211 0.13670796 0.0070465137
000170 57 2c 7b be 1a 06 90 bd be e4 a4 be 64 98 02 be
       -0.24528633 -0.07032414 -0.32205766 -0.12753445
000180 dc a6 6d 3d 9a 02 90 3e f2 ed 34 3e d7 77 26 3e
       0.058020458 0.28126985 0.17668894 0.16256653
000190 fc 8f 75 3e e0 75 96 3e 05 af c7 3e 62 15 b1 3d
       0.23980707 0.29386806 0.39000717 0.086466566
0001a0 54 3d 80 3d ad 8c 60 3e 7b e2 71 3d 66 2d aa bd
       0.062616974 0.21928664 0.05905388 -0.0830944
0001b0 6d eb 33 3d aa 14 a6 3e f0 9e de 3d db bf 13 3e
       0.04392569 0.3243764 0.10870159 0.14428656
0001c0 0d 56 7e 3d d1 d9 66 bd 75 e9 4e 3e d1 d8 33 3e
       0.062093783 -0.05636007 0.20206244 0.17563178
0001d0 7d ae aa ba 90 eb 5b 3e 52 c9 f6 3d db 44 a0 bd
       -0.0013021972 0.21476579 0.120501176 -0.07825633
0001e0 a6 e1 83 3e f0 2c a3 3c e5 81 58 3e 2b 2b 58 3c
       0.25758094 0.019918889 0.21143301 0.013193886
0001f0 62 cf c6 bc ef 98 a2 3d b3 64 69 3e f3 37 07 3d
       -0.02426881 0.07939326 0.2279232 0.03301234

bias_hh_l0 f4 [128]
000000 b1 a2 02 3e 52 89 3d 3e ad ec 82 bd 0c c8 1a bd
       0.12757374 0.18509415 -0.063927986 -0.037788436
000010 fd ae 87 3d e2 16 40 3e 9b 06 2a be a3 fa 05 bb
       0.06625173 0.18758729 -0.16604082 -0.002044358
000020 58 a6 97 3c 25 de 8a 3d 80 e2 85 3d dc 13 7b 3d
       0.018511936 0.06780652 0.06537342 0.061298236
000030 61 37 b5 3a d7 85 48 3e 51 b8 82 3d 60 93 1b 3d
       0.0013825708 0.19582306 0.06382812 0.037982345
000040 fa a6 58 bd 8e bf bc 3c fa 02 47 bb 8a 49 fd bd
       -0.052893616 0.02304056 -0.0030366764 -0.12367542
000050 fd 91 a5 3d 11 69 97 3d 25 c7 4c 3e 3e 8f 40 be
       0.08084486 0.07393087 0.19997843 -0.18804643
000060 f3 6b bf bd da d3 bd bd 82 9b 8b bb 66 0d 13 be
       -0.093467616 -0.09268923 -0.0042604813 -0.1436058
000070 ed 34 3e 3e 96 43 1a 3e b6 7b 0f 3c d3 29 52 3c
       0.18574877 0.15064844 0.008757522 0.0128273545
000080 0a 6a ab 3d 86 29 0e 3e 0d b8 97 3c d9 1c 03 bd
       0.08369835 0.13883027 0.01852038 -0.032009933
000090 56 2d 2d 3d 34 7d d5 3c b4 1e 54 bd 57 a5 4b bd
       0.042279564 0.026060678 -0.051787093 -0.049718227
0000a0 92 16 48 bd 61 6a 17 bd b8 6c a6 3c 48 d4 7d 3d
       -0.04884965 -0.036966685 0.020315513 0.061970025
0000b0 8d 11 f3 3d 1d a3 90 3e a9 39 fa bd 6f 5d 8f bd
       0.11868582 0.28249446 -0.12218029 -0.07000243
0000c0 49 0b 9e bd fa fb 55 bd 8b 62 8c 3d 1d d6 61 3d
       -0.07716996 -0.052242257 0.06854733 0.055135835
0000d0 d6 85 12 3d f1 17 f0 3d ae 00 5f 3d dd cb 5c be
       0.035772167 0.117233165 0.054444008 -0.21562143
0000e0 00 5a 28 bd f8 ed 07 3e dd 47 a2 bd 9c b1 fb 3c
       -0.041101456 0.13274372 -0.07923863 0.03072434
0000f0 ba 54 88 3d 1f a1 37 be 38 f5 5a bd 0f e5 22 3e
       0.06656785 -0.17932557 -0.053456515 0.15907691
000100 fe 38 aa 3d 87 a6 ca 3d ef 5c bb bd 69 a5 c7 bd
       0.08311652 0.09895044 -0.09148585 -0.09748346
000110 66 d5 cc 3d de 81 db bd 4a 41 fb bd e7 05 a6 3d
       0.1000164 -0.107181296 -0.12268312 0.081065945
000120 9c 06 2f bd 34 7e 1d 3e 24 6e fe 3b fa f3 eb 3d
       -0.042730913 0.15380174 0.0077645946 0.11521144
000130 bc ad 69 bc c8 7d bf 3d 0f 8b eb 3c 3b 79 ef 3c
       -0.014262613 0.09350163 0.028752832 0.029232612
000140 98 77 dc bb 07 23 e7 3d e5 9b 8a bd 30 ae 59 3d
       -0.006728124 0.11285978 -0.06768016 0.053144634
000150 72 77 2f be a9 2a 55 be 9f cf 3b 3d f6 c4 30 3e
       -0.17135409 -0.20817055 0.0458523 0.17262635
000160 56 48 21 be f4 76 17 3e 92 38 8a bd dc ea bd 3c
       -0.1575025 0.14791471 -0.06749071 0.023183279
000170 ae bb c9 be 4b 31 df bd 52 b7 c6 bd 00 3c 9d be
       -0.39401 -0.10898074 -0.09702934 -0.3070984
000180 0f 12 a5 3e 4e b5 83 3e 73 d7 9b 3d 79 7b d4 bd
       0.3224034 0.25724262 0.07609453 -0.10375113
000190 73 73 88 3d 8a 37 9d 3e 47 54 a1 3e 76 09 24 3e
       0.06662645 0.30706435 0.3150961 0.16019234
0001a0 3f 74 d8 3d 67 94 6d 3e 91 63 8c 3b d0 46 7f bd
       0.10569047 0.23201142 0.00428433 -0.06232339
0001b0 9b 33 54 3d 27 f0 3b 3e 85 a1 32 3e c4 47 7c 3e
       0.051807027 0.1835333 0.17444427 0.24636751
0001c0 4f 3b 57 3e e8 bc 04 3b d2 f1 a2 bc 94 c8 24 3e
       0.21018718 0.0020254198 -0.0198907 0.1609214
0001d0 ea 4d 97 bc 25 cf c9 3c 3f 28 77 3e d3 86 55 3e
       -0.01846977 0.024634907 0.24136446 0.20852213
0001e0 4a b2 07 3e e7 3f 15 3e 4b 8c 74 b9 da 5b 4b 3e
       0.13251606 0.14575158 -0.00023321917 0.19859257
0001f0 a0 a3 80 3e 36 1a 16 3e f9 68 1c 3e 9e 22 c8 3d
       0.25124836 0.14658436 0.15274419 0.09772228

weight_ih_l0_reverse f4 [128, 2]
000000 17 9f e6 3e bf 2f db be 1a 60 a9 3d 18 79 9f 3c
       0.4504325 -0.42809865 0.08270283 0.019466922
000010 7d f7 e5 bc 0f 87 9e be f3 fa b0 3e fc f5 02 bf
       -0.028072113 -0.30962417 0.3456646 -0.5115659
000020 8a f9 ac 3c 94 9c 67 be b5 b7 da 3d 39 a3 80 be
       0.021115083 -0.22618324 0.106795706 -0.2512453
000030 1d 15 98 be ae 9c a8 3e 7c 26 20 3d 5c b2 72 be
       -0.29703608 0.32932037 0.0390992 -0.23700851
000040 a1 51 0b bd a7 a2 14 bf c3 e6 6a 3d 0a 45 f8 bd
       -0.034013394 -0.5806069 0.057348978 -0.12122543
000050 c1 33 b4 be 0e c7 9c 3d 7b c3 ba 3e 63 43 29 be
       -0.35195735 0.07655154 0.36477265 -0.16529612
000060 ac 7b ac be cf 1e 20 be 39 90 f7 be d0 4b 99 be
       -0.33688104 -0.15636753 -0.4835222 -0.29940653
000070 11 53 86 3e 96 2d 12 be 75 a3 09 3f 67 32 45 3e
       0.2623525 -0.14275202 0.5376504 0.19257508
000080 54 2c cb 3c 38 7a 55 3d 79 16 09 be 7e 56 cf bb
       0.02480141 0.05211851 -0.13387479 -0.0063274493
000090 c6 36 3c be 10 5b 7d 3d 9b fc f6 bd 73 2d f1 3d
       -0.1838027 0.061854422 -0.120598994 0.11776247
0000a0 97 57 7e be 57 fc d0 3d 48 24 99 be d3 f0 da 3e
       -0.248381 0.1020438 -0.29910493 0.4276186
0000b0 20 ff 63 bf 14 21 a6 bd 1f cf 91 3e 92 97 15 be
       -0.89061165 -0.08111778 0.28478333 -0.146086
0000c0 31 5c 7d bc d8 5a af 3e 87 09 3a bf 2a 86 14 bf
       -0.015463875 0.34248996 -0.7267079 -0.5801722
0000d0 a7 76 7d 3d b7 00 d6 3e 16 a5 c1 bd a4 96 90 3e
       0.061880734 0.4179742 -0.09455316 0.2823993
0000e0 1d 96 33 3e 3c 66 87 bd 38 b8 dc bd 1d 85 07 3e
       0.17537732 -0.066112965 -0.107773244 0.13234372
0000f0 40 b5 25 bd e2 80 1d 3e e5 d4 8d 3d 80 48 52 be
       -0.040456057 0.15381196 0.06925372 -0.20535469
000100 96 23 9f 3e 09 57 44 be 25 84 90 3d 3b 4f f9 bd
       0.31081837 -0.19173826 0.070564546 -0.12173315
000110 c7 a7 2d 3d 71 87 c0 be 7f 1d 64 3e db e4 da be
       0.042396333 -0.37603334 0.22276877 -0.42752728
000120 f7 c7 16 3d 68 3d a6 bd 7d 38 af 3e ab 42 1d bd
       0.036811795 -0.08117181 0.34222785 -0.038393658
000130 d3 73 dc be b5 41 89 3e 9b 1a 09 3e 8b 5a ef bd
       -0.43057117 0.26807943 0.13389055 -0.116871916
000140 e8 d5 f9 3d 95 64 53 be 5d dd 02 3c eb 2e 06 bd
       0.121990025 -0.20643838 0.007987347 -0.03275959
000150 73 74 05 3e 49 fe 23 bd 05 75 09 3e 69 03 55 be
       0.13032703 -0.040037427 0.13423546 -0.20802082
000160 28 b9 2c be 9a 7b ee 3d 2e 45 3e be c5 30 21 be
       -0.16867507 0.11644669 -0.18581077 -0.1574126
000170 54 65 32 3e 03 66 17 be 3e e8 c0 3e 32 15 b4 3e
       0.17421466 -0.14785008 0.37677187 0.3517242
000180 97 a6 42 3e 07 e5 a6 bc 29 9f 25 be 7c 1e 24 3e
       0.19008861 -0.02037288 -0.16173996 0.16027254
000190 10 ac 8b bd 57 d2 27 3e 32 a6 7a be 0b cc c4 3d
       -0.06819928 0.16388832 -0.24477461 0.096092306
0001a0 f8 cb aa bd 85 23 78 3e 2b 81 6c be a0 42 26 3e
       -0.08339685 0.242323 -0.23096149 0.16236353
0001b0 b7 3a d2 bd f5 72 88 be d5 ab d5 bd 12 fc 0e be
       -0.10265105 -0.26650205 -0.10433165 -0.13963345
0001c0 13 90 c4 3c b2 aa 02 3d 6d a1 2e be 9e 26 d2 be
       0.023994481 0.03190107 -0.17053767 -0.41045088
0001d0 e8 b1 04 3d 29 b3 97 3e 4b fe 82 bd 61 f5 b5 3d
       0.032396227 0.29628876 -0.06396159 0.08884693
0001e0 8e 1d fc bd 96 de 6f 3a 04 82 43 3e 93 27 cf 3d
       -0.123103246 0.00091502944 0.19092566 0.1011497
0001f0 ef 9b 24 3d 2c 82 62 3d bc 4f 2d 3e 32 d2 a8 be
       0.040187772 0.055299923 0.16924948 -0.32972866
000200 e4 f9 04 3e 21 9c a0 be 87 e7 cf bd bd 53 31 3f
       0.1298595 -0.31369117 -0.10151582 0.692684
000210 72 58 8a bd c8 7b 8f 3d 07 ea 0b 3e 73 06 8c be
       -0.06755151 0.07006031 0.13663493 -0.2734867
000220 13 93 67 3e 81 d7 04 3f ef 7b cd 3e ae 27 c2 39
       0.22614698 0.5189133 0.40133616 0.00037032127
000230 ad ac 85 3e d0 01 a9 be 58 ef 2a bf 48 52 1d 3f
       0.26108304 -0.33009195 -0.6677146 0.61453676
000240 0c 5b 9f bd 95 61 84 be bf f1 9b be 92 c5 4f 3f
       -0.07781038 -0.258557 -0.30457875 0.81160843
000250 e1 0a 0c 3e fb a6 56 bd c6 2c e0 3e 1c 01 c9 be
       0.13676025 -0.05240534 0.4378416 -0.3925866
000260 78 e8 e2 3d a6 81 67 be 2c b4 70 3e 3b cb 45 3e
       0.11079496 -0.2260805 0.2350623 0.19315808
000270 e0 62 15 3d 16 e5 19 be d9 3d 35 3f 79 98 d1 3e
       0.036471248 -0.15028796 0.707975 0.4093664
000280 59 0c 3b 3d 86 c0 3a bd 19 fd dd 3d d9 38 29 3e
       0.045666073 -0.04559376 0.1083929 0.16525592
000290 ea 5b b5 3d c5 aa 92 be e7 78 6d be 04 95 f1 3d
       0.08855422 -0.28645912 -0.23190652 0.117960006
0002a0 50 2f 32 be 94 ae 3c 3e f2 ac 28 3e 4c 6b c5 bd
       -0.17400861 0.18425971 0.16472223 -0.09639606
0002b0 60 c6 09 bf 4f 61 f0 bb b9 ad d9 ba e5 74 80 3e
       -0.5381832 -0.007335819 -0.001660756 0.25089183
0002c0 3a 2e c9 bd 83 86 ab 3e c1 84 f3 3e 41 c4 25 3f
       -0.0982327 0.33501062 0.4756222 0.64752585
0002d0 04 99 22 bd 00 ad ee be da d4 34 3d 0c a9 6b be
       -0.03969671 -0.46616364 0.044148304 -0.23013705
0002e0 b1 74 00 bf bb 9b 83 3e 3d d4 7e 3e ec 0a 22 be
       -0.50178057 0.2570475 0.2488565 -0.15824479
0002f0 f4 a7 da 3d a0 4d 5f be 37 fc 2c 3e 48 e4 17 be
       0.10676566 -0.21806955 0.16893087 -0.14833176
000300 ee d4 9f 3e 73 c0 89 bd 6b 72 d1 3d bf 38 d9 3b
       0.3121714 -0.0672616 0.102269016 0.006629079
000310 e9 28 84 bd 07 c3 31 be af c0 83 bd 33 b0 6a be
       -0.064531155 -0.17359553 -0.06433236 -0.22918777
000320 7f 73 56 bd a1 2d 13 3e dc 4c d0 3d c1 e9 6a 3e
       -0.05235624 0.14372875 0.1017091 0.22940733
000330 1a 6f 11 bf d1 bf c6 3e 06 25 df 3d e3 9b 6b be
       -0.5681015 0.3881822 0.108957335 -0.23008685
000340 50 3d 4e be af 4c a1 be 68 3a be 3c 4a e1 c1 bd
       -0.20140576 -0.31503817 0.02322121 -0.094667986
000350 28 5b 7a 3e 44 1b 2d 3e 43 10 e6 3e 10 59 cc bd
       0.24448836 0.16904932 0.44934282 -0.09977925
000360 db d0 e2 bd 35 cc e8 bd a7 5a 9f be 12 5e f9 bd
       -0.11074992 -0.113670744 -0.3112385 -0.121761456
000370 fe 32 9b 3e 03 46 75 be 82 f8 9b 3e c2 93 3c 3e
       0.3031234 -0.23952489 0.30463034 0.1841574
000380 d0 26 8f 3e 47 a7 b3 3d f5 43 ca 3d c6 04 e5 be
       0.279593 0.0877214 0.09876243 -0.44730204
000390 a8 c2 14 be 00 56 a2 bd 01 d0 88 be 8b 28 5d 3e
       -0.1452738 -0.079265594 -0.26721194 0.21597497
0003a0 4a 09 aa be 48 c0 96 bc 33 01 93 be af 38 f1 3e
       -0.33210212 -0.018402234 -0.28711852 0.4711356
0003b0 38 df 84 be 27 50 59 be 62 fa f6 bd 82 02 9c be
       -0.25951552 -0.21221982 -0.120594755 -0.30470663
0003c0 6e 39 22 3d ba ef b4 3e 4a d3 17 be 55 ee e1 be
       0.03960555 0.35339147 -0.14826694 -0.44127145
0003d0 50 27 9c bd e7 40 21 3f b6 ec 3f be 6c 24 94 3e
       -0.07624686 0.6298966 -0.18742642 0.28934038
0003e0 b2 94 d2 3e 4d fe bc bd 49 44 8f 3d a0 6f 4c bd
       0.4112907 -0.092281915 0.06995446 -0.04991114
0003f0 02 e1 b6 bd e1 0b 60 3e 68 65 d7 bb 6a 28 bb bd
       -0.089296356 0.21879531 -0.006573368 -0.09138568
