TS-CVAE/experiments/pedestrians/models/zara2/models_22_Jun_2021_00_49_41_zara2_ar3/model_registrar-62.pt (torch_old, 545378 bytes, 43 tensors)

weight_ih_l0 f4 [128, 6]
000000 55 0b 9f bd 66 33 2d 3d dc 60 f0 bd 59 57 55 3c
       -0.07765833 0.042285345 -0.117372245 0.013021314
000010 97 81 9a bd 6d 16 04 3e 7f 09 2b be 0b d3 61 be
       -0.075442486 0.1289918 -0.16702841 -0.22053163
000020 77 af 8a bd 60 4a 8a 3e cb c6 89 3d e5 a1 13 3e
       -0.067717485 0.2700987 0.0672737 0.14417227
000030 00 6b 2f 3e c8 1f 54 3e e3 18 ac be 29 1e 92 be
       0.17130661 0.20715249 -0.33612737 -0.28538635
000040 87 32 9b bd c2 b0 98 3d 0c 52 8c bd ee 37 11 3e
       -0.07577997 0.07455589 -0.06851587 0.14181492
000050 9b b4 32 3e 92 62 37 3d 95 20 29 3c 9b 59 d1 3d
       0.17451708 0.04477174 0.01032271 0.10222169
000060 b5 87 5d bd a8 0b cc bd 58 25 db bd 4f b9 fd 3e
       -0.0540845 -0.09963161 -0.10700482 0.49555442
000070 03 a5 03 be 08 01 01 bf 7a 05 6f 3e 91 21 fe bd
       -0.12855916 -0.503922 0.23341933 -0.12408746
000080 4c 8c cf 3c e3 f0 4c 3e 2e 22 81 3d 53 3b 78 bd
       0.025335453 0.20013766 0.063053474 -0.06060345
000090 16 3a 55 be f7 87 6f bd 4a df 06 3d 8f 76 c3 3b
       -0.2082294 -0.058479276 0.03292779 0.005965061
0000a0 d5 ab a6 be b6 fe 89 be 5b ed 02 be ba aa 7e 3e
       -0.32552972 -0.26952142 -0.12785856 0.24869815
0000b0 f4 3d 3d 3e a8 a4 95 bd 65 15 97 bd eb d3 b9 3d
       0.18480664 -0.07306796 -0.073771276 0.09073623
0000c0 1c 2d 8d 3e 52 be 76 3d b8 b6 08 3e 8f 32 2c bd
       0.27573478 0.060240097 0.13350952 -0.042040404
0000d0 e2 42 25 be 57 cb 61 3d 7b ca 11 bf 34 e5 e8 be
       -0.16138795 0.05512556 -0.56949586 -0.45487368
0000e0 90 cc 6b 3e 22 9c ae 3e cd ee 14 3d ef 11 03 bd
       0.23027253 0.34103495 0.03636055 -0.031999525
0000f0 0b be bb 3e 48 82 ce bd 3b 72 ef be 19 af 1e 3e
       0.3666843 -0.10083443 -0.46766838 0.15496482
000100 ae 7e 28 be fa e1 f4 3d 56 f0 c9 be 89 b9 1c be
       -0.16454574 0.11957164 -0.39441174 -0.15305151
000110 76 e6 1d 3e 82 e4 6c 3e 70 f7 70 3e 8b ed e8 3d
       0.15419945 0.23134044 0.2353189 0.11373433
000120 6b 65 9a bd a0 b7 aa bd d6 64 a2 3c 1c 5e f1 bd
       -0.07538875 -0.08335805 0.019823473 -0.11785528
000130 ce 6a 8c bd d5 2e aa bb 77 26 f0 bd ab 0d 61 3e
       -0.06856309 -0.005193571 -0.117260866 0.2197787
000140 0a 61 1f 3e 04 8c 3e 3d 41 0f ae bc 03 d5 4a 3e
       0.15564361 0.046520248 -0.021247508 0.1980782
000150 ec 32 82 be c2 68 13 bb 6f 1a 2d be 32 d7 f1 3c
       -0.25429475 -0.002249286 -0.16904615 0.029521558
000160 f3 1d 06 3f 1d 32 7d bc 85 87 90 be 64 53 3a 3e
       0.5238945 -0.0154538425 -0.28228393 0.18195873
000170 e7 f0 cc 3e a7 9b 49 bc e0 80 52 bd 5b 87 fe 3d
       0.40027544 -0.012305177 -0.051392436 0.12428161
000180 bc 28 80 bd c3 48 ae 3e 99 99 be 3e cf cf 6c bc
       -0.062577695 0.34039888 0.3722656 -0.014453842
000190 8a b4 90 be bf ac 1a bf 25 4d 50 bc 8c 5d e8 bd
       -0.2826274 -0.6041984 -0.012713705 -0.11345968
0001a0 14 66 5f 3c e4 9a c0 bd 23 6d 4d 3d f5 6a 7b 3e
       0.013635177 -0.09404543 0.05015291 0.2455252
0001b0 50 35 49 3d 47 ed 1d 3e d7 10 6c 3e 4c 29 4e be
       0.04912311 0.15422545 0.23053299 -0.20132941
0001c0 8c 46 11 3e 73 b8 5f 3e e7 b1 6d be 5b 47 f9 bd
       0.14187068 0.21847706 -0.23212396 -0.12171813
0001d0 9a f8 29 bd 13 40 8b 3e 0d 5c ef 3d 26 5f 4d 3d
       -0.04149685 0.27197322 0.11687479 0.05013957
0001e0 a3 1d 35 be 37 a7 59 3e a5 ea 00 3e 81 04 b6 be
       -0.17687087 0.21255194 0.1258951 -0.3555031
0001f0 ca d5 3d bd d9 13 fc 3d e3 85 89 3e 9a 7b fc 3e
       -0.046346463 0.12308473 0.2685996 0.4931305
000200 11 91 24 be 67 3a a5 be 4e 55 34 3d 62 c4 da 3d
       -0.16070963 -0.3227112 0.044026665 0.10681988
000210 4a ad eb bd 2f 9c 86 be b8 f6 fd 3c 65 90 b7 3d
       -0.11507662 -0.26291034 0.031001434 0.08963088
000220 c6 78 2b bd 93 fa 61 bd 6d 63 19 bd 69 fc ca bc
       -0.041863225 -0.055170607 -0.037448335 -0.024778562
000230 24 41 02 3e ba 89 d8 bd 63 78 1e 3e 99 d9 0a 3d
       0.12720162 -0.10573144 0.15475611 0.033898924
000240 fe f5 be bc f4 f4 29 be 03 94 96 bd b2 63 6c 3d
       -0.023310658 -0.16597348 -0.0735245 0.057712264
000250 f7 b3 15 bf 50 88 a1 3d f7 3f 6d 3d b4 de 7d 3d
       -0.5847773 0.07887328 0.05792233 0.061979964
000260 47 2e 72 be 25 3a 1a 3d 13 1c f0 bd 21 0e 69 bd
       -0.23650466 0.037653107 -0.11724105 -0.05689824
000270 3b 2b c9 3c f0 bd b0 be 32 b4 74 be 1f 81 2f 3e
       0.024556747 -0.3451991 -0.23896864 0.171391
000280 14 10 a5 3c 40 7a f2 3d 57 d6 14 3e 8c 44 ac 3e
       0.020149268 0.118397236 0.14534889 0.33646047
000290 ee 2c 63 3e 48 d7 92 3e e6 7c e2 bd 14 a4 56 3e
       0.22185108 0.28679872 -0.11058979 0.20961028
0002a0 c6 2f 70 be 07 0e 4a 3e c4 e8 4c bd 14 54 ae 3c
       -0.23455724 0.19731914 -0.05002667 0.021280326
0002b0 f6 ff 48 3e df 47 8f 3d 1d 7f 1f be 5d b0 9a bd
       0.19628891 0.0699613 -0.15575834 -0.0755317
0002c0 52 9a a7 bd 12 f7 62 bd fb b7 20 bc 59 58 1a 3e
       -0.08183731 -0.055411406 -0.009809489 0.15072764
0002d0 14 95 20 bb 58 19 7f bd 12 f9 16 3e fc 21 28 bd
       -0.002450292 -0.06228003 0.1474345 -0.041048035
0002e0 68 b0 16 be 64 d2 76 3b 00 29 c9 3d 0f 9c 24 3d
       -0.14715731 0.0037662024 0.09822273 0.04018789
0002f0 d0 6c 85 3d 69 67 7a bd f4 a6 24 be 9e 50 01 be
       0.06514895 -0.061133776 -0.16079313 -0.1262841
000300 d1 a5 70 3e 2a d0 22 3e 31 d8 28 be 08 df 3b be
       0.23500754 0.15899721 -0.1648872 -0.18346798
000310 03 1f 71 bd ae 7f 37 be b1 1e 6c 3d d9 9a 25 be
       -0.058867466 -0.179198 0.057646457 -0.16172351
000320 81 58 43 bd af 13 ed 3d 11 f0 54 bd 1d 79 92 bd
       -0.047691826 0.1157602 -0.051986758 -0.07152007
000330 af 7e 6a be d6 5e 86 3d f8 6b 86 3d 1f 7f 14 bd
       -0.22899888 0.06561057 0.06563562 -0.036254045
000340 f9 4d e2 bd f9 79 81 be 6b 11 ad 3d cc 09 0a 3d
       -0.11050028 -0.2528837 0.08450588 0.03370075
000350 25 81 16 3e f5 b5 90 bd f8 b0 ef bd 8d 52 77 be
       0.14697702 -0.070659555 -0.11703676 -0.24152584
000360 48 48 de 3d 4a 88 77 be c3 99 69 3d db 37 90 3d
       0.1085363 -0.24173084 0.057031404 0.070419036
000370 a3 cd 3e be d2 18 db 3d fc 32 2a 3e 6e ca a2 bd
       -0.18633132 0.106980935 0.16621011 -0.07948767
000380 5e 40 a9 3c 38 7d 22 be c6 2b 82 be aa 57 93 bd
       0.020660575 -0.1586808 -0.2542402 -0.07194455
000390 ad 8f 05 bd b8 e1 a3 bd cb cb 95 3d 57 9c cd bb
       -0.032607723 -0.08002037 0.07314261 -0.0062747407
0003a0 7b 81 9e 3c 6b 57 50 3d fa af 2c 3d bb bc 72 bd
       0.01934885 0.05086462 0.04216001 -0.05926202
0003b0 b9 e1 1f 3e d0 5d bf bb e5 7c ad 3c 7a 31 3b bd
       0.1561345 -0.0058400407 0.021177718 -0.04570148
0003c0 67 00 8c 3e 9a 57 39 bd 8d ea 2c bd a7 29 28 bd
       0.27344057 -0.04524956 -0.042215873 -0.041055348
0003d0 72 a2 07 bf 31 1a 60 3e 93 ac b5 be 15 06 04 be
       -0.52982247 0.21884991 -0.35483226 -0.12892945
0003e0 09 5d 50 3e 36 be 63 3e 8c 4b 5d 3e 26 28 49 3d
       0.2034799 0.22240528 0.2161085 0.049110554
0003f0 6c f6 e1 3e 9d 1f 9c bd bd 87 8f be 01 67 e1 3d
       0.44133317 -0.07623217 -0.28033248 0.110059746

weight_hh_l0 f4 [128, 32]
000000 40 5d 40 bd cc ee 1f be 7b c6 be 3e d0 ad 6b 3d
       -0.04696393 -0.15618438 0.37260804 0.057538807
000010 61 07 49 3e 47 f2 82 3e c0 4e 74 be ce 51 45 bd
       0.19631721 0.25575468 -0.23858166 -0.04817372
000020 1f b1 89 3e 14 dc dd 3e 5a 1e 8f be 54 29 ee 3e
       0.26892945 0.4333197 -0.27952844 0.46515906
000030 c5 43 2b be e1 c6 2b 3e 66 d0 01 be 56 51 09 3e
       -0.16725071 0.16775085 -0.12677154 0.13409933
000040 1f 92 0e be cc c1 97 bc a1 42 95 3e 2c c9 f0 be
       -0.13922928 -0.018525027 0.29152396 -0.47028482
000050 d3 d6 82 be be ed 83 3e d1 4b 29 bd 52 c0 9a be
       -0.25554523 0.2576732 -0.04133207 -0.30224854
000060 1d aa 1d 3e f8 8d b9 be a9 86 a6 3e 6d 54 9e 3c
       0.15396924 -0.36241126 0.32524613 0.019327367
000070 67 2a 2b be 70 dd 56 3e 09 d5 c9 bc 8f 56 8a be
       -0.16715394 0.20982909 -0.024637716 -0.27019164
000080 50 19 3d 3e 60 02 e0 be f9 f3 8e 3e d0 9a 4b be
       0.18466687 -0.43751812 0.2792051 -0.19883275
000090 1c 8f 85 3e 0f 6e ae 3e 41 e0 2c bd 7f 33 06 be
       0.26085746 0.34068343 -0.042206053 -0.13105582
0000a0 65 65 ef 3e c7 83 b3 3d 59 10 9d be cf d4 35 3d
       0.46757045 0.08765369 -0.30676535 0.044392403
0000b0 39 17 42 bd db 1c 89 3e 9e 24 5b be a0 f2 79 bc
       -0.047385428 0.26779827 -0.21400687 -0.0152556
0000c0 c3 d4 16 be 1f bb 0b 3e 36 c2 ec 3e bc aa 0f bf
       -0.147296 0.136456 0.4624192 -0.56119895
0000d0 0d a0 2c 3d 97 b2 09 3e 62 0c 7a be ac 0f 91 be
       0.042144824 0.13447033 -0.24418786 -0.2833227
0000e0 e4 9f e7 bd bf 6f 5b be d3 fa 61 3e e8 6d 02 bf
       -0.113097936 -0.21429347 0.22068338 -0.50948954
0000f0 e3 41 11 bf 19 0c 13 bc d5 0f 70 3e 12 30 ca bd
       -0.5674116 -0.008975052 0.2344354 -0.0987245
000100 35 47 d7 3d 7f b9 20 bd 1d 7e bf bd 70 70 1a 3e
       0.105116285 -0.039239403 -0.09350226 0.15081954
000110 a5 9f ea 3d 57 a4 1a 3d b8 65 67 be ef 37 76 be
       0.11456231 0.037754383 -0.22597396 -0.24044774
000120 8b ab 8f bd a2 5a 03 3e 80 cc 87 be ce 10 40 3d
       -0.07015141 0.12827542 -0.2652321 0.046891026
000130 fc e5 03 be f4 f7 48 be e1 73 72 3e 9a 18 83 be
       -0.12880701 -0.19625837 0.23677017 -0.25604707
000140 8c a6 e6 3b f7 b7 8c bb 8d e6 ef 3d f0 e4 c8 bc
       0.007038897 -0.0042943913 0.11713896 -0.024523228
000150 d8 3d 7b 3b fb b7 8d 3d 87 26 2e 3e 74 8e e0 3d
       0.0038336422 0.06919857 0.17006885 0.10964671
000160 98 d3 83 3e 19 1e a6 3d 62 99 33 3d 32 4e 24 3e
       0.2574737 0.081112094 0.04384745 0.16045454
000170 46 bb 34 3e 6d 5d d1 3d a2 76 65 be ae 42 f5 3d
       0.17649564 0.10222898 -0.22408536 0.11975609
000180 8b 9e 83 3b 5d 13 87 bc a5 cc 86 3e 9a df c7 3d
       0.0040167025 -0.016488725 0.26328006 0.097594455
000190 f0 c1 96 bd a9 ac fe 3d 65 f2 84 be ac 70 87 3c
       -0.073612094 0.12435276 -0.25966182 0.016533218
0001a0 f4 55 59 3e 9d da 9a 3e d8 98 f8 be f8 f2 b8 3d
       0.21224195 0.30244914 -0.4855411 0.090307176
0001b0 19 10 5f be 28 e2 0c be 3e 2a f8 be 66 b3 31 be
       -0.21783485 -0.13758147 -0.48469728 -0.17353591
0001c0 ac 00 44 be 49 98 41 3e 7a 4a d6 3e bd dd 21 bf
       -0.19140881 0.18905748 0.41853696 -0.6322897
0001d0 7e 7f 1d be f2 0d a7 3e 1a f3 ee 3d bd d3 18 be
       -0.15380666 0.32627827 0.11667462 -0.14924522
0001e0 09 96 db 3c ab 12 23 be a4 53 67 3e 85 a7 94 be
       0.02680494 -0.1592509 0.225905 -0.29034057
0001f0 8a aa 0e bf d8 69 10 3e 5d f8 0d 3e 10 b7 98 bd
       -0.5572897 0.14102876 0.13864274 -0.074567914
000200 8c c2 82 be 6a d5 b1 bd 9c c2 07 3f 08 42 4d be
       -0.25539052 -0.086832836 0.53031325 -0.2004472
000210 2c 8a 48 3e bb 2f a3 3d 63 77 a5 bd d1 68 d5 bd
       0.19583958 0.07968088 -0.08079412 -0.10420383
000220 f0 c0 87 3e f8 a5 83 3d 84 dd 6a be 55 ef 3d 3e
       0.26514387 0.064281404 -0.22936064 0.18548329
000230 15 c2 2f bd 6a 90 34 3d 23 99 22 be 3e 4b da bc
       -0.0429097 0.044083036 -0.1587873 -0.026647206
000240 2c 4c 92 be 51 c8 48 3e e3 d4 4d 3e 32 cb f7 be
       -0.2857374 0.19607665 0.20100741 -0.48397213
000250 80 db e1 bd 07 7f 2d 3f 5d ea 41 3e e5 51 82 be
       -0.110281944 0.67771953 0.18937059 -0.25453106
000260 a3 b9 f0 3b 2f 47 71 be 55 d8 56 3e ac fb f6 be
       0.0073463484 -0.2356231 0.20980962 -0.48238885
000270 45 c1 cf be 77 21 f0 3c 82 fc 10 3d 54 7c 20 be
       -0.4057714 0.029312832 0.03539706 -0.15672427
000280 f8 bb 26 3d f0 c8 06 be 29 99 24 3e 98 fb 32 be
       0.040706605 -0.13162589 0.16074051 -0.17478788
000290 68 52 4e 3c 1d bd 28 3d 6b 0b be 3c 1a 6c fd bd
       0.012592889 0.041195977 0.023198804 -0.12374134
0002a0 4a c7 17 bd 7b 63 1c 3e 2e a2 5f 3d f7 3a 9e 3c
       -0.03705529 0.15272324 0.054598026 0.019315226
0002b0 e3 f4 86 be 39 0b 5c 3d 16 26 d4 bd c4 a6 84 be
       -0.2635871 0.05372164 -0.10358827 -0.25908482
0002c0 e2 ae 60 3b ed c5 33 3e ca e0 49 be 8a 2b 6d 3d
       0.0034283926 0.17555971 -0.19714656 0.05790285
0002d0 c9 47 75 3d a1 25 d5 3d aa 54 5b be bc 8b ac bd
       0.059882913 0.10407568 -0.21419016 -0.0842509
0002e0 84 b9 b6 bc 84 84 67 be 0f 59 5d 3e 59 27 11 3e
       -0.022305258 -0.22609144 0.21616004 0.14175166
0002f0 1d 20 6b 3d bb 50 24 3e 56 69 73 3e cb 52 81 3d
       0.057403672 0.16046421 0.23770651 0.0631462
000300 89 e3 75 3d 7a 69 7e bc 32 a4 b0 bc 63 b1 4c 3d
       0.060031448 -0.015528077 -0.02156267 0.049973857
000310 55 10 9d 3d 7c 6c 72 3d fa 95 ea 3a 0b 68 95 be
       0.07669131 0.05918549 0.001789748 -0.2918094
000320 5c 75 49 bd c0 d2 95 3e 13 5f 62 be 16 9f 21 3e
       -0.04918419 0.29262352 -0.2210658 0.15783343
000330 22 9f ec bc d2 c7 32 3e c2 7f c3 bb 9a af b5 3d
       -0.028884474 0.17459038 -0.0059661577 0.08871384
000340 0e 8b 27 bd 3f 69 03 bc 12 b2 64 3d a7 e2 88 be
       -0.040904097 -0.008020698 0.055833884 -0.26735422
000350 a5 5b d9 bb 44 15 c9 3e 53 37 50 3e c5 02 ec bd
       -0.0066332393 0.39274037 0.20333605 -0.11523966
000360 f8 8b b7 bd d9 d4 e7 bc 07 03 86 3e 01 a9 ff bc
       -0.08962244 -0.028299736 0.26174185 -0.031208517
000370 65 16 9e be a1 38 7d 3e 89 78 4d be 07 01 0e 3d
       -0.3087646 0.24728633 -0.20065512 0.03466895
000380 3e 86 85 3e a5 11 1e be a1 ac 1b bd 48 ec 51 3d
       0.2607898 -0.15436418 -0.03800643 0.051250726
000390 03 d5 97 3d 51 df b4 3d cc 85 07 3e 93 79 d8 bb
       0.07413676 0.08831657 0.13234633 -0.0066062897
0003a0 55 85 19 3e c0 db 3e be 49 7a 89 bd e5 dd 3c be
       0.14992268 -0.18638515 -0.06712777 -0.18444021
0003b0 59 99 40 3e f4 7f 6e 3d 54 7c a0 bc e8 cd c8 3d
       0.18808497 0.058227494 -0.019590534 0.098048985
0003c0 13 c0 46 3d a1 e6 2e bd 5b e2 38 3e 8b 17 93 be
       0.04852302 -0.042700414 0.18055098 -0.287289
0003d0 bd 02 51 be 8c 81 da 3c fd 74 23 3c 3b dc 58 be
       -0.20411201 0.0266731 0.009976623 -0.21177761
0003e0 98 49 d2 bc 26 6c 0a 3e c5 14 38 3e 10 4a fc bd
       -0.025669858 0.13517818 0.17976673 -0.12318814
0003f0 72 67 a8 bd 6d f8 c5 3d 0b a1 0a 3b 91 84 07 3e
       -0.08222856 0.09666524 0.0021153118 0.13234164

bias_ih_l0 f4 [128]
000000 19 61 a0 3d 45 2b b9 3e c8 68 11 3e 4e 77 a3 3d
       0.0783102 0.36165825 0.14200127 0.0798174
000010 4c 8f 5d 3e 1d 39 a4 3e 54 a1 56 3e fa 2a 10 3e
       0.21636695 0.32074824 0.2095998 0.14078894
000020 0d cd 00 3e ce 0a 40 3e fd d9 ba 3e 7d 45 8b 3e
       0.1257822 0.18754122 0.36494437 0.27201453
000030 8a b6 05 3f f7 b1 56 3e ad fb 5e 3e 92 1d e5 3e
       0.5223166 0.20966326 0.21775694 0.44749123
000040 40 9d 5d 3d fa 24 b0 3e d6 b3 8c 3d f7 9c 33 3e
       0.054105043 0.3440321 0.068702385 0.17540346
000050 6f 7c 04 3f 73 4b 07 3e 62 80 13 3f f8 09 05 3d
       0.5175237 0.13212375 0.5761777 0.03248021
000060 9d c6 b3 3e 84 e1 21 3e 0d ad 1b 3d 82 ab 68 3d
       0.35112467 0.15808684 0.03800683 0.056804188
000070 f0 7c 08 3c 1e 39 98 3e d1 54 af 3e c0 c2 94 3e
       0.008330569 0.29731077 0.34244397 0.29054832
000080 52 71 02 3d a5 14 09 bf 95 a2 a5 be a3 62 f1 3c
       0.031846352 -0.53547126 -0.32350603 0.029465979
000090 24 0a d7 be 41 ce 6f be f5 a9 b0 be bc f6 bb be
       -0.41999924 -0.23418523 -0.34504667 -0.3671168
0000a0 05 a8 30 be a0 9e b5 bd e5 e2 e6 bd 1b 71 5a bd
       -0.17251594 -0.08868146 -0.112737454 -0.053330522
0000b0 db f2 d9 be 5a 38 ca bd 5b b5 b7 bd 1a 24 40 bf
       -0.42568097 -0.098740295 -0.08970138 -0.75055087
0000c0 bf e3 40 bc c7 c2 61 be 2d d4 6b bd 42 e0 bf 3d
       -0.011773049 -0.22046958 -0.057575393 0.09368946
0000d0 80 ff 13 bf ed 6f d6 bd eb 89 9e be 15 5d 71 bd
       -0.5781174 -0.10470567 -0.30964598 -0.05892666
0000e0 d5 ee 35 be 5f ef d4 3d 99 24 90 3d 6a fd e8 3d
       -0.17766888 0.10397219 0.070382304 0.1137646
0000f0 5d 1e 0f bd dc 0b 18 bf 69 34 ff be 5d 8f e8 be
       -0.034941066 -0.59393096 -0.49844673 -0.45421878
000100 37 a2 0a 3e 6c 5f ec 3d 37 06 3d bd be fa f7 3c
       0.13538443 0.11541638 -0.046148505 0.03027093
000110 e4 99 cb bd aa 54 ba 3c 00 68 b5 3d 5d e5 27 bd
       -0.09941462 0.02274545 0.08857727 -0.040990222
000120 55 99 9f ba b6 f7 a6 3d a8 0e af bd 90 6a 06 3d
       -0.0012176434 0.08152716 -0.08547717 0.03281647
000130 30 3e e7 bd 23 b2 d7 bc 27 0a 84 bd d4 64 c1 bd
       -0.11291158 -0.02633006 -0.06447249 -0.094430596
000140 e6 58 95 bd e9 eb c5 bd 1a b3 22 3e f1 ec 0e be
       -0.07292347 -0.09664137 0.15888634 -0.13957573
000150 26 a5 57 3d dc f8 ad 3d d5 3e da 3d 63 84 10 be
       0.052647732 0.08494732 0.106565155 -0.14113002
000160 42 9a e7 3d 78 51 b4 bd b0 99 85 3d 8e 66 2e be
       0.11308719 -0.088046014 0.06523454 -0.17031309
000170 e0 3e f6 bd 22 2c 01 3e 3e 77 94 3c 87 a5 a7 bd
       -0.12023711 0.12614492 0.018123265 -0.08185869
000180 08 01 92 3e 27 19 90 3e 24 58 32 3e 08 78 38 3e
       0.28516412 0.2814419 0.17416435 0.18014538
000190 c2 18 bd 3e ae b7 89 3e 8f 4c 7a 3e 3b 3c 29 3e
       0.3693295 0.2689795 0.24443267 0.16526882
0001a0 70 10 73 3c 20 78 79 3e 77 c8 1b 3e 74 f2 50 3e
       0.014835462 0.2436223 0.1521319 0.20404989
0001b0 85 98 eb 3e 3c 3b 44 3e 72 fc 75 3e 9f 66 1b 3f
       0.460148 0.19163221 0.24022081 0.6070346
0001c0 70 cc 5c 3e 8f c3 86 3e 74 7a 20 3e ac 66 78 3d
       0.21562362 0.26321074 0.15671712 0.06064479
0001d0 1c 8f 15 3f 0a b5 13 3e 2c aa 05 3f 0f dc b2 3d
       0.5842149 0.1442453 0.52212787 0.08733379
0001e0 0b 01 05 3e d6 a5 50 3e 2e 16 6b 3e 56 70 3c bc
       0.12988679 0.20375761 0.2295768 -0.011501392
0001f0 9a 39 19 3e 03 1a ff 3e 25 42 c1 3e 96 5b 65 3e
       0.1496338 0.49824533 0.37745777 0.22398219

bias_hh_l0 f4 [128]
000000 71 58 0b 3d 4b e1 bf 3e 13 88 06 3c 61 17 77 3e
       0.03401989 0.37476572 0.008211154 0.24130012
000010 98 64 b8 3e 55 62 9d 3d c5 14 dd 3d 43 ff a2 3e
       0.36014247 0.07684771 0.10794977 0.31835374
000020 35 fb 57 3e 96 72 b4 3e 3c 30 de 3d 07 b8 16 3e
       0.21091922 0.35243672 0.10849044 0.14718638
000030 67 6b 91 3e ae 01 01 3f b5 42 84 3e 26 a0 1b 3f
       0.28402254 0.5039319 0.25832143 0.6079124
000040 1e 9a 06 bd d3 55 ac 3e 65 16 dd bc f4 45 06 3e
       -0.03286182 0.3365923 -0.026988218 0.13112622
000050 a4 4a 2a 3f b5 2c a0 3e d7 cd 1a 3f 71 33 c6 3d
       0.6652014 0.3128411 0.60470337 0.096777804
000060 17 6d 81 3e b0 63 12 3e 5a 7a e4 3d 3b 73 0e bd
       0.2527854 0.1429584 0.11156149 -0.03477786
000070 ef 1b 96 bd 83 70 93 3e d7 ec d2 3e 4c 75 ae 3e
       -0.07329547 0.28796777 0.4119632 0.34073865
000080 6c 1d 69 bd dc 66 02 bf d8 c0 af bd 59 eb 34 be
       -0.056912825 -0.509382 -0.08581704 -0.17667903
000090 d8 9f e4 bd 92 1b 92 bd b1 00 51 be b2 0e 03 bf
       -0.111633 -0.07134165 -0.2041042 -0.511943
0000a0 d7 0a cc bd 86 61 14 be a9 1b c0 bd 36 89 ea bd
       -0.09963005 -0.14490327 -0.09380276 -0.11451952
0000b0 89 5f db be 3d 6d 8e be 3a 25 85 3c f6 4f 33 bf
       -0.42846325 -0.27817717 0.016253103 -0.70043886
0000c0 27 fe 11 be 45 a8 93 be dc 63 ef bc b6 65 b3 bd
       -0.14257108 -0.28839317 -0.029222421 -0.08759634
0000d0 a9 50 de be 0b f6 88 be c8 5f 08 bf 21 00 b2 bd
       -0.43420914 -0.26750216 -0.5327115 -0.08691431
0000e0 66 33 c3 be 4b 91 51 be eb 8c 3b be 2c 62 59 3d
       -0.3812515 -0.20465581 -0.18315475 0.05307214
0000f0 3a 5b 81 bd e4 53 b8 be d9 93 bb be f0 7e 1c be
       -0.06316228 -0.36001503 -0.36636236 -0.15282798
000100 6d 6c 17 be 5e 09 1d be 66 cf fd 3d d4 bf cf bc
       -0.14787455 -0.15335605 0.12393074 -0.025360025
000110 e8 04 21 3e 54 8d 61 3d 45 d0 c7 bd 70 58 c1 3b
       0.15724528 0.05506642 -0.09756521 0.005900435
000120 bb 66 0f 3e 76 1a 46 bc 21 7d 2d 3d 0a 40 4d 3d
       0.14004032 -0.01209127 0.04235566 0.0501099
000130 8b db 8a 3d 05 4f 24 3d 13 97 11 be 51 49 54 3d
       0.06780156 0.04011442 -0.14217786 0.051827732
000140 b8 fc a3 3c 2b 3f 15 3e 49 b6 ac 3d b7 45 88 be
       0.020017967 0.14574878 0.08433206 -0.26615688
000150 89 a9 d5 bd 0d a8 c8 3c 6d 51 0c be 03 08 db 3d
       -0.10432727 0.024494195 -0.13702936 0.106948875
000160 71 6b 00 be f0 21 90 3c 42 ad 8b 3d c4 2f 63 bd
       -0.12540986 0.017594308 0.06820156 -0.055465475
000170 6d c9 de bd d6 28 1c be ad 8f d2 bb 68 58 b5 3c
       -0.10878263 -0.15249953 -0.006425819 0.022136882
000180 49 35 2e 3e 80 df d4 3e 1c fb 93 3c 68 9e d0 3e
       0.17012514 0.41576767 0.018064074 0.40745854
000190 4b 96 ef 3e 43 81 30 3e 6e d2 e2 3e 66 a4 f3 3e
       0.46794352 0.1723681 0.4430117 0.47586364
0001a0 5c 6c 20 bd 94 2d 88 3e ae 6b c9 3e b0 d7 8f 3e
       -0.03916584 0.26597273 0.39339966 0.28094244
0001b0 93 d2 f1 3e 77 06 c5 3e c2 ea 23 3e fe 69 1d 3f
       0.47230968 0.38481495 0.16007522 0.61489856
0001c0 29 bc 6f 3e 40 74 01 3e 73 0c 86 3e b4 b4 80 bd
       0.23411621 0.12642002 0.26181373 -0.062844664
0001d0 76 19 0c 3f bf b1 ab 3e df 84 2c 3f 71 33 61 3e
       0.5472635 0.33534047 0.67390245 0.2199228
0001e0 d1 ab a2 3e 38 b6 37 3e a6 1f 90 3e 9a 99 ad bb
       0.3177171 0.17940605 0.28149146 -0.0052978517
0001f0 f5 3d a6 3c 9c 43 fc 3e 79 17 cf 3e e3 74 d9 3e
       0.020293215 0.49270332 0.40447596 0.4247199

weight_ih_l0 f4 [128, 2]
000000 aa 86 38 bd 12 16 f2 bc 4d 48 d2 bd 5d 5c 3f 3d
       -0.0450503 -0.02955154 -0.102676965 0.046718944
000010 01 75 10 3e 77 e7 68 bd 60 88 24 bc f8 79 d2 3d
       0.14107133 -0.056861367 -0.01004228 0.1027717
000020 65 36 18 bd e3 4e c7 bd 96 a9 5f bd 17 17 39 3e
       -0.03716125 -0.09731843 -0.05460509 0.18075214
000030 3a 02 74 3d 17 15 16 3d ac 58 0e be bf e0 b5 bd
       0.059572436 0.036641207 -0.13901013 -0.088807575
000040 b5 70 8a 3d 00 95 77 bd 4f ad c2 bc d7 53 b0 3c
       0.067597784 -0.06044483 -0.02376428 0.021524353
000050 15 c3 7a bd d4 ca 2c 3d 5c b7 e1 bc e1 64 a0 bd
       -0.0612212 0.04218562 -0.027553253 -0.07831741
000060 38 2d a0 bd ed b9 cd 3c 8a ea 92 3d 86 b6 43 bb
       -0.07821125 0.02511307 0.07173641 -0.002986343
000070 b4 72 06 be ae d7 69 bb 4a 5d 69 3d 68 d0 8a 3d
       -0.13129693 -0.0035681534 0.056973733 0.067780316
000080 39 1a f0 bc 13 5e f8 3c 40 c0 42 3d 5a 37 b4 3c
       -0.029309379 0.030318296 0.047546625 0.02199905
000090 06 c3 b5 3d d6 cd 48 3d cc 59 be bc d3 63 e9 bc
       0.088750884 0.049024425 -0.023236178 -0.028489983
0000a0 6e 86 c8 3d 66 c2 76 3d a6 a2 84 3d 65 ce a5 3e
       0.097912654 0.060243987 0.06476335 0.3238403
0000b0 49 46 de 3d cb 15 9c 3d 2d 22 50 be 19 68 ae bc
       0.108532496 0.07621344 -0.20325537 -0.021289872
0000c0 5e 56 24 bd 63 42 27 bd b3 1b 45 bd 00 24 a3 bc
       -0.04012143 -0.040834796 -0.04812212 -0.019914627
0000d0 22 48 f6 3d ba 81 42 3d 08 97 53 bd 01 22 d6 3d
       0.12025477 0.047487 -0.051657706 0.104557045
0000e0 2a 2b d8 bc 42 2a 13 3e 31 fd 34 bd ed 23 37 bc
       -0.02638777 0.14371589 -0.044186775 -0.011177999
0000f0 f3 3e be 3e 66 d3 74 3c ce e6 e5 be 63 2e 83 bc
       0.371574 0.014942979 -0.44902653 -0.01601333
000100 98 7d 5a be 63 68 70 be f5 b1 c3 3d 4f 22 8e 3d
       -0.21336973 -0.2347732 0.09555427 0.069401376
000110 57 34 a7 3d b3 27 fe bd d7 61 f6 3d 24 c8 fb 3d
       0.0816428 -0.12409916 0.1203038 0.12294033
000120 50 3d ae 3e 38 17 44 be 6d 38 53 bd 8c 0a 19 3e
       0.34031153 -0.19149482 -0.051567484 0.1494543
000130 a3 de 07 3e 0d 9c 3c 3e 3e 34 ca bc f4 bd c0 3c
       0.13268523 0.18418904 -0.024683114 0.023528077
000140 4c 8f 96 be 4d 81 90 be 70 8d 08 3e 0f c9 4f bc
       -0.29406202 -0.2822365 0.13335204 -0.012682213
000150 4b fd a9 bc 67 3f 5a bd 4b be 5f be b8 e4 52 3d
       -0.020750662 -0.05328312 -0.21849935 0.051487654
000160 93 4e 80 bd 2d cf 4a 3e a1 08 01 be c7 b0 ab 3d
       -0.06264987 0.19805594 -0.12600948 0.08383327
000170 09 d1 91 bd 1e 3f bf 3d 08 94 a1 3e 3a e7 c8 3c
       -0.071199484 0.093382105 0.3155825 0.02452432
000180 e2 6d 86 bd 0e 2e 35 3e 80 98 f1 bd 81 c2 78 be
       -0.06563927 0.1769335 -0.11796665 -0.24292947
000190 33 77 85 bd 8d b4 c1 3d 29 19 44 be af 6d 63 bd
       -0.06516876 0.094582655 -0.19150223 -0.055524524
0001a0 da 24 07 be be f1 f8 bc 77 2c 2d 3e b2 75 15 be
       -0.13197652 -0.03038871 0.16911493 -0.14595678
0001b0 93 c1 20 3e 1c b1 bc 3d 56 c7 d2 bd da e8 09 be
       0.15698843 0.092134684 -0.102919266 -0.13467732
0001c0 82 0c 55 be f2 3d 12 be 42 65 df bd 29 f5 80 bd
       -0.20805553 -0.14281443 -0.10907985 -0.062967606
0001d0 aa 3f 2e 3d 98 dc 1a bd 7f 37 65 be ec a2 8b bb
       0.042541184 -0.03780803 -0.22384451 -0.004261365
0001e0 67 11 b7 3d 61 8e 4d be 67 20 33 bd 26 a6 fc 3d
       0.08938866 -0.20073844 -0.043732073 0.12336378
0001f0 bd ea 96 3e 56 11 b9 3d 4a 03 19 bd d1 50 d4 bd
       0.29475966 0.0903651 -0.037356652 -0.10366977
000200 60 a8 5e bc 5f ba b7 3d 55 92 2a be 22 91 20 be
       -0.013589948 0.08971094 -0.16657384 -0.15680364
000210 d6 7d 9e 3c 99 50 2d be b1 b5 33 be 44 75 36 be
       0.019347113 -0.16925277 -0.17549779 -0.17818171
000220 36 66 fe bc 1c 49 43 3d b7 39 74 3e 61 15 b8 bc
       -0.031054597 0.047677144 0.23850141 -0.022471132
000230 2a c3 f6 3d ea 10 24 bd e4 98 91 3e fc cf ce bb
       0.12048943 -0.040055193 0.2843696 -0.0063114148
000240 f2 fa be 3e d5 be 54 3e 80 52 09 be e5 28 90 3e
       0.3730083 0.20775922 -0.13410378 0.281562
000250 f1 90 d5 3d 48 3b 10 3e ad 33 d1 bd 3a d4 9c 3d
       0.10428036 0.14085114 -0.102149345 0.076576665
000260 61 d9 11 be 73 7f 90 bd e4 e3 cf 3e 58 83 ef 3d
       -0.1424308 -0.07055559 0.40603554 0.11694974
000270 3a ab 17 bd 09 7d 07 be 9f dc 30 bd 94 42 ef 3d
       -0.03702853 -0.13231291 -0.04317915 0.11682621
000280 7b eb 5f 3d 8c 18 57 bd 71 37 61 be 16 8b 3c 3d
       0.05466793 -0.052513644 -0.21993805 0.04603108
000290 a8 71 85 3d 00 be 33 3e e2 8d 38 3d 0e 42 c7 3d
       0.06515819 0.17552948 0.045057185 0.09729396
0002a0 1e 40 a2 be 3f e0 f6 bd f6 44 5b be ef 0b 44 3d
       -0.31689543 -0.1205449 -0.21413025 0.047862943
0002b0 36 a9 f7 bd 38 ab 53 be 19 a9 1e 3e ba 4e 02 3d
       -0.12092821 -0.20670784 0.15494193 0.03181336
0002c0 95 b9 69 3e d4 65 80 3d 67 a1 86 bb b1 d4 2e 3e
       0.228247 0.06269422 -0.004108596 0.17073323
0002d0 0e 5b 65 be 56 0a 2a bd cc cf 95 3d fb c7 8a bd
       -0.22398016 -0.041513763 0.07315025 -0.067764245
0002e0 99 2d 88 3e 51 16 f2 3d 49 8a ca 3d 40 df 20 3e
       0.26597288 0.11820663 0.09889657 0.15710163
0002f0 49 ef ce 3e fb 6e f1 3d 1b 44 97 be 93 40 07 be
       0.40416935 0.11788746 -0.29544148 -0.13208227
000300 eb 96 a2 be 66 ac 6c be ed b3 2d 3e 38 f3 ef 3d
       -0.31755766 -0.2311264 0.16963167 0.11716312
000310 a7 61 3f 3e a7 84 6a be 37 e3 03 bd d5 ca bf bb
       0.18689595 -0.22902165 -0.03219911 -0.005853037
000320 a4 be 37 3d 43 51 66 be af 31 a4 bc b2 51 4e 3e
       0.044859543 -0.22491936 -0.020043222 0.20148352
000330 80 f3 cd 3d 0b b6 fc 3c 31 4e 6c be 55 e0 03 be
       0.100562096 0.030848524 -0.23076703 -0.12878545
000340 6b a4 25 be 53 22 b5 bd 43 28 bc 3d 71 e2 33 be
       -0.16176002 -0.088444375 0.09187367 -0.1756685
000350 92 df 7d 3d ea ba ac 3d f0 04 8c 3d 29 9b 76 bd
       0.06198079 0.084340885 0.06836879 -0.060206566
000360 6f 8f 56 3e d4 1f 6b 3e f8 91 d1 bd 69 39 0c 3e
       0.20953153 0.2296136 -0.102329195 0.13693775
000370 09 39 19 bd 66 e4 0e 3e 67 63 ff 3d 59 6f f8 3d
       -0.03740791 0.13954315 0.12470131 0.12130613
000380 5b d5 f2 bd 8a f5 0f 3e 48 aa c0 bd 79 82 a0 be
       -0.118571006 0.1405851 -0.094074786 -0.31349543
000390 97 d8 11 be ab 7e ab bc 02 f8 00 bc b9 b0 dd 3c
       -0.14242779 -0.020934423 -0.00787163 0.027061807
0003a0 f9 e9 a3 bd 8c eb d7 3d 80 0e 88 bd 07 b4 70 bc
       -0.08003611 0.10542974 -0.06643391 -0.014691359
0003b0 9f f7 3c 3e 60 35 ba 3d d6 d6 8a be 3b 98 c3 bd
       0.18453835 0.09092212 -0.27117032 -0.0955052
0003c0 b0 ff 80 3e 6f 50 a3 3a d5 ee 0d be 79 4f e9 bd
       0.25195074 0.0012459884 -0.13860638 -0.11392111
0003d0 bf a7 8c 3d a9 0a da bc 21 65 63 bd 9a 30 02 3e
       0.068679325 -0.026616411 -0.055516366 0.12713853
0003e0 e7 df 23 bd 94 56 a8 3d 3f d0 e4 bd e1 eb 1b bd
       -0.04000845 0.082196385 -0.11172532 -0.03806675
0003f0 f7 07 83 3e 36 7f 2a 3e 6d ad dd bc d3 2a a0 be
       0.25592014 0.1665009 -0.027060235 -0.31282672

weight_hh_l0 f4 [128, 32]
000000 06 77 48 be 42 50 86 3d 49 e0 54 3e b7 80 bc 3e
       -0.19576654 0.06558277 0.20788683 0.36816952
000010 59 06 05 be cc af 58 3d 9d f5 6e bb ee 7e 40 be
       -0.12990703 0.052902028 -0.0036462315 -0.1879842
000020 1b e6 ab be 2e 07 f5 bd 18 3b 56 3d 39 c2 a1 3c
       -0.33573994 -0.1196426 0.05230245 0.019745933
000030 ed 5a c9 3d 33 eb 09 bd aa 87 ce bd e7 4f a0 bb
       0.09831796 -0.03367157 -0.100844696 -0.0048923376
000040 a1 c6 08 3e 20 56 e6 bd 91 82 30 3b ab 96 ab 3d
       0.13357021 -0.11246896 0.0026933292 0.08378347
000050 c9 6a a5 3e c0 ea 18 3d 3e 54 06 be ed 86 6e be
       0.32308033 0.03733325 -0.13118073 -0.23293658
000060 b6 93 35 be ee e1 74 bd 78 ea a5 bd 19 eb e2 3d
       -0.17732129 -0.059785776 -0.08101362 0.110799976
000070 c5 ab 77 bb e7 59 8e be 9f e7 41 be 6a dc cf 3e
       -0.0037791592 -0.27802965 -0.18936013 0.4059785
000080 f0 32 54 bd 43 4a 3e be 52 12 16 3e e0 70 cd bb
       -0.05180639 -0.18583016 0.14655426 -0.0062695593
000090 63 f1 f4 bd eb 81 ba bd 76 a8 3f be 52 f9 b7 bd
       -0.11960103 -0.09106811 -0.18716606 -0.08983101
0000a0 39 32 88 be f7 b9 38 3d 11 73 45 be 39 48 05 be
       -0.26600817 0.045099225 -0.19282176 -0.13015832
0000b0 cf cd 2e bd fe 70 07 3e e5 3d dc bd 15 6b 8b bd
       -0.042676743 0.13226697 -0.10753993 -0.06807534
0000c0 3b 06 d8 3c ee b8 c7 bd 08 4b c2 3d 8a da 28 3e
       0.026370158 -0.097520694 0.09486967 0.16489616
0000d0 72 35 45 3e aa bb 66 be c0 a2 bd 3d d4 1f f0 bb
       0.19258669 -0.22532526 0.09259558 -0.007328013
0000e0 cb 1b 0b bd ae cd 4c be 12 9e df 3d 31 26 8e bd
       -0.033962052 -0.20000336 0.109188214 -0.06940878
0000f0 71 b3 c3 bd e5 86 bc 3d 6a 12 80 bd 17 ba 36 3d
       -0.0955571 0.092054166 -0.06253512 0.044611063
000100 86 25 a4 bc ed f2 17 be a9 a8 d7 3d 28 a8 a8 bd
       -0.020037424 -0.14838763 0.10530216 -0.08235198
000110 9f b1 0e be e0 32 d9 bd 4f a2 76 bc 8a 94 4b bd
       -0.13934945 -0.10605407 -0.015053346 -0.049702205
000120 34 aa 41 be 80 d1 6e be ba 3c af bd 50 e4 c2 bd
       -0.18912584 -0.23322105 -0.085565045 -0.095162034
000130 7d 6c 12 be 77 cd 35 3e 4e c8 c6 bd 3d 66 7a 3d
       -0.14299197 0.1775416 -0.09706174 0.06113266
000140 43 79 4a 3d 0d d5 8c 3c 82 fc e1 bd 10 bf ac bd
       0.04943205 0.017191434 -0.1103449 -0.0843488
000150 98 dc ca bd d8 f4 e4 39 46 16 a9 be 06 6f a4 3a
       -0.09905356 0.00043669972 -0.33024806 0.0012545295
000160 aa 28 52 3c 9d 9b 84 be 6e 39 14 be 04 16 fb bc
       0.012827078 -0.25899974 -0.14475033 -0.030650146
000170 b9 3d cc bd 3d 89 f4 3d 10 bf d7 3d c6 91 9f bd
       -0.0997271 0.119402386 0.10534489 -0.07791476
000180 e2 8c cd bc ea 11 9c bb 71 b0 07 3e 9b d9 69 bc
       -0.025091592 -0.0047628777 0.13250901 -0.014273073
000190 c3 c2 9d bd 60 ff bc bd d9 65 8b bc b7 15 71 3e
       -0.077031635 -0.092283964 -0.017016338 0.2354344
0001a0 2c a4 0e be ea c0 8b 3e 94 49 1e be 84 34 33 3e
       -0.13929814 0.2729562 -0.15457755 0.17500502
0001b0 fc 96 e1 3d ef 08 bf 3c 7d 2b 97 3d 80 03 83 be
       0.11015126 0.02331969 0.073813416 -0.25588608
0001c0 0f 22 96 be 3d 71 6f be 97 6f 2a be f5 41 8f be
       -0.2932286 -0.2338304 -0.1664413 -0.2798001
0001d0 a4 f4 87 be 08 1f 9f 3c 09 7e 70 3e ce b0 1f 3e
       -0.26553833 0.019423977 0.23485579 0.1559479
0001e0 24 06 0a bf 65 db 88 3e 49 c6 de bd bc a6 71 bc
       -0.5391562 0.26729885 -0.10877664 -0.014749225
0001f0 02 4f f9 be 44 c9 16 be 82 aa 5c bd ee a9 4d be
       -0.4869309 -0.14725214 -0.053873546 -0.20084354
000200 c6 26 94 3d fe 12 1a 3d cd da a7 3d 17 5c 24 3a
       0.07233958 0.03761577 0.0819603 0.0006269826
000210 a6 6c e1 3b b5 3b 0c 3e a4 12 9a 3c 2b ae 9f bd
       0.006879407 0.13694651 0.018807717 -0.07796892
000220 8b 60 14 3e ba b0 2a bc bc 8b dc bd 0a b2 c4 bd
       0.14489953 -0.010418111 -0.1076884 -0.09604271
000230 7e ed 3b be 67 ee 40 3e 39 f8 e8 bc eb cc 00 3c
       -0.18352315 0.18840943 -0.028438674 0.007861356
000240 07 85 9d be ab 03 36 bc 25 35 25 3e 23 3f 0b 3d
       -0.30765554 -0.011109273 0.16133554 0.03399576
000250 a9 e9 93 3d 56 16 08 3e 6e d5 43 3d 82 49 29 be
       0.072223015 0.1328977 0.047810964 -0.16531947
000260 b6 69 05 bd d2 18 50 3d f4 ae 3a be c8 be e5 bc
       -0.032571517 0.05080492 -0.18230802 -0.028045073
000270 85 63 0c 3d 04 78 ad 3e 54 bc 3c 3e aa 4c 7d bd
       0.034274597 0.33880627 0.18431216 -0.06184069
000280 1e 7e 11 3d ed 82 36 be 30 22 73 3c 12 93 3c be
       0.035520665 -0.17823382 0.014839694 -0.18415478
000290 39 74 53 be 85 f9 fa 3d 45 a3 ef bd aa ec 67 3e
       -0.20649804 0.12254623 -0.11701063 0.22648874
0002a0 9c 66 a3 3e 16 60 63 be 58 a9 e5 bd e7 ae 0d 3d
       0.31914222 -0.22204623 -0.112139404 0.034590628
0002b0 b2 b9 d2 bd 12 1d bd bd 29 83 7e bd ee cf e8 bd
       -0.10289325 -0.0923406 -0.062136803 -0.113677844
0002c0 03 c5 1d be 6f 02 49 bc 55 b6 11 bd 2a a1 18 3e
       -0.15407185 -0.012268647 -0.035574276 0.14905229
0002d0 bf bc 68 bd 34 08 c0 bd a6 88 20 be 63 65 33 3d
       -0.056820627 -0.093765646 -0.15677127 0.04379786
0002e0 3b 40 46 3e 05 03 9d 3d 59 62 e6 3d 2f f8 7f 3c
       0.1936044 0.076665916 0.11249227 0.015623136
0002f0 13 8e 9c 3d d1 7f 8c bd d2 70 42 3e 4b e9 3b 3c
       0.07644286 -0.068603165 0.1898835 0.011469196
000300 37 33 15 3d 10 94 3f be 60 55 f3 3d 75 63 56 bd
       0.036425795 -0.18708825 0.11881518 -0.052340943
000310 3d 91 f0 3c 83 1a 24 be b7 9a a7 bd a5 c6 37 3e
       0.02936613 -0.16025738 -0.081838064 0.1794687
000320 73 27 ce 3d 9a 34 4a be 79 ed 10 3e 8f 82 31 be
       0.10066118 -0.19746628 0.14153089 -0.1733496
000330 0d 03 42 be 86 ed 85 3e 4f 68 ed be 9c 32 88 be
       -0.18946476 0.26157779 -0.46368644 -0.26601112
000340 81 b7 fb bc 80 40 84 be 15 3d 6b 3e 27 3d f5 3d
       -0.03072715 -0.2583046 0.2297252 0.119745545
000350 9d 70 9a 3e b5 f7 4f 3e b6 24 9f be 60 f4 d2 bd
       0.30164042 0.20309336 -0.31082696 -0.10300517
000360 6b 79 e0 3e 2c 81 56 be d5 2c 5c bd d0 ee 25 3d
       0.43842635 -0.20947713 -0.053753693 0.040510952
000370 c7 d6 2a 3f 6e 63 9a 3e 80 d2 2c 3d 36 76 4c 3e
       0.66733974 0.30153984 0.042192936 0.19966969
000380 13 10 b1 3c 5c 84 65 3e 8e dd 79 3c 7e 6e 87 3d
       0.02161411 0.22413772 0.015250577 0.066128716
000390 e2 c5 d3 3d 86 3b 8d be 7a 71 23 bb dd 69 3f 3d
       0.103404775 -0.27584475 -0.0024939463 0.04673182
0003a0 55 7d 42 3c 55 d5 2c be de 78 12 be f4 24 88 3e
       0.011870702 -0.16878255 -0.1430392 0.26590693
0003b0 48 73 26 3e 9c b5 15 be 41 5a 4c 3e 02 b7 41 3d
       0.16254914 -0.1462006 0.19956304 0.04729367
0003c0 75 e2 1d bd fd 42 19 bd 63 7c 05 be e7 b3 76 bc
       -0.038546044 -0.0374174 -0.13035731 -0.0150575405
0003d0 2c b6 a0 bd 3a 0a 85 bb 33 a4 61 bd a5 1b 0b be
       -0.078472465 -0.004060057 -0.055088233 -0.13584764
0003e0 7e 0c 61 bc 27 7a 22 3d d9 d7 02 3e f1 3d a3 3d
       -0.0137358885 0.039667275 0.12777652 0.07970799
0003f0 03 b4 37 be 19 93 c1 bc d6 c0 53 bd 26 65 59 bc
       -0.17939763 -0.023629712 -0.051697575 -0.013268745

bias_ih_l0 f4 [128]
000000 a4 b6 c8 bd f9 68 8f bd 21 c5 98 3c dc 82 04 3e
       -0.09800461 -0.07002444 0.018648686 0.12940544
000010 d0 64 c5 bc 71 03 da 3d 6e 62 c9 3d ea 8a cf bd
       -0.024095923 0.10645188 0.09833227 -0.10133918
000020 58 3b 44 bd c3 73 fc 3c d3 f7 0d be a2 8e 14 be
       -0.047908157 0.030816918 -0.13864069 -0.14507535
000030 f8 a2 05 bd b1 d0 41 3e b1 5c 25 be 48 94 cf bb
       -0.032626122 0.18927266 -0.1614864 -0.006334815
000040 5c de 4d 3b 50 d2 ec 3d 76 28 dd 3d 9f 31 b2 bd
       0.0031413054 0.115635514 0.10798733 -0.08700871
000050 b8 fc d4 3d 5d 08 26 bd 7c be f5 bd c5 d1 b7 bd
       0.10399765 -0.04053532 -0.11999223 -0.08975557
000060 52 f3 cd 3c 0c 34 4f bc 6d c8 19 3d 8e 3e 16 bd
       0.025140438 -0.012646686 0.037544657 -0.03668075
000070 a8 37 2c 3e ac f9 e6 3d 4d 6d 22 3e 45 f0 89 bc
       0.16818106 0.1127809 0.15862007 -0.016838202
000080 7c de 52 3e c4 f0 96 bd ed f2 df bd 65 20 f7 bd
       0.20592684 -0.07370141 -0.10935006 -0.12066726
000090 53 e3 bb 3c 70 9a 34 3e b3 37 98 3d ea ea 70 3e
       0.022935545 0.17637038 0.07432499 0.23527113
0000a0 47 46 5a 3e 45 a3 1d 3e 00 31 ba 3d 2a 56 2f 3e
       0.21315871 0.15394314 0.09091377 0.17122713
0000b0 20 69 2c bd 8f 92 86 3e 76 b9 0e 3d 54 40 01 3b
       -0.042092443 0.2628369 0.034844838 0.001972218
0000c0 66 0d 0c be 36 31 58 3e b1 1d 53 3e f9 50 60 3e
       -0.13676986 0.21112522 0.20616795 0.21905889
0000d0 25 7a 72 3d 8d df 2c 3e 7e d4 ce bd 48 38 03 bd
       0.059198517 0.16882153 -0.100991234 -0.032036096
0000e0 24 72 35 bd 1b ad c1 3d 02 d9 08 3d 2a b9 7c 3e
       -0.044298306 0.094568454 0.03341008 0.2468001
0000f0 7a bb ea bd 41 86 26 3d dd 75 71 3d e4 30 8e bc
       -0.114615396 0.04065538 0.058950294 -0.017357297
000100 73 0c 99 bd 6d 19 a8 3d 15 20 cc 3d 6c 28 fc bd
       -0.074730776 0.082079746 0.09967057 -0.12312397
000110 05 52 05 3c 72 48 b6 3d f0 40 c7 3d 86 e5 a8 3d
       0.008137231 0.089005366 0.09729183 0.08246903
000120 c3 fe 43 3e 65 91 81 bd d0 19 b4 3d 2a 92 91 3c
       0.19140153 -0.0632656 0.08793986 0.017769892
000130 68 88 31 3d 35 0c 9f 3c 4c b0 59 3d 78 58 98 bd
       0.043342978 0.019415 0.053146645 -0.07438749
000140 57 54 df bd 33 00 6e bd 80 35 3e 3e df 11 81 bd
       -0.109047584 -0.05810566 0.18575096 -0.06302237
000150 47 94 50 be 00 de 61 be 94 2f d2 bd f5 a0 59 3e
       -0.20369063 -0.22057343 -0.10262981 0.21252806
000160 70 ac 59 be 73 48 80 bd 45 3a 0a 3e 39 56 0d 3b
       -0.21257186 -0.062638186 0.1349879 0.0021566285
000170 0c 8d 68 be 4b 70 56 bd 07 30 91 be 86 01 f4 bd
       -0.22710055 -0.052353185 -0.28356954 -0.11914353
000180 28 83 39 3d f5 b2 8f 3e 13 62 2d 3e e1 7b 23 3e
       0.045291096 0.2806622 0.16931944 0.15965225
000190 43 00 6a 3e e1 f0 94 3e 01 95 c8 3e 5f db ab 3d
       0.22851662 0.29090026 0.3917618 0.08391451
0001a0 8f 6d 93 3d a4 9b 68 3e 65 e9 52 3d 19 00 b3 bd
       0.07198631 0.22715622 0.051492114 -0.08740253
0001b0 ad 75 74 3c 51 bd a4 3e 2a dd d9 3d 06 43 0c 3e
       0.014920634 0.32175687 0.10637887 0.13697442
0001c0 5e 19 4d 3d 3d fa 54 bd df 29 4c 3e f9 92 1d 3e
       0.05007302 -0.05199646 0.19937848 0.15388097
0001d0 9a 79 8b 3c 42 a6 3f 3e f7 dd b8 3d 1a d9 9a bd
       0.017025758 0.18715766 0.090267114 -0.0756094
0001e0 dc f4 86 3e 13 27 25 3c 01 22 67 3e be 6f 36 3b
       0.26358688 0.010080117 0.22571565 0.00278376
0001f0 7e 3e d4 bc c0 f6 9f 3d 05 cb 65 3e 4c d7 00 3d
       -0.025908705 0.07810736 0.22440727 0.031455323

bias_hh_l0 f4 [128]
000000 f9 2d 06 3e cd 02 42 3e c5 90 51 bd 51 e5 21 bd
       0.13103475 0.18946381 -0.051163454 -0.039525334
000010 16 3c 8f 3d b6 ca 46 3e 52 d8 17 be 6e f4 33 3b
       0.06993882 0.19413266 -0.14828613 0.0027458924
000020 b6 0f fc 3c 3c d6 d2 3d 33 05 88 3d 4a 6a 82 3d
       0.03076921 0.10294768 0.06641617 0.06367929
000030 26 6b 03 bd d1 52 4b 3e db d9 8a 3d 23 41 37 3d
       -0.032084607 0.1985581 0.06779834 0.044739854
000040 aa 38 44 bd b7 8e 15 3d c4 5c 91 3c 2b 23 07 be
       -0.0479056 0.036513057 0.01774443 -0.1319701
000050 1a 5c df 3d 1d 1b 8d 3d bd 93 32 3e 65 26 27 be
       0.10906239 0.06889937 0.1743917 -0.1632324
000060 a1 a4 a7 bd 7c 35 c4 bd 95 28 ea 3a 51 0b 08 be
       -0.08185697 -0.09580514 0.0017864878 -0.13285567
000070 17 ae 46 3e 07 47 0c 3e 09 dc 91 3c 7d c9 46 3c
       0.19402348 0.1369897 0.017805116 0.0121329995
000080 39 e1 92 3d 0e d9 16 3e e7 ca 6e 3c 00 32 85 bc
       0.07171864 0.14731237 0.014574743 -0.016259193
000090 98 97 08 3d 42 b7 1b 3c 4c cf 47 bd 9f 0c 60 bd
       0.033347696 0.009504141 -0.048781678 -0.054699536
0000a0 49 97 46 bd e8 c5 ca bc 1f fe 1c 3c f6 15 86 3d
       -0.04848412 -0.024752572 0.009582072 0.065471575
0000b0 65 d2 d1 3d 9d 46 8d 3e 96 08 f9 bd 22 5c 93 bd
       0.10245208 0.27592936 -0.12159841 -0.07195307
0000c0 85 ef 8d bd 8d 95 48 bd 37 87 7a 3d c8 8f 02 3d
       -0.0693045 -0.048970748 0.061164107 0.0318754
0000d0 f7 5f 53 3d 67 4c bc 3d 1d 97 33 3d df eb 37 be
       0.05160519 0.0919426 0.043845285 -0.17961071
0000e0 33 b8 a2 bc e4 d1 0e 3e 5b d1 64 bd 46 19 e4 3c
       -0.019863224 0.13947254 -0.05586372 0.027844083
0000f0 c7 b0 ab 3d b6 41 1b be 74 29 78 bd dc 6c 23 3e
       0.08383327 -0.15161785 -0.060586408 0.15959495
000100 60 22 d6 3d 2c d8 cc 3d 8b 5b b6 bd 84 35 b8 bd
       0.10455775 0.10002169 -0.08904179 -0.08994582
000110 53 2f a7 3d ee e6 e5 bd 3a f2 da bd 54 86 a7 3d
       0.08163323 -0.11225687 -0.10690732 0.08179918
000120 52 fc 8d bd fe 37 23 3e 6c b6 52 3c dd 19 00 3e
       -0.06932892 0.15939328 0.012860876 0.12509866
000130 0d 9f 92 3b 16 06 bd 3d fa c9 f7 3c e7 a5 04 3d
       0.0044745267 0.092296764 0.030247677 0.03238478
000140 1e 0c a5 bc 40 91 e7 3d ef 94 c7 bd 9a 77 0f 3d
       -0.02014738 0.11307001 -0.09745204 0.03502617
000150 74 7c 20 be 9d 2d 37 be 52 32 ed 3c 30 c2 17 3e
       -0.15672475 -0.17888494 0.028954659 0.1482017
000160 0e fb 17 be 55 bc 23 3e 78 be 8d bd 0c dc 95 3c
       -0.14841864 0.15989812 -0.06921095 0.018293403
000170 06 6c c0 be 4c 63 ba bd 72 c8 6f bd 3b f0 98 be
       -0.37582415 -0.091009706 -0.05854077 -0.2987078
000180 8f 8d 9e 3e a9 65 83 3e 91 bf 8c 3d 3d 73 da bd
       0.30967376 0.25663498 0.06872476 -0.10666511
000190 17 a8 62 3d 8b b2 9b 3e 43 3a a2 3e 78 6c 21 3e
       0.055336084 0.30409655 0.31685075 0.15764034
0001a0 75 a4 eb 3d 5e a3 75 3e 65 cc 56 bb 1b 76 88 bd
       0.11505977 0.23988101 -0.0032775637 -0.06663152
0001b0 32 cb ba 3c 96 41 39 3e 8e 40 30 3e ef ca 74 3e
       0.02280197 0.18091425 0.17212126 0.23905538
0001c0 20 ec 4a 3e 95 5a d1 3b 55 ee b8 bc bc 82 0e 3e
       0.19816637 0.006388972 -0.022574583 0.13917059
0001d0 a4 b5 14 b9 e7 da 42 bb 78 32 58 3e bd 3c 58 3e
       -0.00014182046 -0.0029732527 0.21113002 0.2111692
0001e0 d0 d8 0d 3e d2 2c 0b 3e 0f 32 66 3c f5 b2 40 3e
       0.13852239 0.13591316 0.014050021 0.18818267
0001f0 5f 99 7f 3e 0a c9 14 3e 4b cf 18 3e 5c f2 c4 3d
       0.2496085 0.14529815 0.14922826 0.09616539

weight_ih_l0_reverse f4 [128, 2]
000000 4b 33 ed 3e fc 35 ce be c5 96 95 3d 38 8c cf 3c
       0.46328196 -0.40275562 0.07304148 0.025335416
000010 97 46 ca bc fd b7 a7 be f9 d0 b1 3e 69 e2 09 bf
       -0.024691863 -0.3275756 0.34729746 -0.538611
000020 46 b3 28 3b 8d 5d 49 be da 46 17 3e 6e 93 73 be
       0.002574162 -0.19664593 0.14773121 -0.23786709
000030 ff fc 90 be 02 37 a6 3e 64 f8 28 3d 7d 85 6e be
       -0.2831802 0.32463843 0.04125251 -0.23293109
000040 9f 1f 69 bd c7 c2 13 bf 9d a2 fc 3b 9d c0 b7 bd
       -0.05691492 -0.5771908 0.0077098147 -0.08972285
000050 cd 34 a7 be 01 29 bb 3d 25 c3 b6 3e 13 2b 25 be
       -0.3265747 0.0913868 0.35695758 -0.16129713
000060 87 a9 bb be e0 12 18 be 67 cf eb be 76 2e 95 be
       -0.36652777 -0.1485095 -0.46056673 -0.2913701
000070 75 74 76 3e a2 29 00 be 00 bf fb 3e b2 51 30 3e
       0.24067862 -0.12515882 0.4916916 0.17218664
000080 a8 7a 28 3b 75 e6 3a 3d 7e 3d 02 be aa 88 d3 3c
       0.0025707874 0.045629937 -0.1271877 0.025822002
000090 69 45 1f be 5e d8 5f 3d 26 2d 1f be 90 8c df 3d
       -0.15553822 0.054649703 -0.15544567 0.10915482
0000a0 4b 7e 83 be a5 33 b9 3d 9e c8 a8 be 0f 9e da 3e
       -0.2568229 0.090430535 -0.3296556 0.42698714
0000b0 8a 26 4c bf c2 f8 96 bd 32 cb 95 3e 34 71 0c be
       -0.79746306 -0.073716655 0.29256588 -0.13715059
0000c0 62 61 cb bc 6e 01 98 3e b6 14 2f bf 3d de 0a bf
       -0.02482671 0.2968859 -0.6839098 -0.5424536
0000d0 1b 5b f8 3c 54 c4 d2 3e db fc d9 bd 4f a3 92 3e
       0.03031688 0.4116541 -0.106439315 0.2864022
0000e0 56 0a 32 3e 17 a7 06 bd 01 c7 ce bd ae 53 19 3e
       0.17386755 -0.032874193 -0.10096551 0.14973328
0000f0 2e 9c f4 bc be 24 2d 3e 95 d4 75 3d 5b c4 3b be
       -0.029859629 0.16908547 0.060017187 -0.18336622
000100 21 18 8f 3e e5 88 24 be 30 b2 86 3d d1 27 1b be
       0.27948096 -0.16067846 0.06576955 -0.15151908
000110 08 01 b5 bc 61 25 a5 be d1 d1 66 3e 76 82 cf be
       -0.022095218 -0.3225508 0.22540976 -0.4052922
000120 0c 5b eb 3c 88 c6 7c bd e4 65 ab 3e 23 dc b8 bc
       0.028729938 -0.06171277 0.33476174 -0.022565907
000130 cb 78 d5 be 91 1b 86 3e 94 ff 0d 3e a5 82 f0 bd
       -0.4169372 0.26192906 0.13867027 -0.117436685
000140 08 ee eb 3d 26 74 44 be 96 39 5d 3c a8 07 73 bd
       0.1152001 -0.19184932 0.013502499 -0.059333473
000150 1a a4 04 3e 40 db 70 bd 0e 69 0b 3e 58 4a 2c be
       0.12953225 -0.058802843 0.13614294 -0.16825235
000160 09 ca 2a be 29 69 a2 3d a1 02 41 be ea 99 22 be
       -0.16678633 0.07930214 -0.18848659 -0.15879026
000170 69 ab 22 3e 1c bd 29 be 91 0e b1 3e d4 ed a9 3e
       0.158857 -0.16576046 0.34581426 0.3318926
000180 a1 b1 30 3e 27 10 df bc 7b 1b 18 be e4 7e 28 3e
       0.1725526 -0.027229382 -0.14854233 0.16454655
000190 a7 74 92 bd d2 f5 27 3e 94 1e 77 be 0c 5b 96 3d
       -0.07151156 0.16402367 -0.24132758 0.073415846
0001a0 25 2c c2 bd ac 2e 6b 3e 99 2a 69 be 10 4f 1c 3e
       -0.09481076 0.22967023 -0.22770156 0.15264535
0001b0 5a 23 d1 bd 19 d8 88 be 9f a9 c5 bd 58 88 10 be
       -0.10211821 -0.2672737 -0.09651493 -0.14114511
0001c0 56 6b c2 3c 5d f0 f1 3c c6 6f 27 be fb 77 cc be
       0.023732822 0.02953356 -0.16351232 -0.39935288
0001d0 10 a7 5d 3d 6b b0 8c 3e 62 fd a3 bd 03 97 ca 3d
       0.0541144 0.27478346 -0.08007313 0.098920844
0001e0 ac 03 e0 bd 40 7d 88 3d f3 80 52 3e 80 55 ab 3d
       -0.109382 0.066645145 0.20557003 0.08365917
0001f0 eb dc 3b 3d 14 fb a3 3d a4 93 2a 3e c1 2c a8 be
       0.04586498 0.08006874 0.16657883 -0.32846645
000200 8f 20 07 3e 74 48 66 be 20 f0 37 bd 24 ee 20 3f
       0.13196014 -0.22488576 -0.044906735 0.62863374
000210 55 1f 90 bd bb 89 eb 3d f7 52 d7 3d 17 3b 93 be
       -0.07037226 0.115008794 0.10513871 -0.2875602
000220 84 98 70 3e 9c af fe 3e ee 7e d9 3e 18 32 91 3b
       0.2349568 0.49743354 0.42479652 0.0044310205
000230 55 8b 80 3e d1 51 a1 be 83 1f 2b bf 34 a6 01 3f
       0.25106302 -0.31507733 -0.6684496 0.5064423
000240 6b 07 cb bd 6d 8b ab be d5 00 8d be 49 1f 45 3f
       -0.09913524 -0.3350481 -0.27539697 0.7700086
000250 fc 3d 12 3e 95 3f 96 bc 7d b8 db 3e e1 ee 8d be
       0.14281458 -0.018340865 0.4291419 -0.27721313
000260 d6 b6 03 3e e5 40 45 be ac ce 7b 3e 87 79 4a 3e
       0.12862715 -0.19263037 0.24590558 0.19772922
000270 ad 1e 98 3c b5 b5 ee bd 74 0c 26 3f e9 50 be 3e
       0.018569315 -0.116557516 0.6486275 0.37171105
000280 34 a5 73 3d f0 65 a2 bc 1f 47 ed 3d 5d f7 4d 3e
       0.05948372 -0.019823998 0.11585831 0.20113893
000290 95 3b 9b 3d 8e b7 a4 be d8 8b 71 be 7c 06 df 3d
       0.07579724 -0.3217129 -0.23588502 0.10889909
0002a0 e5 70 3c be 50 ca 28 3e c7 73 36 3e a0 2e fb bd
       -0.18402441 0.16483426 0.17817603 -0.122647524
0002b0 02 bc 05 bf b8 f6 c6 bc b3 68 89 bb 48 d3 75 3e
       -0.5224 -0.024287567 -0.0041933893 0.24006379
0002c0 74 4b 77 bd 85 88 9a 3e f4 bc f6 3e b9 f9 1c 3f
       -0.060374692 0.3018228 0.48191035 0.61318547
0002d0 41 43 50 bd 92 f4 df be e7 cc 15 3d ae e3 59 be
       -0.05084539 -0.4374128 0.036572363 -0.21278259
0002e0 b5 3f fc be 91 dc 43 3e ec 6c 8c 3e 54 56 13 be
       -0.49267355 0.19127108 0.2742685 -0.143884
0002f0 7e 76 d6 3d df 0e 51 be f6 c9 33 3e ab 97 04 be
       0.10471819 -0.20415829 0.1755751 -0.12948482
000300 a8 44 a6 3e e0 ea 9c bd ba 72 e0 3d 53 67 cf bb
       0.32474256 -0.07661986 0.10959382 -0.006329456
000310 31 c9 c7 bd 03 b1 25 be 8e a1 c6 bd 38 f8 a3 be
       -0.09755171 -0.16180806 -0.09698783 -0.32025313
000320 cd 99 46 bd 1e 6f 1e 3e d4 ea c1 3d 09 8b 60 3e
       -0.04848652 0.15472075 0.09468618 0.21928038
000330 82 23 0f bf 77 b5 b0 3e e5 b5 e6 3d 1d 8f 63 be
       -0.55913556 0.34513447 0.112651624 -0.22222562
000340 5b 8c 5b be 86 1d a9 be 75 6b b3 3c 46 78 d1 bd
       -0.2144026 -0.33030337 0.021901825 -0.102280185
000350 c1 43 73 3e 13 f7 00 3e e6 54 ed 3e 05 f1 ac bd
       0.23756315 0.12594251 0.46353835 -0.08444408
000360 c0 38 09 be 61 fc bf bd 21 6d 9f be 37 19 31 be
       -0.13400555 -0.09374309 -0.31137946 -0.17294775
000370 b1 70 92 3e 49 51 16 be 36 9a 9d 3e 44 98 25 3e
       0.28601602 -0.14679445 0.30781716 0.16171366
000380 86 07 9c 3e e0 22 16 3d 7d ee b9 3d c2 db d8 be
       0.3047449 0.036654353 0.09078691 -0.42355162
000390 ec fc 0f be 87 f4 b6 bd 5a 74 83 be 05 57 4a 3e
       -0.14061326 -0.08933359 -0.25674707 0.19759758
0003a0 61 90 a5 be 0f db 4f bd c6 cd 8b be 3d ae ea 3e
       -0.32336715 -0.05074602 -0.2730543 0.45836058
0003b0 c4 fb 86 be 5a 1d 53 be e3 09 05 be dc 33 70 be
       -0.26363957 -0.20616665 -0.12992053 -0.23457283
0003c0 c7 eb 19 3d cd 06 9c 3e d8 ed 21 be e7 c7 e4 be
       0.03757837 0.3047394 -0.15813386 -0.44683763
0003d0 c5 49 a8 bd 93 df 1a 3f 6a fa 38 be 66 b4 8c 3e
       -0.082171954 0.604974 -0.18064275 0.27481383
0003e0 31 b8 d1 3e a4 90 71 bd e8 e5 6e 3d f6 91 8e bd
       0.4096084 -0.05897583 0.058324724 -0.069614336
0003f0 d6 48 c5 bd 57 53 5f 3e ff b4 f2 bc af 00 be bd
       -0.09633033 0.21809135 -0.029627321 -0.09277474
