TS-CVAE/experiments/pedestrians/models/zara1/models_22_Jun_2021_00_46_21_zara1_ar3/model_registrar-17.pt (torch_old, 545380 bytes, 43 tensors)

weight_ih_l0 f4 [128, 6]
0.02040075 0.0917401 -0.09870596 -0.008672089 -0.15257764 0.03007505 -0.21282656 -0.22572172
-0.0545836 0.17120226 -0.026861621 0.120314494 -0.036060568 -0.013889902 -0.15752319 -0.19020349
-0.23567575 0.046836 0.013262551 0.09477 0.09813601 0.030457983 -0.16608976 0.16753465
-0.109244116 -0.017540978 -0.06340293 0.3125678 -0.057512295 -0.16816872 0.21178512 -0.0047792327
-0.023026085 0.19191957 0.09701425 -0.05462602 -0.18581086 -0.08292938 -0.1021093 0.03257755
-0.11207137 -0.13398102 -0.09517014 0.2531423 0.13583134 -0.08256872 0.015244626 0.0060803317
0.26563674 0.10589 0.18047956 -0.0585021 -0.096811675 -0.006107288 -0.118610926 -0.28290978
-0.058183644 0.2785278 -0.014967086 -0.1108208 0.11479138 -0.027381826 -0.3543728 0.10348038
-0.11319344 0.0749178 -0.15478542 -0.06627344 -0.034863397 0.15979177 0.18513606 0.111028045
-0.033367876 0.004271556 -0.044135574 -0.1368796 0.042481758 -0.164039 0.03989613 0.16392589
0.10092524 0.0054967557 0.023343356 0.03101889 -0.22537114 -0.070731394 -0.30263638 0.14068206
0.20880033 -0.17565438 -0.029744819 0.12321006 0.099208675 -0.013289689 -0.13038328 0.19278045
0.10730428 0.15324567 0.13839634 0.027495062 -0.0040086955 -0.2870179 0.037914272 -0.1379796
-0.027845744 -0.021851148 0.061674856 0.06172885 0.017983407 -0.014703235 0.18603729 -0.05500089
0.17696436 0.2287228 -0.058826543 -0.03538967 -0.09506315 0.21002854 0.283473 0.09398155
-0.2292722 0.13401045 0.18192737 -0.13772938 0.07851269 -0.0154832555 0.08868678 0.26505172
-0.021810774 -0.12976038 -0.15439005 -1.6224476e-05 -0.09435076 -0.2646603 -0.015210915 0.06442624
-0.005342772 -0.01084472 0.005083486 -0.029774778 0.04521371 -0.09289201 0.051098462 0.02696593
0.04817556 -0.023860881 -0.12536347 -0.05072399 -0.24746439 -0.11941955 -0.061914176 -0.021813365
-0.1456686 0.09118547 0.11893148 0.093875125 0.10686319 -0.07396393 -0.4005343 0.11788305
0.033579085 0.12029705 -0.03717758 0.19018409 0.31735465 0.30690947 0.025248295 0.121516384
0.100025 0.06640227 -0.18057631 0.074696 0.21907869 0.089552134 -0.07152789 -0.18825929
-0.2540078 0.029931983 0.0331421 0.025674496 -0.07338995 -0.058138028 0.16315623 -0.04016398
-0.17815778 -0.08220395 -0.1811731 0.16716212 0.12715995 -0.14696668 -0.1296768 -0.16721395
0.13426271 0.15659791 -0.123879254 -0.111660704 -0.069442086 -0.2276303 0.15463662 0.028547093
-0.03509614 0.052826192 0.18647914 0.056135185 -0.09598913 -0.0009087697 -0.04591272 -0.047936495
-0.12810893 -0.04265776 0.029042916 0.051744748 0.01167088 -0.15334667 -0.17783767 -0.20541121
-0.040510245 -0.072541535 0.17123844 0.15907581 -0.243987 -0.19594635 0.09153665 -0.081756406
0.007580115 -0.11443445 -0.22410052 -0.035094153 0.06982916 -0.05863438 -0.033304263 0.041573916
-0.18346332 0.07053765 0.018414449 -0.05876405 0.16218795 -0.13218823 -0.07623653 0.027262423
0.2588837 -0.05797213 -0.16656063 -0.0025032877 -0.28242025 0.12948291 -0.20961705 -0.11543469
0.23544867 0.1779466 0.1419477 0.028147832 0.0825956 -0.16168259 -0.072753176 0.08841046
00000000: 791f a73c 3ce2 bb3d 5a26 cabd 6115 0ebc
00000010: 503d 1cbe f45f f63c 35ef 59be 9823 67be
00000020: 0e93 5fbd a54f 2f3e e70c dcbc 7267 f63d
00000030: 3fb4 13bd 7992 63bc c24d 21be b4c4 42be
00000040: fc54 71be 1bd7 3f3d 2c4b 593c c616 c23d
00000050: 88fb c83d 0583 f93c 6f13 2abe 348e 2b3e
00000060: 61bb dfbd 19b2 8fbc 65d9 81bd e308 a03e
00000070: 0392 6bbd 6c34 2cbe 33de 583e 1c9b 9cbb
00000080: 33a1 bcbc 9086 443e 68af c63d 89bf 5fbd
00000090: 3445 3ebe e1d6 a9bd ae1e d1bd 0970 053d
000000a0: ad85 e5bd 5232 09be 90e8 c2bd de9b 813e
000000b0: 5f17 0b3e ca19 a9bd 99c4 793c 853d c73b
000000c0: 8a01 883e dbdc d83d a2cf 383e e69f 6fbd
000000d0: 3345 c6bd a51f c8bb 49ea f2bd 8dd9 90be
000000e0: f951 6ebd 329b 8e3e 8238 75bc 04f6 e2bd
000000f0: be17 eb3d da4f e0bc 5a70 b5be 85ed d33d
00000100: f6d1 e7bd 816e 993d 1280 1ebe 5fba 87bd
00000110: eccc 0ebd 74a0 233e 4f94 3d3e ac62 e33d
00000120: c1ac 08bd 69f8 8b3b 81c7 34bd 2a2a 0cbe
00000130: 5a01 2e3d d7f9 27be 206a 233d 30dc 273e
00000140: e4b1 ce3d 211e b43b 913a bf3c 541b fe3c
00000150: b1c7 66be 9fdb 90bd 28f3 9abe f50e 103e
00000160: c1cf 553e bede 33be 68ab f3bc 8e55 fc3d
00000170: eb2d cb3d ffbc 59bc 3283 05be 3d68 453e
00000180: 59c2 db3d 6fec 1c3e c5b7 0d3e 533d e13c
00000190: 605b 83bb 03f4 92be ff4b 1b3d 864a 0dbe
000001a0: c21c e4bc 2e01 b3bc c69e 7c3d 64d7 7c3d
000001b0: f051 933c d6e5 70bc 8f80 3e3e 9d48 61bd
000001c0: 2536 353e 4f36 6a3e 1af4 70bd c2f4 10bd
000001d0: 78b0 c2bd b911 573e 6023 913e 6679 c03d
000001e0: 55c6 6abe 093a 093e 2b4b 3a3e ee08 0dbe
000001f0: 43cb a03d 7bad 7dbc 6aa1 b53d dcb4 873e
00000200: 82ac b2bc e8df 04be 6d18 1ebe cc19 88b7
00000210: f93a c1bd 8e81 87be 3437 79bc e8f1 833d
00000220: 6c12 afbb 0dae 31bc 5f93 a63b 3cea f3bc
00000230: 0332 393d 2b3e bebd 9f4c 513d a7e7 dc3c
00000240: bc53 453d e577 c3bc 485f 00be f5c3 4fbd
00000250: 4e67 7dbe 3d92 f4bd b899 7dbd f1b1 b2bc
00000260: 262a 15be 73bf ba3d 5992 f33d 9a41 c03d
00000270: 17db da3d 677a 97bd d512 cdbe ab6c f13d
00000280: 398a 093d 4d5e f63d 8547 18bd 9ebf 423e
00000290: 4f7c a23e 3d23 9d3e 83d5 ce3c 95dd f83d
000002a0: e8d9 cc3d eafd 873d ffe8 38be 37fa 983d
000002b0: 2a56 603e 1c67 b73d 377d 92bd 0bc7 40be
000002c0: 4f0d 82be eb33 f53c 03c0 073d 5253 d23c
000002d0: 784d 96bd 2422 6ebd 6d12 273e fc82 24bd
000002e0: fe6e 36be 8b5a a8bd 7185 39be 8c2c 2b3e
000002f0: 3836 023e 6f7e 16be ffc9 04be 223a 2bbe
00000300: 2a7c 093e 345b 203e 68b4 fdbd 5eae e4bd
00000310: a737 8ebd eb17 69be 1059 1e3e 98db e93c
00000320: f8c0 0fbd 4760 583d 63f4 3e3e 02ee 653d
00000330: f395 c4bd 813a 6eba fa0e 3cbd 0f59 44bd
00000340: fd2e 03be e7b9 2ebd 69eb ed3c 4df2 533d
00000350: 3837 3f3c e906 1dbe 141b 36be 5157 52be
00000360: 12ee 25bd a890 94bd 2159 2f3e c5e4 223e
00000370: bad7 79be 29a6 48be 9177 bb3d e76f a7bd
00000380: 9d62 f83b 9c5c eabd 9b7a 65be e3be 0fbd
00000390: 9702 8f3d 9b2a 70bd 0d6a 08bd 6949 2a3d
000003a0: cfdd 3bbe 0b76 903d e6d9 963c 93b2 70bd
000003b0: 9914 263e 5a5c 07be e621 9cbd 7255 df3c
000003c0: 688c 843e 2f74 6dbd df8e 2abe 330e 24bb
000003d0: 6399 90be 2b97 043e daa5 56be 0669 ecbd
000003e0: 7519 713e a237 363e bd5a 113e 4896 e63c
000003f0: e227 a93d 1f90 25be 9eff 94bd 8b10 b53d

weight_hh_l0 f4 [128, 32]
-0.06323953 -0.1629644 0.08025255 0.15770221 0.13206922 -0.035575334 -0.10461808 -0.079212606
-0.006916037 0.18458542 -0.01616507 0.2510783 -0.16370934 0.12863007 0.177277 -0.0050153085
0.020389093 -0.077994935 -0.0036401863 -0.0528034 -0.25400057 -0.014935464 -0.13582426 -0.2830432
0.20270333 -0.10987132 0.07195269 0.3393344 0.18634424 0.11165491 0.08499999 -0.13818322
0.10883232 -0.18684505 0.19021888 0.0114409225 0.1672941 0.19396052 0.013097351 -0.08768771
0.15596126 0.0111521995 -0.21797542 -0.065051965 -0.26183772 0.11205698 0.14911124 -0.11929432
0.055347115 0.11916605 -0.09625517 0.018192448 -0.119044 0.07435467 -0.16939096 -0.13098292
-0.0058449735 -0.13213928 -0.10040092 -0.10077299 -0.029663347 0.09535984 0.11951729 -0.16686398
0.10576199 -0.21165694 -0.06664384 0.120831214 0.2460006 0.12033865 -0.153019 -0.2648996
-0.12229958 0.22127865 -0.19692686 0.20584477 -0.1064978 -0.09997602 0.1658589 -0.25043786
0.049035102 -0.04151013 0.069174215 -0.11110934 0.06277707 0.13171163 0.013997698 0.10468508
0.21679427 0.10277263 0.15322787 0.25570318 0.1697765 0.048564173 -0.0775637 0.08791023
0.036658905 -0.010905914 0.09252249 0.14467975 -0.00039667255 -0.053466313 -0.06654747 0.081005745
-0.104115784 0.05065434 -0.12608334 -0.079667 -0.23554552 -0.17576957 -0.17478977 -0.25762126
-0.08206803 0.18736468 -0.07752857 -0.09087745 -0.14313807 0.13041182 0.08491946 -0.17875135
-0.053712722 0.0136229135 -0.15463391 0.12752585 -0.09438108 0.14687057 0.16028629 0.0263039
-0.24913141 -0.21497987 0.29857022 -0.13467166 0.1538177 0.08249651 -0.09935926 0.040830493
0.36552575 -0.05380412 -0.30732557 0.026925748 -0.08735115 0.017914314 -0.41112205 -0.1768143
-0.1877941 -0.109244674 0.4632296 -0.5464673 -0.009824607 0.38534465 -0.051339936 -0.12952733
0.047026806 -0.31446418 0.06821781 -0.6816788 -0.36815554 0.0011685453 0.2379487 -0.057582047
0.111158065 -0.09322105 0.12753384 -0.1682163 -0.013562921 0.012803461 -0.03855328 -0.18874897
-0.10618063 0.09807424 0.037362207 -0.09436957 -0.18424377 0.034013104 0.008350924 -0.17800869
0.027548794 0.1684702 -0.2548146 0.16480966 0.006058248 -0.024975214 -0.13579889 -0.06017029
-0.015625732 -0.124182925 0.17956308 0.2570415 0.13081959 0.14981046 0.19470234 0.064185426
0.08731803 -0.0062943744 -0.078299165 0.16433407 0.11348384 -0.0002875048 0.018406367 -0.28543034
-0.17466667 0.2030523 -0.1671459 0.008721105 -0.06200491 0.16796106 0.064412385 -0.10511092
-0.010970221 -0.09211364 -0.053228807 -0.07584324 -0.040619157 0.23253074 0.008353482 -0.07839836
-0.091805965 0.018159987 0.19593999 0.15940848 -0.09151861 0.21696767 -0.06601014 0.082271166
0.19710937 -0.08712451 0.114527866 0.14116488 -0.015871467 0.14799228 0.10601433 -0.07689816
-0.116933785 -0.01022186 -0.14379874 -0.12258779 0.09124315 -0.05394857 0.14883493 -0.0008292629
0.09729364 -0.021320986 -0.20195055 0.046993382 -0.28176603 0.14854999 -0.1339035 -0.23816723
0.05771008 0.1019735 0.059903763 0.23445325 0.21252298 0.1924323 0.04504634 0.16497366
00000000: ba83 81bd 24e0 26be 735b a43d b07c 213e
00000010: 273d 073e 71b7 11bd 0142 d6bd 383a a2bd
00000020: ec9f e2bb f603 3d3e 9c6c 84bc 568d 803e
00000030: 6ca3 27be 9ab7 033e 1a88 353e 7557 a4bb
00000040: 0707 a73c cfbb 9fbd 3190 6ebb 6148 58bd
00000050: 5d0c 82be e0b3 74bc 8415 0bbe 0aeb 90be
00000060: 7691 4f3e 3704 e1bd ef5b 933d 3dbd ad3e
00000070: 06d1 3e3e 54ab e43d 7a14 ae3d e77f 0dbe
00000080: 7be3 de3d 4f54 3fbe bdc8 423e b572 3b3c
00000090: 254f 2b3e 969d 463e 4696 563c 9d95 b3bd
000000a0: 4fb4 1f3e b7b7 363c f334 5fbe f739 85bd
000000b0: 980f 86be 217e e53d 9eb0 183e 9550 f4bd
000000c0: a8b3 623d 540d f43d 6e21 c5bd 5408 953c
000000d0: 57cd f3bd 4347 983d d374 2dbe 6320 06be
000000e0: 3187 bfbb 854f 07be ff9e cdbd 1262 cebd
000000f0: 8c00 f3bc 054c c33d 7bc5 f43d 64de 2abe
00000100: be99 d83d 99bc 58be 917c 88bd 5b76 f73d
00000110: 95e7 7b3e 1c74 f63d 03b1 1cbe eca0 87be
00000120: 3478 fabd df96 623e 32a7 49be f9c8 523e
00000130: 851b dabd 3ac0 ccbd ead6 293e 6439 80be
00000140: 08d9 483d 8706 2abd 36ab 8d3d 4b8d e3bd
00000150: 4491 803d 6adf 063e 9a56 653c 2265 d63d
00000160: 51ff 5d3e 757a d23d c4e7 1c3e 87eb 823e
00000170: e4d9 2d3e 3aeb 463d b8d9 9ebd 470a b43d
00000180: a627 163d b8ae 32bc 6e7c bd3d ee26 143e
00000190: 7df8 cfb9 7eff 5abd 0a4a 88bd 57e6 a53d
000001a0: a83a d5bd ed7a 4f3d fe1b 01be 7428 a3bd
000001b0: d832 71be f0fc 33be 17fc 32be efe6 83be
000001c0: 4913 a8bd 87dc 3f3e 4dc7 9ebd f51d babd
000001d0: c992 12be ad8a 053e 41ea ad3d 980a 37be
000001e0: df01 5cbd a432 5f3c 5a58 1ebe 2396 023e
000001f0: de4a c1bd 3d65 163e 1722 243e 477b d73c
00000200: 4e1c 7fbe af23 5cbe 32de 983e 5ee7 09be
00000210: 6382 1d3e eef3 a83d de7c cbbd e03d 273d
00000220: 3126 bb3e b561 5cbd c759 9dbe 6393 dc3c
00000230: 29e5 b2bd 0ac1 923c 977e d2be cf0e 35be
00000240: 194d 40be acbb dfbd 6e2c ed3e 48e5 0bbf
00000250: 63f7 20bc e54b c53e d349 52bd d0a2 04be
00000260: 2e9f 403d 7301 a1be c7b5 8b3d 8082 2ebf
00000270: e27e bcbe e029 993a d3a8 733e 27db 6bbd
00000280: d7a6 e33d aeea bebd 3b98 023e e540 2cbe
00000290: 0437 5ebc 9cc5 513c 0bea 1dbd 6947 41be
000002a0: 3b75 d9bd 26db c83d 1d09 193d d544 c1bd
000002b0: 66aa 3cbe 5351 0b3d 50d2 083c e947 36be
000002c0: 02ae e13c 7483 2c3e 0f77 82be ddc3 283e
000002d0: 4584 c63b d298 ccbc dd0e 0bbe 1f75 76bd
000002e0: 8901 80bc 9e53 febd 62df 373e f29a 833e
000002f0: 92f5 053e ea67 193e 0d60 473e a673 833d
00000300: ccd3 b23d 0a41 cebb 505b a0bd 3147 283e
00000310: 376a e83d 3ebc 96b9 f3c8 963c ed23 92be
00000320: d2db 32be f1ec 4f3e 4b28 2bbe f7e2 0e3c
00000330: dcf8 7dbd fcfd 2b3e a4ea 833d 6544 d7bd
00000340: 71bc 33bc 13a6 bcbd 7306 5abd b353 9bbd
00000350: 4660 26bd 8a1c 6e3e 0bdd 083c 528f a0bd
00000360: c404 bcbd 41c4 943c 7ea4 483e fa3b 233e
00000370: 1c6e bbbd c62c 5e3e 5330 87bd c97d a83d
00000380: 0ad7 493e 566e b2bd 968d ea3d 878d 103e
00000390: e104 82bc 4a8b 173e 0b1e d93d c87c 9dbd
000003a0: fb7a efbd 9779 27bc fa3f 13be 4f0f fbbd
000003b0: b0dd ba3d 2df9 5cbd 2f68 183e e462 59ba
000003c0: e341 c73d 59a9 aebc 20cc 4ebe 227c 403d
000003d0: a343 90be 7d1d 183e 001e 09be 1ce2 73be
000003e0: 6861 6c3d 7bd7 d03d a65d 753d 8314 703e
000003f0: a09f 593e f90c 453e 8382 383d dbee 283e

bias_ih_l0 f4 [128]
0.017348804 0.12353259 0.04049088 0.08074405 0.58766335 0.24936421 0.07271362 -0.0705093
0.091217324 0.15000118 0.28591266 0.22081724 0.3967449 0.035485234 0.15074447 0.5484673
0.015765471 0.2965652 0.032288406 0.17735977 0.48425394 0.095193446 0.29029542 0.02268119
0.28595293 0.13070133 -0.014603555 0.08026397 -0.010130447 0.16362517 0.14916076 0.069144495
0.040774327 -0.26268446 -0.25989002 -0.00632651 -0.6972307 -0.16371766 -0.27945063 -0.18068254
-0.09963994 -0.114679754 -0.093501545 -0.0016008557 -0.2175237 0.028781194 -0.026275 -0.66495436
0.011530805 -0.08912301 -0.05095704 0.11054923 -0.5678276 -0.046132986 -0.18699437 -0.045623444
-0.109671555 0.08304028 0.029035257 0.16315137 -0.020143686 -0.4955411 -0.40522516 -0.26109573
0.1389744 0.1149152 -0.04727129 0.023035113 -0.113866754 0.017279139 0.10682984 -0.034601677
0.0054848036 0.05954954 -0.09388774 0.02211088 -0.12647617 -0.035730008 -0.066619165 -0.09905491
-0.08494883 -0.118020564 0.16122968 -0.07126518 0.054862574 0.07192509 0.102362394 -0.13335311
0.10692166 -0.08116265 0.0475489 -0.21785836 -0.11775523 0.12499787 0.02623963 -0.07746238
0.22722791 0.09369732 0.087747246 0.14913233 0.73852605 0.199742 0.107442565 -0.031603765
-0.029115269 0.20920941 0.07079836 0.16428417 0.35869235 0.018866748 0.17888743 0.7216995
0.15764587 0.22485133 0.13102028 0.058227777 0.5688834 0.12463799 0.2588499 0.074112564
0.08297197 0.16789693 0.16228181 0.020903202 0.1274552 0.3696623 0.21495628 0.059271317
00000000: 141f 8e3c a8fe fc3d c4d9 253d 235d a53d
00000010: 1b71 163f 5559 7f3e e1ea 943d 2e67 90bd
00000020: 26d0 ba3d e999 193e 2563 923e ea1d 623e
00000030: 2622 cb3e f758 113d c25c 1a3e 5a68 0c3f
00000040: 9726 813c 65d7 973e d940 043d cd9d 353e
00000050: 22f0 f73e c8f4 c23d 9aa1 943e e7cd b93c
00000060: 6c68 923e 92d6 053e c043 6fbc 7061 a43d
00000070: 2dfa 25bc 5b8d 273e 99bd 183e a19b 8d3d
00000080: fb02 273d 947e 86be 4e10 85be 9d4e cfbb
00000090: b67d 32bf 9aa5 27be 2714 8fbe d804 39be
000000a0: 0610 ccbd 38dd eabd bd7d bfbd ced3 d1ba
000000b0: 88be 5ebe 8ac6 eb3c ab3e d7bc 733a 2abf
000000c0: b4eb 3c3c 2086 b6bd 54b8 50bd a267 e23d
000000d0: 265d 11bf f1f5 3cbd 747b 3fbe a6df 3abd
000000e0: 7b9b e0bd 0611 aa3d 59db ed3c 2711 273e
000000f0: 5f04 a5bc 90b7 fdbe ac79 cfbe 57ae 85be
00000100: 4e4f 0e3e a958 eb3d 8a9f 41bd 22b4 bc3c
00000110: f932 e9bd fb8c 8d3c 9ac9 da3d 7dba 0dbd
00000120: deb9 b33b 38ea 733d 3748 c0bd e021 b53c
00000130: f882 01be a159 12bd a16f 88bd 4ddd cabd
00000140: a7f9 adbd c4b4 f1bd 6519 253e 7bf3 91bd
00000150: 94b7 603d 764d 933d 60a3 d13d b88d 08be
00000160: bef9 da3d 9a38 a6bd a3c2 423d 4316 5fbe
00000170: a729 f1bd e2fe ff3d 7ef4 d63c 99a4 9ebd
00000180: 6fae 683e 61e4 bf3d d4b4 b33d 25b6 183e
00000190: 0b10 3d3f 2b89 4c3e d90a dc3d f372 01bd
000001a0: 2583 eebc fe3a 563e bbfe 903d 1c3a 283e
000001b0: 86a6 b73e 708e 9a3c 442e 373e 4cc1 383f
000001c0: eb6d 213e 6d3f 663e 2e2a 063e 4080 6e3d
000001d0: 58a2 113f 3442 ff3d f987 843e 54c8 973d
000001e0: 35ed a93d 2ced 2b3e 342d 263e 313d ab3c
000001f0: 9e83 023e 6144 bd3e 801d 5c3e 7bc6 723d

bias_hh_l0 f4 [128]
-0.02694135 0.13664013 -0.09329964 0.24222715 0.73143905 0.00546359 -0.028936272 0.10705521
0.17635503 0.3148971 0.029459793 0.09598951 0.1584507 0.32975432 0.19130804 0.70888877
-0.0712014 0.28912547 -0.0634022 0.13308245 0.63193226 0.27591038 0.31882098 0.08697908
0.18761387 0.11557245 0.05895108 -0.011317799 -0.0917565 0.15428214 0.21868017 0.11933557
-0.047984958 -0.23659453 -0.022201281 -0.2124706 -0.388866 -0.00087420706 -0.13850832 -0.32550883
-0.026754437 -0.17090169 -0.07456689 -0.0627897 -0.22030601 -0.15065588 0.079679914 -0.61484206
-0.11926736 -0.15704662 -0.022604002 -0.07073657 -0.42392096 -0.20892914 -0.41006088 -0.07361099
-0.31325325 -0.22558837 -0.2245019 0.102458306 -0.048364732 -0.26162496 -0.2731408 0.04029535
-0.14428458 -0.1538581 0.12280794 -0.032595918 0.14279349 0.049600136 -0.079312645 0.012289032
0.1467429 -0.03406883 0.03394526 0.039404344 0.054237224 0.030714307 -0.14432438 0.047203507
0.007992439 0.124369696 0.08667659 -0.19784693 -0.102112085 0.011472256 -0.14123277 0.11472482
-0.13157527 0.024477985 0.05051597 -0.10301181 -0.106300585 -0.1536465 0.0016905362 0.026533468
0.11218867 0.22802317 -0.06835249 0.376445 0.8371406 0.1031316 0.30602205 0.27898985
-0.0831169 0.23155999 0.3120675 0.24117607 0.37085387 0.21204917 0.09874199 0.72956336
0.1761385 0.088059604 0.23611625 -0.065261595 0.5319317 0.31573343 0.41062573 0.20670213
0.27080104 0.14354521 0.21419646 0.02710674 -0.0018852801 0.36412042 0.24197437 0.26000988
00000000: 1bb4 dcbc 64eb 0b3e e213 bfbd 650a 783e
00000010: 973f 3b3f ea07 b33b c30b edbc c33f db3d
00000020: 6a96 343e 313a a13e aa55 f13c 2696 c43d
00000030: e640 223e 8fd5 a83e 41e6 433e bc79 353f
00000040: 0ad2 91bd 4108 943e 03d9 81bd c446 083e
00000050: 50c6 213f 2044 8d3e 813c a33e 1722 b23d
00000060: da1d 403e 40b1 ec3d b076 713d 4a6e 39bc
00000070: d5ea bbbd 23fc 1d3e b2ed 5f3e 3566 f43d
00000080: e08b 44bd d645 72be 76df b5bc e591 59be
00000090: 7219 c7be 0b2b 65ba 20d5 0dbe 18a9 a6be
000000a0: 1f2c dbbc da00 2fbe 87b6 98bd e397 80bd
000000b0: e697 61be 8945 1abe 392f a33d 4a66 1dbf
000000c0: 7242 f4bd d4d0 20be 072c b9bc 56de 90bd
000000d0: 2b0c d9be 85f1 55be 80f3 d1be 5cc1 96bd
000000e0: bb62 a0be a300 67be d3e3 65be a9d5 d13d
000000f0: 191a 46bd b5f3 85be 1cd9 8bbe bd0c 253d
00000100: 56bf 13be fa8c 1dbe bb82 fb3d 4c83 05bd
00000110: 7538 123e 8329 4b3d ab6e a2bd f057 493c
00000120: c543 163e c28b 0bbd 2f0a 0b3d 7366 213d
00000130: da27 5e3d 929c fb3c c5c9 13be 7758 413d
00000140: b8f2 023c 8ab5 fe3d 7f83 b13d 6398 4abe
00000150: 2420 d1bd 21f6 3b3c 539f 10be d9f4 ea3d
00000160: abbb 06be 0e86 c83c d5e9 4e3d dbf7 d2bd
00000170: 1fb4 d9bd 8255 1dbe fb94 dd3a b75c d93c
00000180: 2cc3 e53d e87e 693e 64fc 8bbd 66bd c03e
00000190: d94e 563f a936 d33d ecae 9c3e c2d7 8e3e
000001a0: 3139 aabd 101e 6d3e 50c7 9f3e dcf6 763e
000001b0: 8fe0 bd3e 6b23 593e 3e39 ca3d aac4 3a3f
000001c0: a75d 343e 9858 b43d 75c8 713e dfa7 85bd
000001d0: ad2c 083f d0a7 a13e 893d d23e b9a9 533e
000001e0: 6fa6 8a3e 84fd 123e 5156 5b3e f40e de3c
000001f0: 811b f7ba fe6d ba3e 21c8 773e 0420 853e

weight_ih_l0 f4 [128, 2]
0.063980006 0.08857665 -0.09648996 0.05642215 0.07806936 -0.07965354 -0.07915713 0.029020375
-0.037322175 -0.05530015 -0.02064686 0.11044469 0.00216747 -0.0073593576 -0.08142734 -0.05494504
0.12200498 -0.08390545 0.00935338 0.047905665 -0.02274111 0.10230253 -0.043061078 -0.07462411
-0.076317 0.08056128 0.08042141 -0.01583157 -0.10951374 0.039892387 -0.02906766 0.08648288
-0.06317636 0.091096155 0.100790694 0.15934302 -0.013838987 0.05120369 -0.0020098689 0.044913918
0.13061759 -0.07977454 -0.069246836 0.17154917 0.03111281 0.13983588 -0.19049275 -0.0028124948
0.055010654 -0.02398025 -0.07079009 0.016445411 0.08173587 0.14812285 -0.11392111 0.087212905
-0.10211017 0.123323806 -0.024335466 0.020720433 0.16229428 -0.056444373 -0.12569574 -0.03958625
-0.09162752 -0.2312878 0.022451999 -0.044639442 0.018438915 -0.18712087 0.11545397 0.06110065
0.2578643 -0.1256337 0.05417869 -0.0265552 -0.080986515 0.19123477 0.031243045 0.14700061
-0.0564372 -0.12447624 0.13937375 -0.08930792 0.027142694 0.0026785529 -0.17509411 0.15642497
-0.19827573 0.099967256 -0.038408574 0.035646453 0.036694452 0.14857998 0.21439321 -0.07692278
0.08065101 0.11838609 -0.12070088 -0.12010662 -0.053967267 0.1731734 -0.19858146 -0.041676667
-0.21660289 -0.13762726 0.14993408 -0.028279666 0.13098513 0.1046479 -0.17783716 -0.17683296
-0.13752168 -0.011887173 -0.016313495 -0.03280697 -0.022029916 -0.012619186 -0.085435525 -0.010182321
0.1876134 -0.11925902 -0.0007348458 0.09679638 0.22738403 -0.046025924 -0.0900793 -0.13428822
0.06927742 0.14019318 -0.0701052 -0.17279276 -0.010550413 -0.1396652 -0.119528025 -0.20551328
-0.15863973 0.066835724 0.10472057 -0.15618795 -0.056492146 -0.15196846 0.14948815 -0.06925346
0.15820767 0.0068861227 -0.104356356 0.27118418 0.09621149 0.19731273 -0.13924931 0.12686335
-0.16284041 -0.08212619 0.14721617 0.08620929 -0.09221428 -0.18463856 -0.1374104 0.12720431
0.09976255 -0.04852765 -0.16959895 0.11245226 -0.06991462 0.16174147 0.09350557 0.067930825
-0.078225166 -0.06361403 -0.15984887 0.03763081 -0.068904705 -0.1738263 0.15077265 0.07221852
0.16176267 0.026547208 0.0026732394 0.21051027 -0.1799736 0.038455293 0.13608536 -0.09251238
0.16956243 0.072088055 0.077737495 0.19732195 0.17844525 -0.0021234548 -0.14977114 -0.080318145
-0.07303754 -0.07598543 0.06916876 0.1118555 0.0033710937 -0.20394239 0.05870271 -0.027624873
-0.04672041 -0.19360493 -0.05592476 0.079343386 -0.025893567 -0.07838072 -0.19417965 -0.07408005
0.04982199 0.05471731 -0.014057798 -0.17652766 0.111826465 0.11230089 0.06523475 -0.09684309
0.13441369 0.07418494 0.02017553 0.1439392 0.02772892 0.1304455 -0.14009538 0.14619772
-0.058026955 -0.002256023 -0.11338391 -0.1119914 -0.16029638 -0.022974284 0.08301376 0.10935717
0.014185424 -0.051286265 -0.07669664 -0.016776167 0.16659096 0.11297866 -0.13438487 -0.10492809
0.17824566 0.049519125 -0.087520555 -0.18845232 0.02952164 -0.03691261 -0.0023465212 0.14582515
-0.07835733 0.022815542 0.032673642 0.0042946064 0.12838897 0.01397746 0.014352401 -0.1934723
00000000: f307 833d ad67 b53d 879c c5bd ea1a 673d
00000010: d4e2 9f3d 6521 a3bd 221d a2bd 23bc ed3c
00000020: 23df 18bd 6982 62bd 9b23 a9bc d330 e23d
00000030: 1d0c 0e3b c426 f1bb 61c3 a6bd 0d0e 61bd
00000040: bfdd f93d 9fd6 abbd eb3e 193c bb38 443d
00000050: 904b babc fd83 d13d d060 30bd 86d4 98bd
00000060: 164c 9cbd 50fd a43d fbb3 a43d 35b1 81bc
00000070: bd48 e0bd 3366 233d 4d1f eebc f01d b13d
00000080: 9c62 81bd 9f90 ba3d 5a6b ce3d d12a 233e
00000090: ebbc 62bc f6ba 513d 01b8 03bb a8f7 373d
000000a0: 9ec0 053e d660 a3bd 49d1 8dbd 96aa 2f3e
000000b0: 4be0 fe3c 2331 0f3e 8810 43be d551 38bb
000000c0: da52 613d 3b72 c4bc 65fa 90bd 87b8 863c
000000d0: 2365 a73d 84ad 173e 794f e9bd ae9c b23d
000000e0: 231f d1bd 3191 fc3d 2c5b c7bc e6bd a93c
000000f0: 7930 263e 3732 67bd 62b6 00be 3125 22bd
00000100: 36a7 bbbd b6d6 6cbe 41ed b73c d9d7 36bd
00000110: 350d 973c 9d9c 3fbe 2273 ec3d ad44 7a3d
00000120: ca06 843e 1fa6 00be 79ea 5d3d 4a8a d9bc
00000130: 42dc a5bd 0cd3 433e 6af1 ff3c 5487 163e
00000140: b22a 67bd 66ed febd feb7 0e3e 12e7 b6bd
00000150: 5b5a de3c a98a 2f3b df4b 33be de2d 203e
00000160: cb08 4bbe a2bb cc3d 4f52 1dbd 0402 123d
00000170: ec4c 163d 5a25 183e e589 5b3e b189 9dbd
00000180: 5b2c a53d 6874 f23d 0632 f7bd 76fa f5bd
00000190: c80c 5dbd 5e54 313e f058 4bbe 27b5 2abd
000001a0: 26cd 5dbe 29ee 0cbe 5288 193e c2aa e7bc
000001b0: f720 063e a351 d63d f21a 36be b313 35be
000001c0: 7cd2 0cbe 6bc2 42bc e1a3 85bc 9a60 06bd
000001d0: 1578 b4bc b4c0 4ebc d2f8 aebd c0d3 26bc
000001e0: ba1d 403e 133e f4bd aba2 40ba 2e3d c63d
000001f0: 5cd7 683e ae85 3cbd 7f7b b8bd da82 09be
00000200: 52e1 8d3d cd8e 0f3e 5193 8fbd 96f0 30be
00000210: a4db 2cbc 6504 0fbe 1ccb f4bd 1372 52be
00000220: 7472 22be 2be1 883d bd77 d63d bcef 1fbe
00000230: 4f64 67bd 9f9d 1bbe 6c13 193e c2d4 8dbd
00000240: 3101 223e fca4 e13b c9b8 d5bd a7d8 8a3e
00000250: 880a c53d 590c 4a3e 5f97 0ebe 77e8 013e
00000260: a3bf 26be c731 a8bd d6bf 163e 7f8e b03d
00000270: d7da bcbd e411 3dbe 50b5 0cbe d941 023e
00000280: 4f50 cc3d eec4 46bd 59ab 2dbe 5f4d e63d
00000290: 652f 8fbd 8e9f 253e d97f bf3d 511f 8b3d
000002a0: 8434 a0bd 1348 82bd 6caf 23be c422 1a3d
000002b0: e91d 8dbd 86ff 31be 2564 1a3e 4ee7 933d
000002c0: 1da5 253e 8879 d93c 8431 2f3b 0190 573e
000002d0: 004b 38be 4c83 1d3d f659 0b3e 2177 bdbd
000002e0: c6a1 2d3e e7a2 933d d634 9f3d c40e 4a3e
000002f0: 5aba 363e a929 0bbb 9b5d 19be d77d a4bd
00000300: b594 95bd 409e 9bbd 5aa8 8d3d 7f14 e53d
00000310: 91ed 5c3b 46d6 50be 4172 703d 8f4d e2bc
00000320: e75d 3fbd 5f40 46be 5c11 65bd c97e a23d
00000330: bf1e d4bc 1286 a0bd 08d7 46be 48b7 97bd
00000340: 2512 4c3d 421f 603d ae52 66bc abc3 34be
00000350: 4605 e53d 02fe e53d cc99 853d ac55 c6bd
00000360: bea3 093e 46ee 973d 2747 a53c cc64 133e
00000370: c327 e33c 8193 053e 2a75 0fbe dbb4 153e
00000380: acad 6dbd c9d9 13bb d335 e8bd bf5b e5bd
00000390: bc24 24be 9134 bcbc 1e03 aa3d a7f6 df3d
000003a0: fb69 683c 8c11 52bd 2113 9dbd 2c6e 89bc
000003b0: d296 2a3e 5b61 e73d 309c 09be 8ae4 d6bd
000003c0: 0886 363e 91d4 4a3d fa3d b3bd a5f9 40be
000003d0: 5ed7 f13c ad31 17bd 18c8 19bb 3053 153e
000003e0: cf79 a0bd a9e7 ba3c ccd4 053d c5b9 8c3b
000003f0: 6678 033e b701 653c 5526 6b3c 9a1d 46be

weight_hh_l0 f4 [128, 32]
-0.14975524 0.0017566397 -0.05233166 0.22810426 0.017498277 0.085697785 0.053019032 -0.18018575
-0.18294655 0.02965892 0.10328476 0.07845704 0.20066994 0.0172607 -0.070327 -0.011414006
0.14579956 -0.07127425 -0.0105932895 0.09041649 0.07288722 -0.067415945 -0.09340536 -0.17491692
-0.1832402 0.07453633 -0.10242876 0.1835154 0.025902191 -0.18540898 -0.17737792 0.31059617
-0.05071645 -0.122936115 0.09603007 -0.005134391 -0.09229383 0.047590245 -0.11997652 -0.027136762
-0.023972947 0.06006978 -0.14096498 -0.14785899 0.052546643 0.1558919 0.034506593 0.0320816
0.09213553 -0.09345596 0.045382664 0.19616702 0.21391192 -0.19320756 0.13852099 0.11025309
0.09700707 -0.22322184 -0.011562281 -0.0917884 -0.036604922 0.10171913 -0.0361762 0.0577764
-0.09670038 -0.06537488 0.1128044 -0.0063061034 -0.19644777 -0.16175255 -0.039106194 -0.09673576
-0.14191349 -0.23006603 -0.094059646 -0.053888407 -0.020999875 0.19863038 -0.006448097 0.034392346
0.005431946 0.051103644 -0.12893723 -0.17400584 -0.053567734 -0.021659374 -0.20164585 -0.004491214
-0.08183969 -0.21243612 -0.108289026 -0.14753836 -0.15603793 0.12816215 0.025660025 -0.058983967
0.09866224 -0.07855775 0.19349423 0.02154633 -0.042471036 0.03736839 0.20673442 0.06385449
0.09663392 0.16348997 0.018557154 0.007914109 0.00048400954 -0.06962929 -0.14384305 -0.09934004
-0.2315689 -0.047541164 -0.08178079 -0.15258443 0.061757125 0.11659495 -0.03962607 -0.18184687
-0.0038948583 0.042276826 -0.050439753 -0.06570324 -0.04896528 -0.021007841 0.13178992 -0.012848115
0.09616626 -0.036037162 0.049587697 -0.010707862 0.030243963 0.07947018 0.05679142 -0.1277164
0.12136427 0.073712654 0.009842003 -0.029676316 0.04568937 0.22090413 0.043129712 0.13438438
-0.29372522 0.076362975 0.14857477 -0.055134427 0.043381974 0.17527032 0.02068338 -0.14545622
-0.14033179 0.113958955 -0.17496443 -0.08441991 -0.052154355 0.17349917 0.15519942 -0.027808324
0.061328787 -0.17840007 -0.0052745556 -0.07938705 -0.19640122 0.16378953 -0.11148207 0.227668
0.17424329 -0.24052128 -0.120919116 0.07622569 0.010722397 -0.09172703 0.089673825 -0.07750787
-0.11790303 0.07443502 -0.06415284 0.23620683 -0.13089935 -0.077901125 -0.101358876 0.04745552
0.12925288 0.055037603 0.10092603 -0.094786055 0.03169228 -0.18293759 0.20690241 -0.06322116
0.06310377 -0.102035694 0.17027013 0.026974956 0.0055870996 -0.20250918 -0.13902909 0.11828926
-0.092293516 -0.18123169 0.06810922 0.029917348 -0.060809482 0.2038448 -0.21615575 -0.2116311
-0.05315736 -0.07042573 0.08970274 0.0041846703 0.24294536 0.045298394 -0.20829438 0.029134056
0.028018778 -0.033035696 -0.15301114 0.022619288 0.13562971 -0.07567381 -0.0711611 0.034980845
0.1032849 0.11080926 -0.009652623 0.03727805 0.12278194 -0.23066258 0.07955889 0.017418716
0.009694936 -0.15553543 -0.07023096 0.26159593 0.22271083 -0.07970308 0.16076969 0.107510045
-0.008606394 0.01209343 -0.065023206 0.06469444 -0.12364399 0.024499439 -0.105521016 -0.13372146
-0.00797259 0.014020652 0.06923787 0.016180864 -0.15547375 0.060910903 0.07991644 -0.036177784
00000000: 7059 19be 0c3f e63a b959 56bd 2a94 693e
00000010: 8c58 8f3c 5282 af3d 7c2a 593d 9d82 38be
00000020: 5756 3bbe 43f7 f23c f686 d33d 16ae a03d
00000030: 6c7c 4d3e 5066 8d3c 9a07 90bd d001 3bbc
00000040: 7b4c 153e 3cf8 91bd 7a8f 2dbc 482c b93d
00000050: e545 953d 5f11 8abd 4f4b bfbd 6c1d 33be
00000060: 52a3 3bbe 81a6 983d 2bc6 d1bd 76eb 3b3e
00000070: d530 d43c dadb 3dbe 8fa2 35be 7606 9f3e
00000080: 0dbc 4fbd eec5 fbbd 6aab c43d 653e a8bb
00000090: 8c04 bdbd fded 423d 40b6 f5bd ea4d debc
000000a0: ea62 c4bc bb0b 763d 2059 10be 5968 17be
000000b0: 263b 573d 20a2 1f3e c956 0d3d ff67 033d
000000c0: 8eb1 bc3d d765 bfbd 2ce3 393d 02e0 483e
000000d0: ba0b 5b3e 34d8 45be 72d8 0d3e 5fcc e13d
000000e0: a5ab c63d 4494 64be b96f 3dbc 8ffb bbbd
000000f0: 0bef 15bd 1f52 d03d 7f2d 14bd f2a6 6c3d
00000100: d90a c6bd 44e3 85bd fe05 e73d 6ea3 cebb
00000110: 9b29 49be 76a2 25be d12d 20bd 661d c6bd
00000120: c551 11be 6e96 6bbe 58a2 c0bd 17ba 5cbd
00000130: ee07 acbc c365 4b3e 8f4a d3bb fdde 0c3d
00000140: 77fe b13b 0e52 513d 1f08 04be 962e 32be
00000150: d769 5bbd 006f b1bc 407c 4ebe 092b 93bb
00000160: 919b a7bd db88 59be a3c6 ddbd 4c14 17be
00000170: 68c8 1fbe f03c 033e f934 d23c 2c99 71bd
00000180: 6e0f ca3d e3e2 a0bd 5a23 463e ee81 b03c
00000190: 1cf6 2dbd 990f 193d 30b2 533e 25c6 823d
000001a0: 01e8 c53d ea69 273e 2c05 983c 2eaa 013c
000001b0: a9c2 fd39 cd99 8ebd 984b 13be ca72 cbbd
000001c0: 6620 6dbe 86ba 42bd b07c a7bd 183f 1cbe
000001d0: 0af5 7c3d 55c9 ee3d f24e 22bd 1136 3abe
000001e0: e140 7fbb 772a 2d3d ea99 4ebd 6c8f 86bd
000001f0: d18f 48bd a318 acbc f0f3 063e e680 52bc
00000200: d1f2 c43d b49b 13bd 781c 4b3d 0770 2fbc
00000210: 30c2 f73c 43c1 a23d 1f9e 683d 17c8 02be
00000220: d58d f83d a9f6 963d 5a40 213c bf1b f3bc
00000230: c724 3b3d b134 623e c8a8 303d 0f9c 093e
00000240: 2763 96be 3164 9c3d fc23 183e a3d4 61bd
00000250: 4cb1 313d 107a 333e 3170 a93c 7af2 14be
00000260: 23b3 0fbe 5063 e93d e029 33be 59e4 acbd
00000270: ce9f 55bd c4a9 313e 99ec 1e3e 48ce e3bc
00000280: e533 7b3d 82ae 36be 2ed6 acbb ad95 a2bd
00000290: 671d 49be 71b8 273e b650 e4bd cd21 693e
000002a0: d56c 323e 364b 76be 71a4 f7bd 371c 9c3d
000002b0: feac 2f3c 62db bbbd e9a6 b73d 72bc 9ebd
000002c0: 2577 f1bd 6371 983d 9062 83bd 34e0 713e
000002d0: 7b0a 06be a08a 9fbd 3e95 cfbd b860 423d
000002e0: de5a 043e 1c6f 613d 4eb2 ce3d 311f c2bd
000002f0: c4cf 013d fe53 3bbe 3ade 533e 187a 81bd
00000300: 8d3c 813d 17f8 d0bd 4b5b 2e3e 95fa dc3c
00000310: fd13 b73b 915e 4fbe a45d 0ebe a441 f23d
00000320: 6204 bdbd cd94 39be d97c 8b3d 3a15 f53c
00000330: 5d13 79bd b1bc 503e ef57 5dbe d3b5 58be
00000340: 88bb 59bd 5d3b 90bd 12b6 b73d 8f1f 893b
00000350: abc6 783e cf8a 393d 1f4b 55be 8baa ee3c
00000360: a387 e53c 7050 07bd f4ae 1cbe 164c b93c
00000370: 84e2 0a3e dffa 9abd e9bc 91bd 1348 0f3d
00000380: 0987 d33d f7ef e23d 0926 1ebc deb0 183d
00000390: 1975 fb3d d032 6cbe c5ef a23d b2b1 8e3c
000003a0: 82d7 1e3c ae44 1fbe 40d5 8fbd e7ef 853e
000003b0: 4f0e 643e 5e3b a3bd cfa0 243e 3a2e dc3d
000003c0: d501 0dbc 8623 463c e32a 85bd 857e 843d
000003d0: 0f39 fdbd 0cb3 c83c 671b d8bd 47ee 08be
000003e0: 779f 02bc e0b6 653c 96cc 8d3d bb8d 843c
000003f0: 8334 1fbe b67d 793d 3bab a33d 282f 14bd

bias_ih_l0 f4 [128]
-0.08137336 -0.111830585 0.03890531 0.08964741 0.048180144 0.10231478 0.18113145 -0.076950654
0.00481064 0.067724116 -0.1357336 -0.1416341 -0.0060455366 0.1429487 -0.15130185 0.043913595
0.00894774 0.13892347 0.16774635 -0.0989722 0.12892379 -0.018089576 -0.15853724 -0.053929247
0.003506394 0.0007829952 0.058314513 0.0129556395 0.105126485 0.09737971 0.15269211 0.0035871274
0.16702144 -0.13882309 -0.1424977 -0.11567629 -0.04403716 0.085011765 0.018797403 0.21457139
0.21808182 0.19297637 0.047695257 0.17990191 -0.09575713 0.16910766 0.015724316 -0.04900943
-0.114086516 0.22236049 0.1692667 0.17243136 0.029222004 0.12696292 -0.10647283 0.039831474
-0.018833444 0.11324453 0.055179 0.18491146 -0.13588333 0.039138038 0.003942972 -0.039699417
-0.08951432 0.04308541 0.12459306 -0.15603001 0.0122006005 0.07954777 0.10682382 0.0776286
0.13720368 -0.039112777 0.06858627 0.04535042 0.07212357 0.018901197 0.09850578 -0.13160262
-0.17007388 -0.095654346 0.15965903 -0.067972556 0.035653155 -0.1747272 -0.11778404 0.1906688
-0.1348474 -0.01883233 0.091839746 0.020479286 0.02676246 -0.1118956 -0.09081296 0.03598892
-0.020469349 0.14182003 0.1128622 0.111045815 0.17751823 0.19019875 0.28973904 0.049946636
0.058303438 0.21270138 -0.0020031852 -0.07897239 -0.097886406 0.20322989 0.06270371 0.07286544
0.066891305 -0.06020013 0.14358358 0.07105068 -0.045417797 0.16140433 -0.012305411 -0.12033207
0.2123626 0.0075034183 0.18358466 -0.029890347 -0.08477308 0.05841017 0.1477777 0.003370452
00000000: 13a7 a6bd 6f07 e5bd 2d5b 1f3d 1099 b73d
00000010: 8b58 453d 698a d13d 867a 393e 4e98 9dbd
00000020: 93a2 9d3b f1b2 8a3d c0fd 0abe 8808 11be
00000030: a319 c6bb 2561 123e dfee 1abe bede 333d
00000040: 8b99 123c f441 0e3e b3c5 2b3e f0b1 cabd
00000050: 9904 043e 9730 94bc 9657 22be eae4 5cbd
00000060: 88cb 653b eb41 4d3a 33db 6e3d e443 543c
00000070: 8e4c d73d 036f c73d 525b 1c3e 0316 6b3b
00000080: ab07 2b3e a427 0ebe ebea 11be b1e7 ecbd
00000090: 4f60 34bd a61a ae3d 03fd 993c 9ab8 5b3e
000000a0: d750 5f3e 999b 453e 1a5c 433d 3538 383e
000000b0: 501c c4bd 8f2a 2d3e 48d0 803c 1dbe 48bd
000000c0: 31a6 e9bd 78b2 633e 4054 2d3e d991 303e
000000d0: fc62 ef3c 9102 023e 6d0e dabd 5426 233d
000000e0: 9848 9abc c0ec e73d 6003 623d 6e59 3d3e
000000f0: 0025 0bbe 354f 203d 0c34 813b db9b 22bd
00000100: 4953 b7bd 547a 303d a52a ff3d 55c6 1fbe
00000110: 07e5 473c f1e9 a23d 72c6 da3d befb 9e3d
00000120: 1f7f 0c3e b834 20bd f576 8c3d 5dc1 393d
00000130: 86b5 933d afd6 9a3c 66bd c93d d6c2 06be
00000140: d927 2ebe 6de6 c3bd a87d 233e 3235 8bbd
00000150: 0b09 123d b0eb 32be c238 f1bd af3e 433e
00000160: 7015 0abe 4246 9abc 7a16 bc3d 2dc4 a73c
00000170: f23c db3c 8529 e5bd 25fc b9bd 1e69 133d
00000180: 56af a7bc 4539 113e 4c24 e73d fd6b e33d
00000190: 57c7 353e 76c3 423e ad58 943e d894 4c3d
000001a0: 96cf 6e3d 64ce 593e df47 03bb 47bc a1bd
000001b0: ab78 c8bd 7f1b 503e cd6a 803d 7a3a 953d
000001c0: 4ffe 883d 6994 76bd 9307 133e 0583 913d
000001d0: 0308 3abd 2d47 253e a29c 49bc a970 f6bd
000001e0: 9575 593e 3cdf f53b 9efd 3b3e 9adc f4bc
000001f0: 829d adbd 813f 6f3d 0a53 173e cde2 5c3b

bias_hh_l0 f4 [128]
0.14766619 0.14765768 -0.030907039 -0.07928347 0.14221463 0.18999554 -0.06548712 0.027133947
0.08348802 0.13985556 0.06932384 0.06711985 -0.0055040317 0.15223415 0.07798198 0.094988294
-0.042099234 0.05980093 0.07750427 -0.14393404 0.13398845 0.09134516 0.13584712 -0.12740615
-0.1034915 -0.082375094 0.02255651 -0.08321968 0.13096903 0.1215886 0.011877148 0.032558218
0.032813605 0.08219046 -0.018572884 -0.011268765 -0.03362509 -0.08185408 -0.104309246 -0.0753992
-0.04356171 0.014281093 -0.033636488 0.07414741 0.04878731 0.18220012 -0.14071958 -0.122934856
-0.046620257 -0.03773604 0.024263525 -0.014751891 0.021628452 0.05008421 0.03836421 -0.10774264
0.0056016105 0.15814918 -0.034094773 -0.03404391 0.06256494 -0.15313497 -0.11559399 0.13725296
0.089774035 0.061027404 -0.06411969 -0.122850955 0.08569678 -0.12171432 -0.09737535 0.07695879
-0.12352641 0.18354638 -0.006492588 0.1526789 0.033254992 0.091783255 0.07560661 -0.024830427
-0.08117362 0.07552157 -0.12354411 0.030075986 0.08261909 -0.13303871 0.013800429 0.12634197
-0.070694245 0.20370446 -0.11235929 0.03661604 -0.12196151 -0.1505522 0.13421425 -0.14357613
0.24391428 0.11779191 0.012267663 -0.15527186 0.0043381127 0.20339458 0.21482737 0.123671904
0.101376794 0.22542696 -0.05677316 -0.058201466 -0.09000527 0.062387515 0.12844738 0.17494687
0.21498385 -0.001814649 -0.07836953 0.056340724 -0.062585264 -0.028727105 0.10855799 0.16644694
0.08729789 0.13333634 -0.028079905 0.15550855 0.19074348 0.1256016 0.072598845 0.06808046
00000000: ce35 173e 9333 173e c230 fdbc 5f5f a2bd
00000010: b6a0 113e 318e 423e 1c1e 86bd 0348 de3c
00000020: c4fb aa3d 4c36 0f3e a8f9 8d3d 2276 893d
00000030: 2a5b b4bb 45e3 1b3e 04b5 9f3d 3989 c23d
00000040: 3f70 2cbd d2f1 743d 8fba 9e3d 7263 13be
00000050: 4534 093e 2c13 bb3d 821b 0b3e c276 02be
00000060: 5af3 d3bd 46b4 a8bd 6ec8 b83c 146f aabd
00000070: bf1c 063e 7203 f93d 5f98 423c c45b 053d
00000080: 8f67 063d 7953 a83d 2926 98bc a0a0 38bc
00000090: 76ba 09bd 1da3 a7bd 16a0 d5bd e56a 9abd
000000a0: c36d 32bd 3ffb 693c 6ac6 09bd 99da 973d
000000b0: 34d5 473d ab92 3a3e cb18 10be 45c5 fbbd
000000c0: e2f4 3ebd 1b91 1abd 4dc4 c63c eab1 71bc
000000d0: 272e b13c 1a25 4d3d ca23 1d3d 2ca8 dcbd
000000e0: b78d b73b dcf1 213e f6a6 0bbd a171 0bbd
000000f0: 0c22 803d 6acf 1cbe 8bbc ecbd 0a8c 0c3e
00000100: 73db b73d dff7 793d 2f51 83bd 4899 fbbd
00000110: cb81 af3d 5b45 f9bd ba6c c7bd 929c 9d3d
00000120: 6afb fcbd 95f3 3b3e c7bf d4bb dc57 1c3e
00000130: 6336 083d dcf8 bb3d a3d7 9a3d 2e69 cbbc
00000140: 5b3e a6bd 0eab 9a3d b204 fdbd ea61 f63c
00000150: 3334 a93d 4d3b 08be 321b 623c ca5f 013e
00000160: 25c8 90bd e797 503e a11c e6bd b3fa 153d
00000170: f5c6 f9bd 5b2a 1abe 766f 093e 9f05 13be
00000180: aac4 793e e33c f13d 4ffe 483c 96ff 1ebe
00000190: ba26 8e3b ab46 503e b5fb 5b3e b247 fd3d
000001a0: a39e cf3d 53d6 663e f98a 68bd a964 6ebd
000001b0: af54 b8bd 0d8a 7f3d b687 033e 4625 333e
000001c0: ba24 5c3e 84d9 edba 3480 a0bd 88c5 663d
000001d0: b42c 80bd 1b55 ebbc a753 de3d 1171 2a3e
000001e0: 3cc9 b23d 5289 083e d407 e6bc a23d 1f3e
000001f0: 4252 433e b59d 003e b4ae 943d c56d 8b3d

weight_ih_l0_reverse f4 [128, 2]
0.06617615 -0.42410478 0.28423437 -0.13328406 -0.21654159 -0.4180977 0.037955828 -0.4348138
-0.0853699 -0.24285711 0.10664591 -0.38595518 0.28569654 0.3106219 0.14366221 -0.31307968
-0.14418787 -0.5526505 -0.070238754 0.16560386 -0.4879513 0.12841032 0.49975857 -0.1271704
-0.07956904 -0.09293494 -0.22133857 -0.17261246 0.24951576 0.028576512 0.52740127 0.17416671
-0.104511715 -0.194245 0.0058307014 0.0842831 -0.15084125 -0.092052735 -0.26758417 0.25045615
-0.38149855 0.17843774 -0.31301376 0.46986592 -0.6170341 0.20437899 0.3361044 -0.12851231
-0.35101068 0.37825176 -0.5126853 -0.32553405 0.080700316 0.23694646 -0.08923215 0.34859076
0.15497902 -0.00081007223 0.09773062 0.21630518 -0.16116211 0.012498736 0.11328818 -0.008820916
-0.07342417 -0.17664513 0.29355282 -0.2662243 -0.19031906 -0.2867317 -0.008248801 -0.42221555
-0.08722057 -0.13655145 0.26398486 -0.108292826 -0.022482105 0.33575174 0.20969452 -0.10160544
0.02954015 -0.17156406 0.06733259 -0.09501433 -0.12144152 0.05110101 0.18574098 -0.09438709
0.06335464 0.0025247023 -0.05807291 -0.098561026 0.16319509 -0.14056505 0.22705315 0.07839277
0.004378523 -0.22231993 -0.01415211 0.22471511 -0.09047073 -0.026883231 -0.22905251 0.13953492
-0.24841474 0.203044 -0.21653126 0.23292646 -0.13081343 0.060132574 0.015901558 -0.18725596
-0.04075773 0.037904087 -0.20559162 -0.36016878 0.081585616 0.1334688 0.033758186 0.06311904
-0.10859456 0.1618256 0.22586663 0.17627622 -0.072888464 0.04839264 0.18178639 -0.08323133
-0.059256177 -0.30772403 -0.00034751455 0.3258878 0.010442106 0.30366012 -0.13862719 -0.4110504
0.21311668 0.5083015 0.4083611 -0.22161756 -0.16119622 -0.49856055 -0.70507073 0.32748502
-0.09731829 -0.3546446 -0.21079189 0.37831652 0.50014144 0.024831505 0.5006812 -0.10565934
0.26004577 -0.015167109 0.21738303 0.2077348 0.06656754 -0.31941736 0.56739646 0.20191024
0.10429137 0.22156309 0.15723239 0.41356006 0.024371956 -0.4533467 -0.47540736 0.18708965
-0.40218133 0.1150568 0.20447247 -0.33272335 -0.55593777 0.08982641 -0.037021723 0.29113808
-0.3694446 0.6362211 0.44280416 0.47982517 -0.08172263 -0.38042018 -0.16258149 -0.24821012
-0.4387487 0.16422246 0.40011835 0.2177787 0.22810596 -0.18462397 0.3087464 -0.12262401
0.13794391 -0.19731688 0.17427148 -0.15841566 -0.1613035 -0.3668379 -0.2304138 -0.3671358
-0.11170665 0.021636233 0.04431056 -0.11058474 -0.081258796 0.1616506 0.25215212 -0.27906865
-0.2999792 -0.5120996 -0.02745769 -0.01843775 -0.029259287 -0.14060721 0.4957616 -0.10324471
-0.046544913 -0.13261642 -0.33092797 0.03050185 0.16949162 0.07813875 0.31847623 0.16404282
0.21833389 -0.10870709 0.25117537 -0.02100827 -0.21374512 -0.1017418 -0.39272857 0.2820044
-0.30314514 -0.16657571 -0.29955795 0.66278577 -0.49431196 -0.1387612 -0.04442634 -0.09619145
-0.23588428 0.49416727 -0.19452177 -0.48052496 -0.026733065 0.3839846 -0.099279694 0.16149102
0.44714886 -0.16464122 0.12310498 -0.0034457329 -0.07058138 -0.038997557 0.019481627 -0.09186847
00000000: 5d87 873d 4324 d9be 2b87 913e 9e7b 08be
00000010: 14bd 5dbe e710 d6be 9277 1b3d ea9f debe
00000020: 6ad6 aebd 89af 78be 2c69 da3d eb9b c5be
00000030: d146 923e d509 9f3e 301c 133e fb4b a0be
00000040: fca5 13be 817a 0dbf 56d9 8fbd 0f94 293e
00000050: c1d4 f9be ff7d 033e 5be0 ff3e f538 02be
00000060: 18f5 a2bd ac54 bebd 94a6 62be 52c1 30be
00000070: 0f81 7f3e 4a19 ea3c c503 073f c258 323e
00000080: 3d0a d6bd 29e8 46be 780f bf3b 9e9c ac3d
00000090: 2176 1abe 2586 bcbd cb00 89be ca3b 803e
000000a0: c753 c3be 62b8 363e 5743 a0be 4492 f03e
000000b0: f2f5 1dbf ba48 513e e015 ac3e bb98 03be
000000c0: acb7 b3be 37aa c13e 583f 03bf 66ac a6be
000000d0: 3546 a53d 18a2 723e 58bf b6bd 7d7a b23e
000000e0: d2b2 1e3e 075b 54ba fe26 c83d 1b7f 5d3e
000000f0: ae07 25be 80c7 4c3c a203 e83d 9a85 10bc
00000100: 695f 96bd 76e2 34be 8e4c 963e 8d4e 88be
00000110: 00e3 42be 7fce 92be fb25 07bc a32c d8be
00000120: b3a0 b2bd 25d4 0bbe 0629 873e a1c8 ddbd
00000130: 642c b8bc a7e7 ab3e 29ba 563e 8316 d0bd
00000140: 2ffe f13c 7dae 2fbe abe5 893d e096 c2bd
00000150: 55b6 f8bd 4b4f 513d e232 3e3e 054e c1bd
00000160: 14c0 813d 7a75 253b dcdd 6dbd 5dda c9bd
00000170: 9d1c 273e 49f0 0fbe 9f80 683e 638c a03d
00000180: b779 8f3b d6a7 63be 40de 67bc b81b 663e
00000190: b848 b9bd 393a dcbc be8c 6abe 3ee2 0e3e
000001a0: 6f60 7ebe c4ea 4f3e 5fba 5dbe 4684 6e3e
000001b0: f5f3 05be 934d 763d fc43 823c 07c0 3fbe
000001c0: 94f1 26bd 5141 1b3d 9c86 52be 0b68 b8be
000001d0: 5c16 a73d 0cac 083e 0646 0a3d 8e44 813d
000001e0: d366 debd 9cb5 253e 9549 673e c181 343e
000001f0: 8c46 95bd 5c37 463d 3626 3a3e 3075 aabd
00000200: 9bb6 72bd 018e 9dbe 9d32 b6b9 c4da a63e
00000210: 5e15 2b3c 5779 9b3e 49f4 0dbe 3375 d2be
00000220: 423b 5a3e 0c20 023f b514 d13e b7ef 62be
00000230: 9f10 25be 5443 ffbe 847f 34bf 1eac a73e
00000240: d04e c7bd fa93 b5be d4d9 57be b4b2 c13e
00000250: 4509 003f 716b cb3c a52c 003f ed63 d8bd
00000260: b824 853e 777f 78bc a899 5e3e 6eb8 543e
00000270: 9054 883d ac8a a3be e540 113f 8fc1 4e3e
00000280: b796 d53d 6fe1 623e 8701 213e 25be d33e
00000290: b2a7 c73c 0f1d e8be 9868 f3be 6e94 3f3e
000002a0: b6ea cdbe e6a2 eb3d 3b61 513e b75a aabe
000002b0: f051 0ebf e9f6 b73d 17a4 17bd 0d10 953e
000002c0: d827 bdbe 63df 223f 3ab7 e23e a5ab f53e
000002d0: 325e a7bd 6fc6 c2be c37b 26be cb2a 7ebe
000002e0: aba3 e0be ef29 283e 50dc cc3e 6101 5f3e
000002f0: 9c94 693e 110e 3dbe 0214 9e3e 4c22 fbbd
00000300: 2b41 0d3e 700d 4abe 3974 323e b737 22be
00000310: bf2c 25be 2dd2 bbbe 98f1 6bbe 39f9 bbbe
00000320: 75c6 e4bd 783e b13c fd7e 353d 417a e2bd
00000330: 036b a6bd bc87 253e 151a 813e 16e2 8ebe
00000340: e096 99be f618 03bf f3ee e0bc c40a 97bc
00000350: 2cb1 efbc 56fb 0fbe 77d4 fd3e f671 d3bd
00000360: e1a5 3ebd 99cc 07be 646f a9be 04df f93c
00000370: 368f 2d3e 3507 a03d 510f a33e d7fa 273e
00000380: eb92 5f3e d3a1 debd 0f9a 803e 8919 acbc
00000390: 00e0 5abe 015e d0bd b813 c9be e162 903e
000003a0: d735 9bbe d392 2abe a95f 99be 54ac 293f
000003b0: 7516 fdbe 6a17 0ebe 65f8 35bd 0600 c5bd
000003c0: a68b 71be 7e03 fd3e b730 47be 5e07 f6be
000003d0: 4dff dabc a199 c43e 2753 cbbd e75d 253e
000003e0: b2f0 e43e b597 28be 771e fc3d ced1 61bb
000003f0: f88c 90bd e7bb 1fbd ef97 9f3c 8925 bcbd

weight_hh_l0_reverse f4 [128, 32]
0.10208838 -0.06728464 -0.08180544 0.09273956 0.03411476 0.21476491 0.15539356 -0.15179865
0.075823516 -0.0160977 0.07686921 0.16511297 -0.13264273 -0.026335727 0.05142222 0.0035065897
-0.054401375 0.060348384 0.092235975 -0.17851011 -0.08398456 0.13651511 0.07678824 -0.13060422
-0.22440231 0.07856022 0.013471931 -0.08846803 -0.29165548 0.13795692 -0.07014724 0.09110897
-0.044456426 0.07318225 -0.10787738 0.2095008 -0.10478385 0.095890984 0.09287836 -0.20260043
0.09533365 -0.0026961945 0.055045664 0.0070241652 0.06499166 -0.09209417 0.19330232 0.080298975
-0.042359024 0.0044173724 0.21170494 -0.30719605 -0.095790304 0.05377901 -0.082258716 -0.10165431
-0.12049009 -0.08020701 -0.026403444 -0.11988967 -0.12661062 0.054466613 0.07658145 0.2807804
0.19433466 -0.19854622 -0.083391465 -0.016510954 0.08275228 0.072451994 0.2833489 -0.16935481
0.05077096 -0.019514076 -0.025957825 0.035469797 0.05791166 -0.13353625 0.099159524 -0.12222784
-0.1952395 -0.096411236 -0.09101248 0.014303216 -0.068872936 -0.012082271 0.10773408 -0.19455202
-0.23872563 0.16544694 0.13684395 0.12108874 0.076181926 0.09087692 -0.01782549 -0.25786662
0.05390303 -0.22317967 -0.18124016 0.0039623277 -0.16644046 -0.0215769 0.47790244 0.054130733
0.024630178 -0.16996591 -0.07977971 0.1825395 -0.0570001 -0.20039508 0.21879964 -0.027246485
-0.14394936 -0.033379428 0.009781631 -0.05009381 -0.090450436 0.17850576 -0.08451141 -0.017828133
-0.28131092 -0.00046553946 0.3110139 0.10281543 -0.045822114 -0.26240075 0.0658543 -0.019724308
0.21730536 -0.15730046 -0.062595494 0.092892796 -0.19215108 -0.022185039 0.38892072 -0.020676702
0.114415765 -0.2018284 -0.044142272 -0.04410494 -0.33748916 -0.077906676 0.05531287 -0.33397204
-0.16888644 -0.16618292 0.08370164 -0.23722434 -0.14386046 0.1317619 -0.08393378 0.09069073
-0.3062173 0.176584 0.044582993 0.33588713 -0.048534993 -0.059259184 0.0017373305 -0.18600914
0.123623535 -0.18562059 0.06642546 0.08216929 0.08345609 0.30423686 -0.028194321 -0.40048078
-0.13898973 -0.27023876 0.3231734 -0.012220981 -0.07676589 0.2860463 0.0644388 0.10656727
-0.10565369 -0.3197208 -0.1694238 -0.4416385 -0.0526103 0.1587985 -0.47095856 0.049687434
-0.049421642 0.0011283812 -0.027068034 -0.0040626093 -0.3897196 0.095815755 0.26141477 0.00962153
-0.110485114 0.2863 0.2185548 -0.42901686 0.24016514 -0.2620323 0.026272133 0.06350993
-0.3262215 0.09220264 0.21860941 0.3068364 -0.07995065 0.079137005 -0.15035512 0.1230653
0.068966575 0.21591555 -0.15580776 0.1036525 -0.010850798 0.1310944 0.06437013 0.16012661
-0.0023864245 0.394112 -0.08009794 -0.09892123 -0.19195472 0.06390861 -0.038317144 -0.04395627
0.1747544 -0.16529764 0.21050124 -0.11966596 0.05992601 -0.015974207 -0.050077483 -0.2780184
-0.0456005 -0.045137584 0.36832315 0.04286506 -0.2376217 0.0761758 0.055304464 -0.20796439
0.055362035 -0.073246434 -0.24773236 -0.2858064 -0.2552393 0.07168046 -0.13588949 0.0996596
-0.057103727 0.18983997 0.055446967 0.23381102 -0.1779607 -0.06960063 0.13395372 -0.09913978
00000000: b613 d13d 88cc 89bd 9c89 a7bd 3dee bd3d
00000010: ebbb 0b3d 55eb 5b3e 7d1f 1f3e 1b71 1bbe
00000020: 5c49 9b3d 53df 83bc 9b6d 9d3d 6013 293e
00000030: 7fd3 07be 06be d7bc 1ba0 523d d0ce 653b
00000040: fad3 5ebd de2f 773d 37e6 bc3d 5bcb 36be
00000050: 1900 acbd 9eca 0b3e 2743 9d3d 1dbd 05be
00000060: b8c9 65be 2ee4 a03d 60b9 5c3c ba2e b5bd
00000070: de53 95be 9444 0d3e 5ba9 8fbd 5797 ba3d
00000080: f117 36bd 93e0 953d d1ee dcbd 6187 563e
00000090: ea98 d6bd 7e62 c43d 0237 be3d 7d76 4fbe
000000a0: 4a3e c33d a3b2 30bb 9077 613d f82a e63b
000000b0: 591a 853d de9b bcbd 0bf1 453e ca73 a43d
000000c0: a880 2dbd 9bbf 903b 2ec9 583e cd48 9dbe
000000d0: b52d c4bd 6147 5c3d 4277 a8bd 2330 d0bd
000000e0: 82c3 f6bd 9343 a4bd 094c d8bc b788 f5bd
000000f0: 37a6 01be 6218 5f3d bcd6 9c3d 73c2 8f3e
00000100: aaff 463e b34f 4bbe 25c9 aabd fb41 87bc
00000110: 077a a93d b661 943d 1b13 913e 596b 2dbe
00000120: 36f5 4f3d fcdb 9fbc 81a5 d4bc c748 113d
00000130: c734 6d3d babd 08be 2614 cb3d 9752 fabd
00000140: ddec 47be 4173 c5bd c064 babd 0958 6a3c
00000150: 410d 8dbd b8f4 45bc afa3 dc3d a538 47be
00000160: 7e74 74be ec6a 293e d220 0c3e 60fd f73d
00000170: 4505 9c3d ae1d ba3d c306 92bc 1807 84be
00000180: 6cc9 5c3d 3689 64be 0597 39be 6ad6 813b
00000190: 5e6f 2abe 0ac2 b0bc a1af f43e 30b8 5d3d
000001a0: 3ac5 c93c 8b0b 2ebe 8b63 a3bd a2eb 3a3e
000001b0: f078 69bd 5e34 4dbe 030d 603e 0534 dfbc
000001c0: 7667 13be deb8 08bd 2243 203c 2b2f 4dbd
000001d0: 143e b9bd 37ca 363e 5114 adbd 4e0c 92bc
000001e0: fc07 90be a613 f4b9 373d 9f3e e590 d23d
000001f0: f8af 3bbd 6459 86be 9fde 863d df94 a1bc
00000200: 4c85 5e3e 5f13 21be 1132 80bd 943e be3d
00000210: 41c3 44be 66bd b5bc 9e20 c73e 3062 a9bc
00000220: d052 ea3d 1bac 4ebe 87ce 34bd 62a7 34bd
00000230: 61cb acbe 898d 9fbd bf8f 623d 62fe aabe
00000240: 91f0 2cbe db2b 2abe c46b ab3d f0ea 72be
00000250: 2850 13be 97ec 063e 79e5 abbd 10bc b93d
00000260: 84c8 9cbe 70d2 343e a89c 363d 66f9 ab3e
00000270: a1cc 46bd c2b9 72bd 23b7 e33a 2e79 3ebe
00000280: 562e fd3d 5313 3ebe 120a 883d 5f48 a83d
00000290: 07eb aa3d efc4 9b3e c7f7 e6bc d10b cdbe
000002a0: 5353 0ebe bc5c 8abe fc76 a53e 823a 48bc
000002b0: 6f37 9dbd a974 923e 7df8 833d f13f da3d
000002c0: f660 d8bd 72b2 a3be 6f7d 2dbe 711e e2be
000002d0: e67d 57bd 139c 223e 7b21 f1be 0d85 4b3d
000002e0: 596e 4abd 31e6 933a c8bd ddbc a31f 85bb
000002f0: 5489 c7be 0d3b c43d 28d8 853e 9fa3 1d3c
00000300: 0546 e2bd ea95 923e d4cc 5f3e 19a8 dbbe
00000310: daed 753e 1929 86be a838 d73c 7f11 823d
00000320: 8106 a7be bdd4 bc3d 25db 5f3e a919 9d3e
00000330: 2bbd a3bd 9512 a23d b1f6 19be a909 fc3d
00000340: 593e 8d3d f718 5d3e 128c 1fbe c347 d43d
00000350: 8cc7 31bc 9c3d 063e 7dd4 833d 3bf8 233e
00000360: 8f65 1cbb 0cc9 c93e 640a a4bd 3797 cabd
00000370: c78f 44be 84e2 823d 70f2 1cbd 7d0b 34bd
00000380: d1f2 323e c943 29be a38d 573e 6d13 f5bd
00000390: fa74 753d 57dc 82bc 0c1e 4dbd 6d58 8ebe
000003a0: 97c7 3abd 30e2 38bd da94 bc3e 4693 2f3d
000003b0: 1a53 73be 0f02 9c3d ef86 623d 9ef4 54be
000003c0: 4dc3 623d 3a02 96bd 8dad 7dbe 3755 92be
000003d0: baae 82be 34cd 923d 9d26 0bbe 551a cc3d
000003e0: 99e5 69bd 6965 423e 5c1c 633d 286c 6f3e
000003f0: 543b 36be c68a 8ebd 2a2b 093e cc09 cbbd
