TS-CVAE/experiments/pedestrians/models/zara1/models_22_Jun_2021_00_46_21_zara1_ar3/model_registrar-12.pt (torch_old, 545380 bytes, 43 tensors)

weight_ih_l0 f4 [128, 6]
0	0xbc8a1624	-0.01685626
1	0x3d76e931	0.060280982
2	0xbdbd6917	-0.0924856
3	0xbae193cd	-0.0017210186
4	0xbe0801de	-0.13281962
5	0x3cd3832e	0.025819387
6	0xbe5990e8	-0.21246684
7	0xbe504c12	-0.20341519
8	0xbd867773	-0.06565752
9	0x3e14b928	0.14523757
10	0xbc662ca4	-0.014048729
11	0x3dd8ea39	0.105915494
12	0xbd0a2049	-0.033722196
13	0xbcf569d6	-0.029957693
14	0xbe37aa7a	-0.17936125
15	0xbe40b409	-0.18818678
16	0xbe76ab80	-0.2408886
17	0x3d3d979d	0.046287168
18	0x3da74a59	0.081684776
19	0x3e01fa45	0.12693126
20	0x3d15b4bc	0.036549315
21	0xbd266624	-0.040624753
22	0xbdd50886	-0.10402016
23	0x3e1118ef	0.14169668
24	0xbe52bd60	-0.20580053
25	0x3b8e6db2	0.004346573
26	0x3c85d400	0.016336441
27	0x3e8b44d8	0.2720096
28	0x3ce109d4	0.027470507
29	0xbe323a7d	-0.17405124
30	0x3e63d5a1	0.22249462
31	0x3be64db2	0.007028305
32	0xbc27ebcf	-0.010249092
33	0x3e32b24d	0.17450829
34	0x3dab5336	0.083654806
35	0xbd4d2ed7	-0.050093498
36	0xbe34f90a	-0.17673126
37	0xbd729748	-0.059226304
38	0xbdb4fbd3	-0.08837094
39	0x3c3b05dd	0.011414972
40	0xbdbd2eb2	-0.09237422
41	0xbe04e290	-0.12977052
42	0xbddb7211	-0.10715116
43	0x3e657a07	0.22409831
44	0x3e1a1422	0.15046743
45	0xbdae7e94	-0.085202366
46	0x3cddd999	0.027081298
47	0xbba34c50	-0.0049834624
48	0x3e8358db	0.2565373
49	0x3e11060f	0.14162467
50	0x3e38a5fe	0.18032071
51	0xbd90d79c	-0.07072374
52	0xbdcc72a8	-0.099828064
53	0x3d1771b3	0.036973666
54	0xbdd39464	-0.10331038
55	0xbe911c12	-0.28341728
56	0xbd8abaff	-0.06773948
57	0x3e87ba42	0.2650929
58	0x3c57ee85	0.013179426
59	0xbdbb7675	-0.09153453
60	0x3def0835	0.11671487
61	0xbd2ea24f	-0.04263526
62	0xbeadab21	-0.33919623
63	0x3d9e4429	0.07727844
64	0xbdeb9436	-0.11502878
65	0x3d81e47b	0.06342407
66	0xbe1aee4b	-0.15129964
67	0xbd8f1d7d	-0.06988046
68	0xbd4d4f19	-0.05012426
69	0x3e17f740	0.14840412
70	0x3e44ca2d	0.19217749
71	0x3dad5c09	0.0846482
72	0xbd1180eb	-0.035523336
73	0x3b474b92	0.0030410034
74	0xbd1cac9e	-0.038250558
75	0xbe041aca	-0.12900844
76	0x3dd2cdfb	0.10293194
77	0xbe6d31a0	-0.23163462
78	0x3d494b92	0.049144335
79	0x3e23ff3f	0.16015337
80	0x3da56243	0.080753826
81	0xbc6da1f4	-0.014503945
82	0x3d590852	0.05298645
83	0x3c295a84	0.010336522
84	0xbe4886d1	-0.19582678
85	0xbd95e067	-0.07318192
86	0xbea55001	-0.322876
87	0x3e08126b	0.13288276
88	0x3e324b26	0.1741148
89	0xbe29caa7	-0.16581212
90	0xbd9a2ae2	-0.075277105
91	0x3e2b5631	0.16732098
92	0x3e0fee50	0.14055753
93	0xbd1b8240	-0.037966013
94	0xbd1f6cdb	-0.038922172
95	0x3dfaf926	0.122545525
96	0x3df24f58	0.1183154
97	0x3e1020fd	0.14075084
98	0x3dff87c3	0.12477066
99	0x3c8c0479	0.017091976
100	0x3cd1bfa1	0.025604071
101	0xbe8de75b	-0.27715573
102	0x3cfc74e7	0.030817462
103	0xbddecd83	-0.10879042
104	0xbc868062	-0.01641864
105	0xbd58b8f7	-0.05291077
106	0x3d071d53	0.03298695
107	0x3dba5f23	0.09100177
108	0x3cf4df9c	0.029891782
109	0xbcd674bf	-0.026178716
110	0x3e2a6cd4	0.16643077
111	0xbd82ad60	-0.06380725
112	0x3e21d46e	0.15803692
113	0x3e20ab32	0.15690306
114	0xbd262a34	-0.04056759
115	0xbc439075	-0.011936297
116	0xbde36786	-0.1110373
117	0x3e4d0937	0.20023046
118	0x3e91c319	0.2846916
119	0x3e061cb1	0.13096882
120	0xbe7eb5d7	-0.24874054
121	0x3e170e40	0.1475153
122	0x3e4c478a	0.19949165
123	0xbe0b1248	-0.13581192
124	0x3e32a9ae	0.1744754
125	0xbd764763	-0.060126673
126	0x3d1d3190	0.038377345
127	0x3e6317f4	0.22177106
128	0x3c3c308b	0.011486183
129	0xbde4a6fc	-0.11164662
130	0xbddb8988	-0.107195914
131	0xbbb58ce1	-0.0055404757
132	0xbdc4f268	-0.09616548
133	0xbe857fa1	-0.26073936
134	0x3ae7e15f	0.0017691067
135	0x3d07b581	0.03313208
136	0x3d3822da	0.044955112
137	0xbc496ab7	-0.012293509
138	0xbb94068d	-0.0045173825
139	0xbc716b0d	-0.014734996
140	0x3d583a6d	0.052790094
141	0xbdd25f4e	-0.10272084
142	0x3d862b99	0.06551284
143	0x3d0028c2	0.03128887
144	0xbbfc86db	-0.0077065057
145	0xbdafcf3d	-0.085844494
146	0xbdfd3eb1	-0.12365473
147	0xbd351500	-0.04420948
148	0xbe208716	-0.15676531
149	0xbe09f43c	-0.13472074
150	0xbd12e90c	-0.035866782
151	0xbc86fc61	-0.016477766
152	0xbe1cef00	-0.15325546
153	0x3d798f12	0.060927458
154	0x3d9f3d0c	0.07775316
155	0x3dea785b	0.11448737
156	0x3dc013a4	0.09378746
157	0xbda5a44b	-0.08087977
158	0xbec6fb3e	-0.38863558
159	0x3dbe0455	0.0927817
160	0x3c917e34	0.017760374
161	0x3dca0c10	0.09865582
162	0xbdb4d3d1	-0.08829463
163	0x3e0dc217	0.1384357
164	0x3ea52e56	0.32261914
165	0x3ea87518	0.32901835
166	0x3d9f50b2	0.07779063
167	0x3de7f451	0.113258965
168	0x3db51c26	0.088432595
169	0x3db89998	0.09013671
170	0xbe05bc6b	-0.13060157
171	0x3b1589b2	0.0022817669
172	0x3e546c20	0.20744371
173	0x3d0ba428	0.0340921
174	0xbe00219d	-0.12512822
175	0xbdeb9242	-0.11502506
176	0xbe55417e	-0.20825765
177	0xbb8a10a8	-0.0042134114
178	0x3db39626	0.08768873
179	0x3c1da3db	0.009621586
180	0xbdbe7897	-0.093003444
181	0xbd88b310	-0.066747785
182	0x3e4481d5	0.19190152
183	0xbd3d5a3e	-0.04622864
184	0xbe0d13c2	-0.13777068
185	0xbd98a876	-0.074540064
186	0xbe3cebf5	-0.18449385
187	0x3e1952c2	0.14972976
188	0x3dfc56fd	0.12321279
189	0xbe084f25	-0.13311441
190	0xbdcd7c13	-0.10033431
191	0xbe4df219	-0.20111884
192	0x3dd4093b	0.10353323
193	0x3e153486	0.14570817
194	0xbdf777a7	-0.12083369
195	0xbdd2f3c4	-0.10300401
196	0xbd188dbc	-0.037244543
197	0xbe662dab	-0.22478358
198	0x3de8005f	0.11328196
199	0x3ce4e117	0.027939362
200	0xbc864b30	-0.016393274
201	0x3d420203	0.0473652
202	0x3e28018b	0.16406839
203	0x3d170a18	0.03687486
204	0xbda9e7cf	-0.08296167
205	0xbcbaa37d	-0.022783035
206	0xbd8c4ae4	-0.06850222
207	0xbd343173	-0.04399247
208	0xbe05f70e	-0.13082525
209	0xbd456e5a	-0.048200943
210	0x3d61b6aa	0.055105843
211	0x3cd8f6e3	0.026484912
212	0xbc11da34	-0.008902121
213	0xbe19e626	-0.15029201
214	0xbe0f2ed9	-0.13982715
215	0xbe58dbf1	-0.21177651
216	0x3d095d5c	0.0335363
217	0xbdb9908a	-0.09060772
218	0x3ddf3785	0.108992614
219	0x3e1c6bfe	0.15275571
220	0xbe3faf98	-0.18719327
221	0xbd331e92	-0.043730326
222	0x3db9e89f	0.09077572
223	0xbda257e9	-0.07926924
224	0x3c8ecca8	0.017431572
225	0xbdfd071b	-0.12354871
226	0xbe57f607	-0.21089946
227	0xbd597539	-0.053090308
228	0x3d8572e7	0.065160565
229	0xbce0b8ba	-0.027431834
230	0xbca8f835	-0.020626167
231	0xbb35fc00	-0.0027768612
232	0xbe43494e	-0.19070932
233	0x3d737ecf	0.059447106
234	0x3bf0bb90	0.007346578
235	0xbda39cc0	-0.07988882
236	0x3e288076	0.16455254
237	0xbdfd3939	-0.1236443
238	0xbdc79f2b	-0.09747156
239	0x3cd9105a	0.026497055
240	0x3e7937a1	0.24337627
241	0xbc691b7b	-0.014227743
242	0xbe3028de	-0.1720309
243	0xbcf1334c	-0.029443406
244	0xbe57719d	-0.21039434
245	0x3e18824f	0.14893459
246	0xbe38ace5	-0.18034704
247	0xbdb84529	-0.08997566
248	0x3e5514e4	0.2080875
249	0x3e1e23df	0.15443371
250	0x3e2927cf	0.16519092
251	0x3c6868b3	0.0141851185
252	0x3d816abc	0.06319186
253	0xbe2428df	-0.16031216
254	0xbd2556f3	-0.040366124
255	0x3d86bfa7	0.065795235

weight_hh_l0 f4 [128, 32]
0	0xbd8ac461	-0.067757376
1	0xbe1b7ef2	-0.15185145
2	0x3da0f845	0.07859854
3	0x3e1dc57a	0.15407363
4	0x3e035728	0.12826216
5	0xbcc48d2d	-0.0239931
6	0xbdcc82a5	-0.09985856
7	0xbdaa28e1	-0.08308578
8	0x3a800dd9	0.0009769752
9	0x3e34a660	0.17641592
10	0xbca794e1	-0.020456733
11	0x3e7afd83	0.2451077
12	0xbe2463a0	-0.16053629
13	0x3e08cadf	0.13358639
14	0x3e337e57	0.17528664
15	0xbc8b33bf	-0.016992448
16	0x3ccad076	0.024757605
17	0xbdb5cc9d	-0.088769175
18	0xbb1d8a8e	-0.0024038884
19	0xbd3b9fdd	-0.045806754
20	0xbe86d3f8	-0.26333594
21	0xbcc53336	-0.02407227
22	0xbe061b99	-0.13096465
23	0xbe8c5fd6	-0.27416867
24	0x3e47f773	0.19527988
25	0xbde49982	-0.11162092
26	0x3daaa68a	0.08332546
27	0x3ea4af41	0.32164958
28	0x3e397a01	0.18112947
29	0x3dc3e71c	0.09565565
30	0x3d9e176d	0.07719312
31	0xbe1860a2	-0.14880612
32	0x3ddc8b69	0.10768778
33	0xbe411c16	-0.1885837
34	0x3e45e6f9	0.1932639
35	0x3c1cf699	0.009580278
36	0x3e2bd769	0.16781391
37	0x3e390452	0.18068054
38	0x3c9403e3	0.01806826
39	0xbdd801de	-0.10547231
40	0x3dedf321	0.11618639
41	0x3c2b87db	0.010469402
42	0xbe4a50ca	-0.19757381
43	0xbd84739e	-0.06467365
44	0xbe8f3eb4	-0.27977526
45	0x3de90895	0.1137859
46	0x3e2fc78f	0.1716597
47	0xbe1e671c	-0.1546902
48	0x3d252eea	0.040327944
49	0x3e109c53	0.14122133
50	0xbdee7de4	-0.116451055
51	0x3d4943f2	0.049137063
52	0xbe09308e	-0.13397428
53	0x3d91b97a	0.07115455
54	0xbe328c0f	-0.1743624
55	0xbe124b4d	-0.14286537
56	0xbb28f79d	-0.0025782355
57	0xbde1268f	-0.109936826
58	0xbde8e846	-0.11372428
59	0xbd914100	-0.07092476
60	0xbc0e12a9	-0.008671441
61	0x3d8fe5ef	0.07026278
62	0x3df793e8	0.12088758
63	0xbe189792	-0.1490157
64	0x3dd8b7fd	0.10581968
65	0xbe59bf8e	-0.21264479
66	0xbd794be9	-0.06086341
67	0x3df9ee56	0.12203662
68	0x3e7b654a	0.24550357
69	0x3e1059bc	0.14096731
70	0xbe26ef77	-0.16302286
71	0xbe8214a6	-0.25406379
72	0xbde78896	-0.113053486
73	0x3e656e7c	0.22405428
74	0xbe64cbdc	-0.22343391
75	0x3e523396	0.20527491
76	0xbdd900d9	-0.10595865
77	0xbdd6c3c2	-0.104865566
78	0x3e36b653	0.17842989
79	0xbe70487c	-0.2346515
80	0x3d5d429c	0.0540186
81	0xbd7d269b	-0.061804395
82	0x3d76814b	0.060181897
83	0xbdd72301	-0.10504723
84	0x3d90a36a	0.07062419
85	0x3e0fb57a	0.14034072
86	0x3c2d8cc5	0.010592644
87	0x3deee52a	0.11664803
88	0x3e5236c8	0.2052871
89	0x3da421b9	0.080142446
90	0x3e2dab4f	0.1695988
91	0x3e867e58	0.26268268
92	0x3e383cd6	0.17991957
93	0x3d5554ef	0.052082952
94	0xbd9e2a9d	-0.077229716
95	0x3d96c783	0.073622726
96	0x3cd687d8	0.026187822
97	0xbca1792d	-0.019711101
98	0x3dc28c21	0.09499384
99	0x3e132f21	0.14373447
100	0x3cc172cd	0.023614312
101	0xbcd08580	-0.025454283
102	0xbd906878	-0.07051176
103	0x3d98f1e0	0.07468009
104	0xbdfdf191	-0.12399591
105	0x3d9614c9	0.07328183
106	0xbe1f4de4	-0.15557057
107	0xbd998007	-0.074951224
108	0xbe804fc2	-0.2506085
109	0xbe33a151	-0.17542006
110	0xbdffa6fe	-0.12483023
111	0xbe91e7c5	-0.2849714
112	0xbd94b455	-0.07260958
113	0x3e22d4c5	0.15901478
114	0xbe083fa0	-0.13305521
115	0xbd2c2017	-0.04202279
116	0xbe174e9a	-0.14776078
117	0x3e0dcc0a	0.13847366
118	0x3d77ba50	0.060480416
119	0xbe2516a5	-0.1612192
120	0xbd582d57	-0.052777614
121	0xbc4506b5	-0.012025525
122	0xbe05450d	-0.13014622
123	0x3e3475d1	0.17623068
124	0xbd22318c	-0.039598033
125	0x3e0813aa	0.13288751
126	0x3e3beb4f	0.18351482
127	0x3c3c5191	0.011494056
128	0xbe5fdf4c	-0.21862525
129	0xbe4210bd	-0.18951698
130	0x3e9b8f43	0.30382738
131	0xbde36aef	-0.1110438
132	0x3e7f0d80	0.24907494
133	0xbc2f0398	-0.010682009
134	0xbd930603	-0.07178881
135	0xbc6886c7	-0.01419229
136	0x3d5eed2c	0.054425403
137	0xbd26bc92	-0.04070718
138	0xbe49edaf	-0.19719575
139	0x3cbabc9b	0.022795012
140	0xbe196c27	-0.14982663
141	0x3d090b11	0.03345782
142	0xbe456077	-0.1927508
143	0xbebc6623	-0.36796674
144	0xbe66f958	-0.22556055
145	0xbd6dbe1a	-0.058042623
146	0x3e58c982	0.21170619
147	0xbe82df15	-0.25560823
148	0xbda7703a	-0.081757024
149	0x3ea54f83	0.32287225
150	0xbd89f9e1	-0.06737114
151	0xbe434ef2	-0.19073084
152	0x3ddf29d6	0.108966514
153	0xbe828526	-0.2549221
154	0xbd366061	-0.044525508
155	0xbebd5e5e	-0.3698606
156	0xbe142274	-0.14466268
157	0xbda8a601	-0.08234788
158	0x3e79bc82	0.24388316
159	0xbd864cea	-0.06557639
160	0x3de34e20	0.110988855
161	0xbdc07da4	-0.09398964
162	0x3e065444	0.13118082
163	0xbe2566f6	-0.16152558
164	0xbc47a6c4	-0.012185756
165	0xb91cbbd1	-0.00014947286
166	0xbcc51927	-0.024059845
167	0xbe45e369	-0.19325031
168	0xbde692dc	-0.1125848
169	0x3db4d7c9	0.0883022
170	0x3d5edb0c	0.054408118
171	0xbdc73ef8	-0.09728807
172	0xbe3e4867	-0.18582307
173	0x3d08d3b6	0.03340503
174	0x3cad434f	0.02115026
175	0xbe3bbb9a	-0.18333283
176	0x3c345086	0.011005526
177	0x3e3724d9	0.1788515
178	0xbe7ef2b3	-0.2489727
179	0x3e35b6ec	0.1774556
180	0x3aa2bd24	0.0012415987
181	0xbc15f988	-0.009153731
182	0xbe052cb4	-0.13005334
183	0xbd8fbbe5	-0.0701826
184	0xbcc480d3	-0.02398721
185	0xbdf58932	-0.119890586
186	0x3e2dfdc0	0.16991329
187	0x3e8c0362	0.2734633
188	0x3e03606a	0.12829748
189	0x3e07df21	0.1326871
190	0x3e459c4a	0.19297901
191	0x3d90a823	0.070633195
192	0x3dda4015	0.10656754
193	0x3c27ff8e	0.0102538
194	0xbd771770	-0.060325086
195	0x3e459c34	0.19297868
196	0x3de936b1	0.11387385
197	0xbce982b7	-0.028504713
198	0x3d3a8779	0.045539353
199	0xbe96c437	-0.29446575
200	0xbe311f0e	-0.17297003
201	0x3e373dfb	0.17894737
202	0xbe04b2ab	-0.12958781
203	0xba1f413f	-0.0006075091
204	0xbda0d85d	-0.07853768
205	0x3e1f7b9c	0.15574497
206	0x3d240ac6	0.040049337
207	0xbe0ec89a	-0.13943711
208	0xbd259a28	-0.040430218
209	0xbd92265f	-0.07136225
210	0xbcc7cee1	-0.02439064
211	0xbdb0fa19	-0.08641452
212	0xbd7a35f2	-0.061086603
213	0x3e848515	0.25882784
214	0x3ce6da06	0.028180134
215	0xbdcef718	-0.10105723
216	0xbde02d64	-0.109461576
217	0x3cbebbb0	0.023282856
218	0x3e2c8c69	0.16850437
219	0x3e0c4154	0.13696796
220	0xbe08e434	-0.13368303
221	0x3e402731	0.1876495
222	0xbda4fc8d	-0.08055983
223	0x3daf0c8c	0.08547315
224	0x3e45ae92	0.19304875
225	0xbdb362fb	-0.087591134
226	0x3dd34afb	0.10317036
227	0x3e07d71c	0.13265651
228	0xbad775d6	-0.0016438316
229	0x3e0be364	0.13660961
230	0x3e02023c	0.12696165
231	0xbda4aaa3	-0.08040359
232	0xbdd3c988	-0.103411734
233	0xbc8b977b	-0.017040005
234	0xbde14570	-0.10999572
235	0xbde7e47a	-0.11322875
236	0x3db509c2	0.08839752
237	0xbd22933c	-0.039691195
238	0x3e09db3e	0.1346254
239	0xbc8be482	-0.017076734
240	0x3dbe8742	0.09303142
241	0xbc710415	-0.014710446
242	0xbe45bd5e	-0.19310519
243	0x3d45698b	0.048196357
244	0xbe954237	-0.2915208
245	0x3e13c772	0.14431551
246	0xbe0626b5	-0.13100703
247	0xbe78ea86	-0.24308214
248	0x3d58abe3	0.0528983
249	0x3de17ce9	0.11010153
250	0x3d2c6194	0.042085245
251	0x3e68c3bf	0.22730921
252	0x3e38bf39	0.18041696
253	0x3e25b928	0.16183913
254	0x3d3c3a75	0.045954186
255	0x3e1a150f	0.15047096

bias_ih_l0 f4 [128]
0	0x3d196baa	0.037456192
1	0x3da8400e	0.082153425
2	0x3d59672e	0.053076915
3	0x3d36a2c4	0.04458882
4	0x3eb7d63b	0.35905632
5	0x3e7b700c	0.24554461
6	0x3d95d408	0.073158324
7	0xbd8ce8b5	-0.06880323
8	0x3db533d2	0.088477746
9	0x3e1b2a28	0.151528
10	0x3e9c4305	0.30519882
11	0x3e5c7d3c	0.21532148
12	0x3e9239e9	0.28559807
13	0x3c24661d	0.010034111
14	0x3e1eb9ab	0.15500514
15	0x3ebdc8e2	0.37067324
16	0x3c372a04	0.011179451
17	0x3e81f82e	0.2538466
18	0x3ca27532	0.019831274
19	0x3e35cf8f	0.17754959
20	0x3ea83469	0.32852486
21	0x3d7f1099	0.062271688
22	0x3e47d3e1	0.19514419
23	0x3c36521a	0.011127973
24	0x3e68670f	0.22695564
25	0x3e0a58ed	0.13510485
26	0xbb8bcbf9	-0.004266259
27	0x3dcc4893	0.0997478
28	0xbab7f8f8	-0.001403599
29	0x3dd34d1c	0.10317442
30	0x3d828ca2	0.0637448
31	0x3d69d5a9	0.057088528
32	0x3d5dee7a	0.054182507
33	0xbe73afba	-0.23797503
34	0xbe7ec210	-0.24878716
35	0x3d7de95a	0.06199012
36	0xbf1a4cb2	-0.6027328
37	0xbe155be9	-0.14585842
38	0xbe7bcd5a	-0.24590054
39	0xbe0d981e	-0.1382756
40	0xbdbd1683	-0.092328094
41	0xbd443219	-0.04789934
42	0xbdc440db	-0.09582683
43	0xbbb9eb42	-0.005673797
44	0xbe265b91	-0.16245867
45	0x3d7ebe80	0.062193394
46	0xbc844e80	-0.016150713
47	0xbf0a5e90	-0.5405054
48	0x3c8b6cee	0.017019715
49	0xbd415110	-0.047196448
50	0xbd747f28	-0.05969158
51	0x3ddc1e35	0.10747949
52	0xbedd99e2	-0.43281466
53	0xbcd9f270	-0.026604861
54	0xbd529981	-0.051415924
55	0xbd17a3e9	-0.03702155
56	0xbd8e1fca	-0.06939657
57	0x3da74108	0.081667006
58	0x3d273cfa	0.040829636
59	0x3e394e7a	0.18096343
60	0xbc5e094b	-0.01355202
61	0xbec2398b	-0.37934527
62	0xbea19ad7	-0.31563446
63	0xbe76bb6a	-0.2409493
64	0x3e0fd5d0	0.14046407
65	0x3df2a0cc	0.11847076
66	0xbd29e4c1	-0.041477922
67	0x3d148876	0.03626295
68	0xbde9220a	-0.113834456
69	0x3bec7ac3	0.007216783
70	0x3dd6eac6	0.10493998
71	0xbd2a87e8	-0.041633517
72	0xbb565ddc	-0.0032709753
73	0x3d80da4c	0.06291637
74	0xbdc066f4	-0.09394637
75	0x3cc9e32e	0.02464446
76	0xbdf8dd85	-0.121516265
77	0xbd219116	-0.039445005
78	0xbd9b5c68	-0.075859845
79	0xbde9c345	-0.11414198
80	0xbdbbee7a	-0.09176345
81	0xbdfe85b0	-0.124278426
82	0x3e20acde	0.15690944
83	0xbd77c217	-0.060487833
84	0x3d608e63	0.05482329
85	0x3d983969	0.07432825
86	0x3dd8fc15	0.10594956
87	0xbe08b0c7	-0.13348685
88	0x3de47fcb	0.11157187
89	0xbdb56045	-0.088562526
90	0x3d372f8a	0.04472307
91	0xbe61bc7d	-0.22044559
92	0xbdff06b5	-0.12452451
93	0x3df88d7b	0.1213636
94	0x3cb32fac	0.021873318
95	0xbd9c46a1	-0.07630659
96	0x3e7ba778	0.24575603
97	0x3d553f67	0.05206242
98	0x3dcdf54a	0.10056551
99	0x3debfea4	0.11523178
100	0x3f05bb39	0.52238804
101	0x3e470e47	0.1943904
102	0x3dda7ac9	0.10667951
103	0xbd037ab2	-0.032099433
104	0xbd07fb9b	-0.033198934
105	0x3e558bd5	0.20854123
106	0x3dae18e4	0.08500841
107	0x3e2189f5	0.15775283
108	0x3e81c484	0.25345242
109	0xbbe50815	-0.006989489
110	0x3e3dbdde	0.1852946
111	0x3f0dbd67	0.5536713
112	0x3e1a50a5	0.15069826
113	0x3e3c8d73	0.18413334
114	0x3df6e95c	0.120562285
115	0x3d6a2517	0.057164278
116	0x3ed798e1	0.42108825
117	0x3db700bf	0.08935689
118	0x3e286047	0.16442977
119	0x3d817747	0.063215785
120	0x3ca65ead	0.020308817
121	0x3e2e1760	0.17001104
122	0x3e303ba2	0.17210248
123	0x3d1f3165	0.038865466
124	0x3e0ae3fd	0.13563533
125	0x3ea0d4d3	0.31412372
126	0x3e043a53	0.12912874
127	0x3d441a43	0.047876608

bias_hh_l0 f4 [128]
0	0xbbdfefaa	-0.00683399
1	0x3dc3182a	0.09526093
2	0xbda54d1b	-0.08071347
3	0x3e530492	0.20607212
4	0x3f00b996	0.5028318
5	0x3ad776e3	0.0016438629
6	0xbce9671e	-0.028491553
7	0x3ddebe3c	0.10876128
8	0x3e31c83c	0.1736154
9	0x3ea20249	0.31642368
10	0x3d47a93f	0.04874539
11	0x3db954c5	0.09049372
12	0x3d41c1ea	0.04730407
13	0x3e9bcda5	0.30430332
14	0x3e48432a	0.19556871
15	0x3f07f5c8	0.5310941
16	0xbd9b3670	-0.075787425
17	0x3e7c520f	0.24640678
18	0xbd9b5c26	-0.07585935
19	0x3e087886	0.13327226
20	0x3ef3d0c1	0.47620204
21	0x3e78d20d	0.24298878
22	0x3e6509b9	0.2236699
23	0x3d9a78eb	0.075425945
24	0x3e03b423	0.12861685
25	0x3df5b5f9	0.11997599
26	0x3d8de70e	0.06928836
27	0x3c05ca48	0.008165903
28	0xbdaa0b6c	-0.0830296
29	0x3dc02ab1	0.09383143
30	0x3e087660	0.13326406
31	0x3ddbb56a	0.10727961
32	0xbd0da061	-0.034576777
33	0xbe58f877	-0.21188532
34	0xbc35d5f7	-0.0110983765
35	0xbe139d12	-0.14415386
36	0xbe96b756	-0.2943675
37	0x3c8b23dc	0.016984873
38	0xbdd6f46f	-0.10495841
39	0xbe90f2b9	-0.28310183
40	0xbc9f464b	-0.019442698
41	0xbdd53da1	-0.104121454
42	0xbd9d79a5	-0.076892175
43	0xbd88ef4d	-0.06686268
44	0xbe2934ef	-0.16524099
45	0xbdf01d60	-0.11724353
46	0x3db7eb40	0.08980417
47	0xbefb14d3	-0.49039325
48	0xbde904b2	-0.11377849
49	0xbdebc425	-0.11512021
50	0xbd005ce1	-0.031338576
51	0xbd9727c3	-0.07380631
52	0xbe93ebba	-0.28890783
53	0xbe41f259	-0.18940105
54	0xbe8c88f2	-0.2744823
55	0xbd852379	-0.065009065
56	0xbe8bc3d9	-0.27297857
57	0xbe68689d	-0.22696157
58	0xbe59cffa	-0.21270743
59	0x3df6506c	0.12027058
60	0xbd2b1a3f	-0.041773077
61	0xbe14eb5c	-0.14542907
62	0xbe3bf483	-0.18354993
63	0x3d77918c	0.06044154
64	0xbe1238d4	-0.1427949
65	0xbe19e8f1	-0.15030266
66	0x3e03b00d	0.12860127
67	0xbc9ea9ca	-0.019368071
68	0x3e1240fe	0.14282605
69	0x3d21f268	0.039537817
70	0xbda64d7f	-0.0812025
71	0x3bac4474	0.0052571837
72	0x3e0d4c77	0.137987
73	0xbcfb82e3	-0.03070206
74	0x3d0accbe	0.033886664
75	0x3d2bc725	0.041937966
76	0x3d7278a8	0.059197098
77	0x3cdd2db3	0.02699933
78	0xbe1d402d	-0.15356512
79	0x3d038c93	0.032116484
80	0x3a9a6105	0.0011778182
81	0x3df1e49f	0.11811184
82	0x3da8aa83	0.082356475
83	0xbe3f8f27	-0.18706952
84	0xbdd134ca	-0.10215147
85	0x3c6355bf	0.013875424
86	0xbe0cf2e6	-0.13764533
87	0x3deaaeaa	0.11459096
88	0xbe01f8a8	-0.12692511
89	0x3c8be726	0.017077994
90	0x3d4356bc	0.04769014
91	0xbdd84479	-0.10559935
92	0xbde79121	-0.11306978
93	0xbe210e37	-0.15728079
94	0xbb2f5c09	-0.0026757738
95	0x3ce2d49e	0.027689274
96	0x3e05da92	0.13071659
97	0x3e3edc85	0.18638809
98	0xbd6377e8	-0.055534273
99	0x3eaf6205	0.3425447
100	0x3f1efa07	0.6210026
101	0x3dc840cd	0.09777985
102	0x3e9c4aea	0.30525905
103	0x3e8e96c3	0.27849397
104	0xbdb2961f	-0.087200396
105	0x3e6c6ee7	0.23089181
106	0x3ea70dc8	0.32627702
107	0x3e7046b5	0.23464473
108	0x3e87fe8d	0.26561394
109	0x3e3ea959	0.18619289
110	0x3dd7587a	0.105149224
111	0x3f0fc0c5	0.5615352
112	0x3e2d4061	0.1691909
113	0x3d41e94a	0.047341622
114	0x3e6712fe	0.22565839
115	0xbd87d56e	-0.06632505
116	0x3ec4ad8a	0.3841365
117	0x3e8f976c	0.28045213
118	0x3ea1e5b3	0.3162056
119	0x3e48812b	0.19580524
120	0x3e552214	0.20813781
121	0x3e1527b8	0.14565933
122	0x3e6564bf	0.22401713
123	0x3d389a42	0.045068987
124	0x3bce45e6	0.0062949536
125	0x3e9dfe70	0.30858183
126	0x3e1fe4f4	0.15614682
127	0x3e7e9504	0.24861532

weight_ih_l0 f4 [128, 2]
0	0x3da70b71	0.08156479
1	0x3dafe2c8	0.08588177
2	0xbdd8d407	-0.10587316
3	0x3dac5f52	0.084166184
4	0x3dad605d	0.084656455
5	0xbdaf55d6	-0.08561294
6	0xbd9eb44d	-0.077492334
7	0x3cffc52a	0.031221945
8	0xbd379dc9	-0.04482821
9	0xbd5c57b7	-0.05379459
10	0xbcba48ed	-0.022739852
11	0x3df71e53	0.12066331
12	0x3b7a40d1	0.0038185606
13	0x3c371154	0.011173565
14	0xbd8e6dcc	-0.06954536
15	0xbd6a5de7	-0.05721846
16	0x3e11692a	0.14200273
17	0xbdccaf75	-0.09994403
18	0x3c8df709	0.01732971
19	0x3d4ea5fc	0.050451264
20	0xbd01e4f9	-0.031712506
21	0x3de9a055	0.11407534
22	0xbd133aec	-0.035944864
23	0xbd7393f8	-0.059467286
24	0xbdaf1173	-0.0854825
25	0x3dc35a69	0.09538729
26	0x3dab3236	0.08359186
27	0xbae548b9	-0.0017492987
28	0xbddb149f	-0.106972925
29	0x3d2145bb	0.03937314
30	0xbcaba158	-0.020950958
31	0x3da3706b	0.079804264
32	0xbd67c1b4	-0.056581214
33	0x3dcbef83	0.099577926
34	0x3dd0fc7f	0.1020441
35	0x3e2a4a7c	0.16629976
36	0xbcc60dca	-0.024176497
37	0x3d48e17c	0.049043164
38	0xbbcd8218	-0.006271612
39	0x3d2c87d4	0.042121723
40	0x3e0a519b	0.13507693
41	0xbdb06b62	-0.08614232
42	0xbd7c7744	-0.061637178
43	0x3e2bbecc	0.16772002
44	0x3d07b391	0.033130232
45	0x3e12e8de	0.14346644
46	0xbe44b6cd	-0.19210358
47	0x398c9223	0.0002681176
48	0x3d605834	0.054771617
49	0xbc3d5915	-0.011556883
50	0xbdb8daaf	-0.090260856
51	0x3c50477f	0.0127123585
52	0x3dc9b2c1	0.09848548
53	0x3e0d001a	0.1376957
54	0xbe0c1034	-0.13678056
55	0x3db72a91	0.08943666
56	0xbddd211e	-0.10797332
57	0x3e17b002	0.14813235
58	0xbc9983b8	-0.018739566
59	0x3c88637b	0.016648998
60	0x3e3c27ab	0.18374507
61	0xbd5c00db	-0.053711753
62	0xbdf64cc5	-0.120263614
63	0xbd3e9a3f	-0.04653382
64	0xbd9c745d	-0.07639382
65	0xbe6f5433	-0.23371963
66	0x3c8eb41a	0.017419863
67	0xbcdfc8bc	-0.027317397
68	0x3cc63434	0.024194814
69	0xbe3c6564	-0.18398052
70	0x3de1258c	0.109934896
71	0x3d758287	0.059938934
72	0x3e81f7d3	0.25384387
73	0xbdf96d30	-0.12179029
74	0x3d719cd9	0.058987472
75	0xbcc23582	-0.023707155
76	0xbdce1063	-0.10061719
77	0x3e421d59	0.18956508
78	0x3d43a9d5	0.047769386
79	0x3e080e64	0.1328674
80	0xbd3e3fe0	-0.046447635
81	0xbdd8dff2	-0.10589589
82	0x3e224f15	0.1585048
83	0xbdb024bb	-0.08600756
84	0x3c4d473b	0.01252919
85	0x3c05042d	0.008118671
86	0xbe26302f	-0.16229318
87	0x3e1e1313	0.15436964
88	0xbe4707ec	-0.19436616
89	0x3deb097b	0.11476418
90	0xbce8f1b9	-0.028435575
91	0x3d0cafc0	0.034347296
92	0x3d2d814a	0.042359628
93	0x3e0fd511	0.14046122
94	0x3e4429c0	0.19156551
95	0xbd96a8fb	-0.07356449
96	0x3de2a8d9	0.110673614
97	0x3dc2657c	0.09492013
98	0xbde58309	-0.112066336
99	0xbdec58b4	-0.11540356
100	0xbd4ff7d6	-0.050773464
101	0x3e2912bb	0.16511051
102	0xbe4ced76	-0.20012459
103	0xbd3b5520	-0.04573548
104	0xbe45aee3	-0.19304995
105	0xbe0e7a43	-0.13913827
106	0x3e0d05c1	0.13771726
107	0xbd04b8fa	-0.03240297
108	0x3dfbcdfa	0.12295146
109	0x3dc4efcd	0.09616051
110	0xbe3add9f	-0.18248604
111	0xbe3c77c7	-0.18405066
112	0xbe121a3c	-0.1426782
113	0xbc4b0d96	-0.012393376
114	0xbcca8f32	-0.024726484
115	0xbd1ec886	-0.038765453
116	0xbb6bf38d	-0.0036003322
117	0xbcfd3746	-0.030910145
118	0xbdb44e0a	-0.08803947
119	0xbcc05782	-0.023479227
120	0x3e337795	0.17526086
121	0xbdc432a9	-0.09579975
122	0x3ab42e7a	0.0013746761
123	0x3db774ef	0.0895785
124	0x3e7060e7	0.23474465
125	0xbd17644a	-0.036960877
126	0xbd9f6e2b	-0.07784685
127	0xbe0cd919	-0.13754691
128	0x3d825054	0.063629776
129	0x3e0096c2	0.1255751
130	0xbd7ed148	-0.062211305
131	0xbe2df772	-0.16988924
132	0xbc02d949	-0.007986375
133	0xbdf46a82	-0.11934377
134	0xbdfa2c29	-0.12215454
135	0xbe538b22	-0.20658544
136	0xbe216425	-0.15760858
137	0x3d582cec	0.052777216
138	0x3dcf6f98	0.10128707
139	0xbe1fb84a	-0.15597644
140	0xbd684953	-0.056710552
141	0xbe1e1dbd	-0.15441032
142	0x3e0ed7fd	0.1394958
143	0xbd871cc7	-0.06597286
144	0x3e1884f0	0.14894462
145	0x3c5832d0	0.013195708
146	0xbdb3ad3a	-0.08773275
147	0x3e7d5615	0.24739869
148	0x3db0f5d9	0.08640642
149	0x3e4eaa6d	0.201822
150	0xbe0b3f14	-0.13598281
151	0x3de9c1cf	0.11413919
152	0xbe1dfbe9	-0.15428127
153	0xbda71dbb	-0.081599675
154	0x3e08efc5	0.13372715
155	0x3dbaf11a	0.09128018
156	0xbda960d6	-0.08270423
157	0xbe37fac0	-0.17966747
158	0xbe08c61e	-0.13356826
159	0x3de95cd4	0.11394659
160	0x3dd02317	0.10162943
161	0xbd24642c	-0.040134594
162	0xbe2732c6	-0.16327962
163	0x3de6df2c	0.112730354
164	0xbdb38b92	-0.08766855
165	0x3e1f757b	0.15572159
166	0x3db766de	0.08955167
167	0x3d9dd5a4	0.07706764
168	0xbd8b4278	-0.06799787
169	0xbd6fc5e0	-0.058538318
170	0xbe28d419	-0.16487159
171	0x3d16e625	0.036840577
172	0xbd7fa5b2	-0.06241388
173	0xbe2d1331	-0.16901852
174	0x3e0f8237	0.14014517
175	0x3d8f5841	0.06999255
176	0x3e2435b2	0.16036108
177	0x3cffb152	0.031212483
178	0xbb220e9d	-0.0024727948
179	0x3e44ec88	0.19230855
180	0xbe345258	-0.17609537
181	0x3d0960b9	0.033539508
182	0x3e12f9a8	0.14353049
183	0xbdad8bd2	-0.08473934
184	0x3e249c50	0.16075253
185	0x3d99e73b	0.07514807
186	0x3da05791	0.07829202
187	0x3e3e9a26	0.1861349
188	0x3e2e3846	0.17013654
189	0x3bddb540	0.0067659914
190	0xbe11eea5	-0.14251192
191	0xbd9e7e25	-0.07738904
192	0xbd9d9db8	-0.07696098
193	0xbdab210e	-0.08355914
194	0x3d9205c6	0.071300074
195	0x3dffd1f6	0.12491219
196	0xbc918127	-0.01776178
197	0xbe4e3053	-0.20135622
198	0x3d81f2d5	0.06345145
199	0xbcaaa9c0	-0.020832896
200	0xbd412780	-0.04715681
201	0xbe3ca4f4	-0.184223
202	0xbd89ba96	-0.067250416
203	0x3da70993	0.08156123
204	0xbcdf673d	-0.027270908
205	0xbdbc0f75	-0.09182636
206	0xbe39217a	-0.18079177
207	0xbdb656fb	-0.08903309
208	0x3d5e6ae7	0.05430117
209	0x3d9920b3	0.0747694
210	0xbc56cde2	-0.01311061
211	0xbe36b1ec	-0.1784131
212	0x3deb8f6f	0.11501967
213	0x3dea0b73	0.11427965
214	0x3d68de0b	0.05685238
215	0xbdb2f543	-0.08738186
216	0x3e2362b7	0.15955625
217	0x3da14f6a	0.07876475
218	0x3ce987ba	0.028507102
219	0x3e16cc40	0.14726353
220	0x3d0b4793	0.034003805
221	0x3e088817	0.13333164
222	0xbe145d01	-0.14488603
223	0x3e00fd15	0.12596543
224	0xbd748a2f	-0.059702095
225	0x3c91a098	0.017776772
226	0xbdd3bf9b	-0.1033928
227	0xbdf57d0e	-0.11986743
228	0xbe440cf8	-0.19145572
229	0xbcb39423	-0.021921223
230	0x3dacb5e4	0.084331304
231	0x3de0ba02	0.10972978
232	0x3d168e62	0.03675688
233	0xbd4b75c4	-0.049672857
234	0xbd8a713b	-0.06759878
235	0xbd0af0d9	-0.033921096
236	0x3e36afd4	0.1784051
237	0x3dea4b3e	0.114401326
238	0xbe066436	-0.13124165
239	0xbdcd9a10	-0.10039151
240	0x3e1a371f	0.1506009
241	0x3d66be65	0.056333918
242	0xbdcc30d0	-0.09970248
243	0xbe458bc2	-0.19291595
244	0x3d43211c	0.047638997
245	0xbd6016e6	-0.054709338
246	0x3a18737b	0.0005815548
247	0x3e1c5e75	0.15270407
248	0xbdb1149f	-0.08646511
249	0x3d77ce37	0.060499396
250	0x3d2ace32	0.04170055
251	0x3a158c01	0.0005704761
252	0x3e064a0d	0.13114186
253	0x3cc3c53b	0.023897758
254	0x3cca304c	0.024681233
255	0xbe4d9c8e	-0.20079252

weight_hh_l0 f4 [128, 32]
0	0xbe115bdb	-0.14195196
1	0x3a6b8b0f	0.000898526
2	0xbd5ca9db	-0.053872924
3	0x3e684abe	0.22684762
4	0xbae94eae	-0.0017799938
5	0x3dca14cb	0.09867247
6	0x3d49a052	0.04922516
7	0xbe2a600b	-0.166382
8	0xbe22bf4a	-0.15893283
9	0x3c9b0322	0.018922392
10	0x3ddbf5b6	0.10740225
11	0x3d89519c	0.06705019
12	0x3e431378	0.19050395
13	0x3cce4238	0.02517806
14	0xbd97d17f	-0.07413005
15	0xbcc5f9af	-0.02416691
16	0x3e18550c	0.14876193
17	0xbd9f272d	-0.07771144
18	0xbc3e450d	-0.011613143
19	0x3dbb98f5	0.091600336
20	0x3d924dc2	0.071437374
21	0xbd90883a	-0.07057233
22	0xbdc4d0a7	-0.0961011
23	0xbe248143	-0.16064934
24	0xbe30d25d	-0.17267747
25	0x3d940fd2	0.0722958
26	0xbde71f75	-0.11285297
27	0x3e448b38	0.19193733
28	0x3d364f85	0.04450943
29	0xbe410583	-0.18849759
30	0xbe25a89d	-0.16177602
31	0x3e9d7bd3	0.30758533
32	0xbce9fbff	-0.028562544
33	0xbe0fe479	-0.14051999
34	0x3d658c07	0.056041744
35	0xbca25fd1	-0.01982108
36	0xbd2ec1fa	-0.04266546
37	0x3d11fd70	0.035642087
38	0xbe0a629c	-0.13514179
39	0xbd5fcfed	-0.054641653
40	0xbcae64cf	-0.021288304
41	0x3db67b4b	0.08910235
42	0xbdf45a4b	-0.119312845
43	0xbe00952a	-0.12556902
44	0x3d90e100	0.07074165
45	0x3e2abaa8	0.16672766
46	0x3ca06b2a	0.01958235
47	0x3d2e1c72	0.042507596
48	0x3d9fa5c3	0.077952884
49	0xbd55c7d9	-0.052192543
50	0x3da735b6	0.081645414
51	0x3e44d9ca	0.19223705
52	0x3e3b9d92	0.18321827
53	0xbe2f71cb	-0.17133252
54	0x3e07b7e6	0.13253745
55	0x3e00bfda	0.12573186
56	0x3daed696	0.08537023
57	0xbe3dc62f	-0.18532632
58	0xbb8e3902	-0.004340292
59	0xbdfda908	-0.12385756
60	0xbcbd1184	-0.023079641
61	0x3dfce693	0.12348666
62	0xbd3d1246	-0.046160005
63	0x3d3aca2b	0.04560296
64	0xbdc91a2f	-0.09819447
65	0xbd613ef6	-0.054991685
66	0x3ddf887c	0.10914704
67	0x3b859ea8	0.004077751
68	0xbe492a98	-0.19645154
69	0xbe146ac7	-0.14493857
70	0xbd13f001	-0.036117557
71	0xbdc84ece	-0.09780656
72	0xbe0a21bd	-0.13489433
73	0xbe6c49db	-0.23075049
74	0xbdcd7dce	-0.10033761
75	0xbd5ba83d	-0.05362724
76	0xbbc7a82e	-0.0060930466
77	0x3e42d7e3	0.19027667
78	0x3a06fe35	0.0005149574
79	0x3d079352	0.03309948
80	0x3c3834f6	0.011243096
81	0x3d59bbd6	0.05315765
82	0xbe091b34	-0.13389283
83	0xbe3d1416	-0.18464693
84	0xbd4e1cfb	-0.050320607
85	0xbc2480fb	-0.010040517
86	0xbe460fd6	-0.19341978
87	0xbad4d967	-0.0016239107
88	0xbda75c3f	-0.081718914
89	0xbe5c8710	-0.21535897
90	0xbdda10ca	-0.106477335
91	0xbe0bf80e	-0.13668844
92	0xbe18023b	-0.14844601
93	0x3e032ffd	0.12811275
94	0x3ce16802	0.027515415
95	0xbd43b68e	-0.04778152
96	0x3dc11877	0.094284944
97	0xbd88a65b	-0.06672355
98	0x3e4b4809	0.19851698
99	0x3ccc6257	0.024949236
100	0xbd5d7cf0	-0.054074228
101	0x3d713276	0.058886014
102	0x3e5d0751	0.21584822
103	0x3d84d327	0.064855866
104	0x3e017378	0.12641704
105	0x3e200135	0.1562546
106	0x3c1c1a62	0.0095277745
107	0x3bea522f	0.0071509103
108	0x3c8cb4b5	0.017176012
109	0xbd8f6aff	-0.0700283
110	0xbe079fea	-0.13244596
111	0xbdbd3222	-0.09238078
112	0xbe712e39	-0.23552789
113	0xbd4af20f	-0.04954725
114	0xbd7f6f8e	-0.062362246
115	0xbe2f21b0	-0.17102695
116	0x3d8e79e1	0.0695684
117	0x3e00563c	0.12532896
118	0xbd163b70	-0.036677778
119	0xbe344366	-0.17603835
120	0xbbde0dbe	-0.0067765405
121	0x3d1a3540	0.03764844
122	0xbd41b2ac	-0.047289535
123	0xbda7e217	-0.0819742
124	0xbd32724f	-0.043566044
125	0xbd032b86	-0.03202393
126	0x3e1be606	0.15224466
127	0xbbcf88c6	-0.0063334433
128	0x3dc3483a	0.095352605
129	0xbcce9d07	-0.02522136
130	0x3d4cb153	0.049973797
131	0x3ba7826f	0.0051119844
132	0x3cfacf22	0.030616347
133	0x3dbb6e53	0.09151902
134	0x3d6b5f02	0.057463653
135	0xbe03c9ca	-0.12869945
136	0x3de9f316	0.11423318
137	0x3d9654da	0.07340403
138	0xbb1f2a71	-0.0024286772
139	0xbcef2e94	-0.029197015
140	0x3d5190bf	0.05116343
141	0x3e5774f6	0.21040711
142	0x3d2fd0b4	0.042923644
143	0x3e0a1276	0.13483605
144	0xbe931c0c	-0.28732336
145	0x3d9de9ce	0.0771061
146	0x3e0f6850	0.14004636
147	0xbd7e335b	-0.062060695
148	0x3d5d82b2	0.05407972
149	0x3e38ef9b	0.18060152
150	0x3cf493eb	0.029855689
151	0xbe18fdc1	-0.1494055
152	0xbe0ce14b	-0.13757817
153	0x3dd377d2	0.10325588
154	0xbe2d4db1	-0.16924168
155	0xbd976440	-0.07392168
156	0xbd4c3e58	-0.049864143
157	0x3e3037a5	0.17208727
158	0x3e1a60eb	0.15076034
159	0xbb62db9b	-0.0034615758
160	0x3d8d5667	0.069012456
161	0xbe399581	-0.18123437
162	0xbc9815e0	-0.018565118
163	0xbd9d7961	-0.07689167
164	0xbe452ea0	-0.19256067
165	0x3e3459aa	0.17612329
166	0xbdf9d675	-0.121991076
167	0x3e5b3ce4	0.21409947
168	0x3e330fa2	0.17486432
169	0xbe720a61	-0.23636772
170	0xbde6ff9b	-0.112792216
171	0x3d8c8db6	0.06862967
172	0x3d019b80	0.031642437
173	0xbdbd3233	-0.0923809
174	0x3d95da86	0.07317071
175	0xbd74bb6d	-0.059749056
176	0xbde12015	-0.10992447
177	0x3db04660	0.08607173
178	0xbd639e54	-0.055570915
179	0x3e606152	0.21912125
180	0xbe03fc9c	-0.12889332
181	0xbd5d460e	-0.054021887
182	0xbdc75fa8	-0.09735042
183	0x3cf9f775	0.030513505
184	0x3e188386	0.14893922
185	0x3d53b869	0.05168954
186	0x3de2ab71	0.11067856
187	0xbdc0ba92	-0.094105855
188	0x3d7b87fe	0.06140899
189	0xbe2bf69a	-0.1679329
190	0x3e55a992	0.20865467
191	0xbd11c64d	-0.035589505
192	0x3d950091	0.07275499
193	0xbdc90bc4	-0.09816697
194	0x3e1a711f	0.15082215
195	0x3c9c8112	0.019104514
196	0x3ce65509	0.02811672
197	0xbe4832d0	-0.19550633
198	0xbe174da4	-0.14775711
199	0x3de4f634	0.11179772
200	0xbdb98805	-0.09059147
201	0xbe1a2250	-0.15052152
202	0x3d86aafe	0.06575583
203	0x3d33d2e8	0.043902308
204	0xbcaf412b	-0.02139338
205	0x3e45510f	0.19269203
206	0xbe5100d9	-0.2041048
207	0xbe3d2b23	-0.18473487
208	0xbd67ee93	-0.056624006
209	0xbd456582	-0.04819251
210	0x3dd7fae9	0.10545904
211	0xbbf2a348	-0.0074047185
212	0x3e6e8b50	0.23295331
213	0x3da44528	0.08021003
214	0xbe4085a4	-0.1880098
215	0x3d85e5a0	0.06537938
216	0x3ca42614	0.020037688
217	0xbbca3f47	-0.006172094
218	0xbe092ad7	-0.13395248
219	0x3cedc9dc	0.029026918
220	0x3e085bad	0.13316222
221	0xbd9944fd	-0.074838616
222	0xbd98a374	-0.07453051
223	0x3ce8345e	0.028345283
224	0x3df7e840	0.12104845
225	0x3dd8b6cf	0.10581743
226	0xbc8a3cf3	-0.016874766
227	0x3d4fdabb	0.050745707
228	0x3dcd3007	0.10018926
229	0xbe60bf6a	-0.21948019
230	0x3d789a7c	0.060694203
231	0xbb1984e7	-0.0023425163
232	0x3c0c76c2	0.008573236
233	0xbe39e021	-0.18151905
234	0xbd9252b1	-0.071446784
235	0x3e76e013	0.24108915
236	0x3e60affd	0.21942134
237	0xbdb864a2	-0.09003569
238	0x3dfcc65e	0.12342523
239	0x3df077a6	0.11741571
240	0x3b101754	0.002198656
241	0x3cab69e2	0.020924512
242	0xbd8e766c	-0.06956181
243	0x3d6912e4	0.05690278
244	0xbde17aa2	-0.110097185
245	0x3d4c08e1	0.049813155
246	0xbdc74335	-0.097296156
247	0xbe1fc564	-0.15602642
248	0x3c98da52	0.01865879
249	0xbc5f0138	-0.01361113
250	0x3daa7268	0.083226025
251	0x3cbb84dc	0.0228905
252	0xbdfb7cdc	-0.122796744
253	0x3da12bdd	0.078696944
254	0x3da67d04	0.081293136
255	0x3c261699	0.010137224

bias_ih_l0 f4 [128]
0	0xbda6a93b	-0.08137747
1	0xbde86893	-0.11348071
2	0x3d1033fc	0.035205826
3	0x3dc58b7b	0.096457444
4	0x3d33174e	0.043723397
5	0x3db6e1f6	0.089298174
6	0x3e322237	0.17395864
7	0xbdc78bde	-0.097434744
8	0xbc9100c9	-0.01770057
9	0x3d9289a4	0.07155159
10	0xbe0be9ef	-0.13663457
11	0xbe15149d	-0.14558645
12	0xbc4f328f	-0.012646331
13	0x3e0c7727	0.13717328
14	0xbe194a27	-0.14969693
15	0x3d1f4a34	0.038889125
16	0x3c59f466	0.013302898
17	0x3e07aa45	0.13248546
18	0x3e2f5547	0.17122374
19	0xbdc449de	-0.095844015
20	0x3e02318f	0.12714218
21	0xbc9d704f	-0.019218592
22	0xbe1fb74f	-0.1559727
23	0xbd32eb44	-0.043681398
24	0x3b4c6061	0.0031185376
25	0x3a5f3536	0.0008514704
26	0x3d528560	0.051396728
27	0x3c927d2f	0.017881958
28	0x3dcaa897	0.09895437
29	0x3dc5c29e	0.09656261
30	0x3e168d5e	0.14702365
31	0x3add3de2	0.0016879404
32	0x3e20d1f5	0.15705092
33	0xbe15bc11	-0.14622523
34	0xbe1a4d5f	-0.15068577
35	0xbde0491f	-0.10951447
36	0xbd404a3a	-0.046945788
37	0x3d7658ab	0.060143154
38	0xbbc25eec	-0.0059317257
39	0x3e2fd2ad	0.1717021
40	0x3e2abcac	0.16673535
41	0x3e452ed4	0.19256145
42	0x3d177ec0	0.036986113
43	0x3e34f9d3	0.17673425
44	0xbddb6288	-0.10712153
45	0x3e0f11b2	0.13971594
46	0x3c3460f4	0.011009444
47	0xbd8305eb	-0.06397613
48	0xbde4b96c	-0.11168179
49	0x3e556c5e	0.2084212
50	0x3e228793	0.1587203
51	0x3e324250	0.17408109
52	0x3c921589	0.017832534
53	0x3df8dc83	0.12151434
54	0xbdd911b7	-0.10599082
55	0x3d48e765	0.0490488
56	0xbcb41b26	-0.021985602
57	0x3dea8a90	0.1145221
58	0x3d29c370	0.04144615
59	0x3e3df39d	0.18549962
60	0xbe16f0ec	-0.14740342
61	0x3cf92bf7	0.030416472
62	0xbc04cf54	-0.0081060715
63	0xbd231e24	-0.039823666
64	0xbdc1e985	-0.094683684
65	0x3d3308f6	0.043709718
66	0x3df6829c	0.120366305
67	0xbe1f11f3	-0.15534191
68	0x3c3d0700	0.011537313
69	0x3d93a948	0.07210022
70	0x3dd2c3e0	0.102912664
71	0x3d8d3490	0.06894791
72	0x3e0a87a8	0.13528311
73	0xbd4c7d26	-0.04992404
74	0x3d86457c	0.06556222
75	0x3d2dff59	0.042479847
76	0x3d796837	0.060890403
77	0x3c2d73a5	0.010586654
78	0x3dc99947	0.098436885
79	0xbe0459e2	-0.12924913
80	0xbe2b9c91	-0.16758944
81	0xbdbee718	-0.093214214
82	0x3e274ab2	0.16337088
83	0xbd8c8d2e	-0.068628654
84	0x3d02bd70	0.031918943
85	0xbe316133	-0.17322235
86	0xbde12098	-0.10992545
87	0x3e450a3a	0.19242182
88	0xbe125250	-0.14289212
89	0xbca9ed8b	-0.020743152
90	0x3dce8900	0.100847244
91	0x3c8bda00	0.017071724
92	0x3ce4db6f	0.027936665
93	0xbddf46b3	-0.10902157
94	0xbdc52146	-0.09625487
95	0x3d26a3ab	0.04068343
96	0xbd093750	-0.033500016
97	0x3e0a75a1	0.13521434
98	0x3dd7ff1c	0.10546705
99	0x3de9986d	0.11406026
100	0x3e20063e	0.15627381
101	0x3e297faf	0.16552614
102	0x3e67d615	0.2264026
103	0x3c1c8182	0.009552361
104	0x3c914cc5	0.017736802
105	0x3e59ff1c	0.21288723
106	0xbc4a5756	-0.012349924
107	0xbdad4f54	-0.08462396
108	0xbe023441	-0.12715246
109	0x3e3968ae	0.18106338
110	0x3d6b0d71	0.057385866
111	0x3d6773a9	0.056506786
112	0x3d905226	0.070469186
113	0xbd8f8c85	-0.07009224
114	0x3e090879	0.13382138
115	0x3d87cd4b	0.066309534
116	0xbd7d8e1c	-0.061903104
117	0x3e17c63b	0.14821713
118	0xbc84258a	-0.016131181
119	0xbde96821	-0.11396814
120	0x3e52e256	0.20594153
121	0x3b973093	0.004613945
122	0x3e2d68e4	0.16934544
123	0xbd11bb44	-0.03557898
124	0xbdbd9707	-0.09257322
125	0x3d58e16f	0.052949365
126	0x3e083869	0.13302769
127	0xbb8dc428	-0.004326362

bias_hh_l0 f4 [128]
0	0x3e1734b2	0.14766195
1	0x3e1582fd	0.1460075
2	0xbd0dbf97	-0.034606542
3	0xbd946cf4	-0.07247344
4	0x3e0d1065	0.13775785
5	0x3e3539ed	0.17697878
6	0xbd94cea4	-0.07265976
7	0x3bd9e71b	0.0066498644
8	0x3d79c2c9	0.060976777
9	0x3e1321a3	0.143683
10	0x3d8c213d	0.06842277
11	0x3d815e10	0.06316769
12	0xbc465351	-0.012104825
13	0x3e15f947	0.14645873
14	0x3da2fe7e	0.07958697
15	0x3db83efa	0.08996387
16	0xbd1a997b	-0.037744027
17	0x3d5a932b	0.053363007
18	0x3da5d9b8	0.08098167
19	0xbe102f65	-0.1408058
20	0x3e07613e	0.13220689
21	0x3db8c338	0.0902161
22	0x3e0dbbc9	0.13841166
23	0xbdeff0b0	-0.11715829
24	0xbdd4bea6	-0.10387926
25	0xbda89064	-0.08230665
26	0x3c801c84	0.015638597
27	0xbda05838	-0.078293264
28	0x3dff9566	0.12479667
29	0x3df7570b	0.12077149
30	0x3bcb7134	0.006208563
31	0x3cfb28b7	0.030659063
32	0x3cbb2191	0.022843154
33	0x3d992ac0	0.07478857
34	0xbcdb39e6	-0.026761007
35	0xbba7578e	-0.005106873
36	0xbd15a45f	-0.03653371
37	0xbdda9171	-0.10672272
38	0xbe0422a3	-0.12903838
39	0xbdf236b6	-0.118268415
40	0xbdc25f49	-0.094908305
41	0x3c632e68	0.013866045
42	0xbd35a3c4	-0.044345632
43	0x3d915dc3	0.07097962
44	0x3d1948c5	0.037422914
45	0x3e1c79ce	0.1528084
46	0xbe14eccb	-0.14543454
47	0xbe0d3612	-0.13790157
48	0xbd351b5a	-0.044215538
49	0xbd53a97f	-0.051675316
50	0x3c60be35	0.013717224
51	0xbc56ab0d	-0.013102305
52	0x3c27c174	0.010238994
53	0x3d36d3e7	0.04463568
54	0x3d1f1d42	0.03884626
55	0xbdc9c7a7	-0.09852534
56	0x3b208727	0.002449462
57	0x3e2340ba	0.1594266
58	0xbd43e6e6	-0.047827624
59	0xbd0908e7	-0.033455756
60	0x3d51146e	0.051044874
61	0xbe25bdac	-0.16185635
62	0xbe02b4da	-0.12764302
63	0x3e0c6b79	0.13712873
64	0x3dad4537	0.08460467
65	0x3d7c868b	0.061651748
66	0xbd8bf944	-0.06834653
67	0xbdfa30a5	-0.122163095
68	0x3dae2608	0.08503348
69	0xbe0442ff	-0.12916182
70	0xbdcf6f4c	-0.1012865
71	0x3d8bd564	0.068278104
72	0xbe007526	-0.12544689
73	0x3e30e17c	0.17273515
74	0xbc1beb5c	-0.009516563
75	0x3e19675e	0.14980838
76	0x3cb466d6	0.022021692
77	0x3daaf194	0.083468586
78	0x3d9ab384	0.07553771
79	0xbcb82188	-0.022476926
80	0xbda127b8	-0.07868904
81	0x3d9faa63	0.077961706
82	0xbdf56a9b	-0.11983224
83	0x3cf10206	0.02941991
84	0x3da18e6d	0.07888494
85	0xbe06b0d0	-0.13153386
86	0x3cb16e3f	0.021659015
87	0x3e032b57	0.12809502
88	0xbda141ed	-0.078739025
89	0x3e4ea305	0.20179375
90	0xbdd3aa1b	-0.103351794
91	0x3d0805ac	0.033208534
92	0xbdf75f5b	-0.120787345
93	0xbe1738e6	-0.14767799
94	0x3e03dced	0.12877245
95	0xbe0e36fe	-0.13888165
96	0x3e6c6cc2	0.23088363
97	0x3de3b5a0	0.111186266
98	0x3b9fa917	0.004872452
99	0xbe1be963	-0.15225749
100	0xbc8a7f21	-0.016906323
101	0x3e3702e4	0.17872196
102	0x3e1b207a	0.15149108
103	0x3daa8d74	0.08327761
104	0x3d791411	0.060810152
105	0x3e67070b	0.2256128
106	0xbd897624	-0.06711987
107	0xbd82c565	-0.06385306
108	0xbdf4448a	-0.11927135
109	0x3d24bef0	0.040221155
110	0x3dfc2b48	0.12312943
111	0x3e2264ea	0.15858808
112	0x3e5fceb9	0.21856202
113	0xbc3fcdf4	-0.011706818
114	0xbdb47e79	-0.08813185
115	0x3d535a19	0.051599596
116	0xbda1efb9	-0.079070516
117	0xbd2bae54	-0.0419143
118	0x3dd67dd6	0.1047322
119	0x3e30f556	0.17281088
120	0x3da5a2c3	0.08087685
121	0x3e0593d7	0.13044678
122	0xbd2d570a	-0.042319335
123	0x3e196a68	0.14981997
124	0x3e3b557d	0.1829433
125	0x3df60c5b	0.12014075
126	0x3d6cf2c6	0.057848714
127	0x3d7754c9	0.06038359

weight_ih_l0_reverse f4 [128, 2]
0	0x3d7f184b	0.062279027
1	0xbebee718	-0.37285686
2	0x3e8f99e9	0.28047112
3	0xbdfe39df	-0.12413382
4	0xbe4fce0e	-0.20293447
5	0xbec3d436	-0.38247842
6	0x3d692838	0.05692312
7	0xbecd349c	-0.400792
8	0xbd9e1eec	-0.07720742
9	0xbe5ea20f	-0.21741508
10	0x3db79ffa	0.0896606
11	0xbeb3a710	-0.35088396
12	0x3e8e55e0	0.27799892
13	0x3e942c3a	0.28939992
14	0x3e0cc69f	0.13747643
15	0xbe97c1c4	-0.2964002
16	0xbdeb0086	-0.11474709
17	0xbf03878d	-0.5137871
18	0xbd758ae2	-0.059946902
19	0x3e2ec8fe	0.1706886
20	0xbef504e9	-0.4785531
21	0x3e0581f1	0.1303785
22	0x3ef14273	0.4712101
23	0xbe0b6ef6	-0.13616547
24	0xbdb465f8	-0.088085115
25	0xbdc0aa14	-0.0940744
26	0xbe5f4e4b	-0.2180721
27	0xbe1ec151	-0.15503432
28	0x3e816c4c	0.25277936
29	0x3d4a7452	0.049427338
30	0x3f084bba	0.5324055
31	0x3e349ead	0.17638655
32	0xbdcba215	-0.09943024
33	0xbe33ce8d	-0.17559262
34	0xbbc09788	-0.005877439
35	0x3d72cdcd	0.0592783
36	0xbe06c5f0	-0.13161445
37	0xbdab8c91	-0.0837642
38	0xbe872e04	-0.26402295
39	0x3e7536a8	0.23946631
40	0xbec81cee	-0.39084572
41	0x3e398448	0.18116868
42	0xbea51105	-0.32239547
43	0x3ed8fdb0	0.42381048
44	0xbf13e735	-0.5777467
45	0x3e1c5813	0.15267973
46	0x3eafe802	0.34356695
47	0xbdf58c67	-0.1198967
48	0xbeb0e1cf	-0.34547278
49	0x3ec294a7	0.38004038
50	0xbef845b3	-0.48490676
51	0xbe987493	-0.2977644
52	0x3d853c66	0.06505661
53	0x3e61be9a	0.22045365
54	0xbd6f71c8	-0.05845812
55	0x3eb2b08b	0.34900317
56	0x3e1c9103	0.15289693
57	0xbbb1a2c7	-0.005421016
58	0x3dcb1b40	0.09917307
59	0x3e5b8836	0.21438679
60	0xbe16d6aa	-0.14730325
61	0xbb9be7f9	-0.004757878
62	0x3dcbe25d	0.09955285
63	0x3c4c257e	0.012460111
64	0xbda892ac	-0.082311004
65	0xbdd62e6c	-0.10458073
66	0x3e934392	0.2876249
67	0xbe8169d7	-0.25276062
68	0xbe23bd41	-0.15990163
69	0xbe7564df	-0.2396426
70	0x3c262b65	0.010142182
71	0xbec449f2	-0.38337666
72	0xbda463d4	-0.08026853
73	0xbdfa531f	-0.12222885
74	0x3e889380	0.26675034
75	0xbdca7948	-0.09886414
76	0xbd206f7e	-0.039168827
77	0x3e9ae431	0.3025222
78	0x3e4bf52c	0.19917744
79	0xbdab762c	-0.08372149
80	0x3d43cc76	0.04780241
81	0xbe24fe1a	-0.16112557
82	0x3d955bcc	0.072928995
83	0xbdaea504	-0.08527568
84	0xbdf49a59	-0.11943502
85	0x3d2bcbdd	0.041942466
86	0x3e3e3b09	0.18577208
87	0xbdc81737	-0.09770053
88	0x3d363ad0	0.04448968
89	0x3adb0c50	0.0016712043
90	0xbd79649d	-0.060886968
91	0xbdbc2b5f	-0.0918796
92	0x3e313f9e	0.17309424
93	0xbe0543eb	-0.1301419
94	0x3e771b89	0.24131598
95	0x3d8dafb0	0.06918275
96	0x3c326965	0.010889386
97	0xbe48e07e	-0.19616887
98	0xbd1ddc33	-0.038540076
99	0x3e50a374	0.20374852
100	0xbd9a3a50	-0.075306535
101	0xbcde4e82	-0.027137045
102	0xbe6ab6aa	-0.22921243
103	0x3e074ee6	0.13213691
104	0xbe74b6de	-0.23897883
105	0x3e4931e2	0.19647935
106	0xbe48c042	-0.1960459
107	0x3e576947	0.21036254
108	0xbe08ef64	-0.1337257
109	0x3d2b822f	0.0418722
110	0x3ca9be6b	0.020720681
111	0xbe331621	-0.1748891
112	0xbd61a55a	-0.055089332
113	0x3d28c493	0.041203093
114	0xbe45f9a2	-0.19333509
115	0xbeada0e6	-0.33911818
116	0x3d638dd3	0.055555176
117	0x3dcaf559	0.099100776
118	0x3da1c2b8	0.07898468
119	0x3d826dbf	0.06368589
120	0xbdd621a2	-0.10455634
121	0x3e176196	0.1478332
122	0x3e671e06	0.22570047
123	0x3e3675e9	0.17818417
124	0xbd7ad2f3	-0.061236333
125	0x3cddd555	0.027079264
126	0x3e43d267	0.19123231
127	0xbd6447cf	-0.055732545
128	0xbd9e3170	-0.07724273
129	0xbe99d8b2	-0.30048138
130	0xbc561727	-0.013067043
131	0x3ea537e3	0.322692
132	0x3cc2e49c	0.02379065
133	0x3e994836	0.29937905
134	0xbe0dc974	-0.1384638
135	0xbece7eea	-0.40331203
136	0x3e523c10	0.20530725
137	0x3ef169c1	0.47150996
138	0x3ed1ce45	0.40977684
139	0xbe548c41	-0.20756628
140	0xbe18dd8f	-0.14928268
141	0xbeec939c	-0.46206367
142	0xbf278f50	-0.6545305
143	0x3e9cae87	0.30601904
144	0xbddcf0d1	-0.107881196
145	0xbeba559c	-0.3639344
146	0xbe579c2b	-0.21055667
147	0x3eb74c91	0.35800603
148	0x3ef8a5d0	0.48564005
149	0x3c9f09f3	0.019413924
150	0x3efb379a	0.49065858
151	0xbd9ec4b2	-0.077523604
152	0x3e82ace7	0.2552254
153	0xbce95d32	-0.028486822
154	0x3e7318e3	0.23739962
155	0x3e5090d5	0.20367749
156	0x3dc567d3	0.096389435
157	0xbea5d812	-0.3239141
158	0x3f093ff8	0.53613234
159	0x3e465f73	0.19372348
160	0x3da65528	0.08121711
161	0x3e7f2b2b	0.24918811
162	0x3e0e9871	0.1392534
163	0x3ed68582	0.41898733
164	0x3cbefe4a	0.023314614
165	0xbee22cf2	-0.44174916
166	0xbee8fad8	-0.4550388
167	0x3e2b6f81	0.16741754
168	0xbedf2870	-0.4358554
169	0x3df50bc6	0.11965136
170	0x3e527393	0.205519
171	0xbeb25c3a	-0.34835988
172	0xbf0b318e	-0.5437249
173	0x3d93823c	0.072025746
174	0xbd56b47b	-0.052418213
175	0x3e95e1e6	0.2927391
176	0xbeb8218c	-0.35963094
177	0x3f181452	0.59406006
178	0x3ed33295	0.4124953
179	0x3ee37344	0.44423878
180	0xbda227f4	-0.07917777
181	0xbec27270	-0.37977934
182	0xbe42c964	-0.19022137
183	0xbe78d781	-0.24300958
184	0xbedf3728	-0.43596768
185	0x3e17e946	0.1483508
186	0x3ed06027	0.40698358
187	0x3e5cd59d	0.21565862
188	0x3e819523	0.25309095
189	0xbe42218d	-0.18958111
190	0x3e9df0a8	0.3084767
191	0xbddce081	-0.10785008
192	0x3e12f32e	0.14350578
193	0xbe341c7e	-0.17588994
194	0x3e367fc6	0.17822179
195	0xbe1f338b	-0.15547006
196	0xbe176fb3	-0.14788704
197	0xbea95999	-0.3307617
198	0xbe6f2a50	-0.23355985
199	0xbebad49d	-0.36490336
200	0xbddae407	-0.10688024
201	0x3d1ab426	0.03776946
202	0x3d1c37ae	0.038139038
203	0xbdb32f02	-0.087492004
204	0xbdd31cce	-0.103082284
205	0x3e0e4b8a	0.13896003
206	0x3e82a5f3	0.25517234
207	0xbe87eb53	-0.26546726
208	0xbe965fb6	-0.29369897
209	0xbef77d43	-0.48337755
210	0xbb12100b	-0.0022287394
211	0xbd2cea57	-0.04221567
212	0xbd0a1cf5	-0.03371902
213	0xbe1a2649	-0.15053667
214	0x3ef5496a	0.47907573
215	0xbdfb80a9	-0.12280399
216	0xbd1c201d	-0.038116563
217	0xbe083aca	-0.13303676
218	0xbe9eaf08	-0.30992913
219	0x3d425274	0.047441915
220	0x3e319493	0.17341833
221	0x3d6955a2	0.05696643
222	0x3ea58e1d	0.32334986
223	0x3e151c7e	0.1456165
224	0x3e51dc50	0.20494199
225	0xbd9b8122	-0.075929895
226	0x3e585735	0.21127017
227	0xbd2458c9	-0.040123735
228	0xbe4dff75	-0.2011698
229	0xbdcfe461	-0.10150982
230	0xbece5760	-0.40301037
231	0x3e8b63bc	0.2722453
232	0xbe9f9927	-0.31171533
233	0xbe3c42d6	-0.18384871
234	0xbe93b979	-0.28852442
235	0x3f190929	0.597796
236	0xbef3ee41	-0.4764271
237	0xbe225b02	-0.15855029
238	0xbce5c86a	-0.028049666
239	0xbdcadbdb	-0.09905215
240	0xbe7d5ec5	-0.24743183
241	0x3ef2b212	0.47401482
242	0xbe4e1dbc	-0.2012853
243	0xbee5de07	-0.44895956
244	0xbd688547	-0.05676773
245	0x3eb68e77	0.35655567
246	0xbda9740b	-0.082740866
247	0x3e387054	0.180116
248	0x3edc521b	0.43031392
249	0xbe289506	-0.16463098
250	0x3e02576c	0.12728661
251	0x3c20945f	0.009800999
252	0xbd92a091	-0.07159532
253	0xbd45b33e	-0.04826664
254	0x3c3c4aed	0.011492473
255	0xbdc9bae0	-0.09850097
