TS-CVAE/experiments/pedestrians/models/zara1/models_22_Jun_2021_00_46_21_zara1_ar3/model_registrar-39.pt (torch_old, 545378 bytes, 43 tensors)

weight_ih_l0 f4 [128, 6]
-0.08007082 0.04659644 -0.06805801 0.013382993 -0.13800114 0.02295462 -0.1516516 -0.23490593
-0.06626315 0.2895322 -0.14558302 -0.0015005722 -0.075058915 0.04895838 -0.12872536 -0.17100298
-0.1254076 0.09421591 -0.0016674442 0.103335544 0.06167382 0.03978645 -0.15246055 0.16242614
-0.09769157 -0.13845576 -0.03343903 0.38586372 -0.11745271 -0.085799426 0.30001235 -0.024699496
-0.076612644 0.17849147 0.23789725 -0.07683774 -0.28635597 -0.14719503 -0.0156227695 0.03275607
-0.14952636 -0.28375015 -0.09102017 0.3448759 0.13628453 -0.09679604 -0.047835104 0.08357327
0.39614773 0.066323854 0.1289098 -0.06542372 -0.052069753 0.026693191 -0.17750476 -0.2667487
0.03322196 0.26879147 -0.019529706 -0.24181019 0.19066861 -0.1171242 -0.36167958 0.12515429
-0.16926152 0.15450951 -0.20047268 -0.054595415 0.02348755 0.1804479 0.12970276 0.18574469
-0.021075051 0.017180143 -0.06702529 -0.1757183 0.013862415 -0.20642291 0.07664561 0.28732294
0.10488017 -0.034676008 0.0136671085 0.15771715 -0.2791912 -0.04330828 -0.26133558 0.16881949
0.38761795 -0.1396977 -0.11036182 0.15934896 0.20247108 -0.02392883 -0.1495276 0.15332174
-0.021540018 0.2697434 0.2709286 0.002362132 -0.1533992 -0.412426 0.095991544 -0.24099594
-0.012724713 0.036454752 0.03841217 0.1434502 0.023932867 0.12271099 0.21891347 -0.15993628
0.16509941 0.2351367 -0.21051574 -0.11283215 0.047184028 0.24487214 0.15128918 0.15040514
-0.23345026 0.27538693 0.10492988 -0.21078454 0.0059593087 0.05711887 0.23400664 0.33476114
-0.19400524 -0.15072708 0.084829204 0.05921708 -0.12548132 -0.18844077 0.055460967 0.07145589
-0.034417562 0.009607403 -0.025027147 -0.047601018 0.084786035 -0.10554235 0.11019704 0.005430696
0.0609166 -0.102740236 -0.16755027 0.068751454 -0.33795854 -0.088451274 -0.082571566 -0.043336276
-0.106421456 0.024452066 0.12807515 0.13285139 0.048214708 -0.19227183 -0.29308987 0.15070294
0.14286396 0.10891287 0.06479418 0.30695334 0.29187864 0.24904133 -0.15876827 0.16546671
-0.04097701 0.17451563 -0.09320529 0.093679026 0.086549275 0.12994161 -0.07498527 -0.144451
-0.156929 0.008967217 0.058758304 0.067223944 -0.051264122 -0.105711274 0.2009519 0.002192504
-0.15745261 -0.12989223 -0.16036166 0.12310205 0.16945878 -0.19371603 -0.19070959 -0.010902067
0.16434093 0.16876183 -0.13780661 -0.1145821 -0.097298644 -0.21243843 0.19437559 0.011928131
0.001852445 0.02997392 0.12231443 0.1592417 -0.18024495 0.061110977 0.0023390427 -0.021894095
-0.069590226 -0.05144103 0.01358004 0.025230546 0.045088165 -0.1037437 -0.18422373 -0.23765711
-0.0404927 -0.12659913 0.11889354 0.21185926 -0.29032534 -0.20277466 0.19425969 -0.13917424
0.024041928 -0.14163704 -0.34555292 -0.0015976717 0.011084337 -0.072567195 0.0345546 0.015572124
-0.08533485 0.13329278 0.0020388202 -0.04936798 0.248705 -0.17021176 -0.030248709 0.043066192
0.45097634 -0.21700706 -0.17267533 0.03531455 -0.43956727 0.2818652 -0.18305238 -0.121407814
0.1635667 0.1255063 0.13659123 0.08688232 0.16823643 -0.16227634 -0.15218854 0.09899793
00000000: 2cfc a3bd e9db 3e3d ff61 8bbd 5744 5b3c
00000010: 2c50 0dbe 540b bc3c 8f4a 1bbe 2e8b 70be
00000020: f9b4 87bd 913d 943e b713 15be d9ae c4ba
00000030: 7db8 99bd 9588 483d 95d0 03be 681b 2fbe
00000040: da6a 00be 45f4 c03d 258e daba 96a1 d33d
00000050: b09d 7c3d 1ef7 223d 9e1e 1cbe 0a53 263e
00000060: 8512 c8bd 59c7 0dbe 5df7 08bd ee8f c53e
00000070: 0c8b f0bd 9cb7 afbd 389b 993e 9956 cabc
00000080: 17e7 9cbd 78c6 363e 569b 733e 1b5d 9dbd
00000090: 409d 92be 4bba 16be a5f6 7fbc 3b2b 063d
000000a0: 701d 19be b347 91be c868 babd 9393 b03e
000000b0: 2c8e 0b3e 013d c6bd beee 43bd 7628 ab3d
000000c0: e0d3 ca3e cdd4 873d ee00 043e dffc 85bd
000000d0: 1847 55bd aeab da3c cfc3 35be 4993 88be
000000e0: c013 083d 099f 893e c3fc 9fbc 179d 77be
000000f0: a23e 433e d0de efbd 112e b9be 7228 003e
00000100: e452 2dbe be37 1e3e b648 4dbe 719f 5fbd
00000110: f668 c03c 56c7 383e cdd0 043e db33 3e3e
00000120: 96a5 acbc 5fbd 8c3c 8e44 89bd 7fef 33be
00000130: 2f1f 633c 8760 53be 60f8 9c3d fe1b 933e
00000140: 6acb d63d 6e08 0ebd 02ec 5f3c 9b80 213e
00000150: 26f2 8ebe 0664 31bd c7cd 85be 04df 2c3e
00000160: dc75 c63e ea0c 0fbe 6105 e2bd 602c 233e
00000170: 9454 4f3e 6506 c4bc c31d 19be 6000 1d3e
00000180: b174 b0bc cf1b 8a3e 27b7 8a3e 00ce 1a3b
00000190: ae14 1dbe 8029 d3be 3797 c43d a4c7 76be
000001a0: 517b 50bc 9451 153d 1456 1d3d 9ce4 123e
000001b0: dc0e c43c e64f fb3d da2a 603e 56c6 23be
000001c0: d20f 293e adc7 703e 7091 57be 8b14 e7bd
000001d0: 0a44 413d c3bf 7a3e 8deb 1a3e ce03 1a3e
000001e0: 960d 6fbe 84ff 8c3e 7ae5 d63d e7d7 57be
000001f0: 4e46 c33b 7af5 693d 709f 6f3e d065 ab3e
00000200: 4fa9 46be 3358 1abe efba ad3d 9c8d 723d
00000210: 2d7e 00be 9ef6 40be 0a2b 633d 7757 923d
00000220: 6ef9 0cbd 5e68 1d3c bb05 cdbc 49f9 42bd
00000230: 4da4 ad3d 9626 d8bd fcae e13d fbf3 b13b
00000240: af83 793d 7969 d2bd 4c92 2bbe 90cd 8c3d
00000250: e708 adbe f125 b5bd 481b a9bd 6181 31bd
00000260: 7ef3 d9bd b34f c83c 2226 033e 320a 083e
00000270: c97c 453d e8e2 44be e00f 96be df51 1a3e
00000280: ee4a 123e b60d df3d d0b2 843d fd28 9d3e
00000290: 1e71 953e b104 7f3e 2694 22be 1b70 293e
000002a0: 82d7 27bd 3ab4 323e 6ae2 bebd cada bf3d
000002b0: bf40 b13d 6a0f 053e e191 99bd f7ea 13be
000002c0: ffb1 20be 3ceb 123c 8cac 703d b5ac 893d
000002d0: 54fa 51bd 277f d8bd 56c6 4d3e 1db0 0f3b
000002e0: 423b 21be 7802 05be d935 24be ed1c fc3d
000002f0: 9a86 2d3e 7f5d 46be 6049 43be 959e 32bc
00000300: fd48 283e e7cf 2c3e 2d1d 0dbe 05aa eabd
00000310: 8344 c7bd 7689 59be 650a 473e 356e 433c
00000320: bdcd f23a de8b f53c fd7f fa3d 4210 233e
00000330: 2292 38be 814f 7a3d a04a 193b 3f5b b3bc
00000340: 5285 8ebd d4b3 52bd d17e 5e3c 4ab0 ce3c
00000350: 5eae 383d 9477 d4bd 25a5 3cbe 635c 73be
00000360: acdb 25bd 34a3 01be 757e f33d a2f1 583e
00000370: 86a5 94be 29a4 4fbe 03ec 463e b183 0ebe
00000380: 94f3 c43c 4d09 11be 50ec b0be f768 d1ba
00000390: 149b 353c 1c9e 94bd 2089 0d3d 3922 7f3c
000003a0: 0ac4 aebd e77d 083e ba9d 053b 1436 4abd
000003b0: 86ac 7e3e fe4b 2ebe 24cc f7bc 2d66 303d
000003c0: 5fe6 e63e 1937 5ebe cdd1 30be fda5 103d
000003d0: f60e e1be a350 903e 1572 3bbe a9a4 f8bd
000003e0: 077e 273e b984 003e 92de 0b3e 5cef b13d
000003f0: 2c46 2c3e c52b 26be 50d7 1bbe 6dbf ca3d

weight_hh_l0 f4 [128, 32]
-0.057269868 -0.18359555 0.12899818 0.1646709 0.09247637 0.020623779 -0.14347896 -0.03338915
0.08206628 0.17975052 -0.08212736 0.27996552 -0.15591079 0.088168055 0.07971639 0.055943348
-0.025004871 -0.06962588 0.094582506 -0.17475064 -0.23408647 0.046606306 -0.10993459 -0.28160957
0.17423277 -0.12894219 0.093138546 0.22081347 0.069473974 0.17737266 0.063978545 -0.14500952
0.02612404 -0.25731206 0.15478343 -0.04517319 0.08690014 0.27563867 -0.048030008 -0.11382359
0.22925702 -0.014636641 -0.30141574 0.04979524 -0.24469028 0.14953455 0.12017914 0.0011293768
0.042624757 0.110119 -0.10668154 -0.08498076 -0.11603425 0.06723238 -0.1278111 -0.11775205
0.035050344 -0.08171215 -0.022781247 -0.15251245 -0.10110358 0.13523503 0.10160384 -0.19599277
0.08807762 -0.18447305 -0.101535335 0.10893848 0.27313274 0.09805637 -0.17299074 -0.25350899
-0.11514152 0.21989971 -0.1766249 0.20060857 -0.053273186 -0.07700962 0.120399 -0.28509066
0.034834437 -0.01973422 0.10084689 -0.11775675 0.04827012 0.059850823 0.0123059945 0.12012066
0.30109733 0.12115554 0.114314675 0.21656357 0.11530013 0.037752427 -0.09050817 0.06505122
-0.012649357 -0.14206526 0.13172677 0.12858829 -0.01563644 0.10121411 -0.1512408 0.07867379
0.0874899 0.0746059 -0.3439172 0.042895954 -0.21476176 -0.18008706 -0.32268065 -0.18437548
-0.16054365 0.09682617 0.089551814 -0.32192057 -0.084613234 0.26072016 0.04791779 -0.16957253
-0.0661402 -0.09998732 -0.03325435 -0.044146184 -0.26658517 0.212922 0.20153245 -0.01828959
-0.24768321 -0.34080967 0.46377465 -0.16502164 0.09707186 0.1422452 -0.10015767 0.010264456
0.6822106 -0.20715475 -0.35051078 0.02851807 -0.021285927 -0.03301585 -0.56435955 0.004175172
-0.2981789 -0.051136196 0.77277166 -0.8501754 0.019850925 0.68338734 0.047402415 -0.22349174
-0.24198633 -0.2942449 0.173615 -0.95879334 -0.607002 -0.0026719582 0.19819054 0.19425228
0.13703248 -0.030819764 0.1054858 -0.14295107 0.028413098 0.03409733 0.04069972 -0.20078579
-0.08520697 0.15186542 0.046270926 -0.079937994 -0.21141669 0.057812095 -0.012020608 -0.21139993
0.05491812 0.1563628 -0.31129774 0.18739231 -0.009296268 -0.004566013 -0.21790224 -0.04865437
0.020654963 -0.19391643 0.16866784 0.24721693 0.11753709 0.14519286 0.21399339 -0.02476191
-0.011147461 -0.0484429 -0.15245408 0.07980701 0.06725447 0.039346453 0.0077097113 -0.32954976
-0.15644845 0.184764 -0.1780172 0.11769026 -0.082611546 0.2396983 0.085906774 -0.042251747
0.029514516 -0.0897817 -0.109671205 -0.101778224 -0.05802806 0.16263977 0.039554324 -0.05251683
-0.03838764 0.067494 0.23315878 0.17487872 -0.0876772 0.17653926 -0.07428041 0.08042066
0.185734 -0.15779462 0.064193465 0.093957216 -0.027421705 0.17426242 0.04765806 -0.062289763
0.028126992 -0.11482289 -0.1406289 -0.15984315 0.2272118 0.013529817 0.11154703 0.073813595
0.098122455 -0.062102173 -0.057406053 -0.09509541 -0.26626006 0.18739305 -0.026655333 -0.22550632
0.01716032 0.10437652 0.098729774 0.09186192 0.118381724 0.20072402 -0.041799482 0.18704377
00000000: cf93 6abd 7900 3cbe 1918 043e 7d9f 283e
00000010: 4064 bd3d 33f3 a83c 26ec 12be 10c3 08bd
00000020: 5e12 a83d 8510 383e 6432 a8bd a457 8f3e
00000030: 14a7 1fbe 7491 b43d 5942 a33d da24 653d
00000040: 04d7 ccbc 0398 8ebd 79b4 c13d d5f1 32be
00000050: 5db4 6fbe 41e6 3e3d 6325 e1bd 212f 90be
00000060: 136a 323e 6c09 04be 6cbf be3d ed1c 623e
00000070: 5f48 8e3d 2ea1 353e 2f07 833d 607d 14be
00000080: 1502 d63c 68be 83be 8c7f 1e3e 8607 39bd
00000090: b3f8 b13d 8320 8d3e 1dbb 44bd 581c e9bd
000000a0: 5ac2 6a3e 86ce 6fbc 2a53 9abe 18f6 4b3d
000000b0: 1790 7abe 961f 193e 7b20 f63d 9907 943a
000000c0: 4c97 2e3d 1286 e13d da7b dabd 650a aebd
000000d0: 5da3 edbd 21b1 893d eae0 02be fd27 f1bd
000000e0: f390 0f3d b358 a7bd bd9f babc 392c 1cbe
000000f0: 650f cfbd 0d7b 0a3e ad15 d03d 54b2 48be
00000100: 0a62 b43d 81e6 3cbe c2f1 cfbd 231b df3d
00000110: 0ed8 8b3e c7d1 c83d 7c24 31be eecb 81be
00000120: 51cf ebbd 642d 613e 28dd 34be 556c 4d3e
00000130: fc34 5abd 38b7 9dbd c093 f63d 67f7 91be
00000140: 8eae 0e3d a9a9 a1bc d088 ce3d 732a f1bd
00000150: e4b6 453d 2326 753d 159f 493c d201 f63d
00000160: 6e29 9a3e 6520 f83d d01d ea3d d7c2 5d3e
00000170: 7922 ec3d 4aa2 1a3d 595c b9bd 9339 853d
00000180: 403f 4fbc 8e79 11be 62e3 063e a6ac 033e
00000190: fe17 80bc 5849 cf3d dede 1abe b91f a13d
000001a0: e82d b33d faca 983d ea15 b0be abb3 2f3d
000001b0: 82ea 5bbe be68 38be 6636 a5be edcc 3cbe
000001c0: 8e65 24be cd4c c63d f166 b73d c6d2 a4be
000001d0: b449 adbd 1d7d 853e 7245 443d 6ca4 2dbe
000001e0: 8374 87bd 27c6 ccbd b735 08bd a1d2 34bd
000001f0: da7d 88be 3a08 5a3e 865e 4e3e 0dd4 95bc
00000200: aba0 7dbe 9b7e aebe df73 ed3e 6ffb 28be
00000210: 9dcd c63d baa8 113e 771f cdbd 402c 283c
00000220: 5ba5 2e3f 6020 54be 2676 b3be ba9e e93c
00000230: d35f aebc a13b 07bd de79 10bf e2cf 883b
00000240: e8aa 98be 3074 51bd 5dd4 453f 18a5 59bf
00000250: 689e a23c 79f2 2e3f 0929 423d 05db 64be
00000260: 44cb 77be 44a7 96be 21c8 313e 7b73 75bf
00000270: 7c64 1bbf 051c 2fbb 76f2 4a3e 12ea 463e
00000280: 3e52 0c3e bb79 fcbc f008 d83d c461 12be
00000290: 96c2 e83c a4a9 0b3d c0b4 263d ca9a 4dbe
000002a0: fe80 aebd 9c82 1b3e 9586 3d3d 88b6 a3bd
000002b0: 9e7d 58be 60cc 6c3d 16f2 44bc 3979 58be
000002c0: d3f1 603d 921d 203e 6b62 9fbe c5e3 3f3e
000002d0: 604f 18bc 7e9e 95bb c421 5fbe ce49 47bd
000002e0: 9934 a93c 0792 46be 43b7 2c3e 6f26 7d3e
000002f0: 49b7 f03d 70ad 143e 1521 5b3e 7dd9 cabc
00000300: d7a3 36bc 106c 46bd ec1c 1cbe dc71 a33d
00000310: b6bc 893d bf29 213d bfa1 fc3b bfba a8be
00000320: 0634 20be c632 3d3e 244a 36be 9707 f13d
00000330: 3e30 a9bd 7973 753e e4ef af3d 2b10 2dbd
00000340: 6dc8 f13c 78df b7bd 4c9b e0bd 1a71 d0bd
00000350: d5ae 6dbd 0a8b 263e b703 223d e31b 57bd
00000360: 5c3c 1dbd 4b3a 8a3d 2dc1 6e3e 6813 333e
00000370: 1b90 b3bd b5c6 343e 5420 98bd 96b3 a43d
00000380: 0e31 3e3e ea94 21be dd77 833d a46c c03d
00000390: 7ca3 e0bc d971 323e 1935 433d 8d23 7fbd
000003a0: 946a e63c 4328 ebbd 0601 10be ecad 23be
000003b0: 36aa 683e 2aac 5d3c c572 e43d 952b 973d
000003c0: 6df4 c83d d95e 7ebd 9c22 6bbd 62c1 c2bd
000003d0: 3d53 88be f7e3 3f3e 495c dabc 21eb 66be
000003e0: cd93 8c3c 5bc3 d53d d632 ca3d 1a22 bc3d
000003f0: 1e72 f23d 998a 4d3e ef35 2bbd 6788 3f3e

bias_ih_l0 f4 [128]
0.03830685 0.23024622 0.060190924 0.20002086 0.5587379 0.2639659 0.16251454 0.038423862
0.09084679 0.24132137 0.285544 0.25379398 0.51924205 0.15192585 0.14486125 0.49826068
0.063379705 0.353976 0.025156947 0.16475946 0.54044324 0.1970574 0.4482027 0.060317002
0.3932985 0.10392534 -0.018807646 0.06982837 -0.011575189 0.26979962 0.25744715 0.11168292
0.019379063 -0.34540522 -0.26797816 -0.12465121 -0.73093647 -0.17513551 -0.31583798 -0.3318882
-0.13550004 -0.24239825 -0.122328654 -0.029855754 -0.32879952 -0.039643176 -0.04045576 -0.71956474
-0.003957572 -0.17220953 -0.07278068 0.10218546 -0.6197346 -0.12865335 -0.3099504 -0.07431578
-0.2452086 0.08652129 0.020352146 0.14514397 -0.023336994 -0.5864501 -0.51430875 -0.31354433
0.1325117 0.10450533 -0.049888037 0.025321927 -0.11602506 0.010227226 0.102638386 -0.0359529
-0.030127805 0.0646146 -0.09633132 0.027047068 -0.110776834 -0.03771997 -0.080225185 -0.09014798
-0.08209562 -0.1262808 0.1403937 -0.07968675 0.056038264 0.06981818 0.108577505 -0.13003385
0.10987907 -0.09178174 0.04251537 -0.2249453 -0.11004823 0.11808793 0.022549322 -0.06710196
0.24924251 0.19092265 0.101163596 0.24989507 0.69739896 0.21247791 0.19503105 0.07777128
-0.026094258 0.29776612 0.06782268 0.19472405 0.46324715 0.13338651 0.17223687 0.6672335
0.20801428 0.28657332 0.12203959 0.049445625 0.62397027 0.21518384 0.41555467 0.11133311
0.17943762 0.15866354 0.14897878 0.008572763 0.12607364 0.4726392 0.32028553 0.085975304
00000000: a5e7 1c3d aac5 6b3e c28a 763d 45d2 4c3e
00000010: 7209 0f3f 8a26 873e 366a 263e 5762 1d3d
00000020: e20d ba3d f31c 773e d332 923e 49f1 813e
00000030: 0ced 043f 7392 1b3e 8256 143e 061c ff3e
00000040: 38cd 813d 583c b53e f115 ce3c b4b6 283e
00000050: 7d5a 0a3f 6ac9 493e d37a e53e f60e 773d
00000060: 6c5e c93e cfd6 d43d 7e12 9abc 2d02 8f3d
00000070: dda5 3dbc 2d23 8a3e 1dd0 833e 04ba e43d
00000080: d7c0 9e3c f4d8 b0be 6f34 89be 2249 ffbd
00000090: a71e 3bbf b956 33be 84b5 a1be 40ed a9be
000000a0: 86c0 0abe 3f37 78be 7287 fabd 0e94 f4bc
000000b0: 6958 a8be e260 22bd f0b4 25bd 6535 38bf
000000c0: 85ae 81bb b257 30be 0a0e 95bd 9c46 d13d
000000d0: eda6 1ebf b4bd 03be d2b1 9ebe df32 98bd
000000e0: f717 7bbe 1332 b13d 8bb9 a63c 9fa0 143e
000000f0: 392d bfbc 9821 16bf bda9 03bf e288 a0be
00000100: 26b1 073e e406 d63d 6657 4cbd ee6f cf3c
00000110: 8c9e edbd 1890 273c 1334 d23d 5943 13bd
00000120: 96ce f6bc a954 843d 5b49 c5bd d091 dd3c
00000130: f7de e2bd 4180 1abd 1a4d a4bd 819f b8bd
00000140: c021 a8bd c14f 01be 5ec3 0f3e cf32 a3bd
00000150: 6188 653d d5fc 8e3d e25d de3d 9827 05be
00000160: 4708 e13d 11f8 bbbd 9924 2e3d 1058 66be
00000170: f760 e1bd 16d8 f13d 5bb9 b83c c16c 89bd
00000180: 6e39 7f3e 3a81 433e dc2e cf3d 7ee4 7f3e
00000190: bd88 323f cf93 593e 38b6 473e 8d46 9f3d
000001a0: a0c3 d5bc cd74 983e 9ee6 8a3d be65 473e
000001b0: bb2e ed3e 7996 083e dd5e 303e d1cf 2a3f
000001c0: b201 553e bdb9 923e e4ef f93d 7f87 4a3d
000001d0: 84bc 1f3f 2759 5c3e 95c3 d43e 9d02 e43d
000001e0: 7fbe 373e b278 223e e58d 183e c674 0c3c
000001f0: 7319 013e c4fd f13e 77fc a33e d213 b03d

bias_hh_l0 f4 [128]
-0.0059832586 0.24335375 -0.07359962 0.36150408 0.7025136 0.02006586 0.060864776 0.21598819
0.17598444 0.4062171 0.029091056 0.12896697 0.28094694 0.4461945 0.18542482 0.65868217
-0.023587134 0.34653628 -0.070533544 0.12048194 0.68812186 0.37777337 0.47672826 0.124615006
0.29495984 0.088796444 0.054746922 -0.021753257 -0.09320119 0.26045665 0.32696655 0.16187392
-0.06938029 -0.31931528 -0.030289644 -0.33079448 -0.42257154 -0.012291918 -0.17489634 -0.47671464
-0.06261455 -0.2986199 -0.10339385 -0.091044486 -0.33158183 -0.21908037 0.06549927 -0.6694524
-0.1347556 -0.24013357 -0.044427704 -0.07910034 -0.475827 -0.29144993 -0.5330174 -0.102303274
-0.4487894 -0.22210746 -0.23318495 0.0844509 -0.051558107 -0.35253373 -0.38222477 -0.012153346
-0.15074727 -0.16426796 0.1201911 -0.030309174 0.14063545 0.04254813 -0.083504096 0.010937722
0.111130185 -0.029003883 0.031501614 0.04434055 0.06993663 0.028724398 -0.15793017 0.05611078
0.010845723 0.11610964 0.06584033 -0.20626841 -0.10093639 0.009365078 -0.13501802 0.118043564
-0.12861802 0.01385907 0.045482438 -0.11009888 -0.098593585 -0.16055636 -0.0019997496 0.036893878
0.13420342 0.32524872 -0.054936334 0.47720692 0.79601353 0.11586714 0.39361107 0.38836488
-0.08009611 0.320117 0.30909222 0.271617 0.47540867 0.32656902 0.09209159 0.6750974
0.22650692 0.14978102 0.22713536 -0.07404391 0.58701855 0.4062794 0.5673309 0.24392277
0.36726695 0.13431178 0.20089343 0.014776292 -0.0032669927 0.4670973 0.34730345 0.28671393
00000000: 360f c4bb ba31 793e 66bb 96bd 1017 b93e
00000010: eed7 333f 2961 a43c 584d 793d 022c 5d3e
00000020: 4435 343e b0fb cf3e 5e50 ee3c eb0f 043e
00000030: 47d8 8f3e 9b73 e43e 01e0 3d3e 659f 283f
00000040: ce39 c1bc 346d b13e e473 90bd 3cbf f63d
00000050: c128 303f 836b c13e ba15 f43e 2736 ff3d
00000060: fa04 973e e9da b53d 4f3e 603d e333 b2bc
00000070: 44e0 bebd 935a 853e 2968 a73e 47c2 253e
00000080: 4117 8ebd 4b7d a3be fd21 f8bc e55d a9be
00000090: 4c5b d8be 0a64 49bc 0718 33be f113 f4be
000000a0: 0f3c 80bd b5e4 98be 28c0 d3bd 8875 babd
000000b0: 18c5 a9be 9b56 60be 7b24 863d 3c61 2bbf
000000c0: 5ffd 09be 93e5 75be d3f9 35bd 5cff a1bd
000000d0: 999f f3be ed38 95be d473 08bf 6184 d1bd
000000e0: b9c7 e5be 2370 63be 09c8 6ebe 98f4 ac3d
000000f0: 982e 53bd 4d7f b4be f7b2 c3be d41e 47bc
00000100: 7e5d 1abe dc35 28be c026 f63d f24a f8bc
00000110: bd02 103e f346 2e3d 3204 abbd 2234 333c
00000120: 3998 e33d 8d99 edbc d607 013d 709e 353d
00000130: f03a 8f3d 6e4f eb3c 72b8 21be 6bd4 653d
00000140: 42b2 313c e4ca ed3d 4cd7 863d 0738 53be
00000150: bdb7 cebd fc6f 193c 2a42 0abe d3c0 f13d
00000160: 71b4 03be 2711 633c cb4b 3a3d 867b e1bd
00000170: 6feb c9bd e368 24be 3b0e 03bb 091e 173d
00000180: 9f6c 093e 0087 a63e ec04 61bd 7754 f43e
00000190: 8bc7 4b3f c04b ed3d 6487 c93e c3d7 c63e
000001a0: 6e09 a4bd 60e6 a33e 5641 9e3e 6211 8b3e
000001b0: c468 f33e 0e34 a73e 849a bc3d 2fd3 2c3f
000001c0: 6ef1 673e 3260 193e 2c96 683e 55a4 97bd
000001d0: d946 163f db03 d03e 993c 113f e4c6 793e
000001e0: 6a0a bc3e 0789 093e 02b7 4d3e 4318 723c
000001f0: 0b1b 56bb 6127 ef3e c2d1 b13e 2bcc 923e

weight_ih_l0 f4 [128, 2]
0.05739712 0.019154113 -0.10893695 0.034606516 0.07382066 -0.044875547 -0.10140781 0.016555041
0.023656936 -0.061386626 -0.04761561 0.08767993 0.04775992 -0.02333285 -0.11445189 -0.099922016
0.055012632 -0.06228709 0.017068323 0.033396762 -0.027949361 0.07767216 -0.024532197 -0.102066055
-0.078020014 0.05743929 0.07413906 -0.0056433845 -0.13463977 0.02660403 -0.043206323 0.111965664
-0.042760544 0.045178536 0.06085662 0.06402237 0.03397251 0.029948916 -0.025695758 0.013118063
0.079186946 -0.007410337 -0.104327574 0.1089358 0.036158483 0.121400945 -0.20992623 -0.006444732
0.053487636 0.036024414 -0.028472407 0.008558848 0.08179512 0.038002014 -0.12431824 0.11606572
-0.057086438 0.040697936 -0.07205884 0.02291722 0.1856106 -0.021241987 -0.21858998 -0.048494358
-0.13297804 -0.28018588 0.088472314 -0.020312808 0.04242437 -0.17492384 0.09305863 0.06452145
0.3155546 -0.15541856 0.08089597 -0.023568708 0.03864034 0.21016075 0.03740373 0.18818423
-0.19141296 -0.26816273 0.17223854 -0.0802331 0.16315779 0.08274596 -0.17832491 0.15520652
-0.18341446 0.14011532 -0.21310301 0.090726025 0.019080833 0.1368086 0.2283462 0.028157717
0.07526795 0.14620227 -0.16813207 -0.18612303 -0.049129236 0.1900199 -0.23643477 -0.030052131
-0.29526561 -0.13702601 0.135909 -0.05307228 0.12589192 0.10834041 -0.22162631 -0.13491364
-0.09502893 0.107717454 -0.0005542446 -0.044555593 -0.05271161 -0.08807648 -0.13982826 0.020838447
0.28494722 -0.18793494 -0.0036896227 0.11897816 0.2853998 0.0548509 -0.095853545 -0.12788863
-0.01230874 0.10945184 -0.068380326 -0.1735664 -0.0033680964 -0.13992035 -0.03608142 -0.1822992
-0.079663046 0.06623102 0.16985965 -0.09175391 0.0879042 -0.09830549 0.3215117 -0.0091956435
0.3854922 0.12237243 -0.13986464 0.31100157 0.20473869 0.172462 -0.09720621 0.12753141
-0.072177626 -0.05094735 0.41285336 0.07323908 -0.062715515 -0.16975658 -0.07184361 0.15729997
0.08227331 -0.054899514 -0.21330932 0.093816385 0.021584734 0.18374781 0.04389742 0.06120887
-0.11522701 -0.06706889 -0.0712325 0.078124836 -0.010946952 -0.158881 0.2395052 0.07321798
0.19354206 0.060134396 -0.016963445 0.2021155 -0.19598949 0.043978665 0.09546726 -0.12803139
0.2551721 0.08557548 0.06519123 0.18485287 0.29535154 0.037242502 -0.084417224 -0.07032491
-0.137304 -0.18761465 0.1309999 0.084154256 0.06222613 -0.21279919 0.028047659 -0.01908391
0.02303907 -0.21411447 1.5071746e-05 0.059227396 0.032485656 -0.029941402 -0.17589194 0.004140498
-0.09657189 -0.058078215 0.07288647 -0.20963302 0.20795059 0.13352534 0.026801595 -0.13618939
0.17448445 0.10352344 -0.16497198 0.10326983 -0.0022840465 0.12622707 -0.058081124 0.2218954
-0.10861479 0.024934603 -0.1778609 -0.15315951 -0.18487737 0.018174767 0.018586716 0.055942327
-0.06884192 -0.03862672 -0.09661266 -0.047520336 0.15391795 0.12293918 -0.15876457 -0.11230937
0.30506602 0.15407623 -0.10530195 -0.179118 -0.017116506 -0.091857895 -0.100548446 0.17592305
0.10003306 -0.00514868 -0.0009529586 0.0036995374 0.23329702 0.17398907 -0.09400707 -0.19954129
00000000: 3e19 6b3d 16e9 9c3c 561a dfbd 90bf 0d3d
00000010: 492f 973d 6ccf 37bd e6ae cfbd 709e 873c
00000020: 31cc c13c 8b70 7bbd 9608 43bd 8991 b33d
00000030: e89f 433d 8824 bfbc c165 eabd eaa3 ccbd
00000040: ed54 613d bf20 7fbd ded2 8b3c 0bcb 083d
00000050: 0ff6 e4bc 9512 9f3d bff7 c8bc 0208 d1bd
00000060: f5c8 9fbd 7645 6b3d 38d6 973d 24ec b8bb
00000070: 02df 09be b2f0 d93c 1df9 30bd 414e e53d
00000080: ae25 2fbd 210d 393d cb44 793d 291e 833d
00000090: c226 0b3d 6e57 f53c e97f d2bc 25ed 563c
000000a0: c42c a23d 6ad2 f2bb b2a9 d5bd bc19 df3d
000000b0: eb1a 143d 0fa1 f83d e7f6 56be 552e d3bb
000000c0: da15 5b3d 568e 133d f73e e9bc 693a 0c3c
000000d0: 3384 a73d 00a8 1b3d 909a febd ddb3 ed3d
000000e0: 78d3 69bd e1b2 263d 9693 93bd e5bc bb3c
000000f0: b510 3e3e ad03 aebc 0dd6 5fbe 05a2 46bd
00000100: 652b 08be 8674 8fbe f930 b53d 0c67 a6bc
00000110: 2dc5 2d3d 3c1f 33be 8695 be3d d223 843d
00000120: 5f90 a13e 0b26 1fbe c9ac a53d 2a13 c1bc
00000130: 5545 1e3d 6134 573e a734 193d 5eb3 403e
00000140: c201 44be a04c 89be 4d5f 303e 4051 a4bd
00000150: d612 273e b776 a93d ce9a 36be 75ee 1e3e
00000160: 00d1 3bbe 647a 0f3e ad37 5abe 91ce b93d
00000170: 684f 9c3c 8e17 0c3e 96d3 693e 03ab e63c
00000180: 1526 9a3d 0cb6 153e d02a 2cbe 0997 3ebe
00000190: bd3b 49bd 9494 423e f51b 72be e32f f6bc
000001a0: 0e2d 97be 8c50 0cbe bb2b 0b3e 5262 59bd
000001b0: d0e9 003e 94e1 dd3d 02f2 62be cd26 0abe
000001c0: 879e c2bd f89a dc3d ba4a 11ba ed7f 36bd
000001d0: 21e8 57bd 7161 b4bd 242f 0fbe 64b5 aa3c
000001e0: 9ae4 913e 0472 40be 99cd 71bb d2aa f33d
000001f0: ec1f 923e 56ab 603d dd4e c4bd 3df5 02be
00000200: 99aa 49bc 4928 e03d fc0a 8cbd 64bb 31be
00000210: 48bb 5cbb 4847 0fbe 1cca 13bd a4ac 3abe
00000220: 6126 a3bd 21a4 873d b0ef 2d3e 79e9 bbbd
00000230: 1e07 b43d 6454 c9bd 2e9d a43e 53a9 16bc
00000240: 3c5f c53e 669e fa3d ad38 0fbe 993b 9f3e
00000250: 05a7 513e e199 303e 0d14 c7bd 9897 023e
00000260: ddd1 93bd 2bae 50bd 8461 d33e 5ffe 953d
00000270: fe70 80bd abd4 2dbe be22 93bd 3e13 213e
00000280: e97e a83d 50de 60bd c26d 5abe ce22 c03d
00000290: 78d2 b03c 6328 3c3e c8cd 333d 27b6 7a3d
000002a0: 23fc ebbd 6a5b 89bd 58e2 91bd eaff 9f3d
000002b0: d85a 33bc b3b1 22be da40 753e 4ff3 953d
000002c0: e42f 463e 7c4f 763d ecf6 8abc 5ef7 4e3e
000002d0: 78b1 48be f922 343d 5784 c33d a91a 03be
000002e0: eba5 823e 3242 af3d fb82 853d 124a 3d3e
000002f0: 5138 973e 988b 183d f0e2 acbd 8206 90bd
00000300: 6b99 0cbe 0e1e 40be d624 063e 1159 ac3d
00000310: d4e0 7e3d 08e8 59be 34c4 e53c dc55 9cbc
00000320: 6fbc bc3c d340 5bbe a8dc 7c37 6d98 723d
00000330: ae0f 053d ac47 f5bc 041d 34be 04ad 873b
00000340: 7cc7 c5bd 6ce3 6dbd 8045 953d 0aaa 56be
00000350: 00f1 543e deba 083e 058f db3c 3b75 0bbe
00000360: 0dac 323e 1904 d43d 6aee 28be 227f d33d
00000370: f1af 15bb ab41 013e 79e6 6dbd 8c38 633e
00000380: 6e71 debd a743 cc3c 2b21 36be d9d5 1cbe
00000390: 7e50 3dbe 40e3 943c 2b43 983c c823 653d
000003a0: fefc 8cbd 0d37 1ebd dcdc c5bd afa4 42bd
000003b0: ab9c 1d3e 89c7 fb3d 2e93 22be 7402 e6bd
000003c0: 9d31 9c3e 29c6 1d3e 8ca8 d7bd b66a 37be
000003d0: ea37 8cbc fe1f bcbd 58ec cdbd 2c25 343e
000003e0: 22de cc3d 42b6 a8bb f8cf 79ba f073 723b
000003f0: 6ae5 6e3e 312a 323e c786 c0bd 8d54 4cbe

weight_hh_l0 f4 [128, 32]
-0.20697796 0.047456887 -0.01681291 0.26354587 0.03586136 0.08947089 0.07052098 -0.102524444
-0.17886353 -0.033143908 0.05055795 0.04647811 0.19456904 0.0067911427 -0.027529042 0.02644433
0.18907566 -0.14358017 0.0073233144 0.075544834 0.07260956 -0.037187573 -0.042611767 -0.22780299
-0.19330196 0.010554677 -0.11453628 0.15367869 -0.035026584 -0.18846883 -0.18984264 0.35809696
-0.011724344 -0.08925244 0.107415065 0.057507955 -0.13637921 0.030507568 -0.16369188 -0.0025987024
-0.2347509 -0.03746389 -0.15854968 -0.1562631 0.07020473 0.14330289 -0.013508713 0.05462183
0.08874568 -0.10213184 0.02371108 0.16460438 0.23760861 -0.2137392 0.2037277 0.21093798
0.056577515 -0.2321129 0.0024577775 -0.07115519 -0.10211893 0.07606178 -0.010560996 0.061490867
-0.05363074 -0.085988276 0.09937346 0.034518354 -0.19065724 -0.15677615 -0.04337891 0.017036445
-0.14359881 -0.318346 -0.06690942 -0.08224133 -0.08671572 0.29227597 -0.07477565 0.06639569
0.0018619598 0.028914688 -0.07942058 -0.13851507 -0.07951227 -0.012077508 -0.18800744 0.021333989
-0.040915836 -0.18533356 -0.1113723 -0.16462553 -0.13969156 0.13712043 0.08475034 -0.05786326
0.122144364 -0.07333736 0.19619821 0.024474723 -0.049290355 -0.038701873 0.11054234 -0.043182664
-0.03262778 0.059324566 -0.042311195 -0.00288239 -0.0713909 -0.1035961 -0.2050345 -0.1192518
-0.24873209 -0.039661754 -0.12135437 -0.1405233 0.058282506 0.096804224 -0.016463423 -0.09073062
-0.039502494 0.018888358 -0.010569314 -0.031603765 -0.11560899 -0.036513872 0.060275376 -0.035925448
0.11254538 -0.012193723 0.05974842 -0.042529818 0.0066283215 0.041219875 0.018112205 -0.20741741
0.15828529 -0.010359281 -0.028885027 -0.08078566 -0.07073712 0.17725086 -0.021946976 0.09910642
-0.26765627 0.08942704 0.16203727 -0.05089231 0.06206658 0.16982856 0.009783108 -0.24839254
-0.009242414 0.059468307 -0.15061805 -0.07932693 -0.027485263 0.19668935 0.12378363 0.00054371485
0.028757485 -0.20041421 -0.022637693 -0.04295231 -0.17654327 0.14953566 -0.114860885 0.17149776
0.2434789 -0.3575029 -0.15845181 0.049831964 -0.047812827 -0.042217594 0.0017400067 -0.0864421
-0.14656469 0.03444021 -0.05859703 0.15507379 -0.15153821 -0.06861203 -0.077491626 0.10481426
0.13022192 0.06524116 0.16622972 -0.03390512 0.016643692 -0.20826404 0.16254736 -0.0125152515
0.00016170822 -0.15199645 0.1719258 -0.010078928 0.028224843 -0.17393154 -0.06257844 0.0930776
0.14129783 -0.26555148 0.059014834 -0.093699716 -0.15584801 0.372112 -0.3059388 -0.2322337
-0.051343936 -0.15551803 0.20168264 0.050286822 0.223229 0.075849436 -0.23864762 -0.1106143
0.15334463 -0.116032064 -0.18559729 0.0277956 0.27275172 -0.06136607 -0.059067372 0.08722853
0.026702907 0.1879918 -0.016577391 0.026623664 0.17207505 -0.28152698 0.022951985 0.013421764
-0.028472206 -0.16252835 -0.25772244 0.31149852 0.27622122 -0.11588784 0.20992562 0.045851786
-0.02178978 -0.06886608 -0.12534523 -0.0437498 -0.11677978 -0.061157178 -0.029506128 -0.0030376897
-0.11010152 0.054221146 0.06626941 0.15318839 -0.30297056 -0.03624993 -0.011637317 0.0057521425
00000000: 08f2 53be 2762 423d 3abb 89bc 7cef 863e
00000010: 5de3 123d 843c b73d 4e6d 903d 56f8 d1bd
00000020: 0028 37be e8c1 07bd da15 4f3d d55f 3e3d
00000030: 1b3d 473e 3c88 de3b 9684 e1bc c8a1 d83c
00000040: 0d9d 413e ae06 13be 6af8 ef3b 40b7 9a3d
00000050: 52b4 943d ff51 18bd ad89 2ebd 3045 69be
00000060: f3f0 45be 86ed 2c3c ff91 eabd f25d 1d3e
00000070: 0978 0fbd f9fd 40be 1c66 42be 7c58 b73e
00000080: 7717 40bc fcc9 b6bd 6efc db3d 768d 6b3d
00000090: fea6 0bbe 02eb f93c d89e 27be fe4e 2abb
000000a0: 8a62 70be bc73 19bd d95a 22be 6f03 20be
000000b0: 7fc7 8f3d febd 123e a653 5dbc 24bb 5f3d
000000c0: 4cc0 b53d 802a d1bd bd3d c23c 0d8e 283e
000000d0: ac4f 733e 73de 5abe ff9d 503e 2000 583e
000000e0: d3bd 673d 01af 6dbe aa12 213b d0b9 91bd
000000f0: bb23 d1bd 47c6 9b3d 0708 2dbc d9dd 7b3d
00000100: e8ab 5bbd 9f1a b0bd 5084 cb3d 1e63 0d3d
00000110: a73b 43be ed89 20be 15ae 31bd 0490 8b3c
00000120: 910b 13be 3ffe a2be ce07 89bd 246e a8bd
00000130: 0398 b1bd 32a5 953e fa23 99bd 77fa 873d
00000140: 010d f43a 7fde ec3c 42a7 a2bd e5d6 0dbe
00000150: 54d7 a2bd bde0 45bc 0685 40be 9ec4 ae3c
00000160: 5d97 27bd 15c8 3dbe 2917 e4bd 9893 28be
00000170: 4e0b 0fbe 4c69 0c3e 9691 ad3d 0702 6dbd
00000180: d326 fa3d e631 96bd 2fe8 483e 377f c83c
00000190: afe4 49bd db85 1ebd 0664 e23d 4ee0 30bd
000001a0: b5a4 05bd 51fe 723d 814e 2dbd 7be6 3cbb
000001b0: 6435 92bd 312a d4bd 90f4 51be 4a3a f4bd
000001c0: a0b3 7ebe 5d74 22bd a488 f8bd 57e5 0fbe
000001d0: a3b9 6e3d 4b41 c63d 4dde 86bc fad0 b9bd
000001e0: 5ecd 21bd c2bb 9a3c ea2a 2dbc f372 01bd
000001f0: 68c4 ecbd 928f 15bd 50e3 763d 9026 13bd
00000200: 317e e63d 2ec8 47bc c2ba 743d bf33 2ebd
00000210: 6432 d93b 2cd6 283d 0c60 943c 3b65 54be
00000220: 8a15 223e f9b9 29bc 4ba0 ecbc f472 a5bd
00000230: a0de 90bd 4081 353e 25ca b3bc 4ff8 ca3d
00000240: 3e0a 89be 8625 b73d 19ed 253e 7474 50bd
00000250: 8739 7e3d 8ae7 2d3e 5449 203c 9d5a 7ebe
00000260: 7e6d 17bc 0a95 733d 9e3b 1abe 2876 a2bd
00000270: c628 e1bc ef68 493e 4682 fd3d 1688 0e3a
00000280: d194 eb3c 6239 4dbe af72 b9bc c3ee 2fbd
00000290: c2c7 34be e01f 193e 2f3c ebbd 1c9d 2f3e
000002a0: 8852 793e 9f0a b7be 3141 22be 9a1c 4c3d
000002b0: 62d7 43bd 5bec 2cbd f010 e43a 8e08 b1bd
000002c0: 0e15 16be 2d11 0d3d 7003 70bd aacb 1e3e
000002d0: d52c 1bbe 7784 8cbd eeb3 9ebd dca8 d63d
000002e0: e558 053e 289d 853d 2038 2a3e 18e0 0abd
000002f0: 5a58 883c 2b43 55be d172 263e c50c 4dbc
00000300: 3890 2939 f5a4 1bbe 510d 303e 1722 25bc
00000310: c937 e73c 1c1b 32be 2029 80bd 789f be3d
00000320: 61b0 103e 5df6 87be 8ab9 713d a3e5 bfbd
00000330: 9f96 1fbe 7785 be3e 03a4 9cbe acce 6dbe
00000340: 054e 52bd 1e40 1fbe e585 4e3e 8ef9 4d3d
00000350: 2596 643e f356 9b3d 0b60 74be c089 e2bd
00000360: 6006 1d3e 38a2 edbd 370d 3ebe 99b3 e33c
00000370: 1da6 8b3e fd5a 7bbd a1f0 71bd dfa4 b23d
00000380: 0ec0 da3c ec80 403e 4fcd 87bc df19 da3c
00000390: 7134 303e 4e24 90be cd05 bc3c f5e6 5b3c
000003a0: 8b3e e9bc d56d 26be 32f4 83be bc7c 9f3e
000003b0: de6c 8d3e 9b56 edbd bef6 563e 15cf 3b3d
000003c0: 7b80 b2bc a909 8dbd 805a 00be fe32 33bd
000003d0: 3d2a efbd f37f 7abd d6b6 f1bc fa13 47bb
000003e0: e87c e1bd fe16 5e3d 42b8 873d 6bdd 1c3e
000003f0: f51e 9bbe ce7a 14bd 72aa 3ebc 787c bc3b

bias_ih_l0 f4 [128]
-0.1229892 -0.131031 0.009001454 0.055625416 0.012369792 0.085630946 0.14830749 -0.057709403
0.0011319773 0.0431533 -0.14406712 -0.1630521 -0.05395448 0.16823487 -0.17397662 -0.022374574
-0.02773102 0.12931627 0.12013336 -0.14858139 0.110555656 -0.041298002 -0.20116016 -0.06097374
0.019041447 -0.016285064 0.0398799 -0.007889241 0.12541404 0.08315323 0.13167937 -0.02533903
0.18238275 -0.1348879 -0.13136497 -0.12424297 -0.015583664 0.11941699 0.08160634 0.2742755
0.24206129 0.19409637 0.06400471 0.17569447 -0.07790974 0.24128886 0.020615004 -0.07542428
-0.129277 0.22891973 0.18324034 0.17649944 0.055432975 0.13941967 -0.11784907 0.090937175
0.009033647 0.10046558 0.06375215 0.2168093 -0.097560614 0.060884345 0.021509679 -0.059051074
-0.059509154 0.033891164 0.12386534 -0.16385195 0.05656584 0.047701683 0.111310154 0.10145865
0.16077533 -0.005972787 0.09574439 0.06629669 0.10480843 0.025791101 0.07816698 -0.095849395
-0.14115977 -0.0885241 0.16054748 -0.036713976 0.012977595 -0.20262514 -0.092696965 0.21260302
-0.15360525 -0.0007585289 0.09465952 0.021410333 -0.046382166 -0.09969574 -0.15552899 0.018810352
0.0057351347 0.15308 0.12720495 0.09839857 0.21271092 0.22205186 0.35656756 0.12080603
0.0931095 0.22518454 0.021606874 -0.074530676 -0.05743278 0.2595827 0.07263012 0.07365281
0.0666417 -0.05564268 0.17586058 0.07576935 -0.019562906 0.15850899 -0.030482715 -0.088995434
0.22500639 0.0211593 0.19588189 0.0051995497 -0.044572785 0.08056165 0.17959557 -0.0033771123
00000000: c3e1 fbbd fe2c 06be d67a 133c 7ad7 633d
00000010: abaa 4a3c 475f af3d ebdd 173e b260 6cbd
00000020: db5e 943a 84c1 303d 5586 13be 21f7 26be
00000030: 5fff 5cbd c345 2c3e ed26 32be e24a b7bc
00000040: 2a2c e3bc 7c6b 043e 7b08 f63d b825 18be
00000050: 016b e23d 1828 29bd eefc 4dbe 9abf 79bd
00000060: cffc 9b3c 4168 85bc 1b59 233d e041 01bc
00000070: 8a6c 003e 3e4c aa3d f5d6 063e cc93 cfbc
00000080: 8bc2 3a3e 0e20 0abe 8a84 06be 1973 febd
00000090: a052 7fbc e590 f43d 3a21 a73d d76d 8c3e
000000a0: eade 773e 33c1 463e e714 833d 40e9 333e
000000b0: 248f 9fbd 6d14 773e cce0 a83c 0b78 9abd
000000c0: 3161 04be ef69 6a3e 5ba3 3b3e 45bc 343e
000000d0: b00d 633d 08c4 0e3e da5a f1bd 453d ba3d
000000e0: dd01 143c e6c0 cd3d 7d90 823d 4203 5e3e
000000f0: dccd c7bd dd61 793d 1135 b03c 8adf 71bd
00000100: dfbf 73bd 76d1 0a3d 1dad fd3d cec8 27be
00000110: 95b1 673d d762 433d 94f6 e33d 8dc9 cf3d
00000120: 4aa2 243e 5eb7 c3bb a215 c43d 8fc6 873d
00000130: cda5 d63d dc47 d33c 0216 a03d b04c c4bd
00000140: 308c 10be 204c b5bd 8f66 243e 6561 16bd
00000150: fb9f 543c f77c 4fbe e8d7 bdbd 9bb4 593e
00000160: b24a 1dbe 03d8 46ba dadc c13d b964 af3c
00000170: 3afb 3dbd 482d ccbd fe42 1fbe 2b18 9a3c
00000180: cced bb3b 01c1 1c3e 0442 023e 3185 c93d
00000190: e4d0 593e 9061 633e 0690 b63e 2769 f73d
000001a0: 32b0 be3d c796 663e e600 b13c 8aa3 98bd
000001b0: a23e 6bbd 06e8 843e 1abf 943d 49d7 963d
000001c0: 727b 883d 94e9 63bd cc14 343e f62c 9b3d
000001d0: 6342 a0bc 2e50 223e e3b6 f9bc 3d43 b6bd
000001e0: 1368 663e 4556 ad3c 4395 483e fc60 aa3b
000001f0: f491 36bd 82fd a43d e7e7 373e 8b52 5dbb

bias_hh_l0 f4 [128]
0.10605035 0.12845737 -0.060810935 -0.113305524 0.10640413 0.17331178 -0.098311156 0.046375215
0.07980929 0.11528493 0.060990267 0.045701753 -0.05341297 0.17752032 0.05530688 0.028700141
-0.07877805 0.05019361 0.029891858 -0.1935429 0.115620136 0.06813662 0.093223706 -0.13445094
-0.08795646 -0.09944341 0.0041218186 -0.10406446 0.1512563 0.10736213 -0.0091357045 0.0036320444
0.048174586 0.08612602 -0.007440149 -0.019835442 -0.005171619 -0.047448862 -0.04150018 -0.01569475
-0.01958226 0.015400938 -0.017326824 0.06993974 0.06663464 0.2543815 -0.13582875 -0.14934961
-0.061810974 -0.031177184 0.03823671 -0.010684171 0.047839433 0.06254079 0.026988108 -0.056636922
0.033468734 0.14537017 -0.02552154 -0.0021460492 0.10088772 -0.1313885 -0.09802706 0.11790123
0.119779214 0.05183318 -0.06484754 -0.13067313 0.13006184 -0.15356 -0.09288901 0.10078884
-0.099954724 0.21668619 0.020665463 0.17362559 0.06593982 0.098672815 0.05526784 0.010922956
-0.0522597 0.08265182 -0.122656085 0.06133442 0.059943445 -0.16093665 0.038887557 0.14827614
-0.08945192 0.22177865 -0.109539516 0.037547134 -0.19510615 -0.13835244 0.069497906 -0.16075447
0.27011865 0.12905195 0.026610218 -0.16791889 0.03953013 0.23524769 0.28165624 0.19453126
0.13618274 0.23791012 -0.03316303 -0.053759754 -0.049551744 0.118739985 0.13837348 0.17573468
0.21473432 0.0027427948 -0.046092227 0.061059266 -0.03673031 -0.03162269 0.090380505 0.19778334
0.09994174 0.14699224 -0.0157827 0.19059838 0.23094375 0.14775349 0.10441706 0.061332863
00000000: ed30 d93d 548a 033e e314 79bd ba0c e8bd
00000010: 69ea d93d a578 313e 5c57 c9bd f0f3 3d3d
00000020: 0e73 a33d 811a ec3d eed0 793d c331 3b3d
00000030: 8fc7 5abd e3c7 353e 7889 623d 8f1c eb3c
00000040: 6356 a1bd d197 4d3d c5df f43c 1c30 46be
00000050: 40ca ec3d 368b 8b3d 12ec be3d 82ad 09be
00000060: 8422 b4bd fda8 cbbd 5210 873b bf1f d5bd
00000070: eee2 1a3e ade0 db3d ecad 15bc 9807 6e3b
00000080: b752 453d d762 b03d 7ecc f3bb f07d a2bc
00000090: af76 a9bb bd59 42bd 18fc 29bd 4792 80bc
000000a0: fa6a a0bc 3754 7c3c fcf0 8dbc 913c 8f3d
000000b0: be77 883d 4b3e 823e b116 0bbe 1bef 18be
000000c0: 812d 7dbd 4b67 ffbc 199e 1c3d a90c 2fbc
000000d0: 48f3 433d 6315 803d 2a16 dd3c 1efc 67bd
000000e0: 8316 093d ebdb 143e 8c12 d1bc bba4 0cbb
000000f0: 399e ce3d b58a 06be 69c2 c8bd 3376 f13d
00000100: ce4e f53d 074f 543d c9ce 84bd 2dcf 05be
00000110: ee2e 053e d53e 1dbe 983c bebd 616a ce3d
00000120: 10b5 ccbd fce2 5d3e 9e4a a93c e8ca 313e
00000130: 750b 873d f914 ca3d 8860 623d 33f6 323c
00000140: 440e 56bd 5b45 a93d 1d33 fbbd cd39 7b3d
00000150: 4287 753d 94cc 24be 8f48 1f3d b3d5 173e
00000160: 9132 b7bd f119 633e 4156 e0bd 06cb 193d
00000170: e8c9 47be 43ac 0dbe eb54 8e3d d29c 24be
00000180: fe4c 8a3e 3226 043e acfd d93c eef2 2bbe
00000190: 58ea 213d c5e4 703e 3f35 903e 3433 473e
000001a0: 7d73 0b3e b69e 733e f5d5 07bd 3033 5cbd
000001b0: c5f6 4abd f32d f33d c7b1 0d3e cbf3 333e
000001c0: 50e3 5b3e 76c0 333b 34cb 3cbd 4819 7a3d
000001d0: 8672 16bd cb86 01bd 6a19 b93d b787 4a3e
000001e0: 41ae cc3d 2285 163e b94a 81bc 392c 433e
000001f0: 857c 6c3e b14c 173e 9dd8 d53d 2b38 7b3d

weight_ih_l0_reverse f4 [128, 2]
0.12996693 -0.51621026 0.2954614 -0.114154585 -0.28720662 -0.5325687 0.07717089 -0.46873397
-0.12649632 -0.33436024 0.19014014 -0.5223423 0.24802637 0.42358154 0.22697315 -0.35623348
-0.22705671 -0.67044914 -0.11337384 0.22283188 -0.5079337 0.23293243 0.5726817 -0.05527043
-0.09860492 -0.021291574 -0.19844475 -0.20110479 0.2597442 -0.020105341 0.62335676 0.24878602
-0.16123424 -0.2637975 -0.014158705 0.14789425 -0.21166775 -0.115288645 -0.3063295 0.30300212
-0.2991696 0.2210577 -0.25359723 0.54737127 -0.9047421 0.4322549 0.30391914 -0.13064492
-0.32695046 0.3807302 -0.63589096 -0.37351424 0.120408766 0.28932396 -0.09682589 0.3447565
0.17873996 0.061345845 0.16125065 0.24741125 -0.12697773 0.06616339 0.08862221 -0.016192533
-0.06681686 -0.19060628 0.30686587 -0.26406124 -0.2590366 -0.37962013 -0.034626324 -0.4361019
-0.1317278 -0.16046007 0.25981048 -0.09421312 0.021155536 0.40499482 0.26273432 -0.12923472
-0.0057243914 -0.16962591 0.0640268 -0.15300398 -0.12904435 0.06479256 0.20425718 -0.01973258
0.09929312 0.08178916 0.0040255985 -0.03491654 0.17955892 -0.16409284 0.25581527 0.15698576
-0.058334883 -0.30405158 0.017799517 0.25903276 -0.12865688 -0.00928327 -0.23533626 0.15725277
-0.25495327 0.2883055 -0.20916092 0.28506395 -0.10730081 0.044982105 0.0255585 -0.18668583
-0.031809326 0.025586449 -0.24834234 -0.35052362 0.12219016 0.1836596 0.012441375 0.067323536
-0.14690644 0.21287178 0.28460333 0.1830015 -0.043908935 0.07767117 0.121035814 -0.11995498
-0.011184482 -0.3232382 -0.024845917 0.32759693 0.029498972 0.28133988 -0.07638875 -0.35032782
0.25671726 0.59111756 0.44962594 -0.2901127 -0.18187173 -0.5306206 -0.85660374 0.39593193
-0.13761784 -0.32030416 -0.30054706 0.576728 0.5567331 0.03848867 0.61068094 -0.20502664
0.19111083 0.04549409 0.18962398 0.26600832 0.047813203 -0.25897792 0.723764 0.25220734
0.13903552 0.12891646 0.23028699 0.3637718 -0.027060272 -0.4226266 -0.5310098 0.23266949
-0.33569792 0.1290547 0.17532024 -0.24253519 -0.6757379 0.13754052 -0.020603206 0.2599631
-0.38035956 0.7130728 0.5749043 0.5308876 -0.12511902 -0.36626765 -0.13929455 -0.27419195
-0.4987025 0.18794443 0.47535336 0.20091383 0.20555766 -0.18588723 0.37543002 -0.23054773
0.13984771 -0.16672456 0.19882339 -0.1905557 -0.21392414 -0.5152479 -0.2545863 -0.3029734
-0.12777646 -0.027017819 0.12561642 -0.17273754 -0.054088667 0.25582075 0.31918755 -0.31454095
-0.357263 -0.5355773 -0.023332795 -0.013808981 -0.04166123 -0.08303864 0.590099 0.029680314
0.03777918 -0.108317815 -0.4195231 0.11307468 0.21907152 0.13230674 0.3680481 0.281912
0.20388217 -0.27544764 0.32182297 0.028232042 -0.23852438 -0.09353354 -0.39659724 0.31137732
-0.29439825 -0.13291892 -0.2876067 0.8453061 -0.61660665 -0.044091698 -0.020000018 -0.04743237
-0.22230253 0.44386876 -0.32796377 -0.5828895 0.08970207 0.5127708 -0.12437763 0.21297866
0.5096188 -0.13867427 0.15277077 -0.04673369 -0.10618909 0.08259543 0.093936786 -0.057676643
00000000: 0d16 053e 5b26 04bf b746 973e e1c9 e9bd
00000010: bf0c 93be 6c56 08bf c60b 9e3d e6fd efbe
00000020: 4088 01be 4431 abbe 19b4 423e 3ab8 05bf
00000030: a0fa 7d3e aedf d83e a66b 683e 3c64 b6be
00000040: 8e81 68be 8ea2 2bbf 8b30 e8bd 0a2e 643e
00000050: f107 02bf d785 6e3e 459b 123f 3f63 62bd
00000060: 60f1 c9bd ab6b aebc 1a35 4bbe 6aee 4dbe
00000070: 31fd 843e f5b3 a4bc 4f94 1f3f c3c1 7e3e
00000080: 971a 25be 7710 87be eaf9 67bc 9771 173e
00000090: 6ebf 58be 741c ecbd 38d7 9cbe 1823 9b3e
000000a0: c22c 99be f35c 623e 7fd7 81be 8620 0c3f
000000b0: 2e9d 67bf 8450 dd3e 4a9b 9b3e c8c7 05be
000000c0: 0d66 a7be 12ef c23e c0c9 22bf 423d bfbe
000000d0: df98 f63d 4522 943e a74c c6bd ed83 b03e
000000e0: 9c07 373e c845 7b3d e41e 253e 6059 7d3e
000000f0: 7306 02be ac80 873d 907f b53d 34a6 84bc
00000100: 47d7 88bd 4b2e 43be 861d 9d3e 0933 87be
00000110: 72a0 84be 925d c2be 55d4 0dbd c048 dfbe
00000120: a7e3 06be a54f 24be e105 853e cff2 c0bd
00000130: 604e ad3c 7b5b cf3e 1d85 863e 1b56 04be
00000140: ad93 bbbb 6ab2 2dbe 7c20 833d 13ad 1cbe
00000150: 3424 04be f6b1 843d cb28 513e 38a6 a1bc
00000160: 315a cb3d 1381 a73d 2be9 833b a504 0fbd
00000170: 4bde 373e f407 28be 38fa 823e e0c0 203e
00000180: 8ff0 6ebd a6ac 9bbe 4bd0 913c f19f 843e
00000190: a1be 03be db18 18bc fdfb 70be df06 213e
000001a0: 3c89 82be c79c 933e 482e 56be e7f3 913e
000001b0: 87c0 dbbd 283f 383d 0f60 d13c 922a 3fbe
000001c0: 7f4a 02bd ac9a d13c 744d 7ebe d577 b3be
000001d0: d63e fa3d 4311 3c3e e9d6 4b3c ece0 893d
000001e0: a46e 16be 0ffb 593e 87b7 913e bf64 3b3e
000001f0: dbd9 33bd 1012 9f3d a0e1 f73d f5aa f5bd
00000200: 1e3f 37bc 7a7f a5be aa89 cbbc c9ba a73e
00000210: d4a7 f13c c80b 903e b471 9cbd 2b5e b3be
00000220: 7270 833e 7b53 173f 5f35 e63e a789 94be
00000230: 953c 3abe c0d6 07bf 624a 5bbf 97b7 ca3e
00000240: b1eb 0cbe e8fe a3be 4ee1 99be 72a4 133f
00000250: 0f86 0e3f 4ca6 1d3d 9655 1c3f 81f2 51be
00000260: 8fb2 433e 0358 3a3d ca2c 423e 3e32 883e
00000270: c7d7 433d c198 84be 9948 393f 5221 813e
00000280: 545f 0e3e ad02 043e 5ad0 6b3e 4c40 ba3e
00000290: 81ad ddbc 8462 d8be 42f0 07bf e940 6e3e
000002a0: 99e0 abbe ea26 043e 2687 333e 255b 78be
000002b0: 29fd 2cbf 6cd7 0c3e 0ec8 a8bc e219 853e
000002c0: 7dbe c2be f08b 363f ee2c 133f 40e8 073f
000002d0: 331f 00be 6f87 bbbe 3ba3 0ebe e362 8cbe
000002e0: ef55 ffbe 8174 403e 8461 f33e 5bbc 4d3e
000002f0: b57d 523e 3959 3ebe 5d38 c03e b414 6cbe
00000300: 3d34 0f3e d8b9 2abe 5c98 4b3e 0921 43be
00000310: ee0e 5bbe 49e7 03bf 2359 82be 541f 9bbe
00000320: d5d7 02be 7954 ddbc 97a1 003e 1ce2 30be
00000330: 148c 5dbd f0fa 823e 8d6c a33e 830b a1be
00000340: 2deb b6be 981b 09bf 6b24 bfbc 103f 62bc
00000350: f7a4 2abd 2a10 aabd ba10 173f 2124 f33c
00000360: 57be 1a3d bbd5 ddbd bbcb d6be b393 e73d
00000370: 4954 603e 6b7b 073e cd70 bc3e c556 903e
00000380: 7dc6 503e 7907 8dbe fbc5 a43e e246 e73c
00000390: bc3f 74be 838e bfbd cb0e cbbe d96c 9f3e
000003a0: 5ebb 96be e61b 08be 2f41 93be fb65 583f
000003b0: efd9 1dbf 7f99 34bd 14d7 a3bc 7248 42bd
000003c0: 46a3 63be c442 e33e deea a7be 3f38 15bf
000003d0: b8b5 b73d f244 033f b3b9 febd 1417 5a3e
000003e0: 6176 023f a100 0ebe f16f 1c3e d36b 3fbd
000003f0: aa79 d9bd cb27 a93d ee61 c03d 583e 6cbd

weight_hh_l0_reverse f4 [128, 32]
0.27913526 -0.22849229 -0.18430555 0.26458055 -0.08855414 0.33368525 0.29065394 -0.38674137
0.15340278 -0.0995617 0.13125156 0.18530108 0.034655493 0.06506902 0.15583321 0.006652467
-0.17303738 -0.045863483 0.19935536 -0.2517682 -0.035147134 0.24678619 0.007645044 -0.26581433
-0.30341288 0.011054947 0.20112002 -0.067713805 -0.40368116 0.06556939 -0.05987688 0.10290537
-0.023469014 0.044705573 -0.13809091 0.24987622 -0.13246846 0.0832533 0.015811091 -0.23287584
0.12793775 -0.0365436 -0.02063354 -0.009311992 0.18095486 -0.09316093 0.2091459 0.10332682
-0.021513976 0.13817409 0.21429045 -0.2708841 -0.05826043 0.023438873 -0.018248424 -0.12346268
-0.09217249 -0.14216994 -0.14453763 -0.13578361 -0.09785545 0.12616238 0.054010432 0.31635496
0.167169 -0.2047923 -0.09607819 -0.0016168195 0.06729239 0.05910451 0.3134615 -0.15578647
0.06543096 -0.042998135 -0.020312663 -0.011325724 0.10698276 -0.13607524 0.112079926 -0.12511595
-0.1900569 -0.100205116 -0.07723909 0.013783584 -0.04113071 -0.021316003 0.108422756 -0.20113344
-0.2355906 0.14774373 0.20104788 0.1122852 0.100731075 0.08883643 -0.036077384 -0.24721508
0.06434217 -0.267202 -0.1905937 0.023544535 -0.2084637 -0.017710768 0.54858005 0.031032072
0.031081028 -0.24469717 -0.07961266 0.17527921 -0.022559937 -0.1745538 0.26466325 -0.024188442
-0.13519073 -0.064890325 0.042555127 -0.066156246 -0.06837761 0.18033218 -0.101691276 -0.05501034
-0.2841169 -0.014579301 0.42186314 0.08847665 -0.031807266 -0.27772376 0.058528744 0.018201143
0.23055154 -0.1547815 -0.085432105 0.132633 -0.24936768 -0.043243706 0.46232843 -0.033385884
0.12454264 -0.26927558 -0.05420089 -0.0954586 -0.3472457 -0.088609144 0.073122755 -0.35633337
-0.16455351 -0.24537449 0.11117795 -0.26317936 -0.116302 0.1746987 -0.09896684 0.07616604
-0.3337772 0.1669546 0.1148007 0.35238585 0.008995011 -0.13634366 -0.002706771 -0.18782412
0.19458938 -0.26937854 0.04879308 0.13282561 0.0457344 0.38138545 0.09804486 -0.58638364
-0.15542474 -0.47093713 0.41405496 -0.017418345 -0.009025001 0.393019 0.13572189 0.10036151
-0.1254178 -0.4188168 -0.12196124 -0.51684135 -0.037662897 0.1984715 -0.6071516 -0.03955514
-0.084604904 0.033265676 0.12037168 -0.017311022 -0.40932202 0.013197194 0.23937683 0.027449736
-0.23490444 0.38593137 0.26433906 -0.4909237 0.3029977 -0.35005748 0.0118303485 0.13534313
-0.38750097 0.16841482 0.25419962 0.2002242 -0.05941208 0.10403302 -0.2019955 0.07081999
0.1269642 0.2399408 -0.18358994 0.14286922 0.07152269 0.112443954 0.06546934 0.233414
0.050807577 0.47485113 -0.088678 -0.09093582 -0.12316769 0.07449718 -0.073334575 -0.10344719
0.20210351 -0.1826843 0.17680079 -0.08015034 0.019067405 -0.0008536004 -0.052643195 -0.3305904
-0.0010356299 -0.16803946 0.43835044 0.039986454 -0.21721217 0.112120576 0.050369088 -0.20521432
0.016501242 -0.038278487 -0.2200579 -0.3888161 -0.29363462 0.09523955 -0.18599306 0.08807787
-0.11505753 0.1467275 0.043975353 0.24194789 -0.24528927 -0.05151036 0.18815556 -0.12072373
00000000: d1ea 8e3e e2f9 69be 98ba 3cbe 1a77 873e
00000010: df5b b5bd cbd8 aa3e 98d0 943e f702 c6be
00000020: 9e15 1d3e 01e7 cbbd cf66 063e 91bf 3d3e
00000030: ebf2 0d3d e842 853d be92 1f3e f0fc d93b
00000040: b630 31be 59db 3bbd d023 4c3e c3e7 80be
00000050: 71f6 0fbd 85b5 7c3e 4783 fa3b d118 88be
00000060: ef58 9bbe cf1f 353c 68f2 4d3e 89ad 8abd
00000070: 4caf cebe 3f49 863d 7641 75bd 0dc0 d23d
00000080: 1742 c0bc 311d 373d b467 0dbe 8ddf 7f3e
00000090: d0a5 07be b580 aa3d 4386 813c 0177 6ebe
000000a0: 1d02 033e beae 15bd ab07 a9bc 5391 18bc
000000b0: 3b4c 393e 28cb bebd 582a 563e 039d d33d
000000c0: 143e b0bc 827d 0d3e f56e 5b3e 52b1 8abe
000000d0: 7da2 6ebd e102 c03c b87d 95bc 00da fcbd
000000e0: eec4 bcbd ff94 11be ac01 14be dc0a 0bbe
000000f0: 7068 c8bd b630 013e 0b3a 5d3d 47f9 a13e
00000100: 5a2e 2b3e 13b5 51be a4c4 c4bd 76eb d3ba
00000110: 98d0 893d 9217 723d 077e a03e 7d86 1fbe
00000120: ab00 863d d01e 30bd be66 a6bc 888f 39bc
00000130: c719 db3d 4f57 0bbe 298a e53d 651e 00be
00000140: 479e 42be 5738 cdbd 872f 9ebd 8bd4 613c
00000150: ad78 28bd e69e aebc c00c de3d edf5 4dbe
00000160: aa3e 71be 224a 173e 7fdf 4d3e c8f5 e53d
00000170: 184c ce3d e0ef b53d e1c5 13bd f325 7dbe
00000180: d4c5 833d b3ce 88be ff2a 43be 78e0 c03c
00000190: 8277 55be 2c16 91bc be6f 0c3f f936 fe3c
000001a0: a49d fe3c e591 7abe f60b a3bd 657c 333e
000001b0: 9ecf b8bc 3bbe 32be f181 873e d726 c6bc
000001c0: 706f 0abe 38e5 84bd 494e 2e3d ed7c 87bd
000001d0: 8f09 8cbd 00a9 383e 8443 d0bd 8652 61bd
000001e0: c577 91be 05de 6ebc 72fe d73e 3f33 b53d
000001f0: 5648 02bd cf31 8ebe d6bb 6f3d 901a 953c
00000200: b415 6c3e 0b7f 1ebe 07f7 aebd f2d0 073e
00000210: 3e5a 7fbe 5020 31bd 50b6 ec3e a3bf 08bd
00000220: 3610 ff3d 7dde 89be c101 5ebd cc7f c3bd
00000230: 30ca b1be b678 b5bd 62c1 953d 5471 b6be
00000240: b780 28be 7343 7bbe 44b1 e33d 72bf 86be
00000250: be2f eebd 37e4 323e 20af cabd f1fc 9b3d
00000260: d8e4 aabe 26f6 2a3e a11c eb3d eb6b b43e
00000270: d05f 133c ac9d 0bbe 1564 31bb f754 40be
00000280: 7042 473e fceb 89be 41db 473d 7003 083e
00000290: ff53 3b3d f444 c33e becb c83d 3d1d 16bf
000002a0: aa27 1fbe ac1e f1be 03ff d33e ebb0 8ebc
000002b0: 99dd 13bc c939 c93e aefa 0a3e 568a cd3d
000002c0: 866d 00be 286f d6be d1c6 f9bd b74f 04bf
000002d0: 6944 1abd 1d3c 4b3e 4a6e 1bbf 9204 22bd
000002e0: 5645 adbd 9741 083d 6d85 f63d d8cf 8dbc
000002f0: a892 d1be 0b39 583c 331f 753e 45de e03c
00000300: ca8a 70be cc98 c53e 7357 873e 5a5a fbbe
00000310: 8422 9b3e bc3a b3be 14d4 413c 6497 0a3e
00000320: 8766 c6be ef74 2c3e 7426 823e 9307 4d3e
00000330: 155a 73bd 440f d53d e9d7 4ebe 120a 913d
00000340: e702 023e 0bb3 753e 00ff 3bbe 4f4c 123e
00000350: 7d7a 923d 0449 e63d ca14 863d 1404 6f3e
00000360: 9b1b 503d b01f f33e d09c b5bd 8f3c babd
00000370: 583f fcbd fa91 983d 7030 96bd 1fdc d3bd
00000380: 39f4 4e3e 9811 3bbe 440b 353e dd25 a4bd
00000390: 3f33 9c3c 27c4 5fba 64a0 57bd 2543 a9be
000003a0: f9bd 87ba 8912 2cbe 786f e03e d6c8 233d
000003b0: de6c 5ebe 799f e53d d14f 4e3d b423 52be
000003c0: 9d2d 873c e7c9 1cbd dc56 61be e712 c7be
000003d0: 4757 96be f40c c33d f774 3ebe 2c62 b43d
000003e0: 48a3 ebbd bc3f 163e 801f 343d 30c1 773e
000003f0: 1c2d 7bbe 87fc 52bd daab 403e 013e f7bd
