TS-CVAE/experiments/pedestrians/models/zara1/models_22_Jun_2021_00_46_21_zara1_ar3/model_registrar-19.pt (torch_old, 545380 bytes, 43 tensors)

weight_ih_l0 f4 [128, 6]
0.027544698 0.07544259 -0.10379782 -0.0014734077 -0.15645723 0.024979265 -0.22418828 -0.22418337
-0.043028113 0.18183118 -0.06288248 0.10603235 -0.034791946 -0.0076521817 -0.15754275 -0.1897521
-0.23220378 0.048863724 -0.017603632 0.087552205 0.11787988 0.039257746 -0.19187969 0.17341623
-0.09602338 -0.02168946 -0.07152449 0.30643815 -0.08386121 -0.13822526 0.2102438 -0.021413686
-0.02897984 0.20490837 0.096878216 -0.05014916 -0.18757233 -0.0844708 -0.10410979 0.03576677
-0.11209668 -0.13325733 -0.10027602 0.2619818 0.13769051 -0.08457703 0.013817838 0.0068391333
0.28720263 0.08764295 0.17215449 -0.047801852 -0.11064508 -0.015150744 -0.11231759 -0.27982885
-0.06711504 0.27768382 -0.011118716 -0.10724966 0.11345761 -0.01856069 -0.36186117 0.10837465
-0.10319596 0.07416252 -0.14799742 -0.059533615 -0.038885344 0.15136017 0.18233028 0.114551
-0.03918824 0.012529765 -0.040001057 -0.14254476 0.018943675 -0.15179165 0.028763346 0.1754817
0.11310287 0.00843755 0.006954367 0.029455375 -0.23730326 -0.07394117 -0.29452446 0.14958274
0.24095641 -0.17008549 -0.021192756 0.11742186 0.08274996 0.003030267 -0.14565858 0.19247052
0.09221147 0.1643068 0.15312621 0.027579645 -0.00821003 -0.28118825 0.035738494 -0.15087435
-0.0209842 -0.012178204 0.062257703 0.069298826 0.018115267 0.013105142 0.19044316 -0.069041885
0.18253833 0.2368359 -0.07416973 -0.045799863 -0.08620482 0.21285625 0.26804394 0.086627886
-0.21329772 0.15779027 0.15853097 -0.15427758 0.0462406 -0.002610449 0.10182412 0.26871997
-0.033714414 -0.12908159 -0.15537673 0.010320942 -0.11178615 -0.2651851 -0.010178514 0.07036477
-0.0224935 -0.003539395 0.005643306 -0.04483986 0.046056926 -0.08430965 0.05813905 0.028402911
0.07868377 -0.0034044785 -0.13915385 -0.048086002 -0.2829371 -0.11175835 -0.07545076 -0.029590137
-0.13882776 0.09722053 0.112782694 0.0910048 0.11586451 -0.08526416 -0.4074004 0.12793726
0.05953181 0.12537493 -0.012008967 0.22856936 0.308038 0.2881926 -0.0015175055 0.11151265
0.09332575 0.069695406 -0.18196577 0.087325126 0.21110612 0.10792483 -0.0564304 -0.19246067
-0.2549799 0.034978937 0.010164292 0.020967094 -0.05512609 -0.05967786 0.14206648 -0.0346662
-0.18521053 -0.08932721 -0.18110365 0.16801506 0.13293765 -0.14668366 -0.13252315 -0.14901476
0.1367713 0.14621487 -0.12321791 -0.10520047 -0.081311435 -0.22872777 0.17546463 0.031160869
-0.039667953 0.049899355 0.172228 0.051802367 -0.09652236 0.0058420794 -0.046144444 -0.04736984
-0.12624438 -0.0430405 0.038091384 0.060955737 0.0044912817 -0.16308554 -0.19181384 -0.19698052
-0.04404875 -0.060495857 0.165005 0.1427642 -0.25395066 -0.20256439 0.09423633 -0.08821082
0.0016016195 -0.10676111 -0.22674319 -0.037845198 0.07548141 -0.06635411 -0.032869734 0.050738968
-0.17727742 0.079502195 0.014688698 -0.05953963 0.17339636 -0.13262123 -0.079759225 0.027193852
0.28273773 -0.07780168 -0.16905396 0.0013972243 -0.3202762 0.12501284 -0.20889002 -0.11146686
0.23264085 0.17841467 0.13892181 0.034772936 0.09584584 -0.15083319 -0.09219703 0.090387546
00000000: 6ba5 e13c a581 9a3d f493 d4bd 5c1f c1ba
00000010: 5336 20be 51a1 cc3c 9d91 65be 5390 65be
00000020: 3f3e 30bd f431 3a3e 88c8 80bd 7d27 d93d
00000030: 0082 0ebd 27bf fabb e352 21be 604e 42be
00000040: d4c6 6dbe 5425 483d 7e35 90bc 924e b33d
00000050: 026b f13d bbcc 203d 1c7c 44be 0694 313e
00000060: e8a7 c4bd 18ae b1bc 6f7b 92bd 76e5 9c3e
00000070: 6dbf abbd ec8a 0dbe 274a 573e c16b afbc
00000080: 2167 edbc 80d3 513e 1668 c63d 3569 4dbd
00000090: f612 40be 07ff acbd 8337 d5bd 2d80 123d
000000a0: f292 e5bd 9c74 08be 845d cdbd 7a22 863e
000000b0: befe 0c3e b936 adbd 3764 623c cf1a e03b
000000c0: 390c 933e 267e b33d 4449 303e e0cb 43bd
000000d0: e399 e2bd d33a 78bc c406 e6bd ba45 8fbe
000000e0: 9c73 89bd 932c 8e3e 462b 36bc b6a5 dbbd
000000f0: 775c e83d 970c 98bc de45 b9be 87f3 dd3d
00000100: 6758 d3bd 85e2 973d a38c 17be 85d9 73bd
00000110: 3d46 1fbd 29fe 1a3e cab4 3a3e b799 ea3d
00000120: d983 20bd a549 4d3c 26d8 23bd 41f7 11be
00000130: c42f 9b3c 456f 1bbe 1ca1 eb3c 7ab1 333e
00000140: 7aa2 e73d a63d 0a3c 75e1 e33b 664c f13c
00000150: a0ff 72be 786e 97bd e9cb 96be 382c 193e
00000160: 47bd 763e e42a 2ebe 6e9c adbc df7a f03d
00000170: d078 a93d 7297 463b 8627 15be fe16 453e
00000180: 5ed9 bc3d 0b40 283e 1ecd 1c3e b5ee e13c
00000190: 5d83 06bc e8f7 8fbe 8762 123d ce7e 1abe
000001a0: 0fe7 abbc 1787 47bc ef01 7f3d 8bec 8d3d
000001b0: 7866 943c f3b6 563c 8803 433e d565 8dbd
000001c0: 54eb 3a3e 1c85 723e 4de6 97bd a398 3bbd
000001d0: 278c b0bd fdf6 593e 0e3d 893e f669 b13d
000001e0: b86a 5abe c693 213e f155 223e f1fa 1dbe
000001f0: c966 3d3d 1114 2bbb 2a89 d03d aa95 893e
00000200: 2018 0abd f72d 04be 141b 1fbe 2b19 293c
00000210: 23f0 e4bd 57c6 87be c8c3 26bc 681b 903d
00000220: 4a44 b8bc 32f5 67bb 7beb b83b 00aa 37bd
00000230: 30a6 3c3d 8aaa acbd 3623 6e3d 39ad e83c
00000240: f524 a13d ac1d 5fbb 597e 0ebe d4f5 44bd
00000250: 22dd 90be 90e1 e4bd ee85 9abd 0467 f2bc
00000260: dd28 0ebe 8f1b c73d 9dfa e63d b960 ba3d
00000270: 5f4a ed3d fa9e aebd c996 d0be fc01 033e
00000280: a1d7 733d 4962 003e 42c1 44bc 160e 6a3e
00000290: 28b7 9d3e fb8d 933e 09e7 c6ba bf60 e43d
000002a0: 9221 bf3d 77bc 8e3d 3c55 3abe 84d7 b23d
000002b0: 342c 583e b107 dd3d 9023 67bd 6914 45be
000002c0: ba8c 82be 1346 0f3d 2188 263c 2fc3 ab3c
000002d0: e5cb 61bd c670 74bd e079 113e 25fe 0dbd
000002e0: d4a7 3dbe 2ff1 b6bd 3c73 39be 240c 2c3e
000002f0: cf20 083e 3e34 16be 26b4 07be 5397 18be
00000300: c70d 0c3e 5ab9 153e ac59 fcbd 5873 d7bd
00000310: 9c86 a6bd 9d37 6abe 00ad 333e 1445 ff3c
00000320: dd7a 22bd 4463 4c3d 895c 303e b82e 543d
00000330: 84ad c5bd ea6e bf3b f501 3dbd e106 42bd
00000340: 3546 01be 3c4b 30bd b605 1c3d b9ac 793d
00000350: 9a2b 933b e5ff 26be d96a 44be 43b5 49be
00000360: 766c 34bd 81ca 77bd 12f7 283e c730 123e
00000370: d205 82be 0a6d 4fbe fafe c03d e0a7 b4bd
00000380: 6fed d13a 92a5 dabd 5e2f 68be 9103 1bbd
00000390: ff95 9a3d aae4 87bd 6aa2 06bd aad3 4f3d
000003a0: 3688 35be 0cd2 a23d dda8 703c d4df 73bd
000003b0: d18e 313e dccd 07be ce58 a3bd a4c5 de3c
000003c0: 00c3 903e 7d56 9fbd 7b1c 2dbe 1123 b73a
000003d0: 3efb a3be 5e03 003e 44e7 55be bd48 e4bd
000003e0: 6739 6e3e 56b2 363e 8541 0e3e 116e 0e3d
000003f0: d34a c43d 0474 1abe ccd1 bcbd 1b1d b93d

weight_hh_l0 f4 [128, 32]
-0.06841751 -0.17081076 0.07621925 0.15058996 0.13414259 -0.0260663 -0.11026597 -0.079064816
0.008122889 0.1907121 -0.02399201 0.25828996 -0.1618316 0.13224587 0.16876033 0.0046750996
0.027902583 -0.0830115 0.0021583415 -0.06664494 -0.2500656 -0.016573945 -0.14019848 -0.27595055
0.20371623 -0.10805138 0.07878754 0.33329573 0.1780438 0.11292311 0.089175195 -0.14542007
0.10921868 -0.17829834 0.18438481 0.009178667 0.15422904 0.19757359 0.014770553 -0.07398905
0.17605206 0.010343499 -0.2183667 -0.06905811 -0.24638103 0.10750985 0.15064129 -0.092956066
0.07387229 0.11565191 -0.098969065 0.018623725 -0.10633558 0.073844135 -0.16567501 -0.12337612
-0.0167669 -0.12997088 -0.09976541 -0.10826504 -0.03523824 0.11393729 0.11505374 -0.18283828
0.105476186 -0.20238009 -0.07074112 0.121725924 0.24445398 0.11516524 -0.14983681 -0.26243865
-0.11382384 0.21939445 -0.19192033 0.20284128 -0.10223198 -0.099781334 0.15824722 -0.25681815
0.0519738 -0.038938493 0.07531148 -0.11396736 0.062453084 0.12500738 0.017365903 0.105140634
0.21911192 0.104951516 0.14695251 0.24534886 0.15982819 0.04819156 -0.08066576 0.080852754
0.053725224 0.0031771972 0.10436235 0.15719432 -0.0082208915 -0.06198673 -0.05386395 0.09929939
-0.07912809 0.032044157 -0.123336986 -0.09453225 -0.22251546 -0.18940021 -0.19080876 -0.23201069
-0.09246967 0.18535021 -0.04504938 -0.10729367 -0.130846 0.14546269 0.10651973 -0.1891371
-0.07615266 0.0035181316 -0.16193315 0.09664918 -0.120992765 0.16734217 0.14351295 0.019376714
-0.24040905 -0.22300895 0.3068655 -0.13898772 0.14876968 0.09715226 -0.100490905 0.059494264
0.43500552 -0.06656643 -0.31310627 0.0025028798 -0.042170275 0.0070747375 -0.42837146 -0.10152943
-0.19320656 -0.10624886 0.51863825 -0.5807622 0.035318293 0.43160525 -0.049757574 -0.12612711
-0.009726775 -0.3110889 0.080223545 -0.7192616 -0.3931968 0.03352533 0.24598826 -0.025550194
0.10274325 -0.097969316 0.11662604 -0.17902486 -0.016596232 0.023645485 -0.040141124 -0.18581052
-0.08744677 0.10204371 0.029225944 -0.08536075 -0.1808192 0.040768817 0.0042977827 -0.17232819
0.0438632 0.15755974 -0.26186976 0.15660954 0.0053030057 -0.031496447 -0.13668127 -0.049710825
-0.01817843 -0.13293733 0.18889612 0.24727798 0.12658267 0.14898805 0.19474068 0.04776126
0.07972705 -0.011195185 -0.08567736 0.15697631 0.11207975 0.004999391 0.011183184 -0.28411928
-0.17270163 0.20473833 -0.17323795 0.01142097 -0.05598433 0.1733211 0.06656169 -0.09787879
-0.0062481174 -0.096638024 -0.053533897 -0.07687695 -0.036563653 0.22022375 0.007329287 -0.0725283
-0.08345336 0.018513896 0.20002742 0.15876454 -0.086821295 0.22099757 -0.064850144 0.0797924
0.19622162 -0.091852315 0.11540985 0.1391489 -0.021128837 0.14801407 0.10460708 -0.07937732
-0.113646194 -0.012298495 -0.1469774 -0.12094852 0.09086809 -0.053204603 0.14370881 0.0027167995
0.09483041 -0.01970986 -0.19251259 0.03510859 -0.28056428 0.15080811 -0.13103339 -0.23910391
0.058932915 0.10620448 0.06237076 0.22644058 0.21131925 0.19568875 0.04417027 0.1725015
00000000: 7b1e 8cbd 04e9 2ebe d718 9c3d 4134 1a3e
00000010: ad5c 093e fe88 d5bc 20d3 e1bd bcec a1bd
00000020: de15 053c 084a 433e e48a c4bc 953e 843e
00000030: 2fb7 25be 766b 073e 82cf 2c3e 9431 993b
00000040: f593 e43c ef01 aabd f672 0d3b 247d 88bd
00000050: 9908 80be 15c6 87bc 3190 0fbe 6449 8dbe
00000060: fd9a 503e 0b4a ddbd 5d5b a13d bda5 aa3e
00000070: 1d51 363e 3b44 e73d 7ca1 b63d 00e9 14be
00000080: 0bae df3d d793 36be 5fcf 3c3e 1f62 163c
00000090: 38ee 1d3e bb50 4a3e 3100 723c 9287 97bd
000000a0: fe46 343e c777 293c 859b 5fbe 576e 8dbd
000000b0: 4f4b 7cbe 202e dc3d b641 1a3e c05f bebd
000000c0: 5b4a 973d e9da ec3d 4bb0 cabd c890 983c
000000d0: 78c6 d9bd 983b 973d b6a6 29be 9fac fcbd
000000e0: bd5a 89bc 1617 05be cf51 ccbd 10ba ddbd
000000f0: f955 10bd f457 e93d 4ca1 eb3d f539 3bbe
00000100: e603 d83d ba3c 4fbe b8e0 90bd 714b f93d
00000110: 2552 7a3e c1db eb3d d26e 19be 5c5e 86be
00000120: 791c e9bd f0a8 603e c386 44be a0b5 4f3e
00000130: 005f d1bd 285a ccbd 8f0b 223e ab7d 83be
00000140: 7be2 543d f87d 1fbd e83c 9a3d b867 e9bd
00000150: cece 7f3d ef01 003e f042 8e3c f953 d73d
00000160: e05e 603e d2f0 d63d b87a 163e bb3c 7b3e
00000170: 00aa 233e 8364 453d 1734 a5bd 2196 a53d
00000180: fb0e 5c3d 8638 503b eebb d53d 8cf7 203e
00000190: ebb0 06bc cce5 7dbd 72a0 5cbd 7b5d cb3d
000001a0: e80d a2bd bc40 033d 1a98 fcbd 209a c1bd
000001b0: 18db 63be 21f2 41be 5f63 43be 3694 6dbe
000001c0: bd60 bdbd 72cc 3d3e b385 38bd c9bc dbbd
000001d0: 7efc 05be 2cf4 143e 0427 da3d 28ad 41be
000001e0: edf5 9bbd 7490 663b ced1 25be 01f0 c53d
000001f0: 0ecb f7bd bf5b 2b3e 0ff5 123e eabb 9e3c
00000200: ca2d 76be 755c 64be 7a1d 9d3e cc52 0ebe
00000210: 1457 183e c4f7 c63d 2dce cdbd 42b0 733d
00000220: 0bb9 de3e fb53 88bd 774f a0be 5b07 243b
00000230: bdba 2cbd 33d3 e73b 8153 dbbe a9ee cfbd
00000240: f1d7 45be 0199 d9bd 7ac5 043f d5ac 14bf
00000250: eaa9 103d 5dfb dc3e 99ce 4bbd 7727 01be
00000260: 0d5d 1fbc 0b47 9fbe 3e4c a43d 8721 38bf
00000270: 1751 c9be db51 093d 59e4 7b3e a44e d1bc
00000280: 0e6b d23d 23a4 c8bd a2d9 ee3d 4b52 37be
00000290: d2f4 87bc 2db4 c13c 056b 24bd 1d45 3ebe
000002a0: 4b17 b3bd 4bfc d03d 3f6b ef3c 9ed1 aebd
000002b0: ab28 39be 34fd 263d 6ad4 8c3b cd76 30be
000002c0: e6a9 333d 5757 213e cb13 86be 405e 203e
000002d0: d6c4 ad3b 6b02 01bd 2df6 0bbe 949d 4bbd
000002e0: eeea 94bc b920 08be fc6d 413e 7036 7d3e
000002f0: e39e 013e 5390 183e 1a6a 473e 50a1 433d
00000300: f047 a33d 026c 37bc 9d77 afbd 66be 203e
00000310: 118a e53d eed1 a33b ac39 373c 1578 91be
00000320: b2d8 30be eda6 513e 4a65 31be 051f 3b3c
00000330: d34f 65bd 167b 313e 7f51 883d ad74 c8bd
00000340: 02bd ccbb 28ea c5bd 5c46 5bbd aa71 9dbd
00000350: c5c3 15bd 5682 613e 842a f03b b889 94bd
00000360: 98e9 aabd 74aa 973c fdd3 4c3e 2c93 223e
00000370: 5dcf b1bd 304d 623e 27d0 84bd 336a a33d
00000380: 52ee 483e 111d bcbd 005c ec3d 0d7d 0e3e
00000390: 6216 adbc 0091 173e 3d3c d63d 9490 a2bd
000003a0: 56bf e8bd a07f 49bc 3e81 16be dcb3 f7bd
000003b0: 0d19 ba3d 12ed 59bd 6728 133e 550c 323b
000003c0: 7236 c23d 9376 a1bc 0522 45be 06ce 0f3d
000003d0: 1fa6 8fbe 716d 1a3e 9e2d 06be a8d7 74be
000003e0: a463 713d bc81 d93d 7b78 7f3d 0ae0 673e
000003f0: 1364 583e a262 483e e3eb 343d 3ca4 303e

bias_ih_l0 f4 [128]
0.018386917 0.1390112 0.044266623 0.11371366 0.5955559 0.25777036 0.08406715 -0.062480263
0.09927089 0.15623687 0.2814665 0.2247651 0.41630316 0.052997947 0.15157631 0.55948603
0.021007352 0.31103358 0.034871913 0.17225099 0.5027117 0.116847664 0.3219621 0.031980157
0.30132198 0.12255359 -0.017186793 0.074444376 -0.0077136382 0.1785868 0.17374732 0.07433641
0.03833418 -0.27056652 -0.2620823 -0.042910933 -0.70133704 -0.16938588 -0.28665888 -0.18479326
-0.09913225 -0.13218842 -0.09233658 -0.001514455 -0.2229777 0.02604849 -0.025289256 -0.683713
0.01355091 -0.10281078 -0.049543627 0.10810914 -0.5932115 -0.057394013 -0.231584 -0.052300207
-0.13082755 0.08256875 0.030323802 0.15815152 -0.017285556 -0.5151262 -0.44320142 -0.27040318
0.13754109 0.11345741 -0.046588123 0.01972888 -0.11610127 0.015748525 0.11006051 -0.03500108
0.013908434 0.062163576 -0.096215785 0.020895092 -0.1242619 -0.037731074 -0.0638478 -0.098058015
-0.08460742 -0.11604874 0.1620214 -0.07249137 0.055886492 0.07297789 0.101517245 -0.13580261
0.10466531 -0.0807903 0.045182668 -0.20934385 -0.11591549 0.123625286 0.02483753 -0.07505839
0.22843282 0.10909742 0.090357564 0.17932716 0.74447423 0.20753194 0.11868304 -0.023284653
-0.020825893 0.21506524 0.06690576 0.16831869 0.37696344 0.03613569 0.17939416 0.7324825
0.16302244 0.23912483 0.13379075 0.053128596 0.58719546 0.14539866 0.2916526 0.082859546
0.09968087 0.16081323 0.15846175 0.01488656 0.12962678 0.38334164 0.23967715 0.06307947
00000000: 29a0 963c f458 0e3e eb50 353d b5e2 e83d
00000010: 5a76 183f 7afa 833e 662b ac3d 4eeb 7fbd
00000020: 894e cb3d 8ffc 1f3e 611c 903e d328 663e
00000030: b025 d53e 6014 593d d236 1b3e 7a3a 0f3f
00000040: 9c17 ac3c cb3f 9f3e dad5 0e3d 9062 303e
00000050: b7b1 003f d44d ef3d 37d8 a43e a0fd 023d
00000060: e046 9a3e 60fd fa3d 51cb 8cbc 4b76 983d
00000070: b0c2 fcbb 75df 363e d1ea 313e b03d 983d
00000080: 4d04 1d3d b287 8abe a72f 86be 60c3 2fbd
00000090: d38a 33bf 7e73 2dbe f4c4 92be 723a 3dbe
000000a0: d905 cbbd 675c 07be f61a bdbd ad80 c6ba
000000b0: 4454 64be a563 d53c 6a2b cfbc d107 2fbf
000000c0: a304 5e3c 758e d2bd 42ee 4abd 5368 dd3d
000000d0: b5dc 17bf fc15 6bbd 5b24 6dbe be38 56bd
000000e0: a8f7 05be ce19 a93d 9f69 f83c 79f2 213e
000000f0: 709a 8dbc 50df 03bf 4ceb e2be 4972 8abe
00000100: 92d7 0c3e 5c5c e83d 30d3 3ebd 769e a13c
00000110: 81c6 edbd 0d03 813c 6867 e13d 4b5d 0fbd
00000120: 33e0 633c 3c9f 7e3d c80c c5bd 2f2c ab3c
00000130: 067d febd e68b 1abd a3c2 82bd a4d2 c8bd
00000140: a846 adbd f6aa edbd f0e8 253e 5b76 94bd
00000150: 3ce9 643d 6f75 953d 46e8 cf3d d70f 0bbe
00000160: c45a d63d 6375 a5bd 7611 393d 3c5e 56be
00000170: 1a65 edbd 412f fd3d 1378 cb3c 37b8 99bd
00000180: 4bea 693e 786e df3d 630d b93d 8aa1 373e
00000190: dd95 3e3f 4183 543e 1810 f33d 75bf bebc
000001a0: 109b aabc 103a 5c3e e305 893d bc5b 2c3e
000001b0: 5a01 c13e 0403 143d 1ab3 373e f983 3b3f
000001c0: 5bef 263e 24dd 743e 7100 093e 5f9d 593d
000001d0: 7152 163f 63e3 143e 7d53 953e 44b2 a93d
000001e0: 7c25 cc3d 39ac 243e cc43 223e c2e6 733c
000001f0: e2bc 043e 5b45 c43e ed6d 753e cf2f 813d

bias_hh_l0 f4 [128]
-0.025903236 0.15211874 -0.089523844 0.27519643 0.7393316 0.013869862 -0.01758272 0.115084246
0.18440866 0.32113254 0.025013436 0.09993734 0.17800911 0.34726694 0.19213988 0.7199075
-0.06595952 0.30359384 -0.060818706 0.12797366 0.6503903 0.29756442 0.35048765 0.09627804
0.20298314 0.10742469 0.056367822 -0.017137391 -0.089339755 0.16924377 0.24326673 0.124527484
-0.050425105 -0.24447654 -0.024393566 -0.24905507 -0.39297214 -0.006542514 -0.14571662 -0.3296196
-0.026246747 -0.18841031 -0.07340193 -0.06270328 -0.22576001 -0.15338856 0.080665655 -0.6336007
-0.117247306 -0.17073442 -0.021190574 -0.07317666 -0.44930482 -0.22019018 -0.45465073 -0.080287695
-0.3344093 -0.22605981 -0.2232134 0.09745846 -0.0455066 -0.2812101 -0.31111705 0.030987835
-0.14571789 -0.15531586 0.123491056 -0.035902157 0.14055884 0.048069496 -0.07608197 0.011889605
0.15516676 -0.0314548 0.03161719 0.038188588 0.056451537 0.028713241 -0.14155297 0.04820041
0.00833388 0.12634152 0.087468326 -0.19907317 -0.1010882 0.012524985 -0.1420779 0.11227528
-0.1338316 0.024850355 0.048149735 -0.09449724 -0.10446085 -0.1550191 0.00028843622 0.028937433
0.11339353 0.24342325 -0.06574217 0.40663972 0.8430888 0.110921524 0.31726238 0.2873089
-0.07482752 0.23741582 0.30817503 0.24521059 0.38912496 0.22931813 0.09924871 0.7403464
0.18151508 0.102332994 0.23888671 -0.07036076 0.55024374 0.336494 0.44342843 0.21544899
0.2875101 0.13646151 0.2103764 0.021090105 0.00028618213 0.37779975 0.26669526 0.2638179
00000000: 0633 d4bc 04c5 1b3e 4758 b7bd 8ce6 8c3e
00000010: d644 3d3f 6b3e 633c a309 90bc 4ab1 eb3d
00000020: a0d5 3c3e 7c6b a43e fae8 cc3c f3ab cc3d
00000030: 0548 363e f9cc b13e 51c0 443e dc4b 383f
00000040: c915 87bd a770 9b3e 091d 79bd 870b 033e
00000050: fb7f 263f 5d5a 983e 1e73 b33e 6c2d c53d
00000060: d0da 4f3e 7a01 dc3d f2e1 663d b763 8cbc
00000070: c3f7 b6bd 3d4e 2d3e ea1a 793e 4408 ff3d
00000080: 8e8a 4ebd 0f58 7abe 04d5 c7bc 4b08 7fbe
00000090: a533 c9be 9662 d6bb bd36 15be e6c3 a8be
000000a0: 6b03 d7bc a2ee 40be c053 96bd 946a 80bd
000000b0: a22d 67be e411 1dbe 0934 a53d a833 22bf
000000c0: 5b1f f0bd 01d5 2ebe db97 adbc a5dd 95bd
000000d0: 480b e6be 8979 61be fbc7 e8be e06d a4bd
000000e0: b237 abbe 397c 67be 0e92 64be 4d98 c73d
000000f0: 2165 3abd c5fa 8fbe bc4a 9fbe 33da fd3c
00000100: 1237 15be 1f0b 1fbe e1e8 fc3d 240e 13bd
00000110: a8ee 0f3e 85e4 443d ddd0 9bbd 9ecc 423c
00000120: 09e4 1e3e c0d6 00bd 0781 013d a36b 1c3d
00000130: ba39 673d 0838 eb3c 43f3 10be cb6d 453d
00000140: d48a 083c ac5f 013e 9822 b33d d6d9 4bbe
00000150: 5507 cfbd 9835 4d3c de7c 11be 95f0 e53d
00000160: 270b 09be f992 cb3c a838 453d c587 c1bd
00000170: 92ef d5bd 54bd 1ebe 4139 9739 320e ed3c
00000180: de3a e83d f243 793e d5a3 86bd 1533 d03e
00000190: abd4 573f d32a e33d 3770 a23e 271a 933e
000001a0: 2c3f 99bd 221d 733e 1ec9 9d3e 7c18 7b3e
000001b0: 633b c73e 5fd2 6a3e e842 cb3d 5787 3d3f
000001c0: 17df 393e f693 d13d b89e 743e 4d19 90bd
000001d0: c6dc 0c3f f148 ac3e 0d09 e33e a99e 5c3e
000001e0: 8634 933e 91bc 0b3e e96c 573e 28c5 ac3c
000001f0: b70a 9639 f86e c13e 488c 883e 2413 873e

weight_ih_l0 f4 [128, 2]
0.05777492 0.087837055 -0.089690745 0.05916554 0.08197622 -0.076389395 -0.086864114 0.02681954
-0.03065237 -0.05520354 -0.02329341 0.09943238 0.01673184 -0.015787782 -0.08594192 -0.055111498
0.11429455 -0.07055938 0.014741053 0.04589289 -0.022536695 0.09914937 -0.03272037 -0.08059928
-0.0681658 0.07631735 0.08505906 -0.008150622 -0.106369756 0.038915873 -0.03522772 0.08500043
-0.05666121 0.08149462 0.097465724 0.1475118 -0.009144912 0.050026905 -0.0033271306 0.044393327
0.12832679 -0.07535694 -0.08427892 0.16617738 0.03156875 0.14034256 -0.19371364 -0.0010522587
0.051122967 -0.01661981 -0.056935996 0.015581309 0.08616728 0.14275731 -0.10437383 0.08657375
-0.099674106 0.11279261 -0.030783325 0.023763264 0.1597905 -0.040620245 -0.14121856 -0.04078161
-0.09296965 -0.23362984 0.032897893 -0.039029572 0.022871066 -0.18547586 0.110226914 0.062028624
0.26054332 -0.12394823 0.056165144 -0.034752384 -0.05634606 0.1879608 0.031895623 0.15822679
-0.063450955 -0.14545523 0.14463027 -0.090622626 0.04573752 0.0020791837 -0.16851191 0.15384066
-0.18844599 0.09832523 -0.053872567 0.049680784 0.042333644 0.14903711 0.21577714 -0.06907979
0.083477795 0.11929411 -0.11809893 -0.13282856 -0.049236633 0.1720875 -0.20066981 -0.04216925
-0.22203915 -0.13935076 0.14313868 -0.03790711 0.12931304 0.108134225 -0.18368244 -0.1677296
-0.13609685 0.0045403987 -0.0067428555 -0.033141978 -0.02111734 -0.018406445 -0.07647211 -0.01143227
0.19556396 -0.13085252 0.0010303203 0.103020124 0.22858359 -0.033082034 -0.09973963 -0.13637564
0.06215225 0.14002733 -0.07114256 -0.17345268 -0.0043645347 -0.14505666 -0.11556441 -0.21061902
-0.15881869 0.06301269 0.110520944 -0.148569 -0.032262783 -0.14681022 0.1663527 -0.072060645
0.17407285 0.01559704 -0.10648877 0.28093496 0.09919644 0.19511206 -0.14073184 0.13009886
-0.15722427 -0.07751222 0.162194 0.08084771 -0.0875552 -0.18450773 -0.1265361 0.13076487
0.10703871 -0.049370673 -0.17095137 0.11668996 -0.06554569 0.16141583 0.09299526 0.07200781
-0.082372665 -0.062197294 -0.1502581 0.042683013 -0.06832197 -0.17493044 0.15298942 0.07275661
0.1648367 0.024483448 -0.006363608 0.21520132 -0.17845172 0.044757042 0.12949808 -0.0966381
0.17296767 0.07432039 0.07064776 0.20005348 0.18309857 -0.0027334774 -0.14803323 -0.07775091
-0.07327355 -0.071047574 0.082234085 0.11256789 0.008541947 -0.2062206 0.057909764 -0.033054795
-0.040990293 -0.19418697 -0.057837 0.07134593 -0.007995484 -0.08485891 -0.19315088 -0.065987416
0.037552554 0.047036536 -0.00020662088 -0.17770587 0.11684564 0.10510139 0.0730712 -0.11306316
0.13561119 0.06851497 0.0146149155 0.13759483 0.026913876 0.12621632 -0.13735077 0.14980276
-0.055081587 -0.005002296 -0.11356016 -0.11572915 -0.15066999 -0.0201282 0.07909569 0.11424108
0.014752566 -0.05021831 -0.084614135 -0.029569738 0.16176645 0.10796574 -0.14017831 -0.10659849
0.20193668 0.05775095 -0.07573422 -0.19820705 0.03203126 -0.047880497 0.0010514056 0.14095554
-0.062048677 0.016528985 0.032367367 0.004762048 0.12864138 0.019830976 0.005532042 -0.19659853
00000000: 65a5 6c3d eae3 b33d c8af b7bd 9157 723d
00000010: 26e3 a73d 0b72 9cbd d0e5 b1bd a7b4 db3c
00000020: ae1a fbbc 1b1d 62bd d2d1 bebc 34a3 cb3d
00000030: 3611 893c 6155 81bc 5102 b0bd 98bc 61bd
00000040: 4313 ea3d 7081 90bd 7584 713c 2ffa 3b3d
00000050: e09e b8bc d30e cb3d cb05 06bd 3c11 a5bd
00000060: 839a 8bbd 454c 9c3d 7233 ae3d 308a 05bc
00000070: 63d8 d9bd 4066 1f3d f14a 10bd b514 ae3d
00000080: 9615 68bd a7e6 a63d 1c9c c73d 550d 173e
00000090: 8ad4 15bc 03e9 4c3d fd0b 5abb c7d5 353d
000000a0: 1968 033e bd54 9abd 6d9a acbd 672a 2a3e
000000b0: 3c4e 013d f6b5 0f3e de5c 46be f1eb 89ba
000000c0: 5166 513d 4526 88bc b835 69bd bf48 7f3c
000000d0: 7978 b03d f92e 123e f2c1 d5bd 944d b13d
000000e0: f021 ccbd d0ff e63d 502d fcbc 2dab c23c
000000f0: 1fa0 233e 6a61 26bd 999b 10be 9e0a 27bd
00000100: df66 bebd a93c 6fbe f1bf 063d 79dd 1fbd
00000110: 1a5c bb3c 62ed 3dbe a6be e13d ba11 7e3d
00000120: ef65 853e 92d8 fdbd 6c0d 663d 8458 0ebd
00000130: 20cb 66bd cc78 403e fca4 023d 3406 223e
00000140: 93f2 81bd 37f2 14be f519 143e 5b98 b9bd
00000150: 4457 3b3d ea42 083b 638e 2cbe 6888 1d3e
00000160: fcf7 40be bd5e c93d 7ba9 5cbd 147e 4b3d
00000170: 0b66 2d3d 2f9d 183e aff4 5c3e b479 8dbd
00000180: 68f6 aa3d 7850 f43d dadd f1bd 3604 08be
00000190: 5aac 49bd b537 303e 637c 4dbe aab9 2cbd
000001a0: 3b5e 63be f7b1 0ebe f292 123e 7c44 1bbd
000001b0: a36a 043e 7a75 dd3d 4017 3cbe 4fc1 2bbe
000001c0: f95c 0bbe a0c7 943b 2cf3 dcbb e2bf 07bd
000001d0: 46fe acbc 1dc9 96bc 699d 9cbd 6a4e 3bbc
000001e0: eb41 483e 34fe 05be d00b 873a 37fc d23d
000001f0: d111 6a3e 0781 07bd 4b44 ccbd 0ea6 0bbe
00000200: 5c93 7e3d 5363 0f3e 31b3 91bd 949d 31be
00000210: 5f04 8fbb bc89 14be 09ad ecbd 83ac 57be
00000220: 5ea1 22be cc0c 813d ce58 e23d 7922 18be
00000230: fb25 04bd 6b55 16be 5d58 2a3e 8894 93bd
00000240: 2740 323e ba8a 7f3c c916 dabd b5d6 8f3e
00000250: 8127 cb3d 75cb 473e 021c 10be a338 053e
00000260: 66ff 20be babe 9ebd 2f16 263e 7c93 a53d
00000270: 2450 b3bd 98ef 3cbe ae92 01be 3ae7 053e
00000280: 1c37 db3d e738 4abd e00d 2fbe 25fb ee3d
00000290: d23c 86bd 314a 253e 4d74 be3d d578 933d
000002a0: 00b3 a8bd 97c2 7ebd 42dd 19be 62d4 2e3d
000002b0: 64ec 8bbd f720 33be 42a9 1c3e 6b01 953d
000002c0: f4ca 283e 8391 c83c d085 d0bb bc5d 5c3e
000002d0: 0cbc 36be 2953 373d 259b 043e 32ea c5bd
000002e0: 701e 313e 4a35 983d c6af 903d d2da 4c3e
000002f0: 317e 3b3e 2424 33bb 0696 17be de3b 9fbd
00000300: 7110 96bd 6481 91bd 586a a83d fe89 e63d
00000310: 86f3 0b3c 7e2b 53be ca32 6d3d 7764 07bd
00000320: 70e5 27bd f3d8 46be 7de6 6cbd d11d 923d
00000330: 7eff 02bc 82ca adbd 58c9 45be 6924 87bd
00000340: b5d0 193d 62a9 403d 5fa8 58b9 87f8 35be
00000350: c44c ef3d 663f d73d 5aa6 953d a88d e7bd
00000360: a9dd 0a3e 9451 8c3d 6673 6f3c a9e5 0c3e
00000370: 7d7a dc3c da3e 013e aea5 0cbe e565 193e
00000380: 3b9d 61bd 4dea a3bb 3b92 e8bd 6803 edbd
00000390: 3c49 1abe e5e3 a4bc ecfc a13d 3af7 e93d
000003a0: bfb4 713c b7b1 4dbd 2d4a adbd 3c3c f2bc
000003b0: 1ba6 253e 241d dd3d e78a 0fbe 4f50 dabd
000003c0: 7dc8 4e3e 438c 6c3d 8b1a 9bbd caf6 4abe
000003d0: 3633 033d 571e 44bd 51cf 893a a656 103e
000003e0: c126 7ebd cb67 873c a593 043d f40a 9c3b
000003f0: 91ba 033e 9274 a23c 2246 b53b 2051 49be

weight_hh_l0 f4 [128, 32]
-0.15092207 0.00541208 -0.055264726 0.23703916 0.028968468 0.08510591 0.06274927 -0.16171657
-0.18821073 0.024517637 0.09973548 0.07787328 0.19889702 0.010997258 -0.065808915 -0.0033696624
0.15317035 -0.07844716 -0.013520364 0.09727658 0.067441486 -0.06435693 -0.081807636 -0.1805261
-0.18553804 0.0739517 -0.09899468 0.18205893 0.014994727 -0.18130288 -0.18968931 0.30890295
-0.04263349 -0.11967308 0.09631608 -0.0055537648 -0.09689793 0.041450016 -0.12843907 -0.020126816
-0.051395763 0.057636257 -0.14916532 -0.149571 0.041494366 0.15012786 0.03699042 0.025447724
0.0965108 -0.09857336 0.032572072 0.21051277 0.21231605 -0.20613779 0.14446174 0.1155858
0.09369912 -0.21953413 -0.012484185 -0.07619198 -0.04826105 0.098290585 -0.04819401 0.04416332
-0.09137034 -0.062840916 0.11147236 -0.0036536572 -0.19563177 -0.16239843 -0.036986258 -0.07474929
-0.14868356 -0.23496473 -0.09911489 -0.05806184 -0.030055095 0.19690135 -0.0045009344 0.033929817
0.009794934 0.042732306 -0.13506038 -0.16204834 -0.05840737 -0.028197741 -0.19390583 0.0030302145
-0.08007589 -0.20522064 -0.110018894 -0.13782261 -0.16484958 0.12552953 0.020319443 -0.066375576
0.09899952 -0.079376064 0.19588014 0.022750856 -0.034401726 0.016529543 0.19629218 0.05729227
0.06470646 0.16550945 0.011174819 0.016181933 -0.005020271 -0.07614231 -0.1439814 -0.106589936
-0.2348247 -0.045683067 -0.09540923 -0.14350784 0.062564686 0.10617293 -0.036424946 -0.17870902
-0.014883773 0.042325206 -0.048314482 -0.058472537 -0.06754446 -0.023144063 0.11046058 -0.016872134
0.09973281 -0.034505237 0.046568524 -0.010191137 0.031797197 0.07530197 0.052424382 -0.13000003
0.12105264 0.06987816 0.010417928 -0.030851895 0.035336457 0.21666138 0.039554555 0.13145196
-0.28445864 0.07680206 0.14178501 -0.05050363 0.039763477 0.17046167 0.02338957 -0.1472578
-0.13824967 0.11561864 -0.17684413 -0.079675555 -0.049067 0.1760869 0.15441729 -0.033005614
0.055718713 -0.17221515 -0.0043746326 -0.06642514 -0.19256315 0.1681803 -0.09699254 0.2279434
0.17853552 -0.2523529 -0.13147885 0.075167805 0.009248594 -0.10195086 0.0870833 -0.07988447
-0.115422875 0.064621545 -0.0778014 0.24077383 -0.12916133 -0.07997463 -0.091884464 0.04905072
0.12659083 0.04778758 0.1079727 -0.07912626 0.019549776 -0.18824567 0.20076783 -0.052153647
0.06362979 -0.10041976 0.17364372 0.030832514 -0.005598222 -0.19914967 -0.13609599 0.12361805
-0.0813643 -0.20056564 0.053894468 0.0132960575 -0.080930114 0.20366961 -0.2194787 -0.22700189
-0.04019838 -0.08992629 0.07588542 0.016209321 0.24210495 0.032456614 -0.20674059 0.02143642
0.034719154 -0.04563635 -0.15602903 0.039170388 0.13629967 -0.08236981 -0.077185914 0.03445871
0.09209611 0.123258956 -0.014606325 0.04118949 0.13992669 -0.24292934 0.07151128 0.0070309965
-0.008239158 -0.15099822 -0.08896742 0.27556258 0.23567589 -0.0983512 0.16527416 0.100391015
-0.011575942 0.013036982 -0.07736785 0.056595173 -0.11495012 0.009353901 -0.09498655 -0.12214584
-0.02784599 0.021729369 0.0761675 0.032511007 -0.17671183 0.053422816 0.060472142 -0.027384875
00000000: 518b 1abe d157 b13b 445d 62bd 65ba 723e
00000010: 484f ed3c 024c ae3d b082 803d 0799 25be
00000020: 50ba 40be 36d9 c83c 1e42 cc3d 077c 9f3d
00000030: a9ab 4b3e d82d 343c d3c6 86bd 8ed5 5cbb
00000040: b0d8 1c3e e8a8 a0bd 8484 5dbc f238 c73d
00000050: c31e 8a3d 91cd 83bd c38a a7bd d5db 38be
00000060: affd 3dbe fd73 973d b9bd cabd a86d 3a3e
00000070: 72ac 753c 76a7 39be ea3d 42be 8728 9e3e
00000080: 74a0 2ebd 2917 f5bd 5d41 c53d 5bfc b5bb
00000090: 6c72 c6bd 7ec7 293d 8885 03be fee0 a4bc
000000a0: 5d84 52bd ff13 6c3d cbbe 18be 2429 19be
000000b0: fff5 293d 1ebb 193e 4483 173d bf77 d03c
000000c0: 74a7 c53d d4e0 c9bd 4b6a 053d a990 573e
000000d0: 6169 593e c915 53be c7ed 133e 3fb8 ec3d
000000e0: 53e5 bf3d 8ecd 60be 788a 4cbc 8a0a 9cbd
000000f0: 61ad 45bd 934c c93d 1567 45bd 99e4 343d
00000100: 5f20 bbbd bdb2 80bd 9f4b e43d 3272 6fbb
00000110: b253 48be c64b 26be e77e 17bd 2816 99bd
00000120: 8140 18be 989a 70be bffc cabd 40d2 6dbd
00000130: 1a36 f6bc 82a0 493e 937c 93bb fef9 0a3d
00000140: ee7a 203c 1208 2f3d 454d 0abe 00f0 25be
00000150: 913c 6fbd f3fe e6bc 408f 46be 9096 463b
00000160: d4fe a3bd 5c25 52be 9651 e1bd 5f21 0dbe
00000170: 54ce 28be d08a 003e f674 a63c ebef 87bd
00000180: 43c0 ca3d eb8f a2bd ce94 483e 0160 ba3c
00000190: d3e8 0cbd f768 873c d100 493e 4dab 6a3d
000001a0: d284 843d 4f7b 293e 9716 373c f98f 843c
000001b0: 1681 a4bb 80f0 9bbd dc6f 13be d34b dabd
000001c0: e375 70be 2b1e 3bbd ea65 c3bd b8f3 12be
000001d0: ea21 803d 3171 d93d 5332 15bd 7fff 36be
000001e0: 12db 73bc 325d 2d3d 68e5 45bd e680 6fbd
000001f0: c054 8abd 9e98 bdbc 2839 e23d 6e37 8abc
00000200: b740 cc3d 5d55 0dbd a3be 3e3d baf8 26bc
00000210: c73d 023d eb37 9a3d f3ba 563d ba1e 05be
00000220: 72ea f73d 481c 8f3d f5af 2a3c 1dbd fcbc
00000230: f6bc 103d 7bdc 5d3e f503 223d 589b 063e
00000240: 90a4 91be 664a 9d3d 1730 113e e5dc 4ebd
00000250: 07df 223d 818d 2e3e 7c9b bf3c c0ca 16be
00000260: 5291 0dbe 77c9 ec3d a116 35be f02c a3bd
00000270: 7bfa 48bd 2050 343e 911f 1e3e e530 07bd
00000280: 4e39 643d 2b59 30be 1459 8fbb e709 88bd
00000290: 462f 45be 7537 2c3e 06a4 c6bd ff69 693e
000002a0: 04d2 363e 6634 81be 64a2 06be 94f1 993d
000002b0: 6a87 173c 9dcb d0bd bb58 b23d 789a a3bd
000002c0: d462 ecbd 4d58 843d 5756 9fbd 6a8d 763e
000002d0: de42 04be bdc9 a3bd ec2d bcbd 68e9 483d
000002e0: 07a1 013e e9bc 433d ca20 dd3d f30c a2bd
000002f0: da26 a03c 79c3 40be 1596 4d3e 109f 55bd
00000300: 5650 823d e0a8 cdbd a9cf 313e 7894 fc3c
00000310: 4a71 b7bb e4ed 4bbe bf5c 0bbe 762b fd3d
00000320: 53a2 a6bd 1461 4dbe 72c0 5c3d b5d7 593c
00000330: b0be a5bd c48e 503e 06bf 60be 2f73 68be
00000340: 0ea7 24bd 462b b8bd d169 9b3d 69c9 843c
00000350: 5cea 773e 3af1 043d ceb3 53be 6e9b af3c
00000360: ac35 0e3d 2eed 3abd 13c6 1fbe 2171 203d
00000370: 2492 0b3e 81b1 a8bd a613 9ebd 9424 0d3d
00000380: e39c bc3d 316f fc3d 5e4f 6fbc 50b6 283d
00000390: f148 0f3e 78c2 78be 8274 923d 4664 e63b
000003a0: 89fd 06bc 479f 1abe 8d34 b6bd 8a16 8d3e
000003b0: 0555 713e 5b6c c9bd a13d 293e ce99 cd3d
000003c0: 05a9 3dbc 1199 553c 0973 9ebd 57d0 673d
000003d0: f86a ebbd 1b41 193c 4f88 c2bd 9927 fabd
000003e0: 461d e4bc ca01 b23c b5fd 9b3d 432a 053d
000003f0: f2f3 34be e2d1 5a3d a3b1 773d 3f56 e0bc

bias_ih_l0 f4 [128]
-0.08772745 -0.114736415 0.03644905 0.08861999 0.045518808 0.101571746 0.17633851 -0.07190237
0.010918594 0.06654774 -0.1379525 -0.14166549 -0.013070721 0.14668792 -0.15516263 0.035745967
0.0070176315 0.1399693 0.16105662 -0.09942879 0.12735943 -0.02361948 -0.16278876 -0.058914207
0.0037486013 1.1788684e-05 0.05283845 0.0072490596 0.10681631 0.09218843 0.1512459 -0.0008538504
0.16959454 -0.13944244 -0.13951065 -0.11461319 -0.04323054 0.08848095 0.024266416 0.22985248
0.2317299 0.1934562 0.051129527 0.18015426 -0.09369322 0.18469091 0.016135553 -0.05064318
-0.11652911 0.22553763 0.16918333 0.17838287 0.032184865 0.12618199 -0.1068 0.038459815
-0.017413218 0.112785585 0.054517638 0.18097943 -0.1281656 0.03816379 0.0077079544 -0.040133063
-0.091430195 0.043371916 0.12389492 -0.1496244 0.020745637 0.08101849 0.10920671 0.08271213
0.1432633 -0.03600778 0.07072152 0.04666641 0.07927185 0.023721896 0.1014953 -0.12595047
-0.16583686 -0.09510467 0.16033301 -0.06927784 0.036190297 -0.17221196 -0.11736052 0.18939665
-0.13299787 -0.017389854 0.0882226 0.01790379 0.023865212 -0.10900332 -0.087553784 0.035429884
-0.018071823 0.1390872 0.11404139 0.10671926 0.18172888 0.19689296 0.3002344 0.06388973
0.06874991 0.21363254 -0.00062797405 -0.077715725 -0.09206996 0.2103945 0.057160437 0.07245666
0.06809487 -0.05579777 0.14512074 0.0759979 -0.043746352 0.1596667 -0.013359555 -0.1238229
0.21109544 0.005996643 0.18150109 -0.030721331 -0.08019555 0.058651634 0.14922096 -0.0014485089
00000000: 73aa b3bd edfa eabd 994b 153d 667e b53d
00000010: ee71 3a3d d904 d03d 1592 343e 8d41 93bd
00000020: e7e3 323c 2e4a 883d 6c43 0dbe c210 11be
00000030: 9426 56bc 5c35 163e f4e2 1ebe 5d6a 123d
00000040: 29f4 e53b 1d54 0f3e 07ec 243e 52a1 cbbd
00000050: 836a 023e a47d c1bc 19b2 26be 0650 71bd
00000060: 18ab 753b 03c8 4537 216d 583d 8589 ed3b
00000070: 82c2 da3d 4acd bc3d 35e0 1a3e eed4 5fba
00000080: 31aa 2d3e 00ca 0ebe e1db 0ebe 52ba eabd
00000090: 8212 31bd 8035 b53d 5dca c63c 735e 6b3e
000000a0: 9a4a 6d3e 6219 463e 326d 513d 5c7a 383e
000000b0: 3be2 bfbd 9d1f 3d3e b52e 843c 396f 4fbd
000000c0: d0a6 eebd 56f3 663e 653e 2d3e 00aa 363e
000000d0: 47d4 033d da35 013e f5b9 dabd 0a88 1d3d
000000e0: 2aa6 8ebc 21fc e63d e34d 5f3d ac52 393e
000000f0: d83d 03be a251 1c3d 0293 fc3b 9162 24bd
00000100: c13f bbbd c0a6 313d 9fbc fd3d 2437 19be
00000110: c1f2 a93c 06ed a53d c4a7 df3d fa64 a93d
00000120: 9db3 123e e57c 13bd 72d6 903d 4725 3f3d
00000130: 4859 a23d 6c54 c23c c5dc cf3d 29f9 00be
00000140: 23d1 29be 3dc6 c2bd 562e 243e 8ae1 8dbd
00000150: 473c 143d 5558 30be b65a f0bd 32f1 413e
00000160: 9830 08be 2b75 8ebc 0dae b43d f8aa 923c
00000170: fa80 c33c 223d dfbd 664f b3bd ed1e 113d
00000180: 5c0b 94bc e06c 0e3e 888e e93d a18f da3d
00000190: 2317 3a3e 4f9e 493e 53b8 993e 9ed8 823d
000001a0: c1cc 8c3d 7dc2 5a3e a09e 24ba 6c29 9fbd
000001b0: 2d8f bcbd a871 573e 1021 6a3d 2864 943d
000001c0: 5375 8b3d 348c 64bd 889a 143e c9a4 9b3d
000001d0: 602f 33bd ab7f 233e 09e2 5abc dc96 fdbd
000001e0: 6729 583e 7d7f c43b 6cdb 393e 4dab fbbc
000001f0: 913d a4bd b23c 703d 61cd 183e e5db bdba

bias_hh_l0 f4 [128]
0.14131202 0.14475182 -0.03336331 -0.08031089 0.13955331 0.18925253 -0.07028011 0.03218217
0.089595914 0.13867916 0.06710494 0.06708843 -0.012529216 0.15597337 0.074121095 0.08682066
-0.044029374 0.06084691 0.070814624 -0.14439057 0.13242409 0.08581523 0.1315956 -0.13239108
-0.10324931 -0.08314627 0.01708043 -0.08892618 0.13265881 0.11639733 0.0104308985 0.028117219
0.035386678 0.081571266 -0.015585875 -0.010205609 -0.03281847 -0.0783849 -0.098840214 -0.060118116
-0.02991374 0.014760922 -0.030202202 0.07439982 0.050851196 0.19778337 -0.1403083 -0.124568574
-0.049062844 -0.03455893 0.024180166 -0.008800379 0.02459131 0.04930311 0.038037017 -0.109114274
0.007021834 0.15769017 -0.034756135 -0.037975904 0.07028265 -0.1541092 -0.111829005 0.13681938
0.08785816 0.061313935 -0.06481792 -0.116445415 0.094241895 -0.120243594 -0.09499246 0.08204232
-0.117466755 0.18665133 -0.0043573137 0.1539949 0.040403202 0.09660388 0.07859613 -0.019178273
-0.07693675 0.07607125 -0.12287019 0.028770603 0.083156176 -0.13052347 0.01422397 0.12506977
-0.068844825 0.20514694 -0.11597644 0.034040526 -0.1248588 -0.14765996 0.13747354 -0.14413513
0.24631177 0.115059055 0.013446864 -0.15959851 0.008548581 0.21008879 0.22532281 0.13761492
0.11182325 0.22635812 -0.05539796 -0.0569448 -0.08418883 0.0695523 0.12290409 0.1745382
0.21618728 0.0025876833 -0.07683238 0.061287913 -0.060913835 -0.030464547 0.107503854 0.16295592
0.08603087 0.13182952 -0.030163605 0.1546776 0.19532087 0.1258432 0.074042216 0.06326158
00000000: 19b4 103e d239 143e f7a7 08bd 097a a4bd
00000010: 10e7 0e3e 6acb 413e 05ef 8fbd 73d1 033d
00000020: 107e b73d e901 0e3e 516e 893d a965 893d
00000030: 5747 4dbc 7cb7 1f3e cdcc 973d 08cf b13d
00000040: 2558 34bd 9c3a 793d 4207 913d 1fdb 13be
00000050: 2e9a 073e e5bf af3d ffc0 063e 8791 07be
00000060: 6074 d3bd 9748 aabd 42ec 8b3c ee1e b6bd
00000070: b6d7 073e b961 ee3d 5ce6 2a3c 1556 e63c
00000080: 9ff1 103d d60e a73d e65b 7fbc 6d35 27bc
00000090: a96c 06bd 4388 a0bd bd6c cabd 6a3e 76bd
000000a0: a90d f5bc cbd7 713c 9c6a f7bc ef5e 983d
000000b0: 5849 503d b987 4a3e fbac 0fbe cf1d ffbd
000000c0: 1ff6 48bd aa8d 0dbd 7c15 c63c 772f 10bc
000000d0: b773 c93c 0ff2 493d b4cc 1b3d 4e77 dfbd
000000e0: 6a17 e63b 8879 213e 735c 0ebd 9f8c 1bbd
000000f0: 5af0 8f3d cdce 1dbe 9b06 e5bd 611a 0c3e
00000100: fbee b33d 5224 7b3d 42bf 84bd ef7a eebd
00000110: e501 c13d 4642 f6bd 688b c2bd ce05 a83d
00000120: 6992 f0bd 8721 3f3e ccc7 8ebb d7b0 1d3e
00000130: d47d 253d 41d8 c53d 02f7 a03d c11b 9dbc
00000140: 0491 9dbd 3ecb 9b3d 5ea3 fbbd 54b0 eb3c
00000150: c94d aa3d f2a7 05be a70b 693c 4a12 003e
00000160: 84fe 8cbd 0a12 523e 0e85 edbd 146e 0b3d
00000170: f8b5 ffbd 2c34 17be ddc5 0c3e 2998 13be
00000180: 2739 7c3e 15a4 eb3d 3c50 5c3c cb6d 23be
00000190: 590f 0c3c 8421 573e 06bb 663e edea 0c3e
000001a0: 9703 e53d 6cca 673e f9e8 62bd f33e 69bd
000001b0: 316b acbd 7071 8e3d 24b5 fb3d 24ba 323e
000001c0: 3360 5d3e 1f96 293b 4b5a 9dbd 0909 7b3d
000001d0: c980 79bd c990 f9bc fb2a dc3d ebdd 263e
000001e0: f430 b03d 51fe 063e aa19 f7bc ce63 1e3e
000001f0: 3202 483e 0add 003e 72a3 973d 4a8f 813d

weight_ih_l0_reverse f4 [128, 2]
0.07117698 -0.43785238 0.28504136 -0.1310774 -0.21423993 -0.43268692 0.033996794 -0.4358405
-0.088210374 -0.25686958 0.109057225 -0.39590025 0.29072666 0.31455782 0.145363 -0.31693292
-0.15610251 -0.5706784 -0.07067914 0.16132043 -0.4987631 0.14213504 0.5044624 -0.11383374
-0.076838896 -0.09306476 -0.22740872 -0.16735618 0.24824972 0.022584816 0.5345761 0.18752529
-0.115814 -0.2022422 0.007441771 0.08930671 -0.15084724 -0.096190795 -0.2743499 0.24821402
-0.3788791 0.18545312 -0.29674566 0.47383955 -0.6434917 0.22102876 0.33339128 -0.13111882
-0.34591633 0.3728055 -0.5300238 -0.3313756 0.09642528 0.23827274 -0.10446414 0.34587908
0.15326524 0.009015203 0.09505043 0.22307281 -0.16163066 0.010207294 0.116832234 -0.017806584
-0.07197746 -0.19034654 0.28719017 -0.2654668 -0.18736276 -0.30354944 -0.022743633 -0.42425963
-0.08937375 -0.14483717 0.25750884 -0.104065485 -0.005573719 0.33948684 0.21077777 -0.10405811
0.02356795 -0.1788478 0.07726822 -0.11276192 -0.12623098 0.05255135 0.18563323 -0.074498795
0.07558734 0.0011152521 -0.056259017 -0.08939473 0.16018052 -0.14197905 0.23096238 0.0933302
-0.009191838 -0.23198399 0.0022180842 0.23004846 -0.08713192 -0.025026284 -0.2305098 0.13627164
-0.24826513 0.20818521 -0.20514695 0.23663923 -0.12688771 0.05751292 0.011223382 -0.18986621
-0.036056068 0.03381973 -0.20815085 -0.36410165 0.09750801 0.13687956 0.021855993 0.06528049
-0.110300735 0.17199357 0.22759557 0.17988099 -0.07232792 0.044745483 0.17789093 -0.09233712
-0.050978463 -0.29998565 0.0047014146 0.32337442 0.00676531 0.29365486 -0.12963603 -0.39503178
0.2203286 0.512563 0.40928465 -0.22420996 -0.17143692 -0.49818578 -0.7221131 0.33710542
-0.0957775 -0.35151538 -0.21164593 0.3835548 0.5073592 0.0184073 0.5076599 -0.110897765
0.26354015 -0.0060740504 0.21795295 0.20747037 0.05912312 -0.3141686 0.58747184 0.20822227
0.10648721 0.20440072 0.17300647 0.40438518 0.02066112 -0.44634414 -0.4788794 0.19580951
-0.39288968 0.11703636 0.19585128 -0.3143868 -0.56625915 0.100572 -0.031727437 0.28961983
-0.37337098 0.6397929 0.45975378 0.48018807 -0.09180047 -0.3736909 -0.16277912 -0.24776411
-0.44149765 0.16605647 0.41242197 0.21398385 0.22068341 -0.17769752 0.30845353 -0.13584915
0.14696205 -0.19939463 0.17894375 -0.1616398 -0.157893 -0.3810065 -0.22754547 -0.36974996
-0.11027503 0.010804286 0.054081813 -0.112179965 -0.06773503 0.16044895 0.24860236 -0.28087974
-0.30716875 -0.5234016 -0.025896236 -0.017547177 -0.03794816 -0.12778167 0.5025542 -0.08350737
-0.045465853 -0.13192478 -0.34398776 0.038105633 0.17234309 0.08762576 0.32209864 0.16889335
0.2191546 -0.12649591 0.2685197 -0.020997923 -0.20862451 -0.10496718 -0.39474308 0.281974
-0.3029899 -0.15722702 -0.29898363 0.6772748 -0.50923663 -0.12708908 -0.042698372 -0.08907735
-0.2313906 0.49050346 -0.20655409 -0.49139225 -0.0027709564 0.38672307 -0.11270652 0.15439598
0.4493722 -0.1614206 0.117233366 -0.007090068 -0.075093985 -0.03429653 0.028244443 -0.09208242
00000000: 3dc5 913d 302e e0be f1f0 913e 2739 06be
00000010: b661 5bbe 2489 ddbe 3940 0b3d 7c26 dfbe
00000020: a4a7 b4bd 6984 83be 6559 df3d 70b3 cabe
00000030: 20da 943e b90d a13e 0ada 143e 0845 a2be
00000040: 56d9 1fbe fb17 12bf 3ac0 90bd 2f31 253e
00000050: e15d ffbe d98b 113e 7324 013f aa21 e9bd
00000060: b65d 9dbd bd98 bebd d5dd 68be 6b5f 2bbe
00000070: 2d35 7e3e cb03 b93c fbd9 083f a106 403e
00000080: e42f edbd 9418 4fbe 1ada f33b 70e6 b63d
00000090: b377 1abe aeff c4bd 9777 8cbe d12b 7e3e
000000a0: 71fc c1be 6ce7 3d3e 0cef 97be 199b f23e
000000b0: dfbb 24bf 5d55 623e 43b2 aa3e 0344 06be
000000c0: f21b b1be 5de0 be3e a4af 07bf 10aa a9be
000000d0: 9e7a c53d c5fd 733e 4cf1 d5bd 1017 b13e
000000e0: 90f1 1c3e 81b4 133c cda9 c23d 336d 643e
000000f0: 8282 25be 7e3c 273c bd45 ef3d 1ddf 91bc
00000100: eb68 93bd 34ea 42be 970a 933e 44eb 87be
00000110: 06dc 3fbe d56a 9bbe db50 babc 8f38 d9be
00000120: 9609 b7bd 3250 14be 33d8 833e 4920 d5bd
00000130: bea3 b6bb 38d1 ad3e 21d6 573e 6b1c d5bd
00000140: 9311 c13c e123 37be cd3e 9e3d b9ef e6bd
00000150: b242 01be 1640 573d a316 3e3e d392 98bd
00000160: 89cd 9a3d a72d 923a db6f 66bd 9614 b7bd
00000170: 5d06 243e f562 11be 6781 6c3e e723 bf3d
00000180: 5d99 16bc 368d 6dbe 475d 113b d391 6b3e
00000190: 3872 b2bd ec03 cdbc c30a 6cbe cb8a 0b3e
000001a0: 3739 7ebe 812e 553e 0b12 52be 8e51 723e
000001b0: daee 01be ab92 6b3d 47e2 373c 4a6c 42be
000001c0: 87af 13bd 8f86 0a3d 7f25 55be 886b babe
000001d0: 48b2 c73d 282a 0c3e 570b b33c c7b1 853d
000001e0: 5ae5 e1bd 151f 303e d00e 693e b932 383e
000001f0: a920 94bd 0a47 373d 0a29 363e 3e1b bdbd
00000200: cbce 50bd b897 99be 530e 9a3b 5591 a53e
00000210: 89af dd3b ee59 963e 4fbf 04be 9b41 cabe
00000220: d29d 613e 5437 033f c28d d13e 4c97 65be
00000230: 298d 2fbe 3512 ffbe 67dc 38bf 1599 ac3e
00000240: fe26 c4bd d3f9 b3be b6b9 58be 4b61 c43e
00000250: 4be2 013f e8ca 963c 00f6 013f 5e1e e3bd
00000260: bcee 863e d408 c7bb 0f2f 5f3e 1d73 543e
00000270: 162b 723d b5da a0be 8e64 163f 3838 553e
00000280: f715 da3d 6c4e 513e 9c28 313e 930b cf3e
00000290: 8241 a93c 3887 e4be ae2f f5be 4a82 483e
000002a0: d628 c9be c2b0 ef3d 3d8d 483e 4ff7 a0be
000002b0: 5cf6 10bf b1f8 cd3d a1f4 01bd 0d49 943e
000002c0: 7b2a bfbe 78c9 233f d964 eb3e 36db f53e
000002d0: e301 bcbd 6a54 bfbe 92af 26be e0b5 7dbe
000002e0: fb0b e2be b50a 2a3e f928 d33e 951e 5b3e
000002f0: d5fa 613e 57f6 35be 9fed 9d3e 0a1c 0bbe
00000300: 387d 163e 1b2e 4cbe 083d 373e e784 25be
00000310: b4ae 21be 4913 c3be ae01 69be de4f bdbe
00000320: e0d7 e1bd 7604 313c e484 5d3d 9cbe e5bd
00000330: aab8 8abd bb4c 243e 9e91 7e3e 78cf 8fbe
00000340: 3945 9dbe a6fd 05bf 5824 d4bc 19bf 8fbc
00000350: 886f 1bbd 33d9 02be 64a7 003f e905 abbd
00000360: 673a 3abd 4a17 07be 2a1f b0be a714 1c3d
00000370: b57a 303e 2275 b33d 1dea a43e 61f2 2c3e
00000380: 106a 603e 2588 01be 6a7b 893e d603 acbc
00000390: aaa1 55be 08f9 d6bd c41b cabe e55e 903e
000003a0: 7e21 9bbe 1f00 21be 6214 99be e261 2d3f
000003b0: 555d 02bf a423 02be 7de4 2ebd 306e b6bd
000003c0: a8f1 6cbe 4523 fb3e ea82 53be c497 fbbe
000003d0: ef98 35bb 9100 c63e add2 e6bd fb19 1e3e
000003e0: 1d14 e63e 714b 25be 0c18 f03d cd53 e8bb
000003f0: e0ca 99bd 857a 0cbd e460 e73c b595 bcbd

weight_hh_l0_reverse f4 [128, 32]
0.119624436 -0.08213938 -0.09232591 0.101620756 0.021149505 0.22932774 0.16019796 -0.17026857
0.08705094 -0.02239543 0.07232856 0.17886506 -0.12421025 -0.035214894 0.06238206 0.009628714
-0.060876686 0.057846654 0.107634336 -0.17894417 -0.08022339 0.13873425 0.083394736 -0.14081061
-0.22451942 0.06618861 0.03204515 -0.089687794 -0.31179953 0.136822 -0.072422035 0.09867035
-0.05061259 0.07805338 -0.10884158 0.20674616 -0.10825796 0.091320485 0.09044608 -0.19894429
0.09821762 -0.0028075355 0.053587347 0.000945713 0.06166693 -0.09724217 0.19107164 0.07882232
-0.03978906 0.010698558 0.2150887 -0.31054604 -0.09631733 0.049655605 -0.089528315 -0.097203255
-0.11897041 -0.085568585 -0.02760346 -0.12161036 -0.12506087 0.05650712 0.07576088 0.28610176
0.1960277 -0.20136084 -0.08533944 -0.015213958 0.0798406 0.07412237 0.28053895 -0.17222306
0.052916385 -0.021989949 -0.026262341 0.03554418 0.05953629 -0.13123453 0.10190167 -0.12034193
-0.19433998 -0.09333298 -0.08816738 0.015594082 -0.06705709 -0.015708055 0.10780691 -0.19685702
-0.23619497 0.16365236 0.13962236 0.11862642 0.07719183 0.093132995 -0.020460634 -0.25443777
0.046678938 -0.21747825 -0.18028267 -0.00017548096 -0.16941214 -0.02713163 0.4744165 0.060306028
0.024843363 -0.17210566 -0.08305519 0.1744132 -0.063589655 -0.2037107 0.2181836 -0.027557448
-0.13916364 -0.028603295 0.010998773 -0.050076853 -0.08852304 0.17525448 -0.083850235 -0.014882473
-0.27912766 -0.004605044 0.31181344 0.100809515 -0.037868563 -0.2607003 0.06383802 -0.015688365
0.22052468 -0.15760157 -0.066336155 0.09728336 -0.19977729 -0.024790037 0.3923578 -0.028237304
0.11658962 -0.20588025 -0.041843828 -0.053044815 -0.34400937 -0.07360991 0.056313932 -0.33302364
-0.16987756 -0.17539029 0.086356245 -0.24578203 -0.14533429 0.13377291 -0.08980162 0.08885802
-0.309508 0.17397195 0.049453553 0.3358875 -0.0402232 -0.06553246 0.004660074 -0.18533498
0.122708164 -0.18343891 0.0658134 0.08165077 0.079192944 0.30692044 -0.018434726 -0.41021383
-0.14001076 -0.2787681 0.3309323 -0.014751416 -0.080876715 0.2895325 0.06599666 0.10455074
-0.105385505 -0.33151186 -0.16580766 -0.45033386 -0.054667607 0.16098595 -0.48438066 0.049671233
-0.05162022 0.0019263668 -0.013439856 -0.003882672 -0.39249277 0.086772025 0.26227677 0.010366606
-0.12626295 0.3009286 0.22269596 -0.43832713 0.24607512 -0.2688253 0.025797132 0.070180155
-0.33012792 0.093450926 0.22918998 0.2994953 -0.089294225 0.0831343 -0.15542698 0.11927928
0.07789981 0.21439624 -0.15661517 0.09974824 -0.011823509 0.12958255 0.053620957 0.1705245
0.0005397283 0.4019432 -0.07932869 -0.09907524 -0.19042504 0.06649209 -0.037502415 -0.043919187
0.17626129 -0.16440076 0.20507699 -0.11690428 0.052144155 -0.01604549 -0.052445985 -0.28246883
-0.03777745 -0.055103693 0.36984703 0.040041756 -0.2378588 0.073800914 0.05177032 -0.20844226
0.05243109 -0.06902629 -0.2440702 -0.29169193 -0.25519067 0.074221104 -0.13445306 0.10154366
-0.05982716 0.17949635 0.05312995 0.23661953 -0.179923 -0.070709504 0.13801691 -0.10216634
00000000: a8fd f43d b138 a8bd 5e15 bdbd 8b1e d03d
00000010: ba41 ad3c e4d4 6a3e ef0a 243e e25a 2ebe
00000020: c347 b23d 9f76 b7bc ff20 943d 6728 373e
00000030: f261 febd 7e3d 10bd 5584 7f3d c1c1 1d3c
00000040: d559 79bd 9df0 6c3d 646f dc3d 243d 37be
00000050: 294c a4bd 5a10 0e3e dcca aa3d a830 10be
00000060: 6be8 65be e58d 873d c641 033d 3cae b7bd
00000070: 30a4 9fbe 111b 0c3e 0152 94bd ae13 ca3d
00000080: 264f 4fbd 73da 9f3d 56e8 debd 44b5 533e
00000090: 59b6 ddbd 3c06 bb3d cb3b b93d 0db8 4bbe
000000a0: 5226 c93d a1fe 37bb 687e 5b3d bae9 773a
000000b0: 7696 7c3d e726 c7bd 49a8 433e 996d a13d
000000c0: daf9 22bd 0149 2f3c 3640 5c3e e4ff 9ebe
000000d0: 0542 c5bd ad63 4b3d 9f5a b7bd 8012 c7bd
000000e0: c2a6 f3bd 953e afbd a720 e2bc da0e f9bd
000000f0: f50f 00be 0374 673d 8528 9b3d ee7b 923e
00000100: 7cbb 483e 8931 4ebe 72c6 aebd f743 79bc
00000110: 7883 a33d 78cd 973d cda2 8f3e 3e5b 30be
00000120: dabe 583d 4424 b4bc 1f24 d7bc c696 113d
00000130: 53dc 733d 5862 06be d3b1 d03d d475 f6bd
00000140: 0f01 47be 5d25 bfbd 1991 b4bd 527e 7f3c
00000150: 3a55 89bd 2eae 80bc dfc9 dc3d e394 49be
00000160: 18dd 71be 7c94 273e 2af9 0e3e 69f2 f23d
00000170: c016 9e3d 83bc be3d 0f9d a7bc ab45 82be
00000180: 6a32 3f3d 9eb2 5ebe 059c 38be 5001 38b9
00000190: 607a 2dbe 2743 debc b8e6 f23e 7403 773d
000001a0: 4f84 cb3c 773c 30be d718 aabd 6099 323e
000001b0: 4b3b 82bd 8a99 50be 866b 5f3e 28c0 e1bc
000001c0: ea80 0ebe 7551 eabc 3334 343c 631d 4dbd
000001d0: 914b b5bd e975 333e acb9 abbd 9ed5 73bc
000001e0: d2e9 8ebe e9e5 96bb 03a6 9f3e 3875 ce3d
000001f0: 111c 1bbd 827a 85be 82bd 823d e384 80bc
00000200: 39d1 613e 4e62 21be 40db 87bd 803c c73d
00000210: 6b92 4cbe 7a14 cbbc 1fe3 c83e eb51 e7bc
00000220: 8ac6 ee3d 46d2 52be 6f64 2bbd 8545 59bd
00000230: ff21 b0be cbc0 96bd 70a9 663d 1382 aabe
00000240: 62f4 2dbe 8399 33be 8bdb b03d 49ae 7bbe
00000250: 83d2 14be c4fb 083e e9e9 b7bd 32fb b53d
00000260: d577 9ebe b425 323e cf8f 4a3d 72f9 ab3e
00000270: 15c1 24bd e235 86bd 89b3 983b 74c8 3dbe
00000280: 6b4e fb3d 69d7 3bbe 2dc9 863d 8538 a73d
00000290: e92f a23d ad24 9d3e 6c04 97bc 8c07 d2be
000002a0: fb5e 0fbe b1ba 8ebe f56f a93e ecaf 71bc
000002b0: b1a2 a5bd 9b3d 943e 4229 873d b31e d63d
000002c0: 5bd4 d7bd ecbb a9be 7cc9 29be 2992 e6be
000002d0: 24eb 5fbd 80d9 243e be00 f8be 1074 4b3d
000002e0: b96f 53bd 257e fc3a d732 5cbc 6d74 7ebb
000002f0: d0f4 c8be 88b5 b13d 2449 863e b2d8 293c
00000300: 134b 01be 5013 9a3e 690a 643e 6a6c e0be
00000310: 1efb 7b3e 78a3 89be 8254 d33c 9dba 8f3d
00000320: 8706 a9be 3363 bf3d c7b0 6a3e 7357 993e
00000330: e4df b6bd 5142 aa3d 4028 1fbe b248 f43d
00000340: f089 9f3d b08a 5b3e ba5f 20be ce48 cc3d
00000350: 64b7 41bc 4ab1 043e a6a1 5b3d f99d 2e3e
00000360: 8e7c 0d3a 80cb cd3e 1577 a2bd f6e7 cabd
00000370: c8fe 42be 012d 883d 229c 19bd 9be4 33bd
00000380: d77d 343e ac58 28be b4ff 513e 836b efbd
00000390: 1c95 553d d571 83bc 9ad1 56bd c19f 90be
000003a0: 87bc 1abd 69b4 61bd 975c bd3e d302 243d
000003b0: 4291 73be ef24 973d 1d0d 543d e371 55be
000003c0: fcc1 563d a85d 8dbd 8aed 79be a558 95be
000003d0: 5aa8 82be 3c01 983d 10ae 09be 1ff6 cf3d
000003e0: 530d 75bd e4cd 373e ca9e 593d 644c 723e
000003f0: bc3d 38be 25d0 90bd 4e54 0d3e 963c d1bd
