TS-CVAE/experiments/pedestrians/models/zara1/models_22_Jun_2021_00_46_21_zara1_ar3/model_registrar-20.pt (torch_old, 545380 bytes, 43 tensors)

weight_ih_l0 f4 [128, 6]
0	0x3d019f60	0.031646132
1	0x3d8161fb	0.063175164
2	0xbdd97de1	-0.106197126
3	0x3ba0af02	0.004903675
4	0xbe1866ea	-0.14883009
5	0x3cc25456	0.023721855
6	0xbe6371d1	-0.22211386
7	0xbe62a09d	-0.22131582
8	0xbd21a28e	-0.039461665
9	0x3e41d8c2	0.18930343
10	0xbd9aa858	-0.0755164
11	0x3dea46dc	0.114392966
12	0xbd18943d	-0.037250746
13	0xbac884e3	-0.0015298392
14	0xbe211e40	-0.15734196
15	0xbe43f931	-0.19138028
16	0xbe69893c	-0.22806257
17	0x3d482da9	0.04887167
18	0xbcb5384b	-0.02212157
19	0x3dbc299a	0.09187622
20	0x3df77447	0.12082725
21	0x3d3483a1	0.044070844
22	0xbe557a18	-0.20847356
23	0x3e34949b	0.17634813
24	0xbdd657fd	-0.10466001
25	0xbc7eea6e	-0.015558822
26	0xbd86ca21	-0.06581522
27	0x3e9d7365	0.30752102
28	0xbdb87277	-0.090062074
29	0xbe116497	-0.14198528
30	0x3e5a0c44	0.21293741
31	0xbce873b1	-0.028375478
32	0xbd01c8bb	-0.031685572
33	0x3e53590d	0.20639439
34	0x3dd5c641	0.104382046
35	0xbd683f7b	-0.056701165
36	0xbe3c8b0f	-0.18412422
37	0xbdab2ed2	-0.0835854
38	0xbdd90a47	-0.105976634
39	0x3d090f86	0.03346207
40	0xbde77165	-0.11300925
41	0xbe0cd9c3	-0.13754945
42	0xbdcef401	-0.10105134
43	0x3e888e43	0.26671037
44	0x3e0c8a06	0.13724527
45	0xbdb20f38	-0.08694309
46	0x3c315c11	0.010825173
47	0x3c042dbe	0.008067546
48	0x3e979f9f	0.2961397
49	0x3dab1e22	0.08355357
50	0x3e2d0b4d	0.16898842
51	0xbd37f53f	-0.04491162
52	0xbdf5f2be	-0.1200919
53	0xbc08e8aa	-0.008356253
54	0xbde5b4cb	-0.11216124
55	0xbe940b49	-0.2891486
56	0xbd892092	-0.066956654
57	0x3e8f72be	0.2801723
58	0xbc0385d1	-0.00802751
59	0xbdd899e5	-0.10576228
60	0x3de658a0	0.112473726
61	0xbc805cf1	-0.015669318
62	0xbeb9ffe0	-0.3632803
63	0x3dd9f0d3	0.10641637
64	0xbdd08b17	-0.10182779
65	0x3d98656d	0.074412204
66	0xbe0a4291	-0.13501956
67	0xbd6298c1	-0.05532146
68	0xbd3ef2de	-0.046618335
69	0x3e1ae6c2	0.1512709
70	0x3e3bf42d	0.18354864
71	0x3dfd964e	0.12382184
72	0xbd05700c	-0.03257756
73	0x3caa2ffa	0.02077483
74	0xbd395d19	-0.0452548
75	0xbe19f996	-0.15036616
76	0x3bdd6813	0.0067567914
77	0xbe02cdf5	-0.12773879
78	0x3cd24b21	0.02567059
79	0x3e3cfbd1	0.18455435
80	0x3deda44b	0.11603602
81	0x3bedf00f	0.007261283
82	0xbb72bc60	-0.003703855
83	0x3cf2b349	0.029626505
84	0xbe77f580	-0.24214745
85	0xbd984595	-0.07435147
86	0xbe965d11	-0.2936788
87	0x3e1b0461	0.15138389
88	0x3e7b7180	0.24555016
89	0xbe23321e	-0.15937087
90	0xbcc370dc	-0.023857526
91	0x3df9ff46	0.12206893
92	0x3da7732a	0.08176263
93	0x3bc67385	0.0060562515
94	0xbe24bf06	-0.16088495
95	0x3e46bfb3	0.19409065
96	0x3db69aad	0.08916221
97	0x3e2a85c9	0.16652597
98	0x3e1d86fd	0.15383525
99	0x3d0495dc	0.03236948
100	0xbc81f8c2	-0.015865687
101	0xbe9515ed	-0.2911829
102	0x3d3e109f	0.04640257
103	0xbe224366	-0.15846023
104	0xbcf29567	-0.029612256
105	0xbc27d958	-0.01024469
106	0x3d6995c6	0.0570276
107	0x3da89e6d	0.08233342
108	0x3c8c9cb2	0.017164562
109	0x3caa02ea	0.020753343
110	0x3e45b5a7	0.19307576
111	0xbd8eaed8	-0.069669425
112	0x3e38908a	0.18023887
113	0x3e70e80b	0.23526017
114	0xbdb5b8fe	-0.08873175
115	0xbd5875d3	-0.05284674
116	0xbd95029e	-0.0727589
117	0x3e5e6146	0.21716794
118	0x3e8117b8	0.25213408
119	0x3db461e8	0.08807737
120	0xbe51dd8f	-0.20494674
121	0x3e38a60e	0.18032095
122	0x3e1d3c04	0.15354925
123	0xbe20cfa3	-0.15704207
124	0x3d332a8f	0.04374176
125	0x3ac88909	0.0015299629
126	0x3ddead25	0.108728684
127	0x3e8b81d2	0.27247483
128	0xbd1498b9	-0.03627846
129	0xbe054b96	-0.13017115
130	0xbe1b461d	-0.15163465
131	0x3c7ab142	0.015301051
132	0xbdfcfb73	-0.12352648
133	0xbe80e60d	-0.25175515
134	0xba9882a8	-0.0011635618
135	0x3d90dc15	0.07073227
136	0xbc731de8	-0.014838673
137	0xbc5193f3	-0.0127916215
138	0x3c2ad28a	0.010426173
139	0xbd702dd8	-0.05863747
140	0x3d296057	0.041351642
141	0xbd9e2f89	-0.0772391
142	0x3d75569e	0.059897058
143	0x3cd07589	0.02544667
144	0x3db70693	0.08936801
145	0xbb9ec18a	-0.004844849
146	0xbe1466d9	-0.14492358
147	0xbd27fbf3	-0.041011762
148	0xbe9c9b49	-0.30587223
149	0xbdeaa7b8	-0.11457771
150	0xbda397e7	-0.079879574
151	0xbcfc35da	-0.030787397
152	0xbe097f3d	-0.13427444
153	0x3dc5c799	0.09657211
154	0x3dd802e6	0.10547428
155	0x3db04f90	0.08608925
156	0x3df2344b	0.1182638
157	0xbdba17ea	-0.090865925
158	0xbecfedd6	-0.40611142
159	0x3e035cde	0.12828395
160	0x3d98f111	0.07467855
161	0x3e00435b	0.12525694
162	0xbbb4c830	-0.0055170283
163	0x3e7698b1	0.24081685
164	0x3e9e3296	0.3089797
165	0x3e913be8	0.28366017
166	0xbcb9ca2b	-0.022679409
167	0x3de1810d	0.110109426
168	0x3da919f9	0.08256907
169	0x3d9a78af	0.0754255
170	0xbe355373	-0.17707615
171	0x3db58730	0.088636756
172	0x3e589927	0.21152173
173	0x3dd1d83b	0.10246321
174	0xbd82656b	-0.06367
175	0xbe45d56f	-0.193197
176	0xbe79f746	-0.24410734
177	0x3d1814c5	0.037129182
178	0x3b671c13	0.0035264536
179	0x3d10d037	0.03535482
180	0xbd5ff8f4	-0.05468078
181	0xbd903449	-0.070412226
182	0x3e0f33e1	0.13984634
183	0xbd0610b6	-0.03273078
184	0xbe36f3a5	-0.1786638
185	0xbdc49b9d	-0.095999934
186	0xbe3bbcc2	-0.18333724
187	0x3e2bcccf	0.16777347
188	0x3e0903e6	0.13380393
189	0xbe19b513	-0.1501048
190	0xbe0929d3	-0.13394861
191	0xbe0bdedd	-0.13659234
192	0x3e0f0128	0.13965285
193	0x3e12d954	0.14340717
194	0xbdf99400	-0.12186432
195	0xbdd37d50	-0.10326636
196	0xbda1d4e8	-0.07901937
197	0xbe6aead7	-0.22941147
198	0x3e3bc20a	0.18335739
199	0x3cb41518	0.021982715
200	0xbd2a0ba2	-0.041515
201	0x3d4d5470	0.050129354
202	0x3e2f3424	0.17109734
203	0x3da33803	0.07969668
204	0xbdd4ae41	-0.10384799
205	0x3c5b6f7d	0.01339328
206	0xbd33f42f	-0.043934043
207	0xbd4a19ce	-0.049341016
208	0xbdfcea75	-0.12349407
209	0xbd355767	-0.044272806
210	0x3d2537cf	0.040336426
211	0x3d6d5d61	0.05795038
212	0x3c162c91	0.009165899
213	0xbe22ff9e	-0.15917823
214	0xbe520ff2	-0.20513895
215	0xbe41b0ae	-0.18915054
216	0xbd13de88	-0.036100894
217	0xbd985fef	-0.07440173
218	0x3e1a2c02	0.1505585
219	0x3e1510e9	0.14557232
220	0xbe8797b7	-0.26482937
221	0xbe469df2	-0.19396189
222	0x3dca036c	0.09863934
223	0xbdb967ef	-0.09053027
224	0x3a326bbe	0.0006806216
225	0xbdde6d26	-0.10860662
226	0xbe6cbfd3	-0.2312005
227	0xbd3030bf	-0.043015238
228	0x3d94568b	0.07243069
229	0xbd888f67	-0.06667977
230	0xbcf9da79	-0.030499684
231	0x3d5231d9	0.05131707
232	0xbe38954f	-0.18025707
233	0x3da365f9	0.07978434
234	0x3c49e5ca	0.012322852
235	0xbd81efbb	-0.06344553
236	0x3e33cbed	0.1755826
237	0xbe07c771	-0.13259675
238	0xbda359b9	-0.079760976
239	0x3cd008f0	0.025394887
240	0x3e938272	0.2881046
241	0xbdb0d879	-0.08635039
242	0xbe28f211	-0.16498591
243	0x3b764801	0.0037579539
244	0xbea8ba50	-0.32954645
245	0x3e0d7bf7	0.1381682
246	0xbe56fa80	-0.20993996
247	0xbdd97d45	-0.106195964
248	0x3e6cd723	0.23128943
249	0x3e36f8db	0.17868368
250	0x3e04a7c6	0.12954625
251	0x3d094251	0.03351051
252	0x3dc56315	0.09638039
253	0xbe111210	-0.14167047
254	0xbdc88734	-0.09791413
255	0x3db12774	0.08650103

weight_hh_l0 f4 [128, 32]
0	0xbd9231a0	-0.071383715
1	0xbe33a12d	-0.17541952
2	0x3d9c0c29	0.07619507
3	0x3e177d34	0.14793855
4	0x3e0b868e	0.13625547
5	0xbcaa7006	-0.02080537
6	0xbde2c5ad	-0.1107286
7	0xbda3f811	-0.08006299
8	0x3c81dc07	0.015851988
9	0x3e4631d2	0.19354942
10	0xbd00cf14	-0.031447485
11	0x3e865037	0.26233074
12	0xbe297641	-0.16549017
13	0x3e08d1d7	0.13361298
14	0x3e24ef4a	0.16106907
15	0x3ae85347	0.0017725014
16	0x3ce332c8	0.027734175
17	0xbdb03c7b	-0.08605286
18	0x3c008de4	0.007846329
19	0xbd9f0e3a	-0.077663854
20	0xbe81f93b	-0.2538546
21	0xbc832eff	-0.01601362
22	0xbe10a7ff	-0.14126585
23	0xbe8c61e8	-0.27418447
24	0x3e51fea6	0.20507297
25	0xbde0641b	-0.109565936
26	0x3dab2358	0.08356351
27	0x3ea8052e	0.32816452
28	0x3e301b73	0.17197971
29	0x3de4aa44	0.11165288
30	0x3db8bfbc	0.090209454
31	0xbe180ad2	-0.14847878
32	0x3dda0919	0.106462665
33	0xbe3cbc55	-0.18431218
34	0x3e35d211	0.17755915
35	0x3b1a515a	0.0023547024
36	0x3e225e01	0.15856172
37	0x3e501621	0.20320942
38	0x3bc355f1	0.0059611727
39	0xbd8a517b	-0.067538224
40	0x3e3925b2	0.18080786
41	0x3c55618b	0.013023744
42	0xbe624e7c	-0.22100252
43	0xbd894c5f	-0.0670402
44	0xbe6ada6c	-0.22934884
45	0x3de50e0a	0.11184318
46	0x3e19e795	0.15029748
47	0xbd90b786	-0.07066254
48	0x3da1566d	0.078778125
49	0x3de2a639	0.11066861
50	0xbdc975bf	-0.098369114
51	0x3c936b9a	0.017995644
52	0xbdb20260	-0.08691859
53	0x3d87b304	0.066259414
54	0xbe301c6a	-0.17198339
55	0xbdf329f0	-0.11873233
56	0xbc804484	-0.01565767
57	0xbdff81dc	-0.124759406
58	0xbdc6c2ef	-0.097051494
59	0xbddbbb77	-0.107291155
60	0xbd1c03a2	-0.038089402
61	0x3e02ee99	0.1278633
62	0x3df55908	0.11979872
63	0xbe44c726	-0.19216594
64	0x3ddd04d7	0.10791939
65	0xbe4b1631	-0.19832684
66	0xbd8f2b7f	-0.06990718
67	0x3dfe8088	0.12426859
68	0x3e77bf3a	0.24194041
69	0x3de091b6	0.10965292
70	0xbe17915e	-0.14801547
71	0xbe8558e1	-0.26044372
72	0xbde77b08	-0.11302763
73	0x3e5f0e6f	0.2178285
74	0xbe40be0d	-0.18822499
75	0x3e4df4aa	0.20112863
76	0xbdd10204	-0.102054626
77	0xbdd0e3be	-0.101996884
78	0x3e1d5fb7	0.15368544
79	0xbe863410	-0.26211596
80	0x3d48f004	0.04905702
81	0xbd0eeb50	-0.03489238
82	0x3da3de5c	0.08001396
83	0xbdebf810	-0.115219235
84	0x3d716c35	0.058941085
85	0x3dfdb548	0.12388092
86	0x3ca6caf9	0.020360457
87	0x3dd18aff	0.102315895
88	0x3e62a35c	0.22132629
89	0x3dd72c94	0.105065495
90	0x3e113a40	0.14182377
91	0x3e76e05e	0.24109027
92	0x3e1dab8d	0.15397473
93	0x3d4e19bb	0.050317507
94	0xbdac7543	-0.084208034
95	0x3da26c24	0.079307824
96	0x3d481c9d	0.048855413
97	0xbbce7ab4	-0.0063012484
98	0x3dca8f53	0.09890618
99	0x3e179469	0.14802708
100	0xbbf258b7	-0.0073958295
101	0xbd58fdf9	-0.052976582
102	0xbd735a20	-0.05941212
103	0x3dd9b64a	0.10630472
104	0xbd824292	-0.063603535
105	0x3d207fef	0.039184507
106	0xbe05be15	-0.13060792
107	0xbdb1ada9	-0.08675701
108	0xbe561c77	-0.20909296
109	0xbe3ef87a	-0.18649474
110	0xbe4e8ba0	-0.2017045
111	0xbe59b5b0	-0.21260715
112	0xbdb3fd66	-0.08788566
113	0x3e3b1a6d	0.182718
114	0xbd11d04b	-0.035599034
115	0xbdfb204f	-0.12262022
116	0xbde52af9	-0.11189837
117	0x3e13c5a3	0.14430861
118	0x3dc69ae8	0.09697515
119	0xbe3dd8b6	-0.185397
120	0xbda13ba0	-0.07872701
121	0x3bf89afc	0.007586835
122	0xbe1eb730	-0.15499568
123	0x3db6c09e	0.089234576
124	0xbe08ec81	-0.13371469
125	0x3e3c8a31	0.18412091
126	0x3e1b9db9	0.15196885
127	0x3c1d1a03	0.009588721
128	0xbe783db1	-0.24242283
129	0xbe7895ad	-0.24275847
130	0x3e9dc706	0.30815905
131	0xbe1cdea3	-0.15319304
132	0x3e141ebd	0.1446485
133	0x3de54006	0.11193852
134	0xbdda9a06	-0.10673909
135	0x3d6d6661	0.057958964
136	0x3eea852c	0.45804727
137	0xbd91686c	-0.07099995
138	0xbea4f003	-0.32214364
139	0x3b313d0c	0.0027044443
140	0xbcfe745d	-0.031061346
141	0x3c4eabcb	0.012614201
142	0xbedc83cd	-0.43069306
143	0xbda0b99a	-0.07847901
144	0xbe439a17	-0.1910175
145	0xbdd17722	-0.10227801
146	0x3f0812b6	0.5315355
147	0xbf18899a	-0.59584963
148	0x3d2b7ece	0.041868977
149	0x3ee17404	0.44033825
150	0xbd567324	-0.0523559
151	0xbdf7de34	-0.12102929
152	0xbcc7964c	-0.02436366
153	0xbe9ab2f5	-0.30214658
154	0x3dc3ab00	0.095541
155	0xbf3a2b75	-0.7272256
156	0xbecb20b8	-0.396734
157	0x3cf0deb6	0.029403072
158	0x3e8076b0	0.2509055
159	0xbb1a0ce9	-0.002350623
160	0x3dd19ce1	0.102350004
161	0xbdbe3a7e	-0.092885
162	0x3ded3b8f	0.115836255
163	0xbe36c5b2	-0.17848852
164	0xbcd28c0e	-0.025701549
165	0x3cca52aa	0.02469762
166	0xbd20c756	-0.0392526
167	0xbe3daa6c	-0.18522042
168	0xbdaa38d0	-0.083116174
169	0x3dd541c4	0.104129344
170	0x3cdf12d5	0.02723066
171	0xbda6a4e3	-0.081369184
172	0xbe3d44c7	-0.18483268
173	0x3d1863c5	0.037204523
174	0xb9c45458	-0.00037446874
175	0xbe331fd7	-0.17492615
176	0x3d476824	0.0486833
177	0x3e203c9f	0.15648125
178	0xbe8713ce	-0.26382297
179	0x3e1be9fc	0.15225977
180	0x3b1f213c	0.0024281284
181	0xbd064031	-0.03277606
182	0xbe0af51e	-0.13570067
183	0xbd449616	-0.047994696
184	0xbc841415	-0.016122857
185	0xbe0b0c7d	-0.13578983
186	0x3e41378c	0.18868846
187	0x3e78e303	0.24305348
188	0x3df799a1	0.12089849
189	0x3e19a075	0.15002616
190	0x3e445a87	0.19175158
191	0x3d24cb83	0.040233146
192	0x3da128c6	0.07869105
193	0xbc12c3bf	-0.008957802
194	0xbdb4a432	-0.0882038
195	0x3e1f88d0	0.15579534
196	0x3ddf0afc	0.10890767
197	0x3bccfc72	0.0062556798
198	0x3c2803b9	0.010254794
199	0xbe90ea99	-0.28303984
200	0xbe2f4831	-0.17117383
201	0x3e5017fb	0.20321648
202	0xbe320588	-0.17384923
203	0x3c1f3504	0.00971723
204	0xbd5b95b9	-0.053609584
205	0x3e321032	0.1738899
206	0x3d8dd9b5	0.0692629
207	0xbdc0113c	-0.09378287
208	0xbb516123	-0.0031948767
209	0xbdc98a92	-0.09840883
210	0xbd643fa8	-0.05572477
211	0xbd975e66	-0.07391052
212	0xbd17a9c0	-0.03702712
213	0x3e5f8f2b	0.21831958
214	0x3c35757f	0.0110753765
215	0xbd902c1b	-0.070396625
216	0xbdaec414	-0.08533493
217	0x3c8d141c	0.017221503
218	0x3e4d7594	0.20064384
219	0x3e235336	0.15949711
220	0xbdaeffe4	-0.08544901
221	0x3e62c669	0.22146
222	0xbd8a26d7	-0.06745689
223	0x3d9df03e	0.07711838
224	0x3e486789	0.19570746
225	0xbdc818b0	-0.09770334
226	0x3deadc8d	0.11467848
227	0x3e0ba174	0.13635808
228	0xbc97f430	-0.018549055
229	0x3e19eebb	0.15032475
230	0x3dd66475	0.104683794
231	0xbda49954	-0.080370575
232	0xbdddcace	-0.108296975
233	0xbc64b3b8	-0.013958864
234	0xbe19126a	-0.1494843
235	0xbdf850ff	-0.12124824
236	0x3dbecf3e	0.09316872
237	0xbd4da258	-0.05020365
238	0x3e12bf05	0.1433068
239	0x3be1b31b	0.006887806
240	0x3dc43eac	0.09582266
241	0xbcbbaa9c	-0.022908501
242	0xbe41b69b	-0.18917315
243	0x3d02e391	0.031955305
244	0xbe916450	-0.28396845
245	0x3e1dec97	0.15422283
246	0xbe02838a	-0.1274549
247	0xbe73e13f	-0.23816393
248	0x3d68a057	0.056793537
249	0x3dd24da5	0.10268716
250	0x3d86500a	0.06558235
251	0x3e6504e2	0.22365144
252	0x3e582613	0.21108274
253	0x3e467eb1	0.19384266
254	0x3d2cc421	0.04217923
255	0x3e309ab7	0.17246519

bias_ih_l0 f4 [128]
0	0x3cb2eb85	0.02184082
1	0x3e16616e	0.14685604
2	0x3d3e6d98	0.046491235
3	0x3e0212e2	0.12702516
4	0x3f180a90	0.5939112
5	0x3e862b73	0.26205024
6	0x3db456aa	0.08805592
7	0xbd6d7641	-0.057974104
8	0x3dcde93f	0.10054254
9	0x3e250048	0.16113389
10	0x3e8f3c10	0.27975512
11	0x3e67feda	0.22655812
12	0x3edbe8ac	0.42950952
13	0x3d76cfac	0.060256645
14	0x3e19b87b	0.1501178
15	0x3f1121a5	0.5669196
16	0x3cb0f2d3	0.021600163
17	0x3ea23d62	0.31687456
18	0x3d098eda	0.0335835
19	0x3e30b313	0.17255811
20	0x3f037126	0.51344526
21	0x3e000bf6	0.12504563
22	0x3ead00b4	0.337896
23	0x3d1b41b5	0.03790446
24	0x3e9d0ec4	0.30675328
25	0x3df897e4	0.12138346
26	0xbc8ffa7f	-0.0175755
27	0x3d9336f5	0.071882166
28	0xbc0a7da0	-0.008452803
29	0x3e3fc191	0.18726183
30	0x3e3a8fcc	0.18218917
31	0x3d9c60fc	0.07635686
32	0x3d28f9f2	0.04125399
33	0xbe8e4740	-0.27788734
34	0xbe869f8d	-0.26293603
35	0xbd79f14c	-0.061021134
36	0xbf3497e2	-0.70544255
37	0xbe301aa1	-0.17197658
38	0xbe95347c	-0.29141605
39	0xbe4062f2	-0.18787745
40	0xbdd099c1	-0.10185576
41	0xbe0c4ef6	-0.13701996
42	0xbdc1bd7e	-0.09459971
43	0xbb642a56	-0.0034815273
44	0xbe6ce094	-0.23132545
45	0x3cc43d79	0.023955094
46	0xbcdf9040	-0.027290463
47	0xbf31dabc	-0.6947439
48	0x3c561595	0.013066669
49	0xbddaa6be	-0.10676335
50	0xbd551a53	-0.052027058
51	0x3dde8c81	0.10866643
52	0xbf1aa428	-0.6040673
53	0xbd8123c0	-0.06305647
54	0xbe7e2a94	-0.2482093
55	0xbd577f07	-0.052611377
56	0xbe128963	-0.14310221
57	0x3daecf49	0.0853563
58	0x3cec1c4d	0.028822089
59	0x3e1f89ba	0.15579882
60	0xbc95bffe	-0.018280026
61	0xbf082603	-0.53183
62	0xbeeaa14d	-0.45826188
63	0xbe8c00b6	-0.27344292
64	0x3e0b4899	0.13601913
65	0x3de97268	0.113987744
66	0xbd4dabd9	-0.050212715
67	0x3c5fe6a7	0.013665832
68	0xbdeecc87	-0.11660104
69	0x3c74745c	0.01492032
70	0x3de0c646	0.10975318
71	0xbd0acee3	-0.03388871
72	0x3c7eaefc	0.015544649
73	0x3d7c0cdf	0.061535712
74	0xbdbff980	-0.0937376
75	0x3caaa433	0.02083025
76	0xbdf67c0a	-0.12035377
77	0xbd1e32f0	-0.038622797
78	0xbd819406	-0.06327061
79	0xbdc17c45	-0.09447531
80	0xbda83893	-0.08213916
81	0xbdf0aae3	-0.11751344
82	0x3e26db78	0.16294658
83	0xbd92cbaa	-0.07167752
84	0x3d5d6666	0.054052733
85	0x3d9797cc	0.07402
86	0x3dd2c195	0.10290829
87	0xbe0c18a4	-0.13681275
88	0x3dd0f4dc	0.10202953
89	0xbdaf7ccd	-0.08568726
90	0x3d3dcb88	0.04633668
91	0xbe51e25a	-0.20496503
92	0xbdf77e3e	-0.12084626
93	0x3dff9e20	0.12481332
94	0x3ca4ae0d	0.020102525
95	0xbda0fe2c	-0.078609794
96	0x3e6d7e77	0.23192774
97	0x3dedeb93	0.11617198
98	0x3dbcaa61	0.09212185
99	0x3e42eb3e	0.1903505
100	0x3f3e2ace	0.74284065
101	0x3e587c73	0.21141224
102	0x3dfb5b83	0.12273314
103	0xbc98a313	-0.018632447
104	0xbca1cba1	-0.019750418
105	0x3e613d19	0.21995963
106	0x3d854b96	0.065085575
107	0x3e2e93d4	0.1704858
108	0x3ec76cb7	0.3895013
109	0x3d31bffb	0.043395977
110	0x3e35fc62	0.17772058
111	0x3f3db2f9	0.74101216
112	0x3e278cdc	0.16362327
113	0x3e7abee5	0.24486883
114	0x3e077ca0	0.13231134
115	0x3d5b0ebb	0.053480845
116	0x3f19387f	0.5985183
117	0x3e1cafb9	0.15301408
118	0x3e9dc9bc	0.30817974
119	0x3db4b14b	0.088228785
120	0x3dd9cb20	0.10634446
121	0x3e23fe08	0.16014874
122	0x3e21633c	0.15760511
123	0x3c49745a	0.012295807
124	0x3e03afec	0.12860078
125	0x3ec896e7	0.3917763
126	0x3e7e7459	0.2484907
127	0x3d843740	0.064558506

bias_hh_l0 f4 [128]
0	0xbcb7e7aa	-0.022449333
1	0x3e23cd7e	0.15996358
2	0xbdb2c9ef	-0.08729922
3	0x3e93b752	0.288508
4	0x3f3cd90c	0.7376869
5	0x3c94aecf	0.018149761
6	0xbc5eb94a	-0.013593981
7	0x3df4ebd3	0.119590424
8	0x3e3e22fd	0.18568034
9	0x3ea6ed62	0.32602984
10	0x3cbee393	0.023301875
11	0x3dd05800	0.10173035
12	0x3e43cdff	0.1912155
13	0x3eb58464	0.3545257
14	0x3e4341fa	0.19068137
15	0x3f3a3307	0.7273411
16	0xbd85defa	-0.0653667
17	0x3e9e6e3e	0.30943483
18	0xbd7e6409	-0.06210712
19	0x3e035c0a	0.12828079
20	0x3f293f6a	0.6611239
21	0x3e9c8ce0	0.3057623
22	0x3ebb9b9b	0.36642155
23	0x3dd14f77	0.10220235
24	0x3e556a95	0.20841439
25	0x3dd99bfe	0.10625456
26	0x3d654a62	0.05597914
27	0xbca16110	-0.019699603
28	0xbdb87b49	-0.0900789
29	0x3e363059	0.1779188
30	0x3e80dff1	0.25170854
31	0x3e0195c9	0.12654795
32	0xbd4294e9	-0.047505293
33	0xbe80eb97	-0.2517974
34	0xbcced343	-0.025247222
35	0xbe88c9e5	-0.26716533
36	0xbecb4db8	-0.39707732
37	0xbc15a369	-0.009133198
38	0xbe1a15cf	-0.15047382
39	0xbeaa582a	-0.3327039
40	0xbced530f	-0.02897027
41	0xbe45e131	-0.19324185
42	0xbd9af648	-0.07566506
43	0xbd8471e4	-0.064670354
44	0xbe6fb9f2	-0.23410776
45	0xbe1f36ad	-0.15548201
46	0x3da11ad3	0.078664444
47	0xbf250693	-0.64463156
48	0xbdf11d38	-0.11773151
49	0xbe32e12e	-0.17468712
50	0xbcc1f006	-0.023674022
51	0xbd94b977	-0.07261937
52	0xbeeb9a26	-0.46016043
53	0xbe6745e4	-0.22585255
54	0xbef14b1e	-0.47127622
55	0xbda51102	-0.080598846
56	0xbeb1808f	-0.34668395
57	0xbe64a17c	-0.22327226
58	0xbe661bbb	-0.22471516
59	0x3dc2c6d7	0.09510582
60	0xbd3e77ea	-0.046501078
61	0xbe98882a	-0.29791385
62	0xbea700bd	-0.3261775
63	0x3ce4f361	0.027948083
64	0xbe16c60b	-0.14723985
65	0xbe1e801c	-0.15478557
66	0x3df57c8b	0.11986645
67	0xbd2be3b7	-0.041965213
68	0x3e0f6bac	0.14005917
69	0x3d41801c	0.047241315
70	0xbd9c71ff	-0.076389305
71	0x3c550646	0.013001984
72	0x3e2090f5	0.15680297
73	0xbd03691e	-0.03208267
74	0x3d0ba790	0.034095347
75	0x3d1c27a0	0.038123727
76	0x3d773bae	0.06035965
77	0x3ce3e9f1	0.027821513
78	0xbe105bf9	-0.14097585
79	0x3d541a8d	0.051783133
80	0x3c30fbad	0.010802192
81	0x3dffbf6d	0.124876834
82	0x3db507b6	0.08839361
83	0xbe4b047d	-0.19825931
84	0xbdd2c8bf	-0.102921955
85	0x3c5e4870	0.013567075
86	0xbe101035	-0.14068682
87	0x3de3defe	0.11126517
88	0xbe0bbe19	-0.13646735
89	0x3ca37552	0.019953404
90	0x3d49f2ba	0.049303748
91	0xbdb89006	-0.09011845
92	0xbde008b6	-0.109391615
93	0xbe1d85e1	-0.15383102
94	0xbb91b491	-0.004446574
95	0x3ccff658	0.02538602
96	0x3def6343	0.116888545
97	0x3e80413f	0.2504978
98	0xbd8306d7	-0.06397789
99	0x3ed5d7ed	0.417663
100	0x3f57699c	0.8414552
101	0x3deb1d3a	0.11480184
102	0x3ea48315	0.32131258
103	0x3e957bef	0.29196116
104	0xbd970b52	-0.07375206
105	0x3e78202b	0.24231021
106	0x3e9cda8a	0.30635482
107	0x3e7d5094	0.2473777
108	0x3ecda6c0	0.40166283
109	0x3e72419b	0.23657839
110	0x3dc7d577	0.09757512
111	0x3f3fb657	0.74887604
112	0x3e3a7c98	0.18211591
113	0x3ddd5773	0.10807695
114	0x3e731ae7	0.23740731
115	0xbd8f60a0	-0.07000852
116	0x3f0fc2d4	0.5615666
117	0x3eb02f1e	0.34410948
118	0x3eeb7f4c	0.45995557
119	0x3e621e2b	0.2208182
120	0x3e969deb	0.29417357
121	0x3e0b0e60	0.13579702
122	0x3e568c59	0.20951976
123	0x3c978bef	0.018499343
124	0xba41ee44	-0.000739787
125	0x3ec5c084	0.3862344
126	0x3e8d0f77	0.2755086
127	0x3e87d504	0.26529706

weight_ih_l0 f4 [128, 2]
0	0x3d6a7db3	0.057248782
1	0x3dbae9a5	0.091265954
2	0xbdb358b2	-0.08757152
3	0x3d6bc967	0.05756512
4	0x3da205fc	0.07911298
5	0xbd9c2c47	-0.07625633
6	0xbdad7f97	-0.084716015
7	0x3ccc6153	0.024948752
8	0xbcd04b4c	-0.02542653
9	0xbd6b9bda	-0.05752168
10	0xbcd4e62a	-0.025988657
11	0x3dccc666	0.09998779
12	0x3c3a5879	0.011373633
13	0xbc9186eb	-0.01776453
14	0xbdac9a55	-0.08427874
15	0xbd4f85f2	-0.05066485
16	0x3df17186	0.11789231
17	0xbd80e516	-0.06293695
18	0x3c852ea2	0.016257588
19	0x3d3f9b9c	0.04677926
20	0xbca77c7f	-0.020445107
21	0x3dd21abb	0.10259005
22	0xbcf13ab4	-0.029446937
23	0xbd9b1d97	-0.07574003
24	0xbd920b03	-0.071310066
25	0x3d867e74	0.06567088
26	0x3d95e5d5	0.073192276
27	0xbbbb566d	-0.00571709
28	0xbde55eb5	-0.111997046
29	0x3d0ef35f	0.034900066
30	0xbcda2f66	-0.02663393
31	0x3da74496	0.081673786
32	0xbd512944	-0.051064745
33	0x3da3b97d	0.079943635
34	0x3dc75f4d	0.09734974
35	0x3e177834	0.14791948
36	0xbbaf0377	-0.005340989
37	0x3d5803a0	0.052737832
38	0xbbe9c1bf	-0.007133692
39	0x3d241f1e	0.04006874
40	0x3dfbd420	0.12296319
41	0xbd9620d2	-0.07330479
42	0xbdb08aaf	-0.08620202
43	0x3e278fd3	0.16363458
44	0x3d09efde	0.03367602
45	0x3e115c9b	0.14195482
46	0xbe4b2a76	-0.19840416
47	0xbb4b4da2	-0.0031021615
48	0x3d613785	0.05498459
49	0xbcb5d921	-0.022198262
50	0xbd6b3884	-0.057426944
51	0x3c6a020b	0.014282714
52	0x3db140a7	0.086549096
53	0x3e138e84	0.14409834
54	0xbddea8e8	-0.1087206
55	0x3daec81d	0.08534262
56	0xbdc9906b	-0.09841999
57	0x3de0269c	0.10944864
58	0xbd090521	-0.033452157
59	0x3caaff8a	0.020873804
60	0x3e28025b	0.16407149
61	0xbd1af690	-0.037832797
62	0xbe19336e	-0.14961025
63	0xbd29741d	-0.0413705
64	0xbdbd1c6b	-0.09233936
65	0xbe6b8af7	-0.2300223
66	0x3d120a27	0.035654213
67	0xbd23a9bb	-0.03995679
68	0x3cc3ed71	0.023916932
69	0xbe3f03d7	-0.18653809
70	0x3de5b1b5	0.112155356
71	0x3d789ef3	0.06069846
72	0x3e86c125	0.26319233
73	0xbdfed5bd	-0.12443111
74	0x3d55a36c	0.052157804
75	0xbd0ae43d	-0.03390907
76	0xbd6e1cef	-0.058133062
77	0x3e44327c	0.19159883
78	0x3ce66c79	0.028127896
79	0x3e2d86e1	0.16945983
80	0xbd9177dc	-0.071029395
81	0xbe24acab	-0.16081493
82	0x3e14c2dc	0.14527458
83	0xbdb5d149	-0.088778086
84	0x3d5d5883	0.05403949
85	0x3bccca88	0.0062497295
86	0xbe2b1b2e	-0.16709587
87	0x3e278654	0.16359836
88	0xbe46bbda	-0.19407597
89	0x3db8ecd5	0.09029547
90	0xbda2e79d	-0.07954333
91	0x3d7172dc	0.05894743
92	0x3d151dda	0.03640542
93	0x3e14eb23	0.14542823
94	0x3e6e5d92	0.23277882
95	0xbd8126df	-0.06306242
96	0x3dab877b	0.0837545
97	0x3df869d6	0.121295616
98	0xbdf94563	-0.121714376
99	0xbe08ae47	-0.13347732
100	0xbd414857	-0.04718813
101	0x3e364581	0.17799951
102	0xbe534b41	-0.20634176
103	0xbd3413f8	-0.043964356
104	0xbe6bf235	-0.23041613
105	0xbe0dd276	-0.13849816
106	0x3e124cda	0.14287129
107	0xbd232fe2	-0.039840586
108	0x3e0718bf	0.13193034
109	0x3de242b8	0.11047882
110	0xbe43852a	-0.19093767
111	0xbe29018c	-0.16504496
112	0xbe08d397	-0.13361965
113	0x3c14c3cf	0.0090798875
114	0xbc065646	-0.00819928
115	0xbd0faa20	-0.035074353
116	0xbcc56a3f	-0.024098514
117	0xbc39d4b1	-0.0113422135
118	0xbda79451	-0.08182586
119	0xbc0d3097	-0.008617542
120	0x3e4df99c	0.2011475
121	0xbe08c1a8	-0.13355124
122	0x39ef760c	0.00045673584
123	0x3dcdad84	0.10042861
124	0x3e70367c	0.23458284
125	0xbcfd897e	-0.03094935
126	0xbde14452	-0.10999359
127	0xbe0c3a9f	-0.13694237
128	0x3d7ac088	0.06121877
129	0x3e0c3f4d	0.13696022
130	0xbd90e585	-0.070750274
131	0xbe3247bc	-0.17410177
132	0xbbadaf78	-0.0053004585
133	0xbe17f241	-0.14838506
134	0xbde840de	-0.113404974
135	0xbe584fe0	-0.2112422
136	0xbe20ae5a	-0.1569151
137	0x3d8138ac	0.063096374
138	0x3dea2b64	0.11434057
139	0xbe10304b	-0.14080922
140	0xbce74ca6	-0.028234791
141	0xbe125a82	-0.14292338
142	0x3e32a677	0.17446314
143	0xbd916f71	-0.07101334
144	0x3e393312	0.18085888
145	0x3ccc1478	0.024912104
146	0xbddfd7fc	-0.109298676
147	0x3e906e3f	0.2820911
148	0x3dd4fa48	0.103993
149	0x3e48fb44	0.196271
150	0xbe0f87f5	-0.14016707
151	0x3e05ac41	0.13053991
152	0xbe2163de	-0.15760753
153	0xbd9fb33c	-0.07797858
154	0x3e2ebf42	0.17065147
155	0x3da0eb6d	0.07857404
156	0xbdb341c0	-0.08752775
157	0xbe3a19b9	-0.18173875
158	0xbe0124ce	-0.12611696
159	0x3e073bb7	0.13206373
160	0x3dd91aab	0.1060079
161	0xbd47ba95	-0.048761923
162	0xbe347745	-0.17623623
163	0x3deddb45	0.11614088
164	0xbd793c35	-0.060848434
165	0x3e28340a	0.16426101
166	0x3dbf8632	0.093517676
167	0x3d914612	0.07093443
168	0xbda8ff5f	-0.08251833
169	0xbd7eeca0	-0.062237382
170	0xbe17922d	-0.14801855
171	0x3d65b970	0.05608505
172	0xbd8db89f	-0.06919979
173	0xbe32daeb	-0.17466323
174	0x3e2051aa	0.15656152
175	0x3d99d703	0.07511713
176	0x3e2ac9c7	0.16678534
177	0x3cc10d96	0.023566049
178	0xbc05488b	-0.008134971
179	0x3e5c3702	0.21505359
180	0xbe382d31	-0.17985989
181	0x3d432e41	0.047651533
182	0x3e059014	0.13043243
183	0xbdccc30d	-0.099981405
184	0x3e34e5f3	0.17665844
185	0x3d93689e	0.071976885
186	0x3d8bd2e4	0.068273336
187	0x3e4cf4d0	0.20015264
188	0x3e3f007c	0.18652529
189	0xbc0b623c	-0.008507308
190	0xbe190bd3	-0.14945917
191	0xbd9b3cfa	-0.0757999
192	0xbd9b8c0c	-0.07595071
193	0xbd90a086	-0.070618674
194	0x3da209c2	0.079120174
195	0x3deb1572	0.114787
196	0x3c242284	0.010017995
197	0xbe561ceb	-0.20909469
198	0x3d400e90	0.046888888
199	0xbcfe5ac8	-0.031049147
200	0xbd111619	-0.035421465
201	0xbe4a86f3	-0.19778042
202	0xbd790b64	-0.06080188
203	0x3d9456fe	0.07243155
204	0xbc42a5d7	-0.01188036
205	0xbda069cd	-0.0783268
206	0xbe46bc95	-0.19407876
207	0xbd5b8b2f	-0.053599533
208	0x3d143367	0.036181834
209	0x3d16b27e	0.036791317
210	0x3b4d56d2	0.0031332267
211	0xbe345715	-0.17611344
212	0x3def7a98	0.11693305
213	0x3dd855fc	0.10563275
214	0x3d9d0217	0.07666414
215	0xbde04def	-0.10952365
216	0x3e0aa6f6	0.13540253
217	0x3d8d5051	0.06900085
218	0x3ab2c9f0	0.0013640504
219	0x3e0bcde6	0.13652763
220	0x3cb41c69	0.021986203
221	0x3df81839	0.12113995
222	0xbe086e25	-0.13323267
223	0x3e1c1f3d	0.15246291
224	0xbd51ba6c	-0.051203176
225	0xbbad32f7	-0.0052856165
226	0xbdf33c73	-0.11876764
227	0xbde5ac14	-0.11214462
228	0xbe1ec0fc	-0.15503305
229	0xbc896dec	-0.016776048
230	0x3da4bf4d	0.080443
231	0x3deb8174	0.114993006
232	0x3c10ed2e	0.008845611
233	0xbd4d13ea	-0.05006782
234	0xbdb40c3f	-0.08791398
235	0xbd04d911	-0.032433573
236	0x3e21841e	0.15773055
237	0x3de26444	0.110542804
238	0xbe139ee9	-0.14416088
239	0xbddcae06	-0.1077538
240	0x3e592269	0.21204533
241	0x3d698712	0.05701358
242	0xbdb1b439	-0.08676953
243	0xbe458059	-0.19287242
244	0x3cfccf67	0.030860616
245	0xbd2e8675	-0.042608697
246	0xbb9f15c0	-0.0048548877
247	0x3e10605f	0.14099263
248	0xbd69a05d	-0.0570377
249	0x3c872efa	0.016501892
250	0x3cf7c0e6	0.030243348
251	0x3b012c35	0.0019710187
252	0x3e075b32	0.13218382
253	0x3cb0a12a	0.021561224
254	0xbb125be8	-0.0022332612
255	0xbe47bf3c	-0.19506544

weight_hh_l0 f4 [128, 32]
0	0xbe18849f	-0.14894341
1	0x3a7b82e1	0.00095943926
2	0xbd783bc2	-0.060603864
3	0x3e7299a4	0.23691422
4	0x3d160d1e	0.036633603
5	0x3dae5c1b	0.085136615
6	0x3d80ac17	0.062828235
7	0xbe1b8b9c	-0.15189976
8	0xbe42880b	-0.18997209
9	0x3cceff70	0.025268286
10	0x3dd8ba19	0.1058237
11	0x3d9e9c01	0.07744599
12	0x3e4765d3	0.19472437
13	0x3c595ce1	0.013266773
14	0xbd8f6819	-0.07002277
15	0xbaa82790	-0.0012829173
16	0x3e205efb	0.15661232
17	0xbda3486a	-0.07972796
18	0xbc385a10	-0.011251941
19	0x3dd0522a	0.101719216
20	0x3d81cbf5	0.0633773
21	0xbd80912b	-0.062776886
22	0xbda8f959	-0.08250684
23	0xbe3d0fc6	-0.18463048
24	0xbe3a3ea1	-0.18187954
25	0x3d9f34b4	0.07773724
26	0xbdceb0b9	-0.10092301
27	0x3e37d855	0.17953618
28	0x3c9afbe9	0.018918948
29	0xbe327bc5	-0.17430027
30	0xbe45247e	-0.19252202
31	0x3e9d7fd3	0.30761585
32	0xbd297e56	-0.04138025
33	0xbdf36b09	-0.1188565
34	0x3dc62dbc	0.09676692
35	0xbbb495fa	-0.0055110427
36	0xbdca3b7a	-0.098746255
37	0x3d2aa7fc	0.04166411
38	0xbe04ab7e	-0.12956044
39	0xbc5d1bf1	-0.013495431
40	0xbd715597	-0.058919515
41	0x3d64cf9c	0.055862054
42	0xbe1934be	-0.14961526
43	0xbe1a83a9	-0.15089287
44	0x3d1dbc3b	0.03850959
45	0x3e1b6840	0.15176487
46	0x3d1abaf4	0.03777595
47	0x3cc7740d	0.02434733
48	0x3dc7dae8	0.0975855
49	0xbdd000fe	-0.10156439
50	0x3cf3ab0d	0.02974465
51	0x3e5af211	0.21381404
52	0x3e5ac025	0.2136236
53	0xbe5610fa	-0.20904914
54	0x3e14a91a	0.14517632
55	0x3dee24e1	0.11628128
56	0x3dc41974	0.09575167
57	0xbe5faf01	-0.21844102
58	0xbc7d7757	-0.015470347
59	0xbd942927	-0.07234412
60	0xbd4031b0	-0.046922386
61	0x3dc58430	0.096443534
62	0xbd3b2e5f	-0.04569852
63	0x3d2c114e	0.04200869
64	0xbdb94696	-0.09046666
65	0xbd856a7e	-0.065144524
66	0x3de3a395	0.11115185
67	0xbb232ef4	-0.0024899812
68	0xbe4490e0	-0.1919589
69	0xbe29e37a	-0.16590682
70	0xbd1a5f0b	-0.037688296
71	0xbd92292a	-0.07136758
72	0xbe1c2af1	-0.15250756
73	0xbe717854	-0.23581058
74	0xbdc77a53	-0.09740128
75	0xbd661e15	-0.056181032
76	0xbd0e0553	-0.034673046
77	0x3e505bcc	0.20347518
78	0xbc0b0265	-0.008484458
79	0x3d11dd5c	0.035611495
80	0x3beb051e	0.007172241
81	0x3d35ce4b	0.04438619
82	0xbe05d26c	-0.13068551
83	0xbe2330a7	-0.15936528
84	0xbd6d5659	-0.057943676
85	0xbce86a9a	-0.028371144
86	0xbe486ff7	-0.19573961
87	0x3b0ca60a	0.0021461272
88	0xbd9f9e7d	-0.07793901
89	0xbe4fdcf5	-0.20299132
90	0xbde1ade5	-0.11019496
91	0xbe107008	-0.14105237
92	0xbe263ea1	-0.16234829
93	0x3e00d633	0.1258171
94	0x3caa37d5	0.020778576
95	0xbd868367	-0.06568032
96	0x3dd1cfd5	0.10244719
97	0xbda2c703	-0.07948115
98	0x3e4959d7	0.19663177
99	0x3ca9bc90	0.020719796
100	0xbd1bf5d0	-0.038076222
101	0x3bea3544	0.007147463
102	0x3e413815	0.1886905
103	0x3d3be83a	0.045875765
104	0x3d48688f	0.04892784
105	0x3e24ee43	0.16106515
106	0x3bfc4f17	0.007699858
107	0x3c85d4cc	0.016336821
108	0xbc3f2bb5	-0.011668135
109	0xbda22316	-0.07916848
110	0xbe163887	-0.14670001
111	0xbde10f3b	-0.10989233
112	0xbe7021b0	-0.23450351
113	0xbd24c540	-0.040227175
114	0xbdcf49e6	-0.10121517
115	0xbe0e66d9	-0.13906421
116	0x3d801ed6	0.062558815
117	0x3dd099a0	0.10185552
118	0xbd12cd7d	-0.0358405
119	0xbe35bab0	-0.17746997
120	0xbc8f210e	-0.017471816
121	0x3d2d7180	0.04234457
122	0xbd3aba02	-0.045587547
123	0xbd5e78f8	-0.054314584
124	0xbd94189e	-0.07231258
125	0xbcc53bac	-0.024076305
126	0x3dd6cdbd	0.1048846
127	0xbcb4bf6d	-0.022063935
128	0x3dcc912c	0.09988627
129	0xbd04ba6d	-0.032404352
130	0x3d3f7c4e	0.046749406
131	0xbbd639d9	-0.0065376577
132	0x3cf4e0f9	0.029892432
133	0x3d9adfe9	0.07562239
134	0x3d60da5c	0.054895744
135	0xbe0677b0	-0.13131595
136	0x3dfe8b5a	0.12428923
137	0x3d879dda	0.06621905
138	0x3bf027dd	0.007328971
139	0xbd147b20	-0.036250234
140	0x3cf9c0e8	0.030487493
141	0x3e5aadba	0.21355334
142	0x3d1bee68	0.03806916
143	0x3e070dec	0.13188905
144	0xbe8e8bd4	-0.27841055
145	0x3d9ba5bd	0.075999714
146	0x3e0f5a16	0.13999209
147	0xbd4d9549	-0.050191198
148	0x3d281f45	0.041045446
149	0x3e2d38d4	0.1691621
150	0x3cdbe714	0.026843585
151	0xbe1a5b79	-0.15073957
152	0xbe07926f	-0.13239454
153	0x3de67fc8	0.11254841
154	0xbe3545aa	-0.17702356
155	0xbda1ba1c	-0.07896826
156	0xbd3a537d	-0.045489777
157	0x3e3586a3	0.17727141
158	0x3e1f59ca	0.15561596
159	0xbd0e0ee3	-0.034682166
160	0x3d6f4629	0.05841652
161	0xbe333119	-0.17499198
162	0xbbfabe2a	-0.007652064
163	0xbd82df2c	-0.06390223
164	0xbe41a140	-0.18909168
165	0x3e28c07c	0.16479677
166	0xbdc7fffc	-0.09765622
167	0x3e5a51e3	0.213203
168	0x3e368e6b	0.17827766
169	0xbe834e46	-0.25645655
170	0xbe09a8b6	-0.13443264
171	0x3d987213	0.07443633
172	0x3c0a553a	0.008443171
173	0xbdde4900	-0.108537674
174	0x3da2c922	0.07948519
175	0xbd9c4c4b	-0.07631739
176	0xbdef1351	-0.11673606
177	0x3d8ca785	0.06867889
178	0xbd9c5644	-0.07633641
179	0x3e7581c3	0.23975281
180	0xbe051f19	-0.13000144
181	0xbd9d0ebf	-0.07668828
182	0xbdb5efd4	-0.08883634
183	0x3d44e94c	0.04807405
184	0x3e01cc64	0.12675625
185	0x3d3fe697	0.046850767
186	0x3df67a02	0.1203499
187	0xbda4912a	-0.080355
188	0x3c7f5535	0.01558428
189	0xbe3f17ad	-0.18661375
190	0x3e481336	0.19538578
191	0xbd55bcfc	-0.052182183
192	0x3d7cb2e3	0.061694037
193	0xbddd67c8	-0.1081081
194	0x3e30ce88	0.17266285
195	0x3cea959f	0.028635798
196	0xbb02f96f	-0.00199851
197	0xbe4a5859	-0.19760264
198	0xbe02c551	-0.12770583
199	0x3df0e081	0.11761571
200	0xbd847ece	-0.064694986
201	0xbe4f405e	-0.20239398
202	0x3d6e7fa7	0.058227208
203	0x3c041d21	0.0080635855
204	0xbdb277b0	-0.08714235
205	0x3e5e5d08	0.21715176
206	0xbe671b91	-0.2256911
207	0xbe635d9c	-0.22203678
208	0xbd2766b4	-0.04086943
209	0xbdb7b815	-0.08970658
210	0x3db8c2d0	0.090215325
211	0x3ca7bf2a	0.020476896
212	0x3e75897e	0.2397823
213	0x3d283a3c	0.04107116
214	0xbe595887	-0.21225177
215	0x3bc20402	0.005920888
216	0x3d31f50b	0.04344658
217	0xbd4fb2c7	-0.050707605
218	0xbe1be717	-0.15224873
219	0x3ce025a0	0.027361691
220	0x3e15d548	0.14632142
221	0xbda200d1	-0.07910312
222	0xbd92f499	-0.071755596
223	0x3d1375f5	0.036001164
224	0x3dbb4ed3	0.09145894
225	0x3e000ba5	0.12504442
226	0xbc9d84fe	-0.019228455
227	0x3d21ebde	0.03953158
228	0x3e13f7f5	0.14450057
229	0xbe7bd9c3	-0.24594788
230	0x3d8b82d5	0.068120636
231	0x3ac4ab91	0.0015004744
232	0xbb9edbb0	-0.004847966
233	0xbe1a50e7	-0.15069924
234	0xbdc59001	-0.09646607
235	0x3e8e08a9	0.27740982
236	0x3e743ed6	0.23852095
237	0xbdcf953a	-0.101358846
238	0x3e27fff6	0.16406235
239	0x3dcaaec2	0.09896614
240	0xbc46e032	-0.012138413
241	0x3c5532b6	0.013012579
242	0xbda19abc	-0.07890841
243	0x3d560f81	0.05226088
244	0xbde7a093	-0.11309924
245	0x3bb78850	0.0056009665
246	0xbdbe7047	-0.09298759
247	0xbdf0a4d2	-0.11750187
248	0xbced2b05	-0.028951177
249	0x3cc08c09	0.023504274
250	0x3d9f3827	0.07774382
251	0x3d1695bd	0.036763895
252	0xbe34c1b7	-0.17652021
253	0x3d5723cb	0.05252437
254	0x3d751d89	0.05984262
255	0xbce29eae	-0.027663555

bias_ih_l0 f4 [128]
0	0xbdbaae17	-0.09115236
1	0xbdeb0c3d	-0.11476944
2	0x3d1703ac	0.036868736
3	0x3db1e51b	0.086862765
4	0x3d340274	0.043947652
5	0x3dcc013c	0.09961173
6	0x3e3312e1	0.1748767
7	0xbd8f7cce	-0.070062265
8	0x3c3b1138	0.0114176795
9	0x3d833f72	0.064085856
10	0xbe0b6120	-0.13611269
11	0xbe11859c	-0.14211124
12	0xbc547eec	-0.012969714
13	0x3e1b0445	0.15138347
14	0xbe2075f5	-0.15669997
15	0x3d179b57	0.037013378
16	0x3b8fc643	0.0043876483
17	0x3e0ec3cf	0.13941883
18	0x3e261363	0.16218333
19	0xbdccd17c	-0.100008935
20	0x3e02730b	0.12739198
21	0xbcb61c3a	-0.022230256
22	0xbe27f44d	-0.16401787
23	0xbd725a3f	-0.059168097
24	0x3ba0a560	0.0049025267
25	0xba9052aa	-0.0011010964
26	0x3d5c732e	0.05382078
27	0x3c16c2cc	0.009201717
28	0x3ddbacd1	0.107263215
29	0x3dbbacb7	0.09163802
30	0x3e1b6c81	0.1517811
31	0xba284535	-0.0006419004
32	0x3e2ea947	0.17056762
33	0xbe0d4753	-0.1379674
34	0xbe0c800c	-0.13720721
35	0xbdec9c87	-0.11553293
36	0xbd2c6f61	-0.042098407
37	0x3db756a8	0.08952075
38	0x3cfd4d81	0.030920746
39	0x3e72f363	0.23725657
40	0x3e75b5b5	0.23995097
41	0x3e43e9a7	0.191321
42	0x3d6446b6	0.055731498
43	0x3e38750f	0.18013404
44	0xbdb4ea08	-0.088337004
45	0x3e49eb26	0.19718608
46	0x3c8c59bf	0.017132638
47	0xbd331219	-0.04371843
48	0xbdf17f22	-0.11791827
49	0x3e68d6e3	0.22738223
50	0x3e32f093	0.17474584
51	0x3e3abfef	0.1823728
52	0x3d0f3afb	0.034968358
53	0x3e05d180	0.13068199
54	0xbdda0c6e	-0.10646902
55	0x3d2e78e5	0.042595763
56	0xbc7ae692	-0.015313761
57	0x3de47bde	0.11156438
58	0x3d71788e	0.05895286
59	0x3e3e569c	0.18587726
60	0xbdff6f98	-0.12472457
61	0x3d23f12a	0.040024914
62	0x3c54d00e	0.012989057
63	0xbd1981a0	-0.037477136
64	0xbdb2d34d	-0.08731709
65	0x3d32e056	0.043670975
66	0x3e00005b	0.12500136
67	0xbe18742d	-0.14888068
68	0x3c95743a	0.018243898
69	0x3da6cd3b	0.08144613
70	0x3ddddf18	0.108335674
71	0x3db401a3	0.08789375
72	0x3e134f6c	0.14385766
73	0xbd1223f1	-0.035678808
74	0x3d907f2a	0.070555046
75	0x3d49a101	0.04922581
76	0x3da955ba	0.08268304
77	0x3cb7b94c	0.022427224
78	0x3dd87a62	0.10570218
79	0xbe01a587	-0.126608
80	0xbe2a91c6	-0.1665717
81	0xbdc4f9a9	-0.096179314
82	0x3e221542	0.15828422
83	0xbd861a88	-0.06548029
84	0x3d0c31f0	0.03422731
85	0xbe30d6f7	-0.17269503
86	0xbde79c4f	-0.113091104
87	0x3e43fb18	0.19138753
88	0xbe08109f	-0.1328759
89	0xbc892ab7	-0.016744
90	0x3db305b7	0.087413244
91	0x3c807b50	0.0156838
92	0x3cab0b6f	0.020879475
93	0xbdde8c32	-0.10866584
94	0xbdb0c423	-0.0863116
95	0x3d0462a3	0.03232063
96	0xbc94df08	-0.018172756
97	0x3e112342	0.14173606
98	0x3defeb46	0.11714797
99	0x3ddacc60	0.10683513
100	0x3e3ead90	0.18620896
101	0x3e4ab8d5	0.1979707
102	0x3e9e1cb3	0.3088127
103	0x3d8fcdb9	0.0702166
104	0x3d9a129b	0.0752308
105	0x3e5ad3b0	0.21369815
106	0x3b035573	0.0020039945
107	0xbda25834	-0.0792698
108	0xbdba18ce	-0.09086762
109	0x3e600cf5	0.21879943
110	0x3d6626ad	0.056189228
111	0x3d9ae1e9	0.0756262
112	0x3d8b2bc3	0.06795456
113	0xbd6344e8	-0.055485636
114	0x3e1bf03f	0.15228365
115	0x3d9bdcfe	0.0761051
116	0xbd2b5f91	-0.041839186
117	0x3e2560b7	0.16150175
118	0xbc47a742	-0.012185873
119	0xbdfac086	-0.12243752
120	0x3e584727	0.21120892
121	0x3be5ca35	0.0070126303
122	0x3e3c553d	0.18391891
123	0xbcca4156	-0.024689358
124	0xbda07a2c	-0.078358024
125	0x3d73477a	0.059394337
126	0x3e1a98dd	0.15097375
127	0x3a8317ce	0.0010001601

bias_hh_l0 f4 [128]
0	0x3e0d3251	0.13788725
1	0x3e143121	0.14471866
2	0xbd06efe6	-0.03294363
3	0xbda81354	-0.082068115
4	0x3e0d4b33	0.13798217
5	0x3e3fc999	0.18729247
6	0xbd92ed76	-0.07174198
7	0x3d0b5af7	0.034022298
8	0x3db883b9	0.09009499
9	0x3e0b7c89	0.13621725
10	0x3d8d32e8	0.06894475
11	0x3d887bef	0.066642635
12	0xbc4b9fae	-0.012428207
13	0x3e248665	0.16066892
14	0x3d94a6c5	0.07258371
15	0x3db4678b	0.08808812
16	0xbd3f1de6	-0.046659373
17	0x3d76f974	0.06029649
18	0x3d9355fa	0.07194133
19	0xbe147332	-0.14497069
20	0x3e07a2b7	0.13245665
21	0x3db29841	0.087204464
22	0x3e057ecb	0.13036649
23	0xbe07d41a	-0.13264504
24	0xbdd11765	-0.1020954
25	0xbdac900d	-0.08425913
26	0x3c93f84e	0.018062737
27	0xbdb21f30	-0.08697355
28	0x3e084cd3	0.13310556
29	0x3ded4126	0.11584692
30	0x3c33aafd	0.01096606
31	0x3ce81290	0.028329164
32	0x3d14eded	0.036359716
33	0x3daa1435	0.083046354
34	0xbc599e80	-0.013282418
35	0xbc36471a	-0.01112535
36	0xbd01c986	-0.03168633
37	0xbd9e671b	-0.077345096
38	0xbdbccbf2	-0.09218587
39	0xbd57eab5	-0.05271407
40	0xbcb1b4d1	-0.021692665
41	0x3c4edc2f	0.012625738
42	0xbcd1b79a	-0.025600243
43	0x3d985461	0.07437969
44	0x3d6639c9	0.056207452
45	0x3e575342	0.21027854
46	0xbe0ea79b	-0.13931124
47	0xbdf0ef3a	-0.11764379
48	0xbd4ea6c9	-0.050452027
49	0xbd05ff9b	-0.032714467
50	0x3cf3a6d3	0.029742634
51	0xbb9da134	-0.0048104767
52	0x3ce0411e	0.0273748
53	0x3d5c60b5	0.053803165
54	0x3d1d27bc	0.03836797
55	0xbdd6fede	-0.10497831
56	0x3c15716e	0.009121282
57	0x3e20396a	0.15646902
58	0xbcf86394	-0.03032092
59	0xbd077cf7	-0.03307816
60	0x3d96fc78	0.07372373
61	0xbe1be6f1	-0.15224816
62	0xbdda35c4	-0.10654786
63	0x3e0ed29e	0.13947532
64	0x3dbc5b6f	0.09197127
65	0x3d7c5de7	0.06161299
66	0xbd827b34	-0.063711554
67	0xbdecf504	-0.115701705
68	0x3dbbe241	0.09174014
69	0xbdf56211	-0.11981595
70	0xbdc45414	-0.09586349
71	0x3db2a277	0.08722394
72	0xbdef5ace	-0.116872415
73	0x3e3f77c7	0.18698035
74	0xbb943c36	-0.0045237793
75	0x3e204fc9	0.15655436
76	0x3d3376ba	0.0438144
77	0x3dc3317a	0.09530921
78	0x3da9949f	0.082803
79	0xbca27ec4	-0.019835837
80	0xbd9f1246	-0.07767157
81	0x3d9997d2	0.074996606
82	0xbdffd582	-0.12491895
83	0x3d05662a	0.032568134
84	0x3da6489e	0.081193194
85	0xbe062694	-0.13100654
86	0x3c977f73	0.01849339
87	0x3e021c30	0.12706065
88	0xbd8cbe88	-0.068722785
89	0x3e52bb5d	0.20579286
90	0xbdef2d64	-0.116785794
91	0x3d025641	0.03182054
92	0xbe02e9ae	-0.12784454
93	0xbe16dbae	-0.14732239
94	0x3e0e0b78	0.13871562
95	0xbe16c739	-0.14724435
96	0x3e7c1eb1	0.24621083
97	0x3df110d3	0.11770787
98	0x3c879af6	0.016553383
99	0xbe234f75	-0.15948279
100	0x3c5575ed	0.013028604
101	0x3e583c0a	0.21116653
102	0x3e6f83c7	0.23390113
103	0x3e13657b	0.1439418
104	0x3df24971	0.11830414
105	0x3e67db9f	0.22642373
106	0xbd582126	-0.052765988
107	0xbd6f9c80	-0.05849886
108	0xbda9f4d2	-0.08298649
109	0x3d9fa801	0.07795716
110	0x3df9b7ee	0.12193285
111	0x3e35f90c	0.17770785
112	0x3e5d3b70	0.21604705
113	0x3b3e0aef	0.0028998216
114	0xbd8eaed3	-0.06966939
115	0x3d7b7978	0.06139514
116	0xbd71b0f8	-0.05900666
117	0xbcea886c	-0.028629504
118	0x3dde9250	0.10867751
119	0x3e284910	0.16434121
120	0x3db06c6a	0.08614428
121	0x3e0808a9	0.13284554
122	0xbce34b04	-0.027745731
123	0x3e249112	0.16070965
124	0x3e49e3e6	0.19715843
125	0x3e019fba	0.12658587
126	0x3d9b3a76	0.0757951
127	0x3d869318	0.06571025

weight_ih_l0_reverse f4 [128, 2]
0	0x3d95a2ee	0.07306467
1	0xbee41a8f	-0.44551513
2	0x3e9653a3	0.29360685
3	0xbe04defd	-0.12975688
4	0xbe621370	-0.22077727
5	0xbedf8ff8	-0.43664527
6	0x3d066cc9	0.03281859
7	0xbee09d2d	-0.43869916
8	0xbdc58971	-0.096453555
9	0xbe8650ac	-0.26233423
10	0x3df12f6d	0.11776624
11	0xbecf82db	-0.40529522
12	0x3e9442b7	0.2895715
13	0x3ea2a582	0.31766897
14	0x3e1cb9ff	0.15305327
15	0xbea3461c	-0.31889427
16	0xbe27beee	-0.16381428
17	0xbf13af2a	-0.57689154
18	0xbd8924ca	-0.0669647
19	0x3e284aa5	0.16434725
20	0xbf01ef9e	-0.5075625
21	0x3e0cf418	0.1376499
22	0x3f034757	0.5128073
23	0xbde266d3	-0.110547684
24	0xbd9da73c	-0.07697913
25	0xbdb4d31f	-0.08829331
26	0xbe67bcf8	-0.2263068
27	0xbe267e72	-0.16259173
28	0x3e82bff2	0.25537068
29	0x3ca6cf3d	0.02036249
30	0x3f0b09a4	0.54311585
31	0x3e3efd5c	0.18651336
32	0xbded8572	-0.11597718
33	0xbe52e102	-0.20593646
34	0x3ba8ac58	0.005147498
35	0x3dbfd451	0.09366668
36	0xbe1e8880	-0.15481758
37	0xbdc7e218	-0.09759921
38	0xbe8c6d23	-0.27427015
39	0x3e80f6c4	0.25188267
40	0xbec245f0	-0.37943983
41	0x3e3f936f	0.18708585
42	0xbe98cd5b	-0.29844174
43	0x3ef55405	0.47915664
44	0xbf282dba	-0.65694773
45	0x3e6c67ee	0.23086521
46	0x3eac71e5	0.33680645
47	0xbe04c9b1	-0.12967564
48	0xbeaf74c5	-0.34268776
49	0x3ec149f9	0.3775175
50	0xbf0b61b6	-0.5444597
51	0xbea8b6ab	-0.32951865
52	0x3dce1d0f	0.10064136
53	0x3e740785	0.23830993
54	0xbde1ed6a	-0.11031611
55	0x3eadf128	0.3397305
56	0x3e20e013	0.15710478
57	0x3c052f30	0.008128926
58	0x3dc64f35	0.09683076
59	0x3e668b2c	0.22514027
60	0xbe23b51e	-0.1598706
61	0x3c3ade35	0.011405517
62	0x3df08b44	0.11745313
63	0xbcaa4ecd	-0.020789528
64	0xbd81ae8a	-0.06332119
65	0xbe452cb6	-0.19255337
66	0x3e9a2897	0.30109093
67	0xbe886012	-0.26635796
68	0xbe4975c5	-0.19673832
69	0xbe9ac99d	-0.30231944
70	0xbcd87bf7	-0.026426299
71	0xbeda1326	-0.42592734
72	0xbdc5263c	-0.09626433
73	0xbe16dce9	-0.14732708
74	0x3e8739d1	0.26411298
75	0xbde06692	-0.10957064
76	0xbba81c09	-0.005130295
77	0x3eb0bb4f	0.34517905
78	0x3e5e24a9	0.21693672
79	0xbdd9a07c	-0.10626313
80	0x3ca43623	0.020045346
81	0xbe37f6ce	-0.17965242
82	0x3da11b3c	0.07866523
83	0xbde83756	-0.113386795
84	0xbe061c6f	-0.13096784
85	0x3d5f9fcc	0.054595754
86	0x3e428acf	0.18998264
87	0xbd8a822b	-0.06763109
88	0x3da7eb77	0.08199208
89	0x3c08330e	0.008312954
90	0xbd4fbb88	-0.050715953
91	0xbda9bf7b	-0.08288475
92	0x3e2b003f	0.16699313
93	0xbe13ecdf	-0.14445828
94	0x3e716ad0	0.23575902
95	0x3dc751e2	0.09732415
96	0xbc68c2ae	-0.0142065715
97	0xbe72d191	-0.23712756
98	0x3ac54b78	0.0015052399
99	0x3e6ead18	0.23308218
100	0xbdb9df10	-0.09075749
101	0xbcca6fdb	-0.02471154
102	0xbe6c2e10	-0.23064446
103	0x3e0f3273	0.13984089
104	0xbe80ccaf	-0.2515616
105	0x3e5b838c	0.214369
106	0xbe57d9cc	-0.21079177
107	0x3e73898c	0.23782939
108	0xbe04323a	-0.12909785
109	0x3d76da5c	0.060266837
110	0x3c8c2003	0.017105108
111	0xbe40e6f8	-0.18838108
112	0xbd117d46	-0.03551986
113	0x3d1085d8	0.035283893
114	0xbe582eb4	-0.21111566
115	0xbeb8d9ef	-0.3610377
116	0x3dcfadf8	0.10140604
117	0x3e0d53e7	0.13801537
118	0x3c630c65	0.013857936
119	0x3d7e8ee4	0.06214799
120	0xbde1ccfa	-0.11025424
121	0x3e3071e8	0.17230952
122	0x3e6af4a7	0.2294489
123	0x3e382821	0.17984058
124	0xbd90517b	-0.07046791
125	0x3d3b4044	0.045715585
126	0x3e34bd58	0.17650354
127	0xbdce19ae	-0.10063492
128	0xbd3e4e45	-0.046461362
129	0xbe9ad131	-0.30237725
130	0x3afc116a	0.0019231264
131	0x3ea64cee	0.32480568
132	0x3b8cd936	0.0042983545
133	0x3e941dcd	0.28928986
134	0xbdfaa1e1	-0.12237907
135	0xbec78eaa	-0.38976032
136	0x3e61ea83	0.22062115
137	0x3f0429fd	0.5162657
138	0x3ed45e60	0.41478252
139	0xbe681fc5	-0.22668369
140	0xbe31ec89	-0.17375387
141	0xbeff223a	-0.498308
142	0xbf3b2cc0	-0.7311516
143	0x3eaf35c2	0.342207
144	0xbdc6efb7	-0.09713691
145	0xbeb31b35	-0.34981695
146	0xbe611f0b	-0.21984498
147	0x3ec890fb	0.3917311
148	0x3f01f239	0.5076023
149	0x3cbba65c	0.022906475
150	0x3f03d6cf	0.51499647
151	0xbdeff165	-0.11715964
152	0x3e86a22f	0.2629561
153	0xba2018a7	-0.0006107189
154	0x3e5d683c	0.21621794
155	0x3e588597	0.2114471
156	0x3d7b969e	0.061422937
157	0xbe9f0eb2	-0.310659
158	0x3f194e3d	0.5988501
159	0x3e568473	0.20948963
160	0x3dd7ac9d	0.1053097
161	0x3e482989	0.19547094
162	0x3e35465c	0.17702621
163	0x3ecca430	0.39969015
164	0x3c91cba7	0.017797304
165	0xbee4430c	-0.44582403
166	0xbef62312	-0.48073632
167	0x3e46220c	0.19348925
168	0xbec7520c	-0.38929784
169	0x3de60832	0.11232032
170	0x3e4b964b	0.19881551
171	0xbe9e0f84	-0.30871212
172	0xbf1273fd	-0.57208234
173	0x3dcb7f1a	0.09936352
174	0xbd05042a	-0.032474674
175	0x3e945381	0.28969958
176	0xbebcef34	-0.36901248
177	0x3f2489ce	0.64272773
178	0x3eedcf6f	0.46447322
179	0x3ef5409d	0.4790086
180	0xbdc2252d	-0.09479747
181	0xbebd193e	-0.3693332
182	0xbe281c5b	-0.16417067
183	0xbe7c7b99	-0.24656524
184	0xbee51f7d	-0.44750586
185	0x3e2c051d	0.16798826
186	0x3ed48af8	0.41512275
187	0x3e58e02e	0.21179268
188	0x3e62fa60	0.22165823
189	0xbe32266d	-0.17397471
190	0x3ea25f9f	0.31713578
191	0xbe0e8c3d	-0.13920684
192	0x3e13892e	0.14407799
193	0xbe477c08	-0.19480908
194	0x3e39a0a4	0.18127686
195	0xbe2224cc	-0.1583435
196	0xbe285144	-0.1643725
197	0xbec60ef3	-0.3868328
198	0xbe6aedc2	-0.2294226
199	0xbeba20ed	-0.36353245
200	0xbdedf398	-0.116187274
201	0x3c2bfd4c	0.010497402
202	0x3d7ff793	0.062491965
203	0xbdec0c47	-0.11525779
204	0xbd915e56	-0.07098071
205	0x3e26353e	0.16231248
206	0x3e83cf0f	0.2574391
207	0xbe90b526	-0.28263205
208	0xbea1157e	-0.3146171
209	0xbf054e19	-0.5207229
210	0xbcaf8f50	-0.021430641
211	0xbc81d360	-0.015847862
212	0xbd16e9f6	-0.036844216
213	0xbe05a0f1	-0.13049676
214	0x3f02e0b8	0.51124144
215	0xbd9f5447	-0.077797465
216	0xbd44290e	-0.047890715
217	0xbe02ee3e	-0.12786195
218	0xbeb15da0	-0.34641743
219	0x3d2d00c4	0.04223706
220	0x3e3266e1	0.17422058
221	0x3dc3892f	0.0954765
222	0x3ea7414a	0.32667
223	0x3e2fb730	0.17159724
224	0x3e60a660	0.21938467
225	0xbe097151	-0.13422133
226	0x3e8b0dd8	0.27159
227	0xbca11742	-0.01966441
228	0xbe5acc31	-0.21366955
229	0xbdd57edd	-0.10424588
230	0xbec92c8f	-0.39291808
231	0x3e90d166	0.28284758
232	0xbe98aaa7	-0.29817697
233	0xbe223c64	-0.1584335
234	0xbe9af894	-0.30267775
235	0x3f2f2fcb	0.684323
236	0xbf03d105	-0.51490813
237	0xbe01909d	-0.12652822
238	0xbd1e51fc	-0.038652405
239	0xbda874db	-0.082254134
240	0xbe67e27e	-0.22644994
241	0x3ef9eaab	0.4881185
242	0xbe60a466	-0.21937713
243	0xbefcc1e2	-0.4936667
244	0x3a765262	0.0009396431
245	0x3ec6b0e3	0.3880683
246	0xbdf81446	-0.12113242
247	0x3e1b43f8	0.15162647
248	0x3ee85d35	0.4538361
249	0xbe28d3ba	-0.16487017
250	0x3de74b1d	0.112936236
251	0xbbf6221b	-0.00751139
252	0xbd93dcd4	-0.07219854
253	0xbcf96737	-0.030444724
254	0x3d0169de	0.031595103
255	0xbdb62a15	-0.08894745
