TS-CVAE/experiments/pedestrians/models/zara1/models_22_Jun_2021_00_46_21_zara1_ar3/model_registrar-100.pt (torch_old, 545378 bytes, 43 tensors)

weight_ih_l0 f4 [128, 6]
000000 aa b0 e9 bd 43 d9 df 3c 2a a6 bd bd fc bc 83 bd
       -0.11410649 0.027325278 -0.09260209 -0.0643253
000010 36 42 b4 3a 06 16 04 3e 16 97 42 be 31 47 ac be
       0.0013752643 0.12899026 -0.19002947 -0.33648065
000020 c8 f2 cc bd 5c da f5 3e 4d 6c d6 3c 8d b5 1e be
       -0.10007244 0.48018157 0.026174689 -0.15498944
000030 5e 56 fa 3d 9c 32 53 3e e6 f8 79 be 1a 4a 41 be
       0.122235045 0.20624775 -0.24411353 -0.18875924
000040 bb 88 11 be f9 d4 36 3d ac 17 25 3d 90 6e b6 3d
       -0.14212315 0.0446367 0.04030578 0.08907807
000050 4d 06 d9 bc a8 b4 58 bd 89 6f 19 be 46 b8 d0 3d
       -0.026492262 -0.052906662 -0.14983954 0.10191397
000060 d0 6e f8 bc 37 6c 72 be 1f 0f f2 bd d0 59 04 3f
       -0.030326277 -0.23674093 -0.1181929 0.51699543
000070 e5 7d bc bd 98 09 c3 bd a8 79 eb 3e b9 14 cc bd
       -0.092037 -0.09523314 0.45991254 -0.0996489
000080 fa 12 78 be bb b0 17 3e d4 b2 3d 3e 83 ca c4 bc
       -0.24225989 0.14813511 0.18525249 -0.024022346
000090 05 d8 a4 be 80 6e 35 be 01 4e b0 3d 87 8e bc bb
       -0.3219606 -0.17717934 0.08608628 -0.0057542953
0000a0 93 63 78 be 06 c3 e7 be 74 09 5e bd f7 23 e3 3e
       -0.24256735 -0.4526598 -0.054208234 0.44363376
0000b0 38 58 63 3e fe 22 e7 bd cd ee b5 bd 36 30 ff 3d
       0.22201622 -0.11285971 -0.08883438 0.124603674
0000c0 30 15 e3 3e b5 67 15 be bb 48 17 3e c2 6c 2b bc
       0.44352102 -0.14590342 0.14773838 -0.010462942
0000d0 74 86 f2 bc 9a e4 3a 3c ec af 61 be f5 30 7a be
       -0.029605128 0.011407042 -0.22039765 -0.24432738
0000e0 53 44 c7 3d 87 d1 71 3e 02 18 0f bd 77 ea 9c be
       0.09729829 0.23615085 -0.034935005 -0.30647632
0000f0 07 d3 c8 3e 92 a1 a0 be 2c fc 0d bf 04 bc 92 3e
       0.392235 -0.31373268 -0.5546291 0.2865907
000100 79 cb 36 be 00 33 46 3e 0d c9 a9 be 38 e3 5f be
       -0.17851056 0.19355392 -0.33161202 -0.21864021
000110 69 8d 1b 3e 37 41 85 3e c5 d1 8a 3e ff 85 b0 3e
       0.15190662 0.26026317 0.27113166 0.3447723
000120 0c bc 1d be 07 ef e7 bd 57 2c 3f 3d 79 01 23 be
       -0.15403765 -0.11324888 0.046673145 -0.1591853
000130 ad 6a 1f 3e f2 4d c5 be 7e 18 07 3d ca 13 9f 3e
       0.15568037 -0.3853603 0.032982342 0.31069785
000140 7a 57 b6 3d 02 74 98 bd e2 5f 89 3e 7f 46 0b 3f
       0.089034036 -0.07444002 0.26830965 0.54404444
000150 90 9a 9a be 08 59 07 bd 29 25 91 be 55 93 53 3e
       -0.30196047 -0.03304389 -0.28348663 0.20661671
000160 74 e6 1a 3f aa 78 13 be 91 1f 25 be 22 7c 77 3e
       0.60507894 -0.14401498 -0.16125323 0.24168447
000170 31 2e 94 3e 1a 2d 04 be 39 16 ce bd 33 3c 0f 3e
       0.2894149 -0.1290783 -0.100628324 0.13987808
000180 86 3a 1a be 58 41 b4 3e 83 6e ba 3e e9 6c bc bc
       -0.15061387 0.35206103 0.3641244 -0.023001151
000190 2c c0 99 be 44 07 21 bf 63 f6 e1 3d 36 46 58 be
       -0.30029428 -0.6290171 0.11033323 -0.21120533
0001a0 84 d1 eb 3c 3c f4 18 3d 0b d4 0b 3e 24 19 09 3e
       0.028786428 0.037342295 0.13655107 0.13388497
0001b0 1a b7 b7 bb 9e 11 7d 3d 1a 45 49 3e 31 85 65 be
       -0.005606544 0.06178438 0.19655266 -0.2241409
0001c0 f0 26 86 3e 70 8a 3c 3e b2 60 a7 be 4c fd 68 bd
       0.26201582 0.18412185 -0.3269096 -0.056882188
0001d0 86 0c 2f 3e 83 55 4e 3e fe e6 a9 3d bc 7e 63 3e
       0.17094621 0.20149808 0.082960114 0.22216314
0001e0 b1 20 9f be 8c 0a c4 3e 3f 8d 3c 3e 18 f5 ca be
       -0.3107963 0.38289297 0.18413256 -0.39640117
0001f0 ed 24 89 bd 2d 31 e5 3d 59 c1 da 3e 26 78 de 3e
       -0.06696496 0.1119102 0.42725638 0.4345104
000200 27 5e 03 bf 5e d4 6e be a2 8e 38 3e 44 60 a1 3d
       -0.5131554 -0.23323199 0.1802316 0.07879689
000210 20 22 c9 bd 23 22 2a be b3 a2 e7 3d 1e 74 a8 3d
       -0.09820962 -0.16614585 0.11310329 0.082252726
000220 fc fa 3f bd 35 d5 26 bd 05 ae 96 bd e4 32 40 bd
       -0.046870217 -0.040730674 -0.0735741 -0.046923533
000230 7e 89 fb 3d db 14 ef bd 91 67 6a 3d b2 7c 7e 3c
       0.12282084 -0.116739 0.057227675 0.015532659
000240 ff 4f f3 bd fb 13 c0 be 68 5d 0b be 92 6a 81 3e
       -0.118804924 -0.37515244 -0.1360985 0.2527662
000250 f8 76 ba be 7f ef 71 bc b4 cf c0 bc e7 a5 eb bc
       -0.3641889 -0.014766573 -0.02353654 -0.028765632
000260 71 19 e1 bd cd 03 90 bd 47 38 2e 3e f8 75 3e 3e
       -0.10991181 -0.07031975 0.17013656 0.18599689
000270 e9 c0 ce 3d 85 be 95 be b6 72 8f be 5e 8f 1e 3e
       0.100953884 -0.29246917 -0.28017205 0.15484378
000280 bf 5b 42 3e f5 56 3e 3e 11 72 dd bc 92 90 92 3e
       0.18980311 0.18587859 -0.02703193 0.28625923
000290 18 3c 9b 3e a2 c7 56 3e 49 4e fb bd 94 3e 79 3e
       0.30319285 0.20974591 -0.12270791 0.24340278
0002a0 61 cb 90 be 41 7e 9f 3e d2 93 54 3d 07 5f a8 3d
       -0.28280166 0.31151012 0.051898785 0.0822125
0002b0 01 72 f2 3b 64 0b d1 3d 19 ae fe bd 05 93 19 be
       0.007398844 0.10207251 -0.1243555 -0.1499749
0002c0 f0 55 15 bd e5 31 25 bc 85 97 6d 3d 20 80 b4 3d
       -0.03645891 -0.010082697 0.05800583 0.088135004
0002d0 86 90 09 be bf 1d 01 be 00 21 b2 3e b7 7a 20 3d
       -0.13434038 -0.12609003 0.34790802 0.03917953
0002e0 6b d5 f8 bd 0f 0e 75 bd 47 13 17 be 76 0f 03 3e
       -0.12150081 -0.05982786 -0.14753447 0.12798867
0002f0 5a 7a 69 3e 0f a1 79 be f6 fc 78 be 83 cf 9d bc
       0.2280058 -0.24377845 -0.24315247 -0.019263988
000300 7a 1a 6c 3e 3a b3 4b 3e 75 f3 2e be e5 44 01 be
       0.23056975 0.19892588 -0.17085059 -0.12623937
000310 6c ff 38 be bc 4d 73 be 50 4a d3 3d 12 46 fb 3c
       -0.18066186 -0.23760122 0.10316908 0.03067306
000320 a3 ff a4 3c aa 5a 09 be e0 d0 11 3e 25 e5 ee 3d
       0.020141428 -0.13413492 0.14239836 0.116647996
000330 7f 48 29 be 68 aa ab 3d 5c 6e 9d bc 49 20 6d 3b
       -0.16531561 0.08382112 -0.019217663 0.0036182574
000340 d8 4e 61 bd bb 21 fc bd bd a9 4f bd 48 1f a4 3d
       -0.055006832 -0.12311121 -0.050698984 0.08013779
000350 73 ee da 3d 76 ba 02 be 30 fc 92 bd aa 34 b0 be
       0.10690012 -0.12766442 -0.07177007 -0.3441518
000360 5c 93 b3 bd d6 61 43 be 31 e2 32 3e d3 63 b2 3e
       -0.08768341 -0.1908029 0.17469098 0.34841785
000370 96 df 91 be 83 63 6d be b6 6d ad 3e a2 c3 23 be
       -0.28490895 -0.23182492 0.33872765 -0.15992597
000380 ad 2d bc 3d 2c 01 3b be a2 f2 10 bf 93 17 52 bd
       0.091883995 -0.18262166 -0.5662023 -0.051292013
000390 fa 28 3d be d8 4c d8 bd 32 d2 14 3e 7c 92 69 bd
       -0.18472663 -0.10561532 0.14533308 -0.057024464
0003a0 53 25 c4 3d 9f ac f8 3d d8 b5 8c bc 48 89 54 bd
       0.095774315 0.121423 -0.017176554 -0.051888734
0003b0 c1 51 8e 3e 1a 20 6b be 0c 8a dd b9 fb 19 91 bc
       0.27796748 -0.22961465 -0.00042255258 -0.017712584
0003c0 f2 5c 08 3f 77 be b4 be ab a4 47 be 69 1d bf 3d
       0.53266823 -0.35301563 -0.1949641 0.093317814
0003d0 72 06 bd be 17 cd da 3e d8 4f b1 bd 14 e9 01 be
       -0.3691898 0.42734596 -0.08657807 -0.12686568
0003e0 cf a7 b7 3d a6 e0 00 3e 1b f0 d1 3d 6a 11 d6 3c
       0.08967554 0.12585697 0.102508746 0.02613135
0003f0 ea 11 63 3e 09 7c 3e be 3d f6 7b be 22 aa 42 3e
       0.22174802 -0.18602003 -0.24605651 0.19010213

weight_hh_l0 f4 [128, 32]
000000 74 b9 d0 bd f6 47 b2 be 5c 11 9d 3e 35 62 6a 3e
       -0.101916224 -0.34820527 0.30677307 0.22889026
000010 55 a9 07 3e 10 9d 44 3e 3a 21 3c be 14 c8 e1 bc
       0.13248189 0.1920054 -0.1837205 -0.027561225
000020 f1 7b 8a 3e 4b 96 50 3e 32 0f bc be 4b 3b 02 3f
       0.27047685 0.20369832 -0.36730343 0.50871724
000030 a9 c6 49 be 87 21 ee 3c ef 07 74 be 36 ff 71 3d
       -0.19704689 0.029068721 -0.23831151 0.05908128
000040 3e 06 3d be 8b 2f 0a bd 29 c8 96 3e 79 f0 09 bf
       -0.18459412 -0.033736747 0.29449585 -0.5388256
000050 55 b2 99 be 5d 5d 70 3e 4a e6 ae bd 1f dd ab be
       -0.3001887 0.23473115 -0.08540018 -0.3356714
000060 02 94 d9 3d 30 db 51 be 63 2e a2 3e 71 58 eb bd
       0.106239334 -0.2049377 0.31676015 -0.11491478
000070 0e 71 8f be 91 b9 db 3d 92 78 17 3e 2d 01 a6 bd
       -0.2801594 0.10728753 0.14792088 -0.08105693
000080 39 dc 6d bd bb 12 12 be d0 55 a1 3e 29 c8 40 3e
       -0.05807135 -0.14264958 0.31510782 0.18826355
000090 6f ca 94 3d a3 b3 89 3e 32 e3 6f bd be dc 94 be
       0.07265174 0.26894864 -0.05856628 -0.29074663
0000a0 c9 53 8c 3e ad d4 03 3d 7c df 9b be b4 df 02 3e
       0.27407673 0.032185245 -0.30443943 0.12780648
0000b0 93 41 a1 be dd d2 aa 3d 9f e7 a3 3d 87 6f 92 bd
       -0.31495342 0.08341 0.080031626 -0.071501784
0000c0 38 3f 8c bd 34 be 8a 3e 86 7c 14 be 12 07 1d be
       -0.068479955 0.27098238 -0.14500627 -0.15334728
0000d0 50 71 1d be 54 ab 51 3e 34 2f 30 be 50 ce 60 be
       -0.15375257 0.20475513 -0.17205507 -0.21953702
0000e0 36 b3 29 3e 6f 2b 80 bd 01 51 6d bd 56 61 8e be
       0.1657227 -0.06258284 -0.05793858 -0.27808636
0000f0 e4 0e fd bd 2a 93 58 3d b4 72 26 3e 1b f9 a2 bd
       -0.12356356 0.05287472 0.16254693 -0.07957669
000100 e4 f9 82 3d 8c 77 81 be 15 fd aa bd c3 37 79 3d
       0.06395319 -0.2528652 -0.08349053 0.060844194
000110 ef 7d 6c 3e 37 6a 36 3e 5a b0 64 be f4 7b 5c be
       0.23094915 0.17813955 -0.22332898 -0.2153166
000120 ae 45 00 bd 5b e4 0c 3e aa 5a 7c be a7 06 4b 3e
       -0.03131645 0.13758986 -0.2464396 0.19826756
000130 f9 cc 8c 3c eb 85 c4 bd 70 87 49 3e ab 47 96 be
       0.017187582 -0.09595855 0.19680572 -0.29351553
000140 16 45 93 bc ca 23 6b bd 2a 12 05 3e c4 9f 8c bd
       -0.017977279 -0.057407178 0.1299521 -0.068664104
000150 b0 63 c4 3b ce dc 81 3d 54 09 c5 3d cb f7 30 3e
       0.005993329 0.06340943 0.0962092 0.17282026
000160 a8 22 80 3e b2 d8 f1 3d 92 69 05 3e ad 71 42 3e
       0.2502644 0.118089095 0.13028553 0.18988676
000170 2b 9f 8f 3d 93 1f 32 3d 52 c0 18 be be 1d 23 3d
       0.07012781 0.043487143 -0.14917114 0.039823286
000180 ad 98 f5 bd d6 f7 b1 bd 98 67 6e 3e a2 7c 82 3e
       -0.11992011 -0.08689849 0.23281705 0.25485712
000190 cf cb 8b bd f9 1d 2b 3e 27 9a 68 be 50 de 97 3d
       -0.06825983 0.16710652 -0.22715054 0.074154496
0001a0 c5 b6 7e 3e 05 98 07 3d a0 25 08 bf 81 0f 65 3e
       0.24874409 0.03310396 -0.5318241 0.22369196
0001b0 df 15 72 be 30 33 75 be ab f5 3a bf 63 3d fa bd
       -0.23641156 -0.23945308 -0.7303111 -0.1221874
0001c0 c4 5f 94 be 0c 53 0b 3e 93 0b d4 3e 8e 68 52 bf
       -0.28979313 0.13605899 0.4141508 -0.8219079
0001d0 b2 fe 6d bd 96 69 df 3e 22 9e eb 3d 58 f9 7a be
       -0.058104225 0.43635243 0.11504771 -0.2450918
0001e0 b8 d1 10 3d cf 49 3d be 88 bf 82 3d 13 7c 15 bf
       0.035356253 -0.18485187 0.06384188 -0.5839245
0001f0 ee d6 26 bf d9 d3 87 3e d3 2f 16 3e 1e 7b b5 3d
       -0.65171707 0.26528814 0.14666681 0.08861373
000200 76 8f 6c be 44 59 cb be de b6 0f 3f c9 a0 07 be
       -0.23101601 -0.39716542 0.5613841 -0.13244928
000210 20 d0 41 3e e7 36 33 3e d5 a1 3a bd aa b4 99 bd
       0.1892705 0.17501412 -0.04556449 -0.07505162
000220 a5 ec 45 3f 9b 45 0a be f3 8c f8 be 94 76 01 3e
       0.77314216 -0.13503115 -0.48545036 0.1264289
000230 6c 97 0b bd d3 3c af bc ef 2b 55 bf 5e f0 b3 3d
       -0.034079954 -0.021391308 -0.8327016 0.08786081
000240 e5 2d 96 be 39 fb a3 bd fc 71 87 3f ee d6 9a bf
       -0.2933189 -0.08006901 1.058166 -1.2096841
000250 93 6c c9 bb b0 12 42 3f 46 0c a6 3d e9 f6 bf be
       -0.0061469763 0.75809765 0.0810781 -0.37493065
000260 a1 c9 a7 be 45 a5 92 be c6 ce 84 3e 37 ac aa bf
       -0.32771018 -0.28641716 0.25939006 -1.3333806
000270 1d f2 7b bf 3c f7 c4 bd b6 37 76 3e 19 64 93 3e
       -0.9841631 -0.09617469 0.2404469 0.28787306
000280 c1 38 e7 3d 58 e3 0d be 04 29 bf 3c 48 77 2d be
       0.11290122 -0.13856256 0.023334987 -0.16940033
000290 c4 9a 6c 3e 9c 4d 97 3d 9b 9b 5d 3e 7c dd 2d be
       0.23105913 0.0738785 0.2164139 -0.16979021
0002a0 6f 43 b7 bd 53 9c 91 3e 23 e0 36 3e a1 60 bf bd
       -0.08948409 0.28439578 0.17858939 -0.093446024
0002b0 76 c5 56 be 8e fb 05 3e 70 bb 98 3d 21 d0 7d be
       -0.20973763 0.13084242 0.07457626 -0.24786426
0002c0 fd 3c 08 3c bc 08 27 3e d4 71 c8 be 88 ea 9c 3e
       0.008315322 0.16311926 -0.39149344 0.30647683
0002d0 ba 23 a2 3c 47 6b 6d 3d 85 f3 c2 be c2 de bf bd
       0.019792426 0.057963636 -0.38076416 -0.093686596
0002e0 3e bd e6 bd 49 7e 61 be 88 03 2d 3e 26 e2 b6 3e
       -0.11266564 -0.2202083 0.16895878 0.35719413
0002f0 81 20 54 3e 35 79 e9 3d bd f0 9a 3e da 79 79 bd
       0.20715524 0.114000715 0.30261794 -0.060907222
000300 b6 6a d7 bc bc 83 86 bd 04 ad 28 be 3c 0a 82 3d
       -0.026296 -0.06568095 -0.1647225 0.06349608
000310 37 85 9d bd fa f3 50 3d 83 bb 19 bd ff 79 db be
       -0.07691424 0.051013924 -0.03753234 -0.42866513
000320 5f c9 0a be 86 47 38 3d 42 a9 15 be 40 94 54 3e
       -0.1355338 0.044990085 -0.14615348 0.20759678
000330 23 ed 14 be 16 2d 69 3e 03 1e c7 3d fe 93 db 3d
       -0.14543585 0.22771105 0.09722521 0.10721587
000340 d0 df 9b 3d f7 eb 67 bd e2 c1 ef bd f4 2d 11 be
       0.07611048 -0.056621518 -0.11706902 -0.14177686
000350 f8 8c 46 bd bb 4a 25 3e 6b 30 f3 3d 0b 10 79 bd
       -0.048474282 0.16141789 0.11874469 -0.060806315
000360 d7 7c 9c bd ee f7 eb 3d db 65 70 3e 18 f1 19 3e
       -0.07640999 0.11521898 0.23476355 0.15033376
000370 8a 70 d3 bd be 4c 05 3e 47 87 99 bd ee 79 9d 3d
       -0.103241995 0.13017556 -0.07496505 0.07689272
000380 b5 96 b0 3d 22 d0 55 be 2b aa 10 be ed 9c b1 bd
       0.08622495 -0.20880178 -0.14127414 -0.08672509
000390 6f 70 1e bc b4 dc 2a 3e 30 68 9f bb 36 ec c4 3d
       -0.009670361 0.16685754 -0.004864715 0.09615366
0003a0 38 2c 37 3e c8 f9 2d be 87 86 ad bc 84 fb 55 be
       0.17887962 -0.16989815 -0.021182312 -0.20896727
0003b0 96 6e c2 3e 64 d9 17 3e 24 f2 d2 3d fb b9 09 3e
       0.37974995 0.14829022 0.10300091 0.13449852
0003c0 5b 7a e5 3d ad 9c 8a bd b3 dd ee 3d 36 cf 4d be
       0.11204978 -0.06768165 0.116633795 -0.20098576
0003d0 6e 94 56 be 3e 55 34 3d 5e 89 72 bc 77 61 5a be
       -0.20955059 0.044026606 -0.014803259 -0.21326242
0003e0 51 c1 58 bd 13 a3 83 3e 78 0e d0 3d 3b 4c c0 bd
       -0.052918736 0.25710353 0.1015901 -0.0938954
0003f0 90 86 fa bd 6b de 5d 3e a8 50 dd bd 6e ac 33 3e
       -0.12232697 0.21666877 -0.108063996 0.17546245

bias_ih_l0 f4 [128]
000000 b3 3b 6a 3d c9 a3 aa 3e f4 4c fc 3d 7f 18 69 3e
       0.05718584 0.33328083 0.12319365 0.22763251
000010 bf 4b da 3e 6c b1 97 3e 6e de 99 3e 64 32 0e 3e
       0.42635915 0.2962755 0.30052513 0.1388641
000020 2c 88 02 3e e9 a6 ab 3e 47 da bf 3e cc ca 80 3e
       0.12747258 0.3352578 0.3747122 0.25154722
000030 87 90 1a 3f 14 e7 a9 3e 52 be 11 3e c0 10 b0 3e
       0.6037678 0.3318411 0.14232758 0.3438778
000040 89 0c c2 3d 08 7a be 3e 12 88 3a 3d 92 e4 29 3e
       0.09475047 0.37202477 0.045539923 0.16591099
000050 71 89 10 3f ff 5c 8b 3e d4 48 08 3f 52 27 d5 3d
       0.5645972 0.27219388 0.53236127 0.104078904
000060 4e cc fc 3e de 32 bb 3d c2 00 ed bc 79 c4 a5 3d
       0.49374622 0.091405615 -0.028931025 0.08094115
000070 21 12 e1 3b 50 a1 c0 3e 84 2e b7 3e d2 42 98 3e
       0.006868616 0.37623072 0.35777676 0.2973848
000080 45 da 90 3b 26 73 ca be 0b e0 a7 be d2 8c 4d be
       0.004420551 -0.39540976 -0.3278812 -0.2007325
000090 ea c0 3b bf 6c 7a 4f be fc a8 d2 be 64 fa c0 be
       -0.7334124 -0.20261544 -0.4114455 -0.37691033
0000a0 5a 29 05 be ca cb 93 be a8 3b 8a be a5 10 7c b9
       -0.13004056 -0.28866416 -0.2699864 -0.00024038793
0000b0 e2 0d 07 bf 48 15 9a be 3b df 84 bd 5c aa 2e bf
       -0.5275556 -0.3009436 -0.0648789 -0.682287
0000c0 eb 76 92 bc 67 ea 72 be cf cb 89 bd c2 d6 b2 3d
       -0.01787897 -0.2372223 -0.067283265 0.08732368
0000d0 18 04 22 bf e3 11 62 be bb a6 a6 be 0f 91 e7 bd
       -0.63287497 -0.22077136 -0.3254908 -0.113069646
0000e0 72 25 9d be 7a 57 9d 3d 79 36 13 bd dc 50 00 3e
       -0.3069263 0.076827005 -0.03594062 0.12530845
0000f0 15 6c a4 bc 5d f2 21 bf 1a 3a 06 bf 8d 12 f6 be
       -0.020071069 -0.6326044 -0.52432406 -0.48061028
000100 63 37 02 3e f4 f2 ce 3d 17 9d 4b bd 61 dd e8 3c
       0.12716441 0.101049334 -0.04971036 0.028425874
000110 a4 e6 dc bd d7 df a6 3c 8b 68 c7 3d f2 e6 2b bd
       -0.10786179 0.020370407 0.09736737 -0.041968293
000120 ef 4e 8e bc 59 61 9a 3d 98 21 dc bd 90 46 f7 3c
       -0.017371623 0.07538099 -0.10748595 0.030185014
000130 de 1c d8 bd 01 b1 33 bd 39 22 b5 bd 7f 9e c1 bd
       -0.10552381 -0.043869976 -0.08844418 -0.09454059
000140 71 41 9d bd 7a b9 f5 bd 82 3f 09 3e 62 c3 f0 bd
       -0.076784976 -0.119982675 0.13403133 -0.11756016
000150 21 f0 5c 3d 39 66 87 3d 5a 0a ca 3d 8f 48 ff bd
       0.053939942 0.06611294 0.09865256 -0.12465011
000160 5c e5 ea 3d d3 a4 b9 bd af 83 51 3d d1 3d 86 be
       0.11469528 -0.09064641 0.051150974 -0.26219037
000170 06 58 fc bd 8a c5 de 3d 93 a3 0b 3d 70 8d 8f bd
       -0.12321477 0.10877521 0.034091543 -0.07009399
000180 46 bb 76 3e 02 85 97 3e bf 86 21 3e 15 d5 8e 3e
       0.24094877 0.29593664 0.15774058 0.27896944
000190 42 51 01 3f c6 85 85 3e 96 94 ac 3e d1 cf 2f 3e
       0.50514615 0.26078624 0.33707112 0.1716912
0001a0 93 47 92 3c 45 44 c4 3e b9 9c 30 3e f7 95 55 3e
       0.017856395 0.38333336 0.17247285 0.20857988
0001b0 e4 40 05 3f 45 87 af 3e 90 a9 30 3e ba 31 f9 3e
       0.5205214 0.3428289 0.17252183 0.4867075
0001c0 66 e9 68 3e d5 5d 9c 3e 7a cb 11 3e ff 03 78 3d
       0.22745284 0.30540338 0.14237776 0.060550686
0001d0 f7 d8 23 3f b3 2a 96 3e 01 e4 fa 3e c3 8b 29 3e
       0.6400294 0.29329452 0.49002078 0.16557221
0001e0 b0 51 85 3e d2 e0 35 3e 3f 19 10 3e a1 a2 d1 3c
       0.26038885 0.17761543 0.1407213 0.025590243
0001f0 63 7b 15 3e 84 97 11 3f 3e 55 d1 3e cc 6f 70 3e
       0.1459785 0.5687182 0.40885347 0.23480147

bias_hh_l0 f4 [128]
000000 d2 48 53 3c cb 59 b1 3e df 9e 2d bc ff 39 c7 3e
       0.01289578 0.3463882 -0.01059696 0.38911435
000010 66 f4 11 3f 90 87 56 3d c4 a5 4b 3e f2 02 a2 3e
       0.5701355 0.052375376 0.19887453 0.31642872
000020 70 b6 59 3e 19 0a 00 3f ef 30 f2 3d c9 c2 01 3e
       0.21261 0.5001541 0.118257396 0.12671961
000030 69 1f bb 3e c7 48 20 3f d1 47 3b 3e d6 19 01 3f
       0.36547402 0.6261105 0.18289115 0.5043005
000040 02 10 ff 3b e4 aa ba 3e b4 6a 4d bd bc 1a f9 3d
       0.0077838907 0.36458504 -0.05015059 0.12163302
000050 b5 57 36 3f af e3 e7 3e 30 96 0f 3f 00 6b 2c 3e
       0.7122758 0.45290896 0.5608854 0.16837692
000060 dc 72 ca 3e f8 36 9c 3d 3b c7 36 3d c1 56 2e bc
       0.39540756 0.07627672 0.044623595 -0.010640801
000070 5b 1a 99 bd b6 d8 bb 3e 90 c6 da 3e 6f f5 b1 3e
       -0.0747573 0.36688775 0.42729616 0.34757563
000080 dc b9 ac bd 7d 17 bd be f1 b6 b8 bd ce 51 d0 be
       -0.08433887 -0.36931983 -0.09019268 -0.40687412
000090 9c 9f d9 be 99 e7 22 bd 41 7f 8a be 95 90 05 bf
       -0.42504585 -0.03977165 -0.27050212 -0.5217374
0000a0 77 1b 6a bd d6 94 b0 be e6 89 80 be e9 9c 7b bd
       -0.0571551 -0.34488553 -0.25105208 -0.061428938
0000b0 45 c4 07 bf 6a f4 f5 be 6d 3f 28 3d 33 d6 21 bf
       -0.5303386 -0.48038036 0.041076113 -0.6321747
0000c0 99 3e 18 be 4a 3c 9c be 9b 75 1f bd 36 6f c0 bd
       -0.14867629 -0.30514747 -0.038930517 -0.09396212
0000d0 ec 59 fa be 10 63 c4 be 46 6e 0c bf 5a 71 10 be
       -0.4889673 -0.3835683 -0.54855764 -0.1410574
0000e0 cb b0 02 bf 5d 5d 6d be 65 36 94 be 53 54 84 3d
       -0.51051015 -0.23180147 -0.2894775 0.06461396
0000f0 3d ce 45 bd a5 20 cc be a6 d3 c8 be 1b 85 37 be
       -0.048292387 -0.39868656 -0.39223975 -0.1792187
000100 41 d7 1f be bc bf 2b be cd 83 f6 3d 7d dd de bc
       -0.15609457 -0.1677236 0.12036858 -0.027205223
000110 a2 5e 18 3e f0 d2 57 3d ba cf b5 bd 6a 4b a1 3b
       0.1487985 0.0526914 -0.08877511 0.00492232
000120 01 b8 fd 3d 73 66 95 bc be ae a6 3c fc 78 42 3d
       0.123886116 -0.018237328 0.020346995 0.04747866
000130 09 fd 99 3d b0 ed b8 3c ca 22 2a be 23 d6 53 3d
       0.07518966 0.022574276 -0.16614833 0.05171789
000140 bf 59 84 3c 15 b1 fa 3d 60 9f 73 3d 46 00 7a be
       0.016156076 0.12240807 0.059478164 -0.24414167
000150 07 04 d3 bd e0 77 b9 3b da 6b 14 be 6c c7 fc 3d
       -0.103035025 0.005660042 -0.14494267 0.12342724
000160 b1 8b fd bd c0 ab 75 3c e1 aa 5d 3d 5e e1 16 be
       -0.1238016 0.014994562 0.05411804 -0.14734408
000170 7e e2 e4 bd 40 f2 2d be 6b 58 1c 3c df dc 0a 3d
       -0.111760125 -0.16986942 0.009542565 0.033902045
000180 a4 ee 00 3e 61 4b dc 3e f7 ff d6 3a ab 9b 01 3f
       0.12591034 0.4302626 0.0016403188 0.50628155
000190 10 90 1a 3f c3 1d 28 3e 5d 20 09 3f 38 ee f6 3e
       0.6037607 0.16417603 0.5356501 0.4822862
0001a0 fa 0c 14 bd d8 b5 cf 3e 0e d6 d3 3e 9b 29 92 3e
       -0.036145188 0.40568423 0.41374248 0.28547367
0001b0 e6 5d 08 3f 23 38 09 3f 66 30 bd 3d 63 38 fd 3e
       0.5326828 0.5360128 0.09237747 0.49457082
0001c0 22 d9 7b 3e 7b a8 2c 3e cc 69 7d 3e 3e e6 80 bd
       0.24594548 0.16861145 0.2474739 -0.06293915
0001d0 4c 63 1a 3f ee 01 f8 3e f1 4c 24 3f 87 a8 98 3e
       0.60307765 0.48438972 0.64179903 0.29816076
0001e0 e0 7c e5 3e 27 f1 1c 3e 5c 42 45 3e 3c 3a 02 3d
       0.44821835 0.15326367 0.19263595 0.031793818
0001f0 85 4b 88 3c 50 2c 10 3f 89 2a df 3e 18 ff de 3e
       0.016637573 0.56317616 0.4358714 0.43553996

weight_ih_l0 f4 [128, 2]
000000 5d ef e5 3d 4d 8c 65 3d c9 ef cd bd d7 9b 39 3d
       0.112272955 0.056042004 -0.10055501 0.045314636
000010 86 ec 70 3d 27 8c 50 3c b5 6d c8 bd 83 bf 06 3c
       0.058819316 0.012728727 -0.0978655 0.008224371
000020 0d 0e 82 3d 1e a4 61 bd 02 15 1c bc 47 b8 8f 3d
       0.06350336 -0.055088155 -0.009526493 0.0701757
000030 a4 6e cc 3d eb 68 74 3b 39 fc fa bd b1 29 0a be
       0.099820405 0.0037293981 -0.12255139 -0.13492467
000040 39 9c c6 bd 62 2d ea bd c6 8f 92 bc 35 90 2a bc
       -0.09697766 -0.11434437 -0.017890822 -0.010410358
000050 65 1a 5b 3c 47 93 e7 3d 3d 23 23 3b 83 d1 cc bd
       0.013372992 0.11307388 0.002489283 -0.10000899
000060 0d f1 14 be e5 5c 65 bd 91 32 c7 3c 9f fd d4 bd
       -0.14545079 -0.055996794 0.024316104 -0.10399937
000070 49 1e ac bd f8 35 9f bc b4 e7 b7 bd e5 68 4f 3d
       -0.08404214 -0.019434914 -0.08979741 0.050637145
000080 de 49 2d bc 27 ca a2 3c ce 86 7e 3a 4c 01 64 3d
       -0.010576693 0.019871784 0.00097094185 0.0556653
000090 4e bf 2c 3d b8 ed bd 3c cb 40 04 3d e0 d2 b2 3c
       0.04217463 0.023184642 0.032288354 0.021829069
0000a0 9c 72 c3 3c 6a ae 09 3c 7c 40 30 bd b1 94 f8 3d
       0.023858361 0.0084034 -0.043030247 0.12137736
0000b0 16 a7 f0 3c 17 19 a4 3d 41 f7 93 be 3f da 0a 3d
       0.029376548 0.08012598 -0.28899577 0.033899542
0000c0 e4 12 d1 3d 92 9e 46 3d 0d 36 9b bc d9 32 64 bd
       0.10208681 0.04849107 -0.018946672 -0.055712555
0000d0 5c 1b c7 3d 7a 35 63 3d 1e 88 4e bc 96 4f 0a 3e
       0.09722015 0.05547092 -0.012605695 0.13506922
0000e0 7f 33 64 bc b6 66 82 3d ef b1 99 bd e3 4d 60 3d
       -0.013928293 0.06367247 -0.07504641 0.05476178
0000f0 d7 1f 86 3e 09 e9 de 3c 1c e4 7b be 4a e0 b0 bd
       0.26196167 0.02721073 -0.24598736 -0.0863653
000100 4a f9 03 be f4 6d 85 be 88 82 11 3e e9 b2 9a 3d
       -0.12888065 -0.2606045 0.1420995 0.07553656
000110 7e 47 a4 3d 81 ce 19 be 2c b5 de 3d e8 a8 9a 3d
       0.080214486 -0.15020181 0.108743995 0.075517476
000120 cb dd b3 3e 03 01 4b be 30 58 cd 3d 05 be bc bc
       0.35130152 -0.19824605 0.10026586 -0.023039827
000130 0b 68 e0 3d a5 d7 4c 3e 76 6a d3 3c e7 23 07 3e
       0.109573446 0.20004137 0.0258076 0.1319729
000140 93 2b 8b be 4a a3 52 be 45 f0 3a 3e 31 e1 a3 bc
       -0.27181682 -0.20570102 0.18255718 -0.02000484
000150 a4 47 21 3e 73 e3 04 3e 5f 20 79 be b1 bc c8 3d
       0.15749985 0.1297739 -0.24328755 0.09801615
000160 ac 57 6b be 53 4f ce 3d 59 55 2e be 73 d7 1d 3d
       -0.22982663 0.10073724 -0.17024745 0.038535547
000170 0d 21 f9 bc c8 2d 55 3d 41 5f 62 3e 7d 1b 47 3d
       -0.030411268 0.052045614 0.22106649 0.0486102
000180 fb e7 0d 3d 68 9b 16 3e da 31 4c be a4 34 bd bd
       0.034645062 0.1470772 -0.19940892 -0.09238556
000190 eb 19 44 bd e7 01 15 3e 60 fc 6b be 59 c1 59 bd
       -0.04787628 0.14551507 -0.23045492 -0.053162906
0001a0 cf c8 bc be c2 da 03 be 13 39 11 3e 84 73 64 bd
       -0.36871955 -0.12876418 0.14181928 -0.055774227
0001b0 d6 54 26 3e b3 d3 d4 3d a0 4a 8f be f3 0a 86 bd
       0.162433 0.10391941 -0.27986622 -0.06545057
0001c0 b8 03 2a be e3 05 94 3c 76 c5 b4 3c 36 ec a0 bd
       -0.16602981 0.018069213 0.022066813 -0.07857554
0001d0 8c 56 99 bd 00 55 b3 bd 9c 75 4c be 65 87 c1 3c
       -0.07487211 -0.08756447 -0.1996674 0.023624131
0001e0 bb 3f 6b 3e cc 4d 10 be c3 37 20 bd ba 0d 32 3e
       0.2297353 -0.14092177 -0.03911568 0.17388049
0001f0 ce ae 99 3e 32 45 7c 3d 0e 3b 67 bd 78 10 54 be
       0.30016178 0.061589427 -0.056452803 -0.20709407
000200 c7 64 a0 bc 48 28 fb 3d c7 9f 73 bd 00 c7 0d be
       -0.019579304 0.122635424 -0.059478547 -0.13845444
000210 4e ea ab bc 2d 47 f9 bd 6b f5 8a bd 78 16 21 be
       -0.020985749 -0.12171779 -0.06785091 -0.15731227
000220 df c7 69 bc e4 88 99 3d ff 4b 83 3e 3c 28 81 bd
       -0.014268844 0.07496813 0.25643918 -0.06306502
000230 5b 5b 79 3e 54 a3 17 bd 78 2b fa 3e 0b b2 85 3d
       0.24351256 -0.037020996 0.4886129 0.065280996
000240 74 76 f1 3e bd 96 34 3e d5 34 57 be a0 96 90 3e
       0.47160685 0.17635627 -0.21016248 0.28239918
000250 19 ed 93 3e dd 74 3c 3e c7 d8 b9 bd ea f3 e3 3d
       0.2889183 0.18403955 -0.0907455 0.11130507
000260 f4 fc 4a be b4 d9 b4 bd 61 83 07 3f 07 bb de 3d
       -0.19823056 -0.08830586 0.52934843 0.108755164
000270 41 ec 02 be 67 7c 11 be 06 a7 f2 bd 0a f4 db 3d
       -0.12785436 -0.14207612 -0.118482634 0.10739906
000280 20 42 30 3d ea 1d 41 bd 0b ad 85 be c6 cd 80 3d
       0.04303181 -0.04714767 -0.26108584 0.06289248
000290 f0 d9 b5 3d 3b a1 4b 3e c5 c2 b5 3d d7 b6 ad 3d
       0.08879459 0.19885723 0.0887504 0.084821396
0002a0 0c 28 2f be f5 52 66 bd cb b0 d8 bd 53 95 2b 3d
       -0.1710512 -0.056231458 -0.105805956 0.041890454
0002b0 6e 12 46 bd f2 42 27 be c8 2c d5 3e 98 af be 3d
       -0.04835742 -0.16334131 0.41635728 0.093108356
0002c0 f0 a9 8e 3e 0d 12 ee 3d f2 cb e3 bb 4d 1b 35 3e
       0.27864027 0.11624537 -0.0069518024 0.17686196
0002d0 bb b3 87 be b0 f7 6f bc d6 ef 03 3e b8 f9 00 be
       -0.2650431 -0.014646456 0.12884459 -0.1259526
0002e0 72 2c c6 3e b7 11 fb 3d de 59 f8 3d 33 19 27 3e
       0.38705784 0.12259238 0.12126516 0.16318206
0002f0 84 ea ca 3e 98 49 ac 3d ee 1e ac bc f6 82 8d bd
       0.39632046 0.084124744 -0.021010842 -0.069097444
000300 4d 2d dd bd 43 e7 4c be 2c cd 38 3e bd a2 3f 3d
       -0.10799656 -0.20010094 0.18047017 0.04678606
000310 1f ad d9 3d 25 7c 3a be 4b 64 0d 3d 68 18 2a 3c
       0.10628723 -0.1821142 0.034519475 0.0103817955
000320 9c 40 98 3c a4 7d 81 be cc 88 98 3d ff 2c e3 3c
       0.018585496 -0.2529117 0.07447967 0.027731417
000330 53 4b 8e 3d b2 07 ba 39 56 85 55 be bd 10 7e 3c
       0.06947961 0.00035482418 -0.20851645 0.01550692
000340 7e 43 f5 bd fe b0 51 bd 85 81 0e 3e db fb 77 be
       -0.11975764 -0.051194184 0.13916595 -0.24217169
000350 27 2c 80 3e f8 9e 14 3e 64 ab d9 3a 76 1e 30 be
       0.25033686 0.14513767 0.0016606865 -0.1719912
000360 21 8d 2a 3e e4 21 cd 3d dc 88 60 be 80 55 78 3d
       0.16655399 0.1001623 -0.21927208 0.060628414
000370 4e 81 16 3d c3 f7 a3 3d 73 02 56 bd 4c ab 1d 3e
       0.03674441 0.08006241 -0.05224843 0.15397376
000380 f8 ef 09 be 10 d8 2e 3d ed cc ac be 7a fa 14 be
       -0.13470447 0.042686522 -0.33750096 -0.14548674
000390 e4 54 32 be af 42 a7 bc 3f a7 4b 3d f3 df 53 3c
       -0.17415196 -0.02041754 0.049720045 0.012931812
0003a0 b0 ae 33 be 04 65 43 bd a0 b2 8b bd d5 fc 0d bd
       -0.17547107 -0.047703758 -0.068211794 -0.034664948
0003b0 b7 04 d6 3d e1 6b f9 3d e3 07 56 be 4d 1b be bd
       0.10450118 0.121787794 -0.20901446 -0.09282551
0003c0 14 87 b7 3e 7c 6d 27 3e 56 71 f0 bd 92 00 93 be
       0.35845244 0.16350359 -0.11740367 -0.28711373
0003d0 a3 f7 92 bd 90 f6 ad bd be fc fa bd a5 70 30 3e
       -0.07176139 -0.08494294 -0.12255238 0.1723047
0003e0 e0 2a 3b 3e 53 f5 9b 3b 71 a9 79 3c 8d 60 08 3d
       0.18278074 0.0047594695 0.015238152 0.033295203
0003f0 e7 4c a3 3e 08 cc 6b 3e 6c 63 10 be 06 b6 81 be
       0.3189461 0.2302705 -0.14100426 -0.25334185

weight_hh_l0 f4 [128, 32]
000000 b6 a5 36 be f2 22 ce bb 08 24 bf bc 87 21 73 3e
       -0.17836651 -0.006290787 -0.02333261 0.23743258
000010 6f 66 b6 3c 97 0f 94 3d 6c 4f 5d bd da bb e9 bd
       0.022265641 0.07229536 -0.05403082 -0.11412783
000020 07 a1 6b be cd 88 10 bd a0 72 4c 3e 03 ab b6 3b
       -0.23010646 -0.035286713 0.19965601 0.0055745854
000030 bc 9d 4a 3e 77 21 73 b9 f7 03 1e bd 7b 59 0a 3d
       0.19786733 -0.00023186753 -0.038578 0.03377674
000040 9d 58 19 3e fd 3f cf bd 5f b4 85 bc d7 8a 8a 3d
       0.1497521 -0.10119627 -0.01632136 0.06764763
000050 d5 d3 d5 3d 1f e7 4e 3d 9c 97 ee bd dc 3c 8b be
       0.104407944 0.050513383 -0.11650011 -0.2719487
000060 e2 25 89 be e0 24 15 bd c6 d9 ca bd 05 84 e1 3d
       -0.26786715 -0.03641212 -0.09904818 0.11011509
000070 74 ba 82 3d 96 82 49 be 01 00 f8 bd 3f 38 e5 3e
       0.06383219 -0.19678721 -0.12109376 0.44769475
000080 6e a4 ca 3c 92 44 ff bd 19 2a 01 3e e9 8c 89 3d
       0.02473661 -0.124642506 0.12613715 0.067163296
000090 60 14 62 be 63 7d 50 3c 1c 4e 27 be d8 4f 11 be
       -0.22078085 0.012725207 -0.1633839 -0.14190614
0000a0 cf ff c5 be 3b f5 c4 bd 23 6b 2b be 9e 53 5a be
       -0.3867173 -0.096170865 -0.16740088 -0.2132096
0000b0 83 4f c2 3c af ed d7 3c 59 d4 bb bd d3 b2 0e 3d
       0.023719555 0.026358454 -0.091713615 0.03483851
0000c0 e6 e9 c0 3d d7 4e 65 bd 6b 72 09 3d 22 a9 d5 3d
       0.094196126 -0.05598339 0.033556383 0.1043265
0000d0 18 0e 53 3e b9 2f 57 be 63 62 25 3e f9 5e 81 3e
       0.20610845 -0.21014298 0.16150813 0.2526777
0000e0 ae b8 89 3d 86 91 8c be 5f f8 8e 3d 17 31 b7 bd
       0.06724678 -0.27454776 0.06980967 -0.0894491
0000f0 37 61 02 be 95 5c ba 3d 4d 75 5c bd b2 3a f5 3d
       -0.12732397 0.0909969 -0.053822804 0.11974086
000100 66 a5 3b bd d9 3d 16 be fa 3e 95 3d 5c de 05 bc
       -0.045812033 -0.1467203 0.072874025 -0.00817069
000110 f7 5f 40 be 69 bc 23 be 69 d0 57 bd ee e5 db 3c
       -0.18786608 -0.15989842 -0.05268899 0.026843037
000120 1c 66 f4 bd 4d 24 98 be b6 e8 ad 3b 6c 63 ec bd
       -0.11933538 -0.29715195 0.0053072823 -0.11542401
000130 93 ac b6 bd 1e 89 ae 3e 28 bf c4 bd 84 0c 9f 3d
       -0.08919635 0.34088987 -0.09606773 0.07766059
000140 a3 8f ff bc 92 71 3b 3c b0 c1 e1 bc 3a db 15 be
       -0.031196421 0.0114406515 -0.027558178 -0.1463441
000150 f3 c6 11 be 9f 4a 43 3c 4a 4b 76 be ee a5 44 3c
       -0.1423605 0.0119196465 -0.24052158 0.012002451
000160 89 59 0e bd e8 cf 0a be 49 be 0e be db b5 26 be
       -0.034753356 -0.13555872 -0.13939776 -0.1628031
000170 21 67 e0 bd f0 90 1d 3e 14 09 fa 3d b5 8e 2d bd
       -0.1095717 0.1538732 0.12208763 -0.042372424
000180 4e 2f e8 3d 3a 15 a1 bd 09 49 37 3e 25 00 45 3c
       0.11337148 -0.07865377 0.17898954 0.01202396
000190 7e 4a 17 bd d5 47 47 bd a7 1d aa 3d 83 5d 08 be
       -0.036936276 -0.04865249 0.08306437 -0.13316922
0001a0 d8 bc 4a bd eb 38 40 3c 2e 0c 60 bd 58 f6 49 bd
       -0.0494965 0.01173232 -0.054699115 -0.049307197
0001b0 6a a4 a2 bd bf 8e 30 be 7f 9f 90 be 53 76 fd bd
       -0.07941516 -0.17241953 -0.28246686 -0.12376084
0001c0 b9 d7 81 be 63 9a 33 bd 48 dd 08 be 8a 13 39 be
       -0.25359896 -0.043848407 -0.13365662 -0.1807386
0001d0 a3 af 83 3d 21 31 ca 3d 9d 3a b1 bb e8 de 4b bd
       0.064299844 0.09872652 -0.0054085986 -0.049773127
0001e0 a8 44 a6 bc 10 d5 91 bc fb e0 4c 3d 38 ad 6b bb
       -0.02029641 -0.017801791 0.050019246 -0.00359614
0001f0 84 ad da bd 3f a4 a0 bc 5d d1 06 3d 85 4e 30 3d
       -0.10677627 -0.019609569 0.032914508 0.043043632
000200 49 64 0c 3e 53 97 2c bc 6a 41 e6 3d 03 d8 0b be
       0.13710131 -0.010534125 0.112429455 -0.1365662
000210 c4 f3 27 bc 51 bc 50 3b b4 8a 05 3d cd 1c 80 be
       -0.010250989 0.0031850527 0.03260298 -0.25021973
000220 26 26 01 3e 50 b7 f2 bd b6 92 27 bd 5f d5 93 bd
       0.12612209 -0.1185137 -0.0409114 -0.07218432
000230 45 63 e3 bd c1 02 1f 3e 74 38 69 bd bb 3a 43 3d
       -0.111029185 0.15528394 -0.056938604 0.04766343
000240 df 11 d5 be 3c ce 97 3d 74 61 43 3e 78 6d c4 bd
       -0.41615197 0.07412383 0.19080144 -0.09591192
000250 79 59 6d 3c 63 79 2c 3e 2e b9 b6 bd c5 d8 7f be
       0.014486664 0.1684318 -0.08922039 -0.24985035
000260 39 ef c2 3d 50 8a 75 3d bf 11 27 be 08 46 cb bd
       0.09518284 0.05994636 -0.16315363 -0.09925467
000270 25 64 ba bc ce 1d 63 3e 93 00 04 3e c5 19 39 38
       -0.02275283 0.22179338 0.12890844 4.4131437e-05
000280 6f f6 db 3c 34 77 62 be a4 9e ca bc 39 3e 81 bd
       0.026850907 -0.22115785 -0.024733849 -0.06310696
000290 04 14 4e be 53 72 13 3e c5 ed d2 bd e2 e2 7c 3e
       -0.20124823 0.1439908 -0.10299257 0.24695924
0002a0 fb dc af 3e 33 e6 c5 be 69 00 cd bd 67 e2 ad 3a
       0.34348282 -0.3865219 -0.10009844 0.0013266326
0002b0 d6 49 a1 bd 70 cb 8b 3d 48 82 88 bb fd 0e 9f bd
       -0.07875411 0.06825912 -0.0041659214 -0.07766531
0002c0 e5 0a 0c be 53 31 34 bc 70 1d 01 bc 5c 8c df 3d
       -0.13676031 -0.010998088 -0.007880554 0.10915443
0002d0 20 0f 47 be bf be 7a bd 82 78 82 bd 45 50 6f 3d
       -0.19439363 -0.061217066 -0.06370641 0.05842616
0002e0 78 13 04 3e 77 fb a3 3d 50 ab fa 3d c9 f2 7f ba
       0.12898052 0.080069475 0.122397065 -0.0009763656
0002f0 67 3e 44 3d 99 6f 68 be 7e 98 3e 3e 96 74 0e bc
       0.047911074 -0.22698821 0.18612859 -0.008694788
000300 89 10 80 3c f5 80 1e be 83 b6 26 3e ed 08 18 bc
       0.015632885 -0.1547888 0.1628056 -0.009279472
000310 50 24 46 3d 62 8f 16 be 09 8b 05 3d e2 72 69 3d
       0.048374474 -0.14703134 0.032603297 0.056994326
000320 7f 1a 80 3e 1d 34 cf be b7 43 a9 3d ed 21 9d be
       0.25020215 -0.40469447 0.08264869 -0.30689946
000330 6f 5f 5a be 0f 15 c7 3e a7 f3 ee be c9 c3 63 be
       -0.21325468 0.38883254 -0.46670267 -0.22242655
000340 17 73 59 bc 7b 2a 0d be 49 83 8d 3e 03 77 95 3d
       -0.013272068 -0.13785736 0.27639225 0.0729809
000350 62 a5 6d 3e a4 9f da 3d 86 c8 7c be 0c 8b 2b be
       0.2320762 0.1067498 -0.24685869 -0.16752261
000360 b6 7e 88 3e e4 f6 40 be e7 c3 1c be e3 ff fc 3c
       0.26659173 -0.18844181 -0.15309106 0.030883735
000370 f7 6b c4 3e 34 59 2c 3a a4 e7 60 bd 44 90 c7 3d
       0.3836362 0.00065745716 -0.05490841 0.09744313
000380 b5 ef 2f 3b 29 18 48 3e 05 3f 2e 3d 36 fe 74 ba
       0.0026845757 0.19540466 0.04254057 -0.0009345742
000390 0c e8 16 3e f3 fe b6 be 04 aa d7 3b 6d cd 99 3d
       0.14736956 -0.35741386 0.0065815467 0.07509885
0003a0 89 d5 ae bd cc 16 10 be 7b 0e b8 be bb 23 ad 3e
       -0.08536822 -0.14071196 -0.35948548 0.33816323
0003b0 8e d8 65 3e 2a 33 7c bd 45 4d 87 3e e0 55 2a bd
       0.2244589 -0.06157223 0.2642614 -0.041585803
0003c0 3c c2 46 bc b8 93 05 be ff f0 d1 bd 6d 0f 60 be
       -0.01213127 -0.13044631 -0.102510445 -0.21880884
0003d0 47 f8 5b be 49 f5 d7 bd af f4 b2 bc e9 a4 1f 3d
       -0.21481429 -0.10544831 -0.02184519 0.03897563
0003e0 2b ff 34 be ce d5 c9 3d 6e 34 7a 3b d3 be 56 3e
       -0.17675464 0.09855233 0.0038178223 0.20971231
0003f0 3a 8a d0 be 49 9a a8 bd e3 d3 15 bd 64 59 7f bc
       -0.40730458 -0.082325526 -0.036579024 -0.015585277

bias_ih_l0 f4 [128]
000000 aa cc 2b be 8b 02 27 be 21 48 d9 bc 71 99 2e 3d
       -0.16777292 -0.16309564 -0.026523652 0.042626802
000010 bc 1a 85 bc 08 c3 73 3d b4 c4 b9 3d 45 4d 8f bd
       -0.0162481 0.05951217 0.09070721 -0.0699716
000020 38 18 4c bd 07 e7 ba ba c2 b6 2c be b0 c2 38 be
       -0.049827784 -0.0014259525 -0.16866592 -0.18043017
000030 71 8c e9 bc be de 1d 3e 71 d8 2a be 67 24 0a bd
       -0.02850935 0.15417 -0.16684128 -0.033726122
000040 fd 73 48 bd 54 00 e7 3d a1 2b 88 3d ee 5c 49 be
       -0.04893874 0.112793595 0.066489466 -0.19664356
000050 37 65 b5 3d dc 4c 49 bd 2f 68 6a be 30 c8 d6 bd
       0.08857196 -0.049145564 -0.22891305 -0.104874015
000060 7b 14 ab 3c ab 40 88 bc 43 b8 50 3c 86 39 84 bd
       0.02088379 -0.016632399 0.012739244 -0.06456284
000070 e9 13 07 3e 1f ac 9c 3d 90 a3 db 3d 63 50 5a bc
       0.13191189 0.07650017 0.107245564 -0.01332483
000080 a4 36 29 3e eb 0b 1c be c2 70 0e be 28 f9 e0 bd
       0.1652475 -0.15238921 -0.13910201 -0.10985023
000090 a9 39 1f bc 0d e5 00 3e 06 d1 b1 3d d8 ac 80 3e
       -0.009718337 0.12587376 0.08682446 0.2513187
0000a0 73 34 3d 3e b5 df 31 3e 15 dd 01 3d 88 27 26 3e
       0.18477039 0.17370494 0.03170498 0.16226017
0000b0 45 9e d5 bc 7b 75 68 3e bd f2 2b 3b 7c 56 95 bd
       -0.026076445 0.22701065 0.0026237213 -0.07291886
0000c0 83 31 fd bd 7e 0a 60 3e 1b 51 45 3e db fe 1a 3e
       -0.12362959 0.21879002 0.1926922 0.15136282
0000d0 3d 95 a0 3d 7a 95 1a 3e 60 aa 0e be e9 3c f6 3c
       0.07840965 0.15096083 -0.1393218 0.030058341
0000e0 41 74 b1 bc 84 19 d5 3d 09 ce 12 3d 6a 2c 57 3e
       -0.02166188 0.10405257 0.03584102 0.21013036
0000f0 13 19 f0 bd 61 5a 68 3d 0f e3 3c 3b ad f7 a0 bd
       -0.117235325 0.056726817 0.002882186 -0.078597404
000100 29 7a 21 be 69 78 37 3d 47 c2 e4 3d 26 b6 23 be
       -0.15769257 0.044792566 0.11169868 -0.15987453
000110 7c f8 bd 3d 72 9a 55 3c 8e 1c b3 3d 7b c5 2c 3e
       0.0927591 0.013037311 0.08745681 0.16872208
000120 98 e7 8c 3e cc 39 2e bd 08 33 b0 3d 30 b5 47 3d
       0.27520442 -0.04253559 0.086034834 0.04875678
000130 d9 83 6e 3c 45 e6 1b 3e 81 6c 11 3d e2 71 07 be
       0.014557802 0.1522456 0.035503868 -0.13227037
000140 44 05 eb bd e8 fa c7 bd f6 ad 8f 3e 79 65 e2 bd
       -0.11475614 -0.097646534 0.2806241 -0.110545106
000150 60 c5 0b bd ff d9 6c be 00 a3 a8 bd f1 9a 8a 3e
       -0.03412378 -0.23130034 -0.08234215 0.27071336
000160 62 1c 44 be 74 73 13 bb 6d 19 b9 3d b5 5c 62 3c
       -0.19151452 -0.0022499235 0.09038053 0.013816048
000170 3f c4 e4 bd fe 8a cc bd ac 97 95 be a7 2b 32 bc
       -0.111702435 -0.09987448 -0.2921728 -0.010874665
000180 1d 8a 49 3c 42 3b 19 3e 77 a1 f0 3d be bf d0 3d
       0.012300995 0.14964011 0.11749547 0.10192822
000190 db 6a 5e 3e 95 c5 66 3e 49 2c ae 3e a4 e1 e7 3d
       0.2172045 0.22536309 0.34018162 0.113223344
0001a0 00 1e 53 3d 51 4c 5d 3e 43 2c 59 3c d6 0b ab bd
       0.051542282 0.21611144 0.013255182 -0.08351867
0001b0 24 41 0d 3c bb 1c 78 3e 4f 78 c9 3d 1c 70 ac 3d
       0.008621488 0.2422971 0.098374 0.08419821
0001c0 cf af 8c 3d ef 65 98 bd e8 c2 2e 3e 1a fa 9e 3d
       0.0686947 -0.07441317 0.17066538 0.07762547
0001d0 ac c6 cb 3b 8e d1 3b 3e b0 cc da bc 8e 49 eb bd
       0.006218752 0.18341658 -0.02670893 -0.11488639
0001e0 3e af 5c 3e 60 8c 22 3d f9 ae 37 3e 96 8c cc 3a
       0.21551225 0.039684653 0.1793784 0.0015605863
0001f0 59 d3 3c bd 36 d7 9b 3d a2 b3 43 3e 5c 43 1b 3d
       -0.046099994 0.076094076 0.19111493 0.037906036

bias_hh_l0 f4 [128]
000000 4d f2 7a 3d 5f 69 c5 3d d7 4b c5 bd e4 55 01 be
       0.061266232 0.096392386 -0.09633606 -0.12630421
000010 57 4e 9f 3d b8 b9 16 3e 36 a7 1f be 21 ba 0b 3d
       0.07778614 0.14719284 -0.1559113 0.034113053
000020 f6 55 ec 3c 16 ce 90 3d d7 0f 15 3d f9 07 e8 3c
       0.028849583 0.07070558 0.03639206 0.028324114
000030 cd 1c e5 bc de 60 27 3e ef c2 7f 3d cd 1e 8e 3c
       -0.027967835 0.16345546 0.062441763 0.017348671
000040 54 c5 cc bd 86 ea 09 3d 5e 93 c2 bc 52 67 77 be
       -0.09998575 0.033670925 -0.02375191 -0.24160507
000050 76 c4 bf 3d 7e f1 76 3d 74 15 86 3d 6e a1 36 be
       0.09363644 0.0602889 0.065470606 -0.17835018
000060 b7 5c b0 bd f3 5e cc bd c7 91 bc bc a5 98 24 be
       -0.08611434 -0.099790476 -0.02301873 -0.16073854
000070 4c 8a 21 3e 8e 40 ce 3d 40 80 09 bd 61 2c 80 3c
       0.15775412 0.100709066 -0.033569574 0.015646162
000080 fd 46 fe 3c 2f 8b 8c 3d aa aa 78 bc b5 54 b2 bb
       0.03103971 0.06862485 -0.015177408 -0.005442227
000090 d1 db 35 3a f7 e6 27 bd b9 9c 14 bd 6a 52 1e bd
       0.0006937357 -0.04099175 -0.036282275 -0.038652815
0000a0 59 6f 9d bd 2a 88 a3 bb 1c 45 4b bd 61 71 67 3d
       -0.076872535 -0.0049905973 -0.049626455 0.05650461
0000b0 58 9f f2 3d ad dd 75 3e d9 82 1d be 1d 5e 16 be
       0.11846799 0.24010344 -0.15381946 -0.14684339
0000c0 ac 0b 66 bd 7b 31 29 bd 89 55 43 3d ea b8 12 bd
       -0.056163475 -0.041306954 0.047688995 -0.03582088
0000d0 fe 07 91 3d 0f b8 97 3d 84 bd b4 3b 14 ac f0 bd
       0.070816025 0.07408153 0.005515756 -0.11751571
0000e0 42 be 35 3b 3f 88 18 3e 4a dc 5a bd f2 92 10 bc
       0.002773181 0.14895724 -0.05343274 -0.008824097
0000f0 02 53 a6 3d c1 cc 0a be 82 e8 ee bd 3c 6e c9 3d
       0.08121301 -0.1355467 -0.11665441 0.09835479
000100 a6 ea b0 3c fa 7a 80 3d 81 b9 9d bd 75 bc 01 be
       0.021596264 0.06273456 -0.07701398 -0.12669547
000110 a1 3e 2a 3e db bd 40 be 9e 16 ef bd e5 15 2c 3e
       0.16625454 -0.18822424 -0.11674236 0.16805227
000120 42 26 6d 3c 38 72 38 3e 97 80 33 3c 1a d5 1f 3e
       0.014474453 0.18012321 0.010955951 0.15608636
000130 1f 28 c7 bc d3 87 66 3e fe 83 4e 3c 59 e0 d0 bc
       -0.024311123 0.2251275 0.012604712 -0.025497602
000140 09 d0 d3 bc 93 96 96 3d d2 0d 29 bb 5f bf 4c bc
       -0.025856035 0.073529385 -0.002579559 -0.012496798
000150 22 67 52 3c 9c 29 42 be fc b1 49 3d 44 57 53 3e
       0.012841972 -0.18961185 0.049242005 0.20638758
000160 f7 6a 02 be f6 92 61 3e ae 19 e9 bd 6d 5f f5 3c
       -0.12736116 0.22028717 -0.11381851 0.02995273
000170 9c 56 85 be 39 db 0d be 05 84 89 bd 86 02 43 be
       -0.2604264 -0.13853158 -0.06714634 -0.19043931
000180 80 a9 8d 3e 64 a0 00 3e 3c 73 8a 3c bf 55 28 be
       0.2766838 0.12561184 0.016900651 -0.1643896
000190 14 52 34 3d ca 48 74 3e 82 d1 87 3e 87 6f 3f 3e
       0.04402359 0.23855892 0.2652703 0.18694888
0001a0 d0 c5 c1 3d 40 54 6a 3e 51 0b 2a bd e7 81 80 bd
       0.09461558 0.22883701 -0.0415147 -0.06274777
0001b0 62 30 87 3c ce c7 cf 3d 79 0e 28 3e 2a c0 3e 3e
       0.016502563 0.101455316 0.16411771 0.18627992
0001c0 97 fd 5d 3e 78 4c 83 bc e6 12 52 bd f5 d9 80 3d
       0.21678768 -0.016027674 -0.051287554 0.06291572
0001d0 b3 61 33 bc f4 0c dc bb d8 d3 c0 3d 9a 04 30 3e
       -0.010948586 -0.0067154113 0.09415406 0.17189255
0001e0 3f 3c b9 3d 93 7d 29 3e 07 3f 04 bd 58 72 3f 3e
       0.09044694 0.16551809 -0.03228667 0.18695962
0001f0 16 ec 6a 3e b7 b9 12 3e 53 70 ed 3d 46 28 d2 3d
       0.22941622 0.14328657 0.1159369 0.10261588

weight_ih_l0_reverse f4 [128, 2]
000000 48 4d 8c 3e e1 f0 23 bf b3 92 6f 3e 85 21 a3 bd
       0.2740271 -0.6403943 0.23395805 -0.07965378
000010 1c 1b b0 be 54 b9 0a bf bb 57 28 3e 25 e4 d8 be
       -0.34395683 -0.5418904 0.16439717 -0.4236156
000020 a2 ab df bd 0b 57 e5 be 95 b7 78 3e aa fe 31 bf
       -0.10921408 -0.4479297 0.24288781 -0.6952921
000030 0c 82 41 3e c6 c9 fa 3e a9 90 8f 3e d6 75 b3 be
       0.18897265 0.48982066 0.28040054 -0.3505084
000040 3a c7 6c be f8 e5 49 bf d8 fa 9a bd b9 17 63 3e
       -0.23122874 -0.7886653 -0.07567376 0.22177018
000050 20 f2 f1 be 4b 6e 9a 3e a7 93 26 3f 70 9f e6 3c
       -0.4725504 0.30162272 0.6506905 0.028152198
000060 18 38 1a be 72 ab 4b bd 99 34 87 be c6 59 7d be
       -0.1506046 -0.04972405 -0.26407316 -0.24741277
000070 e1 ab 37 3e 8b f1 06 be c8 1a 21 3f 56 ca 00 3e
       0.1793666 -0.13178079 0.6293149 0.12577185
000080 6f a8 b8 bd 2c bd ac be 1f 1e 5b bd 4c d7 44 3e
       -0.09016501 -0.33738077 -0.053495523 0.19222754
000090 bd 0b 85 be 7d 3c 0e be 00 8e a8 be da 71 a1 3e
       -0.25985518 -0.13890262 -0.32920837 0.31532174
0000a0 b1 0a 86 be 8b 12 6c 3e 2c 39 4a be 3b 5d 0f 3f
       -0.26180032 0.23053949 -0.19748372 0.56001633
0000b0 dd f1 a4 bf 76 65 2a 3f 34 c5 94 3e a0 ea eb bd
       -1.2886311 0.6656107 0.29056704 -0.115193605
0000c0 f4 0a 9d be c8 4e eb 3e 49 81 46 bf 83 68 f7 be
       -0.3067242 0.45958543 -0.77541023 -0.48321924
0000d0 49 6f 1b 3e 12 05 a4 3e 55 cf cc 3c 2e 28 05 3f
       0.1517917 0.32035118 0.025001207 0.52014434
0000e0 87 40 59 3e bf e4 e8 bb cd c0 69 3e 4f b1 a8 3e
       0.21216021 -0.007107347 0.22827454 0.32947776
0000f0 13 61 fe bd 0d 41 26 3e fb 64 98 3c cf d9 b5 bc
       -0.12420859 0.16235752 0.018602839 -0.022198586
000100 d0 41 fc 3c 84 b7 13 be aa 51 92 3e 58 b4 5c be
       0.0307931 -0.14425474 0.2857793 -0.2155317
000110 31 96 ba be f1 39 d6 be 45 16 2f bb 0c a6 d5 be
       -0.36442712 -0.4184108 -0.0026716155 -0.41728246
000120 23 3c a6 bd 05 37 07 be 7e 81 98 3e 1c 83 fe bd
       -0.08116939 -0.13204582 0.29786295 -0.12427351
000130 ba 11 c0 3d e8 69 e3 3e 0b 07 80 3e 09 f8 eb bd
       0.09378381 0.44416738 0.25005373 -0.11521918
000140 14 0f 56 3d 59 3a 44 be f7 05 a9 3d 16 20 03 be
       0.052260473 -0.19162883 0.08253091 -0.12805209
000150 11 8a 19 be bb ac 12 3e 79 fc 81 3e 79 2c 89 bd
       -0.14994074 0.14323704 0.25387934 -0.066979356
000160 79 bb e5 3d d1 54 1a 3d 64 7d 98 3d bd ff fb 3c
       0.11217398 0.037678543 0.07445791 0.030761594
000170 9d aa 3d 3e ec 43 6d be c1 d3 65 3e 17 b3 53 3e
       0.18522115 -0.23170441 0.22444059 0.20673786
000180 dd 42 1a 3c ab e3 b2 be b5 86 46 3d b5 67 8b 3e
       0.0094153555 -0.34939322 0.04846831 0.2722756
000190 3f 0e 18 be d9 eb 82 3c d5 92 70 be 88 49 54 3e
       -0.14849184 0.015981602 -0.23493512 0.20731175
0001a0 04 1b 85 be 1a fe 8d 3e cb c0 6c be 64 43 b4 3e
       -0.25997174 0.27732927 -0.2312042 0.35207665
0001b0 d5 db 0a be 4c 8f c6 3c bc e9 4c 3c 35 8b 11 be
       -0.13560422 0.024238251 0.0125068985 -0.1421326
0001c0 dc 20 0a bd a6 2b 9a 3d ea e4 8c be af 97 bd be
       -0.033722743 0.075278565 -0.27518398 -0.37029788
0001d0 05 cd 1e 3e e6 e8 39 3e 6f 01 7e bb 4f 30 09 3e
       0.15507896 0.1815525 -0.0038758179 0.13397335
0001e0 1b d0 49 be 8d 30 08 3e 09 6b bb 3e de 42 64 3e
       -0.19708292 0.1329977 0.366051 0.22291133
0001f0 4b b1 5c bc 53 fb c1 3d ab 8f 95 bb 32 ee 4b be
       -0.013470004 0.094717644 -0.0045642457 -0.19915083
000200 8d 83 21 bd 22 26 dc be c4 b7 38 bc 72 c5 ca 3e
       -0.039432097 -0.42997843 -0.011274282 0.39603764
000210 b3 05 c7 bc 39 37 69 3e fc 43 fd bc 56 45 44 be
       -0.02429471 0.22774972 -0.030916207 -0.19167075
000220 48 8d 7b 3e 79 83 31 3f d7 c1 fc 3e e3 f3 a1 be
       0.24565613 0.69341236 0.49366638 -0.31631383
000230 b0 9c ff bd 2d d2 2d bf 67 66 78 bf e4 e8 04 3f
       -0.12481058 -0.6789883 -0.97031254 0.5191786
000240 3e b9 9f bd 2d f5 91 be f7 4f b2 be f1 a1 58 3f
       -0.07799004 -0.28507367 -0.34826633 0.846221
000250 a8 b6 01 3f 63 52 34 3d ec 9d 2a 3f 61 c6 b2 be
       0.50669336 0.044023883 0.6664722 -0.34916976
000260 11 61 14 3e 80 d2 f3 b9 a1 4d c1 3d e9 10 bd 3e
       0.14490153 -0.00046505406 0.09438635 0.36926964
000270 c2 64 0e 3d cb cb 63 be d7 2b 49 3f b4 0d 94 3e
       0.03476406 -0.2224571 0.7858252 0.28916705
000280 aa f6 c8 3d 5d 61 e0 3d c9 c8 6f 3e c0 81 9a 3e
       0.098126724 0.109560706 0.23416437 0.30177116
000290 6e 77 3b bd 7a a8 bf be b0 6f 12 bf 46 df 92 3e
       -0.045768194 -0.37433225 -0.5720167 0.2868597
0002a0 95 ae 92 be ea 0f 34 3e 79 bb 34 3e c6 f8 3a be
       -0.2864882 0.17584196 0.1764964 -0.18258962
0002b0 51 da 44 bf b3 34 98 3e 71 2f b8 bb da b8 4e 3e
       -0.76895624 0.29727706 -0.00562089 0.20187703
0002c0 f6 13 b3 be 48 c0 42 3f b1 94 2d 3f bd b4 23 3f
       -0.34976166 0.7607465 0.6780501 0.6394766
0002d0 bc fb bd bd d4 bb f0 be 2e 7e b3 bd 22 86 a1 be
       -0.0927653 -0.470183 -0.08764301 -0.31547648
0002e0 ac eb fc be 5e 14 7f 3e b6 30 02 3f 55 e2 09 3e
       -0.49398553 0.24910113 0.50855577 0.13465245
0002f0 ae c8 31 3e 37 e2 88 be 3d 34 00 3f 65 c0 ed be
       0.1736171 -0.26735088 0.5007971 -0.46435848
000300 b0 40 56 3e da f8 20 be 1b a5 5f 3e 5d 0b 6f be
       0.20923114 -0.1571993 0.21840326 -0.23344178
000310 20 fa 5a be 71 cd 0b bf e2 49 2d be ce 15 34 be
       -0.21384478 -0.54610354 -0.16922715 -0.17586443
000320 b6 69 9f bd a8 53 cc bd ea cc 61 3e f9 1c 62 be
       -0.07783835 -0.09976894 0.22050825 -0.22081365
000330 c8 ac a8 bd c4 77 9c 3e e6 15 b8 3e 73 71 ad be
       -0.082360804 0.30560124 0.35954207 -0.33875617
000340 36 3f 9c be 39 43 04 bf 79 55 4c 3c 59 4b 03 bd
       -0.30516976 -0.51665074 0.01247155 -0.03205428
000350 b6 05 01 bd ae c7 89 bd 25 64 2a 3f 0e 6f 18 3e
       -0.031499587 -0.06727539 0.6655906 0.14886114
000360 fc e2 ea 3d 5b 59 59 be c1 f3 c3 be c2 4e 30 3e
       0.11469075 -0.21225493 -0.38271907 0.17217544
000370 1d 4b 86 3e 8c 71 e7 bc 6a 84 b9 3e e2 52 a3 3e
       0.26229182 -0.028252386 0.36233836 0.31899172
000380 05 3c 37 3e 49 91 d3 be 2c 24 c0 3e 62 68 7d 3d
       0.1789399 -0.4132178 0.37527597 0.061867125
000390 ad 37 85 be 28 fc db bd fa 67 c4 be dd 0a b7 3e
       -0.2601904 -0.10741454 -0.38360578 0.35750476
0003a0 f7 bf a1 be ea c8 1d be d5 d1 87 be b7 fc 88 3f
       -0.3159177 -0.15408674 -0.26527277 1.0702122
0003b0 e0 88 40 bf 9d 99 7d 3d d4 79 b8 3c a7 f5 a8 bc
       -0.75208855 0.061914075 0.02251903 -0.020624949
0003c0 a1 2d 67 be 37 7e f7 3e a2 aa c6 be bb 4d 3b bf
       -0.22576 0.48338482 -0.38802058 -0.7316548
0003d0 52 46 05 3e eb f2 16 3f 44 af 06 bb d4 5c 02 3f
       0.13015106 0.58964413 -0.0020551244 0.50922894
0003e0 7d bb 0a 3f 92 cb 16 be d5 8b c5 3d df 5e de bc
       0.54192334 -0.14726093 0.096458115 -0.027144847
0003f0 99 ad 00 be c6 46 75 3e 74 f3 e2 3d e2 df 1c bd
       -0.12566222 0.23952779 0.11081591 -0.03829945
