TS-CVAE/experiments/pedestrians/models/zara1/models_22_Jun_2021_00_46_21_zara1_ar3/model_registrar-27.pt (torch_old, 545378 bytes, 43 tensors)

weight_ih_l0 f4 [128, 6]
000000 25 66 98 bb 1d ee 13 3d 14 67 c2 bd 54 3e cc 3c
       -0.0046508485 0.036115754 -0.09492317 0.024932064
000010 72 bf 1f be c0 7e a9 3c 02 d5 2e be 28 61 4e be
       -0.15600374 0.020690322 -0.17073444 -0.2015425
000020 e8 fd 31 bd 98 dc 59 3e 98 6f 07 be 5c 4f 8f 3d
       -0.043455034 0.21275556 -0.13226163 0.069975585
000030 22 02 96 bd ad 39 7e 3c 4b 1c 01 be b3 63 39 be
       -0.073246256 0.015516681 -0.12608449 -0.18104438
000040 5c 0c 4c be 56 dc 43 3d 1a 0a 49 bb 8f 48 06 3e
       -0.1992659 0.04781755 -0.0030676187 0.13113616
000050 ab f6 c8 3d 8f 0e 07 3d e9 80 28 be 87 67 03 3e
       0.09812673 0.03297287 -0.16455425 0.12832461
000060 c4 f0 ca bd 6a 52 a5 bd 01 da 4f bd 76 2b aa 3e
       -0.09909204 -0.0807236 -0.050745014 0.33236283
000070 c0 0d fc bd a4 d7 bc bd a1 b4 7b 3e bf 1f e4 3a
       -0.1230731 -0.09220818 0.24580623 0.0017404481
000080 0d 85 24 bd 8a c8 3d 3e 0c e9 29 3e c1 b4 b1 bd
       -0.04016595 0.18533531 0.16592807 -0.08677054
000090 95 8c 51 be 26 5d e7 bd cd 89 a7 bd 9b 18 22 3d
       -0.20463784 -0.112970635 -0.0818058 0.039574247
0000a0 1b 41 0c be 09 5c 2c be 51 af cb bd d1 ec 8e 3e
       -0.13696711 -0.16831984 -0.09945548 0.27915052
0000b0 14 50 10 3e 9f 65 94 bd dc d7 c4 bc 3c cf 12 3d
       0.14093047 -0.07245945 -0.024028711 0.035842165
0000c0 1f a8 c8 3e c0 32 a8 3d 83 03 0c 3e c9 54 59 bd
       0.39190766 0.08212805 0.13673215 -0.053059373
0000d0 f2 56 a9 bd 61 67 e6 3c 49 fb 16 be a6 04 93 be
       -0.082685366 0.028125467 -0.14744295 -0.28714484
0000e0 89 77 dc bc b4 d9 94 3e 88 c1 fd bc 54 34 3f be
       -0.026912468 0.29072344 -0.030976072 -0.18672305
0000f0 05 b3 ff 3d a5 82 6a bd 92 c0 b9 be f1 2b ff 3d
       0.12485317 -0.0572535 -0.36279732 0.12459553
000100 26 a1 0d be 0a fb a5 3d d1 7a 19 be 34 21 2c bd
       -0.13831005 0.081045225 -0.14988257 -0.042023852
000110 86 01 dc bc a8 f4 26 3e 3e 3d 15 3e 83 d6 f1 3d
       -0.026856195 0.16304266 0.14574143 0.11808493
000120 f4 5f 29 bd b1 f4 10 3d cc 02 38 bd e0 f9 35 be
       -0.041351274 0.035389606 -0.044924542 -0.17771101
000130 6b ea 5f ba be f6 02 be 08 78 1a 3d 77 c2 67 3e
       -0.0008541706 -0.12789437 0.037712127 0.22632776
000140 77 f4 03 3e 68 f3 c6 bb 0f f9 ea bc b7 49 ad 3d
       0.12886225 -0.0060714968 -0.028683214 0.084613256
000150 cc 0f 96 be 5d 40 7e bd 68 ca 83 be dc e1 23 3e
       -0.29308927 -0.0620731 -0.2574036 0.16004127
000160 39 ef 94 3e 44 98 12 be 73 55 ad bd e6 61 fd 3d
       0.29088762 -0.14315897 -0.08463564 0.12372188
000170 99 b2 12 3e 6b e3 0f bb 11 09 0f be bd 20 30 3e
       0.14325942 -0.002195562 -0.13968302 0.17199989
000180 80 b5 a3 3c 8e a9 5d 3e c5 31 62 3e 18 14 9a 3c
       0.019984007 0.21646711 0.22089298 0.01880841
000190 e9 53 b6 bd 19 68 ae be e6 8e b2 3d 71 79 5a be
       -0.08902723 -0.34063795 0.08718662 -0.21335389
0001a0 7a d0 08 bd 92 84 83 3c d8 bc d8 3c 31 64 10 3e
       -0.033401944 0.016054425 0.026457235 0.1410072
0001b0 d4 b4 e0 3c 61 03 ae 3d 23 73 55 3e a2 cd cd bd
       0.027429976 0.08496738 0.20844702 -0.10048987
0001c0 33 88 23 3e ba 2a 56 3e b6 72 2d be 78 a6 c5 bd
       0.15969925 0.20914736 -0.1693829 -0.09650892
0001d0 47 18 a6 bb 29 69 73 3e 26 48 4f 3e e0 1f e1 3d
       -0.005068812 0.23770584 0.20242366 0.10992408
0001e0 a3 3b 44 be d7 ed 89 3e 49 c4 ff 3d 41 76 33 be
       -0.19163375 0.2693927 0.1248861 -0.17525579
0001f0 6c 77 67 3d 03 eb 97 3c b7 c6 39 3e 68 6d 8d 3e
       0.056510374 0.01854468 0.1814221 0.27622533
000200 31 4a ba bd 08 2b fb bd 37 4c 6f bd 68 e4 cf 3c
       -0.09096182 -0.12264067 -0.058422294 0.025377467
000210 3f b8 f5 bd 7d 77 59 be 78 c1 39 3c 72 69 41 3d
       -0.11998033 -0.21236987 0.01133763 0.0472197
000220 cd 57 b5 bc 5f ac ae 3b 41 30 10 3c 66 94 5a bd
       -0.022136593 0.005330607 0.008800567 -0.05336418
000230 cd 5c 66 3d 64 a9 bb bd 32 37 a7 3d c7 f4 9c 3c
       0.056240845 -0.09163168 0.081648245 0.019159688
000240 d3 70 bb 3d 68 ef 5b bd 40 35 1d be 66 de 86 3c
       0.09152379 -0.053695112 -0.15352345 0.01646347
000250 74 4a 9b be 64 84 da bd 38 10 93 bd 39 e7 0b bd
       -0.3033024 -0.10669783 -0.07180828 -0.034156058
000260 f1 89 04 be f3 c4 97 3d aa c3 ba 3d 59 8a cf 3d
       -0.12943245 0.07410612 0.09119351 0.101338096
000270 3e 68 d6 3d 44 11 24 be 07 26 ba be 94 ae 24 3e
       0.10469101 -0.16022211 -0.36357138 0.16082221
000280 0e 87 e3 3d 48 ab e8 3d ad be 8c 3d c1 fc 9a 3e
       0.11109744 0.11360794 0.06872306 0.3027096
000290 7a c2 91 3e 8b 4d 80 3e 74 0d c6 bd 94 c8 0c 3e
       0.28468686 0.2505916 -0.09670535 0.1374839
0002a0 56 46 94 3c 26 64 ee 3d cb ed 0e be 55 7e bb 3d
       0.018099945 0.116401955 -0.13957898 0.09154955
0002b0 2b a0 2c 3e 04 97 da 3d d6 d6 9a bd 02 3e 0b be
       0.16857974 0.10673335 -0.07560508 -0.13597873
0002c0 27 1b 4c be 03 69 ad 3c fd 37 00 3d 9b ae 51 3d
       -0.19932233 0.021168238 0.031303395 0.051191907
0002d0 8c 35 61 bd 25 57 d8 bd 76 9e 25 3e 05 b5 61 bc
       -0.054982707 -0.105634965 0.1617373 -0.013776069
0002e0 d3 dd 49 be 28 01 bb bd 6f 50 46 be 03 c8 1b 3e
       -0.19713525 -0.0913108 -0.1936662 0.15213017
0002f0 65 ff 22 3e ee b9 2b be f5 90 29 be 2a dc a1 bd
       0.15917738 -0.16770145 -0.16559203 -0.07903321
000300 96 65 0b 3e d1 d5 0e 3e 41 4a f8 bd d1 aa cf bd
       0.1361297 0.13948752 -0.12123538 -0.101400025
000310 ca 0e ce bd 71 4f 6c be 2a d4 32 3e ca 5b a2 3c
       -0.100614145 -0.2307718 0.17463747 0.019819159
000320 47 5c 73 bc c6 6b 5f 3d ca 31 22 3e 83 cc d2 3d
       -0.014853544 0.05454614 0.15839306 0.10292914
000330 29 85 23 be 65 e4 f8 3c 0d ce 8f bb ae e2 20 bd
       -0.15968765 0.030382344 -0.004388577 -0.03927868
000340 21 65 e7 bd 3f d8 82 bd a1 cb a9 3c a7 2e 3f 3d
       -0.11298586 -0.06388902 0.02072698 0.04667535
000350 ca ec 4b 3d c1 35 09 be a3 76 79 be be a8 4c be
       0.049786367 -0.13399412 -0.24361663 -0.19986245
000360 24 32 2b bd 96 fc 75 bd 7a f7 09 3e 1e 70 0f 3e
       -0.041795865 -0.060055338 0.13473311 0.14007613
000370 13 d6 95 be da ba 46 be e6 d6 03 3e 1f 38 fe bd
       -0.29264888 -0.19407216 0.12874946 -0.12413048
000380 51 22 2d 3c 2a ce f5 bd 9b 42 8a be 1a 5e 19 bd
       0.010567264 -0.12002213 -0.2700394 -0.037443258
000390 31 fa 80 3d 6c a7 93 bd ef e6 81 bc a6 2d 44 3d
       0.0629772 -0.072096676 -0.015857188 0.047895096
0003a0 33 28 2b be 6e 03 d0 3d 73 b0 07 bb ca 61 9b bd
       -0.16714554 0.10156904 -0.0020704537 -0.07587011
0003b0 b5 d9 49 3e e6 e1 f6 bd 5d f1 97 bd 07 e4 f5 3c
       0.19711955 -0.120548055 -0.07419083 0.030015958
0003c0 42 e6 c2 3e f3 a0 03 be 55 08 2d be bc f4 b3 b9
       0.38066298 -0.12854366 -0.1689771 -0.00034323882
0003d0 4f 35 c8 be 2b 02 6d 3e ee 28 53 be 95 90 f5 bd
       -0.3910317 0.23145358 -0.20621082 -0.119904675
0003e0 e2 bc 59 3e dc ab 38 3e 02 aa e9 3d a2 2e cf 3c
       0.2126346 0.18034309 0.114093795 0.025290791
0003f0 40 f5 05 3e 30 dc 14 be e5 ad f6 bd dd 09 bb 3d
       0.13081837 -0.1453712 -0.120448865 0.09132741

weight_hh_l0 f4 [128, 32]
000000 ed 0f 90 bd 18 00 34 be 77 1b b5 3d 54 40 17 3e
       -0.070342876 -0.17578161 0.08843129 0.14770633
000010 63 0c 07 3e aa 2b ef ba 2e e8 f7 bd 7c a2 8a bd
       0.13188319 -0.0018247266 -0.12104832 -0.06769273
000020 f7 3b 37 3d c5 ea 53 3e bd c4 57 bd dc 27 8b 3e
       0.04473492 0.20695026 -0.05267786 0.27178848
000030 bc a0 22 be 2b 0f 01 3e a7 d5 ff 3d fa d8 f6 3c
       -0.15881628 0.12603442 0.12491923 0.03013276
000040 6c 20 9e 3c 5f d6 a2 bd 2c 2c 25 3d 8c 46 ee bd
       0.01930257 -0.07951044 0.04032533 -0.116345495
000050 2c 83 63 be 72 be cb bb 54 1c 19 be 8f 69 8c be
       -0.22218007 -0.006217771 -0.14952213 -0.27424285
000060 1a 61 4c 3e 94 69 e8 bd 1c 18 aa 3d 6b fe 93 3e
       0.19958916 -0.113482624 0.0830538 0.28905043
000070 e3 aa 0a 3e 01 f4 15 3e f6 f6 c7 3d a0 5b 1a be
       0.1354175 0.14643861 0.09763901 -0.15074015
000080 11 d8 a0 3d 30 40 57 be 89 1c 29 3e 9b e4 e9 bc
       0.078537114 -0.2102058 0.16514792 -0.02855139
000090 75 4d ff 3d 3a b7 62 3e c7 ad 2d 3c 8f cd 8e bd
       0.12465946 0.22140208 0.010600514 -0.06972801
0000a0 ed 89 51 3e 47 d7 bc 3b 28 bc 7a be e3 95 0b bd
       0.20462771 0.0057629677 -0.24485838 -0.03407849
0000b0 aa 2e 73 be 94 d5 fc 3d c3 7d 08 3e 51 1b 22 bd
       -0.2374827 0.12345424 0.13329224 -0.039576832
0000c0 57 77 96 3d d2 5a ec 3d c1 6a bf bd 75 f2 ac bc
       0.07346981 0.1154076 -0.093465336 -0.021111706
0000d0 d9 b2 f1 bd e3 a6 75 3d 1c 9e 20 be fd b3 00 be
       -0.118016906 0.05997361 -0.15685314 -0.1256866
0000e0 ac a6 72 bb 64 0b cb bd 37 5a 8e bd a1 46 01 be
       -0.0037025614 -0.09914282 -0.06950801 -0.12624599
0000f0 cb 2c 90 bd e4 40 04 3e db 28 cf 3d 03 a3 56 be
       -0.070397936 0.12915379 0.101152144 -0.20960622
000100 79 02 c3 3d 80 cb 44 be 95 98 b3 bd 82 69 e9 3d
       0.09521956 -0.19218254 -0.08769337 0.11397077
000110 4f 45 80 3e 56 9b cd 3d 09 01 19 be c6 26 89 be
       0.25052878 0.100393936 -0.14941801 -0.26787394
000120 83 ac ff bd 23 e7 63 3e f3 8c 36 be 57 1f 58 3e
       -0.12484076 0.2225614 -0.17827205 0.21105705
000130 7f e8 c2 bd 69 f4 b1 bd c0 7d 04 3e 31 53 8d be
       -0.09517001 -0.08689196 0.12938595 -0.27602533
000140 75 7a 2d 3d cc 57 8e bc 93 60 b9 3d 48 b4 fd bd
       0.042353112 -0.01737585 0.09051623 -0.123879015
000150 0c 00 72 3d d0 da b4 3d e4 81 75 3c 86 64 c8 3d
       0.059082076 0.08830798 0.014984582 0.09784798
000160 88 5c 84 3e 2b 32 03 3e 55 8a 04 3e 51 fe 6a 3e
       0.25851846 0.12812106 0.12943394 0.22948577
000170 34 eb 04 3e 15 ab 3d 3d 2a db a6 bd 54 f2 a1 3d
       0.12980348 0.046305735 -0.08147271 0.079075485
000180 cb a9 9a 3c 08 c4 75 bd 76 a9 e9 3d b6 df fb 3d
       0.018879792 -0.060001403 0.11409275 0.12298529
000190 5e 2f bc bb ca f0 4c 3c ff 73 a9 bd 99 a5 e4 3d
       -0.0057429513 0.01250858 -0.082740776 0.11164398
0001a0 97 1c 5a 3c 6f 10 b5 3d 28 25 5c be 6f 68 15 bd
       0.01331248 0.08841025 -0.21498549 -0.03647655
0001b0 72 65 4f be 94 e4 43 be 32 e2 87 be 43 d1 4e be
       -0.20253542 -0.19130164 -0.2653976 -0.20197015
0001c0 4b 5f d8 bd cf ab 27 3e 55 32 db 3c 95 e2 51 be
       -0.10565051 0.16374134 0.026757399 -0.2049659
0001d0 1e 3b ba bd 60 c0 37 3e ef cb 10 3d 27 13 37 be
       -0.09093307 0.17944479 0.035350736 -0.178784
0001e0 03 73 b2 bd 4e 56 b1 bc 01 9d e0 bd 0b 9c e2 3c
       -0.08713343 -0.021647599 -0.10967446 0.027662298
0001f0 a6 16 51 be 1f 3d 5b 3e 42 5b 4e 3e e0 f9 07 bd
       -0.20418796 0.21410035 0.20152 -0.033197284
000200 2c be 66 be 5a b9 a3 be cf b6 c9 3e e4 7c 32 be
       -0.22533482 -0.3197735 0.39397284 -0.17430454
000210 c7 84 f6 3d 9b 59 0b 3e 24 d2 be bd d9 bb 57 3d
       0.12037044 0.136084 -0.09317425 0.05266938
000220 0b e9 14 3f 4b 25 0a be 8c aa a6 be c5 b2 6e bc
       0.58168095 -0.13490789 -0.32551992 -0.014568989
000230 50 de b0 3b 68 91 2b bc e6 ed ee be 62 28 f3 bb
       0.0053975955 -0.010471679 -0.46665877 -0.0074205855
000240 fa 54 86 be 09 65 a6 bd 24 7c 26 3f f8 c0 31 bf
       -0.26236707 -0.0812474 0.65033174 -0.6943507
000250 13 f8 ea 3c 64 58 17 3f 4d 43 47 bc e0 42 39 be
       0.028682744 0.5911925 -0.012162042 -0.18091917
000260 3e 3c 20 be 46 55 95 be f9 31 0f 3e d1 0a 4f bf
       -0.1564798 -0.2916662 0.13983907 -0.8087588
000270 4b 37 f1 be 5f 90 c4 3c 59 d7 6d 3e 5c e9 d5 3d
       -0.47112498 0.023994623 0.2322668 0.104449004
000280 96 c0 00 3e ce ec f6 bc 2c ed 03 3e 96 17 18 be
       0.12573466 -0.030142214 0.12883443 -0.14852747
000290 1a 5e bb bc 9e 7a 82 3c bb ab e6 bb 31 79 39 be
       -0.02287202 0.015927609 -0.007039515 -0.18112637
0002a0 72 54 b2 bd 0b 38 08 3e 0d 0c 15 3d 35 f3 a1 bd
       -0.08707513 0.13302629 0.036388446 -0.07907716
0002b0 4e 66 52 be 7d 01 50 3c 6a 1d 6c bc ab 53 49 be
       -0.20546839 0.012695667 -0.01441131 -0.19660823
0002c0 8c 7f 59 3d 89 cf 34 3e f4 86 8d be 12 0f 23 3e
       0.053100154 0.17657293 -0.27642024 0.15923718
0002d0 36 b0 ad 3b f0 0e 6c bc da da 30 be b2 6f 6a bd
       0.005300547 -0.014407858 -0.17270985 -0.057235427
0002e0 6e c2 0f bc 1e 8a 13 be d6 99 29 3e fe b2 6e 3e
       -0.008774383 -0.14408156 0.1656259 0.23310468
0002f0 58 17 d1 3d 59 d4 2c 3e 29 5a 4c 3e bc 54 8b 3c
       0.102095306 0.16877879 0.19956268 0.017008178
000300 6f a4 4b 3d 46 4a 04 bd 2f 00 ed bd 2d ac f7 3d
       0.049717363 -0.032297395 -0.11572301 0.12093387
000310 05 02 d4 3d c1 c9 79 3c 0f 52 5f 3a a8 a4 93 be
       0.10351948 0.015245856 0.00085190026 -0.2883656
000320 8f fe 33 be aa 72 47 3e d7 f1 35 be d3 32 44 3d
       -0.17577575 0.19477335 -0.17768036 0.047900032
000330 27 4f 5c bd c8 aa 50 3e 82 8e 97 3d 19 f6 91 bd
       -0.053786423 0.20377648 0.07400228 -0.071270175
000340 77 98 d4 3b 3f 4a cc bd c4 07 92 bd 14 9c ad bd
       0.006487902 -0.09975099 -0.071303874 -0.08477035
000350 45 5d 12 bd c8 79 3c 3e cb da cc 3c f9 cf 83 bd
       -0.03573348 0.18405831 0.025006672 -0.06436152
000360 e7 fd 52 bd da 9a 0b 3d 5a eb 57 3e 73 73 31 3e
       -0.05151167 0.034083225 0.21085873 0.17329197
000370 18 c9 af bd 5e eb 5f 3e 14 1c a8 bd 0c 5a 94 3d
       -0.085832775 0.21867129 -0.082084805 0.072437376
000380 a3 39 31 3e 5d d9 1f be 39 cf b6 3d 79 ff c6 3d
       0.17307143 -0.15610261 0.08926243 0.09716696
000390 f7 29 43 bc 5b 2c 2c 3e ef 79 9b 3d bd fc b4 bd
       -0.011911861 0.16813795 0.07591616 -0.088372685
0003a0 f8 a5 5c bd 52 cb 13 bd da 0b 2d be 64 56 e3 bd
       -0.053869218 -0.036082573 -0.16899052 -0.11100462
0003b0 31 f3 05 3e d6 23 a7 bb 7d e4 ec 3d f4 2a 1e 3d
       0.13081051 -0.0051007075 0.11567018 0.038615182
0003c0 74 30 d1 3d 5a 9d 3e bd 82 1d 0a be f8 62 2b bd
       0.1021432 -0.04653678 -0.13487819 -0.04184243
0003d0 27 15 8f be 00 1e 1e 3e e8 ae db bd e7 f0 69 be
       -0.27945825 0.15441132 -0.1072672 -0.22845803
0003e0 ab 2e 3d 3d dc 9e ce 3d 06 ac c3 3d 0a c0 2f 3e
       0.046187084 0.10088894 0.09554295 0.17163101
0003f0 31 71 3a 3e 0b e2 3e 3e 28 e7 11 3d ea 0a 37 3e
       0.18207242 0.18640916 0.03562084 0.17875257

bias_ih_l0 f4 [128]
000000 58 bb 0f 3d 46 96 48 3e 74 62 62 3d 70 55 40 3e
       0.035090774 0.19588575 0.055269673 0.18782592
000010 e4 54 16 3f c0 35 89 3e 13 6a f6 3d 6c c2 da bb
       0.5872328 0.2679882 0.12031951 -0.006676009
000020 dc ce b8 3d 95 a6 4b 3e 4d 7c 8e 3e 55 55 75 3e
       0.0902383 0.19887765 0.2782921 0.23958333
000030 74 c7 ee 3e 22 ed d4 3d dc b6 12 3e 64 b6 0f 3f
       0.46636546 0.10396792 0.14327568 0.5613768
000040 93 ce 17 3d d7 0e ad 3e 5c c9 e9 3c 00 35 29 3e
       0.03706224 0.33800384 0.028538398 0.16524124
000050 ad 12 05 3f b1 3a 2f 3e fc c1 c9 3e 1d ae 83 3d
       0.5198162 0.17112233 0.3940581 0.06429694
000060 c1 68 b6 3e 49 72 da 3d 89 71 95 bc 72 c2 8d 3d
       0.35626796 0.106663294 -0.018242614 0.06921853
000070 89 ac 6a bc db 6d 56 3e b2 18 57 3e 92 6c c3 3d
       -0.014323362 0.20940344 0.21005514 0.095421925
000080 35 5b 32 3d 26 37 9e be 92 84 87 be 5d 02 de bd
       0.043544013 -0.3090145 -0.2646833 -0.108402945
000090 08 de 37 bf 2f 28 35 be 84 f4 98 be 6a eb 84 be
       -0.7182317 -0.1769111 -0.2987405 -0.25960857
0000a0 63 8f 02 be 27 14 3c be af aa ce bd e7 6d 86 bc
       -0.1275001 -0.18367063 -0.10091149 -0.016409827
0000b0 01 9c 88 be 2e 04 a6 3a 80 dc 0e bd 3b 5b 38 bf
       -0.26681522 0.001266604 -0.034878254 -0.72014207
0000c0 3c b5 1c 3c 81 dd 11 be 9d de 84 bd 98 b8 d1 3d
       0.009564694 -0.14244653 -0.064877726 0.102402866
0000d0 3c 6a 1c bf 71 00 d2 bd 98 2a 97 be 4d e2 49 bd
       -0.610996 -0.102539904 -0.29524684 -0.049288083
0000e0 1d b7 41 be 2f 9e af 3d c7 ff e5 3c a8 57 19 3e
       -0.18917508 0.08575093 0.028076066 0.14974844
0000f0 87 87 c7 bc 6b a7 11 bf c8 18 fe be e6 cf 94 be
       -0.024356617 -0.56896085 -0.49628282 -0.29064864
000100 5d bb 07 3e 8f 3f d9 3d b6 00 43 bd de 9e a8 3c
       0.13255067 0.10607826 -0.0476081 0.020583566
000110 2c 32 ea bd 7c 56 5e 3c b3 4c d8 3d fe d5 08 bd
       -0.11435351 0.013570424 0.10561504 -0.033407204
000120 69 20 e5 bb 5d 98 86 3d 78 29 c2 bd d2 ff d9 3c
       -0.006992389 0.0657203 -0.09480566 0.026611242
000130 28 32 e9 bd 3e c0 16 bd 6e b4 93 bd 82 a7 c0 bd
       -0.1138652 -0.03680443 -0.072121486 -0.094069496
000140 9f 6c a9 bd fa b0 fb bd 8a 1b 25 3e c6 44 a5 bd
       -0.08272671 -0.12289615 0.16123787 -0.08069758
000150 65 c5 61 3d c3 60 96 3d 2e 4c d3 3d e7 f2 06 be
       0.05511989 0.073426746 0.103172645 -0.13178597
000160 a0 78 d2 3d 2c 8e b7 bd a6 26 2c 3d 8e 64 59 be
       0.10276914 -0.08962664 0.042029046 -0.21229765
000170 57 cc e3 bd 36 6b f8 3d 17 f4 c0 3c 71 fa 85 bd
       -0.11122959 0.12129824 0.023553891 -0.065419085
000180 de 9b 7a 3e f2 d3 26 3e c9 f3 c8 3d 58 2c 77 3e
       0.24473521 0.16291788 0.09812123 0.2413801
000190 45 db 3b 3f e9 9e 5d 3e 91 08 1e 3e 6b ce 05 3d
       0.73381454 0.2164265 0.15432955 0.03266756
0001a0 ca d6 e7 bc 49 8c 84 3e 4b fd 80 3d c6 ab 39 3e
       -0.028300662 0.2588828 0.06298312 0.18131933
0001b0 74 4c d8 3e e3 ee b0 3d 2a e2 2f 3e 39 5b 3c 3f
       0.4224583 0.08639314 0.17176118 0.73576695
0001c0 82 d6 39 3e 4d 3b 89 3e 96 0e 00 3e 5b fa 45 3d
       0.18148234 0.26803055 0.12505564 0.04833446
0001d0 c4 cb 1a 3f 30 23 47 3e 75 82 ba 3e 2a e9 e7 3d
       0.6046717 0.19447017 0.36427656 0.113237694
0001e0 36 d7 1f 3e 3b 42 1a 3e 35 af 1c 3e 80 7e 13 3c
       0.1560944 0.15064327 0.15301211 0.009002328
0001f0 9a 55 fc 3d d0 79 d3 3e 29 60 8d 3e 0a 5d a2 3d
       0.12321015 0.41303873 0.27612427 0.07927902

bias_hh_l0 f4 [128]
000000 00 b9 16 bc 56 02 56 3e 90 cf a0 bd 90 d8 b2 3e
       -0.009199381 0.20899329 -0.078520894 0.3493085
000010 60 23 3b 3f e8 52 c5 3c 1e f1 98 3c 5d fd 2e 3e
       0.7310085 0.024087384 0.018669661 0.17088838
000020 c8 95 33 3e 76 40 ba 3e ff e7 b2 3c f7 04 eb 3d
       0.17537606 0.36377305 0.02183914 0.11475556
000030 8a 8b 69 3e b0 e5 cb 3e 5b 40 3c 3e c6 c7 38 3f
       0.22807136 0.39823675 0.18383925 0.7217983
000040 c7 68 4c bd b3 3f a9 3e 07 87 89 bd f3 bb f7 3d
       -0.04990461 0.3305641 -0.067152075 0.12096395
000050 f1 e0 2a 3f 32 24 b4 3e e3 5c d8 3e 61 ae 03 3e
       0.66749483 0.35183865 0.42258367 0.12859489
000060 4f 0f 84 3e 63 76 bb 3d e0 8e 62 3d cf 32 b7 bc
       0.2579293 0.0915344 0.055312037 -0.022363095
000070 27 81 c4 bd a3 dc 4c 3e 66 24 8f 3e 97 1b 15 3e
       -0.09594946 0.20006041 0.27957457 0.14561306
000080 a6 33 39 bd 7d db 90 be 9c 23 dd bc 4c 0c a1 be
       -0.04521527 -0.28292456 -0.026994519 -0.31454694
000090 f8 d9 d1 be 72 7c 66 bc 00 96 21 be 1b 12 cf be
       -0.4098661 -0.014067756 -0.15779877 -0.404435
0000a0 77 b3 5f bd 62 a6 75 be 79 e3 a7 bd 06 ec 9e bd
       -0.05461451 -0.23989251 -0.08197684 -0.07759862
0000b0 b0 08 8a be 52 72 36 be af 90 91 3d 12 87 2b bf
       -0.26959753 -0.17817047 0.07107674 -0.67002976
0000c0 44 49 f8 bd 62 6b 57 be e5 9a 15 bd 60 8d a1 bd
       -0.12123349 -0.21037057 -0.036524672 -0.07888293
0000d0 36 26 ef be 20 da 87 be 37 b0 04 bf b3 42 9e bd
       -0.4670884 -0.26533604 -0.5183138 -0.077275656
0000e0 63 17 c9 be 0d 3a 64 be 47 df 66 be b6 62 b6 3d
       -0.39275655 -0.2228777 -0.22546111 0.08905546
0000f0 ae 5b 57 bd ee 8a ab be 38 78 ba be 19 01 30 3c
       -0.052577667 -0.33504432 -0.36419845 0.010742449
000100 47 53 1a be 8d 99 26 be 21 d2 fa 3d fe 8d 0f bd
       -0.1507083 -0.16269512 0.1224711 -0.035047524
000110 db b8 11 3e 9b f8 3b 3d 92 eb a4 bd b2 e9 5c 3c
       0.14230673 0.045891386 -0.08052744 0.013483452
000120 ff 7c 09 3e bb 8a e4 bc 9e 47 07 3d 6d d5 33 3d
       0.13426588 -0.027898183 0.033027284 0.04390471
000130 bf e7 88 3d 6d cf f2 3c 25 6c 19 be 15 c4 55 3d
       0.06684827 0.029639924 -0.1498266 0.05218895
000140 2e 5b 27 3c 57 b9 f4 3d c5 87 b1 3d 0d 41 54 be
       0.01021461 0.11949413 0.08668474 -0.2072794
000150 3c 99 d0 bd e3 8f 54 3c ec ca 0f be 77 2a ee 3d
       -0.10185477 0.012973758 -0.14042252 0.11629193
000160 4b fc 0a be 00 30 83 3c d8 4d 38 3d 73 94 c7 bd
       -0.13572805 0.0160141 0.044996113 -0.09745111
000170 cf 56 cc bd 50 1f 21 be 6f 71 82 ba 94 02 1e 3d
       -0.09977495 -0.15734601 -0.0009952019 0.038576677
000180 05 cf 04 3e 4e 30 98 3e 10 7b 6d bd 6a f8 ef 3e
       0.12969597 0.29724354 -0.05797869 0.46869212
000190 13 1a 55 3f 27 62 f5 3d 7e b0 b4 3e f5 bf af 3e
       0.8324291 0.11981612 0.35290903 0.3432614
0001a0 22 8e a8 bd dc fd 8f 3e 03 c7 9b 3e 54 34 84 3e
       -0.08230235 0.28123367 0.3042527 0.25821173
0001b0 7d 86 de 3e 8c 24 8f 3e 03 a1 bb 3d 97 5e 3e 3f
       0.4346198 0.2795757 0.0916157 0.7436308
0001c0 3e c6 4c 3e 87 63 06 3e d6 ac 6b 3e d9 ea 99 bd
       0.19997498 0.13123904 0.2301515 -0.07515497
0001d0 19 56 11 3f d1 68 c5 3e 0b 1c 04 3f 0e ba 7b 3e
       0.56772 0.3855653 0.5160529 0.24582693
0001e0 c1 16 b0 3e 93 52 01 3e 52 d8 51 3e 19 22 79 3c
       0.3439236 0.12629156 0.20492676 0.015205883
0001f0 6a e1 c8 bb 6d a3 d0 3e 74 35 9b 3e 73 5e 8f 3e
       -0.006130387 0.40749684 0.3031422 0.28001747

weight_ih_l0 f4 [128, 2]
000000 f9 c4 40 3d 23 c5 90 3d e4 a9 cb bd 93 f0 74 3d
       0.047062848 0.07068851 -0.099445134 0.059799742
000010 8d e3 79 3d ac c1 87 bd 73 d0 b1 bd c4 ea a6 3c
       0.061008025 -0.06628737 -0.08682337 0.020375617
000020 70 41 76 3c 5d b0 5f bd 93 39 25 bd 20 72 b2 3d
       0.01503025 -0.054611553 -0.04033811 0.08713174
000030 be 59 14 3d 3a 58 22 bd 70 30 ad bd 9c b3 83 bd
       0.036218397 -0.03963492 -0.08456504 -0.06430742
000040 33 81 b9 3d 9d 0a 91 bd 9a d9 b1 3c 5e 51 57 3d
       0.09057846 -0.070821024 0.021710206 0.052567832
000050 60 84 ca bc 36 a0 bd 3d c5 06 08 bd cf 44 af bd
       -0.024721324 0.092590734 -0.03320958 -0.08558046
000060 b6 5f 72 bd 00 41 59 3d 81 4f 97 3d 88 ba 89 3a
       -0.05917331 0.053040504 0.07388211 0.0010507861
000070 38 9e 11 be 37 07 d7 3c 96 cb b3 bc 45 6a b9 3d
       -0.14220512 0.026248557 -0.021947663 0.090534724
000080 3b 06 58 bd 39 f7 93 3d be af ab 3d 19 0e f3 3d
       -0.052740317 0.07224888 0.083831295 0.11867923
000090 2c 7f 1e bc fe 48 5d 3d 05 23 b1 bc 06 2f 9c 3c
       -0.009673875 0.05402469 -0.021623144 0.019065391
0000a0 6b 98 d9 3d ce 07 61 bd a4 e0 d5 bd 74 5c 0f 3e
       0.106247745 -0.054939084 -0.104432374 0.14000112
0000b0 5c c6 01 3d c3 4c 01 3e 95 19 4d be e4 50 fe ba
       0.03168331 0.12626939 -0.2002929 -0.0019402769
0000c0 c0 e0 46 3d 31 36 04 ba b3 8f 47 bd 69 cd 2b 3c
       0.048554182 -0.00050434755 -0.048721027 0.010485985
0000d0 7f 5f bb 3d e6 5b cb 3d 2d 55 f7 bd 22 d0 c5 3d
       0.09149074 0.099296376 -0.12076793 0.09658839
0000e0 c9 3e b5 bd a1 d0 a6 3d 6e 0e 8e bd a6 a8 9f 3c
       -0.08849866 0.081452616 -0.06936346 0.019489598
0000f0 b5 d5 2d 3e 0d a0 0b bd 5c 6d 40 be 72 7a 26 bd
       0.16976054 -0.034088183 -0.18791717 -0.040644117
000100 d6 c2 e5 bd d4 40 84 be 99 d6 48 3d c8 05 ea bc
       -0.11218803 -0.2583071 0.04903278 -0.02856721
000110 c9 a7 d7 3c 70 67 39 be c8 62 db 3d b4 ba 84 3d
       0.026325123 -0.18105865 0.107122004 0.06480923
000120 fb 24 98 3e fa fa 05 be c8 2b 81 3d bb 19 03 bd
       0.29715714 -0.13084021 0.06307179 -0.03200696
000130 c1 d4 ab bb c3 41 46 3e e8 db 3f 3d 50 2d 4c 3e
       -0.005243868 0.19361024 0.04684058 0.1993916
000140 da 2b 1e be 80 73 82 be e3 a9 22 3e 79 b4 a0 bd
       -0.15446416 -0.25478745 0.15885119 -0.078469224
000150 2a 37 fa 3d 91 89 88 3c 0d 6f 37 be 69 05 2a 3e
       0.12217553 0.01666716 -0.17913456 0.16603626
000160 24 83 31 be b1 9c d7 3d da 5e 42 be 2a 9e b7 3d
       -0.17335182 0.105279334 -0.18981495 0.08965714
000170 00 c9 79 3c fa e5 10 3e 4c 3c 80 3e e1 9c de bc
       0.015245676 0.14150229 0.25046003 -0.027174415
000180 30 4f 7a 3d 66 8d 10 3e ba fe 16 be 37 3f 28 be
       0.061110675 0.14116439 -0.14745608 -0.16430365
000190 87 0c 83 bd 0d 70 4c 3e 9f f3 65 be d4 a4 18 bd
       -0.06398874 0.19964619 -0.22456215 -0.037266567
0001a0 52 f0 74 be fc 5c 0e be aa 0f 09 3e e4 a1 40 bd
       -0.239198 -0.13902658 0.13384882 -0.04702939
0001b0 8b 96 fb 3d 08 d7 d5 3d 77 b2 4e be 75 f5 1b be
       0.12284573 0.104414046 -0.20185266 -0.15230353
0001c0 ce e3 d3 bd 3f b6 b6 3d 50 e3 10 bc e7 5e 30 bd
       -0.10346185 0.089214794 -0.008843258 -0.043059256
0001d0 75 8d 20 bd 9b 83 21 bd 7f 2f df bd 23 cf 0d 3c
       -0.039197404 -0.03943215 -0.10897731 0.008655342
0001e0 40 03 83 3e 7b 6d 34 be 92 2d 91 bb 03 46 e0 3d
       0.25588417 -0.17619888 -0.004430481 0.10950854
0001f0 1b 9e 8c 3e c9 05 6a 3c a1 75 e8 bd 8f c0 00 be
       0.27464375 0.014283606 -0.11350561 -0.12573455
000200 a2 1c e8 3c 60 fc fb 3d fe 04 95 bd 5e 1b 36 be
       0.028333966 0.12303996 -0.07276343 -0.17783877
000210 36 5b 38 bc cb 93 22 be d5 32 b0 bd f4 5f 50 be
       -0.011252215 -0.15876691 -0.086034454 -0.20349103
000220 7b a2 f5 bd 18 bd 89 3d 60 a8 08 3e 60 a1 e0 bd
       -0.11993881 0.0672552 0.1334548 -0.1096828
000230 f1 32 c7 3c ad 02 f1 bd d5 62 79 3e 68 c8 25 bd
       0.024316283 -0.117680885 0.24354108 -0.040474325
000240 55 1d 8e 3e 61 b7 97 3d 5a 7e f3 bd ab 54 9b 3e
       0.27756754 0.074080236 -0.11889334 0.30338034
000250 87 87 16 3e 15 06 3f 3e 5d 39 f3 bd 6a 38 0d 3e
       0.14700137 0.18654664 -0.118761756 0.13791052
000260 0e 4f fd bd 9c d9 84 bd 09 59 96 3e 92 08 94 3d
       -0.12368594 -0.06486818 0.29364803 0.07228197
000270 bf d1 71 bd b9 1c 3b be 8e 90 ad bd 51 37 1c 3e
       -0.05903792 -0.18272676 -0.08474837 0.15255477
000280 06 f9 cd 3d 3c f2 4c bd fa 56 44 be f7 44 e2 3d
       0.10057263 -0.0500357 -0.19173804 0.1104831
000290 af f0 5b bc c3 c7 35 3e 09 92 a3 3d 19 79 91 3d
       -0.013424083 0.17751984 0.07986838 0.07103176
0002a0 59 a9 bc bd 82 8d 86 bd 34 be c3 bd d6 0a 8b 3d
       -0.09211988 -0.06569959 -0.09557763 0.06789176
0002b0 84 ec 44 bd 12 d7 2b be 02 37 22 3e 7d 0f 99 3d
       -0.04807712 -0.16781262 0.15841296 0.07473657
0002c0 f1 85 1c 3e 64 e5 16 3d 1a 06 8e bc a1 e3 5b 3e
       0.1528547 0.036839858 -0.017336894 0.21473552
0002d0 d0 28 37 be 8d 24 3b 3d e2 e5 da 3d b0 2e f0 bd
       -0.17886662 0.045689154 0.10688378 -0.11727655
0002e0 f1 e4 45 3e 07 e2 b3 3d 84 b6 6c 3d d6 29 4d 3e
       0.19325615 0.08783346 0.057791248 0.2003549
0002f0 d1 07 61 3e 86 ca 53 3c 8d 61 03 be fc c0 a5 bd
       0.21975638 0.012926703 -0.12830181 -0.080934495
000300 5c 67 cb bd 5a d8 f2 bd 2d 04 ce 3d 1b dd ed 3d
       -0.099318236 -0.11857672 0.1005939 0.11614438
000310 fd 0e ed 3c 46 df 5b be b5 16 e9 3c bb 0c 15 bd
       0.028937811 -0.21471891 0.02845321 -0.036389094
000320 e3 71 48 3c b6 1c 40 be 8d 19 1c bd d1 45 8a 3d
       0.012234184 -0.18760952 -0.038110305 0.06751598
000330 a6 76 cf 3c 33 c4 68 bd be 85 3b be f2 cb f5 bb
       0.02532513 -0.056827735 -0.18312737 -0.007501119
000340 16 c1 2c bd 5e cd 02 bd 58 85 d3 3c 1b ae 31 be
       -0.04217633 -0.031934135 0.02582042 -0.17351572
000350 bf f1 18 3e ee 6b df 3d cc 14 8e 3d 4b d5 02 be
       0.14935969 0.10909258 0.069375604 -0.12776677
000360 77 4d 23 3e e2 8b 80 3d b2 46 c4 bd 52 e9 07 3e
       0.15947519 0.062766805 -0.095837966 0.13272598
000370 5c 7b c4 3b 85 62 04 3e b5 8c 9f bd dd 2d 5e 3e
       0.005996151 0.12928207 -0.077905096 0.21697183
000380 d6 02 9a bd 8b 89 61 3c 6b 44 fb bd 1f 10 06 be
       -0.07520072 0.013765703 -0.12268909 -0.13092087
000390 a2 ed 42 be 8b 86 7e 3c b5 7e 82 3d 99 29 e2 3d
       -0.19035962 0.015535007 0.06371824 0.110430904
0003a0 0f cf 71 bb 9d b8 56 bd 03 cb d6 bd 4f 75 2d bd
       -0.0036897098 -0.052422155 -0.1048794 -0.042348202
0003b0 e4 16 17 3e 9d 79 d8 3d e9 d9 0d be 59 43 c9 bd
       0.14754826 0.10570071 -0.13852657 -0.09827299
0003c0 70 3e 85 3e 7b d3 e2 3d ed e0 cb bd 96 ff 3f be
       0.260242 0.11075493 -0.099550106 -0.18749842
0003d0 ef 10 78 3c 3e 00 70 bd 20 bc 39 bd b8 db 20 3e
       0.015140756 -0.05859398 -0.045345426 0.15708816
0003e0 63 f4 9e 3c db de e9 3b 43 fc 87 3b 38 0f 8e 3c
       0.019403642 0.007137162 0.004149945 0.017341241
0003f0 d9 c0 2e 3e 11 ea ab 3d 58 e6 71 bd de 1a 44 be
       0.17065753 0.08394254 -0.059057564 -0.19150874

weight_hh_l0 f4 [128, 32]
000000 d0 4b 3b be a0 3d 74 3c 04 e0 8e bd 1d db 8f 3e
       -0.18290639 0.014907271 -0.06976321 0.28096858
000010 21 73 87 3d 21 2e f3 3d 21 a1 ea 3d 67 39 a2 bd
       0.06613756 0.11874033 0.11456514 -0.07921105
000020 83 a8 12 be 33 a3 5a bb d3 49 b9 3d 53 a3 94 3d
       -0.14322095 -0.0033361434 0.09047284 0.07257714
000030 55 9c 50 3e 58 c1 10 3d 5d 0e 5d bd a8 8e f3 3c
       0.20372136 0.035340637 -0.053968776 0.02973111
000040 fa 89 35 3e 91 ee 08 be 29 95 e7 3c 51 6b ab 3d
       0.17728415 -0.13372256 0.028269367 0.08370078
000050 a1 eb 32 3d e8 75 1d bd af 01 46 bd fb 5b 3a be
       0.043681744 -0.038442522 -0.04834145 -0.1819915
000060 d2 d8 20 be 8e f8 9d 3d 6e a1 ee bd fc 6b 19 3e
       -0.1570771 0.07713424 -0.11651884 0.14982599
000070 69 77 6d 3c da c9 21 be 86 20 43 be 00 ee a5 3e
       0.014493802 -0.15799657 -0.19055375 0.32408142
000080 c9 41 a7 bc 7e 2d d3 bd 8b 73 d6 3d 42 a1 8d 3c
       -0.020417111 -0.10311411 0.10471257 0.017288808
000090 cf c6 ec bd c6 a5 9f 3c 50 c8 23 be 84 1c 01 bd
       -0.11561357 0.019488227 -0.15994382 -0.031521335
0000a0 bb e3 1f be a3 a5 a7 3c 0b b6 30 be 86 84 16 be
       -0.15614216 0.020464724 -0.17256944 -0.14698991
0000b0 18 1a 2a 3d b2 ac 12 3e b1 7c 18 3c 30 75 09 3d
       0.04152879 0.1432369 0.0093070725 0.033559024
0000c0 7c f6 ba 3d f1 bf a6 bd 7b 74 ab 3c bd 95 4b 3e
       0.091290444 -0.08142079 0.020929566 0.1988134
0000d0 5c fa 75 3e d5 29 5f be 5a a9 2a 3e 06 62 07 3e
       0.24021286 -0.21793301 0.16666165 0.13220987
0000e0 0d 66 94 3d 50 98 67 be 9d e4 3c 3c 54 5e 81 bd
       0.07246027 -0.22616696 0.011529115 -0.0631682
0000f0 8b d3 af bd e1 1d b2 3d 8e 61 87 bd fe e9 4d 3d
       -0.085852705 0.08697105 -0.06610404 0.05027198
000100 a1 ab 8e bd b2 3c 83 bd 44 89 d3 3d d7 9f f2 3c
       -0.06966329 -0.06408061 0.10328916 0.029617233
000110 cb 7b 39 be 04 e7 26 be 14 12 eb bc 3e 16 f5 bc
       -0.1811363 -0.16299063 -0.028695144 -0.029917832
000120 ef 4c 19 be 36 44 8d be d1 cb cf bd 65 56 81 bd
       -0.14970754 -0.27591103 -0.10146297 -0.063153066
000130 aa 44 60 bd 1b b9 7b 3e d2 1d 2c bd 6b 84 61 3d
       -0.054752983 0.24582331 -0.042020626 0.055057924
000140 b8 8a 73 3b e2 1e 44 3d 7b 92 d1 bd fd 3c 23 be
       0.003716154 0.047881015 -0.10233017 -0.15941234
000150 ed 1f 6e bd f1 40 b2 bc 69 97 31 be 99 0e 1e 3c
       -0.058135916 -0.021759482 -0.17342915 0.009647035
000160 27 18 6a bd 1c 18 3f be 18 f3 c6 bd 78 b6 1a be
       -0.05715194 -0.18661541 -0.09714335 -0.15108669
000170 7b ee 1f be dc eb 05 3e 52 5d f5 3c 3b 9c 52 bd
       -0.15618317 0.13078254 0.029951725 -0.051418524
000180 ca c9 01 3e a0 a5 8d bd 4c de 4c 3e 82 b8 8a 3c
       0.12674633 -0.06916356 0.20006675 0.016933683
000190 b6 3d 69 bd 23 93 fc bc 6c aa 10 3e a7 44 5d bc
       -0.056943618 -0.030831879 0.14127511 -0.0135051375
0001a0 b9 20 61 bc 63 7c f6 3d 0d 95 04 bd da 3f 36 3c
       -0.013740712 0.12035444 -0.03236871 0.011123622
0001b0 81 1f 52 bd 02 2c c3 bd c9 a2 2c be 64 24 fd bd
       -0.051299576 -0.09529878 -0.16858973 -0.123604566
0001c0 15 a0 6f be 13 d3 a7 bc a6 1b 01 be 5f b0 ef bd
       -0.2340091 -0.02048639 -0.12608203 -0.11703562
0001d0 91 af 7d 3d cf 30 b7 3d c3 bb 95 bc e9 77 21 be
       0.06193501 0.089448564 -0.018278008 -0.15768398
0001e0 26 0a 16 bd 4c c7 ec 3c a0 70 2a bc e1 3a f6 bc
       -0.036630772 0.028903626 -0.010402828 -0.030057373
0001f0 ad 43 ed bd 17 c3 06 bd e6 bd 5a 3d 88 85 46 bd
       -0.11585174 -0.032900896 0.053403758 -0.04846719
000200 11 bd e9 3d 89 60 10 bc ae ce 45 3d 09 6e 16 bd
       0.11413015 -0.008812078 0.04829281 -0.03672603
000210 07 97 3b 3c cd 8c 1a 3d cb cb 86 3c 08 6f 2f be
       0.011449582 0.037731934 0.016454598 -0.17132199
000220 3f 97 1c 3e 3b f9 01 3d 17 03 07 bd 29 28 7e bd
       0.15292071 0.031731825 -0.03296193 -0.06205002
000230 ea 49 e7 bc 1d 16 4f 3e 4b 2a 59 3c 37 5c bb 3d
       -0.028233487 0.2022328 0.013254712 0.09148448
000240 6f 9a 78 be 33 d1 bd 3d 1a 6a 14 3e 0e 46 64 bd
       -0.24277662 0.09268417 0.144936 -0.05573087
000250 41 94 54 3d c0 1d 14 3e 32 08 c0 3c 79 c6 37 be
       0.0518992 0.14464474 0.023441408 -0.17946805
000260 d8 22 df bd cd da c6 3d 18 38 2b be 7b 0a 92 bd
       -0.10895318 0.09709702 -0.16720617 -0.07130905
000270 24 42 67 bd 17 54 37 3e 32 77 05 3e 5d 8e 2c bd
       -0.05645956 0.17903171 0.1303375 -0.042127956
000280 50 db 65 3d 5d 0f 31 be e4 72 4e bc f7 8c 37 bd
       0.056117356 -0.17291017 -0.012600634 -0.04481217
000290 d0 6e 3f be 89 03 16 3e e3 72 e8 bd a1 60 1a 3e
       -0.18694615 0.14649786 -0.11350038 0.15075924
0002a0 6e 5a 4d 3e 31 b3 a0 be 6e 0c 33 be a7 71 73 3d
       0.20054027 -0.31386712 -0.1748521 0.05943456
0002b0 89 5a d1 bc 47 65 e2 bd b8 38 11 3d 68 e5 b5 bd
       -0.025555866 -0.11054473 0.03545448 -0.088816464
0002c0 db 8e 02 be d9 69 96 3d a1 d1 ab bd b5 ad 59 3e
       -0.12749808 0.073444076 -0.08389593 0.2125767
0002d0 77 6b f9 bd 00 86 9d bd ed 56 95 bd 44 9e 8a 3d
       -0.121787004 -0.07691574 -0.072919704 0.06768468
0002e0 8f 8a f7 3d 57 58 3e 3d 15 da 3a 3e eb 19 50 bd
       0.12086975 0.046470966 0.18247254 -0.050805967
0002f0 ff 12 e0 ba 86 3b 4d be 54 7d 1c 3e 83 c1 0d bd
       -0.0017095505 -0.20042238 0.15282184 -0.034608375
000300 c7 cc a4 3c 3e 1f 07 be 76 99 33 3e 2d 2b 80 3b
       0.020117177 -0.13195512 0.1753901 0.003911397
000310 87 ba 23 3c 76 d4 3f be 87 3d c6 bd e0 13 d4 3d
       0.009993202 -0.18733391 -0.09679704 0.10355353
000320 16 6f 7d 3d f3 ef 61 be 07 89 06 3d 46 d5 2d bd
       0.061873518 -0.2206419 0.032845523 -0.04243972
000330 54 9b f9 bd 6f d1 9f 3e 90 22 7e be 30 22 7c be
       -0.121878296 0.31214473 -0.24817872 -0.24622416
000340 83 40 09 bd 91 3e 0f be 9f cc 11 3e 5f f4 03 3d
       -0.03350879 -0.13988711 0.14238213 0.032215472
000350 0a 0b 6a 3e 35 19 4d 3d 1a fc 62 be 5d 80 0d bd
       0.22855774 0.050072867 -0.22166482 -0.034546245
000360 ca d0 b6 3d 0e 44 b0 bd d0 c8 35 be 5e 93 13 3d
       0.08926542 -0.086067304 -0.17752385 0.036029212
000370 75 d1 4c 3e 52 3b a8 bd 35 52 b2 bd 09 c4 8d 3d
       0.20001777 -0.082144395 -0.08707086 0.06922156
000380 ed 76 93 3d 62 ce 32 3e 8a 23 e3 bc 39 68 48 3d
       0.07200418 0.17461541 -0.027726907 0.04892752
000390 67 2b 22 3e f5 32 86 be 9d 5a 3f 3d 75 72 98 bc
       0.15836869 -0.26210752 0.046717275 -0.018609265
0003a0 b2 ea f3 ba 1b 78 31 be 56 d9 41 be a4 b8 90 3e
       -0.0018609373 -0.17330973 -0.18930563 0.2826587
0003b0 c6 c8 83 3e d7 3e 04 be 7e 2c 25 3e 02 01 99 3d
       0.25739115 -0.12914596 0.16130254 0.07470895
0003c0 1c 96 45 bc 9c e3 86 ba 2d 42 dc bd f5 cc 22 3c
       -0.012059715 -0.0010291222 -0.107548095 0.009936561
0003d0 0c 54 a5 bd dc 93 ce bc 85 f4 45 bd 5a ac a2 bd
       -0.08072671 -0.02521699 -0.048328895 -0.0794303
0003e0 eb 4a 60 bd e6 b6 e9 3c bb d0 cb 3d 70 fc c0 3d
       -0.054758947 0.028529596 0.099519216 0.09423149
0003f0 b8 f5 64 be ee 89 aa 3c a5 35 21 3c d8 5a a3 39
       -0.2235936 0.020817723 0.00983945 0.00031157467

bias_ih_l0 f4 [128]
000000 17 21 db bd 11 82 f4 bd 38 7e cf 3c 34 6d 91 3d
       -0.10699671 -0.11938871 0.02532874 0.07100907
000010 74 d2 11 3d 6f a6 bd 3d e6 a9 2b 3e cb 72 8a bd
       0.035601094 0.0926026 0.1676403 -0.06760176
000020 7f 11 34 3c 04 f6 65 3d 34 d4 0d be 84 de 19 be
       0.0109904995 0.056142822 -0.1385048 -0.15026289
000030 66 3d ff bc 6d 4b 25 3e 0b 1f 2d be b7 c8 03 3c
       -0.031157207 0.16142054 -0.16906373 0.00804346
000040 6c a8 1f bc 52 d7 09 3e a0 d6 15 3e 80 6e ef bd
       -0.009744745 0.13461044 0.14632654 -0.11690998
000050 b6 d4 f4 3d 39 8f 14 bd b2 40 37 be f5 67 94 bd
       0.11954634 -0.0362694 -0.17895773 -0.07246391
000060 ae 0d ef 3b 78 0c ef bb 15 cd 3f 3d b1 83 02 3b
       0.007295332 -0.0072951876 0.04682644 0.001991492
000070 39 e7 e4 3d 69 4d ac 3d 2f d4 14 3e 13 5d 48 bc
       0.11176915 0.08413202 0.14534067 -0.012229222
000080 b0 f5 45 3e cf ef 06 be a8 6b 09 be c8 93 fa bd
       0.19332004 -0.13177417 -0.13419974 -0.12235218
000090 88 b9 c5 bc fd 12 d6 3d 74 ff 7d 3d f6 5a 85 3e
       -0.02413632 0.104528405 0.062011197 0.2604596
0000a0 21 52 83 3e 5f 6a 47 3e 77 02 8e 3d 32 fc 39 3e
       0.25648597 0.19474171 0.06934064 0.18162611
0000b0 e6 05 8e bd 76 a7 6a 3e e4 a9 a8 3c 35 4c 7b bd
       -0.06934719 0.22915444 0.020588823 -0.061351974
0000c0 8c 26 f9 bd 6c a6 6f 3e 5e 7f 36 3e 7f 6c 49 3e
       -0.12165555 0.23403329 0.17822024 0.19670294
0000d0 cd 30 38 3d f5 44 08 3e 7c 5a e4 bd 2e 67 34 3d
       0.044968415 0.13307555 -0.11150071 0.044043712
0000e0 cf d3 e9 ba 1b f9 db 3d 96 d9 87 3d ce 26 4f 3e
       -0.0017839613 0.107408725 0.06633298 0.20229647
0000f0 03 c5 dc bd 3d da 48 3d 52 e4 08 3d 84 13 33 bd
       -0.107797645 0.049036253 0.03342087 -0.043719783
000100 f4 5b a7 bd 07 d8 10 3d d4 4c f8 3d 0c b0 20 be
       -0.081718355 0.03536227 0.12124029 -0.15692157
000110 56 11 3e 3d bd 45 90 3d b7 2b fe 3d b7 4d a3 3d
       0.04640325 0.070445515 0.12410682 0.07973807
000120 14 15 07 3e 32 49 c7 bc 97 51 ad 3d ec 3b 75 3d
       0.13191634 -0.024326894 0.08462828 0.0598716
000130 c3 2b bd 3d 2d 98 99 bb f9 cc c7 3d 2e 22 c7 bd
       0.092368625 -0.00468733 0.09755892 -0.09723316
000140 ee 8d 1a be cf 8d c2 bd c6 7c 1a 3e 0b 7f 7e bd
       -0.15093204 -0.09499704 0.1508666 -0.062132876
000150 25 9c bb 3c 46 a6 38 be 32 49 e1 bd 74 a1 49 3e
       0.022901604 -0.18032178 -0.11000289 0.19690496
000160 87 e9 0a be c2 b9 3c bc cc fa b4 3d 19 a3 49 3c
       -0.13565646 -0.0115188975 0.08836898 0.012306952
000170 31 59 23 3b a9 0a cd bd 50 93 bc bd 95 99 f1 3c
       0.0024924988 -0.10011799 -0.09207785 0.029492179
000180 ca 65 9d ba 06 54 15 3e e3 79 fa 3d 17 56 d3 3d
       -0.0012008485 0.14582834 0.12230279 0.10319155
000190 f4 dc 55 3e 8f 02 57 3e 2f fd ae 3e 84 15 c7 3d
       0.20885068 0.2099707 0.3417754 0.09720901
0001a0 ec f6 be 3d dd 33 61 3e ee a6 3b 3c 11 75 9e bd
       0.0932444 0.2199244 0.011453373 -0.077371724
0001b0 82 5f 90 bd 51 2d 79 3e a2 3d 7c 3d 19 f2 a2 3d
       -0.07049467 0.24333693 0.061582215 0.07956333
0001c0 ae 2f 8e 3d 13 e8 60 bd 4b a7 26 3e 83 f5 a2 3d
       0.06942688 -0.054908823 0.16274755 0.07956984
0001d0 74 b7 fe bc ed 14 1f 3e 97 08 9d bc 2e 1a 01 be
       -0.031093337 0.15535326 -0.019169135 -0.12607643
0001e0 a3 e4 5d 3e 83 b9 69 3c e5 ce 40 3e ce e4 15 bc
       0.21669249 0.014265421 0.18828924 -0.00914879
0001f0 c3 a5 84 bd a4 5b 87 3d 73 7e 29 3e 8e f1 e8 ba
       -0.06476929 0.06609276 0.16552143 -0.0017772184

bias_hh_l0 f4 [128]
000000 99 f1 f9 3d 3c 76 0f 3e 79 34 36 bd 3b 8b c8 bd
       0.12204284 0.14009947 -0.044483636 -0.09792181
000010 22 bf 04 3e 2a 9c 38 3e 6c bf a1 bd f4 6e 15 3d
       0.12963536 0.18028322 -0.07897839 0.036482766
000020 b9 a3 b7 3d 57 5a 03 3e b4 4c 88 3d 21 94 6f 3d
       0.089667745 0.1282743 0.06655255 0.058490876
000030 c8 cd fa bc 8d cd 2e 3e 31 a9 76 3d ea 25 72 3d
       -0.030615702 0.17070599 0.060219947 0.05911819
000040 bd 00 79 bd 27 47 63 3d 2f b9 65 3d a6 c1 25 be
       -0.06079172 0.055487778 0.056084808 -0.16187152
000050 f6 33 ff 3d b4 d7 95 3d b9 64 ec 3d 8a 71 15 be
       0.12461083 0.07316533 0.11542649 -0.14594093
000060 df 30 cc bd 9a 3f b9 bd 66 58 35 3c 69 e3 c0 bd
       -0.09970259 -0.09045334 0.011068439 -0.09418375
000070 01 ea 0c 3e d8 e1 dd 3d c2 4a 94 3b 31 26 89 3c
       0.1376114 0.10834092 0.0045255134 0.016741844
000080 86 1f 72 3d 65 c3 b6 3d aa 57 28 bc 7a 00 93 bc
       0.059112094 0.08923987 -0.010274807 -0.017944563
000090 c5 db 60 bc 8a 55 7f bd 31 3f 7a bd f7 c0 f1 bc
       -0.013724272 -0.062337436 -0.06109542 -0.029510958
0000a0 7e 03 a9 bb b2 73 83 3c b4 75 44 bc a2 62 9b 3d
       -0.005157887 0.016046379 -0.011990953 0.07587172
0000b0 fc 00 9a 3d 92 0f 78 3e 93 1d 0b be 34 86 0a be
       0.07519719 0.2422469 -0.135855 -0.13527757
0000c0 ab f5 5d bd 59 83 d5 bc 3c 0e 08 3d 59 f7 1b 3c
       -0.054189365 -0.026063608 0.0332167 0.0095194215
0000d0 65 16 19 3d 9c 2e 66 3d b4 8b 08 3d b4 07 d4 bd
       0.037374873 0.056196794 0.033336356 -0.10353032
0000e0 cb 8e b9 3c 0f f8 1b 3e 3e ee bb bc 11 78 88 bc
       0.022651097 0.15231346 -0.022940751 -0.016658815
0000f0 12 a7 b9 3d a4 ac 12 be 8d 5d b0 bd 2c 6e 08 3e
       0.09065069 -0.1432367 -0.086115934 0.13323277
000100 c8 d2 c7 3d 98 55 5a 3d 18 2f 8a bd d4 6c fd bd
       0.09757 0.053304285 -0.06747264 -0.12374273
000110 db 8d f5 3d bd f4 05 be 75 07 a4 bd 8b ee a1 3d
       0.119899474 -0.13081641 -0.08009235 0.079068266
000120 c7 e7 03 be a5 17 4b 3e 11 75 1c 3c 89 36 2b 3e
       -0.12881385 0.19833238 0.009549395 0.16720022
000130 e0 22 5b 3d 99 a9 8b 3d 36 e7 98 3d cb 49 1c 3c
       0.053500056 0.068194576 0.07465975 0.009539078
000140 10 15 7e bd ac 03 9c 3d 3d 83 07 be 2a 1c 13 3d
       -0.062031806 0.07617888 -0.13233657 0.03591553
000150 b2 16 8f 3d e3 f5 0d be e3 cb b0 3c 8c c2 07 3e
       0.06986751 -0.1386333 0.021581596 0.13257807
000160 41 70 92 bd 21 15 58 3e 4f 38 ed bd c9 02 e9 3c
       -0.07150317 0.2110181 -0.11583006 0.02844371
000170 b4 bd 15 be ed 1a 0e be da 23 08 3e ae ac 19 be
       -0.14623147 -0.13877459 0.13294926 -0.15007278
000180 e2 bf 86 3e 73 72 f9 3d 55 d5 b1 3c 91 0a 27 be
       0.2631827 0.121800326 0.02170817 -0.16312625
000190 e9 1a 12 3d c4 85 64 3e 68 a2 88 3e 57 09 2f 3e
       0.035670195 0.22316653 0.26686406 0.17093407
0001a0 df 96 0b 3e cc 3b 6e 3e b4 6c 31 bd 4b d6 67 bd
       0.13631772 0.23264998 -0.043316558 -0.05660085
0001b0 81 3b 80 bd c2 e8 d1 3d b1 61 02 3e 27 01 3a 3e
       -0.062613495 0.10249473 0.12732579 0.18164502
0001c0 6c bd 5e 3e cf d7 63 3b 45 81 72 bd 3b d5 84 3d
       0.21751946 0.0034766083 -0.059205312 0.06485983
0001d0 1f ad 45 bd 6b 73 0e bd 07 45 d0 3d 24 8f 24 3e
       -0.048260804 -0.03477804 0.10169416 0.16070229
0001e0 5f a7 bb 3d f7 75 0f 3e 97 7d bf bc f4 7a 34 3e
       0.09162783 0.14009844 -0.023375316 0.17625028
0001f0 16 ce 57 3e ba 7b 08 3e aa 05 b9 3d ef e2 80 3d
       0.2107471 0.13328448 0.090342835 0.06293284

weight_ih_l0_reverse f4 [128, 2]
000000 00 91 b8 3d ca e6 f1 be 2e dd 92 3e 4d 4a 01 be
       0.090120316 -0.4724639 0.28684372 -0.12626
000010 a3 7f 70 be 70 68 f5 be fa c7 5c 3d 39 8d ed be
       -0.2348619 -0.47931242 0.05390165 -0.46396807
000020 69 fb f2 bd 5d 4c 94 be 46 23 13 3e 35 ef df be
       -0.11864359 -0.2896451 0.14368924 -0.43737188
000030 11 50 8d 3e 3d 87 b5 3e 18 3a 38 3e b8 02 a9 be
       0.27600148 0.3545474 0.17990911 -0.33009887
000040 81 aa 5d be 4d f6 1d bf 8e d3 c0 bd d7 d0 2e 3e
       -0.21647073 -0.6170395 -0.09415351 0.17071854
000050 9f 6a 03 bf b0 bd 25 3e cb 19 08 3f 5f 82 9a bd
       -0.51334566 0.16185641 0.53164357 -0.075443976
000060 7e 61 d9 bd 1a 12 41 bd d4 03 64 be 60 df 33 be
       -0.10614298 -0.047136404 -0.22267085 -0.1756568
000070 a9 e8 83 3e a9 62 d6 3a ae eb 13 3f ea 6e 5f 3e
       0.25763443 0.0016356307 0.57781494 0.21819654
000080 79 14 1d be 1a a3 6b be 1d 24 c3 3b 12 28 00 3e
       -0.15339841 -0.23011437 0.005955233 0.12515286
000090 14 5e 31 be 6f 1d dc bd b1 31 93 be e0 29 8b 3e
       -0.17321044 -0.107478015 -0.2874885 0.27180386
0000a0 20 94 bd be 5a 77 39 3e 48 01 92 be 68 62 06 3f
       -0.37027073 0.18111935 -0.28516603 0.52493906
0000b0 11 09 42 bf 24 bb a4 3e ad a4 a1 3e 07 78 0c be
       -0.75795084 0.32174027 0.3157095 -0.13717662
0000c0 10 0b af be bd fc b9 3e 94 0b 15 bf fa 77 b6 be
       -0.34188128 0.36325637 -0.5822079 -0.3563841
0000d0 02 66 e1 3d a6 df 89 3e f7 b2 f3 bd d7 a8 a2 3e
       0.110057846 0.26928443 -0.11899369 0.3176944
0000e0 d4 75 2e 3e 4a 2f 0d 3d 4f 3b 00 3e e4 1e 67 3e
       0.17037135 0.034468926 0.12522624 0.22570378
0000f0 c7 8c 1e be ab 83 99 3c c5 61 f7 3d 70 ca a1 bc
       -0.1548339 0.018739542 0.12079195 -0.01974985
000100 bc e4 85 bd b0 24 53 be 0a d4 a2 3e be 84 8c be
       -0.06537768 -0.20619464 0.31802398 -0.27445024
000110 fd 4e 5e be df 1b b0 be 66 8b d0 bc 76 33 df be
       -0.21709819 -0.34396264 -0.025457095 -0.4359395
000120 7d 1b e4 bd 47 07 1e be ad ce 83 3e 12 3a d6 bd
       -0.111380555 -0.15432464 0.2574362 -0.10460295
000130 87 3e 98 3b 45 60 c2 3e e5 f0 72 3e 87 10 f6 bd
       0.0046461257 0.37964073 0.23724706 -0.12014871
000140 9f e7 2e bb e5 74 3d be bb f8 82 3d f8 f9 15 be
       -0.002668835 -0.18501623 0.06395098 -0.14646137
000150 ba b7 0b be c3 d7 3f 3d 9a 51 40 3e 26 07 0a bd
       -0.13644305 0.046836626 0.18781129 -0.033698224
000160 21 e6 a6 3d ca 65 44 3d d9 db 01 bd 88 66 80 bd
       0.08149362 0.047948636 -0.031703804 -0.06269556
000170 ec c9 30 3e dd c3 1e be 7a ed 76 3e de 42 fc 3d
       0.17264527 -0.15504403 0.24114028 0.123174414
000180 22 bc 81 bd 9d fc 8e be fb 11 88 3c 6b d1 84 3e
       -0.063347116 -0.27927104 0.016610136 0.25941023
000190 71 ca d5 bd 14 9d c6 bc b3 6a 6d be 21 58 0f 3e
       -0.10439003 -0.024244823 -0.23185234 0.13998462
0001a0 e4 09 89 be b8 4e 67 3e d4 25 74 be 8f 63 86 3e
       -0.26765358 0.22588623 -0.23842555 0.26247832
0001b0 4b d8 f7 bd b3 e9 47 3d 6c 20 e4 3c 88 1a 48 be
       -0.121018015 0.048806857 0.027847491 -0.19541371
0001c0 e2 c0 14 bd 66 ee cf 3c af 3e 68 be d8 a6 ba be
       -0.03631676 0.025382232 -0.22680162 -0.36455417
0001d0 3f 81 ec 3d be 7b 30 3e fe 87 51 bb bb d2 6d 3d
       0.11548089 0.17234704 -0.0031971927 0.058062296
0001e0 82 90 ee bd db 23 4a 3e 8e 2b 7b 3e b6 49 34 3e
       -0.116486564 0.1974024 0.24528334 0.17606243
0001f0 2c 9a 87 bd 0e de 54 3d 55 b9 29 3e 57 44 da bd
       -0.06621203 0.05196958 0.16574605 -0.10657566
000200 95 2c c4 bc b4 60 99 be 62 41 a4 bb 77 ec a5 3e
       -0.02394704 -0.2995659 -0.005012677 0.3240697
000210 f4 64 63 3a 5c 3e 8b 3e be 51 b5 bd 34 25 be be
       0.0008674406 0.27196014 -0.08853482 -0.3713776
000220 4d 92 74 3e 7a 9b 09 3f 63 10 da 3e 9f 0b 7a be
       0.23883934 0.53752863 0.42590627 -0.24418496
000230 e0 f4 35 be 42 6f 01 bf 8c 09 49 bf 81 19 bb 3e
       -0.17769194 -0.5056039 -0.7853019 0.36542895
000240 83 0f f4 bd 55 c3 aa be 52 28 80 be de 7b e7 3e
       -0.11917021 -0.33352152 -0.25030762 0.4521169
000250 32 d4 07 3f c4 e0 01 3d 0d fb 0c 3f 6e 7e 1e be
       0.5305816 0.031708494 0.55070573 -0.15477917
000260 33 58 6c 3e 12 ba 0f 3d 16 e0 57 3e 3f aa 65 3e
       0.2308052 0.03508956 0.21081576 0.22428225
000270 33 99 67 3d e2 d0 97 be ab 09 27 3f 44 43 6e 3e
       0.056542587 -0.29651552 0.6524913 0.23267847
000280 a9 3a ff 3d 92 5a 26 3e 98 19 52 3e 3b 39 c3 3e
       0.124623604 0.16245487 0.20517576 0.381296
000290 8c d5 d7 3a fa b1 e0 be c2 7a ff be b7 75 5d 3e
       0.001646684 -0.43885785 -0.49898344 0.21626936
0002a0 95 af ba be 8e c2 f0 3d 7d 1e 40 3e fc 3d 8e be
       -0.36462083 0.11755858 0.1876163 -0.27781665
0002b0 f5 f3 1c bf 59 3d f4 3d 69 a7 e8 bc 8d 45 90 3e
       -0.6130975 0.11925764 -0.02840014 0.28178063
0002c0 6e 85 bf be 21 c7 2b 3f 08 f9 00 3f 66 c8 fe 3e
       -0.37406486 0.6710072 0.5037999 0.49762267
0002d0 7a 5c df bd 90 02 bb be 32 c6 1b be e9 11 83 be
       -0.109063104 -0.36525393 -0.15212324 -0.25599602
0002e0 9c 82 ed be 49 30 32 3e 71 f1 e1 3e ae 99 49 3e
       -0.4638871 0.17401232 0.44129518 0.1968753
0002f0 a4 55 5d 3e 97 3d 2d be f6 8c b5 3e db 91 19 be
       0.216147 -0.16918026 0.35459107 -0.14997046
000300 c8 fc 08 3e 89 63 47 be 04 15 3e 3e 27 de 26 be
       0.13377678 -0.19471563 0.18562704 -0.16295682
000310 ef f0 33 be e5 78 de be 88 71 77 be f0 5a b2 be
       -0.17572378 -0.4345161 -0.24164402 -0.34835005
000320 4c 79 04 be f0 8c 04 bc f0 c4 be 3d ce 32 0b be
       -0.12936896 -0.008090243 0.093149066 -0.13593599
000330 5a 0c 76 bd 4f 3b 4b 3e 52 d7 8d 3e b5 06 97 be
       -0.060070373 0.19846843 0.2770334 -0.29497305
000340 96 85 b1 be 57 ad 06 bf 87 b5 03 bd 9c 1f 7f bc
       -0.3467223 -0.52608246 -0.03215554 -0.015571501
000350 89 da 43 bd b0 9e e8 bd 92 e9 09 3f 48 40 ae bc
       -0.047815833 -0.11358392 0.53872025 -0.021270886
000360 3a e5 bc bc d8 89 e4 bd 4c f3 c3 be c6 67 8e 3d
       -0.023058522 -0.11159104 -0.38271558 0.06953387
000370 1f a9 40 3e ac 13 ea 3d 6b 41 b5 3e 1c 11 5f 3e
       0.18814515 0.11429533 0.35401472 0.2178387
000380 bc 60 4a 3e 01 39 49 be a4 1e 99 3e c1 2b fc 3b
       0.19763464 -0.19650652 0.2990619 0.0076956456
000390 da d1 5d be a7 04 cf bd 21 37 ca be ab 24 95 3e
       -0.21662083 -0.10108309 -0.39495185 0.29129538
0003a0 3f 9b 9a be 3e a0 20 be 91 d6 9f be 68 b1 41 3f
       -0.30196568 -0.15686128 -0.3121839 0.75661325
0003b0 65 69 0e bf 7d 12 cb bd 41 5a fd bc 15 c3 7c bd
       -0.5562957 -0.09915636 -0.030926825 -0.061709482
0003c0 c4 31 6f be 10 af ec 3e a9 7a 89 be b4 6d 08 bf
       -0.23358828 0.46227312 -0.26851395 -0.53292394
0003d0 cd 37 42 3d 45 ff e2 3e 87 ad 0a be fa ae 1b 3e
       0.047416497 0.4433538 -0.13542758 0.15203467
0003e0 68 fb f2 3e 21 a3 1f be b8 1a 0b 3e 64 31 af bc
       0.47457433 -0.15589572 0.13584411 -0.021385856
0003f0 f8 25 ba bd f3 0e 8f bc 7c fd 88 3d a2 f6 94 bd
       -0.09089273 -0.017463183 0.06688973 -0.07273604
