TS-CVAE/experiments/pedestrians/models/zara1/models_22_Jun_2021_00_46_21_zara1_ar3/model_registrar-38.pt (torch_old, 545378 bytes, 43 tensors)

weight_ih_l0 f4 [128, 6]
0	0xbdacb4a8	-0.08432895
1	0x3d3e0462	0.0463909
2	0xbd85baa4	-0.065297395
3	0x3c72c608	0.014817722
4	0xbe12dc7a	-0.14341918
5	0x3cec06e3	0.028811878
6	0xbe12052f	-0.1425979
7	0xbe6f61c3	-0.23377137
8	0xbd8f18f2	-0.0698718
9	0x3e9016eb	0.28142485
10	0xbe11a1f7	-0.14221941
11	0x39d4be1d	0.00040577436
12	0xbda17343	-0.078833126
13	0x3d4a2c5c	0.04935871
14	0xbe00eae7	-0.12589608
15	0xbe2fc3fa	-0.17164603
16	0xbdfd388e	-0.123643026
17	0x3db404d9	0.08789987
18	0x3af36538	0.0018569594
19	0x3de2db9b	0.11077043
20	0x3d828fc7	0.063750796
21	0x3d0584f6	0.032597505
22	0xbe185d23	-0.14879279
23	0x3e228409	0.1587068
24	0xbdc18a83	-0.09450247
25	0xbe151720	-0.14559603
26	0xbd22a60c	-0.039709136
27	0x3ec71c3d	0.38888732
28	0xbdf4df78	-0.11956686
29	0xbdad2a28	-0.08455306
30	0x3e9222bf	0.28542134
31	0xbc930308	-0.017945781
32	0xbd8a5696	-0.06754796
33	0x3e35760e	0.17720816
34	0x3e71767a	0.23580351
35	0xbda99b5d	-0.08281586
36	0xbe8d9d27	-0.2765896
37	0xbe147a8d	-0.14499874
38	0xbc9c6851	-0.01909271
39	0x3d165ffa	0.036712624
40	0xbe15a55f	-0.14613865
41	0xbe9191dc	-0.28431594
42	0xbdb7995a	-0.08964796
43	0x3eb0b909	0.3451617
44	0x3e09c61d	0.1345448
45	0xbdc6e6d7	-0.09711998
46	0xbd3ab6aa	-0.04558436
47	0x3da38571	0.07984436
48	0x3ecc3ecb	0.39891657
49	0x3d8f3b35	0.06993715
50	0x3e030cdc	0.12797874
51	0xbd82db1f	-0.0638945
52	0xbd2a131e	-0.041522138
53	0x3c92c847	0.017917765
54	0xbe3d7be3	-0.1850429
55	0xbe841a4b	-0.2580131
56	0x3d07a544	0.033116594
57	0x3e875d66	0.26438445
58	0xbcb944fa	-0.022615898
59	0xbe7b2e15	-0.24529298
60	0x3e3bc4ba	0.18336764
61	0xbde97282	-0.11398794
62	0xbeb7ebe6	-0.35922164
63	0x3e037363	0.12836985
64	0xbe22dfb9	-0.15905656
65	0x3e1232a7	0.14277135
66	0xbe4af606	-0.19820413
67	0xbd470512	-0.04858882
68	0x3cadc7a5	0.021213362
69	0x3e34c3e0	0.17652845
70	0x3df7412b	0.12072977
71	0x3e41ed4b	0.18938176
72	0xbc8854ce	-0.016642
73	0x3ca01ef7	0.019546015
74	0xbd8f42a5	-0.06995133
75	0xbe357259	-0.17719401
76	0x3c9d4e99	0.019202517
77	0xbe52bbf1	-0.20579506
78	0x3da36d5d	0.07979844
79	0x3e90c8d5	0.28278223
80	0x3dd11fe4	0.10211161
81	0xbd032323	-0.03201593
82	0x3c5a4cc1	0.013323964
83	0x3e0b7ade	0.13621089
84	0xbe917547	-0.28409788
85	0xbd47fcb7	-0.048824992
86	0xbe849feb	-0.25903258
87	0x3e2e7d6c	0.17040032
88	0x3ec3e031	0.38256982
89	0xbe0c151e	-0.1367993
90	0xbde30108	-0.11084181
91	0x3e1d8bf3	0.15385418
92	0x3e487212	0.19574764
93	0xbcb4ddde	-0.02207845
94	0xbe10938b	-0.14118783
95	0x3e1fdbdb	0.15611212
96	0xbcd1a308	-0.025590435
97	0x3e8ad8b2	0.2711845
98	0x3e8c4b77	0.27401325
99	0x3a75b71b	0.0009373293
100	0xbe1aad56	-0.15105185
101	0xbed2d9c9	-0.41181782
102	0x3dcd0ccb	0.10012206
103	0xbe803feb	-0.25048766
104	0xbc63a7c1	-0.013894976
105	0x3d24c319	0.040225122
106	0x3d0da917	0.034585085
107	0x3e0a5d8a	0.13512245
108	0x3ca92cc2	0.020651225
109	0x3e0104fd	0.12599559
110	0x3e62455d	0.22096772
111	0xbe20d139	-0.15704812
112	0x3e295717	0.16537128
113	0x3e6afa64	0.22947079
114	0xbe532ed6	-0.20623335
115	0xbdf125dc	-0.11774799
116	0x3d23e641	0.04001451
117	0x3e7dd726	0.24789104
118	0x3e21e174	0.1580866
119	0x3e18b394	0.14912254
120	0xbe672edf	-0.22576474
121	0x3e8f3aaf	0.2797446
122	0x3dba8d21	0.091089495
123	0xbe58eb9d	-0.2118363
124	0x3c907cf7	0.017637713
125	0x3d4e746f	0.05040401
126	0x3e702c9e	0.2345452
127	0x3ea7feb2	0.32811505
128	0xbe40c101	-0.18823625
129	0xbe158ed8	-0.14605272
130	0x3d9cc18e	0.07654105
131	0x3d541aa0	0.051783204
132	0xbdf49227	-0.11941939
133	0xbe4b41b7	-0.19849287
134	0x3d2d679f	0.04233515
135	0x3d9e40ff	0.07727241
136	0xbd492db0	-0.049115837
137	0x3a51edca	0.00080081506
138	0xbcf81a04	-0.030285843
139	0xbd4031a9	-0.04692236
140	0x3db45b8d	0.088065244
141	0xbdcdb4b1	-0.1004423
142	0x3dd37714	0.10325447
143	0xbb900db4	-0.004396165
144	0x3d8fab30	0.07015073
145	0xbdd76331	-0.10516966
146	0xbe2fbeda	-0.17162648
147	0x3d933174	0.07187167
148	0xbeabea88	-0.3357737
149	0xbdbbc3a3	-0.09168174
150	0xbd9e7ff6	-0.0773925
151	0xbd24930b	-0.040179294
152	0xbde4561d	-0.11149237
153	0x3ccfd172	0.025368426
154	0x3e073844	0.13205057
155	0x3e063244	0.13105112
156	0x3d6bfb17	0.057612505
157	0xbe49ad69	-0.19695057
158	0xbe986bae	-0.29769653
159	0x3e20038c	0.15626353
160	0x3e126c19	0.14299048
161	0x3dd2ee7b	0.10299393
162	0x3d86aa74	0.0657548
163	0x3e9d5791	0.3073087
164	0x3e958b48	0.29207826
165	0x3e7cd385	0.24690063
166	0xbe171cd9	-0.14757098
167	0x3e2d5b30	0.16929317
168	0xbd09601a	-0.033538915
169	0x3e352f7d	0.17693897
170	0xbdcae52e	-0.09906994
171	0x3daffdbd	0.085933186
172	0x3dd2d048	0.10293633
173	0x3e05da69	0.13071598
174	0xbda1c161	-0.07898212
175	0xbe14c0e6	-0.1452671
176	0xbe237def	-0.15966009
177	0x3bee9586	0.007281008
178	0x3d57e029	0.05270401
179	0x3d806847	0.06269889
180	0xbd7aa65d	-0.061193813
181	0xbdd43623	-0.10361888
182	0x3e4cc0c0	0.19995403
183	0x3b985866	0.00464921
184	0xbe21eaa5	-0.15812166
185	0xbe09f2f9	-0.13471593
186	0xbe23433b	-0.15943615
187	0x3e0239a0	0.12717295
188	0x3e2c5e7e	0.16832921
189	0xbe46f10c	-0.1942789
190	0xbe435f6e	-0.19079372
191	0xbc9dec99	-0.019277858
192	0x3e2c3eca	0.16820827
193	0x3e23054b	0.15919988
194	0xbe0b5a98	-0.13608778
195	0xbde314b4	-0.11087933
196	0xbdc7c24f	-0.09753858
197	0xbe54e9d5	-0.20792325
198	0x3e3e84d7	0.18605362
199	0x3c75bdb4	0.014998842
200	0x3ab61e8f	0.0013894605
201	0x3ce45bdc	0.027875833
202	0x3e03dbca	0.12876812
203	0x3e25b5f1	0.16182686
204	0xbe358002	-0.17724612
205	0x3d6b5f5e	0.057463996
206	0x3ab04bc2	0.0013450312
207	0xbcab710c	-0.020927928
208	0xbd89f839	-0.06736798
209	0xbd56658a	-0.05234293
210	0x3c1294c4	0.008946601
211	0x3cde606c	0.027145587
212	0x3d4dd449	0.05025128
213	0xbdd3e303	-0.103460334
214	0xbe3fb700	-0.18722153
215	0xbe696398	-0.22791898
216	0xbd349188	-0.044084102
217	0xbde6108d	-0.112336256
218	0x3dfd1418	0.12357348
219	0x3e46e96e	0.19424984
220	0xbe951e39	-0.2912462
221	0xbe4e37be	-0.20138451
222	0x3e4a6fe7	0.1976925
223	0xbe14aa4e	-0.14518091
224	0x3c7cf1e4	0.015438531
225	0xbe0a4847	-0.13504134
226	0xbea8333b	-0.32851586
227	0xbc09fff9	-0.008422845
228	0x3c1051a1	0.008808524
229	0xbd9d7f02	-0.076902404
230	0x3d1d479d	0.038398374
231	0x3c9d7f5e	0.019225772
232	0xbdc9cbda	-0.09853335
233	0x3e021af6	0.12705597
234	0x391be6a7	0.00014867877
235	0xbd71dcd1	-0.059048478
236	0x3e7dcfda	0.2478632
237	0xbe26f0d3	-0.16302805
238	0xbce9e463	-0.028551286
239	0x3d406e83	0.046980392
240	0x3ee45ff0	0.44604445
241	0xbe63aaf7	-0.22233187
242	0xbe2ea677	-0.17055689
243	0x3d21b85e	0.039482467
244	0xbede8257	-0.43458816
245	0x3e90ab9a	0.28255922
246	0xbe3352d5	-0.17512067
247	0xbe04ebca	-0.12980571
248	0x3e2af4bf	0.16694926
249	0x3e08ce36	0.13359913
250	0x3e0c55d7	0.1370462
251	0x3db427fd	0.0879669
252	0x3e2e7757	0.17037712
253	0xbe29abbd	-0.16569419
254	0xbe1b078e	-0.151396
255	0x3dcffe7e	0.101559624

weight_hh_l0 f4 [128, 32]
0	0xbd6cc556	-0.05780538
1	0xbe3a19c4	-0.18173891
2	0x3e008617	0.12551151
3	0x3e27f469	0.16401829
4	0x3dd9e9fe	0.106403336
5	0x3c81dd93	0.015852725
6	0xbe0a7510	-0.13521218
7	0xbd0f9de4	-0.035062686
8	0x3d9e0b30	0.077169776
9	0x3e423698	0.18966138
10	0xbd9c0334	-0.076177984
11	0x3e8eee7e	0.2791633
12	0xbe1e7e88	-0.15477955
13	0x3dbf84d5	0.093515076
14	0x3da2a860	0.07942271
15	0x3d51bbd4	0.051204517
16	0xbcc9d097	-0.024635596
17	0xbd881db3	-0.0664629
18	0x3dbe80a9	0.09301884
19	0xbe2e5206	-0.17023477
20	0xbe6bdeb0	-0.23034167
21	0x3d1dd2df	0.03853118
22	0xbdf6510b	-0.120271765
23	0xbe925fa0	-0.2858858
24	0x3e378013	0.1791995
25	0xbdff621f	-0.12469887
26	0x3db63aa8	0.088979065
27	0x3e667f36	0.22509465
28	0x3d91fa0c	0.07127771
29	0x3e3140fa	0.17309943
30	0x3d97de3b	0.07415434
31	0xbe0f562c	-0.13997716
32	0x3cdcb1e4	0.026940294
33	0xbe837e9c	-0.25682533
34	0x3e1dd9bd	0.15415092
35	0xbd3f4136	-0.04669305
36	0x3dafe22e	0.08588062
37	0x3e8bc064	0.2729522
38	0xbd28c1d3	-0.04120047
39	0xbdec444a	-0.115364626
40	0x3e6bbf7b	0.23022263
41	0xbc914957	-0.017735166
42	0xbe99738e	-0.29970974
43	0x3d2d549e	0.042317025
44	0xbe7ca2ca	-0.24671474
45	0x3e1a0328	0.15040267
46	0x3df9cf53	0.12197747
47	0xbae5a3ca	-0.0017520126
48	0x3d43a051	0.04776031
49	0x3dd8cafd	0.10585592
50	0xbddbd656	-0.10734241
51	0xbda4a7c1	-0.08039809
52	0xbdf8f4c0	-0.12156057
53	0x3d8bc4d5	0.06824652
54	0xbdfe6804	-0.12422183
55	0xbdee6385	-0.116400756
56	0x3ceb33f9	0.028711306
57	0xbdad1f9a	-0.08453293
58	0xbcb14660	-0.021640003
59	0xbe1aeb68	-0.15128863
60	0xbdcb0bf4	-0.09914389
61	0x3e04f28a	0.12983146
62	0x3dc1e45b	0.094673835
63	0xbe4ff07f	-0.20306586
64	0x3daf3aa4	0.08556107
65	0xbe3de072	-0.1854265
66	0xbdd43fc8	-0.10363728
67	0x3ddceb77	0.10787099
68	0x3e8da144	0.27662098
69	0x3dce1ace	0.10063706
70	0xbe2c7fbe	-0.16845605
71	0xbe85680e	-0.2605595
72	0xbdeb4934	-0.11488572
73	0x3e65d4cb	0.22444455
74	0xbe370556	-0.17873129
75	0x3e515af5	0.20444854
76	0xbd764370	-0.060122907
77	0xbd97c1f5	-0.07410041
78	0x3df08ce9	0.117456265
79	0xbe948d88	-0.2901423
80	0x3d18061b	0.037115198
81	0xbcab024b	-0.020875117
82	0x3dcb8758	0.09937924
83	0xbdf7b766	-0.12095527
84	0x3d49f540	0.049306154
85	0x3d6c1548	0.057637483
86	0x3c0b555f	0.008504241
87	0x3df4c646	0.1195188
88	0x3e99a486	0.30008334
89	0x3df671d9	0.120334335
90	0x3df20acb	0.11818465
91	0x3e5d35fd	0.21602626
92	0x3ded137d	0.11575983
93	0x3d012d38	0.031537265
94	0xbdae0a1a	-0.084980205
95	0x3d87258e	0.0659896
96	0xbc726ac2	-0.014795961
97	0xbe10ec28	-0.14152586
98	0x3e0275f6	0.12740311
99	0x3dfbe767	0.12299996
100	0xbc886dc1	-0.016653897
101	0x3dc8b726	0.09800558
102	0xbe12f2c4	-0.1435042
103	0x3d9a46e4	0.075330526
104	0x3db70c63	0.089379095
105	0x3d9985ef	0.07496249
106	0xbeae113a	-0.33997518
107	0x3d07d629	0.033163223
108	0xbe5d006a	-0.21582189
109	0xbe365bd1	-0.17808463
110	0xbea1ff59	-0.31640127
111	0xbe42b210	-0.19013238
112	0xbe1b1f31	-0.15148617
113	0x3dbfe259	0.09369344
114	0x3dabb53f	0.08384179
115	0xbe9f5e3f	-0.31126592
116	0xbdb9471b	-0.090467654
117	0x3e814abc	0.2525233
118	0x3d4362af	0.047701534
119	0xbe28f059	-0.16497935
120	0xbd8aaccb	-0.06771239
121	0xbdcbffdd	-0.099609114
122	0xbd041d0b	-0.03225426
123	0xbd21d0ba	-0.039505698
124	0xbe84d3b3	-0.25942764
125	0x3e54a293	0.20765142
126	0x3e4bfca3	0.19920592
127	0xbcebbd05	-0.028776655
128	0xbe7e9811	-0.24862696
129	0xbeb1960b	-0.34684786
130	0x3ee91f06	0.45531482
131	0xbe315ce4	-0.17320591
132	0x3dc68899	0.09694023
133	0x3e163bcc	0.14671248
134	0xbde1b94c	-0.11021671
135	0x3c300b52	0.0107448865
136	0x3f2d5677	0.6771006
137	0xbe54999f	-0.20761727
138	0xbeb2acec	-0.34897554
139	0x3ce4e3fb	0.02794074
140	0xbc7db45b	-0.015484895
141	0xbce870f4	-0.028374173
142	0xbf0cff45	-0.5507701
143	0x3c044de3	0.00807521
144	0xbe95bf93	-0.29247722
145	0xbd6fe0ae	-0.05856388
146	0x3f42959d	0.7600954
147	0xbf567e82	-0.83786786
148	0x3cc3195e	0.023815807
149	0x3f2cfbce	0.67571723
150	0x3d43a1b9	0.047761653
151	0xbe5fa7d6	-0.21841368
152	0xbe771fab	-0.24133174
153	0xbe9567bc	-0.29180706
154	0x3e346937	0.17618261
155	0xbf715b90	-0.9428034
156	0xbf177f63	-0.5917875
157	0xbb616f81	-0.0034398737
158	0x3e4b8d52	0.19878128
159	0x3e3ad01b	0.18243448
160	0x3e09340a	0.13398758
161	0xbd0151ef	-0.03157228
162	0x3dd6ff2a	0.104978874
163	0xbe149ce2	-0.14512971
164	0x3cf4b792	0.02987269
165	0x3d107148	0.035264283
166	0x3d0d94e7	0.034565832
167	0xbe4d412d	-0.20044394
168	0xbdae90e6	-0.08523731
169	0x3e20251b	0.15639155
170	0x3d23c7b1	0.039985362
171	0xbd9a60d4	-0.07538
172	0xbe58c05b	-0.21167128
173	0x3d6957af	0.056968387
174	0xbc734bbd	-0.0148496
175	0xbe59731d	-0.21235318
176	0x3d647ad9	0.05578122
177	0x3e202138	0.15637672
178	0xbe9dba0e	-0.3080601
179	0x3e3a7898	0.18210065
180	0xbbb54e75	-0.0055330344
181	0xbc3e4a1c	-0.011614349
182	0xbe619790	-0.22030473
183	0xbd43c164	-0.047791854
184	0x3cd1b566	0.025599193
185	0xbe42198a	-0.18955055
186	0x3e2eaa16	0.1705707
187	0x3e7a1e8d	0.24425717
188	0x3debf2f3	0.11520948
189	0x3e15a44d	0.14613457
190	0x3e61dd9b	0.22057192
191	0xbcb2d911	-0.021832021
192	0xbc4810e3	-0.012211057
193	0xbd2b7ed3	-0.041868996
194	0xbe1bb5da	-0.1520609
195	0x3daa3aab	0.08311971
196	0x3d7794da	0.06044469
197	0x3d0e0ede	0.034682147
198	0x3c506832	0.012720155
199	0xbea64062	-0.32470995
200	0xbe244328	-0.16041243
201	0x3e384a64	0.17997128
202	0xbe34c597	-0.176535
203	0x3df0ca9f	0.11757397
204	0xbdaeb9ec	-0.085315555
205	0x3e6fff3e	0.23437211
206	0x3da06f49	0.07833726
207	0xbd28eb72	-0.041240163
208	0x3cdc3ba5	0.02688391
209	0xbdafa0b5	-0.08575574
210	0xbddba6a4	-0.107251436
211	0xbdd95973	-0.10612764
212	0xbd64a56d	-0.055821825
213	0x3e25abd8	0.16178834
214	0x3d3e3b5d	0.046443332
215	0xbd5faa32	-0.05460567
216	0xbd0d5c20	-0.034511685
217	0x3d8ac588	0.06775957
218	0x3e6bd82d	0.23031683
219	0x3e2f0e34	0.17095262
220	0xbdb88c80	-0.09011173
221	0x3e3fef96	0.18743739
222	0xbda51ac3	-0.08061745
223	0x3da9b619	0.082866855
224	0x3e431a6f	0.19053052
225	0xbe242b03	-0.16032033
226	0x3d98cd75	0.07461063
227	0x3dcbdd85	0.09954361
228	0xbce3d661	-0.027812185
229	0x3e2ec2cc	0.17066497
230	0x3d474b21	0.048655633
231	0xbd8b19f4	-0.067920595
232	0x3cb5f860	0.022213161
233	0xbdea9e85	-0.114560165
234	0xbe145c2a	-0.14488283
235	0xbe239dc3	-0.1597815
236	0x3e600925	0.21878488
237	0x3c143b90	0.009047404
238	0x3ddbe63d	0.10737274
239	0x3d874016	0.0660402
240	0x3dbab3a0	0.09116292
241	0xbd828118	-0.06372279
242	0xbd65024e	-0.0559104
243	0xbdc313e8	-0.09525281
244	0xbe8d3c03	-0.27584848
245	0x3e41d81f	0.189301
246	0xbcda1eac	-0.026625954
247	0xbe6a8846	-0.22903547
248	0x3cb3ba5c	0.021939449
249	0x3dca0897	0.0986492
250	0x3dc72a96	0.097249195
251	0x3dc18c7a	0.09450622
252	0x3df6a3dc	0.120429724
253	0x3e47d6e6	0.19515571
254	0xbd397dc9	-0.045285974
255	0x3e4304d0	0.19044805

bias_ih_l0 f4 [128]
0	0x3d278d91	0.040906493
1	0x3e690f8e	0.2275984
2	0x3d8273d5	0.063697495
3	0x3e4f53b2	0.20246771
4	0x3f0f3ee9	0.5595537
5	0x3e876484	0.26443875
6	0x3e252028	0.16125548
7	0x3d1f4e1b	0.038892847
8	0x3db63dd6	0.08898513
9	0x3e736eb2	0.23772696
10	0x3e90d0a7	0.2828419
11	0x3e81ef36	0.25377816
12	0x3f044cc9	0.51679665
13	0x3e19ede7	0.15032159
14	0x3e157ecf	0.14599155
15	0x3f006103	0.5014803
16	0x3d806864	0.06269911
17	0x3eb66f06	0.3563158
18	0x3ccc5fd0	0.02494803
19	0x3e26d253	0.1629117
20	0x3f0ab468	0.5418153
21	0x3e48fe8e	0.19628355
22	0x3ee39cf8	0.44455695
23	0x3d7fac66	0.06242027
24	0x3ec5d2ba	0.38637334
25	0x3ddf37b9	0.108993
26	0xbc90b924	-0.017666407
27	0x3d8bae94	0.068204075
28	0xbc299531	-0.010350511
29	0x3e882230	0.26588583
30	0x3e805ae1	0.25069335
31	0x3dd99579	0.10624213
32	0x3cb67e62	0.02227706
33	0xbeb07d1d	-0.34470454
34	0xbe88082b	-0.26568732
35	0xbdfeefca	-0.1244808
36	0xbf3ac73a	-0.72960246
37	0xbe32b77b	-0.17452805
38	0xbea142c8	-0.31496263
39	0xbeaa7fe2	-0.33300692
40	0xbe0b3179	-0.13593091
41	0xbe748a47	-0.23880874
42	0xbe019bff	-0.12657164
43	0xbcd058ca	-0.025432963
44	0xbea45989	-0.3209956
45	0xbd1937b7	-0.03740665
46	0xbd1e53c8	-0.03865412
47	0xbf374a34	-0.715976
48	0xbaa80394	-0.0012818449
49	0xbe2f7e14	-0.17137939
50	0xbd949b49	-0.07256181
51	0x3dcd6915	0.100298084
52	0xbf1e5058	-0.61841345
53	0xbdfad2bb	-0.12247225
54	0xbe9e5f52	-0.309321
55	0xbd99584c	-0.074875444
56	0xbe769f4c	-0.24084204
57	0x3dba8b33	0.091085814
58	0x3cbc04d7	0.022951527
59	0x3e137b48	0.14402497
60	0xbcb560e7	-0.022140933
61	0xbf1612ca	-0.5862242
62	0xbf039a2c	-0.5140712
63	0xbea1b4fb	-0.3158339
64	0x3e03c368	0.1286751
65	0x3dd0e86a	0.102005795
66	0xbd4ed8f2	-0.050499864
67	0x3cbdfd74	0.023192145
68	0xbde59eef	-0.11211955
69	0x3c3e12df	0.011601179
70	0x3dd2b968	0.1028927
71	0xbd182652	-0.03714592
72	0xbcf62be2	-0.030050222
73	0x3d8af97e	0.06785868
74	0xbdc22bbe	-0.094809994
75	0x3ce45f4a	0.027877469
76	0xbddb7fff	-0.10717773
77	0xbd140a1b	-0.03614245
78	0xbda762cb	-0.0817314
79	0xbdc09d58	-0.09405011
80	0xbda54a81	-0.08070851
81	0xbe0149a1	-0.12625743
82	0x3e119c57	0.14219795
83	0xbd9fc377	-0.07800954
84	0x3d6942bc	0.05694841
85	0x3d914e73	0.07095041
86	0x3dd93866	0.1060646
87	0xbe061cfc	-0.13096994
88	0x3de08492	0.10962786
89	0xbdb6e3c5	-0.08930162
90	0x3d243480	0.04008913
91	0xbe666ebe	-0.22503182
92	0xbde08a9b	-0.10963937
93	0x3def8f3b	0.11697241
94	0x3cc4e7e4	0.024036355
95	0xbd85c51f	-0.065317385
96	0x3e80a66d	0.25126973
97	0x3e41849f	0.18898247
98	0x3dd5c1cb	0.10437354
99	0x3e813197	0.25233147
100	0x3f331e1f	0.69967836
101	0x3e5a3401	0.213089
102	0x3e47bcbc	0.1950559
103	0x3d9ff85a	0.07811041
104	0xbce2d8b2	-0.027691219
105	0x3e96d3e7	0.29458544
106	0x3d854551	0.06507362
107	0x3e476c18	0.19474828
108	0x3eec7338	0.46181655
109	0x3e05f4ec	0.13081712
110	0x3e31b19f	0.17352913
111	0x3f2ba050	0.6704149
112	0x3e54eb91	0.20792986
113	0x3e93d9e2	0.2887717
114	0x3df8ed9f	0.121546976
115	0x3d41e82f	0.04734057
116	0x3f202447	0.62555355
117	0x3e5b375b	0.21407835
118	0x3ed2e382	0.411892
119	0x3de5effb	0.11227413
120	0x3e325f6f	0.17419218
121	0x3e26acf7	0.16276918
122	0x3e19c361	0.15015937
123	0x3bdebd94	0.006797502
124	0x3e020aa0	0.12699366
125	0x3ef020d4	0.46900046
126	0x3ea0d1d5	0.3141009
127	0x3da74c86	0.081688926

bias_hh_l0 f4 [128]
0	0xbb5dbf7c	-0.0033836057
1	0x3e767b9e	0.24070594
2	0xbd8f8cf4	-0.070093066
3	0x3eba57c1	0.36395076
4	0x3f340d65	0.7033294
5	0x3ca840a5	0.020538637
6	0x3d74250b	0.05960564
7	0x3e5da6ef	0.21645711
8	0x3e324d42	0.17412284
9	0x3ece2490	0.4026227
10	0x3cd82d86	0.026388895
11	0x3e040bbf	0.12895106
12	0x3e8e97ce	0.27850193
13	0x3ee3a150	0.4445901
14	0x3e3f084e	0.18655512
15	0x3f297265	0.6619018
16	0xbcc6cd32	-0.024267767
17	0x3eb29fe2	0.34887606
18	0xbd90e16c	-0.07074246
19	0x3df2f67b	0.11863419
20	0x3f3082ac	0.6894939
21	0x3ec1061a	0.37699968
22	0x3ef237df	0.4730825
23	0x3e01c271	0.1267183
24	0x3e937948	0.28803468
25	0x3dc03bd3	0.093864106
26	0x3d64eaff	0.055888172
27	0xbcbf8248	-0.023377553
28	0xbdbc5e2c	-0.09197649
29	0x3e835996	0.25654286
30	0x3ea3f2ee	0.32021278
31	0x3e203006	0.1564332
32	0xbd8827d9	-0.06648225
33	0xbea32174	-0.3186146
34	0xbce55dc6	-0.027998816
35	0xbea94795	-0.33062425
36	0xbed7ac6e	-0.4212374
37	0xbc3f705b	-0.0116845025
38	0xbe32328f	-0.17402099
39	0xbef4a693	-0.47783336
40	0xbd811df8	-0.06304544
41	0xbe970e3a	-0.29503042
42	0xbddc70bb	-0.10763689
43	0xbdb166bc	-0.08662173
44	0xbea5c638	-0.3237779
45	0xbe5e0c4c	-0.21684378
46	0x3d89d50a	0.06730087
47	0xbf2a760b	-0.6658637
48	0xbe073fee	-0.13207981
49	0xbe750bf5	-0.23930342
50	0xbd35144f	-0.04420882
51	0xbda5dce3	-0.080987714
52	0xbef2f260	-0.47450542
53	0xbe920ec5	-0.28526893
54	0xbf084a96	-0.5323881
55	0xbdd2a9ce	-0.10286294
56	0xbee38b65	-0.44442287
57	0xbe5ec38f	-0.21754287
58	0xbe6c1ea6	-0.23058566
59	0x3daaa9e3	0.083331846
60	0xbd4e486f	-0.050362047
61	0xbeb461b2	-0.35230786
62	0xbec393d1	-0.38198712
63	0xbc6ca235	-0.01444297
64	0xbe1e4b3c	-0.15458387
65	0xbe2ac51c	-0.16676754
66	0x3df4e5fd	0.11957929
67	0xbd04deb3	-0.032438945
68	0x3e140288	0.1445409
69	0x3d33e7a8	0.043922096
70	0xbdaa7edd	-0.083249785
71	0x3c1fa830	0.009744689
72	0x3de3c0ee	0.11120783
73	0xbcd30648	-0.025759831
74	0x3d074310	0.03302294
75	0x3d39052c	0.045170948
76	0x3d9699e8	0.07353574
77	0x3cf83bb0	0.030301899
78	0xbe23434c	-0.1594364
79	0x3d55d8ba	0.05220864
80	0x3c486c47	0.012232847
81	0x3dedd71c	0.116132945
82	0x3d8a8933	0.0676445
83	0xbe51805e	-0.20459124
84	0xbdccda8b	-0.10002621
85	0x3c2bfce4	0.010497306
86	0xbe0cd4e5	-0.13753088
87	0x3defd611	0.11710752
88	0xbe03f648	-0.12886918
89	0x3c85d9c1	0.016339185
90	0x3d305bb2	0.043056197
91	0xbde1a8d8	-0.110185325
92	0xbdc91513	-0.09818473
93	0xbe258d4a	-0.16167179
94	0xba0667cb	-0.00051271607
95	0x3d1e6d49	0.03867844
96	0x3e0b800a	0.13623062
97	0x3ea588b6	0.32330865
98	0xbd53df08	-0.05172637
99	0x3ef593cf	0.47964332
100	0x3f4c5ced	0.79829293
101	0x3dee8c25	0.11647824
102	0x3ec98aa1	0.39363578
103	0x3ec70437	0.38870403
104	0xbda74eac	-0.08169302
105	0x3ea2457a	0.3169363
106	0x3e9cd906	0.30634326
107	0x3e8b148b	0.2716411
108	0x3ef2ad41	0.47397807
109	0x3ea5e348	0.32399964
110	0x3dbf3ffb	0.09338375
111	0x3f2da3ae	0.6782788
112	0x3e67db4d	0.2264225
113	0x3e1ba07c	0.15197939
114	0x3e681509	0.22664274
115	0xbd9bf3fe	-0.07614897
116	0x3f16ae9c	0.5886018
117	0x3ecf72f5	0.40517393
118	0x3f104c94	0.5636685
119	0x3e7abd93	0.2448638
120	0x3eb95ae4	0.36202157
121	0x3e0dbd4c	0.13841742
122	0x3e4eec7e	0.20207402
123	0x3c55024b	0.013001035
124	0xbb19cef1	-0.0023469294
125	0x3eed4a71	0.46345857
126	0x3eaea720	0.3411188
127	0x3e909a58	0.28242755

weight_ih_l0 f4 [128, 2]
0	0x3d671720	0.056418538
1	0x3cd6c106	0.026215088
2	0xbdde2dc5	-0.108485736
3	0x3d0bc93c	0.03412746
4	0x3d92c42c	0.07166323
5	0xbd3f884b	-0.04676084
6	0xbdcd2013	-0.10015883
7	0x3c9316ef	0.017955272
8	0x3cbbdbc1	0.022931935
9	0xbd8716b1	-0.06596125
10	0xbd42ece2	-0.04758919
11	0x3db3d8c4	0.08781579
12	0x3d3320b4	0.04373236
13	0xbcb7a152	-0.02241579
14	0xbde1bdf7	-0.11022561
15	0xbdd02335	-0.10162965
16	0x3d7e98c7	0.06215742
17	0xbd868d46	-0.065699145
18	0x3c4fa8cf	0.012674524
19	0x3d0decc4	0.034649625
20	0xbcd82d9a	-0.026388932
21	0x3d9f06ae	0.07764946
22	0xbce878d9	-0.028377937
23	0xbdd0873a	-0.101820424
24	0xbd95394b	-0.072863184
25	0x3d66b96e	0.056329183
26	0x3d9e6460	0.07733989
27	0xbc52c3e6	-0.012864089
28	0xbe09d94f	-0.13461803
29	0x3cefd1ec	0.029274903
30	0xbd25b7d4	-0.040458515
31	0x3de4469c	0.1114628
32	0xbd3dcd23	-0.04633821
33	0x3d479be6	0.04873266
34	0x3d85749e	0.065163836
35	0x3d934b99	0.071921535
36	0x3cfe3f07	0.031035913
37	0x3d0155e3	0.03157605
38	0xbcc93a3a	-0.024563897
39	0x3c49c4ed	0.012315017
40	0x3da81275	0.082066454
41	0xbc548be0	-0.012972802
42	0xbdd6e17d	-0.10492227
43	0x3dddfce0	0.10839248
44	0x3d0a7269	0.033800516
45	0x3dfa435c	0.12219879
46	0xbe555873	-0.20834522
47	0xbbde4d58	-0.0067841224
48	0x3d59c4e5	0.05316629
49	0x3d0099a9	0.03139654
50	0xbd05a7cc	-0.032630727
51	0x3bc9eff2	0.006162637
52	0x3daedcb4	0.085381895
53	0x3d244ce1	0.04011238
54	0xbe01325c	-0.12616867
55	0x3de7c7f8	0.11317438
56	0xbd6855e4	-0.056722537
57	0x3cf169e9	0.029469447
58	0xbd914723	-0.070936464
59	0x3ccc68cd	0.024952317
60	0x3e418f8b	0.18902414
61	0xbcdc9712	-0.026927505
62	0xbe5de46e	-0.2166917
63	0xbd42d2da	-0.047564365
64	0xbe087f65	-0.13329847
65	0xbe8ffbc8	-0.2812178
66	0x3dac489a	0.08412285
67	0xbcbfccb7	-0.023413045
68	0x3d17aa53	0.03702767
69	0xbe33f9e9	-0.17575802
70	0x3dc1f765	0.09471015
71	0x3d882e96	0.066495106
72	0x3ea0285c	0.31280792
73	0xbe204ffb	-0.1565551
74	0x3da20fa8	0.079131424
75	0xbcd17f94	-0.02557353
76	0x3d0ebf8c	0.034850642
77	0x3e58fd5f	0.21190403
78	0x3d1d4b23	0.038401734
79	0x3e436876	0.19082817
80	0xbe4187e5	-0.18899496
81	0xbe897ef9	-0.26854685
82	0x3e29c894	0.1658042
83	0xbda87700	-0.082258224
84	0x3e245ec4	0.16051775
85	0x3d9bfac3	0.076161884
86	0xbe38d390	-0.18049455
87	0x3e1f1180	0.1553402
88	0xbe37181f	-0.17880295
89	0x3e10c1a9	0.14136375
90	0xbe5a85d9	-0.21340121
91	0x3db34141	0.087526806
92	0x3caa509a	0.020790387
93	0x3e0eb92f	0.1393783
94	0x3e691fd4	0.22766048
95	0x3cb75515	0.022379437
96	0x3d95b801	0.073104866
97	0x3e17e158	0.14832056
98	0xbe2c27be	-0.16812035
99	0xbe3ca79d	-0.18423314
100	0xbd5209f1	-0.051279012
101	0x3e4241a5	0.18970354
102	0xbe70ebdf	-0.23527478
103	0xbd0ff4ab	-0.035145443
104	0xbe95caba	-0.2925623
105	0xbe0b98c1	-0.1363249
106	0x3e0a2cf4	0.13493711
107	0xbd5c2948	-0.053750306
108	0x3dfd4e53	0.12368455
109	0x3dddd0f4	0.1083087
110	0xbe5a4a04	-0.21317297
111	0xbe057d49	-0.13036074
112	0xbdc5186e	-0.096238
113	0x3dd8fb1b	0.105947696
114	0xbb8fd3d9	-0.004389268
115	0xbd450903	-0.048104297
116	0xbd4ad074	-0.049515203
117	0xbdb08fb2	-0.08621158
118	0xbe0e6e3a	-0.13909236
119	0x3c9bd9a8	0.019024685
120	0x3e91f9f0	0.28511
121	0xbe4510cf	-0.19244693
122	0xbbb28b66	-0.0054487465
123	0x3df8ce29	0.12148697
124	0x3e9214be	0.2853145
125	0x3d453e9d	0.048155416
126	0xbdc260ec	-0.09491143
127	0xbe009ce2	-0.12559846
128	0xbc1a7d4d	-0.009429288
129	0x3de0a446	0.10968833
130	0xbd8edb87	-0.06975465
131	0xbe30c646	-0.17263135
132	0xbb83ae93	-0.0040186136
133	0xbe101cb6	-0.14073452
134	0xbd234c0e	-0.039867453
135	0xbe3beeaa	-0.18352762
136	0xbdabb7c2	-0.083846584
137	0x3d8db276	0.06918804
138	0x3e29f910	0.16598916
139	0xbdb5cf0f	-0.08877384
140	0x3da51add	0.080617644
141	0xbdc1a9e2	-0.09456231
142	0x3ea0c0a6	0.3139698
143	0xbc308a79	-0.010775202
144	0x3ec263e8	0.37966847
145	0x3df17940	0.11790705
146	0xbe0c3c02	-0.13694766
147	0x3e9e1a3e	0.30879396
148	0x3e4c91a5	0.19977434
149	0x3e31043e	0.17286775
150	0xbdce4ead	-0.100736
151	0x3e004cf0	0.1252935
152	0xbd93f3a6	-0.072242066
153	0xbd51ac41	-0.051189665
154	0x3ed0035c	0.40627563
155	0x3d958381	0.07300473
156	0xbd71092b	-0.058846634
157	0xbe2db3d0	-0.16963124
158	0xbd8f1525	-0.06986455
159	0x3e1f5580	0.1555996
160	0x3daa199b	0.08305665
161	0xbd592c35	-0.053020675
162	0xbe563678	-0.20919216
163	0x3dc26972	0.09492768
164	0x3c9e2c71	0.0193083
165	0x3e3a8bea	0.18217435
166	0x3d3a3837	0.045463767
167	0x3d847edb	0.06469508
168	0xbde53065	-0.11190871
169	0xbd89b1d5	-0.06723372
170	0xbd920c44	-0.07131246
171	0x3d9c9dba	0.076472715
172	0xbc60a2c8	-0.013710685
173	0xbe20159a	-0.1563324
174	0x3e6d2ed1	0.2316239
175	0x3d975869	0.0738991
176	0x3e412e35	0.18865283
177	0x3d8747cb	0.0660549
178	0xbc9b837e	-0.018983599
179	0x3e4dad23	0.20085578
180	0xbe42dea6	-0.19030246
181	0x3d2ef55c	0.04271446
182	0x3dc728cb	0.097245775
183	0xbe00e7a5	-0.12588365
184	0x3e801b71	0.25020936
185	0x3da8dcd4	0.082452446
186	0x3d8274ea	0.06369956
187	0x3e3ebf7d	0.18627734
188	0x3e94ce57	0.29063675
189	0x3d193dbb	0.037412386
190	0xbdb421ba	-0.08795495
191	0xbd92dc22	-0.07170893
192	0xbe0d0815	-0.13772614
193	0xbe3b37bb	-0.18282978
194	0x3e01d5a0	0.12679148
195	0x3da9edd5	0.08297316
196	0x3d7346e1	0.059393767
197	0xbe5c756d	-0.2152917
198	0x3ce53c42	0.027982835
199	0xbca714b4	-0.020395614
200	0x3cc15ab4	0.023602821
201	0xbe59ed30	-0.21281886
202	0xb9147afd	-0.00014160197
203	0x3d6b5466	0.057453535
204	0x3cf5bfaa	0.02999862
205	0xbd000780	-0.031257153
206	0xbe32fde6	-0.17479667
207	0x3a919b08	0.0011108825
208	0xbdbf83b9	-0.09351296
209	0xbd7e381b	-0.062065225
210	0x3d8a9650	0.06766951
211	0xbe56e2da	-0.20984975
212	0x3e512f8d	0.20428295
213	0x3e0495e6	0.12947807
214	0x3ce392c8	0.027779952
215	0xbe0dc2e8	-0.13843882
216	0x3e33c610	0.17556024
217	0x3dcf7be7	0.10131054
218	0xbe25d93a	-0.16196147
219	0x3dd030cb	0.101655565
220	0xbaafc47a	-0.0013409995
221	0x3e02ab16	0.12760577
222	0xbd6fabe1	-0.058513526
223	0x3e627780	0.22115898
224	0xbddbf348	-0.107397616
225	0x3ccf12e6	0.025277566
226	0xbe2f48d5	-0.17117627
227	0xbe19dd19	-0.15025748
228	0xbe3ef9ac	-0.1864993
229	0x3c85e32b	0.016343674
230	0x3cb867f4	0.022510506
231	0x3d72cd23	0.059277665
232	0xbd865f53	-0.065611504
233	0xbd29bab8	-0.041437835
234	0xbdc7f728	-0.09763938
235	0xbd526985	-0.051370163
236	0x3e198566	0.14992294
237	0x3df2994f	0.118456475
238	0xbe1f0683	-0.15529828
239	0xbde4cb23	-0.11171558
240	0x3e9a45ad	0.30131283
241	0x3e17b405	0.14814766
242	0xbddabe5c	-0.106808394
243	0xbe371607	-0.17879497
244	0xbc240357	-0.010010562
245	0xbdba0da1	-0.09084631
246	0xbdc9d5ac	-0.09855208
247	0x3e313810	0.17306542
248	0x3dc4f742	0.09617473
249	0xbc22ee25	-0.009944473
250	0xba24878d	-0.0006276302
251	0x3c0489cb	0.008089493
252	0x3e6cb855	0.23117192
253	0x3e2756bd	0.16341682
254	0xbdbfbc34	-0.09362069
255	0xbe495b87	-0.19663821

weight_hh_l0 f4 [128, 32]
0	0xbe52e049	-0.2059337
1	0x3d33dd84	0.043912426
2	0xbcae5201	-0.021279337
3	0x3e87437e	0.2641868
4	0x3d1a360c	0.0376492
5	0x3db80e6e	0.08987127
6	0x3d92848f	0.0715419
7	0xbdd2b0c9	-0.10287625
8	0xbe36b8e2	-0.17843965
9	0xbcfabe80	-0.030608416
10	0x3d4a2b5f	0.04935777
11	0x3d403449	0.046924863
12	0x3e473469	0.19453587
13	0x3be1be25	0.006889122
14	0xbcf241e5	-0.029572437
15	0x3cd3138a	0.025766153
16	0x3e423002	0.18963626
17	0xbe12879d	-0.14309545
18	0x3c076588	0.008263953
19	0x3d9b07e0	0.075698614
20	0x3d8fc672	0.07020272
21	0xbd1eb03e	-0.038742296
22	0xbd3405ff	-0.04395103
23	0xbe64fc96	-0.22361979
24	0xbe436e21	-0.1908498
25	0x3c6e3129	0.014538088
26	0xbde8504a	-0.11343439
27	0x3e1f2310	0.15540719
28	0xbd0ffd56	-0.03515371
29	0xbe3f19b6	-0.18662152
30	0xbe448fef	-0.19195531
31	0x3eb5facd	0.35542908
32	0xbc516681	-0.0127807865
33	0xbdb4bcd4	-0.088250786
34	0x3ddecd9a	0.10879059
35	0x3d6988aa	0.0570151
36	0xbe0cc3a0	-0.137465
37	0x3cf216b3	0.02955184
38	0xbe298299	-0.16553725
39	0xbba439b8	-0.0050117634
40	0xbe70df99	-0.23522796
41	0xbd1631d4	-0.036668614
42	0xbe246fc0	-0.16058254
43	0xbe208ee0	-0.15679502
44	0x3d8ab2cf	0.06772386
45	0x3e0f8fc5	0.14019687
46	0xbc3e94a7	-0.011632121
47	0x3d5a4f82	0.05329848
48	0x3db84b90	0.089987874
49	0xbdcf37c0	-0.10118055
50	0x3cafbad8	0.021451399
51	0x3e2a1a6a	0.16611639
52	0x3e774060	0.24145651
53	0xbe5b5793	-0.21420126
54	0x3e4ec089	0.20190634
55	0x3e509b82	0.20371822
56	0x3d67d7b5	0.0566022
57	0xbe713d47	-0.23558532
58	0x3b85065c	0.004059596
59	0xbd8f4941	-0.06996394
60	0xbdd0e621	-0.102001436
61	0x3d9c0d4d	0.076197244
62	0xbc51614d	-0.012779546
63	0x3d8283da	0.06372805
64	0xbd5beea6	-0.05369439
65	0xbdabb164	-0.08383444
66	0x3dcca3f1	0.09992207
67	0x3d15bf2a	0.03655926
68	0xbe423db7	-0.18968855
69	0xbe2042bd	-0.15650459
70	0xbd2b8d90	-0.04188305
71	0x3c739b33	0.014868545
72	0xbe150f8d	-0.14556713
73	0xbea21290	-0.31654787
74	0xbd8c84ec	-0.0686129
75	0xbda69f3f	-0.081358425
76	0xbdac39d7	-0.084094696
77	0x3e93ef3d	0.28893462
78	0xbd95f0b0	-0.07321298
79	0x3d884cc8	0.0665527
80	0x3b135aef	0.002248462
81	0x3d00a3da	0.03140626
82	0xbda5e38e	-0.08100043
83	0xbe0d65ab	-0.13808315
84	0xbd9afba6	-0.075675294
85	0xbc4db75d	-0.012555924
86	0xbe3de0cc	-0.18542784
87	0x3ca37dde	0.01995748
88	0xbd25dde3	-0.04049481
89	0xbe401d18	-0.18761098
90	0xbddf95bc	-0.109172314
91	0xbe27549d	-0.16340871
92	0xbe0efbf9	-0.13963307
93	0x3e0c1628	0.13680327
94	0x3dab8498	0.083748996
95	0xbd6770c8	-0.05650404
96	0x3dfc6e98	0.123257816
97	0xbd963a18	-0.07335299
98	0x3e496e24	0.19670922
99	0x3cbecf9c	0.023292355
100	0xbd4dff9a	-0.05029259
101	0xbd1ee867	-0.038795855
102	0x3de3803c	0.11108443
103	0xbd298a43	-0.041391622
104	0xbd0ca0ec	-0.034333155
105	0x3d85c9ca	0.06532629
106	0xbd27b46b	-0.040943544
107	0xba292eb5	-0.0006453798
108	0xbd8ece59	-0.069729514
109	0xbdd48581	-0.10377026
110	0xbe4de0b8	-0.20105255
111	0xbdf462c7	-0.11932903
112	0xbe7e439a	-0.24830475
113	0xbd17ff47	-0.037108686
114	0xbdf8db07	-0.12151151
115	0xbe0d4c33	-0.13798599
116	0x3d7096e5	0.058737654
117	0x3dc4c9df	0.09608816
118	0xbc893125	-0.016747067
119	0xbdbcdc5b	-0.09221717
120	0xbd25f094	-0.040512636
121	0x3cab92cd	0.020944024
122	0xbc2e43f9	-0.010636323
123	0xbd03779a	-0.032096483
124	0xbdef4fa2	-0.11685111
125	0xbd160a38	-0.03663084
126	0x3d7ad1f2	0.061235376
127	0xbd1b6421	-0.037937287
128	0x3de222c5	0.11041788
129	0xbc41ab58	-0.011820637
130	0x3d79e4b4	0.061009124
131	0xbd2dc3ac	-0.042422935
132	0x3bf47bd2	0.0074610496
133	0x3d308444	0.04309489
134	0x3c9aea05	0.018910417
135	0xbe519495	-0.20466836
136	0x3e261044	0.16217142
137	0xbbdfb851	-0.006827392
138	0xbcf29102	-0.02961016
139	0xbda5a773	-0.08088579
140	0xbd8fc77e	-0.07020472
141	0x3e399a94	0.18125373
142	0xbc9a38a1	-0.01882583
143	0x3dc772e3	0.0973871
144	0xbe875991	-0.2643552
145	0x3db02f21	0.08602739
146	0x3e23c64e	0.15993616
147	0xbd451373	-0.04811425
148	0x3d82f382	0.06394102
149	0x3e2ad813	0.16683988
150	0x3c0bc82e	0.008531613
151	0xbe7f993c	-0.24960798
152	0xbc4f5c29	-0.01265625
153	0x3d737d67	0.059445765
154	0xbe1c14df	-0.15242337
155	0xbd9a5e54	-0.07537523
156	0xbce443f5	-0.027864436
157	0x3e45d301	0.19318773
158	0x3dfcdb42	0.123465076
159	0xb896e517	-7.195229e-05
160	0x3d00c70e	0.031439833
161	0xbe4d1ad9	-0.20029773
162	0xbcbf3875	-0.02334235
163	0xbd31d0bd	-0.04341196
164	0xbe33a5f3	-0.17543773
165	0x3e1991b9	0.14996995
166	0xbde8bc4f	-0.11364042
167	0x3e2c9555	0.1685384
168	0x3e7631ab	0.24042384
169	0xbeb4c2a7	-0.35304758
170	0xbe2312ed	-0.15925188
171	0x3d4f9cc8	0.050686628
172	0xbd3a49fc	-0.045480713
173	0xbd4452d7	-0.047930565
174	0x3b63e9db	0.003477684
175	0xbdaf04ce	-0.08545838
176	0xbe1586ab	-0.14602153
177	0x3d1a6588	0.037694484
178	0xbd765570	-0.060140073
179	0x3e29ae3e	0.16570374
180	0xbe1a0cb2	-0.15043905
181	0xbd8c9564	-0.068644315
182	0xbd9d4df0	-0.07680881
183	0x3dd9031c	0.10596296
184	0x3e0497d8	0.12948549
185	0x3d84fffb	0.06494137
186	0x3e2c6345	0.16834743
187	0xbd0b9a63	-0.03408278
188	0x3c80f5fc	0.015742294
189	0xbe544120	-0.20727968
190	0x3e25babd	0.16184516
191	0xbc8499f1	-0.016186686
192	0x3b0f4aa4	0.0021864558
193	0xbe1b94d0	-0.15193486
194	0x3e2ef4a9	0.17085518
195	0xbc1f2df5	-0.009715547
196	0x3ce9dde7	0.028548194
197	0xbe33d64c	-0.17562217
198	0xbd86ff49	-0.065916605
199	0x3dba4381	0.090949066
200	0x3e0b688e	0.13614103
201	0xbe842993	-0.2581297
202	0x3d654b48	0.055979997
203	0xbdb6c058	-0.089234054
204	0xbe1d4ed1	-0.15362097
205	0x3ebc38d8	0.36762118
206	0xbe9b37e8	-0.3031609
207	0xbe6e0692	-0.23244694
208	0xbd511fb5	-0.05105563
209	0xbe1cc397	-0.15308987
210	0x3e4b7405	0.19868477
211	0x3d4dd162	0.05024851
212	0x3e64b93a	0.22336283
213	0x3d994e32	0.07485618
214	0xbe72f1a7	-0.23724996
215	0xbddea91f	-0.10872101
216	0x3e18fffb	0.14941399
217	0xbde77ab3	-0.113027
218	0xbe3a5387	-0.18195926
219	0x3ce9a141	0.028519275
220	0x3e88f78a	0.26751357
221	0xbd77331f	-0.060351487
222	0xbd849ef6	-0.06475632
223	0x3db05a29	0.08610947
224	0x3cfdbf20	0.030974925
225	0x3e418c96	0.18901286
226	0xbc93ffa6	-0.018066239
227	0x3ce68095	0.028137485
228	0x3e2ef9d6	0.17087492
229	0xbe8e042c	-0.27737558
230	0x3cd35134	0.025795557
231	0x3c21cc6d	0.009875399
232	0xbcd7a370	-0.02632305
233	0xbe27a643	-0.16372018
234	0xbe8296c7	-0.2550566
235	0x3e9dcd36	0.30820626
236	0x3e8cc51a	0.27494127
237	0xbdf3f629	-0.11912186
238	0x3e53b8d3	0.20675974
239	0x3d494e14	0.049146727
240	0xbca3c47d	-0.019991154
241	0xbd8499ed	-0.064746715
242	0xbe02a59d	-0.12758489
243	0xbd0b8dbb	-0.03407071
244	0xbde69811	-0.11259473
245	0xbd6f99da	-0.058496334
246	0xbce67249	-0.028130667
247	0xbc072763	-0.008249137
248	0xbdd61d24	-0.10454777
249	0x3d4f9f7e	0.050689213
250	0x3d8f2dce	0.069911584
251	0x3e1d7ae2	0.15378907
252	0xbe98a560	-0.2981367
253	0xbd076a57	-0.033060398
254	0xbc3473fd	-0.011013982
255	0x3b7b5c96	0.0038354746

bias_ih_l0 f4 [128]
0	0xbdfa5912	-0.1222402
1	0xbe059be2	-0.13047746
2	0x3c2792fc	0.010227915
3	0x3d6971fe	0.056993477
4	0x3c790842	0.015199723
5	0x3dafc0ab	0.085816704
6	0x3e187024	0.14886528
7	0xbd730fad	-0.05934112
8	0x3ae86ba0	0.001773227
9	0x3d34daa3	0.04415382
10	0xbe135970	-0.14389586
11	0xbe2646d2	-0.16237953
12	0xbd5cabcd	-0.05387478
13	0x3e2b5901	0.16733171
14	0xbe320076	-0.17382988
15	0xbcad28f3	-0.02113769
16	0xbce1a866	-0.027546119
17	0x3e037250	0.12836576
18	0x3df961e9	0.12176878
19	0xbe1600bd	-0.14648719
20	0x3de4430d	0.111456014
21	0xbd269b25	-0.0406753
22	0xbe4e0c67	-0.20121919
23	0xbd760e9c	-0.060072526
24	0x3c969ded	0.018385852
25	0xbc843221	-0.016137185
26	0x3d22d45d	0.039753307
27	0xbbf5ec46	-0.0075049726
28	0x3dff4b6f	0.1246556
29	0x3daa0b90	0.083029866
30	0x3e073f87	0.13207828
31	0xbcc643d6	-0.024202269
32	0x3e3b8ef6	0.18316254
33	0xbe0a121d	-0.13483472
34	0xbe072d82	-0.13200954
35	0xbdfd4f15	-0.12368599
36	0xbc6e4b78	-0.01454436
37	0x3df12309	0.117742606
38	0x3da3c35c	0.07996246
39	0x3e8bb872	0.27289158
40	0x3e79476c	0.24343652
41	0x3e46b5c1	0.19405271
42	0x3d82d95e	0.06389116
43	0x3e34ddd9	0.17662753
44	0xbd9e8595	-0.077403225
45	0x3e761799	0.2403244
46	0x3ca9e3d8	0.020738527
47	0xbd9b710c	-0.07589921
48	0xbe04e9a7	-0.12979756
49	0x3e6a54cd	0.22883911
50	0x3e3b3335	0.18281253
51	0x3e3460bd	0.17615028
52	0x3d616287	0.055025604
53	0x3e0e4962	0.13895181
54	0xbdf3b9ef	-0.119006984
55	0x3db8967f	0.0901308
56	0x3c0c7c84	0.008574609
57	0x3dcd66fa	0.10029407
58	0x3d82dfc3	0.063903354
59	0x3e5c9751	0.21542098
60	0xbdc8cc2a	-0.09804566
61	0x3d73c03a	0.059509493
62	0x3cb53ea6	0.0221246
63	0xbd6e69da	-0.058206417
64	0xbd765f46	-0.060149454
65	0x3d0c7baf	0.03429764
66	0x3dfc0972	0.12306489
67	0xbe29857b	-0.16554825
68	0x3d637611	0.05553252
69	0x3d4debf5	0.050273854
70	0x3de94410	0.11389935
71	0x3dcd73ab	0.100318275
72	0x3e26a7ad	0.162749
73	0xbba4460f	-0.0050132344
74	0x3dc4e9be	0.09614895
75	0x3d897f65	0.06713752
76	0x3dd6b46f	0.10483634
77	0x3cc3b32e	0.02388915
78	0x3da4b4fd	0.08042333
79	0xbdbf9969	-0.093554325
80	0xbe10eda1	-0.14153148
81	0xbdb3c5ff	-0.08777999
82	0x3e247938	0.16061866
83	0xbd1be658	-0.03806147
84	0x3c54c4a2	0.012986334
85	0xbe4de2f4	-0.20106107
86	0xbdc690a4	-0.09695557
87	0x3e553b93	0.20823507
88	0xbe1a8087	-0.15088092
89	0xba9e8e2c	-0.0012096814
90	0x3dc204f3	0.094736
91	0x3ca48f99	0.020088004
92	0xbd3085a4	-0.0430962
93	0xbdcb0712	-0.09913458
94	0xbe18df95	-0.1492904
95	0x3c944a35	0.01810179
96	0x3bb416bc	0.005495874
97	0x3e1d1eef	0.15343831
98	0x3e025799	0.12728728
99	0x3dca8b5a	0.098898605
100	0x3e59d8fb	0.21274178
101	0x3e62bd95	0.22142632
102	0x3eb623cb	0.35574183
103	0x3df3be9c	0.1190159
104	0x3dc08404	0.0940018
105	0x3e66954f	0.22517894
106	0x3cac42ce	0.021027949
107	0xbd9955f3	-0.07487097
108	0xbd717fbf	-0.05895972
109	0x3e84daaf	0.25948092
110	0x3d948a1e	0.07252906
111	0x3d975241	0.073887356
112	0x3d87b8d0	0.06627047
113	0xbd666116	-0.056244932
114	0x3e33998e	0.17539045
115	0x3d982ada	0.07430048
116	0xbca08ff5	-0.019599894
117	0x3e220e76	0.15825829
118	0xbd006c43	-0.031353246
119	0xbdb6c9cf	-0.08925211
120	0x3e66059e	0.2246308
121	0x3ca3a36d	0.019975388
122	0x3e47dea5	0.19518526
123	0x3b9892cb	0.004656171
124	0xbd3b7679	-0.04576728
125	0x3da4c996	0.08046262
126	0x3e3742b7	0.17896543
127	0xbb5e1f41	-0.003389314

bias_hh_l0 f4 [128]
0	0x3ddab99e	0.10679935
1	0x3e041b70	0.12901092
2	0xbd740ed7	-0.059584465
3	0xbde53f78	-0.11193746
4	0x3ddfb61b	0.10923406
5	0x3e31a95b	0.1734976
6	0xbdc832f7	-0.09775346
7	0x3d3744f5	0.044743497
8	0x3da4c33f	0.08045053
9	0x3dee2716	0.11628549
10	0x3d7a8480	0.061161518
11	0x3d3df2ee	0.046374254
12	0xbd5a73fd	-0.05333327
13	0x3e34db21	0.17661716
14	0x3d632347	0.055453565
15	0x3cf53e7e	0.029937025
16	0xbda0f571	-0.07859314
17	0x3d49b31a	0.04924307
18	0x3d0122b7	0.031527247
19	0xbe440b21	-0.1914487
20	0x3deea24c	0.116520494
21	0x3d8cd1ad	0.0687593
22	0x3dbecd21	0.09316469
23	0xbe08c13d	-0.13354965
24	0xbdb57a3d	-0.08861206
25	0xbdcb5b73	-0.09929552
26	0x3b82ea8f	0.0039952467
27	0xbdd45647	-0.103680186
28	0x3e1a1c1d	0.15049787
29	0x3ddb9fff	0.10723876
30	0xbc0f24c4	-0.008736793
31	0x3b9c4397	0.0047687995
32	0x3d48846f	0.048954424
33	0x3db07ebf	0.08617925
34	0xbc0475a2	-0.0080846865
35	0xbc9dedcb	-0.019278428
36	0xbb87685c	-0.0041323137
37	0xbd49357a	-0.049123265
38	0xbd30b7d1	-0.04314405
39	0xbc8be8ab	-0.017078718
40	0xbc9526bd	-0.018206948
41	0x3c7b9d52	0.015357332
42	0xbc8edf2d	-0.017440403
43	0x3d9125cc	0.07087287
44	0x3d89814d	0.06714115
45	0x3e81bfe1	0.25341704
46	0xbe0af64b	-0.13570516
47	0xbe196b9a	-0.14982453
48	0xbd7f4f5e	-0.06233155
49	0xbd00081b	-0.03125773
50	0x3d1add87	0.03780892
51	0xbc34c4eb	-0.011033277
52	0x3d42481f	0.04743206
53	0x3d7e404a	0.06207303
54	0x3cd399da	0.025830198
55	0xbd6b49ae	-0.057443313
56	0x3d073527	0.033009674
57	0x3e14aef3	0.14519863
58	0xbccfd585	-0.025370369
59	0xbb67a124	-0.003534385
60	0x3dcd9feb	0.100402676
61	0xbe07f321	-0.1327634
62	0xbdc77fff	-0.0974121
63	0x3df3310a	0.11874588
64	0x3df3ff21	0.11913896
65	0x3d55f940	0.052239656
66	0xbd867274	-0.06564799
67	0xbe078bda	-0.13236943
68	0x3e042010	0.12902856
69	0xbe1a9c8b	-0.15098779
70	0xbdb8ef1c	-0.090299815
71	0x3dcc147f	0.09964847
72	0xbdc8aa48	-0.097981036
73	0x3e5ede88	0.21764576
74	0x3cac9aef	0.021069972
75	0x3e32a755	0.17446645
76	0x3d871a17	0.06596773
77	0x3dc62fcc	0.09677085
78	0x3d6b9e80	0.057524204
79	0x3c589085	0.01321805
80	0xbd579403	-0.05263139
81	0x3daacb7c	0.08339593
82	0xbdfb0dc5	-0.12258486
83	0x3d75b4da	0.059986927
84	0x3d75906c	0.059952185
85	0xbe233291	-0.15937258
86	0x3d0dd71f	0.034628984
87	0x3e135cab	0.14390819
88	0xbdb19e38	-0.08672756
89	0x3e62a3aa	0.22132745
90	0xbde02e28	-0.109463036
91	0x3d146079	0.036224816
92	0xbe446c7e	-0.19182011
93	0xbe0d192e	-0.13779137
94	0x3d9b1bc5	0.07573656
95	0xbe255692	-0.16146305
96	0x3e8a2d9d	0.26987925
97	0x3e048420	0.12941027
98	0x3cdaaa5e	0.026692566
99	0xbe2b6fdd	-0.16741891
100	0x3d220abe	0.039561026
101	0x3e7040ca	0.23462215
102	0x3e8fc904	0.2808305
103	0x3e455def	0.19274114
104	0x3e0c5d67	0.13707505
105	0x3e739d3e	0.23790452
106	0xbd0a3504	-0.033741966
107	0xbd5d9813	-0.054100107
108	0xbd5137e2	-0.051078685
109	0x3df2f8a1	0.118638285
110	0x3e0d9750	0.13827252
111	0x3e34314c	0.1759693
112	0x3e5b81fd	0.21436305
113	0x3b0c4855	0.0021405418
114	0xbd3eb825	-0.046562333
115	0x3d741503	0.05959035
116	0xbd169955	-0.036767323
117	0xbd028d9c	-0.03187333
118	0x3db750fb	0.08950993
119	0x3e4a446b	0.19752662
120	0x3dcbe94d	0.09956608
121	0x3e154eca	0.14580837
122	0xbc86ff88	-0.016479269
123	0x3e429dcc	0.19005507
124	0x3e6b4361	0.22974922
125	0x3e1732c0	0.14765453
126	0x3dd48e35	0.10378686
127	0x3d7b2b60	0.061320662

weight_ih_l0_reverse f4 [128, 2]
0	0x3df96ac6	0.121785685
1	0xbf041852	-0.5159961
2	0x3e94f986	0.2909662
3	0xbdecc70e	-0.11561404
4	0xbe8ec317	-0.27883217
5	0xbf0739e5	-0.52822715
6	0x3d906547	0.07050567
7	0xbef27d26	-0.47361106
8	0xbdf7ae86	-0.120938346
9	0xbea8aeca	-0.32945853
10	0x3e3f23d6	0.18666014
11	0xbf04a4d4	-0.5181401
12	0x3e7f7e2c	0.24950475
13	0x3ed6159f	0.4181337
14	0x3e646e6e	0.2230775
15	0xbeb63d96	-0.3559386
16	0xbe688ac9	-0.22709192
17	0xbf29ce9b	-0.6633088
18	0xbde29535	-0.11063615
19	0x3e5ecffc	0.21759027
20	0xbf01c0d4	-0.5068486
21	0x3e67b34a	0.22626987
22	0x3f11238d	0.5669487
23	0xbd662bf3	-0.056194257
24	0xbdbef927	-0.09324866
25	0xbca342e3	-0.019929355
26	0xbe459ea5	-0.192988
27	0xbe4ca12f	-0.19983362
28	0x3e84547a	0.258457
29	0xbcae3c5b	-0.021269014
30	0x3f1f010d	0.6211098
31	0x3e7dadb4	0.24773294
32	0xbe25f81b	-0.16207926
33	0xbe84952e	-0.25895065
34	0xbc359878	-0.011083715
35	0x3e1917a0	0.14950418
36	0xbe553a39	-0.20822991
37	0xbdef560b	-0.11686333
38	0xbe9d9123	-0.30774793
39	0x3e9acadc	0.30232894
40	0xbe993ab8	-0.2992761
41	0x3e5f86b8	0.21828735
42	0xbe8298f9	-0.25507334
43	0x3f0c7021	0.54858595
44	0xbf6559b0	-0.8958998
45	0x3edb0f0b	0.42784914
46	0x3e9c3940	0.30512428
47	0xbe0325ae	-0.12807342
48	0xbea8d778	-0.3297689
49	0x3ec2b10a	0.38025695
50	0xbf205f8a	-0.6264578
51	0xbebe6d60	-0.37192822
52	0x3df560e4	0.11981371
53	0x3e930a54	0.28718817
54	0xbdcdbde9	-0.10045988
55	0x3eb3746d	0.35049763
56	0x3e37abf1	0.17936684
57	0x3d60a7e1	0.0548476
58	0x3e2646f8	0.1623801
59	0x3e7e8c8f	0.24858306
60	0xbdff6d0e	-0.124719724
61	0x3d8050b0	0.0626539
62	0x3dad0bc0	0.08449507
63	0xbca8b1a4	-0.020592518
64	0xbd8732dc	-0.066014975
65	0xbe3f8e51	-0.18706633
66	0x3e9dc9cc	0.3081802
67	0xbe88c1d9	-0.26710394
68	0xbe837506	-0.2567522
69	0xbebd7de5	-0.37010112
70	0xbd0ed508	-0.03487113
71	0xbedf90f0	-0.43665266
72	0xbe03578e	-0.12826368
73	0xbe21d6dd	-0.1580462
74	0x3e8740f9	0.26416758
75	0xbdc905af	-0.09815537
76	0x3c8ea7ba	0.017413963
77	0x3ecdd092	0.4019819
78	0x3e87d7aa	0.26531726
79	0xbe03f956	-0.12888083
80	0xbbf07e2b	-0.007339259
81	0xbe29e691	-0.1659186
82	0x3d81b20e	0.06332789
83	0xbe1f9345	-0.15583523
84	0xbe029fe6	-0.12756309
85	0x3d635e56	0.055509888
86	0x3e4fde57	0.2029966
87	0xbca3e63e	-0.020007249
88	0x3dd0dba3	0.101981424
89	0x3da9a9de	0.08284353
90	0x3b33b258	0.0027419534
91	0xbd12ca35	-0.03583737
92	0x3e37a4d7	0.17933975
93	0xbe29c92b	-0.16580646
94	0x3e82d639	0.25554064
95	0x3e207c9a	0.15672532
96	0xbd6077b3	-0.054801654
97	0xbe98d22f	-0.29847857
98	0x3c94372f	0.01809272
99	0x3e85c1bf	0.2612438
100	0xbe021729	-0.12704147
101	0xbc34e756	-0.011041483
102	0xbe6f8923	-0.23392157
103	0x3e1bceed	0.15215655
104	0xbe80745e	-0.2508878
105	0x3e909a8e	0.28242916
106	0xbe58cf92	-0.21172932
107	0x3e91e5f5	0.28495756
108	0xbde41115	-0.11136071
109	0x3d3d3972	0.046197362
110	0x3cd7bba4	0.026334591
111	0xbe3dae47	-0.18523513
112	0xbd090ccf	-0.03345948
113	0x3cbfefc5	0.02342976
114	0xbe7c1080	-0.24615669
115	0xbeb2d777	-0.34930012
116	0x3dfa3d85	0.12218765
117	0x3e394696	0.18093333
118	0x3c12c4c6	0.008958047
119	0x3d906d67	0.07052117
120	0xbe13b453	-0.14424257
121	0x3e584ee5	0.21123846
122	0x3e92c9e6	0.2866966
123	0x3e3d6c5c	0.18498367
124	0xbd2ba77e	-0.04190778
125	0x3d97486f	0.073868625
126	0x3dfb4978	0.122698724
127	0xbdfb2b23	-0.12264087
128	0xbc6b3183	-0.014355066
129	0xbea483dc	-0.3213185
130	0xbcc705a3	-0.02429468
131	0x3ea7a7d4	0.3274523
132	0x3cd4b8fc	0.025967114
133	0x3e8e40b2	0.27783734
134	0xbda92b05	-0.082601584
135	0xbeb5181e	-0.35369962
136	0x3e81217a	0.25220853
137	0x3f1540d7	0.5830206
138	0x3ee62d55	0.4495646
139	0xbe939b58	-0.28829455
140	0xbe3b9433	-0.18318252
141	0xbf060eb5	-0.5236619
142	0xbf5aff11	-0.8554545
143	0x3ec8f12c	0.392465
144	0xbe0c7992	-0.1371825
145	0xbea33df9	-0.3188322
146	0xbe980582	-0.29691702
147	0x3f1095f7	0.5647883
148	0x3f0ebbe4	0.5575545
149	0x3d0f60e2	0.035004504
150	0x3f1c7a6e	0.6112431
151	0xbe501ed6	-0.20324263
152	0x3e451935	0.19247897
153	0x3d3757a1	0.044761304
154	0x3e43ced5	0.19121869
155	0x3e8710de	0.26380056
156	0x3d492f5c	0.04911743
157	0xbe8583ca	-0.2607711
158	0x3f392408	0.72320604
159	0x3e7b607c	0.24548525
160	0x3e102849	0.14077868
161	0x3e04c39c	0.12965244
162	0x3e6a30b7	0.22870146
163	0x3eba9518	0.36441875
164	0xbcd36254	-0.025803722
165	0xbed7a69e	-0.42119306
166	0xbf087f3c	-0.53319144
167	0x3e69a826	0.2281805
168	0xbeae4eab	-0.34044394
169	0x3e035af7	0.12827669
170	0x3e346326	0.17615947
171	0xbe7cb1bf	-0.2467718
172	0xbf2ccadf	-0.67497057
173	0x3e0ee3f7	0.13954149
174	0xbc9ccfcd	-0.019142056
175	0x3e84c22e	0.25929397
176	0xbec44ad1	-0.3833833
177	0x3f358414	0.7090466
178	0x3f10c45b	0.56549615
179	0x3f07a9b3	0.52993315
180	0xbe029550	-0.1275227
181	0xbeb6c502	-0.3569718
182	0xbe0f0e1d	-0.13970228
183	0xbe8e9f79	-0.27856043
184	0xbeff9edc	-0.49925888
185	0x3e3db8ce	0.18527529
186	0x3ef30439	0.4746416
187	0x3e4cff2d	0.20019217
188	0x3e54c658	0.20778787
189	0xbe3d4d89	-0.18486609
190	0x3ebd0ee1	0.36925414
191	0xbe65e394	-0.22450095
192	0x3e0d3e00	0.13793182
193	0xbe29f8c6	-0.16598806
194	0x3e4854a1	0.19563533
195	0xbe3e933d	-0.18610854
196	0xbe532608	-0.20619977
197	0xbf0211bb	-0.50808305
198	0xbe838c60	-0.25693035
199	0xbe9cc207	-0.3061678
200	0xbe005f2f	-0.1253631
201	0xbcbe7d62	-0.023253147
202	0x3df280da	0.11840983
203	0xbe36e1f5	-0.17859633
204	0xbd6b56e4	-0.057455912
205	0x3e8113ac	0.2521032
206	0x3ea185fb	0.3154753
207	0xbea120b8	-0.31470275
208	0xbeb7e913	-0.3592001
209	0xbf083c70	-0.5321722
210	0xbcd1c932	-0.025608633
211	0xbc7503b4	-0.014954496
212	0xbd1fe649	-0.039037976
213	0xbdb4716b	-0.08810695
214	0x3f149a6a	0.5804812
215	0x3cdd026c	0.026978694
216	0x3d0a63ed	0.033786703
217	0xbde14958	-0.11000317
218	0xbed4dc7a	-0.4157446
219	0x3de45072	0.11148156
220	0x3e580c0a	0.21098343
221	0x3e068a72	0.1313875
222	0x3ebace98	0.36485744
223	0x3e8f87f4	0.28033412
224	0x3e545786	0.20736513
225	0xbe880c46	-0.26571864
226	0x3ea36060	0.31909466
227	0x3cfbcfd6	0.030738752
228	0xbe70cca1	-0.2351556
229	0xbdc53f46	-0.09631209
230	0xbecb1806	-0.39666766
231	0x3ea0336c	0.31289232
232	0xbe969c0d	-0.29415932
233	0xbe07f81b	-0.13278238
234	0xbe9377aa	-0.28802234
235	0x3f576657	0.84140533
236	0xbf1cc4f6	-0.6123804
237	0xbd3dd4b4	-0.046345428
238	0xbcbb694e	-0.022877362
239	0xbd3a56aa	-0.045492806
240	0xbe6586e3	-0.22414736
241	0x3ee48ff2	0.44641072
242	0xbea4f6d3	-0.32219562
243	0xbf14c639	-0.58114964
244	0x3db86e5e	0.09005426
245	0x3f01a787	0.5064625
246	0xbe007f86	-0.12548646
247	0x3e5adabd	0.21372505
248	0x3f018746	0.50597036
249	0xbe0f4f06	-0.13994989
250	0x3e1e1b5c	0.15440124
251	0xbd2f0a25	-0.042734284
252	0xbdd1b5b1	-0.10239733
253	0x3d9acd59	0.07558698
254	0x3dbbe13a	0.09173818
255	0xbd72716b	-0.059190195
