TS-CVAE/experiments/pedestrians/models/univ/models_22_Jun_2021_00_41_15_univ_ar3/model_registrar-51.pt (torch_old, 545378 bytes, 43 tensors)

weight_ih_l0 f4 [128, 6]
00000000: 4c16 633e cb93 9f3e 4ada 4abe ed0b dcbd
00000010: 5b82 3fbe ffd8 323d bfa5 4abe 2056 94be
00000020: 004b dfbd fc8d 133e dcf8 da3b a607 b23d
00000030: d0fa ad3c 0647 1ebb cb63 4abe 8a8f 1ebe
00000040: 527b 5ebe 0f50 923d 453b d33c 4c9c 673e
00000050: 3ac6 acbb eb92 fbbd dba6 4bbc 99e9 583e
00000060: be1e 75be 0f66 0fbd e2be c33d 8ad1 8d3e
00000070: adc4 abbc d8c4 32be 1fee 7a3e 5221 b53d
00000080: 3725 98bc f76c 403e fa33 353d db8f 8ebd
00000090: 8665 40be e532 923c a489 acbd 43d7 0bbd
000000a0: aee3 e9bd 2c12 ccbd 567c f9bd 65ef be3e
000000b0: 452b 233e 3cec 21be 60fd b8bc 99f6 5f3d
000000c0: 2921 673e bf15 9d3e cf64 4a3e 0f74 c1be
000000d0: 887e b1bc dd78 79bd 12d5 7cbe b096 cebe
000000e0: 4899 4cbd a99f aa3e c573 4b3d 6a7c 6abd
000000f0: 4c7c 433e 6e04 61bd ac48 92be 7fa7 bd3d
00000100: 57e7 77be 8e04 053e e0be 9dbd 30ff 36bd
00000110: 9f84 29bd f5b3 173e f740 513e 631d c43d
00000120: f619 ad3d 3c1b ba3d 6711 f3bc cf83 45be
00000130: 8fd0 113d 1b4c 80bd 7f23 823b 60d0 3b3e
00000140: 678c e43d bda3 b33c 905f a43d ef37 59bc
00000150: db24 c8bd d9c7 aebd 0dc6 f9be c1f2 b73d
00000160: 2c63 2a3e 6b38 88bd 10f9 20be d6fe febb
00000170: b8c6 823e 98fe 993d 3e0e e9bd eb02 7d3e
00000180: 81d3 0c3d fa38 b73e 2044 723e ef3a 2fbe
00000190: c75b d03c 34b7 70be d6c1 e839 6cc1 07be
000001a0: 625c 3f3d 4d0f 41bd cc94 733d 3b6e d03c
000001b0: 0d4f 363d dcff 88be 49ed 063e 61ae ca3e
000001c0: 70cb 843e 325a 283e a5de 25bb bd57 ef3c
000001d0: 1841 7bbe 5873 e63d 81fa 943e 5b08 723e
000001e0: 555a 8dbe 3c8a a63d 4ae8 423e 978e 2ebe
000001f0: 23cc d43d 579c a5bc c74f f63d 2589 873e
00000200: 2f96 52bb 36a8 e7bd a7bf 38be 3935 bf3c
00000210: b1c1 513a 9a16 44be 45ba c8bd 4abb 54bc
00000220: de9a 7d3b 275c 27bd e0ef 9a3a 0f43 883b
00000230: 2103 a43d 4d75 e0bd ac23 e0bb b7a4 c33d
00000240: 8b59 083e 63f1 023e b738 71be fca0 31be
00000250: 9b88 a9be 4468 01be 6ce4 2bbd 6f41 e63d
00000260: 4e5c 44be 6802 2abd 16be d93d f544 5dbd
00000270: 4924 643e f503 debd 337f d5be 1f1d 9d3e
00000280: 24e7 533c 0dc4 413e 223c 03be 9c64 b83d
00000290: 4924 f83e 1d76 043f 4fd0 863d 8b80 123e
000002a0: c425 ce3d 02c2 6cbd 8d1a 4ebe 309a 803e
000002b0: 8147 443e f5c6 493e 46f4 c6bd 5774 4cbe
000002c0: f6c7 71be fb74 4e3d 93c1 3cbd e244 d33d
000002d0: be58 16be 58dd babd d252 6f3e 5544 80bd
000002e0: 5d16 3dbe aca2 05be 6ce2 8fbd e922 c73d
000002f0: 9bbe 393c ca3f 873d 497f 88bd 71e4 1dbc
00000300: f5be 7c3e 50fb 8a3e 3b77 52be d01a 2abe
00000310: e4b3 c7bd d02a 98be a5e7 b73d c470 53bd
00000320: b350 f5bb 12b8 903d 2370 673e d4f9 d2bc
00000330: 4cb7 9abd c5cb 2e3d 05a3 b2bd d5e0 12bd
00000340: 4a97 20be 980b 8bbd 6536 9cbc 2415 cf3d
00000350: d1fa 46bc bf69 5cbe 1fa8 e2bd 4ff1 32be
00000360: 3f69 a83d 5d53 e5bd 9bc9 c13d 1028 043e
00000370: 8091 71be 55f4 71bd eebf a93d b2d0 5bbb
00000380: a00a 5f3d dbc3 e8bd efef 23be 67bb 17be
00000390: 993e 9a3d d72d 92bc e818 3dbc 8906 ab3c
000003a0: 8441 25be f745 95bc 2337 8a3c 3dcd dfbc
000003b0: 4ea5 473e e568 2fbe 4dc5 93bc f2c8 a7bc
000003c0: 929a 4d3e 1ea1 473d 264f 35be de45 21be
000003d0: 739f 0ebe 439e 803d 24b4 a1be 6f83 0abe
000003e0: ff69 8f3e b0a5 703e d6ab 6d3e 41ae 013e
000003f0: 7592 433e 52bc d8bd 93a5 66bd e197 b13d
0.22176474 0.31167445 -0.19809833 -0.10744462 -0.1870207 0.043663975 -0.1978979 -0.28971958
-0.10902977 0.14409631 0.0066824984 0.08692865 0.02123776 -0.002415122 -0.1976463 -0.15484443
-0.2172673 0.07144176 0.025785098 0.22618216 -0.005272654 -0.12283882 -0.012429918 0.2118286
-0.23937508 -0.03500944 0.095578924 0.27698928 -0.020967806 -0.17457902 0.24504898 0.08844246
-0.018572433 0.18791567 0.04423902 -0.06961032 -0.18788728 0.017846534 -0.0842469 -0.034140836
-0.114203796 -0.099644035 -0.12181918 0.3729202 0.15934475 -0.15812773 -0.022581756 0.054678533
0.22571243 0.30680653 0.19765018 -0.37783858 -0.02166678 -0.06090628 -0.24690655 -0.4034934
-0.049950868 0.33324936 0.049670953 -0.057247557 0.19090384 -0.054935865 -0.2857107 0.09260463
-0.24209343 0.12990019 -0.07702422 -0.04467696 -0.041386243 0.14814742 0.20434938 0.095759176
0.08452217 0.09087226 -0.029671384 -0.19288562 0.035599288 -0.06264516 0.0039715166 0.18341208
0.11159592 0.021928662 0.080260396 -0.0132579645 -0.097726546 -0.08534212 -0.48783913 0.089818485
0.16639394 -0.06651386 -0.1572001 -0.0077818437 0.25542235 0.07519263 -0.113796696 0.24708144
0.034381393 0.35785657 0.236588 -0.17112325 0.025434388 -0.23507386 0.00044394907 -0.13257378
0.046718962 -0.047133733 0.059468076 0.025443187 0.044508982 -0.26757705 0.13176455 0.39586166
0.2593646 0.16440657 -0.0025309708 0.029216642 -0.2453655 0.11252469 0.2909737 0.23636
-0.2760798 0.08131835 0.19033924 -0.17046581 0.103904985 -0.02021615 0.12026935 0.2647182
-0.0032132973 -0.113113806 -0.1804186 0.023340808 0.00080015796 -0.19149247 -0.09801153 -0.012984106
0.0038697044 -0.040859368 0.0011820756 0.0041583846 0.08008409 -0.10959873 -0.00684019 0.09552901
0.13315408 0.12787394 -0.23556791 -0.17346567 -0.33112034 -0.1263743 -0.041965887 0.11242949
-0.19175836 -0.0415062 0.10631959 -0.05402084 0.22279467 -0.108405985 -0.41698608 0.3068628
0.012933526 0.18922444 -0.12815908 0.09003565 0.48465183 0.51742727 0.065827005 0.14306848
0.10065797 -0.057802208 -0.20127316 0.25117636 0.19167902 0.19704802 -0.0971456 -0.19966255
-0.23611435 0.05040453 -0.046083044 0.10315873 -0.1468229 -0.09124249 0.23371437 -0.06263033
-0.18465562 -0.13050336 -0.070256084 0.097234555 0.011336948 0.06603964 -0.06664903 -0.009636984
0.2468222 0.2714486 -0.20553295 -0.1661179 -0.09751108 -0.29720163 0.089797296 -0.051621214
-0.0074864267 0.070663586 0.2260137 -0.025753893 -0.07554492 0.0426748 -0.087225 -0.035858948
-0.15682712 -0.06789321 -0.019068906 0.10111454 -0.01214476 -0.21524714 -0.11067223 -0.17474864
0.08223199 -0.11197541 0.09462281 0.12905908 -0.2359066 -0.059070904 0.08288561 -0.003354114
0.054453492 -0.113654815 -0.16009496 -0.14817582 0.07531471 -0.017844124 -0.011541583 0.02087714
-0.16138273 -0.018221838 0.016871994 -0.027319545 0.19496652 -0.17129858 -0.018038416 -0.02048156
0.20078495 0.048737638 -0.17705974 -0.15749308 -0.13928013 0.06280186 -0.3158275 -0.135267
0.28010556 0.23500705 0.23210081 0.12664129 0.19098838 -0.10582794 -0.056310248 0.08671547

weight_hh_l0 f4 [128, 32]
00000000: 59dd cb3c 07bb 30be 8d7f 723d 9f09 783e
00000010: df22 5e3e 8a9c a1bc 3e72 f8bc fa22 efbd
00000020: b80e 82bd 9782 633e ee12 4e3c d991 7c3e
00000030: de50 59be 5d28 043e 266c b13e 780d 24bd
00000040: d848 43bd 11ed eabd 7707 babd 1505 f33c
00000050: d890 85be d45b 18bd 6e5d 9cbd 820c 8dbe
00000060: 733f ee3d a0bb 44be 4d2b 013e a2c2 f23e
00000070: 8f60 653e 0c36 ed3d 80d3 d23d 348b 64be
00000080: f244 623e 601c 47be 9b6f 543e d483 683d
00000090: 0380 513e 1cb6 453e 1ac8 913d 25d2 0cbe
000000a0: 0a34 a43d 6ff7 c23c 9888 73be 5788 28bd
000000b0: bacd 9fbe 6c7c e33d 89d5 7d3e 2f94 66be
000000c0: ec25 93bd cd0e 183e 681c 26be 9c26 e73c
000000d0: 7c1a c2bd 781e 883d 186e 05be 2723 25be
000000e0: 00a1 60bd 9060 81be dd82 5dbd 6c74 8e3d
000000f0: d8ab b8bb c56e 7c3d 73c1 073e 2b56 20be
00000100: 6a4e 013e 25ec 37be eddc 42bd 53c9 3c3e
00000110: a907 683e 5693 013e 3e17 26be 415c 6ebe
00000120: 65c4 76bd 1368 7d3e 3730 30be 81ce 133e
00000130: d365 ccbd 7876 24be 0aac 703e 1759 82be
00000140: 1573 513d b96d 64bd b9a7 7c3d 17ec e8bd
00000150: fa54 b03d 1af7 0b3e 25c9 fa3c 4d2d 0d3e
00000160: dfae f63d 32ce fa3b a997 013e da50 8a3e
00000170: ac09 363e 4333 fb3d 76ef a2bd 2929 3d3d
00000180: 5bf0 df3d bca0 bdbc 30fe 253e 1cd5 703e
00000190: 831e 05bc 8591 b4bc ac06 733c 69d5 ad3c
000001a0: db86 5fbe e231 ed3d a442 3dbe 23f2 94bd
000001b0: f663 84be 321e 70be 7dea 683d 4dd4 9fbe
000001c0: c3c5 80be 066c 7c3e 9526 8cbe d54b 73bc
000001d0: cdf7 3ebe d6f2 543e 2b1f 9a3d 48bc 45be
000001e0: 8075 26be bdbf 11be 40d1 5bbd 1bad cd3e
000001f0: fc48 c23b ee3d 1d3e d2d2 653e 7454 b03c
00000200: 2f9e 08be 6ec1 39be db8d 983e c774 0abe
00000210: ad21 5f3e 3cc4 46bc 39d5 ea3b cb68 09bb
00000220: 096e 253e 1881 3fbd d856 9cbe edb8 f83c
00000230: 63df eabc 1005 283d 60fb 4bbe 9e5e bdbe
00000240: 2736 b5be b589 103c c5aa d13d 55d3 95be
00000250: bb70 833b 0ad3 b53e 115d 84bc fe9e 87be
00000260: 62d9 433d 1a33 c6be c607 4b3d c507 a0be
00000270: adad 12be 8806 56bd 2dda 713e e16a 9ebd
00000280: 998f d43d 45f9 b1bd ae9b c63d e6e2 1abe
00000290: ad19 3ebd cca9 243c 4e88 3ab9 82b6 8cbe
000002a0: e594 8bbe 31f1 c23d 7baf 9e3d 1357 f5bd
000002b0: 3e76 97be c91e a93d 821c cf3d fb53 8bbe
000002c0: 11d4 01be bb58 5b3e 1e44 a6be 9462 4d3e
000002d0: 7357 45bd 2216 d4bd 2db7 13be 6faa aebd
000002e0: 5b40 84bd 1245 06be bbac 583e 41e2 a03e
000002f0: 106d 4c3e 892c 203e 2794 2d3e 75c9 6d3d
00000300: efb6 133e 12bd febb 8a1c e3bd 873d 5c3e
00000310: ea45 1c3e 815e 30b9 67c2 8e3d 86e7 b9be
00000320: 48ce a4be 6cb6 2f3e f5a2 1ebe d2f6 f2bc
00000330: 092f 1cbe 2ef0 4f3e 8524 313e ad42 fbbd
00000340: a79a 30be 9a77 9cbd d5c6 19be c309 0abd
00000350: 281e 4fbd 35c1 603e 1f29 383d f9a4 b1bd
00000360: f33b 42be a41f 27bb 34eb 933e 5033 513e
00000370: f853 37bc 2479 693e bc94 acbd 7e69 523c
00000380: 05a3 8a3e 8325 84bd 1ed5 ca3d 4cdf 323e
00000390: 6323 7f3c a50b 0e3e 40b8 273e 6655 10be
000003a0: 887f b3be 6ca3 82bc eb11 41be 85fa 1abe
000003b0: fdbe 933d af53 01bd 0543 953e 79d5 323d
000003c0: 96c1 2cbd 6a93 8dbc 1c0e aebe b625 093e
000003d0: a275 8dbe 7cc3 cf3d 9e71 efbd 0464 86be
000003e0: 11b2 c8bc 8190 59bb eaac 6d3e 251b a23e
000003f0: 1627 b93e 1181 573e e6b0 e73c d6c3 c63d
0.02488582 -0.17258845 0.059203673 0.2422242 0.2169299 -0.019727964 -0.030327912 -0.11676593
-0.06350464 0.22217785 0.012577755 0.24665011 -0.21222255 0.12906022 0.34652823 -0.040051907
-0.04767689 -0.11470998 -0.09083455 0.02966551 -0.2608707 -0.03719695 -0.07635008 -0.27548605
0.11633196 -0.19212198 0.12614174 0.47414118 0.22400115 0.11582574 0.10294247 -0.22318727
0.22096613 -0.19444418 0.20745699 0.056766346 0.20458989 0.1930775 0.071182445 -0.13752039
0.08017738 0.023799626 -0.23782575 -0.04114565 -0.31211644 0.11107716 0.24788488 -0.22517465
-0.071849674 0.14849396 -0.16221774 0.028216653 -0.09477708 0.066464365 -0.13030279 -0.16126691
-0.05484104 -0.25268984 -0.05407988 0.069557995 -0.0056357197 0.061629076 0.13257389 -0.1565787
0.12627569 -0.17961176 -0.047573972 0.18436174 0.22659172 0.1265386 -0.16219804 -0.2327738
-0.06024589 0.24746732 -0.17205893 0.14434244 -0.09980359 -0.16060817 0.23503128 -0.25458595
0.05113514 -0.055768702 0.06168339 -0.113731556 0.08609958 0.1366848 0.030613491 0.13786812
0.12045073 0.007653975 0.1265551 0.2701481 0.17777127 0.12265637 -0.0795583 0.04618183
0.10934516 -0.023147933 0.16210246 0.23518795 -0.00812495 -0.022042045 0.014833134 0.021219926
-0.21828787 0.1158178 -0.18482453 -0.072727464 -0.25857514 -0.23449019 0.05686425 -0.3121666
-0.2515088 0.24650583 -0.27373186 -0.014849623 -0.18649216 0.2079576 0.07525476 -0.19310105
-0.1625576 -0.14233299 -0.053666353 0.40171131 0.0059291106 0.15355656 0.22443703 0.021524645
-0.13341592 -0.18140194 0.29795727 -0.1352111 0.2179019 -0.012131747 0.0071665314 -0.0020967002
0.16155256 -0.046753973 -0.30535007 0.030361617 -0.028670972 0.041020453 -0.1992011 -0.3698625
-0.35392877 0.008821894 0.1023765 -0.29262796 0.0040112413 0.35512573 -0.016157659 -0.2648849
0.047814734 -0.38710862 0.04956796 -0.31255928 -0.14324065 -0.052252322 0.23618384 -0.07735229
0.103789516 -0.086901225 0.09697662 -0.15125617 -0.046411205 0.010050248 -0.0001778912 -0.27482992
-0.27262035 0.0951866 0.07748314 -0.11979499 -0.295824 0.08257825 0.10112859 -0.2721251
-0.12678553 0.21420567 -0.32473844 0.20057136 -0.0481791 -0.10355784 -0.14425345 -0.085286014
-0.06457587 -0.13112286 0.21159641 0.31422618 0.19963479 0.15641989 0.16951047 0.058053453
0.14425252 -0.007774004 -0.11089428 0.21507846 0.15261045 -0.00016819873 0.06970673 -0.3630945
-0.3218863 0.17159432 -0.1549185 -0.029658709 -0.15252317 0.20306465 0.17299087 -0.12268577
-0.17246495 -0.0764 -0.15017255 -0.033700716 -0.05056587 0.21948703 0.04496109 -0.08674044
-0.18968181 -0.0025501037 0.28890383 0.2042973 -0.011189453 0.22800118 -0.08426806 0.012842534
0.270775 -0.06452467 0.0990393 0.17467993 0.015572402 0.1387163 0.1637888 -0.14095077
-0.35058236 -0.015947066 -0.18854491 -0.15134628 0.072141625 -0.031573948 0.29152694 0.043660615
-0.042176805 -0.017282207 -0.3399514 0.13393292 -0.2762881 0.101447076 -0.11691593 -0.2624818
-0.024498971 -0.0033197703 0.23210493 0.31661335 0.36162633 0.21045329 0.028282594 0.097053215

bias_ih_l0 f4 [128]
00000000: 1382 083c ed36 353e 2253 503d 2474 363e
00000010: b781 ef3e 07f9 8f3e 645f 993d b47b a3bd
00000020: 5205 6a3d 8162 fd3d 507b ac3e 1095 5b3e
00000030: 92c2 193f 9b51 ac3c 2cf1 2d3e 781d 143f
00000040: 30db a83d 7766 803e 2c2a b13c 908b 253e
00000050: 3490 053f 6681 8b3d 41d8 893e 1925 3f3d
00000060: 2597 363e 250f 283e bef6 e73d c786 d43d
00000070: c9ea 733a f828 903d 9670 803d 5c31 283d
00000080: e4f5 b4bb e489 d2be 118d 76be 4aac 12be
00000090: bb51 35bf a594 38be 8f0a 97be a029 6fbe
000000a0: 35e0 15be f69f 03be 3987 f2bd d604 c0bc
000000b0: 9df0 c5be f67e 733d bf65 973c c695 29bf
000000c0: 5094 1dbd 6812 56bd 66ca d4bd 46f6 aa3d
000000d0: 2e56 1ebf 87a0 efbc 3fd4 45be 48cc 16bd
000000e0: 3dc4 a9bc bd24 483d 1a01 33bd ad33 173e
000000f0: 5a7d 1cbd 03a3 b0be d84a b0be 5749 52be
00000100: 414d 153e 42bb ea3d b547 58bd 834d 0e3d
00000110: 486c cebd 035c 883a 701f ec3d 1371 4cbd
00000120: cd2c 883c b049 8f3d bbb9 b3bd 7b1a da3c
00000130: 4d7a d5bd 63a3 2bbd 44f6 d2bd abd6 e2bd
00000140: 1473 bebd 8243 f5bd 5aa1 143e d6fc 70bd
00000150: e8d8 6d3d 8682 a63d e344 c73d 43a8 15be
00000160: 6d64 f23d 451a b3bd ed25 4d3d 0137 47be
00000170: 2aaf ecbd 93b3 f43d e0f3 b33c 0b12 65bd
00000180: ffb6 603e 1532 1b3e 0621 d73d 195d 833e
00000190: 88e4 213f d48c 763e 686b e03d 428d 15bd
000001a0: c10d 73bd 90eb 413e d3ef ff3d 1ea1 273e
000001b0: c934 0e3f 581b 15b9 e471 463e b0ff 413f
000001c0: eef7 703e 7fbf 283e d37c e83d 99f7 3e3d
000001d0: eb13 1e3f 80c3 c23d 9419 793e 9976 ce3d
000001e0: 3d26 c3bc 5195 4b3e a354 9e3e 3b82 363d
000001f0: f91a 123e 0a33 8a3e eb78 0f3e ab08 8d3c
0.008331793 0.17696734 0.05086053 0.17817742 0.46778652 0.2811968 0.074888974 -0.07982579
0.05713398 0.12372304 0.3368783 0.21443582 0.60062516 0.021035006 0.16986531 0.57857466
0.08244932 0.25078174 0.021626554 0.1616652 0.5217316 0.0681179 0.269228 0.04666624
0.17831095 0.16412027 0.11326359 0.10377269 0.00093047 0.07039064 0.06271474 0.041062698
-0.0055224765 -0.41120827 -0.2407725 -0.14323536 -0.70827836 -0.18025453 -0.29500243 -0.23355722
-0.1463631 -0.12853989 -0.11842198 -0.023439806 -0.38660136 0.05944725 0.018481134 -0.6624416
-0.03847152 -0.052263647 -0.10390167 0.08347754 -0.6185025 -0.02925135 -0.19319247 -0.03681591
-0.020723457 0.04886316 -0.043702222 0.14765806 -0.038205482 -0.34499368 -0.344321 -0.2053579
0.14580251 0.11461498 -0.05280276 0.03474189 -0.10079247 0.0010403398 0.11529434 -0.049912523
0.016622925 0.06996477 -0.0877566 0.026623955 -0.10423718 -0.041903865 -0.10300878 -0.11076101
-0.09299293 -0.11975767 0.14514676 -0.058834873 0.058068186 0.08130364 0.09729936 -0.14614968
0.11835561 -0.08745245 0.050084997 -0.19454576 -0.115568474 0.119483136 0.021966875 -0.05592541
0.21944807 0.15155824 0.105043456 0.25656965 0.63239336 0.24077159 0.10957986 -0.036511667
-0.05933929 0.18937516 0.12496915 0.16370055 0.55549294 -0.00014219934 0.19379383 0.75780773
0.23532078 0.164793 0.11351933 0.046622846 0.6174914 0.09509945 0.24326164 0.100812145
-0.023821944 0.19881178 0.30923948 0.04455779 0.14268102 0.26992065 0.1401097 0.017216047

bias_hh_l0 f4 [128]
00000000: da48 13bd 04a3 423e 3cd7 a9bd 01e8 ad3e
00000010: 508f 1c3f ccc3 183d b339 dbbc 502b c83d
00000020: 9caf 113e dec5 933e b5b5 a43d 8084 b73d
00000030: 8f83 b93e 856f a13e ac7a 573e c22e 3d3f
00000040: b307 94bb 9e2e 793e ccae 97bd 5169 f03d
00000050: 585e 2b3f a3ce 7e3e 3873 983e 1641 e33d
00000060: 3fc8 a33d 4491 183e 3f4d 3f3e 0fbb 473c
00000070: ba43 a5bd 280d 7a3d 6a68 073e 4ae3 ba3d
00000080: bb16 c1bd 432e c5be e310 4abb c9e1 b2be
00000090: 46c1 ccbe 1aa1 8ebc f3c1 1dbe 5bbb c1be
000000a0: 8c7b 96bd 4332 3dbe f5bf cbbd b851 adbd
000000b0: 4c5d c7be fcbc f5bd 4cd8 fe3d 97c1 1cbf
000000c0: f354 2dbe e424 f6bd 4eb9 9abd b24f c8bd
000000d0: f5fd f2be 22a8 44be d41f d5be aeb7 84bd
000000e0: 5eb0 65be fdff 84be b32f 98be b81a b23d
000000f0: b20a 88bd 8c7c e3bd 7a54 59be 00ad c43d
00000100: 62c1 0cbe a8db 1dbe 6d2e f03d fb1f abbc
00000110: f19b 1f3e 13a6 083d d518 91bd 2009 46bb
00000120: 92ab 213e e6c4 c1bc 5d27 243d c1e2 333d
00000130: a59f 9c3d da08 c93c f80c 39be 6665 113d
00000140: eda8 58b8 d026 fb3d 7493 903d b3dd 3dbe
00000150: bd8f cabd b8ce aa3c 7bce 15be b6bf d03d
00000160: 820c f6bd 3cff 943c 2f4d 593d b139 a3bd
00000170: 9639 d5bd 35fb 22be 423c 29bb 6be5 443d
00000180: 56d4 d53d 6e5f 923e c820 51bd 81bf f73e
00000190: 4d23 3b3f f89e 133e 17c7 9d3e 6e54 8c3e
000001a0: 461f e8bd a7ce 583e 7f83 bb3e e65d 763e
000001b0: cd51 113f 53ac 453e 6ac0 e83d 0f03 443f
000001c0: def3 813e 4b62 e53c aadc 5f3e 556c 9dbd
000001d0: 3a9e 143f 2188 923e 6742 ca3e bc00 6f3e
000001e0: 8cf1 273e b8a5 323e 32e9 b83e 1ceb 4f3d
000001f0: a092 5a3c a95c 873e 8423 2b3e 602f 5f3e
-0.03595815 0.19007498 -0.08293006 0.33966067 0.6115618 0.0372961 -0.026760912 0.09773886
0.14227146 0.28861898 0.0804247 0.08960819 0.36233184 0.31530395 0.2104289 0.7389947
-0.0045175194 0.2433419 -0.07406387 0.117388375 0.6694083 0.24883513 0.29775405 0.110963985
0.07997178 0.14899164 0.18681811 0.012190594 -0.080695584 0.061047703 0.13223425 0.09125383
-0.094281636 -0.38511857 -0.003083282 -0.34937885 -0.39991206 -0.017410804 -0.15406017 -0.37838253
-0.073477834 -0.18476205 -0.09948722 -0.08462852 -0.38938367 -0.119989365 0.12443599 -0.61232895
-0.16926937 -0.12018755 -0.07554875 -0.09780826 -0.4745938 -0.19204763 -0.41625845 -0.064803466
-0.2243056 -0.25976554 -0.29723892 0.086965024 -0.06642665 -0.1110774 -0.21223632 0.0960331
-0.13745645 -0.15415823 0.11727605 -0.020889273 0.1558683 0.033361506 -0.070848145 -0.0030217841
0.15788105 -0.023653459 0.040076602 0.04391742 0.07647637 0.024540354 -0.18071353 0.03549709
-5.1655737e-05 0.12263262 0.070593745 -0.18541603 -0.09890697 0.020850524 -0.14629547 0.10192816
-0.120141044 0.018188111 0.053052124 -0.07969988 -0.10411374 -0.1591614 -0.002582327 0.048070353
0.104408905 0.28588432 -0.051056653 0.48388293 0.7310074 0.1441611 0.30815956 0.27408165
-0.1133409 0.21172582 0.3662376 0.24059257 0.56765443 0.19304018 0.11364825 0.7656717
0.25381368 0.028000971 0.2186152 -0.07686678 0.58053935 0.28619483 0.39503786 0.23340124
0.16400737 0.17446029 0.36115414 0.050761327 0.013340622 0.26437882 0.16712767 0.21795416

weight_ih_l0 f4 [128, 2]
00000000: 68d1 723d 5984 013e 1810 0dbe bc87 6b3d
00000010: 6f52 6e3d 6a47 32bd 4a77 6abd 16d3 6e3d
00000020: 5e29 abbd 60d4 77bd c659 0ebc 92e3 a23d
00000030: 7a3b 27bd 5448 50bc 66af 7bbc 1c59 5bbd
00000040: 5289 193e b209 92bd 331b 613d c4cc e1bb
00000050: d265 62bc 5de7 d53d 67b5 57bc f611 89bd
00000060: dd49 4bbd 119e 7f3d dbd0 dc3d 08a1 67bc
00000070: 553b c6bd 4599 153d b2e9 86bb d049 a53d
00000080: 1115 77bd dc6d c23d 3b85 fd3d b294 263e
00000090: 7f9b aa3c 6ff9 253d fd20 b53c f3b9 983d
000000a0: 6b1a d23d 50f5 1bbe bb83 3fbd ee9e e53d
000000b0: 77da b0bb 1402 f73d 896f 2bbe 085d 033d
000000c0: 6dea 8b3d cf0f 2ebd 3b46 d8bd d5ed 6c3c
000000d0: feb1 d63d d6e1 0a3e 1353 efbd 6ff1 ae3d
000000e0: 8cc8 d6bd 2ed9 f93d 85ba 8cbc 4db7 2b3d
000000f0: e1a9 163e d79c c6bd 30c2 04be 416c 2fbd
00000100: 7249 13be a26f 5bbe 80b7 6e3c ec88 68bd
00000110: af1d d93a c655 24be e0f9 2b3e a5a3 263e
00000120: 9c86 8a3e 834d 00be fc9c 79bd e190 003d
00000130: 610a fcbd 7771 283e 116f 3b3e 4a84 593d
00000140: 3d2a 1d3c ac16 9ebd b0be 303e e27f c8bd
00000150: 719e 253d 0791 dcbb 6261 f3bd 188d c13d
00000160: a9a8 a7bd bcc1 ae3d 8d5a 53bc 2dee 373d
00000170: 1a27 593d 30fd 0b3e 9c73 713e 52ed 85bd
00000180: 72fe e93d e85a 653c 2546 b3bd 549c d6bd
00000190: a779 27bd 0269 323e ea7f 4cbe 0dda a7bc
000001a0: af8b 3ebe 6216 36be ad45 003e 6136 89bc
000001b0: b1df 863d d984 a13d e9ee 28be 3983 2abe
000001c0: 9131 ffbd e81c 41bd dd5f 83bd 1185 77bd
000001d0: 8a88 7fbd e37b 1f3d 0514 c8bc 60ef ddbc
000001e0: 76f6 0a3e 441f e8bd 4136 71bc 7cfc b53d
000001f0: 8902 523e 0207 cbbd 3a92 21be 43bd 3fbe
00000200: 3baf 913d 731e 013e e38c 41bd fac2 1abe
00000210: 3b53 49bc c6e5 ccbd c3c7 c2bd e185 17be
00000220: ba12 14be 8e6e 883d c69a a03d a874 1cbe
00000230: 05b3 86bd 64dd 1dbe 875a f03d a920 aebd
00000240: 2eaa 313e 9fdb 953c 2e62 f8bd 9cf9 643e
00000250: 7787 b03d 2ff5 243e 75ba 0bbe 9681 113e
00000260: 9afd 19be ebae 9dbd a69d f93d a3b4 983d
00000270: 0af8 a6bd c775 3abe 9ffb 0abe 7cff 323e
00000280: 04c4 c73d 5671 a1bd 0bcd 31be 37cc c33d
00000290: 814e 6fbd bbe2 153e 5458 d23d 803d f73c
000002a0: 317f b4bd db70 adbd a8e6 2abe 0682 023d
000002b0: 2a80 8ebd 850b 14be 22c8 313e e4b9 9d3d
000002c0: 1de1 0d3e 38af e2bb 95dc d83b c1b8 533e
000002d0: 9ea6 28be 6960 7b3d d741 0d3e 6b85 bfbd
000002e0: 9baf 353e af78 5e3d 77b4 a43d 605e 3a3e
000002f0: 7ffa 383e 5379 42bd b0d2 1bbe 5f13 6abd
00000300: c85b 06be ed81 573d 589d 213e b05f 723d
00000310: 2958 583a 98db 49be 4e23 493d da9a 003c
00000320: 3066 2bbb 1742 6ebe eddf a6bd 5c9d 9f3d
00000330: 2b5a dfbd e0c2 2cbd 4439 c3bd 1579 14be
00000340: ac21 5f3d 0f19 153e 5d4e 21bc 978e 15be
00000350: e078 693e a41d d63d 8095 b43d d51e 02be
00000360: 3f66 3d3e ea13 af3d 0e4c c43c 795a 2b3e
00000370: 9c36 a23d e818 483e d29a 89bd 1b8c c13d
00000380: 3702 2cbc 79e9 69bc 2e1c 04be 4844 14be
00000390: 2e93 3abe 823f 91bc 7218 c4bb 7f40 373e
000003a0: 53e6 aebc 7cdf 02be 8af4 d1bd 888f 28bd
000003b0: ed77 173e f531 ab3d 2e54 41be 29f1 fabd
000003c0: 0e36 2d3e 9ee9 e83c 56c7 25be 1e9b 4bbe
000003d0: 1def 8c3d f3c3 76bd bba8 003d 2bd9 2a3e
000003e0: cfa5 94bd 8b19 1b3c d3e2 7d3c 10b4 4fbd
000003f0: babf 083e 448a 66ba 497b 92bd a537 3bbe
0.059281737 0.12648143 -0.1377567 0.057502493 0.058184084 -0.043525137 -0.05724267 0.058306776
-0.083574995 -0.06050527 -0.008688396 0.07953562 -0.040828206 -0.012712557 -0.015361642 -0.05355178
0.1499379 -0.071307555 0.05495758 -0.006890865 -0.013818221 0.1044452 -0.013165808 -0.06692879
-0.04963099 0.062406603 0.107820235 -0.014137514 -0.096792854 0.036523122 -0.004117214 0.08070719
-0.060322825 0.0949361 0.12378927 0.1626766 0.0208261 0.04052108 0.022110457 0.07457342
0.10258945 -0.15230298 -0.046756487 0.11211954 -0.005397137 0.12060943 -0.16741766 0.032071143
0.068318225 -0.042495545 -0.105602704 0.014461 0.10483168 0.13562712 -0.11685767 0.085421436
-0.1048747 0.12199627 -0.017178783 0.041922856 0.14713241 -0.096978836 -0.12964702 -0.04282785
-0.14383486 -0.21429303 0.014570117 -0.056771204 0.0016564633 -0.16048345 0.16794538 0.16273363
0.27055824 -0.12529568 -0.060940728 0.031388167 -0.12306667 0.16449533 0.18304087 0.053104676
0.00959259 -0.07719168 0.17260242 -0.09790017 0.040434305 -0.006731156 -0.11883809 0.094507396
-0.08186466 0.08533046 -0.012900007 0.044904877 0.053015806 0.13670802 0.23579258 -0.06539406
0.11425485 0.0139987245 -0.087536134 -0.10479036 -0.0408875 0.1742287 -0.1997067 -0.020489717
-0.18607973 -0.17781976 0.12526579 -0.016749563 0.065856345 0.07886667 -0.16497387 -0.1665162
-0.12460626 -0.047146708 -0.06414769 -0.060429636 -0.062386073 0.038936507 -0.024423609 -0.027091682
0.1357058 -0.113340884 -0.014722408 0.08886048 0.2050878 -0.09913446 -0.15778437 -0.18724541
0.07113501 0.12609272 -0.0472535 -0.1511344 -0.01228791 -0.10004763 -0.09510758 -0.14797164
-0.14460269 0.06661712 0.07842021 -0.15278876 -0.06577114 -0.15416485 0.11736017 -0.08502323
0.17350075 0.0182932 -0.12128101 0.22360843 0.08619588 0.16109155 -0.13645346 0.1420959
-0.15038148 -0.076993786 0.12188272 0.07456329 -0.081527784 -0.18208991 -0.13572548 0.17480272
0.09754184 -0.07882945 -0.17363374 0.09560435 -0.058424477 0.14637272 0.102707535 0.030180693
-0.08813322 -0.08468791 -0.16689551 0.03186228 -0.06958039 -0.1445752 0.17361501 0.077014714
0.13855405 -0.0069178604 0.0066180923 0.20675947 -0.1646981 0.06137124 0.13794647 -0.09351619
0.1774277 0.05431431 0.080422334 0.18200064 0.18064307 -0.047478985 -0.1521709 -0.05714738
-0.1312095 0.05261414 0.15782678 0.059173286 0.0008252883 -0.19712675 0.049105935 0.0078494195
-0.0026153438 -0.23267399 -0.08148179 0.07793686 -0.1090587 -0.042178035 -0.09532407 -0.14499314
0.05447547 0.1456034 -0.009845343 -0.14605175 0.22800016 0.10454872 0.08817577 -0.12707074
0.18496035 0.0854872 0.023962047 0.16733731 0.07920572 0.19540751 -0.06718983 0.09450551
-0.010498575 -0.014276856 -0.12901375 -0.14479172 -0.18220207 -0.017730478 -0.0059843594 0.17895697
-0.021350062 -0.12780565 -0.1025172 -0.041152507 0.14791842 0.08359138 -0.18879768 -0.12253029
0.16915151 0.02843171 -0.16189322 -0.19883391 0.06881545 -0.060245465 0.031410914 0.16684406
-0.07258188 0.009466539 0.015495974 -0.05070883 0.13354388 -0.0008794407 -0.07152421 -0.18282945

weight_hh_l0 f4 [128, 32]
00000000: 0439 12be 96d2 1abd 9ca1 b2bd f300 ff3d
00000010: ddd0 be3d fe9a ee3d 6757 953c 1deb 87be
00000020: 610f 11be 283b 143e 2d9e 2f3e aa67 1c3e
00000030: 1e14 013e 3a7d f33c 6e87 b4bd 6cc8 fcbc
00000040: 39bb b13d b9a2 f4bc bb17 3bbc bd3f d63d
00000050: 88c9 0f3d 4a81 2dbd 49f9 01be 6720 86bd
00000060: d3b9 6cbe 2da2 1f3e 14bf f6bd a673 123e
00000070: 9d58 183a 8856 31be eb02 47be 567f 7f3e
00000080: 4bb1 083d 4d06 4cbe 7aa7 8a3d e600 bdbd
00000090: 7e6f 35bd 0df1 79bd 03d4 62be b1e6 97bc
000000a0: 1c0e 493d f870 8d3c d7f3 cebd 5221 18be
000000b0: ea2e 403d d2e7 7b3e b5f5 abbd 8edb 8f3d
000000c0: 249a 6f3c 36b1 44bd eb54 423e 3593 683e
000000d0: 5be1 553e 6a2a f1bd e699 bb3d 7b99 ad3d
000000e0: 921a f83d cced 13be ca1a 413d e0f6 64be
000000f0: 0817 c53c b7e6 9e3d 250c abbc 0bd9 6d3c
00000100: a4b2 a3bd 574b bebc 035c e63d c3ae 4cbd
00000110: 20e0 3abe 4a39 1ebe 6047 b0bd 4a0a 81bd
00000120: 1722 fdbd 55f1 fcbd 65db 01be c3be 11bd
00000130: b907 513d 89b4 313e 03b9 8fbc c310 ea3c
00000140: 64b1 073c 2066 19b9 821c 0dbe c828 3cbe
00000150: b60a 633b aecf ecbc 5581 1cbe 7f55 9a3d
00000160: 78ac e1bd 4671 2cbe 00f8 cfbd f6ec cabd
00000170: 92e1 45be 0b40 a53d 0874 3d3c e946 6abd
00000180: d859 323e acad a5bd 324e 273e 513d 85bd
00000190: c111 afbd e2e1 903d e6ad 283e 65e7 c43d
000001a0: 0b60 7e3e 2a4f e93d 4a16 883d fd66 f5bd
000001b0: 4732 f2bd 0e63 2eba acff 28be 9c49 05be
000001c0: 41e2 33be e5b2 debd 9fab 86bd 3da0 28bd
000001d0: e574 573d be90 1c3e 29aa c4bd ce72 5dbe
000001e0: 6523 c43d 471a cbbc e091 0abe d176 acbd
000001f0: 468b 02bc 8f20 c6bc 977b 653e c0f2 22bd
00000200: 5552 423c 6769 c23d 87eb 6c3d a51c 763d
00000210: f6ae c73c bd19 de3d c466 d53d 10fd 94bd
00000220: bf50 173e 212c a73d 7ddc eabd 8217 6bbd
00000230: cc85 d13c 11ea 393e 30ee d83d 2cf6 983d
00000240: 89a6 6cbe 1da4 f23c b951 523d ed8a b33b
00000250: f68c 013e 97a0 fd3d ed56 ce3d ee84 48bd
00000260: c284 08be d541 ae3d ea14 32be 194b 693b
00000270: 172d d2bb 4bcb 1d3e d5e3 073e eff4 eebc
00000280: 3953 c63c 8eb2 02be caae 823c 6130 9dbd
00000290: 9178 64be fa9f 283e 5e68 e4bd cb27 803e
000002a0: 7508 153e 111a 83be 145a 40be cb49 30bd
000002b0: 9e8a 263d 62ad 92bd d05c 5e3d 89dd 04be
000002c0: 9206 c3bd f3d3 513d 2840 a3bd 6708 6b3e
000002d0: f7a3 b3bd 1967 95bd 793e b9bd 1b73 de3c
000002e0: 1319 4c3e 7420 703d 8261 c63d f363 39bd
000002f0: 21ee 8c3d 29b0 6bbe 7220 893e 9a0f e9bc
00000300: 73f9 da3d 3ba1 ecbc d068 093e 1c1b 06bd
00000310: 9418 133d 6567 ccbd 31d6 19be 66c7 f83d
00000320: 6e16 72bd 198c dbbd acad 353d 46ad 9dbb
00000330: 6f15 4fbd 232c 483e 3267 2fbe 9d68 7cbe
00000340: 69e0 3ebc 25c9 d1bd a2f0 623d 79cf d43c
00000350: 82af 7a3e bada c73d 28ce 37be 7ac1 0a3d
00000360: be77 773d 9d07 bdbd 82ce 1cbe 83fa 053e
00000370: 3ea5 cf3d 6482 0dbe 3179 d3bc 84bb 3c3d
00000380: 4db1 dd3d a1fe 063e 8282 8dbb 7cb7 9d3d
00000390: 2526 b13c f728 77be 4d95 2d3d ae75 773d
000003a0: f7cf 5c3d fa9e 8abe 45de f3bd 1201 043e
000003b0: dd0e 153e 6c53 bcbd 413a d23d 727d a03d
000003c0: 2707 733d 4eaf aebb ac96 e8bd 9ec6 943d
000003d0: 7129 0ebd cb1e 363d 422e f9bd 636a fabd
000003e0: 5f42 b83d 4d29 07bd 9f7b b03d 5245 4d3d
000003f0: ae0e 93bc 68eb b93d bd02 e53d acdd 233d
-0.14279562 -0.037798487 -0.08722231 0.12451353 0.09317181 0.11650656 0.018230153 -0.26546565
-0.14166023 0.14475691 0.17150183 0.1527392 0.1260533 0.029722799 -0.08814894 -0.030857287
0.08678288 -0.029862748 -0.011419232 0.10461376 0.035104305 -0.042359628 -0.12692751 -0.06549149
-0.23117761 0.15589209 -0.12048164 0.14301929 0.0005811544 -0.17318165 -0.19434707 0.24950919
0.033372205 -0.19924279 0.06770225 -0.09228687 -0.04429578 -0.0610209 -0.22151189 -0.01854262
0.04908572 0.017265782 -0.101051025 -0.1485646 0.04691974 0.24600151 -0.08396474 0.070242986
0.014624152 -0.048020564 0.18977706 0.22712405 0.20886748 -0.11775668 0.09160213 0.0847654
0.12114443 -0.14446181 0.04714469 -0.223598 0.024058834 0.07758849 -0.020879814 0.014517079
-0.07993057 -0.023229284 0.112480186 -0.049971353 -0.1824956 -0.15451542 -0.08607364 -0.063007906
-0.12360018 -0.12350718 -0.12681349 -0.035582315 0.051032756 0.17354025 -0.017544275 0.028572446
0.008282039 -0.00014629262 -0.13780406 -0.18374932 0.0034643835 -0.028907623 -0.15283711 0.07535838
-0.11019224 -0.16840085 -0.10154724 -0.09908478 -0.1932433 0.08068856 0.011563309 -0.05719653
0.17417085 -0.08089766 0.16338423 -0.06505836 -0.08548308 0.07074334 0.16472587 0.096144475
0.24841325 0.113920525 0.06644876 -0.11982534 -0.11825996 -0.00066523335 -0.16503781 -0.13016361
-0.17566778 -0.10873965 -0.06575703 -0.04116844 0.052601714 0.1528959 -0.09602768 -0.21625826
0.095770635 -0.024792803 -0.1353221 -0.084211 -0.007967776 -0.024185447 0.22410427 -0.039782286
0.01186045 0.0949276 0.057841804 0.06008591 0.02437542 0.10844753 0.104199916 -0.0727483
0.14776896 0.08162714 -0.11467836 -0.057395466 0.025576495 0.18155695 0.10592306 0.074688286
-0.23110403 0.029619271 0.051347468 0.0054792077 0.12651429 0.12384146 0.100751735 -0.048954897
-0.13331893 0.0850865 -0.1739079 0.003559774 -0.0064140665 0.15409581 0.13270505 -0.029169528
0.024209606 -0.12763426 0.015952487 -0.07675243 -0.22311617 0.16467276 -0.11152719 0.2503036
0.14554007 -0.25605825 -0.18784362 -0.043039124 0.04065954 -0.071619764 0.05428773 -0.12975134
-0.095227376 0.05122752 -0.07971221 0.22952424 -0.08771508 -0.07295055 -0.09045119 0.027154496
0.1993144 0.0586247 0.09686567 -0.045261335 0.06881357 -0.23016419 0.26782566 -0.028449822
0.1069211 -0.028885474 0.13418889 -0.032740697 0.03591211 -0.099806584 -0.15023114 0.12147407
-0.059103422 -0.10720081 0.04435508 -0.0048119156 -0.05055755 0.19548087 -0.1712921 -0.24649282
-0.011650183 -0.102434434 0.055405267 0.025977837 0.24481013 0.09758516 -0.17949736 0.03387592
0.06041693 -0.09229968 -0.15313151 0.13083844 0.10138939 -0.13819271 -0.025814625 0.046077266
0.10824833 0.1318307 -0.0043185363 0.077010125 0.021624634 -0.2413672 0.042378712 0.060414962
0.05390927 -0.27074414 -0.11907629 0.12891033 0.14556451 -0.09195599 0.10265017 0.07836427
0.059332993 -0.0053309565 -0.113568634 0.07264446 -0.03470749 0.04446296 -0.12167026 -0.12227323
0.08997034 -0.032998372 0.08617329 0.050114937 -0.017951336 0.09078103 0.11182163 0.040006325

bias_ih_l0 f4 [128]
00000000: 5174 97bd 58d1 e9bd aea0 293d 4694 9f3d
00000010: 0c19 513c 78ee bb3d 658b 273e be40 01be
00000020: 2040 f1bc e63e 2a3d 82c7 2abe ba71 f2bd
00000030: 961a 553c b3b0 1b3e 908f 33be c3f4 133d
00000040: 303e 383d c768 f13d a9b1 0e3e edf9 a0bd
00000050: c91b bb3d c1f9 a1bb a4b1 11be 7ee4 80bd
00000060: edef f63b 42f0 de3b f548 4e3d 38ec bb3b
00000070: 9110 e03d cecc c13d 9a23 bc3d 059f 37bd
00000080: a52e 233e a538 efbd 2728 1bbe 8e1d 13be
00000090: c4d7 08bd 9428 713d ce1d aebc f4e2 193e
000000a0: 1395 0b3e 0c0d 163e 893c bd3c 61c5 3c3e
000000b0: 34a5 debd a95e 143e 840c 423c 382d b0bd
000000c0: 46da e3bd 9ee4 433e cf5f 023e 4831 333e
000000d0: cc9b e03c 2aa6 013e 940c edbd 70ec 553c
000000e0: d01e cbbc 7e20 f03d b204 0f3d 7579 483e
000000f0: c0f7 05be 52d0 623d 90e7 28bd fccd 58bd
00000100: 4818 12be f760 af3b aafc 1f3e c6d7 02be
00000110: 024c 13bc 6b83 cf3d e641 183e cc9a 993d
00000120: 794f 883d 8e7d 2bbd 537b 9c3d a8ba 0a3d
00000130: 21d4 1f3d 23ea 5fbb 9e74 ac3d 9bfe 16be
00000140: c8c3 33be 400e e0bd 76aa 023e 8f5e a8bd
00000150: 1320 333d 5ede 48be 1223 c7bd e63d 483e
00000160: 7a0e 19be aa78 6abd bb6c e83d d892 b33b
00000170: 2df3 e83b 04f9 c8bd c9a9 cebd 964f 873d
00000180: 817d 7dbd fc1f 333e f9a3 d13d 55bb e23d
00000190: e83a 3b3e 49e9 473e eef9 543e 9d01 a63b
000001a0: be89 88bc 9845 563e 36bc 30bd 1a5a 9fbd
000001b0: 9e7d 00be e548 413e 783f 873d a0a0 623d
000001c0: ee60 ab3d a41f a2bd d7ef 103e 8c8c e43d
000001d0: 6567 4ebd bf6f 2e3e 6cab 01bd de30 bcbd
000001e0: 8b50 633e 57d4 543c 642a 443e 3583 1ebd
000001f0: fc8f abbd 7307 423d 5569 1b3e 0820 b43c
-0.073952325 -0.11416882 0.041413 0.07791953 0.012762319 0.09176344 0.16361769 -0.12622353
-0.029449522 0.04156389 -0.16677669 -0.11838098 0.013006827 0.15204124 -0.17535233 0.036122095
0.04498118 0.11787563 0.1393496 -0.078601696 0.09136159 -0.004943103 -0.14227921 -0.062935814
0.0075359256 0.0068035433 0.050362546 0.0057349466 0.1094066 0.094628915 0.09186478 -0.044829387
0.15935762 -0.11680726 -0.15152036 -0.14366743 -0.033408895 0.05887659 -0.021254446 0.15027982
0.13631086 0.14653414 0.023100154 0.18434669 -0.10871354 0.14489235 0.011843804 -0.08602375
-0.11125617 0.1913018 0.1273186 0.17499268 0.02741804 0.12661043 -0.11574665 0.013056859
-0.024794966 0.117249474 0.034916587 0.19577582 -0.1308279 0.05537445 -0.04123646 -0.052930817
-0.14267075 0.0053521353 0.15623727 -0.12777624 -0.00899029 0.10132488 0.14868888 0.07500228
0.06655783 -0.041867785 0.0764071 0.033869416 0.03902066 -0.0034166656 0.084206805 -0.14745562
-0.17555153 -0.10940218 0.12760338 -0.082211606 0.04373176 -0.19616076 -0.09723486 0.19554862
-0.14946929 -0.05724398 0.11348864 0.0054801516 0.007109067 -0.09813121 -0.10090978 0.06606977
-0.061887268 0.1749267 0.102363534 0.11070887 0.1828419 0.19522585 0.20798466 0.0050661103
-0.016667243 0.20924985 -0.043148242 -0.077808574 -0.12547919 0.18875463 0.066039026 0.055328965
0.08368097 -0.07916191 0.14153992 0.1115962 -0.050391573 0.17034815 -0.03165762 -0.09189008
0.22198693 0.012990079 0.19156796 -0.038699348 -0.08377072 0.047370385 0.151769 0.02198793

bias_hh_l0 f4 [128]
00000000: 46cf 1e3e 8bce 143e 96a5 e8bc 3364 babd
00000010: 3ab8 da3d 35c0 373e 1ffc a9bd 1d5d b5bc
00000020: eda2 493d d7d8 e83d 72cb 1c3d 8d15 b93d
00000030: f9f9 5d3c d332 253e 02e8 5c3d 5294 b23d
00000040: cac2 c6bb 44bb 1e3d fe24 493d c60e fdbd
00000050: 267b c53d 9dff d53d 65c1 1b3e c0af 0bbe
00000060: 89b2 cbbd cd5f 9cbd f646 6f3c ad38 b9bd
00000070: d97e 0a3e 3d61 f33d 5880 48bd 61e9 81bc
00000080: 2b07 ce3c 4e6a d53d 9210 e2bc 06cf 20bd
00000090: bd63 bcbc 7d29 ddbd 55d3 13be 030b 0fbe
000000a0: 1157 00be 84bb 03bd 2084 6ebd 9ef4 a03d
000000b0: 63c3 123d c4c6 213e 0412 14be adc9 23be
000000c0: 145d 33bd 45e4 8cbd b4df 90bc 6bbc 47bc
000000d0: 2267 a23c 40b3 4b3d ec4e ee3c debe 09be
000000e0: 11b8 bcb9 9d0b 263e a3a5 5ebd bce3 bdbc
000000f0: b07c 8a3d fc2e 0cbe b3a1 24be 00ff fd3d
00000100: 0efc 153d 98d3 be3c fe04 05bd 6cbc c1bd
00000110: ac1b 843d f5ab ccbd 685e 63bd 9d3b 983d
00000120: 0ad5 46be 6721 393e 281e ae3a 4096 103e
00000130: 1272 1f39 dd43 8e3d cd1d 7b3d 13a4 26bd
00000140: f275 b1bd 9c06 7d3d 8855 1fbe 6bbc 813c
00000150: afbf b93d fb2d 1ebe 1eb2 0c3d f65e 063e
00000160: 0bba aebd 7f42 293e 68c6 b9bd f715 b13c
00000170: 8203 11be 2612 0cbe 6031 fe3d 4470 e8bd
00000180: 435b 4f3e 3785 1a3e e1d7 e73a de57 1fbe
00000190: 874b 1e3c 816c 553e 5a44 083e 375d a13d
000001a0: 8a51 d83c 834d 633e 4c89 c8bd 31a0 69bd
000001b0: 5fd7 f0bd cc3f 443d fcf1 063e 1f30 213e
000001c0: 2856 6d3e 4633 aabc c9af a4bd 546c c63d
000001d0: 605c 8abd 4011 a2bc 6eb1 b63d 0691 473e
000001e0: e07e c63d 8e27 0e3e 0fa2 a4bc 5d38 163e
000001f0: 1c59 443e 349f ea3d 3cdb 9c3d b48e b13d
0.15508756 0.14531915 -0.02839927 -0.09101143 0.1067967 0.17944415 -0.083000414 -0.022139126
0.049227644 0.11369484 0.038279958 0.090373136 0.013548368 0.16132669 0.053932197 0.08719696
-0.006065701 0.03875281 0.049107544 -0.123563334 0.09642629 0.10449145 0.15210493 -0.13641262
-0.09946162 -0.0763546 0.014604321 -0.09044013 0.13524951 0.11883781 -0.048950523 -0.015858354
0.025149902 0.10420667 -0.027595792 -0.039259933 -0.022996778 -0.10798929 -0.14436086 -0.13969044
-0.12533213 -0.03216125 -0.058231473 0.07859157 0.035830867 0.1579848 -0.14459997 -0.15994902
-0.043789938 -0.068794765 -0.017684795 -0.012190918 0.019824568 0.049731493 0.029090367 -0.13451716
-0.00035995294 0.16215368 -0.054357182 -0.023179881 0.067620635 -0.13689798 -0.16077308 0.12402153
0.03661733 0.023294255 -0.032475464 -0.09459767 0.064505905 -0.09993736 -0.055509955 0.07433245
-0.19417205 0.18079148 0.0013284134 0.14119816 0.00015205916 0.06946538 0.061307717 -0.040683817
-0.086650744 0.06177388 -0.15559971 0.015836915 0.09069764 -0.15447228 0.034349553 0.13122162
-0.08531579 0.16529272 -0.09071046 0.021616919 -0.14161494 -0.13678798 0.12411761 -0.11349538
0.20249657 0.1508988 0.0017688238 -0.15560862 0.009661562 0.20842172 0.13307324 0.078791074
0.026406068 0.22197537 -0.09791812 -0.057037536 -0.11759829 0.047912404 0.13178247 0.15741013
0.23177397 -0.020776402 -0.08041341 0.09688631 -0.067559004 -0.019783616 0.08920561 0.19488916
0.09692168 0.13882276 -0.020096807 0.14669938 0.19174618 0.11456147 0.07659003 0.086697966

weight_ih_l0_reverse f4 [128, 2]
00000000: 2fca aebb 00c0 93be f834 773e e99d 79be
00000010: aa91 43be 5a6f a5be e6c2 3d3d ed4f e3be
00000020: 8a1f d5bd 2393 49be bbcc 343d a668 9dbe
00000030: 4203 063e a434 b33e e984 8a3d 1b43 babe
00000040: 2477 f6bc 75cf d4be 1773 19bd b939 1f3e
00000050: cef2 16bf 4436 403e e474 c63e c903 05be
00000060: 0912 b5bd e937 653c ae47 99bd 62f6 10be
00000070: 8618 003f 66f3 cebd 6032 7a3e c84b f33d
00000080: 05e8 50be 67dd 38bd aba6 39bd 611a 9b3d
00000090: f809 fdbd 48fa 85be eb86 81be c0df 423e
000000a0: 1e53 b3be 78d0 02bd 1a62 abbe ff37 f83e
000000b0: 9d7f 0abf f635 ba3e be88 013e 1f51 cdbd
000000c0: f562 2cbe dc07 823e 4987 04bf f5fd 63be
000000d0: 63e9 2c3e 21f9 be3e fcb5 14be f8a3 323e
000000e0: 8b4b 213c 176c 563d e85e 283c 09ea 373e
000000f0: 18ca 95bd 0acc bebd dbbe 293d d056 8fbe
00000100: 4594 25be c6bd 08bd c410 8d3e 441c c1be
00000110: d4c2 fabd 9737 30be aa04 bcbc 2881 d7be
00000120: 03ad a1bd e1e2 c9bd a14b 8b3e 9714 ebbd
00000130: f9ec e2bd 3d9c a23e d46a 173e 62e1 0abe
00000140: 846a 993d 71c2 49be a528 1d3e 9636 e0bd
00000150: 2ac4 fdbc 81db f3bc f3ce 1c3e f8b1 e7bd
00000160: ff57 24bc 2a16 0e3d 0c90 993d 77fa 4ebd
00000170: 0885 7e3e 8696 67be a5d9 483e 6139 f63d
00000180: 9b49 a8bc 2e57 a2bb 0af8 3dbd f0da 4d3e
00000190: 5a46 8bbd ec8a 4abe e674 6ebe 3d65 fc3d
000001a0: d2ae 1dbe d964 e03b e80e 61be 7ed2 333e
000001b0: fb9a 18bd 8cf8 3abd 52da 45be 69cb 37be
000001c0: 6037 793b 902a 693d 0b73 4abe 258d 83be
000001d0: c826 123e f8bd 683e 1f32 11bd 4dbb c3bc
000001e0: 40bd 6fbe 5bf5 4f3e 57d9 353e 836a dc3d
000001f0: 664b e53c 8404 44bc 99ad 233e 023c 9abe
00000200: 687b 56be 811e c8be 4d98 43bb 11d3 fe3e
00000210: 1613 983d f9d4 843e b068 87be b9e5 28bf
00000220: 644e 783e 3153 073f d50b dc3e b7b6 c4bd
00000230: 3498 9fbd d53b 36bf 8037 f7be c727 d43e
00000240: e5e8 95bd bbad b7be c31e 61be bc24 b83e
00000250: 1acc 9d3e 09d3 78bc 7726 fa3e 4fbf d4bd
00000260: 3241 953e 4a61 c83c 80df 533e ad5a 4e3e
00000270: ff33 633e 9126 f2be 217e 693e 819a e03d
00000280: 890a 223e 71aa ab3e cc9a 283e 942d f13e
00000290: e147 123d e097 0dbf 16c4 eebe 02d6 503e
000002a0: 899c a5be 020d fbbd 3af8 ba3e c3bc a5be
000002b0: 9d3c 09bf bfdf 7e3e 5bf9 ed3b cb5b 2d3f
000002c0: 95fd 3dbe 73ab b23e 0e82 173f 583e ae3e
000002d0: 5cc9 93be aefa 3cbf 9438 9dbd 3174 97be
000002e0: 2160 2dbf 0168 463e 3086 a93e a6c4 fd3d
000002f0: b106 833e c906 75be 93f1 9c3e 3af0 5fbe
00000300: a39b 463e 364d f8bd d81c 893e 486c 91be
00000310: 7ee7 9dbe a0db c9be a8f1 4abe fe5b a0be
00000320: d9b8 5cbe 6766 4a3d abe9 a03d 6858 05bd
00000330: c614 82be 312e af3e 5171 563e f652 b1be
00000340: 6614 fbbd 3cf6 87be 73af 1e3d 66a0 9abd
00000350: c975 7fbc 612e fbbd 1e0c f43e 715b 42be
00000360: 02d3 ad3d fc29 19be 4788 97bd 0fea db3c
00000370: f113 033f 24fa 79be 7af3 d53d d99f ccbd
00000380: 625e 463d 47b6 55be c31c 303d ae28 8bbd
00000390: ba8e 74bd 3425 89be 17d1 bcbe 0319 963e
000003a0: 0ba6 85be f406 78be 9518 9abe c13c 393f
000003b0: 4f57 22bf ea5c 9b3e 91d4 12be 9f11 803c
000003c0: 76a2 f0bc 4fd3 1d3e f58d 55be 14e0 b7be
000003d0: 984c a6bb ae91 173f 4704 053d f802 ba3d
000003e0: d29f a83e fd75 87bd e293 51bd a84c 20be
000003f0: a30c 7cbd af99 d1bd 4b72 973d 313a b9be
-0.0053341608 -0.28857422 0.241413 -0.24376644 -0.19098535 -0.32311517 0.046328448 -0.44396916
-0.10406406 -0.19685034 0.04414056 -0.30743903 0.1308718 0.350011 0.06763632 -0.36379322
-0.030086108 -0.41564527 -0.037463274 0.15549363 -0.5896424 0.187707 0.38761055 -0.12989725
-0.088413306 0.013990381 -0.07484375 -0.14156488 0.5003742 -0.10105018 0.24433279 0.118796885
-0.20401008 -0.04513302 -0.045324963 0.07573391 -0.12355417 -0.26167512 -0.25298247 0.19030666
-0.3502435 -0.031937093 -0.33473283 0.48480222 -0.5410097 0.36369294 0.12649819 -0.10025238
-0.16834624 0.2539662 -0.5176893 -0.22264846 0.16885905 0.37299445 -0.14522547 0.17445362
0.009844671 0.052349176 0.010276534 0.17960371 -0.07313937 -0.09316261 0.04144178 -0.2799592
-0.16169842 -0.033384107 0.27551854 -0.37716877 -0.12244192 -0.17208706 -0.022951443 -0.42090726
-0.078943275 -0.09857727 0.27206138 -0.114785366 -0.11080355 0.31759825 0.14786845 -0.13562539
0.07491019 -0.1970308 0.15347536 -0.109479114 -0.030977327 -0.029767754 0.1531332 -0.11313242
-0.0100307455 0.034689106 0.07498178 -0.05053183 0.24855435 -0.22616014 0.19614275 0.12022663
-0.02054291 -0.0049542403 -0.046379127 0.2010305 -0.06800528 -0.19779557 -0.2328678 0.12323997
-0.1539872 0.0068479595 -0.21978343 0.17560765 -0.037257176 -0.04564719 -0.19321564 -0.17948689
0.003802739 0.056925356 -0.19770448 -0.25693622 0.14272606 0.22728717 -0.03544819 -0.023893023
-0.23412037 0.2030844 0.1775869 0.10762503 0.027990054 -0.011963967 0.15984191 -0.30123907
-0.20945513 -0.39085773 -0.0029845417 0.49770406 0.07425515 0.25943735 -0.26447058 -0.6597553
0.24248654 0.52861315 0.42977777 -0.096051626 -0.07792702 -0.71185046 -0.4828453 0.41436598
-0.07319812 -0.35874733 -0.21984391 0.35965526 0.3081978 -0.015187033 0.4885747 -0.10388052
0.29151303 0.024460454 0.20690727 0.20151778 0.22187804 -0.4729505 0.2280202 0.10966969
0.15824331 0.33528474 0.164653 0.47105086 0.03571308 -0.5530987 -0.46633977 0.20394138
-0.3234599 -0.122583404 0.36517507 -0.32370576 -0.53608114 0.2489004 0.0072623915 0.6771819
-0.18553765 0.3489643 0.5918282 0.3403194 -0.28864563 -0.73820007 -0.07676807 -0.29580835
-0.67724806 0.19375612 0.3311019 0.12391023 0.25591043 -0.2392837 0.30653057 -0.21868983
0.19395308 -0.12124102 0.2677982 -0.28402925 -0.30840677 -0.39425373 -0.19818747 -0.31320184
-0.21554889 0.049414065 0.07857069 -0.032555014 -0.25406474 0.3421493 0.20941664 -0.34633607
-0.1225975 -0.2655505 0.03874154 -0.07550125 -0.015592047 -0.122647054 0.47665495 -0.18980195
0.08487512 -0.14957422 -0.0739904 0.026845006 0.51202303 -0.24411827 0.1044683 -0.09991426
0.048429854 -0.20870315 0.04299618 -0.067948684 -0.059706427 -0.26786196 -0.36878273 0.29315957
-0.26103243 -0.24221402 -0.3009688 0.7235833 -0.6341447 0.30344325 -0.143389 0.015633402
-0.029374342 0.15412639 -0.20854934 -0.35913146 -0.0050750487 0.59206665 0.032474782 0.090825975
0.32934433 -0.06614301 -0.051166423 -0.15654242 -0.06153549 -0.10234391 0.073948465 -0.3617721

weight_hh_l0_reverse f4 [128, 32]
00000000: 0d61 68bd a608 d03d 5969 a43d 8507 e0ba
00000010: a06f ed3d 38b2 c33b 06f7 da3d f274 613c
00000020: 3269 a03d eb7d 653d 967a 513d 9196 c23c
00000030: 13b7 80be 33c5 ff3c 8b12 27be 63a5 5abd
00000040: f23a 97bd 77f1 86bd 0f7d 78bc e525 9ebd
00000050: caad e2bd 57d8 8c3e 0d68 3e3d b7de 833c
00000060: 04e9 81be af5b 333e fd15 a33c 0600 e23c
00000070: 631c 8c3c 3053 83bd c233 1c3b f698 7fbd
00000080: 8721 c1bd 24a5 e93c 9d69 e6bc 7071 123e
00000090: c2dd 903c 2645 0a3d 1582 743e cb35 8bbe
000000a0: 2f9c dc3d c0e3 3cbc 9ea9 1d3d 4718 be3d
000000b0: 00aa 81bd 8110 28be 62e2 343e ca42 613d
000000c0: c71c 0cbe f75d 6ebd 893f 3c3e 1b4e 45be
000000d0: 1081 b2bd 5d7c 073e 5717 f6bd 8fdd 3dbe
000000e0: a60d 04be 0242 0c3d c222 803d 086c 34bd
000000f0: 68f1 9ebe 42b9 d5bd 4e8a 373e 2d7f 643e
00000100: 2a2b 153e 81c1 20be b931 9abd f640 eebc
00000110: 43c0 9d3d 78b6 963d 5299 f03d 8bd1 2bbe
00000120: 384b 2d3e c161 a23c a9bc 433c 86af 043d
00000130: 5e80 7c3d 57f2 a2bd a4ba 333d 2282 a73c
00000140: cced 49be e73f a5bd b228 afbd ab70 72bd
00000150: c9cf 95bd 02df 52bc 088d 683d 8eca 29be
00000160: 49d1 38be 767d 593e e207 003e 0187 933d
00000170: 2609 d33b 912c bc3d 47f2 f9bc 8fe1 81be
00000180: d538 b83d 82bb 61be 736d 00be 0645 913c
00000190: acb0 e1bd cb38 0abe 6c97 d83e fe2a e8bc
000001a0: 45bb 7b3d a1b8 06be 76b7 77bd db2c 033e
000001b0: 2bd0 f6bd ee2a 28be d092 343e 64d9 1abc
000001c0: 225d 4cbe b524 c0bd 29da 08bc fd59 e3bc
000001d0: 6cfc babd da57 7c3e b8df 2cbe 11d3 b5bd
000001e0: cea4 8cbe 3d79 d33d 83f4 f13e 9a0c 083e
000001f0: 77e7 e6bc c186 9bbe b120 003e b622 a8bd
00000200: 0fec 863e d6e3 92bd 6f66 433b 3e38 073e
00000210: efad 60be f241 14be f8b0 ce3e bbb2 6a3b
00000220: 56cd 383e 8e4b 9abd 9c6c 9abc 346f 1abe
00000230: a35a d4be e721 92bd 066b 75bd 5784 9fbe
00000240: 1ac0 7dbe 4d85 5abe 6094 c83d df8e 22be
00000250: 4ca0 0abe 6325 503e 5214 b5bd e986 2b3c
00000260: d1fe 82be b689 453e fc92 943e 58f1 bd3e
00000270: da5f df3d 2e5a 99bd da03 20bc df9a 8abe
00000280: 15dd 27bc 4812 6dbe d9e9 1a3e 8cdd 3dbd
00000290: 0e28 763e 8672 943e 30e2 a6bd ec3d acbe
000002a0: 9153 d3bd 5303 8bbe 8548 2e3e 6b31 bdbc
000002b0: 71df 51bd e4d4 973e 4992 8b3d 48d4 2c3e
000002c0: 0a9a ddbc 27a4 38be bb12 37be 265a afbe
000002d0: 8506 41bc a911 043e 49cc d7be e6a0 093d
000002e0: ad35 0b3d 4edb e33d 22f6 23bd df93 8abd
000002f0: de54 e0be fb44 123e e7aa 693e 3b71 5c3c
00000300: 6770 a6bd 3c22 d73e aa59 163e e248 f7be
00000310: 804d 7f3e d3f6 8bbe d13a 03bd 378a f13d
00000320: f3ae 5ebe 0bcc 193d 3e13 243e 6902 613e
00000330: a1d7 e4bd 4812 3c3d 7c81 55be 9679 e03d
00000340: 4f27 76bc 53d6 ac3d b5be 1abe 6c67 38bc
00000350: 4b93 b5bd 87c2 523e 7261 193e ac4f c43e
00000360: 6d2c 05be 78e2 813e 35a1 8fbd 767d b3bd
00000370: 67fd efbd 8c93 a5bd c7b1 bc3c b09a 963c
00000380: 08c9 3a3e 618f 67be b0d7 863e 7a84 30be
00000390: 0a6b 2a3e 1042 b03b 8acf d6bd 24ca 9abe
000003a0: 756d 133d 664c f4bd 0b23 573e 9a48 253e
000003b0: f5f6 63be be52 ea3c 664e ef3d a49b 2ebe
000003c0: 4850 f7bc 077a b5bd 8cbc 84be e8f1 79be
000003d0: 881d 4ebe 3a14 b93d ad2f 70bd 5593 933c
000003e0: cde9 47bd 7ad2 823e b266 363e 71cc 703e
000003f0: 3198 89be bf3d dabd 314a 5a3e 95fe d03c
-0.05673318 0.101578996 0.08027906 -0.0017092085 0.115935564 0.005972173 0.10691647 0.013760792
0.078325644 0.056028288 0.051142298 0.023753436 -0.25139675 0.031221962 -0.16315667 -0.05338038
-0.0738429 -0.065890245 -0.015166535 -0.077220716 -0.11068304 0.27508804 0.04648595 0.01609741
-0.2537309 0.17515443 0.019907946 0.027587902 0.01710338 -0.06412351 0.002383456 -0.062401734
-0.09430223 0.028521128 -0.028126532 0.14301085 0.017683867 0.03375735 0.23877747 -0.27189478
0.10771977 -0.011528909 0.038491838 0.09281974 -0.06331253 -0.16412546 0.17664483 0.054995336
-0.13682853 -0.05819508 0.18383612 -0.19268076 -0.08716023 0.13231035 -0.120161705 -0.18541549
-0.12895831 0.034242637 0.062566295 -0.04404834 -0.31043553 -0.10435726 0.17923853 0.22314139
0.14567247 -0.15698816 -0.07529015 -0.02908371 0.07702687 0.07359022 0.117479935 -0.16779153
0.16923225 0.019822003 0.011946836 0.032393955 0.061645858 -0.07956379 0.043879166 0.020447794
-0.19719619 -0.08068829 -0.08552684 -0.05918948 -0.073150225 -0.012870552 0.056775123 -0.16581175
-0.18048586 0.21239266 0.12503007 0.07203484 0.0064402996 0.09188188 -0.030511035 -0.253674
0.08995215 -0.22044185 -0.12541752 0.017733108 -0.110200256 -0.13498227 0.42303026 -0.028340813
0.06145789 -0.13156368 -0.060477696 0.1281008 -0.12051424 -0.16422626 0.1763413 -0.009451244
-0.19957402 -0.09382001 -0.008352795 -0.02775287 -0.09130177 0.24642888 -0.16882217 -0.08878148
-0.27469486 0.10325859 0.4725686 0.13286057 -0.028186543 -0.30376247 0.12512471 -0.082097456
0.26351973 -0.071723625 0.0029815694 0.13205048 -0.2194135 -0.14478281 0.4036939 0.0035812098
0.1804708 -0.07533942 -0.018850617 -0.15081483 -0.414754 -0.071353726 -0.05991652 -0.31155655
-0.24780312 -0.21339913 0.09793925 -0.15874813 -0.13537711 0.20326762 -0.088417664 0.010469177
-0.25585034 0.19290814 0.2901839 0.37098193 0.10906954 -0.074879035 -0.009766543 -0.27071282
-0.010245581 -0.23151505 0.15128268 -0.04635386 0.24038717 0.28993624 -0.081486106 -0.33640993
-0.103186734 -0.27150974 0.17019852 -0.023094853 -0.05123848 0.2965461 0.06815011 0.16877854
-0.02705099 -0.18031369 -0.17878239 -0.34248465 -0.0117813395 0.12897362 -0.42148045 0.03360071
0.033986736 0.111258134 -0.040029652 -0.067664854 -0.4381475 0.14284126 0.228191 0.013454731
-0.08126908 0.42018306 0.14682642 -0.48297793 0.24931908 -0.2733675 -0.032038514 0.117939405
-0.21746425 0.037548106 0.16022965 0.21973576 -0.111739404 0.04591587 -0.20850176 0.10960691
-0.01502402 0.084393166 -0.15111811 -0.011255126 -0.088659845 0.20582019 0.14978579 0.38342035
-0.13005228 0.25368094 -0.0701317 -0.08764164 -0.117182545 -0.08084783 0.02303399 0.018384308
0.1824075 -0.22613288 0.26336432 -0.17238036 0.16642395 0.005378969 -0.10488804 -0.30232346
0.03599306 -0.11928634 0.21009462 0.16140977 -0.22262175 0.028603908 0.11684875 -0.1705156
-0.030189648 -0.088611655 -0.259251 -0.24408686 -0.20128453 0.09037061 -0.058639217 0.01801459
-0.048806954 0.25551206 0.17812613 0.23515488 -0.26873925 -0.106563084 0.21317364 0.02551202
