TS-CVAE/experiments/pedestrians/models/eth/models_04_Jun_2021_13_35_51_eth_ar3/model_registrar-7.pt (torch_old, 545382 bytes, 43 tensors)

weight_ih_l0 f4 [128, 6]
-0.044124752 0.08551433 -0.09180919 -0.029066967 -0.12930804 0.07881113 -0.17747061 -0.18002246
-0.06173603 0.13634065 0.035932995 0.046562415 -0.07801844 -0.06930464 -0.1601765 -0.13741103
-0.18907966 0.084918395 0.020949028 0.10795243 0.045716062 -0.015563727 -0.0318284 0.13722695
-0.12520407 0.051113926 -0.053005923 0.21434003 0.089896485 -0.17700173 0.20408304 0.024406452
-0.0011417739 0.1765144 0.10646012 -0.010561631 -0.15775186 -0.046093263 -0.10689875 0.010958351
-0.06998879 -0.14456898 -0.066619016 0.15947656 0.11089427 0.012971644 0.061747253 0.028477902
0.18714014 0.17839393 0.16068588 -0.040827136 -0.15807593 0.07925659 -0.057728637 -0.22655657
-0.0750258 0.23246238 0.074074894 -0.073392555 0.061645716 -0.022510387 -0.2429387 0.039109666
-0.15752679 0.07722808 -0.114903264 -0.046581708 -0.06150634 0.108907364 0.24115846 0.05646411
-0.045142926 -0.06068223 -0.018761449 -0.077086605 0.17621814 -0.25186694 0.014673031 0.11825988
0.03378901 -0.020983005 0.02252427 0.03417452 -0.13309899 -0.10430452 -0.18094808 0.14045559
0.30888978 -0.107315056 -0.059158817 0.14949259 0.109781966 0.04121299 0.030023204 0.113030426
0.1599263 0.13062905 0.19129609 -0.0892738 0.12535024 -0.22934133 0.008531776 -0.09337734
-0.0025117365 -0.047666695 0.03348763 0.057077236 0.10350358 -0.028542796 0.13179728 -0.15639423
0.19234747 0.18036696 -0.0128767425 0.007274179 -0.1579332 0.20009156 0.1971617 0.09666263
-0.16492185 0.09029054 0.21635251 -0.14235553 0.27060127 -0.10596202 -0.016784295 0.16618097
0.11414037 -0.028488554 -0.084183104 0.008604258 -0.035881255 -0.22356966 -0.0041684643 -0.007077762
0.0886775 0.01723209 -0.00064214517 -0.01355725 0.049139787 -0.09737673 0.10841784 0.062481355
-0.030754851 -0.10840052 -0.08022488 -0.0064020758 -0.09489559 -0.101350136 -0.04913961 -0.044442263
-0.11138429 0.10594717 0.046720844 0.10771043 0.051409308 -0.08898904 -0.30506906 0.19911689
0.038705032 0.20049071 -0.090131015 0.13777873 0.24974442 0.23785144 0.057886027 0.023716789
0.09437778 0.13497317 -0.012487312 -0.14295892 0.1685272 -0.0085090855 -0.13360663 -0.09908742
-0.17032962 -0.048405226 0.045206312 0.057805084 -0.06704093 -0.07042678 0.19545172 -0.07553255
-0.13349865 -0.023915268 -0.16719413 0.123118885 0.17608388 -0.16358097 -0.07481466 -0.24247955
0.077214085 0.18783027 -0.11800984 -0.13483247 0.010092666 -0.1955823 0.12621132 0.03495917
-0.009670909 0.05166904 0.15053505 -0.06915742 -0.10014038 -0.012734402 -0.072609276 -0.033579107
-0.09184924 0.0038657999 0.039789572 0.022590483 -0.022144297 -0.13771458 -0.052180413 -0.15365957
0.062032837 -0.13052304 0.053010445 0.15801486 -0.21298327 -0.054454155 0.092972405 -0.071067944
0.02652924 -0.12632859 -0.15582813 -0.0523791 0.09021568 -0.012791573 -0.04442283 -0.017368153
-0.1623384 0.04980135 0.011458662 -0.11005207 0.1301264 -0.032819703 -0.019456618 0.07119657
0.1352083 0.07225164 -0.089448 -0.08386549 -0.18077503 0.15543517 -0.15011223 -0.073774435
0.18147993 0.1283259 0.18481827 0.02118549 0.10245508 -0.18257013 -0.0233813 0.07143528
00000000: 28bc 34bd 2322 af3d 7506 bcbd d91d eebc
00000010: 5469 04be bb67 a13d dbba 35be cf57 38be
00000020: ebde 7cbd e29c 0b3e 7a2e 133d 3bb8 3e3d
00000030: 22c8 9fbd 97ef 8dbd 4f05 24be 7ab5 0cbe
00000040: 199e 41be b2e9 ad3d 4c9d ab3c 2a16 dd3d
00000050: c440 3b3d 01ff 7ebc 7f5e 02bd 3985 0c3e
00000060: 7f35 00be d65c 513d bd1c 59bd f47b 5b3e
00000070: a61b b83d f13f 35be 25fb 503e 0af0 c73c
00000080: 93a7 95ba 31c0 343e c307 da3d b10a 2dbc
00000090: b489 21be 4acc 3cbd bbed dabd a88a 333c
000000a0: 4856 8fbd e409 14be 8d6f 88bd d34d 233e
000000b0: 891c e33d 0587 543c b0ea 7c3d 7d4a e93c
000000c0: aaa1 3f3e e6ac 363e d78a 243e 5b3a 27bd
000000d0: a8de 21be 4751 a23d dd74 6cbd 72fe 67be
000000e0: 20a7 99bd 9e0a 6e3e 94b4 973d d64e 96bd
000000f0: 3880 7c3d b467 b8bc ecc4 78be 7531 203d
00000100: b44e 21be c129 9e3d 6752 ebbd 76cc 3ebd
00000110: 12ee 7bbd d30a df3d 3ef2 763e e946 673d
00000120: cae7 38bd ee8d 78bd 9cb1 99bc 95df 9dbd
00000130: 8772 343e b4f4 80be 2767 703c 3c32 f23d
00000140: 5866 0a3d 8de4 abbc d184 b83c 95fa 0b3d
00000150: 1a4b 08be 9c9d d5bd 744a 39be 97d3 0f3e
00000160: cd26 9e3e ffc7 dbbd 8450 72bd 9614 193e
00000170: 5ed5 e03d f4ce 283d 39f3 f53c 7f7c e73d
00000180: b8c3 233e 9fc3 053e 1fe3 433e 2fd5 b6bd
00000190: d05b 003e 74d8 6abe ddc8 0b3c 9e3c bfbd
000001a0: f29b 24bb 273e 43bd 532a 093d d2c9 693d
000001b0: aff9 d33d 95d2 e9bc def5 063e cf25 20be
000001c0: bcf6 443e 1eb2 383e f9f8 52bc 3c5c ee3b
000001d0: 3eb9 21be cde4 4c3e c2e4 493e 0ff7 c53d
000001e0: 46e1 28be 3fea b83d 838b 5d3e a6c5 11be
000001f0: 408c 8a3e 9e02 d9bd 387f 89bc 582b 2a3e
00000200: 6dc2 e93d d460 e9bc 3168 acbd e0f8 0c3c
00000210: 39f8 12bd 72ef 64be 9d97 88bb 92ec e7bb
00000220: 8d9c b53d 502a 8d3c a255 28ba 3a1f 5ebc
00000230: cd46 493d 736d c7bd 2c0a de3d 73ec 7f3d
00000240: 99f1 fbbc 1801 debd f14c a4bd 81c8 d1bb
00000250: 9e58 c2bd a990 cfbd 9e46 49bd 1709 36bd
00000260: 721d e4bd d4fa d83d 5b5e 3f3d 4997 dc3d
00000270: 9192 523d e33f b6bd 0332 9cbe 4ce5 4b3e
00000280: 2b89 1e3d 704d 4d3e 9c96 b8bd de15 0d3e
00000290: 00bd 7f3e 548f 733e e619 6d3d b649 c23c
000002a0: 2349 c13d 6836 0a3e 9597 4cbc d363 12be
000002b0: 6592 2c3e b169 0bbc 2dd0 08be 58ee cabd
000002c0: e36a 2ebe 8f44 46bd 412a 393d 06c5 6c3d
000002d0: c14c 89bd ea3b 90bd 7f24 483e cfb0 9abd
000002e0: dfb3 08be f4e9 c3bc f034 2bbe c125 fc3d
000002f0: 554f 343e c581 27be 6e38 99bd 8f4c 78be
00000300: 6b22 9e3d 9456 403e 25af f1bd 8611 0abe
00000310: b65b 253c ba46 48be 8a3d 013e 5931 0f3d
00000320: bb72 1ebc eaa2 533d dc25 1a3e 68a2 8dbd
00000330: 6616 cdbd f4a3 50bc 2cb4 94bd 3f8a 09bd
00000340: 741b bcbd 5c59 7d3b 64fa 223d ad0f b93c
00000350: f567 b5bc 0d05 0dbe 21bb 55bd ef58 1dbe
00000360: 2516 7e3d d5a7 05be 7b21 593d a6ce 213e
00000370: 4918 5abe 520b 5fbd 5168 be3d 128c 91bd
00000380: d953 d93c 485c 01be 6991 1fbe 788b 56bd
00000390: 00c3 b83d bf93 51bc b7f4 35bd a847 8ebc
000003a0: 0a3c 26be 80fc 4b3d 1dbd 3b3c fb62 e1bd
000003b0: db3f 053e f46d 06bd 7c63 9fbc 82cf 913d
000003c0: 0b74 0a3e abf8 933d 8330 b7bd acc1 abbd
000003d0: 171d 39be 662a 1f3e 05b7 19be 0d17 97bd
000003e0: e0d5 393e dd67 033e 0041 3d3e 318d ad3c
000003f0: f8d3 d13d aaf3 3abe 248a bfbc a94c 923d

weight_hh_l0 f4 [128, 32]
-0.06710326 -0.1387834 0.041896217 0.13399576 0.031242484 -0.038409237 -0.07113078 -0.079103544
0.05118253 0.16408117 0.010277094 0.23774818 -0.113589846 0.12945843 0.11713932 0.0014657953
-0.0115086 -0.08032603 0.03533069 -0.0717535 -0.233757 -0.04840495 -0.1049135 -0.29129386
0.20235324 -0.10953743 0.13717405 0.22054784 0.10350583 0.06257782 0.0563967 -0.13540123
0.10079418 -0.18061072 0.16628568 -0.029337224 0.13874294 0.17791869 0.037071623 -0.108534716
0.13362004 0.003994906 -0.18299438 -0.07274984 -0.24836685 0.13692914 0.15506092 -0.15200418
0.014487973 0.13705255 -0.111658484 0.048314855 -0.13001505 0.038372606 -0.1727056 -0.14896832
0.011423811 -0.1008325 -0.07555299 -0.12753643 -0.03156866 0.039838232 0.11531358 -0.14694087
0.115288265 -0.1781464 -0.06103434 0.12897359 0.19298896 0.16157146 -0.18295635 -0.23237598
-0.07364952 0.19361469 -0.25745142 0.1855046 -0.088773206 -0.12678055 0.15314414 -0.24889554
0.03146466 -0.08011911 0.07406541 -0.12518431 0.08999218 0.14250684 0.028994288 0.13089344
0.2005706 0.03084239 0.24113095 0.22119503 0.15924038 0.063503705 -0.11348852 0.054377943
0.054203242 0.02962317 0.07707462 0.13889775 -0.055503212 -0.0020800247 -0.071742535 0.10415489
-0.09869127 0.04110361 -0.16547851 -0.11127105 -0.20631799 -0.18785763 -0.11005958 -0.25654572
-0.07263793 0.12265034 -0.14371035 -0.043806013 -0.12413868 0.12304799 0.098547526 -0.12652987
-0.055455282 -0.04938532 -0.036411945 0.13715568 -0.039210096 0.11548424 0.14814465 -0.013586782
-0.17519821 -0.15098566 0.2523423 -0.14105618 0.24229048 -0.038857225 -0.05254709 0.031885725
-0.09273434 -0.043143094 -0.14429075 -0.0081067 -0.08346364 0.021431586 0.0018283852 -0.33161792
-0.14501731 -0.118794024 -0.04315108 -0.010157494 -0.05856874 0.2881488 -0.042580467 -0.1418678
0.112079136 -0.22063659 -0.044373836 -0.16589577 0.05540517 -0.06524689 0.22296493 -0.101674326
0.10828769 -0.11993873 0.13982046 -0.17054226 -0.03957518 -0.00030055875 -0.0145886745 -0.16747297
-0.07159949 0.08378718 0.072788015 -0.07201541 -0.1832077 0.021125808 -0.013484613 -0.18308996
-0.03544701 0.17455344 -0.22507113 0.14680727 0.012545489 0.005266022 -0.13442202 -0.069097795
-0.014361441 -0.15106662 0.19865492 0.23750266 0.04641434 0.103081666 0.20390213 0.062041093
0.14041583 0.010573888 -0.068467215 0.20701009 0.066413514 -0.02881278 0.04575585 -0.21413358
-0.107596114 0.1376884 -0.11226301 -0.023668513 -0.036095757 0.13128394 0.027154082 -0.09827161
-0.0587938 -0.10457686 -0.026197366 -0.10144285 -0.018596167 0.27429977 0.059603777 -0.07157172
-0.13890201 -0.020752652 0.20938325 0.112025335 -0.2024625 0.17534932 -0.09320461 0.03171479
0.16644317 -0.09913512 0.08576035 0.09148097 -0.04186486 0.119734436 0.11224391 -0.038091607
-0.06272035 -0.02678302 -0.046630032 -0.10897384 0.10883278 -0.044091463 0.089914 -0.0068755057
0.0774443 -0.014405927 -0.17257497 0.01113567 -0.24873318 0.079614356 -0.13263065 -0.23537005
0.081562266 0.096523054 0.04801693 0.19528794 0.12100201 0.13439336 0.052385155 0.13904712
00000000: 6f6d 89bd 3c1d 0ebe 5e9b 2b3d 2f36 093e
00000010: 3df0 ff3c 0153 1dbd 04ad 91bd 0a01 a2bd
00000020: c6a4 513d e504 283e 4261 283c 4274 733e
00000030: cba1 e8bd c090 043e bde6 ef3d ee1f c03a
00000040: 918e 3cbc f981 a4bd eab6 103d 80f3 92bd
00000050: ff5d 6fbe 4544 46bd e4dc d6bd 7824 95be
00000060: b035 4f3e 2955 e0bd 5b77 0c3e 4bd7 613e
00000070: ddfa d33d cd28 803d 3a00 673d 9fa6 0abe
00000080: 2e6d ce3d 04f2 38be cb46 2a3e 9e54 f0bc
00000090: a112 0e3e 5130 363e 6ad8 173d 7347 debd
000000a0: b1d3 083e b3e7 823b e162 3bbe defd 94bd
000000b0: e153 7ebe 2737 0c3e 4ac8 1e3e fca6 1bbe
000000c0: f75e 6d3c 8157 0c3e 34ad e4bd cce5 453d
000000d0: aa22 05be 982c 1d3d bdd9 30be 278b 18be
000000e0: f02a 3b3c 4581 cebd 87bb 9abd e998 02be
000000f0: 244e 01bd 6a2d 233d 8729 ec3d ab77 16be
00000100: 411c ec3d 036c 36be 25ff 79bd a711 043e
00000110: e69e 453e fd72 253e e958 3bbe f8f3 6dbe
00000120: 8fd5 96bd ee42 463e acd0 83be ebf4 3d3e
00000130: bace b5bd c3d2 01be d1d1 1c3e 79de 7ebe
00000140: 16e1 003d 7d15 a4bd 9baf 973d 5130 00be
00000150: d24d b83d 50ed 113e 6e85 ed3c ee08 063e
00000160: 6162 4d3e 2ea9 fc3c 08eb 763e f380 623e
00000170: e90f 233e 3b0e 823d ab6c e8bd 68bb 5e3d
00000180: 3804 5e3d 4aac f23c 4cd9 9d3d 363b 0e3e
00000190: 5657 63bd 0651 08bb c0ed 92bd 294f d53d
000001a0: a61e cabd 425c 283d 3373 29be 14e2 e3bd
000001b0: 0645 53be c05d 40be eb66 e1bd f659 83be
000001c0: 32c3 94bd 1a30 fb3d ce28 13be ef6d 33bd
000001d0: 6c3c febd 9600 fc3d 49d3 c93d 0c91 01be
000001e0: 1425 63bd 4348 4abd b124 15bd 8a72 0c3e
000001f0: c49a 20bd 0083 ec3d 3bb3 173e 189b 5ebc
00000200: 2967 33be fc9b 1abe 0333 813e 0871 10be
00000210: ff1a 783e c128 1fbd 9e3b 57bd 9b9a 023d
00000220: 80eb bdbd d0b6 30bd f4c0 13be f7d1 04bc
00000230: fcee aabd 4b91 af3c 6da6 ef3a d3c9 a9be
00000240: 6b7f 14be 484a f3bd 30bf 30bd 9e6b 26bc
00000250: c6e5 6fbd 3d88 933e db68 2ebd cb45 11be
00000260: bf89 e53d 8fee 61be 57c1 35bd 95e0 29be
00000270: 88f0 623d 29a0 85bd eb50 643e a13a d0bd
00000280: f0c5 dd3d 70a2 f5bd 182d 0f3e a1a2 2ebe
00000290: 9519 22bd 5094 9db9 5605 6fbc 097e 2bbe
000002a0: c1a2 92bd 9d98 ab3d e211 953d d17c 93bd
000002b0: cd9a 3bbe 0810 ad3c 91ee 5cbc ef7b 3bbe
000002c0: e230 11bd 23be 323e 0c79 66be a554 163e
000002d0: 988b 4d3c 988e ac3b eda5 09be 2583 8dbd
000002e0: 404c 6bbc 35b1 1abe 326c 4b3e e633 733e
000002f0: f71c 3e3d 7b1c d33d b8cb 503e cd1e 7e3d
00000300: 2bc9 0f3e 1a3e 2d3c 8a38 8cbd 74fa 533e
00000310: cf03 883d c708 ecbc 7c6a 3b3d d545 5bbe
00000320: 5a5b dcbd 30fe 0c3e 26ea e5bd 78e4 c1bc
00000330: 25d9 13bd 4c6f 063e 3d72 de3c a042 c9bd
00000340: c5d1 70bd 652c d6bd dc9b d6bc 45c1 cfbd
00000350: fd56 98bc 0571 8c3e 1723 743d 3294 92bd
00000360: 543c 0ebe 7701 aabc 9068 563e 8a6d e53d
00000370: 5452 4fbe c68e 333e 0fe2 bebd 5ee7 013d
00000380: 1470 2a3e 5b07 cbbd 1fa3 af3d 605a bb3d
00000390: 7d7a 2bbd 5437 f53d 23e0 e53d f205 1cbd
000003a0: 8773 80bd 1068 dbbc 22ff 3ebd ad2d dfbd
000003b0: b8e3 de3d 4099 34bd d524 b83d ec4b e1bb
000003c0: 1e9b 9e3d d606 6cbc 7eb7 30be 6372 363c
000003d0: e9b3 7ebe da0c a33d 54d0 07be d904 71be
000003e0: 1e0a a73d e1ad c53d 67ad 443d 90f9 473e
000003f0: e7cf f73d 6a9e 093e d191 563d 5e62 0e3e

bias_ih_l0 f4 [128]
0.008389735 0.07863828 0.08641594 0.030148828 0.03235951 0.2721956 0.076992266 -0.07848373
0.047240064 0.12458761 0.31413466 0.21761625 0.18870386 0.028321004 0.15964583 0.16850165
0.015887197 0.19590718 0.023090705 0.16779095 0.2174088 0.022005152 0.1360203 0.002419511
0.19961934 0.14841464 0.022759814 0.10842159 0.0038653656 0.056706786 0.020604959 0.044708103
0.090052515 -0.22456117 -0.2317891 0.07046623 -0.2720525 -0.12043486 -0.20835048 -0.09007155
-0.123122804 0.009810132 -0.07559567 -0.0025782902 -0.091325745 0.111220084 -0.021400062 -0.37112883
0.033592056 -0.013640112 -0.030786432 0.10303669 -0.32397473 -0.006932546 0.037163377 -0.0056777876
-0.020285835 0.0966189 0.042906236 0.18874937 -0.019307664 -0.28844494 -0.25419608 -0.17301233
0.1481724 0.121524304 -0.055675406 0.034384448 -0.10246594 0.009783834 0.10055884 -0.0396855
0.01118273 0.061163858 -0.088152416 0.024348745 -0.12204616 -0.040236373 -0.052934602 -0.10760585
-0.08252265 -0.11045101 0.16098584 -0.06694166 0.055222783 0.07063033 0.10314687 -0.1362199
0.114920534 -0.087216966 0.038316682 -0.19275345 -0.10836076 0.121834464 0.023696005 -0.07903612
0.20515902 0.040938802 0.12850775 0.08907778 0.20189178 0.21459337 0.10522886 -0.051164135
-0.07216445 0.16410685 0.07894 0.15318118 0.1517175 0.00482949 0.1922374 0.34732008
0.15390457 0.11814877 0.12634397 0.048137374 0.30504987 0.037981026 0.10006102 0.050293583
-0.020891994 0.18337615 0.1981544 0.042833637 0.14490627 0.261569 0.078879945 0.030461758
00000000: 1975 093c 1b0d a13d d7fa b03d adfa f63c
00000010: 688b 043d 395d 8b3e 1fae 9d3d 14bc a0bd
00000020: cc7e 413d ca27 ff3d 42d6 a03e cbd6 5e3e
00000030: 963b 413e 7301 e83c 327a 233e b28b 2c3e
00000040: de25 823c e49b 483e b828 bd3c 64d1 2b3e
00000050: 6aa0 5e3e 2644 b43c e848 0b3e a990 1e3b
00000060: 0369 4c3e 02fa 173e ca72 ba3c 230c de3d
00000070: 1352 7d3b 6045 683d bbcb a83c d81f 373d
00000080: 746d b83d 5df3 65be 1f5a 6dbe 9950 903d
00000090: 774a 8bbe 8da6 f6bd d459 55be 6f77 b8bd
000000a0: cf27 fcbd adba 203c e7d1 9abd 88f8 28bb
000000b0: fe08 bbbd 5bc7 e33d 2f4f afbc 9904 bebe
000000c0: d397 093d c77a 5fbc d433 fcbc e604 d33d
000000d0: 04e0 a5be 692a e3bb a038 183d bc0c babb
000000e0: 7b2e a6bc 21e0 c53d 73be 2f3d 8447 413e
000000f0: 1b2b 9ebc 0eaf 93be fd25 82be 252a 31be
00000100: 81ba 173e bce1 f83d e50b 64bd b5d6 0c3d
00000110: aad9 d1bd 604c 203c cbf1 cd3d 438d 22bd
00000120: c537 373c f486 7a3d 4189 b4bd 0577 c73c
00000130: 56f3 f9bd e5ce 24bd f4d1 58bd 7560 dcbd
00000140: a301 a9bd 2434 e2bd 79d9 243e b618 89bd
00000150: 4931 623d a2a6 903d ab3e d33d 3b7d 0bbe
00000160: 755b eb3d cf9e b2bd f4f1 1c3d 2961 45be
00000170: 3fec ddbd 5984 f93d 201e c23c b0dd a1bd
00000180: 3515 523e 72af 273d 8997 033e 696e b63d
00000190: b8bc 4e3e 5dbe 5b3e 3b82 d73d 7c91 51bd
000001a0: f5ca 93bd a00b 283e 4bab a13d 87db 1c3e
000001b0: d55b 1b3e b340 9e3b e2d9 443e f0d3 b13e
000001c0: 2999 1d3e fbf7 f13d 5060 013e b22b 453d
000001d0: 7f2f 9c3e fe91 1b3d cbec cc3d a500 4e3d
000001e0: b025 abbc f5c6 3b3e fde8 4a3e 5372 2f3d
000001f0: 4f62 143e 5fec 853e cf8b a13d f08a f93c

bias_hh_l0 f4 [128]
-0.03590039 0.091745876 -0.047374513 0.19163203 0.17613518 0.02829501 -0.024657525 0.09908076
0.13237758 0.28948304 0.057680853 0.09278839 -0.049589925 0.32258943 0.20020935 0.3289225
-0.071079746 0.18846731 -0.0725998 0.123513296 0.36508602 0.20272218 0.16454592 0.06671732
0.10128073 0.13328601 0.096314445 0.016839555 -0.077760614 0.047363814 0.09012413 0.094899006
0.001293394 -0.19847138 0.005900077 -0.13567764 0.03631279 0.04240859 -0.0674084 -0.2348973
-0.050237168 -0.04641211 -0.056661 -0.06376715 -0.09410804 -0.06821678 0.08455461 -0.32101664
-0.097206 -0.08156397 -0.002433467 -0.07824911 -0.18006755 -0.16972879 -0.18590283 -0.03366543
-0.22386785 -0.21200979 -0.21063037 0.1280568 -0.04752872 -0.054528803 -0.122111775 0.12837872
-0.13508657 -0.14724876 0.11440365 -0.021246616 0.15419476 0.04210482 -0.08558364 0.0072052446
0.15244083 -0.032454535 0.03968063 0.041642334 0.05866731 0.02620789 -0.1306395 0.038652603
0.010418612 0.13193943 0.086433 -0.19352359 -0.10175229 0.010177193 -0.14044759 0.11185816
-0.12357642 0.018423567 0.041283734 -0.07790694 -0.096906014 -0.15680987 -0.0008530981 0.024959773
0.09011922 0.17526439 -0.02759238 0.31639045 0.30050588 0.11798243 0.3038082 0.2594294
-0.12616564 0.18645744 0.32020837 0.23007324 0.16387904 0.19801165 0.112091824 0.3551841
0.17239723 -0.01864293 0.23143981 -0.075352065 0.2680979 0.22907574 0.2518366 0.18288304
0.16693705 0.15902446 0.25006896 0.049037144 0.015565896 0.25602698 0.10589811 0.23120011
00000000: 4a0c 13bd 43e5 bb3d c70b 42bd 303b 443e
00000010: c85c 343e f0ca e73c 94fe c9bc daea ca3d
00000020: fd8d 073e 1f37 943e c242 6c3d d707 be3d
00000030: ce1e 4bbd 712a a53e ae03 4d3e 8868 a83e
00000040: 4292 91bd 93fd 403e 34af 94bd 8af4 fc3d
00000050: 8eec ba3e 6796 4f3e ba7e 283e 17a3 883d
00000060: 456c cf3d 217c 083e 8240 c53d 1bf3 893c
00000070: f540 9fbd 8f00 423d 0093 b83d 695a c23d
00000080: 1a87 a93a 153c 4bbe 6f55 c13b 14ef 0abe
00000090: b8bc 143d a1b4 2d3d 6a0d 8abd eb88 70be
000000a0: 7dc5 4dbd a01a 3ebd 5d15 68bd 5a98 82bd
000000b0: b7bb c0bd 3db5 8bbd f82a ad3d 4b5c a4be
000000c0: f013 c7bd 030b a7bd cd7a 1fbb 1241 a0bd
000000d0: a163 38be 62cd 2dbe 505d 3ebe c3e4 09bd
000000e0: 9d3d 65be 1819 59be 7daf 57be 5221 033e
000000f0: 7aad 42bd 9859 5fbd bd15 fabd b675 033e
00000100: 2254 0abe 61c8 16be 764c ea3d 620d aebc
00000110: 3be5 1d3e 1b76 2c3d 7a46 afbd f919 ec3b
00000120: 7319 1c3e 0cef 04bd 2888 223d 2791 2a3d
00000130: 224d 703d eeb1 d63c 5cc6 05be 3152 1e3d
00000140: d3b2 2a3c 211b 073e c903 b13d 0c2b 46be
00000150: 8163 d0bd 3ebe 263c 7ed1 0fbe e415 e53d
00000160: a215 fdbd 05ed 963c 2219 293d ac8d 9fbd
00000170: a976 c6bd c492 20be 72a2 5fba 7078 cc3c
00000180: 6d90 b83d 8278 333e 6a09 e2bc eefd a13e
00000190: e8db 993e c6a0 f13d c08c 9b3e eed3 843e
000001a0: 9131 01be b3ee 3e3e 5af2 a33e 5298 6b3e
000001b0: e8cf 273e 91c3 4a3e 6690 e53d b1da b53e
000001c0: e688 303e 0fb9 98bc 8ffe 6c3e 2f52 9abd
000001d0: 2144 893e d592 6a3e baf0 803e b145 3b3e
000001e0: 8cf1 2a3e 4fd7 223e 0a09 803e 2cdb 483d
000001f0: 1a08 7f3c f815 833e 1ce1 d83d b9bf 6c3e

weight_ih_l0 f4 [128, 2]
0.043887265 0.11974324 -0.094729334 0.06368454 0.095416345 -0.035583686 -0.110224105 0.019731507
-0.07672341 -0.06276209 -0.014695745 0.117372975 -0.06345637 0.025097677 -0.03713344 -0.091141984
0.14037089 -0.103226885 0.022318626 0.06678389 -0.03909841 0.109828986 -0.021104997 -0.062542625
-0.105088525 0.09233611 0.09486352 0.015636189 -0.109491244 0.013019848 -0.0043543642 0.08184747
-0.08159881 0.08480815 0.11279663 0.14847088 0.02149268 0.013959464 -0.03820937 0.025896568
0.14869277 -0.13036287 -0.028115805 0.19060057 0.012473303 0.14916526 -0.18043712 0.076706104
0.022192957 -0.014500238 -0.09090457 0.00747906 0.098763496 0.13880895 -0.1217869 0.08232785
-0.10599858 0.14913948 -0.023871783 0.011366358 0.17374353 -0.07812768 -0.15066406 -0.09269342
-0.08967014 -0.16304992 0.013271276 -0.08469969 0.035263967 -0.12090594 0.08544363 0.05816331
0.24363342 -0.123890445 0.03594632 -0.031802133 -0.15791443 0.16632608 0.13935874 0.0585539
0.001897688 -0.06589049 0.19570595 -0.052583918 0.003984496 -0.023073478 -0.07891076 0.09010842
-0.15888031 0.11366226 -0.039869323 0.057115365 0.05172376 0.11566938 0.17627227 -0.038816255
0.11293078 0.03238597 -0.043206863 -0.16324684 0.011630548 0.13982949 -0.20586108 -0.05716985
-0.14193967 -0.1434152 0.14066987 -0.017786281 0.035017613 0.091658495 -0.14968672 -0.14183335
-0.11867455 -0.022720378 -0.023079874 -0.063589424 0.0067520034 0.0042195027 -0.044705473 -0.0648834
0.19250326 -0.07316926 -0.005914723 0.104583345 0.2195019 -0.034286585 -0.1519953 -0.1760616
0.06706023 0.110442445 -0.046053976 -0.15600803 -0.040360015 -0.11305308 -0.1083589 -0.19191425
-0.1422123 0.061226003 0.08673405 -0.15466279 -0.04240515 -0.14986044 0.12271482 -0.06490778
0.15245712 0.02722347 -0.10397184 0.22970746 0.086465344 0.16039161 -0.13492684 0.09427533
-0.15513611 -0.10244448 0.13201663 0.090668134 -0.069282606 -0.15996224 -0.13981992 0.14294988
0.08629623 -0.06765115 -0.14981316 0.09002251 -0.09270534 0.09697374 0.08923184 0.051864468
-0.091985025 -0.04871953 -0.15538791 0.028927576 -0.020606035 -0.17053483 0.15623435 0.057344146
0.14100951 0.050496086 -0.0023514137 0.20489307 -0.16057739 0.029845424 0.1492028 -0.080087535
0.17835961 0.066107035 0.1202281 0.19642814 0.15319231 0.038707316 -0.13833186 -0.058944985
-0.13260533 -0.016179448 0.056499626 0.091060616 -0.014762519 -0.20350307 0.11853938 -0.015275605
-0.0672983 -0.21186477 -0.043458156 0.053798474 -0.07237722 -0.036177326 -0.10857841 -0.14668414
0.0041212877 0.08444714 -0.014882303 -0.17531344 0.097225666 0.065142475 0.044120368 -0.04988801
0.15960799 0.116173916 -0.015380789 0.11560017 0.08979139 0.1352126 -0.06734752 0.13343123
-0.092206284 0.016966885 -0.08868278 -0.12285991 -0.17115091 -0.068357125 0.04390874 0.096078694
0.09022796 -0.098082356 -0.09646744 -0.039765384 0.13404053 0.12571883 -0.22100396 -0.10409035
0.15498547 0.11114486 -0.12321242 -0.20326768 0.08361631 -0.07012737 0.041917678 0.1330784
-0.0855405 0.090108 0.017504228 -0.049391016 0.1290421 -0.0033998773 -0.032119725 -0.17631
00000000: 22c3 333d f23b f53d 7401 c2bd 0a6d 823d
00000010: a569 c33d 33c0 11bd 2dbd e1bd f8a3 a13c
00000020: 2a21 9dbd 6989 80bd 6cc6 70bc 3e61 f03d
00000030: 6af5 81bd a599 cd3c 3c19 18bd a6a8 babd
00000040: 63bd 0f3e 9e68 d3bd 8dd5 b63c fec5 883d
00000050: a825 20bd 05ee e03d 63e4 acbc 5916 80bd
00000060: a738 d7bd b71a bd3d ce47 c23d 7717 803c
00000070: f23c e0bd 3351 553c 0eaf 8ebb a59f a73d
00000080: 471d a7bd e5af ad3d eb01 e73d c008 183e
00000090: 6b11 b03c 3cb6 643c 6e81 1cbd 0a25 d43c
000000a0: eb42 183e d87d 05be 1e53 e6bc cc2c 433e
000000b0: d35c 4c3c c7be 183e 82c4 38be 1718 9d3d
000000c0: 01ce b53c 6892 6dbc 2d2c babd e712 f53b
000000d0: 8444 ca3d ef23 0e3e 696b f9bd 819b a83d
000000e0: c915 d9bd 05b8 183e c28e c3bc f639 3a3c
000000f0: d3e9 313e 6801 a0bd ae47 1abe 0cd6 bdbd
00000100: faa4 b7bd 8ff6 26be c46f 593c 0877 adbd
00000110: f370 103d 899d f7bd 12fd ae3d a73c 6e3d
00000120: 0a7b 793e 46ba fdbd 733c 133d f442 02bd
00000130: 52b4 21be 6251 2a3e 0fb4 0e3e 37d6 6f3d
00000140: d8bb f83a 98f1 86bd 2467 483e 3c62 57bd
00000150: 6090 823b 9704 bdbc f79b a1bd c38a b83d
00000160: 85b1 22be c2c7 e83d 044e 23bd cdf1 693d
00000170: 4bdc 533d 11e4 ec3d b880 343e cbfd 1ebd
00000180: 4148 e73d 27a7 043d aef9 30bd 2e2a 27be
00000190: 0e8e 3e3c 762f 0f3e 3fcd 52be ef2a 6abd
000001a0: a258 11be 6fdb 12be c30b 103e 89b4 91bc
000001b0: a16e 0f3d 73b7 bb3d 7a47 19be c33c 11be
000001c0: a40b f3bd 1620 babc 0112 bdbc 2c3b 82bd
000001d0: e93f dd3b c143 8a3b 161d 37bd 97e1 84bd
000001e0: 931f 453e c4d9 95bd 4bd0 c1bb cb2f d63d
000001f0: 1bc5 603e 1770 0cbd a8a4 1bbe 7e49 34be
00000200: e056 893d a62f e23d 18a3 3cbd 92c0 1fbe
00000210: 8b50 25bd 6088 e7bd 45eb ddbd 2b85 44be
00000220: 1aa0 11be 1ec8 7a3d 9fa1 b13d ec5f 1ebe
00000230: 06b1 2dbd 0475 19be e851 fb3d 5fee 84bd
00000240: b81d 1c3e c103 df3c 30ef d4bd 6f38 6b3e
00000250: be14 b13d b33d 243e 432a 0abe 6d13 c13d
00000260: 00dc 1ebe 69ce d1bd 5e2f 073e 37b0 b93d
00000270: 0ae4 8dbd 24cd 23be f42c 0fbe 7461 123e
00000280: 14bc b03d b08c 8abd 9f68 19be b95d b83d
00000290: 4cdc bdbd 2b9a c63d 2fbf b63d d66f 543d
000002a0: a562 bcbd 218e 47bd 021e 1fbe 86f9 ec3c
000002b0: fdcd a8bc afa0 2ebe e6fb 1f3e b2e1 6a3d
000002c0: cc64 103e fcd4 4e3d 2d1a 1abb 7dcf 513e
000002d0: 666e 24be 647e f43c 9ec8 183e ef04 a4bd
000002e0: e7a3 363e 2063 873d 263a f63d 7524 493e
000002f0: 72de 1c3e 908b 1e3d dea6 0dbe 4c70 71bd
00000300: b1c9 07be c38a 84bc 276c 673d fd7d ba3d
00000310: 7ede 71bc 1c63 50be c6c4 f23d 8846 7abc
00000320: b1d3 89bd 14f3 58be 2e01 32bd ca5b 5c3d
00000330: 823a 94bd ad2e 14bd 5c5e debd 5e34 16be
00000340: de0b 873b 9ff2 ac3d e7d4 73bc 5e85 33be
00000350: 401e c73d 6b69 853d 8fb7 343d 5f57 4cbd
00000360: 4770 233e 97ec ed3d b4ff 7bbc c8bf ec3d
00000370: 8ce4 b73d 2c75 0a3e 7fed 89bd 32a2 083e
00000380: a6d6 bcbd 23fe 8a3c 519f b5bd fa9d fbbd
00000390: 2f42 2fbe d2fe 8bbd a7d9 333d e8c4 c43d
000003a0: 70c9 b83d 67df c8bd b990 c5bd 07e1 22bd
000003b0: ec41 093e 70bc 003e dd4e 62be 522d d5bd
000003c0: 83b4 1e3e eb9f e33d cb56 fcbd 6725 50be
000003d0: 073f ab3d f09e 8fbd dfb1 2b3d b445 083e
000003e0: dc2f afbd 8b8a b83d 0765 8f3c 3c4e 4abd
000003f0: 9d23 043e 7ad0 5ebb f98f 03bd 9c8a 34be

weight_hh_l0 f4 [128, 32]
-0.092301056 -0.042008564 -0.03730464 0.1614327 -0.06366509 0.092437096 -0.03346824 -0.0878555
-0.13854755 0.02186224 0.11717073 0.09223887 0.12853557 0.055836804 -0.11887448 -0.0072403927
0.10632912 -0.14025055 -0.00086377386 0.12981917 0.09927858 -0.110008724 -0.15755343 -0.077991486
-0.15813565 0.03546221 -0.16145334 0.17757718 0.07575747 -0.19000763 -0.1486248 0.2803469
0.02640037 -0.17505234 0.05417825 -0.038264435 -0.079852834 0.023790175 -0.23190466 -0.02129833
0.03143851 0.039889213 -0.108357035 -0.14501205 0.033864785 0.19715238 -0.02039592 0.060533218
0.08415802 -0.06356688 0.08620977 0.25361264 0.17427203 -0.17507645 0.07996726 0.14383109
0.13254255 -0.22514004 -0.002889618 -0.1460014 0.022360763 0.11508408 -0.05448918 0.016667727
-0.031438522 -0.03341755 0.10530792 0.0043273163 -0.22368768 -0.13122316 -0.12613463 -0.060117386
-0.1434843 -0.18369563 -0.14053418 -0.028930148 -0.026084336 0.17345864 -0.030892294 0.05218506
0.012792829 0.037816968 -0.15142703 -0.18497169 -0.018333167 -0.03132014 -0.22892396 0.035281226
-0.046401758 -0.25090474 -0.13367774 -0.10819961 -0.11354854 0.14527448 0.035769965 -0.03553682
0.15292914 -0.009829782 0.17736156 0.03596129 -0.04644132 0.032188877 0.120606504 0.05415653
0.11910611 0.13060816 -0.049859047 0.008179061 -0.0062675546 -0.08729105 -0.09116339 -0.05328127
-0.21419868 -0.026444132 -0.04885861 -0.18954761 0.09221283 0.14479347 -0.0034256752 -0.10703846
0.0052792677 0.04834076 -0.03198472 -0.11866735 -0.017646207 -0.063407734 0.08368068 -0.038943693
0.058283128 0.032346956 0.050926574 0.058085427 0.048811246 0.12700142 0.108960845 -0.078082025
0.114164114 0.12056592 -0.07567954 -0.085580006 0.021110062 0.18580842 0.10221853 0.10151893
-0.24305099 0.031323258 0.08149604 -0.05124741 0.0923049 0.14803542 0.113162294 -0.14312646
-0.122552365 0.08612313 -0.19720094 -0.02078022 -0.029955337 0.15309906 0.1752447 -0.012049221
0.030970287 -0.1655245 -0.02245864 -0.0735737 -0.20714992 0.17875019 -0.099972285 0.24507797
0.19163841 -0.23560469 -0.12184628 0.04345076 0.050114505 -0.09717944 0.07646164 -0.050408464
-0.1135505 0.063767165 -0.05033622 0.15166157 -0.10942426 -0.024746535 -0.13709466 -0.02557179
0.17122129 0.0648534 0.11098232 -0.084036484 0.05460983 -0.1844146 0.24466605 -0.02081928
0.08641316 -0.017152637 0.14055525 0.026595837 0.009694556 -0.1368995 -0.17757414 0.16807702
-0.097553134 -0.13523622 -0.011394019 0.06949372 0.01462712 0.1547407 -0.11455451 -0.1441799
-0.019763041 -0.07257501 0.08631228 -0.045584865 0.24540856 0.11985354 -0.14800946 0.10177128
0.031958595 -0.08080602 -0.08578218 0.058091138 0.10675839 -0.1115395 -0.1349275 0.026676515
0.10257861 0.07551774 0.00095246866 0.083774604 0.054655056 -0.20162256 0.090642236 0.045462247
0.035494465 -0.24526471 -0.06576514 0.17524813 0.18461703 -0.08895046 0.10621912 0.101333335
-0.0075886203 -0.01913563 -0.09437268 0.010100646 -0.054472465 0.063067876 -0.12823729 -0.22539046
0.065879144 -0.04932473 0.06203157 0.027527217 -0.063327335 0.09214405 0.12531808 0.09262352
00000000: 5608 bdbd 2c11 2cbd c0cc 18bd 9d4e 253e
00000010: d862 82bd a94f bd3d fe15 09bd 96ed b3bd
00000020: 69df 0dbe 7118 b33c 35f7 ef3d bce7 bc3d
00000030: d49e 033e 22b5 643d 7774 f3bd d140 edbb
00000040: 15c3 d93d d79d 0fbe e26e 62ba 51ef 043e
00000050: 9152 cb3d 414c e1bd b055 21be 00ba 9fbd
00000060: 50ee 21be d340 113d 0654 25be cbd6 353e
00000070: bc26 9b3d 5c91 42be 1931 18be a189 8f3e
00000080: 9745 d83c ec40 33be 03ea 5d3d 2bbb 1cbd
00000090: e289 a3bd 9de3 c23c 6a78 6dbe d679 aebc
000000a0: abc5 003d df62 233d 4bea ddbd 0a7e 14be
000000b0: cdb5 0a3d 50e2 493e 5815 a7bc aef1 773d
000000c0: 0a5b ac3d 5a2f 82bd bf8e b03d 84d9 813e
000000d0: 5e74 323e 3e47 33be e0c5 a33d 7548 133e
000000e0: 3cb9 073e 1c8b 66be bf5f 3dbb 6481 15be
000000f0: eb2d b73c 34b1 eb3d 0c30 5fbd c28a 883c
00000100: aec5 00bd d7e0 08bd aeab d73d 29cc 8d3b
00000110: 620e 65be 5d5f 06be 7029 01be a63d 76bd
00000120: 8ced 12be b51a 3cbe 31e8 0fbe ebfe ecbc
00000130: d1ae d5bc 249f 313e d611 fdbc 00c0 553d
00000140: 0499 513c f7e5 1a3d b00f 1bbe 3869 3dbe
00000150: 702f 96bc 8c49 00bd 0b6b 6abe 0c83 103d
00000160: c50f 3ebd 9676 80be d1e2 08be c297 ddbd
00000170: 238c e8bd d5c2 143e 8783 123d 0e8f 11bd
00000180: 7599 1c3e 180d 21bc 459e 353e 254c 133d
00000190: 4139 3ebd 7cd8 033d 8b00 f73d 3dd3 5d3d
000001a0: e7ed f33d 25be 053e 0039 4cbd 7801 063c
000001b0: 0f60 cdbb a6c5 b2bd dfb3 babd 763d 5abd
000001c0: e656 5bbe 5da1 d8bc f71f 48bd c518 42be
000001d0: 15da bc3d bd44 143e 4b81 60bb fb36 dbbd
000001e0: b5fd ac3b f600 463d 6902 03bd de07 f3bd
000001f0: c78e 90bc eadb 81bd c760 ab3d 6c83 1fbd
00000200: 4aba 6e3d 3e7e 043d 6298 503d fcea 6d3d
00000210: 4dee 473d a90c 023e dd26 df3d 78e9 9fbd
00000220: e0ce e93d 44eb f63d e0fd 9abd 9244 afbd
00000230: 02ef ac3c 9044 3e3e f357 d13d 28e9 cf3d
00000240: 5ce2 78be d14c 003d 65e7 a63d cee8 51bd
00000250: 5a0a bd3d 9996 173e a2c1 e73d be8f 12be
00000260: bcfc fabd 5361 b03d 0bef 49be 483b aabc
00000270: e564 f5bc 00c6 1c3e 5973 333e 196a 45bc
00000280: 66b5 fd3c 417f 29be 2ffb b7bc cfad 96bd
00000290: 1c1f 54be 4a0a 373e 45be ccbd b8f5 7a3e
000002a0: dc3c 443e 5b42 71be 8b8a f9bd 6df9 313d
000002b0: de44 4d3d 0406 c7bd ec97 9c3d 1b79 4ebd
000002c0: 2a8d e8bd 5c98 823d 5a2d 4ebd 2c4d 1b3e
000002d0: d419 e0bd 3fb9 cabc 8b62 0cbe ee7b d1bc
000002e0: a254 2f3e dcd1 843d b34a e33d 521b acbd
000002f0: 8fae 5f3d 2ed7 3cbe bd89 7a3e 328d aabc
00000300: 62f9 b03d b083 8cbc b7ed 0f3e 83df d93c
00000310: ead5 1e3c 622f 0cbe ffd5 35be 621c 2c3e
00000320: f0c9 c7bd 5d7b 0abe fbad 3abc b952 8e3d
00000330: 97a6 6f3c 5974 1e3e 8e9b eabd e5a3 13be
00000340: 1ae6 a1bc 35a2 94bd 7ec4 b03d 32b7 3abd
00000350: 624c 7b3e c675 f53d cb8f 17be 766d d03d
00000360: 04e7 023d a07d a5bd 91ae afbd f9f0 6d3d
00000370: 25a4 da3d d26e e4bd 6f2a 0abe b588 da3c
00000380: bc14 d23d 0ba9 9a3d 17af 793a 0592 ab3d
00000390: fbdd 5f3d 2576 4ebe a3a2 b93d 9f36 3a3d
000003a0: a562 113d ac26 7bbe e0af 86bd 3f74 333e
000003b0: 3f0c 3d3e a92b b6bd 6989 d93d da87 cf3d
000003c0: f6a9 f8bb 53c2 9cbc 7746 c1bd 2e7d 253c
000003d0: 851e 5fbd bb29 813d a350 03be c2cc 66be
000003e0: a5eb 863d ba08 4abd d114 7e3d c280 e13c
000003f0: c3b1 81bd 05b6 bc3d 6253 003e 66b1 bd3d

bias_ih_l0 f4 [128]
-0.054828547 -0.10963945 0.06713873 0.08730019 0.032675233 0.097869046 0.14950113 -0.10102738
4.9465816e-05 0.068325125 -0.14620245 -0.13665059 0.011003615 0.15231054 -0.16134207 0.05384044
0.047545746 0.13574342 0.1872219 -0.087358 0.12967904 -0.01152335 -0.14735147 -0.052123602
0.01626296 0.023801059 0.06077167 0.046562225 0.117313065 0.13049975 0.16985613 -0.020428156
0.17587022 -0.13242833 -0.12005669 -0.13009672 -0.036630865 0.06512256 -0.035683755 0.16101849
0.18720132 0.18697673 0.039056946 0.19193591 -0.105132625 0.14519353 0.019610064 -0.04592804
-0.10449778 0.21082264 0.17702202 0.1772385 0.02404996 0.12903836 -0.10355009 0.030567087
-0.01112382 0.12791763 0.05776447 0.20832936 -0.11979146 0.074019276 -0.0050370847 -0.047300536
-0.09853414 0.027241625 0.15019485 -0.14909714 0.01878065 0.086628765 0.16533186 0.08662271
0.13445085 -0.06201791 0.060376003 0.035552587 0.05621825 0.0132779 0.078258775 -0.120372966
-0.17069659 -0.108761154 0.15431426 -0.09713719 0.033198908 -0.18323845 -0.10655356 0.17407192
-0.15412848 -0.03644776 0.09560686 -0.00796296 0.018821 -0.06689541 -0.09173523 0.07639419
-0.006854835 0.16387498 0.12577718 0.07372396 0.16250317 0.16946465 0.24700837 -0.0036131234
0.006860356 0.21663816 -0.012757356 -0.103892975 -0.122167125 0.18011518 0.08865158 0.07995468
0.075880386 -0.06712091 0.15345375 0.08899791 -0.066387855 0.1526271 -9.1968745e-05 -0.10249898
0.21532334 0.01609946 0.17543991 -0.016355664 -0.062842935 0.060846385 0.14014816 -0.028527638
00000000: e693 60bd a68a e0bd 0880 893d 71ca b23d
00000010: 77d6 053d 916f c83d d316 193e 71e7 cebd
00000020: 8479 4f38 0bee 8b3d 18b6 15be 22ee 0bbe
00000030: 8248 343c 4bf7 1b3e db36 25be cb87 5c3d
00000040: 54bf 423d 5300 0b3e 19b7 3f3e c0e8 b2bd
00000050: 95ca 043e 6fcc 3cbc 4ee3 16be 8f7f 55bd
00000060: e639 853c 70fa c23c b7eb 783d 08b8 3e3d
00000070: d541 f03d baa1 053e c4ee 2d3e f358 a7bc
00000080: 5317 343e 4b9b 07be 48e0 f5bd 1338 05be
00000090: 3f0a 16bd fa5e 853d 2129 12bd 08e2 243e
000000a0: b4b1 3f3e d476 3f3e 2dfa 1f3d d98a 443e
000000b0: c64f d7bd 9dad 143e 49a5 a03c 0a1f 3cbd
000000c0: ef02 d6bd e4e1 573e 4345 353e 027e 353e
000000d0: 6c04 c53c a222 043e 1212 d4bd d467 fa3c
000000e0: af40 36bc d7fc 023e 709a 6c3d 4b54 553e
000000f0: 3a55 f5bd 6b97 973d 210e a5bb 35be 41bd
00000100: 44cc c9bd d429 df3c aecc 193e ecac 18be
00000110: e1d9 993c 6c6a b13d c14c 293e 3f67 b13d
00000120: 7cad 093e 7e06 7ebd d44c 773d 979f 113d
00000130: 1c45 663d 8d8b 593c 2346 a03d 1a86 f6bd
00000140: 16cb 2ebe 2bbe debd 8f04 1e3e ddef c6bd
00000150: 94fb 073d dca2 3bbe c138 dabd e93f 323e
00000160: dbd3 1dbe 3f4a 15bd 88cd c33d 1377 02bc
00000170: 7f2e 9a3c 7600 89bd aedf bbbd 8f74 9c3d
00000180: 869e e0bb d8ce 273e bccb 003e 96fc 963d
00000190: 3b67 263e 2488 2d3e c3ef 7c3e 27ca 6cbb
000001a0: d6cc e03b 65d6 5d3e 3b04 51bc d7c5 d4bd
000001b0: c232 fabd 1d70 383e f68e b53d 47bf a33d
000001c0: 2d67 9b3d b076 89bd fb22 1d3e 8944 b63d
000001d0: 5bf6 87bd 474a 1c3e 58df c0b8 fcea d1bd
000001e0: b97d 5c3e 04e3 833c 85a6 333e 50fc 85bc
000001f0: ccb3 80bd 0f3a 793d 0083 0f3e cbb2 e9bc

bias_hh_l0 f4 [128]
0.1742109 0.14984876 -0.0026736883 -0.08163075 0.12670946 0.18554945 -0.09711725 0.0030572428
0.07872678 0.14045578 0.0588548 0.072103605 0.011545138 0.16159599 0.06794198 0.10491545
-0.0035011366 0.056620598 0.096979424 -0.13231958 0.13474374 0.09791122 0.14703286 -0.12560025
-0.09073469 -0.05935726 0.0250134 -0.049612883 0.14315544 0.15470865 0.029040975 0.008542966
0.04166236 0.088585496 0.0038678555 -0.02568894 -0.026218774 -0.10174336 -0.15879059 -0.12895183
-0.074442245 0.008281402 -0.04227479 0.08618105 0.039411973 0.158286 -0.13683388 -0.11985352
-0.03703148 -0.049274087 0.032018986 -0.009945028 0.016456459 0.052159585 0.041286897 -0.11700696
0.01331123 0.17282197 -0.0315093 -0.010626327 0.07865708 -0.11825319 -0.12457368 0.12965178
0.08075422 0.045183796 -0.03851761 -0.11591866 0.092276804 -0.11463347 -0.038867254 0.0859529
-0.12627906 0.16064112 -0.014702874 0.14288113 0.017349541 0.08615981 0.05535973 -0.013600863
-0.08179625 0.062414788 -0.12888883 0.0009113632 0.08016494 -0.14154996 0.025030935 0.109744996
-0.08997475 0.18608871 -0.10859222 0.008173825 -0.1299029 -0.10555217 0.13329218 -0.10317093
0.25752908 0.13984707 0.025182417 -0.19259316 -0.010677253 0.1826605 0.172097 0.07011188
0.049933672 0.22936341 -0.067527115 -0.08312193 -0.114286 0.039272867 0.15439531 0.18203582
0.22397327 -0.008735443 -0.06849935 0.07428801 -0.08355529 -0.03750452 0.12077121 0.18428059
0.09025868 0.1419325 -0.036225185 0.1690432 0.21267347 0.12803754 0.064969525 0.036182392
00000000: 5864 323e f471 193e 0c39 2fbb 062e a7bd
00000010: 20c0 013e ad00 3e3e 69e5 c6bd 065c 483b
00000020: 823b a13d a4d3 0f3e bb11 713d 0eab 933d
00000030: d227 3d3c 6b79 253e 2a25 8b3d e9dd d63d
00000040: 5373 65bb 00eb 673d 269d c63d c97e 07be
00000050: 43fa 093e ad85 c83d c88f 163e 5a9d 00be
00000060: 1cd3 b9bd 9920 73bd e7e8 cc3c e136 4bbd
00000070: 5797 123e f26b 1e3e 57e7 ed3c ccf7 0b3c
00000080: 27a6 2a3d 506c b53d d97b 7d3b 9d71 d2bc
00000090: c1c8 d6bc d35e d0bd 009a 22be f30b 04be
000000a0: 2d75 98bd b8ae 073c 5528 2dbd b17f b03d
000000b0: 736e 213d ba15 223e 2e1e 0cbe c375 f5bd
000000c0: 52ae 17bd a0d3 49bd 5726 033d 79f0 22bc
000000d0: b2cf 863c 4aa5 553d 731c 293d 58a1 efbd
000000e0: 5817 5a3c 3ef8 303e e50f 01bd 0c1a 2ebc
000000f0: f716 a13d ba2e f2bd 7c20 ffbd 70c3 043e
00000100: 7862 a53d a512 393d a4c4 1dbd c366 edbd
00000110: 9ffb bc3d f4c4 eabd 4533 1fbd 1308 b03d
00000120: 4c4f 01be 1b7f 243e 53e4 70bc 6e4f 123e
00000130: a020 8e3c 8e74 b03d e2c0 623d 27d6 5ebc
00000140: cb84 a7bd a6a6 7f3d 6ffb 03be 8de8 6e3a
00000150: 842d a43d 79f2 10be ad0d cd3c fcc1 e03d
00000160: af44 b8bd 0a8e 3e3e 9965 debd 82eb 053c
00000170: 4405 05be bc2b d8bd bf7d 083e 484b d3bd
00000180: dada 833e 1234 0f3e 5b4b ce3c 2437 45be
00000190: a5ef 2ebc 5b0b 3b3e 323a 303e d196 8f3d
000001a0: 4087 4c3d 3ede 6a3e a84b 8abd d53b aabd
000001b0: c70e eabd 96dc 203d ce19 1e3e 9967 3a3e
000001c0: 4059 653e 1b1f 0fbc 6349 8cbd 5024 983d
000001d0: 091f abbd 579e 19bd e556 f73d 0db4 3c3e
000001e0: 8bd9 b83d c156 113e dc60 14bd a919 2d3e
000001f0: 13c7 593e 461c 033e be0e 853d fd33 143d

weight_ih_l0_reverse f4 [128, 2]
-0.11841077 -0.29649872 0.3069708 -0.14701441 -0.21981388 -0.2539814 0.09273405 -0.34274048
-0.0731757 -0.16619067 0.10883001 -0.41157007 0.1237016 0.08884449 0.12389047 -0.2984059
-0.072532006 -0.46338856 -0.19655064 0.41105616 -0.25373176 0.07296425 0.5351787 -0.14643005
-0.16571468 0.043986965 -0.20357513 -0.16640644 0.29428488 0.023418907 0.5073473 0.111454815
-0.02019777 -0.21554647 0.017689789 0.09620949 -0.051207256 -0.16731209 -0.21993142 0.13106062
-0.38812584 0.050399 -0.3505253 0.4049945 -0.3666718 0.041640066 0.36714932 -0.14566548
-0.26559168 0.3837324 -0.49055675 -0.3051164 -0.11361659 0.057017118 -0.12695754 0.41262296
0.33487526 -0.099856235 0.047189567 0.19732085 -0.14051098 -0.0093657505 0.05928643 -0.29206696
-0.25944364 -0.0035901666 0.35640386 -0.283127 -0.15187183 -0.12579498 -0.021727882 -0.37314993
-0.08977139 -0.12161802 0.29348832 -0.1281053 -0.13490131 0.13032381 0.15636009 -0.0812734
0.054079212 -0.19103618 -0.09612383 0.1155546 0.008570365 -0.13067323 0.2696088 -0.11566102
-0.037981447 0.09790574 -0.08200206 -0.12514251 0.17992333 -0.13882042 0.29130417 0.074208446
0.06923979 -0.2490713 -0.020636028 0.20731442 -0.019835409 -0.1263779 -0.21761233 0.0980603
-0.1902518 0.09806035 -0.2381555 0.20206724 -0.04913878 -0.16318245 0.046847418 -0.18345587
-0.067523524 0.06507249 -0.18344225 -0.30331302 -0.03394192 -0.028675633 0.025401685 0.18056993
0.06571302 0.068547234 0.17780086 0.15469944 -0.07715455 0.058833368 0.21849556 -0.26209766
-0.32179305 -0.14456773 0.0035761686 0.3198103 0.095773354 0.19417962 -0.21481934 -0.28833827
0.2509978 0.37934923 0.34153676 -0.11909751 -0.022915939 -0.3187009 -0.451368 0.209462
-0.087597385 -0.33049458 -0.20438278 0.3187963 0.2698426 0.010034749 0.49001524 -0.013991269
0.16656542 0.014121131 0.25996053 0.29276514 0.08038241 -0.32396153 0.25304303 0.08457185
0.14293647 0.15921712 0.14478402 0.46328333 0.043382496 -0.4238854 -0.43254232 0.1282705
-0.4494133 0.05481099 0.28846583 -0.36011434 -0.4151869 0.012680905 0.007219096 0.24642394
-0.25501946 0.45018607 0.39284888 0.33279556 -0.13076212 -0.2803841 -0.06701169 -0.2901448
-0.5276021 0.07584889 0.37299517 0.08113911 0.23881981 -0.18010068 0.2853694 -0.19055018
0.03988175 -0.14123195 0.24440469 -0.20781016 -0.23720708 -0.24449122 -0.24179527 -0.3006735
-0.09774843 0.08321546 0.11753831 -0.13335465 -0.24284412 0.0025847105 0.24997869 -0.29736584
-0.22420645 -0.42223343 -0.08089708 0.040081162 0.18074784 -0.03340116 0.49666813 -0.17894344
0.17104505 -0.20439778 -0.17683022 -0.15620106 0.25720933 -0.07129188 0.1910546 -0.06021734
0.13289066 -0.037702393 0.1307462 -0.029326648 -0.08298266 -0.20651424 -0.34128124 0.21869756
-0.32787168 -0.3175087 -0.32186103 0.58430725 -0.17720261 -0.22086553 -0.0629932 -0.10636427
-0.11728145 0.46414548 -0.16404791 -0.38437653 -0.19161052 0.25835532 -0.031657826 0.29279342
0.53811264 -0.16538683 0.028644904 -0.053020056 -0.20276816 0.027364777 0.048411965 -0.28137884
00000000: 5981 f2bd aece 97be 472b 9d3e f28a 16be
00000010: e416 61be da09 82be 59eb bd3d ae7b afbe
00000020: 24dd 95bd e32d 2abe 45e2 de3d 50b9 d2be
00000030: 4457 fd3d 1af4 b53d 49ba fd3d a8c8 98be
00000040: a98b 94bd 4441 edbe 9244 49be f475 d23e
00000050: 21e9 81be 486e 953d 7901 093f c2f1 15be
00000060: 1cb1 29be ad2b 343d 0076 50be 7366 2abe
00000070: 82ac 963e 02d9 bf3c 83e1 013f 6c42 e43d
00000080: cb75 a5bc 37b8 5cbe 2dea 903c 7b09 c53d
00000090: b3be 51bd dc53 2bbe b435 61be c134 063e
000000a0: 6eb8 c6be 2f6f 4e3d 0d78 b3be 705b cf3e
000000b0: 68bc bbbe c68e 2a3d fffa bb3e 5529 15be
000000c0: a2fb 87be 9378 c43e 412a fbbe 3738 9cbe
000000d0: d1af e8bd c88a 693d 2801 02be 5143 d33e
000000e0: c574 ab3e 6d81 ccbd d949 413d 7a0e 4a3e
000000f0: 1ce2 0fbe ce72 19bc 54d6 723d cd89 95be
00000100: ccd5 84be 0049 6bbb 917a b63e 06f6 90be
00000110: 4a84 1bbe 66d0 00be acfe b1bc 820d bfbe
00000120: 10da b7bd de12 f9bd 1a44 963e 092e 03be
00000130: 9223 0abe 9b73 053e dc1c 203e ab72 a6bd
00000140: 2a82 5d3d fd9e 43be 92dc c4bd e4a7 ec3d
00000150: b76a 0c3c 34cf 05be 2a0a 8a3e afdf ecbd
00000160: 6f92 1bbd ce82 c83d b2f0 a7bd 5c25 00be
00000170: d23d 383e f126 0ebe d225 953e 99fa 973d
00000180: 97cd 8d3d 8c0c 7fbe e30c a9bc 3b4a 543e
00000190: de7d a2bc 3569 01be c4d5 5ebe d7d3 c83d
000001a0: 5ed1 42be ddd3 c83d 09df 73be b7ea 4e3e
000001b0: bf45 49bd 4d19 27be 14e3 3f3d dbdb 3bbe
000001c0: c649 8abd ba44 853d 49d8 3bbe d84b 9bbe
000001d0: af06 0bbd 29e9 eabc 3217 d03c 53e7 383e
000001e0: 8c94 863d 7e62 8c3d 6e11 363e 8869 1e3e
000001f0: 3403 9ebd 42fb 703d 4dbd 5f3e aa31 86be
00000200: 0fc2 a4be 9009 14be 275e 6a3b 2dbe a33e
00000210: d224 c43d 06d7 463e 9af9 5bbe 13a1 93be
00000220: c982 803e 103a c23e e8dd ae3e 65e9 f3bd
00000230: 35ba bbbc c42c a3be b519 e7be 357d 563e
00000240: 4266 b3bd 9636 a9be b849 51be 4539 a33e
00000250: cf28 8a3e ca68 243c 47e3 fa3e a33b 65bc
00000260: 2090 2a3e 515c 673c 8c19 853e 50e5 953e
00000270: 889f a43d 49de a5be db8e 813e 0234 ad3d
00000280: f05d 123e d009 233e 4342 143e 7933 ed3e
00000290: d8b1 313d 8207 d9be 3076 ddbe 5859 033e
000002a0: 8019 e6be 7d81 603d cbb1 933e e860 b8be
000002b0: 6193 d4be 92c3 4f3c 2b8e ec3b 8f56 7c3e
000002c0: e991 82be ca7e e63e 7d23 c93e 2e64 aa3e
000002d0: 81e6 05be 818e 8fbe 6d3d 89bd dc8d 94be
000002e0: ee10 07bf aa56 9b3d 39f9 be3e 432c a63d
000002f0: 2e8d 743e 506c 38be f01b 923e 961f 43be
00000300: 0c5b 233d 1c9f 10be 3945 7a3e 30cc 54be
00000310: 6ae6 72be e85b 7abe 2e99 77be e1f1 99be
00000320: 5430 c8bd de6c aa3d edb7 f03d 1f8e 08be
00000330: 21ac 78be 3f64 293b 6afa 7f3e 5640 98be
00000340: 6096 65be fb2e d8be 5ead a5bd 252c 243d
00000350: f615 393e a8cf 08bd 494b fe3e f33c 37be
00000360: 6f26 2f3e a74d 51be fb12 35be 2cf3 1fbe
00000370: f1b0 833e 7a01 92bd d1a3 433e 75a6 76bd
00000380: 7d14 083e d36d 1abd 55e2 053e 703e f0bc
00000390: d0f2 a9bd 7878 53be 6abc aebe 41f2 5f3e
000003a0: ccde a7be 8090 a2be f8ca a4be 2995 153f
000003b0: 9a74 35be 932a 62be 9402 81bd 83d5 d9bd
000003c0: 4231 f0bd 7aa4 ed3e 2dfc 27be 00cd c4be
000003d0: 8c35 44be 2647 843e a3ab 01bd 05e9 953e
000003e0: c0c1 093f 2a5b 29be b8a8 ea3c 8f2b 59bd
000003f0: 75a2 4fbe 192c e03c a04b 463d e310 90be

weight_hh_l0_reverse f4 [128, 32]
-0.01810999 0.056983005 0.05410353 0.013168491 0.0977216 0.023344824 0.02758218 0.043328404
-0.02549364 0.096463755 0.08873504 -0.07591792 -0.2627281 -0.03883429 -0.11108213 -0.1441536
0.009457856 -0.008931493 -0.040756866 0.018636683 -0.06390958 0.13635015 0.053759266 -0.045986928
-0.12521209 0.11464151 -0.20235822 0.019359319 0.06642431 0.04442281 -0.1081423 -0.041184586
-0.13320233 0.09882525 0.003174276 0.13674329 -0.02930615 0.039698087 0.09489746 -0.19685169
0.055145085 0.021083206 0.092372715 -0.013555278 -0.008747034 -0.077012725 0.16723773 0.037746303
-0.036866892 -0.054144174 0.1967718 -0.35476565 -0.15680209 0.07382208 -0.14711916 -0.04454556
-0.122945406 0.014511219 -0.08267656 -0.07090047 -0.09070564 0.023887636 0.12344828 0.28671423
0.13631487 -0.18659568 -0.09563013 -0.0069470173 0.02260623 0.036705054 0.112640515 -0.15502682
0.045495648 -0.032631427 -0.044945303 -0.024590347 0.056555063 -0.14332132 0.0742041 -0.09830156
-0.21317498 -0.11500299 -0.10387795 0.09030574 -0.07063614 -0.011803278 0.0940987 -0.19350778
-0.21606411 0.12361399 0.05097287 0.13066125 0.1632863 0.07858133 -0.031233212 -0.24378994
0.029178685 -0.23981193 -0.12117001 -0.02381083 -0.07630591 -0.055326533 0.23597628 -0.0032180646
-0.021266174 -0.11947689 -0.014605232 0.18643887 -0.07850256 -0.15742038 0.19228582 -0.033986617
-0.13671474 -0.051349513 -0.053508762 -0.02157474 -0.1411887 0.23025523 -0.17490001 -0.015321018
-0.29156473 0.03854521 0.07933323 0.16070867 0.05681989 -0.22118552 0.11230596 -0.036684155
0.21331508 -0.1269311 -0.06091648 0.089436494 -0.21639869 -0.07689109 0.18457972 -0.016070243
0.12946385 -0.10003914 -0.019678963 -0.15686615 -0.35681015 -0.14409132 0.016427943 -0.37572545
-0.15703379 -0.19112687 0.067555405 -0.095559195 -0.14330707 0.16033153 -0.08120846 0.10937277
-0.28410423 0.11790838 -0.12516084 0.38571608 0.17867482 -0.021707123 -0.01886619 -0.20234792
-0.004814503 -0.17664915 0.139163 -0.0128766885 0.16496135 0.24986415 -0.065420486 -0.3102922
-0.13492565 -0.23736165 0.13783012 -0.046584543 -0.16423042 0.18148805 0.0047653834 0.066031896
-0.080879614 -0.26555005 -0.15520848 -0.4708347 -0.058059517 0.1563157 -0.32224306 0.1257673
-0.052301053 0.098824486 -0.12141019 0.0028414486 -0.2837825 0.15273045 0.2667229 0.054809205
0.24515471 0.108318426 0.041905355 -0.08275975 -0.13574658 -0.24060391 0.04987786 -0.11327766
-0.02531635 -0.11458961 0.060777728 0.18001738 -0.15654142 0.007965385 -0.10207177 0.072498985
-0.102187544 0.039407764 -0.06303616 0.14180142 0.053278755 0.23921563 0.09778121 0.08040523
-0.09453785 0.01949587 -0.03662595 0.031254295 -0.04045031 -0.21839796 0.026722213 0.008117745
0.1436683 -0.16757198 0.30382124 -0.18026613 0.11240339 -0.011187404 -0.26094761 -0.2709166
-0.041750185 -0.13043286 0.28830057 0.014619966 -0.27275923 0.098523445 0.003864414 -0.19149296
0.1178769 -0.015185099 -0.26861814 -0.04643184 -0.21307321 -0.028519472 -0.11818529 0.13636585
0.060190186 0.18329573 -0.03036842 0.20901169 -0.086944 -0.028267933 0.084359914 -0.0025990794
00000000: 675b 94bc 0367 693d aa9b 5d3d a8c0 573c
00000010: 4322 c83d a53d bf3c 06f4 e13c 2079 313d
00000020: 0ad8 d0bc ca8e c53d b7ba b53d db7a 9bbd
00000030: 4c84 86be b410 1fbd 077f e3bd 009d 13be
00000040: 20f5 1a3c 6655 12bc acf0 26bd f5ab 983c
00000050: 07e3 82bd 609f 0b3e ad32 5c3d ca5c 3cbd
00000060: 9937 00be 2bc9 ea3d fe36 4fbe 6f97 9e3c
00000070: 7809 883d b1f4 353d b679 ddbd 2bb1 28bd
00000080: 3166 08be e564 ca3d 8407 503b 6f06 0c3e
00000090: 7313 f0bc 769a 223d 9959 c23d 7d93 49be
000000a0: d0df 613d b0b6 ac3c e82d bd3d f516 5ebc
000000b0: b84f 0fbc d9b8 9dbd 5e40 2b3e de9b 1a3d
000000c0: bd01 17bd 48c6 5dbd 8c7e 493e d8a3 b5be
000000d0: ba90 20be 0830 973d 68a6 16be 6875 36bd
000000e0: cdca fbbd 77c0 6d3c 5452 a9bd 4434 91bd
000000f0: e1c3 b9bd 01b0 c33c 74d2 fc3d 35cc 923e
00000100: 2096 0b3e f012 3fbe bbd9 c3bd cea3 e3bb
00000110: b330 b93c 0a58 163d 12b0 e63d 5abf 1ebe
00000120: a559 3a3d 88a8 05bd 9118 38bd b271 c9bc
00000130: 48a6 673d d3c2 12be 52f8 973d 5452 c9bd
00000140: 8b4a 5abe b086 ebbd f6bd d4bd 37f2 b83d
00000150: aea9 90bd 8962 41bc d2b6 c03d e726 46be
00000160: e93f 5dbe 5529 fd3d eec8 503d 10cc 053e
00000170: 8634 273e 40ef a03d cbdc ffbc 12a4 79be
00000180: 2308 ef3c 4291 75be fb27 f8bd ee0e c3bc
00000190: 4646 9cbd 139e 62bd c4a3 713e 2ae6 52bb
000001a0: 6636 aebc 4db0 f4bd c84a 6fbc d5e9 3e3e
000001b0: f3c5 a0bd cf32 21be 93e6 443e 8d35 0bbd
000001c0: f3fe 0bbe de53 52bd 012c 5bbd 82bd b0bc
000001d0: c593 10be 07c8 6b3e fd18 33be 0205 7bbc
000001e0: f947 95be 95e1 1d3d 7679 a23d d090 243e
000001f0: f9bb 683d 757e 62be ab00 e63d 2042 16bd
00000200: 456f 5a3e 3afa 01be 8f83 79bd 7b2a b73d
00000210: 9e97 5dbe 1379 9dbd 7702 3d3e bea5 83bc
00000220: 2c92 043e 52e1 ccbd c735 a1bc 85a1 20be
00000230: d2af b6be ad8c 13be e593 863c 165f c0be
00000240: 77cd 20be c3b6 43be 7d5a 8a3d 8ab4 c3bd
00000250: 17bf 12be f32d 243e 9f50 a6bd d5fe df3d
00000260: 1c76 91be f379 f13d 2a2a 00be 947c c53e
00000270: 88f6 363e 23d3 b1bc 458d 9abc 4b34 4fbe
00000280: fac2 9dbb 84e3 34be bf80 0e3e bff8 52bc
00000290: a1eb 283e 63dc 7f3e 2dfb 85bd 9fde 9ebe
000002a0: f329 0abe ef0e 73be 5723 0d3e 6fcf 3ebd
000002b0: 052c 28be 01d8 393e ef26 9c3b bb3b 873d
000002c0: 36a4 a5bd 2df6 87be f9ee 1ebe 3f11 f1be
000002d0: d1cf 6dbd 3911 203e 0bfd a4be 25c9 003e
000002e0: a139 56bd 7e64 ca3d e8a5 f8bd 9937 3a3b
000002f0: f14b 91be 5f65 1c3e e78f 883e 9e7f 603d
00000300: d609 7b3e 0dd6 dd3d f3a4 2b3d f27d a9bd
00000310: 2701 0bbe df60 76be ba4c 4c3d 1efe e7bd
00000320: 3c64 cfbc f5ad eabd 11f2 783d 7a56 383e
00000330: 654c 20be 3f81 023c 010b d1bd 597a 943d
00000340: b447 d1bd 096a 213d 1a19 81bd 6434 113e
00000350: d33a 5a3d f1f4 743e 8441 c83d 7fab a43d
00000360: 0f9d c1bd ceb5 9f3c 1805 16bd 8104 003d
00000370: 39af 25bd b7a3 5fbe 8be8 da3c 4a00 053c
00000380: c81d 133e fd97 2bbe 758e 9b3e af97 38be
00000390: c033 e63d 604b 37bc ed9a 85be 95b5 8abe
000003a0: 3e02 2bbd 3190 05be 229c 933e 9588 6f3c
000003b0: 19a7 8bbe a9c6 c93d 1c42 7d3b bb16 44be
000003c0: 7269 f13d ecca 78bc 5188 89be 502f 3ebd
000003d0: dd2f 5abe aba1 e9bc 210b f2bd 7da3 0b3e
000003e0: fc89 763d e0b1 3b3e 31c7 f8bc 2907 563e
000003f0: b20f b2bd 2792 e7bc e4c4 ac3d 5155 2abb
