TS-CVAE/experiments/pedestrians/models/eth/models_04_Jun_2021_13_35_51_eth_ar3/model_registrar-36.pt (torch_old, 545378 bytes, 43 tensors)

weight_ih_l0 f4 [128, 6]
-0.046265252 0.017589658 -0.10571412 0.01589527 -0.13232552 0.064598694 -0.07933027 -0.17112221
-0.08712804 0.17639661 -0.03536099 0.1771981 0.036465462 0.011045786 -0.16001548 -0.15442081
-0.17719297 0.05175065 -0.09421422 0.11941838 0.16326118 0.12064563 -0.14291337 0.090814985
-0.15039733 -0.0995949 -0.016249608 0.34223986 -0.16449566 -0.23150706 0.26307505 -0.07732049
-0.0354993 0.26127598 0.10483458 -0.09528455 -0.20053774 -0.0625482 -0.087077916 0.03671171
-0.21352325 -0.24635898 -0.07874222 0.25849983 0.1115381 -0.054549538 -0.08805505 0.11548109
0.37609926 0.19939907 0.16771905 -0.063556395 -0.19097874 -0.033429947 -0.21140172 -0.26939785
-0.003935473 0.29649845 -0.03607975 -0.10392653 0.26923618 -0.06896337 -0.34999603 0.12381559
-0.20917514 0.23972563 -0.13136242 -0.07788096 -0.02086979 0.15232357 0.2248521 0.11580392
-0.07133821 -0.041147202 0.024723034 -0.10292495 -0.0692518 -0.049156893 0.026832376 0.21922982
0.056919932 -0.04674027 -0.09737563 0.015442531 -0.25267056 -0.14030063 -0.2643365 0.10702371
0.4281916 -0.058486897 -0.12161859 0.16610113 0.14833812 0.053461343 -0.04950713 0.09126724
0.041409925 0.240505 0.2368942 -0.049752824 -0.11163068 -0.29910117 0.047893368 -0.12454681
-0.03869513 -0.021221744 -0.00017387708 0.099477924 0.1347353 -0.04588327 0.09341563 -0.05828873
0.22247908 0.4446461 -0.16695878 -0.17936417 -0.04204051 0.34973416 0.1425785 0.074028686
-0.14710686 0.11753255 0.08330849 -0.21505833 -0.05034022 -0.01747808 0.073524356 0.3722965
-0.003355277 -0.16750516 -0.06605916 0.1529096 -0.032048915 -0.19518255 -0.017267903 0.05946216
-0.02716555 -0.045778938 -0.017943399 -0.08691061 0.10193312 -0.052364223 0.08449501 -0.061992783
0.10470948 -0.013176025 -0.14574152 -0.026870081 -0.28962123 -0.07803251 -0.08524104 -0.028060706
-0.10827074 0.108339585 -0.1320758 0.07870179 0.2327097 -0.2839221 -0.3267708 0.37024462
0.14430387 0.20229925 0.04872696 0.35176966 0.38510776 0.20484143 0.030256443 0.22606826
0.02793445 0.107898384 -0.1214077 0.012370019 0.047311153 0.13973266 -0.13725449 -0.16588861
-0.179982 -0.044492546 0.0025914176 0.14662042 -0.040989053 -0.10649701 0.1500749 -0.039681584
-0.118574314 -0.01703487 -0.092649125 0.109315604 0.19587998 -0.198088 -0.21014272 0.084031254
0.11288111 0.1485776 -0.12193421 -0.14612588 -0.031865306 -0.19663528 0.18406452 -0.026057469
-0.030249365 0.08111994 0.13017179 -0.1435551 -0.071385115 0.04527866 -0.05569081 -0.031462014
-0.07352766 -0.061968643 0.045512047 0.05544956 0.032654233 -0.07797399 -0.11290961 -0.18039784
0.06659726 -0.12570064 0.03336514 0.13215381 -0.2974584 -0.045762602 0.21455042 -0.14068739
-0.024090165 -0.096683696 -0.20170018 0.06647035 0.054855965 -0.012623983 -0.021308793 0.0073745227
-0.055122405 0.06716073 -0.021991266 -0.10321425 0.16252866 -0.036608633 0.0011724847 0.040842656
0.39298028 -0.0245842 -0.029839184 -0.07636863 -0.49427903 0.23811921 -0.17487672 -0.103330754
0.18421851 0.19906531 0.22065869 0.07306863 0.3143311 -0.15856887 -0.1506579 0.10454339
00000000: a280 3dbd 3018 903c a580 d8bd cc36 823c
00000010: 5780 07be 524c 843d e977 a2bd a93a 2fbe
00000020: 3070 b2bd 50a1 343e afd6 10bd 6b73 353e
00000030: cf5c 153d 62f9 343c 19db 23be 7d20 1ebe
00000040: 1372 35be 7df8 533d 63f3 c0bd a091 f43d
00000050: f02d 273e 0e15 f73d e257 12be 35fd b93d
00000060: c201 1abe 69f8 cbbd e61d 85bc 103a af3e
00000070: 8d71 28be 3010 6dbe c6b1 863e 345a 9ebd
00000080: b767 11bd f7c5 853e 83b3 d63d 8c24 c3bd
00000090: c459 4dbe 4519 80bd e855 b2bd 055f 163d
000000a0: d7a5 5abe 8745 7cbe 9a43 a1bd 175a 843e
000000b0: 166e e43d 566f 5fbd 3556 b4bd 5a81 ec3d
000000c0: 1590 c03e 452f 4c3e 8bbe 2b3e db29 82bd
000000d0: ee8f 43be d7ed 08bd b179 58be 84ee 89be
000000e0: 24f5 80bb a5ce 973e 5cc8 13bd 6fd7 d4bd
000000f0: 53d9 893e ab3c 8dbd ae32 b3be 0793 fd3d
00000100: 0232 56be a37a 753e df83 06be 0e80 9fbd
00000110: 1ff7 aabc b6fa 1b3e a13f 663e 9b2a ed3d
00000120: c419 92bd f889 28bd f687 ca3c 51ca d2bd
00000130: e3d3 8dbd bd58 49bd 92cf db3c c87d 603e
00000140: e024 693d ba72 3fbd e06c c7bd ab02 7d3c
00000150: 095e 81be f8aa 0fbe 1d57 87be 3f2f db3d
00000160: ee3b db3e f58f 6fbd 2b13 f9bd 6a16 2a3e
00000170: f3e5 173e 48fa 5a3d fdc7 4abd 52ea ba3d
00000180: 749d 293d f146 763e 6594 723e 9ec9 4bbd
00000190: a09e e4bd ca23 99be d62b 443d 6612 ffbd
000001a0: c97e 1ebd 39d9 adbc c652 36b9 15bb cb3d
000001b0: 0df8 093e 19f0 3bbd b250 bf3d 2ac0 6ebd
000001c0: 8ed1 633e a7a8 e33e 3ef7 2abe 3eab 37be
000001d0: ab32 2cbd 5b10 b33e 1900 123e 5a9c 973d
000001e0: 2ea3 16be e8b4 f03d a49d aa3d 4038 5cbe
000001f0: 8c31 4ebd 312e 8fbc f093 963d a69d be3e
00000200: 35e4 5bbb 7986 2bbe 064a 87bd 5694 1c3e
00000210: b945 03bd efdd 47be 6b75 8dbc 988e 733d
00000220: 4a8a debc b282 3bbd 09fe 92bc 31fe b1bd
00000230: 50c2 d03d de7b 56bd b80b ad3d 25ec 7dbd
00000240: ed71 d63d 41e0 57bc 443d 15be a51e dcbc
00000250: 3c49 94be 82cf 9fbd db92 aebd 91df e5bc
00000260: 0dbd ddbd 25e1 dd3d e13e 07be 672e a13d
00000270: 744b 6e3e 3d5e 91be 814e a7be b490 bd3e
00000280: 65c4 133e 8927 4f3e ec95 473d 271b b43e
00000290: d82c c53e f4c1 513e 5cdc f73c 707e 673e
000002a0: cad6 e43c d4f9 dc3d 9aa4 f8bd 9fab 4a3c
000002b0: 57c9 413d 1416 0f3e 718c 0cbe b4de 29be
000002c0: 344d 38be d13d 36bd c6d4 293b aa23 163e
000002d0: 23e4 27bd 1b1b dabd 3cad 193e 2889 22bd
000002e0: 17d7 f2bd b68c 8bbc d3be bdbd dce0 df3d
000002f0: c394 483e 95d7 4abe a72f 57be 9418 ac3d
00000300: 362e e73d ba24 183e a5b8 f9bd 06a2 15be
00000310: 3285 02bd c25a 49be 697b 3c3e 7976 d5bc
00000320: 84cd f7bc 3622 a63d c14b 053e 1c00 13be
00000330: 5c32 92bd 1e76 393d 0c1c 64bd 50de 00bd
00000340: ab95 96bd d5d2 7dbd d76a 3a3d 141f 633d
00000350: 72c0 053d d4b0 9fbd 273d e7bd 36ba 38be
00000360: 2564 883d abb7 00be e3a9 083d 5453 073e
00000370: 784c 98be 9171 3bbd 1bb3 5b3e 5b10 10be
00000380: bd58 c5bc 1a02 c6bd 7e8a 4ebe 9b21 883d
00000390: a6b0 603d d3d4 4ebc c78f aebc fba5 f13b
000003a0: 08c8 61bd 918b 893d 0727 b4bc fe61 d3bd
000003b0: ea6d 263e eff2 15bd 0fae 993a a14a 273d
000003c0: b634 c93e ce64 c9bc 4e71 f4bc 2867 9cbd
000003d0: 2412 fdbe 86d5 733e e212 33be 139f d3bd
000003e0: c7a3 3c3e c7d7 4b3e 5af4 613e 02a5 953d
000003f0: 02f0 a03e e15f 22be 1146 1abe d81a d63d

weight_hh_l0 f4 [128, 32]
-0.049283992 -0.15837522 0.080908135 0.1023636 0.115496404 0.07749752 -0.111387044 -0.051224202
0.14372483 0.24120791 -0.08873109 0.31598288 -0.12668294 0.1346506 0.057407904 0.070536464
-0.037183084 -0.096748285 0.08998679 -0.16851558 -0.20570908 -0.017794676 -0.09192054 -0.281084
0.2283129 -0.14204437 0.23137335 0.196511 -0.013949776 0.07571179 0.050546683 -0.19370602
0.1487604 -0.22776176 0.21992505 -0.04594088 0.19885102 0.2900204 0.008037087 -0.0924949
0.30708835 0.04044783 -0.35269594 -0.0039523668 -0.21162516 0.11382104 0.14799501 0.016952746
-0.032911405 0.14072613 0.017269721 -0.103126846 -0.121536404 0.16579889 -0.16780189 -0.15800647
-0.0066563906 -0.18256594 0.060804706 -0.18995826 -0.13547982 0.08545084 0.09884783 -0.17865561
0.11207801 -0.16434781 -0.08739249 0.14646281 0.20200075 0.1490387 -0.1692735 -0.23960395
-0.03888065 0.17737293 -0.2311253 0.18779665 -0.05521648 -0.12416951 0.14838986 -0.28914744
0.04917709 -0.104861535 0.096172415 -0.073056005 0.036042295 0.06686099 0.061469335 0.12710723
0.26086816 0.045030046 0.19650503 0.21626997 0.10928739 0.03435532 -0.14192605 -0.0048073786
0.045736216 -0.08870039 0.10226816 0.10918925 -0.007157441 0.11703635 -0.16552761 0.04397121
0.039456453 0.14321643 -0.27387157 0.046808504 -0.1830854 -0.17863034 -0.16823299 -0.18770525
-0.15294054 0.1700325 0.00042400276 -0.14389327 -0.1342042 0.170468 0.043812744 -0.15193957
0.073653884 -0.059309985 0.031852856 0.10198709 -0.20210482 0.1310209 0.17201957 -0.112834096
-0.096807815 -0.2552589 0.3777589 -0.23716941 0.2863094 0.06120705 0.007865187 0.055350523
0.6458726 -0.07362924 -0.3390832 0.11268925 -0.012339357 -0.008976935 -0.40344852 -0.024396203
-0.24087244 -0.007830894 0.59154975 -0.72146314 -0.015986247 0.6261562 0.055698633 -0.17808901
-0.12822719 -0.29848868 0.20030664 -0.7807298 -0.5662287 -0.023788532 0.16370198 -0.02445416
0.052364007 -0.078079194 0.10931579 -0.20482448 -0.0171955 0.08486511 -0.009112085 -0.130137
-0.05231581 0.18977019 -0.01654555 -0.029060213 -0.20586671 0.0008706527 0.0024483164 -0.17318764
0.04808533 0.14149258 -0.34473518 0.1248615 -0.006315392 -0.0043833246 -0.20724589 -0.010238437
-0.01656043 -0.20342503 0.28613862 0.23876333 0.08614086 0.11816467 0.27340662 -0.009019116
0.048787728 0.050354075 -0.09442445 0.13662079 0.076661184 0.048368663 0.016391847 -0.23519388
-0.108100444 0.26139158 -0.22290823 0.094247885 -0.055528417 0.10742023 0.06681209 0.0030918887
-0.023913536 -0.06942474 -0.10862302 -0.16728932 -0.014584839 0.25797996 0.027610177 -0.040321216
-0.089395344 0.009202889 0.30129072 0.11377196 -0.19088459 0.20155843 -0.10111923 0.029569346
0.27572167 -0.13186064 0.16984406 0.10016515 -0.054023072 0.10878267 0.09345986 -0.042421434
-0.018251237 -0.03987556 -0.13433754 -0.13747059 0.09386538 -0.05335091 0.05717114 0.049465053
0.031396702 0.00030019038 -0.056612417 -0.16015312 -0.26381907 0.23809497 -0.05740018 -0.25484186
0.027849732 0.029341266 0.1346383 0.10665678 0.11724271 0.16170113 0.00517367 0.24483137
00000000: 03de 49bd 1d2d 22be 2ab3 a53d 02a4 d13d
00000010: 6189 ec3d 05b7 9e3d e41e e4bd 78d0 51bd
00000020: 9a2c 133e 35ff 763e a5b8 b5bd 82c8 a13e
00000030: 2cb9 01be d9e1 093e 8d24 6b3d 6c75 903d
00000040: 4a4d 18bd f723 c6bd ff4a b83d 598f 2cbe
00000050: 67a5 52be 24c6 91bc d640 bcbd 3eea 8fbe
00000060: dbca 693e 1474 11be 23ed 6c3e 2e3a 493e
00000070: 9a8d 64bc c80e 9b3d 0a0a 4f3d df5a 46be
00000080: a554 183e 613a 69be 0834 613e 812c 3cbd
00000090: 9a9f 4b3e 8e7d 943e fcad 033c f76d bdbd
000000a0: af3a 9d3e a0ac 253d 9094 b4be db82 81bb
000000b0: 44b4 58be 011b e93d 018c 173e 7ce0 8a3c
000000c0: 1cce 06bd 831a 103e 3b79 8d3c 2b34 d3bd
000000d0: 14e8 f8bd 2fc7 293e 42d4 2bbe 73cc 21be
000000e0: da1d dabb 91f2 3abe 5b0e 793d 6b84 42be
000000f0: 39bb 0abe da00 af3d bb70 ca3d 7ff1 36be
00000100: 2889 e53d cb4a 28be d5fa b2bd 59fa 153e
00000110: 49d9 4e3e 9a9d 183e 0856 2dbe bd5a 75be
00000120: 5141 1fbd 40a1 353e 1cac 6cbe c44d 403e
00000130: ad2a 62bd 964c febd 83f3 173e 220b 94be
00000140: eb6d 493d a5c1 d6bd 0bf6 c43d 639e 95bd
00000150: 16a1 133d 6aee 883d 45c7 7b3d 6628 023e
00000160: 8390 853e 6d71 383d 9d38 493e e075 5d3e
00000170: 11d2 df3d 2ab8 0c3d 1055 11be 3787 9dbb
00000180: e655 3b3d 8da8 b5bd f871 d13d 9d9e df3d
00000190: f888 eabb c1b0 ef3d 1280 29be 281b 343d
000001a0: 179d 213d 54a7 123e e538 8cbe 46ba 3f3d
000001b0: bd7a 3bbe dfea 36be 4545 2cbe ce35 40be
000001c0: 729c 1cbe 001d 2e3e b04c de39 c258 13be
000001d0: d36c 09be 2a8f 2e3e fe74 333d 0c96 1bbe
000001e0: d9d7 963d 07ef 72bd 2478 023d 9cde d03d
000001f0: 91f4 4ebe 582a 063e e625 303e 9015 e7bd
00000200: 2d43 c6bd 4bb1 82be 9d69 c13e 8adc 72be
00000210: 2597 923e 3eb4 7a3d fcdc 003c 3bb7 623d
00000220: e857 253f edca 96bd 509c adbe 9fc9 e63d
00000230: 042b 4abc ff13 13bc ce90 cebe 8cda c7bc
00000240: 44a7 76be 264d 00bc ce6f 173f cfb1 38bf
00000250: 97f5 82bc c64b 203f 4024 643d f75c 36be
00000260: fd4d 03be 82d3 98be 2f1d 4d3e e8dd 47bf
00000270: 5df4 10bf 2be0 c2bc 7ea1 273e 1754 c8bc
00000280: a47b 563d fce7 9fbd f5e0 df3d 82bd 51be
00000290: 94dd 8cbc c2cd ad3d db4a 15bc a242 05be
000002a0: 1a49 56bd 1e53 423e 898a 87bc af0f eebc
000002b0: b9ce 52be 833c 643a ef73 203b 1a58 31be
000002c0: 1ff5 443d 6ee3 103e 2181 b0be 63b7 ff3d
000002d0: 59f1 cebb fea1 8fbb 4438 54be 1ebf 27bc
000002e0: bda9 87bc a74e 50be c380 923e 607e 743e
000002f0: 9f6a b03d 5200 f23d f4fb 8b3e eac4 13bc
00000300: a4d5 473d 1340 4e3d 9b61 c1bd 52e6 0b3e
00000310: 8a00 9d3d 381e 463d 3248 863c aad6 70be
00000320: c463 ddbd 1ed5 853e 0e42 64be 0905 c13d
00000330: c471 63bd 23ff db3d c7d4 883d 49a1 4a3b
00000340: 52e6 c3bc 8f2e 8ebd bf75 debd e44d 2bbe
00000350: 40f5 6ebc f315 843e bd2e e23c dc27 25bd
00000360: e814 b7bd b7c7 163c c742 9a3e 4601 e93d
00000370: 4077 43be 5565 4e3e 9917 cfbd 6a3b f23c
00000380: 642b 8d3e 7a06 07be 9aeb 2d3e 6323 cd3d
00000390: 4c47 5dbd 73c9 de3d e267 bf3d 19c2 2dbd
000003a0: 9e83 95bc 8e54 23bd c88f 09be 17c5 0cbe
000003b0: 7e3c c03d 7c86 5abd 492c 6a3d de9b 4a3d
000003c0: d499 003d df62 9d39 6ce2 67bd 2eff 23be
000003d0: 4b13 87be 2bcf 733e 731c 6bbd a27a 82be
000003e0: 1f25 e43c 185d f03c 9fde 093e df6e da3d
000003f0: f21c f03d fb94 253e e487 a93b 13b5 7a3e

bias_ih_l0 f4 [128]
0.031314235 0.2866606 0.09816313 0.12644489 0.44354272 0.30915576 0.21087669 0.07160184
0.07454316 0.11223194 0.34081116 0.2887416 0.44771206 0.21969919 0.16475335 0.6655236
0.09665411 0.36949772 0.03329242 0.16936226 0.7212507 0.08371668 0.4130675 0.06839196
0.40800688 0.12877274 0.057080984 0.058543593 -0.0076219854 0.29774547 0.32851675 0.084511675
0.036413558 -0.42464596 -0.28924716 -0.053220537 -0.65373194 -0.19583488 -0.3537463 -0.3194312
-0.14796722 -0.06816916 -0.10735647 -0.06865174 -0.28922504 -0.084967494 -0.059255786 -0.79376405
-0.050087016 -0.17382611 -0.042180944 0.098297976 -0.7139376 -0.056402493 -0.29203305 -0.04033541
-0.24444029 0.1069457 -0.0017699938 0.11947034 -0.038126938 -0.60214907 -0.54571825 -0.30531302
0.14807574 0.11688365 -0.05941734 0.026326414 -0.101003006 0.0010375578 0.10734287 -0.032869462
0.023279054 0.064323135 -0.08000914 0.023890018 -0.10853504 -0.03717777 -0.0511252 -0.08586704
-0.07618693 -0.09204316 0.16999477 -0.034925073 0.06420817 0.077009164 0.102188766 -0.13268444
0.12435622 -0.08291835 0.03700428 -0.19852768 -0.10795592 0.12154146 0.02322224 -0.078649335
0.23553577 0.24956208 0.13720588 0.17710128 0.5930109 0.2611494 0.23686938 0.10359296
-0.042024255 0.1598898 0.11313103 0.22552356 0.390066 0.195138 0.19183342 0.8464599
0.23771274 0.29632282 0.12816988 0.048460186 0.80574757 0.099352874 0.3772119 0.10896994
0.18942152 0.17201357 0.22674245 -0.010896263 0.13254006 0.49584755 0.3868385 0.062180288
00000000: 5b43 003d 2ec5 923e c009 c93d c57a 013e
00000010: 0818 e33e aa49 9e3e 0ff0 573e fca3 923d
00000020: 16aa 983d dcd9 e53d cd7e ae3e f0d5 933e
00000030: 843a e53e d3f8 603e 1ab5 283e c15f 2a3f
00000040: 97f2 c53d ce2e bd3e a25d 083d 4d6d 2d3e
00000050: e3a3 383f a773 ab3d 957d d33e 1511 8c3d
00000060: 47e6 d03e 00dd 033e c0cd 693d 68cb 6f3d
00000070: d9c1 f9bb 1872 983e 5933 a83e 7514 ad3d
00000080: 6226 153d 326b d9be 3418 94be c7fd 59bd
00000090: fa5a 27bf f088 48be 3c1e b5be 7c8c a3be
000000a0: b884 17be 469c 8bbd b5dd dbbd 4999 8cbd
000000b0: 4e15 94be 7003 aebd 32b6 72bd 1f34 4bbf
000000c0: 0b28 4dbd 79ff 31be edc5 2cbd 7350 c93d
000000d0: 9dc4 36bf 4d06 67bd 5b85 95be be36 25bd
000000e0: 8e4e 7abe 5906 db3d 23ff e7ba deac f43d
000000f0: fe2a 1cbd 7126 1abf 31b4 0bbf fd51 9cbe
00000100: 2ba1 173e b260 ef3d 995f 73bd 7eaa d73c
00000110: aada cebd aafe 873a 94d6 db3d 21a2 06bd
00000120: b7b3 be3c d9bb 833d d5db a3bd 00b5 c33c
00000130: 9e47 debd b847 18bd a868 51bd 0fdb afbd
00000140: e507 9cbd 2081 bcbd 1c13 2e3e 980d 0fbd
00000150: 937f 833d fbb6 9d3d 5848 d13d 6ede 07be
00000160: 79ae fe3d 19d1 a9bd cd91 173d d74a 4bbe
00000170: fe17 ddbd bbea f83d 913c be3c e712 a1bd
00000180: 4a30 713e 348d 7f3e b37f 0c3e 0a5a 353e
00000190: 90cf 173f 60b5 853e e38d 723e 8c28 d43d
000001a0: a021 2cbd 27ba 233e 3eb1 e73d a6ef 663e
000001b0: bbb6 c73e 42d2 473e fb6f 443e 99b1 583f
000001c0: f86a 733e a0b7 973e f73e 033e 307e 463d
000001d0: 7945 4e3f 8579 cb3d eb21 c13e a22b df3d
000001e0: b7f7 413e 5324 303e 2c2f 683e 3d86 32bc
000001f0: 95b8 073e bbdf fd3e b20f c63e c2b0 7e3d

bias_hh_l0 f4 [128]
-0.012975806 0.299768 -0.03562748 0.28792793 0.58731693 0.065255366 0.10922646 0.24916603
0.15968151 0.27712688 0.08435806 0.16391502 0.20941788 0.5139687 0.20531687 0.8259437
0.00968728 0.3620579 -0.062398065 0.12508464 0.86892855 0.2644332 0.44159308 0.13268991
0.30966806 0.1136447 0.13063571 -0.03303818 -0.08924805 0.28840247 0.398036 0.13470234
-0.052345585 -0.39855608 -0.051557407 -0.25936428 -0.34536636 -0.032991756 -0.21280482 -0.46425772
-0.07508117 -0.12439126 -0.08842179 -0.12984046 -0.29200727 -0.2644048 0.046698634 -0.7436519
-0.18088472 -0.24174997 -0.0138280215 -0.08298782 -0.57003045 -0.21919864 -0.5151006 -0.06832311
-0.44802293 -0.2016833 -0.25530645 0.058777668 -0.06634799 -0.36823288 -0.4136328 -0.003922459
-0.13518322 -0.15188956 0.11066184 -0.029304644 0.15565783 0.033358518 -0.07879961 0.014021337
0.16453749 -0.029295316 0.047823764 0.041183557 0.072178386 0.029266555 -0.12883031 0.06039101
0.016754076 0.15034746 0.0954427 -0.16150762 -0.09276701 0.01655595 -0.14140582 0.11539393
-0.11414079 0.02272201 0.039971333 -0.083680935 -0.09650117 -0.15710257 -0.0013268527 0.025347011
0.12049585 0.38388908 -0.018894665 0.40441418 0.69162494 0.16453876 0.4354478 0.41418654
-0.09602577 0.1822404 0.35439944 0.30241567 0.40222764 0.38832036 0.11168779 0.854324
0.2562057 0.15953077 0.2332659 -0.075029284 0.7687958 0.290447 0.5289878 0.24155954
0.37725136 0.14766188 0.27865782 -0.0046927077 0.0031999508 0.49030554 0.41385683 0.26291826
00000000: 7a98 54bc 317b 993e 1fee 11bd 4a6b 933e
00000010: 675a 163f 9ba4 853d 1fb2 df3d 6125 7f3e
00000020: 8d83 233e 93e3 8d3e ebc3 ac3d 57d9 273e
00000030: a471 563e 7493 033f 963e 523e 0c71 533f
00000040: 66b7 1e3c a75f b93e 1d95 7fbd 3016 003e
00000050: 1a72 5e3f ca63 873e 7d18 e23e dddf 073e
00000060: d08c 9e3e 8dbe e83d 5ec5 053e 0b53 07bd
00000070: aec7 b6bd 7da9 933e 60cb cb3e 69ef 093e
00000080: 5368 56bd 8b0f ccbe dc2d 53bd 65cb 84be
00000090: dcd3 b0be 5d22 07bd 82e9 59be 30b3 edbe
000000a0: 28c4 99bd d8c0 febd 7c16 b5bd e6f4 04be
000000b0: fa81 95be 1160 87be 1147 3f3d f95f 3ebf
000000c0: d839 39be 4e8d 77be ed8e 62bc 85f5 a9bd
000000d0: 84ed 11bf 9c75 60be a2dd 03bf fdec 8bbd
000000e0: 4363 e5be 1186 4ebe 87b7 82be dac0 703d
000000f0: 74e1 87bd 0589 bcbe aec7 d3be f987 80bb
00000100: 786d 0abe f088 1bbe ada2 e23d 4b10 f0bc
00000110: c464 1f3e f1a2 083d b161 a1bd c0b9 653c
00000120: 847c 283e bbfc efbc dae2 433d 17b0 283d
00000130: 43d2 933d 6ac0 ef3c 18ec 03be 905c 773d
00000140: d83f 893c aff4 193e 7677 c33d 4162 25be
00000150: a1fc bdbd 58a0 873c b0cc 10be a753 ec3d
00000160: a6c2 e9bd 8223 ba3c fbb8 233d e960 abbd
00000170: 68a2 c5bd 7fdf 20be cae9 adba 89a4 cf3c
00000180: 87c6 f63d 1c8d c43e fcc8 9abc 600f cf3e
00000190: 550e 313f d97c 283e 04f3 de3e 4210 d43e
000001a0: 29a9 c4bd 3a9d 3a3e d873 b53e 3ad6 9a3e
000001b0: c8f0 cd3e edd1 c63e 91bc e43d fab4 5a3f
000001c0: 652d 833e 095c 233e 42dd 6e3e f4a8 99bd
000001d0: cdcf 443f 78b5 943e bf6b 073f 625b 773e
000001e0: 1727 c13e ad34 173e 3dac 8e3e 49c5 99bb
000001f0: 44b6 513b 5409 fb3e 0be5 d33e 399d 863e

weight_ih_l0 f4 [128, 2]
0.118058555 0.09449308 -0.116515234 0.018886944 0.015942845 -0.017489178 -0.10270537 -0.020344408
-0.041544683 -0.06496238 -0.03714313 0.1382109 0.028227413 0.04646899 -0.07816916 -0.08857379
0.005365167 -0.06088186 0.023356479 0.04959102 -0.013752787 0.07809341 0.020403618 -0.03061512
-0.07532784 0.10399205 0.03998169 -0.017806876 -0.11185422 0.012826514 -0.01855232 0.13314755
-0.0037988937 0.112699 0.02249744 0.10703719 0.08403473 0.022454487 0.034245618 0.026630962
0.07921945 -0.09248193 -0.032645095 0.12894256 -0.03640542 0.13457508 -0.18125612 0.0538538
0.035548292 0.03050626 -0.10587267 -0.0054281065 0.046250533 0.067121334 -0.08414172 0.12434044
-0.009227545 0.073356375 -0.082156874 -0.015869938 0.20937152 0.010868454 -0.068280615 -0.13373649
-0.10050497 -0.19527112 -0.03711771 -0.08349191 0.12129073 -0.10489876 0.09856867 0.051604208
0.30715677 -0.13753127 -0.017693438 0.032302044 -0.05719119 0.23746538 0.07224717 -0.0038403696
-0.13209988 -0.16797552 0.17247707 -0.061093323 0.14874102 0.04917533 -0.007183641 0.03556619
-0.13676725 0.13603912 -0.21215539 0.12253693 0.06440751 0.14022094 0.24624114 0.066812836
0.1357188 0.06756825 -0.114787266 -0.19285783 0.060326263 0.19943619 -0.21401401 -0.07960933
-0.14798006 -0.131626 0.1714191 -0.030813513 0.04039073 0.13428184 -0.16493747 -0.050681666
-0.08515446 0.04970539 -0.019385166 -0.07542379 -0.061221626 0.07419783 -0.14179678 0.0012395922
0.29587927 -0.11038483 -0.03474043 0.10397149 0.30116573 0.09230052 -0.17636074 -0.22853974
0.096193664 0.10179657 -0.024906829 -0.15975218 -0.033257473 -0.13092417 -0.052640002 -0.14587744
-0.08878381 0.089032225 0.25599307 -0.09795138 0.062458687 -0.17064452 0.3147544 -0.044416174
0.38592517 0.10254771 -0.16448396 0.29702297 0.21001145 0.15964855 -0.16964732 0.10190159
-0.09263055 -0.1204506 0.4586491 0.06047032 -0.06283136 -0.15989341 -0.058305047 0.19138435
0.09983285 -0.050470874 -0.18611261 0.10476394 0.0913044 0.16136041 0.12370261 0.038386874
-0.048625488 -0.0882102 -0.0787166 0.06509311 0.020408925 -0.16845195 0.24796537 0.06326929
0.29980022 0.082868844 0.047964577 0.23883586 -0.25128242 0.057824764 0.1006823 -0.09425683
0.33781195 0.06667049 0.08657378 0.1792981 0.29071268 0.032055095 -0.011249853 -0.072447866
-0.03468612 -0.040220346 0.017474735 0.084089674 0.15818816 -0.18663493 0.1400818 0.036695052
-0.017655965 -0.23100637 -0.051978577 0.073279575 -0.016804298 0.113266565 -0.13902639 -0.12805372
-0.12559201 -0.020927982 0.041075706 -0.22583386 0.19957738 0.08981738 0.087697476 -0.014361285
0.18700585 0.17639725 -0.23881266 0.07738812 0.03165883 0.18254943 0.08163566 0.23015605
-0.033546355 0.05917084 -0.20094539 -0.1301457 -0.13908917 -0.021732707 -0.010776351 0.04018529
0.03737091 -0.10960147 -0.05154895 -0.0015232924 0.07096765 0.15511775 -0.24177615 -0.10991323
0.2727852 0.12760848 -0.124375574 -0.18814404 0.013238464 -0.035601325 -0.059326224 0.17472067
0.056381278 0.008588091 -0.03399273 -0.08261266 0.24715818 0.13521707 -0.09629168 -0.28772932
00000000: afc8 f13d 9785 c13d 8a9f eebd cbb8 9a3c
00000010: 929a 823c 7745 8fbc 3157 d2bd 51a9 a6bc
00000020: c22a 2abd ff0a 85bd 6523 18bd 2887 0d3e
00000030: 2d3d e73c 4556 3e3d 2717 a0bd 2d66 b5bd
00000040: 48ce af3b 425f 79bd 1656 bf3c f41f 4b3d
00000050: 5f53 61bc 70ef 9f3d 7d25 a73c 8fcc fabc
00000060: 7c45 9abd c9f9 d43d d7c3 233d badf 91bc
00000070: d313 e5bd 4d26 523c 09fb 97bc d557 083e
00000080: dcf6 78bb bcce e63d 8d4c b83c 5036 db3d
00000090: 671a ac3d 79f2 b73c 2245 0c3d 2d29 da3c
000000a0: cf3d a23d 2b67 bdbd ddb6 05bd 8509 043e
000000b0: da1d 15bd 0dce 093e 349b 39be cd95 5c3d
000000c0: 169b 113d 44e8 f93c c5d3 d8bd 42de b1bb
000000d0: 3371 3d3d e976 893d 7e52 acbd 33a6 fe3d
000000e0: 212f 17bc de3b 963d dd41 a8bd ac01 82bc
000000f0: 7d65 563e 9a11 323c b5d6 8bbd 38f2 08be
00000100: 8dd5 cdbd 27f5 47be bd08 18bd cefd aabd
00000110: 4667 f83d 29d5 d6bd 5fde c93d ef5e 533d
00000120: a743 9d3e ffd4 0cbe d4f1 90bc 264f 043d
00000130: 4f41 6abd 202a 733e 53f6 933d b6ae 7bbb
00000140: 3145 07be c601 2cbe d49d 303e fe3c 7abd
00000150: 914f 183e 126c 493d c064 ebbb daad 113d
00000160: b70c 0cbe d74d 0b3e 433f 59be a4f4 fa3d
00000170: 16e8 833d 1496 0f3e a326 7c3e 2bd5 883d
00000180: def9 0a3e 3961 8a3d 9615 ebbd 867c 45be
00000190: ac18 773d 0039 4c3e 7d26 5bbe 370a a3bd
000001a0: 1688 17be f7c8 06be 7d88 2f3e 9f6c fcbc
000001b0: c070 253d 2e81 093e 5ee5 28be 9497 4fbd
000001c0: 7665 aebd e197 4b3d a4cd 9ebc ca77 9abd
000001d0: 87c3 7abd 08f5 973d 2d33 11be d079 a23a
000001e0: 7d7d 973e 7111 e2bd fb4b 0ebd 01ef d43d
000001f0: 6532 9a3e 0e08 bd3d e997 34be 5206 6abe
00000200: 2f01 c53d b87a d03d 6809 ccbc 1396 23be
00000210: fd38 08bd fc10 06be 0b9d 57bd e560 15be
00000220: 49d4 b5bd 8756 b63d 8611 833e bc9a c8bd
00000230: aed4 7f3d 70bd 2ebe 7d27 a13e bced 35bd
00000240: fc97 c53e 8904 d23d 7c6e 28be 6513 983e
00000250: 3e0d 573e e97a 233e 07b8 2dbe c8b1 d03d
00000260: 16b5 bdbd ceae f6bd 0ed4 ea3e baaf 773d
00000270: baad 80bd 19bb 23be 46d1 6ebd 42fa 433e
00000280: 2a75 cc3d 8cba 4ebd 4e94 3ebe 7a8e d63d
00000290: cdfd ba3d aa3b 253e cb57 fd3d 8e3b 1d3d
000002a0: 852b 47bd 8da7 b4bd 2b36 a1bd 894f 853d
000002b0: 9e30 a73c ab7e 2cbe a2ea 7d3e 5493 813d
000002c0: 6a7f 993e 24b7 a93d 8176 443d 6391 743e
000002d0: 17a8 80be a9d9 6c3d 8632 ce3d ba09 c1bd
000002e0: b0f5 ac3e 8a8a 883d 984d b13d ec99 373e
000002f0: 4bd8 943e 344c 033d 4e51 38bc 8c5f 94bd
00000300: 0813 0ebd 17be 24bd 2d27 8f3c 3537 ac3d
00000310: 14fc 213e 3a1d 3fbe 9a71 0f3e 8d4d 163d
00000320: 3ea3 90bc ef8c 6cbe 7de7 54bd 9a13 963d
00000330: 2ba9 89bc 4df8 e73d ef5c 0ebe 8420 03be
00000340: 319b 00be 2971 abbc 003f 283d fe40 67be
00000350: 035e 4c3e 2df2 b73d bc9a b33d 984b 6bbc
00000360: 767e 3f3e 7ba1 343e 4e8b 74be aa7d 9e3d
00000370: b0ac 013d 3dee 3a3e 9930 a73d 07ae 6b3e
00000380: e767 09bd 1f5d 723d a1c4 4dbe ea44 05be
00000390: 646d 0ebe ca08 b2bc 4b8f 30bc 5599 243d
000003a0: 3d12 193d bc76 e0bd fe24 53bd 36a9 c7ba
000003b0: 7d57 913d 30d7 1e3e 2b94 77be 301a e1bd
000003c0: 80aa 8b3e ccab 023e 9fb8 febd d5a8 40be
000003d0: 24e6 583c b2d2 11bd 0e00 73bd fae9 323e
000003e0: 0ef0 663d 10b5 0c3c f63b 0bbd d430 a9bd
000003f0: 0917 7d3e 5876 0a3e 9334 c5bd 4251 93be

weight_hh_l0 f4 [128, 32]
-0.060055207 -0.0068664234 -0.054700155 0.2670977 -0.096602075 0.1179001 -0.09987034 -0.030359978
-0.18661113 -0.0712119 0.21187858 0.038816188 0.097313836 0.03922891 -0.121568955 0.12616742
0.1438295 -0.17309083 -0.02230998 0.22090802 0.13770424 -0.030909985 -0.11858742 -0.07235336
-0.13775197 -0.054469503 -0.16517946 0.25286427 0.1471642 -0.2533179 -0.12386487 0.27894005
0.03272081 -0.15537937 0.09341389 0.01566243 -0.15504411 0.0009461581 -0.2730578 -0.05336381
-0.014713543 -0.019408368 -0.08007627 -0.15111808 0.020381901 0.21554211 -0.079211466 0.07590558
0.08556873 -0.060387786 0.09408394 0.24475296 0.22793837 -0.16168946 0.09249714 0.14736222
0.14368579 -0.32069653 0.014109961 -0.1663461 0.004021814 0.11197519 -0.044810273 0.07468375
0.035606783 -0.015346671 0.10357447 0.08408412 -0.21533366 -0.12490397 -0.16650957 -0.11360721
-0.24586515 -0.269868 -0.15550669 -0.04324391 -0.050922204 0.18994789 -0.12565249 0.08855503
0.015156368 0.04809009 -0.12189584 -0.15762974 0.008563519 0.0037500851 -0.18412483 0.006619024
-0.0055722496 -0.33078742 -0.043704983 -0.029649979 -0.15467168 0.1266211 -0.022184784 0.025302883
0.20860715 -0.04184141 0.1925443 0.024344048 -0.11675075 -0.10560405 -0.08165325 -0.04907424
-0.011191809 0.0014787765 -0.07849313 -0.07966904 -0.13877341 -0.11164583 -0.27893516 -0.14251922
-0.22754136 -0.026298866 -0.21915483 -0.0921525 0.12610362 0.092388555 -0.04646147 -0.029065892
-0.005431454 -0.032891586 0.01786783 0.012012434 -0.030842127 -0.087172695 0.025465274 -0.02897951
0.12986743 0.034632392 0.08455692 -0.028222723 0.010834353 0.047497533 0.022120249 -0.15813492
0.07900711 0.049671575 -0.10318672 -0.1577063 -0.057688486 0.19731168 -0.009321387 0.041220937
-0.2677346 0.095821835 0.09767455 -0.115191214 0.12016992 0.1418011 0.03489562 -0.24874015
-0.038874082 0.026126964 -0.109825484 -0.0842022 -0.095873415 0.17776507 0.09317208 -0.03893232
0.0150947 -0.18880613 -0.03883532 -0.08091356 -0.18452156 0.1509059 -0.12637116 0.290007
0.23449075 -0.3027425 -0.12732908 0.10443651 0.031768758 0.018389937 -0.02306902 -0.094171666
-0.16452108 0.03218902 -0.05041956 0.062373605 -0.13121097 -0.03692501 -0.15848657 0.09626791
0.11081227 0.07574704 0.15280193 -0.025218785 0.064735316 -0.2283951 0.1833052 0.09718202
0.024470314 0.010502299 0.2232643 -0.04907173 -0.051054858 -0.17920065 -0.21455166 0.21186061
-0.039409235 -0.24574251 -0.146282 0.033576883 -0.021214217 0.13204809 -0.12967181 -0.2926356
0.028494822 -0.11030874 0.023515249 -0.096913286 0.40131497 -0.006992507 -0.1530337 -0.018884499
0.11395938 -0.24285714 -0.052777115 0.13160703 0.13030477 -0.16597202 -0.2162191 0.16883516
0.025158685 0.103408664 0.025710363 0.030744907 0.08890687 -0.3047368 0.07167598 0.044517245
-0.0105689885 -0.22397025 -0.1665804 0.26853916 0.30752143 -0.11302463 0.13094005 -0.013553204
-0.08031884 -0.019276487 -0.11348431 -0.09376665 -0.032851975 -0.008162499 -0.09744364 -0.1307318
-0.115053736 0.017735805 0.08459822 0.024992472 -0.19734105 -0.0018902519 0.042328056 0.17621085
00000000: 73fc 75bd bcff e0bb 450d 60bd 08c1 883e
00000010: 4fd7 c5bd 9c75 f13d d288 ccbd 7db5 f8bc
00000020: fd16 3fbe 8bd7 91bd b3f6 583e b9fd 1e3d
00000030: 7a4c c73d 7eae 203d 25f9 f8bd 0832 013e
00000040: 0a48 133e b93e 31be 6bc3 b6bc b635 623e
00000050: 5702 0d3e f036 fdbc f6dd f2bd 002e 94bd
00000060: da0e 0dbe 6a1b 5fbd ce24 29be 6d77 813e
00000070: 36b2 163e e2b2 81be ddac fdbd 3bd1 8e3e
00000080: 4206 063d c51b 1fbe c84f bf3d 7f4e 803c
00000090: e2c3 1ebe 9807 783a 3bce 8bbe 0394 5abd
000000a0: 1211 71bc 4cfe 9ebc 07ff a3bd b3be 1abe
000000b0: f2f7 a63c 12b7 5c3e 9f39 a2bd 6274 9b3d
000000c0: a93e af3d 2f59 77bd 15af c03d 85a0 7a3e
000000d0: ad68 693e ec91 25be 246f bd3d 1fe6 163e
000000e0: 5e22 133e 5632 a4be 772d 673c a256 2abe
000000f0: 6cc9 833b 4053 e53d fa8a 37bd cbf3 983d
00000100: 6bd8 113d 9b70 7bbc da1e d43d 4c34 ac3d
00000110: 6d80 5cbe a7cd ffbd 7c81 2abe e6aa e8bd
00000120: 13c4 7bbe 232c 8abe 253d 1fbe 8720 31bd
00000130: cd93 50bd b381 423e 0cab 00be 575c b53d
00000140: 6a52 783c 1dfa 443d 87a4 f9bd b169 21be
00000150: 014e 0c3c fdc3 753b 388b 3cbe 66e4 d83b
00000160: 6b97 b6bb f85c a9be ff03 33bd 83e4 f2bc
00000170: 4162 1ebe f6a8 013e ddbc b5bc fe47 cf3c
00000180: 1d9d 553e e661 2bbd 552a 453e 2b6d c73c
00000190: 041b efbd f046 d8bd d239 a7bd 1202 49bd
000001a0: d95d 37bc 81d3 c13a 02c1 a0bd 8629 a3bd
000001b0: 9e1a 0ebe 92a6 e4bd 97d0 8ebe 8ff0 11be
000001c0: 9a00 69be b870 d7bc 206a 60be 73ba bcbd
000001d0: 4f21 013e 3636 bd3d 624e 3ebd 981b eebc
000001e0: 57fa b1bb 54b9 06bd 8e5f 923c cdcf 443c
000001f0: a1a8 fcbc 9987 b2bd 8d9c d03c 7066 edbc
00000200: f8fb 043e b2da 0d3d 2e2c ad3d 5733 e7bc
00000210: 9282 313c c68c 423d 8635 b53c 1fee 21be
00000220: 7bce a13d 6c74 4b3d 8f53 d3bd c37d 21be
00000230: c34a 6cbd 130c 4a3e bbb8 18bc 49d7 283d
00000240: 8214 89be 3d3e c43d 9809 c83d 5fe9 ebbd
00000250: a61b f63d 4f34 113e b6ee 0e3d bdb5 7ebe
00000260: 6e3a 1fbd 3708 d63c 2fec e0bd 3472 acbd
00000270: 4859 c4bd 0c08 363e 01d1 be3d 7f77 1fbd
00000280: c34f 773c 6556 41be c911 1fbd 02b6 a5bd
00000290: 38f3 3cbe 1487 1a3e 7167 01be cc7b 943e
000002a0: 581e 703e 1101 9bbe 8e62 02be cfe2 d53d
000002b0: f51f 023d 7ea6 963c 3efb bcbc 13dd c0bd
000002c0: 3778 28be a2d8 033d be84 4ebd 777b 7f3d
000002d0: 2b5c 06be ae3e 17bd 4e4a 22be 1c28 c53d
000002e0: 8bf1 e23d 4421 9b3d 1c78 1c3e a097 cebc
000002f0: f393 843d 68e0 69be 5cb4 3b3e 5e07 c73d
00000300: f875 c83c d611 2c3c 669f 643e 70ff 48bd
00000310: e61e 51bd 6080 37be 6eb3 5bbe fdf1 583e
00000320: 946b 21bd eda3 7bbe f3ca 15be ea87 093d
00000330: 70c9 adbc 9d37 073e b0c8 04be 55d4 95be
00000340: f96d e93c 8ce9 e1bd 0da3 c03c 797a c6bd
00000350: 2879 cd3e 6621 e5bb deb4 1cbe aab3 9abc
00000360: 8963 e93d 8baf 78be d12c 58bd fec3 063e
00000370: 9d6e 053e 92f4 29be 8a68 5dbe 20e3 2c3e
00000380: 9619 ce3c ecc7 d33d 8a9e d23c bedc fb3c
00000390: ce14 b63d 7606 9cbe dbca 923d b757 363d
000003a0: 8d29 2dbc 7558 65be 0d94 2abe f77d 893e
000003b0: 7373 9d3e 7579 e7bd 2615 063e 420e 5ebc
000003c0: 347e a4bd b9e9 9dbc 766a e8bd bb08 c0bd
000003d0: cb8f 06bd 01bc 05bc 8890 c7bd 8fde 05be
000003e0: 4ba1 ebbd ae4a 913c d541 ad3d 03bd cc3c
000003f0: c613 4abe 54c2 f7ba 2f60 2d3d 9e70 343e

bias_ih_l0 f4 [128]
-0.100124426 -0.12134619 0.026472436 0.0424782 0.013403531 0.09497449 0.12599656 -0.08264353
0.011204847 0.03021981 -0.15993336 -0.14861669 -0.021341871 0.16402946 -0.1796112 -0.032957554
0.026093168 0.120893374 0.13459471 -0.17698005 0.10247862 -0.057419725 -0.17801595 -0.050522167
0.03986728 0.015139711 0.047139093 -0.003128716 0.1373317 0.09808891 0.12963796 -0.085159935
0.1615568 -0.093901396 -0.09834395 -0.11499549 -0.005473591 0.15574102 0.033812277 0.25487506
0.25790828 0.1914373 0.08912789 0.21680509 -0.07370607 0.22688383 0.03733837 -0.04973507
-0.08916858 0.22615921 0.2536432 0.1574401 0.025942668 0.16855207 -0.09501258 0.07471531
0.037282515 0.121493526 0.09621633 0.2276951 -0.06333553 0.102891654 -0.004642798 -0.039632484
-0.1016017 0.037769254 0.19671035 -0.15107901 0.042735472 0.028417956 0.18176743 0.10693219
0.116740815 -0.0229981 0.07061323 0.07271809 0.083320245 0.00084593915 0.06611402 -0.11699933
-0.16085616 -0.091006204 0.18996729 -0.17895411 0.013320441 -0.1954668 -0.0998706 0.2123246
-0.20554759 -0.012179544 0.08487357 -0.013172081 -0.060727146 -0.0782907 -0.122196555 0.06478241
-0.024665875 0.20428842 0.14852934 0.082732074 0.20502976 0.24939084 0.3606408 0.084512986
0.057803426 0.21265544 0.037879642 -0.08381883 -0.10262151 0.24037929 0.105146475 0.11113128
0.10869603 -0.044786457 0.25455672 0.06904061 -0.06878941 0.19954214 9.1282454e-05 -0.06462032
0.2494109 0.03601512 0.2211296 -0.0008733828 -0.013345129 0.089021325 0.15369037 0.01822225
00000000: 090e cdbd 5a84 f8bd b9dc d83c 9ffd 2d3d
00000010: 7c9a 5b3c fc81 c23d 3e05 013e 0341 a9bd
00000020: 8994 373c 898f f73c 92c5 23be f92e 18be
00000030: 26d5 aebc 57f7 273e 00ec 37be 80fe 06bd
00000040: 57c1 d53c f296 f73d 32d3 093e 423a 35be
00000050: 50e0 d13d f230 6bbd d049 36be 55f0 4ebd
00000060: df4b 233d 8d0c 783c ec14 413d 250b 4dbb
00000070: aea0 0c3e d7e2 c83d d0bf 043e 5568 aebd
00000080: 256f 253e 604f c0bd 8e68 c9bd c182 ebbd
00000090: cf5b b3bb 937a 1f3e be7e 0a3d fc7e 823e
000000a0: 8e0c 843e 2408 443e af88 b63d 2702 5e3e
000000b0: 35f3 96bd 3c54 683e 1ef0 183d 00b7 4bbd
000000c0: 049e b6bd 4896 673e 86dd 813e fa37 213e
000000d0: b885 d43c ea98 2c3e f595 c2bd 5704 993d
000000e0: 8db5 183d 99d1 f83d 110d c53d e728 693e
000000f0: 0fb6 81bd dcb8 d23d 9d22 98bb ac55 22bd
00000100: 8d14 d0bd efb3 1a3d 706e 493e 75b4 1abe
00000110: 640b 2f3d c6cc e83c 3e21 3a3e 44ff da3d
00000120: cf15 ef3d 8366 bcbc ab9d 903d 39ed 943d
00000130: cea3 aa3d 04c2 5d3a ca66 873d 589d efbd
00000140: 7ab7 24be 7661 babd c986 423e bf3f 37be
00000150: fb3d 5a3c 7328 48be f588 ccbd 9f6b 593e
00000160: 117b 52be b68c 47bc 32d2 ad3d b6cf 57bc
00000170: 07bd 78bd e056 a0bd 3042 fabd a4ac 843d
00000180: 1710 cabc fc30 513e 1318 183e 6f6f a93d
00000190: 52f3 513e 5060 7f3e e9a5 b83e 2515 ad3d
000001a0: 49c3 6c3d 59c2 593e af27 1b3d 35a9 abbd
000001b0: 3a2b d2bd fd25 763e 0957 d73d cc98 e33d
000001c0: 069c de3d 0172 37bd 4255 823e 2a65 8d3d
000001d0: 76e1 8cbd c654 4c3e e56e bf38 a957 84bd
000001e0: 9265 7f3e 9784 133d cc6f 623e baf3 64ba
000001f0: 87a5 5abc d050 b63d 0261 1d3e d446 953c

bias_hh_l0 f4 [128]
0.12891494 0.13814138 -0.043340053 -0.1264525 0.10743787 0.18265533 -0.12062164 0.021441054
0.089882076 0.10235059 0.045123417 0.060137007 -0.02080035 0.17331491 0.049672883 0.018117612
-0.024953749 0.04177065 0.044352155 -0.22194126 0.10754339 0.052014865 0.1163683 -0.12399922
-0.06713015 -0.06801899 0.011381002 -0.09930383 0.16317414 0.12229806 -0.01117688 -0.05618876
0.027349398 0.12711233 0.025580429 -0.010587535 0.004938564 -0.011124723 -0.08929441 -0.035095602
-0.0037350145 0.012741639 0.007796298 0.1110498 0.07083854 0.2399763 -0.11910579 -0.123660445
-0.021702124 -0.033938292 0.10864061 -0.029743288 0.018349225 0.09167365 0.049824484 -0.0728587
0.061717566 0.16639836 0.00694263 0.008738988 0.13511269 -0.08938081 -0.12417931 0.13732019
0.07768666 0.055711344 0.007997557 -0.117900446 0.11623159 -0.17284429 -0.022431456 0.106262386
-0.14398894 0.19966054 -0.0044657043 0.18004698 0.044451483 0.07372805 0.043214943 -0.010227127
-0.07195579 0.080169685 -0.09323633 -0.08090573 0.060286194 -0.1537783 0.031713855 0.14799802
-0.14139342 0.21035703 -0.11932551 0.0029647346 -0.20945083 -0.11694748 0.10283077 -0.114782505
0.23971781 0.18026051 0.0479342 -0.18358485 0.031849675 0.26258686 0.28572953 0.15823784
0.10087675 0.22538069 -0.01689003 -0.06304787 -0.09474041 0.099537216 0.17089018 0.21321268
0.25678787 0.013599067 0.032603428 0.05433064 -0.08595684 0.009410724 0.12095465 0.22215936
0.124345906 0.16184837 0.009464389 0.18452534 0.2621714 0.15621251 0.078511365 0.082932234
00000000: 4702 043e ef74 0d3e 5785 31bd c47c 01be
00000010: 6308 dc3d 000a 3b3e 7a08 f7bd 26a5 af3c
00000020: 1814 b83d 309d d13d 55d3 383d 3952 763d
00000030: 7f65 aabc 7779 313e cb75 4b3d 636b 943c
00000040: ce6b ccbc b317 2b3d 9baa 353d 9244 63be
00000050: b53f dc3d 8a0d 553d 8152 ee3d 4ef3 fdbd
00000060: 887b 89bd 8a4d 8bbd 6277 3a3c ce5f cbbd
00000070: 1f17 273e 6877 fa3d 3c1f 37bc 2f26 66bd
00000080: d80b e03c bc29 023e 0c8e d13c 5777 2dbc
00000090: add3 a13b 7844 36bc fddf b6bd 68c0 0fbd
000000a0: 25c7 74bb 4fc2 503c 1678 ff3b 146e e33d
000000b0: cc13 913d 59bc 753e bded f3bd b041 fdbd
000000c0: a7c8 b1bc e102 0bbd f87e de3d 32a8 f3bc
000000d0: 1d51 963c 65bf bb3d c214 4c3d f136 95bd
000000e0: 8fcb 7c3d 5564 2a3e 007f e33b f92d 0f3c
000000f0: fb5a 0a3e 490d b7bd b951 febd aa9d 0c3e
00000100: 2f1a 9f3d 9431 643d 2f08 033c ca75 f1bd
00000110: d40a ee3d 18fe 30be 2cc2 b7bc 18a0 d93d
00000120: d671 13be d073 4c3e 0b55 92bb 3c5e 383e
00000130: c212 363d bbfe 963d 2702 313d ae8f 27bc
00000140: 8f5d 93bd 0130 a43d b0f2 bebd e7b1 a5bd
00000150: a8ee 763d 0f78 1dbe 63e6 013d cb8c 173e
00000160: 70c9 10be d567 573e ef60 f4bd fe4b 423b
00000170: 477a 56be 2982 efbd f098 d23d 1713 ebbd
00000180: 9678 753e 3696 383e a756 443d abfd 3bbe
00000190: ce74 023d c971 863e 244b 923e 1a09 223e
000001a0: 7898 ce3d 32ca 663e f65c 8abc 3e1f 81bd
000001b0: 4307 c2bd 2bda cb3d d6fd 2e3e 6d54 5a3e
000001c0: b379 833e 9fce 5e3c 2c8b 053d ce89 5e3d
000001d0: 240a b0bd 702f 1a3c 12b7 f73d be7d 633e
000001e0: 11a9 fe3d 94bb 253e 8610 1b3c 36f4 3c3e
000001f0: 543b 863e 2cf6 1f3e 91ca a03d 60d8 a93d

weight_ih_l0_reverse f4 [128, 2]
-0.17899916 -0.28569618 0.41782126 -0.19627468 -0.26005524 -0.41804513 0.09237726 -0.39774764
-0.12417125 -0.198277 0.20509717 -0.6684861 0.073199734 0.17343941 0.15902452 -0.35683048
-0.22593512 -0.63899267 -0.19248858 0.4969207 -0.29906994 0.072362855 0.65613085 -0.034576874
-0.12355522 0.05821095 -0.13010068 0.032174367 0.2618344 -0.030884879 0.60682756 0.39445442
0.019945042 -0.28218296 0.027373375 0.25452304 -0.0357079 -0.21641016 -0.23642264 0.12939128
-0.41897234 0.083658695 -0.31965703 0.70029426 -0.5031127 0.0945455 0.3430652 -0.13191998
-0.34065652 0.5404282 -0.641042 -0.47144836 -0.0756923 0.16212974 -0.19095087 0.56014246
0.39004895 -0.09946923 -0.03599998 0.26113087 -0.17673226 0.0830717 0.10485276 -0.3017464
-0.3668532 0.029401429 0.4193975 -0.34542644 -0.16480163 -0.22342099 -0.11839876 -0.49520764
-0.1099296 -0.16146652 0.3289151 -0.16097914 -0.18155248 0.23881336 0.1942298 -0.13047387
-0.011945935 -0.22573222 -0.039016612 0.07890466 -0.04966628 -0.08391187 0.28725222 -0.0350116
0.019729845 0.16471444 -0.035095833 0.0074872514 0.15839484 -0.16858763 0.41174775 0.296339
0.044503838 -0.3496737 0.032642856 0.35233322 -0.0062894817 -0.113499105 -0.20805058 0.07538507
-0.18734585 0.123779014 -0.23849794 0.29082286 -0.10968704 -0.090105556 0.031746883 -0.23695032
-0.0878257 0.1150581 -0.21862774 -0.28851962 -0.007050413 0.042593285 -0.06788477 0.29436868
0.044250533 0.057379447 0.15075417 0.14881444 -0.0985439 0.10526798 0.190607 -0.2734227
-0.40498972 -0.040424325 -0.0064713643 0.39651155 0.11023093 0.25220084 -0.21774559 -0.22842062
0.31331638 0.6099861 0.41074535 -0.30111888 -0.06595216 -0.35087582 -0.6453764 0.41189644
-0.06621801 -0.29576185 -0.25385785 0.5273911 0.32260463 -0.018328045 0.75482893 -0.023693059
0.23411085 0.013386544 0.2736359 0.3513928 0.030012835 -0.32345662 0.3118489 0.21410652
0.1276376 0.15430576 0.19945534 0.5993114 0.07862131 -0.47738132 -0.6647998 0.216598
-0.5036267 0.04732602 0.26362595 -0.5476904 -0.49890622 0.053903706 0.035730567 0.17312236
-0.3498465 0.6234993 0.52860487 0.5755283 -0.11880552 -0.3051584 -0.09712131 -0.26034838
-0.73380333 0.13051231 0.40935788 -0.01265923 0.16865636 -0.11914234 0.30391333 -0.25168315
0.008430993 -0.048436776 0.28017023 -0.3260354 -0.26991665 -0.35221344 -0.31965503 -0.1893833
-0.06854044 0.07802811 0.21043096 -0.23394796 -0.23214701 0.0659955 0.24874352 -0.31153828
-0.33320528 -0.47249743 -0.18590857 0.14855269 0.22537129 0.05764478 0.5318684 -0.034788318
0.19603856 -0.3979777 -0.16658351 -0.08783339 0.2706463 -0.07999766 0.22363785 0.048695367
0.058959242 0.1592139 0.30712932 0.08616045 -0.0013866507 -0.30237156 -0.30629814 0.20345984
-0.34443823 -0.31052065 -0.4141534 0.9664714 -0.20874256 -0.14205128 -0.12197877 -0.0669801
-0.22415708 0.6817607 -0.26387295 -0.45622155 -0.08614522 0.4647511 -0.12528104 0.34765357
0.5294121 -0.15067421 -0.041398708 0.008131374 -0.2944893 0.17970775 0.10469546 -0.3813012
00000000: 8e4b 37be c546 92be abec d53e 3bfc 48be
00000010: f625 85be 030a d6be 4a30 bd3d 94a5 cbbe
00000020: 7f4d febd 2009 4bbe fe04 523e e821 2bbf
00000030: bee9 953d 1a9a 313e 53d7 223e 7cb2 b6be
00000040: 895b 67be 0695 23bf ba1b 45be 646c fe3e
00000050: b21f 99be fa32 943d 31f8 273f 7ba0 0dbd
00000060: 850a fdbd 9b6e 6e3d 1d39 05be 45c9 033d
00000070: 290f 863e 4902 fdbc 0d59 1b3f eef5 c93e
00000080: c963 a33c 497a 90be 213e e03c d850 823e
00000090: 7242 12bd a09a 5dbe c718 72be 267f 043e
000000a0: 8b83 d6be 4055 ab3d 16aa a3be 7c46 333f
000000b0: fecb 00bf 12a1 c13d 3ea6 af3e 0816 07be
000000c0: 886a aebe 8159 0a3f 541b 24bf ae61 f1be
000000d0: 9104 9bbd 5705 263e a088 43be 7f65 0f3f
000000e0: 7fb4 c73e 86b6 cbbd b774 13bd f2b2 853e
000000f0: 4df9 34be 7f21 aa3d 0bbd d63d 817e 9abe
00000100: 2fd4 bbbe 44db f03c 45bb d63e bcdb b0be
00000110: c2c1 28be 79c8 64be 0d7b f2bd db8b fdbe
00000120: c522 e1bd 7b57 25be 8f67 a83e b7d7 24be
00000130: e5e8 39be 7d8b 743e 2de4 463e f19a 05be
00000140: e2b8 43bc 5926 67be e2cf 1fbd c498 a13d
00000150: df6e 4bbd fdd9 abbd b912 933e 5368 0fbd
00000160: 7ca0 a13c e7aa 283e a6c0 0fbd 9e57 f53b
00000170: 4232 223e 3ca2 2cbe 9ad0 d23e bfb9 973e
00000180: a849 363d 6e08 b3be 84b4 053d 0565 b43e
00000190: ff17 cebb 3872 e8bd 360b 55be 7d63 9a3d
000001a0: 97d7 3fbe da7f fd3d ce38 74be bce6 943e
000001b0: 99a3 e0bd 4389 b8bd 0509 023d 1ba3 72be
000001c0: f6dd b3bd 95a3 eb3d f3df 5fbe d8b8 93be
000001d0: 2707 e7bb 4c76 2e3d 2c07 8bbd 7eb7 963e
000001e0: 0c40 353d b606 6b3d 4d5f 1a3e d062 183e
000001f0: 62d1 c9bd bd96 d73d 7b2e 433e 0ffe 8bbe
00000200: d05a cfbe fa93 25bd bd0d d4bb 9003 cb3e
00000210: c1c0 e13d 7820 813e b3f8 5ebe 18e7 69be
00000220: 016b a03e 0d28 1c3f 374d d23e 412c 9abe
00000230: ed11 87bd ffa5 b3be 6337 25bf 17e4 d23e
00000240: 4f9d 87bd 196e 97be a8f9 81be 1a03 073f
00000250: 6f2c a53e b224 96bc 783c 413f f217 c2bc
00000260: c1ba 6f3e 3c53 5b3c 011a 8c3e c2e9 b33e
00000270: 7add f53c 1b9c a5be a9aa 9f3e bd3e 5b3e
00000280: 6eb3 023e 5402 1e3e 053e 4c3e 796c 193f
00000290: 3604 a13d 536b f4be 5230 2abf decb 5d3e
000002a0: aeed 00bf eed8 413d fbf9 863e 7035 0cbf
000002b0: a370 ffbe 22ca 5c3d 375a 123d fd46 313e
000002c0: 151f b3be a69d 1f3f a652 073f d355 133f
000002d0: 4f50 f3bd b93d 9cbe 8ae7 c6bd 624c 85be
000002e0: 89da 3bbf 05a5 053e 5b97 d13e a968 4fbc
000002f0: 41b4 2c3e e600 f4bd 879a 9b3e 9ddc 80be
00000300: 2622 0a3c a465 46bd 7972 8f3e 1dee a6be
00000310: 8432 8abe 5255 b4be d3a9 a3be b2ed 41be
00000320: ee5e 8cbd 34cd 9f3d 377b 573e 0e90 6fbe
00000330: f2b7 6dbe a628 873d 9fb6 7e3e f281 9fbe
00000340: e299 aabe 2feb f1be d15e 3ebe 321e 183e
00000350: bbc7 663e ef1c 6c3d 8728 083f 327e 0ebd
00000360: 55be 483e bcc3 cbbe de94 2abe fee1 b3bd
00000370: 2792 8a3e d0d5 a3bd 5201 653e cb74 473d
00000380: 3f7f 713d f808 233e 0e40 9d3e e474 b03d
00000390: 47c0 b5ba 72d0 9abe 1cd3 9cbe c757 503e
000003a0: 355a b0be 90fc 9ebe ea0b d4be ab6a 773f
000003b0: 9cc0 55be e475 11be 01d0 f9bd dd2c 89bd
000003c0: 6f89 65be df87 2e3f 5b1a 87be df95 e9be
000003d0: e86c b0bd dbf3 ed3e ac49 00be a6ff b13e
000003e0: 8d87 073f 574a 1abe b191 29bd 7439 053c
000003f0: 4dc7 96be 4f05 383e 936a d63d e939 c3be

weight_hh_l0_reverse f4 [128, 32]
0.06437763 -0.0431845 -0.017457757 0.13285072 0.056645874 0.09925704 -0.047657657 -0.028259829
0.04958847 0.09483037 0.037263762 -0.053284086 -0.19675174 0.02249704 -0.06370657 -0.123561576
-0.12557991 -0.03506243 0.011046778 0.068112925 -0.024653098 0.112822555 0.102408975 -0.17041188
-0.082518466 0.09171023 -0.16462506 0.023149632 0.022845142 0.028213797 -0.16195966 0.010523707
-0.12950668 0.07376819 -0.073220044 0.24124868 -0.11817827 0.066217124 0.17732684 -0.31359494
0.15680169 0.028671335 0.07167349 -0.01773629 0.027042637 -0.09788413 0.20513113 0.01993373
-0.0763782 -0.1023277 0.2806675 -0.48819137 -0.18049198 0.08553862 -0.17856109 -0.12996796
-0.15311466 -0.0043980638 -0.026896138 -0.08219608 -0.13259639 0.0969882 0.11959647 0.3326594
0.15405475 -0.23288746 -0.10962477 0.0052820793 0.02803301 0.051742632 0.1880336 -0.20473589
0.060855582 -0.068556786 -0.04653986 0.0003856697 0.085596144 -0.16506171 0.10415763 -0.08753742
-0.22780868 -0.08280288 -0.09889282 0.10001171 -0.05532182 -0.033291698 0.13073501 -0.2670192
-0.19753438 0.15223071 0.08189057 0.12206934 0.14494722 0.107693516 -0.059430055 -0.22063373
0.08275776 -0.31244874 -0.16295266 0.03545841 -0.12464528 -0.039569736 0.24129826 -0.049966335
0.004512338 -0.19071224 -0.085387915 0.17158836 0.008129597 -0.10949776 0.25427204 -0.07547108
-0.21446964 -0.1612024 -0.0043253773 0.03296841 -0.097324684 0.2659023 -0.15838353 -0.11536335
-0.2663384 0.020685049 0.16892135 0.15810116 0.042210918 -0.24361855 0.11914118 0.019005757
0.25496727 -0.163198 -0.0032994647 0.091153085 -0.24519195 -0.05188761 0.20549944 -0.03033959
0.086968794 -0.14064409 0.042429376 -0.1294491 -0.39021754 -0.13608888 -0.005168581 -0.37148696
-0.18600062 -0.25910047 -0.027519604 -0.15273988 -0.14500403 0.28962266 -0.089384936 0.12259516
-0.41021678 0.13478042 -0.11140418 0.42155907 0.20587063 -0.14746097 0.03941187 -0.2815601
0.029702866 -0.25877702 0.104595296 0.05784642 0.07615048 0.2855841 0.073872715 -0.5190738
-0.07758579 -0.33077973 0.13867475 -0.090447515 -0.128257 0.23294255 0.057022355 0.019562738
-0.17621785 -0.39654252 -0.10185966 -0.6262833 -0.08217461 0.19264267 -0.39578035 0.030089822
-0.06956765 0.1245314 -0.051435318 0.00087515626 -0.28486076 0.15717308 0.26990318 0.079965614
0.2892914 0.20983803 0.07412262 -0.19950846 -0.16238704 -0.34994403 0.002399654 -0.062449783
-0.114830166 -0.07848941 0.05938046 0.13610747 -0.19310963 0.009412483 -0.20141521 0.05592856
0.011487244 0.06322678 -0.1185581 0.19857416 0.13915786 0.16428924 0.17860042 0.18616307
-0.020984396 0.007363704 -0.05158883 -0.08542449 0.038822386 -0.18709077 -0.09610824 -0.07897538
0.2444735 -0.18915413 0.22255759 -0.076328106 -0.05331925 -0.03597466 -0.3639136 -0.337841
0.05528654 -0.29906222 0.26893955 -0.07001247 -0.30162764 0.16144088 -0.035489783 -0.23944609
0.09188098 0.009377108 -0.2477835 -0.23961888 -0.3001984 -0.014887692 -0.071725525 0.077681184
0.06435873 0.050246228 -0.062158674 0.26604646 -0.0056055994 -0.07496467 0.10845552 -0.055548612
00000000: 6bd8 833d 3be2 30bd 9203 8fbc 050a 083e
00000010: 8105 683d 4647 cb3d ad34 43bd 2881 e7bc
00000020: 481d 4b3d 6d36 c23d e3a1 183d 6a40 5abd
00000030: 4a79 49be b64b b83c 9778 82bd da0d fdbd
00000040: 0598 00be 9f9d 0fbd 8cfd 343c ca7e 8b3d
00000050: 4bf5 c9bc 830f e73d ccbb d13d 7480 2ebe
00000060: 71ff a8bd 93d2 bb3d 7993 28be 4ca4 bd3c
00000070: bc25 bb3c 9f20 e73c c1d8 25be a06b 2c3c
00000080: 669d 04be c713 973d 64f4 95bd e509 773e
00000090: 7307 f2bd d89c 873d 2b95 353e 848f a0be
000000a0: 9f90 203e 26e0 ea3c 8dc9 923d b24b 91bc
000000b0: 8588 dd3c 7a77 c8bd e50d 523e 104c a33c
000000c0: 2c6c 9cbd 2f91 d1bd a7b3 8f3e 38f4 f9be
000000d0: e4d2 38be df2e af3d b8d8 36be 5216 05be
000000e0: 17ca 1cbe a21d 90bb 4a55 dcbc 6b56 a8bd
000000f0: 59c7 07be c0a1 c63d feee f43d 5552 aa3e
00000100: 87c0 1d3e 0d7a 6ebe f482 e0bd 4b15 ad3b
00000110: 7ca5 e53c 15f0 533d e18b 403e 49a6 51be
00000120: b443 793d 8067 8cbd 95a0 3ebd b633 ca39
00000130: 084d af3d f005 29be 9850 d53d d246 b3bd
00000140: ae46 69be 8e94 a9bd 5288 cabd f0d2 cc3d
00000150: 2299 62bd e05c 08bd 66df 053e beb6 88be
00000160: 7446 4abe 5ee2 1b3e 3eb6 a73d 7dff f93d
00000170: 0b6d 143e 6b8e dc3d ee6c 73bd cfed 61be
00000180: e77c a93d 48f9 9fbe 10dd 26be d63c 113d
00000190: 0646 ffbd e013 22bd e416 773e 80a9 4cbd
000001a0: 3cdc 933b 124a 43be dcdf aebd dcb4 2f3e
000001b0: 0032 053c 5d40 e0bd f22f 823e 9590 9abd
000001c0: ee9d 5bbe 3e12 25be e5bb 8dbb e209 073d
000001d0: 2a52 c7bd 5924 883e 4b2f 22be 9f43 ecbd
000001e0: 825d 88be b173 a93c b8f9 2c3e 45e5 213e
000001f0: 5be5 2c3d 2477 79be 4a00 f43d f6b1 9b3c
00000200: 128b 823e 601d 27be d53b 58bb 78ae ba3d
00000210: 9913 7bbe 1a88 54bd 726e 523e bb8a f8bc
00000220: b21c b23d 0105 10be 6dca 2d3d 4e8e 04be
00000230: 98ca c7be e25a 0bbe 335d a9bb 8a33 bebe
00000240: f276 3ebe d1a8 84be cb70 e1bc d867 1cbe
00000250: f07b 14be 6c49 943e 730f b7bd 2c13 fb3d
00000260: ef07 d2be e103 0a3e e027 e4bd 97d6 d73e
00000270: c0cf 523e 0200 17be 576e 213d a528 90be
00000280: 6d53 f33c 6c7e 84be 0f36 d63d 5ef0 6c3d
00000290: c8f4 9b3d 1438 923e 944a 973d 05e2 04bf
000002a0: 4ce5 9ebd f65b a9be c100 0e3e 8c3c b9bd
000002b0: ce55 03be 7e88 6e3e 4690 693d 0942 a03c
000002c0: 7472 34be 9f07 cbbe cc9b d0bd 1a54 20bf
000002d0: 294b a8bd 1f44 453e b9a3 cabe ee7e f63c
000002e0: 7c79 8ebd 520a ff3d d7ad 52bd be6a 653a
000002f0: 45d9 91be fbf1 203e c030 8a3e 03c5 a33d
00000300: 011e 943e c8df 563e 9acd 973d f24b 4cbe
00000310: ca48 26be dd2b b3be 8343 1d3b 58cb 7fbd
00000320: 142c ebbd 0ebf a0bd ed38 733d c25f 0b3e
00000330: 88be 45be d136 1a3c ca3f 4ebe 5915 653d
00000340: fe34 3c3c 0b7d 813d 97ce f2bd 0657 4b3e
00000350: 667f 0e3e 703b 283e 07e3 363e 88a1 3e3e
00000360: 78e7 abbc 3a4b f13b cf4e 53bd 09f3 aebd
00000370: 3904 1f3d b994 3fbe 66d4 c4bd d8bd a1bd
00000380: 4357 7a3e 9fb1 41be 23e6 633e e951 9cbd
00000390: 4965 5abd 2a5a 13bd e252 babe 7ff9 acbe
000003a0: 2474 623d af1e 99be 72b2 893e b362 8fbd
000003b0: f06e 9abe c250 253e bc5d 11bd 5b31 75be
000003c0: 182c bc3d 71a2 193c f5ba 7dbe a75e 75be
000003d0: 9bb3 99be 82eb 73bc d5e4 92bd 5017 9f3d
000003e0: 83ce 833d fdce 4d3d 189a 7ebd 3e37 883e
000003f0: 2daf b7bb 1487 99bd ed1d de3d f186 63bd
