TS-CVAE/experiments/pedestrians/models/eth/models_04_Jun_2021_13_35_51_eth_ar3/model_registrar-48.pt (torch_old, 545378 bytes, 43 tensors)

weight_ih_l0 f4 [128, 6]
00000000: c1cb 12bd 5060 a13c 6457 01be eeb4 853b
00000010: ca13 c7bd c67a 773d a7a7 aebd 8102 3abe
00000020: f031 9cbd 2db4 453e 2d88 83bc 6bc5 223e
00000030: 9cbe 953d 1824 953c 65c5 26be 8499 12be
00000040: 5371 3abe 71de 9e3d 286e d2bd f05a f03d
00000050: 883a 2b3e 8826 013e 7c2d 18be 4ef1 8c3d
00000060: e33c e1bd 1f0c 09be dabb 15bd 99bb c73e
00000070: d297 15be 1f8f 7cbe 5f17 833e 05bb b0bd
00000080: 5057 4dbc a7b9 913e 1b7f 803d f0c6 fbbd
00000090: 8019 7cbe ea2d a1bd fa29 8fbd 88c4 253d
000000a0: 4f8c 78be 8b1d a6be 7428 34bd 163f 843e
000000b0: 4e41 a43d bbaf 4ebd 0e72 cabd 5127 fb3d
000000c0: f02a d23e f7af 333e 29b7 193e c5b7 3dbd
000000d0: 4faf 79be c650 87bd e915 94be b6d7 80be
000000e0: 6b06 0f3d 0880 943e 9d33 19bd 724d e9bd
000000f0: 16b9 a93e 8198 cfbd ac34 cbbe b47d 123e
00000100: d5c4 74be 9e40 883e 11f0 23be 5c1c 96bd
00000110: d8c1 7737 d01f 223e 9024 4e3e f0e9 ec3d
00000120: 843c bdbd 3b50 8ebd bbc8 4a3d 2860 e5bd
00000130: f94a 94bd 6be9 7abd e400 e63c 355b 5b3e
00000140: 0788 343d e9ae 34bd ddb1 b1bd c73f 003d
00000150: 4627 6abe 6962 d2bd 64a3 98be df40 c73d
00000160: 7375 0d3f 91af 7bbd 74c2 0bbe adc5 263e
00000170: 76a0 333e 30ba 6a3d 2790 59bd 44a9 c83d
00000180: 7582 d13b 6088 833e 78d8 893e faca 67bd
00000190: d767 13be 5bf7 b9be 1f19 1e3d a357 d6bd
000001a0: 0d94 28bd 1b28 60bd 96b7 69b9 f0d7 ea3d
000001b0: 9737 083e 57e1 47bd 8900 b43d 22fa 97bd
000001c0: 8342 883e 5ab5 ed3e b484 43be 2a3f 21be
000001d0: df4e f8bc 6137 b33e 9cb4 eb3d acae ab3d
000001e0: 0360 2cbe 5edc ed3d b2c4 a53d 5331 7cbe
000001f0: 472a 55bd e47a 463c d38b b13d 675e d33e
00000200: 537a 8fbd 7bb9 56be 2ce2 833c b3af 573e
00000210: 066b 45bd 6e59 42be a275 713a 8f17 b13d
00000220: 7d89 bcbc b824 cabd 38c1 a2bc f220 8bbd
00000230: 0b12 043e 39e3 5cbd 06f8 5a3d f2dd e2bd
00000240: e7df b83d bcb5 a4bc 5c76 16be 31d6 a2bc
00000250: d877 a1be 4817 cbbd 7978 6dbd 7c0e 53bc
00000260: b147 febd 42f8 df3d 7aa5 1dbe d47f a33d
00000270: 4399 6b3e 33dc a5be 078a a3be 3c9a d03e
00000280: 70d6 163e 0c89 4b3e 23fc 073d 4fb8 913e
00000290: 2400 c63e aa26 6a3e ef0c 6b3d 2015 7d3e
000002a0: e210 35bd 2dca b23d 6136 e8bd 8b0a e23c
000002b0: 53a9 8c3d e35f 3e3e 8650 14be 807d 2ebe
000002c0: 2194 21be ab1e 0bbd 1006 bdbc 2cde 2b3e
000002d0: 4bf1 2abd aa7f f7bd 456c 373e 6f28 cbbc
000002e0: 5130 febd 881b bf3b 72bc 94bd eed3 a73d
000002f0: b432 573e f5c6 3ebe e654 59be 9a3c be3d
00000300: 27a4 b33d 8b91 023e 3a3d 06be f5bc 28be
00000310: d466 c8ba ced1 40be a9ad 3b3e 64cd b8bc
00000320: 296f 5ebc a577 ab3d 197d b23d 8bee 35be
00000330: 09dd cebd 3059 363d 5c7a 55bd 8fa3 b4bc
00000340: 8a3e 7abd db77 80bd f67b 013d 9f60 733d
00000350: 3b62 083d e18d b2bd 1dba dbbd c109 52be
00000360: 3887 fa3c dfbb 56be 17e6 e63c 9d04 423e
00000370: 640a 90be 860b 73bd e224 813e 28b1 01be
00000380: 848c 0cbd 14b3 e7bd a589 40be 3720 f73d
00000390: 8705 ff3c 8aaf 643c dc6d c13b 0660 de3c
000003a0: 123c 77bc 886e 543d eea8 93bd a791 91bd
000003b0: d812 423e 1ecb 6ebc c6bb 1bbd a340 483d
000003c0: 98de d33e dd9e 5cbc db8a 843c 33ba a0bd
000003d0: dac2 0fbf 70aa 993e dbdd 3dbe dac3 e2bd
000003e0: 0d2d 283e 1f3b 683e f516 6c3e 65ee 833d
000003f0: b944 ad3e 937c e0bd 86ff 34be 3cc5 ad3d
-0.035838846 0.019699246 -0.12630993 0.0040804064 -0.09720571 0.06041982 -0.08528071 -0.18165018
-0.07626712 0.19307013 -0.016056145 0.15895621 0.073117465 0.018205687 -0.16286238 -0.14316374
-0.18207292 0.07757271 -0.10274917 0.11736095 0.16721547 0.12612355 -0.14861101 0.06881963
-0.10997941 -0.1338353 -0.036556102 0.39010313 -0.14608696 -0.24663971 0.25603768 -0.08629421
-0.012533024 0.28461954 0.062742434 -0.12293804 -0.24619102 -0.078700855 -0.06990428 0.04047063
-0.24272273 -0.32444414 -0.04398389 0.2582938 0.080202684 -0.05046056 -0.098850355 0.122633584
0.41048384 0.17547594 0.15011276 -0.046317834 -0.24383281 -0.06607203 -0.28922966 -0.25164574
0.03491823 0.2900393 -0.037402738 -0.11391725 0.33149022 -0.1013651 -0.39688623 0.14305764
-0.2390321 0.266118 -0.16009547 -0.07329628 1.476748e-05 0.15832448 0.20131135 0.115680575
-0.09240058 -0.069488965 0.049507838 -0.11199981 -0.072408624 -0.06125776 0.028076597 0.21421511
0.04407504 -0.04411212 -0.08676503 0.031310823 -0.22866544 -0.102726765 -0.29812157 0.0972917
0.5525734 -0.06144673 -0.13648397 0.16286345 0.1754168 0.05730647 -0.05311599 0.0979791
0.0063937255 0.25689983 0.26922965 -0.056590058 -0.1439508 -0.3632153 0.038598176 -0.10465934
-0.041156817 -0.054725748 -0.00022289003 0.11466968 0.13302456 -0.048798885 0.087891646 -0.07420756
0.26613244 0.46427423 -0.19093591 -0.15746751 -0.030311046 0.35003188 0.11509058 0.083829254
-0.168335 0.11614297 0.08094157 -0.2462819 -0.052042272 0.01211426 0.086692475 0.4128296
-0.07005753 -0.20969193 0.016099058 0.21063118 -0.04819777 -0.18979427 0.0009210949 0.086470716
-0.023014778 -0.09870285 -0.019867525 -0.06793393 0.12897508 -0.053927634 0.05345919 -0.11077489
0.09027081 -0.020106189 -0.14693588 -0.019877525 -0.31536746 -0.0991655 -0.05797622 -0.012881871
-0.12416018 0.10936023 -0.15395156 0.07983366 0.23007683 -0.3239456 -0.31941244 0.4074267
0.14730239 0.19876498 0.03319944 0.2846093 0.38671982 0.22866312 0.05738538 0.2471509
-0.044205554 0.08729968 -0.11338497 0.027592918 0.068682335 0.18591265 -0.14483842 -0.17040062
-0.15779163 -0.033964794 -0.02307418 0.1678397 -0.04173402 -0.12084897 0.17912395 -0.024799554
-0.124115594 0.0058321394 -0.072625056 0.08194719 0.21015435 -0.18630584 -0.21223792 0.092889026
0.08771544 0.12750833 -0.13109294 -0.16478331 -0.0015289434 -0.18830034 0.18327965 -0.022558875
-0.013576307 0.0837243 0.08715267 -0.17766778 -0.10100753 0.04451865 -0.052118644 -0.022050647
-0.0610948 -0.062728606 0.03161236 0.059418317 0.033296805 -0.087184675 -0.10728858 -0.20511533
0.030582055 -0.20970105 0.028185887 0.18947072 -0.28132927 -0.05933716 0.25223452 -0.12665236
-0.034313694 -0.11313453 -0.18802507 0.12066691 0.031130565 0.013957867 0.005902989 0.027145397
-0.0150900055 0.051863223 -0.07209955 -0.07107859 0.18952501 -0.014574794 -0.03802087 0.048889767
0.41380763 -0.01346561 0.016179493 -0.07848015 -0.56156695 0.30012846 -0.18541662 -0.11072512
0.16423436 0.22678803 0.23055632 0.064419545 0.33841494 -0.10961261 -0.176756 0.08484885

weight_hh_l0 f4 [128, 32]
00000000: 7a8d ccbc e125 1bbe d8c5 013e e9ac d03d
00000010: 4c97 cf3d 10ab 023e 62d2 22be 3a0d 67bd
00000020: 89c5 563e f6b9 8c3e 9f91 28be 12ff af3e
00000030: 5868 2cbe e21a 073e 5bad 743c 9a6c b33d
00000040: 803f b3bd 53f8 a8bd 270f 063e 5cf3 82be
00000050: 4a9f 62be d19b 553d 0a8f 86bd b9da 94be
00000060: c2d8 623e 3ef6 2bbe b7a9 a13e 6b28 073e
00000070: 7ec0 d8bd 3dea 5e3d f49f 033d 3d13 48be
00000080: 11f6 153e ee6e 75be 726c 6f3e a850 3abd
00000090: ad93 593e cb67 963e bcba ee3b a37d e1bd
000000a0: 028d ab3e fc70 8f3d ee25 bfbe 47dc f13c
000000b0: 93e7 75be 1520 0c3e 243a 0f3e 55b2 023c
000000c0: 2a1c 88bd b89b 2a3e ccdc 693d 4eb8 0bbe
000000d0: 3aee e9bd 498a 4a3e ece9 45be 9ec5 48be
000000e0: 210d 873b 9829 3dbe 3c9e 813d ea3f 64be
000000f0: b998 49be 1137 6e3d 1bb4 cd3d 5e40 35be
00000100: f0b6 e93d c2f4 26be c3b8 c7bd 3431 1a3e
00000110: 141e 383e 5919 1b3e cbfb 53be a518 82be
00000120: 2569 b9bc aa48 1e3e 9ed8 78be ad57 2c3e
00000130: d254 14bd 283f f8bd 6113 2b3e fe4e 96be
00000140: 4e21 513d d80c e2bd a598 d33d b0f5 54bd
00000150: 766a 023d 98c9 3e3d 4d7e 8e3d 6c1f 0b3e
00000160: a622 953e 43be 603d 82c7 3a3e b493 4c3e
00000170: 190b ec3d fe7b 213d 7137 15be 5e7c 8abb
00000180: 908c d83d 098c a6bd ea92 283e 5dcc 313e
00000190: 6900 21bd 76ef 013e d809 59be 3455 0c3d
000001a0: 146e b33d 8de6 323e 691c 97be 7c83 8e3d
000001b0: 4187 77be 786c 68be be68 2bbe 8ed7 41be
000001c0: 5a4f 50be b9b6 463e 2be8 453d b533 21be
000001d0: f0e5 04be 451a 793e 7fd5 2d3d 2ddb 2fbe
000001e0: 5770 ef3d acfd 01be df1f cb3b 04b0 6d3d
000001f0: 611e 7cbe dd0b 053e e813 293e 9575 fcbd
00000200: 43ab a5bd fb29 85be 5b11 d63e 4198 8abe
00000210: ac6f 8d3e 4a2d 793d 34c6 d1bb 0f55 833c
00000220: 6a25 3f3f fedc 35bd 2701 babe 085c 333e
00000230: bcf9 8fbc 713a 4f3c 6c87 05bf 483e 31bc
00000240: 1139 86be 08cd 3dbc c3f2 3d3f 10bb 64bf
00000250: 8f98 7bbb e8b5 223f c509 c03d f774 64be
00000260: 0860 1cbe aab5 9dbe d23a 6f3e ae37 68bf
00000270: 856d 3dbf 325d 89bd 0e3b 0f3e f1e5 f63b
00000280: b5cc fa3c 1d11 06be fdca 843d dc35 81be
00000290: f902 b63b 2e01 023e 975c 47bd c320 02be
000002a0: 0a97 e4bc e615 783e 45d4 36bd 5e0f 913c
000002b0: b582 30be f220 4b3d 302d 183d 1c98 35be
000002c0: 279d 4e3d 3144 ef3d 4ca4 bfbe 6b5c db3d
000002d0: f157 dd3a 70be 98b9 9483 64be 28f3 2abc
000002e0: 57df 84bc 2e2f 4dbe 39f4 b13e 64fb 7d3e
000002f0: 0efc a93d ac04 dc3d 5da3 a23e 3c80 1ebd
00000300: c092 913c 489a b03d 5e06 b8bd 4564 033e
00000310: 9157 2d3c ce85 583d d8ea 49bc cbbd 7abe
00000320: e9b1 bfbd 2788 9a3e 0ba5 88be cbe9 153e
00000330: 93be 80bd 8309 793d c7cb 9b3d 5560 4b3d
00000340: 1669 87bc dd2f 4dbd 6c94 e7bd eb48 51be
00000350: 247d 37bd 02f3 833e bf33 833d 3577 afbc
00000360: db11 a3bd e461 bf3c 6d8f a13e 3b64 be3d
00000370: 4065 4ebe 751a 493e 213a 12be 6e6b a63c
00000380: e483 8f3e 0cee 01be 2518 053e e010 b43d
00000390: 4f45 99bd e6c3 003e 52d1 ab3d 1f4c adbc
000003a0: b8e9 4c3d 1bac 47bd a7dc 32be 62e7 16be
000003b0: 8a4c 003e b688 2fbd 7c58 5f3d 7bc4 9c3d
000003c0: e41a a83d c72a 30bd d053 ccbc 768b 64be
000003d0: f43a 80be 73e8 543e c1c0 9f3c bcd1 5abe
000003e0: 8e3a 983b 0f77 993a 6173 343e 7687 8e3d
000003f0: f3eb d93d 11bf 2b3e bb09 49bc 5658 673e
-0.024969805 -0.15151168 0.12673128 0.1018923 0.101362795 0.12760568 -0.15900567 -0.0564091
0.20973791 0.27485627 -0.164618 0.3437429 -0.16836679 0.13193849 0.014933909 0.087609485
-0.08752346 -0.08250489 0.13091718 -0.25576293 -0.22131076 0.05215055 -0.06570251 -0.29073122
0.22152999 -0.16793153 0.31574795 0.13199012 -0.1058359 0.054422606 0.032134965 -0.19538589
0.14644648 -0.23968098 0.23381212 -0.045487076 0.2124774 0.29376063 0.007285444 -0.110102914
0.33506018 0.07003972 -0.37333626 0.029523982 -0.2401412 0.13684113 0.13987023 0.007977088
-0.06645997 0.16660964 0.057095334 -0.13644525 -0.11422391 0.19779314 -0.19327515 -0.19606635
0.004121438 -0.18472898 0.06329009 -0.22290006 -0.19687165 0.058157984 0.10044118 -0.17700335
0.11411846 -0.16304305 -0.097520374 0.15057832 0.17980224 0.15146388 -0.2070152 -0.25409427
-0.022633145 0.15457407 -0.24301383 0.1683032 -0.036213703 -0.12121421 0.16706611 -0.2935714
0.051057152 -0.11037606 0.10331849 -0.05199212 0.03183981 0.046578974 0.06957684 0.13586205
0.29127997 0.054868948 0.18240169 0.1997822 0.11525554 0.03942489 -0.1457193 -0.0042262515
0.10573685 -0.08132178 0.16462293 0.17363115 -0.03930703 0.12689003 -0.21195161 0.034260944
0.0876123 0.1747076 -0.29513863 0.069586724 -0.24172689 -0.22697628 -0.16739175 -0.18929884
-0.2034277 0.1940564 0.048317116 -0.15742381 -0.12978339 0.24326427 0.042439934 -0.17173453
0.11691349 -0.12694424 0.0061988677 0.05802919 -0.24620964 0.12992807 0.165115 -0.123271145
-0.08089306 -0.2600859 0.41810116 -0.27069286 0.2762426 0.060834207 -0.0064018015 0.01603177
0.74666464 -0.044400208 -0.36329004 0.17515576 -0.017575137 0.012648211 -0.5215976 -0.010818072
-0.26215413 -0.011584528 0.7419855 -0.89347935 -0.0038390493 0.63558817 0.093768634 -0.22310244
-0.15271008 -0.3080266 0.23362282 -0.9070996 -0.7399524 -0.06707229 0.13987371 0.0075347354
0.03061519 -0.13092466 0.064840294 -0.25236404 0.0055545536 0.12695763 -0.048672285 -0.1270781
-0.027904052 0.24227104 -0.04463603 0.017707523 -0.17237361 0.049591966 0.03715247 -0.17733806
0.05044284 0.11682928 -0.37430036 0.10710987 0.001688717 -0.00029133586 -0.22315818 -0.0104339495
-0.016219778 -0.20037529 0.3475664 0.24802929 0.08300029 0.107430786 0.3176526 -0.038696513
0.017770171 0.08623177 -0.089855894 0.12831219 0.0105799595 0.05286198 -0.0123240575 -0.24486463
-0.093601055 0.30182 -0.26688418 0.14639966 -0.06286349 0.060800087 0.07607227 0.049652416
-0.016529601 -0.050094474 -0.11307606 -0.20437972 -0.044797078 0.25771338 0.06406354 -0.021419147
-0.0796239 0.023362108 0.31554738 0.09296461 -0.20155811 0.19638999 -0.14279987 0.020314898
0.28030312 -0.12688464 0.12997492 0.08792281 -0.07483923 0.1257473 0.08389534 -0.021154461
0.05002758 -0.048748117 -0.17466985 -0.14736703 0.12529197 -0.042854987 0.054527745 0.07654663
0.08208254 -0.043009546 -0.024942309 -0.22318825 -0.25044978 0.20791797 0.019501092 -0.2136907
0.004645652 0.0011708456 0.17622139 0.06959431 0.10640707 0.16772105 -0.012270386 0.22592291

bias_ih_l0 f4 [128]
00000000: 3438 ee3c 50fb 9d3e 8191 c23d 3f0a 023e
00000010: 0ce7 d73e d29a a23e c36d 723e 3d7f b83d
00000020: 9fba c23d eb77 e13d 9b68 ba3e 3a1a 973e
00000030: ddb6 f23e 387b 913e dbec 363e 641f 213f
00000040: 90a7 cc3d e7d3 b93e 7b78 ae3c 8c9a 433e
00000050: 55e7 3a3f 8b95 b63d b478 e73e 6e63 703d
00000060: cc45 e63e 90c3 083e a95f 7d3d cccd 623d
00000070: 7e8c d9bc 4383 b43e fd49 bc3e 1ab0 b63d
00000080: a815 643c 8e5a e5be 7ddf a1be a0e1 61bd
00000090: 5efc 2bbf 0633 46be 20ff c1be 948a c2be
000000a0: 347f 16be e49a 87bd 6748 ddbd c02b b2bd
000000b0: 91d2 b1be ef41 19be cd56 4fbd b3db 49bf
000000c0: 6a62 71bd 9cf8 40be 12c0 67bd cff7 ea3d
000000d0: da8f 36bf fa00 bbbd bd60 9ebe 7e97 82bd
000000e0: c3f1 96be 101f e03d c9ed 993b 6f6a ee3d
000000f0: 36ac 6dbd ff26 23bf 636c 0cbf b93b a4be
00000100: c498 183e 707b e73d 91fd 7abd 1336 f93c
00000110: 0e25 cebd ca95 3dbb 005b de3d c290 05bd
00000120: f1f1 413c 14fa 853d f5cb 9abd b6f7 c33c
00000130: e304 e9bd 6efc 14bd f33a 2ebd 4101 b0bd
00000140: 6315 a1bd 330b c1bd 97a2 343e 5abe e5bc
00000150: 45e3 853d 4369 a23d 58d7 ce3d 9ae9 0fbe
00000160: 21c0 f43d 290e abbd 1971 0a3d d90f 44be
00000170: 7222 f0bd 740f f43d 11c4 a83c c4e3 98bd
00000180: 8bef 6f3e 6a8a 8a3e ffcd 073e bf66 343e
00000190: 6de2 0f3f baee 8a3e 9dd6 863e 2118 f93d
000001a0: 8e71 bbbc d750 223e 66a3 0d3e 18fc 693e
000001b0: c233 cd3e a673 843e de2b 503e bb7c 4e3f
000001c0: b86e 7e3e 9b82 943e b499 ea3d 3c63 873d
000001d0: cb20 503f 9e95 c63d bf27 d53e ed8d d13d
000001e0: c56b 5d3e 8f2c 3a3e fb0a 753e 8e4e 7bbc
000001f0: fe16 e93d 762a 0c3f 1624 d93e 6ba0 813d
0.029079534 0.308558 0.09500409 0.12699221 0.42168462 0.31758744 0.23674683 0.09008644
0.095082514 0.11009201 0.36407933 0.29512197 0.4740514 0.2841432 0.1786379 0.62938523
0.099928975 0.3629448 0.021297684 0.19101924 0.73009235 0.08915242 0.45209277 0.058688574
0.44975126 0.13355851 0.061858807 0.055372044 -0.02655625 0.35256395 0.367752 0.089203075
0.013921179 -0.4479565 -0.3161582 -0.055146813 -0.67181957 -0.19355401 -0.37889957 -0.37996352
-0.14696962 -0.0662134 -0.10804825 -0.08699751 -0.34730962 -0.14966558 -0.05061989 -0.7885086
-0.058931746 -0.18844837 -0.056579657 0.11473047 -0.7131325 -0.09131046 -0.3093318 -0.06376551
-0.29481325 0.10943425 0.0046975357 0.11641394 -0.05802556 -0.6373138 -0.54852885 -0.32076815
0.14902025 0.11302841 -0.061276976 0.030421292 -0.10065661 -0.0028928393 0.108572006 -0.032608755
0.0118374685 0.06541839 -0.07558433 0.023921829 -0.11377885 -0.03637355 -0.042536687 -0.08593989
-0.07865407 -0.09425964 0.17640148 -0.028044868 0.06537489 0.07930233 0.10099667 -0.14053956
0.11950708 -0.0835231 0.033799265 -0.1914667 -0.1172532 0.1191701 0.020601304 -0.07465318
0.23431222 0.27058727 0.13262175 0.1761732 0.56204873 0.2713526 0.26335612 0.12162805
-0.022881296 0.1585115 0.13831863 0.22850072 0.4007855 0.25869483 0.20329234 0.80659074
0.24846923 0.29005894 0.11455098 0.06610724 0.8130004 0.09696506 0.41631886 0.10232148
0.21623142 0.1818106 0.2392997 -0.015338553 0.113813385 0.5475229 0.42410344 0.063294254

bias_hh_l0 f4 [128]
00000000: 6835 79bc 53b1 a43e 94de 1ebd 0ab3 933e
00000010: e8c1 103f 58e9 963d c056 0a3e 8e09 893e
00000020: de8b 383e 0ecb 8c3e 186b dc3d 1862 2e3e
00000030: 716a 713e ec12 143f 5776 603e af30 4a3f
00000040: 3f5f 543c c004 b63e 355b 98bd 6f43 163e
00000050: 8cb5 603f 472c 8a3e 9c13 f63e 3fe0 fb3d
00000060: 55ec b33e a58b f23d dca9 0a3e af50 14bd
00000070: b88e ddbd a8ba af3e 04e2 df3e 34bd 0e3e
00000080: ba44 99bd e7fe d7be 24b4 a0bd dbc7 85be
00000090: cd16 babe f595 fbbc 1dab 73be 9658 06bf
000000a0: 2db9 97bd 76bf fabd 2e81 b6bd 1ebe 17be
000000b0: 3d3f b3be 3b80 a8be 76a6 623d 8d07 3dbf
000000c0: 7748 42be 3143 83be f13b e7bc 294e 88bd
000000d0: c1b8 11bf 431a 82be 614b 08bf 09e9 bbbd
000000e0: bc2d ffbe c5f9 4bbe bccf 7ebe 063c 643d
000000f0: 13a2 b0bd 188a cebe fc37 d5be cebe 9ebc
00000100: df75 09be 977b 1fbe b4d3 de3d b684 cebc
00000110: 93bf 1f3e 3f13 f13c 45dd 9ebd 56ff 693c
00000120: 1fc5 1c3e f203 e7bc a702 563d 6ad1 283d
00000130: fe14 893d 2b57 f63c 3e41 f6bd 2110 773d
00000140: f913 6a3c b8af 173e 8c96 d03d ab56 1ebe
00000150: eb98 bbbd 8a69 9a3c 2105 12be 343d dc3d
00000160: feb0 f3bd 5b2f b53c 4a98 163d 0aeb 9cbd
00000170: dcac d8bd 274d 23be 795c 81bb 4061 f03c
00000180: fd44 f43d eb50 cf3e 7056 c0bc be95 ce3e
00000190: 3221 293f b1ef 323e b182 ec3e 364c dd3e
000001a0: ca74 9dbd ea33 393e 2859 c23e 675c 9c3e
000001b0: cf6d d33e 8b5c e73e 2234 fc3d 1c80 503f
000001c0: 28af 883e 05f2 1c3e 1beb 603e ae09 6bbd
000001d0: 1fab 463f 807c 933e b26e 113f 8c8c 703e
000001e0: 2de1 ce3e e93c 213e 101a 953e e9aa 15bc
000001f0: 7f63 7ebc 41bf 0a3f 6ff9 e63e 372f 873e
-0.015210487 0.32166538 -0.038786486 0.28847533 0.5654588 0.073687255 0.13509655 0.26765102
0.18022105 0.27498668 0.10762614 0.17029607 0.2357576 0.5784137 0.21920143 0.78980535
0.012962162 0.355505 -0.07439271 0.14674161 0.8777702 0.26986906 0.48061836 0.12298631
0.35141245 0.11843041 0.13541359 -0.03620976 -0.10818237 0.34322095 0.43727124 0.13939363
-0.07483812 -0.42186663 -0.07846859 -0.2612904 -0.3634552 -0.030711154 -0.23795743 -0.5247892
-0.07408366 -0.122435495 -0.08911358 -0.14818618 -0.35009184 -0.32910332 0.05533453 -0.73839647
-0.18972956 -0.256372 -0.028226824 -0.06655533 -0.5692254 -0.2541066 -0.5324002 -0.09175307
-0.4983958 -0.19919498 -0.24883932 0.055721305 -0.08624663 -0.40339732 -0.41644275 -0.019378092
-0.1342387 -0.1557449 0.10880223 -0.025209766 0.15600424 0.029428123 -0.077570476 0.014282068
0.1530957 -0.028200123 0.052248623 0.041215338 0.06693457 0.030070862 -0.12024163 0.060318116
0.014286988 0.14813125 0.101849645 -0.15462749 -0.09160026 0.018849153 -0.14259769 0.10753861
-0.11898993 0.022117307 0.036766328 -0.07662018 -0.10579845 -0.159474 -0.003947791 0.029343247
0.11927221 0.40491423 -0.023478717 0.4034862 0.6606628 0.17474248 0.4619346 0.43222207
-0.07688291 0.1808621 0.37958646 0.30539247 0.41294715 0.45187792 0.12314631 0.8144548
0.26696134 0.15326698 0.21964686 -0.05738228 0.7760486 0.28805923 0.5680953 0.23491114
0.4040617 0.15745892 0.29121447 -0.009134986 -0.015526651 0.5419808 0.45112178 0.2640321

weight_ih_l0 f4 [128, 2]
00000000: f7ac 1a3e 04cc 993d 8e53 d1bd 1bc1 a23c
00000010: a126 8d3c 0020 8eba 86bb d0bd 043d abbc
00000020: d73f 0fbd 05a7 a4bd 35e5 f4bc 0379 183e
00000030: b5e5 f23c ed82 f33c 7f24 babd 905e a5bd
00000040: ed9c 1bbd 6529 7fbd aab3 e63c bad5 fb3c
00000050: 5a64 eebb f53e af3d 57b2 143d 3fc3 bfbb
00000060: 6f0b cdbd 7abb ff3d fc6b 643c affe 03bd
00000070: 1591 dfbd 3da4 873c fc6a 94bc f0a9 0d3e
00000080: d3cc 513c 0b34 e73d 51d3 55bb cc12 ba3d
00000090: 3cbc ce3d dcf5 273c 7ff6 513d e396 203d
000000a0: fdb3 833d 2e95 c5bd 576a 66bb 11de 0c3e
000000b0: aaa7 24bd fb5a 043e c97f 4cbe 476c 733d
000000c0: 8c30 333d c0b0 fd3c fdfd 08be 39e2 9bbb
000000d0: 5566 043d dd1b 923d 1819 80bd c7a3 093e
000000e0: 659c 203d 1873 b63d d771 8ebd b13f 22bc
000000f0: ae2e 813e bbf2 0f3d a893 a7bd 2aad 07be
00000100: 6a1b debd 5a32 5abe 6e50 23bd 1ae5 9fbd
00000110: 4376 0f3e 0a90 b7bd 889b b73d b5e6 493d
00000120: d9ef a53e 9fd8 2bbe bde5 d4bc 3aae 223d
00000130: 6ce9 57bd 171d 773e 4d51 6e3d ea53 7dbb
00000140: 0c68 23be 525d 21be 31f1 263e f538 87bd
00000150: f11d 173e 5729 ab3d f9fe a23c 9271 a63c
00000160: b17c 0dbe 1f22 1d3e 42fa 57be 1b52 c13d
00000170: 86d3 753d 8a95 083e 883c 823e af1c 863d
00000180: d99c 013e cf56 7f3d de38 fcbd f4e6 46be
00000190: 4f53 a53d 3999 373e 228e 65be 1122 a5bd
000001a0: f352 04be 1815 07be fce4 403e 0949 8bbc
000001b0: 613c 803d 22f7 0c3e aa39 36be 6d5f 9abc
000001c0: 9e59 e2bd 9975 b73c 5ed3 6b3c 4ca3 99bd
000001d0: bcbf a7bd 6db4 d03d 1777 29be 7699 88b9
000001e0: 8bc0 923e fc92 a1bd fd26 32bd 9a99 c53d
000001f0: 4ee2 9f3e 9b5d ac3d f5a9 3fbe 94bd 6dbe
00000200: 6f57 0b3e 26c2 d03d b061 cebc 5d7e 16be
00000210: 6725 e9bc 1a0c 0abe 6e34 64bd b66e 1abe
00000220: 38c5 97bd 18d2 bd3d f24e 9b3e cc05 9ebd
00000230: 3b9f b73d d974 29be bfae b43e a1bd d9bc
00000240: 563a d03e dca3 d93d 26bc 2fbe 47d8 9b3e
00000250: 969f 823e 5c5d 2f3e 5c3f 5abe 810e a43d
00000260: 410d d0bd 4cd0 e3bd 4a31 003f 50e0 5b3d
00000270: 3a09 5cbd 478c 21be 59ad 2dbd 5d9b 533e
00000280: 2526 e53d 9870 f8bc 9ca6 48be 3848 cf3d
00000290: 2363 123e 2f9b 333e 2a38 2b3e 4e6f 283d
000002a0: 1ba3 0ebd 0c86 adbd 21c2 d0bd 7aac 673d
000002b0: e958 683c 05d0 27be 954d 8e3e 06c4 8b3d
000002c0: eb59 b13e 96ee b13d cc18 933d dd85 733e
000002d0: d0ca 8cbe aae0 233d 8193 db3d cf15 c1bd
000002e0: 8563 c13e 517e 9f3d dda3 bc3d e818 2f3e
000002f0: 752b a83e b06a 283d e3f7 793c ddfd bdbd
00000300: f4d0 cdbc 90b4 12bd 5e20 7f3b a01d aa3d
00000310: 2c11 3f3e fbf0 2abe d13a 173e b89f 263d
00000320: ab29 6cbc f9fa 81be 7300 73bd 9405 973d
00000330: ecb9 dabc 58ff f93d f51e 21be 4c28 f5bd
00000340: 2ac8 1ebe abd6 d4bb 81a8 893d ee5c 85be
00000350: 20f1 563e 8b69 d93d 9e1a cc3d e834 6cbc
00000360: 6c1b 3f3e 89f6 373e 0024 87be dec6 843d
00000370: da21 8c3c 5a25 643e 11e5 bf3d 615a 7f3e
00000380: 5214 9abc 0932 8a3d 9465 68be 725e 17be
00000390: 8251 08be 1bf4 b3bc e0a2 34bc cc57 543d
000003a0: bac1 503d 7df5 fcbd 945e 44bd 52a0 333c
000003b0: 260c 883d 4edf 1f3e e791 86be aa71 bfbd
000003c0: 5561 973e 3487 fa3d 482e 08be 0ebd 53be
000003d0: 8260 52bb e0ce f4bc be94 98bd 3fbc 433e
000003e0: 8e86 923d 2a3d d73c 954b 1dbd 4b92 88bd
000003f0: eac4 923e 17f0 173e 423a ebbd d1c9 99be
0.15105043 0.07509616 -0.10221015 0.01986747 0.017230334 -0.0010843277 -0.10192017 -0.020903118
-0.03497299 -0.08039669 -0.02989445 0.14889912 0.029650548 0.029725516 -0.09088992 -0.08074677
-0.037991453 -0.062295336 0.028161842 0.030741561 -0.0072751464 0.0855693 0.03630289 -0.0058521326
-0.100119464 0.1248693 0.013941761 -0.032225307 -0.10916344 0.016557807 -0.01811742 0.13834357
0.012805182 0.11289223 -0.0032627175 0.090856165 0.100944966 0.010251489 0.051260468 0.039206397
0.064308144 -0.096475944 -0.0035158598 0.13756587 -0.04019896 0.12925331 -0.19970621 0.059429433
0.04374747 0.03096807 -0.13378139 -0.0047571925 0.032324154 0.07134221 -0.06254786 0.13441382
0.03921165 0.08908671 -0.06955307 -0.0099028805 0.25230926 0.035143595 -0.0818246 -0.1324965
-0.108450726 -0.2130827 -0.039871626 -0.078073695 0.14009957 -0.0896302 0.08965212 0.049292285
0.32409552 -0.16781853 -0.025988454 0.039716937 -0.052712843 0.2413219 0.058183003 -0.0038654753
-0.1595766 -0.15758255 0.16302945 -0.066026606 0.14757515 0.08357494 0.019896971 0.020317826
-0.13817097 0.15345047 -0.2109156 0.094394885 0.060016178 0.13338295 0.25436807 0.0654844
0.12657489 0.062338647 -0.12315534 -0.19424039 0.080725305 0.17929544 -0.224175 -0.08063138
-0.12922268 -0.1319164 0.1883735 -0.0170026 0.06261516 0.13766149 -0.17795435 -0.01884433
-0.11052249 0.022394942 0.014393656 -0.075018495 -0.08190867 0.101906635 -0.16549335 -0.0002605428
0.28662524 -0.07889363 -0.043494213 0.09648438 0.31227344 0.08416291 -0.18717177 -0.2321685
0.13607572 0.10193281 -0.025193065 -0.14696641 -0.028460218 -0.13481179 -0.055714063 -0.15081295
-0.07410663 0.09268588 0.30333668 -0.077159494 0.08965918 -0.1654848 0.3528957 -0.02657968
0.40669507 0.10626957 -0.17161617 0.30438444 0.2551238 0.17125458 -0.21313232 0.08010579
-0.10158778 -0.11123714 0.5007521 0.053680718 -0.053719737 -0.15776168 -0.042401645 0.20664735
0.11188916 -0.030327126 -0.19594806 0.101211965 0.1429563 0.17539667 0.16720644 0.041121773
-0.03482352 -0.08472833 -0.10193277 0.05656097 0.014181354 -0.16387947 0.27793565 0.06824498
0.34638914 0.08688085 0.07182464 0.23781534 -0.27498484 0.04000918 0.107214935 -0.09427988
0.3777124 0.07787765 0.09210942 0.17099345 0.32845655 0.04111737 0.015256855 -0.09276936
-0.02512405 -0.03581673 0.0038929204 0.08306432 0.18658894 -0.16693489 0.1476853 0.040679663
-0.014414231 -0.2538679 -0.0593266 0.07374111 -0.026699983 0.12206906 -0.15734465 -0.11970577
-0.15506044 -0.006495317 0.06721593 -0.26047462 0.2099042 0.10615834 0.09966014 -0.014416911
0.18662804 0.1796514 -0.26394653 0.064832434 0.017105985 0.22279873 0.09369863 0.2493682
-0.018808518 0.06747825 -0.22694999 -0.14782122 -0.13312343 -0.021966984 -0.011025161 0.051841542
0.050966002 -0.12351511 -0.04794176 0.010963516 0.06642942 0.15612528 -0.2628319 -0.093478516
0.29566446 0.12232819 -0.13298905 -0.20677587 -0.003210098 -0.029883802 -0.07450245 0.19114779
0.071545705 0.026274282 -0.03840216 -0.06668528 0.28665859 0.14837681 -0.11485721 -0.30036786

weight_hh_l0 f4 [128, 32]
00000000: c518 0fbd a06f 803c d6db 8ebd 4d5a 8e3e
00000010: 179d c7bd de7b 133e d637 e4bd a90a 01bd
00000020: 789b 2abe f6f3 b6bd d655 833e 5df9 9b3c
00000030: 824e ac3c e0d0 1e3d 146d f6bd 7b76 d33d
00000040: e22f 193e 57d4 2ebe 4158 02bd b5d7 7a3e
00000050: 6eaa 153e c8f4 b4bc b312 08be 1f85 c7bd
00000060: 3226 b4bd 8428 9abd 144b 1dbe a8a3 983e
00000070: 56d6 343e e975 96be c723 c4bd eb49 933e
00000080: 704a f53c d866 24be 150a b93d 1160 b73c
00000090: a432 40be 6adc ac3c 05c4 8cbe 8776 30bd
000000a0: f141 713c 3d24 0ebd 6b1b d0bc e00a 20be
000000b0: bb54 74ba d127 563e 9a8f bdbd 7264 b73d
000000c0: 111c b93d 2f67 78bd 29ec e03d bdd8 7c3e
000000d0: cc30 673e 4fe3 15be b87d b33d f6fd 253e
000000e0: 3e3b 253e 3ae6 a9be c655 1d3c 7d4b 3ebe
000000f0: e2b9 6c3c 2eab 023e cbeb fe3b 2ab6 cf3d
00000100: 9acd 463d 47eb f8bc c9a3 bf3d 6131 b13d
00000110: 1711 67be 2490 e5bd e607 35be 4fd9 bcbd
00000120: 4c16 6bbe c5d0 93be e061 04be 185c 63bd
00000130: db57 68bd 3334 5c3e b729 0fbe d81e cf3d
00000140: 2234 ab3c 1f6a 273d bb61 dbbd 8d02 0bbe
00000150: ee8f 8fbb bbb4 793c f728 41be ad2d bfba
00000160: 20b0 233b a450 acbe 5a65 40bd 2cfc bdbc
00000170: e9d9 0abe 7f49 033e 3cea 693c ac1a 113d
00000180: f0f5 5b3e 46c0 44bd 7aec 3f3e 5dec ea3c
00000190: 310e febd d58b dbbd ce40 c3bd d20e 33bd
000001a0: 9414 86bc 3ea9 1abc b3ba 4dbd 8350 b2bd
000001b0: 0f44 14be 6640 e6bd 1788 9ebe e98f 09be
000001c0: 1262 6bbe d8fb 3dbd 4d0e 64be c0a8 99bd
000001d0: eb23 0a3e 9281 c23d 1362 34bd 7dba 283c
000001e0: 2501 6bbc 01fb 08bd bdab 68bb f377 8f3c
000001f0: 7da5 09bd d7cc b9bd 5e92 233d 3581 b4bc
00000200: 3a23 033e feb8 1d3d ffc4 cb3d 08f7 0dbd
00000210: e5a4 0bbc 135b 353d fce1 843c 5313 20be
00000220: 24a0 883d 6cb8 f63b 84da d3bd eed6 24be
00000230: 130f 91bd 9616 4a3e 41ed 38bd cd9f c63c
00000240: fc8c 8fbe a6e9 b03d e93f be3d 22a4 06be
00000250: ea3b 0a3e 5533 193e 9c04 8e3c aaff 81be
00000260: d1ac 18bd 883c e6bb baa3 e9bd 6ea4 c1bd
00000270: 76d5 b8bd 34c6 2f3e f04e c63d ae57 00bd
00000280: f681 84bc da58 43be b7cd 11bd 2bd2 c9bd
00000290: 159a 50be 934a 153e 05e0 03be 0ed6 a53e
000002a0: 1aea 7f3e 561a 92be d1eb e1bd f724 063e
000002b0: 6f83 e73c cf6f d03d 7515 da39 8fd3 e2bd
000002c0: ce8a 37be b539 013d 2f78 2fbd 3298 ac3c
000002d0: 41d9 1ebe 5948 27bd ab03 1dbe de77 d53d
000002e0: 331b a93d 05d4 a43d e8a8 093e 6155 6c3b
000002f0: 5656 a93d 74c1 6fbe 5d12 4a3e 58cd cc3d
00000300: 0cf1 563b f64a b83c 0233 5f3e 2cad 31bd
00000310: 9467 72bd 0665 39be c5fa 63be 1599 593e
00000320: 0982 4cbd ea1b 8fbe f6ee 2bbe 6920 e33c
00000330: 93e3 72bc 4dc8 f13d 6a01 e8bd 9212 96be
00000340: c6ab 1b3d 6b6d f2bd 1cc9 613c 3b21 d8bd
00000350: 7260 e33e cfa0 94ba a75b 10be 8078 c1bc
00000360: 5096 ea3d cab7 7fbe e7b2 24bd 4265 1f3e
00000370: ac70 043e ea70 41be 8924 6abe 967e 473e
00000380: 117e b63c 6f9d c13d 0641 0a3d 9392 9c3c
00000390: c36e a33d b215 a3be cb22 993d e7cc 3f3d
000003a0: ddb3 e3bc 41e6 5cbe 9317 3dbe 7ba6 893e
000003b0: bd9e 9e3e 986e f0bd 111b 0a3e 2df2 eebc
000003c0: 70ec adbd d618 90bc 9300 dcbd 87c6 e4bd
000003d0: 03c2 47bd 3c4c 37bc 50e7 babd d0bb f7bd
000003e0: 74a0 ffbd 450d f63c 4ba4 ab3d 771d 9a3c
000003f0: 47fd 6fbe e276 84bb 5d25 cf3c 57f1 2f3e
-0.03493573 0.015678227 -0.06975524 0.2780327 -0.097467594 0.1440272 -0.11143462 -0.031504307
-0.16660869 -0.089332506 0.25651425 0.019039804 0.02103353 0.038773417 -0.12032524 0.10325333
0.14959672 -0.17073189 -0.031822447 0.24496348 0.14615795 -0.022089377 -0.13288383 -0.09742188
-0.08796348 -0.07527259 -0.15360671 0.2981236 0.17659888 -0.29386833 -0.095771365 0.28767332
0.029942721 -0.16054857 0.09035126 0.022384675 -0.18769318 0.021101195 -0.274933 -0.043081786
0.014725194 -0.03470253 -0.025403699 -0.15629148 -0.0009320487 0.20913626 -0.092559054 0.08954705
0.09038556 -0.06064528 0.10982544 0.24692054 0.22577208 -0.14637493 0.08764213 0.1621016
0.1613588 -0.3318346 0.0096029695 -0.18583484 0.014448615 0.12760612 0.0077795736 0.10142167
0.04853592 -0.030385626 0.093574114 0.086519964 -0.22565113 -0.11209133 -0.17678794 -0.09221136
-0.22957724 -0.28870216 -0.12927961 -0.05550775 -0.05672441 0.21504287 -0.13980757 0.10113305
0.020898882 0.04087269 -0.10712 -0.13575192 -0.0043811714 0.015240843 -0.18863283 -0.0014585756
0.0024976805 -0.33655274 -0.046971656 -0.023191534 -0.13559689 0.12821005 0.014277037 0.035425827
0.21480536 -0.04803493 0.18742552 0.02867716 -0.124050505 -0.1072003 -0.09533845 -0.043715306
-0.016367234 -0.009439765 -0.05022688 -0.08706763 -0.14479087 -0.11242752 -0.30963203 -0.13433804
-0.2298663 -0.046382755 -0.2227108 -0.0750289 0.13490264 0.0949737 -0.044038843 0.0102983685
-0.014343535 -0.0334425 -0.0035502755 0.017513251 -0.033605088 -0.09072273 0.03993451 -0.022034267
0.12806407 0.0385065 0.099496834 -0.034659415 -0.008523201 0.04427631 0.016221039 -0.15632372
0.066711694 0.007529309 -0.10344413 -0.16097614 -0.07082953 0.19735178 -0.045148138 0.02424612
-0.2803725 0.08638315 0.09289534 -0.13148549 0.13499418 0.14960988 0.017336182 -0.2539037
-0.037274186 -0.007026259 -0.114081815 -0.094551906 -0.090250894 0.17165452 0.09683025 -0.031333618
-0.016175251 -0.19076863 -0.035596576 -0.098545395 -0.20371278 0.14579229 -0.12878425 0.32389873
0.24991646 -0.28535718 -0.110313065 0.13100038 0.028260915 0.10177576 0.00041596187 -0.11075508
-0.17924044 0.031549174 -0.042839225 0.021068666 -0.15512563 -0.04084048 -0.1533343 0.104232535
0.08257141 0.08048252 0.13443339 0.0036061632 0.082684204 -0.2341364 0.19733568 0.10000104
0.0032797484 0.022496682 0.21796802 -0.04337804 -0.05918081 -0.18104944 -0.2226363 0.21249802
-0.0499287 -0.27950984 -0.16790375 0.027725415 -0.014824766 0.118057825 -0.11328395 -0.29311043
0.038005613 -0.11837276 0.013780858 -0.10553213 0.4440952 -0.0011339429 -0.14097463 -0.02361703
0.11454451 -0.24972454 -0.040209677 0.1556597 0.12933606 -0.1889073 -0.228655 0.19481882
0.02227691 0.09453856 0.033753417 0.01911286 0.079801105 -0.3185249 0.07477339 0.04682627
-0.027795726 -0.2157221 -0.18466024 0.26884827 0.30980483 -0.11739844 0.13486888 -0.029168213
-0.084923625 -0.017589968 -0.10742297 -0.111706786 -0.04876901 -0.011187609 -0.091261506 -0.12096369
-0.12481776 0.030035624 0.08380946 0.018812878 -0.23436461 -0.0040424922 0.02528637 0.17181908

bias_ih_l0 f4 [128]
00000000: cfb3 d4bd 2c58 07be d3da 6e3c f0cf 173d
00000010: 9144 0a3c a8cc ab3d 3df2 dd3d 50dc b2bd
00000020: c754 13bc 3fb3 8b3c 72c8 2bbe 685d 1ebe
00000030: aeb9 a8bc afb0 1d3e 6ac6 45be 3dd1 53bd
00000040: 5df4 a13c dd47 e93d 90fe dd3d aed4 47be
00000050: 2c2e c43d 5f97 60bd 51c4 3abe c005 63bd
00000060: 91aa 133d 3b6b b23c 41ce 103d 84af fbbc
00000070: 8a18 053e 18b9 b43d a8c7 ef3d 54ef e6bd
00000080: e90e 1a3e 3fa5 bbbd f1d8 cbbd 70c7 e8bd
00000090: 53c3 9c3b 09ee 1a3e 465c 0f3d 56ea 833e
000000a0: 7a88 763e 4dfb 363e 46ac af3d 7e29 573e
000000b0: 67fb 67bd 42d3 5d3e c1a2 003d 23a6 55bd
000000c0: a6d3 b0bd eba6 643e 28ce 873e 6aab 133e
000000d0: bb78 e83c aa45 443e 8f5a c9bd db71 743d
000000e0: ff41 bf3c 2f39 e73d a9eb b33d 6e6c 5f3e
000000f0: dd7b a0bd 78c6 cf3d 32f6 74bc 96a3 60bd
00000100: a84b febd cac5 443d a10e 4e3e b785 14be
00000110: e305 423d ac4e 223c 64e5 373e 35ab f03d
00000120: 5d42 083e 86a1 55bc d3bd 813d 7f77 9e3d
00000130: e0f7 a93d d910 7f3c be0b 813d bf79 0ebe
00000140: 158c 22be 521b b2bd 12e7 523e 5a5b 7ebe
00000150: 6709 0d3c c5bb 57be 2884 cabd 9d29 633e
00000160: 00f2 66be bf07 1ebc 4971 aa3d 7769 73bc
00000170: 556d bebd 6da0 b0bd 5b4c 20be a888 a43d
00000180: e29a 0fbd dec7 5a3e e896 123e 71a3 b43d
00000190: 4fa2 553e 3a14 7f3e a734 b83e 2bbd ab3d
000001a0: e82b 1f3d a2e4 503e b388 173d 7c3e c0bd
000001b0: cc45 b5bd a29f 6d3e b915 cb3d 139f df3d
000001c0: ca75 ec3d 0fff 3bbd b9da 833e 583b 813d
000001d0: b882 63bd 3d07 5b3e ada3 913b 8cc0 9ebd
000001e0: 3a78 773e 9c05 253d d773 5b3e f7a5 22bc
000001f0: 40fa 93bc 77a3 bd3d 628c 183e 1423 243c
-0.10385858 -0.13217229 0.014578539 0.03706354 0.008439199 0.083886445 0.10837219 -0.087334275
-0.00899238 0.017053245 -0.16775683 -0.15465319 -0.020596351 0.1539943 -0.1931397 -0.051713217
0.019769842 0.1139066 0.108395696 -0.19514725 0.09579119 -0.05483186 -0.18238951 -0.055425406
0.036051337 0.021779647 0.03535295 -0.03072334 0.12997642 0.08824366 0.11708003 -0.11276117
0.1504475 -0.091623776 -0.09953488 -0.11366165 0.0047840266 0.15129866 0.03500011 0.25764722
0.24075499 0.17869301 0.085777804 0.21011922 -0.05663624 0.2166262 0.031405214 -0.052160393
-0.08634119 0.22329299 0.26524472 0.14420858 0.028377881 0.191672 -0.09831726 0.059678894
0.0233469 0.11290204 0.08785183 0.21818706 -0.07836125 0.10145277 -0.014951276 -0.054843508
-0.12416774 0.04804019 0.20122768 -0.14504133 0.047368895 0.009906452 0.179586 0.11751405
0.13306566 -0.0130389985 0.06335034 0.07737636 0.082992315 0.015567982 0.06301068 -0.1391363
-0.1587375 -0.08696617 0.20595959 -0.24839535 0.008608199 -0.21067722 -0.09888488 0.22183843
-0.22553253 -0.0096454015 0.08322389 -0.014856688 -0.09298197 -0.08624349 -0.15654127 0.080338776
-0.035059817 0.21365306 0.14315379 0.088202365 0.20862697 0.2491006 0.3597767 0.0838569
0.03886023 0.20399716 0.0369956 -0.09386918 -0.08851203 0.23205426 0.09916253 0.10919013
0.11545904 -0.04589754 0.2575281 0.06310147 -0.055544585 0.2138948 0.0044445605 -0.07751569
0.24166957 0.040288553 0.21430908 -0.009927264 -0.018063664 0.09259694 0.14897302 0.010018129

bias_hh_l0 f4 [128]
00000000: 552f 003e f65e 023e 013d 62bd 0608 07be
00000010: aedd d13d 30af 2f3e 5790 0dbe aa37 893c
00000020: efb6 8e3d 23a6 b63d acc7 183d 9b98 5d3d
00000030: 074a a4bc cf32 273e 5f0c 143d 853e 27ba
00000040: 641c 00bd 8479 0e3d d2b5 943c fede 75be
00000050: 918d ce3d 1da7 5f3d 915d e53d f8fe 03be
00000060: 374c 91bd be68 7bbd 166a d4b9 a6f1 01be
00000070: fb8e 1f3e a94d e63d 886f c2bc 149a abbd
00000080: 230a 853c ba7e 043e 9bcc c73c e79b 17bc
00000090: 6ff9 783c 3e0d 7fbc 3c71 b4bd 2b65 04bd
000000a0: 7b1d abbc dccd 49b6 8ab2 913b b1bc d53d
000000b0: 4909 b43d 5f3b 6b3e 340a 00be a41c 01be
000000c0: 3e9f 9abc 5bc0 16bd 3741 f63d 1006 30bd
000000d0: 2044 aa3c ed18 eb3d a28b 3e3d 5202 b4bd
000000e0: 05b7 433d 1998 213e 835d baba c78c 49ba
000000f0: 23f0 f53d adff b9bd 31b7 09be 4d14 fa3d
00000100: 1ac6 613d b021 873d d60b 4d3c 8018 e5bd
00000110: 0a88 f73d b8f2 43be fba0 c9bc 094c ef3d
00000120: 72ba 02be 8ba6 563e 5d28 40bc 6a23 3d3e
00000130: e7ba 343d 4e25 b53d 2d4c 243d 3190 04bd
00000140: c506 8fbd 2576 ac3d 2c32 9ebd 84f4 19be
00000150: 88a1 633d 610b 2dbe 21f0 053d c94a 213e
00000160: 5f40 25be 2b00 5a3e d8c1 f7bd abc9 a73a
00000170: ad81 77be b3cb ffbd 5142 8c3d 1337 cbbd
00000180: ccd3 6a3e 182d 423e e751 2e3d a163 36be
00000190: 8e30 113d b54b 863e e2d9 913e 135d 213e
000001a0: cacc a73d 7bec 5d3e f29a 91bc 85b4 95bd
000001b0: d521 a5bd 52cd ba3d 33dd 283e 8957 583e
000001c0: 2cf0 863e 679a 4c3c 18b7 113d 5336 463d
000001d0: 04ea 94bd 12ab c23c ba50 003e 3649 563e
000001e0: 8ace ee3d cd1b 2a3e 3242 2d3b beae 333e
000001f0: e4d0 833e 639f 233e 4c21 973d 1e0b 993d
0.12518056 0.12731537 -0.05523396 -0.13186654 0.1024736 0.17156672 -0.13824593 0.016750176
0.069684856 0.08918407 0.037299797 0.054100614 -0.02005483 0.16327976 0.03614461 -0.00063798606
-0.031277075 0.034783855 0.018153105 -0.24010846 0.100855954 0.05460273 0.11199487 -0.12890232
-0.07094615 -0.061379187 -0.0004051483 -0.12689838 0.15581886 0.11245281 -0.023734823 -0.083789974
0.016240185 0.12938967 0.024389556 -0.009253479 0.015196188 -0.015567122 -0.0881066 -0.032323044
-0.02088808 -3.007116e-06 0.0044463323 0.10436381 0.087908335 0.22971867 -0.12503892 -0.12608582
-0.01887476 -0.03680454 0.120241575 -0.04297453 0.020784438 0.114793636 0.046519883 -0.08789505
0.047781963 0.15780677 -0.0014218542 -0.0007688519 0.12008693 -0.090819694 -0.13448788 0.12210903
0.055120565 0.06598222 0.012515029 -0.11186314 0.12086494 -0.19135559 -0.024612894 0.116844244
-0.12766436 0.20961969 -0.011728373 0.1847054 0.044123556 0.08845006 0.04011171 -0.032364074
-0.06983713 0.08420972 -0.07724413 -0.15034682 0.05557397 -0.16898872 0.032699708 0.15751185
-0.16137837 0.21289127 -0.1209752 0.0012801191 -0.24170561 -0.124900244 0.06848586 -0.09922614
0.22932357 0.18962514 0.042558577 -0.17811443 0.035446696 0.26229635 0.28486544 0.15758161
0.08193357 0.21672241 -0.017774079 -0.07309822 -0.080630936 0.09121193 0.16490631 0.21127142
0.26355112 0.012487984 0.035575002 0.04839165 -0.072711974 0.023763213 0.12530795 0.20926365
0.11660488 0.16612168 0.002643716 0.17547128 0.25745308 0.1597877 0.07379398 0.074728236

weight_ih_l0_reverse f4 [128, 2]
00000000: b8d7 32be 17cf 78be cb76 d93e cc9c 65be
00000010: 3d9e 8dbe b28a ddbe 32e3 143e fe05 b6be
00000020: 99e4 21be 95db 56be 5697 683e 999c 45bf
00000030: 2441 743d aca6 373e fd4f 293e 78e3 b8be
00000040: a792 6abe b84b 2dbf a269 44be 7bd1 013f
00000050: 610d 9abe b60c 8a3d 637a 393f 04a4 6abb
00000060: 1111 02be 500e 523d 68e9 0dbe d0b4 973d
00000070: fff5 6f3e 68cf 69bd b33a 203f 92c6 e53e
00000080: 4930 bb3c 9214 8dbe e9d2 413d 327f 943e
00000090: d462 56bd 6d7e 5abe 4309 64be 3c84 223e
000000a0: b042 cdbe 310d f13d 7186 91be e41b 423f
000000b0: 56f0 0abf d157 ca3d 61fa a93e f5a9 c5bd
000000c0: cb33 b3be 2085 093f 5ed4 28bf 01d6 06bf
000000d0: 7274 92bd d758 693e 020b 30be 2f19 183f
000000e0: 8ea3 d33e 2fae 18bd d35a 84bd 7ada 943e
000000f0: 1685 41be 947d ef3d d0cb ef3d b544 9ebe
00000100: 37ed c3be d165 8c3d c796 d33e afe5 b3be
00000110: 82ca 28be 179b 7cbe cc05 d1bd 3376 f2be
00000120: 8992 09be 8484 22be cdf0 ad3e b168 47be
00000130: c9df 44be ff41 843e 1593 4a3e 76fb 09be
00000140: 0211 563b d337 67be 5302 21bc 0779 263d
00000150: e2f2 83bd c85f 8cbd 5601 983e 8d7a 5abc
00000160: fd60 d43c c50b 373e 2990 2abd bf07 8d3d
00000170: 7af5 2f3e 7062 3bbe 0284 dc3e 5bf3 ac3e
00000180: 1d24 393d fe28 b9be 95f5 563d be03 be3e
00000190: d04d 37bc 6a48 a7bd d057 42be 69c3 843d
000001a0: 9be5 3dbe 3aa9 1b3e c171 6bbe df22 a53e
000001b0: 98b1 ddbd a79a b5bd fd68 b73c c1a5 58be
000001c0: 05b4 d6bd 827e e93d 6ee1 63be 1281 8fbe
000001d0: f9c8 dcbb 512f ad3d 5dd1 aebd 0507 a13e
000001e0: d4e6 053d 4828 973d 996f 153e 5338 293e
000001f0: 47fb e9bd a839 d93d 651b 3f3e 2ec8 95be
00000200: 2d9b c5be 3d5e cf3b 893c 2cbc 0b70 e23e
00000210: e222 da3d 11d1 6e3e 2792 40be 2ffa 28be
00000220: cdcc a73e 00a5 283f 84ca d33e 50bb b2be
00000230: 6dee a8bd c73f b5be f10b 26bf 605b 043f
00000240: af64 36bd 068e 8cbe a0f0 8dbe ae64 253f
00000250: 51aa a13e 02d3 0dbd f746 533f e4ba 4dbc
00000260: 4d06 663e 7c76 413b 0aa8 8e3e 111f bc3e
00000270: c322 ea3c 6b68 a0be 3ddb 9b3e 1673 873e
00000280: 16af ef3d 9ab8 df3d 17be 5e3e 77d1 313f
00000290: 5c84 d53d 0ff3 f3be 442e 32bf 83db 8b3e
000002a0: 1ae9 f9be 5907 333d adfd 763e b452 0ebf
000002b0: cf18 06bf 0f5b aa3d 3546 de3c eb9d 143e
000002c0: e7db b9be 032b 1a3f bb3e 0f3f 5815 223f
000002d0: 7617 f2bd d9bc b6be dd69 a3bd 7540 7bbe
000002e0: 02a0 45bf b066 1f3e c886 cf3e c570 acbd
000002f0: 2e0a 143e 3daf e0bd 526b 923e 63ed 9ebe
00000300: a46d 82bc 445c 853c 4c7f 993e 9583 bcbe
00000310: eae9 89be b8d4 b8be f9cf a3be 6863 13be
00000320: 4154 a2bd 9ef4 923d 9bf7 773e 8095 9ebe
00000330: 2145 76be 8a4c 9a3d 1e03 853e d4b1 99be
00000340: b1be a8be fadb e9be 3453 38be 3fa9 013e
00000350: fa10 803e f38c 083e 5669 103f 73eb ccba
00000360: 7c8b 793e fd3e f1be f91d 32be aebf 95bd
00000370: 25ac 883e 43ae f1bd fa01 6d3e 6b56 a73d
00000380: 85a2 1d3d 5432 243e ebaa a93e 5e32 d43d
00000390: ef19 77bc c033 aebe dd81 91be 1a4b 4f3e
000003a0: 47fa aabe fde7 93be 790b c3be e6aa 883f
000003b0: 6062 55be ecb8 8abd 6020 0fbe 3a81 a3bd
000003c0: 4f44 75be c64d 2b3f 33cd 7fbe f0c3 00bf
000003d0: 4bec 62bd d7ee 163f 8575 20be 6b91 c83e
000003e0: 3498 093f a3c5 d1bd 8cce 35bd 3888 6e3c
000003f0: a41e a7be 330f 6c3e beba 083e 9d85 cebe
-0.17465103 -0.24297749 0.42473444 -0.22423095 -0.2765979 -0.4326988 0.14539793 -0.35551447
-0.1580986 -0.20982201 0.2271398 -0.77192074 0.059632435 0.17934674 0.1653442 -0.36111045
-0.22907506 -0.6769366 -0.1918092 0.50710267 -0.30088332 0.06740706 0.7245237 -0.0035803327
-0.12701823 0.05128318 -0.13858569 0.07407534 0.23433684 -0.057082564 0.6258957 0.4487806
0.022850173 -0.27554756 0.04732028 0.29003292 -0.052340344 -0.2133729 -0.22269158 0.15870756
-0.4008994 0.11770094 -0.28422883 0.7582381 -0.54272974 0.09880031 0.33198836 -0.09651557
-0.35000452 0.5371876 -0.65949047 -0.52670294 -0.071511164 0.22787796 -0.17191699 0.5941343
0.4133572 -0.03727549 -0.06462636 0.29072934 -0.18898425 0.11693874 0.11708796 -0.30911794
-0.38266918 0.068553574 0.4132597 -0.35136172 -0.164835 -0.24668537 -0.10206184 -0.47355804
-0.13434805 -0.15870863 0.3397278 -0.1947353 -0.19225992 0.258316 0.1978267 -0.13474831
0.0032663946 -0.22579889 -0.009827214 0.040642764 -0.064428106 -0.06854206 0.2968852 -0.013334882
0.025925154 0.17875583 -0.041641388 0.06886243 0.17183486 -0.1829927 0.43069464 0.33779415
0.045200456 -0.36164087 0.0524803 0.3711223 -0.011187986 -0.08168109 -0.1897881 0.06482584
-0.18544619 0.15201274 -0.22992612 0.32253167 -0.10824889 -0.08867388 0.02238893 -0.2115698
-0.10483555 0.114010826 -0.22253963 -0.2802816 -0.006737825 0.084562905 -0.085360266 0.31450668
0.032690838 0.0738073 0.14593352 0.16525392 -0.114248805 0.106067 0.18662794 -0.29254287
-0.38594952 0.0063283728 -0.01051248 0.44226107 0.106511846 0.2332194 -0.18805753 -0.16501687
0.32773438 0.6587677 0.41365445 -0.34908533 -0.08248601 -0.3540022 -0.6486197 0.5170193
-0.044529613 -0.27452105 -0.27722645 0.6460675 0.31575254 -0.03462506 0.8253016 -0.012556765
0.22463341 0.0029520085 0.2786258 0.36742452 0.028581029 -0.31329665 0.30440703 0.2645499
0.11703317 0.10923882 0.21752201 0.69460243 0.10425636 -0.47646376 -0.69601846 0.27315912
-0.48810655 0.04370818 0.24120207 -0.55594945 -0.52381605 0.08318149 0.027133087 0.14513366
-0.36300585 0.6022188 0.55955094 0.6331382 -0.11820881 -0.35690954 -0.07979176 -0.24536307
-0.7719728 0.15566516 0.40532517 -0.084199466 0.14457008 -0.10970924 0.28597504 -0.31040487
-0.015921421 0.016279347 0.29979932 -0.3681914 -0.26936275 -0.36099792 -0.31994608 -0.14393389
-0.079262264 0.07175563 0.24215548 -0.30973434 -0.24049808 0.0753413 0.2597894 -0.30018485
-0.32957986 -0.4567564 -0.1800049 0.12662219 0.25012952 0.13335018 0.5641073 -0.0015634134
0.24369615 -0.4711837 -0.17394246 -0.073119506 0.26693836 -0.11800816 0.23145285 0.0817078
0.03848507 0.16034824 0.33138213 0.10361169 -0.015081867 -0.34023857 -0.2841939 0.20243493
-0.3339407 -0.2888793 -0.3809469 1.0677154 -0.20838308 -0.06773552 -0.13977194 -0.079836324
-0.23951839 0.6691555 -0.24980621 -0.50298977 -0.055401128 0.5895819 -0.1566983 0.39173445
0.5374787 -0.10242774 -0.04438643 0.014558844 -0.32640564 0.23052673 0.13352486 -0.40336314

weight_hh_l0_reverse f4 [128, 32]
00000000: 4cc3 cb3d d607 9cbd d27a 7ebd e7b7 403e
00000010: 3085 cc3d 58ea e33d 7a5a b9bd 87a1 98bd
00000020: 6f18 b93d f876 203e 10d9 383c 8931 42bd
00000030: d005 bcbd 5efc 083e 7ed2 36bd 927a babd
00000040: 8ce8 3cbe fb24 d1bc a5d8 b93c 96dc b83c
00000050: a23f 593b d08e d53d a186 9e3d 763d 93be
00000060: 84dd 32bd db6d d53d 8105 c4bd 539e d1bc
00000070: 81c8 4339 984d e63d 5b90 50be a3bf 673d
00000080: 81d1 00be 8c76 673d b14a c3bd 0b84 a13e
00000090: e07b 05be 0687 8d3d 9b5b 5b3e 87d7 b6be
000000a0: 2f30 4f3e 59b9 ff3c c8ce 933d 3563 13bd
000000b0: 671d fd3c 258f 87bd cb70 5a3e 7334 503c
000000c0: 41bb 01be 5bea 03be aa26 973e 9197 1dbf
000000d0: 8b82 51be 97f0 d13d 9ae2 8bbe f0cd 47be
000000e0: ed12 41be 6bd6 cc39 3e92 423c 2c19 b6bd
000000f0: 1fcf fdbd 1446 e93d 46e1 d23d 7867 a63e
00000100: 7a2f 203e 9f88 64be 4d05 ebbd 8173 143c
00000110: c2bd 4f3d 1c31 1d3d 72bd 513e c1d4 41be
00000120: fd7e 853d 119c d0bd 7c4c 59bd 9f85 14bc
00000130: 2a42 c53d 6225 29be 5f16 d23d 50d6 c5bd
00000140: e340 61be 0af4 6dbd 72b0 c8bd 1089 be3d
00000150: 4e59 5bbd fb6c 21bd 6953 1c3e 4707 94be
00000160: 90fb 42be 7c2f 2b3e ae66 b73d 920e 033e
00000170: 0fed 1a3e d5db d13d 47ab 79bd 29b0 66be
00000180: 9d4e 703d 514d a4be fc65 25be 9b4a 503d
00000190: 517e e0bd 29cb 50bd 79fe 853e ce6e b1bd
000001a0: 3f15 aa3b 482a 36be 678d d3bd 6e11 213e
000001b0: 816d a53d 4ce2 68bd 6eed 963e 0702 abbd
000001c0: 8cc9 70be a67e 3fbe 7d82 0f3d fa3b 9e3a
000001d0: f861 c3bd 57cf 863e bdba 43be 6af1 05be
000001e0: f52d 85be 6950 143d c083 823e 9346 d53d
000001f0: 4308 b83c 4fc4 13be 5858 143e c962 ab3d
00000200: ff36 813e 5ccc 15be 002a b7bb 03a1 bd3d
00000210: 28dc 75be dfed b2bd 1be0 5f3e 75c7 a7bc
00000220: a5ed c33d 2daa 16be ed3a ec3c 438b 19be
00000230: e118 c7be eb22 25be 2ea2 1fbd 2dcd cabe
00000240: d2c1 23be 7522 8bbe 6c0e 5bbd 1674 12be
00000250: 6ce9 f5bd 2dd1 aa3e b9ad a4bd 9458 f63d
00000260: ba0a d7be 824b 133e b1c0 bebd fc20 f43e
00000270: ffa7 633e 3dab 19be 7cea 603d 8295 9cbe
00000280: 9dd2 5c3d db2e 99be ce31 b53d 2ff5 d23d
00000290: f263 b43c 2243 9e3e fd06 c43d c102 22bf
000002a0: 6daa 44bd 64e3 e4be ffe7 193e a763 f0bd
000002b0: 9667 dabd fdbd 893e 0396 a13d 09e5 b1bc
000002c0: f22a 6dbe 16fe fbbe b74b a1bd c169 34bf
000002d0: 13ad c3bd 70c2 773e a2a3 e0be 7c66 06bd
000002e0: 85c6 b8bd cff5 063e af5e a83b 3792 96bb
000002f0: 765a 8ebe d792 343e df8b 653e 9495 9c3d
00000300: 02f3 9c3e 9dfa 6b3e 0974 8b3d 4982 54be
00000310: b989 54be f204 bcbe 46bd 4dbb a102 91bd
00000320: d2c0 d9bd 9448 68bd 2d8f 583d 4060 e93d
00000330: 00ad 28be c4fb be3c f1b5 58be 5bd2 413d
00000340: ebdb 843c eb7e 373d eb56 dbbd e71f 343e
00000350: 31fc 173e 0370 253e bc3c 413e 1ead 2b3e
00000360: 4c33 8dbc d13e b0bb 0783 d7bc f3e3 f4bd
00000370: f7ee 723d c1ce 1ebe 5f99 0abe 6c9e a3bd
00000380: 6c8f 9e3e b1d6 41be 4f26 553e af38 c9bc
00000390: c23e fabd 4ab8 51bd 7b88 e2be a172 b6be
000003a0: a6e6 e23d a501 cbbe 7d07 4e3e 4a2a dfbd
000003b0: a91d 9ebe f3a2 413e 6a59 b3bd e19f 84be
000003c0: 106f b63d d07a fa3c c9f6 8abe b913 80be
000003d0: 67e0 92be 05a3 b6bb 7e0a 1dbc 3bee 3f3d
000003e0: dca1 ea3d 793b c2bc f1b6 5dbd 901a a13e
000003f0: b1bb 0b3d 1fa5 c1bd 8d51 f93d 824c acbd
0.09949359 -0.07618682 -0.06212885 0.18820153 0.09986341 0.11128682 -0.0905046 -0.07452684
0.090378635 0.15670383 0.0112822205 -0.04741052 -0.09180796 0.1337752 -0.044634335 -0.0910541
-0.18448085 -0.025530329 0.022686312 0.022566121 0.00331495 0.1042763 0.07740522 -0.28757828
-0.043668285 0.10421344 -0.09571362 -0.02558819 0.00018671343 0.112452686 -0.20367567 0.056579243
-0.1257992 0.05650954 -0.09535731 0.31546053 -0.13035536 0.06910519 0.21421663 -0.3571131
0.20233224 0.03121631 0.07217175 -0.035983283 0.03089781 -0.066190995 0.2133209 0.012707817
-0.12669088 -0.12882368 0.29521686 -0.61559397 -0.20459954 0.10250967 -0.2732132 -0.19512153
-0.18854876 0.00039069666 0.011875687 -0.0889152 -0.12393021 0.113903195 0.10296874 0.32500815
0.15643111 -0.22317742 -0.114756204 0.009060741 0.050718077 0.038376912 0.20482424 -0.18928815
0.06518362 -0.10186017 -0.053051457 -0.009065061 0.096317604 -0.16518167 0.10258173 -0.096600175
-0.21997409 -0.058094062 -0.09799279 0.09303486 -0.053551964 -0.039410572 0.15266193 -0.28911802
-0.19041276 0.16717333 0.089551315 0.12798527 0.15129493 0.10247008 -0.06095436 -0.22528137
0.05866872 -0.32090238 -0.16152185 0.0508524 -0.10961593 -0.050975 0.2617071 -0.086637124
0.005190521 -0.17789567 -0.10329705 0.15729305 0.08077527 -0.05685644 0.2947802 -0.08349996
-0.23514384 -0.18700656 0.035036553 0.0012072318 -0.095401704 0.26330063 -0.19114204 -0.13080373
-0.26011625 0.036209498 0.25491142 0.104138516 0.022464877 -0.14430355 0.14486825 0.08368451
0.2523727 -0.14628738 -0.0055897236 0.09259226 -0.24009764 -0.087367766 0.21862833 -0.02048085
0.095668115 -0.14713354 0.028836692 -0.1499453 -0.3888617 -0.16126601 -0.038973026 -0.39609662
-0.15991905 -0.27174726 -0.05348055 -0.14302096 -0.12007412 0.33362713 -0.080409475 0.12028614
-0.4200037 0.14384273 -0.09314097 0.47681415 0.22232054 -0.15006728 0.05491112 -0.30582815
0.053911794 -0.2991856 0.0884739 0.10300671 0.022020314 0.30910593 0.095716454 -0.6328545
-0.048014093 -0.44704735 0.15029906 -0.11737757 -0.10664289 0.26902762 0.078899406 -0.021715658
-0.23160914 -0.4921729 -0.078757696 -0.7047387 -0.09554496 0.24195266 -0.43874842 -0.03281258
-0.090222396 0.13179706 0.0051382403 -0.004595067 -0.2780339 0.1763414 0.22416638 0.07645717
0.3065415 0.2304482 0.06809241 -0.20752825 -0.20755662 -0.36722523 -0.0031393333 -0.070805795
-0.10632481 -0.05670984 0.052870918 0.11395311 -0.16472244 0.02331341 -0.21163155 0.04731975
0.016218146 0.044798773 -0.10709938 0.17590295 0.14842297 0.1615601 0.18870825 0.16765258
-0.017236374 -0.005378582 -0.026307596 -0.1195754 0.059309926 -0.15508558 -0.13535069 -0.07989201
0.30968797 -0.18929555 0.20815395 -0.024563162 -0.12219001 -0.051201142 -0.4424475 -0.3563433
0.11079149 -0.39649692 0.20120044 -0.10896738 -0.30882004 0.18909816 -0.08757289 -0.25903228
0.08907902 0.03057614 -0.27141407 -0.25015047 -0.2868683 -0.0055736327 -0.009585021 0.046858054
0.114566535 -0.02371 -0.054129545 0.31465578 0.034114543 -0.094553225 0.12173758 -0.0841303
