TS-CVAE/experiments/pedestrians/models/eth/models_04_Jun_2021_13_35_51_eth_ar3/model_registrar-87.pt (torch_old, 545378 bytes, 43 tensors)

weight_ih_l0 f4 [128, 6]
-0.024300734 -0.00021681453 -0.15135187 -0.06624429 -0.11398202 0.08205396 -0.10021726 -0.20819478
-0.033075683 0.204546 -0.025257168 0.16186218 0.18641132 0.08076835 -0.20987435 -0.15295315
-0.21119787 0.080053285 -0.10431623 0.07931164 0.19839376 0.1255731 -0.16325504 0.056934472
-0.038607713 -0.13812685 -0.06265652 0.45475766 -0.13688974 -0.26713502 0.23856865 -0.11272822
0.024947233 0.29209945 -0.008199821 -0.1810662 -0.24716519 -0.066793546 -0.056371856 0.063344255
-0.29094693 -0.42154774 -0.042373702 0.22940497 0.09875799 -0.04590132 -0.19101295 0.17269252
0.39881933 0.037394043 0.18148577 0.041230664 -0.24122459 -0.14221671 -0.41318756 -0.25521994
0.13179034 0.24683978 -0.03712795 -0.07407209 0.46556577 -0.16168816 -0.4898331 0.16223946
-0.26831216 0.29446638 -0.21356781 -0.093298644 0.07509793 0.15024714 0.121321715 0.1406287
-0.11555367 -0.12329243 0.05525213 -0.0832543 -0.059788708 -0.17691776 0.016179975 0.20615138
0.060986463 -0.062220003 -0.025955902 0.10623505 -0.19829021 -0.08807273 -0.33881676 0.12155384
0.7257201 -0.04439626 -0.17293103 0.13711007 0.20483518 0.07344946 -0.03028209 0.12419868
-0.082886286 0.2604719 0.3463817 -0.098505914 -0.19529928 -0.42909575 0.04151716 -0.11043225
-0.07539966 -0.09333471 0.04029765 0.1530763 0.12159857 -0.055192318 0.094779335 -0.07122556
0.27687848 0.40800574 -0.20345199 -0.1812397 -0.00046445173 0.3423714 0.037985962 0.13484491
-0.19101626 0.13120233 0.08253963 -0.2710003 -0.06924295 0.04629738 0.13176861 0.46883607
-0.21513979 -0.31964627 0.12059613 0.32701033 -0.05222626 -0.21832073 0.031663466 0.15076871
-0.07940252 -0.1608184 0.005292293 -0.057903722 0.12147952 -0.07621204 0.024656055 -0.15895292
0.022892712 -0.09685744 -0.11910776 0.07291508 -0.38488075 -0.09961253 -0.062116444 0.0067545106
-0.123445965 0.06755023 -0.2507706 0.07931191 0.24019097 -0.45430186 -0.31915984 0.49208006
0.12314698 0.19401868 0.043169215 0.29319662 0.35570297 0.23051144 0.12384431 0.30539545
-0.24516812 0.05932324 -0.057014808 0.03219252 0.102732114 0.18757588 -0.1571179 -0.17945315
-0.12056723 -0.022870958 -0.0570846 0.15293531 -0.060537435 -0.1405055 0.21496572 0.046969898
-0.10605835 0.004710113 -0.032616027 0.10440048 0.226593 -0.15517803 -0.24589865 0.036369283
0.04675151 0.15338555 -0.08570598 -0.21984757 0.0035698835 -0.1791006 0.18188836 -0.013654453
-0.018320607 0.046196874 0.07242471 -0.19601174 -0.11750205 0.07716762 -0.10046889 -0.0035692
-0.09758661 -0.15120384 -0.0050640847 0.08384529 0.024014283 -0.08105043 -0.083543934 -0.25229523
0.017082902 -0.25714833 0.021827329 0.28411302 -0.25296944 -0.12721753 0.33974326 -0.08628284
-0.06592865 -0.14756627 -0.16288368 0.21024446 -0.06324476 0.026004234 0.052185938 0.05572476
0.11143497 0.021141712 -0.10237202 -0.019745288 0.17579575 -0.05373648 -0.08073806 0.06783301
0.35284156 0.024342848 0.18090817 -0.10024274 -0.60592276 0.34687272 -0.17670825 -0.06627419
0.13748659 0.24190392 0.21551956 0.031564537 0.37829298 -0.06640309 -0.16907303 0.10717477
00000000: 5512 c7bc b558 63b9 fcfb 1abe 16ab 87bd
00000010: 686f e9bd e80b a83d b53e cdbd 0331 55be
00000020: 5e7a 07bd 8274 513e 1fe8 cebc 33bf 253e
00000030: 9ce2 3e3e e069 a53d 4de9 56be c09f 1cbe
00000040: 4144 58be faf2 a33d bfa3 d5bd 246e a23d
00000050: bc27 4b3e 3c96 003e 542c 27be 1f34 693d
00000060: 1f23 1ebd 2071 0dbe 1052 80bd ffd5 e83e
00000070: d32c 0cbe ecc5 88be 574b 743e 0ede e6bd
00000080: 245e cc3c 0f8e 953e 8b58 06bc 6b69 39be
00000090: df18 7dbe 0ecb 88bd 2de6 66bd a2ba 813d
000000a0: fff6 94be 1bd5 d7be 0c90 2dbd 23e9 6a3e
000000b0: a141 ca3d 0603 3cbd e698 43be 4fd6 303e
000000c0: 0c32 cc3e 7f2a 193d 68d7 393e 7ce1 283d
000000d0: 9403 77be 42a1 11be 528d d3be 30ac 82be
000000e0: 0cf4 063e 91c3 7c3e 7a13 18bd 1cb3 97bd
000000f0: a35e ee3e 9591 25be 67cb fabe 1a22 263e
00000100: 3660 89be 4cc4 963e 85b1 5abe 5c13 bfbd
00000110: f2cc 993d 63da 193e 8577 f83d f800 103e
00000120: 67a7 ecbd be80 fcbd 0f50 623d 3b81 aabd
00000130: 01e5 74bd ee29 35be de8b 843c 5919 533e
00000140: f1cc 793d 67da 7ebd 79a1 d4bc c391 d93d
00000150: 970c 4bbe 7a5f b4bd 6479 adbe 38f1 f83d
00000160: cbc8 393f dad8 35bd d514 31be 9566 0c3e
00000170: 50c0 513e ac6c 963d 2512 f8bc e15b fe3d
00000180: 49c0 a9bd 935c 853e f158 b13e 78bd c9bd
00000190: 89fc 47be 70b2 dbbe e60d 2a3d 4e2a e2bd
000001a0: 236b 9abd 4526 bfbd 260f 253d 09c0 1c3e
000001b0: ac08 f93d 5711 62bd ab1b c23d b5de 91bd
000001c0: 04c3 8d3e 21e6 d03e b855 50be e696 39be
000001d0: a881 f3b9 4e4b af3e 2b97 1b3d c914 0a3e
000001e0: c499 43be e759 063e 8a0a a93d 8dc0 8abe
000001f0: 3fcf 8dbd 52a2 3d3d 5aee 063e 480b f03e
00000200: 9b4d 5cbe ada8 a3be 1bfb f63d e66d a73e
00000210: 34eb 55bd 788f 5fbe 8db1 013d 1d63 1a3e
00000220: ca9d a2bd 94ad 24be f96a ad3b 742c 6dbd
00000230: 41ca f83d 0f15 9cbd 7ffb c93c 8ec4 22be
00000240: 7f89 bb3c 325d c6bd c5ee f3bd 8054 953d
00000250: 170f c5be a701 ccbd d06d 7ebd f154 dd3b
00000260: 3dd1 fcbd c657 8a3d 0165 80be 486e a23d
00000270: 9ff4 753e 419a e8be eb68 a3be ebf1 fb3e
00000280: 7c34 fc3d d5ac 463e 34d2 303d de1d 963e
00000290: b31e b63e 310b 6c3e 16a2 fd3d cb5c 9c3e
000002a0: 5a0d 7bbe edfc 723d 5c88 69bd 4edc 033d
000002b0: 3765 d23d e413 403e 84e3 20be 91c2 37be
000002c0: f4eb f6bd e05b bbbc 8bd1 69bd 139b 1c3e
000002d0: 1af6 77bd ace0 0fbe f91f 5c3e 8263 403d
000002e0: 1f35 d9bd 4b57 9a3b 6298 05bd ebcf d53d
000002f0: ff07 683e fde6 1ebe dbcc 7bbe f5f7 143d
00000300: 837e 3f3d 1a11 1d3e 9e86 afbd b91f 61be
00000310: b5f4 693b 2666 37be f140 3a3e edb6 5fbc
00000320: 1915 96bc ef38 3d3d 6853 943d 4db7 48be
00000330: eaa4 f0bd 0f0a 9e3d a2c2 cdbd 3de9 69bb
00000340: 7ddb c7bd 2ed5 1abe 9ff0 a5bb 14b7 ab3d
00000350: 9ab9 c43c c5fd a5bd 1519 abbd d72c 81be
00000360: 71f1 8b3c f2a8 83be 3acf b23c 4377 913e
00000370: 3685 81be 5045 02be d4f2 ad3e 0fb5 b0bd
00000380: 9a05 87bd 9d1b 17be fbca 26be 534a 573e
00000390: 7886 81bd d506 d53c ecc0 553d a53f 643d
000003a0: 0438 e43d 6231 ad3c 6ca8 d1bd dfc0 a1bc
000003b0: cd03 343e c91a 5cbd ff59 a5bd 08ec 8a3d
000003c0: a6a7 b43e a76a c73c fe3f 393e 114c cdbd
000003d0: c11d 1bbf 4d99 b13e 02f3 34be c3ba 87bd
000003e0: 49c9 0c3e a9b5 773e 29b1 5c3e d149 013d
000003f0: 9eaf c13e 58fe 87bd 7b21 2dbe 727e db3d

weight_hh_l0 f4 [128, 32]
0.004906958 -0.19080307 0.21218063 0.057007063 0.11826383 0.19574264 -0.17835432 -0.07867929
0.35965422 0.3412923 -0.26176968 0.4412047 -0.1980506 0.12517847 -0.07361718 0.13098118
-0.19688535 -0.02192895 0.25381893 -0.41853613 -0.19961354 0.17687654 -0.052801963 -0.4120265
0.13401724 -0.17660855 0.46098575 -0.024899786 -0.3905693 0.036143556 0.047531024 -0.20159307
0.16478644 -0.30391023 0.28148785 0.0025359932 0.27685472 0.3020659 0.06223753 -0.08069116
0.35017487 0.05784583 -0.3725073 0.026096908 -0.33848542 0.17625953 0.11343792 0.0010525687
-0.11977597 0.22883597 0.1559897 -0.19351852 -0.059627417 0.25470996 -0.3183003 -0.2538614
0.04281033 -0.2205537 0.037668996 -0.36009437 -0.35504153 0.052074574 0.14297476 -0.13837887
0.122427225 -0.13623197 -0.08762772 0.16298771 0.08870689 0.18430111 -0.30635655 -0.26615977
0.05871381 0.1140509 -0.32518348 0.13637866 -0.015221924 -0.18094392 0.18699715 -0.26722017
0.06922092 -0.12288787 0.12230154 -0.041098308 0.0008750196 0.04471881 0.16158305 0.16719021
0.31206146 0.039959405 0.18669237 0.12326358 0.1085235 0.039258704 -0.20286448 -0.010826689
0.15840575 -0.06290792 0.24288826 0.27713373 -0.054834962 0.1633383 -0.24456227 0.059430014
0.10291694 0.23814642 -0.37705085 0.14457354 -0.32726964 -0.3058226 -0.24586844 -0.16295469
-0.27918008 0.1816341 0.14754435 -0.22709082 -0.10670943 0.31524935 0.053448502 -0.19046414
0.22860847 -0.2457915 0.020021195 -0.08783836 -0.33917573 0.14473003 0.1403227 -0.16969109
-0.06453443 -0.3300671 0.47785133 -0.2798764 0.34053525 0.07811992 0.0027483776 0.011978283
0.8871577 0.04487938 -0.3862272 0.27030623 -0.03398713 0.05025399 -0.7361793 0.005833484
-0.29264385 -0.010798712 1.0087088 -1.190667 0.041895103 0.67448723 0.054012917 -0.26152873
-0.16630714 -0.3172246 0.28464362 -1.1744926 -1.0733719 -0.100006595 0.14932607 0.017452909
0.035920803 -0.22785074 0.034416586 -0.302244 0.060603127 0.1707906 -0.03887308 -0.080761895
0.029046087 0.27578914 -0.12915327 0.07176121 -0.17379244 0.10120683 0.020706547 -0.18514484
-0.0071587926 0.101340294 -0.34496987 0.03782461 0.022748167 0.04097879 -0.23924623 -0.10737946
-0.014789582 -0.2524027 0.44536436 0.2117462 0.014045333 0.120614596 0.3862408 -0.037775017
-0.026019659 0.1197232 -0.082474686 0.107025586 -0.09994518 -0.0055386093 -0.04734711 -0.27307615
-0.06691783 0.33681405 -0.2731397 0.19924662 -0.06172255 0.0035047338 0.08285423 0.09891137
-0.032765113 -0.0014798194 -0.06713451 -0.24960227 -0.08977776 0.299134 0.13300319 -0.038694773
-0.096986614 0.090683684 0.31124115 0.08071161 -0.23704693 0.16383128 -0.19060822 0.041980308
0.26129377 -0.18237635 0.06843132 0.060808986 -0.024029987 0.10212913 0.102510005 0.019899433
0.1555547 -0.07366495 -0.21314244 -0.1505201 0.18545689 -0.007069018 0.05443833 0.10523596
0.103823826 -0.0711394 0.100590765 -0.32282943 -0.2645917 0.20393966 0.04427175 -0.19794942
-0.027572721 0.026626935 0.23547827 -0.023383128 0.06238168 0.18793961 -0.023547653 0.24052908
00000000: 8cca a03b e161 43be e145 593e 3d80 693d
00000010: 4f34 f23d c270 483e 84a2 36be 9c22 a1bd
00000020: 9924 b83e ddbd ae3e ad06 86be 95e5 e13e
00000030: c7cd 4abe c92e 003e 9bc4 96bd ee1f 063e
00000040: 509c 49be 57a4 b3bc 8ef4 813e 5e4a d6be
00000050: 7e67 4cbe 201f 353e df46 58bd 23f5 d2be
00000060: d13b 093e dfd8 34be 5306 ec3e a3fa cbbc
00000070: b3f8 c7be 440b 143d e4af 423d 6a6e 4ebe
00000080: c7bd 283e 1f9a 9bbe 2d1f 903e e832 263b
00000090: e7bf 8d3e 62a8 9a3e c8ec 7e3d 6841 a5bd
000000a0: 1f4a b33e c0ef 6c3d 47b9 bebe 2fc9 d53c
000000b0: f64d adbe 617d 343e 2452 e83d 58f6 893a
000000c0: 1b4d f5bd fa53 6a3e c4bb 1f3e b829 46be
000000d0: e13b 74bd 5869 823e 42f8 a2be 1ffa 81be
000000e0: e259 2f3d d4d8 61be ce4a 1a3d 4a5e b8be
000000f0: 01c8 b5be 264c 553d fa67 123e 31b3 0dbe
00000100: 20bb fa3d 6580 0bbe 2976 b3bd 40e6 263e
00000110: f5ab b53d 6eb9 3c3e c4da 9cbe 1846 88be
00000120: e47d 703d 8593 e93d 737e a6be d9a6 0b3e
00000130: 6065 79bc 5d49 39be 2e7c 3f3e 15d1 88be
00000140: b3c3 8d3d a3ac fbbd 3b79 fa3d b356 28bd
00000150: 9261 653a 122b 373d 0776 253e e933 2b3e
00000160: 85c6 9f3e 79ac 233d 492c 3f3e 9e71 fc3d
00000170: 9241 de3d bccd 203d b5bb 4fbe 6d62 31bc
00000180: 1e35 223e ded5 80bd b3b7 783e 79e4 8d3e
00000190: a09a 60bd 2842 273e 886e 7abe e36c 733d
000001a0: 1ec6 d23d a8dc 733e cf0c c1be 160b 143e
000001b0: e38f a7be c894 9cbe f0c4 7bbe 98dd 26be
000001c0: b1f0 8ebe 4afe 393e de15 173e 7f8a 68be
000001d0: 798a dabd 5d68 a13e d1ec 5a3d 0809 43be
000001e0: 5718 6a3e c4b0 7bbe 7d03 a43c 99e4 b3bd
000001f0: 71a8 adbe 1c34 143e c1b0 0f3e 80c3 2dbe
00000200: a12a 84bd 8efe a8be eea8 f43e f64b 8fbe
00000210: a35a ae3e 56fd 9f3d 201e 343b 8f40 443c
00000220: c41c 633f 71d3 373d 92bf c5be 9465 8a3e
00000230: 1736 0bbd 21d7 4d3d 3f76 3cbf d026 bf3b
00000240: 6ad5 95be 15ed 30bc 5f1d 813f c767 98bf
00000250: 339a 2b3d 32ab 2c3f a63c 5d3d 18e7 85be
00000260: 6b4c 2abe 436b a2be cfbc 913e c655 96bf
00000270: 4064 89bf 42d0 ccbd efe8 183e 67f9 8e3c
00000280: b121 133d b451 69be 68f8 0c3d babf 9abe
00000290: fc3a 783d bbe3 2e3e 6139 1fbd 7e66 a5bd
000002a0: 0ff2 ed3c 3c34 8d3e c140 04be 8bf7 923d
000002b0: a5f6 31be 8745 cf3d c7a0 a93c 9c96 3dbe
000002c0: 4e94 eabb 808b cf3d e49f b0be faed 1a3d
000002d0: 5d5a ba3c 60d9 273d f7fc 74be c3e9 dbbd
000002e0: 0150 72bc ed3a 81be cc06 e43e ffd3 583e
000002f0: 651e 663c c904 f73d 5bc1 c53e fab9 1abd
00000300: 2e27 d5bc 7031 f53d 7de8 a8bd 3b30 db3d
00000310: 0fb0 ccbd 397d b5bb 0bef 41bd a3d0 8bbe
00000320: 370c 89bd e472 ac3e f7d8 8bbe 4e07 4c3e
00000330: c9d0 7cbd adaf 653b 7baf a93d 0b92 ca3d
00000340: b634 06bd 80f6 c1ba d17d 89bd bd97 7fbe
00000350: 67dd b7bd 1728 993e fd31 083e 697e 1ebd
00000360: eba0 c6bd 5eb8 b93d 005b 9f3e 214c a53d
00000370: 6ebc 72be 63c3 273e cd2e 43be 8bf3 2b3d
00000380: 4cc8 853e dec0 3abe b825 8c3d d812 793d
00000390: 89da c4bc 1429 d13d c4f0 d13d 2304 a33c
000003a0: bb49 1f3e a6dd 96bd 0342 5abe f121 1abe
000003b0: 69e8 3d3e 39a3 e7bb bafa 5e3d f385 d73d
000003c0: 96a1 d43d 89b1 91bd 8802 ce3d e649 a5be
000003d0: 9078 87be 8fd5 503e 4b56 353d 41b3 4abe
000003e0: 30e0 e1bc bb20 da3c 3721 713e f98d bfbc
000003f0: ef83 7f3d 3e73 403e 02e7 c0bc 414d 763e

bias_ih_l0 f4 [128]
0.028508686 0.36822915 0.14414524 0.14383546 0.35816005 0.342112 0.28782704 0.14070754
0.13090992 0.13086939 0.4105049 0.31223127 0.5350903 0.33046913 0.18183027 0.5297982
0.10112883 0.35125315 0.034485895 0.21126187 0.70996153 0.12746447 0.49238387 0.06832317
0.5601813 0.13733657 0.043847937 0.058411527 -0.01785066 0.41585404 0.3953927 0.16738525
-0.017412478 -0.52226925 -0.35692433 -0.06594088 -0.6794939 -0.21883103 -0.44274485 -0.42187786
-0.14760388 -0.06990758 -0.15583438 -0.13683243 -0.4849538 -0.32032114 -0.060095984 -0.7596527
-0.031514157 -0.21862313 -0.06540101 0.12923492 -0.70264584 -0.14683442 -0.32186347 -0.08970116
-0.36152086 0.113474935 0.013293437 0.104121394 -0.06529597 -0.68721145 -0.56350374 -0.38365176
0.15180169 0.115024805 -0.05932293 0.02878028 -0.09318044 -0.0060115517 0.105024554 -0.033533763
0.01880925 0.07001917 -0.08125165 0.02745511 -0.11303461 -0.03413127 -0.035590194 -0.08468142
-0.07861145 -0.09468039 0.19806379 -0.033982642 0.06878443 0.0898733 0.10083447 -0.14981568
0.11649725 -0.0837056 0.044198956 -0.21037683 -0.12895134 0.11583847 0.022899693 -0.07902221
0.22737932 0.3296667 0.18097128 0.18602438 0.45933938 0.29714486 0.32368293 0.1720821
0.013550362 0.18014537 0.19819775 0.24642222 0.43627924 0.31109488 0.20028818 0.69923544
0.26034993 0.2774998 0.12409827 0.08438954 0.7941939 0.13662787 0.4552186 0.12143514
0.2920456 0.1931132 0.23337376 -0.013124136 0.12324924 0.60692626 0.45040315 0.1303528
00000000: 0c8b e93c 8888 bc3e cf9a 133e 9a49 133e
00000010: c160 b73e 4e29 af3e 115e 933e a315 103e
00000020: 400d 063e a002 063e b32d d23e c7dc 9f3e
00000030: aefb 083f 4033 a93e b731 3a3e dba0 073f
00000040: a21c cf3d 74d7 b33e 1541 0d3d 0855 583e
00000050: 0ac0 353f 0c86 023e bd19 fc3e 05ed 8b3d
00000060: 0b68 0f3f f5a1 0c3e e599 333d ed40 6f3d
00000070: 8c3b 92bc d2ea d43e e970 ca3e 0a67 2b3e
00000080: 9da4 8ebc 70b3 05bf c9be b6be 030c 87bd
00000090: 50f3 2dbf 3e15 60be 74af e2be 6000 d8be
000000a0: 7925 17be b52b 8fbd 0c93 1fbe cd1d 0cbe
000000b0: dd4b f8be 2201 a4be 3527 76bd 9978 42bf
000000c0: fd14 01bd bede 5fbe f7f0 85bd 2956 043e
000000d0: 99e0 33bf c35b 16be 4acb a4be 3eb5 b7bd
000000e0: 4319 b9be 8c65 e83d b7cc 593c 993d d53d
000000f0: e5b9 85bd 17ed 2fbf c841 10bf 016e c4be
00000100: e771 1b3e 2092 eb3d 9afc 72bd 9fc4 eb3c
00000110: 63d5 bebd 8dfc c4bb 1d17 d73d b35a 09bd
00000120: db15 9a3c 3666 8f3d 4467 a6bd 8ae9 e03c
00000130: b17e e7bd 3bcd 0bbd 06c7 11bd 746d adbd
00000140: 0aff a0bd cbe7 c1bd 3cd1 4a3e 6231 0bbd
00000150: dade 8c3d 7e0f b83d 4d82 ce3d 4869 19be
00000160: 1c96 ee3d d76d abbd f709 353d 066d 57be
00000170: d20b 04be b83c ed3d 2398 bb3c 65d6 a1bd
00000180: 20d6 683e 13ca a83e 8950 393e 2d7d 3e3e
00000190: 882e eb3e 5f23 983e c5b9 a53e 4a36 303e
000001a0: 5602 5e3c 0778 383e 5af4 4a3e 1b56 7c3e
000001b0: fe5f df3e d447 9f3e 5818 4d3e 1801 333f
000001c0: 964c 853e 7414 8e3e 3c27 fe3d 6cd4 ac3d
000001d0: 4b50 4b3f 2de8 0b3e 6a12 e93e fdb2 f83d
000001e0: 0087 953e 77bf 453e 88f9 6e3e 9e06 57bc
000001f0: 196a fc3d 855f 1b3f 3e9b e63e 347b 053e

bias_hh_l0 f4 [128]
-0.015781324 0.38133654 0.01035504 0.30531836 0.501933 0.098213136 0.18617672 0.318272
0.2160486 0.2957636 0.15405245 0.18740451 0.296796 0.6247398 0.2223938 0.6902183
0.014162223 0.34381333 -0.061204463 0.16698425 0.8576394 0.30818173 0.52090806 0.13262103
0.46184316 0.12220876 0.11740293 -0.03317039 -0.09947702 0.40651104 0.46491194 0.2175757
-0.10617172 -0.49617898 -0.1192363 -0.27208412 -0.37113363 -0.055988017 -0.301802 -0.56670344
-0.07471765 -0.12612957 -0.13689992 -0.19802076 -0.48773602 -0.49975908 0.045858435 -0.70954055
-0.16231184 -0.28654632 -0.037048224 -0.05205138 -0.5587387 -0.30962968 -0.54493254 -0.11768872
-0.56510437 -0.19515409 -0.24024391 0.04342902 -0.09351719 -0.45329782 -0.4314193 -0.08226228
-0.13145727 -0.15374869 0.11075664 -0.026850805 0.1634804 0.026309412 -0.08111793 0.013357108
0.16006796 -0.023599342 0.046580948 0.044748634 0.06767881 0.03231316 -0.11329516 0.061576247
0.014329681 0.14771117 0.12351192 -0.16056532 -0.08819072 0.029420195 -0.14276016 0.09826265
-0.12199963 0.021934744 0.047166023 -0.09553022 -0.11749659 -0.16280541 -0.0016494386 0.024974085
0.11233979 0.46399367 0.024870897 0.41333723 0.5579548 0.20053634 0.52226245 0.48267663
-0.040451422 0.20249596 0.43946618 0.3233147 0.44844088 0.5042775 0.120142095 0.7070995
0.27884212 0.14070787 0.22919449 -0.039099813 0.75724214 0.32772228 0.6069939 0.2540241
0.4798752 0.1687615 0.2852886 -0.0069205645 -0.0060909237 0.60138416 0.4774215 0.33109048
00000000: d647 81bc 8b3e c33e 30a8 293c b052 9c3e
00000010: ae7e 003f f823 c93d 1ca5 3e3e 8cf4 a23e
00000020: d83b 5d3e 546e 973e edbf 1d3e f8e6 3f3e
00000030: a5f5 973e f3ee 1f3f 33bb 633e 26b2 303f
00000040: ab08 683c 4d08 b03e 88b1 7abd ebfd 2a3e
00000050: 418e 5b3f ffc9 9d3e 3b5a 053f cfcd 073e
00000060: b576 ec3e 9648 fa3d f370 f03d addd 07bd
00000070: 9cba cbbd 3722 d03e f008 ee3e 2acc 5e3e
00000080: 8f70 d9bd 2c0b febe 2932 f4bd 9c4e 8bbe
00000090: 3a05 bebe b153 65bd cb85 9abe 7a13 11bf
000000a0: 9105 99bd 1c28 01be 7e2f 0cbe f4c5 4abe
000000b0: 89b8 f9be 6ce0 ffbe 0ed6 3b3d 73a4 35bf
000000c0: 1335 26be 33b6 92be e1bf 17bd d433 55bd
000000d0: 8009 0fbf c887 9ebe b380 0bbf c906 f1bd
000000e0: aeaa 10bf 79d6 47be 8002 76be a1e2 313d
000000f0: f185 bfbd a716 e8be fee2 dcbe 2079 a8bd
00000100: bc9c 06be 4c70 1dbe 61d4 e23d 38f6 dbbc
00000110: 6867 273e d686 d73c 2821 a6bd c6d7 5a3c
00000120: dbe8 233e 6853 c1bc aacb 3e3d 584a 373d
00000130: 309b 8a3d ce5a 043d 4b07 e8bd 6037 7c3d
00000140: 0ac7 6a3c 9941 173e d1f3 fc3d 3c6b 24be
00000150: 569d b4bd 9f02 f13c b82f 12be ee3d c93d
00000160: f1da f9bd 7eb0 b33c 2931 413d 59a5 c3bd
00000170: 0da2 f0bd 76b6 26be fa31 d8ba 7496 cc3c
00000180: 6712 e63d 9490 ed3e 0dbe cb3c f0a0 d33e
00000190: 20d6 0e3f 6659 4d3e feb2 053f 6421 f73e
000001a0: 64b0 25bd 1a5b 4f3e b601 e13e 8189 a53e
000001b0: 0b9a e53e 5518 013f 0f0d f63d 7904 353f
000001c0: 65c4 8e3e b915 103e f6b1 6a3e 2027 20bd
000001d0: 9fda 413f 37cb a73e f463 1b3f 720f 823e
000001e0: 34b2 f53e d1cf 2c3e 5911 923e e7c5 e2bb
000001f0: 5f96 c7bb 50f4 193f 9770 f43e b184 a93e

weight_ih_l0 f4 [128, 2]
0.17194553 0.06910819 -0.10517728 0.0043207784 0.018500566 0.019145085 -0.08825032 -0.028382575
-0.019952863 -0.08218222 -0.009425402 0.12849075 -0.0032048682 0.011860197 -0.13496567 -0.08068569
-0.103564 -0.12596892 0.041104805 -0.0062473645 0.05156948 0.09742974 0.07183057 -0.00255389
-0.14653225 0.11027815 -0.02936511 -0.064894386 -0.08774764 0.022880502 -0.0029731183 0.13582988
0.0436277 0.10216375 -0.054074217 0.047952775 0.10033766 0.008624477 0.058391307 0.03995893
0.040336367 -0.10903432 0.057551447 0.14480177 -0.050405864 0.08923097 -0.23853911 0.03283097
0.06847398 0.0053136097 -0.22092795 -0.0060394006 0.008650567 0.06334768 -0.01958347 0.14339434
0.08243209 0.12101391 -0.028752731 -0.01155348 0.2970585 0.051251702 -0.107049525 -0.11417192
-0.15313958 -0.23168194 -0.07407501 -0.07453577 0.14868762 -0.06701292 0.07968907 0.04636258
0.3324284 -0.19547208 -0.03695594 0.039724927 -0.05694276 0.2584905 0.039631702 -0.012027799
-0.1985722 -0.12501565 0.16341977 -0.055736266 0.12990224 0.09800956 0.06004053 0.013991599
-0.121646754 0.14227834 -0.19897722 0.047967397 0.04351345 0.12322416 0.2707674 0.052444804
0.106675066 0.070655 -0.14965037 -0.19362313 0.09427082 0.14255942 -0.24728352 -0.09162254
-0.08224144 -0.15180364 0.18872549 -0.016249366 0.100771666 0.13595156 -0.1670512 0.0014744598
-0.15246557 -0.017538005 0.005282228 -0.06602515 -0.0907839 0.10904685 -0.21825181 -0.0014724855
0.26964363 -0.052219078 -0.06408693 0.08111423 0.28792968 0.06714495 -0.1908456 -0.22114594
0.22023451 0.110291086 -0.029172217 -0.12206849 -0.040798414 -0.13281955 -0.067366116 -0.15495946
-0.06020987 0.11436691 0.40108928 -0.035898037 0.18784377 -0.13784406 0.4460114 0.013430509
0.45561606 0.11356856 -0.18692775 0.3115533 0.30853713 0.19423035 -0.27184686 0.07171201
-0.15529664 -0.103882425 0.5690256 0.05196019 -0.049370013 -0.15239982 0.029144868 0.20469996
0.14942545 -0.007218946 -0.22806993 0.07607394 0.28504774 0.17253363 0.21765085 0.041331094
-0.023859346 -0.05535456 -0.15583953 0.03156659 0.011332011 -0.14493847 0.30251125 0.075120166
0.40810958 0.09223915 0.106930256 0.21645345 -0.3189397 0.032739326 0.111633405 -0.086290136
0.43131465 0.10337726 0.11174902 0.15940262 0.38016978 0.056575865 0.05055648 -0.11790134
-0.013696023 -0.026103858 -0.017496653 0.08689107 0.22364523 -0.13595705 0.16440628 0.043691013
-0.0029011911 -0.2599076 -0.06611467 0.06362625 -0.07109826 0.1325673 -0.198803 -0.11020754
-0.1895651 0.026775002 0.117099985 -0.29836324 0.23905964 0.09469063 0.10413938 -0.03642224
0.18338735 0.14446662 -0.30172244 0.051127646 -0.015856385 0.24076712 0.118994355 0.24629574
0.0150443725 0.052368794 -0.30557466 -0.17336363 -0.15083571 -0.021575015 -0.0016565803 0.04356397
0.068812475 -0.1344499 -0.041428063 0.011228959 0.037449054 0.12851556 -0.29853395 -0.09407903
0.35482344 0.11105747 -0.17890337 -0.22754854 -0.030765982 -0.021636834 -0.096095935 0.18985413
0.09472769 0.04418262 -0.03553117 -0.06212423 0.3076077 0.15859438 -0.15333453 -0.30070022
00000000: 7d12 303e 9888 8d3d 3067 d7bd 5195 8d3b
00000010: 808e 973c 27d6 9c3c 95bc b4bd 9382 e8bc
00000020: 3074 a3bc 274f a8bd 006d 1abc 1493 033e
00000030: c408 52bb 4651 423c 7134 0abe 8a3e a5bd
00000040: 5d19 d4bd fffd 00be 835d 283d b1b6 ccbb
00000050: 853a 533d 3e89 c73d e81b 933d 2a5f 27bb
00000060: 8d0c 16be 83d9 e13d 198f f0bc 59e7 84bd
00000070: 09b5 b3bd e46f bb3c a6d8 42bb fd16 0b3e
00000080: f6b2 323d 3a3b d13d ed7c 5dbd 216a 443d
00000090: d57d cd3d ae4d 0d3c b92b 6f3d faab 233d
000000a0: bf37 253d 634d dfbd 11bb 6b3d ea46 143e
000000b0: 6176 4ebd babe b63d 9943 74be c479 063d
000000c0: 163c 8c3d ca1d ae3b f03a 62be 2ae6 c5bb
000000d0: 1cbb 0d3c 6ebc 813d 836d a0bc f7d5 123e
000000e0: 28d2 a83d 24d6 f73d d98a ebbc cf4a 3dbc
000000f0: 0d18 983e 4eed 513d c83c dbbd f8d2 e9bd
00000100: 9fd0 1cbe 083e 6dbe a4b4 97bd 36a6 98bd
00000110: 9141 183e 123e 89bd 0634 a33d b0e6 3d3d
00000120: 0e34 aa3e d529 48be 1d5f 17bd 9bb6 223d
00000130: d03c 69bd de58 843e da54 223d 3f10 45bc
00000140: 8356 4bbe 1a04 00be 8357 273e b64b 64bd
00000150: 1805 053e 3cb9 c83d 0fed 753d 053d 653c
00000160: ef21 f9bd 6ab1 113e afc0 4bbe 7679 443d
00000170: 293b 323d f35c fc3d 06a2 8a3e 5dd0 563d
00000180: 7578 da3d 92b3 903d f23d 19be 2445 46be
00000190: 0f11 c13d 19fb 113e e437 7dbe 99a4 bbbd
000001a0: 336e a8bd 6a72 1bbe 4141 413e 641d 85bc
000001b0: 6061 ce3d e336 0b3e 780f 2bbe a942 c13a
000001c0: ef1f 1cbe ddab 8fbc 8a16 ad3b 3238 87bd
000001d0: e9ec b9bd f453 df3d 677d 5fbe 6a00 c1ba
000001e0: bb0e 8a3e ace3 55bd 0240 83bd 381f a63d
000001f0: 856b 933e 4b83 893d 076d 43be 1574 62be
00000200: 2885 613e 4be0 e13d 93fa eebc 0bff f9bd
00000210: 3d1c 27bd d901 08be 3ff7 89bd b1ad 1ebe
00000220: a09e 76bd 3339 ea3d 935b cd3e d209 13bd
00000230: 1e5a 403e fe26 0dbe 9b5b e43e a30b 5c3c
00000240: 8246 e93e a296 e83d fd69 3fbe ea83 9f3e
00000250: 94f8 9d3e 52e4 463e 832f 8bbe bfdd 923d
00000260: 1506 1fbe 4fc0 d4bd a9ab 113f 35d4 543d
00000270: 3638 4abd b30e 1cbe 38c1 ee3c de9c 513e
00000280: fc02 193e e88c ecbb 2a8b 69be a7cc 9b3d
00000290: c7f1 913e a8ac 303e dddf 5e3e cb4a 293d
000002a0: ad74 c3bc 77bb 62bd 6694 1fbe f84b 013d
000002b0: e6a9 393c c06a 14be c1e2 9a3e 9ad8 993d
000002c0: bdf3 d03e e1e7 bc3d 40fe da3d f9a5 5d3e
000002d0: 104c a3be ac19 063d 0ea0 e43d e2b8 b0bd
000002e0: 46d5 dc3e 75b7 d33d acdc e43d 713a 233e
000002f0: 9da5 c23e 18bc 673d 5014 4f3d 4276 f1bd
00000300: 4965 60bc c2d7 d5bc 2455 8fbc f2f3 b13d
00000310: 4103 653e 5338 0bbe 1f5a 283e 59f5 323d
00000320: e921 3ebb 9c12 85be 2167 87bd 7b4e 823d
00000330: f79b 91bd b9bf 073e 0393 4bbe 7eb4 e1bd
00000340: 5b1d 42be 4057 db3c 1ed2 ef3d 11c3 98be
00000350: 0dcc 743e 29ed c13d 0747 d53d 7d2f 15bd
00000360: e5c9 3b3e 0fef 133e 5d7b 9abe 396b 513d
00000370: 40e5 81bc a88b 763e 50b3 f33d f334 7c3e
00000380: ac7c 763c a980 563d 4874 9cbe 3c86 31be
00000390: ad74 1abe 16be b0bc 9c21 d9ba 2270 323d
000003a0: 8eed 8c3d 3cad 09be 79b0 29bd abf9 373c
000003b0: 2e64 193d 9599 033e 71d9 98be 82ac c0bd
000003c0: 6bab b53e 1972 e33d 7232 37be 7c02 69be
000003d0: f108 fcbc bb3f b1bc f2cd c4bd 1f69 423e
000003e0: 9700 c23d d6f8 343d 2289 11bd fa75 7ebd
000003f0: c27e 9d3e 9166 223e ba03 1dbe 61f5 99be

weight_hh_l0 f4 [128, 32]
-0.038049832 0.03290463 -0.09586035 0.29537138 -0.06013563 0.22720902 -0.10692847 -0.030271702
-0.1324831 -0.045649584 0.29662818 0.04104058 -0.06542059 0.03573052 -0.11397127 0.04395139
0.13861956 -0.17891183 -0.0240029 0.24012534 0.10231885 0.0019824463 -0.16808377 -0.13744041
-0.008247734 -0.10608773 -0.14094661 0.29842183 0.19042926 -0.22162808 -0.06530039 0.30988407
0.0039676484 -0.16838655 0.12040166 0.0032566867 -0.25453404 0.020263769 -0.28688198 -0.03904852
0.03318957 -0.053010583 0.0027274145 -0.15413488 -0.047925673 0.19427022 -0.0763382 0.06347409
0.08820381 -0.04517251 0.13227768 0.22494161 0.24865422 -0.13541453 0.052067988 0.16772018
0.17938955 -0.33790484 0.017693367 -0.2251294 -0.026906364 0.12794359 0.056987934 0.13634798
0.04925392 -0.05128784 0.07725451 0.083495796 -0.23909585 -0.108119205 -0.19973592 -0.07299281
-0.21892466 -0.3007819 -0.09015827 -0.07132374 -0.062514275 0.24036849 -0.13579531 0.11790744
0.02830672 0.036423422 -0.08675027 -0.09356422 -0.027511086 0.0223845 -0.19439799 0.004612901
-0.0047012987 -0.3134602 -0.04059827 0.015072018 -0.11736549 0.12677021 0.041385427 0.043846175
0.23149788 -0.05712014 0.17966932 0.023960348 -0.13213015 -0.11607504 -0.108513445 -0.04174687
-0.025260625 -0.016446289 -0.02262362 -0.1177156 -0.15161902 -0.11712004 -0.3083987 -0.12666157
-0.22587715 -0.07622684 -0.23322655 -0.03442695 0.12897322 0.087046675 -0.031892892 0.07813725
-0.028425489 0.0022619725 -0.031215435 0.036089938 -0.047355946 -0.10202568 0.049179383 -0.010961905
0.13891158 0.030386742 0.110679135 -0.052398123 -0.036103252 0.044840142 -0.0041633565 -0.14785138
0.06136086 -0.06880804 -0.08769228 -0.17442122 -0.10168135 0.2110234 -0.13352259 0.010581356
-0.28477275 0.07699698 0.09158092 -0.1555661 0.15318245 0.16062458 -0.029303055 -0.22256996
-0.01937457 -0.036952242 -0.12921424 -0.11464676 -0.094000794 0.17403808 0.10638624 -0.019831829
-0.07688385 -0.19004405 -0.016553376 -0.13128634 -0.23739749 0.12427748 -0.11265713 0.38797256
0.2667131 -0.25767034 -0.10045022 0.17751609 0.027865874 0.2818084 0.068808034 -0.14239566
-0.21068117 0.034378782 -0.016206486 -0.03304543 -0.16333027 -0.05515131 -0.14255318 0.11025455
0.016366612 0.08345254 0.09783041 0.06830699 0.12320522 -0.25634485 0.22549327 0.093853295
-0.029220777 0.00540607 0.20881324 -0.028452449 -0.07038195 -0.18920432 -0.23333102 0.2149133
-0.06340583 -0.3240903 -0.21240076 0.028433204 0.010582248 0.1073969 -0.09223983 -0.28101665
0.04142289 -0.12350898 0.021013888 -0.12840846 0.50564426 0.027129356 -0.12639076 -0.041208673
0.1292865 -0.24455728 -0.010540397 0.17840907 0.13248223 -0.21530177 -0.22981578 0.232813
0.023977648 0.07146273 0.053821485 0.0052336752 0.061637986 -0.35667762 0.07731482 0.04626908
-0.06360854 -0.21935377 -0.242545 0.2571932 0.31634533 -0.13355222 0.13675362 -0.048556633
-0.0797877 -0.0069866264 -0.099615425 -0.13852093 -0.05389093 -0.0050209085 -0.08928739 -0.10294772
-0.1333782 0.060003344 0.08633786 0.0058146534 -0.30803442 -0.014380977 -0.028350413 0.15597616
00000000: 24da 1bbd 01c7 063d 6e52 c4bd eb3a 973e
00000010: c750 76bd 7ba9 683e 50fd dabd 5cfc f7bc
00000020: a6a9 07be 0ffb 3abd a6df 973e 2b1a 283d
00000030: 3bfb 85bd 2a5a 123d c569 e9bd 5f06 343d
00000040: 49f2 0d3e aa34 37be bba1 c4bc 6be3 753e
00000050: 8c8c d13d eeeb 013b 271e 2cbe 2ebd 0cbe
00000060: 8121 07bc 8644 d9bd 4f54 10be bfca 983e
00000070: e3ff 423e 79f2 62be 36bc 85bd 20a9 9e3e
00000080: 0c03 823b 866d 2cbe 2595 f63d 236e 553b
00000090: 4952 82be 3400 a63c 32e2 92be 57f1 1fbd
000000a0: c9f1 073d a021 59bd 6cbe 323b 89d5 1dbe
000000b0: b64d 44bd c6ee 463e 3457 9cbd b4fe 813d
000000c0: 33a4 b43d cf06 39bd cd73 073e 1857 663e
000000d0: 369f 7e3e 1baa 0abe 3e45 553d d7be 2b3e
000000e0: e5b1 373e dd01 adbe aef1 903c 5288 66be
000000f0: bc6a dcbc a503 033e 2e6c 693d ce9e 0b3e
00000100: 7abe 493d 3313 52bd 9d37 9e3d d8ff aa3d
00000110: 8bd5 74be 9a6d ddbd 9387 4cbe 417d 95bd
00000120: c92d 60be 1600 9abe e6a4 b8bd 2e12 92bd
00000130: 7c07 80bd 2823 763e ed0d 0bbe 7579 f13d
00000140: 7fe3 e73c ba30 153d 20aa b1bd 999e bfbd
00000150: ee5e e1bc b35f b73c 4410 47be d127 973b
00000160: 5a0d 9abb db7d a0be 5f4a 26bd a0f0 763c
00000170: 515d f0bd 0dd0 013e c483 293d 0c98 333d
00000180: c80d 6d3e cff6 69bd 3cfb 373e 7e48 c43c
00000190: 204d 07be c0b8 edbd 4c3c debd c4fe 2abd
000001a0: 5fef cebc 5eba 86bc 2c55 b9bc e014 f1bd
000001b0: 0442 1bbe a2dc efbd 6fe6 9dbe 92b3 01be
000001c0: 574c 67be d11c 9cbd f1d2 6ebe 4603 0dbd
000001d0: 8e11 043e 8745 b23d 1fa2 02bd 6c06 a03d
000001e0: 92dc e8bc 9a3d 143b 83b7 ffbc 0bd3 133d
000001f0: 4ff8 41bd d7f2 d0bd 5270 493d 9099 33bc
00000200: d63e 0e3e 9eed f83c beab e23d 6a9f 56bd
00000210: 01e1 13bd 4caa 373d c46c 88bb 5a66 17be
00000220: 8655 7b3d 3beb 8cbd 0398 b3bd 7a9b 32be
00000230: 503e d0bd 8516 583e 25ba 08be 6c5d 2d3c
00000240: bccd 91be 98b0 9d3d c78e bb3d b84c 1fbe
00000250: dcdb 1c3e c57a 243e f60c f0bc 61e9 63be
00000260: 6bb7 9ebc 3c5b 17bd bd50 04be eccb eabd
00000270: 7d83 c0bd 0a37 323e 07e1 d93d 5c76 a2bc
00000280: 4875 9dbd e89a 42be f29a 87bc ed6f 06be
00000290: 5418 73be 3185 fe3d c8b8 e6bd 57a4 c63e
000002a0: 9f8e 883e 5eed 83be d8b8 cdbd c7c6 353e
000002b0: f946 e43c 3149 903e 3aeb 8c3d 2bd0 11be
000002c0: cebc 57be c4d0 0c3d 77c3 84bc a55a 07bd
000002d0: 0d40 27be 57e6 61bd 76f9 11be 23cd e13d
000002e0: 4613 863c 2ae9 aa3d 4f5b c83d 89e4 8b3d
000002f0: 0553 fc3d a23f 83be b5e7 663e 2836 c03d
00000300: 6960 efbc 6725 b13b 23d3 553e 1c15 e9bc
00000310: 6924 90bd c7be 41be 54ee 6ebe 3b12 5c3e
00000320: eada 81bd 2aef a5be 967f 59be c0ec e83c
00000330: 2a61 2d3c e8f2 db3d 3ce8 bcbd 6ae1 8fbe
00000340: 0cab 293d 47f2 fcbd 5125 ac3c 827d 03be
00000350: e771 013f 623e de3c 946c 01be 6dca 28bd
00000360: ae63 043e 396d 7abe a1b1 2cbc deb0 363e
00000370: 6ca9 073e 1178 5cbe d454 6bbe 8866 6e3e
00000380: c66c c43c 0d5b 923d eb73 5c3d 407f ab3b
00000390: 1d78 7c3d 739e b6be 3b57 9e3d a684 3d3d
000003a0: 3245 82bd 469e 60be b75d 78be d4ae 833e
000003b0: 04f8 a13e eac1 08be 2409 0c3e 52e3 46bd
000003c0: bc67 a3bd 12f0 e4bb 2c03 ccbd 6ed8 0dbe
000003d0: bcbc 5cbd 6f86 a4bb 4fdc b6bd 41d6 d2bd
000003e0: 4b94 08be 11c6 753d e7d1 b03d d988 be3b
000003f0: b0b6 9dbe 309e 6bbc 203f e8bc 37b8 1f3e

bias_ih_l0 f4 [128]
-0.1040526 -0.13691871 -0.0016330822 0.03212885 -0.0040865974 0.06886084 0.07452584 -0.10183573
-0.04283191 -0.010886124 -0.17567866 -0.17354318 -0.00266695 0.13583219 -0.20064093 -0.060060147
0.012736884 0.10708292 0.06453825 -0.2161535 0.07721731 -0.042360134 -0.19706501 -0.07049577
0.016125327 0.011652717 0.009223151 -0.08151262 0.09667222 0.07424395 0.09288631 -0.16082317
0.13478175 -0.06579101 -0.10134846 -0.099619366 0.011456129 0.14316098 0.03488417 0.25206226
0.20795944 0.1342324 0.079560645 0.18332557 -0.008891773 0.18340756 0.03983136 -0.046876296
-0.072153576 0.21928164 0.28633568 0.12768106 0.041150622 0.24445732 -0.112679906 0.027972102
-0.023639418 0.068689756 0.06255903 0.2159716 -0.12570263 0.098588414 -0.03290201 -0.08069021
-0.20585224 0.069363266 0.20976332 -0.16332437 0.038987372 -0.0012537945 0.16373049 0.11406337
0.18324545 0.004191721 0.051871505 0.087849095 0.0908251 0.029164508 0.06624375 -0.18518056
-0.16449258 -0.086598866 0.24672332 -0.3637445 0.010332715 -0.22456555 -0.10135148 0.23889737
-0.2467295 -0.0072781676 0.07357489 -0.021760432 -0.1279583 -0.09759357 -0.20683973 0.1312189
-0.046737444 0.2377852 0.1393884 0.09702141 0.21687303 0.23880772 0.34727165 0.075187586
0.005030478 0.18811284 0.03558585 -0.11392839 -0.04249586 0.22254321 0.12699178 0.118148126
0.12809852 -0.043852612 0.24817231 0.059534606 -0.031389985 0.26127037 0.005401215 -0.10655004
0.22127952 0.02108958 0.19554517 -0.010504194 -0.033946224 0.10127564 0.13900115 -0.006702089
00000000: 8819 d5bd 6b34 0cbe 250d d6ba 8b99 033d
00000010: dde8 85bb e906 8d3d 01a1 983d 408f d0bd
00000020: 8370 2fbd b75b 32bc 1be5 33be 4eb5 31be
00000030: ffc7 2ebb 9817 0b3e d174 4dbe a101 76bd
00000040: 5dae 503c 4a4e db3d a12c 843d 5857 5dbe
00000050: 1c24 9e3d d281 2dbd 69cb 49be 1660 90bd
00000060: 4319 843c 0aeb 3e3c b31c 173c 17f0 a6bd
00000070: 16fc c53d 360d 983d 2d3b be3d d4ae 24be
00000080: 3a04 0a3e 70bd 86bd c88f cfbd 3d05 ccbd
00000090: 7db2 3b3c cb98 123e b4e2 0e3d 4e0e 813e
000000a0: 52f3 543e 3874 093e b1f0 a23d b3b9 3b3e
000000b0: cdae 11bc 31cf 3b3e 3526 233d 5c01 40bd
000000c0: 41c5 93bd 5e8b 603e 979a 923e d3be 023e
000000d0: 8e8d 283d 0553 7a3e b9c4 e6bd c025 e53c
000000e0: 74a7 c1bc 37ad 8c3d f31e 803d a927 5d3e
000000f0: 31b8 00be b9e8 c93d 42c4 06bd e940 a5bd
00000100: eeca 52be 540e 8e3d 32cc 563e 813e 27be
00000110: 39b1 1f3d 5d56 a4ba f7a8 273e 0e9a e93d
00000120: b2a4 3b3e b45a 893b 3777 543d 3aea b33d
00000130: 8302 ba3d 68ea ee3c ceaa 873d f99f 3dbe
00000140: be70 28be bf5a b1bd 0aa5 7c3e b83c babe
00000150: 8c4a 293c 83f4 65be 5d91 cfbd 83a1 743e
00000160: a8a6 7cbe b27d eebb 6fae 963d ef42 b2bc
00000170: 8007 03be 23df c7bd cbcd 53be 3f5e 063e
00000180: c36f 3fbd f77d 733e d5bb 0e3e 29b3 c63d
00000190: f713 5e3e 038a 743e 97cd b13e f3fb 993d
000001a0: b5d6 a43b a7a0 403e 78c2 113d 4a53 e9bd
000001b0: 2410 2ebd 5ee2 633e 220a 023e a5f7 f13d
000001c0: 422c 033e cc9e 33bd e220 7e3e 8fda 733d
000001d0: c992 00bd 3bc5 853e adfc b03b e836 dabd
000001e0: 1997 623e 0ec4 ac3c fe3c 483e c819 2cbc
000001f0: 320b 0bbd 9a69 cf3d 5156 0e3e 339d dbbb

bias_hh_l0 f4 [128]
0.12498641 0.12256968 -0.07144566 -0.13680096 0.089947745 0.15654193 -0.17209245 0.0022488283
0.035845175 0.061244693 0.02937853 0.03521033 -0.0021254453 0.14511764 0.028643213 -0.008984923
-0.03831005 0.027960274 -0.025704294 -0.2611157 0.082282074 0.06707463 0.09731971 -0.14397252
-0.09087209 -0.07150622 -0.02653503 -0.1776871 0.12251451 0.0984531 -0.04792841 -0.13185202
0.00057411 0.15522231 0.022575893 0.0047888304 0.021868214 -0.023704994 -0.08822259 -0.037907932
-0.053683456 -0.044463627 -0.0017707406 0.07756992 0.13565262 0.19650003 -0.11661255 -0.1208015
-0.00468718 -0.04081578 0.1413333 -0.05950221 0.033557188 0.16757898 0.032157294 -0.11960182
0.00079561316 0.11359446 -0.02671459 -0.0029844067 0.07274549 -0.09368405 -0.15243882 0.09626229
-0.02656382 0.087305225 0.02105037 -0.1301456 0.11248348 -0.20251559 -0.04046896 0.1133936
-0.07748432 0.2268504 -0.023207257 0.19517754 0.051956266 0.10204689 0.043344848 -0.07840869
-0.07559275 0.084577024 -0.036481053 -0.26569638 0.05729841 -0.18287705 0.030232916 0.17457078
-0.18257533 0.21525769 -0.13062409 -0.005623664 -0.27668202 -0.13625082 0.01818742 -0.048345905
0.21764554 0.21375729 0.038793 -0.16929547 0.043691948 0.25200287 0.27236038 0.14891262
0.048103873 0.20083809 -0.01918383 -0.09315743 -0.0346148 0.081700705 0.1927362 0.22022913
0.2761912 0.014532942 0.026218137 0.044824827 -0.04855727 0.07113896 0.12626494 0.18022946
0.096214525 0.14692257 -0.01612015 0.17489417 0.24157037 0.16846614 0.06382145 0.05800812
00000000: e0f8 ff3d d005 fb3d 1a52 92bd 8d15 0cbe
00000010: 8636 b83d 874c 203e 0139 30be 1461 133b
00000020: 64d2 123d b7db 7a3d 3eab f03c b538 103d
00000030: 0e4b 0bbb b899 143e 2ca5 ea3c 8035 13bc
00000040: 00eb 1cbd f20c e53c d091 d2bc f5b0 85be
00000050: 8183 a83d 6c5e 893d 8e4f c73d 886d 13be
00000060: 251b babd da71 92bd fe5f d9bc 9bf3 35be
00000070: e3e8 fa3d c7a1 c93d 9550 44bd 3704 07be
00000080: df7f 163a 99f2 1e3e 14f1 b83c 9feb 9c3b
00000090: f824 b33c fa30 c2bc 0cae b4bd 5945 1bbd
000000a0: 2fe3 5bbd 7e1f 36bd 3218 e8ba fadc 9e3d
000000b0: 85e8 0a3e 4e37 493e 90d2 eebd c766 f7bd
000000c0: ea96 99bb 732e 27bd adb9 103e 97b8 73bd
000000d0: 4373 093d d399 2b3e 5eb7 033d cdf1 f4bd
000000e0: b290 503a 36a4 e83d 8ed8 dabc 0996 43bb
000000f0: 96fb 943d 6cdd bfbd ec18 1cbe 2a25 c53d
00000100: 5e9c d9bc 15cd b23d d371 ac3c e344 05be
00000110: bd5d e63d 3f60 4fbe c8c2 25bd e73a e83d
00000120: 19b0 9ebd 794b 683e 251d bebc 9fdc 473e
00000130: 18d0 543d f6fd d03d 5e8a 313d bc94 a0bd
00000140: 5fd0 9abd b836 ad3d 286d 15bd 5b09 88be
00000150: bdb1 6a3d 1f44 3bbe 05ab f73c afc2 323e
00000160: 07f5 3abe 836c 5c3e 52c2 05be b646 b8bb
00000170: 44a9 8dbe 5685 0bbe c9fd 943c 5b06 46bd
00000180: 79de 5e3e 31e3 5a3e 69e5 1e3d cb5b 2dbe
00000190: 54f6 323d 8506 813e d272 8b3e 8d7c 183e
000001a0: 9108 453d 80a8 4d3e 6827 9dbc 53c9 bebd
000001b0: 40c8 0dbd b352 a73d a35c 453e bf83 613e
000001c0: ef68 8d3e 941b 6e3c 6bc7 d63c 3d9a 373d
000001d0: fde3 46bd 4eb1 913d 994b 013e 128e 383e
000001e0: 1f0c c53d df72 163e 680e 84bc 7517 333e
000001f0: 395e 773e 6382 2c3e d2b4 823d ec99 6d3d

weight_ih_l0_reverse f4 [128, 2]
-0.101523906 -0.18067585 0.38628218 -0.26035324 -0.2368063 -0.48691624 0.24808453 -0.3210823
-0.2608639 -0.2237324 0.32758534 -0.8504901 0.025625542 0.16577937 0.21801414 -0.26121905
-0.19977199 -0.7215151 -0.18153693 0.51381487 -0.29555592 0.042947542 0.83708835 0.08604107
-0.13257617 -0.018155286 -0.21450196 0.06884336 0.18114348 -0.15734318 0.6251987 0.43349978
0.043047722 -0.21220227 0.084944054 0.33987835 -0.10399976 -0.22393116 -0.19788991 0.20799404
-0.38120785 0.19691923 -0.292265 0.748922 -0.58953804 0.16362275 0.30399024 -0.078427084
-0.32788026 0.56004393 -0.6688526 -0.6164611 -0.0476129 0.3640411 -0.19842318 0.5572821
0.46248713 0.041469283 -0.1163671 0.34107992 -0.14424038 0.18184859 0.13734184 -0.31383422
-0.41649508 0.12817475 0.3600819 -0.36287108 -0.117080085 -0.29903242 -0.083253086 -0.43238947
-0.15364997 -0.16472058 0.37339297 -0.22993593 -0.19135867 0.30223048 0.21089652 -0.11387547
0.013681879 -0.21664253 0.011894604 -0.023240656 -0.10566363 -0.08373003 0.28025398 -0.0626026
0.030540787 0.13999982 -0.026790202 0.10973816 0.19288753 -0.22361729 0.43376493 0.3235321
0.030988159 -0.35196322 0.045218855 0.3617921 -0.019125873 -0.07209545 -0.15699938 0.05657179
-0.21730548 0.20439298 -0.28008267 0.36673403 -0.10067066 -0.07025535 0.010933234 -0.18123706
-0.084577166 0.15750353 -0.1749337 -0.26012334 0.042501748 0.12966052 -0.14795408 0.32002127
0.006838974 0.049778234 0.11270485 0.13635705 -0.09861267 0.10431213 0.17647383 -0.33111984
-0.30368665 0.05892868 -0.032587763 0.5139347 0.06777345 0.18995944 -0.14218013 -0.06438941
0.32768437 0.7492446 0.41516763 -0.41080967 -0.06076444 -0.36923262 -0.6549621 0.6897223
0.0082863625 -0.24430624 -0.27338582 0.85331166 0.2888467 -0.065401286 0.92963016 -0.025913302
0.19291931 -0.007815518 0.24569362 0.370074 0.008174118 -0.26120546 0.27897975 0.28874445
0.13290057 -0.0011566465 0.23543929 0.8077728 0.090766154 -0.46403667 -0.74314785 0.34270313
-0.44629422 0.07858137 0.23980759 -0.4730995 -0.53244555 0.1616112 0.0047282274 0.10436088
-0.36219993 0.55476874 0.60620576 0.72388 -0.08118969 -0.49968502 -0.02970781 -0.24488041
-0.8154052 0.2453617 0.37765524 -0.1784702 0.1088756 -0.14172536 0.2363421 -0.39276254
-0.038373884 0.08264861 0.31040528 -0.4406777 -0.22870792 -0.4275131 -0.29542312 -0.0969826
-0.14691302 0.0049515376 0.3359611 -0.36596966 -0.25842023 0.087256 0.29023272 -0.23321462
-0.30582237 -0.4583123 -0.1428883 0.1145012 0.2766634 0.20880578 0.58636934 0.06234642
0.29531 -0.6435253 -0.16017175 -0.066905096 0.23122816 -0.29732794 0.22385246 0.0459487
0.02329456 0.20370473 0.40467992 0.09953208 -0.040531456 -0.42165834 -0.27616557 0.21935473
-0.3296788 -0.2822173 -0.42884836 1.1602831 -0.222407 -0.007271516 -0.1243704 -0.10317039
-0.27499896 0.6849225 -0.18781602 -0.5682099 0.055946335 0.77664435 -0.21476327 0.48535597
0.55363274 -0.03792818 -0.042281978 0.021410497 -0.2924862 0.3358153 0.17331983 -0.42271656
00000000: c4eb cfbd 1703 39be c7c6 c53e 054d 85be
00000010: 5a7d 72be 164d f9be df09 7e3e e664 a4be
00000020: f48f 85be 1b1a 65be 44b9 a73e b8b9 59bf
00000030: a8ec d13c 11c2 293e 193f 5f3e 81be 85be
00000040: 0791 4cbe 37b5 38bf d1e4 39be 5f89 033f
00000050: 1b53 97be c3e9 2f3d 6c4b 563f 4d36 b03d
00000060: 0cc2 07be 65ba 94bc 67a6 5bbe bffd 8c3d
00000070: ad7d 393e 921e 21be 060d 203f aff3 dd3e
00000080: cf52 303d 8d4b 59be 26f7 ad3d 8904 ae3e
00000090: d3fd d4bd 364e 65be a7a3 4abe 64fc 543e
000000a0: ad2d c3be 32a5 493e c2a3 95be 5ab9 3f3f
000000b0: f7eb 16bf b98c 273e 9ca4 9b3e 619e a0bd
000000c0: ecdf a7be 0a5f 0f3f ed39 2bbf 65d0 1dbf
000000d0: bf05 43bd 9863 ba3e 722f 4bbe 0aaa 0e3f
000000e0: 1dcb ec3e b2db 293d e051 eebd 07a2 ae3e
000000f0: c0b3 13be 8436 3a3e 57a3 0c3e e1ae a0be
00000100: d83e d5be 3e40 033e a85c b83e 3dca b9be
00000110: afc7 efbd c71a 99be 9880 aabd 2762 ddbe
00000120: 6b56 1dbe 83ac 28be 5d2d bf3e 5374 6bbe
00000130: 87f3 43be f4bd 9a3e 42f5 573e 8b37 e9bd
00000140: f629 603c 8ad7 5dbe 96e1 423c 3063 bebc
00000150: 2c66 d8bd a67a abbd 737d 8f3e cb35 80bd
00000160: ac30 fa3c 1d5c 0f3e 2077 dbbc 67be e03d
00000170: 4f84 453e eefb 64be 7016 de3e 00a6 a53e
00000180: e1da fd3c 8634 b4be 6837 393d d03c b93e
00000190: ddad 9cbc c7a6 93bd 72c4 20be d2b7 673d
000001a0: 5485 5ebe 654c 513e ff66 8fbe 90c4 bb3e
000001b0: 6b2c cebd 09e2 8fbd 4f21 333c 3596 39be
000001c0: cb36 adbd 9b48 213e d221 33be e32e 85be
000001d0: 5016 2e3d bac5 043e 4681 17be d4d9 a33e
000001e0: 7919 e03b 43e4 4b3d cdd1 e63d 2fa1 0b3e
000001f0: 71f5 c9bd 99a1 d53d 8eb5 343e 8a88 a9be
00000200: d17c 9bbe 335f 713d bf7a 05bd 3991 033f
00000210: cecc 8a3d ba84 423e ab97 11be 98de 83bd
00000220: 3fc6 a73e 7ece 3f3f da90 d43e a555 d2be
00000230: 22e4 78bd 0f0c bdbe 99ab 27bf a491 303f
00000240: 86c3 073c 6a2b 7abe 3af9 8bbe a272 5a3f
00000250: b7e3 933e 1cf1 85bd 3efc 6d3f 2248 d4bc
00000260: a48c 453e a90c 00bc 1c97 7b3e 577a bd3e
00000270: bcec 053c b9bc 85be 6fd6 8e3e 50d6 933e
00000280: 1617 083e 9e9a 97ba ff16 713e 33ca 4e3f
00000290: 9be3 b93d 3796 edbe f03e 3ebf c976 af3e
000002a0: ad80 e4be 45ef a03d 1f90 753e 193a f2be
000002b0: 5a4e 08bf 687d 253e 3fef 9a3b 28bb d53d
000002c0: 4572 b9be 5305 0e3f 4d30 1b3f 3350 393f
000002d0: c846 a6bd b7d6 ffbe cb5d f3bc eec1 7abe
000002e0: 65be 50bf 1940 7b3e 075c c13e e4c0 36be
000002f0: 2cfa de3d 7420 11be aa03 723e 2c18 c9be
00000300: ef2d 1dbd ad43 a93d 71ed 9e3e 82a0 e1be
00000310: 6932 6abe ffe2 dabe b341 97be d09e c6bd
00000320: 5e70 16be 8240 a23b 1803 ac3e 6060 bbbe
00000330: a84f 84be 46b3 b23d 6299 943e d0cf 6ebe
00000340: c094 9cbe e9a7 eabe 4f51 12be 9b7f ea3d
00000350: d3a6 8d3e 2fd1 553e 4d1c 163f f65e 7f3d
00000360: df32 973e 13be 24bf 1004 24be 8a05 89bd
00000370: 13c7 6c3e 5e3b 98be 9439 653e b434 3c3d
00000380: 3cd4 be3c f997 503e 3532 cf3e 7ad7 cb3d
00000390: 5004 26bd 9ae3 d7be 9365 8dbe 879e 603e
000003a0: a9cb a8be c97e 90be 0392 dbbe 2884 943f
000003b0: a9be 63be e645 eebb e9b5 febd ff4a d3bd
000003c0: aacc 8cbe 1557 2f3f d852 40be 3476 11bf
000003d0: fc27 653d 2ad2 463f e7ea 5bbe 9480 f83e
000003e0: e0ba 0d3f 945a 1bbd de2f 2dbd 1165 af3c
000003f0: c0c0 95be fcef ab3e c17a 313e 4e6e d8be

weight_hh_l0_reverse f4 [128, 32]
0.17321222 -0.08310177 -0.20053183 0.27884594 0.11013142 0.09699656 -0.11391461 -0.13981053
0.18937513 0.25269672 -0.042182468 -0.030414807 0.17539938 0.32534292 0.035340924 -0.038880505
-0.25941807 -0.03826718 0.09563401 -0.088201895 0.124011755 0.08483116 -0.00016959659 -0.5458878
0.025339624 0.1373134 0.042241987 -0.22040965 -0.07092406 0.38580614 -0.3929268 0.13574138
-0.037589695 0.038375072 -0.24610077 0.5369665 -0.20690407 0.11627387 0.30085 -0.33754256
0.3762367 0.05802012 -0.049333204 -0.057564378 0.021539843 0.04768813 0.22305001 0.018052101
-0.30600083 -0.1626804 0.38333407 -0.87907815 -0.24368963 0.15725903 -0.33345103 -0.37035564
-0.2948272 -0.036936764 0.08806227 -0.15765268 -0.11809657 0.12963569 -0.002952235 0.23898242
0.16419429 -0.29654154 -0.10090045 0.029223533 0.09620572 0.11324767 0.23421073 -0.18845968
0.085489646 -0.30714273 -0.008417161 0.033034302 0.12742534 -0.12665954 0.1108995 -0.05601551
-0.24934365 0.03305296 -0.06331679 0.042629186 -0.08215122 -0.07528001 0.15596506 -0.3038851
-0.18425865 0.20290071 0.10271007 0.13447307 0.15255716 0.07912922 -0.044133224 -0.22756015
0.032788727 -0.3321034 -0.1893996 0.09053324 -0.06811311 -0.07198583 0.30207157 -0.1609203
0.032866396 -0.17109166 -0.12633751 0.121463336 0.15001929 0.008329793 0.38408425 -0.11706613
-0.25441292 -0.23271652 0.16396378 -0.054004204 -0.089239895 0.2150139 -0.24323241 -0.16208573
-0.24642879 0.07528062 0.4171797 -0.03445346 0.005396023 0.025843635 0.11754806 0.20318761
0.24249648 -0.118215285 -0.020047372 0.11345769 -0.22456348 -0.108240254 0.26596832 -0.032806262
0.12906826 -0.16626313 0.029557817 -0.24641216 -0.40842938 -0.23154715 -0.033960246 -0.4874428
-0.15194567 -0.34239322 -0.073392026 -0.1666928 -0.10099473 0.34109494 -0.08033143 0.11560622
-0.39986062 0.17176913 -0.031655278 0.6317221 0.29123315 -0.19011864 -0.026669892 -0.39882386
0.039806563 -0.32943428 0.07117041 0.17060314 -0.017475218 0.45188978 0.16691354 -0.7775295
-0.043168537 -0.531426 0.1864341 -0.115985304 -0.12461075 0.3015644 0.12065321 -0.048853975
-0.36109543 -0.5539309 0.0057621254 -0.8705436 -0.19596475 0.2548571 -0.54008275 -0.05239858
-0.13789596 0.24281643 0.0616813 -0.0786583 -0.29354563 0.2167366 0.11027978 -0.06505731
0.34291682 0.1977679 0.035240106 -0.19943567 -0.30705616 -0.34049234 -0.014461701 -0.1471087
-0.056212023 -0.076538034 0.08510857 0.09828165 -0.178455 0.042045496 -0.2089913 0.042402495
-0.014022651 0.023694396 -0.07214513 0.13134004 0.15502827 0.16387688 0.19647023 0.14922339
-0.014354459 -0.0669969 -0.005240444 -0.13005467 0.07199744 -0.10872131 -0.1851137 -0.019199912
0.39823073 -0.21920006 0.13995796 0.08042198 -0.20603992 -0.0032219635 -0.5192708 -0.34053665
0.2091548 -0.6066114 0.099683866 -0.09520044 -0.2857677 0.24739368 -0.25488356 -0.18808855
0.04840576 0.17661862 -0.33935094 -0.21299471 -0.26204896 -0.10124269 0.09357445 -0.026191901
0.21287309 -0.14768596 -0.08222315 0.41606945 0.06842117 -0.12405986 0.18274045 -0.1929001
00000000: 8b5e 313e 4331 aabd 3758 4dbe e5c4 8e3e
00000010: 958c e13d 22a6 c63d 104c e9bd 7e2a 0fbe
00000020: 8eeb 413e 7761 813e 86c7 2cbd 7928 f9bc
00000030: e59b 333e 5993 a63e a5c1 103d 2a41 1fbd
00000040: 72d2 84be 0cbe 1cbd c4db c33d 32a3 b4bd
00000050: e0f9 fd3d f6bb ad3d bdd5 31b9 4ebf 0bbf
00000060: 0b95 cf3c e29b 0c3e ef05 2d3d 11b3 61be
00000070: a240 91bd 6288 c53e b42d c9be caff 0a3e
00000080: a7f7 19bd 2e2f 1d3d d701 7cbe a376 093f
00000090: a9de 53be ff20 ee3d 0309 9a3e 61d2 acbe
000000a0: 19a2 c03e 81a6 6d3d 9d11 4abd a0c8 6bbd
000000b0: 5374 b03c a154 433d 3967 643e 00e2 933c
000000c0: 24ac 9cbe b195 26be 5d44 c43e 440b 61bf
000000d0: c689 79be 8308 213e 18ba aabe 419f bdbe
000000e0: 97f3 96be 014b 17bd fe59 b43d b46f 21be
000000f0: 9ddc f1bd 38bf 043e 497a 41bb cfb7 743e
00000100: 8c22 283e 4bd4 97be e5a4 cebd 3166 ef3c
00000110: 8107 c53d 65ee e73d f0d4 6f3e 93fb 40be
00000120: 3215 af3d d041 9dbe 22e8 09bc fa4e 073d
00000130: ca7b 023e 0ab3 01be 471f e33d 8570 65bd
00000140: f153 7fbe 8a62 073d 3cac 81bd f19b 2e3d
00000150: e63e a8bd 682c 9abd 4eb5 1f3e d496 9bbe
00000160: 4dae 3cbe 34c5 4f3e a859 d23d 4fb3 093e
00000170: f237 1c3e 800e a23d 0ac5 34bd 8705 69be
00000180: 794d 063d 7509 aabe f8f1 41be 7e69 b93d
00000190: e37e 8bbd 4f6d 93bd 20a9 9a3e 4bc8 24be
000001a0: ea9e 063d a732 2fbe 9f5e 01be c5c1 f83d
000001b0: a89e 193e af79 083c b1a6 c43e 5ec0 efbd
000001c0: 6942 82be 3d4d 6ebe 1fe6 273e 8333 5dbd
000001d0: 68c3 b6bd 9b2c 5c3e eb11 79be cdf9 25be
000001e0: d457 7cbe ba2c 9a3d 9498 d53e 121f 0dbd
000001f0: 1fd1 b03b 08b6 d33c 0abd f03d 6a10 503e
00000200: ff50 783e db1a f2bd 633a a4bc 815c e83d
00000210: f8f3 65be 11ad ddbd 002d 883e dc5f 06bd
00000220: 782a 043e e240 2abe 3c23 f23c 7853 7cbe
00000230: a81d d1be b21a 6dbe e619 0bbd 1a92 f9be
00000240: a597 1bbe 2a4e afbe 8f4e 96bd 84b1 2abe
00000250: 53d6 cebd ffa3 ae3e ce84 a4bd f4c2 ec3d
00000260: 88ba ccbe 3fe4 2f3e f7a8 01bd 8ab8 213f
00000270: 831c 953e 76ae 42be d17a dabc a432 ccbe
00000280: 350c 233d 9cab a8be cbc1 913d 97b2 2e3e
00000290: 3028 8fbc 195e e73e 62eb 2a3e 2c0c 47bf
000002a0: 7ed1 30bd 890b 08bf 95e8 3e3e b489 edbd
000002b0: ec33 ffbd a666 9a3e 0819 f73d 1b1b 48bd
000002c0: 80e1 b8be 6ace 0dbf 36d0 bc3b f2db 5ebf
000002d0: fcaa 48be a17c 823e dd42 0abf e59f 56bd
000002e0: 9934 0dbe dfa4 783e 88a5 7c3d 9a17 a1bd
000002f0: 9d4b 96be 33f0 5d3e 5eda e13d c43c 85bd
00000300: cb92 af3e ab83 4a3e ee57 103d dd38 4cbe
00000310: 7736 9dbe 0355 aebe c5f0 6cbc aaa3 16be
00000320: 943e 66bd f9bf 9cbd 674d ae3d e447 c93d
00000330: e8bc 36be e637 2c3d d101 56be 3dae 2d3d
00000340: 43bf 65bc c01a c23c d3c0 93bd 017e 063e
00000350: bbbf 1e3e 57cf 273e 7e2f 493e 04ce 183e
00000360: f72e 6bbc ac35 89bd 08b8 abbb 0d2d 05be
00000370: 6573 933d 47a9 debd 728e 3dbe 2249 9dbc
00000380: e6e4 cb3e fb75 60be 2451 0f3e 47b4 a43d
00000390: 21fc 52be 9427 53bb eeee 04bf d25a aebe
000003a0: ad2c 563e e24a 1bbf 0e27 cc3d 73f8 c2bd
000003b0: 2550 92be c554 7d3e 1980 82be 499a 40be
000003c0: 1e45 463d 83db 343e 68bf adbe 491b 5abe
000003d0: 482b 86be 5458 cfbd f6a3 bf3d 6690 d6bc
000003e0: 67fb 593e fd3a 17be 9c64 a8bd 0e07 d53e
000003f0: 6620 8c3d 1913 febd 5020 3b3e 9b87 45be
