TS-CVAE/experiments/pedestrians/models/eth/models_04_Jun_2021_13_35_51_eth_ar3/model_registrar-85.pt (torch_old, 545378 bytes, 43 tensors)

weight_ih_l0 f4 [128, 6]
0	0xbcdc2896	-0.026874822
1	0xb8c03fb0	-9.167136e-05
2	0xbe1ab50f	-0.15108131
3	0xbd77579b	-0.06038628
4	0xbde8abcc	-0.11360893
5	0x3d986e8d	0.07442961
6	0xbdc8ba7a	-0.098011926
7	0xbe534659	-0.20632304
8	0xbd19dd2d	-0.037564445
9	0x3e4febcf	0.20304798
10	0xbce499cf	-0.027905373
11	0x3e25629a	0.16150895
12	0x3e3833ad	0.17988463
13	0x3d9cebcb	0.076621614
14	0xbe532bcc	-0.20622176
15	0xbe1a2ea0	-0.15056849
16	0xbe5965b1	-0.21230198
17	0x3dacf294	0.084447056
18	0xbdd2c586	-0.10291581
19	0x3da1cadd	0.07900021
20	0x3e4755f6	0.19466385
21	0x3e04085e	0.12893817
22	0xbe2b305c	-0.16717666
23	0x3d7510de	0.05983054
24	0xbd2eff7a	-0.04272411
25	0xbe0cf19e	-0.13764045
26	0xbd769731	-0.06020278
27	0x3ee64f7f	0.44982526
28	0xbe0e623d	-0.13904662
29	0xbe865a77	-0.26240894
30	0x3e74b725	0.23897989
31	0xbde3d6b8	-0.11124939
32	0x3cad3033	0.021141147
33	0x3e9635b2	0.2933784
34	0xbbac92ab	-0.0052665076
35	0xbe3fab95	-0.18717797
36	0xbe7c66eb	-0.24648635
37	0xbd83ca24	-0.0643504
38	0xbd6fe4cd	-0.05856781
39	0x3d7cb699	0.061697576
40	0xbe91ba31	-0.28462365
41	0xbed9e073	-0.42554054
42	0xbd2ae287	-0.04171994
43	0x3e6c24e6	0.2306095
44	0x3dc5a766	0.09651069
45	0xbd38aeac	-0.045088455
46	0xbe3e9357	-0.18610893
47	0x3e2bd92f	0.16782068
48	0x3ece207a	0.40259153
49	0x3d1df0d3	0.038559746
50	0x3e36fafd	0.17869182
51	0x3d294848	0.0413287
52	0xbe7924dd	-0.24330468
53	0xbe0d46a9	-0.13796486
54	0xbed3bd9b	-0.41355595
55	0xbe832532	-0.25614315
56	0x3e05e99a	0.13077393
57	0x3e7ee86a	0.24893346
58	0xbd09486a	-0.033516325
59	0xbd91c0fa	-0.071168855
60	0x3eebdf18	0.46068645
61	0xbe2426ee	-0.16030475
62	0xbef99454	-0.48745978
63	0x3e291bdf	0.16514538
64	0xbe8b4595	-0.27201524
65	0x3e98bcd7	0.29831573
66	0xbe5aa671	-0.21352555
67	0xbdc1c772	-0.09461869
68	0x3d9553bf	0.07291364
69	0x3e1d05b1	0.15334202
70	0x3e019ebd	0.1265821
71	0x3e13ad22	0.14421514
72	0xbde97be4	-0.114005834
73	0xbdf40046	-0.11914115
74	0x3d5e9974	0.054345563
75	0xbdab0d4a	-0.08352144
76	0xbd77b4a5	-0.06047501
77	0xbe321661	-0.1739135
78	0x3c9b0a48	0.0189258
79	0x3e54a45a	0.2076582
80	0x3d6b4810	0.05744177
81	0xbd811af0	-0.06303966
82	0xbd095af9	-0.033534024
83	0x3dd1ec9f	0.1025021
84	0xbe4ff581	-0.20308496
85	0xbdb408c8	-0.087907374
86	0xbeab81e7	-0.33497545
87	0x3df5f382	0.12009336
88	0x3f3988fd	0.7247465
89	0xbd3722c5	-0.044710893
90	0xbe31550a	-0.17317596
91	0x3e0c25f6	0.13686356
92	0x3e539b2d	0.20664664
93	0x3d97e050	0.07415831
94	0xbd1094ef	-0.035298284
95	0x3e053a38	0.1301049
96	0xbd9faca7	-0.07796603
97	0x3e856f2d	0.26061383
98	0x3eae3d28	0.34031034
99	0xbdc7ae82	-0.097500816
100	0xbe45a1ad	-0.19299956
101	0xbeddf4ba	-0.43350774
102	0x3d2b71f9	0.04185674
103	0xbddd1531	-0.107950576
104	0xbd9797f7	-0.07402032
105	0xbdbc2531	-0.09186781
106	0x3d25c2d0	0.04046899
107	0x3e1511ef	0.14557622
108	0x3df3d318	0.11905497
109	0xbd5723e4	-0.052524462
110	0x3dbc1c8c	0.091851324
111	0xbd94f2fd	-0.07272909
112	0x3e8d6120	0.27613163
113	0x3ececb25	0.40389362
114	0xbe509cf9	-0.2037238
115	0xbe38283b	-0.17984097
116	0xbb86fa87	-0.0041192207
117	0x3eafede3	0.3436118
118	0x3d290820	0.041267514
119	0x3e0e70ed	0.13910265
120	0xbe444e63	-0.19170527
121	0x3e079c10	0.13243127
122	0x3da8ebb2	0.0824808
123	0xbe8b0a14	-0.27156126
124	0xbd89b1a6	-0.06723337
125	0x3d2ca71b	0.04215155
126	0x3e079c87	0.13243304
127	0x3eefc50b	0.4683002
128	0xbe55a23d	-0.2086267
129	0xbe9ff5a9	-0.3124211
130	0x3dfa1f78	0.122130334
131	0x3ea6a493	0.32547435
132	0xbd4f4e7d	-0.05061196
133	0xbe5db898	-0.21652448
134	0x3cf79b09	0.030225294
135	0x3e18a368	0.14906085
136	0xbd9d14b4	-0.076699644
137	0xbe25c552	-0.16188553
138	0x3ab160f1	0.0013532919
139	0xbd6a6181	-0.057221893
140	0x3df6da15	0.120533146
141	0xbd9689ff	-0.073505394
142	0x3cdbcd97	0.026831431
143	0xbe2b2747	-0.16714202
144	0x3cc03c58	0.023466274
145	0xbdbf4f53	-0.09341302
146	0xbde8ab61	-0.11360813
147	0x3d95b919	0.07310695
148	0xbec332d4	-0.38124716
149	0xbdcb2fa8	-0.09921199
150	0xbd719869	-0.05898324
151	0x3bf59dea	0.0074956315
152	0xbe006f2e	-0.12542412
153	0x3d875fc2	0.06610061
154	0xbe7fc4c5	-0.24977405
155	0x3da7f360	0.08200717
156	0x3e70cdb4	0.2351597
157	0xbee739ec	-0.45161378
158	0xbe9ec776	-0.31011552
159	0x3efbabf5	0.4915463
160	0x3e048ceb	0.12944381
161	0x3e4abaa8	0.19797766
162	0x3d1b00b8	0.037842482
163	0x3e955752	0.29168183
164	0x3eb75ac6	0.35811442
165	0x3e6cd2b6	0.23127255
166	0x3deffa42	0.11717655
167	0x3e9ce659	0.3064449
168	0xbe738561	-0.23781349
169	0x3d6fc3ee	0.058536462
170	0xbd792ad6	-0.060831867
171	0x3d0af04b	0.033920567
172	0x3dde2b95	0.10848156
173	0x3e41e957	0.18936668
174	0xbe21d0c5	-0.15802296
175	0xbe387977	-0.18015085
176	0xbdf378ab	-0.1188825
177	0xbca25c22	-0.019819323
178	0xbd785ec9	-0.06063727
179	0x3e1d18c3	0.15341477
180	0xbd7accdf	-0.061230537
181	0xbe0d9c76	-0.13829216
182	0x3e5e810c	0.21728915
183	0x3d299627	0.041402962
184	0xbde09117	-0.10965174
185	0x3b5e41aa	0.003391365
186	0xbd093b06	-0.033503555
187	0x3ddb4d49	0.107081
188	0x3e65f7d0	0.22457814
189	0xbe20e5e1	-0.15712692
190	0xbe781297	-0.24225841
191	0x3d3be438	0.045871943
192	0x3d4c8a28	0.049936444
193	0x3e182924	0.14859444
194	0xbdb49e0b	-0.08819207
195	0xbe59d984	-0.21274382
196	0x3af718a4	0.0018851948
197	0xbe364f0f	-0.17803596
198	0x3e3836c5	0.17989643
199	0xbc613b42	-0.013747038
200	0xbc75f105	-0.015011077
201	0x3d484aa2	0.0488993
202	0x3d8c4fcc	0.068511575
203	0xbe4b996e	-0.19882748
204	0xbdf4d4cf	-0.119546525
205	0x3d9eec7b	0.07759949
206	0xbdbf0e36	-0.093288824
207	0xbbc56ef2	-0.0060251886
208	0xbdc6a57f	-0.096995346
209	0xbe1245f2	-0.14284495
210	0xbb5f7243	-0.0034095205
211	0x3da91127	0.08255225
212	0x3cd819b5	0.026379446
213	0xbda33c84	-0.07970527
214	0xbdaf6547	-0.08564239
215	0xbe8192d6	-0.2530734
216	0x3c834305	0.016023168
217	0xbe84bcc7	-0.25925276
218	0x3cbcb38d	0.023034835
219	0x3e91555b	0.28385434
220	0xbe83d31a	-0.25746995
221	0xbe058f3e	-0.13042924
222	0x3eadc626	0.33940238
223	0xbdb70e9c	-0.089383334
224	0xbd8dc2d9	-0.0692193
225	0xbe15e319	-0.14637412
226	0xbe26d76a	-0.16293111
227	0x3e55236e	0.20814297
228	0xbd7c954a	-0.06166581
229	0x3cb94a41	0.022618415
230	0x3d5850ed	0.05281155
231	0x3d7d1cb1	0.06179494
232	0x3ddd9fc3	0.10821488
233	0x3ccf7af2	0.02532718
234	0xbdce92e4	-0.10086611
235	0xbcabc148	-0.020966187
236	0x3e33f5e2	0.17574266
237	0xbd610e12	-0.05494506
238	0xbd9fdb42	-0.07805492
239	0x3d8b03f5	0.06787864
240	0x3eb535b4	0.35392535
241	0x3cc50407	0.024049772
242	0x3e30d010	0.1726687
243	0xbdce2afd	-0.10066793
244	0xbf1aed94	-0.60518765
245	0x3eafceb9	0.34337404
246	0xbe37f7e3	-0.17965655
247	0xbd892736	-0.06696932
248	0x3e0d77f7	0.13815294
249	0x3e735798	0.23763883
250	0x3e639fd6	0.22228941
251	0x3d3caa4f	0.046060856
252	0x3ec20671	0.3789554
253	0xbd89bcbb	-0.067254506
254	0xbe35e260	-0.17762136
255	0x3dddce53	0.10830369

weight_hh_l0 f4 [128, 32]
0	0xb86f847b	-5.7105422e-05
1	0xbe3be918	-0.18350637
2	0x3e53acd5	0.20671399
3	0x3d6d3d5e	0.057919852
4	0x3de8073b	0.11329504
5	0x3e4987b2	0.1968067
6	0xbe3641a9	-0.17798485
7	0xbd9f83b0	-0.07788789
8	0x3eb44abe	0.35213274
9	0x3eafda1d	0.34346095
10	0xbe879000	-0.2647705
11	0x3ee0f448	0.43936372
12	0xbe4e225e	-0.20130298
13	0x3df915d8	0.121623695
14	0xbd93e219	-0.07220859
15	0x3e06059f	0.13088082
16	0xbe4026b4	-0.18764764
17	0xbcdccf24	-0.026954241
18	0x3e78d687	0.24300586
19	0xbed5387d	-0.4164466
20	0xbe4f543d	-0.20246978
21	0x3e2e60c7	0.17029105
22	0xbd4a3fb2	-0.04937715
23	0xbeccf264	-0.4002868
24	0x3e0e1ddd	0.1387858
25	0xbe3655d9	-0.17806186
26	0x3eeb37be	0.45940965
27	0xbc9121fc	-0.0177164
28	0xbec26067	-0.37964174
29	0x3d10c6bd	0.03534578
30	0x3d2dbeef	0.042418417
31	0xbe523e65	-0.20531614
32	0x3e28ad42	0.16472343
33	0xbe969afc	-0.2941512
34	0x3e9022a7	0.28151438
35	0x3b361599	0.002778387
36	0x3e8d0b2a	0.2754758
37	0x3e9c21c8	0.30494523
38	0x3d7f8508	0.062382728
39	0xbda10de6	-0.07863979
40	0x3eb55827	0.35418817
41	0x3d697eb8	0.057005614
42	0xbec141b6	-0.37745446
43	0x3cc12dc7	0.023581399
44	0xbeab69fe	-0.33479303
45	0x3e2f6138	0.1712693
46	0x3df04e91	0.11733735
47	0x3baf0dc5	0.0053422176
48	0xbde9850f	-0.11402332
49	0x3e6a68f3	0.22891597
50	0x3e19bb77	0.15012918
51	0xbe42a1e6	-0.19007072
52	0xbd7ae295	-0.06125124
53	0x3e82b35f	0.25527474
54	0xbe9fa242	-0.3117848
55	0xbe7fda7f	-0.24985693
56	0x3d106c00	0.035259247
57	0xbe61ce19	-0.22051276
58	0x3d1e996a	0.038720526
59	0xbeb6a2f8	-0.3567121
60	0xbeb39703	-0.3507615
61	0x3d5ff5f7	0.05467793
62	0x3e0f34c8	0.13984978
63	0xbe0f3e73	-0.13988666
64	0x3dfbb5e4	0.12290552
65	0xbe0ce410	-0.13758874
66	0xbdb44878	-0.08802885
67	0x3e26f4a8	0.16304266
68	0x3dbad7ad	0.09123168
69	0x3e398b25	0.18119486
70	0xbe9b2b92	-0.3030668
71	0xbe87299f	-0.26398942
72	0x3d5475ad	0.051870037
73	0x3dea07db	0.114272796
74	0xbea3fce8	-0.3202889
75	0x3e0c2b54	0.13688403
76	0xbc771b22	-0.015082153
77	0xbe376cb7	-0.17912565
78	0x3e3db97c	0.18527788
79	0xbe882701	-0.26592258
80	0x3d86b7a3	0.06577995
81	0xbdf86908	-0.12129408
82	0x3dfd42c4	0.1236625
83	0xbd24a8ae	-0.040199928
84	0x3aef643f	0.0018264129
85	0x3d39bbe9	0.04534522
86	0x3e23b22a	0.15985933
87	0x3e282219	0.16419257
88	0x3ea1ea67	0.31624147
89	0x3d2d14d4	0.04225619
90	0x3e3e9402	0.18611148
91	0x3e00e3a7	0.12586842
92	0x3de03c9f	0.109490626
93	0x3d30087d	0.042976845
94	0xbe4eaa46	-0.20182142
95	0xbc13addb	-0.009013618
96	0x3e1d3a02	0.1535416
97	0xbd82d12f	-0.06387555
98	0x3e730534	0.23732454
99	0x3e8adb36	0.2712037
100	0xbd633c2b	-0.055477303
101	0x3e256c19	0.16154517
102	0xbe775fd6	-0.24157652
103	0x3d6b5eb0	0.057463348
104	0x3dd3d278	0.10342878
105	0x3e773438	0.24141014
106	0xbec0b105	-0.37635055
107	0x3e132f70	0.14373565
108	0xbea6822b	-0.32521185
109	0xbe9a846d	-0.30179158
110	0xbe781e91	-0.2423041
111	0xbe290521	-0.16505863
112	0xbe8c42ca	-0.27394706
113	0x3e3a6aa2	0.1820474
114	0x3e139793	0.1441329
115	0xbe68e417	-0.2274326
116	0xbde113cc	-0.10990104
117	0x3ea004bd	0.31253615
118	0x3d59d5d9	0.053182457
119	0xbe408690	-0.18801332
120	0x3e66dd5f	0.22545384
121	0xbe754a30	-0.23954082
122	0x3cb2ee5d	0.021842176
123	0xbda674b2	-0.081277266
124	0xbeac221a	-0.33619767
125	0x3e1118b3	0.14169578
126	0x3e104b1f	0.14091156
127	0xbe2c8d0a	-0.16850677
128	0xbd84ab4f	-0.06477987
129	0xbea7c35e	-0.3276624
130	0x3ef3b042	0.47595412
131	0xbe8ed5b4	-0.27897418
132	0x3eadc310	0.33937883
133	0x3da23fba	0.07922311
134	0x3b64bbd6	0.0034901998
135	0x3c6385d1	0.013886885
136	0x3f616629	0.8804651
137	0x3d1ca35e	0.038241737
138	0xbec58f63	-0.38585958
139	0x3e86dfe0	0.26342678
140	0xbd0a6189	-0.033784423
141	0x3d474a81	0.048655037
142	0xbf3ab13b	-0.7292668
143	0x3c0e7d3f	0.008696853
144	0xbe94ef00	-0.29088593
145	0xbc2089b9	-0.009798461
146	0x3f7f235f	0.99663347
147	0xbf96fe78	-1.1796408
148	0x3d2e89b9	0.04261181
149	0x3f2c2397	0.67241806
150	0x3d6543c6	0.055972837
151	0xbe858bb5	-0.2608315
152	0xbe2b6dfe	-0.16741177
153	0xbea2aeb0	-0.317739
154	0x3e903c32	0.28170925
155	0xbf951df3	-1.1649765
156	0xbf87e603	-1.0617069
157	0xbdc906a5	-0.098157205
158	0x3e191274	0.14948446
159	0x3c9b049c	0.018923096
160	0x3d13cc5c	0.036083564
161	0xbe62aae7	-0.22135507
162	0x3d13a477	0.036045518
163	0xbe996be1	-0.29965118
164	0x3d6387a5	0.055549283
165	0x3e30ed2b	0.17277972
166	0xbd1cac97	-0.038250532
167	0xbdafe933	-0.08589401
168	0x3cdf9294	0.027291574
169	0x3e8cff54	0.2753855
170	0xbe06eb86	-0.13175783
171	0x3d901756	0.07035701
172	0xbe33417b	-0.17505448
173	0x3dc2ae0c	0.09505853
174	0x3cc7e3f6	0.024400692
175	0xbe408563	-0.18800883
176	0xbae5a9d7	-0.001752193
177	0x3dcdc081	0.10046483
178	0xbeb304e2	-0.34964663
179	0x3d274f26	0.040846966
180	0x3c974420	0.018465102
181	0x3d208e4d	0.03919821
182	0xbe730bab	-0.2373492
183	0xbdc739f6	-0.09727852
184	0xbc78ddac	-0.015189569
185	0xbe81fbbe	-0.25387377
186	0x3ee38931	0.44440606
187	0x3e5ba13c	0.21448225
188	0x3ca2e184	0.019882925
189	0x3df2d5fa	0.11857219
190	0x3ec32d49	0.38120487
191	0xbd21f758	-0.039542526
192	0xbcc39b3b	-0.02387773
193	0x3df5e87a	0.12007232
194	0xbdac40a7	-0.08410769
195	0x3dde1fd3	0.10845914
196	0xbdd0e984	-0.102007896
197	0xbaf328fa	-0.0018551641
198	0xbd4b1f53	-0.04959042
199	0xbe8b6f10	-0.2723317
200	0xbd8a9b61	-0.067679174
201	0x3eabe276	0.33571213
202	0xbe8cd9d0	-0.27509928
203	0x3e4aca43	0.19803719
204	0xbd7dd18f	-0.06196743
205	0x3b66323b	0.0035125155
206	0x3da2e5a9	0.079539604
207	0x3dcb4d3d	0.099268414
208	0xbcfa2cd1	-0.030538948
209	0xbbcaab75	-0.00618499
210	0xbd89b6c1	-0.06724311
211	0xbe80920a	-0.2511142
212	0xbdb7494f	-0.089495294
213	0x3e971861	0.29510787
214	0x3e0851b9	0.13312425
215	0xbd083429	-0.03325287
216	0xbdb64259	-0.088993736
217	0x3db0bfcc	0.08630332
218	0x3e9fca58	0.31209064
219	0x3d9ddb5a	0.077078536
220	0xbe70432f	-0.23463129
221	0x3e29b93b	0.16574566
222	0xbe449ac9	-0.19199671
223	0x3d199da4	0.037503853
224	0x3e85b8bc	0.26117504
225	0xbe3538bb	-0.17697422
226	0x3d8ec1fd	0.06970594
227	0x3d789bb6	0.060695373
228	0xbce362a9	-0.027757006
229	0x3dd42a9a	0.10359688
230	0x3dd4bb97	0.103873424
231	0x3cabf159	0.020989107
232	0x3e1f4828	0.15554869
233	0xbd95b1a2	-0.073092714
234	0xbe59846d	-0.21241923
235	0xbe1ad4c0	-0.1512022
236	0x3e3d35c1	0.18477537
237	0xbc3af557	-0.011411033
238	0x3d642904	0.055703178
239	0x3dda6a5d	0.106648184
240	0x3ddd158f	0.107951276
241	0xbd908805	-0.07057194
242	0x3dbf4cb0	0.09340799
243	0xbea39123	-0.31946668
244	0xbe8709d9	-0.263747
245	0x3e4ef897	0.20212017
246	0x3d41ed90	0.047345698
247	0xbe49439b	-0.19654696
248	0xbcf78c51	-0.030218275
249	0x3cc55ab3	0.0240911
250	0x3e6f1c0e	0.23350546
251	0xbc9f090c	-0.019413494
252	0x3d82a853	0.063797615
253	0x3e422262	0.18958429
254	0xbcc9a2f7	-0.02461384
255	0x3e71a144	0.23596674

bias_ih_l0 f4 [128]
0	0x3d0060b4	0.031342223
1	0x3ebb8576	0.3662526
2	0x3e12130e	0.14265081
3	0x3e1636c5	0.1466933
4	0x3eb8ebc8	0.36117387
5	0x3eae6db1	0.34068063
6	0x3e92b4a2	0.28653437
7	0x3e0cef09	0.1376306
8	0x3e03415d	0.12817903
9	0x3e0577a5	0.13033922
10	0x3ed15b5a	0.40890008
11	0x3e9f983d	0.31170836
12	0x3f08822c	0.53323627
13	0x3ea94603	0.33061227
14	0x3e390253	0.18067293
15	0x3f08ce82	0.53440106
16	0x3dd238fa	0.10264774
17	0x3eb4de2a	0.35325748
18	0x3d0a4cbc	0.033764586
19	0x3e5689e6	0.20951042
20	0x3f35b433	0.7097809
21	0x3dfdd7ce	0.12394677
22	0x3efc0c93	0.49228343
23	0x3d8f0eca	0.06985243
24	0x3f0e61ce	0.5561799
25	0x3e0ef71a	0.1396145
26	0x3d3e5447	0.046467092
27	0x3d723f5f	0.059142467
28	0xbc8955d7	-0.016764564
29	0x3ed5026a	0.41603404
30	0x3eca0386	0.39455813
31	0x3e292cf0	0.16521049
32	0xbc9fb362	-0.019494716
33	0xbf04ecd6	-0.5192388
34	0xbeb5acdf	-0.35483453
35	0xbd8414e8	-0.064493
36	0xbf2d7bb0	-0.6776686
37	0xbe60c6b5	-0.219508
38	0xbee15a47	-0.4401419
39	0xbed82c87	-0.42221472
40	0xbe196ae5	-0.14982183
41	0xbd8be9a2	-0.06831671
42	0xbe188bb7	-0.14897047
43	0xbe0d30b7	-0.13788114
44	0xbef67fa9	-0.48144272
45	0xbea2b9a0	-0.31782246
46	0xbd7a6fed	-0.061141897
47	0xbf42df90	-0.7612238
48	0xbd0bea89	-0.034159217
49	0xbe5ee1ca	-0.21765819
50	0xbd85f59a	-0.065409854
51	0x3e030bab	0.1279742
52	0xbf33a6c1	-0.7017632
53	0xbe151e75	-0.145624
54	0xbea4cae9	-0.32186058
55	0xbdb398ef	-0.08769404
56	0xbebb2d6a	-0.36558086
57	0x3de5a773	0.11213579
58	0x3c911404	0.01770974
59	0x3dd8c3b3	0.10584202
60	0xbd80ae1f	-0.06283211
61	0xbf3016f9	-0.68785053
62	0xbf0ffada	-0.56242144
63	0xbec0f75b	-0.37688717
64	0x3e1af479	0.15132321
65	0x3dec16a2	0.11527754
66	0xbd7847ae	-0.060615234
67	0x3cf89490	0.030344278
68	0xbdc0275e	-0.09382509
69	0xbbdc5fd6	-0.0067252917
70	0x3dda8a41	0.10670901
71	0xbd08369a	-0.033255197
72	0x3c86e091	0.016464503
73	0x3d90fd55	0.07079569
74	0xbda42183	-0.08014204
75	0x3cdb3471	0.026758404
76	0xbde71f99	-0.11285324
77	0xbd1030ec	-0.035202906
78	0xbd0e40b9	-0.034729693
79	0xbdaf17ef	-0.08549487
80	0xbda18bac	-0.078879684
81	0xbdc1a3ac	-0.09455046
82	0x3e48944f	0.19587825
83	0xbd07e0e7	-0.033173468
84	0x3d8deb30	0.06929624
85	0x3dba0e72	0.090847865
86	0x3dcd3b86	0.10021119
87	0xbe18a1c8	-0.14905465
88	0x3dede6b0	0.11616266
89	0xbdad3023	-0.08456447
90	0x3d2ee058	0.04269442
91	0xbe58c80b	-0.2117006
92	0xbe03c5e2	-0.12868455
93	0x3dee1027	0.116241746
94	0x3cb5bc33	0.022184467
95	0xbd9e774c	-0.07737598
96	0x3e6c4653	0.23073702
97	0x3ea7e39b	0.32790837
98	0x3e3801b1	0.17969395
99	0x3e41ca0e	0.18924734
100	0x3eed5455	0.46353403
101	0x3e977ddc	0.2958821
102	0x3ea4e0e5	0.3220283
103	0x3e2d255d	0.16908784
104	0x3c2faf0c	0.010722887
105	0x3e3811f1	0.17975594
106	0x3e48d8bf	0.19613932
107	0x3e7b4cc5	0.24541004
108	0x3edefde3	0.43553075
109	0x3e9ea050	0.30981684
110	0x3e4c1931	0.19931485
111	0x3f3469b1	0.7047377
112	0x3e865f7d	0.26244727
113	0x3e8ef77a	0.27923185
114	0x3dfd7691	0.1237613
115	0x3da9231f	0.08258652
116	0x3f4b43fa	0.794006
117	0x3e08405b	0.133058
118	0x3ee91233	0.45521697
119	0x3df9f059	0.12204046
120	0x3e93c984	0.28864682
121	0x3e47f047	0.19525252
122	0x3e71e615	0.23622926
123	0xbc42f58f	-0.011899366
124	0x3dfe997e	0.1243162
125	0x3f1b67f3	0.6070549
126	0x3ee644ad	0.4497427
127	0x3e03fa1a	0.12888375

bias_hh_l0 f4 [128]
0	0xbc5422f9	-0.012947791
1	0x3ec23b79	0.37936
2	0x3c112b77	0.0088604605
3	0x3e9dc945	0.3081762
4	0x3f014439	0.50494725
5	0x3dc6357d	0.09678171
6	0x3e3d5248	0.18488419
7	0x3ea16140	0.31519508
8	0x3e5a6ff5	0.2133177
9	0x3e9728d5	0.2952334
10	0x3e1c1b37	0.15244757
11	0x3e3f5dd7	0.18688141
12	0x3e9702ae	0.29494232
13	0x3f1ff849	0.6248823
14	0x3e628bcf	0.22123645
15	0x3f31dfcd	0.6948212
16	0x3c8075c4	0.015681155
17	0x3eb10f03	0.34581766
18	0xbd7da5e1	-0.061925773
19	0x3e2932c9	0.16523279
20	0x3f5b826a	0.8574587
21	0x3e9bfcf2	0.3046642
22	0x3f0553b2	0.52080834
23	0x3e095eb0	0.13415027
24	0x3eea6a31	0.45784143
25	0x3dfef2e0	0.124486685
26	0x3df5ce1d	0.120022036
27	0xbd04df3b	-0.03243945
28	0xbdc9812c	-0.09839091
29	0x3ed039cf	0.40669104
30	0x3eed9b8d	0.46407738
31	0x3e5c9210	0.21540093
32	0xbdddb43f	-0.10825395
33	0xbefc7e0a	-0.4931491
34	0xbdefea71	-0.11714638
35	0xbe8a90cf	-0.27063605
36	0xbebd15e1	-0.36930755
37	0xbd681988	-0.056664973
38	0xbe99309e	-0.29919904
39	0xbf112994	-0.5670407
40	0xbd9d905b	-0.07693549
41	0xbdff0e25	-0.1245387
42	0xbe052829	-0.13003601
43	0xbe4bd8de	-0.19906947
44	0xbef7ec55	-0.48422495
45	0xbefe98ea	-0.4972604
46	0x3d378d56	0.044812523
47	0xbf360b6a	-0.71111166
48	0xbe28ea7d	-0.164957
49	0xbe9237b2	-0.28558117
50	0xbd17c924	-0.037057057
51	0xbd5a5de8	-0.053312212
52	0xbf0ecfa8	-0.5578561
53	0xbe9de92b	-0.30841956
54	0xbf0b8081	-0.54492956
55	0xbdecea7a	-0.1156816
56	0xbf11b4b7	-0.56916374
57	0xbe493586	-0.19649324
58	0xbe717cc7	-0.23582755
59	0x3d38eedf	0.04514968
60	0xbdba7a2b	-0.09105333
61	0xbee86a68	-0.45393682
62	0xbedc5510	-0.43033648
63	0xbd9a9e6d	-0.075497486
64	0xbe071a2a	-0.13193575
65	0xbe1d2e01	-0.1534958
66	0x3de02ece	0.10946427
67	0xbccf2647	-0.025286807
68	0x3e26be62	0.16283563
69	0x3cd1adfc	0.025595658
70	0xbda2ae04	-0.07943347
71	0x3c5f6817	0.013635657
72	0x3e21822f	0.15772317
73	0xbcbaf6eb	-0.022822818
74	0x3d43571d	0.0476905
75	0x3d346fc4	0.0440519
76	0x3d8afa48	0.067860186
77	0x3cffee38	0.031241521
78	0xbde64425	-0.11243466
79	0x3d78e270	0.060762823
80	0x3c666206	0.014061457
81	0x3e1763a2	0.147841
82	0x3df879e7	0.12132626
83	0xbe239722	-0.15975621
84	0xbdb39100	-0.08767891
85	0x3cf8fe8e	0.030394819
86	0xbe12d319	-0.1433834
87	0x3dcaccf3	0.09902372
88	0xbdfa8a5d	-0.12233422
89	0x3caca767	0.021075917
90	0x3d3b078a	0.045661487
91	0xbdc65b52	-0.09685387
92	0xbdf0162c	-0.11722979
93	0xbe264cc2	-0.16240218
94	0xbb1af8b7	-0.002364678
95	0x3cda12e7	0.026620341
96	0x3decf2d6	0.11569755
97	0x3eecaa1c	0.46223533
98	0x3cc14754	0.023593582
99	0x3ed5475f	0.41656014
100	0x3f0fe90b	0.5621497
101	0x3e4c0e52	0.19927338
102	0x3f054685	0.5206073
103	0x3ef598f0	0.47968245
104	0xbd31452d	-0.04327886
105	0x3e4ef504	0.20210654
106	0x3edff3e9	0.43740776
107	0x3ea504d0	0.32230234
108	0x3ee537f0	0.4476924
109	0x3f00c48a	0.50299895
110	0x3df40ebe	0.11916874
111	0x3f366d12	0.7126018
112	0x3e8fd74c	0.28093946
113	0x3e11dbbe	0.14243981
114	0x3e6a599e	0.22885749
115	0xbd2789d0	-0.040902913
116	0x3f41ce4e	0.7570542
117	0x3ea5f754	0.3241526
118	0x3f1b63ce	0.60699165
119	0x3e825ece	0.25462955
120	0x3ef3f4b8	0.47647643
121	0x3e2f00a1	0.17090084
122	0x3e9387a0	0.2881441
123	0xbbbaa3d4	-0.0056957994
124	0xbba4a091	-0.005024024
125	0x3f19fcbe	0.6015128
126	0x3ef41a06	0.47676104
127	0x3ea8c423	0.3296214

weight_ih_l0 f4 [128, 2]
0	0x3e2feb9f	0.17179726
1	0x3d89d66d	0.067303516
2	0xbdcf6fd6	-0.10128753
3	0x3c057c38	0.008147292
4	0x3c9196c6	0.01777209
5	0x3ca4928a	0.020089407
6	0xbdb86463	-0.09003522
7	0xbce900d7	-0.028442783
8	0xbca0bff7	-0.019622786
9	0xbda48011	-0.08032239
10	0xbc21a4b4	-0.009865928
11	0x3e03c66b	0.12868659
12	0x3b6aca75	0.003582624
13	0x3c24b185	0.01005209
14	0xbe088264	-0.1333099
15	0xbda6a280	-0.08136463
16	0xbdd1b668	-0.10239869
17	0xbe024b17	-0.12723957
18	0x3d27d50f	0.040974673
19	0xbb84c583	-0.0040518655
20	0x3d4db1b7	0.05021831
21	0x3dc6b24d	0.09701977
22	0x3d8c52c9	0.068517275
23	0xbb8075fb	-0.0039203144
24	0xbe14c89b	-0.1452965
25	0x3ddef18b	0.108859144
26	0xbce0b34b	-0.027429244
27	0xbd84cf74	-0.06484881
28	0xbdbeac2a	-0.093101814
29	0x3cb1bd16	0.021696609
30	0xbb9c7316	-0.0047744615
31	0x3e0b6604	0.13613135
32	0x3d2b13e1	0.041767005
33	0x3dd360e1	0.103212126
34	0xbd3b5e4e	-0.045744233
35	0x3d4da923	0.05021013
36	0x3dcd2fdb	0.10018893
37	0x3bc67c31	0.0060572852
38	0x3d6e2799	0.058143232
39	0x3d1b0b18	0.037852377
40	0x3d310988	0.04322198
41	0xbddb0844	-0.10694936
42	0x3d66176c	0.05617468
43	0x3e15bced	0.1462285
44	0xbd44503a	-0.047928073
45	0x3db60297	0.08887213
46	0xbe70a28c	-0.23499507
47	0x3d147dd7	0.036252823
48	0x3d8670cc	0.06564483
49	0x3b896152	0.0041925097
50	0xbe5ab596	-0.21358332
51	0xbbb821fc	-0.0056192856
52	0x3c3cb98c	0.011518847
53	0x3d8592ea	0.06522162
54	0xbcb1cadb	-0.021703174
55	0x3e15f35d	0.14643617
56	0x3da6458a	0.08118732
57	0x3df92d06	0.12166791
58	0xbcfbb60a	-0.030726451
59	0xbc3b828d	-0.0114447
60	0x3e990db2	0.2989326
61	0x3d4894ef	0.04897016
62	0xbdd56ab8	-0.104207456
63	0xbdec6c21	-0.115440615
64	0xbe1b7736	-0.15182194
65	0xbe705af7	-0.234722
66	0xbd8f39e4	-0.06993464
67	0xbd936ad9	-0.07198114
68	0x3e185302	0.14875415
69	0xbd87b337	-0.066259794
70	0x3d9f22d5	0.077703156
71	0x3d40811b	0.046998125
72	0x3eaae757	0.33379623
73	0xbe4641f9	-0.19361104
74	0xbd1870f5	-0.0372171
75	0x3d218f12	0.039443083
76	0xbd63c5b7	-0.055608477
77	0x3e837d1c	0.25681388
78	0x3d261059	0.040542934
79	0xbc3872e6	-0.011257863
80	0xbe4ac6f0	-0.19802451
81	0xbe0218e7	-0.12704812
82	0x3e293514	0.16524154
83	0xbd5a022c	-0.053224728
84	0x3e052444	0.13002115
85	0x3dc7d759	0.09757871
86	0x3d70a025	0.058746476
87	0x3c555624	0.013021026
88	0xbdfa56c5	-0.12223581
89	0x3e0f2ca4	0.13981873
90	0xbe4d8733	-0.20071106
91	0x3d4de7ed	0.05027001
92	0x3d38a024	0.045074597
93	0x3dfd7c40	0.123772144
94	0x3e8a8420	0.27053928
95	0x3d5a04d9	0.05322728
96	0x3de34033	0.110962294
97	0x3d935d44	0.071955234
98	0xbe1551b0	-0.14581943
99	0xbe44a1b7	-0.19202314
100	0x3dc21c06	0.09478001
101	0x3e12442d	0.1428382
102	0xbe7c8c9e	-0.24663016
103	0xbdc0cfbe	-0.09414624
104	0xbda9ef8e	-0.082976446
105	0xbe1a8d54	-0.15092975
106	0x3e4287fe	0.1899719
107	0xbc78e27d	-0.015190718
108	0x3dc9fe59	0.09862966
109	0x3e082b0f	0.13297676
110	0xbe2b6030	-0.16735911
111	0x3b888118	0.00416578
112	0xbe1d19f9	-0.15341939
113	0xbca89bcb	-0.0205821
114	0x3c2857b0	0.010274813
115	0xbd85134f	-0.064978234
116	0xbdb6e21c	-0.08929846
117	0x3de25db1	0.110530265
118	0xbe5c8b91	-0.21537615
119	0x3a0c14ef	0.00053436955
120	0x3e8a083a	0.269594
121	0xbd59bb21	-0.053156976
122	0xbd7eccec	-0.062207147
123	0x3da94735	0.08265535
124	0x3e9382ee	0.2881083
125	0x3d8a05d2	0.067393914
126	0xbe4255d3	-0.18978052
127	0xbe6379f0	-0.22214484
128	0x3e5e6447	0.2171794
129	0x3de7a36b	0.113104664
130	0xbcf04b85	-0.029332886
131	0xbdf91651	-0.1216246
132	0xbd229a37	-0.039697852
133	0xbe075d44	-0.13219172
134	0xbd839a0d	-0.06425867
135	0xbe21434f	-0.15748332
136	0xbd8436d7	-0.06455772
137	0x3de45048	0.11148125
138	0x3ecab6b2	0.3959251
139	0xbd1ad7e4	-0.037803546
140	0x3e3956d3	0.18099527
141	0xbe0e44c3	-0.13893418
142	0x3ee2a1fb	0.44264206
143	0x3c3bd6af	0.011464759
144	0x3ee8ed3b	0.45493492
145	0x3de6f645	0.11277441
146	0xbe4003cf	-0.18751453
147	0x3e9efc3c	0.31051815
148	0x3e9dc845	0.30816856
149	0x3e471e11	0.19445063
150	0xbe89bdf5	-0.26902738
151	0x3d8dfce7	0.06933003
152	0xbe1bd7a0	-0.15218973
153	0xbdd73dc8	-0.10509831
154	0x3f10de81	0.56589514
155	0x3d54edf1	0.05198473
156	0xbd472594	-0.04861982
157	0xbe1b4c1b	-0.1516575
158	0x3cb885e8	0.022524789
159	0x3e50abbc	0.20378011
160	0x3e1689a7	0.14700948
161	0xbc1da483	-0.009621742
162	0xbe65ab0d	-0.22428532
163	0x3d9c51e9	0.076328106
164	0x3e8d72fc	0.2762679
165	0x3e2f5af2	0.17124537
166	0x3e5d5851	0.21615721
167	0x3d35b1ab	0.04435889
168	0xbcc36e5f	-0.02385634
169	0xbd681271	-0.056658212
170	0xbe1d9d72	-0.15392092
171	0x3d00d8c6	0.03145673
172	0x3c5adf83	0.013358953
173	0xbe137360	-0.14399481
174	0x3e98e4ac	0.29861963
175	0x3d9a2c57	0.075279884
176	0x3ed055c2	0.40690428
177	0x3dbdbbdf	0.09264349
178	0x3dd5b4ba	0.104348615
179	0x3e5fd147	0.21857177
180	0xbea27ddb	-0.31736645
181	0x3d12b102	0.03581334
182	0x3de11b8d	0.10991583
183	0xbdb3df4f	-0.08782827
184	0x3edc58b7	0.43036434
185	0x3dcefa5e	0.101063475
186	0x3de171b8	0.11008018
187	0x3e237026	0.1596075
188	0x3ec24b99	0.379483
189	0x3d62870c	0.055304572
190	0x3d4ddd47	0.050259855
191	0xbdf514d2	-0.11966862
192	0xbc5e5aa7	-0.013571418
193	0xbce33c26	-0.027738642
194	0xbc8af41a	-0.0169621
195	0x3db5d9e5	0.08879451
196	0x3e640491	0.22267367
197	0xbe0a95c6	-0.13533697
198	0x3e27947e	0.16365239
199	0x3d308d78	0.043103665
200	0xbb4fb203	-0.0031691797
201	0xbe848e5f	-0.2588987
202	0xbd8689a1	-0.065692194
203	0x3d84a983	0.06477644
204	0xbd89f46c	-0.06736073
205	0x3e0541dd	0.13013406
206	0xbe4a2dd5	-0.19744046
207	0xbde44afe	-0.11147116
208	0xbe40bd81	-0.1882229
209	0x3cbe77a2	0.023250405
210	0x3debec42	0.11519672
211	0xbe974b08	-0.29549432
212	0x3e73b79f	0.23800515
213	0x3dc4271d	0.09577773
214	0x3dd3b114	0.10336509
215	0xbd11460a	-0.035467185
216	0x3e3c7099	0.18402328
217	0x3e14ed8d	0.14543743
218	0xbe9ab7ad	-0.30218259
219	0x3d4f8aa1	0.050669316
220	0xbc80aa12	-0.015706096
221	0x3e76c0e1	0.24097015
222	0x3defbc52	0.11705841
223	0x3e7e7f18	0.2485317
224	0x3c4b8f09	0.012424239
225	0x3d56e6d0	0.052466214
226	0xbe99d2f6	-0.30043763
227	0xbe3133ac	-0.17304868
228	0xbe1a0c52	-0.15043762
229	0xbcc3dee6	-0.023909997
230	0xba9f7cb7	-0.0012167905
231	0x3d2d1212	0.04225356
232	0x3d8f3317	0.069921665
233	0xbe0753ea	-0.13215604
234	0xbd27c24a	-0.040956773
235	0x3c5c3567	0.0134404665
236	0x3d29d9f6	0.04146763
237	0x3e04da97	0.1297401
238	0xbe97dc80	-0.29660416
239	0xbdc1b97e	-0.09459208
240	0x3eb43f35	0.35204473
241	0x3de4ab24	0.11165455
242	0xbe31dd0e	-0.17369482
243	0xbe656262	-0.22400811
244	0xbceeb314	-0.029138125
245	0xbca60e8d	-0.02027061
246	0xbdc270fb	-0.094942056
247	0x3e460299	0.19336928
248	0x3dc25043	0.09487965
249	0x3d357c34	0.044307902
250	0xbd0fe81a	-0.03513346
251	0xbd7f5686	-0.062338375
252	0x3e9e14de	0.30875295
253	0x3e23054a	0.15919986
254	0xbe1a3162	-0.150579
255	0xbe9acc39	-0.30233935

weight_hh_l0 f4 [128, 32]
0	0xbd16319c	-0.036668405
1	0x3d06f743	0.03295065
2	0xbdc311d9	-0.095248885
3	0x3e9782ea	0.29592067
4	0xbd7d0a37	-0.06177732
5	0x3e659db8	0.22423446
6	0xbddd4ea6	-0.108060166
7	0xbcfb041d	-0.03064161
8	0xbe093018	-0.13397253
9	0xbd46fa74	-0.048578694
10	0x3e966e20	0.29380894
11	0x3d2022cb	0.03909568
12	0xbd83af1d	-0.064298846
13	0x3d12a910	0.03580576
14	0xbdebaf82	-0.11508085
15	0x3d3851d8	0.044999927
16	0x3e0e8a14	0.1391986
17	0xbe36e02c	-0.17858952
18	0xbcd26989	-0.025685089
19	0x3e76989f	0.24081658
20	0x3dd91f35	0.106016554
21	0x3ab1d6f8	0.0013568094
22	0xbe28f32d	-0.16499014
23	0xbe0adcf7	-0.13560854
24	0xbc4c499c	-0.012468722
25	0xbdd80e5d	-0.105496146
26	0xbe10559c	-0.14095157
27	0x3e99ed4b	0.30063853
28	0x3e421e9d	0.1895699
29	0xbe67f170	-0.22650695
30	0xbd89c32e	-0.06726681
31	0x3e9edaf8	0.31026435
32	0x3c0f940b	0.008763324
33	0xbe2ca275	-0.16858847
34	0x3ded5e81	0.11590291
35	0x3bb57c84	0.005538525
36	0xbe80f8b8	-0.25189757
37	0x3cb86702	0.022510055
38	0xbe93d413	-0.28872737
39	0xbd243956	-0.040093742
40	0x3d08a500	0.03336048
41	0xbd5bc91f	-0.0536586
42	0x3bb70516	0.005585323
43	0xbe205ebe	-0.15661141
44	0xbd5053d2	-0.050861187
45	0x3e47c13c	0.19507307
46	0xbda62c43	-0.08113911
47	0x3d87fb22	0.06639697
48	0x3db8257e	0.08991526
49	0xbd319b4e	-0.043361
50	0x3e071808	0.13192761
51	0x3e6b03bd	0.22950645
52	0x3e793fe5	0.2434078
53	0xbe09f208	-0.13471234
54	0x3d5df571	0.05418915
55	0x3e2aca84	0.16678816
56	0x3e38f468	0.18061984
57	0xbead7f10	-0.33886003
58	0x3c9ac0b3	0.018890714
59	0xbe64c411	-0.22340418
60	0xbcbe2e98	-0.023215577
61	0x3e080e66	0.13286743
62	0x3d7212d4	0.059099987
63	0x3e086488	0.133196
64	0x3d4ec657	0.05048212
65	0xbd4f3f35	-0.05059739
66	0x3d9e2e1f	0.07723641
67	0x3dadaf14	0.08480659
68	0xbe74127c	-0.23835176
69	0xbddcf418	-0.10788745
70	0xbe4d944c	-0.20076102
71	0xbd97fa78	-0.0742082
72	0xbe607acc	-0.21921843
73	0xbe9a6f6b	-0.3016313
74	0xbdba3399	-0.09091873
75	0xbd957541	-0.07297755
76	0xbd80dd10	-0.06292164
77	0x3e742510	0.23842263
78	0xbe0ce5e2	-0.13759568
79	0x3df14f5d	0.117827155
80	0x3cf4168c	0.029795907
81	0x3d1a9592	0.037740298
82	0xbdb32cce	-0.0874878
83	0xbdc0ec45	-0.09420065
84	0xbce0cc12	-0.027441058
85	0x3cbb4840	0.0228616
86	0xbe473456	-0.19453558
87	0x3b58ac14	0.003306155
88	0xbb721529	-0.0036938882
89	0xbea10958	-0.3145244
90	0xbd1e7e08	-0.03869441
91	0x3c3d0381	0.01153648
92	0xbdf1d07d	-0.11807344
93	0x3e02eb7f	0.12785147
94	0x3d2575a9	0.040395413
95	0x3d32eb18	0.043681234
96	0x3e6c10b3	0.23053245
97	0xbd67423f	-0.05645966
98	0x3e37c36e	0.17945644
99	0x3cd54833	0.026035404
100	0xbe06c5e9	-0.13161434
101	0xbdec4e22	-0.1153834
102	0xbddd87a5	-0.10816888
103	0xbd2758ac	-0.04085605
104	0xbccd01f4	-0.025025345
105	0xbc917f00	-0.017760754
106	0xbcb46b6e	-0.022023883
107	0xbdf217d5	-0.11820952
108	0xbe1aedb7	-0.15129744
109	0xbdeea45d	-0.116524436
110	0xbe9e58d6	-0.3092715
111	0xbe0176bf	-0.12642954
112	0xbe6601be	-0.22461602
113	0xbd98d1d6	-0.07461898
114	0xbe6dd2ff	-0.2322502
115	0xbd13d393	-0.036090445
116	0x3e045fcb	0.12927167
117	0x3db4c6b7	0.08826964
118	0xbd0469a7	-0.03232732
119	0x3d98ecf5	0.07467071
120	0xbce59564	-0.028025337
121	0xb8c61738	-9.4457006e-05
122	0xbcf6f1e5	-0.030144641
123	0x3d0b5da0	0.034024835
124	0xbd3cb24e	-0.046068482
125	0xbdcf1081	-0.1011057
126	0x3d4e5a93	0.050379347
127	0xbc37e816	-0.011224767
128	0x3e0e30b6	0.13885769
129	0x3cf4106f	0.029792992
130	0x3de1f78d	0.11033545
131	0xbd5c00d3	-0.053711724
132	0xbd1065e4	-0.03525342
133	0x3d3632d2	0.04448206
134	0xbb9a3d46	-0.0047070114
135	0xbe184c54	-0.14872867
136	0x3d7de8b6	0.06198951
137	0xbd8227fc	-0.06355283
138	0xbdb3edb7	-0.08785575
139	0xbe32690b	-0.17422883
140	0xbdd39c20	-0.10332513
141	0x3e56f35b	0.2099127
142	0xbe04ef09	-0.1298181
143	0x3c320ab8	0.010866813
144	0xbe921740	-0.28533363
145	0x3da2ac9f	0.07943081
146	0x3dbbd639	0.09171719
147	0xbe1d66f5	-0.15371306
148	0x3e1b2e80	0.15154457
149	0x3e23d968	0.16000903
150	0xbcecb523	-0.028894966
151	0xbe65dffe	-0.22448727
152	0xbca1e4c3	-0.019762402
153	0xbd16c81d	-0.036811937
154	0xbe03aa5c	-0.12857956
155	0xbdebee91	-0.11520112
156	0xbdc11c2a	-0.094292
157	0x3e32e09e	0.17468497
158	0x3dd88364	0.10571936
159	0xbcb8a0cf	-0.022537617
160	0xbd983c1b	-0.07433339
161	0xbe415ac8	-0.18882287
162	0xbc8efe2a	-0.01745518
163	0xbe04743b	-0.12934963
164	0xbe7145b0	-0.2356174
165	0x3e00bc57	0.12571846
166	0xbde9358c	-0.113871664
167	0x3ec4f6e5	0.38469616
168	0x3e887ef7	0.26659366
169	0xbe849da5	-0.25901523
170	0xbdd05606	-0.10172658
171	0x3e326a73	0.1742342
172	0x3ce1c567	0.02755995
173	0x3e8bfeb5	0.27342764
174	0x3d8adbd3	0.067802094
175	0xbe106e72	-0.14104632
176	0xbe54fe35	-0.20800097
177	0x3d0cf830	0.034416378
178	0xbc910ae2	-0.017705385
179	0xbd006ae5	-0.031351943
180	0xbe270e41	-0.16314031
181	0xbd5e14e2	-0.054219134
182	0xbe11a63c	-0.1422357
183	0x3ddf9b49	0.1091829
184	0x3ca62800	0.020282745
185	0x3daa4052	0.083130494
186	0x3dcda3f0	0.10041034
187	0x3d87737c	0.06613824
188	0x3df7ae5b	0.120938025
189	0xbe82765b	-0.25480923
190	0x3e649ebf	0.22326182
191	0x3dc19efe	0.094541535
192	0xbcdf666e	-0.027270522
193	0x3c1cf0ff	0.009578942
194	0x3e566fc3	0.20941071
195	0xbce84447	-0.02835287
196	0xbd90d2fc	-0.07071492
197	0xbe4040e9	-0.18774761
198	0xbe6e3a6c	-0.23264474
199	0x3e5c7c08	0.21531689
200	0xbd7fa04c	-0.06240873
201	0xbea622f0	-0.3244853
202	0xbe5876b8	-0.21139038
203	0x3cd438bb	0.025905957
204	0x3bf7565b	0.007548136
205	0x3ddc5f9d	0.10760424
206	0xbdb72934	-0.08943406
207	0xbe906539	-0.28202227
208	0x3d341029	0.043960724
209	0xbdfebf15	-0.1243879
210	0x3ca5eb91	0.020253928
211	0xbe0151b0	-0.12628818
212	0x3f0117ab	0.5042674
213	0x3cd149b7	0.025547845
214	0xbe018f97	-0.12652431
215	0xbd28cac6	-0.041209005
216	0x3e058b45	0.13041408
217	0xbe7b784e	-0.24557611
218	0xbc347654	-0.01101454
219	0x3e3839c1	0.17990781
220	0x3e0766fe	0.13222882
221	0xbe5ca10e	-0.21545812
222	0xbe6b12bf	-0.2295637
223	0x3e6e29db	0.23258154
224	0x3cc263f4	0.023729302
225	0x3d95dfea	0.07318099
226	0x3d569f2d	0.052397896
227	0x3bf35fb7	0.0074271816
228	0x3d804552	0.06263222
229	0xbeb54377	-0.35403034
230	0x3d9e704a	0.07736261
231	0x3d3f669a	0.046728708
232	0xbd7d5c62	-0.06185568
233	0xbe60b5b1	-0.2194431
234	0xbe756a7a	-0.23966399
235	0x3e8376a9	0.25676468
236	0x3ea16d95	0.31528917
237	0xbe087a9a	-0.13328019
238	0x3e0db1df	0.13837384
239	0xbd40693a	-0.046975352
240	0xbda1805e	-0.07885812
241	0xbbf2afbb	-0.0074062026
242	0xbdcb2a13	-0.099201344
243	0xbe0cd66a	-0.13753667
244	0xbd6031d4	-0.05473502
245	0xbb9f4bf7	-0.0048613506
246	0xbdb6cad0	-0.08925402
247	0xbdd4ff0e	-0.1040021
248	0xbe0757b4	-0.1321705
249	0x3d70ec56	0.058819138
250	0x3db14641	0.08655978
251	0x3bb06b88	0.0053839125
252	0xbe9c8b2a	-0.30574924
253	0xbc55bf8a	-0.013046155
254	0xbcd20d37	-0.025641067
255	0x3e213f5b	0.15746824

bias_ih_l0 f4 [128]
0	0xbdd6b967	-0.104845814
1	0xbe0ebbac	-0.13938779
2	0xbafc6500	-0.0019256175
3	0x3d021270	0.031755865
4	0xbb790149	-0.003799515
5	0x3d8d6f7b	0.06906029
6	0x3d9a2ad2	0.075276986
7	0xbdcf5bfb	-0.10124966
8	0xbd2cda33	-0.04220028
9	0xbc1c89d2	-0.009554343
10	0xbe33e067	-0.17566071
11	0xbe318a31	-0.17337872
12	0xbb8c68f0	-0.0042849705
13	0x3e0bf6b9	0.13668336
14	0xbe5042e2	-0.20338014
15	0xbd786544	-0.06064345
16	0x3c58b728	0.013227262
17	0x3dd967bf	0.10615491
18	0x3d852324	0.06500843
19	0xbe5c7014	-0.2152713
20	0x3d9d9c45	0.07695822
21	0xbd31b1fa	-0.043382622
22	0xbe4acdf5	-0.19805129
23	0xbd9088a9	-0.07057316
24	0x3c8bbcff	0.017057894
25	0x3c49d1fd	0.0123181315
26	0x3c232b80	0.009959102
27	0xbda4259d	-0.08014987
28	0x3dc93fe4	0.09826639
29	0x3d956019	0.0729372
30	0x3dbf5815	0.09342972
31	0xbe235cd6	-0.15953383
32	0x3e0a51eb	0.13507812
33	0xbd8e6f9b	-0.06954881
34	0xbdd04152	-0.10168709
35	0xbdd00af0	-0.10158336
36	0x3c3dcdd7	0.011584721
37	0x3e132b15	0.14371903
38	0x3d0fe27b	0.035128098
39	0x3e8144ef	0.25247905
40	0x3e560902	0.20901874
41	0x3e0b6551	0.13612868
42	0x3da1c6ff	0.078992836
43	0x3e3ca991	0.1842406
44	0xbc433ef8	-0.011916868
45	0x3e3e551d	0.18587156
46	0x3d181655	0.037130672
47	0xbd41d63e	-0.047323458
48	0xbd91b4b2	-0.07114543
49	0x3e5fdb58	0.21861017
50	0x3e922f76	0.28551835
51	0x3e03d4b2	0.12874106
52	0x3d214a01	0.039377216
53	0x3e7794aa	0.24177805
54	0xbde9bf98	-0.11413497
55	0x3ceb5dc0	0.028731227
56	0xbcb1758f	-0.021662502
57	0x3d8dc97c	0.06923196
58	0x3d82f310	0.06394017
59	0x3e5c64fa	0.21522895
60	0xbdfcfc28	-0.123527825
61	0x3dc693b5	0.09696142
62	0xbd060c45	-0.032726545
63	0xbda4466c	-0.080212444
64	0xbe4f9c54	-0.20274478
65	0x3d8d24d9	0.06891794
66	0x3e56fdf1	0.20995308
67	0xbe259075	-0.16168387
68	0x3d223ad6	0.03960689
69	0xbaf8c546	-0.001897969
70	0x3e27d430	0.16389537
71	0x3de9529b	0.11392709
72	0x3e3a5f4b	0.18200414
73	0x3b8d433b	0.004310993
74	0x3d545ad5	0.051844437
75	0x3db387fb	0.087661706
76	0x3db7193a	0.089403585
77	0x3cf2f350	0.029657036
78	0x3d897b07	0.06712919
79	0xbe3cb958	-0.18430078
80	0xbe27e152	-0.16394547
81	0xbdb0be9f	-0.08630108
82	0x3e79dc6b	0.24400489
83	0xbeb8499a	-0.35993654
84	0x3c1c25ca	0.009530494
85	0xbe668cef	-0.225147
86	0xbdcb4adc	-0.09926388
87	0x3e7379df	0.23776959
88	0xbe7bb6da	-0.24581471
89	0xbbbee2bd	-0.005825369
90	0x3d9926ca	0.074781016
91	0xbca5a886	-0.02022196
92	0xbe0181cd	-0.12647171
93	0xbdc7f68d	-0.09763823
94	0xbe52b55b	-0.20576994
95	0x3e038f16	0.12847552
96	0xbd40572d	-0.046958137
97	0x3e6fc5e8	0.23415339
98	0x3e0ea6e6	0.13930854
99	0x3dc50528	0.09620124
100	0x3e5da652	0.21645477
101	0x3e74bcff	0.23900221
102	0x3eb242cf	0.34816596
103	0x3d9ae3a9	0.07562954
104	0x3bc9417a	0.0061418386
105	0x3e4226cc	0.18960112
106	0x3d1107e3	0.035407912
107	0xbde8ccd6	-0.11367194
108	0xbd370047	-0.044678
109	0x3e64df8c	0.22350901
110	0x3e0115fc	0.12606043
111	0x3df05f81	0.11736966
112	0x3e02b932	0.12765959
113	0xbd34fd2e	-0.044186763
114	0x3e7e6fd9	0.24847354
115	0x3d747e29	0.05969063
116	0xbd0a5d08	-0.033780128
117	0x3e84b3a5	0.25918308
118	0x3b5ecc7d	0.0033996396
119	0xbdd8c9b0	-0.10585344
120	0x3e63555c	0.22200531
121	0x3cb5be11	0.022185357
122	0x3e48cc60	0.19609213
123	0xbc2fc830	-0.010728881
124	0xbd0616d4	-0.032736614
125	0x3dcc2a2a	0.0996898
126	0x3e0eb970	0.13937926
127	0xbbbc055a	-0.0057379426

bias_hh_l0 f4 [128]
0	0x3dfe5907	0.12419324
1	0x3df5f762	0.12010075
2	0xbd92eb75	-0.07173816
3	0xbe0c775a	-0.13717404
4	0x3db8cd09	0.09023482
5	0x3e2080c6	0.15674123
6	0xbe2f7424	-0.17134148
7	0x3b39c99b	0.0028348926
8	0x3d1568b4	0.036476806
9	0x3d802816	0.06257646
10	0x3cf0d0f9	0.02939652
11	0x3d10e520	0.03537476
12	0xbb7554f2	-0.0037434665
13	0x3e1578d9	0.14596881
14	0x3cd434c3	0.025904065
15	0xbc1cc417	-0.009568236
16	0xbd1ae8c3	-0.037819635
17	0x3cdd72b0	0.027032226
18	0xbcceb7d9	-0.02523415
19	0xbe853d52	-0.26023346
20	0x3da7fbaa	0.08202298
21	0x3d87465e	0.06605218
22	0x3dc54a7c	0.096333474
23	0xbe1381d0	-0.14404988
24	0xbdb83234	-0.089939505
25	0xbd911502	-0.07084085
26	0xbcd35895	-0.025799075
27	0xbe348e64	-0.17632443
28	0x3dfe2cb1	0.12410868
29	0x3dc6f4aa	0.09714635
30	0xbd4216c6	-0.047385
31	0xbe05b239	-0.13056268
32	0x3a643511	0.0008705417
33	0x3e1b1983	0.1514645
34	0x3cb62b0c	0.022237323
35	0x3b3920d5	0.002824833
36	0x3cb432ad	0.02199682
37	0xbcbd9ea0	-0.023146927
38	0xbdb42e28	-0.08797866
39	0xbd199065	-0.03749122
40	0xbd578c55	-0.052624065
41	0xbd2e5b1c	-0.042567357
42	0xbb1942b1	-0.0023385698
43	0x3da0bcd3	0.07848515
44	0x3e07cf87	0.13262759
45	0x3e4bbd3a	0.19896403
46	0xbdf45a83	-0.11931326
47	0xbdf85139	-0.12124867
48	0xbb711c12	-0.0036790413
49	0xbd29eec6	-0.041487478
50	0x3e0fe36b	0.14051597
51	0xbd6f60f0	-0.058442056
52	0x3d022fb6	0.031783782
53	0x3e28db78	0.1648997
54	0x3cfb8360	0.030702293
55	0xbdf363d0	-0.11884272
56	0x3b35b349	0.002772527
57	0x3de9c07b	0.11413666
58	0xbccf8822	-0.025333468
59	0xbb74418f	-0.0037270521
60	0x3d996fd8	0.074920356
61	0xbdc33270	-0.095311046
62	0xbe1beae8	-0.15226328
63	0x3dc61fa7	0.09674006
64	0xbcc0277b	-0.023456326
65	0x3db1e39a	0.0868599
66	0x3cadffc8	0.02124013
67	0xbe0396d7	-0.1285051
68	0x3de7a280	0.11310291
69	0xbe500921	-0.20315982
70	0xbd2515fc	-0.04030417
71	0x3de7f374	0.11325732
72	0xbda13af4	-0.078725725
73	0x3e686ac0	0.22696972
74	0xbcbe55e8	-0.023234323
75	0x3e47ab7e	0.19499013
76	0x3d4efd7b	0.050534707
77	0x3dd2002f	0.10253941
78	0x3d352ad6	0.044230305
79	0xbd9ec77f	-0.077528946
80	0xbd99b186	-0.07504563
81	0x3dadd2d8	0.08487481
82	0xbd208f9d	-0.03919946
83	0xbe86163d	-0.2618884
84	0x3d67689c	0.056496248
85	0xbe3bdc8b	-0.18345849
86	0x3d046295	0.032320578
87	0x3e319b0b	0.173443
88	0xbe3a0539	-0.18166055
89	0x3e5de960	0.21671057
90	0xbe048621	-0.12941791
91	0xbb85dd0f	-0.00408519
92	0xbe8ce66e	-0.27519554
93	0xbe0b9109	-0.13629545
94	0x3c9dc12f	0.019257156
95	0xbd5142e8	-0.051089197
96	0x3e5ea4a5	0.21742494
97	0x3e572b22	0.21012548
98	0x3d1e91b8	0.038713187
99	0xbe2e32c7	-0.17011558
100	0x3d313ff6	0.04327389
101	0x3e812002	0.25219733
102	0x3e8be80a	0.2732547
103	0x3e18f062	0.14935449
104	0x3d4995ec	0.049215242
105	0x3e4f2ea5	0.20232637
106	0xbc9e9c96	-0.019361775
107	0xbdbe42df	-0.092900984
108	0xbd16b863	-0.03679694
109	0x3da94cfb	0.08266636
110	0x3e44687d	0.19180484
111	0x3e60b7b7	0.21945082
112	0x3e8d2f6a	0.27575237
113	0x3c68a221	0.014198811
114	0x3cd93f15	0.026519338
115	0x3d383dd7	0.04498085
116	0xbd50ae3c	-0.050947413
117	0x3d8d6af7	0.069051675
118	0x3dfe7dc8	0.124263346
119	0x3e3944b1	0.1809261
120	0x3dc688ab	0.09694036
121	0x3e17921d	0.14801832
122	0xbc7f2661	-0.015573115
123	0x3e32dc8f	0.17466949
124	0x3e789b4c	0.24277991
125	0x3e2ae2b5	0.16688044
126	0x3d837b19	0.064199634
127	0x3d718cf3	0.05897231

weight_ih_l0_reverse f4 [128, 2]
0	0xbde0a8c1	-0.10969687
1	0xbe3945e3	-0.18093066
2	0x3ec68e06	0.3878023
3	0xbe84b7f7	-0.25921604
4	0xbe76c2a3	-0.24097686
5	0xbef7a21e	-0.48365873
6	0x3e769c85	0.24083145
7	0xbea6450a	-0.32474548
8	0xbe837918	-0.25678325
9	0xbe68419c	-0.22681278
10	0x3ea356e5	0.31902233
11	0xbf5aa0f1	-0.8540183
12	0x3cc91ca9	0.024549799
13	0x3e28437e	0.16431996
14	0x3e5e845d	0.2173018
15	0xbe88f6bd	-0.26750746
16	0xbe4ca924	-0.19986397
17	0xbf38e4f0	-0.7222433
18	0xbe38ddf3	-0.18053417
19	0x3f03b1e4	0.51443315
20	0xbe9640cc	-0.2934631
21	0x3d2cf42e	0.042225055
22	0x3f55b18f	0.8347406
23	0x3dafb32c	0.08579096
24	0xbe0ca469	-0.13734592
25	0xbc8b9950	-0.017040879
26	0xbe59937c	-0.21247667
27	0x3d910768	0.07081491
28	0x3e33c5c2	0.17555907
29	0xbe1d5411	-0.153641
30	0x3f2015be	0.62533176
31	0x3ee14851	0.44000486
32	0x3d27dfa0	0.04098475
33	0xbe59bfd4	-0.21264583
34	0x3d99149e	0.074746355
35	0x3ead4759	0.33843496
36	0xbdd18a4e	-0.10231458
37	0xbe665d83	-0.2249661
38	0xbe48fa57	-0.19626747
39	0x3e509061	0.20367576
40	0xbec58e80	-0.3858528
41	0x3e44966f	0.19198011
42	0xbe946b50	-0.28988123
43	0x3f40f090	0.7536707
44	0xbf1716ba	-0.59019053
45	0x3e26d130	0.16290736
46	0x3e995c0a	0.29953033
47	0xbda41d8d	-0.08013449
48	0xbea6e876	-0.3259923
49	0x3f107280	0.56424713
50	0xbf2ac051	-0.666997
51	0xbf1ed730	-0.620471
52	0xbd53f478	-0.051746815
53	0x3eb7c924	0.35895646
54	0xbe48dfc4	-0.1961661
55	0x3f0fea2a	0.5621668
56	0x3eeb6f13	0.4598318
57	0x3d15dca2	0.036587365
58	0xbdeb9e48	-0.11504799
59	0x3eaddb58	0.33956409
60	0xbe13602d	-0.14392157
61	0x3e38230a	0.17982116
62	0x3e0b0e36	0.1357964
63	0xbea1d309	-0.3160632
64	0xbed69a11	-0.41914418
65	0x3e03e73c	0.12881178
66	0x3eb9daed	0.3629984
67	0xbeb7a33a	-0.3586672
68	0xbdf43503	-0.11924174
69	0xbe97766d	-0.2958254
70	0xbda9b315	-0.0828611
71	0xbede5a57	-0.434283
72	0xbe1a2dee	-0.15056583
73	0xbe2b2018	-0.16711462
74	0x3ebef194	0.37293684
75	0xbe664444	-0.22486979
76	0xbe441c50	-0.19151425
77	0x3e997560	0.29972363
78	0x3e585be5	0.21128805
79	0xbde8f322	-0.11374499
80	0x3c7205b0	0.014771864
81	0xbe5f0d31	-0.21782376
82	0x3c7de13a	0.015495593
83	0xbcb97cf7	-0.022642596
84	0xbdd04e89	-0.101712294
85	0xbdb3b114	-0.08774009
86	0x3e905151	0.2818704
87	0xbd6b7f15	-0.05749424
88	0x3cd829ef	0.026387183
89	0x3e1228c1	0.14273359
90	0xbcd55782	-0.026042704
91	0x3de98f65	0.114043035
92	0x3e42c5ab	0.19020717
93	0xbe62297b	-0.22086136
94	0x3edf53cb	0.43618616
95	0x3ea89231	0.32924035
96	0x3d04c870	0.032417715
97	0xbeb369f7	-0.35041782
98	0x3d25f5c0	0.04051757
99	0x3eb79c14	0.35861266
100	0xbc8ee551	-0.017443331
101	0xbd940935	-0.072283186
102	0xbe2053f4	-0.15657026
103	0x3d5b6c31	0.053569976
104	0xbe6020ec	-0.21887559
105	0x3e4ba37a	0.1988658
106	0xbe8ebfe2	-0.2788077
107	0x3ebadcd4	0.36496603
108	0xbdcb861d	-0.099376895
109	0xbd95970a	-0.07304199
110	0x3c083505	0.008313422
111	0xbe3b2f70	-0.18279815
112	0xbdad0797	-0.08448713
113	0x3e202bb5	0.15641673
114	0xbe36558e	-0.17806074
115	0xbe859dd0	-0.26096964
116	0x3d1a810c	0.037720725
117	0x3e029452	0.12751892
118	0xbe14ba4e	-0.14524195
119	0x3ea46658	0.32109332
120	0x3bed8152	0.007248082
121	0x3d4d356f	0.050099786
122	0x3de99996	0.11406247
123	0x3e0e46e5	0.13894232
124	0xbdc9e942	-0.098589435
125	0x3dd3b743	0.10337689
126	0x3e33e03d	0.17566009
127	0xbea96d54	-0.33091223
128	0xbe9d3619	-0.30705336
129	0x3d6e0b14	0.058116034
130	0xbd0bfb1a	-0.034175016
131	0x3f0360ca	0.51319563
132	0x3d8d85fa	0.069103196
133	0x3e46ba9c	0.19407123
134	0xbe121642	-0.14266303
135	0xbd87ecfb	-0.06636997
136	0x3ea86da7	0.32896158
137	0x3f3f1890	0.74646854
138	0x3ed3f987	0.41401312
139	0xbed2806d	-0.41113606
140	0xbd7d4b81	-0.061839584
141	0xbebca96b	-0.36848006
142	0xbf2789f2	-0.6544486
143	0x3f2ef262	0.68338597
144	0x3c07dead	0.008292836
145	0xbe7bd648	-0.2459346
146	0xbe8c51de	-0.2740621
147	0x3f593e90	0.8486109
148	0x3e932328	0.2873776
149	0xbd7c4bfc	-0.0615959
150	0x3f6c5d7a	0.92330134
151	0xbcdfaaaf	-0.027303068
152	0x3e41648a	0.18886009
153	0xbc202267	-0.009773827
154	0x3e793809	0.24337782
155	0x3ebe93dc	0.37222183
156	0x3bda530e	0.006662733
157	0xbe866de6	-0.2625572
158	0x3e8f5838	0.27996993
159	0x3e94a6dd	0.29033557
160	0x3e019613	0.12654905
161	0xb92e327d	-0.00016612741
162	0x3e6e5c50	0.23277402
163	0x3f4df10f	0.8044595
164	0x3dbabdb0	0.09118211
165	0xbeee3acb	-0.4652923
166	0xbf3e39cd	-0.74306947
167	0x3eacb51a	0.3373192
168	0xbee5d128	-0.44886136
169	0x3d98cfdc	0.07461521
170	0x3e75a59f	0.2398896
171	0xbef381a1	-0.47559837
172	0xbf07f614	-0.5310986
173	0x3e22551c	0.15852779
174	0x3c0f079d	0.0087298425
175	0x3dd9e987	0.10640245
176	0xbeb93650	-0.3617425
177	0x3f0ea53c	0.5572088
178	0x3f1a0be4	0.60174394
179	0x3f3a1710	0.7269144
180	0xbda93310	-0.082616925
181	0xbefd3f50	-0.49462366
182	0xbcf4a4a5	-0.029863665
183	0xbe7627d4	-0.2403863
184	0xbf509ed2	-0.8149234
185	0x3e73ff1f	0.2382779
186	0x3ec10f0a	0.37706786
187	0xbe3282e1	-0.17432739
188	0x3de0b084	0.10971168
189	0xbe110973	-0.14163761
190	0x3e75074c	0.23928565
191	0xbec7ebfa	-0.39047223
192	0xbd26e6af	-0.04074734
193	0x3da4e9df	0.0805242
194	0x3e9f3919	0.3109825
195	0xbee00ddf	-0.43760583
196	0xbe6e5013	-0.23272733
197	0xbed8e5ce	-0.42362827
198	0xbe98d3a4	-0.2984897
199	0xbdca0550	-0.098642945
200	0xbe1551be	-0.14581963
201	0x3b2a4ed7	0.0025986934
202	0x3ea70cb3	0.32626876
203	0xbebb4da8	-0.36582685
204	0xbe8586d2	-0.26079422
205	0x3db001af	0.08594071
206	0x3e94f0eb	0.29090056
207	0xbe70af3c	-0.23504347
208	0xbe9cc829	-0.3062146
209	0xbeea3e5d	-0.45750704
210	0xbe111f34	-0.1417206
211	0x3dedd400	0.116127014
212	0x3e8d5c28	0.27609372
213	0x3e534b78	0.20634258
214	0x3f15fa3d	0.5858496
215	0x3d7f6221	0.062349442
216	0x3e96d0e0	0.29456234
217	0xbf228c1d	-0.63495046
218	0xbe279f9c	-0.1636948
219	0xbd8762ee	-0.06610666
220	0x3e683e38	0.22679985
221	0xbe95354c	-0.29142225
222	0x3e646a99	0.22306289
223	0x3d4c67ed	0.0499038
224	0x3cb51daa	0.022108871
225	0x3e5061c2	0.20349792
226	0x3ecce117	0.4001548
227	0x3dcd501c	0.10025045
228	0xbd257017	-0.0403901
229	0xbed7e395	-0.4216582
230	0xbe8b1a67	-0.2716858
231	0x3e5ccc25	0.2156225
232	0xbea90caa	-0.33017474
233	0xbe9060c4	-0.28198826
234	0xbedb3b6b	-0.4281877
235	0x3f949f16	1.1611049
236	0xbe61c2df	-0.22046994
237	0xbbdd984b	-0.0067625395
238	0xbe01c680	-0.12673378
239	0xbdcf29f8	-0.10115427
240	0xbe8aaaca	-0.27083427
241	0x3f2fc22a	0.68655646
242	0xbe44b7f5	-0.19210799
243	0xbf114ae8	-0.5675492
244	0x3d3f22ad	0.04666393
245	0x3f4524fd	0.77009565
246	0xbe5abbb1	-0.21360661
247	0x3ef84de4	0.48496926
248	0x3f0d1964	0.5511687
249	0xbd305f92	-0.043059893
250	0xbd27236c	-0.040805265
251	0x3c99b020	0.01876074
252	0xbe95a413	-0.2922674
253	0x3eaa2613	0.33232173
254	0x3e30911b	0.17242853
255	0xbed96c50	-0.42465448
