TS-CVAE/experiments/pedestrians/models/eth/models_04_Jun_2021_13_35_51_eth_ar3/model_registrar-33.pt (torch_old, 545378 bytes, 43 tensors)

weight_ih_l0 f4 [128, 6]
00000000: e8e5 3abd be4b ae3c e19c cebd d4c8 733c
00000010: 1ce3 12be 1e46 843d d582 9ebd 6bdb 28be
00000020: 82d5 c4bd 63db 2f3e 1c9b 9ebc cb96 2d3e
00000030: c5e4 1c3d 8dac 093c a1c9 29be 3b1b 1dbe
00000040: dad4 2dbe d96c 1c3d b742 c1bd 7b2e f23d
00000050: e517 213e 2b87 fc3d ae16 f9bd 8d25 973d
00000060: d189 24be df0a b0bd 1b1c cdbc 1295 ab3e
00000070: cf52 31be 8f5d 68be 5aca 8a3e 0d28 94bd
00000080: 6683 1dbd 34eb 833e f561 bf3d 4c82 a8bd
00000090: 4954 3bbe 9fbb 71bd e833 b7bd efd4 023d
000000a0: c443 41be cc7b 5fbe 573a a9bd 0d5d 813e
000000b0: d6e2 da3d 1347 4bbd 9980 99bd ee51 d83d
000000c0: ede8 bf3e 428e 503e 04eb 2d3e edd9 81bd
000000d0: aee7 33be 0ce4 f2bc c820 48be a60a 8bbe
000000e0: 63b8 27bc 72eb 983e 8f9e 17bd 822c dfbd
000000f0: 31f0 863e 5547 83bd c944 afbe 0f3e 003e
00000100: fed0 54be 9ec1 773e 86f7 ffbd 5268 98bd
00000110: fa6a 0abd fda8 173e b1f5 613e 27f3 e73d
00000120: 697a 87bd 0428 febc 57b9 5d3c 5bbf dcbd
00000130: ddef 77bd 7cd7 48bd 409d 113d 526f 553e
00000140: 4a13 373d e328 0fbd 3404 ddbd 4d5c 053c
00000150: 2c85 83be dfbb 09be d7da 82be dd56 c33d
00000160: 05d2 c73e ba12 6ebd 094a ebbd 66eb 213e
00000170: 5f3c 0e3e 27d2 5a3d 201f 8dbd 42bb a83d
00000180: cfe1 6c3d c672 6e3e c825 683e 0380 47bd
00000190: cf87 dbbd e069 8bbe 9d49 553d 6310 05be
000001a0: a846 0fbd 8797 92bc f045 083b 3bfb c83d
000001b0: 2bd5 093e 7f56 35bd 1ddd bd3d 8eb5 6cbd
000001c0: ed5b 553e 3968 e03e 934e 1bbe 8293 2bbe
000001d0: a99e 4ebd 5b12 ae3e 1b69 163e b1cc 8a3d
000001e0: b1fc 11be 3fe7 ef3d 8397 b43d ac2e 54be
000001f0: b9e5 d0bc e552 5cbc 01a7 a93d d899 ba3e
00000200: f84c 91b9 26ed 1fbe bff4 8abd 4810 e83d
00000210: c7bc 01bd 35b6 43be 7e95 70bc 8bed 7d3d
00000220: b488 04bd d0be 21bd 0057 6a3a 30ac b9bd
00000230: dc80 a23d 53d2 38bd afa8 cc3d 3e27 84bd
00000240: 53ff f63d a447 04ba d8ea 1cbe 7324 0cbd
00000250: baeb 95be b5a4 9fbd cbb2 bdbd c047 e1bc
00000260: 485a ddbd c42b e93d 5176 fabd 89b2 913d
00000270: 0082 803e bf32 8bbe 99b9 b2be d679 bb3e
00000280: 0acc 1f3e 9901 6c3e e9ff 683d c186 bc3e
00000290: cd92 c23e 90ab 4d3e 107e 3c3c b4e8 573e
000002a0: bc19 4b3d 6463 f13d db3b 05be 6339 863b
000002b0: 5627 2b3d f373 083e 1a7c 07be a413 26be
000002c0: aa7f 3fbe fa26 5abd 81cc f8bc 666a 063e
000002d0: b7d1 edbc c2d9 dabd 6963 193e bf83 ffbc
000002e0: cef1 14be fb98 bebc bff6 dabd 69ae e83d
000002f0: a957 473e 9aea 43be 6c37 53be 042d b53d
00000300: 849c f23d 1e7c 1f3e 4d80 e5bd a805 15be
00000310: 6d4a 4cbd ed52 50be 527c 3a3e 33c4 f4bc
00000320: 6ce8 ecbc 2561 993d 4cef 163e d861 ebbd
00000330: e08e 53bd 8cda 3a3d 3efe 87bd afaf 0bbd
00000340: 7e55 90bd 331b 7abd 290c 473d a9be 643d
00000350: c72a 083d 166b 9dbd 0a9a fdbd 33c6 32be
00000360: bcd7 af3d 27ab e2bd bc3c 3a3d 09a7 f33d
00000370: 1e5e 9cbe 1582 17bd 27e2 3d3e e238 11be
00000380: cf0e 10bc d46d bfbd b8a6 4ebe 7590 893d
00000390: ab2e 393d 4fbf bebc af79 78bc cca0 253c
000003a0: 10f5 91bd 06e7 983d fb39 82bc ce1c d3bd
000003b0: 6046 263e 781d 20bd 43ea 7bbc 9f40 283d
000003c0: 4c9e bc3e 3b94 c0bc 1936 f3bc 81c6 92bd
000003d0: eab8 f6be 9ef6 6e3e 6734 3fbe fa1e d4bd
000003e0: 094d 4f3e 4008 4b3e 7aa6 593e aa89 8b3d
000003f0: 9252 973e a776 28be 3b24 0ebe dd8c db3d
-0.045629412 0.021276351 -0.10088516 0.014879424 -0.14344448 0.06458686 -0.07739798 -0.16489951
-0.09611036 0.17173533 -0.019361071 0.16952054 0.03830411 0.008402956 -0.16580822 -0.15342419
-0.16975728 0.038189743 -0.09436553 0.11825272 0.15731771 0.12330469 -0.12162529 0.07380209
-0.16068198 -0.085958235 -0.025037816 0.3351217 -0.17316745 -0.2269194 0.27107507 -0.072342016
-0.03845539 0.25765383 0.09344856 -0.08227977 -0.18293871 -0.05901682 -0.08945447 0.03194135
-0.18873507 -0.21824569 -0.082630806 0.25266305 0.10687797 -0.04962833 -0.07495231 0.10562502
0.37482396 0.20366767 0.16984183 -0.06340394 -0.17568848 -0.029649757 -0.19543755 -0.27156562
-0.010236832 0.2986713 -0.037016448 -0.10897161 0.26355127 -0.0641009 -0.34232166 0.12523673
-0.20782849 0.24194953 -0.12498383 -0.074417725 -0.033793427 0.14810558 0.2206638 0.113256745
-0.06615145 -0.03102494 0.013532958 -0.10778686 -0.060531486 -0.049033627 0.035550356 0.20843247
0.04469613 -0.034951102 -0.10791817 0.008139682 -0.2568754 -0.13450573 -0.25557587 0.09538052
0.3902742 -0.058123328 -0.114887305 0.15812454 0.13890217 0.053423073 -0.06890702 0.082388416
0.057832535 0.2328597 0.22670662 -0.048706066 -0.10719263 -0.27229214 0.052072156 -0.12994532
-0.034979492 -0.01789452 0.002079364 0.098135434 0.13460223 -0.044271942 0.0927069 -0.05779033
0.20835848 0.43829516 -0.15166692 -0.16755489 -0.05044428 0.3399838 0.14688532 0.06777323
-0.1425655 0.117140286 0.08817961 -0.20720929 -0.025500165 -0.013447498 0.082838066 0.36445498
-0.000277139 -0.15617809 -0.06784963 0.113312304 -0.031674173 -0.19112475 -0.014684079 0.061994117
-0.032356933 -0.039488614 0.00089393556 -0.09066045 0.07934734 -0.045122456 0.09993111 -0.06452797
0.12060418 -0.00050460757 -0.15323961 -0.03421445 -0.29281408 -0.07795087 -0.09262618 -0.027500033
-0.108082354 0.11385301 -0.12229598 0.07114131 0.25099182 -0.27187154 -0.34907225 0.3661639
0.15605178 0.23047484 0.05688468 0.3682156 0.38002625 0.20084977 0.011504665 0.21084863
0.04958509 0.117865354 -0.13011114 0.0040961965 0.04178556 0.13325481 -0.13230935 -0.1621843
-0.18701044 -0.053259827 -0.030370953 0.13126525 -0.029030664 -0.10686065 0.14979328 -0.031190751
-0.14545366 -0.023266306 -0.10691594 0.11361391 0.19467033 -0.19132462 -0.2062661 0.08846477
0.11846259 0.1557469 -0.11206112 -0.14552939 -0.049875665 -0.20344134 0.18211487 -0.029878711
-0.028919421 0.07489232 0.14739722 -0.114932716 -0.051649928 0.04561858 -0.0664029 -0.03410309
-0.07047556 -0.061061095 0.04859558 0.05584589 0.03324392 -0.07686441 -0.12382896 -0.1745842
0.0858607 -0.11067801 0.045468077 0.11897094 -0.30540556 -0.03698929 0.18543302 -0.14181855
-0.008792593 -0.0934712 -0.20180786 0.06717006 0.04521052 -0.023284582 -0.01516573 0.010109138
-0.0712682 0.07465939 -0.015896788 -0.103082284 0.16237783 -0.039090604 -0.015375677 0.041077252
0.3683952 -0.023508182 -0.029688882 -0.07166768 -0.48187953 0.23336264 -0.18672334 -0.10357471
0.2024423 0.19827366 0.21254912 0.06813367 0.29555184 -0.16451512 -0.13881008 0.10720227

weight_hh_l0 f4 [128, 32]
00000000: bf91 64bd cc3d 21be 7727 963d bad2 d33d
00000010: 4d1a e93d 16e7 783d dc77 c6bd a437 4cbd
00000020: 5623 023e 1c11 723e c7d3 91bd 37d6 9e3e
00000030: cc5b 00be 11f8 033e dd10 8c3d 74f2 683d
00000040: 66e5 ecbc 35b7 c0bd be50 9f3d c9be 18be
00000050: 4ff9 4cbe cb1b dcbc c263 d2bd d9ea 91be
00000060: 5523 683e 4739 08be a208 593e b854 5a3e
00000070: 6467 b23b 634b aa3d 11c8 703d 2c8b 40be
00000080: 113f 1e3e af31 6abe bfad 673e 405a 1abd
00000090: df8d 4b3e bd4c 8a3e 8ca0 2c3c 82da bebd
000000a0: a7e1 943e b1ec fd3c 0191 a9be 7be1 9dbc
000000b0: 2591 5fbe 131f e63d bb77 173e 40d1 e8bb
000000c0: 9a80 15bd 1e0b 0b3e fc05 2a3c bde7 b9bd
000000d0: 6101 10be b352 253e d1b4 2cbe b065 22be
000000e0: 6891 42ba a5d6 3bbe 7360 383d f1b6 39be
000000f0: 2d6e fdbd ca68 a23d c4e7 ca3d fbd2 2fbe
00000100: b9ca eb3d 0a51 26be 4ff2 a4bd a9bb 173e
00000110: 7dce 4d3e 9fca 173e c3ed 25be ac06 69be
00000120: 54aa 2cbd dd58 383e 411e 6dbe f2a4 3e3e
00000130: 0c0e 85bd 5575 05be 91f8 193e cc24 96be
00000140: 748b 3e3d ed1f cebd bb4d bd3d 41e1 95bd
00000150: d51f 153d 1a02 a33d d5d6 5b3d e49f 023e
00000160: 02cd 823e 0659 153d a03d 4d3e 7524 603e
00000170: 1ac4 e53d 863b 313d 5210 0cbe 092d 09bb
00000180: 0c97 463d 5760 aebd b773 ca3d 323a d53d
00000190: 9bb7 02bc c3c3 c73d 5224 18be 610a 1f3d
000001a0: 8438 db3c 488a 023e db1e 83be cd8e e53c
000001b0: be3f 38be 693c 32be f025 29be 1b33 51be
000001c0: aee2 13be ffb5 2a3e 2352 c5bb e01d 06be
000001d0: f685 16be b9ac 1e3e 5772 323d 0f12 1cbe
000001e0: 5c54 843d 4efe 57bd 1789 ad3c 9a96 dd3d
000001f0: 38dc 46be 7fcd f83d d33a 2f3e 4578 d3bd
00000200: c87f c4bd 3e73 83be 822d bb3e ea9b 6dbe
00000210: 3c0b 963e b5d2 653d 51c6 d33b 0e06 843d
00000220: 90ae 1d3f efda a5bd ce77 a4be e9b7 b63d
00000230: 67f0 203a f9dc f2bb 6e6d babe 54be 0dbd
00000240: fa01 6ebe a990 61bc fa7d 0e3f ed58 2abf
00000250: 2bda 5bbc a8e1 1d3f 38ef 203d f742 35be
00000260: 9e06 03be d5cd 96be 2715 393e c8b9 3ebf
00000270: c056 06bf 2cd0 6fbc cf45 343e 97e5 1fbd
00000280: ae1d 5a3d 371c a5bd 41c2 dc3d 682c 57be
00000290: 43bf aebc 8567 9c3d cee0 22bc 71bf 0ebe
000002a0: 38b5 61bd ed97 3c3e 78b8 3abc 03c6 e9bc
000002b0: 28c8 4dbe 218c b13b 5b73 913a e2c1 26be
000002c0: 5345 3c3d 8da5 123e 384f abbe 9b1e 013e
000002d0: 1981 5bbc 3dcd 06bc 72aa 43be 500a 90bc
000002e0: cbd0 cdbc 98e7 42be d3ff 8e3e eac8 763e
000002f0: 4f67 af3d 75e9 eb3d 504b 833e 4fc5 a0bb
00000300: 2166 943d 60e6 003d fb46 b5bd 018b 113e
00000310: ad81 b23d fc9e 2a3d 70d3 bc3b 74bb 70be
00000320: 2c92 00be 383b 7d3e 3a9c 58be d6b5 a73d
00000330: c1c5 66bd da4d fa3d a2b5 6f3d 8bcf 82bc
00000340: 9133 15bd a5d2 acbd f384 c7bd 9bd1 1abe
00000350: b19c 8dbc fd27 803e f3dc d13c da7c 41bd
00000360: 2094 8cbd b32d 9abb 195f 953e c8a0 f73d
00000370: 74ab 37be 6d6c 4c3e a37b bfbd a1f1 fa3c
00000380: 543b 883e ffee edbd b376 333e ec66 de3d
00000390: a224 4fbd 3f9e e93d 70f7 d53d f848 24bd
000003a0: 3e86 28bd 639b 1fbd 7d75 f7bd 36ea 10be
000003b0: 5162 b43d c75d 8bbd 1278 9e3d 8ac9 393d
000003c0: 10bc 183d b4a2 073c 24f0 babd 059a f1bd
000003d0: ddfa 83be 0c94 683e e711 b2bd bcf6 83be
000003e0: 4681 c03c 9aa3 143d 1a5e ef3d eaad 043e
000003f0: d6de 043e c88c 263e 9d4c 8f3c a6aa 6d3e
-0.055803057 -0.1574623 0.07331746 0.10342927 0.113819696 0.060767256 -0.0969083 -0.04985775
0.12708792 0.23639339 -0.071204714 0.31022808 -0.12535018 0.12887599 0.06839154 0.056871846
-0.02891798 -0.09409944 0.07779072 -0.14916529 -0.20016979 -0.026868721 -0.102729335 -0.28499487
0.22669728 -0.133031 0.211947 0.2132138 0.005444454 0.0831516 0.05878455 -0.1880309
0.15453745 -0.22870515 0.22624873 -0.037683725 0.19878338 0.27011672 0.010536324 -0.09319021
0.2907841 0.030996652 -0.33118442 -0.019272557 -0.21832712 0.11236396 0.14791767 -0.0071050227
-0.036499597 0.1357846 0.010377403 -0.09077404 -0.14063026 0.16144828 -0.16865851 -0.15859103
-0.000742218 -0.18343599 0.045013856 -0.18136193 -0.1237453 0.07930143 0.09907487 -0.17170326
0.11513276 -0.16241851 -0.08054029 0.1481768 0.200983 0.14823388 -0.1620398 -0.22756451
-0.042154625 0.18002649 -0.23156072 0.18617609 -0.0649682 -0.1303304 0.15036227 -0.2932495
0.04651971 -0.10064683 0.092433415 -0.073183544 0.03640731 0.07959385 0.053671677 0.12756306
0.25547034 0.036461852 0.2004304 0.21888907 0.11219044 0.043269657 -0.136781 -0.0020931384
0.048483893 -0.08514469 0.09885352 0.104114905 -0.007978345 0.097541355 -0.14857605 0.038828257
0.026760347 0.12748063 -0.25609478 0.028022194 -0.17993066 -0.17405857 -0.16518378 -0.20429651
-0.1444194 0.16670989 -0.0060217544 -0.13097334 -0.1469954 0.15495576 0.043566074 -0.15241264
0.06461403 -0.05273276 0.021183534 0.108197406 -0.19419944 0.1214857 0.17112283 -0.10325674
-0.09594685 -0.2567386 0.36558157 -0.23204008 0.29305446 0.05610915 0.00646285 0.06446467
0.61594486 -0.08098399 -0.32122654 0.08921797 0.00061393384 -0.007411596 -0.36411613 -0.03460534
-0.23242941 -0.0137674 0.55660975 -0.6654194 -0.0134187145 0.6167245 0.039290637 -0.17701326
-0.12795493 -0.29453912 0.18074475 -0.7450223 -0.5247612 -0.014637034 0.17604755 -0.039037313
0.05325096 -0.08062022 0.107792385 -0.21013033 -0.021331435 0.07636932 -0.009941293 -0.13940217
-0.055104464 0.1841733 -0.01139652 -0.028536802 -0.20095885 0.005418316 0.0011097001 -0.16284898
0.04596455 0.14320965 -0.33458877 0.12609331 -0.0133974785 -0.008227644 -0.19107988 -0.017583042
-0.025123974 -0.19033659 0.27929553 0.2410008 0.085646264 0.11519138 0.25643396 -0.0049063335
0.07246042 0.031469703 -0.08851429 0.14213182 0.0871614 0.041655526 0.00576251 -0.23509008
-0.1255576 0.24729621 -0.21153346 0.08188979 -0.056340937 0.1222188 0.058522828 -0.015968105
-0.03642613 -0.08438615 -0.09742155 -0.1511902 -0.01728663 0.2503051 0.025618052 -0.04723821
-0.0686419 -0.004705155 0.29174116 0.120912135 -0.17936498 0.19963236 -0.09349754 0.030632796
0.26607764 -0.116178505 0.17525749 0.108594745 -0.050572045 0.11407136 0.104475856 -0.04010865
-0.04114365 -0.038966548 -0.12082956 -0.14151844 0.08807815 -0.06804996 0.07737745 0.04535822
0.037288725 0.008278538 -0.091278344 -0.11796955 -0.2577733 0.22712725 -0.08694821 -0.2577418
0.023499142 0.036288835 0.1168787 0.12956968 0.1297563 0.16264641 0.017492587 0.23209628

bias_ih_l0 f4 [128]
00000000: eaac eb3c 804b 8f3e 2c22 c13d 9ad6 043e
00000010: dcb6 e33e 54b2 9c3e e414 4e3e c767 493d
00000020: 6fac 923d 55c1 ed3d 5b61 ac3e dadd 923e
00000030: 7132 e23e 1b5f 553e cfd2 213e e835 2d3f
00000040: 62e3 ba3d e0cd bd3e a757 fa3c ed71 2c3e
00000050: 200f 373f 7fc8 a23d e71d cd3e 37d3 793d
00000060: a773 c83e f17f 043e 2a8b 613d 6a6d 803d
00000070: 334a 77bb e338 903e 8c57 a33e 9ecf ab3d
00000080: e84c 393d 03ba d6be 65cc 92be a740 30bd
00000090: d250 25bf dff5 47be 4d42 b1be 4a90 8cbe
000000a0: c294 1bbe fede 81bd f3cf d1bd 3756 83bd
000000b0: e10b 8bbe 9b3c 96bd c9b4 80bd 5b5e 4cbf
000000c0: ae79 2fbd 85b6 32be 05c2 33bd 7f35 c93d
000000d0: fc30 36bf 2896 6bbd 9712 94be 0d8b 32bd
000000e0: f5a9 65be 4b15 e43d aa26 8439 6feb fa3d
000000f0: 29aa 07bd 9a75 17bf d158 0bbf 111d 95be
00000100: be5d 183e 273f ea3d 1431 6fbd 029e ce3c
00000110: 4ab8 c8bd 1655 683b fff3 da3d 9635 f8bc
00000120: 7ba4 f43c e794 803d bdb0 a5bd 48bf bc3c
00000130: 44b5 d8bd a136 1ebd aec4 56bd 0202 aebd
00000140: a742 a3bd 4725 b9bd 382c 2d3e d395 19bd
00000150: 4970 833d 1bf0 9a3d 049d cf3d e3d6 04be
00000160: a213 fa3d bf23 b1bd abf8 1e3d 5793 52be
00000170: 6463 debd 1fca fb3d 7821 cc3c 2d54 a3bd
00000180: 2591 6d3e 4241 793e 5b1f 093e b640 3a3e
00000190: 4d92 183f ce59 833e 449a 683e 92ae a73d
000001a0: d20e 37bd a8b9 273e 5761 de3d 375b 663e
000001b0: ed04 c63e 592e 3c3e 7469 3e3e 9cd3 5b3f
000001c0: 0696 6c3e 5041 983e 38a2 013e 6183 443d
000001d0: 16ad 4c3f ac92 c33d 165d ba3e 07b3 cd3d
000001e0: 9581 343e bd4c 2f3e 5deb 673e 9fb9 cabb
000001f0: 15f5 0b3e 4d19 f53e 264f c13e 5413 803d
0.028768975 0.2798729 0.09430346 0.12972489 0.44475448 0.30604804 0.20125157 0.049171235
0.07161795 0.11609141 0.33668026 0.28684884 0.4417911 0.20837061 0.15803073 0.6766038
0.09125401 0.37071133 0.030559374 0.16840334 0.71507454 0.07948398 0.40061876 0.060992446
0.39150736 0.12939431 0.055064358 0.06270869 -0.0037733435 0.281684 0.3190273 0.08389209
0.04523936 -0.4193879 -0.28671566 -0.043030407 -0.64576447 -0.19527386 -0.34620896 -0.27453834
-0.15193465 -0.063413605 -0.10244741 -0.064129286 -0.271575 -0.07335778 -0.06284482 -0.79831475
-0.042840652 -0.17452438 -0.043886203 0.09824657 -0.71168494 -0.057516247 -0.28920433 -0.04358964
-0.22428115 0.11136874 0.0002520581 0.12251937 -0.03312126 -0.5916382 -0.544324 -0.29123738
0.1487951 0.114378266 -0.058396414 0.025221828 -0.09800775 0.0035451106 0.1069107 -0.03029899
0.029863587 0.06278401 -0.08090351 0.023040429 -0.10581449 -0.038626317 -0.052433662 -0.08496477
-0.07971697 -0.09040313 0.169114 -0.0374964 0.06417901 0.07565328 0.1013737 -0.12972598
0.12210776 -0.08649396 0.038811367 -0.20564018 -0.10858801 0.12294411 0.024918303 -0.0797504
0.231999 0.243413 0.13390867 0.18188748 0.5959824 0.25654453 0.22715098 0.081875935
-0.044691868 0.16379416 0.1085841 0.22495733 0.38675633 0.18377055 0.18594915 0.85869765
0.23104104 0.2973733 0.12659538 0.047976855 0.7995161 0.0954946 0.36399144 0.100439124
0.17627557 0.17119117 0.22648378 -0.0061866785 0.1366771 0.47870865 0.37755698 0.062536865

bias_hh_l0 f4 [128]
00000000: 274c 7ebc 8301 963e 5cbd 21bd 3619 953e
00000010: e0a9 163f 708e 7e3d cafb cb3d 5a2d 683e
00000020: b684 203e 73dd 8f3e 394e a43d 00e9 253e
00000030: 9661 503e 07ad 003f 4b5c 4b3e 3347 563f
00000040: 157b 8c3b b9fe b93e 6f63 85bd a235 fe3d
00000050: 57dd 5c3f 0339 853e cfb8 db3e 124c 003e
00000060: 301a 963e 5d04 ea3d b8b4 033e 3987 ecbc
00000070: dee5 aebd 4870 8b3e 93ef c63e 074d 093e
00000080: cd41 32bd 5c5e c9be 7acf 48bd 7227 7fbe
00000090: 9abf acbe 2fd6 04bd 9d31 52be feb6 d6be
000000a0: 54e4 a1bd 9003 f5bd ba08 abbd 6253 00be
000000b0: 8d78 8cbe 606e 81be b993 303d 358a 3fbf
000000c0: 42ce 31be 5a44 78be 427f 7ebc 7910 aabd
000000d0: e359 11bf a799 61be 2a24 03bf 2197 92bd
000000e0: f310 dbbe 8cfe 49be 80ae 81be f83d 7d3d
000000f0: 1c42 7bbd 5c27 b7be e210 d3be 565a 263c
00000100: e5b0 09be b619 1ebe efb9 e43d c71c f9bc
00000110: eb75 223e 48e8 123d 4644 a2bd 87eb 873c
00000120: 913a 2f3e 9198 fcbc 0a39 403d 3e35 253d
00000130: 9d64 993d b0e2 e33c 1643 05be b30e 7b3d
00000140: 6da9 583c 9ba2 1b3e 9aa9 c13d 4704 28be
00000150: eb0b bebd 7909 793c 5ba2 11be a662 f23d
00000160: 7d5d eebd 05d9 9c3c d91f 2b3d f1f1 b9bd
00000170: ceed c6bd cf6f 1fbe 9f91 c139 369f c63c
00000180: 2888 ef3d 1667 c13e 9dcb b5bc bf82 d13e
00000190: 12d1 313f b0c5 233e 31f9 d93e c0f1 c83e
000001a0: b51f cabd bb9c 3e3e db1f b33e fd8b 9a3e
000001b0: fa3e cc3e faff c03e 89af d83d fdd6 5d3f
000001c0: c385 7f3e 786f 243e 8340 6d3e 5fa6 9abd
000001d0: 6a37 433f bdbb 923e 5009 043f 1c9f 6e3e
000001e0: 026c ba3e 175d 163e 488a 8e3e 93b1 8d37
000001f0: c36a f03b e642 f23e 7f24 cf3e fccb 863e
-0.015521086 0.29298028 -0.039487228 0.29120797 0.5885296 0.062147558 0.09960134 0.2267355
0.15675625 0.2809864 0.08022732 0.16202164 0.20349726 0.5026402 0.19859426 0.8370239
0.0042871335 0.3632715 -0.06513106 0.124125734 0.8627524 0.2602006 0.42914435 0.12529019
0.29316854 0.114266135 0.12861907 -0.028873073 -0.085399374 0.272341 0.38854656 0.1340829
-0.043519784 -0.39329803 -0.04902599 -0.24917391 -0.3373993 -0.032430824 -0.20526738 -0.41936487
-0.07904878 -0.1196357 -0.08351274 -0.12531808 -0.27435723 -0.25279522 0.04310963 -0.7482026
-0.17363837 -0.24244824 -0.01553327 -0.08303923 -0.5677778 -0.2203127 -0.51227057 -0.07157732
-0.4278637 -0.19726008 -0.25328445 0.061826676 -0.061342344 -0.35772216 -0.41223818 0.010153374
-0.13446386 -0.15439495 0.111682765 -0.03040923 0.15865295 0.035866052 -0.079231784 0.0165918
0.17112185 -0.030834468 0.046929397 0.04033398 0.074898936 0.027818054 -0.13013873 0.061293315
0.013223988 0.15198748 0.09456177 -0.16407882 -0.09279617 0.015200012 -0.1422209 0.11835222
-0.11638925 0.019146452 0.04177842 -0.0907935 -0.097133264 -0.15569995 0.00036920325 0.02424584
0.116958916 0.3777396 -0.022191817 0.40920064 0.6945964 0.1599338 0.4257293 0.3924694
-0.09869329 0.18614475 0.3498524 0.30184928 0.39891797 0.37695295 0.10580356 0.8665617
0.2495337 0.16058147 0.2316914 -0.07551264 0.7625643 0.28658858 0.5157671 0.23302883
0.36410528 0.14683948 0.27839875 1.68912e-05 0.0073369457 0.47316664 0.40457532 0.26327503

weight_ih_l0 f4 [128, 2]
00000000: dcec cc3d f2c8 da3d 4146 d6bd 26c4 ba3c
00000010: 66a9 923c 0698 9cbc 74f4 d0bd 2754 94bc
00000020: bd30 33bd c7e5 7abd eb11 fdbc 4ae1 0c3e
00000030: e4a3 cf3c 687b 413d bed3 9cbd 620c b3bd
00000040: b433 893c 0681 56bd 4048 e83c c9a8 5d3d
00000050: 6443 bdbc 5a02 ac3d ec68 463c f168 09bd
00000060: c94b 9ebd d09a c83d 2550 323d 0992 18bc
00000070: 1da1 e4bd 7fd6 0d3c 0a13 87bc 838d 013e
00000080: 8830 2abc dd12 e13d fee1 093d afce e83d
00000090: af88 a33d 3e34 b63c a5f2 f93c fd2c ad3c
000000a0: 746a a43d 2ab6 c1bd dfef 20bd d547 ff3d
000000b0: ced2 afbc 0221 083e b297 33be 14c0 673d
000000c0: c227 083d be52 0d3d a7f6 babd 71ac 54bb
000000d0: 49fb 573d 81a8 8b3d 4b4a a1bd a6a3 f03d
000000e0: 4ddf d8bc 5c6c 923d 5eb6 abbd 8324 66bc
000000f0: ba96 413e bb0b 8a3b 20c9 91bd f1cb 06be
00000100: da83 d3bd 48ac 40be c1af b3bc 35d1 a7bd
00000110: 6568 e83d f147 dfbd 4abe cd3d d934 5c3d
00000120: dcbd 963e 9028 09be 4b26 8abc 14df b93c
00000130: d57f 6fbd bea2 693e 8298 9f3d 6603 56ba
00000140: c03a 00be 1651 2bbe 1d47 3c3e 3ae9 76bd
00000150: ceff 113e fc97 2a3d 6feb 98bc c94c 1e3d
00000160: 4fc6 0ebe fad5 053e d1ff 58be 8fe9 f93d
00000170: 0bf6 7b3d 6a2c 0b3e 2b16 793e 1065 7e3d
00000180: 2179 093e 74e6 883d 7fd0 e8bd 0ecb 40be
00000190: 4b76 643d 84e0 473e da3c 56be 4142 a2bd
000001a0: a8a5 1cbe 58c5 08be 79e2 2a3e 8cf9 19bd
000001b0: 15bc 3b3d 24db 053e 6c28 27be cdfa 78bd
000001c0: 9bf2 abbd 7354 783d a398 c9bc 4195 9cbd
000001d0: 68ba 63bd 1b12 7f3d 0382 fcbd f999 6cbb
000001e0: 6b8a 993e a6ff f5bd f293 fcbc be45 de3d
000001f0: 17cd 933e cd82 b73d c1f4 32be ec9f 68be
00000200: e61a b03d 2338 d53d b3dd e8bc a5ad 22be
00000210: a4e5 0ebd 5aec 07be fc29 57bd fa6e 15be
00000220: c1b0 c4bd 1765 ad3d 7ebf 6f3e 6471 cdbd
00000230: 6758 683d bab3 2cbe 3b34 943e ef27 2fbd
00000240: 6054 bc3e e898 c33d 4338 29be 7156 953e
00000250: 9c48 483e 5022 1d3e c5fb 1fbe 46d4 c33d
00000260: 0aa6 b6bd 92d0 f9bd 9f19 df3e 3ade 773d
00000270: d342 87bd 1433 23be d07e 71bd 0611 443e
00000280: 018f c83d ead6 5ebd b37c 3abe bf4e d23d
00000290: 1709 8f3d ac56 1f3e 3e62 dc3d 132e 233d
000002a0: dcbe 4ebd 36f1 acbd 4b94 89bd 86aa 873d
000002b0: eea4 8f3c bc07 2dbe 7e1e 6e3e cd87 7f3d
000002c0: a03d 903e 1b56 a73d 9f08 143d 6ade 6c3e
000002d0: 5d81 72be 2382 683d fddd c53d 652d bdbd
000002e0: 90b3 a33e 7e97 823d 96ca ae3d e4c5 373e
000002f0: d194 8c3e 73d1 1b3d 49ad bcbc 225a 86bd
00000300: 39cb 37bd f9c8 16bd d9c3 153d 6f71 aa3d
00000310: f83f 183e 01e0 43be 9caf 093e 817c 0c3d
00000320: 744c 9abc 9384 64be edef 4ebd 365d 9c3d
00000330: 516d 98bc 20e9 d93d 0cf5 0abe 8755 01be
00000340: 2027 efbd d09c 6dbc d486 283d 2cf9 5cbe
00000350: e0db 413e 7bb0 b73d 26e7 a33d 8887 84bc
00000360: 560a 3f3e 2e08 313e 942b 68be dbbb a93d
00000370: 12b3 3d3d 7e97 353e df7a 9e3d d93f 5d3e
00000380: 17a7 27bd 2174 623d c910 40be 1cc8 fbbd
00000390: 7b76 10be 530d e2bc 9213 f5bb b00d 0f3d
000003a0: cf10 1b3d bb55 dfbd e752 55bd 2bc5 17bc
000003b0: 0d02 9f3d 63aa 1a3e 7aa1 6fbe 510e d4bd
000003c0: f379 883e 0d18 043e 89dd edbd bb82 40be
000003d0: def0 663c d427 26bd 8d89 47bd 36b3 283e
000003e0: de99 463d fbbe 9c3b f0f0 00bd 3dad a7bd
000003f0: 6814 673e 74f6 053e da74 c1bd 91db 8fbe
0.10006115 0.106828585 -0.104626186 0.022798609 0.017903041 -0.01911546 -0.10202876 -0.018106533
-0.043747652 -0.06125429 -0.030892333 0.13757816 0.025346704 0.04723683 -0.07657574 -0.08742596
0.016748287 -0.05236914 0.028354764 0.054116044 -0.023103423 0.08398886 0.012109976 -0.033547346
-0.077292986 0.09795153 0.043533463 -0.009312161 -0.111635424 0.008657097 -0.01648857 0.12651639
-0.010387547 0.10989926 0.03366279 0.11367547 0.07985055 0.022241708 0.03051121 0.021139616
0.08028117 -0.09458573 -0.03929126 0.12464873 -0.021462824 0.13293841 -0.17538336 0.056579664
0.03324104 0.034502737 -0.091290765 -0.0032451416 0.05272988 0.06819249 -0.078754984 0.117499635
-0.026473666 0.07149574 -0.08384393 -0.014046791 0.18905154 0.004212824 -0.0711844 -0.13163735
-0.10327883 -0.1881572 -0.021934392 -0.081942 0.11348037 -0.109023936 0.100460604 0.053761337
0.29441726 -0.1339438 -0.016863963 0.02268938 -0.05847152 0.22815987 0.077927604 -0.00081639586
-0.12522411 -0.1673015 0.18386503 -0.060281016 0.14257738 0.04164885 -0.018666951 0.038647447
-0.13942836 0.13069907 -0.21191336 0.12202751 0.06151394 0.13591161 0.24324863 0.0621081
0.13425113 0.066845804 -0.113678925 -0.18827459 0.055776875 0.1951924 -0.2092165 -0.07922793
-0.15297568 -0.1335653 0.16687955 -0.037591502 0.045833666 0.13071877 -0.16324013 -0.060786057
-0.08395883 0.060627412 -0.024608916 -0.076456554 -0.055597693 0.062273126 -0.12329485 -0.0036102517
0.29988417 -0.12011652 -0.030832265 0.10853146 0.2886741 0.08960495 -0.17476179 -0.22717255
0.085988805 0.10411098 -0.028426027 -0.15886553 -0.03488697 -0.13273755 -0.052530274 -0.14593115
-0.09604026 0.08466547 0.23412892 -0.10031393 0.056724932 -0.16865435 0.289461 -0.042762693
0.36783123 0.09550649 -0.16525368 0.29167512 0.19558948 0.1534512 -0.15623386 0.09561972
-0.08918388 -0.12197985 0.43574235 0.060514666 -0.066045426 -0.15937454 -0.05895883 0.19147119
0.09792901 -0.054404177 -0.18211631 0.10268926 0.069841556 0.15560406 0.10760926 0.03983886
-0.050474986 -0.08444445 -0.06717738 0.06624322 0.0175347 -0.16897482 0.2325382 0.06238537
0.28172016 0.0817072 0.036141034 0.23131719 -0.2368216 0.056764733 0.096614815 -0.09237174
0.31972933 0.06376551 0.08534734 0.17946583 0.27457288 0.038041543 -0.023031848 -0.0656016
-0.044871543 -0.036812756 0.036563728 0.08322417 0.14868152 -0.1912842 0.13445896 0.034298424
-0.018835284 -0.22316198 -0.05052178 0.07634966 -0.018606814 0.10640168 -0.1357004 -0.12630282
-0.116773844 -0.014502719 0.041144207 -0.21579427 0.18931532 0.08969208 0.080030724 -0.016177908
0.18656287 0.17288277 -0.22672874 0.08287784 0.046313353 0.17733571 0.077382796 0.21606387
-0.040930834 0.05528653 -0.18756403 -0.12294027 -0.14107697 -0.027594244 -0.0074791396 0.034925163
0.037857827 -0.10905024 -0.052081015 -0.009263317 0.07764063 0.1510406 -0.23401442 -0.10354293
0.2665554 0.128998 -0.1161452 -0.1879987 0.014095513 -0.040565327 -0.048715163 0.16474614
0.048486583 0.004783509 -0.031479776 -0.081873395 0.22566378 0.13082296 -0.09446116 -0.28097203

weight_hh_l0 f4 [128, 32]
00000000: 897b 96bd 8bf5 96bc 2c3e 67bd 7041 843e
00000010: df2d adbd 6cce e83d 777d babd b58a eebc
00000020: aa21 43be d6d1 4cbd f006 4d3e 5069 5c3d
00000030: 3077 f43d f4af 293d 3cca fabd c160 043e
00000040: 0bda 0c3e 37b3 33be 13e7 41bc 0bd7 543e
00000050: 3aff eb3d 3683 fbbc e39f f6bd 1940 80bd
00000060: a809 1abe f41f 2bbd 0bdb 2ebe f860 743e
00000070: f58d 093e 0eb9 6cbe f529 07be 01bb 8f3e
00000080: d577 333d e50f 1dbe 7f6a c23d dc56 343c
00000090: 5512 1cbe 20ba debb d632 8fbe 89e2 81bd
000000a0: a703 d8bc 84e9 86bc 69c6 bebd 7a5d 21be
000000b0: a96d 583c 3760 593e 6e51 9bbd 06e9 8c3d
000000c0: 6427 b23d 9343 5ebd 0094 ae3d 9658 843e
000000d0: a73b 663e 93f6 2cbe d052 ba3d 37de 103e
000000e0: e4f3 123e e2d4 a1be e02c 963c 4232 22be
000000f0: 0075 88ba a0e2 dc3d 02b0 68bd 2883 523d
00000100: eee4 053d 82e2 3bbc 9629 d83d 2db7 aa3d
00000110: f4f5 58be b856 04be de2d 27be 9d79 f5bd
00000120: 88b5 7dbe 1160 87be 2f39 23be 03e1 29bd
00000130: f66c 4abd 8547 3f3e dd57 f8bd e48f af3d
00000140: 912b 6d3c 2232 593d 1485 fcbd ae5c 24be
00000150: 6886 1f3c 8469 eb39 faab 3cbe 60ea 1a3c
00000160: f5ad dcbb f52a a6be 486a 2dbd acf9 14bd
00000170: 9606 22be 9fa0 023e 5d15 e9bc ab4f ac3c
00000180: e594 533e c4b9 1fbd dbde 473e eaaa b03c
00000190: dde6 f1bd fb24 d9bd bc40 a0bd a6ba 59bd
000001a0: 0b30 0cbc 69e5 e13b d693 b7bd e8b6 a2bd
000001b0: 02ce 0cbe 235a e0bd 7949 88be c5d6 14be
000001c0: 1361 67be 195e 8fbc 10b5 5ebe d2bb c4bd
000001d0: fe00 003e 845b b83d 22ae 42bd 8ab9 3bbd
000001e0: 42b2 eeba 2d62 02bd d7df e83c 3ad5 063c
000001f0: e873 01bd ae5c b1bd 2b54 993c 424a 03bd
00000200: 7837 053e 7256 0b3d 3a9b a23d 2337 babc
00000210: fb07 963c 3ab5 483d d1a0 c53c d095 20be
00000220: 6f49 a93d f5e6 7e3d d576 cebd db22 22be
00000230: 2857 58bd 9bfa 4b3e ed0c 88ba 7c63 493d
00000240: 060c 86be 32c1 c63d 2796 cd3d 6dd9 e0bd
00000250: 3575 f53d 9767 0f3e 8bf4 173d b622 7abe
00000260: 210c 23bd 8073 003d 9fb1 e4bd 0d13 a7bd
00000270: 9d6f c6bd 2446 373e b5fa c43d d9c7 1fbd
00000280: 230f ca3c 52ce 3fbe f32d 21bd 1b97 9dbd
00000290: 74ca 3abe 78de 193e cd3d 02be 55b0 8f3e
000002a0: b6d6 6c3e abfd 9dbe 2656 05be 93ce bf3d
000002b0: b158 f83c 4ba8 093a c4f9 e8bc 5e1d b8bd
000002c0: 2ede 23be 5679 123d 7555 58bd 26ba ad3d
000002d0: 91cf ffbd ca10 17bd 3ce0 23be 7570 bd3d
000002e0: 1fb3 f33d 9a33 983d 34af 203e 0f25 e3bc
000002f0: a952 7f3d a939 68be 0b83 3e3e b8f7 bb3d
00000300: 3a70 db3c 9217 e73b 075a 653e 960f 44bd
00000310: e56f 48bd 26de 35be d61b 57be eb5d 5a3e
00000320: 44e5 10bd 2c73 6fbe d4ff 0dbe d85a 133d
00000330: ffb7 abbc de6c 0d3e 222b 03be 7663 95be
00000340: ce79 df3c 44a5 debd c940 e93c ec45 c6bd
00000350: 769d c73e 05df 02bc 99ea 1ebe 5bd9 6dbc
00000360: 0928 ed3d 281d 75be f162 6cbd f591 fd3d
00000370: df92 043e e46e 22be c3f8 53be 3d6f 273e
00000380: 106b df3c 6763 d63d 6574 c43c 4e00 0f3d
00000390: 8d62 b93d 67f3 9cbe 3ce7 8e3d 3940 2c3d
000003a0: 5cd6 ffbb f740 67be 9b55 25be 0184 883e
000003b0: ac69 9c3e 30e3 e7bd 4636 043e b769 06bc
000003c0: c467 a1bd c8cb 86bc 62dc eabd b9d2 b1bd
000003d0: 1153 f3bc 299b f2bb 3efb d1bd 486a 08be
000003e0: 34e4 e7bd 380f 8a3c 7bd6 af3d 423d d33c
000003f0: b28b 42be 844a fbba b539 413d 83c2 313e
-0.07347781 -0.01842763 -0.056455776 0.25831175 -0.08456015 0.11367497 -0.09105962 -0.029118875
-0.1905581 -0.050004803 0.20022178 0.05381137 0.11936796 0.041427568 -0.122456044 0.12927534
0.13755052 -0.17548834 -0.011834878 0.20785157 0.1152329 -0.030702215 -0.12042215 -0.06262226
-0.15042746 -0.04177852 -0.17075746 0.23865116 0.13433059 -0.23117468 -0.13199599 0.2807236
0.043815453 -0.15338095 0.09492969 0.011007037 -0.15241368 -0.00679709 -0.27968472 -0.06342036
-0.02636893 -0.01646877 -0.093151875 -0.15758315 0.013209739 0.2122811 -0.07583891 0.06880383
0.086989194 -0.054263663 0.085243225 0.25848836 0.22483693 -0.16890936 0.090978265 0.14147268
0.1435085 -0.3160773 0.018331945 -0.15839484 -0.0010410845 0.10785413 -0.05680848 0.05139461
0.032689027 -0.011467578 0.10554807 0.08335719 -0.21187574 -0.12923706 -0.1632609 -0.119860865
-0.2477628 -0.2644048 -0.15939783 -0.041474354 -0.04942032 0.18679626 -0.121261336 0.08572367
0.014475719 0.053026326 -0.1233007 -0.1605098 0.009736635 0.00044901308 -0.18424979 0.009455293
-0.0067346045 -0.3245465 -0.042337686 -0.03637092 -0.15822825 0.12756585 -0.02845257 0.021034082
0.20662268 -0.03899552 0.19518606 0.021565873 -0.11811612 -0.106027566 -0.07824847 -0.053156517
-0.008556376 0.006893803 -0.08963744 -0.07945043 -0.1375046 -0.10954692 -0.26618555 -0.14535053
-0.22595625 -0.017500924 -0.21748757 -0.096061364 0.12500378 0.0900183 -0.047529347 -0.04583124
-0.0018211084 -0.03183191 0.028427048 0.008229548 -0.031604677 -0.08660255 0.018716892 -0.03205324
0.13009441 0.034017988 0.07939763 -0.02273137 0.018314352 0.049000956 0.024124535 -0.15682149
0.082659595 0.062231977 -0.10081259 -0.15833609 -0.052817494 0.19919817 -0.0010379829 0.04916714
-0.26181048 0.09704818 0.10038405 -0.10978971 0.11985246 0.1400436 0.03709845 -0.24427304
-0.03980649 0.03136015 -0.11166691 -0.081579305 -0.09689257 0.1789785 0.09618131 -0.03900895
0.02466542 -0.18731049 -0.03935046 -0.07694837 -0.18241292 0.15026271 -0.12718888 0.28064218
0.2312878 -0.30857596 -0.13021144 0.09365573 0.030315729 0.0005251213 -0.02843941 -0.08989976
-0.16002724 0.035760246 -0.052815873 0.084827706 -0.12490762 -0.036881246 -0.16003507 0.09249965
0.11899399 0.07431717 0.15691835 -0.027727632 0.06233469 -0.22678246 0.18604676 0.09178108
0.026786912 0.0070523703 0.22397624 -0.047866426 -0.048934836 -0.17760524 -0.21006712 0.2132489
-0.035374895 -0.23383778 -0.13867122 0.035975307 -0.02096176 0.13811061 -0.12809423 -0.29177445
0.02727976 -0.10871366 0.028473275 -0.09681305 0.3898732 -0.007987742 -0.1551918 -0.014517154
0.11579902 -0.23936903 -0.057711545 0.12381355 0.12946652 -0.15862614 -0.20700364 0.16351028
0.027272731 0.10468178 0.023981282 0.0349124 0.09052 -0.3065445 0.06977698 0.042053435
-0.007807536 -0.22583376 -0.16145937 0.2666321 0.3054937 -0.113226295 0.12911329 -0.008203915
-0.0788112 -0.016454592 -0.11467816 -0.0868277 -0.029702695 -0.0074037504 -0.10252999 -0.13321793
-0.11322823 0.01685296 0.08585831 0.025786046 -0.18998602 -0.0019171988 0.047174174 0.17359357

bias_ih_l0 f4 [128]
00000000: 7b24 c6bd e2fe f5bd a0c4 f83c c465 383d
00000010: bc2d 863c ba7b c73d 6f77 063e bf92 a6bd
00000020: fa2e 833c a8fe 073d 3d52 21be 17d7 17be
00000030: ccb8 b5bc 0eb2 293e ea85 35be e1c4 cebc
00000040: c921 e53c 3254 fa3d c251 133e 521a 2ebe
00000050: 5a9b cd3d 5a4f 6ebd 4169 33be 3c6f 50bd
00000060: 4149 273d bb5a 693c 718a 493d d0de b1ba
00000070: 9637 0c3e fbbe ce3d 56dc 083e 6abf 9cbd
00000080: 4a44 2a3e 377b c5bd fb03 c9bd fc1d ebbd
00000090: ac0d eebb bfc5 1d3e e66c 063d 13c1 813e
000000a0: 270d 863e 2d6d 453e 3045 b63d b440 5d3e
000000b0: fdb9 a1bd 6d8d 693e 8607 193d 3042 48bd
000000c0: ca7c babd 0afe 673e 0457 803e c8dc 253e
000000d0: 6499 b43c ff0e 243e 02c9 bfbd 3713 9b3d
000000e0: c26e 243d f8de 013e 71c7 c63d 7c31 693e
000000f0: bf10 7abd e3e9 d03d ee11 30bb 9abf 14bd
00000100: 992f bcbd 6e50 043d ba4b 433e 3604 1cbe
00000110: 961d 323d 6be3 173d 7bfa 3a3e c63f ca3d
00000120: f82c f13d abab d4bc 04a4 973d dab4 913d
00000130: 745d a83d 46e4 0abc d486 863d 945a d4bd
00000140: 1599 25be fe6a bcbd 9b4f 3c3e e16c 1ebe
00000150: 5b70 4b3c 48a9 3ebe a9c7 cebd edcb 543e
00000160: 01a8 47be c646 98bb 2430 b33d e2ba 2abc
00000170: ac10 42bd 0fe5 99bd 0801 e0bd 54c6 663d
00000180: fac9 a2bc 0ec3 4d3e 50b0 193e d51a a63d
00000190: 8ebe 513e 6461 7e3e 87ab b83e 5477 ab3d
000001a0: e177 7f3d cfb1 5a3e b454 183d acb9 a9bd
000001b0: 03c0 dabd b521 783e 0030 d93d 4816 e53d
000001c0: d3ae da3d 1442 36bd 7b9c 813e b3a5 913d
000001d0: a9dc 92bd 844c 493e 280a 013b 5396 78bd
000001e0: 2b49 803e f1b6 143d 9598 633e 280b 8d3a
000001f0: 1da2 5fbc 0174 b03d 9ad0 1e3e e5c5 9b3c
-0.09674927 -0.12011506 0.030367196 0.045018926 0.01637923 0.09740396 0.13131498 -0.08133458
0.016013611 0.033201844 -0.15754028 -0.14828144 -0.022182845 0.16571829 -0.17726865 -0.025240364
0.027970212 0.1222309 0.14386657 -0.17002228 0.100393966 -0.058181144 -0.1752062 -0.05088733
0.040841345 0.014242823 0.049204294 -0.0013570432 0.1369308 0.100950204 0.13365301 -0.07653697
0.16627613 -0.09642642 -0.09815212 -0.114803284 -0.0072648134 0.15407465 0.032818697 0.25342616
0.2618191 0.19279929 0.08899915 0.21606714 -0.078968026 0.22807856 0.03736069 -0.048891246
-0.09105833 0.22655502 0.25066388 0.16197503 0.022045799 0.16021346 -0.09364511 0.07572024
0.04014469 0.12682712 0.09706009 0.22772783 -0.061051127 0.1020086 -0.0026866156 -0.036315538
-0.09188766 0.032303266 0.19071856 -0.15235981 0.043485247 0.037082117 0.18259613 0.09875445
0.11776155 -0.025960764 0.074043304 0.07114573 0.0822095 -0.008477276 0.06568685 -0.10368839
-0.16171677 -0.09200095 0.18389742 -0.15471222 0.012416924 -0.18619263 -0.10096676 0.20780917
-0.19497682 -0.0046471087 0.087494165 -0.010420533 -0.04737918 -0.075143926 -0.10937697 0.056341484
-0.0198717 0.20093939 0.15008664 0.081105866 0.20482847 0.24841839 0.36068365 0.083723694
0.062370185 0.21356891 0.037190154 -0.08287367 -0.106811546 0.24231608 0.106048584 0.111858904
0.10677876 -0.04449661 0.25314698 0.07111683 -0.07170994 0.19658095 0.0019689891 -0.060690235
0.25055823 0.03630728 0.22226174 0.0010760771 -0.013649491 0.08615876 0.15509263 0.019015262

bias_hh_l0 f4 [128]
00000000: 0e77 073e b0b7 0e3e 5c91 21bd 7dc5 fdbd
00000010: 8420 e23d d386 3d3e 1224 ecbd 285e ba3c
00000020: 40ed c13d 9bb8 d73d caa0 423d e1b1 773d
00000030: 2549 b1bc 2e34 333e 090e 553d 82a3 d33c
00000040: 5c0b bdbc 1592 303d d2a4 5b3d a224 5cbe
00000050: bffa d73d 22ef 513d 9f13 f43d cbb2 febd
00000060: d97c 87bd b823 8dbd 694d 5c3c f1be c7bd
00000070: 07ae 263e c429 003e aeae eabb 60d4 42bd
00000080: 955a 033d a327 ff3d 6920 d33c 4a51 2abc
00000090: 9643 4e3b bc91 51bc ebe8 b8bd 2eb0 15bd
000000a0: eb70 3839 4913 673c 7640 fb3b 38eb e13d
000000b0: 044d 863d 8af5 763e f5e1 f3bd 4f87 fbbd
000000c0: 8843 c1bc a863 09bd bc64 d83d b981 cebc
000000d0: 83c9 6c3c 92ab aa3d 96ae 513d 1128 93bd
000000e0: 5f42 843d 82da 2f3e 3325 ff3b 52b7 0f3c
000000f0: d9b1 0c3e 42dc b8bd 1c50 fabd 3103 103e
00000100: 23ff b23d 13ce 4d3d a871 033b 6015 f4bd
00000110: f393 ef3d d81e 28be 2bf8 b0bc 9ae0 c83d
00000120: 3966 12be 2d6b 493e 33bf 87ba 06c2 363e
00000130: 0886 313d a3e6 833d 4642 2f3d 1919 4a3b
00000140: bc20 95bd 7926 a23d fd60 cbbd 4e18 68bd
00000150: 423b 733d e4f8 13be 00d2 fa3c 19ed 123e
00000160: 60f6 05be 6c1e 5f3e fd02 efbd 904f bb3b
00000170: 2ecf 48be 5810 e9bd 18da ec3d 945c fcbd
00000180: 5d61 7a3e 4828 353e a3b7 4a3d 01a8 3dbe
00000190: c5a1 013d 4bf2 853e c250 923e 2f3a 213e
000001a0: bbf2 d73d a8b9 673e f902 90bc 6a5f 7ebd
000001b0: 0c9c cabd 87d1 cf3d 49ea 2f3e 2913 5b3e
000001c0: 6d7e 823e 838e 633c 8c89 ff3c d50a 673d
000001d0: 5705 b6bd 2257 d33b 8a8f fb3d fe83 673e
000001e0: 5181 003e 3508 263e fe9c 2d3c 45f3 3e3e
000001f0: 7313 863e c207 1d3e c5a9 a33d 1d78 ab3d
0.1322901 0.13937259 -0.039445266 -0.123911835 0.11041358 0.18508463 -0.11530317 0.022749975
0.0946908 0.105332576 0.04751662 0.060472373 -0.021641323 0.17500374 0.052015338 0.025834803
-0.023076706 0.043108065 0.05362398 -0.2149835 0.10545873 0.051253445 0.11917805 -0.12436446
-0.0661561 -0.068915784 0.01344619 -0.09753216 0.16277324 0.12515932 -0.0071619367 -0.047565818
0.032068808 0.12458732 0.02577229 -0.010395357 0.003147339 -0.012791093 -0.090288006 -0.03654497
0.00017589673 0.014103719 0.0076675965 0.110311925 0.06557658 0.24117103 -0.11908332 -0.122816674
-0.023591772 -0.033542305 0.105660886 -0.025208341 0.014452341 0.08333506 0.05119189 -0.071853764
0.06457972 0.17173198 0.007786417 0.008771734 0.13739718 -0.09026386 -0.12222311 0.14063717
0.0874007 0.050245356 0.0020056758 -0.119181395 0.11698141 -0.16418016 -0.02160271 0.09808464
-0.14296807 0.1966979 -0.0010356664 0.17847452 0.043340713 0.06440475 0.042787813 0.0030837713
-0.07281634 0.07917494 -0.099306084 -0.056663804 0.059382685 -0.14450413 0.030617714 0.14348258
-0.13082266 0.21788949 -0.11670492 0.0057162717 -0.19610283 -0.113800704 0.115650356 -0.123223454
0.24451204 0.17691147 0.049491536 -0.1852112 0.031648416 0.26161417 0.28577238 0.15744852
0.10544344 0.22629416 -0.017579542 -0.062102713 -0.09893045 0.10147386 0.17179216 0.21394028
0.2548708 0.013888958 0.031193517 0.056406815 -0.08887737 0.006449596 0.12283237 0.22608945
0.1254933 0.16214068 0.010596512 0.18647487 0.26186714 0.1533499 0.07991365 0.08372519

weight_ih_l0_reverse f4 [128, 2]
00000000: 0110 2ebe e060 98be ed14 d63e b2fb 37be
00000010: e44f 80be fafe cfbe 204d b63d 8c45 d1be
00000020: f00f fabd 9f8b 44be 9a5f 483e 2d6b 25bf
00000030: 84df a13d 8f94 2e3e d9ae 283e cdf7 b5be
00000040: 51de 5ebe 4f9e 21bf 728f 40be 7b8b 003f
00000050: 0f99 98be 5ae0 933d 5f0a 253f 3393 64bd
00000060: 3d07 febd c515 673d 5013 08be b146 153c
00000070: da35 8b3e 1fc8 d4bc bf8f 1b3f e0c4 c13e
00000080: 320b 9e3c affe 8ebe 0d5b d03c 5386 793e
00000090: 1dbc f8bc 0a8a 59be 1840 73be e72a fb3d
000000a0: 9553 d8be 2ba3 a03d b987 a9be 6e4a 2d3f
000000b0: 5580 fbbe 0884 b93d f0d1 ac3e 77dc 17be
000000c0: 1093 a9be 1c74 083f 051c 21bf 2c12 e9be
000000d0: 074b b1bd 15ff 153e 04de 45be df0d 0c3f
000000e0: 4299 c53e 7aa1 f9bd 9f00 e0bc 11f1 803e
000000f0: 3cb5 33be 804f 963d 2bea df3d 7525 9fbe
00000100: 9c64 b6be 4ec4 713c 80a8 d83e 1236 abbe
00000110: c7a7 27be bdf1 52be aeca e7bd 1b55 ffbe
00000120: 3384 ddbd 351a 21be cc77 a73e 5812 1ebe
00000130: 3363 34be 9541 733e d545 4e3e a1ee 05be
00000140: 82ea 37bc bae7 64be 06b0 11bd f56e d13d
00000150: 6696 3fbd 63cf b4bd 3cd1 943e bc09 1abd
00000160: 667f 883c d51a 213e 354f 19bd 067a 55bc
00000170: c914 283e e804 2abe 43af cc3e 1156 923e
00000180: 587a 453d 8599 acbe 8440 963c df92 b03e
00000190: 5824 cfba c500 eabd f3ce 55be 3f9b 9b3d
000001a0: 1007 3fbe df5f f33d d429 7bbe 6519 943e
000001b0: 7fd1 d2bd 8918 c9bd b6d8 093d cfc6 77be
000001c0: c933 97bd 6223 e63d fc9b 5fbe c4a1 95be
000001d0: 4c15 52bc f8d6 073d d588 58bd 4513 913e
000001e0: fa71 513d 2663 603d a382 1d3e ecc9 133e
000001f0: 92df c3bd 22c7 ce3d 931a 4a3e ac9c 8dbe
00000200: 349a cabe 3e44 4cbd cb73 48bc 11c5 c13e
00000210: 7618 d83d e632 803e 9463 60be bdff 7cbe
00000220: bb9c 9a3e 7468 1a3f 8c1e d03e 478d 92be
00000230: d392 82bd 0706 b2be 3281 23bf 2bf1 c43e
00000240: 28c1 83bd 5cd1 97be 2870 77be db67 fd3e
00000250: c5f2 a33e 479f a9bc 75f2 3a3f 4584 72bc
00000260: 00e9 6e3e bf2f c43b bbe0 893e 5ba4 ae3e
00000270: 5817 ed3c 39d0 a6be b579 a03e c278 4f3e
00000280: 0ce4 043e 30e7 283e d640 403e 5f7f 153f
00000290: f0d2 a13d d2d9 f3be 39bf 26bf ce32 553e
000002a0: 941e 00bf 08fe 673d b52b 903e caa3 08bf
000002b0: 5b95 f8be 3971 4b3d 53a9 053d fafe 3a3e
000002c0: 548f b2be 8585 203f a18f 023f abfe 0f3f
000002d0: 079c e7bd 7013 97be a0b3 bdbd aada 87be
000002e0: 35f2 37bf 85fa ef3d b94b cf3e 8dee 663b
000002f0: e7c1 313e 88d9 00be 842b 9e3e 5305 71be
00000300: c8e6 8d3c 50e7 8bbd dcc0 903e d4d8 9abe
00000310: 32e4 86be 858f b0be 14ed a0be ce5d 56be
00000320: 2dca 82bd 2e09 af3d d566 523e f907 5fbe
00000330: 320a 6fbe 8cfc 7e3d e57d 823e 0ca9 a0be
00000340: 0064 a7be 035e fabe 9371 3abe f3ec 233e
00000350: 502c 5c3e 8524 1b3d 71d3 073f d617 5cbd
00000360: c3ae 3a3e b45b c4be 4df2 2bbe 6a9c bebd
00000370: d015 8b3e 9993 9bbd 730d 623e 7d86 273d
00000380: ea2d 843d eb79 1a3e bfff 9a3e 83b8 a63d
00000390: 7a7c 923a 5a51 95be 8517 a0be 5a8b 4c3e
000003a0: 3eb2 b2be 0390 a0be 3a80 d9be 9fbc 6e3f
000003b0: ee69 50be cee2 29be 82fa eebd 56ef 91bd
000003c0: c0af 63be 0b78 2d3f f736 82be 5b62 e2be
000003d0: 413b d6bd 240f dc3e 7287 e1bd 1c70 aa3e
000003e0: 0354 083f 5b9c 2bbe b8fd 1fbd 821f a73a
000003f0: c6d7 93be 351c 273e c0d5 d23d 7e76 c1be
-0.16998293 -0.2976141 0.4181284 -0.17967108 -0.25060952 -0.4062422 0.08901429 -0.40873373
-0.12210071 -0.19193886 0.19567719 -0.6461666 0.0790396 0.17048858 0.16472949 -0.3554062
-0.21764494 -0.63132185 -0.1880472 0.5021283 -0.29804274 0.07220526 0.6446895 -0.055804443
-0.12403724 0.056417245 -0.13288617 0.009111092 0.27189523 -0.025974331 0.60766214 0.37845516
0.019292448 -0.27928683 0.025434041 0.24367647 -0.030363137 -0.21244064 -0.23754919 0.12264042
-0.42251268 0.07843622 -0.3311136 0.67691696 -0.49121347 0.09058386 0.3375392 -0.14830194
-0.33120012 0.5330217 -0.6293338 -0.45521677 -0.086568885 0.14648087 -0.19322973 0.54708666
0.3859349 -0.12189002 -0.027344046 0.2518392 -0.17549604 0.07339382 0.10933336 -0.31083265
-0.35623634 0.014756275 0.42316055 -0.3343969 -0.16372596 -0.20600028 -0.11317955 -0.49869618
-0.108162306 -0.15732653 0.32708585 -0.15436685 -0.17615966 0.23755486 0.20143826 -0.13079311
-0.011225345 -0.22354022 -0.03556826 0.102262415 -0.04677429 -0.088286184 0.29065883 -0.03760694
0.01666231 0.15732892 -0.037429053 -0.013029581 0.16414179 -0.16603434 0.39977464 0.28581288
0.04821238 -0.33710876 0.01834131 0.34487054 -0.0015803678 -0.11425928 -0.20879726 0.0759797
-0.18655038 0.1188352 -0.24527675 0.28925624 -0.102938645 -0.09819133 0.033653937 -0.24196933
-0.07382924 0.112372175 -0.21836847 -0.2922498 -0.01282246 0.033163995 -0.05286487 0.28335014
0.051134087 0.054782055 0.15381865 0.14432496 -0.09564127 0.10096575 0.197367 -0.27658594
-0.39570773 -0.04986977 -0.012234638 0.37845662 0.105515406 0.25038832 -0.21912986 -0.24706931
0.301977 0.6031563 0.40648305 -0.2862341 -0.06375661 -0.34770223 -0.6386901 0.38465247
-0.06433326 -0.29651916 -0.24163878 0.49493298 0.32021156 -0.020705832 0.7302621 -0.014802043
0.2333107 0.005987137 0.26929268 0.34109768 0.028941795 -0.32580736 0.31342855 0.20260909
0.12977618 0.16494441 0.18774733 0.5839748 0.07901561 -0.4762712 -0.6513553 0.20820162
-0.5004666 0.056638747 0.28158346 -0.5337492 -0.4855145 0.049668524 0.032632183 0.18261328
-0.34874976 0.62703735 0.5100041 0.5624797 -0.11309057 -0.29507017 -0.092627764 -0.26534015
-0.71853954 0.11717705 0.4048746 0.0035237402 0.17359124 -0.12582982 0.30892575 -0.23537187
0.01732196 -0.06831229 0.2827214 -0.30243552 -0.26345974 -0.34484497 -0.31430876 -0.20934221
-0.06386218 0.08546673 0.2054704 -0.21780385 -0.23343733 0.062252566 0.25486675 -0.31378973
-0.3269348 -0.4889985 -0.18207388 0.16008358 0.21501279 0.037876625 0.5305701 -0.05373367
0.18230729 -0.38351214 -0.16791649 -0.09307177 0.2716508 -0.075965114 0.22075443 0.040899742
0.0645407 0.1508557 0.30273244 0.081406616 0.0011176013 -0.2916363 -0.31267944 0.19975033
-0.34901613 -0.31359872 -0.42480642 0.9325656 -0.20352909 -0.16590425 -0.11668874 -0.07125728
-0.22235012 0.67761296 -0.2543256 -0.44215664 -0.104605205 0.429803 -0.11012162 0.33288658
0.5325319 -0.16758864 -0.039060324 0.0012750479 -0.2887556 0.16319354 0.10294676 -0.37785715

weight_hh_l0_reverse f4 [128, 32]
00000000: b37a 623d 00e5 1fbd cec6 29bb 29d6 ef3d
00000010: 70c0 5e3d b950 cb3d f4c0 2abd 2040 a8bc
00000020: 98fc 0e3d cfd9 913d c1a7 483d eb26 46bd
00000030: a269 5bbe 684e d43b 63e1 86bd 72cd fbbd
00000040: d6ee ecbd 7b24 19bd 78ea 813b 1338 993d
00000050: 1c2a 03bd 566b e93d f18a ca3d 1c88 14be
00000060: eea0 b7bd 0d51 be3d 2149 3dbe ae3e f43c
00000070: 81e2 c63c c06e 8c3c 4ad6 17be 3620 133b
00000080: 0b36 07be 359d 9d3d fdc4 75bd 6ac7 5e3e
00000090: 7aea dabd 01d6 8e3d d5fe 233e f946 9bbe
000000a0: b03d 0e3e 96ee c83c 7179 9c3d f9ae 04bc
000000b0: 04f6 ae3c cda1 c0bd a378 4b3e 3067 f03c
000000c0: 05a8 87bd 664f babd bfff 893e 0464 edbe
000000d0: 5eef 35be 2788 a63d 4863 2ebe c641 d8bd
000000e0: 0846 15be cf47 b93a 868f 25bd 9ffe a8bd
000000f0: a5ae 09be 79bf b83d 0c2d fd3d 373a a83e
00000100: 0cc9 1b3e 548a 72be 467a d9bd 6bcc aeb9
00000110: 3eab bc3c bbae 733d 6258 3c3e 5a63 57be
00000120: f18f 5f3d 7c2c 80bd db29 2ebd 356e 1a3c
00000130: 710d b03d 1673 25be 9188 d93d d830 a5bd
00000140: 00ff 6dbe 9beb b5bd de97 c9bd 3d3f d33d
00000150: 1021 60bd 9467 0bbd a972 fa3d 6b2e 84be
00000160: e55f 4abe e1dc 193e f7a2 a43d 8932 f33d
00000170: eee9 0e3e 5768 e53d 9956 7dbd 30a4 60be
00000180: 1a04 a83d fdbe 9ebe 2b7d 21be 543c ca3c
00000190: a907 f7bd 3a96 1cbd 6b2c 6e3e 0667 31bd
000001a0: 666d d3ba 5a92 51be a1ca 99bd cee5 363e
000001b0: 09e0 f6ba 4a09 f7bd 2a7c 7e3e 55e8 87bd
000001c0: 79c4 4fbe e5ae 15be c48a acbc 16fa 123d
000001d0: fa70 cebd 3def 823e 9168 1fbe 3808 e5bd
000001e0: 98c1 88be b22c 993c a91a 1b3e 8d94 263e
000001f0: 13db 2b3d d21f 81be a163 ed3d f795 593c
00000200: 37a0 823e 465b 28be 46d0 8d3a 9d2f b03d
00000210: 5f70 78be af3a 46bd d412 493e 9b95 04bd
00000220: b9d9 a93d fbee 14be 4a6c 463d c2fd 03be
00000230: 6f14 cbbe 910d 05be ec37 fdbb ccb5 bbbe
00000240: 497c 3fbe 5ea8 81be 3d8d f0bc 3d9d 1dbe
00000250: 9d89 18be 082f 8e3e 693f b9bd e537 033e
00000260: ba9c cdbe eede 0a3e a77b fcbd 64fd d43e
00000270: 0f81 563e 99e6 1abe 89bf 133d 790c 93be
00000280: 3f35 bb3c 117a 80be 7729 dd3d bbd1 493d
00000290: 4f4a b33d c346 913e 584b 913d 300a fdbe
000002a0: 6f6a afbd 8bd3 9abe 8120 0d3e 7fe0 a9bd
000002b0: 43f0 0abe 934a 663e 564f 5f3d c2d7 ee3c
000002c0: 6c99 2cbe 5ecb c3be 1ff3 d6bd 3ba2 1bbf
000002d0: 8e1e a3bd 2fdc 3e3e 453c c7be b9f0 573d
000002e0: 8c29 8dbd bc0c fc3d 3c10 7bbd c5fc 8a3a
000002f0: affa 92be 317a 1b3e 8dc2 8d3e 3cb2 a23d
00000300: d3e7 913e 76c1 4b3e a2dd a13d 3c3f 48be
00000310: e681 1bbe 89b8 aebe de01 733b 9a34 8bbd
00000320: 7689 f2bd c1aa afbd 9f2e 813d 42f1 153e
00000330: 3410 56be b983 2d3c f342 4abe b3d6 773d
00000340: 8cdc 5b3b 512a 863d 46a1 f6bd 3d82 493e
00000350: 9d9c 053e b926 2b3e 44eb 2f3e ac95 463e
00000360: 3b12 e8bc 6483 2d3c 44dd 6cbd 79ac 9bbd
00000370: a558 fc3c a9f8 48be 94f4 a4bd fbc6 9ebd
00000380: efbd 6f3e d66c 47be d405 663e a63f aabd
00000390: d6a2 29bd 5840 bebc 9b9f aebe 7b16 adbe
000003a0: 517c 483d 5856 90be 1d70 8f3e d188 5fbd
000003b0: 1f33 98be 33e6 203e 46c8 9ebc b959 69be
000003c0: 25d0 ae3d 0335 a83b 31ec 70be 6366 6cbe
000003d0: 0fe9 9abe 01ea 82bc b6f3 acbd c74d b53d
000003e0: 7370 5c3d 53b9 773d 3323 80bd ad38 823e
000003f0: 7a60 b2bc 2509 92bd 0194 e63d 2e6e 24bd
0.055292796 -0.03903675 -0.002590585 0.1171077 0.05438274 0.09927506 -0.04168792 -0.02053839
0.03490886 0.07121622 0.048988108 -0.04837696 -0.21427014 0.0064790733 -0.06585958 -0.12295045
-0.11568992 -0.037388306 0.0039647184 0.074813984 -0.03202258 0.11397426 0.09889782 -0.14505047
-0.08966242 0.09292803 -0.18484928 0.029815044 0.024277927 0.017142653 -0.14827839 0.002244962
-0.1320421 0.076960005 -0.060002316 0.21755758 -0.10689254 0.06974412 0.1601518 -0.30327585
0.1389072 0.02452783 0.076403506 -0.008098357 0.021357544 -0.09405861 0.19870238 0.029346079
-0.06623844 -0.09097175 0.2695293 -0.46365368 -0.17767093 0.08131438 -0.1703006 -0.1055942
-0.14577496 0.001413578 -0.040420078 -0.0825169 -0.13445528 0.090208955 0.12362108 0.32856914
0.15213412 -0.2368558 -0.10619025 -0.0003334017 0.023030873 0.059492808 0.1839309 -0.21033993
0.054580633 -0.06258485 -0.042520385 0.0094256895 0.08596314 -0.16157183 0.10621751 -0.08065957
-0.23241806 -0.08882829 -0.098434195 0.10314796 -0.05471903 -0.034034327 0.12228901 -0.25816664
-0.19763143 0.15025665 0.080388956 0.11874873 0.13956425 0.11201542 -0.061850164 -0.21937633
0.08203907 -0.31005087 -0.15770404 0.02468697 -0.12062008 -0.038229205 0.23259132 -0.04331114
-0.0016130626 -0.20465985 -0.075093515 0.17861101 -0.0018835078 -0.120623186 0.24852052 -0.06636111
-0.20289792 -0.14617498 -0.021062262 0.03588303 -0.10080142 0.2557315 -0.15567233 -0.11183208
-0.267102 0.01869807 0.15146889 0.16267605 0.041956972 -0.2521959 0.11591268 0.013280383
0.2551286 -0.16441068 0.0010819517 0.086028315 -0.24261616 -0.04839581 0.19636089 -0.032369237
0.082934804 -0.14544289 0.048443116 -0.1288977 -0.39664027 -0.12993456 -0.0077276137 -0.36662138
-0.18699755 -0.25323766 -0.029364223 -0.15392013 -0.14896245 0.27770257 -0.09045298 0.12814291
-0.40158635 0.13561603 -0.12328272 0.41599572 0.2094767 -0.15127029 0.036071334 -0.28720453
0.022852538 -0.2509313 0.107989244 0.04927228 0.087544076 0.283743 0.07094449 -0.49421835
-0.085652225 -0.3023952 0.1378193 -0.08294772 -0.13568215 0.22489385 0.05451902 0.029155616
-0.16855401 -0.38241094 -0.104955904 -0.6079442 -0.07964812 0.18638681 -0.3891317 0.052719805
-0.0689269 0.123071164 -0.06129478 0.0010603896 -0.2870688 0.15183331 0.27687493 0.07944152
0.2849718 0.19898018 0.07903601 -0.19555372 -0.15186271 -0.34125164 0.003707997 -0.06797142
-0.11842625 -0.085774906 0.063077204 0.14642814 -0.20904619 0.010590487 -0.19752102 0.060507488
0.0033548204 0.0655104 -0.12042479 0.19678588 0.13048024 0.1671399 0.1717959 0.19393033
-0.028329005 0.010590408 -0.057828203 -0.07601256 0.030803988 -0.19626106 -0.08054462 -0.07752796
0.23412298 -0.19475111 0.22463161 -0.08312921 -0.041415058 -0.02322404 -0.34106144 -0.33806214
0.048946682 -0.28190875 0.28015223 -0.054573838 -0.29726502 0.15712814 -0.019382607 -0.22788133
0.08535794 0.0051332726 -0.235276 -0.23085932 -0.30255935 -0.015980722 -0.08444922 0.088527255
0.053818177 0.060479473 -0.06256714 0.25433865 -0.02177452 -0.071306504 0.11258698 -0.040144138
