TS-CVAE/experiments/pedestrians/models/eth/models_04_Jun_2021_13_35_51_eth_ar3/model_registrar-47.pt (torch_old, 545378 bytes, 43 tensors)

weight_ih_l0 f4 [128, 6]
0	0xbd2219e7	-0.039575484
1	0x3c996265	0.018723676
2	0xbdfebb73	-0.12438097
3	0x3c2ec812	0.010667818
4	0xbdcc807d	-0.09985445
5	0x3d67d06e	0.05659526
6	0xbda1f8de	-0.07908796
7	0xbe356b45	-0.17716701
8	0xbdaf72f9	-0.08566851
9	0x3e3bdffd	0.18347163
10	0xbc8433de	-0.016138013
11	0x3e28f204	0.16498572
12	0x3d92ff81	0.0717764
13	0x3ca12780	0.019672155
14	0xbe294421	-0.16529895
15	0xbe1668ba	-0.14688388
16	0xbe401d90	-0.18761277
17	0x3da28a7a	0.079365686
18	0xbdc9c428	-0.09851867
19	0x3dfba39c	0.122870654
20	0x3e25411f	0.16138123
21	0x3df4474b	0.119276606
22	0xbe1459e0	-0.1448741
23	0x3d9c49ae	0.07631241
24	0xbddc1df4	-0.107479006
25	0xbe0abd40	-0.13548756
26	0xbd1d54c7	-0.038410928
27	0x3ec7107a	0.38879758
28	0xbe181c05	-0.14854439
29	0xbe78cb22	-0.24296239
30	0x3e8374a8	0.2567494
31	0xbdb18b76	-0.08669178
32	0xbc68c189	-0.014206299
33	0x3e917546	0.28409785
34	0x3d925369	0.071448155
35	0xbdf76944	-0.12080625
36	0xbe7d121b	-0.24713938
37	0xbd9c9eae	-0.07647453
38	0xbd935375	-0.071936525
39	0x3d1b9037	0.03797933
40	0xbe7338d2	-0.23752144
41	0xbea70267	-0.3261902
42	0xbd4a36b3	-0.04936857
43	0x3e8583bf	0.26077077
44	0x3d9d2883	0.076737426
45	0xbd4a5942	-0.04940153
46	0xbdbbbec0	-0.09167242
47	0x3de93c8e	0.11388503
48	0x3ed105f1	0.40824845
49	0x3e372507	0.17885219
50	0x3e18b3ea	0.14912382
51	0xbd471bdf	-0.048610564
52	0xbe75dca9	-0.24009956
53	0xbd78b84f	-0.060722645
54	0xbe937ecd	-0.2880768
55	0xbe819a6b	-0.25313124
56	0x3d0a64ed	0.033787657
57	0x3e973667	0.29533693
58	0xbd17a03b	-0.037018042
59	0xbdebf60c	-0.11521539
60	0x3ea89342	0.3292485
61	0xbdd0a564	-0.10187796
62	0xbec85de1	-0.39134124
63	0x3e105fe1	0.14099075
64	0xbe6c9afd	-0.23105998
65	0x3e88eee9	0.26744774
66	0xbe20bcb4	-0.15696985
67	0xbd90d9e9	-0.07072813
68	0xbb55eee4	-0.003264361
69	0x3e246e98	0.16057813
70	0x3e53f6e0	0.20699644
71	0x3dfc0f68	0.12307626
72	0xbdbee1bc	-0.09320399
73	0xbd7ca279	-0.061678383
74	0x3d391f4f	0.045195874
75	0xbdedcd35	-0.11611406
76	0xbd865014	-0.065582424
77	0xbd719289	-0.058977637
78	0x3d0988ee	0.033577852
79	0x3e5cb9fb	0.21555321
80	0x3d1877d0	0.037223637
81	0xbd58cbd2	-0.052928753
82	0xbdb1c599	-0.08680267
83	0x3d1598c6	0.03652265
84	0xbe6ff22a	-0.23432222
85	0xbddb35d3	-0.107036255
86	0xbe968712	-0.29399925
87	0x3dcc600f	0.09979259
88	0x3f0c9ebf	0.5492973
89	0xbd7d57ea	-0.06185142
90	0xbe0bffce	-0.136718
91	0x3e239a70	0.15976882
92	0x3e32be79	0.17455472
93	0x3d7149b5	0.058908183
94	0xbd62ae98	-0.055342287
95	0x3dbaeb48	0.091269076
96	0x3c0e9e96	0.008704802
97	0x3e8413a0	0.25796223
98	0x3e8821dd	0.26588336
99	0xbd698276	-0.057009183
100	0xbe133127	-0.14374219
101	0xbeb91df8	-0.36155677
102	0x3d1d60ed	0.038422514
103	0xbdd61c43	-0.10454609
104	0xbd365179	-0.044511292
105	0xbd5d1da4	-0.053983346
106	0x3b6a0a4b	0.0035711701
107	0x3de6e750	0.11274588
108	0x3e082943	0.1329699
109	0xbd58c486	-0.052921794
110	0x3db9b4e4	0.09067705
111	0xbd8f4489	-0.06995494
112	0x3e85d69e	0.26140302
113	0x3eeab112	0.4583822
114	0xbe3f7b12	-0.18699291
115	0xbe21307b	-0.1574115
116	0xbd17ddf4	-0.037076905
117	0x3eb2bf64	0.34911644
118	0x3dfdd72a	0.12394555
119	0x3db7858e	0.089610204
120	0xbe2fd9c3	-0.17172913
121	0x3def1af4	0.11675063
122	0x3da96912	0.08271994
123	0xbe7beb2f	-0.24601434
124	0xbd3ed24b	-0.04658727
125	0x3c0473b1	0.008084224
126	0x3da726a6	0.081616685
127	0x3ed3cd5a	0.41367608
128	0xbd853726	-0.06504659
129	0xbe53ef5c	-0.20696777
130	0x3bb87d6a	0.005630185
131	0x3e4daf47	0.20086394
132	0xbd48ed7f	-0.04905462
133	0xbe3cfe26	-0.18456325
134	0xbb85df06	-0.0040854244
135	0x3d99801e	0.074951395
136	0xbccb3d40	-0.02480948
137	0xbdb40012	-0.08789076
138	0xbc87dea8	-0.016585663
139	0xbd952636	-0.07282679
140	0x3df3e138	0.119081914
141	0xbd3f0a15	-0.046640474
142	0x3d759830	0.05995959
143	0xbdd8cd4e	-0.10586034
144	0x3db7dca1	0.089776285
145	0xbc8fca00	-0.017552376
146	0xbe15d063	-0.14630274
147	0xbccb0d79	-0.024786698
148	0xbea3e5bd	-0.32011214
149	0xbdcd440e	-0.10022746
150	0xbd6e8bda	-0.05823884
151	0xbc2e287f	-0.010629772
152	0xbdfd9f77	-0.12383931
153	0x3dda44f4	0.10657683
154	0xbe247974	-0.16061956
155	0x3da481ca	0.08032568
156	0x3e6b13aa	0.2295672
157	0xbea565cd	-0.3230423
158	0xbea189b4	-0.31550372
159	0x3ed0f339	0.40810564
160	0x3e20078a	0.15627876
161	0x3e4cfa8c	0.20017451
162	0x3d04a104	0.03238012
163	0x3e934c1c	0.28769004
164	0x3ec5aaff	0.38607022
165	0x3e65e375	0.22450049
166	0x3d65181e	0.055931203
167	0x3e7dfcbc	0.24803442
168	0xbd1a3c58	-0.037655205
169	0x3dbf7340	0.09348154
170	0xbdec4850	-0.1153723
171	0x3cc7630b	0.02433922
172	0x3d82f0fd	0.06393621
173	0x3e37c7d1	0.17947318
174	0xbe1101ee	-0.14160892
175	0xbe31290a	-0.17300811
176	0xbe283214	-0.16425353
177	0xbd15f5d8	-0.036611408
178	0xbcb3294b	-0.021870276
179	0x3e271231	0.16315533
180	0xbd2d7676	-0.0423493
181	0xbdff2b9f	-0.12459492
182	0x3e3086d4	0.17238933
183	0xbcd62c04	-0.026144035
184	0xbe04328c	-0.12909907
185	0xbb316363	-0.0027067296
186	0xbd964e8c	-0.073392004
187	0x3da1dd2b	0.079035126
188	0x3e58a3f1	0.21156289
189	0xbe3c3547	-0.18379699
190	0xbe5ca42d	-0.21547003
191	0x3dc7135d	0.0972049
192	0x3db8cb82	0.09023191
193	0x3e012f72	0.12615755
194	0xbe0630f2	-0.13104609
195	0xbe22cfff	-0.15899657
196	0xbc29e54b	-0.010369609
197	0xbe4fe97a	-0.20303908
198	0x3e36bc63	0.17845301
199	0xbcbc3bc7	-0.022977723
200	0xbc45a67f	-0.012063622
201	0x3db29afe	0.08720969
202	0x3db9f849	0.0908056
203	0xbe40fe73	-0.18847065
204	0xbdcf5ce7	-0.101251416
205	0x3d31e287	0.043428924
206	0xbd50b69b	-0.050955396
207	0xbcc15bf1	-0.023603411
208	0xbd8d587b	-0.06901642
209	0xbd8351d1	-0.064120896
210	0x3ce925ec	0.028460465
211	0x3d6a1f1c	0.057158574
212	0x3d1f155b	0.038838726
213	0xbda8f896	-0.08250539
214	0xbde29041	-0.110626705
215	0xbe5a9d31	-0.21349026
216	0x3ce3e8f2	0.027821038
217	0xbe4ff202	-0.20307162
218	0x3d01be19	0.031675432
219	0x3e39f6a9	0.181605
220	0xbe8ea62b	-0.2786115
221	0xbd7f6940	-0.062356234
222	0x3e810457	0.25198624
223	0xbe06052f	-0.13087915
224	0xbd0c3f64	-0.03424014
225	0xbde4b5e8	-0.11167508
226	0xbe3cf7f3	-0.1845396
227	0x3dfd2eae	0.12362419
228	0x3d242a25	0.040079255
229	0x3c29389d	0.010328439
230	0x3ab3b024	0.001370911
231	0x3d005c3d	0.031337965
232	0xbce67a75	-0.028134564
233	0x3d1c8434	0.038212016
234	0xbd8b748b	-0.06809338
235	0xbd9de2e0	-0.077092886
236	0x3e437d55	0.19090779
237	0xbc740930	-0.014894769
238	0xbd0301d1	-0.031984154
239	0x3d39f0b5	0.04539557
240	0x3ed51cad	0.4162344
241	0xbc92378a	-0.017848749
242	0x3c413f90	0.01179494
243	0xbd9afb13	-0.0756742
244	0xbf10da85	-0.56583434
245	0x3e92deb3	0.2868553
246	0xbe3a370b	-0.1818506
247	0xbde533ed	-0.11191545
248	0x3e29a28b	0.16565911
249	0x3e67bc06	0.22630319
250	0x3e68ba43	0.22727303
251	0x3d8494f8	0.06473726
252	0x3eac4805	0.33648697
253	0xbdeb6335	-0.114935316
254	0xbe328070	-0.17431808
255	0x3da7ade9	0.081874676

weight_hh_l0 f4 [128, 32]
0	0xbd04381f	-0.032280084
1	0xbe1825d4	-0.1485818
2	0x3df88ed9	0.12136621
3	0x3dcce1f3	0.10004034
4	0x3dcf0e5f	0.10110163
5	0x3e05d991	0.13071276
6	0xbe1bda01	-0.1521988
7	0xbd6faaff	-0.058512684
8	0x3e55e4e9	0.20888104
9	0x3e8dab1e	0.27669615
10	0xbe265d6d	-0.16246577
11	0x3eb069fb	0.34455857
12	0xbe2a619f	-0.16638802
13	0x3e05d91f	0.13071106
14	0x3c93f9e5	0.018063495
15	0x3db0da2b	0.08635362
16	0xbd98d165	-0.07461814
17	0xbda68da5	-0.08132485
18	0x3dff7852	0.12474121
19	0xbe825fe4	-0.25463784
20	0xbe5ecedd	-0.217586
21	0x3d3df940	0.04638028
22	0xbd8e0f9f	-0.06936573
23	0xbe901309	-0.28139523
24	0x3e5c549e	0.21516654
25	0xbe27996f	-0.16367124
26	0x3ea22367	0.31667635
27	0x3e0b0d02	0.13579181
28	0xbdce1164	-0.10061911
29	0x3d60f4a7	0.05492082
30	0x3d1882ac	0.037233993
31	0xbe4a3213	-0.19745664
32	0x3e20c6a2	0.15700772
33	0xbe7075a4	-0.23482376
34	0x3e76dcdb	0.24107687
35	0xbd13ccca	-0.036083974
36	0x3e573d39	0.21019448
37	0x3e94bcf3	0.29050407
38	0x3bc49791	0.0059995134
39	0xbdd1fa00	-0.10252762
40	0x3ea8bf9f	0.32958695
41	0x3d730d6d	0.059338976
42	0xbebdd66a	-0.37077647
43	0x3ca27187	0.019829525
44	0xbe78e124	-0.24304634
45	0x3e04723b	0.129342
46	0x3e11b42d	0.14228888
47	0x3c257811	0.010099427
48	0xbd91780d	-0.07102976
49	0x3e292ec7	0.1652175
50	0x3d68266e	0.056677274
51	0xbe02e310	-0.1278193
52	0xbdf252a9	-0.118321724
53	0x3e4cf538	0.20015419
54	0xbe41d5f2	-0.1892927
55	0xbe494ebb	-0.1965894
56	0x3c1c5925	0.009542738
57	0xbe44d0a6	-0.19220218
58	0x3d6d859d	0.05798875
59	0xbe660911	-0.22464396
60	0xbe41fb03	-0.1894341
61	0x3d8a94b9	0.06766648
62	0x3dba886a	0.0910805
63	0xbe2ff813	-0.17184477
64	0x3dec3e55	0.115353264
65	0xbe2ad75f	-0.1668372
66	0xbdc52d26	-0.09627752
67	0x3e191b45	0.14951809
68	0x3e3eb862	0.18625024
69	0x3e1981ea	0.14990965
70	0xbe50a61e	-0.20375869
71	0xbe824450	-0.25442743
72	0xbca5f8cb	-0.020260235
73	0x3e202c9b	0.15642016
74	0xbe7506c4	-0.23928362
75	0x3e2e0050	0.16992307
76	0xbd120ac8	-0.035654813
77	0xbdf354fb	-0.11881443
78	0x3e289d0f	0.16466163
79	0xbe97f29a	-0.29677278
80	0x3d4a21e6	0.049348734
81	0xbddffc3b	-0.10936781
82	0x3ddbf3ea	0.10739882
83	0xbd5eb316	-0.05437001
84	0x3d055336	0.03255006
85	0x3d49f04e	0.049301438
86	0x3d7b6319	0.061373804
87	0x3e074729	0.13210739
88	0x3e922108	0.28540826
89	0x3d5ed88d	0.054405738
90	0x3e3b8214	0.1831134
91	0x3e4c80d8	0.19971025
92	0x3de0567d	0.10953996
93	0x3d18878d	0.037238646
94	0xbe107c9d	-0.14110036
95	0xbb74afa1	-0.0037336128
96	0x3ddb7d2b	0.10717233
97	0xbdace881	-0.08442784
98	0x3e278b0b	0.16361634
99	0x3e305456	0.17219672
100	0xbd174f01	-0.03694058
101	0x3dfda242	0.12384464
102	0xbe5840a2	-0.21118405
103	0x3d057f79	0.03259227
104	0x3da8db6c	0.082449764
105	0x3e2d232b	0.16907947
106	0xbe949c25	-0.2902538
107	0x3d837e9d	0.06420634
108	0xbe759dd1	-0.23985983
109	0xbe615d5f	-0.22008274
110	0xbe283e75	-0.16430075
111	0xbe463bb8	-0.19358718
112	0xbe520c8c	-0.20512599
113	0x3e469c6f	0.19395612
114	0x3d3ca6df	0.04605758
115	0xbe1b0573	-0.15138797
116	0xbe07897c	-0.1323604
117	0x3e77a297	0.24183117
118	0x3d2147a6	0.03937497
119	0xbe314e90	-0.17315125
120	0x3df5a10e	0.11993609
121	0xbdfea01f	-0.124328844
122	0x3bc6ddee	0.0060689365
123	0x3d80f53c	0.06296775
124	0xbe74faa5	-0.23923738
125	0x3e03469c	0.12819904
126	0x3e2b1dc4	0.16710573
127	0xbdf00866	-0.11720352
128	0xbdabbf6d	-0.08386121
129	0xbe834de5	-0.25645366
130	0x3ed67614	0.4188696
131	0xbe874a89	-0.26424053
132	0x3e8f08ac	0.27936304
133	0x3d7ae3ae	0.06125229
134	0xbbaabf31	-0.00521078
135	0x3cc54d1c	0.02408462
136	0x3f3c9e8e	0.73679435
137	0xbd3f584f	-0.046715077
138	0xbeba3ed6	-0.36376065
139	0x3e2c172f	0.16805719
140	0xbcc06903	-0.023487573
141	0x3c11d0f0	0.008899912
142	0xbf0452c5	-0.51688796
143	0xbc1c0cb8	-0.009524517
144	0xbe862289	-0.26198223
145	0xbbd96375	-0.0066341707
146	0x3f3a2417	0.7271132
147	0xbf61dd8a	-0.88228667
148	0xbb139fc8	-0.0022525657
149	0x3f23bfb3	0.63964385
150	0x3db6fa17	0.089344196
151	0xbe60a1b0	-0.21936679
152	0xbe19118a	-0.14948097
153	0xbe9c75d6	-0.30558652
154	0x3e6c04e7	0.23048745
155	0xbf66f5d3	-0.9021885
156	0xbf39df63	-0.72606486
157	0xbd70838f	-0.058719214
158	0x3e10536e	0.14094326
159	0x3c2d00ba	0.010559255
160	0x3d05855a	0.032597877
161	0xbe026c42	-0.1273661
162	0x3d8f02b8	0.069829404
163	0xbe7cc5c3	-0.24684815
164	0x3b5ee149	0.0034008792
165	0x3dfb0ab0	0.12257898
166	0xbd2a043a	-0.041507937
167	0xbe062e85	-0.13103683
168	0xbcf30ea6	-0.02967007
169	0x3e751520	0.2393384
170	0xbd2586e3	-0.04041184
171	0x3c8396e7	0.016063167
172	0xbe37da95	-0.17954476
173	0x3d43bdf5	0.04778858
174	0x3cf3409d	0.029693896
175	0xbe392e39	-0.18084039
176	0x3d4ced24	0.050030842
177	0x3df743f9	0.12073512
178	0xbebca2b8	-0.36842895
179	0x3ddb86c3	0.10719063
180	0x3aacec74	0.0013193027
181	0xba5ff47b	-0.00085432053
182	0xbe668f57	-0.22515617
183	0xbc326dc2	-0.010890426
184	0xbc3dcd08	-0.011584528
185	0xbe4cf089	-0.20013632
186	0x3eae4319	0.34035566
187	0x3e7a201c	0.24426311
188	0x3da3f1cd	0.08005104
189	0x3dd91bc0	0.10600996
190	0x3ea42001	0.32055667
191	0xbd10b5a4	-0.035329476
192	0x3c64f64d	0.013974738
193	0x3dab7c3a	0.08373304
194	0xbdb8eb5b	-0.090292655
195	0x3e05508c	0.13019007
196	0x3c8346c8	0.016024962
197	0x3d683fe2	0.05670155
198	0xba4d1c3e	-0.0007824338
199	0xbe7e7272	-0.24848345
200	0xbdbfec8f	-0.09371292
201	0x3e9c0895	0.30475298
202	0xbe88fb39	-0.26754168
203	0x3e15133d	0.1455812
204	0xbd8d6bab	-0.06905302
205	0x3d8193aa	0.06326993
206	0x3d99a6ab	0.075024925
207	0x3d2035e0	0.03911388
208	0xbc6a95a1	-0.014317901
209	0xbd453525	-0.048146386
210	0xbdf066a1	-0.11738325
211	0xbe50d3bb	-0.20393269
212	0xbd402aed	-0.046915937
213	0x3e84dc6b	0.25949416
214	0x3d62197d	0.05520009
215	0xbc9422c2	-0.01808298
216	0xbda314f9	-0.079629846
217	0x3cb90597	0.022585673
218	0x3ea36bb1	0.319181
219	0x3dc10936	0.09425585
220	0xbe4d4a5a	-0.20047894
221	0x3e44a7bf	0.19204615
222	0xbe0b7ee0	-0.13622618
223	0x3cb5b5d7	0.022181435
224	0x3e911a61	0.28340438
225	0xbdff4e69	-0.124661274
226	0x3e07f72f	0.13277887
227	0x3db66f85	0.089079894
228	0xbda0e5ed	-0.07856355
229	0x3e03c4a3	0.1286798
230	0x3da4153f	0.08011865
231	0xbcf47535	-0.029841045
232	0x3d4436a1	0.04790366
233	0xbd437957	-0.04772314
234	0xbe349488	-0.17634785
235	0xbe16593f	-0.14682482
236	0x3e00305f	0.12518452
237	0xbd2e1d47	-0.04250839
238	0x3d6252ee	0.05525487
239	0x3d93e4a1	0.07221342
240	0x3daa3fe7	0.0831297
241	0xbd42a582	-0.04752112
242	0xbce1b838	-0.027553663
243	0xbe639a8c	-0.22226924
244	0xbe825eb4	-0.25462878
245	0x3e52a03a	0.20568934
246	0x3caab3da	0.020837713
247	0xbe588363	-0.2114387
248	0x3b9e9d61	0.0048405384
249	0xbb2c70a1	-0.002631225
250	0x3e368c06	0.17826852
251	0x3d951d0b	0.0728093
252	0x3de14ab7	0.11000579
253	0x3e21c414	0.15797454
254	0xbc68eeaa	-0.014217058
255	0x3e63eed4	0.22259074

bias_ih_l0 f4 [128]
0	0x3d00bf62	0.031432517
1	0x3e9c61fb	0.30543503
2	0x3dcc04d4	0.099618584
3	0x3e00d0ac	0.12579602
4	0x3ed735ae	0.42033142
5	0x3ea376e9	0.3192666
6	0x3e718d97	0.23589168
7	0x3db7494e	0.08949529
8	0x3dc1f57a	0.09470649
9	0x3de7b74b	0.11314257
10	0x3ebaacdc	0.36460006
11	0x3e98aa9b	0.29817662
12	0x3ef04662	0.46928698
13	0x3e8f27a1	0.27959922
14	0x3e359e8d	0.17736264
15	0x3f220242	0.63284695
16	0x3dcc86e1	0.099866636
17	0x3eba3be6	0.36373824
18	0x3cb06648	0.021533147
19	0x3e416d93	0.18889455
20	0x3f3adccf	0.7299318
21	0x3db029bf	0.086017124
22	0x3ee6b00a	0.45056182
23	0x3d6f4818	0.058418363
24	0x3ee2f087	0.44324133
25	0x3e084b91	0.13310076
26	0x3d7be7f5	0.06150051
27	0x3d4c87f7	0.049934354
28	0xbcd8f001	-0.02648163
29	0x3eb32226	0.3498699
30	0x3ebc0bff	0.36727902
31	0x3db1dbb7	0.086844854
32	0x3c8d499d	0.017247016
33	0xbee45232	-0.4459396
34	0xbe9fa554	-0.31180823
35	0xbd685010	-0.05671698
36	0xbf2b18db	-0.668348
37	0xbe45362a	-0.19258943
38	0xbec03c03	-0.37545785
39	0xbec19c30	-0.37814474
40	0xbe156a5f	-0.14591359
41	0xbd89d7a5	-0.06730584
42	0xbdde7c46	-0.10863547
43	0xbdac5279	-0.08414168
44	0xbeaf702f	-0.34265277
45	0xbe13e765	-0.14443739
46	0xbd530daf	-0.05152672
47	0xbf4a44a4	-0.7901099
48	0xbd73ed40	-0.05955243
49	0xbe42b7a1	-0.19015361
50	0xbd63201a	-0.055450536
51	0x3de6ee28	0.112758934
52	0xbf3617fc	-0.7113035
53	0xbdbbb563	-0.09165456
54	0xbe9ea188	-0.30982614
55	0xbd837707	-0.06419187
56	0xbe97a55d	-0.2961835
57	0x3dde688b	0.10859784
58	0x3b8a849a	0.004227233
59	0x3de367df	0.11103796
60	0xbd6b5014	-0.057449415
61	0xbf228007	-0.63476604
62	0xbf0cc8a0	-0.5499363
63	0xbea3bcff	-0.3198013
64	0x3e186119	0.1488079
65	0x3de6870e	0.112562284
66	0xbd780588	-0.06055215
67	0x3d07b5ff	0.03313255
68	0xbdc6836d	-0.09693036
69	0xbb3c9e16	-0.002878075
70	0x3dddd892	0.10832323
71	0xbcf9891c	-0.030460887
72	0x3c4414c8	0.011967845
73	0x3d80c894	0.06288257
74	0xbd9c797e	-0.0764036
75	0x3cba0289	0.022706287
76	0xbde1ea91	-0.11031068
77	0xbd0f27b9	-0.03494999
78	0xbd299dd6	-0.04141029
79	0xbdae1afd	-0.08501241
80	0xbda120e8	-0.078676045
81	0xbdc2ae4c	-0.09505901
82	0x3e37963a	0.179284
83	0xbcdc45de	-0.026888784
84	0x3d8b6396	0.06806104
85	0x3da5aefc	0.08090016
86	0x3dcdb940	0.10045099
87	0xbe0e79f0	-0.13913703
88	0x3df7fcbc	0.12108752
89	0xbdadc7f7	-0.08485406
90	0x3d078573	0.03308625
91	0xbe3d49b7	-0.18485151
92	0xbdef8811	-0.116958745
93	0x3df94ca5	0.12172822
94	0x3ca631aa	0.020287354
95	0xbd97d3c1	-0.07413436
96	0x3e72248b	0.23646753
97	0x3e892335	0.26784673
98	0x3e0c3346	0.13691434
99	0x3e33ec9b	0.17570727
100	0x3f0fac1f	0.5612201
101	0x3e8bcd68	0.2730515
102	0x3e863897	0.2621505
103	0x3df7a9c4	0.12092927
104	0xbcbe49b8	-0.023228511
105	0x3e25b7e6	0.16183433
106	0x3e0e49fa	0.13895407
107	0x3e6d9aed	0.23203631
108	0x3ecb9262	0.3976012
109	0x3e82404d	0.25439683
110	0x3e4f046b	0.20216529
111	0x3f4f815c	0.8105676
112	0x3e7d4c10	0.24736047
113	0x3e94e305	0.29079452
114	0x3dec26bc	0.115308255
115	0x3d839a50	0.06425917
116	0x3f503250	0.8132677
117	0x3dbfd88e	0.093674764
118	0x3ed447ed	0.41461125
119	0x3dcfd826	0.10148649
120	0x3e587961	0.21140052
121	0x3e3930e1	0.18085052
122	0x3e747b96	0.2387527
123	0xbca96120	-0.020676196
124	0x3de941a7	0.11389475
125	0x3f0b8616	0.54501474
126	0x3ed8f9cf	0.4237809
127	0x3d7a0d67	0.061047938

bias_hh_l0 f4 [128]
0	0xbc52a856	-0.012857517
1	0x3ea317fe	0.31854242
2	0xbd0bf7fe	-0.03417205
3	0x3e93163f	0.2872791
4	0x3f10693d	0.5641058
5	0x3d9a59ab	0.07536634
6	0x3e097694	0.1342414
7	0x3e88bc09	0.2670596
8	0x3e38294d	0.17984505
9	0x3e8e5adf	0.27803704
10	0x3ddd7c01	0.108146675
11	0x3e3182da	0.17335072
12	0x3e6c8980	0.23099327
13	0x3f12e91e	0.5738696
14	0x3e5f2809	0.21792616
15	0x3f4b138d	0.7932671
16	0x3c5359db	0.012899841
17	0x3eb66cbf	0.35629842
18	0xbd97dfc4	-0.07415727
19	0x3e141676	0.14461693
20	0x3f60ab06	0.8776096
21	0x3e889152	0.2667337
22	0x3ef54af2	0.4790874
23	0x3dfb529c	0.12271616
24	0x3eb09710	0.34490252
25	0x3df19ba0	0.11797261
26	0x3e0a4be7	0.13505517
27	0xbd2a9684	-0.04164745
28	0xbddd679d	-0.10810778
29	0x3eae598b	0.3405269
30	0x3edfa406	0.43679827
31	0x3e0c5304	0.13703543
32	0xbd92750a	-0.0715123
33	0xbed6f68b	-0.41984972
34	0xbd97cb89	-0.07411868
35	0xbe8695a4	-0.26286042
36	0xbeb84fce	-0.35998386
37	0xbcf3af1d	-0.029746586
38	0xbe7024ef	-0.23451589
39	0xbf05e16e	-0.52297103
40	0xbd958f79	-0.07302756
41	0xbdfcfc38	-0.123527944
42	0xbdb7b50d	-0.089700796
43	0xbe14d17f	-0.14533041
44	0xbeb0dcdb	-0.345435
45	0xbea5d2f6	-0.32387513
46	0x3d5eef94	0.0544277
47	0xbf3d707e	-0.73999774
48	0xbe42eb26	-0.19035015
49	0xbe8422b7	-0.25807735
50	0xbcddfc05	-0.027097711
51	0xbd8c57d0	-0.068526864
52	0xbf1140e3	-0.56739634
53	0xbe82475d	-0.2544507
54	0xbf086bc6	-0.5328945
55	0xbdbcc892	-0.09217943
56	0xbeffe156	-0.49976605
57	0xbe4cd505	-0.20003136
58	0xbe7f4b02	-0.24930957
59	0x3d4e36e9	0.050345335
60	0xbdaf7409	-0.08567054
61	0xbecd3c31	-0.40084985
62	0xbed5f076	-0.4178502
63	0xbc96d2ec	-0.018411122
64	0xbe09ad8a	-0.13445106
65	0xbe1ff5cb	-0.15621106
66	0x3de04fbe	0.109527096
67	0xbcb84ece	-0.022498515
68	0x3e239060	0.15973043
69	0x3cf13237	0.02944289
70	0xbd9f5fb3	-0.07781925
71	0x3c86980b	0.016429922
72	0x3e1ce74e	0.1532261
73	0xbcfbc9fa	-0.030735958
74	0x3d52a790	0.05142933
75	0x3d23d6cc	0.03999977
76	0x3d902f50	0.07040274
77	0x3d010049	0.031494413
78	0xbdf3f2ab	-0.119115196
79	0x3d7adcbc	0.061245665
80	0x3c69b7ad	0.014264983
81	0x3e16de2d	0.14733191
82	0x3dd67dd5	0.10473219
83	0xbe1d279a	-0.15347138
84	0xbdb6189a	-0.08891411
85	0x3ca78083	0.020447021
86	0xbe129429	-0.14314331
87	0x3ddf1c8f	0.10894119
88	0xbdf07463	-0.11740949
89	0x3caa4815	0.020786325
90	0x3d13aca4	0.036053315
91	0xbd8f5ec3	-0.07000496
92	0xbdd8127b	-0.105504
93	0xbe20ae95	-0.15691598
94	0xbb8ba60d	-0.004261738
95	0x3cf4a14f	0.029862074
96	0x3df8aefb	0.1214275
97	0x3ecde9b6	0.4021737
98	0xbc9d2c26	-0.01918609
99	0x3ece58ae	0.40302032
100	0x3f28eae4	0.65983415
101	0x3e34ad05	0.17644127
102	0x3eebe4ab	0.46072897
103	0x3edcf09b	0.43152317
104	0xbd9e2ad2	-0.07723011
105	0x3e3c9af9	0.18418492
106	0x3ec2ac78	0.38022208
107	0x3e9e2bd1	0.30892804
108	0x3ed1cc6f	0.40976283
109	0x3ee52932	0.44757992
110	0x3df9e541	0.1220193
111	0x3f5184bd	0.8184317
112	0x3e881dd7	0.26585266
113	0x3e1db2e4	0.15400273
114	0x3e61b19c	0.22040409
115	0xbd729b85	-0.059230346
116	0x3f46bca4	0.7763159
117	0x3e91cd41	0.2847691
118	0x3f10fec5	0.5663875
119	0x3e6fb1ac	0.2340762
120	0x3ecc67f8	0.39923072
121	0x3e20413b	0.15649883
122	0x3e94d25c	0.2906674
123	0xbc6d1e98	-0.014472626
124	0xbc7d0e49	-0.0154453
125	0x3f0a1ae1	0.53947264
126	0x3ee6cf28	0.45079923
127	0x3e8608cf	0.26178595

weight_ih_l0 f4 [128, 2]
0	0x3e1914df	0.14949368
1	0x3d9b24f1	0.075754054
2	0xbddbc5e1	-0.10731102
3	0x3ca1d457	0.019754572
4	0x3c96b45f	0.018396555
5	0xbac4ec16	-0.0015023972
6	0xbdce0723	-0.10059955
7	0xbca7f71e	-0.020503577
8	0xbd13a2d9	-0.036043976
9	0xbd9fd538	-0.0780434
10	0xbcfcbc29	-0.03085144
11	0x3e142bf3	0.1446989
12	0x3cec21a1	0.02882463
13	0x3d050569	0.032475863
14	0xbdb7287a	-0.08943267
15	0xbda71b83	-0.08159544
16	0xbd1eccb2	-0.03876943
17	0xbd868a7e	-0.06569384
18	0x3ccf365d	0.025294477
19	0x3d05b7f2	0.032646127
20	0xbc38c5a0	-0.011277586
21	0x3dad149e	0.08451198
22	0x3d0e59ff	0.034753796
23	0xbc5ffac3	-0.013670626
24	0xbdcad883	-0.099045776
25	0x3dfbbccc	0.122918695
26	0x3c915973	0.017742848
27	0xbd019b41	-0.031642202
28	0xbde415d1	-0.11136974
29	0x3c5d4bd6	0.01350685
30	0xbc8f7dd9	-0.017516064
31	0x3e106f26	0.141049
32	0x3c2c40b5	0.010513474
33	0x3de1ac24	0.11019161
34	0xbb7ef447	-0.0038902925
35	0x3db625c5	0.08893923
36	0x3dcc641f	0.09980034
37	0x3c57b65b	0.0131660355
38	0x3d4c8573	0.049931955
39	0x3d22dd22	0.03976167
40	0x3d83c154	0.06433359
41	0xbdc2413c	-0.09485099
42	0xbb8bad10	-0.004262574
43	0x3e0cb1d2	0.13739708
44	0xbd2b298e	-0.041787677
45	0x3e0806a3	0.13283782
46	0xbe49d0ba	-0.19708529
47	0x3d63ca04	0.05561258
48	0x3d2d293c	0.042275652
49	0x3cf82fd1	0.030296238
50	0xbe096292	-0.13416508
51	0xbb610a77	-0.0034338513
52	0x3d0c8e10	0.03431517
53	0x3d8b7056	0.06808536
54	0xbd84f26c	-0.06491551
55	0x3e0b29b1	0.13590123
56	0x3d107340	0.03526616
57	0x3dbf0a26	0.093281075
58	0xbd960f6c	-0.0732716
59	0xbc5873bf	-0.01321119
60	0x3e7e7ef3	0.24853115
61	0x3cec61c6	0.028855216
62	0xbda338ef	-0.079698436
63	0xbe099abc	-0.13437933
64	0xbdda5179	-0.10660071
65	0xbe5c9ec4	-0.2154494
66	0xbd31c03b	-0.043396216
67	0xbd9faf76	-0.077971384
68	0x3e0f6e9d	0.1400704
69	0xbdb86050	-0.09002745
70	0x3dbd2737	0.09235995
71	0x3d4ac6cf	0.049506005
72	0x3ea57909	0.32318905
73	0xbe252c10	-0.1613009
74	0xbcdae3d4	-0.026719965
75	0x3d14f1ce	0.036363415
76	0xbd5f3da3	-0.05450214
77	0x3e7862e7	0.24256478
78	0x3d6fab63	0.058513056
79	0xbbb9f0fe	-0.0056744805
80	0xbe22b090	-0.15887666
81	0xbe23ad82	-0.15984157
82	0x3e254b48	0.16141999
83	0xbd89991f	-0.06718659
84	0x3e161e10	0.14659905
85	0x3da8dcd8	0.082452476
86	0x3c9cd0e5	0.019142577
87	0x3c8d65b9	0.01726042
88	0xbe0cfa58	-0.13767374
89	0x3e1a4309	0.15064634
90	0xbe57da48	-0.21079361
91	0x3dce0504	0.100595504
92	0x3d73918c	0.059464976
93	0x3e0701d9	0.13184299
94	0x3e823876	0.254337
95	0x3d89f68f	0.067364804
96	0x3e00b3c7	0.1256858
97	0x3d755714	0.059897497
98	0xbe01f7a8	-0.1269213
99	0xbe4917fc	-0.19638056
100	0x3da1a132	0.07892074
101	0x3e3e0532	0.1855667
102	0xbe63843a	-0.22218409
103	0xbda51c3c	-0.08062026
104	0xbe0a6faa	-0.13519159
105	0xbe04d249	-0.12970842
106	0x3e40dda0	0.18834543
107	0xbc94ea7a	-0.018178213
108	0x3d702e7e	0.05863809
109	0x3e0e4451	0.13893248
110	0xbe37f914	-0.1796611
111	0xbcdee786	-0.027210008
112	0xbddf18be	-0.10893391
113	0x3cb92c07	0.022604002
114	0x39892f48	0.00026165904
115	0xbd954def	-0.07290255
116	0xbda82d7b	-0.082118
117	0x3dc82098	0.09771842
118	0xbe28692c	-0.1644637
119	0x3a28ab1e	0.000643419
120	0x3e93b843	0.28851518
121	0xbd99ec63	-0.0751579
122	0xbd35bc9c	-0.044369325
123	0x3dc56c53	0.09639802
124	0x3e9ece2b	0.3101667
125	0x3dabcc1b	0.083885394
126	0xbe3cd804	-0.18441778
127	0xbe701807	-0.23446666
128	0x3e0887cb	0.13333051
129	0x3dd5c802	0.10438539
130	0xbcaaceae	-0.020850506
131	0xbe17dc18	-0.14830053
132	0xbcce83ed	-0.025209391
133	0xbe08a614	-0.13344604
134	0xbd6e6182	-0.05819846
135	0xbe1794d2	-0.14802864
136	0xbd9f478e	-0.0777732
137	0x3dc1d954	0.0946528
138	0x3e99ddb4	0.3005196
139	0xbda121ea	-0.07867797
140	0x3db256b7	0.08707946
141	0xbe28574e	-0.16439554
142	0x3eb3b943	0.3510228
143	0xbce71154	-0.028206505
144	0x3ed0682b	0.40704474
145	0x3dd7ee67	0.105435185
146	0xbe301b62	-0.17197946
147	0x3e9c608e	0.30542415
148	0x3e802208	0.25025964
149	0x3e2edd88	0.17076695
150	0xbe57add1	-0.210624
151	0x3daf955a	0.085734084
152	0xbdc836f7	-0.09776109
153	0xbde71995	-0.11284176
154	0x3f000877	0.50012916
155	0x3d5a195a	0.053246833
156	0xbd52f89c	-0.051506624
157	0xbe23018d	-0.1591856
158	0xbd3f2bd1	-0.046672646
159	0x3e4f5a23	0.20249228
160	0x3de16019	0.11004657
161	0xbd103695	-0.035208303
162	0xbe4673cb	-0.19380109
163	0x3dcf3ca3	0.101189874
164	0x3e0af54e	0.13570139
165	0x3e2d9430	0.1695106
166	0x3e2955f0	0.16536689
167	0x3d2ae8e2	0.041726
168	0xbd09f250	-0.033678353
169	0xbdb2577c	-0.087080926
170	0xbdce3536	-0.10068743
171	0x3d71a5ca	0.058996
172	0x3c852852	0.016254578
173	0xbe29fb49	-0.16599764
174	0x3e8c87a5	0.2744724
175	0x3d8851e4	0.066562444
176	0x3eaf0627	0.3418438
177	0x3db3f1b9	0.08786339
178	0x3d8879c2	0.066638485
179	0x3e741f65	0.23840101
180	0xbe8baf63	-0.27282247
181	0x3d34c0ec	0.044129297
182	0x3ddde8f2	0.108354464
183	0xbdbe6ea8	-0.0929845
184	0x3ebfed7b	0.3748587
185	0x3d9d5573	0.07682314
186	0x3dbae1b9	0.091250844
187	0x3e30b0ae	0.17254898
188	0x3ea64fae	0.32482666
189	0x3d21ba30	0.039484203
190	0x3c3c08ba	0.01147669
191	0xbdb42f67	-0.08798104
192	0xbcca046f	-0.024660317
193	0xbd191a3c	-0.037378535
194	0x39ef4467	0.00045636596
195	0x3da6c348	0.08142716
196	0x3e3e13b1	0.18562199
197	0xbe2bd307	-0.1677972
198	0x3e189457	0.14900337
199	0x3d22abf5	0.039714772
200	0xbc8218e7	-0.015881015
201	0xbe8023f2	-0.25027424
202	0xbd7464bc	-0.05966638
203	0x3d933113	0.071870945
204	0xbcdc9439	-0.026926147
205	0x3dff6047	0.12469535
206	0xbe1ff49e	-0.15620658
207	0xbdf4247e	-0.11921023
208	0xbe1ef4fb	-0.1552314
209	0xbc2d4646	-0.0105758365
210	0x3d8029e2	0.062579885
211	0xbe844333	-0.2583252
212	0x3e531346	0.20612821
213	0x3dd8d982	0.10588361
214	0x3dc7a9e6	0.097492024
215	0xbc8a2ecb	-0.016868016
216	0x3e3d335c	0.18476623
217	0x3e379d1a	0.17931023
218	0xbe8752b1	-0.26430276
219	0x3d89ee64	0.067349225
220	0x3c8ecde5	0.017432163
221	0x3e5cc325	0.21558817
222	0x3dbe64b7	0.092965536
223	0x3e7f025c	0.24903244
224	0xbcb8e781	-0.022571327
225	0x3d82a493	0.06379046
226	0xbe669163	-0.22516398
227	0xbe17ba5e	-0.14817187
228	0xbe090c43	-0.13383584
229	0xbcab4571	-0.020907136
230	0xbc33d286	-0.010975486
231	0x3d568536	0.052373134
232	0x3d4dbcba	0.05022881
233	0xbdfa8e8f	-0.12234222
234	0xbd40075d	-0.046882022
235	0x3c375b49	0.011191198
236	0x3d866fe1	0.06564308
237	0x3e2076cc	0.15670317
238	0xbe84de92	-0.25951058
239	0xbdcec869	-0.10096819
240	0x3e970c85	0.2950174
241	0x3dfd13cc	0.123572916
242	0xbe064df7	-0.13115679
243	0xbe51ab20	-0.20475435
244	0xb9540b46	-0.00020222095
245	0xbd00f279	-0.03148124
246	0xbd962395	-0.073310055
247	0x3e4472aa	0.19184366
248	0x3d8dee77	0.06930249
249	0x3cfe10c7	0.03101386
250	0xbd252c17	-0.04032525
251	0xbd91170e	-0.070844755
252	0x3e90b1d4	0.28260672
253	0x3e1790ee	0.1480138
254	0xbde6e6f6	-0.11274521
255	0xbe995458	-0.29947162

weight_hh_l0 f4 [128, 32]
0	0xbd14000f	-0.03613287
1	0x3c84bccd	0.016203308
2	0xbd8c60b1	-0.0685438
3	0x3e8e78bb	0.27826485
4	0xbdcc42e9	-0.099736996
5	0x3e0e9aea	0.13926283
6	0xbde4673d	-0.11152504
7	0xbd03788d	-0.032097388
8	0xbe2d176b	-0.16903464
9	0xbdb8f8dd	-0.09031842
10	0x3e820247	0.25392362
11	0x3c9a95b0	0.018870205
12	0x3cdb2b12	0.026753936
13	0x3d1bac2f	0.038006004
14	0xbdee9b9b	-0.11650773
15	0x3dcff442	0.1015401
16	0x3e19fb76	0.15037331
17	0xbe2d8d8c	-0.16948527
18	0xbd03a584	-0.03214027
19	0x3e79c856	0.24392828
20	0x3e14f49a	0.14546433
21	0xbcbb21a1	-0.022843184
22	0xbe051585	-0.1299649
23	0xbdc4c614	-0.09608093
24	0xbdc2302d	-0.09481845
25	0xbd97b26f	-0.074070804
26	0xbe1d91d6	-0.15387663
27	0x3e970c3d	0.29501525
28	0x3e321ad6	0.1739305
29	0xbe956df0	-0.29185438
30	0xbdc8a630	-0.09797323
31	0x3e91fe5d	0.28514376
32	0x3cf44aa7	0.029820753
33	0xbe24c9d5	-0.16092618
34	0x3db292b8	0.08719391
35	0x3cc7cdb7	0.024390085
36	0xbe38249a	-0.17982712
37	0x3ccbc5ec	0.02487465
38	0xbe8a8f96	-0.27062672
39	0xbd25d635	-0.040487487
40	0x3c92a26c	0.017899714
41	0xbd0f122f	-0.03492945
42	0xbcd55e03	-0.026045805
43	0xbe207b70	-0.15672088
44	0x3bc7a4aa	0.0060926275
45	0x3e57a9c5	0.21060856
46	0xbdbb784c	-0.09153804
47	0x3dbfe64f	0.093701
48	0x3dbc70ef	0.09201228
49	0xbd791112	-0.060807295
50	0x3de74e6f	0.11294257
51	0x3e7be75c	0.24599975
52	0x3e6274a6	0.2211481
53	0xbe139dee	-0.14415714
54	0x3db6395e	0.08897661
55	0x3e249f27	0.16076337
56	0x3e274d95	0.16338189
57	0xbea7ad8d	-0.32749596
58	0x3c2619ce	0.010137988
59	0xbe3e68b8	-0.18594635
60	0x3c9c7f9d	0.01910382
61	0x3e030c6b	0.12797706
62	0x3bfae457	0.0076566148
63	0x3dd69626	0.10477857
64	0x3d446665	0.047949214
65	0xbced2213	-0.028946912
66	0x3dc29cf8	0.09502596
67	0x3db0e53f	0.08637475
68	0xbe667633	-0.22506027
69	0xbde7bec0	-0.113156796
70	0xbe330740	-0.17483234
71	0xbdbd9de0	-0.09258628
72	0xbe6b5802	-0.22982791
73	0xbe93ff41	-0.2890568
74	0xbe058ef7	-0.13042818
75	0xbd5deb5a	-0.054179527
76	0xbd6a801e	-0.05725109
77	0x3e5ca9d4	0.2154916
78	0xbe0eab77	-0.13932596
79	0x3dcbe39f	0.09955525
80	0x3ca0e64f	0.01964107
81	0x3d295c69	0.041347895
82	0xbddc733d	-0.107641675
83	0xbe0e4ee3	-0.1389728
84	0xbb6462c0	-0.0034848899
85	0x3c61e1ce	0.013786746
86	0xbe4217d8	-0.18954408
87	0xba80198e	-0.0009773241
88	0x3af6da91	0.0018833448
89	0xbeaae095	-0.33374467
90	0xbd422ee1	-0.04740799
91	0xbcd4edc5	-0.025992284
92	0xbe0bede0	-0.13664961
93	0x3e02f1ca	0.12787548
94	0x3c5a46fb	0.013322587
95	0x3d0f8115	0.03503521
96	0x3e5b80e6	0.2143589
97	0xbd3fc35b	-0.046817165
98	0x3e40a43a	0.18812647
99	0x3ce22448	0.02760519
100	0xbdfc6d4f	-0.123255365
101	0xbddc7cc9	-0.107659884
102	0xbdc13ffb	-0.094360314
103	0xbd355929	-0.044274483
104	0xbc852e0a	-0.016257305
105	0xbc1d3454	-0.0095949955
106	0xbd575110	-0.05256754
107	0xbdb3e6b1	-0.08784235
108	0xbe140bec	-0.14457673
109	0xbde8c570	-0.11365783
110	0xbe9c856d	-0.30570546
111	0xbe0afeac	-0.13573712
112	0xbe6ae353	-0.2293828
113	0xbd368b85	-0.04456665
114	0xbe647a74	-0.22312337
115	0xbd9bda75	-0.07610027
116	0x3e085721	0.13314487
117	0x3dc0b2dd	0.094091155
118	0xbd382748	-0.044959337
119	0x3bed7cd2	0.0072475458
120	0xbc65ac60	-0.014018148
121	0xbcffef3b	-0.031242004
122	0xba4df3c2	-0.0007856452
123	0x3c96f263	0.018426126
124	0xbd0a6c71	-0.033794824
125	0xbdbc2894	-0.09187427
126	0x3d1e7a51	0.03869087
127	0xbcba0343	-0.022706633
128	0x3e02c34d	0.12769814
129	0x3d0fcbb0	0.03510636
130	0x3dc62dad	0.09676681
131	0xbd086ad2	-0.033304997
132	0xbba6244b	-0.0050702444
133	0x3d43341b	0.047657114
134	0x3c98749a	0.018610287
135	0xbe1dc75f	-0.15408085
136	0x3d8ef73e	0.069807515
137	0x3c39e290	0.011345521
138	0xbdcead67	-0.100916676
139	0xbe243e2f	-0.16039346
140	0xbd8ddbf5	-0.06926719
141	0x3e4be5c3	0.19911866
142	0xbd330b57	-0.043711986
143	0x3ce443fc	0.027864449
144	0xbe8f0d95	-0.2794005
145	0x3daeb4b6	0.085305616
146	0x3dc2df5a	0.09515257
147	0xbe04ad1d	-0.12956662
148	0x3e06694c	0.13126105
149	0x3e1a4b93	0.15067892
150	0x3c91638f	0.017747669
151	0xbe804c65	-0.25058284
152	0xbd121cf7	-0.035672154
153	0x3ab63060	0.0013899915
154	0xbdec0502	-0.11524393
155	0xbdc1ab8c	-0.09456548
156	0xbdb465e6	-0.08808498
157	0x3e314824	0.17312676
158	0x3dcd9b82	0.100394264
159	0xbce5822f	-0.028016178
160	0xbc71234b	-0.014717887
161	0xbe418e87	-0.18902026
162	0xbd12e9bc	-0.035867438
163	0xbdc487e4	-0.095962316
164	0xbe4fc830	-0.20291209
165	0x3e15ef05	0.1464196
166	0xbe0423ca	-0.12904277
167	0x3ea49c52	0.32150513
168	0x3e7f88b8	0.24954498
169	0xbe943a35	-0.28950658
170	0xbde3626d	-0.111027576
171	0x3e0438a3	0.1291223
172	0x3ceaf655	0.028681913
173	0x3dc3827e	0.09546374
174	0x3a626c05	0.0008637312
175	0xbde0f756	-0.109846756
176	0xbe35ba90	-0.17746949
177	0x3d00218a	0.031281985
178	0xbd32a114	-0.043610647
179	0x3cca6eb6	0.024710994
180	0xbe1c7146	-0.15277585
181	0xbd259f0a	-0.040434875
182	0xbe1d651d	-0.15370603
183	0x3dd26c14	0.102745205
184	0x3dad837d	0.08472345
185	0x3da2406b	0.07922443
186	0x3e0bd53a	0.13655558
187	0x3b308242	0.0026933108
188	0x3da7d07e	0.081940636
189	0xbe70228f	-0.23450683
190	0x3e487a50	0.19577909
191	0x3dcc9231	0.09988821
192	0x3b926036	0.0044670356
193	0x3cb2db25	0.021833012
194	0x3e5ed845	0.21762188
195	0xbd3a6539	-0.04550669
196	0xbd6d9629	-0.058004532
197	0xbe39742c	-0.18110722
198	0xbe64345d	-0.222856
199	0x3e58592a	0.21127763
200	0xbd4697d4	-0.04848464
201	0xbe8d77aa	-0.2763036
202	0xbe2d38df	-0.16916226
203	0x3ce7d65e	0.02830046
204	0xbc7acf6f	-0.015308245
205	0x3df2f1de	0.11862539
206	0xbde89a9d	-0.11357615
207	0xbe96bbe0	-0.29440212
208	0x3d19c468	0.037540823
209	0xbdefcaa9	-0.11708576
210	0x3c667e7a	0.01406824
211	0xbdd602d3	-0.104497574
212	0x3edfe60b	0.43730196
213	0xbb3bdcdb	-0.0028665576
214	0xbe117f53	-0.14208727
215	0xbcd21ae2	-0.025647584
216	0x3df03c23	0.1173022
217	0xbe7ead3d	-0.24870773
218	0xbd215cc0	-0.039395094
219	0x3e1f2c6a	0.15544286
220	0x3e030d00	0.12797928
221	0xbe3f6eb1	-0.18694569
222	0xbe6c8738	-0.23098457
223	0x3e44ed5b	0.19231169
224	0x3cb1a7a9	0.021686392
225	0x3dc1d246	0.094639346
226	0x3d09181c	0.033470258
227	0x3c9e4fd1	0.019325169
228	0x3da4717f	0.0802946
229	0xbea22c27	-0.3167431
230	0x3d98b66e	0.07456671
231	0x3d3fb0c7	0.046799447
232	0xbcd0e92c	-0.02550181
233	0xbe5d4c11	-0.21611048
234	0xbe3b5eb2	-0.18297842
235	0x3e89eca8	0.26938367
236	0x3e9e5873	0.30926856
237	0xbdee1795	-0.11625592
238	0x3e0a6ca6	0.13518009
239	0xbce48b86	-0.027898561
240	0xbdadfbea	-0.084953144
241	0xbc9573ec	-0.018243752
242	0xbddbbd65	-0.107294835
243	0xbde13a69	-0.10997469
244	0xbd401aa1	-0.046900395
245	0xbc3769b4	-0.011194635
246	0xbdbe903d	-0.09304855
247	0xbdfa465c	-0.12220451
248	0xbdfb7490	-0.12278092
249	0x3ce96b7c	0.028493635
250	0x3dab75f9	0.08372111
251	0x3ca0aad9	0.019612717
252	0xbe6c1130	-0.23053432
253	0xbb72bfc5	-0.0037040573
254	0x3cde024c	0.027100705
255	0x3e2fcf95	0.1716903

bias_ih_l0 f4 [128]
0	0xbdd5d54f	-0.10441076
1	0xbe071da1	-0.13194896
2	0x3c865fa1	0.016403021
3	0x3d1c037e	0.038089268
4	0x3c11f9af	0.008909627
5	0x3dacbfd4	0.08435026
6	0x3ddfcbda	0.109275535
7	0xbdb205a2	-0.086924806
8	0xbc034e03	-0.008014205
9	0x3c9c8288	0.01910521
10	0xbe2c67ed	-0.1683652
11	0xbe1e3a77	-0.1545199
12	0xbcb60ff9	-0.022224413
13	0x3e1e1866	0.15438995
14	0xbe438352	-0.19093063
15	0xbd471101	-0.0486002
16	0x3cabcb0d	0.020970846
17	0x3deb2c62	0.11483075
18	0x3de26a9e	0.11055492
19	0xbe47d21e	-0.19513747
20	0x3dc746b8	0.097302854
21	0xbd5e8ab6	-0.054331504
22	0xbe39569e	-0.18099448
23	0xbd62d596	-0.055379473
24	0x3d16884d	0.03675108
25	0x3ca4967c	0.020091288
26	0x3d13ed6a	0.036115088
27	0xbce5824d	-0.028016234
28	0x3e065ef1	0.13122155
29	0x3db5f43c	0.08884475
30	0x3df16fa5	0.11788873
31	0xbdded954	-0.10881296
32	0x3e1b9734	0.15194398
33	0xbdbc4639	-0.091930814
34	0xbdc9676f	-0.098341815
35	0xbde84233	-0.113407515
36	0x3b1fec76	0.0024402416
37	0x3e1ab92b	0.15109698
38	0x3d0e91b1	0.03480691
39	0x3e841784	0.2579919
40	0x3e7760d7	0.24158035
41	0x3e3a4e20	0.18193865
42	0x3dadc2b7	0.084844045
43	0x3e57e6af	0.21084093
44	0xbd74f1ff	-0.059801098
45	0x3e5ebe14	0.21752197
46	0x3d0ee681	0.034887794
47	0xbd4f35b5	-0.05058833
48	0xbdafabee	-0.08577715
49	0x3e65f6f0	0.2245748
50	0x3e87d26c	0.26527727
51	0x3e133dc3	0.14379029
52	0x3ce56910	0.0280042
53	0x3e42cd38	0.19023597
54	0xbdc63546	-0.0967813
55	0x3d78e7fa	0.060768105
56	0x3ccd4c46	0.025060784
57	0x3de74122	0.1129172
58	0x3db5dead	0.08880363
59	0x3e6011c4	0.21881777
60	0xbd9bc9a4	-0.07606819
61	0x3dd11a78	0.10210127
62	0xbc6f901b	-0.01462176
63	0xbd58d0e0	-0.052933574
64	0xbdfd5336	-0.12369387
65	0x3d401a91	0.046900336
66	0x3e4e39cd	0.20139237
67	0xbe15ced5	-0.14629681
68	0x3d3b0cdd	0.045666564
69	0x3c326eb5	0.010890652
70	0x3e3852d7	0.18000351
71	0x3dec6379	0.115424104
72	0x3e05979e	0.13046119
73	0xbc5e74db	-0.013577665
74	0x3d83932d	0.06424556
75	0x3d9fe10b	0.078065954
76	0x3da77f1f	0.08178543
77	0x3c5521c9	0.013008543
78	0x3d7f6e71	0.062361185
79	0xbe0c2d79	-0.13689221
80	0xbe251cad	-0.1612422
81	0xbdb2aa46	-0.08723883
82	0x3e5156c8	0.2044326
83	0xbe7b242a	-0.24525514
84	0x3c05ffe5	0.008178686
85	0xbe56d95d	-0.20981355
86	0xbdcbbcb1	-0.099480994
87	0x3e6382e0	0.22217894
88	0xbe659d0f	-0.22423194
89	0xbc0b5e71	-0.008506403
90	0x3dac3e2e	0.08410297
91	0xbc640e8f	-0.013919487
92	0xbdba3170	-0.09091461
93	0xbdb1497d	-0.08656595
94	0xbe1bd5ab	-0.15218227
95	0x3da06d53	0.07833352
96	0xbd0d0289	-0.034426246
97	0x3e59971b	0.21249048
98	0x3e13acd8	0.14421403
99	0x3db482cd	0.08814011
100	0x3e555797	0.20834194
101	0x3e7eef94	0.2489608
102	0x3eb805bc	0.35941875
103	0x3dabf03e	0.08395432
104	0x3d23c169	0.039979372
105	0x3e5299f9	0.20566548
106	0x3d14afeb	0.03630058
107	0xbdbf5455	-0.09342257
108	0xbdba160e	-0.09086238
109	0x3e6e3354	0.23261768
110	0x3dcfe719	0.101515
111	0x3de34755	0.1109759
112	0x3deb5732	0.114912406
113	0xbd3f96a4	-0.04677452
114	0x3e840039	0.2578142
115	0x3d7f7985	0.06237175
116	0xbd6a1d76	-0.057157002
117	0x3e5aab76	0.2135447
118	0x3b843e01	0.0040357118
119	0xbd9e4057	-0.077271156
120	0x3e782b1b	0.24235193
121	0x3d1f9391	0.03895909
122	0x3e5bbcd8	0.21458757
123	0xbc1445cf	-0.009049847
124	0xbc8c3f05	-0.017119894
125	0x3dbdba3a	0.092640355
126	0x3e18f5d7	0.1493753
127	0x3c38333f	0.011242687

bias_hh_l0 f4 [128]
0	0x3dff3d33	0.12462845
1	0x3e029981	0.1275387
2	0xbd5ac3ea	-0.053409494
3	0xbe05fb27	-0.13084088
4	0x3dd2d44d	0.102943994
5	0x3e3028c9	0.17203058
6	0xbe0ca38c	-0.13734263
7	0x3c8c9272	0.017159674
8	0x3d90b7c8	0.070663035
9	0x3dbad9f0	0.091235995
10	0x3d1649a3	0.03669132
11	0x3d5e2458	0.05423388
12	0xbcb1a052	-0.021682892
13	0x3e279a86	0.1636754
14	0x3d1d18ae	0.038353615
15	0x3b2233e4	0.0024750168
16	0xbcf66218	-0.030076072
17	0x3d124287	0.035707977
18	0x3ca665fb	0.0203123
19	0xbe75dc6e	-0.24009869
20	0x3dd1a61d	0.10236762
21	0x3d61b3c6	0.055103086
22	0x3de838f8	0.11338991
23	0xbe03f2f2	-0.12885645
24	0xbd8fdd55	-0.070246376
25	0xbd81298c	-0.063067526
26	0x39bb2a89	0.0003569911
27	0xbdfe5801	-0.12419129
28	0x3e20d562	0.15706399
29	0x3de788cd	0.113053896
30	0xbcbbcfa6	-0.022926163
31	0xbda38414	-0.07984176
32	0x3c914ca0	0.017736733
33	0x3e042e42	0.12908271
34	0x3cd192b0	0.025582641
35	0xbc1371da	-0.008999312
36	0x3c5292dd	0.012852398
37	0xbc812d78	-0.015768752
38	0xbdb4d68c	-0.08829984
39	0xbd02fbef	-0.031978544
40	0xbca45a95	-0.020062724
41	0x3b5482c8	0.0032426585
42	0x3b66333b	0.003512575
43	0x3dd73719	0.10508556
44	0x3dad8dfb	0.08474346
45	0x3e6c2631	0.23061444
46	0xbdf8f287	-0.121556334
47	0xbdff0110	-0.124513745
48	0xbc96004c	-0.018310688
49	0xbd11803d	-0.03552269
50	0x3df65247	0.12027412
51	0xbd31bcbb	-0.043392878
52	0x3ca73475	0.020410756
53	0x3de8280e	0.11335765
54	0x3d44d635	0.048055846
55	0xbdb1c748	-0.08680588
56	0x3d4abc22	0.049495824
57	0x3e219c14	0.15782195
58	0xb9f671e2	-0.00047005626
59	0xb910e3ea	-0.00013817815
60	0x3dfaa25c	0.12237999
61	0xbdb8abad	-0.090171196
62	0xbe0960cf	-0.13415836
63	0x3dfdfdb4	0.12401906
64	0x3d63b701	0.055594448
65	0x3d84cc11	0.06484235
66	0x3c4fbe33	0.012679624
67	0xbde7aac3	-0.11311867
68	0x3df40b89	0.11916263
69	0xbe42f0b9	-0.19037141
70	0xbcc63553	-0.024195349
71	0x3deb044d	0.1147543
72	0xbe056531	-0.13026883
73	0x3e561953	0.20908098
74	0xbc317d83	-0.010833147
75	0x3e3dd835	0.18539508
76	0x3d2fc962	0.042916663
77	0x3dafe769	0.0858906
78	0x3d21a327	0.039462235
79	0xbcf6be35	-0.030119995
80	0xbd9427f7	-0.07234185
81	0x3dabe731	0.08393706
82	0xbda152c2	-0.07877113
83	0xbe16bd54	-0.1472066
84	0x3d61df23	0.05514444
85	0xbe2c28f9	-0.16812505
86	0x3d037f0a	0.032103576
87	0x3e21a40c	0.15785235
88	0xbe23eb6e	-0.16007778
89	0x3e5b2abe	0.21403024
90	0xbdf5f4f3	-0.12009611
91	0x3b11506d	0.0022173182
92	0xbe7563b8	-0.23963821
93	0xbe003a60	-0.12522268
94	0x3d952fad	0.07284484
95	0xbdcf5268	-0.101231396
96	0x3e6b79e4	0.22995716
97	0x3e40fc55	0.18846257
98	0x3d32a9a6	0.04361882
99	0xbe3673f3	-0.17817669
100	0x3d1005a6	0.035161637
101	0x3e863964	0.2621566
102	0x3e91aaf7	0.28450748
103	0x3e21769f	0.15767907
104	0x3daa178c	0.083052725
105	0x3e5fa1d2	0.21839073
106	0xbc974c85	-0.018469105
107	0xbd94ca5e	-0.07265161
108	0xbda9f217	-0.08298128
109	0x3dbbf4b4	0.09177533
110	0x3e2b45db	0.16725866
111	0x3e5a2baf	0.21305726
112	0x3e86a884	0.26300442
113	0x3c3e3c0e	0.011610998
114	0x3d12e303	0.035861026
115	0x3d43392e	0.047661953
116	0xbd983764	-0.0743244
117	0x3cbfccda	0.02341311
118	0x3dffcb19	0.1248991
119	0x3e568953	0.20950823
120	0x3df03446	0.1172872
121	0x3e28bf48	0.16479218
122	0x3b3f80e7	0.002922112
123	0x3e3494c0	0.17634869
124	0x3e844c99	0.2583969
125	0x3e23aac8	0.15983117
126	0x3d97f446	0.07419638
127	0x3d9b8d27	0.07595282

weight_ih_l0_reverse f4 [128, 2]
0	0xbe3491db	-0.17633764
1	0xbe7dabf4	-0.24772626
2	0x3eda51e9	0.42640617
3	0xbe618066	-0.22021636
4	0xbe8caf38	-0.2747743
5	0xbeddab8e	-0.43294948
6	0x3e1583c7	0.1460105
7	0xbeb756e2	-0.35808474
8	0xbe1564c7	-0.14589225
9	0xbe58be0c	-0.21166247
10	0x3e6b3c75	0.22972281
11	0xbf41dd69	-0.7572847
12	0x3d6fb07e	0.058517925
13	0x3e3d2ae5	0.18473394
14	0x3e287182	0.1644955
15	0xbebaa188	-0.36451364
16	0xbe66b805	-0.22531135
17	0xbf2c16bc	-0.6722219
18	0xbe46c0ea	-0.19409528
19	0x3f00e31c	0.5034654
20	0xbe990598	-0.2988708
21	0x3d8118b9	0.063035436
22	0x3f37b5a1	0.7176152
23	0xbc0030af	-0.007824107
24	0xbe03764c	-0.12838095
25	0x3d68a5e1	0.05679882
26	0xbe1061e2	-0.1409984
27	0x3d8bfb8a	0.06835087
28	0x3e762889	0.240389
29	0xbd5025ba	-0.05081723
30	0x3f200f2b	0.62523144
31	0x3ee38d0b	0.44443545
32	0x3cd3d803	0.025859838
33	0xbe8c28dc	-0.27374923
34	0x3d4ef8e1	0.05053032
35	0x3e915967	0.2838852
36	0xbd4ddec6	-0.05026128
37	0xbe59b4d0	-0.2126038
38	0xbe62b737	-0.22140203
39	0x3e1f9c5f	0.15586995
40	0xbecd2d57	-0.40073654
41	0x3de178a1	0.11009336
42	0xbe92d2ad	-0.28676358
43	0x3f41f8b8	0.7577014
44	0xbf095420	-0.5364399
45	0x3dc8c150	0.098024964
46	0x3ead8f74	0.3389851
47	0xbdc9323b	-0.09824034
48	0xbeb3b193	-0.35096416
49	0x3f0b7b4b	0.54485005
50	0xbf27896d	-0.6544407
51	0xbf060b0b	-0.523606
52	0xbd8dc922	-0.06923129
53	0x3e61e634	0.22060472
54	0xbe30f5e0	-0.17281294
55	0x3f18e8cc	0.5973022
56	0x3ed18c4b	0.40927348
57	0xbd313b1f	-0.043269273
58	0xbd80e3b0	-0.06293428
59	0x3e945b16	0.28975743
60	0xbe41570c	-0.18880862
61	0x3de7eb2e	0.11324154
62	0x3df09137	0.117464475
63	0xbe9c747b	-0.30557618
64	0xbec50bc2	-0.38485533
65	0x3d83b35d	0.06430695
66	0x3ed36afb	0.41292557
67	0xbeb32f1b	-0.34996876
68	0xbe27ba4e	-0.16379663
69	0xbe781750	-0.24227643
70	0xbdd2b0c0	-0.10287619
71	0xbef39fb3	-0.47582778
72	0xbe00debb	-0.12584965
73	0xbe232d85	-0.15935333
74	0x3eac8efa	0.33702832
75	0xbe4537e8	-0.19259608
76	0xbe4921aa	-0.19641748
77	0x3e85b5ec	0.26115358
78	0x3e4b10f9	0.19830693
79	0xbe0c677d	-0.13711353
80	0x3b9809ef	0.004639856
81	0xbe67161a	-0.22567025
82	0xbc7042ee	-0.014664395
83	0x3d159df8	0.036527604
84	0xbd70edb4	-0.05882044
85	0xbd937ffa	-0.07202144
86	0x3e965c18	0.29367137
87	0xbc9f60c7	-0.019455327
88	0x3cc65719	0.024211453
89	0x3e38e62d	0.18056555
90	0xbd37ceb5	-0.044874866
91	0x3d79d460	0.060993552
92	0x3e2d35f3	0.16915111
93	0xbe398466	-0.18116912
94	0x3edad08f	0.42737243
95	0x3ea7758a	0.32706863
96	0x3d3ea773	0.04654641
97	0xbeb86c0b	-0.3601993
98	0x3d4e46e3	0.05036057
99	0x3eb9ffcb	0.36327967
100	0xbc08dd77	-0.008353583
101	0xbdad06dd	-0.08448575
102	0xbe41c37b	-0.18922226
103	0x3d8575e2	0.06516625
104	0xbe3caed3	-0.18426065
105	0x3e1587c9	0.14602579
106	0xbe72a649	-0.23696245
107	0x3ea50689	0.32231548
108	0xbdd7f79e	-0.10545276
109	0xbdb3ad6b	-0.08773311
110	0x3cbf81b1	0.023377271
111	0xbe5bb069	-0.21454014
112	0xbdd7eccd	-0.10543213
113	0x3df0eddc	0.11764118
114	0xbe62efd4	-0.221618
115	0xbe8f0b2d	-0.27938214
116	0xbba22315	-0.0049480298
117	0x3da151bf	0.0787692
118	0xbdb375c7	-0.087626986
119	0x3e9f7361	0.31142715
120	0x3d03ee60	0.032209754
121	0x3d930a00	0.07179642
122	0x3e150257	0.14551674
123	0x3e294814	0.16531402
124	0xbde5cd53	-0.11220803
125	0x3dd81265	0.105503835
126	0x3e41a627	0.18911038
127	0xbe953cc3	-0.2914792
128	0xbec6a820	-0.38800144
129	0x3b550c3f	0.003250852
130	0xbc11ced4	-0.008899409
131	0x3edff77b	0.437435
132	0x3dda329d	0.10654185
133	0x3e6f934a	0.2339603
134	0xbe41f0ae	-0.18939468
135	0xbe2db6ab	-0.16964214
136	0x3ea4823c	0.3213061
137	0x3f2786ef	0.6544027
138	0x3ed456b6	0.41472405
139	0xbeb32088	-0.34985757
140	0xbdaba9b2	-0.08381976
141	0xbeb5ec5f	-0.355319
142	0xbf2631de	-0.6491984
143	0x3f022ed1	0.50852686
144	0xbd35f396	-0.044421755
145	0xbe8d33f0	-0.27578688
146	0xbe8e3d3c	-0.27781093
147	0x3f236b74	0.63835835
148	0x3ea06e0e	0.31333965
149	0xbd0a2573	-0.03372712
150	0x3f5195fc	0.81869483
151	0xbca03d95	-0.019560615
152	0x3e64d266	0.22345886
153	0x3bb8a049	0.005634342
154	0x3e8bbbf5	0.27291837
155	0x3ebc12b7	0.36733028
156	0x3ceb0a3a	0.0286914
157	0xbea15fd6	-0.3151843
158	0x3e9a9944	0.30195057
159	0x3e85bfb2	0.26122814
160	0x3df0e1a0	0.117617846
161	0x3de3bcf5	0.11120025
162	0x3e6148d0	0.22000432
163	0x3f2f7651	0.6853991
164	0x3dcc8116	0.09985559
165	0xbef4407b	-0.47705445
166	0xbf31b9e0	-0.6942425
167	0x3e881d8d	0.26585045
168	0xbefa03fa	-0.4883116
169	0x3d2ac00e	0.041687064
170	0x3e7b427f	0.24537085
171	0xbf0f46f6	-0.5596765
172	0xbf05657d	-0.52107984
173	0x3da82405	0.08209995
174	0x3cdb5381	0.026773216
175	0x3e172f4c	0.14764136
176	0xbeb6340b	-0.3558658
177	0x3f1c7ac6	0.6112484
178	0x3f0da313	0.55326957
179	0x3f20ade4	0.62765336
180	0xbdf72933	-0.12068405
181	0xbeb2dcab	-0.3493398
182	0xbd9dc640	-0.07703829
183	0xbe7d9df3	-0.24767284
184	0xbf44fef5	-0.76951534
185	0x3e209675	0.15682395
186	0x3ed09a21	0.4074259
187	0xbd9e1d4c	-0.07720432
188	0x3e0f74a2	0.14009336
189	0xbdde86b5	-0.10865537
190	0x3e9529e5	0.29133525
191	0xbe9d2196	-0.30689687
192	0xbc46971a	-0.012120986
193	0x3c7d5f09	0.015464553
194	0x3e98ea19	0.29866102
195	0xbebb556d	-0.36588612
196	0xbe8a8e0a	-0.27061492
197	0xbeb8b989	-0.36079052
198	0xbea3e7a7	-0.32012674
199	0xbe1424f0	-0.14467216
200	0xbd92cb3a	-0.07167669
201	0x3d943aa8	0.0723775
202	0x3e734271	0.23755814
203	0xbe9a3f21	-0.3012629
204	0xbe7900dc	-0.24316734
205	0x3d99580f	0.07487499
206	0x3e846e29	0.25865296
207	0xbe9acfb0	-0.30236578
208	0xbea9002c	-0.33007944
209	0xbee89375	-0.45425
210	0xbe394d86	-0.18095979
211	0x3e00e2b9	0.12586488
212	0x3e7f3fe3	0.24926715
213	0x3e0166a0	0.12636805
214	0x3f0fce0d	0.56173784
215	0xbb6e0e8a	-0.0036324584
216	0x3e7a8708	0.24465573
217	0xbeed52f0	-0.4635234
218	0xbe33bcbf	-0.1755247
219	0xbd98f4f8	-0.07468599
220	0x3e88a0db	0.26685223
221	0xbde10372	-0.10986985
222	0x3e6d7539	0.23189248
223	0x3da7429e	0.08167003
224	0x3d1e507c	0.038650975
225	0x3e27f770	0.16402984
226	0x3eaa3586	0.3324396
227	0x3dd66d1b	0.10470029
228	0xbc540bad	-0.012942237
229	0xbeac6be8	-0.33676076
230	0xbe8fedca	-0.28111106
231	0x3e4e0cdb	0.20122091
232	0xbeab48df	-0.33454034
233	0xbe951dbd	-0.2912425
234	0xbec455b7	-0.38346645
235	0x3f880f8e	1.0629747
236	0xbe544549	-0.20729555
237	0xbd973b36	-0.073843405
238	0xbe0bc7cf	-0.1365044
239	0xbd9e970c	-0.07743654
240	0xbe758613	-0.23976927
241	0x3f2cad69	0.674521
242	0xbe7e8899	-0.24856795
243	0xbeff5074	-0.49866068
244	0xbd5b9f10	-0.05361849
245	0x3f14ba7c	0.5809705
246	0xbe1d4019	-0.15356483
247	0x3ec8919a	0.39173585
248	0x3f08c674	0.53427815
249	0xbddee030	-0.10882604
250	0xbd30afca	-0.043136396
251	0x3c6c561e	0.014424829
252	0xbea735a8	-0.32658124
253	0x3e6749c0	0.22586727
254	0x3e054f03	0.13018422
255	0xbecbbc72	-0.3979221
