TS-CVAE/experiments/pedestrians/models/eth/models_04_Jun_2021_13_35_51_eth_ar3/model_registrar-6.pt (torch_old, 545384 bytes, 43 tensors)

weight_ih_l0 f4 [128, 6]
0	0xbd5fbcf7	-0.05462357
1	0x3d9ca395	0.07648388
2	0xbda94f7e	-0.08267115
3	0xbcbce07e	-0.023056265
4	0xbe03abee	-0.12858555
5	0x3da4830d	0.080328085
6	0xbe316b0c	-0.17325991
7	0xbe33dd81	-0.17564966
8	0xbd7bf159	-0.061509464
9	0x3e09fc9b	0.13475268
10	0x3d09faaf	0.033686336
11	0x3d2df40a	0.042469062
12	0xbdbc1355	-0.09183375
13	0xbd8e14d2	-0.06937565
14	0xbe17f265	-0.1483856
15	0xbe0ba9cf	-0.13638996
16	0xbe35f1cd	-0.17768021
17	0x3dbb3729	0.0914138
18	0x3c872163	0.016495412
19	0x3dcd1228	0.10013229
20	0x3d5fbe75	0.054624993
21	0xbc2427c9	-0.010019251
22	0xbcfe2e22	-0.031027857
23	0x3e078c93	0.13237219
24	0xbddf8c29	-0.10915405
25	0x3d45dcd3	0.048306298
26	0xbd90acf7	-0.070642404
27	0x3e53751a	0.2065014
28	0x3db4d286	0.08829217
29	0xbe3f1566	-0.18660507
30	0x3e4db786	0.2008954
31	0x3cb38063	0.021911805
32	0xbb14d583	-0.002271027
33	0x3e3589ec	0.17728394
34	0x3dc5141c	0.09622976
35	0xbc0b6852	-0.008508759
36	0xbe276856	-0.16348395
37	0xbd3390ab	-0.043839138
38	0xbdcb59c9	-0.099292345
39	0x3c0711c1	0.008243979
40	0xbdb687b2	-0.089126006
41	0xbe1fd100	-0.15607071
42	0xbd8acb7e	-0.06777094
43	0x3e2092fe	0.15681073
44	0x3de57258	0.1120345
45	0x3c1a0703	0.009401086
46	0x3d2ea06c	0.04263346
47	0x3c2e4fb3	0.010639119
48	0x3e41c4d6	0.18922743
49	0x3e32e82e	0.17471382
50	0x3e078ac7	0.13236533
51	0xbcd7e407	-0.02635385
52	0xbe233651	-0.15938689
53	0x3dabb305	0.08383755
54	0xbd6024f3	-0.054722738
55	0xbe5a57bf	-0.21322535
56	0xbd8fab9c	-0.07015154
57	0x3e66d4b4	0.22542077
58	0x3daf4162	0.08557393
59	0xbd5e3f88	-0.054259807
60	0x3d43183a	0.047630526
61	0xbb511792	-0.0031904918
62	0xbe6e685f	-0.23282002
63	0x3cbf74da	0.023371149
64	0xbe2258b9	-0.15854158
65	0x3d9a5e96	0.07537572
66	0xbde5a3a6	-0.11212854
67	0xbd03e3f7	-0.032199826
68	0xbd77a0af	-0.060455974
69	0x3dc9628d	0.0983325
70	0x3e6c971c	0.23104519
71	0x3d4c0ca3	0.04981674
72	0xbd5f5af9	-0.054530118
73	0xbd89034e	-0.066900834
74	0xbc0141d8	-0.0078892335
75	0xbd9bf390	-0.07614815
76	0x3e405806	0.18783578
77	0xbe80df9e	-0.25170606
78	0x3c839c77	0.01606582
79	0x3dfb6364	0.12274817
80	0x3d080437	0.033207145
81	0xbcc8774f	-0.024470953
82	0x3caf30ef	0.021385638
83	0x3ce512e1	0.027963104
84	0xbe040ef9	-0.12896337
85	0xbde20bb9	-0.11037392
86	0xbe2be550	-0.16786695
87	0x3e12e6a3	0.14345793
88	0x3ea474c3	0.32120332
89	0xbdb32491	-0.08747209
90	0xbd6ddbf8	-0.058071107
91	0x3e192168	0.1495415
92	0x3dd233eb	0.10263809
93	0x3d347c09	0.0440636
94	0x3d4e47c1	0.0503614
95	0x3df1c271	0.11804665
96	0x3e24560f	0.16048454
97	0x3e0cd281	0.13752176
98	0x3e3e4fe6	0.18585166
99	0xbdc5cff3	-0.09658804
100	0x3dff63cb	0.12470206
101	0xbe6580d1	-0.22412421
102	0x3bf34262	0.007423685
103	0xbdcb0cdd	-0.09914563
104	0x3b07bae5	0.0020710763
105	0xbd3e5d2d	-0.046475578
106	0x3c0b429f	0.00849977
107	0x3d528cb2	0.05140371
108	0x3db9572e	0.09049831
109	0xbc598462	-0.013276191
110	0x3e12e149	0.14343752
111	0xbe3210a1	-0.17389156
112	0x3e55cea2	0.20879605
113	0x3e28f789	0.16500677
114	0xbc97c607	-0.018527044
115	0x3b99d36f	0.0046943943
116	0xbe1abef3	-0.15111904
117	0x3e470626	0.19435939
118	0x3e46d556	0.19417319
119	0x3dce263a	0.10065885
120	0xbe1384a7	-0.14406072
121	0x3da28dc6	0.079371974
122	0x3e535843	0.20639138
123	0xbe04eecd	-0.1298172
124	0x3e8d8962	0.27643877
125	0xbdf05c22	-0.11736323
126	0xbcb616e7	-0.022227718
127	0x3e24498b	0.1604368
128	0x3e00d5b5	0.12581523
129	0xbcb78b53	-0.022405302
130	0xbd8e2b77	-0.06941884
131	0x3c54c4d8	0.012986384
132	0xbd007668	-0.03136292
133	0xbe606b64	-0.21915966
134	0xbc020bc6	-0.007937377
135	0xbc865ee8	-0.016402677
136	0x3dc25efa	0.094907716
137	0x3c98036a	0.018556315
138	0xbb05f270	-0.0020438693
139	0xbcbec3f7	-0.023286803
140	0x3d434b68	0.047679335
141	0xbdb6c3f0	-0.08924091
142	0x3dc06d17	0.09395807
143	0x3d95c370	0.07312667
144	0xbcfa3171	-0.030541154
145	0xbddc1e2d	-0.10747943
146	0xbda5fdb4	-0.08105031
147	0xb9a386fb	-0.0003119035
148	0xbdaa6f15	-0.083219685
149	0xbdc231b2	-0.09482135
150	0xbd5ccb27	-0.05390468
151	0xbd3d3b11	-0.04619891
152	0xbdd7a160	-0.10528827
153	0x3de22646	0.11042456
154	0x3cd0c185	0.025482902
155	0x3dd1c950	0.102434754
156	0x3d0fe55d	0.035130847
157	0xbda8892d	-0.08229289
158	0xbe977310	-0.29579973
159	0x3e43ee75	0.19133933
160	0x3ccf010d	0.025269056
161	0x3e5c71ad	0.21527739
162	0xbdb5010f	-0.088380925
163	0x3e18500d	0.14874287
164	0x3e641c4d	0.22276421
165	0x3e5cb7fc	0.2155456
166	0x3d4e246f	0.050327715
167	0x3c967d8f	0.018370418
168	0x3dc1d6fa	0.09464832
169	0x3e1224b7	0.14271818
170	0xba949a30	-0.0011337455
171	0xbe217ef0	-0.15771079
172	0x3e13a223	0.14417319
173	0xbc7c00be	-0.015381036
174	0xbe08d25e	-0.13361499
175	0xbdc7df25	-0.09759358
176	0xbe295098	-0.1653465
177	0xbd3da911	-0.046303812
178	0x3d5f4b5e	0.054515235
179	0x3d533180	0.05156088
180	0xbd723587	-0.05913308
181	0xbd851ceb	-0.06499656
182	0x3e421521	0.18953373
183	0xbd978c01	-0.073997505
184	0xbe07e4af	-0.1327083
185	0xbcc2e182	-0.023789171
186	0xbe2535ba	-0.16133776
187	0x3e03b020	0.12860155
188	0x3e31d6ae	0.1736705
189	0xbe303814	-0.17208892
190	0xbd7d82c4	-0.061892286
191	0xbe8220c5	-0.25415626
192	0x3d8ca039	0.068664975
193	0x3e3a8a88	0.18216908
194	0xbddd27f2	-0.107986346
195	0xbe082fdc	-0.13299507
196	0x3c64d574	0.013966907
197	0xbe3d5276	-0.18488488
198	0x3e0294ec	0.12752122
199	0x3d1ec726	0.03876414
200	0xbc0696e9	-0.008214691
201	0x3d4ec70a	0.050482787
202	0x3e1707ab	0.14749019
203	0xbd87c353	-0.06629052
204	0xbddf52ac	-0.1090444
205	0xbc023b83	-0.007948759
206	0xbd815bf2	-0.06316365
207	0xbd1e6eba	-0.038679816
208	0xbda82922	-0.082109705
209	0x3cb7a814	0.022419013
210	0x3cf1ebf9	0.029531466
211	0x3c8ac233	0.016938305
212	0xbc16424c	-0.00917108
213	0xbe0a562f	-0.13509439
214	0xbd537143	-0.051621687
215	0xbe165ec2	-0.14684585
216	0x3d945d58	0.072443664
217	0xbe0787da	-0.13235417
218	0x3d20325e	0.039110534
219	0x3e18e03f	0.14929293
220	0xbe57d6ef	-0.21078084
221	0xbd315004	-0.0432892
222	0x3db93847	0.09043937
223	0xbd97e605	-0.074169196
224	0x3ce67655	0.028132597
225	0xbdfe3abe	-0.12413548
226	0xbe245685	-0.1604863
227	0xbd372c2d	-0.044719864
228	0x3daea63b	0.085278
229	0xbc661038	-0.014041953
230	0xbd0e7577	-0.034779992
231	0xbcaf04a8	-0.021364525
232	0xbe3b0ebe	-0.18267342
233	0x3d5eaa69	0.054361735
234	0x3bfc1817	0.0076933014
235	0xbde3417a	-0.11096473
236	0x3e07f357	0.1327642
237	0xbd1cb3cd	-0.03825741
238	0xbd591512	-0.05299861
239	0x3d6e56c3	0.05818821
240	0x3e074484	0.1320973
241	0x3d8fbbc4	0.07018235
242	0xbdd4716d	-0.10373197
243	0xbd9aff47	-0.075682215
244	0xbe288ec8	-0.16460717
245	0x3e1ad4bb	0.15120213
246	0xbe160bbe	-0.14652917
247	0xbd8305d1	-0.06397594
248	0x3e3adb54	0.1824773
249	0x3dedcf94	0.11611858
250	0x3e423614	0.18965942
251	0x3cf89aaf	0.030347196
252	0x3dcf3904	0.10118297
253	0xbe335b80	-0.17515373
254	0xbca2443f	-0.019807933
255	0x3d80841e	0.06275199

weight_hh_l0 f4 [128, 32]
0	0xbd9a990d	-0.07548723
1	0xbe1305da	-0.14357701
2	0x3cfc3694	0.030787744
3	0x3e00706b	0.12542884
4	0x3d0b88c9	0.034065995
5	0xbd1f16b6	-0.03884002
6	0xbd914f07	-0.070951514
7	0xbdaa0e19	-0.0830347
8	0x3d60738b	0.05479769
9	0x3e2999c9	0.1656257
10	0x3c718888	0.014742024
11	0x3e783534	0.24239045
12	0xbde05364	-0.109534055
13	0x3e0b772c	0.13619679
14	0x3dcf59ec	0.10124573
15	0x3a4d593f	0.0007833428
16	0xbc2aa3d4	-0.010415036
17	0xbd9dd616	-0.07706849
18	0x3d486b9a	0.04893074
19	0xbdb61567	-0.08890801
20	0xbe6bf9e4	-0.23044544
21	0xbd63f468	-0.055653006
22	0xbddd1312	-0.10794653
23	0xbe94b3c4	-0.290434
24	0x3e53ba8d	0.20676632
25	0xbdce0131	-0.10058821
26	0x3e0c0635	0.13674243
27	0x3e574fc3	0.2102652
28	0x3dbbba7e	0.0916643
29	0x3d6fba38	0.0585272
30	0x3d6effe2	0.058349498
31	0xbe0541b0	-0.13013339
32	0x3dc249a1	0.094867
33	0xbe382e61	-0.17986442
34	0x3e2223a5	0.1583391
35	0xbd0a2f85	-0.033736724
36	0x3e0db087	0.13836871
37	0x3e322e70	0.17400527
38	0x3d16542d	0.03670137
39	0xbddb6677	-0.10712903
40	0x3e096409	0.13417067
41	0xb9f314d6	-0.00046364096
42	0xbe37ba8f	-0.1794226
43	0xbd97a1ee	-0.074039325
44	0xbe79914a	-0.2437183
45	0x3e0ec782	0.13943294
46	0x3e166593	0.14687185
47	0xbe187e33	-0.14891891
48	0x3c93d179	0.01804422
49	0x3e0bf482	0.13667491
50	0xbdd5a5eb	-0.10432037
51	0x3d28e984	0.041238323
52	0xbe027cc9	-0.12742914
53	0x3d02356b	0.031789225
54	0xbe2da955	-0.16959126
55	0xbe1677e8	-0.14694178
56	0x3c3b8db3	0.011447358
57	0xbdbd0241	-0.092289455
58	0xbd9d53d3	-0.07682004
59	0xbe0f1e31	-0.13976361
60	0xbd0ff544	-0.035146013
61	0x3d28783f	0.0411303
62	0x3de5bbb2	0.11217441
63	0xbe138299	-0.14405288
64	0x3dea1898	0.11430472
65	0xbe32764e	-0.17427942
66	0xbd7d2bdc	-0.061809406
67	0x3e05fe10	0.13085198
68	0x3e3c01db	0.18360083
69	0x3e1d5cca	0.15367427
70	0xbe35fdd9	-0.17772616
71	0xbe6f81e3	-0.23389392
72	0xbd8ebb07	-0.069692664
73	0x3e3ddac2	0.1854048
74	0xbe7ec9e0	-0.24881697
75	0x3e3820c1	0.17981245
76	0xbdba1aa5	-0.09087113
77	0xbe01f5cf	-0.12691425
78	0x3e145255	0.14484532
79	0xbe7e3a9c	-0.24827045
80	0x3ce95b5c	0.028485946
81	0xbd95c83f	-0.073135845
82	0x3db230af	0.08700692
83	0xbe0a849b	-0.13527147
84	0x3db014e9	0.08597738
85	0x3e1308f5	0.14358886
86	0x3d0b9d21	0.034085397
87	0x3e01113b	0.12604229
88	0x3e48d8ae	0.19613907
89	0x3d0ead67	0.034833338
90	0x3e6e1ea6	0.23253879
91	0x3e5457c3	0.20736603
92	0x3e1a8d17	0.15092884
93	0x3d691fe8	0.056915194
94	0xbdf52f99	-0.11971969
95	0x3d7eaf62	0.062178977
96	0x3d305367	0.04304829
97	0x3cf5628f	0.029954223
98	0x3d8343ee	0.06409441
99	0x3e04d25b	0.12970869
100	0xbd6bd564	-0.057576552
101	0xbc19693e	-0.009363471
102	0xbd931067	-0.07180863
103	0x3dce9d2a	0.100885704
104	0xbdd42137	-0.10357898
105	0x3d1ff5d9	0.039052818
106	0xbe1f97e7	-0.1558529
107	0xbde1fe9f	-0.11034893
108	0xbe4d7588	-0.20064366
109	0xbe388eeb	-0.18023269
110	0xbdf5fb95	-0.12010876
111	0xbe830864	-0.2559234
112	0xbd8ecb0d	-0.069723226
113	0x3dfd92ae	0.123814926
114	0xbe0f7d24	-0.14012581
115	0xbd40c85c	-0.047066078
116	0xbdf30f28	-0.11868125
117	0x3de4f909	0.11180312
118	0x3dcf1209	0.10110862
119	0xbe003253	-0.12519197
120	0xbd4f286c	-0.05057566
121	0xbd119653	-0.03554375
122	0xbd2f37c3	-0.042777788
123	0x3e065555	0.13118489
124	0xbd2d79a6	-0.04235234
125	0x3de84158	0.11340588
126	0x3e1595a4	0.14607865
127	0xbc0d1839	-0.008611732
128	0xbe33b162	-0.17548135
129	0xbe0d16f1	-0.13778283
130	0x3e7daf03	0.24773793
131	0xbe0c9d55	-0.13731892
132	0x3e711378	0.23542583
133	0xbd31904e	-0.04335051
134	0xbd538230	-0.05163783
135	0x3d3c0e29	0.04591194
136	0xbdbe42ce	-0.09290086
137	0xbd5f7808	-0.05455783
138	0xbe0ff1d6	-0.14057097
139	0xbcb225fc	-0.021746628
140	0xbd975171	-0.073885806
141	0x3c8e2f65	0.017356584
142	0x3c5bc14e	0.013412787
143	0xbe9e0507	-0.3086321
144	0xbe055d59	-0.1302389
145	0xbe05822e	-0.13037941
146	0xbd5e3f93	-0.054259848
147	0x3b6128a5	0.0034356501
148	0xbd609915	-0.05483349
149	0x3e918bb8	0.2842691
150	0xbd0119ec	-0.03151886
151	0xbe09a6c9	-0.1344253
152	0x3dce1530	0.10062635
153	0xbe5e7f3f	-0.21728228
154	0xbd3c18ca	-0.04592208
155	0xbe31e02b	-0.1737067
156	0x3d8ec65d	0.069714285
157	0xbd5ebd6a	-0.054379858
158	0x3e59c443	0.21266274
159	0xbddd8131	-0.10815657
160	0x3dd94945	0.10609678
161	0xbdf73d36	-0.12072222
162	0x3e07aa18	0.1324848
163	0xbe2fca8b	-0.17167108
164	0xbd1667c6	-0.03672006
165	0x3adb30d7	0.001672293
166	0xbc9557e1	-0.01823038
167	0xbe25691f	-0.16153382
168	0xbd726f6e	-0.0591883
169	0x3da3e228	0.0800212
170	0x3d945742	0.072432056
171	0xbd959d87	-0.073054366
172	0xbe2fabfa	-0.17155448
173	0x3ccd3dfd	0.025053972
174	0xbc7670bd	-0.015041527
175	0xbe30d7a8	-0.17269766
176	0xbcd6b164	-0.026207633
177	0x3e2b55be	0.16731927
178	0xbe607937	-0.2192124
179	0x3e1074c2	0.1410704
180	0x3ca94667	0.020663453
181	0xbac07488	-0.0014683167
182	0xbe066cc9	-0.13127436
183	0xbd7f99f7	-0.06240269
184	0xbc91a0df	-0.017776905
185	0xbe1ab0aa	-0.15106454
186	0x3e4e2aad	0.20133467
187	0x3e6b3f71	0.2297342
188	0x3d30ec5b	0.043194156
189	0x3dd92b66	0.10603981
190	0x3e503bcf	0.20335315
191	0x3d5f3a93	0.05449922
192	0x3e069777	0.13143717
193	0x3a64a6ef	0.0008722385
194	0xbd9cd901	-0.07658578
195	0x3e4ddadb	0.20103018
196	0x3d8e8473	0.069588564
197	0xbd0b4e89	-0.034010444
198	0x3d4aea46	0.049539827
199	0xbe601825	-0.2188421
200	0xbdd20b67	-0.10256081
201	0x3e0cd698	0.13753736
202	0xbdd7aeb5	-0.105313696
203	0xbc7ca0d1	-0.015419201
204	0xbd068bea	-0.032848276
205	0x3e106130	0.14099574
206	0x3c87f659	0.01659696
207	0xbdca3378	-0.09873098
208	0xbd70a98f	-0.058755454
209	0xbdd2bd45	-0.102900065
210	0xbc9253f2	-0.017862294
211	0xbdddb552	-0.108256
212	0xbc9aaa04	-0.018879898
213	0x3e8bd76f	0.273128
214	0x3d7c9b85	0.061671752
215	0xbd93c3de	-0.07215093
216	0xbe0871c0	-0.13324642
217	0xbc1f7120	-0.009731561
218	0x3e52a10b	0.20569246
219	0x3de19f6d	0.11016736
220	0xbe58e0e1	-0.21179534
221	0x3e2da3f1	0.1695707
222	0xbdbc0806	-0.09181218
223	0x3d0167d5	0.031593163
224	0x3e259005	0.1616822
225	0xbdd05ab6	-0.10173552
226	0x3d9eaf55	0.07748286
227	0x3db37dff	0.08764266
228	0xbd3b0abd	-0.045664538
229	0x3de67ede	0.11254667
230	0x3df26b32	0.11836852
231	0xbd22174e	-0.039573006
232	0xbd5c578b	-0.053794425
233	0xbce97ab7	-0.028500898
234	0xbd1892fc	-0.03724955
235	0xbddb7db7	-0.107173376
236	0x3ddfeae0	0.10933471
237	0xbd2b6a41	-0.04184938
238	0x3da5c267	0.0809372
239	0xbb77b237	-0.0037795433
240	0x3da031da	0.078220084
241	0xbc10dd2e	-0.008841796
242	0xbe280829	-0.16409363
243	0x3b922603	0.0044600978
244	0xbe7f6527	-0.2494093
245	0x3da2ba2d	0.079456665
246	0xbe04c51a	-0.12965813
247	0xbe72cdf4	-0.23711377
248	0x3da28c10	0.07936871
249	0x3de120c9	0.109925814
250	0x3d204774	0.039130643
251	0x3e412c33	0.18864517
252	0x3de284d6	0.11060493
253	0x3e0604b9	0.13087739
254	0x3d4972b7	0.049181666
255	0x3e0dc9e1	0.13846542

bias_ih_l0 f4 [128]
0	0x3bafb60d	0.0053622783
1	0x3d911352	0.07083763
2	0x3da92fa4	0.0826104
3	0x3c3fe145	0.011711423
4	0x3c33f9bd	0.010984835
5	0x3e8957ab	0.26824698
6	0x3d95bc95	0.0731136
7	0xbda70eee	-0.081571445
8	0x3d69a106	0.05703833
9	0x3df3ccc6	0.11904292
10	0x3e9c6696	0.30547017
11	0x3e566845	0.20938213
12	0x3e386b5b	0.18009703
13	0x3ca21aca	0.019788165
14	0x3e2337b6	0.15939221
15	0x3e07a045	0.13244732
16	0x3c28836f	0.010285242
17	0x3e4163a5	0.18885668
18	0x3cc14801	0.023593904
19	0x3e2b291d	0.16714902
20	0x3e440d13	0.19145612
21	0x3cbea60f	0.023272542
22	0x3e0328a4	0.12808472
23	0xba92bb35	-0.0011194708
24	0x3e459862	0.1929641
25	0x3e10b2be	0.14130685
26	0x3c795e69	0.015220263
27	0x3de39954	0.111132294
28	0x3a2b4fd0	0.00065350253
29	0x3d394420	0.045230985
30	0x3b59f7a3	0.0033259175
31	0x3d197367	0.037463572
32	0x3dc60d53	0.0967051
33	0xbe559931	-0.20859219
34	0xbe662746	-0.22475919
35	0x3d8ba97a	0.068194345
36	0xbe80f457	-0.25186417
37	0xbde3f6b6	-0.11131041
38	0xbe4cf021	-0.20013477
39	0xbda69daa	-0.08135541
40	0xbde41c63	-0.11138227
41	0x3c84d1a3	0.016213244
42	0xbd8e0160	-0.06933856
43	0x3998f5fa	0.00029174966
44	0xbd984378	-0.07434744
45	0x3df63a41	0.1202283
46	0xbc9588b0	-0.018253654
47	0xbea6f0c3	-0.32605562
48	0x3d1b823a	0.03796599
49	0xbbabef0c	-0.0052470025
50	0xbce999e2	-0.02851576
51	0x3dd4010a	0.10351761
52	0xbe986ed8	-0.29772067
53	0xbbcac767	-0.0061883214
54	0x3d46b86e	0.04851573
55	0xb9217434	-0.00015397446
56	0xbc6486b9	-0.013948136
57	0x3dcffd56	0.10155742
58	0x3d4bf108	0.049790412
59	0x3e475b5d	0.19468446
60	0xbcbf9ecf	-0.023391156
61	0xbe8dfc31	-0.2773147
62	0xbe7ecb4c	-0.24882239
63	0xbe29739a	-0.16548005
64	0x3e1a34b6	0.1505917
65	0x3df63e28	0.12023574
66	0xbd4e4022	-0.05035413
67	0x3d089473	0.033344697
68	0xbdd2f418	-0.103004634
69	0x3bf1c6d3	0.007378438
70	0x3dd42527	0.10358649
71	0xbd2e4bb2	-0.042552657
72	0x3c9679ae	0.018368568
73	0x3d77a84b	0.06046323
74	0xbdb4e5dc	-0.08832905
75	0x3cbc6e32	0.023001764
76	0xbdf4ff02	-0.119627014
77	0xbd1d609c	-0.038422212
78	0xbd65ccf6	-0.05610367
79	0xbde45970	-0.11149871
80	0xbdb193ea	-0.086707905
81	0xbde54d25	-0.11196355
82	0x3e28f83c	0.16500944
83	0xbd83a132	-0.0642723
84	0x3d62e248	0.05539158
85	0x3d963cf3	0.07335844
86	0x3dd58a0f	0.10426723
87	0xbe0d10b3	-0.13775901
88	0x3de68593	0.11255946
89	0xbdb838a5	-0.08995179
90	0x3d1ea624	0.038732663
91	0xbe479443	-0.19490151
92	0xbde59f49	-0.11212022
93	0x3df82f87	0.1211844
94	0x3cb66ea7	0.02226956
95	0xbda0dcb0	-0.07854593
96	0x3e4e0952	0.20120743
97	0x3d01f59d	0.031728376
98	0x3dfc879c	0.12330553
99	0x3d8bc7dc	0.068252295
100	0x3e37fada	0.17966786
101	0x3e55719e	0.20844123
102	0x3dcf18ee	0.10112177
103	0xbd63bf98	-0.05560264
104	0xbd813eda	-0.06310816
105	0x3e2022cb	0.15638272
106	0x3d8ebc79	0.06969542
107	0x3e13710c	0.14398593
108	0x3e11384d	0.14181633
109	0xbb6cd068	-0.0036134962
110	0x3e45665a	0.19277325
111	0x3e9efacc	0.31050718
112	0x3e16f1d6	0.1474069
113	0x3de1fabb	0.11034151
114	0x3e02a316	0.12757525
115	0x3d3fe908	0.046853095
116	0x3e8e3ef4	0.27782404
117	0x3d1ca69e	0.038244836
118	0x3dbb9ccc	0.09160766
119	0x3d3d61a6	0.046235703
120	0xbcedd5d0	-0.029032618
121	0x3e343d1e	0.1760144
122	0x3e410aee	0.18851826
123	0x3d3c90a7	0.04603639
124	0x3e0f6ee3	0.14007144
125	0x3e7fe46d	0.24989481
126	0x3d77c8df	0.0604943
127	0x3cbde427	0.02318008

bias_hh_l0 f4 [128]
0	0xbd1f72ce	-0.038927846
1	0x3dabeb7a	0.08394523
2	0xbd51a229	-0.05118004
3	0x3e3159f1	0.17319466
4	0x3e1e7988	0.15476048
5	0x3cc77222	0.024346415
6	0xbce9c4c1	-0.028536202
7	0x3dc49800	0.09599304
8	0x3e11968e	0.14217588
9	0x3e91605e	0.28393835
10	0x3d48c560	0.049016356
11	0x3dad2ac9	0.08455426
12	0xbd6e5fbd	-0.058196772
13	0x3ea0cc0e	0.3140568
14	0x3e4cc132	0.19995573
15	0x3e95f2cf	0.2928681
16	0xbd9d0b4a	-0.07668169
17	0x3e39c554	0.18141681
18	0xbd93a75e	-0.07209657
19	0x3dfba407	0.12287145
20	0x3eada2e1	0.3391333
21	0x3e50e2a3	0.20398955
22	0x3e205e76	0.15661034
23	0x3d8163aa	0.063178375
24	0x3dc1cafa	0.09462543
25	0x3e0134dd	0.12617822
26	0x3db5cf9d	0.0887749
27	0x3ca027ed	0.019550288
28	0xbda5d4ed	-0.08097253
29	0x3d12ff4f	0.035888012
30	0x3d952fd0	0.0728451
31	0x3db38436	0.087654516
32	0x3c022fe0	0.007945985
33	0xbe3ae1e9	-0.1825024
34	0x3c53d874	0.012930024
35	0xbe0d42ac	-0.13794965
36	0x3d676dab	0.056501072
37	0x3d53145a	0.05153308
38	0xbd7273ff	-0.059192654
39	0xbe679c01	-0.22618105
40	0xbd1dae9c	-0.0384966
41	0xbd23e07a	-0.040009
42	0xbd4e7449	-0.050403867
43	0xbd796f46	-0.060897134
44	0xbd9df631	-0.07712973
45	0xbd7284b3	-0.059208583
46	0x3db39c9d	0.08770106
47	0xbe8d4875	-0.27594343
48	0xbdbe1eb9	-0.09283204
49	0xbd95da9a	-0.073170856
50	0xb92ab43c	-0.00016279606
51	0xbd9f44ee	-0.07776819
52	0xbe1d814e	-0.15381357
53	0xbe2d0a4c	-0.16898459
54	0xbe32bd5d	-0.17455049
55	0xbce6893e	-0.028141614
56	0xbe5ec03a	-0.21753016
57	0xbe540a7c	-0.20707124
58	0xbe50a2d8	-0.2037462
59	0x3e09352b	0.13399188
60	0xbd536756	-0.05161222
61	0xbd31c29a	-0.043398477
62	0xbdef144a	-0.11673792
63	0x3e0b2c41	0.135911
64	0xbe07d9ed	-0.13266726
65	0xbe181a29	-0.1485373
66	0x3df53257	0.11972492
67	0xbcb691e1	-0.022286357
68	0x3e1d5802	0.15365604
69	0x3d229bdd	0.039699424
70	0xbda9131e	-0.082555994
71	0x3b8e267c	0.004338084
72	0x3e23752c	0.15962666
73	0xbd07cdb4	-0.03315516
74	0x3d21cef0	0.03950399
75	0x3d250cbc	0.040295348
76	0x3d7a35c2	0.061086424
77	0x3ce58e8a	0.02802207
78	0xbe090523	-0.13380866
79	0x3d0e603e	0.034759752
80	0x3bcc413e	0.0062333634
81	0x3e058e98	0.13042676
82	0x3db94159	0.09045667
83	0xbe436f48	-0.19085419
84	0xbdd00afb	-0.10158344
85	0x3c5370fa	0.012905354
86	0xbe0eabc7	-0.13932715
87	0x3de1eef1	0.110319026
88	0xbe00f5c3	-0.1259375
89	0x3c8085a7	0.01568873
90	0x3d2acd52	0.041699715
91	0xbda3f3d2	-0.080054894
92	0xbdce29b3	-0.10066547
93	0xbe213d2a	-0.15745988
94	0xbb15648a	-0.0022795522
95	0x3cd07c7b	0.025449982
96	0x3db078a7	0.086167626
97	0x3e2a0a08	0.16605389
98	0xbd0653a4	-0.03279461
99	0x3e97544d	0.29556504
100	0x3e8e7af3	0.27828178
101	0x3de50754	0.11183038
102	0x3e997270	0.2997012
103	0x3e828e2d	0.25499097
104	0xbdefd70b	-0.11710938
105	0x3e3705de	0.17873332
106	0x3e9f36a2	0.3109637
107	0x3e622dd7	0.22087799
108	0x3e1dac60	0.15397787
109	0x3e421e4c	0.1895687
110	0x3de6a95b	0.11262771
111	0x3ea3018d	0.3183712
112	0x3e29e193	0.16589956
113	0xbcd8adff	-0.026450155
114	0x3e6e4154	0.23267108
115	0xbd9cf389	-0.07663638
116	0x3e76a72a	0.24087206
117	0x3e6ad7f9	0.2293395
118	0x3e793981	0.24338342
119	0x3e371df1	0.17882515
120	0x3e229b88	0.15879643
121	0x3e1b4d78	0.1516627
122	0x3e763405	0.24043281
123	0x3d55f980	0.052239895
124	0x3c2fd136	0.010731032
125	0x3e7a37a6	0.2443529
126	0x3db339bf	0.087512486
127	0x3e654ada	0.22391835

weight_ih_l0 f4 [128, 2]
0	0x3d4e7c31	0.050411407
1	0x3df6f3f2	0.120582476
2	0xbdca426e	-0.09875952
3	0x3d82aeb6	0.0638098
4	0x3dbb580f	0.09147655
5	0xbd206edc	-0.039168224
6	0xbde42561	-0.11139942
7	0x3c8a8678	0.016909823
8	0xbda5a171	-0.08087433
9	0xbd806bb5	-0.062705435
10	0xbc83c516	-0.016085189
11	0x3deeeb65	0.11665992
12	0xbd85a0e2	-0.065248266
13	0x3cff1f36	0.031142812
14	0xbd289d60	-0.04116571
15	0xbdb53128	-0.088472664
16	0x3e15238b	0.1456434
17	0xbdc9852e	-0.09839855
18	0x3ca69e05	0.020339021
19	0x3d8e1e67	0.069393925
20	0xbd15e6b6	-0.036596976
21	0x3de1636f	0.110052936
22	0xbca43458	-0.02004449
23	0xbd567cdb	-0.052365165
24	0xbdd78ff5	-0.105255045
25	0x3db2b913	0.08726706
26	0x3dd7ffe5	0.10546855
27	0x3be63441	0.007025272
28	0xbde66150	-0.1124903
29	0x3c5ea3a8	0.013588823
30	0xbbe69af8	-0.0070375167
31	0x3dabe1c8	0.08392674
32	0xbda74367	-0.08167153
33	0x3dae47f1	0.085098155
34	0x3de12b6a	0.10994609
35	0x3e1b9211	0.15192439
36	0x3cb5a37d	0.022172684
37	0x3c67fd8a	0.0141595695
38	0xbd040c4a	-0.032238282
39	0x3cb0f48d	0.021600986
40	0x3e1dfba8	0.1542803
41	0xbe03e770	-0.12881255
42	0xbcd6b198	-0.02620773
43	0x3e407c76	0.18797478
44	0x3c6fa244	0.0146260895
45	0x3e20db94	0.15708762
46	0xbe3722d7	-0.17884384
47	0x3da9443e	0.08264969
48	0x3ccb2d47	0.024801863
49	0xbc438096	-0.011932513
50	0xbdc6233b	-0.096746884
51	0x3ba2750d	0.004957801
52	0x3dc7ca27	0.097553544
53	0x3e16606b	0.14685218
54	0xbdfcf07f	-0.123505585
55	0x3daaadf8	0.08333963
56	0xbdd8458f	-0.10560142
57	0x3e1e2ccd	0.15446778
58	0xbcaad937	-0.02085553
59	0x3c20b65f	0.009809106
60	0x3e35a45e	0.17738482
61	0xbd9c5c44	-0.07634786
62	0xbe17a243	-0.14807992
63	0xbdc1a31e	-0.0945494
64	0xbdaccbcd	-0.084373094
65	0xbe24e023	-0.16101126
66	0x3c272b8f	0.010203256
67	0xbdb6043b	-0.08887526
68	0x3ce8e454	0.028429188
69	0xbdf4ff59	-0.11962766
70	0x3daa0111	0.08300985
71	0x3d5afe95	0.053465445
72	0x3e767d06	0.2407113
73	0xbdff4bca	-0.124656275
74	0x3d12af09	0.035811458
75	0xbd09a4bf	-0.03360438
76	0xbe1ca753	-0.15298204
77	0x3e2c714e	0.16840097
78	0x3e0822e1	0.13294555
79	0x3d7d253f	0.0618031
80	0x3a9b007f	0.0011825709
81	0xbd7a78de	-0.061150424
82	0x3e475e9c	0.19469684
83	0xbd464677	-0.048407044
84	0x3bc1833a	0.005905536
85	0xbcd2f51a	-0.02575164
86	0xbda37bc9	-0.079825945
87	0x3dcad8d5	0.09904639
88	0xbe1bd3b8	-0.15217483
89	0x3dd926bd	0.10603092
90	0xbd0c981e	-0.034324758
91	0x3d356ee5	0.04429521
92	0x3d4810c2	0.048844106
93	0x3de6e93c	0.11274955
94	0x3e2eaf65	0.17059095
95	0xbd1babe9	-0.038005743
96	0x3de6c3ef	0.1126784
97	0x3d03be0f	0.032163676
98	0xbd3cbe51	-0.046079937
99	0xbe2314fd	-0.15925975
100	0x3c5dc063	0.013534638
101	0x3e0beb5c	0.13664001
102	0xbe49775a	-0.19674435
103	0xbd6e433b	-0.058169585
104	0xbe0aac4f	-0.13542293
105	0xbe0fa96b	-0.14029472
106	0x3e0ec2fe	0.13941571
107	0xbcc54881	-0.024082424
108	0x3d1f0522	0.038823254
109	0x3dbabd24	0.09118107
110	0xbe1484bf	-0.14503764
111	0xbe0ce7b5	-0.13760264
112	0xbde8e31c	-0.11371443
113	0xbca340a1	-0.019928278
114	0xbce5b429	-0.028040009
115	0xbd830fa9	-0.06399471
116	0x3bc57090	0.0060253814
117	0x3bb61342	0.005556495
118	0xbd2c057e	-0.041997425
119	0xbd862672	-0.065503016
120	0x3e442401	0.1915436
121	0xbd94fba0	-0.07274556
122	0xbb8abfb4	-0.0042342786
123	0x3dcf2eda	0.10116358
124	0x3e5f61f1	0.21814705
125	0xbd07a019	-0.033111665
126	0xbe15cdff	-0.14629363
127	0xbe306475	-0.17225821
128	0x3d84ff6f	0.064940326
129	0x3de121c8	0.109927714
130	0xbd4cd791	-0.050010268
131	0xbe203d2b	-0.15648334
132	0xbd2fb558	-0.042897552
133	0xbdddbfe5	-0.108276166
134	0xbdd23836	-0.10264628
135	0xbe46975a	-0.19393674
136	0xbe150f0c	-0.14556521
137	0x3d602f54	0.054732636
138	0x3daf0c77	0.08547299
139	0xbe219822	-0.1578069
140	0xbd261fdf	-0.04055774
141	0xbe1945c1	-0.14968015
142	0x3df65348	0.120276034
143	0xbd843ff4	-0.064575106
144	0x3e1964c4	0.14979845
145	0x3d03dd52	0.03219349
146	0xbdd12983	-0.10212996
147	0x3e5e203b	0.21691982
148	0x3daf3a34	0.08556023
149	0x3e27e2d9	0.1639513
150	0xbe0ca2d0	-0.13733983
151	0x3dc39d6e	0.09551512
152	0xbe1cf8fa	-0.15329352
153	0xbdcc83b4	-0.09986058
154	0x3e0839d6	0.13303313
155	0x3dbab51e	0.091165766
156	0xbd8fba19	-0.07017917
157	0xbe26c91d	-0.16287656
158	0xbe0bd765	-0.13656385
159	0x3e13e7ef	0.14443944
160	0x3dba2aa6	0.09090166
161	0xbd82f59b	-0.06394502
162	0xbe13bc5c	-0.14427322
163	0x3db33d29	0.087519
164	0xbdb5376e	-0.08848463
165	0x3dcd7040	0.100311756
166	0x3db3273e	0.08747719
167	0x3d6008b5	0.054695804
168	0xbdb913d3	-0.09036984
169	0xbd347189	-0.044053588
170	0xbe1d196b	-0.15341727
171	0x3d0b0fc7	0.033950593
172	0xbcc27b39	-0.023740398
173	0xbe3082ea	-0.1723744
174	0x3e1eb869	0.15500034
175	0x3d6a3b2a	0.05718533
176	0x3e117aa8	0.14206946
177	0x3d486dd3	0.04893286
178	0xbbb7db85	-0.0056108856
179	0x3e4b3398	0.198439
180	0xbe225370	-0.15852141
181	0x3d084990	0.03327328
182	0x3e17541c	0.14778179
183	0xbdae0dac	-0.084987015
184	0x3e3259b6	0.17417035
185	0x3d896c87	0.06710153
186	0x3df94c9c	0.12172815
187	0x3e4a6425	0.19764765
188	0x3e174345	0.14771755
189	0x3d26efe4	0.04075612
190	0xbe0a0760	-0.13479376
191	0xbd6b07fe	-0.05738067
192	0xbe0a6b16	-0.13517413
193	0xbc902c58	-0.01759927
194	0x3d5f09a4	0.054452553
195	0x3db38d76	0.08767216
196	0xbc7fd4d0	-0.015614703
197	0xbe4d896f	-0.20071958
198	0x3dfecb22	0.12441088
199	0xbc79116c	-0.015201908
200	0xbd8bfd65	-0.068354405
201	0xbe5a015a	-0.21289578
202	0xbd2a8cd7	-0.04163822
203	0x3d55e631	0.05222148
204	0xbd96bb52	-0.07359947
205	0xbd1aad7b	-0.0377631
206	0xbdecfa01	-0.11571122
207	0xbe0f5617	-0.13997684
208	0x3b757425	0.003745326
209	0x3db3880c	0.08766183
210	0xbc7ef2ec	-0.015560847
211	0xbe313e6f	-0.17308973
212	0x3dd7636e	0.105170116
213	0x3d86e942	0.06587459
214	0x3d26f5c3	0.04076172
215	0xbd411b91	-0.04714543
216	0x3e2a7bb3	0.1664875
217	0x3dd80bfb	0.1054916
218	0xbc05dc1b	-0.008170153
219	0x3dea1ef2	0.114316836
220	0x3db4353c	0.08799216
221	0x3e07d586	0.13265046
222	0xbd893505	-0.06699566
223	0x3e0e4c84	0.13896376
224	0xbdce340f	-0.10068523
225	0x3cd210d4	0.02564279
226	0xbdb663e9	-0.08905775
227	0xbdf8c92f	-0.12147748
228	0xbe2b040f	-0.16700767
229	0xbd9641f2	-0.07336797
230	0x3d440ab4	0.04786177
231	0x3dc2f2b4	0.09518948
232	0x3dc63eb9	0.09679932
233	0xbdc5c6fd	-0.09657095
234	0xbdbd11d6	-0.092319176
235	0xbd497311	-0.049182
236	0x3e0d7fe1	0.13818313
237	0x3dfd6d34	0.123743445
238	0xbe638c67	-0.22221528
239	0xbdd460b8	-0.1037001
240	0x3e216004	0.15759283
241	0x3de2b4a6	0.11069612
242	0xbdffa603	-0.12482836
243	0xbe52ad2c	-0.20573872
244	0x3da57ecd	0.08080826
245	0xbd8e2971	-0.06941498
246	0x3d2b75ce	0.041860394
247	0x3e09fc24	0.1347509
248	0xbdac91ea	-0.084262684
249	0x3dc5bd90	0.09655297
250	0x3caaf36a	0.020868022
251	0xbd63dae4	-0.055628672
252	0x3e069e0c	0.13146228
253	0x3ba42f22	0.0050105015
254	0xbcf08286	-0.029359113
255	0xbe38451b	-0.17995112

weight_hh_l0 f4 [128, 32]
0	0xbdb313fb	-0.08744045
1	0xbd307ea7	-0.043089535
2	0xbd2b8c6f	-0.041881975
3	0x3e21f13c	0.1581468
4	0xbd8782c9	-0.06616742
5	0x3dbe3116	0.09286706
6	0xbd12677a	-0.035743214
7	0xbdadcdd5	-0.08486525
8	0xbe082cf0	-0.13298392
9	0x3ca35bd3	0.019941246
10	0x3df8c4e7	0.12146931
11	0x3db7480b	0.08949288
12	0x3e02001d	0.12695356
13	0x3d70a8b5	0.05875464
14	0xbdf3a9b2	-0.11897601
15	0xbc0f8f8d	-0.0087622525
16	0x3ddc27d1	0.10749782
17	0xbe0e8ca8	-0.13920844
18	0xba773c18	-0.0009431257
19	0x3e0854e4	0.13313633
20	0x3dbebd67	0.093134694
21	0xbde406ad	-0.11134086
22	0xbe21d781	-0.15804864
23	0xbd9449dc	-0.0724065
24	0xbe208b67	-0.15678178
25	0x3d29abdd	0.041423667
26	0xbe270996	-0.1631225
27	0x3e34b81e	0.1764836
28	0x3da2b1b7	0.07944053
29	0xbe3fd949	-0.18735231
30	0xbe14e674	-0.14541036
31	0x3e8b37af	0.2719092
32	0x3cbb31f9	0.022850977
33	0xbe2fb382	-0.1715832
34	0x3d53883e	0.051643603
35	0xbd1d50a7	-0.038406994
36	0xbd99ebf6	-0.07515709
37	0x3cdc0f3e	0.026862737
38	0xbe64aff9	-0.22332753
39	0xbcb53dca	-0.02212419
40	0x3cfc97f1	0.03083417
41	0x3d30d6dd	0.04317366
42	0xbde1e48d	-0.11029921
43	0xbe115d96	-0.14195856
44	0x3d279c47	0.040920522
45	0x3e455500	0.19270706
46	0xbc5ee2ba	-0.0136038605
47	0x3d6cf163	0.05784739
48	0x3dab1c85	0.08355049
49	0xbd7d9232	-0.061907
50	0x3db2ac46	0.08724265
51	0x3e7d2535	0.24721225
52	0x3e3024ff	0.17201613
53	0xbe33c1cb	-0.17554395
54	0x3daa80d7	0.083253555
55	0x3e125774	0.14291173
56	0x3e021801	0.1270447
57	0xbe5d919d	-0.21637578
58	0xbac5533e	-0.0015054715
59	0xbe138834	-0.14407426
60	0x3c90c016	0.017669719
61	0x3de39640	0.11112642
62	0xbd61d695	-0.055136282
63	0x3c7adfea	0.015312174
64	0xbd06b646	-0.032888673
65	0xbcf9e804	-0.030506141
66	0x3dd6d075	0.10488979
67	0x3bcc4d4d	0.006234801
68	0xbe626c88	-0.22111714
69	0xbe03f8dd	-0.12887903
70	0xbdf79eab	-0.120908104
71	0xbd73c4a5	-0.059513707
72	0xbe148fff	-0.14508055
73	0xbe3b2ab0	-0.18278003
74	0xbe1149a9	-0.14188255
75	0xbcd9933f	-0.02655947
76	0xbcaf0e80	-0.021369219
77	0x3e2fc2f5	0.17164214
78	0xbcdd3e6f	-0.02700731
79	0x3d5a4c49	0.053295407
80	0x3c46442f	0.012101217
81	0x3d214b11	0.03937823
82	0xbe1823b4	-0.1485737
83	0xbe40be62	-0.18822625
84	0xbc92952b	-0.017893394
85	0xbcfb8519	-0.030703114
86	0xbe684f36	-0.22686467
87	0x3d0ceb4b	0.03440408
88	0xbd4a55ba	-0.04939816
89	0xbe7dcc59	-0.24784984
90	0xbe078d34	-0.13237458
91	0xbde310f4	-0.11087218
92	0xbdeb6e13	-0.11495604
93	0x3e12a5e8	0.143211
94	0x3d0e23c6	0.034702085
95	0xbd0c8c46	-0.034313463
96	0x3e191527	0.14949475
97	0x3b629338	0.0034572612
98	0x3e34ace2	0.17644075
99	0x3d2ecff4	0.04267879
100	0xbd496c4b	-0.04917554
101	0x3d36b2b6	0.044604026
102	0x3e0413ec	0.12898225
103	0x3d66d598	0.056356043
104	0x3df07bd0	0.11742365
105	0x3e008680	0.12551308
106	0xbd64aef3	-0.055830907
107	0x3c06547a	0.008198852
108	0x3c15c684	0.009141568
109	0xbdcc1d25	-0.099664964
110	0xbd97fe6f	-0.07421576
111	0xbd5b3cad	-0.05352466
112	0xbe567247	-0.20942031
113	0xbce02d7d	-0.02736544
114	0xbd4623fb	-0.048374157
115	0xbe469f64	-0.1939674
116	0x3dbb2b5b	0.09139129
117	0x3e1778e4	0.1479221
118	0x3c2218cb	0.009893606
119	0xbde0b97b	-0.109728776
120	0x3a1dff05	0.00060270756
121	0x3d4f57c1	0.050620798
122	0xbcd800eb	-0.026367625
123	0xbde4a8a7	-0.111649804
124	0xbcf7f9f2	-0.03027055
125	0xbd92d7c4	-0.0717006
126	0x3da62a70	0.08113563
127	0xbd251d2f	-0.040311035
128	0x3d5c56e3	0.0537938
129	0x3d096c1d	0.03355037
130	0x3d541318	0.05177602
131	0x3d6ecc48	0.058300287
132	0x3d4eda7c	0.05050133
133	0x3e047ef4	0.12939054
134	0x3decb8d6	0.11558692
135	0xbd9dc7ce	-0.07704125
136	0x3de85ed6	0.113462135
137	0x3dff211d	0.12457488
138	0xbda0fd91	-0.07860864
139	0xbda35081	-0.07974339
140	0x3ccf4dad	0.025305593
141	0x3e3c8759	0.18411006
142	0x3dd6e9fd	0.104938485
143	0x3dcaf328	0.099096596
144	0xbe7c7255	-0.24652989
145	0x3cf6f603	0.030146604
146	0x3da2f919	0.07957668
147	0xbd6d22f0	-0.057894647
148	0x3dc565ca	0.09638555
149	0x3e151d36	0.14561924
150	0x3de7889e	0.113053545
151	0xbe119d1f	-0.14220093
152	0xbe0307ca	-0.1279594
153	0x3db5bf88	0.08874422
154	0xbe4ae3b0	-0.19813418
155	0xbc90bb04	-0.017667301
156	0xbcf82a63	-0.030293649
157	0x3e1aceab	0.151179
158	0x3e317931	0.17331387
159	0xbba12dd3	-0.0049187928
160	0x3ce139a0	0.027493298
161	0xbe255d7c	-0.16148943
162	0xbcb5ee3b	-0.022208324
163	0xbd94e379	-0.072699495
164	0xbe524a01	-0.20536043
165	0x3e3b44cc	0.18287963
166	0xbdbca373	-0.09210863
167	0x3e7b2052	0.24524048
168	0x3e44c29e	0.19214866
169	0xbe6eba7a	-0.23313323
170	0xbe00365e	-0.1252074
171	0x3d38312e	0.044968776
172	0x3d51736d	0.05113547
173	0xbdcc3903	-0.099718116
174	0x3da30d7a	0.07961555
175	0xbd660677	-0.05615851
176	0xbde8b064	-0.11361769
177	0x3d81a195	0.063296475
178	0xbd5be66e	-0.05368655
179	0x3e1757a7	0.1477953
180	0xbddbc803	-0.107315086
181	0xbce46003	-0.027877813
182	0xbe09b9c3	-0.13449769
183	0xbce25073	-0.027626252
184	0x3e2e2e49	0.17009844
185	0x3d8933dc	0.066993445
186	0x3ddfca5d	0.109272696
187	0xbda00fbd	-0.07815502
188	0x3d6780a7	0.056519177
189	0xbe3ee816	-0.18643221
190	0x3e7c1ebd	0.246211
191	0xbc817445	-0.015802512
192	0x3dbf767f	0.09348773
193	0xbca53d77	-0.02017091
194	0x3e07622c	0.13221043
195	0x3cb2d2d5	0.021829048
196	0x3c8c93f2	0.01716039
197	0xbe11c8c4	-0.14236742
198	0xbe3cd0a9	-0.18438973
199	0x3e1e6afd	0.154705
200	0xbdd2a499	-0.10285301
201	0xbe044e21	-0.12920429
202	0xbbf2af03	-0.007406117
203	0x3d956649	0.072949
204	0x3c88c176	0.016693812
205	0x3e1e4eae	0.15459701
206	0xbdee81cb	-0.1164585
207	0xbe0e3f06	-0.13891229
208	0xbcb7e7a0	-0.022449315
209	0xbd71c5cb	-0.05902652
210	0x3db9ba76	0.09068768
211	0xbd376a57	-0.044779148
212	0x3e74ecf2	0.23918512
213	0x3df82ecb	0.121183
214	0xbe18a59f	-0.1490693
215	0x3de21cf9	0.11040682
216	0x3cc60c10	0.024175674
217	0xbd7def6b	-0.061995905
218	0xbda5c1fb	-0.080936395
219	0x3d5e6a0c	0.054300353
220	0x3dd6a5f2	0.1048087
221	0xbdde9008	-0.108673155
222	0xbe0e5c74	-0.13902456
223	0x3c9a33f8	0.018823609
224	0x3dd16295	0.10223881
225	0x3d965a31	0.073414214
226	0x39dfa429	0.00042656183
227	0x3db4b5cf	0.0882374
228	0x3d71d240	0.0590384
229	0xbe50e8f7	-0.20401369
230	0x3db61910	0.08891499
231	0x3d2a4005	0.04156496
232	0x3ce98b17	0.028508706
233	0xbe743576	-0.23848519
234	0xbd8ab6d5	-0.06773154
235	0x3e36a865	0.17837675
236	0x3e3cfb27	0.18455182
237	0xbdbbefd2	-0.091766015
238	0x3dcd255d	0.10016892
239	0x3dd03bea	0.10167678
240	0xbbe5a346	-0.007007989
241	0xbc8570ea	-0.016289193
242	0xbdc4b745	-0.096052684
243	0x3c0a5123	0.008442196
244	0xbd3f3472	-0.046680875
245	0x3d834476	0.06409542
246	0xbe069119	-0.13141288
247	0xbe67d8f4	-0.22641355
248	0x3d864e50	0.06557906
249	0xbd429104	-0.04750158
250	0x3d84dfeb	0.064880215
251	0x3cf37527	0.029718949
252	0xbd7b8da4	-0.061414376
253	0x3dc204af	0.094735496
254	0x3df2c588	0.11854082
255	0x3dd2d789	0.10295016

bias_ih_l0 f4 [128]
0	0xbd62e781	-0.05539656
1	0xbddeeb7c	-0.10884759
2	0x3d8b34ca	0.06797178
3	0x3dae9dc3	0.085261844
4	0x3d14a2db	0.036288124
5	0x3dcd64b0	0.1002897
6	0x3e1819f2	0.14853647
7	0xbdd1951a	-0.10233517
8	0x39a17a3a	0.0003079938
9	0x3d91be8c	0.07116422
10	0xbe13a88a	-0.14419761
11	0xbe09f3bc	-0.13471884
12	0x3c13f451	0.009030418
13	0x3e1aa6a8	0.15102637
14	0xbe232ec1	-0.15935804
15	0x3d5fa6a2	0.054602273
16	0x3d5096e3	0.050925147
17	0x3e08e9c1	0.1337042
18	0x3e41fb51	0.18943526
19	0xbdb527d5	-0.08845488
20	0x3e0316bf	0.12801646
21	0xbc4a258d	-0.012338054
22	0xbe156fdc	-0.14593452
23	0xbd54bedc	-0.05193983
24	0x3c92191b	0.017834237
25	0x3cf0eb78	0.029409155
26	0x3d7009cd	0.058603097
27	0x3d4f86b1	0.05066556
28	0x3deb3014	0.114837795
29	0x3e072b15	0.13200028
30	0x3e2eda7b	0.17075531
31	0xbc9c9982	-0.019116167
32	0x3e30e38c	0.17274302
33	0xbe0a6f26	-0.13518962
34	0xbdf97701	-0.12180901
35	0xbe09d5bc	-0.1346044
36	0xbd04f9d6	-0.032464825
37	0x3d85a422	0.065254465
38	0xbd1f3463	-0.03886832
39	0x3e2111f1	0.157295
40	0x3e3c29b6	0.18375286
41	0x3e4083ed	0.18800326
42	0x3d1a6af3	0.03769965
43	0x3e447a6c	0.19187325
44	0xbde03c9a	-0.10949059
45	0x3e0f9a05	0.14023598
46	0x3c9a4100	0.018829823
47	0xbd4481db	-0.047975402
48	0xbdd28cca	-0.1028076
49	0x3e53c58c	0.20680827
50	0x3e32cfbf	0.17462061
51	0x3e31cf71	0.17364289
52	0x3ca552d6	0.0201811
53	0x3e01e124	0.1268354
54	0xbdd5c05b	-0.104370795
55	0x3cf5d4dd	0.030008728
56	0xbc310bad	-0.010806006
57	0x3e06c14f	0.13159679
58	0x3d5c015c	0.053712234
59	0x3e55e4a4	0.20888
60	0xbdfcc60f	-0.12342464
61	0x3d94681f	0.07246422
62	0xbbc8b8bc	-0.0061255377
63	0xbd47b240	-0.048753977
64	0xbdc7ae10	-0.09749997
65	0x3d0c2fd1	0.03422529
66	0x3e191883	0.14950757
67	0xbe16a341	-0.14710714
68	0x3ca1dcb9	0.01975857
69	0x3db69c06	0.08916478
70	0x3e211cd7	0.15733658
71	0x3da7a156	0.08185069
72	0x3e066971	0.1312616
73	0xbd830242	-0.06396915
74	0x3d775bf9	0.060390446
75	0x3d068543	0.032841932
76	0x3d6470e6	0.05577173
77	0x3bb582ee	0.0055392897
78	0x3d9c153f	0.0762124
79	0xbdf3bfed	-0.11901841
80	0xbe2b97e3	-0.16757159
81	0xbde51289	-0.11185176
82	0x3e1b4da7	0.15166341
83	0xbdb4b004	-0.08822635
84	0x3ce3aad4	0.027791418
85	0xbe3d424e	-0.18482324
86	0xbdcd9129	-0.10037453
87	0x3e33e935	0.1756943
88	0xbe220c9a	-0.1582512
89	0xbd1a6de3	-0.037702452
90	0x3dc948de	0.098283514
91	0xbae6559d	-0.0017573122
92	0x3c6e6ae2	0.01455185
93	0xbd88b46a	-0.06675036
94	0xbdc61b8a	-0.096732214
95	0x3d935df3	0.07195654
96	0xbc225dbd	-0.009910044
97	0x3e2849b9	0.16434373
98	0x3e01542c	0.12629765
99	0x3d94a4dc	0.07258007
100	0x3e2e03c4	0.16993624
101	0x3e2e99ec	0.17050904
102	0x3e7b7d6e	0.24559566
103	0xbbf0143e	-0.007326632
104	0x3bc8e131	0.0061303605
105	0x3e6277c1	0.22115995
106	0xbc45d462	-0.012074562
107	0xbdd836c4	-0.10557321
108	0xbe01876b	-0.12649314
109	0x3e3557ac	0.17709225
110	0x3db90f20	0.09036088
111	0x3da69308	0.08133513
112	0x3d9b9e7d	0.075985886
113	0xbd8e46b7	-0.069470815
114	0x3e200441	0.15626623
115	0x3db41b4f	0.08794271
116	0xbd873cbe	-0.066033825
117	0x3e1a0b88	0.15043461
118	0x3a69e64a	0.00089225604
119	0xbdce113b	-0.1006188
120	0x3e5d261f	0.21596573
121	0x3ca8b865	0.020595739
122	0x3e2fefd7	0.17181335
123	0xbc70915e	-0.014683096
124	0xbd82d70c	-0.06388673
125	0x3d7cf605	0.06175806
126	0x3e0fcb3b	0.1404237
127	0xbcd5f762	-0.026118938

bias_hh_l0 f4 [128]
0	0x3e31cf77	0.17364298
1	0x3e1a418b	0.15064065
2	0xbaf13fed	-0.0018405892
3	0xbdab5ab4	-0.083669096
4	0x3e05733f	0.13032244
5	0x3e407b3e	0.18797013
6	0xbdc8df23	-0.09808185
7	0x3ae54d7c	0.0017494406
8	0x3da1c30c	0.0789853
9	0x3e12bbef	0.14329503
10	0x3d7947d9	0.060859535
11	0x3d979fd2	0.0740353
12	0x3c1cd3a4	0.009571943
13	0x3e2428c8	0.16031182
14	0x3d8f355e	0.06992601
15	0x3dd86d53	0.10567727
16	0xb8ff4303	-0.000121718294
17	0x3d5f90c1	0.054581407
18	0x3dcb259a	0.09919281
19	0xbe089e52	-0.13341644
20	0x3e08466d	0.13308115
21	0x3dc6da89	0.09709651
22	0x3e18033a	0.14844981
23	0xbe006d31	-0.12541653
24	0xbdb69b4d	-0.0891634
25	0xbd5c280e	-0.053749137
26	0x3cbb2518	0.022844836
27	0xbd3a6838	-0.045509547
28	0x3e100e7d	0.14068027
29	0x3e1ff54d	0.15620919
30	0x3cf54527	0.029940201
31	0x3c2176ab	0.009854953
32	0x3d1dd713	0.03853519
33	0x3dafc491	0.08582414
34	0x3b0aa4ed	0.0021155432
35	0xbcf75ede	-0.030196603
36	0xbcb4a7f0	-0.022052735
37	0xbdd019a9	-0.10161144
38	0xbe25dccd	-0.1619751
39	0xbe07dc0a	-0.13267532
40	0xbd9f8520	-0.077890635
41	0x3c18803b	0.009307916
42	0xbd32b78f	-0.043632086
43	0x3db05ee1	0.08611847
44	0x3d0f94c7	0.035053995
45	0x3e1d0222	0.15332845
46	0xbe0ceab8	-0.13761413
47	0xbdf9a72c	-0.12190089
48	0xbd10c217	-0.03534135
49	0xbd5a4501	-0.053288464
50	0x3cf2a08c	0.02961757
51	0xbc5dd9a9	-0.013540664
52	0x3c4e3c36	0.012587598
53	0x3d4c9f47	0.049956586
54	0x3d25bfeb	0.04046623
55	0xbdf0c619	-0.11756534
56	0x3c5f4c5a	0.0136290435
57	0x3e34bcb6	0.17650113
58	0xbd11a8f9	-0.035561536
59	0xbc25145d	-0.010075656
60	0x3d99a623	0.07502391
61	0xbdf55e06	-0.11980824
62	0xbe00ad94	-0.12566215
63	0x3e03466c	0.12819833
64	0x3da780ac	0.08178839
65	0x3d55ad8d	0.052167464
66	0xbd209559	-0.03920493
67	0xbde9536c	-0.113928646
68	0x3dbefc4f	0.09325468
69	0xbde5935a	-0.11209746
70	0xbd3ff2f0	-0.046862543
71	0x3da6422a	0.081180885
72	0xbe049357	-0.1294683
73	0x3e227f9d	0.15868993
74	0xbc70a7b4	-0.014688421
75	0x3e0f88d5	0.14017041
76	0x3c8a7834	0.01690302
77	0x3da09b53	0.07842126
78	0x3d5a5f11	0.05331332
79	0xbc48a4c7	-0.012246317
80	0xbda11e64	-0.07867125
81	0x3d72fdea	0.059324183
82	0xbe06b257	-0.13153969
83	0x3c20ed2a	0.009822169
84	0x3d991a6d	0.074757434
85	0xbe1291eb	-0.14313476
86	0x3cffac20	0.031210005
87	0x3de4148c	0.111367315
88	0xbdc0b638	-0.094097555
89	0x3e3d4527	0.18483411
90	0xbdd8ea43	-0.10591557
91	0x3c6b97e1	0.0143794725
92	0xbe096463	-0.134172
93	0xbdd7dfb0	-0.10540712
94	0x3e035fce	0.12829515
95	0xbddc61e4	-0.10760859
96	0x3e824a64	0.2544738
97	0x3e0faef3	0.14031582
98	0x3cd28f15	0.025702992
99	0xbe466308	-0.19373715
100	0xbb549c53	-0.003244181
101	0x3e3c1d23	0.1837049
102	0x3e2ec7dd	0.1706843
103	0x3d87fbdc	0.06639835
104	0x3d4989cc	0.04920368
105	0x3e6f7f9a	0.2338852
106	0xbd88e5aa	-0.0668443
107	0xbdadacc2	-0.084802166
108	0xbdf2ead0	-0.11861193
109	0x3d147ae6	0.036250018
110	0x3e1fd9e0	0.15610456
111	0x3e3bd17a	0.18341628
112	0x3e6574ec	0.22407883
113	0xbc359f55	-0.011085351
114	0xbd8686dc	-0.06568691
115	0x3d95fb16	0.073232815
116	0xbdaa656c	-0.08320126
117	0xbd229953	-0.039697003
118	0x3df95ae9	0.12175543
119	0x3e3ea0e2	0.1861606
120	0x3dba2a55	0.090901054
121	0x3e15f168	0.1464287
122	0xbd233b80	-0.039851665
123	0x3e2ed020	0.17071581
124	0x3e58b57a	0.21162978
125	0x3e040b43	0.12894921
126	0x3d859f35	0.06524507
127	0x3d1e11af	0.038591083

weight_ih_l0_reverse f4 [128, 2]
0	0xbde07beb	-0.109611355
1	0xbe94e5f4	-0.2908169
2	0x3e97f8f0	0.29682112
3	0xbe0d992d	-0.13827963
4	0xbe5623a2	-0.2091203
5	0xbe7022ae	-0.23450729
6	0x3dc27209	0.09494407
7	0xbea8394e	-0.3285622
8	0xbd9612d0	-0.07327807
9	0xbe251d10	-0.16124368
10	0x3dc26b16	0.09493081
11	0xbecc8bcf	-0.39950415
12	0x3e0046ba	0.1252698
13	0x3dabefed	0.083953716
14	0x3def4b42	0.11684276
15	0xbe979cfd	-0.2961196
16	0xbd77728e	-0.060411982
17	0xbee15ede	-0.4401769
18	0xbe33dcd3	-0.17564707
19	0x3ec7b23e	0.39003175
20	0xbe826728	-0.25469327
21	0x3da3c83f	0.07997178
22	0x3f03767f	0.51352686
23	0xbe192870	-0.14956832
24	0xbe2aa12d	-0.16663046
25	0x3cee7e0a	0.029112834
26	0xbe4e7b5c	-0.20164245
27	0xbe2dde22	-0.16979268
28	0x3e936d8f	0.28794524
29	0x3d0cf8fb	0.034417134
30	0x3ef6496e	0.48102897
31	0x3dcca28c	0.09991941
32	0xbceecc5d	-0.029150182
33	0xbe482992	-0.19547108
34	0x3c0e1570	0.008672103
35	0x3db65a3a	0.08903928
36	0xbd7223dd	-0.059116233
37	0xbe19c30d	-0.15015812
38	0xbe574e93	-0.21026067
39	0x3e09bb05	0.13450249
40	0xbec5d3c1	-0.38638118
41	0x3d721123	0.059098374
42	0xbeb219ce	-0.34785312
43	0x3ebcfa65	0.36909786
44	0xbeb64f82	-0.35607535
45	0x3d54d0c2	0.0519569
46	0x3eb738a1	0.35785392
47	0xbe131c2d	-0.14366217
48	0xbe887aa5	-0.2665607
49	0x3ebe5f2b	0.37181982
50	0xbef437de	-0.47698873
51	0xbe90c977	-0.28278705
52	0xbded1533	-0.11576309
53	0x3d6716a8	0.05641809
54	0xbe031d7b	-0.12804215
55	0x3ec86dd6	0.39146298
56	0x3ea1b5d7	0.31584045
57	0xbdc7b34e	-0.097509965
58	0x3d464dc8	0.04841402
59	0x3e42f91a	0.19040337
60	0xbdfbb166	-0.122896954
61	0xbc7dad38	-0.015483193
62	0x3d4a4f16	0.04939183
63	0xbe8b1170	-0.2716174
64	0xbe7c6eff	-0.24651717
65	0x3b4fb33c	0.0031692525
66	0x3eaea5ff	0.3411102
67	0xbe88cda0	-0.2671938
68	0xbe158a41	-0.14603521
69	0xbde4c261	-0.11169887
70	0xbc9ae7e1	-0.018909397
71	0xbeb38631	-0.35063317
72	0xbdb64e4c	-0.08901653
73	0xbddf0025	-0.108886994
74	0x3e918dcc	0.28428495
75	0xbdf64814	-0.120254666
76	0xbe07f519	-0.13277091
77	0x3df6bcea	0.12047751
78	0x3e16817f	0.14697836
79	0xbd95bd00	-0.073114395
80	0x3d7bd4aa	0.06148211
81	0xbe368b09	-0.17826475
82	0xbd9fc169	-0.07800562
83	0x3ddc6907	0.1076222
84	0x3c82edbd	0.015982503
85	0xbe025bac	-0.12730283
86	0x3e877154	0.2645365
87	0xbdf081c2	-0.11743499
88	0xbd2a2178	-0.041535825
89	0x3dac303b	0.08407637
90	0xbda0e7e0	-0.07856727
91	0xbe00b9b2	-0.12570837
92	0x3e353c4c	0.17698783
93	0xbe03801b	-0.12841837
94	0x3e921184	0.28528988
95	0x3d8c5ea3	0.06853988
96	0x3d76438c	0.06012301
97	0xbe66aec0	-0.225276
98	0xbcd69d81	-0.02619815
99	0x3e4a870b	0.19778077
100	0xbcea7813	-0.028621709
101	0xbde93c62	-0.1138847
102	0xbe56a8b8	-0.20962799
103	0x3dc8f72d	0.0981277
104	0xbe4063a0	-0.18788004
105	0x3dc3e6b4	0.095654875
106	0xbe73c8bf	-0.23807047
107	0x3e441f34	0.19152528
108	0xbd274499	-0.040836904
109	0xbe25b334	-0.16181642
110	0x3d0dcc00	0.034618378
111	0xbe3155fc	-0.17317957
112	0xbd9b0a77	-0.075703554
113	0x3d809ba1	0.06279684
114	0xbe32cbdf	-0.17460583
115	0xbe959e93	-0.29222545
116	0xbd26f59d	-0.04076158
117	0xbcf308c6	-0.02966727
118	0x3d01cfbf	0.031692263
119	0x3e25e295	0.16199715
120	0x3d73365a	0.059378006
121	0x3d8d124c	0.068882555
122	0x3e329176	0.17438301
123	0x3e1ddf57	0.15417229
124	0xbd82ccaf	-0.063866965
125	0x3d5d16ba	0.053976752
126	0x3e597395	0.21235497
127	0xbe7c0048	-0.24609482
128	0xbe9be8a9	-0.30450943
129	0xbe0944f2	-0.13405207
130	0x3b0183ad	0.0019762323
131	0x3e9e3630	0.30900717
132	0x3db4a1b6	0.088199064
133	0x3e34038b	0.17579477
134	0xbe504830	-0.20340037
135	0xbe8acde3	-0.27110204
136	0x3e77bba4	0.24192673
137	0x3eb21211	0.3477941
138	0x3ea7522d	0.32679883
139	0xbde1be41	-0.11022616
140	0xbcad8e6f	-0.021186082
141	0xbe984ced	-0.2974619
142	0xbed913f6	-0.4239804
143	0x3e4a4549	0.19752993
144	0xbdb5a669	-0.08869631
145	0xbea031e4	-0.31288064
146	0xbe4610eb	-0.19342391
147	0x3e9c7b14	0.3056265
148	0x3e831a23	0.25605878
149	0x3c640b68	0.013918735
150	0x3eead1e2	0.45863253
151	0xbc8c06a0	-0.017093003
152	0x3e25121f	0.16120194
153	0x39da3922	0.00041622767
154	0x3e82d352	0.2555185
155	0x3e91191e	0.28339475
156	0x3da362d0	0.07977831
157	0xbea30090	-0.31836367
158	0x3e7549a7	0.23953877
159	0x3d970cb5	0.073754705
160	0x3e0c17f0	0.13681006
161	0x3e0c6179	0.13709058
162	0x3e0ea4e8	0.13930094
163	0x3ee14e76	0.44005173
164	0x3d0f9c28	0.03506103
165	0xbecdf019	-0.40222242
166	0xbec9a782	-0.3938561
167	0x3dec21c6	0.11529879
168	0xbedee61c	-0.43534935
169	0x3d51196f	0.051049646
170	0x3e8f0fde	0.27941793
171	0xbea73b16	-0.32662266
172	0xbecbb4e5	-0.3978645
173	0x3c31c64e	0.010850502
174	0x3bfd8da1	0.0077378307
175	0x3e74262a	0.23842683
176	0xbe73c0cb	-0.23804013
177	0x3ed920e3	0.42407903
178	0x3ebde09c	0.37085426
179	0x3e9e9be1	0.309783
180	0xbe10e266	-0.14148864
181	0xbe8c01e0	-0.2734518
182	0xbd814dc0	-0.06313658
183	0xbe8d193b	-0.27558312
184	0xbeff1ada	-0.49825174
185	0x3da1865a	0.07886954
186	0x3eb87707	0.3602831
187	0x3d9cc683	0.076550506
188	0x3e6562bc	0.22400945
189	0xbe341e67	-0.17589723
190	0x3e8f5e7b	0.2800177
191	0xbe3d32f1	-0.18476464
192	0x3d2d8b31	0.04236907
193	0xbe0f7442	-0.14009193
194	0x3e7cffb3	0.24706917
195	0xbe48cfe1	-0.1961055
196	0xbe6efec3	-0.23339371
197	0xbe78b36e	-0.24287197
198	0xbe752b26	-0.23942241
199	0xbe966bb6	-0.29379052
200	0xbddb0c66	-0.10695724
201	0x3dafa0a5	0.085755624
202	0x3de068e7	0.109575085
203	0xbe03bc5f	-0.12864827
204	0xbe7a65a0	-0.2445283
205	0xbaffd358	-0.0019517941
206	0x3e7b1d3a	0.24522868
207	0xbe958ebd	-0.29210463
208	0xbe5d2d72	-0.21599367
209	0xbece57c6	-0.4030134
210	0xbd764ca9	-0.060131703
211	0x3cbb509f	0.022865592
212	0x3e333030	0.17498851
213	0xbd23f9e6	-0.040033244
214	0x3ef75e19	0.48313978
215	0xbe3b908e	-0.18316862
216	0x3e2ec2e7	0.17066537
217	0xbe563bb5	-0.20921214
218	0xbe2e9798	-0.17050016
219	0xbe1c2b79	-0.15250959
220	0x3e836aad	0.25667325
221	0xbd852da8	-0.06502849
222	0x3e3e8ce5	0.18608434
223	0xbd8f211c	-0.06988737
224	0x3e07e78e	0.13271925
225	0xbd0f1c3f	-0.034939047
226	0x3de8d39c	0.11368486
227	0xbd1b5cfd	-0.037930477
228	0xbdbe0974	-0.09279147
229	0xbe4aa18b	-0.19788186
230	0xbeac7269	-0.33681038
231	0x3e5f8fc9	0.21832193
232	0xbea86656	-0.32890576
233	0xbe9cf2c2	-0.3065396
234	0xbe9fc3bb	-0.31204018
235	0x3f0b7e17	0.5448927
236	0xbe31b4d4	-0.17354137
237	0xbe5de55e	-0.21669528
238	0xbd845874	-0.064621836
239	0xbdd9d9cf	-0.10637247
240	0xbdef3ced	-0.116815425
241	0x3ee19566	0.44059294
242	0xbe1fc4ec	-0.15602463
243	0xbebda64e	-0.37040943
244	0xbe5061ba	-0.2034978
245	0x3e7d56db	0.24740164
246	0xbd15587a	-0.03646133
247	0x3e94c9cb	0.29060206
248	0x3f068f98	0.52562857
249	0xbe2906d2	-0.16506508
250	0x3d070d6f	0.032971796
251	0xbd88be2f	-0.066769
252	0xbe437a09	-0.19089521
253	0x3ce46926	0.02788217
254	0x3d2a551b	0.04158507
255	0xbe8d2f57	-0.2757518
