TS-CVAE/experiments/pedestrians/models/eth/models_04_Jun_2021_13_35_51_eth_ar3/model_registrar-32.pt (torch_old, 545378 bytes, 43 tensors)

weight_ih_l0 f4 [128, 6]
000000 04 9d 36 bd 00 4b 9d 3c ba 75 d0 bd fc ed a5 3c
       -0.044583336 0.019200802 -0.101787046 0.020255081
000010 00 be 13 be 26 54 59 3d cb 3d 90 bd 50 c7 29 be
       -0.14427948 0.053058766 -0.07043036 -0.16579938
000020 a8 c3 d0 bd e7 3f 2f 3e b6 52 73 bc bb 71 2d 3e
       -0.101935685 0.1711422 -0.014851263 0.16937916
000030 25 a6 0a 3d 64 ad e4 3b b7 6d 2a be e2 80 1d be
       0.033849854 0.0069786776 -0.16643415 -0.15381196
000040 8a 9f 26 be f2 19 ec 3c ad 60 c6 bd d0 8e 02 3e
       -0.16271797 0.028820965 -0.09686408 0.12749791
000050 2b 3e 23 3e 5f 50 e4 3d 51 2d e8 bd 8c 30 98 3d
       0.15941684 0.11148142 -0.113367684 0.074311346
000060 22 f0 21 be fb fd a6 bd 1d fa dd bc 9d 0d a8 3e
       -0.1581426 -0.08153912 -0.027096802 0.32822886
000070 7e db 2c be 1e 7b 66 be bf c2 88 3e fa 2c 92 bd
       -0.16880605 -0.22507903 0.2671108 -0.07137485
000080 f9 88 23 bd c9 e2 82 3e 31 9c bd 3d 85 08 92 bd
       -0.03992555 0.25563648 0.09258307 -0.07130531
000090 c8 d8 35 be d4 d8 86 bd 92 7a b7 bd 05 fa 07 3d
       -0.17758477 -0.065843254 -0.08958925 0.03319742
0000a0 97 24 47 be 71 ae 5f be 05 eb a7 bd f0 25 76 3e
       -0.19447552 -0.21843888 -0.08199123 0.2403791
0000b0 51 41 db 3d b3 6e 2b bd 0d 86 93 bd 9e d1 bf 3d
       0.107058175 -0.041853618 -0.072033025 0.09366153
0000c0 87 a6 be 3e c1 95 44 3e 39 e5 2e 3e f6 c4 7c bd
       0.37236425 0.19197752 0.17079629 -0.061711274
0000d0 0b 30 28 be 6b fa ee bc f9 77 48 be b4 55 8c be
       -0.16424577 -0.029172143 -0.19577016 -0.27409136
0000e0 2e d6 3a bc 29 f8 9a 3e 0e cc 22 bd 09 cd e9 bd
       -0.0114036035 0.30267456 -0.039745383 -0.114160605
0000f0 e2 53 84 3e ff 0c 74 bd 50 97 ae be dd 20 fc 3d
       0.25845248 -0.059582707 -0.34099817 0.12310956
000100 ed 1a 54 be e9 a2 74 3e 26 67 00 be 2b 44 a3 bd
       -0.20713396 0.2389027 -0.12539348 -0.079719864
000110 3c 62 08 bd dc 09 1c 3e c8 21 66 3e dc eb eb 3d
       -0.03329681 0.15238136 0.22473824 0.11519596
000120 62 2c 8d bd 82 09 d3 bc 8c bf 2f 3c b5 3b e2 bd
       -0.06893231 -0.02576137 0.010726821 -0.110465445
000130 ba 36 62 bd da 82 3c bd d1 84 23 3d dd 59 59 3e
       -0.055227973 -0.046023227 0.039921585 0.21225686
000140 da ec 28 3d 70 c2 2a bd 03 81 cd bd 11 ca ce 3b
       0.041241504 -0.041689336 -0.10034373 0.0063107093
000150 39 dd 83 be 04 1f 0c be 35 35 81 be 75 f6 c5 3d
       -0.25754717 -0.13683707 -0.25235906 0.096661486
000160 2e 0f c4 3e 14 40 6b bd e6 69 f3 bd 74 06 25 3e
       0.3829283 -0.057434157 -0.11885433 0.16115743
000170 00 df 0f 3e ba 92 4a 3d 95 0a 96 bd e1 55 bb 3d
       0.14049911 0.049456336 -0.07326237 0.091472395
000180 a9 1b 73 3d 44 b4 6e 3e 29 3f 67 3e e9 64 46 bd
       0.05935255 0.23310953 0.22582687 -0.04843608
000190 82 8d cf bd 93 58 89 be c2 97 6e 3d 17 47 0b be
       -0.10134412 -0.2682539 0.058250196 -0.13601337
0001a0 83 ba 1d bd ad 06 78 bc dd 04 76 b9 4d bb ae 3d
       -0.03850795 -0.01513831 -0.000234622 0.085318185
0001b0 98 b8 0c 3e d8 48 39 bd 20 cb be 3d 05 66 63 bd
       0.13742292 -0.045235485 0.09316087 -0.055517215
0001c0 1e 96 49 3e 5f 78 d9 3e f4 87 14 be f0 20 2c be
       0.19686171 0.42474648 -0.14504987 -0.1680944
0001d0 7a 2f 6b bd 87 99 ae 3e 39 fa 1e 3e 71 2d 8c 3d
       -0.057418324 0.34101507 0.1552514 0.06844605
0001e0 a6 87 14 be 2d a6 eb 3d 08 64 d0 3d 1a 09 54 be
       -0.14504871 0.11506305 0.101753294 -0.20706597
0001f0 31 f2 f7 bc 33 60 3b bc fa 93 aa 3d cd e9 b1 3e
       -0.030266853 -0.01143651 0.083290055 0.34748688
000200 40 c9 27 3c 68 ff 16 be 83 22 9c bd aa e4 ca 3d
       0.010240853 -0.14745867 -0.0762377 0.099068955
000210 6e ff 09 bd 41 12 45 be 6d fc 41 bc 20 04 6d 3d
       -0.033690862 -0.19245245 -0.011839968 0.057865262
000220 11 c4 e6 bc 3c be 3b bd a7 43 23 3b 83 7e cb bd
       -0.028169664 -0.04583572 0.002491215 -0.099362396
000230 38 cc 97 3d cc 14 1c bd 94 94 bc 3d f6 9e 43 bd
       0.074119985 -0.03810577 0.092080265 -0.04775902
000240 1b 07 f6 3d 6e a5 45 bc a5 3c 18 be 2d 63 bf bc
       0.12013074 -0.012063367 -0.14866884 -0.02336272
000250 ab da 94 be 8b b2 98 bd 5f 63 b5 bd 3d 1a a2 bc
       -0.2907308 -0.07455929 -0.08856844 -0.019787902
000260 ea a9 e9 bd 8d 84 dd 3d f8 92 eb bd 1b 92 7d 3d
       -0.11409362 0.10816298 -0.115026414 0.061906915
000270 6e ea 7a 3e 89 41 8b be 60 9e b1 be 73 a3 bb 3e
       0.2450349 -0.27198437 -0.34691143 0.3664814
000280 f6 b4 1b 3e 15 5a 6f 3e 86 53 71 3d 79 67 bf 3e
       0.1520575 0.23374207 0.058917545 0.3738363
000290 36 e1 c0 3e 60 d2 4a 3e 79 f2 c4 3c 27 33 51 3e
       0.37671822 0.19806814 0.024041401 0.2042967
0002a0 f6 74 65 3d 1a b1 ee 3d 5d 42 06 be 02 91 41 3b
       0.056019746 0.11654873 -0.13111253 0.0029535894
0002b0 08 c5 22 3d bc 53 fc 3d 30 9a 06 be 4e c1 1f be
       0.039738685 0.123206586 -0.13144755 -0.15601084
0002c0 65 9e 44 be 36 19 7c bd ff 88 a2 bc 51 fd 0c 3e
       -0.19201048 -0.06154748 -0.019840715 0.13768508
0002d0 5b c0 df bc c8 50 d8 bd 33 cb 17 3e f3 d7 27 bd
       -0.027313402 -0.10562283 0.14823608 -0.04097743
0002e0 50 ce 20 be 4b fd 9e bc 54 b2 e6 bd f4 f8 f1 3d
       -0.15703702 -0.019407889 -0.11264482 0.11815062
0002f0 92 e7 46 3e 8b 02 47 be b5 81 4c be c4 e4 a2 3d
       0.19424275 -0.19434564 -0.19971354 0.0795379
000300 8b 0d ff 3d 88 7e 21 3e e3 51 eb bd f5 cb 12 be
       0.12453755 0.15770924 -0.11490228 -0.14335616
000310 6c c5 5e bd 94 9f 58 be a8 64 32 3e e4 89 0a bd
       -0.054387495 -0.21154624 0.1742121 -0.03382291
000320 d4 cb e2 bc c7 7e a0 3d 4c 45 12 3e a4 4a da bd
       -0.027685083 0.07836681 0.14284247 -0.10658768
000330 b6 f2 41 bd 08 2d 33 3d c5 0a 8f bd 26 7a 11 bd
       -0.047350608 0.043744117 -0.06984476 -0.03551688
000340 08 da 91 bd 1d f3 88 bd 94 b2 33 3d 6b db 6e 3d
       -0.07121664 -0.06686995 0.043871477 0.058314722
000350 73 b1 09 3d a7 6b ae bd 05 a5 fb bd 66 01 2f be
       0.033616494 -0.08516627 -0.12287334 -0.17090377
000360 1f 5f a2 3d ab 7a da bd fa 63 49 3d ac 0d f7 3d
       0.07928299 -0.10667928 0.04916761 0.120631546
000370 95 f3 a1 be 66 6d 1b bd c1 39 3e 3e 8a 36 0f be
       -0.3163115 -0.037946127 0.18576719 -0.13985649
000380 7e 7c 42 bc fe 2f bc bd 03 f0 51 be b9 6a 84 3d
       -0.011870502 -0.09188841 -0.20501713 0.06465668
000390 73 b3 48 3d f7 a2 7b bc f1 41 af bc 27 eb b4 3b
       0.04899926 -0.015358678 -0.021393748 0.0055211964
0003a0 95 93 9b bd 53 0a 9c 3d 24 1d 69 bc 8f 60 bb bd
       -0.075965084 0.07619157 -0.014228139 -0.091492765
0003b0 66 2c 1e 3e 3b 3b 4c bd 99 1f b3 bb 3d 9c 1f 3d
       0.15446624 -0.049861174 -0.005466413 0.03896736
0003c0 cf 5c b8 3e a9 e4 99 bc cd a0 01 bd f6 6e 9a bd
       0.36008307 -0.018785791 -0.031647492 -0.07540695
0003d0 c6 da f0 be 79 05 65 3e 4f b5 40 be 57 b6 d1 bd
       -0.4704191 0.22365369 -0.18819164 -0.10239857
0003e0 a3 b0 51 3e ef ce 49 3e f2 e7 59 3e bf 90 8c 3d
       0.20477538 0.19707845 0.21279886 0.068635456
0003f0 d3 fa 96 3e 34 ea 23 be 65 66 0e be a8 75 d4 3d
       0.2948824 -0.1600731 -0.13906248 0.10374004

weight_hh_l0 f4 [128, 32]
000000 c9 9a 70 bd a7 ec 1a be b5 1d 8d 3d 86 b2 d5 3d
       -0.058741365 -0.15129338 0.06890432 0.10434441
000010 f3 b4 d9 3d c8 b5 74 3d ec 1d c8 bd 56 d4 51 bd
       0.106302164 0.059743673 -0.09771332 -0.05122789
000020 55 42 f6 3d 4e cb 6f 3e a7 c5 90 bd 03 c6 9d 3e
       0.120243706 0.23417398 -0.07068949 0.30815133
000030 50 2f fa bd a7 59 ff 3d d9 d7 9b 3d e2 c7 83 3d
       -0.122160554 0.12468272 0.07609529 0.06434609
000040 bd cc 99 bc 7d 6c c4 bd 99 46 8b 3d 29 6a 10 be
       -0.018774385 -0.09591005 0.06800575 -0.14102997
000050 f7 95 4b be 94 8a 10 bd c9 16 c6 bd 64 0a 8f be
       -0.19881426 -0.03528841 -0.09672315 -0.27937615
000060 07 e7 66 3e 85 d7 04 be 09 ce 53 3e 03 c3 60 3e
       0.22549067 -0.12972839 0.20684065 0.21949391
000070 f8 44 88 3c 8a eb b3 3d f4 83 5d 3d 63 1b 42 be
       0.01663445 0.0878516 0.05408092 -0.1895576
000080 43 2b 1f 3e 9d bc 68 be 0f 8a 66 3e 74 62 15 bd
       0.15543847 -0.227282 0.22513603 -0.036470845
000090 fd 9a 4b 3e e1 89 8a 3e 43 ef 3f 3c 71 47 b7 bd
       0.19883342 0.27058318 0.011714759 -0.08949173
0000a0 97 38 92 3e 35 0c f6 3c 97 1c aa be 06 84 c2 bc
       0.285588 0.030035118 -0.33224937 -0.023744594
0000b0 85 bb 63 be ca c2 e7 3d 4d 1e 16 3e d8 4d bf bb
       -0.22239502 0.1131645 0.14659996 -0.005838137
0000c0 f5 a1 f3 bc 35 42 02 3e d6 0c dc 3b 6e 64 b3 bd
       -0.029740313 0.12720568 0.0067153974 -0.0875939
0000d0 38 fb 0f be 80 29 1a 3e e5 4d 2c be 03 c2 1b be
       -0.14060676 0.15054893 -0.1682659 -0.15210728
0000e0 d0 ff 65 3b 0a a4 42 be b7 d9 2f 3d b3 e0 37 be
       0.0035095103 -0.19007888 0.04293224 -0.1795681
0000f0 1d 0c ef bd d0 c4 a4 3d 06 4d d2 3d 4b 1c 36 be
       -0.11672232 0.080453515 0.10268597 -0.1778423
000100 f9 77 ed 3d 7d 7c 24 be d8 29 9c bd 2d 32 19 3e
       0.115951486 -0.16063114 -0.076251686 0.14960547
000110 fd 08 4b 3e cb 0d 17 3e 90 ab 2a be 07 79 63 be
       0.19827648 0.14751355 -0.16667008 -0.22214137
000120 0e ac 42 bd 8a ee 3b 3e f0 8a 6c be f4 bd 3e 3e
       -0.047527365 0.18352714 -0.23099875 0.18627149
000130 24 cb 90 bd 99 83 08 be 04 cb 1a 3e 74 ec 95 be
       -0.07069996 -0.1333145 0.15116507 -0.29281962
000140 ac f7 34 3d 34 93 c9 bd 0e d8 b6 3d 6d 84 95 bd
       0.04418151 -0.0984253 0.08927928 -0.07300649
000150 de 0e 2c 3d b2 d9 ac 3d 91 64 4b 3d fb 60 02 3e
       0.042006366 0.084399596 0.049656454 0.12732308
000160 04 32 84 3e 8e ec 09 3d b7 29 4c 3e 15 81 62 3e
       0.2581941 0.03367286 0.19937788 0.22119553
000170 89 2a ee 3d 88 17 51 3d 5c 57 09 be 01 47 36 39
       0.11629207 0.05104783 -0.13412231 0.00017383324
000180 57 0f 40 3d bc e7 a3 bd 18 8c cd 3d 70 6e e4 3d
       0.04688963 -0.08003184 0.100364864 0.11153877
000190 00 8c 8b bb 41 65 bc 3d 9f 9b 15 be f5 b5 5c 3d
       -0.0042586327 0.09199 -0.14610146 0.053884465
0001a0 1e 58 11 3c ef 2c fd 3d c6 97 7d be 60 0a a7 3c
       0.008871106 0.12362086 -0.24764928 0.02039069
0001b0 b1 0d 42 be 86 e0 35 be b5 eb 28 be 5c d6 51 be
       -0.18950535 -0.1776143 -0.16496165 -0.20491928
0001c0 64 0f 12 be 6b de 2d 3e ed dc 92 bc 68 04 f6 bd
       -0.14263684 0.16979377 -0.017927611 -0.12012559
0001d0 13 19 0d be 07 67 15 3e b4 46 16 3d 49 1c 1a be
       -0.13779096 0.14590083 0.03668852 -0.15049852
0001e0 9f 4f 92 3d bc 58 57 bd 36 36 30 3c c4 7c e4 3d
       0.07144093 -0.052574858 0.010755112 0.1115661
0001f0 13 1e 3c be 48 ac 06 3e c2 bd 36 3e 41 82 bf bd
       -0.18370847 0.13151658 0.17845824 -0.09351016
000200 46 5d c8 bd d4 10 80 be a8 64 bb 3e 2a 8e 66 be
       -0.097834155 -0.2501284 0.36600232 -0.22515169
000210 f2 6b 94 3e bb 47 51 3d da f9 11 3c c1 d9 92 3d
       0.28988606 0.051093798 0.008909667 0.071704395
000220 de 69 19 3f df df a5 bd 51 54 a1 be 38 f3 a9 3d
       0.59927166 -0.08099341 -0.3150964 0.082983434
000230 af c6 e4 bb 10 85 50 bc b6 20 b7 be f3 e5 0a bd
       -0.0069816927 -0.012727037 -0.35767144 -0.033910703
000240 be 3f 6c be 60 e9 43 bc 23 cf 0a 3f 61 4d 26 bf
       -0.2307119 -0.011957496 0.54222316 -0.6496182
000250 ec 26 6a bc c3 40 1c 3f 4d 18 1a 3d e4 53 35 be
       -0.014291506 0.6103632 0.03762083 -0.17707783
000260 c9 71 f3 bd ba c5 96 be 29 27 2d 3e 7a 89 3c bf
       -0.11886937 -0.29447728 0.1690947 -0.7364727
000270 2b a5 02 bf 0c bf 14 bc 64 ba 33 3e 55 6c 23 bd
       -0.51033276 -0.009078752 0.17551571 -0.039898235
000280 c6 fb 85 3d f8 9e ad bd c3 fe e6 3d af 06 56 be
       0.065421626 -0.084775865 0.11279061 -0.20900987
000290 84 1e b4 bc 5b 19 98 3d cb f6 76 bc 05 39 14 be
       -0.021987207 0.07426711 -0.0150734885 -0.14474876
0002a0 cc af 54 bd 92 66 32 3e 4b 55 36 bc 86 3e 0d bd
       -0.051925465 0.1742194 -0.011128734 -0.034483455
0002b0 c0 09 48 be d1 1d b9 3b bb 42 07 3b c4 3e 29 be
       -0.1953497 0.0056493063 0.002063914 -0.1652785
0002c0 b9 88 2c 3d a2 8b 12 3e 98 66 a6 be e4 c5 02 3e
       0.042122576 0.14311078 -0.32500148 0.12770802
0002d0 fa ba a3 bc 91 4d 88 bb 92 7a 3e be 0e 7d aa bc
       -0.019986618 -0.0041596373 -0.18601444 -0.020811584
0002e0 56 74 05 bd 42 06 44 be 94 bf 8d 3e e0 0f 74 3e
       -0.03258165 -0.19143012 0.27685225 0.23834181
0002f0 2d aa ad 3d 8f 5c e6 3d e4 46 7d 3e 41 21 09 bb
       0.08479724 0.11248123 0.24734074 -0.0020924362
000300 46 aa 92 3d 49 d0 07 3d 5f 67 bb bd 12 d7 0d 3e
       0.07161383 0.03315762 -0.09150576 0.13851574
000310 3b 67 b0 3d cf 87 33 3d 34 4e 0b 3c ac 3a 6d be
       0.0861344 0.04383069 0.008502532 -0.23166913
000320 32 86 00 be 6e 4f 7b 3e e3 aa 59 be f1 c9 a1 3d
       -0.12551191 0.24542019 -0.21256594 0.078998454
000330 7d 7b 5d bd 8a 08 f8 3d 13 90 6b 3d 25 bf 28 bc
       -0.054072846 0.12111004 0.057510447 -0.010299479
000340 9b b7 03 bd 2b ab b3 bd 46 74 c8 bd 1d 74 19 be
       -0.03215752 -0.08772882 -0.097878024 -0.149857
000350 3c 14 38 bc 27 25 7e 3e f1 d3 f9 3c d8 10 41 bd
       -0.011235293 0.2481886 0.03049657 -0.047135204
000360 68 29 99 bd 23 e7 57 bb a3 c6 95 3e b5 2b f9 3d
       -0.07478601 -0.0032944165 0.2925311 0.121665396
000370 59 4b 35 be 2e ff 50 3e 91 ca c1 bd 79 1f ea 3c
       -0.17704524 0.20409843 -0.094624646 0.02857946
000380 47 dc 81 3e 80 47 e4 bd 5d fc 2e 3e 6c 36 da 3d
       0.2536337 -0.1114645 0.17088456 0.106549114
000390 54 c1 5e bd fc 41 f6 3d c3 ab d7 3d f0 dd 35 bd
       -0.05438359 0.12024304 0.10530808 -0.04440111
0003a0 b3 e6 6a bd 45 ba fa bc ae c5 f7 bd 6a a8 08 be
       -0.05734892 -0.030606398 -0.12098251 -0.13345495
0003b0 12 b2 a7 3d 04 d5 8e bd 93 71 af 3d fb 64 33 3d
       0.08188261 -0.06974223 0.085665844 0.043797474
0003c0 34 0a 2a 3d e1 97 19 3c bf f0 e2 bd 3b 76 d0 bd
       0.041513637 0.00937459 -0.11081075 -0.10178801
0003d0 59 60 82 be 8f e9 5b 3e a7 25 c3 bd 84 92 83 be
       -0.25464132 0.21475814 -0.09528666 -0.2569772
0003e0 85 73 06 3d 68 d3 2d 3d c9 0f eb 3d 70 6d 11 3e
       0.03282501 0.04243794 0.1147762 0.14201903
0003f0 d8 71 0e 3e 70 4e 22 3e 6b 59 c5 3c b8 b2 67 3e
       0.13910615 0.15850234 0.02409049 0.2262677

bias_ih_l0 f4 [128]
000000 a8 05 d7 3c 62 78 8d 3e cd 17 bc 3d 49 70 01 3e
       0.026247814 0.27630907 0.09184227 0.1264049
000010 54 79 e3 3e 2f f3 9d 3e 1f f7 4c 3e e2 06 1a 3d
       0.44428504 0.30849597 0.20016144 0.03760422
000020 39 74 87 3d d6 1b f1 3d c7 e6 ab 3e 14 c3 92 3e
       0.066139646 0.117728874 0.33574507 0.28664458
000030 61 24 e1 3e 36 67 4e 3e 38 46 24 3e 8b b1 2d 3f
       0.43973067 0.2015656 0.16042411 0.67849034
000040 ba b3 b2 3d a2 17 be 3e af eb fd 3c 38 ff 2e 3e
       0.08725686 0.37127405 0.030996172 0.17089546
000050 9f cf 36 3f cc b5 a7 3d 52 d4 cb 3e 93 ca 78 3d
       0.71410555 0.08188972 0.39810425 0.060740065
000060 69 78 c5 3e a1 09 02 3e 40 2a 61 3d f4 5d 85 3d
       0.38568428 0.12698986 0.054971933 0.06512061
000070 b2 c3 a4 bb 02 22 8c 3e 54 05 a2 3e 75 11 a5 3d
       -0.0050282115 0.27369696 0.3164469 0.0805997
000080 81 79 31 3d ff 0c d6 be 00 c1 92 be 2f ac 44 bd
       0.043328766 -0.4180679 -0.28662872 -0.04801577
000090 6e 12 24 bf 11 23 44 be 3c 28 b0 be 0c 22 86 be
       -0.6409062 -0.19154002 -0.34405696 -0.2619785
0000a0 f1 79 1f be 8c bd 81 bd 0e ba d3 bd b8 58 84 bd
       -0.1557386 -0.06334981 -0.103382215 -0.06462234
0000b0 cb 50 87 be 94 9b 8b bd b1 85 75 bd bd 01 4c bf
       -0.26428828 -0.068167835 -0.05994195 -0.7969015
0000c0 c6 02 2d bd 2a 87 33 be 25 06 30 bd bd 1c ce 3d
       -0.042238973 -0.1753203 -0.04297461 0.10064075
0000d0 80 a5 36 bf 8a 61 61 bd c0 51 93 be 45 64 27 bd
       -0.7134628 -0.05502466 -0.28773308 -0.04086711
0000e0 94 83 5c be 0a 69 e1 3d 7d aa f2 b8 09 2a 00 3e
       -0.21534568 0.11006363 -0.00011571215 0.12516035
0000f0 e0 66 0a bd 57 bd 16 bf d9 f4 0a bf a6 42 93 be
       -0.033789515 -0.5888266 -0.5427986 -0.28761786
000100 82 50 18 3e 64 8e e8 3d 96 11 65 bd 26 ad ec 3c
       0.14874461 0.11355284 -0.055924974 0.028891157
000110 61 33 c4 bd 99 89 8a 3b e9 20 d8 3d 13 98 f2 bc
       -0.09580112 0.0042278287 0.10553152 -0.02961353
000120 5c ed d8 3c 21 2f 77 3d 55 f0 ae bd b3 cd ad 3c
       0.02648037 0.06034768 -0.085419334 0.02121625
000130 41 02 e2 bd 3f 70 1e bd 59 48 61 bd ed e6 b0 bd
       -0.11035586 -0.038681265 -0.055000637 -0.086377956
000140 6a b7 a6 bd b7 6c c3 bd cb 8c 30 3e 9c 6b 1c bd
       -0.08140452 -0.0954222 0.17241208 -0.03818856
000150 13 50 87 3d 8c f8 98 3d 00 f1 d1 3d 6b 5c 08 be
       0.0660707 0.074692816 0.10251045 -0.13316505
000160 a9 67 00 3e b4 ee af bd 96 14 15 3d 53 85 54 be
       0.12539543 -0.08590451 0.036396585 -0.20753984
000170 2d e5 db bd 43 fa fc 3d 1d 2f cc 3c ba 08 9f bd
       -0.10737071 0.12352421 0.02492481 -0.07765336
000180 82 6f 6b 3e 47 98 75 3e e3 0a 07 3e ce 73 37 3e
       0.22991756 0.2398387 0.13187747 0.1791527
000190 66 70 18 3f d6 6e 84 3e 97 43 68 3e bb 29 90 3d
       0.59546506 0.2586581 0.22682033 0.070392095
0001a0 b2 04 4b bd 23 3a 2a 3e 44 3a dd 3d 29 83 66 3e
       -0.049565025 0.1662374 0.10802129 0.22510971
0001b0 ce c6 c5 3e 0d 2a 35 3e a7 dc 40 3e b9 92 5c 3f
       0.38628238 0.17691822 0.18834172 0.8616138
0001c0 06 d6 68 3e 50 62 98 3e e6 62 02 3e 2e a3 4c 3d
       0.22737893 0.29762506 0.1273304 0.049960308
0001d0 b3 7a 4c 3f e7 70 c9 3d 84 24 b9 3e 5d fc cc 3d
       0.79874724 0.098359875 0.36160672 0.10009072
0001e0 e5 32 2f 3e aa 39 2c 3e 44 b6 67 3e 94 58 80 bb
       0.17109258 0.16818872 0.22628123 -0.0039168093
0001f0 f1 dd 0a 3e 9e 4c f1 3e 1e 06 c0 3e c6 fd 74 3d
       0.13561226 0.47128767 0.37504667 0.05981233

bias_hh_l0 f4 [128]
000000 54 cd 93 bc 65 2e 94 3e 1c d2 2b bd 0b 66 93 3e
       -0.018042244 0.28941646 -0.041948423 0.2878879
000010 1e 8b 16 3f 97 4a 84 3d 4f c0 c9 3d 1f 55 5c 3e
       0.58806026 0.064595394 0.09851133 0.21516846
000020 98 e8 1a 3e 16 b4 90 3e f3 63 a2 3d 74 b3 25 3e
       0.1512779 0.28262395 0.0792922 0.16181737
000030 7a 45 4e 3e 1e de fd 3e b4 cf 4d 3e d6 c2 56 3f
       0.2014369 0.49583524 0.20098764 0.83891046
000040 fb 09 98 39 7b 48 ba 3e 72 7e 84 bd 19 a8 01 3e
       0.00028999135 0.36383423 -0.0646943 0.1266178
000050 d6 9d 5c 3f 5b 74 86 3e 3a 6f da 3e ed 09 00 3e
       0.8617834 0.26260647 0.42662984 0.12503786
000060 f2 1e 93 3e bb 17 e5 3d 7e 9c 03 3e fd c4 d8 bc
       0.28734547 0.11186167 0.12852666 -0.026461119
000070 ca 77 b1 bd 67 59 87 3e 5b 9d c5 3e fa ed 05 3e
       -0.08665426 0.26435396 0.38596615 0.13079062
000080 34 15 3a bd 58 b1 c8 be 6a 74 48 bd 2b 21 82 be
       -0.045430377 -0.39197803 -0.048939146 -0.2541593
000090 c8 42 aa be dd 15 eb bc 73 fd 4f be c0 48 d0 be
       -0.33254075 -0.028696949 -0.20311527 -0.40680504
0000a0 bb ae a9 bd 1c e2 f4 bd d5 f2 ac bd a3 d4 00 be
       -0.0828528 -0.119571894 -0.08444754 -0.12581114
0000b0 77 bd 88 be 34 8c 7d be 99 77 3c 3d 97 2d 3f bf
       -0.2670705 -0.24760514 0.046012495 -0.7467894
0000c0 86 30 31 be ff 14 79 be af 8f 6f bc 3b 29 a5 bd
       -0.17303666 -0.24324416 -0.014621659 -0.08064505
0000d0 67 ce 11 bf 84 0c 5f be c2 c3 02 bf c2 03 8d bd
       -0.5695557 -0.21782118 -0.5107995 -0.06885482
0000e0 c6 7d d6 be b6 54 4b be ba de 81 be a1 07 84 3d
       -0.41892833 -0.19856533 -0.2536524 0.064467676
0000f0 d3 fe 7d bd d1 b6 b5 be 05 49 d2 be 3b a8 61 3c
       -0.062010597 -0.3549104 -0.41071334 0.013773019
000100 21 be 09 be 19 f2 1e be ab c9 e9 3d a3 0d db bc
       -0.13451435 -0.1552204 0.11415418 -0.026739901
000110 62 b8 24 3e 2d b4 15 3d 5c 17 a5 bd 0a 89 8d 3c
       0.16085961 0.036548782 -0.08061096 0.01727726
000120 ad c3 2b 3e f7 46 08 bd e0 b9 2d 3d 78 bc 1d 3d
       0.16773863 -0.033270802 0.042413592 0.038509816
000130 a0 17 90 3d 6f 6f e3 3c ff e3 07 be e9 44 75 3d
       0.07035756 0.027763097 -0.13270567 0.05988017
000140 7f 03 3d 3c e5 7e 16 3e c5 6a c8 3d bc b9 28 be
       0.011536478 0.14696844 0.0978599 -0.16477102
000150 21 2c ba bd f5 4c 69 3c 5e 78 10 be 97 57 eb 3d
       -0.09090448 0.014239539 -0.14108416 0.11491316
000160 cc a1 e7 bd 31 ad a1 3c c4 3b 21 3d df d5 bd bd
       -0.11310157 0.019735904 0.039363638 -0.09269308
000170 97 6f c4 bd c0 d7 1e be 30 fb c4 39 ef cc d7 3c
       -0.095915966 -0.1551199 0.00037571182 0.026342837
000180 fa 44 eb 3d 9a 92 bf 3e 5d 6f c6 bc 4a 1c d0 3e
       0.114877656 0.37416536 -0.024223024 0.40646583
000190 2b af 31 3f bb ef 25 3e df cd d9 3e 8a 10 c3 3e
       0.6940791 0.16204731 0.4253988 0.38098556
0001a0 a6 1a d4 bd 36 1d 41 3e 1b d6 b2 3e f9 9f 9a 3e
       -0.10356645 0.188588 0.34928975 0.30200174
0001b0 db 00 cc 3e ca 7d bd 3e f2 95 dd 3d 1a 96 5e 3f
       0.39844403 0.37010032 0.108196154 0.86947787
0001c0 c3 c5 7b 3e 7c b1 24 3e 31 01 6e 3e 77 96 96 bd
       0.24587159 0.1608333 0.23242642 -0.07352918
0001d0 07 05 43 3f 4c 33 94 3e 07 6d 03 3f c7 43 6e 3e
       0.76179546 0.28945386 0.5133824 0.23268043
0001e0 a9 c4 b7 3e 04 4a 13 3e b8 6f 8e 3e 89 dd 15 3b
       0.35892227 0.14383703 0.2781961 0.002286764
0001f0 e0 85 cd 3b 37 76 ee 3e 77 db cd 3e e1 66 85 3e
       0.0062720627 0.46574566 0.402065 0.26055053

weight_ih_l0 f4 [128, 2]
000000 1b df d0 3d b7 3d d2 3d 5c 67 da bd 29 94 b9 3c
       0.10198804 0.102656774 -0.106642455 0.022653656
000010 0e dc a7 3c e9 33 9e bc c6 90 cf bd c9 e7 8e bc
       0.020490672 -0.019311862 -0.10135035 -0.017444508
000020 c7 b6 34 bd d6 d1 68 bd d0 ad f1 bc d0 00 11 3e
       -0.044119623 -0.05684074 -0.029501826 0.14160466
000030 c1 b3 e2 3c 00 39 46 3d f6 d7 95 bd ba 1c b0 bd
       0.027673604 0.048394203 -0.07316582 -0.08599229
000040 60 0d b1 3c 45 cd 5d bd 9f 54 ea 3c 7c 63 6c 3d
       0.021612823 -0.05415084 0.028604804 0.057712063
000050 80 79 bb bc 8c 5a b1 3d 87 d6 25 3c 2e 5b 06 bd
       -0.022885084 0.086598486 0.010121948 -0.0328018
000060 dd 01 95 bd db 84 bd 3d 2a 70 3c 3d 3a 54 db bb
       -0.07275746 0.09253856 0.046005405 -0.00669339
000070 b2 c5 e3 bd fd d3 01 3c 94 1e 7b bc b5 1d 05 3e
       -0.11121692 0.007924077 -0.015327115 0.12999614
000080 2f cd 7b bc 43 f9 e6 3d 03 60 1f 3d e7 1e f8 3d
       -0.015368744 0.11278012 0.038909923 0.12115269
000090 51 46 9e 3d be 2c df 3c 1b b3 e9 3c 88 16 bf 3c
       0.077282555 0.027243014 0.028527787 0.023326173
0000a0 89 49 b3 3d a7 f2 c4 bd 2d 3b 2a bd dc 3c 03 3e
       0.0875426 -0.09616595 -0.04156034 0.12816185
0000b0 ac f4 c2 bc d5 1d 03 3e ec 04 31 be 39 af 6b 3d
       -0.02379831 0.12804349 -0.17287034 0.057540152
0000c0 2e b5 08 3d 44 79 0e 3d a0 7c b5 bd 52 85 96 ba
       0.03337591 0.034783617 -0.08861661 -0.0011483824
0000d0 b8 fe 67 3d 33 b8 96 3d 41 d7 aa bd 09 30 f9 3d
       0.056639403 0.07359352 -0.08341838 0.12167365
0000e0 0a 48 02 bd 77 c5 91 3d 71 7c ae bd 0f d3 43 bc
       -0.031806983 0.071177416 -0.08519829 -0.011952176
0000f0 99 c5 3c 3e 79 64 47 3b 8f 1c 92 bd 0b 2c 03 be
       0.18434753 0.0030424877 -0.07134353 -0.1280977
000100 52 27 c8 bd 58 09 46 be 1f 71 bd bc 01 c8 a7 bd
       -0.09773125 -0.19339502 -0.02312523 -0.081924446
000110 bd f4 e6 3d ef 23 df bd c1 7f cd 3d d0 1a 5c 3d
       0.11277149 -0.10895526 0.10034133 0.053736508
000120 87 8e 95 3e 30 1c 03 be ce b6 7a bc 5c 47 d3 3c
       0.29210302 -0.12803721 -0.015302373 0.025790863
000130 f5 aa 6f bd 2c 3b 6c 3e b8 f5 a7 3d 48 5a 6e 3b
       -0.058512647 0.23069447 0.08201164 0.003636973
000140 a8 54 fc bd 39 3d 2a be 22 cb 3f 3e 9a a1 67 bd
       -0.123208344 -0.16624917 0.18729833 -0.0565506
000150 ee 35 11 3e d9 33 1f 3d e5 95 d0 bc 2d 33 3a 3d
       0.14180729 0.038867805 -0.0254621 0.04545896
000160 00 78 08 be 09 72 fe 3d 45 4e 58 be 01 27 00 3e
       -0.13327026 0.12424094 -0.21123607 0.12514879
000170 98 d2 81 3d d8 72 0a 3e 8e 8e 79 3e 22 24 80 3d
       0.06338996 0.13520372 0.24370787 0.06256892
000180 44 07 07 3e c6 b1 8d 3d dd 7e df bd 6e 94 3b be
       0.13186365 0.06918673 -0.10912869 -0.1831834
000190 cf 6d 55 3d 66 70 4b 3e 84 49 55 be 18 73 9c bd
       0.052106675 0.19867095 -0.20828825 -0.0763914
0001a0 dc bf 17 be e2 36 0a be 87 1c 2a 3e a1 4b 0e bd
       -0.14819282 -0.13497499 0.16612445 -0.034740094
0001b0 01 01 2c 3d 1e 28 01 3e 92 d1 23 be ec 72 78 bd
       0.041993145 0.1261296 -0.15997913 -0.060656473
0001c0 96 3f ac bd a2 43 80 3d bf cd ed bc 91 cb 94 bd
       -0.084105656 0.062629 -0.029028771 -0.0726539
0001d0 07 f4 52 bd 66 1c 7a 3d fb 69 f7 bd e4 5d ea 38
       -0.051502254 0.06106224 -0.12080761 0.00011175478
0001e0 69 c3 99 3e 17 00 f2 bd 09 c0 ff bc 9c f4 e3 3d
       0.300319 -0.118164234 -0.0312195 0.1113064
0001f0 f5 44 92 3e ba 6b bc 3d fd 12 30 be 3e 18 64 be
       0.28568235 0.09200235 -0.17194743 -0.22274873
000200 2c e0 a5 3d 63 1f db 3d e9 08 e1 bc e9 86 22 be
       0.08099398 0.10699346 -0.027470069 -0.15871777
000210 c2 a1 10 bd 1b 4f 07 be 98 dc 47 bd 7a d7 17 be
       -0.035310514 -0.1321377 -0.04879436 -0.14828292
000220 65 56 c3 bd 9b 84 ad 3d 35 7e 69 3e a5 6b ca bd
       -0.09537963 0.08472558 0.2280205 -0.09883813
000230 48 98 5e 3d 00 94 2b be cc 8e 91 3e 05 2c 33 bd
       0.054344445 -0.16755676 0.28429258 -0.043743152
000240 fe 92 ba 3e 73 e5 c4 3d 07 45 29 be bf ee 94 3e
       0.3644027 0.096140765 -0.16530238 0.290884
000250 93 bf 3f 3e 0b 60 1c 3e 9c 82 1e be e5 e3 c5 3d
       0.18725424 0.15271012 -0.15479511 0.09662608
000260 b9 93 b8 bd 6e 88 fd bd 22 f1 db 3e fe 49 79 3d
       -0.09012551 -0.123795375 0.42957407 0.06086158
000270 e1 a6 86 bd c3 59 24 be 3f e6 65 bd af e5 44 3e
       -0.065747984 -0.16049866 -0.056127783 0.19228242
000280 54 15 c1 3d 4f bc 6e bd e6 97 3c be 3a 08 d1 3d
       0.09427896 -0.058285054 -0.1841732 0.10206647
000290 f7 20 87 3d 31 ed 1d 3e 77 42 d4 3d 2b 08 21 3d
       0.065980844 0.15422513 0.1036424 0.03931443
0002a0 ef bc 50 bd ca cd a7 bd e0 28 83 bd d6 d6 85 3d
       -0.05096143 -0.08193548 -0.06404281 0.06535117
0002b0 fa a3 bd 3c fa ef 2b be a6 51 69 3e b5 0b 82 3d
       0.02314948 -0.16790763 0.22785053 0.06349889
0002c0 7c e4 8b 3e 3d c7 ad 3d 86 d9 f5 3c 36 17 6d 3e
       0.27322757 0.08485267 0.03001095 0.23153386
0002d0 2b 8e 6f be dd f9 6d 3d db fe bf 3d 41 77 c1 bd
       -0.23394077 0.058099616 0.09374782 -0.09446574
0002e0 7c ea a1 3e ec 10 7b 3d 0c c8 b0 3d 1f 8d 39 3e
       0.3162421 0.061295435 0.08631906 0.1812024
0002f0 c6 74 88 3e d7 8f 18 3d 9b 80 98 bc 80 2d 82 bd
       0.2665159 0.03724655 -0.018616011 -0.06356335
000300 79 03 25 bd 05 61 25 bd 2f bb 14 3d 25 38 aa 3d
       -0.040286515 -0.04037573 0.036311325 0.0831149
000310 5a 80 15 3e 12 9a 43 be b6 d5 07 3e 92 67 0e 3d
       0.14599743 -0.19101742 0.13265118 0.03476674
000320 c8 cf 9b bc ed a3 5d be cd f0 45 bd 08 6f a5 3d
       -0.019019976 -0.21644564 -0.04832535 0.08077818
000330 2f 98 89 bc bb 19 d9 3d 38 70 08 be 9e 5a fe bd
       -0.0167962 0.10600611 -0.13324058 -0.124196276
000340 0d c9 e8 bd 58 f3 3f bc ed d0 1e 3d 97 35 5b be
       -0.113664724 -0.0117157325 0.038773466 -0.21407162
000350 7b a4 3f 3e e8 53 b4 3d ae 81 9e 3d 30 28 46 bc
       0.18715088 0.08805066 0.07739578 -0.012094542
000360 3e 87 42 3e 05 8b 2d 3e 89 5b 63 be d4 54 b2 3d
       0.18996903 0.16947563 -0.22202887 0.08707586
000370 8a 85 4e 3d 7e 60 2f 3e cd e4 99 3d c1 b8 5f 3e
       0.05042032 0.17126653 0.075143434 0.21847822
000380 1f d5 36 bd 57 7f 61 3d 50 30 3b be 1e 51 ef bd
       -0.044636842 0.05505308 -0.18280149 -0.11685394
000390 96 ba 11 be 45 b3 c6 bc 4f 23 bb bb 54 a1 0f 3d
       -0.14231333 -0.024255404 -0.005710996 0.035065964
0003a0 7e 95 2f 3d e6 ef de bd 3e 5d 5d bd c0 14 f0 bb
       0.042867176 -0.10885601 -0.054044 -0.0073266923
0003b0 03 91 9b 3d 76 2c 18 3e 93 06 6c be ed be d9 bd
       0.07596018 0.1486071 -0.23049383 -0.10632119
0003c0 83 2c 86 3e 12 30 06 3e 4a 97 ec bd 53 a0 3a be
       0.26205835 0.13104275 -0.115522936 -0.18225221
0003d0 92 22 86 3c 9b b7 1a bd f6 5d 43 bd 8f d4 28 3e
       0.016373906 -0.037772756 -0.04769703 0.16487335
0003e0 fa 20 3a 3d b8 32 f2 3b 05 b7 f4 bc c9 51 a2 bd
       0.045441605 0.0073913 -0.029872427 -0.079257555
0003f0 ff ee 61 3e bb 7a 06 3e 29 da bf bd 3f 7b 8c be
       0.22063826 0.13132755 -0.093677826 -0.2743778

weight_hh_l0 f4 [128, 32]
000000 09 72 a5 bd 4d 32 61 bc 0e a6 51 bd 47 c3 83 3e
       -0.08078391 -0.013744903 -0.051183753 0.25734922
000010 14 52 b2 bd f7 0b da 3d 68 af ba bd a6 06 f8 bc
       -0.087070614 0.10646813 -0.09115487 -0.030276608
000020 15 03 4a be eb 4f 46 bd 93 65 41 3e ec cb 68 3d
       -0.19727738 -0.04841606 0.18886404 0.0568351
000030 6d e5 03 3e 7a 79 1a 3d cd 5a e0 bd f4 de e6 3d
       0.12880488 0.037713505 -0.10954819 0.11272994
000040 90 3e 0d 3e a3 db 33 be 59 96 a1 bc 94 77 52 3e
       0.13793397 -0.17564254 -0.019725012 0.20553428
000050 86 26 e6 3d 6d 67 17 bd b5 0a eb bd 7f 2d 72 bd
       0.112378165 -0.03696387 -0.114766516 -0.05912542
000060 f6 fd 2a be 20 15 1a bd 67 ed 2f be 0b 81 77 3e
       -0.16698441 -0.037617803 -0.17180406 0.2417032
000070 f6 1c fc 3d 4d a4 72 be 5c d4 0b be 0c a7 8d 3e
       0.12310211 -0.23695488 -0.13655227 0.2766651
000080 f9 b1 25 3d 85 f0 1d be 3b a4 c3 3d 0c 24 31 3c
       0.04045293 -0.15423782 0.09552809 0.010811817
000090 76 ed 18 be 29 89 05 bc 03 38 8e be 88 39 7a bd
       -0.14934334 -0.008150377 -0.2777711 -0.061090022
0000a0 10 7c f8 bc a1 06 82 bc 97 f6 c8 bd 3a e5 1e be
       -0.030332595 -0.015872302 -0.09812658 -0.1551713
0000b0 32 ab 96 3c ec 76 59 3e 60 98 96 bd c8 d6 8a 3d
       0.01839218 0.21236771 -0.07353282 0.067792475
0000c0 ed b3 af 3d 83 ef 68 bd c0 06 ac 3d 5f f2 82 3e
       0.0857924 -0.05686904 0.08399725 0.2557554
0000d0 ed 02 66 3e fc 43 2e be e4 7e ba 3d b2 eb 13 3e
       0.22462054 -0.17018121 0.09106234 0.1444538
0000e0 e7 46 0d 3e 1a 24 9f be 47 10 89 3c 5a c6 22 be
       0.13796578 -0.3108223 0.016731394 -0.15895978
0000f0 ac 8e a8 bb a4 ee db 3d 1a 43 7f bd ca 91 55 3d
       -0.005143961 0.107388765 -0.062319852 0.05214099
000100 c3 80 ee 3c 06 97 0f bc a5 6d dd 3d 88 df a3 3d
       0.029114133 -0.008764034 0.10811929 0.080016196
000110 40 37 59 be 4a d9 0a be 60 87 2a be f8 f4 ff bd
       -0.21212482 -0.13559452 -0.16653204 -0.12497896
000120 b0 96 81 be c6 3c 86 be 2e 58 28 be 6f bd 1c bd
       -0.25310278 -0.2621824 -0.16439888 -0.038266595
000130 e9 6b 47 bd ad 54 38 3e 97 0b f1 bd 33 7c a7 3d
       -0.048686896 0.18001051 -0.11769789 0.08177986
000140 9d f5 3a 3c cf df 5e 3d 73 27 03 be 96 b7 28 be
       0.011411098 0.05441266 -0.12808017 -0.16476282
000150 d6 76 37 3c c9 6c 59 bb b7 cb 3d be 7e 24 5f 3c
       0.011197766 -0.0033176413 -0.18534742 0.01361954
000160 9c 6e 4c bc 67 34 a2 be 2c 45 27 bd cc 06 09 bd
       -0.012477543 -0.31680605 -0.04083745 -0.033453748
000170 4b d7 26 be af 63 00 3e 19 4e 1b bd 48 29 9f 3c
       -0.16293065 0.12538026 -0.037916277 0.019428864
000180 d9 b7 51 3e 1c c4 0f bd 22 4e 4a 3e df a5 ac 3c
       0.20480289 -0.035099134 0.19756368 0.021075187
000190 87 c3 f1 bd 51 d7 dd bd aa a1 9b bd 98 c6 63 bd
       -0.11804872 -0.10832084 -0.07599194 -0.055609316
0001a0 f8 57 2a bc 27 c8 0d 3c 8c ae c2 bd 76 2e 9e bd
       -0.01039695 0.008653677 -0.095059484 -0.077237055
0001b0 ea d3 0b be 85 8f e3 bd 22 1d 85 be f0 fb 17 be
       -0.13655058 -0.111113586 -0.2599879 -0.148422
0001c0 57 ac 67 be 0d 37 67 bc dd ec 5f be 72 dd ce bd
       -0.22624336 -0.014112246 -0.218677 -0.10100831
0001d0 9a d7 00 3e 56 6c b2 3d 3c fe 41 bd c2 05 49 bd
       0.12582245 0.0871207 -0.047361597 -0.049077757
0001e0 7c 3b 50 bb c3 f2 e7 bc 80 b9 fd 3c 83 31 e3 3b
       -0.0031773737 -0.028314 0.030972242 0.0069333925
0001f0 db e0 0b bd 1a 4f b4 bd 19 2e 70 3c d2 ef 09 bd
       -0.034149986 -0.0880415 0.014659428 -0.033675976
000200 60 e4 06 3e c9 8a 02 3d ff 23 9e 3d 2d 4a ae bc
       0.13173056 0.031870637 0.077217095 -0.021275604
000210 33 ab a6 3c c4 b3 42 3d 4e 07 be 3c 1a 9d 21 be
       0.020345306 0.04753472 0.023196843 -0.15782586
000220 e9 1b a8 3d 4f fc 85 3d 01 c2 cc bd 99 b0 22 be
       0.082084484 0.06542265 -0.09997941 -0.15887679
000230 b5 7e 5a bd 59 f7 4a 3e 8c 78 0e 3a 70 64 54 3d
       -0.053343493 0.19820918 0.0005434833 0.051853597
000240 7b 74 85 be 9a df ca 3d ca 64 ce 3d 93 c5 db bd
       -0.2606543 0.0990593 0.10077818 -0.10731044
000250 3f f3 ee 3d a8 c0 0e 3e 74 b5 19 3d 83 be 77 be
       0.11667489 0.1394068 0.037526563 -0.24193768
000260 bf c8 28 bd e6 f7 16 3d d3 06 e4 bd 91 73 a6 bd
       -0.04120707 0.036857508 -0.11134114 -0.08127511
000270 3d ba c8 bd 8f 23 38 3e 47 8c ca 3d 52 2b 2b bd
       -0.09801147 0.17982315 0.09890037 -0.04178936
000280 b2 18 e0 3c 16 73 3e be e8 e4 1b bd b9 05 9e bd
       0.027355526 -0.1859859 -0.0380601 -0.07715935
000290 1d 83 3b be 09 93 15 3e 77 cf 05 be 25 48 8c 3e
       -0.18311734 0.1460687 -0.13067423 0.27398792
0002a0 7b bd 66 3e 02 83 9d be eb 7b 09 be 5e 82 bb 3d
       0.22533219 -0.30764014 -0.13426177 0.09155725
0002b0 08 cf f1 3c bf 83 11 bc fa 97 ec bc ca d4 ba bd
       0.029517666 -0.008881508 -0.028881062 -0.091226175
0002c0 74 0e 24 be 0d 09 1f 3d 97 6b 66 bd ef b7 b4 3d
       -0.16021138 0.03882699 -0.05625495 0.08824145
0002d0 10 93 fe bd 6e a8 1d bd fd 4b 24 be e4 31 bd 3d
       -0.12430394 -0.038490705 -0.16044612 0.092380315
0002e0 d7 fc f0 3d 19 c9 9b 3d 65 0d 24 3e 09 97 fb bc
       0.117669754 0.07606716 0.16020735 -0.030711668
0002f0 ad e4 69 3d 5a 06 68 be 20 c3 3a 3e 71 67 b4 3d
       0.057102848 -0.22658673 0.18238497 0.088087924
000300 80 d7 e0 3c f5 bb e6 3b 78 32 69 3e 96 b0 51 bd
       0.027446508 0.007041449 0.22773159 -0.051193796
000310 4d dc 4b bd 03 48 37 be f8 bc 56 be 87 46 59 3e
       -0.049770642 -0.17898564 -0.20970523 0.2121831
000320 cc ee 12 bd e6 f8 69 be cf 67 0f be 3f ca 14 3d
       -0.035872266 -0.22848853 -0.14004444 0.03632569
000330 3f 1b af bc af 69 0c 3e 9f 2b 00 be 7b fd 96 be
       -0.021375297 0.1371219 -0.1251664 -0.29490265
000340 65 29 d2 3c 39 99 db bd 82 1f e2 3c d1 e5 c4 bd
       0.025654504 -0.10722584 0.027602915 -0.096141465
000350 e4 da c5 3e be f0 49 bc 3d 17 20 be 3b 62 4f bc
       0.38643563 -0.012325464 -0.15633865 -0.012657697
000360 85 6a e8 3d af e6 71 be d3 48 6e bd e5 84 f9 3d
       0.11348442 -0.23623155 -0.05817492 0.12183551
000370 5a 0f fe 3d 2a 26 22 be 6f 9d 53 be 6f c5 23 3e
       0.12405272 -0.15834871 -0.20665525 0.15993284
000380 ef 30 ec 3c 1b f1 d9 3d fb 79 cc 3c f0 ce 14 3d
       0.028831927 0.1064169 0.024960509 0.036330163
000390 83 d2 b6 3d 5c 79 9d be ad 5f 8c 3d f0 72 26 3d
       0.08926871 -0.30756652 0.06854186 0.040636957
0003a0 eb 7b 07 bc d0 15 69 be 06 9f 25 be 15 f9 87 3e
       -0.00826929 -0.22762227 -0.16173944 0.26557222
0003b0 88 8f 9b 3e 68 18 ea bd 09 6b 03 3e 24 1b ff bb
       0.30382943 -0.114304364 0.128338 -0.007785218
0003c0 3b d7 a0 bd e2 d2 79 bc 15 30 ee bd f5 cc ab bd
       -0.07853552 -0.015248032 -0.11630265 -0.08388702
0003d0 21 6e e6 bc 63 db 05 bc 8d 47 d2 bd 51 bb 07 be
       -0.028128685 -0.008169982 -0.102675535 -0.1325505
0003e0 3d 45 e9 bd be 1d 87 3c 53 6e b1 3d dc a1 d1 3c
       -0.11390159 0.016493674 0.08663621 0.025589876
0003f0 b3 74 43 be 5e 6e 14 bb 41 bc 42 3d 81 1f 2f 3e
       -0.19087486 -0.0022648792 0.047542814 0.17101862

bias_ih_l0 f4 [128]
000000 27 14 c6 bd 50 58 f4 bd 20 8e 06 3d ff 94 42 3d
       -0.096718125 -0.11930907 0.032850385 0.047505375
000010 22 42 83 3c 99 45 c9 3d b6 f1 08 3e 6b 4c a6 bd
       0.016022746 0.09827728 0.13373455 -0.08120044
000020 3a 52 8d 3c 86 70 05 3d 39 a9 1f be c8 71 17 be
       0.017251123 0.032578014 -0.15591897 -0.14789498
000030 55 f7 ad bc df fb 29 3e e5 27 33 be c3 ae 9e bc
       -0.021236101 0.16599987 -0.17495687 -0.019370442
000040 bc 4a ea 3c 70 8e f9 3d ca 00 17 3e e5 65 2a be
       0.02860009 0.12185371 0.14746395 -0.16640432
000050 cc 42 cd 3d 1c 20 67 bd fb 57 32 be ea 82 51 bd
       0.10022506 -0.056427106 -0.17416374 -0.05115024
000060 93 d2 28 3d c3 18 53 3c cc c4 4b 3d 4e f9 72 3b
       0.041216444 0.012884322 0.049748227 0.0037074867
000070 bb d5 0b 3e 75 69 d3 3d 03 d8 0a 3e 72 cd 97 bd
       0.1365575 0.10322849 0.13558964 -0.074122325
000080 57 3e 2b 3e 79 a8 c6 bd 34 a3 c5 bd 92 c3 ea bd
       0.16723 -0.09700102 -0.09650269 -0.11463083
000090 fd 1c 28 bc 0b 02 1c 3e 69 a1 06 3d 47 28 81 3e
       -0.010260818 0.15235154 0.032868776 0.25226042
0000a0 0f 5e 86 3e d0 89 44 3e 4a ea b9 3d e4 92 5c 3e
       0.26243636 0.19193196 0.0907789 0.2154041
0000b0 86 c4 a4 bd d6 63 69 3e b6 2b 23 3d ba bc 3a bd
       -0.08045296 0.2279199 0.039836608 -0.04559014
0000c0 f8 a8 ba bd 82 d3 66 3e da e9 7f 3e 3f 3b 28 3e
       -0.091142595 0.22541621 0.24991551 0.1642885
0000d0 49 cd b1 3c a6 96 24 3e 47 11 c1 bd 76 3d 9a 3d
       0.021704333 0.16073093 -0.094271235 0.07531254
0000e0 83 10 26 3d ad 69 01 3e 1f 8f c6 3d a7 ab 6a 3e
       0.04054309 0.12637968 0.09695267 0.22917043
0000f0 65 69 7b bd 98 ff d2 3d 28 b0 da ba 65 b6 15 bd
       -0.06137981 0.10302657 -0.0016684579 -0.036550898
000100 83 c9 b6 bd 50 b7 07 3d a5 1d 42 3e d2 73 1b be
       -0.08925154 0.033133805 0.18956621 -0.151809
000110 35 01 30 3d 3f 40 25 3d 05 09 3c 3e 0f bf c7 3d
       0.0429699 0.040344473 0.18362816 0.097532384
000120 62 95 f0 3d db f9 e3 bc f6 e2 98 3d 9d 1d 91 3d
       0.117472425 -0.027829101 0.07465164 0.070857264
000130 89 cc a6 3d 4c 25 40 bc 43 e4 8a 3d 8c 98 ce bd
       0.08144481 -0.011727642 0.06781819 -0.1008769
000140 88 7b 27 be 77 0d bd bd 53 3d 3a 3e 82 b8 15 be
       -0.16355717 -0.09231084 0.18187456 -0.14621165
000150 d8 61 68 3c a1 53 3c be f7 6f d0 bd 5e d6 52 3e
       0.014183484 -0.18391277 -0.101776056 0.20589587
000160 3f 2d 42 be fe e2 c5 bb a2 dc b3 3d 89 f5 21 bc
       -0.18962573 -0.0060390225 0.08782317 -0.0098852
000170 4e 07 2d bd 68 8b 96 bd e4 95 d7 bd a6 7a 5f 3d
       -0.042243294 -0.073508084 -0.10526636 0.054560326
000180 ef 71 9a bc ee a9 4c 3e fb 2a 1b 3e 23 47 a7 3d
       -0.018853156 0.19986698 0.15153114 0.08167865
000190 34 00 51 3e 16 f3 7d 3e ca 93 b8 3e 1b 19 ab 3d
       0.20410234 0.24799761 0.36050254 0.08354398
0001a0 84 cb 82 3d c3 a4 58 3e 02 02 1b 3d 32 c2 a8 bd
       0.06386474 0.21156602 0.03784371 -0.08240165
0001b0 51 fc db bd 02 93 78 3e d2 f4 da 3d 8e 5e e9 3d
       -0.10741485 0.24274829 0.10691227 0.11394988
0001c0 77 66 d9 3d 6d 1e 35 bd 60 8d 81 3e c3 72 94 3d
       0.10615247 -0.04421847 0.25303173 0.072484516
0001d0 f3 a4 96 bd d3 a2 49 3e db 63 b9 3a 24 48 76 bd
       -0.0735568 0.19691019 0.0014144139 -0.060127392
0001e0 3a f3 80 3e d0 1b 0f 3d 75 0c 64 3e 21 ce 70 3b
       0.25185567 0.034938633 0.22270377 0.0036743956
0001f0 c2 f7 5d bc 05 a8 b1 3d 98 5c 1f 3e da 2d a1 3c
       -0.01354784 0.08674625 0.15562665 0.019675184

bias_hh_l0 f4 [128]
000000 39 7f 07 3e fc 8a 0f 3e 91 65 17 bd de ad f8 bd
       0.13232125 0.14017862 -0.036962096 -0.121425375
000010 96 65 e1 3d bf 6b 3e 3e 87 2f e7 bd 7e 77 bb 3c
       0.11005704 0.1859579 -0.11288362 0.022884127
000020 14 76 c4 3d 8c 71 d6 3d da 44 49 3d 1d 47 79 3d
       0.09592834 0.10470876 0.049137928 0.060858835
000030 ae 87 a9 bc ff 7d 33 3e 16 86 5e 3d d0 dc 01 3d
       -0.02069458 0.17528532 0.054327093 0.031704724
000040 69 e2 b7 bc 99 06 2f 3d e3 60 6a 3d 35 70 58 be
       -0.022446828 0.0427309 0.057221305 -0.21136554
000050 31 a2 d7 3d 60 1e 59 3d 2d 36 f6 3d a2 3c ff bd
       0.105289824 0.053007483 0.12022052 -0.12462737
000060 36 b8 86 bd f2 eb 8f bd dd 36 65 3c af 5f bd bd
       -0.06578104 -0.07027425 0.013990131 -0.09246766
000070 2c 4c 26 3e 01 7f 02 3e 3f 39 ab bb 70 f0 38 bd
       0.16239995 0.1274376 -0.00522533 -0.045151174
000080 d5 42 07 3d 60 fa fd 3d 74 a3 e0 3c 2d 7e 27 bc
       0.03302272 0.12401271 0.02742169 -0.010222954
000090 59 af 1e 39 fb cc 6d bc b2 ce b8 bd 62 76 1a bd
       0.00015133376 -0.014514203 -0.09023799 -0.037710555
0000a0 8b eb 4f 3a 2d dd 58 3c 18 c9 1a 3c 92 8f e0 3d
       0.0007931522 0.013236326 0.009447359 0.10964884
0000b0 7b 42 83 3d f3 cb 76 3e d9 cf ee bd 96 c4 f4 bd
       0.064091645 0.24101238 -0.116607375 -0.11951558
0000c0 40 f4 c1 bc b8 0d 0e bd 60 dc d6 3d 08 8e bb bc
       -0.023676038 -0.034681052 0.10491252 -0.022894874
0000d0 4b 31 67 3c cc ba ab 3d 0c 1e 4f 3d d2 fd 93 bd
       0.014110873 0.08385238 0.050565764 -0.07226147
0000e0 3d 13 85 3d 36 65 2f 3e 1d a0 fb 3b 11 5a 27 3c
       0.0649781 0.17128453 0.007678999 0.010214345
0000f0 b2 5b 0c 3e 8d c6 b6 bd 51 3a f8 bd 81 c5 0f 3e
       0.13706854 -0.08924589 -0.12120498 0.14040186
000100 39 65 b8 3d f6 34 51 3d 09 b2 5f 3a a0 f4 f2 bd
       0.09003682 0.051075898 0.0008533304 -0.11863065
000110 c3 85 ee 3d a3 c7 24 be ea 83 a8 bc e3 5f c6 3d
       0.11646607 -0.1609178 -0.020570714 0.09686258
000120 0b b2 12 be 63 81 47 3e 41 09 e0 b9 66 76 36 3e
       -0.1432573 0.19482951 -0.00042731504 0.17818603
000130 3b 64 2e 3d 02 7d 7a 3d 22 fd 37 3d 56 2d c1 3b
       0.042576056 0.061154373 0.04491914 0.005895297
000140 a3 e5 98 bd 00 84 a1 3d 7b 85 cf bd dc 46 45 bd
       -0.07465675 0.07886505 -0.10132881 -0.04816328
000150 9f 77 7a 3d 3d a3 11 be d1 30 f4 3c 8a f7 10 3e
       0.061149236 -0.14222427 0.029808434 0.14156929
000160 9e 7b 00 be 91 b1 5d 3e 7f 56 ee bd 3e da cc 3b
       -0.12547156 0.21649767 -0.116375916 0.0062516024
000170 d5 8c 43 be b1 b6 e5 bd 3c 45 f5 3d 35 01 00 be
       -0.19096692 -0.11216486 0.11976096 -0.1250046
000180 5f 6c 7b 3e 28 0f 34 3e 56 a2 50 3d d5 11 3d be
       0.24553059 0.17583907 0.050936066 -0.18463834
000190 bd 50 fd 3c 2a bb 85 3e 05 39 92 3e 16 0b 21 3e
       0.030922288 0.26119357 0.28559127 0.15726885
0001a0 4d 02 db 3d 9c ac 65 3e 66 a8 8a bc 76 70 7c bd
       0.10693798 0.22429127 -0.016926002 -0.06163069
0001b0 5a d8 cb bd 1f b4 d0 3d ad cc 30 3e 4c 37 5d 3e
       -0.09953375 0.10190605 0.17265578 0.21603125
0001c0 5c 2c 82 3e 01 1d 68 3c 16 98 fe 3c 00 a5 6c 3d
       0.2542447 0.014167071 0.03107838 0.057774544
0001d0 a1 cd b9 bd 82 20 de 3b cc 6c fa 3d 90 17 68 3e
       -0.09072424 0.0067787776 0.122277826 0.22665238
0001e0 6d d5 01 3e 71 a1 24 3e 0c db 34 3c 69 9c 41 3e
       0.12679072 0.1607721 0.011038553 0.18907322
0001f0 c1 20 86 3e c8 a1 1d 3e bc c1 a4 3d 20 d2 ac 3d
       0.26196864 0.15393746 0.080447644 0.08438516

weight_ih_l0_reverse f4 [128, 2]
000000 2d fc 2e be fb db 97 be a5 38 d5 3e 27 0a 33 be
       -0.17088385 -0.2966002 0.4164478 -0.17484342
000010 fc 9d 79 be 8f 08 d0 be 86 62 b2 3d c4 4a d3 be
       -0.24376673 -0.4063153 0.08710198 -0.4126798
000020 fb 96 f0 bd aa 7f 43 be 81 58 49 3e a7 80 21 bf
       -0.11747547 -0.19091669 0.19662668 -0.6308693
000030 4f 93 91 3d db 53 2f 3e 30 13 29 3e 5e c8 b2 be
       0.07108175 0.17121832 0.16511226 -0.34918493
000040 98 38 57 be 54 a9 21 bf c3 ad 40 be d4 6c ff 3e
       -0.21017683 -0.63149 -0.18816285 0.49887717
000050 e6 6c 97 be ad 8d 95 3d 62 29 23 3f 5e 24 7f bd
       -0.2957527 0.07302413 0.6373502 -0.06229054
000060 23 1c 00 be c0 b8 75 3d fe e7 08 be 14 2a 13 3a
       -0.12510733 0.059990644 -0.13369748 0.0005613875
000070 8e 80 8b 3e ee f7 b3 bc 79 f4 1a 3f 2f 62 bc 3e
       0.27246517 -0.021968808 0.60529286 0.36793658
000080 a6 47 b3 3c 16 6e 8c be f6 6b c3 3c 31 a7 79 3e
       0.02188475 -0.2742774 0.02385519 0.24380185
000090 d7 ab fd bc 79 d5 57 be d0 e5 74 be 58 6d ff 3d
       -0.030965729 -0.21077527 -0.23915792 0.124720275
0000a0 b6 c4 d7 be f1 68 96 3d 78 77 ab be 06 d7 2c 3f
       -0.42142266 0.07344235 -0.33489585 0.675156
0000b0 50 a4 fa be 72 54 b7 3d 54 f3 af 3e e3 d3 1a be
       -0.48953485 0.089516535 0.34365332 -0.15119891
0000c0 07 ce a7 be 8b 64 09 3f bc 84 20 bf e3 f8 e8 be
       -0.32774374 0.5366904 -0.62702537 -0.45502385
0000d0 47 76 b0 bd ee 9b 10 3e 15 3f 4b be 88 8d 0a 3f
       -0.086163096 0.14121982 -0.19848283 0.5412221
0000e0 6a 2f c4 3e 7d 58 ef bd 85 f1 f5 bc f3 e4 7f 3e
       0.38317424 -0.116868 -0.030022392 0.24989681
0000f0 9e 94 32 be 1e 9b 91 3d c1 78 d5 3d 53 f9 9b be
       -0.17439505 0.071096644 0.104234226 -0.30463657
000100 29 2d b6 be 78 3e 80 3c 66 b4 d6 3e f2 6c ab be
       -0.3558133 0.015654787 0.41934508 -0.33481556
000110 88 2e 21 be 1a 91 52 be 54 80 df bd aa b6 00 bf
       -0.15740407 -0.20563164 -0.109131485 -0.50278723
000120 46 2b d6 bd 4f 3e 22 be 2c ad a7 3e 2b 88 17 be
       -0.104574725 -0.15844081 0.32749307 -0.14798038
000130 2b 80 3c be 86 a9 73 3e 00 0c 4e 3e 52 3d 04 be
       -0.18408267 0.23795137 0.20121765 -0.12914017
000140 7c f1 29 bc 9d 5b 67 be 30 a8 41 bd b5 1a e4 3d
       -0.010372516 -0.22593541 -0.047279537 0.111379065
000150 10 8e 30 bd 9c 1f b5 bd fb c2 94 3e 96 25 27 bd
       -0.04310423 -0.0884392 0.29055008 -0.04080733
000160 69 a5 68 3c 39 20 23 3e 19 59 21 bd 23 71 b5 bc
       0.014199593 0.1593026 -0.03939161 -0.022148674
000170 d4 76 27 3e de 9a 29 be 53 be cb 3e 2e 64 8e 3e
       0.16353923 -0.16562983 0.39793643 0.27810806
000180 b1 0b 53 3d 57 ca ab be 80 c1 00 3c 97 eb b1 3e
       0.05152482 -0.3355281 0.007858634 0.34750053
000190 df 59 3b ba 77 29 ef bd b9 c4 59 be 8f 34 a2 3d
       -0.0007146876 -0.11677831 -0.2126645 0.07920181
0001a0 f0 cb 3f be 87 da e7 3d d8 81 81 be 71 e7 94 3e
       -0.1873014 0.11320978 -0.25294375 0.29082826
0001b0 34 e6 ce bd 62 b7 cd bd 74 fe 13 3d 29 f2 76 be
       -0.101025015 -0.10044743 0.036131337 -0.24115814
0001c0 0b 07 9d bd b1 bb e8 3d 8e 6b 60 be ed 3e 97 be
       -0.07667359 0.11363924 -0.21916029 -0.29540196
0001d0 64 88 58 bc 2c ab e9 3c 7c 41 5e bd bc 65 8f 3e
       -0.013216112 0.028524004 -0.05426167 0.28007305
0001e0 9e 35 54 3d 18 a2 7b 3d 03 c3 1a 3e 16 2d 13 3e
       0.051808946 0.06143388 0.15113454 0.14372668
0001f0 f8 e3 c3 bd 00 da cc 3d 06 d2 47 3e a4 c7 8c be
       -0.09564966 0.10002518 0.19513711 -0.27496064
000200 f5 d7 ca be 56 81 68 bd ab 37 81 bc fb 2c bf 3e
       -0.39617887 -0.05676397 -0.015773615 0.37339005
000210 57 7b d4 3d 30 18 82 3e 29 8c 62 be ba c8 80 be
       0.10375088 0.2540908 -0.2212378 -0.25153142
000220 4b e4 98 3e ba 42 1a 3f dc 9c d3 3e 8d ad 8c be
       0.29861674 0.60258067 0.41330612 -0.2747616
000230 fe e1 70 bd c7 5a b1 be d9 4e 23 bf 20 67 c2 3e
       -0.058809273 -0.3463957 -0.63792187 0.37969303
000240 22 5e 80 bd a9 71 9a be c9 fa 72 be 8e 9d fa 3e
       -0.062679544 -0.3016484 -0.2372848 0.4894833
000250 52 8a a3 3e f9 3a 8b bc 9d 8b 38 3f e7 87 55 bc
       0.31941468 -0.016995894 0.7208803 -0.01303289
000260 80 3c 73 3e 31 f9 36 3c 84 9d 8a 3e a0 cc af 3e
       0.23753548 0.01116781 0.270733 0.34335804
000270 7c 01 09 3d 58 5a a5 be ff 99 a0 3e d7 d1 4c 3e
       0.03344868 -0.3229549 0.3136749 0.20001923
000280 e4 3b 01 3e 2a ad 28 3e 96 e8 3c 3e d5 e8 15 3f
       0.12620503 0.16472307 0.184481 0.585584
000290 3d e0 9d 3d 14 1c f2 be 69 11 26 bf 1e dd 53 3e
       0.07708786 -0.47287047 -0.64870316 0.20689818
0002a0 cf 62 00 bf 1f 45 59 3d 21 bf 8f 3e 39 76 09 bf
       -0.5015077 0.053044435 0.28075507 -0.5369602
0002b0 5c 77 f8 be 6f be 2e 3d 3a 2a 0c 3d 63 71 3e 3e
       -0.48528564 0.04266208 0.034219958 0.18597941
0002c0 41 de b1 be f3 9c 1f 3f b1 f9 01 3f b8 33 0f 3f
       -0.3473988 0.6234886 0.50771624 0.5593829
0002d0 21 58 e4 bd 54 0d 98 be 87 1f c1 bd 41 95 8a be
       -0.11149622 -0.2969767 -0.094298415 -0.27066997
0002e0 d7 89 36 bf 99 3f e3 3d 02 5b cd 3e 33 b4 14 3c
       -0.71304077 0.11096115 0.40108496 0.009076166
0002f0 13 b5 33 3e 15 94 03 be d1 c9 9c 3e db cd 6c be
       0.17549543 -0.12849458 0.30622724 -0.23125403
000300 57 4b b3 3c 1e e2 96 bd 1f 07 91 3e 3c 30 99 be
       0.02188651 -0.07367347 0.28325745 -0.29919612
000310 72 3b 84 be 9d 1f b1 be da 2e 9f be 19 16 5d be
       -0.25826603 -0.34594432 -0.31090432 -0.21590461
000320 61 44 80 bd fb 19 a9 3d 8b 2c 4d 3e 8d 0e 50 be
       -0.06263042 0.082569085 0.20036523 -0.2031805
000330 36 8d 78 be 79 cb 82 3d e5 32 82 3e 5e 85 9d be
       -0.24272618 0.063864656 0.25429454 -0.30765814
000340 d8 cb a4 be 8f 53 fc be f7 a6 3a be e7 1f 28 3e
       -0.3218677 -0.492825 -0.18227755 0.1641842
000350 da e2 5b 3e 1a 3f f7 3c 24 14 07 3f f6 3b 5c bd
       0.21473256 0.030181456 0.5276511 -0.05376812
000360 a9 67 3b 3e af de c1 be 5c ab 28 be 35 75 ba bd
       0.18301262 -0.37865207 -0.16471618 -0.09104387
000370 a7 57 8a 3e 9f 29 94 bd fc 13 62 3e b7 35 26 3d
       0.27019998 -0.07234501 0.22077936 0.04057857
000380 7d 6c 94 3d b0 6f 18 3e ae 6c 9c 3e b6 6e 94 3d
       0.07247255 0.14886355 0.30551666 0.07247679
000390 1a 7b 75 bb 6d 39 93 be 1a d8 a0 be c2 ba 4d 3e
       -0.0037457407 -0.2875475 -0.31414872 0.20090774
0003a0 59 f9 b0 be f8 9e a4 be 98 01 d8 be 28 3e 6c 3f
       -0.34565237 -0.32152534 -0.42188716 0.9228234
0003b0 cf b8 4f be fb e8 30 be b9 28 dc bd 00 22 8d bd
       -0.20285343 -0.17276375 -0.10749955 -0.068912506
0003c0 5f c7 5c be 43 57 2d 3f 95 7c 7f be 81 87 e3 be
       -0.21560429 0.67711276 -0.24949868 -0.4443932
0003d0 82 29 d6 bd 0b 67 d9 3e 7a 6f d5 bd f1 57 a4 3e
       -0.10457136 0.42461428 -0.10421653 0.32098344
0003e0 52 2f 08 3f 82 c6 24 be 96 81 28 bd c5 c3 b0 39
       0.53197205 -0.1609135 -0.041139208 0.00033715196
0003f0 b0 24 90 be a9 55 21 3e 34 35 c9 3d 74 8b bc be
       -0.2815299 0.15755333 0.09824601 -0.36825144
