TS-CVAE/experiments/EOT/models/models_24_Jul_2021_19_35_18_eot/model_registrar-120.pt (torch_old, 552549 bytes, 43 tensors)

weight_ih_l0 f4 [128, 6]
0.17965923 0.5303226 -0.33992162 -0.20828111 -0.052202888 0.0076961815 -0.24515241 -0.33759436
0.040210195 0.054869805 -0.043035146 -0.14139414 -0.17884716 -0.06470988 0.04370207 -0.07389491
-0.09450364 0.16924499 0.42392418 0.27795798 -0.14291836 -0.35277045 -0.015565893 0.09171176
-0.6962789 -0.269207 0.3306044 0.28090283 0.03504358 -0.11086375 0.05359792 0.10969153
0.52686995 -0.22728851 0.42067087 -0.5879659 -0.60132116 0.33276927 -0.03579049 -0.4088831
-0.091479205 0.11566654 -0.28165346 0.59072614 0.11051458 -0.28280205 0.024224782 0.15755601
0.34139284 -0.578951 -0.025737494 0.38070446 0.014468083 -0.03706708 -0.20083688 -0.3195485
0.008753979 0.2393348 0.0120377485 0.13376735 0.1526683 0.40546602 -0.2534668 -0.47804418
-0.13659276 -0.20309494 -0.028838849 0.20970516 -0.26031741 0.0038658748 -0.029224856 0.054434877
-0.30345893 -0.4835427 0.13481115 0.6690798 -0.40350637 0.06327031 -0.4422036 0.24508102
0.21716774 0.021532662 0.07220566 0.07500206 -0.18242955 -0.24589598 -0.2589204 -0.088204205
-0.21091335 0.20019647 -0.6200388 -0.12814246 0.20050764 0.17280604 -0.003005997 0.082281366
-0.25375146 0.21777633 0.16357812 -0.122133166 0.29507127 -0.14701042 0.060398087 0.21383864
-0.37456116 -0.19779235 0.06439221 -0.03615134 -0.14725049 0.4649167 0.14726712 -0.42029214
-0.024277994 -0.1800462 -0.17753193 -0.33398938 -0.47060025 0.25163946 0.057609517 -0.043185834
-0.3819663 0.015659345 0.13709307 0.009427801 0.11145129 -0.044227254 0.040801715 0.19091225
0.023498122 0.49033052 0.0027650753 0.24578078 0.25866103 -0.5114217 -0.3689329 0.08740577
0.06582347 -0.049838163 0.04469799 -0.07263757 -0.046169322 -0.043910567 -0.034341052 -0.0065239263
-0.011420515 -0.15364671 -0.049681693 0.050798453 0.016236547 -0.024357753 0.14388612 -0.06296438
-0.165185 0.11664487 -0.10130644 -0.026084445 0.17389141 0.012806991 -0.15788053 0.0500797
0.06264854 0.12856014 0.33169734 0.095522024 -0.01571473 0.08874992 -0.0029406107 0.24624455
0.058598064 0.26193956 -0.2691678 -0.009958928 -0.09240982 0.11284171 0.054711115 0.16036251
-0.50539833 -0.027974743 -0.5615769 0.012314814 -0.34986693 -0.3904633 0.4105377 0.22768141
-0.13547243 -0.19785644 -0.09706701 -0.36601302 0.0028938581 0.32096797 0.06791566 0.07642809
-0.083576895 0.22906893 -0.34595853 -0.22664694 -0.09227594 -0.1712875 0.17055035 0.027574288
-0.08740078 -0.070088 0.072767474 0.0028391567 0.07876131 -0.035719827 0.05204918 0.030677062
-0.032938935 -0.028466586 0.1969268 -0.06730606 -0.14133236 -0.23428528 0.049816318 -0.049488254
0.08812307 -0.14152278 0.3362076 0.18909979 -0.055841133 0.11562026 0.09152262 -0.24637195
0.4978876 -0.22213258 0.039289135 0.20245838 0.21533276 -0.12412282 0.07199044 -0.1503337
-0.037610497 -0.2325396 -0.03154797 0.031775646 0.13061886 -0.17898972 0.038922075 -0.23917906
0.2245523 -0.22573353 -0.21842027 0.2291669 -0.1861792 0.28032786 -0.18912102 -0.18804185
0.14683549 0.2622134 0.043606576 -0.005978828 0.23481296 -0.17863016 0.036933973 -0.20455715
00000000: 97f8 373e 39c3 073f 350a aebe a547 55be
00000010: b2d2 55bd 4030 fc3b 3c09 7bbe 2bd9 acbe
00000020: 72b3 243d 29bf 603d 9f45 30bd a0c9 10be
00000030: b623 37be 9d86 84bd f100 333d 3756 97bd
00000040: 208b c1bd 8f4e 2d3e 970c d93e 8250 8e3e
00000050: 3159 12be 549e b4be 1608 7fbc 60d3 bb3d
00000060: 563f 32bf 80d5 89be fb44 a93e 7fd2 8f3e
00000070: db89 0f3d 890c e3bd 7e89 5b3d f4a5 e03d
00000080: f3e0 063f 52be 68be 2c62 d73e ef84 16bf
00000090: 2ff0 19bf bc60 aa3e 0d99 12bd 2059 d1be
000000a0: 7359 bbbd 94e2 ec3d e234 90be d439 173f
000000b0: 7855 e23d 6ecb 90be 0d73 c63c 5d56 213e
000000c0: 0bcb ae3e 2236 14bf 70d7 d2bc b2eb c23e
000000d0: 8a0b 6d3c a7d3 17bd 2fa8 4dbe dc9b a3be
000000e0: d96c 0f3c 2f14 753e fa39 453c 4ffa 083e
000000f0: 1455 1c3e 3e99 cf3e 67c6 81be 35c2 f4be
00000100: f9de 0bbe 1ff8 4fbe 733f ecbc f3bc 563e
00000110: 5348 85be 9e5a 7d3b f768 efbc 1bf7 5e3d
00000120: f85e 9bbe e992 f7be ef0b 0a3e d048 2b3f
00000130: 6398 cebe dd93 813d 8368 e2be 85f6 7a3e
00000140: 3861 5e3e 4465 b03c 90e0 933d ae9a 993d
00000150: d0ce 3abe 28cc 7bbe 3791 84be 68a4 b4bd
00000160: abf9 57be 4e00 4d3e ddba 1ebf c737 03be
00000170: e051 4d3e 11f4 303e 4300 45bb 2283 a83d
00000180: b6eb 81be c200 5f3e 0681 273e f420 fabd
00000190: 9513 973e e689 16be fc63 773d 84f8 5a3e
000001a0: 7bc6 bfbe 148a 4abe 10e0 833d 6d13 14bd
000001b0: d5c8 16be 9009 ee3e 31cd 163e 8830 d7be
000001c0: a5e2 c6bc 085e 38be eeca 35be a800 abbe
000001d0: 84f2 f0be e3d6 803e f5f7 6b3d a1e3 30bd
000001e0: 1691 c3be 0748 803c 2062 0c3e 1077 1a3c
000001f0: 9340 e43d a327 35bd b31f 273d 807e 433e
00000200: 227f c03c 9a0c fb3e 4436 353b f5ad 7b3e
00000210: 386f 843e 88ec 02bf c6e4 bcbe cc01 b33d
00000220: 75ce 863d 1a23 4cbd 3d15 373d 02c3 94bd
00000230: 0b1c 3dbd 91db 33bd 34a9 0cbd a9c6 d5bb
00000240: 1d1d 3bbc 9055 1dbe 087f 4bbd 0a12 503d
00000250: 8202 853c e989 c7bc e256 133e 78f3 80bd
00000260: 4226 29be 81e3 ee3d c079 cfbd 0caf d5bc
00000270: 9710 323e 6ad4 513c 6fab 21be 5f20 4d3d
00000280: e14d 803d 45a5 033e 3cd4 a93e 0da1 c33d
00000290: 2dbc 80bc 85c2 b53d 43b7 40bb 8827 7c3e
000002a0: 8604 703d f11c 863e 5dd0 89be c62a 23bc
000002b0: 5c41 bdbd 8e19 e73d c318 603d 1236 243e
000002c0: c961 01bf 4a2b e5bc 81c3 0fbf 13c4 493c
000002d0: c221 b3be ceea c7be ff31 d23e 5125 693e
000002e0: 49b9 0abe e19a 4abe 12cb c6bd 0f66 bbbe
000002f0: e2a6 3d3b ea55 a43e 5e17 8b3d 5586 9c3d
00000300: 5d2a abbd 0c91 6a3e 7a21 b1be 2316 68be
00000310: 2bfb bcbd fe65 2fbe c0a4 2e3e 79e3 e13c
00000320: 2eff b2bd 4c8a 8fbd 1d07 953d 2511 3a3b
00000330: 9c4d a13d f44e 12bd 8531 553d 764e fb3c
00000340: faea 06bd c232 e9bc 2ea7 493e c2d7 89bd
00000350: 6eb9 10be 7be8 6fbe 320c 4c3d 32b4 4abd
00000360: de79 b43d 59eb 10be 6723 ac3e 60a3 413e
00000370: acb9 64bd 51ca ec3d 3670 bb3d ee48 7cbe
00000380: 20eb fe3e b976 63be a5ed 203d 4051 4f3e
00000390: 3180 5c3e 1b34 febd b96f 933d 14f1 19be
000003a0: 770d 1abd dc1e 6ebe 7238 01bd 2e27 023d
000003b0: f3c0 053e 1549 37be c16c 1f3d 5beb 74be
000003c0: 0af1 653e b126 67be 90a9 5fbe baaa 6a3e
000003d0: c3a5 3ebe 2287 8f3e f1a8 41be 0b8e 40be
000003e0: 0b5c 163e d640 863e cf9c 323d 0bea c3bb
000003f0: cf72 703e d3ea 36be 1448 173d 6e77 51be

weight_hh_l0 f4 [128, 32]
0.15358964 -0.19828314 -0.10508396 0.3283659 0.5719787 -0.01740346 -0.26957265 0.09918597
0.23643205 0.43767107 -0.23550753 0.066480875 -0.39971802 0.35575733 0.21078204 -0.11711138
0.026649147 -0.44359183 -0.011275326 -0.015842622 -0.11405004 0.061142225 0.076324835 -0.14970411
0.44684342 -0.11425612 0.12958273 0.14748582 0.13819359 0.0762877 0.44257268 -0.13797054
0.9020356 -0.06106641 0.0112789245 0.16441728 0.91336536 0.2865951 0.097576 -0.058641654
0.2957539 0.26594505 -0.30282244 -0.596838 -0.5876216 0.4555067 0.2568447 -0.24807632
0.14073174 -0.27917224 -0.19155599 -0.053130377 -0.1579348 0.18769531 0.22537342 -0.010485975
0.12829502 -0.07197448 -0.5531031 -0.3823778 -0.14566638 -0.022727182 0.83007497 -0.20372444
0.4719799 -0.0518821 -0.09081646 0.5357297 0.2955735 0.26403925 0.2646054 -0.5660597
0.46399853 0.121218845 0.15900457 -0.0413031 -0.2410394 -0.118793 -0.5611715 -0.067991026
0.10910554 -0.027237102 0.5562568 -1.1976857 -0.004415675 0.5190641 -0.31232297 0.02715511
0.008534105 0.031184494 0.07369325 -0.37400663 -0.38848573 0.13699989 0.1110619 -0.08469897
0.16611652 0.19302505 -0.0750809 0.15274653 -0.15180701 -0.15882225 0.18602507 -0.1542917
0.046098314 -0.07465759 -0.0887199 -0.26102915 -0.15609835 0.14752214 -0.34136778 -0.108657025
-0.17851572 0.11487394 0.17262012 -0.3737913 -0.25133404 0.306972 0.17122082 -0.0775998
-0.3632506 -0.11849198 -0.18104734 -0.095609434 -0.17213279 0.31050077 0.0667222 0.16985904
0.028186565 0.0052636596 0.023762902 -0.019203085 0.32822028 0.18504822 0.04446086 0.013312594
0.124995664 -0.096881524 -0.26041973 -0.26302505 -0.4150391 0.28836563 0.1263532 -0.12849599
-0.069282964 -0.023180556 0.09830554 -0.28442734 -0.06493478 0.6789032 0.12667203 -0.15480128
0.007843618 -0.09977852 -0.26929313 -0.5313936 -0.2309498 -0.1209144 0.22604313 0.065371916
0.15153289 -0.036852602 -0.22505715 0.047603622 -0.19660139 0.31901342 -0.09019192 0.037948802
0.028460782 -0.25627318 -0.13264969 -0.21210237 -0.13222359 0.20944618 -0.19939336 0.18287751
0.09406607 0.1216271 -0.27782428 -0.017814241 0.36422592 0.16844338 0.03809263 0.078806765
-0.4523828 -0.15576096 0.2335813 -0.0994845 -0.012151611 0.08777918 0.08374234 0.3670803
0.2812249 0.059079617 -0.11119904 0.64394027 0.013056392 0.2825126 0.36145285 -0.54215825
0.6330541 0.18943264 -0.081793115 -0.093436405 -0.24339294 0.23097901 -0.63140047 0.13370754
-0.019651838 0.040798698 0.5065535 -1.3541756 -0.073308446 0.6158827 -0.23056023 -0.08270675
-0.31955883 -0.16720995 0.094867125 -0.5300682 -0.6771235 0.08740184 -0.23348881 -0.17270899
0.2726655 -0.00718929 -0.2504815 -0.23824267 -0.13337994 0.19082241 0.29921758 -0.16134356
0.66012096 -0.03003186 0.3661055 -0.09559623 0.2627773 0.07175882 -0.343025 0.36021253
0.33555618 0.26480052 0.34232754 -0.40344274 0.01589852 -0.40955284 -0.6529133 -0.06676826
-0.17416269 0.07504304 -0.003036254 -0.28082108 -0.034256466 0.24784164 -0.09553682 -0.06950293
00000000: 9a46 1d3e bc0a 4bbe 4236 d7bd 931f a83e
00000010: 326d 123f b391 8ebc 6d05 8abe 0422 cb3d
00000020: 3e1b 723e 6c16 e03e e328 71be 2027 883d
00000030: d7a7 ccbe d325 b63e 3fd7 573e 17d8 efbd
00000040: 504f da3c 781e e3be 25bc 38bc 63c8 81bc
00000050: 1193 e9bd 4570 7a3d 3250 9c3d 094c 19be
00000060: a9c8 e43e 1dff e9bd 56b1 043e 8606 173e
00000070: 9f82 0d3e ba3c 9c3d e398 e23e 2648 0dbe
00000080: ceeb 663f c620 7abd 3dcb 383c 015d 283e
00000090: 50d2 693f 98bc 923e edd5 c73d 3b32 70bd
000000a0: 0e6d 973e f329 883e 8b0b 9bbe 60ca 18bf
000000b0: 5f6e 16bf 2d38 e93e 2681 833e b807 7ebe
000000c0: fb1b 103e aaef 8ebe 4127 44be 3d9f 59bd
000000d0: a9b9 21be 3333 403e 4ac8 663e 5ecd 2bbc
000000e0: c55f 033e 5b67 93bd 2a98 0dbf 06c7 c3be
000000f0: 9129 15be 5b2e babc cb7f 543f 249d 50be
00000100: 59a7 f13e 5382 54bd fbfd b9bd 9525 093f
00000110: 6955 973e 2730 873e 5c7a 873e 4ae9 10bf
00000120: 3791 ed3e 9641 f83d 18d2 223e 702d 29bd
00000130: 08d3 76be bf49 f3bd efa8 0fbf e13e 8bbd
00000140: ba72 df3d 5820 dfbc d866 0e3f c44d 99bf
00000150: 5eb1 90bb 63e1 043f cce8 9fbe 6574 de3c
00000160: a1d2 0b3c a076 ff3c 7dec 963d cc7d bfbe
00000170: 9ae7 c6be b349 0c3e 6c74 e33d a776 adbd
00000180: 731a 2a3e 5ca8 453e 04c4 99bd 9669 1c3e
00000190: 4c73 1bbe 4da2 22be 5b7d 3e3e a5fe 1dbe
000001a0: 96d1 3c3d 14e6 98bd c7b2 b5bd 9da5 85be
000001b0: 3fd8 1fbe 0b10 173e c2c7 aebe 9387 debd
000001c0: d3cc 36be 0743 eb3d 54c3 303e 9361 bfbe
000001d0: dbae 80be 6f2b 9d3e 8354 2f3e a5ec 9ebd
000001e0: fcfb b9be ecab f2bd 7964 39be e1ce c3bd
000001f0: 9443 30be f5f9 9e3e a6a5 883d 87ef 2d3e
00000200: 83e7 e63c c77a ac3b 6baa c23c ca4f 9dbc
00000210: 7d0c a83e 487d 3d3e 971c 363d 111d 5a3c
00000220: bafd ff3d d269 c6bd bc55 85be 38ab 86be
00000230: 0180 d4be a9a4 933e bc62 013e 7494 03be
00000240: 3ae4 8dbd 26e5 bdbc 6a54 c93d 76a0 91be
00000250: 87fc 84bd 9acc 2d3f 50b6 013e 3a84 1ebe
00000260: 8582 003c ae58 ccbd cae0 89be 6909 08bf
00000270: 1b7e 6cbe f8a1 f7bd da77 673e b6e1 853d
00000280: 702b 1b3e c1f2 16bd 6275 66be 04fc 423d
00000290: e051 49be ba55 a33e 8bb6 b8bd 3470 1b3d
000002a0: 9626 e93c 3d36 83be 52d5 07be 5d31 59be
000002b0: 9f65 07be 0f79 563e c62d 4cbe 3e44 3b3e
000002c0: b6a5 c03d a117 f93d fc3e 8ebe 2cef 91bc
000002d0: d27b ba3e 6c7c 2c3e 0507 1c3d 7165 a13d
000002e0: b89e e7be cd7f 1fbe f02f 6f3e 88be cbbd
000002f0: 8d17 47bc 92c5 b33d 1b81 ab3d f3f1 bb3e
00000300: b6fc 8f3e 78fd 713d 53bc e3bd 45d9 243f
00000310: 7aea 553c 7ea5 903e 5910 b93e e2ca 0abf
00000320: d50f 223f a1fa 413e 2683 a7bd 965b bfbd
00000330: 003c 79be c385 6c3e 76a3 21bf a1ea 083e
00000340: e4fc a0bc 891c 273d 7dad 013f a055 adbf
00000350: bd22 96bd 7daa 1d3f fb17 6cbe 2862 a9bd
00000360: 379d a3be 1639 2bbe b249 c23d 8db2 07bf
00000370: f757 2dbf bcff b23d b117 6fbe a0da 30be
00000380: d09a 8b3e 2394 ebbb 1c3f 80be e3f5 73be
00000390: c094 08be f366 433e 0c33 993e 3f37 25be
000003a0: b0fd 283f 6005 f6bc 2e72 bb3e f5c7 c3bd
000003b0: bf8a 863e 4af6 923d f9a0 afbe c76d b83e
000003c0: 05ce ab3e ef93 873e 8e45 af3e 0c90 cebe
000003d0: 9d3d 823c e9b0 d1be 5325 27bf ccbd 88bd
000003e0: b457 32be 2ab0 993d e4fb 46bb c8c7 8fbe
000003f0: 8250 0cbd 33ca 7d3e cfa8 c3bd 8d57 8ebd

bias_ih_l0 f4 [128]
-0.02135039 0.22789693 0.48855564 0.16882873 0.2682251 0.3310013 0.36371326 0.19703266
0.23181255 0.4264427 0.41665787 0.29477632 0.38132557 0.072702765 0.25572065 0.18665816
0.38605976 0.24213268 0.21370171 0.25135347 0.40986127 0.07718106 0.3805564 0.23707391
0.4439566 0.30119747 0.39528355 0.19206612 0.07385239 0.21723922 0.16212764 0.46274313
0.10588014 -0.20826617 -0.36989018 0.030085038 -0.39545205 -0.25557294 -0.43299606 -0.07674179
-0.25791585 -0.009002193 0.008121606 -0.028859984 -0.15501924 0.048971396 -0.06512493 -0.3899072
-0.34167486 0.032814853 -0.120501064 0.10631362 -0.5852942 0.025541566 -0.09010716 0.09878275
-0.2844305 0.089778215 0.0043935063 0.028478771 -0.07605037 -0.3570254 -0.41498846 -0.33166713
0.13106905 0.12611833 -0.06433483 0.1087931 -0.1103655 0.024838146 0.121645436 -0.05375596
-0.055307113 0.07982142 -0.07079646 0.013593211 -0.13453248 -0.031388197 -0.04954205 -0.10845602
-0.078169584 -0.1207638 0.0755828 -0.13812676 0.033640776 0.12861282 0.12590611 -0.14585608
0.12671317 -0.07064098 0.018594839 -0.1407133 -0.110877596 0.09562192 0.029373083 -0.052546844
0.3001863 0.34401616 0.5814317 0.22029576 0.467636 0.31000125 0.43232545 0.30120665
0.18709973 0.51487774 0.2850513 0.38865778 0.43412393 0.22454287 0.34089386 0.46521595
0.5981402 0.2160255 0.38045964 0.123944715 0.68094754 0.09388256 0.43484488 0.32403466
0.39952046 0.42585623 0.61761713 0.17764592 0.18323876 0.4512422 0.36241737 0.35628086
00000000: 03e7 aebc d05d 693e f723 fa3e 70e1 2c3e
00000010: cd54 893e 0179 a93e a038 ba3e eec2 493e
00000020: 4560 6d3e b356 da3e 2e54 d53e ecec 963e
00000030: 1b3d c33e 30e5 943d d1ed 823e 5123 3f3e
00000040: a0a9 c53e a1f1 773e 9fd4 5a3e 67b1 803e
00000050: 56d9 d13e 1b11 9e3d 4ad8 c23e 81c3 723e
00000060: 484e e33e 8e36 9a3e 9b62 ca3e fbac 443e
00000070: ec3f 973d f573 5e3e ca04 263e abec ec3e
00000080: b0d7 d83d ba43 55be 3f62 bdbe e674 f63c
00000090: b178 cabe 75da 82be a9b1 ddbe cd2a 9dbd
000000a0: 8c0d 84be ef7d 13bc 7c10 053c c66b ecbc
000000b0: 5dbd 1ebe 3b96 483d 3860 85bd eba1 c7be
000000c0: 02f0 aebe de68 063d 43c9 f6bd f5ba d93d
000000d0: d7d5 15bf 8c3c d13c 1a8a b8bd 9c4e ca3d
000000e0: e0a0 91be a4dd b73d 67f7 8f3b 504c e93c
000000f0: 4cc0 9bbd 09cc b6be 5e79 d4be 46d0 a9be
00000100: f736 063e 2a25 013e fbc1 83bd ebce de3d
00000110: 4f07 e2bd 5e79 cb3c 3e21 f93d 362f 5cbd
00000120: b689 62bd 6a79 a33d bcfd 90bd 0fb6 5e3c
00000130: e2c2 09be e990 00bd 9bec 4abd 311e debd
00000140: 6017 a0bd 0353 f7bd 28cb 9a3d 1a71 0dbe
00000150: e9ca 093d 14b3 033e 88ed 003e 4c5b 15be
00000160: 19c1 013e 38ac 90bd 3454 983c 2617 10be
00000170: cb13 e3bd 6dd5 c33d d29f f03c 5c3b 57bd
00000180: 05b2 993e e322 b03e b5d8 143f 3695 613e
00000190: fc6d ef3e 7cb8 9e3e c359 dd3e c237 9a3e
000001a0: 1297 3f3e 07cf 033f 3ef2 913e 27fe c63e
000001b0: 7e45 de3e 91ee 653e a489 ae3e c930 ee3e
000001c0: b71f 193f ca35 5d3e 9bcb c23e bad6 fd3d
000001d0: 9452 2e3f 8045 c03d fda3 de3e dfe7 a53e
000001e0: f28d cc3e d409 da3e 281c 1e3f d0e8 353e
000001f0: f1a2 3b3e 3809 e73e c58e b93e 726a b63e

bias_hh_l0 f4 [128]
-0.065640256 0.24100456 0.3547653 0.33031285 0.41200063 0.08710146 0.26206353 0.37459725
0.3169513 0.591337 0.16020375 0.16994837 0.14303103 0.3669715 0.29628447 0.3470791
0.29909334 0.23469262 0.11801116 0.2070761 0.55753964 0.25789833 0.40908197 0.30137226
0.34561732 0.28606892 0.4688381 0.10048422 -0.007773753 0.20789628 0.23164771 0.51293486
0.017121151 -0.18217641 -0.13220078 -0.17605871 -0.087086365 -0.092729144 -0.29205367 -0.22156766
-0.18503046 -0.0652244 0.027056186 -0.09004914 -0.15780148 -0.13046537 0.04082984 -0.33979493
-0.47247288 -0.035109077 -0.09214815 -0.074972175 -0.44139057 -0.13725449 -0.313174 0.0707953
-0.4880121 -0.21884987 -0.24914356 -0.032214206 -0.104271375 -0.12310843 -0.28290397 -0.03027554
-0.15218991 -0.14265455 0.10574394 0.053161938 0.14629509 0.05715921 -0.064497046 -0.006865244
0.08595078 -0.013796746 0.057036664 0.030886753 0.046180114 0.03505607 -0.12724663 0.03780269
0.014771855 0.12162654 0.001029897 -0.26470807 -0.123334564 0.068159126 -0.11768902 0.10222195
-0.11178398 0.034999494 0.021561917 -0.025866922 -0.09942294 -0.18302204 0.0048239334 0.051448904
0.18514612 0.47834098 0.42532867 0.4476107 0.56624895 0.21339068 0.63090706 0.61180115
0.13309865 0.5372283 0.5263194 0.46555012 0.4462852 0.41772544 0.26074764 0.47307986
0.6166328 0.07923366 0.48555598 0.00045524156 0.6439958 0.28497702 0.58661914 0.45662498
0.58735025 0.40150455 0.66953254 0.18384944 0.05389848 0.44570032 0.3894353 0.55702
00000000: 666e 86bd e6c9 763e cca3 b53e c41e a93e
00000010: bff1 d23e 4062 b23d 312d 863e 36cb bf3e
00000020: 7147 a23e dd61 173f 740c 243e f206 2e3e
00000030: ba76 123e b0e3 bb3e 99b2 973e 5ab4 b13e
00000040: c322 993e 4353 703e d6af f13d c20b 543e
00000050: ebba 0e3f 400b 843e 3173 d13e 774d 9a3e
00000060: c1f4 b03e a077 923e 8c0b f03e acca cd3d
00000070: f7ba febb c3e2 543e 0f35 6d3e b34f 033f
00000080: a841 8c3c 748c 3abe a45f 07be bc48 34be
00000090: 565a b2bd c7e8 bdbd 0f88 95be a2e2 62be
000000a0: a078 3dbe 5f94 85bd efa4 dd3c af6b b8bd
000000b0: b696 21be b798 05be 313d 273d 9af9 adbe
000000c0: f7e7 f1be 89ce 0fbd 2bb8 bcbd 038b 99bd
000000d0: f2fd e1be 718c 0cbe 5858 a0be 20fd 903d
000000e0: b9dc f9be 2e1a 60be 7d1f 7fbe 0bf3 03bd
000000f0: 3b8c d5bd 4620 fcbd cad8 90be 6904 f8bc
00000100: acd7 1bbe 0914 12be 4790 d83d 55c0 593d
00000110: 61ce 153e c71f 6a3d 0717 84bd d7f5 e0bb
00000120: f606 b03d bf0b 62bc 479f 693d 3706 fd3c
00000130: 5c27 3d3d f496 0f3d f14c 02be fed6 1a3d
00000140: a705 723c 5617 f93d 9cfd 863a d187 87be
00000150: d596 fcbd 0397 8b3d f106 f1bd be59 d13d
00000160: 00ef e4bd a15b 0f3d 9ea2 b03c dee6 d3bc
00000170: 419e cbbd 216a 3bbe 1612 9e3b 16bc 523d
00000180: f296 3d3e 1ce9 f43e aec4 d93e 3b2d e53e
00000190: b1f5 103f 1683 5a3e 2083 213f 009f 1c3f
000001a0: 034b 083e cb87 093f debc 063f 965c ee3e
000001b0: 7e7f e43e 1ce0 d53e b780 853e 8637 f23e
000001c0: a6db 1d3f 4245 a23d cb9a f83e 7dad ee39
000001d0: e9dc 243f 82e8 913e ac2c 163f c0ca e93e
000001e0: 965c 163f 0192 cd3e 7c66 2b3f 0743 3c3e
000001f0: a7c4 5c3d d532 e43e 1064 c73e dd98 0e3f

weight_ih_l0 f4 [128, 2]
0.67700326 0.1212549 -0.17796107 -0.070844665 0.29879066 0.37213492 -0.16506544 -0.07788553
-0.023932653 -0.11784795 -9.0445974e-05 0.12955774 0.029586866 -0.020652093 0.020306926 -0.17086853
0.38977012 -0.06798132 0.015696988 -0.09899018 -0.055577494 0.20978999 -0.05363462 0.020231435
-0.16856198 -0.060578037 -0.023983838 -0.22171168 0.0334068 0.041960754 -0.0034734956 0.1044243
-0.11576877 0.044264708 0.1172479 0.28093514 0.035684228 0.014046645 -0.09450292 -0.07142236
0.6788971 -0.104832366 -0.12037773 0.049904406 0.0048538675 0.047350336 -0.12854008 0.032149628
0.16558935 0.048138235 0.020203797 -0.016156333 0.37402838 0.10432885 -0.1585666 -0.0023465112
-0.058633704 0.24115802 0.08762784 0.11239856 0.14579207 0.14623623 -0.14683688 -0.0023097205
-0.10244903 -0.14481989 0.010802893 -0.10175808 0.06769579 0.037900217 0.07362206 0.0060992427
0.15296392 -0.0044214493 -0.083805725 -0.06950281 0.0449447 0.15162763 0.20591176 0.08581783
-0.23546506 0.07697087 0.013758642 -0.046505004 0.026356995 -0.12437952 -0.096925065 0.18842594
-0.06713009 0.1145768 0.059329357 0.09196931 0.069826454 0.080618426 0.02750236 -0.048689775
-0.05608064 -0.110535845 -0.3155004 -0.48760095 -0.014325741 0.044207443 -0.2498951 -0.19457695
-0.45613262 -0.04138736 0.26371673 -0.056285016 -0.011803136 -0.09819085 0.0364424 -0.059718024
-0.24514085 -0.08687429 0.002310366 0.06761433 0.025400246 -0.06861011 0.078317575 -0.04839772
0.33536303 0.030110555 0.017717032 0.032570895 0.06239063 -0.16573404 0.020782681 -0.0020830592
0.16819179 0.5016599 -0.3775721 -0.36964497 -0.18776141 -0.13374043 -0.10310003 -0.23084988
-0.5144326 0.11240068 0.32879445 -0.21261756 -0.2721882 -0.4337332 0.27631584 -0.2869955
0.31212115 0.036415763 -0.012002695 0.12940633 0.21382838 0.5347399 -0.16950949 0.7112767
-0.26473725 0.075480305 -0.016989121 0.15132168 -0.1260159 -0.4076951 0.0014019079 0.6701721
0.08882004 0.04848958 -0.24522832 0.06778257 -0.02789268 0.12371774 0.042633038 0.025684819
-0.18035437 0.12841737 -0.08431606 0.13259052 -0.027124818 -0.360676 1.030499 -0.055568274
0.23967317 0.48124912 -0.1842565 0.55773723 -0.5143235 0.10405511 0.72510433 0.06478082
0.5127909 -0.0073450427 0.3067528 0.26913747 0.2319278 0.09874405 -0.053661086 -0.46131292
-0.5339986 -0.1965386 0.9127511 0.40378505 0.14640786 -0.24767905 0.43586007 -0.054953467
-0.5887986 0.38081113 -0.11743475 -0.011641406 -0.60502243 -0.8185772 -0.44407192 0.41007957
-0.65560216 0.20750992 0.092052996 -0.3685124 0.80955255 -0.06737081 0.08969425 -0.21031484
0.08590034 0.26330614 0.29398248 0.51651853 0.07284117 0.1489151 -0.10273096 0.50593853
-0.676625 -0.2397538 -0.42057115 -0.65631574 -0.061802845 -0.02522431 0.0027810552 0.17212276
-0.0061645093 0.36196107 -0.06938959 0.088463955 0.4625512 -0.25328854 -0.22937651 -0.27734601
0.39695355 0.33771816 0.2613064 -0.5218983 0.164829 -0.36923343 0.006478341 0.11262398
-0.27474195 -0.2888303 -0.16793184 -0.6131653 -0.11805416 0.112729974 -0.105541684 -0.45294547
00000000: 1650 2d3f 7d54 f83d 6d3b 36be 0217 91bd
00000010: 17fb 983e 7888 be3e ea06 29be 7382 9fbd
00000020: 690e c4bc 445a f1bd d0ad bdb8 c9aa 043e
00000030: 2860 f23c 942e a9bc b65a a63c 29f8 2ebe
00000040: f38f c73e ca39 8bbd f896 803c 5dbb cabd
00000050: 3aa5 63bd 30d3 563e faaf 5bbd 65bc a53c
00000060: 839b 2cbe ad20 78bd c179 c4bc 6308 63be
00000070: 92d5 083d 0adf 2b3d 96a3 63bb 68dc d53d
00000080: 2d18 edbd e94e 353d ab1f f03d bbd6 8f3e
00000090: a029 123d e623 663c bf8a c1bd e345 92bd
000000a0: 33cc 2d3f 5ab2 d6bd 9988 f6bd 9068 4c3d
000000b0: 310d 9f3b 6df2 413d 03a0 03be 54af 033d
000000c0: 4190 293e 992c 453d 6f82 a53c 495a 84bc
000000d0: a680 bf3e 5daa d53d 485f 22be edc7 19bb
000000e0: e529 70bd 21f2 763e 3a76 b33d 3731 e63d
000000f0: 844a 153e f3be 153e 685c 16be ae5e 17bb
00000100: ccd0 d1bd aa4b 14be 9efe 303c 8a66 d0bd
00000110: 17a4 8a3d 423d 1b3d 2ac7 963d 28dc c73b
00000120: 93a2 1c3e cee1 90bb 56a2 abbd 7d57 8ebd
00000130: ef17 383d 4644 1b3e 88da 523e 42c1 af3d
00000140: c11d 71be e7a2 9d3d ed6b 613c 087c 3ebd
00000150: a0ea d73c b1ba febd a680 c6bd bbf2 403e
00000160: 807b 89bd 3ea7 ea3d 5703 733d 685a bc3d
00000170: 2c01 8f3d 461b a53d a14c e13c ee6e 47bd
00000180: d0b4 65bd 9e60 e2bd 4589 a1be d5a6 f9be
00000190: 83b6 6abc dd12 353d 80e4 7fbe 2e3f 47be
000001a0: 378a e9be cb85 29bd e105 873e 1e8b 66bd
000001b0: f161 41bc 4918 c9bd a044 153d e39a 74bd
000001c0: 3406 7bbe 26eb b1bd 8269 173b 6279 8a3d
000001d0: 2d14 d03c 7583 8cbd f764 a03d b03c 46bd
000001e0: b4b4 ab3e 69aa f63c 4f23 913c 0f69 053d
000001f0: 518d 7f3d 2fb6 29be 7140 aa3c ef83 08bb
00000200: 783a 2c3e c96c 003f 2151 c1be 1b42 bdbe
00000210: 8744 40be 40f3 08be 1c26 d3bd e963 6cbe
00000220: dbb1 03bf 5432 e63d bf57 a83e 6bb8 59be
00000230: 405c 8bbe 4712 debe 4579 8d3e 13f1 92be
00000240: 58ce 9f3e b228 153d f4a6 44bc 1883 043e
00000250: d4f5 5a3e b7e4 083f e593 2dbe 3b16 363f
00000260: a48b 87be 6b95 9a3d c52c 8bbc 12f4 1a3e
00000270: 500a 01be 6abd d0be 39c0 b73a 6690 2b3f
00000280: 48e7 b53d 039d 463d 221d 7bbe 97d1 8a3d
00000290: 317f e4bc ba5f fd3d fb9f 2e3d f868 d23c
000002a0: d1ae 38be d87f 033e e6ad acbd cfc5 073e
000002b0: de34 debc 86aa b8be 64e7 833f 8f9b 63bd
000002c0: e26c 753e 4966 f63e bcad 3cbe dec7 0e3f
000002d0: b4aa 03bf d81a d53d 70a0 393f ceab 843d
000002e0: 4446 033f afae f0bb b40e 9d3e 63cc 893e
000002f0: 7b7e 6d3e 523a ca3d bacb 5bbd 3531 ecbe
00000300: 22b4 08bf 6a41 49be 0eaa 693f eabc ce3e
00000310: f1eb 153e 949f 7dbe 0d29 df3e e316 61bd
00000320: 81bb 16bf adf9 c23e a181 f0bd 99bb 3ebc
00000330: c0e2 1abf 468e 51bf 655d e3be f3f5 d13e
00000340: 8bd5 27bf 7b7d 543e 4886 bc3d a8ad bcbe
00000350: d63e 4f3f b5f9 89bd 9eb1 b73d c65c 57be
00000360: 84ec af3d 10d0 863e df84 963e 8f3a 043f
00000370: c02d 953d 337d 183e 9c64 d2bd 3085 013f
00000380: 4c37 2dbf 0582 75be 1a55 d7be 4f04 28bf
00000390: fb24 7dbd 36a3 cebc 5d42 363b f340 303e
000003a0: a7ff c9bb f652 b93e 211c 8ebd 972c b53d
000003b0: 83d3 ec3e 09af 81be ade1 6abe 4c00 8ebe
000003c0: 7f3d cb3e 65e9 ac3e f4c9 853e 219b 05bf
000003d0: efc8 283e 2a0c bdbe 4348 d43b 67a7 e63d
000003e0: faaa 8cbe 91e1 93be 53f6 2bbe 67f8 1cbf
000003f0: 61c6 f1bd f9de e63d 3d26 d8bd 78e8 e7be

weight_hh_l0 f4 [128, 32]
0.6487725 -0.6944222 -1.384845 0.01902325 -0.2856141 0.1773276 -0.29151145 0.10517576
0.17538965 -0.14651693 1.0545945 0.096209176 -0.086857915 0.30448565 -0.36082986 -0.058187168
0.23300883 -0.05777044 0.014187507 0.42037693 -0.09975736 -0.16034025 -0.23040964 0.24891728
-0.02554778 0.5269957 -0.34924117 0.31401366 0.7839778 0.028692061 -0.020666506 -0.15497096
0.0429428 -0.18996413 0.04075297 -0.11079168 0.05510513 -0.28012958 -0.39155826 0.06663339
-0.34721723 0.1281047 -0.18542676 0.056236304 -0.04753986 0.38403052 0.3096515 -0.39719144
-0.19600925 0.3375835 -0.03610901 0.23125346 0.27193147 -0.41956165 -0.020918386 0.37791616
-0.4185208 0.24502544 0.5849012 0.08615623 0.35832697 -0.11480874 -0.3044512 -0.45305735
-0.17679021 -0.06431574 0.1136324 -0.11312402 -0.17007081 -0.23199889 -0.29288152 -0.033359494
-0.22808571 -0.039968394 -0.20816308 0.22719333 -0.11933227 0.48049292 0.02081293 -0.10799001
-0.016148852 0.17992686 -0.20004487 -0.20643984 0.22802103 -0.26026326 -0.28367373 0.37704614
-0.14636345 0.2042303 0.04546607 0.12231489 0.30285716 0.17025657 -0.008783619 -0.5711054
0.34246594 -0.07103617 -0.07073839 -0.16993052 0.22677165 0.18950169 -0.06029878 0.082371086
0.299086 0.17572221 -0.052107546 0.11172635 0.005635529 0.09770358 -0.10214152 -0.15905681
-0.14641798 0.17099003 -0.15274878 -0.101400815 -0.047993775 0.103878625 -0.060157403 0.14172809
-0.0098517435 0.42334443 -0.0059141647 -0.0025693877 0.19692992 0.05977628 0.03336317 -0.27607617
0.1614339 0.24391206 0.01965922 0.10948526 0.12770696 0.063432515 0.03914103 -0.13985036
-0.060034122 0.3667254 0.052480068 0.38137317 -0.061864242 0.064965576 0.25054666 -0.15853913
-0.17559272 0.07070317 -0.2578371 -0.20799303 0.02026014 -0.19664541 -0.1454013 -0.3091854
-0.11839799 0.21262956 -0.013851642 -0.059647683 -0.26872188 0.06537892 -0.006406242 0.03696696
0.8862684 -0.5095785 -0.5484953 -0.17239198 -0.19161163 0.32439032 -0.14781001 0.4441086
0.32291186 -0.11490392 0.15752041 -0.26617524 -0.013932188 -0.025044007 -0.1608674 -0.22981647
-0.07994669 -0.04964638 -0.21288513 0.6726601 -0.58897215 -0.16704129 -0.0831799 0.19812174
0.29430774 0.16810447 -0.06180561 0.15613018 0.33305958 -0.14731087 0.10649244 -0.10197546
0.045377593 0.29299825 0.23218535 0.09156252 0.11253004 -0.1320498 -0.06372173 -0.03643594
-0.15050483 0.03156359 -0.050186496 0.13094307 0.11439983 0.035972983 -0.07787752 -0.14872439
0.05759712 -0.04422496 0.065047406 -0.111196436 0.22654285 0.15878876 -0.09996318 0.047574382
0.018992092 0.0626356 0.09324592 -0.08626891 -0.05472665 -0.055828463 -0.015313885 0.09274847
0.043405373 0.11798647 0.07691792 0.014047499 0.21634616 -0.57242775 -0.0360199 0.07829394
-0.29840583 -0.094650276 -0.10092051 0.22589687 0.17905794 0.012827404 0.13041158 -0.03158426
-0.08927238 0.10473269 -0.23163456 0.07423443 0.16484417 -0.0638102 -0.1847851 -0.011398279
-0.055444326 0.19270353 0.421024 0.15306926 0.14940298 0.009808259 -0.09471296 -0.05758084
00000000: f415 263f a7c5 31bf 9a42 b1bf a6d6 9b3c
00000010: 033c 92be 5e95 353e fd40 95be 6466 d73d
00000020: 5899 333e 8908 16be f4fc 863f 5109 c53d
00000030: 90e2 b1bd 8be5 9b3e b1be b8be ab55 6ebd
00000040: de99 6e3e b2a0 6cbd b872 683c a53b d73e
00000050: 964d ccbd 3c30 24be 81f0 6bbe 2ce4 7e3e
00000060: 9449 d1bc 31e9 063f bdcf b2be 66c6 a03e
00000070: c5b2 483f 9d0b eb3c ce4c a9bc b5b0 1ebe
00000080: cae4 2f3d f585 42be 96ec 263d c0e6 e2bd
00000090: ebb5 613d 256d 8fbe 537a c8be 1677 883d
000000a0: 75c6 b1be e12d 033e 83e0 3dbe 0a58 663d
000000b0: 28b9 42bd a69f c43e a48a 9e3e ad5c cbbe
000000c0: a6b6 48be bfd7 ac3e 0be7 13bd b5cd 6c3e
000000d0: 9a3a 8b3e c9d0 d6be 095d abbc 3a7e c13e
000000e0: 5c48 d6be f3e7 7a3e 16bc 153f ad72 b03d
000000f0: a276 b73e d820 ebbd 07e1 9bbe 22f7 e7be
00000100: 7e08 35be f8b7 83bd 1bb8 e83d 91ad e7bd
00000110: 0b27 2ebe 1e91 6dbe 91f4 95be f7a3 08bd
00000120: 4d8f 69be e6b5 23bd b428 55be 5ea5 683e
00000130: 7a64 f4bd 2b03 f63e e17f aa3c de29 ddbd
00000140: 994a 84bc bf3e 383e 90d8 4cbe f764 53be
00000150: 587e 693e 3a41 85be af3d 91be 310c c13e
00000160: 4de0 15be bf21 513e a13a 3a3d 3b80 fa3d
00000170: 1810 9b3e bd57 2e3e 2be9 0fbc f733 12bf
00000180: b257 af3e 697b 91bd 4adf 90bd 4402 2ebe
00000190: d436 683e bb0c 423e dbfb 76bd 2cb2 a83d
000001a0: cd21 993e 86f0 333e b96e 55bd c9d0 e43d
000001b0: 3eaa b83b d118 c83d 932f d1bd cadf 22be
000001c0: 98ee 15be 0318 2f3e 2d6a 1cbe 3bab cfbd
000001d0: 1f95 44bd 51be d43d 9c67 76bd 2b21 113e
000001e0: 3569 21bc 9ac0 d83e 9ccb c1bb 2c63 28bb
000001f0: ffa7 493e f9d7 743d d2a7 083d db59 8dbe
00000200: ee4e 253e 15c4 793e 5f0c a13c cf39 e03d
00000210: 9dc5 023e e8e8 813d 5852 203d ef34 0fbe
00000220: 57e6 75bd 6ec3 bb3e 57f5 563d 5843 c33e
00000230: 5c65 7dbd ac0c 853d a747 803e 1558 22be
00000240: 94ce 33be d3cc 903d 3903 84be 20fc 54be
00000250: 98f8 a53c 6a5d 49be 14e4 14be 8c4d 9ebe
00000260: a57a f2bd 90bb 593e fff1 62bc 2151 74bd
00000270: ea95 89be 62e5 853d 74eb d1bb ab6a 173d
00000280: 7ce2 623f bd73 02bf 306a 0cbf 8687 30be
00000290: d735 44be 7d16 a63e 825b 17be 3462 e33e
000002a0: b454 a53e bf52 ebbd 084d 213e 1f48 88be
000002b0: d543 64bc 1729 cdbc 6cba 24be 0255 6bbe
000002c0: 17bb a3bd 015a 4bbd 8ffe 59be 7433 2c3f
000002d0: e1c6 16bf df0c 2bbe 395a aabd 6de0 4a3e
000002e0: 81af 963e 9423 2c3e e127 7dbd 97e0 1f3e
000002f0: c986 aa3e a9d8 16be b518 da3d 83d8 d0bd
00000300: dbdd 393d de03 963e ffc1 6d3e 2185 bb3d
00000310: 2676 e63d 1038 07be 8a80 82bd da3d 15bd
00000320: f01d 1abe d348 013d 5b90 4dbd f115 063e
00000330: 754a ea3d 6858 133d 407e 9fbd 354b 18be
00000340: f5ea 6b3d 3b25 35bd 9337 853d f5ba e3bd
00000350: d9fa 673e 8599 223e 7fb9 ccbd 5bdd 423d
00000360: 4e95 9b3c 1847 803d b8f7 be3d c1ad b0bd
00000370: 0d29 60bd 63ac 64bd 17e7 7abc e9f2 bd3d
00000380: d5c9 313d e4a2 f13d 2487 9d3d 7b27 663c
00000390: d989 5d3e a08a 12bf 9a89 13bd 9358 a03d
000003a0: a6c8 98be 01d8 c1bd 6aaf cebd 8251 673e
000003b0: f75a 373e 082a 523c 9d8a 053e 7f5e 01bd
000003c0: 70d4 b6bd 187e d63d 9c31 6dbe 3908 983d
000003d0: e9cc 283e ecae 82bd 4e38 3dbe d9bf 3abc
000003e0: 9719 63bd 1354 453e 7590 d73e 30be 1c3e
000003f0: 18fd 183e d2b2 203c def8 c1bd e3d9 6bbd

bias_ih_l0 f4 [128]
-0.012886102 -0.025897212 0.10380906 0.049026202 0.18273102 0.052947957 0.19069402 -0.059864186
0.058370564 0.076994605 -0.12452137 -0.16909714 0.02264098 0.15601484 -0.12585442 0.026059538
0.03107489 0.08685268 0.2008869 -0.05276473 0.20056246 -0.05945457 -0.15106507 0.0044604004
0.024871783 0.090237975 0.08008028 0.061329186 0.13607305 0.07832727 0.15925586 0.09382999
0.16859755 -0.15294668 -0.11421417 -0.11625324 0.033832766 0.049345568 0.1129862 0.20648289
0.16004221 0.45309636 0.0245724 0.24935025 -0.117382795 0.20588548 0.082427144 -0.07448546
-0.09432645 0.18330249 0.23460832 0.20590064 0.08852194 0.12539138 -0.09695255 0.10413913
-0.009049602 0.21053955 0.034411307 0.23746511 -0.10712454 0.029306479 0.026844589 0.06891871
-0.021372605 0.007680487 0.13951597 -0.19126196 0.0088621415 0.046803866 -0.052066613 0.18527167
0.10169168 -0.11051594 0.05909594 -0.04493146 -0.024123974 0.053875856 0.11068708 -0.15387286
-0.21777454 -0.032819543 0.036296345 -0.05185792 0.10626063 -0.15563813 -0.13745293 0.17524782
-0.14736493 0.20984122 0.29465938 0.12372183 0.25494498 -0.061185613 -0.16122311 0.015778573
0.004960952 0.19818407 0.27037954 0.12055278 0.28091782 0.23894289 0.1849458 0.06600814
0.06314122 0.4047445 0.06325002 0.06291642 -0.091798 0.21316662 0.12875545 0.09186576
0.05531673 -0.053503502 0.1356177 0.2034295 0.041007638 0.14659521 0.014498825 -0.027475383
0.20494837 0.17078595 0.3156745 0.068360716 0.02936363 0.016621048 0.1623946 0.13857457
00000000: 3b20 53bc 6426 d4bc d899 d43d b3cf 483d
00000010: d71d 3b3e f5df 583d 4b45 433e 2634 75bd
00000020: f915 6f3d 59af 9d3d 0f05 ffbd cd27 2dbe
00000030: 9479 b93c 5bc2 1f3e fbdf 00be d07a d53c
00000040: c590 fe3c d1df b13d 4cb5 4d3e d41f 58bd
00000050: 3f60 4d3e a386 73bd cdb0 1abe 8d28 923b
00000060: e9bf cb3c b0ce b83d 2101 a43d 5034 7b3d
00000070: bc56 0b3e 0c6a a03d f813 233e f029 c03d
00000080: d6a4 2c3e 0e9e 1cbe 1ee9 e9bd 2e16 eebd
00000090: 3a94 0a3d 941e 4a3d 4f65 e73d 4070 533e
000000a0: 1be2 233e 3ffc e73e 0f4c c93c ac55 7f3e
000000b0: 6466 f0bd a5d3 523e 90cf a83d d58b 98bd
000000c0: 3a2e c1bd a6b3 3b3e 2a3d 703e 9ed7 523e
000000d0: fe4a b53d 9966 003e 0f8f c6bd e546 d53d
000000e0: c844 14bc ae97 573e dff2 0c3d 0e2a 733e
000000f0: 1c64 dbbd 2414 f03c 2fe9 db3c 4125 8d3d
00000100: 9a15 afbc 98ac fb3b 46dd 0e3e 2dda 43be
00000110: 8432 113c 69b5 3f3d cd43 55bd dbb7 3d3e
00000120: ba43 d03d 2e56 e2bd 960e 723d 0d0a 38bd
00000130: a49f c5bc eeac 5c3d e8af e23d d990 1dbe
00000140: 4a00 5fbe c96d 06bd 7aab 143d f868 54bd
00000150: 2c9f d93d 9a5f 1fbe 76c0 0cbe 2a74 333e
00000160: d5e6 16be 9ee0 563e 98dd 963e df61 fd3d
00000170: 2688 823e c49d 7abd ac17 25be 1142 813c
00000180: 7b8f a23b c4f0 4a3e 306f 8a3e 60e4 f63d
00000190: 76d4 8f3e 72ad 743e 6f62 3d3e 472f 873d
000001a0: 2f50 813d ac3a cf3e 3a89 813d 53da 803d
000001b0: 9700 bcbd 5a48 5a3e 78d8 033e 1e24 bc3d
000001c0: cc93 623d 7d26 5bbd 5edf 0a3e d34f 503e
000001d0: a0f7 273d 0e1d 163e 7b8c 6d3c 0e14 e1bc
000001e0: fcdd 513e 83e2 2e3e 17a0 a13e b400 8c3d
000001f0: ff8b f03c dd28 883c c54a 263e 7ee6 0d3e

bias_hh_l0 f4 [128]
0.21615347 0.2335909 0.033996984 -0.11990459 0.27676484 0.1406285 -0.05592485 0.04422042
0.13704824 0.14912587 0.080535375 0.03965679 0.0231825 0.1653003 0.10342967 0.077134416
-0.019971803 0.007729627 0.11064451 -0.097726576 0.20562716 0.049980313 0.14331912 -0.06901653
-0.08212586 0.0070794863 0.044321902 -0.03484574 0.16191545 0.10253607 0.018440299 0.122801125
0.03439016 0.06806776 0.009710465 -0.011845832 0.044244792 -0.117520146 -0.010120751 -0.08348719
-0.101600744 0.274401 -0.056759406 0.14359573 0.027161889 0.21897794 -0.074016355 -0.1484106
-0.02686024 -0.07679435 0.08960474 0.018716993 0.08092845 0.048512638 0.047884207 -0.043434706
0.015385443 0.25544408 -0.054862503 0.018508954 0.091323994 -0.16296643 -0.09269208 0.24587102
0.15791589 0.025622772 -0.049196262 -0.15808354 0.08235841 -0.15445782 -0.2562657 0.18460189
-0.1590379 0.11214335 -0.015983228 0.062397256 -0.06299251 0.12675829 0.08778823 -0.04710007
-0.12887537 0.13835616 -0.24690652 0.04619062 0.153227 -0.113949835 -0.0058687376 0.1109206
-0.0832118 0.43237665 0.09046022 0.13985872 0.10622129 -0.09984268 0.063804336 -0.16378662
0.26934472 0.17415616 0.16978557 -0.14576451 0.10773652 0.25213856 0.11003442 0.13973331
0.10621483 0.41746998 0.008480206 0.08368717 -0.083916835 0.072325155 0.19449903 0.19394673
0.20340998 0.0048818463 -0.08633541 0.18871954 0.023840064 -0.043536864 0.1353619 0.2593021
0.07988286 0.29661825 0.104009435 0.2537589 0.30488026 0.08381236 0.08721542 0.20328484
00000000: 5657 5d3e 7432 6f3e 6c40 0b3d 8a90 f5bd
00000010: 1fb4 8d3e eb00 103e 7511 65bd 7920 353d
00000020: 6056 0c3e 74b4 183e bbef a43d 296f 223d
00000030: 3ae9 bd3c 7b44 293e efd2 d33d a6f8 9d3d
00000040: e89b a3bc d048 fd3b 9799 e23d df24 c8bd
00000050: ed8f 523e 28b8 4c3d 3fc2 123e 8a58 8dbd
00000060: 9a31 a8bd 09fb e73b e28a 353d 68ba 0ebd
00000070: 2acd 253e 6efe d13d 1c10 973c 287f fb3d
00000080: b2dc 0c3d 1c67 8b3d a418 1f3c 0515 42bc
00000090: 073a 353d 67ae f0bd 82d1 25bc 55fb aabd
000000a0: 0d14 d0bd 4a7e 8c3e 8d7c 68bd c20a 133e
000000b0: 9c82 de3c c13b 603e e395 97bd f3f8 17be
000000c0: 020a dcbc 5b46 9dbd b182 b73d 6154 993c
000000d0: d1bd a53d 30b5 463d 3b22 443d 97e8 31bd
000000e0: 3a13 7c3c 91c9 823e 81b7 60bd 17a0 973c
000000f0: 1308 bb3d ace0 26be 58d5 bdbd 9dc5 7b3e
00000100: b4b4 213e d9e6 d13c 0582 49bd a7e0 21be
00000110: 87ab a83d 312a 1ebe 4235 83be 4708 3d3e
00000120: d5da 22be 6aab e53d 42ef 82bc 4494 7f3d
00000130: 3802 81bd edcc 013e 51ca b33d 01ec 40bd
00000140: e8f7 03be 3dad 0d3e 10d5 7cbe 6032 3d3d
00000150: 8ae7 1c3e 885e e9bd 8a4e c0bb 572a e33d
00000160: f36a aabd 7960 dd3e 3543 b93d 2037 0f3e
00000170: 8c8a d93d 527a ccbd d9ab 823d aeb7 27be
00000180: 8de7 893e fe55 323e 45dc 2d3e 4b43 15be
00000190: f7a4 dc3d 4e18 813e ba59 e13d 4016 0f3e
000001a0: 2987 d93d a0be d53e 90f0 0a3c 2e64 ab3d
000001b0: 97dc abbd 361f 943d c12a 473e f999 463e
000001c0: b54a 503e e5f7 9f3b 9fd0 b0bd b23f 413e
000001d0: 3d4c c33c b653 32bd 4f9c 0a3e 3fc3 843e
000001e0: a099 a33d 59de 973e e602 d53d b0ec 813e
000001f0: 4419 9c3e d1a5 ab3d 009e b23d e729 503e

weight_ih_l0_reverse f4 [128, 2]
0.60447913 0.07417932 0.07737649 -0.3004245 -0.29822356 -0.19140887 0.3005649 0.008279703
-0.33991298 -0.22952604 -0.11735924 -0.05055596 0.21183255 -0.24688812 0.013639562 -0.71462905
0.12740128 -0.21198294 -0.5651848 0.4786475 -0.07148843 0.09043718 0.46985126 -0.3766133
-0.27621743 -0.51001525 -0.54924566 -0.8302756 -0.060939766 -0.24562374 0.5719432 0.5185435
-0.3039467 0.31831163 -0.329164 -0.92543954 -0.5496253 0.34534723 -0.48095933 0.276107
-0.65916175 0.11833527 -0.9668497 0.32586086 -0.20331733 0.12671088 0.26868686 -0.20600289
-0.17774998 0.86020017 -0.32480738 -0.04622239 0.30916956 0.3837527 -0.13353607 0.34607935
-0.2501725 0.051002167 0.46556896 0.3293866 0.37417245 -0.6469243 0.49386105 -0.40488842
0.041637857 0.28599337 0.05686655 0.057636816 -0.083231576 0.4851813 0.013474069 0.034915943
-0.27201146 0.060289916 0.56927615 0.24240926 -0.24567568 0.04564552 0.020620465 0.033337813
0.1615929 0.3447935 -0.02519902 -0.034513082 0.393639 -0.043916386 0.3134838 0.0492518
-0.08178615 0.011177766 -0.015477288 -0.075828224 -0.33745557 -0.1899121 0.21729633 0.13958663
-0.043064978 -0.021239089 -0.2076058 -0.12843513 -0.082160294 -0.012337288 0.17036697 -0.28987923
0.0013690154 0.0192614 -0.14041375 -0.040305577 0.2647986 -0.5081916 -0.45880288 -0.1516865
-0.009920693 -0.04823633 0.10634342 0.083443105 0.06616768 0.10471284 0.06468709 -0.264172
-0.13862008 0.33057284 0.21437325 0.17575563 0.24885972 -0.47550613 0.059393905 -0.18791923
-0.41173416 -0.22462064 -0.006887642 0.41929954 0.3394427 -0.18892528 -0.20114475 0.013719385
0.31857988 0.09709216 0.272636 0.009943305 0.011455023 -0.09256705 -0.32819173 0.36570647
-0.08283501 -0.19115898 -0.6095915 0.5957566 0.10851835 -0.029499292 0.541168 -0.17821795
0.13392684 -0.34879333 0.27844003 0.5202997 0.08384279 -0.36167064 0.18330799 0.36685294
0.12610225 -0.07448769 0.26701316 0.5018332 0.23195161 -0.33039552 -0.3737332 0.21359022
-0.76530784 0.19894262 0.34020934 -0.10399726 -0.5119744 0.56818503 0.16549662 0.36893514
-0.20417222 1.062145 0.2712772 0.2985938 -0.2209883 -0.14835991 0.0059602023 -0.42327943
-0.39412323 0.4361912 0.57600456 0.35492748 0.20925754 -0.3528677 0.29280505 -0.32808375
0.6068596 0.3536536 0.1788713 -0.2080557 -0.38049784 0.22642766 -0.28731 -0.114873625
-0.5094837 -0.11367954 -0.43445194 -0.51599216 -0.15779264 -0.33099157 0.4381138 -0.5985478
-1.057187 0.24601202 -0.32403877 0.17729744 0.674341 -0.025974512 0.55952674 -0.28752965
0.3391276 -0.5034663 -0.4342183 -0.5178843 0.02092166 -0.19539662 0.4072215 0.6017178
0.08436435 0.57475644 -0.38584384 -0.7604192 -0.25150165 0.36752883 -0.36554787 0.11045006
-0.43663892 0.02818326 -0.85959005 0.21945861 0.4144441 -0.76609933 -0.25647956 -0.22604287
-0.039750103 0.45329753 0.1283863 -0.22313781 0.022219375 0.19222417 0.35916078 0.48921007
-0.06698501 0.35344297 0.4965166 -0.06717696 0.39573306 -0.14728707 0.18962929 -0.41921887
00000000: 25bf 1a3f 54eb 973d 9177 9e3d 3dd1 99be
00000010: c2b0 98be b000 44be a4e3 993e 97a7 073c
00000020: 1309 aebe e008 6bbe 0b5a f0bd c413 4fbd
00000030: a2ea 583e 3dd0 7cbe 7878 5f3c eef1 36bf
00000040: 7b75 023e 0e12 59be f3af 10bf 4911 f53e
00000050: 8768 92bd 2137 b93d 5890 f03e 75d3 c0be
00000060: 5f6c 8dbe 5c90 02bf 5d9b 0cbf f18c 54bf
00000070: fa9b 79bd ca84 7bbe df6a 123f 44bf 043f
00000080: e79e 9bbe bef9 a23e 2f88 a8be 9be9 6cbf
00000090: 3eb4 0cbf 5ad1 b03e 4d40 f6be e65d 8d3e
000000a0: d3be 28bf c359 f23d 7683 77bf 3cd7 a63e
000000b0: 6b32 50be 7fc0 013e 5391 893e 6cf2 52be
000000c0: 1704 36be 1436 5c3f 274d a6be b053 3dbd
000000d0: 794b 9e3e 3c7b c43e aebd 08be 5031 b13e
000000e0: 9c16 80be a6e7 503d 0e5f ee3e 5ca5 a83e
000000f0: 8893 bf3e d59c 25bf 5bdb fc3e 894d cfbe
00000100: 758c 2a3d b96d 923e e6ec 683d 9514 6c3d
00000110: 5175 aabd af69 f83e 57c2 5c3c 0504 0f3d
00000120: 1645 8bbe 8ff2 763d 15bc 113f 223a 783e
00000130: 6892 7bbe ccf6 3a3d 40ec a83c 3b8d 083d
00000140: 9c78 253e c688 b03e 2d6e cebc 975d 0dbd
00000150: 0d8b c93e abe1 33bd f380 a03e 41bc 493d
00000160: 7f7f a7bd f322 373c 7394 7dbc d44b 9bbd
00000170: fac6 acbe 5178 42be ee82 5e3e ccef 0e3e
00000180: e764 30bd 99fd adbc 9d96 54be 8084 03be
00000190: a843 a8bd 5622 4abc ae74 2e3e 0d6b 94be
000001a0: 8970 b33a 15ca 9d3c 9fc8 0fbe 7617 25bd
000001b0: af93 873e d818 02bf 36e8 eabe b553 1bbe
000001c0: 678a 22bc 7593 45bd 94ca d93d 38e4 aa3d
000001d0: ec82 873d af73 d63d aa7a 843d 8d41 87be
000001e0: 6cf2 0dbe d840 a93e a984 5b3e 49f9 333e
000001f0: 15d5 7e3e 8a75 f3be 0647 733d e66d 40be
00000200: d2ce d2be f402 66be bbb1 e1bb 6eae d63e
00000210: 6fcb ad3e a175 41be e4f8 4dbe 45c7 603c
00000220: e71c a33e 41d8 c63d f296 8b3e 3ee9 223c
00000230: d9ad 3b3c cb93 bdbd bf08 a8be e13d bb3e
00000240: 67a5 a9bd 2ebf 43be 300e 1cbf 8183 183f
00000250: de3e de3d 80a8 f1bc fc89 0a3f c47e 36be
00000260: 1e24 093e 0a95 b2be b18f 8e3e 5c32 053f
00000270: c5b5 ab3d e52c b9be 17b5 3b3e 26d4 bb3e
00000280: f320 013e 018d 98bd f3b5 883e 2478 003f
00000290: b984 6d3e 9a29 a9be f559 bfbe 65b7 5a3e
000002a0: 37eb 43bf 9db7 4b3e eb2f ae3e 84fc d4bd
000002b0: c110 03bf 9374 113f f277 293e 11e5 bc3e
000002c0: 8612 51be 5ef4 873f d8e4 8a3e 49e1 983e
000002d0: c24a 62be a9eb 17be cd4d c33b 15b8 d8be
000002e0: 85ca c9be 7454 df3e 0975 133f 0eb9 b53e
000002f0: 9c47 563e 13ab b4be 8bea 953e 98fa a7be
00000300: 275b 1b3f 1612 b53e 0a2a 373e 8e0c 55be
00000310: 9dd0 c2be a7dc 673e 4c1a 93be dd42 ebbd
00000320: 866d 02bf d2d0 e8bd 7c70 debe 1018 04bf
00000330: 6594 21be ba77 a9be 7450 e03e 6e3a 19bf
00000340: e751 87bf 93ea 7b3e 69e8 a5be 768d 353e
00000350: 9da1 2c3f 80c8 d4bc 253d 0f3f 1637 93be
00000360: 22a2 ad3e 2be3 00bf dc51 debe 1194 04bf
00000370: e763 ab3c 0d16 48be 567f d03e 2e0a 1a3f
00000380: 37c7 ac3d 3d23 133f 538d c5be d5aa 42bf
00000390: d3c4 80be bd2c bc3e 1729 bbbe a433 e23d
000003a0: 238f dfbe 94e0 e63c 180e 5cbf c2b9 603e
000003b0: 0432 d43e 161f 44bf 4a51 83be c877 67be
000003c0: 01d1 22bd 9d16 e83e b377 033e 3d7e 64be
000003d0: 6805 b63c 6ad6 443e ece3 b73e be79 fa3e
000003e0: 702f 89bd 7af6 b43e 6c37 fe3e 1394 89bd
000003f0: 869d ca3e 6cd2 16be 2e2e 423e dba3 d6be

weight_hh_l0_reverse f4 [128, 32]
-0.11050415 0.18628119 -0.048671886 -0.01886409 0.15191065 0.16083896 -0.13140994 0.13688289
-0.19712603 0.10126831 0.13176516 -0.054260347 -0.03924976 0.07279653 -0.17826481 0.17642188
0.14202233 0.24226119 0.01565511 -0.05012832 -0.055337954 0.13678497 0.006432725 0.12608814
-0.0671135 0.37388173 -0.24005888 -0.23598535 0.034827482 0.18015988 -0.31750888 -0.008148595
0.13021657 -0.036807492 0.14998221 0.3550919 -0.03332742 -0.2231081 0.069127 -0.20560873
0.20800528 -0.1055735 -0.20118004 -0.12390488 0.07898014 -0.030793076 0.083757386 -0.14821927
-0.23581503 -0.013472345 0.21672063 -0.23994331 -0.18753053 0.16741765 0.05274758 -0.10536411
-0.23949629 -0.15000933 0.178877 0.34822586 -0.13837487 -0.19526596 0.04784867 0.08863968
0.06906838 -0.1421586 -0.1468887 -0.06843962 0.06529357 0.022665516 0.048087224 -0.091875754
0.035265055 0.10897503 -0.040844254 0.018262379 0.09517455 -0.09570052 0.061432544 0.16725717
-0.24573492 -0.11333084 0.045016237 0.02907913 0.037860785 -0.21084967 0.20103315 -0.10231191
-0.04590839 0.13134848 0.11629185 -0.20844553 0.15836304 0.11963623 -0.18419595 -0.22132514
0.017588824 -0.110897444 -0.12746553 -0.032682084 0.10409498 -0.03188551 -0.023198448 0.119373135
-0.073825404 -0.1366247 -0.10322581 0.102502115 -0.24439628 0.049508438 0.01857337 0.22357023
0.05882832 0.18658045 -0.06852792 -0.0792235 -0.16925827 0.21842024 -0.0097291125 0.034947716
-0.19808286 0.18958859 0.2807736 -0.024414213 0.054774895 -0.17311645 -0.07086772 -0.116914034
0.2921727 -0.046085995 -0.20230013 0.15449294 -0.27923384 -0.122120075 0.15292013 0.12866195
0.19451335 -0.05619478 -0.18074405 -0.16553587 -0.20290773 -0.14491628 0.031137507 -0.403211
-0.03662518 -0.08090498 0.07080632 0.06903397 0.054208484 -0.10246201 0.21776174 0.10058909
-0.13479322 0.095871724 0.034148775 0.38301584 0.095183685 -0.013992118 -0.2172771 -0.12789758
-0.17004703 -0.10997956 -0.20226431 -0.08581609 -0.38389033 0.22768864 -0.11883893 -0.29968476
-0.27185354 0.042419974 0.21181159 -0.123625234 -0.5486789 -0.35604858 0.08181226 0.2044181
0.53018564 -0.42283136 -0.35988575 0.17342323 0.30064076 -0.047475 -0.34006953 -0.290356
0.21645245 -0.46197894 -0.1927838 -0.38937822 -0.037096124 0.21483292 0.34883198 0.0395235
0.2105489 -0.11802324 -0.057041932 -0.10043496 -0.18611087 -0.101636685 0.16613315 -0.2661094
-0.14184894 -0.12840012 0.13660261 0.2077149 -0.28406334 0.054406196 0.06419372 0.03446672
0.013897603 -0.06552073 0.08923792 -0.028309625 0.085722424 0.16885349 -0.094175704 -0.25081378
-0.06646098 -0.1707583 0.09225496 -0.20093632 -0.1193107 -0.1056794 0.013354949 0.14793535
0.22416228 -0.087889634 0.2797178 -0.11220598 0.43477216 -0.06064185 -0.04006719 -0.31613576
-0.07325262 -0.102552615 0.078910194 0.085909426 0.07017375 0.010005269 0.09221082 -0.37669793
0.72841376 -0.06297785 -0.6047683 -0.021020127 -0.06998129 -0.017526899 -0.70633656 -0.0012575184
0.06954522 0.5020512 0.15080601 -0.022817384 -0.18471563 -0.09447421 0.0014537842 -0.040052496
00000000: 0050 e2bd 7fc0 3e3e 2c5c 47bd dd88 9abc
00000010: 778e 1b3e f8b2 243e 5490 06be 072b 0c3e
00000020: 68db 49be c265 cf3d 72ed 063e 1940 5ebd
00000030: 5bc4 20bd 5916 953d 0d8b 36be f0a7 343e
00000040: 4d6e 113e 5113 783e 253f 803c 5a53 4dbd
00000050: 0daa 62bd 5c11 0c3e 9cc9 d23b 401d 013e
00000060: cd72 89bd 6d6d bf3e ffd1 75be 25a6 71be
00000070: 43a7 0e3d d57b 383e 8690 a2be af81 05bc
00000080: 7e57 053e 74c3 16bd f094 193e 9bce b53e
00000090: 5582 08bd 7376 64be 7592 8d3d 188b 52be
000000a0: 56ff 543e eb36 d8bd 2402 4ebe d7c1 fdbd
000000b0: 57c0 a13d c341 fcbc fe88 ab3d cbc6 17be
000000c0: 7f79 71be 1cbb 5cbc 03ec 5d3e b3b3 75be
000000d0: 0108 40be 886f 2b3e d90d 583d 23c9 d7bd
000000e0: 843e 75be 0c9c 19be 882b 373e a94a b23e
000000f0: 24b2 0dbe cdf3 47be f8fc 433d b888 b53d
00000100: b973 8d3d 0692 11be fe69 16be 122a 8cbd
00000110: a3b8 853d 08ad b93c 1cf7 443d 5b29 bcbd
00000120: 1772 103d 4d2e df3d 4e4c 27bd fc9a 953c
00000130: e0ea c23d a2fe c3bd b1a0 7b3d 7745 2b3e
00000140: efa1 7bbe 001a e8bd f262 383d 5b37 ee3c
00000150: e913 1b3d fae8 57be a2db 4d3e e888 d1bd
00000160: 700a 3cbd 3780 063e 6c2a ee3d bf72 55be
00000170: ec29 223e d703 f53d dd9d 3cbe 0fa3 62be
00000180: 7016 903c 331e e3bd 5386 02be a6dd 05bd
00000190: c02f d53d 619a 02bd ac0a bebc e779 f43d
000001a0: c631 97bd 58e7 0bbe 0e68 d3bd a1ec d13d
000001b0: 0543 7abe 5cc9 4a3d 2e27 983c 98ef 643e
000001c0: f7f5 703d f20e 3f3e 5e58 8cbd ee3f a2bd
000001d0: 0a52 2dbe 8ea9 5f3e db66 1fbc 5625 0f3d
000001e0: 3cd6 4abe 8323 423e 8fc1 8f3e 5100 c8bc
000001f0: a45b 603d 7045 31be 1823 91bd a070 efbd
00000200: a997 953e abc4 3cbd c427 4fbe 6633 1e3e
00000210: bdf7 8ebe 171a fabd 1897 1c3e f5bf 033e
00000220: 822e 473e 7f2c 66bd f814 39be 3c82 29be
00000230: 0bc7 4fbe ef64 14be 1614 ff3c ac71 cebe
00000240: 4904 16bd 83b1 a5bd e702 913d af61 8d3d
00000250: b709 5e3d 9ad7 d1bd effc 5e3e a701 ce3d
00000260: 3c07 0abe 6558 c43d 96df 0b3d a71a c43e
00000270: aaef c23d 323f 65bc e37d 5ebe 95f7 02be
00000280: cf20 2ebe f73c e1bd 601e 4fbe 59c0 afbd
00000290: 468d c4be 3627 693e d361 f3bd 4870 99be
000002a0: 6330 8bbe 91c0 2d3d 23e5 583e 3a2f fdbd
000002b0: 3876 0cbf 004c b6be 308d a73d fa52 513e
000002c0: 3fba 073f 5a7d d8be f242 b8be dc95 313e
000002d0: 96ed 993e 2575 42bd 981d aebe 8ba9 94be
000002e0: b6a5 5d3e 8188 ecbe 1e69 45be 955c c7be
000002f0: 1bf2 17bd 29fd 5b3e 1b9a b23e 65e3 213d
00000300: 219a 573e 2bb6 f1bd cda4 69bd d8b0 cdbd
00000310: d993 3ebe e526 d0bd cf1e 2a3e 7e3f 88be
00000320: d940 11be 527b 03be 8ee1 0b3e 37b3 543e
00000330: c070 91be 08d9 5e3d ff77 833d fa2c 0d3d
00000340: c6b2 633c bc2f 86bd 5fc2 b63d 96e9 e7bc
00000350: 3d8f af3d eee7 2c3e 31df c0bd aa6a 80be
00000360: b21c 88bd 44db 2ebe 2bf0 bc3d 40c2 4dbe
00000370: 2b59 f4bd 716e d8bd b7ce 5a3c 5d7c 173e
00000380: cc8a 653e 7bff b3bd 2c37 8f3e 40cc e5bd
00000390: 759a de3e 9763 78bd 7e1d 24bd 8cdc a1be
000003a0: 7805 96bd 1b07 d2bd ab9b a13d 48f1 af3d
000003b0: 41b7 8f3d 24ed 233c 07d9 bc3d 8dde c0be
000003c0: 5379 3a3f 88fa 80bd 18d2 1abf 6732 acbc
000003d0: 5a52 8fbd 9294 8fbc 79d2 34bf 51d3 a4ba
000003e0: b96d 8e3d 6d86 003f e46c 1a3e 86eb babc
000003f0: 1826 3dbe b27b c1bd e78c be3a 160e 24bd
