TS-CVAE/experiments/EOT/models/models_24_Jul_2021_19_35_18_eot/model_registrar-45.pt (torch_old, 552549 bytes, 43 tensors)

weight_ih_l0 f4 [128, 6]
000000 eb 0a 87 bc 84 29 ab 3e b5 c9 ab be 1e e2 14 be
       -0.016484698 0.3343011 -0.33552328 -0.14539382
000010 43 dc 25 be 86 0a ae 3c c4 14 64 be 52 19 83 be
       -0.16197304 0.021245252 -0.22273546 -0.25605255
000020 ff d3 e0 bd 5d 51 9b 3d 29 be 1a bd 10 46 03 bd
       -0.10977935 0.07583878 -0.037779007 -0.03204924
000030 25 5e ed bd 2d 8d d4 bd c2 b6 1a 3c 8c e2 9d 3b
       -0.11590222 -0.1037849 0.009442987 0.0048182663
000040 65 de 43 be 34 15 f0 3d 0b 39 6e 3e d1 05 21 3e
       -0.19127806 0.11722794 0.23263948 0.15724875
000050 25 45 1a bd b0 53 87 be 2d 1a 81 3d f0 2f 48 3e
       -0.037663598 -0.26431036 0.06303821 0.19549537
000060 cc ff dd be 9c 4b b2 bd 34 2c 22 3e 55 af 4f 3e
       -0.4335922 -0.087058276 0.15837175 0.20281728
000070 d4 22 3b 3d 85 54 38 be 20 bc 97 3d d7 e3 f3 bb
       0.04568751 -0.18000992 0.07408929 -0.007442932
000080 9e 74 ac 3e 74 33 33 be 8d 3b 97 3e 76 70 e8 be
       0.33682722 -0.17500097 0.2953762 -0.453983
000090 30 15 c8 be 36 94 fc 3d 98 22 90 bd fe cc 80 be
       -0.39078665 0.123329565 -0.07037848 -0.25156397
0000a0 48 25 c7 bc 1d e2 9f bd b5 79 3e be a2 36 df 3e
       -0.02430977 -0.078067996 -0.18601115 0.4359637
0000b0 78 bc cd 3d bc c9 28 be 3d de d3 3c 2b 0c af 3c
       0.10045713 -0.16483206 0.025862807 0.021368107
0000c0 24 1e 9e 3e 30 37 7b be 8b 22 2a bd 6a 9f 76 3e
       0.3088237 -0.24532771 -0.04153685 0.24084249
0000d0 b4 31 a5 3d 63 22 03 3e 07 99 34 be 79 2b 31 be
       0.08066121 0.12806086 -0.176365 -0.1730174
0000e0 ce 38 e4 bc a9 01 2b 3e a1 53 67 3d a0 39 fa 3c
       -0.027859118 0.16699852 0.05647624 0.030545056
0000f0 d6 f4 ce 3d 79 13 a2 3e 6d 36 2a be e7 6e 97 be
       0.101052925 0.3165548 -0.16622324 -0.295768
000100 61 8e 97 bd b8 f1 16 be 90 74 01 be f4 e8 81 3d
       -0.074002035 -0.14740646 -0.12642121 0.063432604
000110 30 fd 98 be 4a 32 c0 3c 44 98 89 bd 6c d4 d0 3c
       -0.29880667 0.02346148 -0.067184955 0.025491916
000120 fb d6 44 be 6d b8 8b be d8 f1 68 3d a5 ec aa 3e
       -0.19222634 -0.27289143 0.056871265 0.3338367
000130 0e 35 92 be f3 f9 7e be 56 c8 4f be 8f f1 27 3e
       -0.28556103 -0.24900036 -0.20291266 0.16400741
000140 ba 30 58 3e f0 2e 50 bb c7 2e ad 3d b4 a2 99 3d
       0.21112338 -0.0031766258 0.08456188 0.07501736
000150 0d 09 1d be ce 78 80 be 83 52 31 be ba ef dc 3d
       -0.15335484 -0.25092167 -0.17316632 0.10787912
000160 a9 6b 04 be a8 3b 8a 3d 0a 3b f7 be 9f 4e 97 bd
       -0.12931694 0.0674966 -0.4828723 -0.07388043
000170 0e eb 3d 3e dd 71 31 3e c6 8e b5 bd a7 22 b3 3d
       0.18546697 0.17328592 -0.088651225 0.08746844
000180 05 3a 91 bd 93 b0 52 3e 5a 5b 11 3e 89 50 e2 bd
       -0.070911445 0.2057517 0.14195004 -0.11050517
000190 b5 b4 6b 3e 56 6f 06 be ad 1a 52 3d 41 b7 1c 3d
       0.23018153 -0.13128409 0.05129497 0.038260702
0001a0 83 a5 9a be fa 63 15 be 38 68 e5 bc 8e a8 06 3e
       -0.302044 -0.1458892 -0.028003797 0.13150236
0001b0 2e fb 23 be 2c 97 91 3e 43 65 75 3e a7 44 9d be
       -0.16013786 0.28435647 0.2396441 -0.3071644
0001c0 01 7e 17 bd 47 50 54 be 14 fe 94 be e5 be e5 bc
       -0.0369854 -0.20733748 -0.29100096 -0.028045127
0001d0 fc 80 c9 be f2 41 1a 3e e0 6c 22 3e 82 b7 d6 3d
       -0.3935622 0.15064219 0.15861845 0.1048422
0001e0 a3 6c d4 be 72 c9 d1 3d 38 d9 3b 3e 53 60 95 bc
       -0.41489133 0.10243501 0.18344581 -0.018234408
0001f0 c3 75 8f 3d 53 60 d7 3c 36 eb fc 3d de c0 b7 3c
       0.07004883 0.026291048 0.123495504 0.022430833
000200 61 11 a8 bb 6c 59 de 3e 04 7b e2 3d b9 c1 a7 3e
       -0.005129025 0.43427598 0.110586196 0.32764986
000210 3c d1 29 3e 14 da d3 be 1f ca 7b be 95 ed 93 3d
       0.16583723 -0.41377318 -0.24588822 0.072230496
000220 b8 3a 72 3d 2d 5c 42 3c 23 48 84 3d 6f 6e c1 bd
       0.05913803 0.011862797 0.064590715 -0.09444892
000230 c4 05 87 bd 8b 32 18 3c 57 b7 fb bc 17 c5 97 3c
       -0.065928966 0.009289394 -0.030727072 0.018526597
000240 a8 02 13 be c3 b2 0c be 04 0c fa ba 6c 58 08 3d
       -0.14356482 -0.13740067 -0.0019077067 0.03328745
000250 76 97 ab bc cc ed 90 bc d9 40 f0 3c 46 16 83 bd
       -0.020946246 -0.017691515 0.029327797 -0.06400733
000260 9f 26 41 be c5 f7 c4 3d db d6 2e bd 45 b1 a8 bc
       -0.18862389 0.09617571 -0.04268537 -0.020592341
000270 2f ad 52 ba 17 d1 de bb 86 7d 48 be d4 0b fa 3c
       -0.00080366706 -0.006799828 -0.19579133 0.030523218
000280 d2 50 dd 3a 3e 69 1f 3d 6c 9a 0f 3e 6c 00 12 3e
       0.0016885048 0.038918726 0.14023751 0.14257973
000290 27 d8 bb 3d 4b 42 ec 3d 8f f4 d7 3b f2 7d ab 3e
       0.09172087 0.11536082 0.006590433 0.33494526
0002a0 4c 28 bc 3d d0 1b a1 3d 7f 6a 56 be c0 b3 77 3d
       0.091873735 0.07866633 -0.20939063 0.060474157
0002b0 db f9 b5 bc 96 85 b5 3e 12 a1 2d 3d 39 d5 0c bc
       -0.022213867 0.3545348 0.042389937 -0.008595758
0002c0 9a 3a e2 be 88 08 1b 3e bf 1b cb be fc 11 13 bb
       -0.44185334 0.15139973 -0.39669606 -0.002244114
0002d0 0f f3 62 be 86 a0 44 be ca 52 ac 3e af 1f 4c 3c
       -0.22163032 -0.1920186 0.33656913 0.012458726
0002e0 ba 29 f1 bc 48 c9 4d be e7 82 f8 bd 6b 6b 4e be
       -0.029438842 -0.20096314 -0.12134343 -0.20158164
0002f0 8e 7f ed 3c 27 7a 39 3e 63 b4 96 bc 40 db a6 3c
       0.028991487 0.18113004 -0.018396562 0.020368218
000300 12 36 ed bd 26 67 9d 3e a1 55 80 be 78 09 6e be
       -0.11582579 0.3074276 -0.2506533 -0.232458
000310 b1 1a 02 be 99 4c a4 be c0 d8 87 3c 13 47 26 3d
       -0.12705494 -0.3208969 0.016582847 0.040595125
000320 ad 44 ca 3c d1 be 78 bd d9 10 af 3d 36 28 80 bd
       0.02469095 -0.06072885 0.08548135 -0.0625767
000330 80 25 65 3d be 9d 28 3d 2a c4 50 bd 5e 82 19 bd
       0.055943966 0.04116606 -0.050968327 -0.037477843
000340 a4 9b 29 bc cb 78 b3 bc 88 e9 7e bd dc 52 f7 bd
       -0.010352049 -0.021908185 -0.06223443 -0.12076351
000350 59 60 8c bd 7d a6 36 be 85 85 75 3c bc 01 58 bd
       -0.06854314 -0.17836948 0.014985447 -0.05273603
000360 a4 53 33 3d fb da c5 bd a6 e6 57 3e a7 c8 e9 3d
       0.043780938 -0.09660908 0.21084079 0.114152245
000370 a9 b0 c0 bd 51 e0 08 3d 3b 58 f1 3d f7 82 ae be
       -0.09408695 0.03341705 0.11784407 -0.34084293
000380 64 87 8f 3e 36 61 5d be a5 3f b9 bd e4 9a 2f bc
       0.28032982 -0.21619114 -0.09045342 -0.010718081
000390 93 a7 ac 3c 96 fa 22 3d 31 4f bb 3d e3 06 ed bd
       0.021076 0.03978976 0.09145964 -0.11573579
0003a0 bd cb e0 bb 94 19 a9 be 6e 37 23 3c 89 29 7c 3c
       -0.006860225 -0.33027327 0.009961946 0.015390762
0003b0 ec 87 13 3e 91 95 4d be 18 ef 5b 3a 22 7e 18 be
       0.14407319 -0.20076586 0.0008389815 -0.14891866
0003c0 99 77 4a 3e ee 06 1a be c8 25 3a be c3 b5 f6 3d
       0.19772185 -0.15041706 -0.18178475 0.12046387
0003d0 4f 03 95 be 63 41 fc 3e 5a a6 4f be 75 2a 23 bd
       -0.29104087 0.49268636 -0.20278302 -0.039835412
0003e0 02 63 e5 3d 3f 77 e3 3d d1 42 0d 3e 9d 67 69 3d
       0.11200525 0.11106729 0.1379502 0.05698358
0003f0 18 02 17 3e fb 93 3a be 19 46 9e 3d f5 9d 0a be
       0.14746892 -0.18220513 0.07728214 -0.13536818

weight_hh_l0 f4 [128, 32]
000000 c2 c9 5d 3c 84 0a 4d be a1 1c 82 3c 9c 49 8a 3e
       0.013536872 -0.20023543 0.015882792 0.27009284
000010 a8 31 4f 3e 5d 3d c8 3d d5 65 7f be 83 ab d4 3d
       0.20233786 0.09777329 -0.2494119 0.10384276
000020 b6 6e 61 3e 0f 0e 94 3e cf f1 60 be 60 91 13 3e
       0.22014889 0.28916976 -0.21967243 0.14410925
000030 14 c9 a8 be 5a a0 2c 3e db c6 bd bc 3c d6 c8 bc
       -0.3296591 0.16858044 -0.02316611 -0.024516217
000040 7a fe 85 3d 74 72 8e be ad bb 17 3d 73 56 8f be
       0.06542678 -0.27821696 0.037044216 -0.27995643
000050 25 6f 0d 3c db 58 71 3d 9f da 07 3d 40 dd 03 be
       0.008632456 0.05892263 0.033167478 -0.12877369
000060 26 be a9 3e 22 91 0e be d1 f2 39 3e 41 15 6e 3d
       0.33152884 -0.13922551 0.18159033 0.058125738
000070 f1 f9 44 3c b0 62 7e bd 8e 68 5f 3e 25 03 b6 bd
       0.012022481 -0.062105834 0.21817228 -0.088873185
000080 9a 74 06 3f 0a 0a 40 be ad bb e5 3d 22 91 46 3d
       0.5252167 -0.1875383 0.11217437 0.048478253
000090 99 b5 04 3f 5e 04 c1 3e 7a 10 b0 3d 70 8f eb bd
       0.51839596 0.37698644 0.08596893 -0.11501968
0000a0 f9 a0 9f 3e 0d 3d af 3d 1e 17 75 be 1b e7 a6 be
       0.311775 0.085565664 -0.239346 -0.32598194
0000b0 c5 a7 e7 be d8 66 95 3e ea e8 7f 3d 1f ec 8e be
       -0.45245185 0.29180026 0.062477984 -0.2791452
0000c0 fc 87 ba 3d 8d e1 ca 3c a4 7b 35 bd cf 94 f5 bd
       0.09107968 0.024765754 -0.044307366 -0.119912736
0000d0 55 3d 8e bd 70 33 2a 3e d2 51 84 3d ff 0c 86 bd
       -0.06945292 0.16621184 0.064609185 -0.065454476
0000e0 9f 85 08 3e fe 8b db bd 42 b5 a4 be 91 15 bd be
       0.13332222 -0.10720061 -0.3216954 -0.36930516
0000f0 ed b1 7d be 8c 91 9d bc b5 96 06 3f d8 f0 57 be
       -0.24774905 -0.019234441 0.5257371 -0.21087968
000100 01 51 9a 3e 50 5e 09 be 04 4d db bc d6 58 c2 3e
       0.30139926 -0.13414884 -0.026770122 0.379584
000110 a7 8a 9f 3d 72 be 86 3e d3 20 1e 3e 26 93 f3 be
       0.07790118 0.26317173 0.15442209 -0.47573203
000120 34 6c b3 3e 61 e9 87 3c fb 6f 4b 3d 3d 9b 18 3d
       0.3504349 0.016590776 0.04966734 0.03725742
000130 43 f1 8f be 93 a6 80 be 68 72 c1 be ad b5 8a bd
       -0.28113756 -0.25127086 -0.37782598 -0.06772933
000140 be db 04 3e 89 4c e1 3d 14 a6 e4 3e 6a 7a 55 bf
       0.1297445 0.11000926 0.44657958 -0.83389914
000150 14 ec 89 3d 01 b7 56 3e 18 9f a0 be bf ff 92 3d
       0.067344815 0.20968248 -0.3137138 0.07177686
000160 ff a9 4a 3d 01 1d 99 bc f9 6c 10 3e f6 37 a6 be
       0.049478527 -0.018690588 0.1410407 -0.3246457
000170 a9 95 43 be ef ed cb bc 35 3f 77 3d 0d 1c b2 bc
       -0.1910006 -0.024893729 0.060363013 -0.021741891
000180 8e 2b 51 3e 10 1f 68 3e 82 91 55 bc 0d 85 f7 3d
       0.20426771 0.226681 -0.01303518 0.12085924
000190 f1 52 5b be b9 d9 12 be 4d 66 0b 3e 06 a5 a7 bd
       -0.21418358 -0.14340867 0.13613243 -0.081857726
0001a0 3e 12 47 3b d6 de a2 bd e8 c4 73 bd 6d ff 94 be
       0.0030375863 -0.07952659 -0.059513956 -0.29101124
0001b0 f5 49 35 be 66 a8 83 3c b2 64 80 be 92 15 be bd
       -0.17703994 0.01607151 -0.25076824 -0.09281458
0001c0 fe 6b c0 bd b5 6e 2b 3e 0e d1 0c 3e e8 22 7f be
       -0.09395598 0.1674145 0.13751623 -0.2491566
0001d0 01 f8 43 be 99 5e 4c 3e cd 28 33 3e 01 6c b8 bd
       -0.19137575 0.19957961 0.17496033 -0.09004975
0001e0 f9 18 b5 be ce a1 7c bd dd 0f 88 be 74 cf 33 bc
       -0.35370615 -0.061677746 -0.26574603 -0.010974754
0001f0 98 fa 0d be ab 8a 56 3e 96 dd a1 3c 80 06 1d 3e
       -0.13865125 0.20951335 0.01975898 0.15334511
000200 36 e6 81 bd 20 25 8f bd 84 bc d2 3d 09 47 92 bd
       -0.063427374 -0.06989503 0.10289863 -0.07142455
000210 51 00 82 3e 6e 8d 3f 3e a2 08 45 bc ee 21 da 3d
       0.25390866 0.18706295 -0.012025984 0.10651003
000220 7c 3c 9d 3d fd 3c 86 bd 5f 88 99 be 4c 27 38 be
       0.07677552 -0.06554601 -0.29986855 -0.1798374
000230 0b db e9 be 5a 12 54 3e 52 c5 a0 bc 8b 41 68 be
       -0.4567493 0.20710126 -0.01962534 -0.22681253
000240 d6 06 5e bd e0 de 76 3d 0c 91 83 3c f0 40 b8 be
       -0.054205738 0.060271144 0.016060375 -0.35987043
000250 4e d6 91 3c 25 f1 0f 3f 1a f2 ea 3d 56 bb ec bd
       0.017802384 0.5622733 0.114719585 -0.11559169
000260 cd c3 d2 3d 3e 49 c1 bd c0 a6 34 be 0d 42 ff be
       0.10291252 -0.09437798 -0.17641735 -0.4985508
000270 20 8b 5d be 77 a7 8d be 27 16 98 3e 83 78 2d 3d
       -0.21635103 -0.27666828 0.297044 0.042351257
000280 18 9c da 3d 96 cc 2c 3c 4e 5e 5b 3d 2b b6 ae bc
       0.10674304 0.010546824 0.053556733 -0.021327099
000290 49 9a 69 be cd d2 14 3e 74 c3 7d 3c 43 97 7e bd
       -0.22812761 0.14533539 0.015488494 -0.062155973
0002a0 c8 a1 00 3c 3a d0 2d be 69 29 27 bd 41 56 33 be
       0.007851072 -0.16973963 -0.040810976 -0.17513372
0002b0 0e a7 33 be fe 6f d8 3d 14 d0 59 bd 2e 76 e4 3d
       -0.17544195 0.10568236 -0.053176954 0.111553535
0002c0 22 a7 8d 3d 78 ef 47 3e ab d4 1d be 33 a1 9d 3d
       0.06916644 0.19524944 -0.15413158 0.07696762
0002d0 ca 26 a0 3d 6d 3a 5a 3b 59 5d f8 3d 24 a4 39 3c
       0.078198984 0.0033298985 0.1212718 0.011330638
0002e0 cc 77 9f be 3f 76 eb bd aa 6d 3b 3e 4e 7c 9e bb
       -0.31146085 -0.11497163 0.18303552 -0.0048365956
0002f0 d6 e3 b7 3a df f4 83 3b 58 74 e9 3b 7a 62 9b 3e
       0.0014029692 0.0040269936 0.007124465 0.3034857
000300 ba ad 5e 3e 8c b5 ae 3d b4 fd 7a bc f1 af fe 3e
       0.21745959 0.08530721 -0.015319277 0.49743608
000310 89 0b b8 bd 70 e3 be 3d c3 ff be 3e b0 65 00 bf
       -0.08986575 0.09320724 0.37304506 -0.5015516
000320 ea f0 fc 3e 03 b4 56 3d ef 5d 10 bd 1f 45 23 be
       0.49402553 0.052417766 -0.035245832 -0.15944336
000330 de bf 92 be 4c f8 80 3e 7a 55 c2 be 52 2e 5e 3d
       -0.28662008 0.25189435 -0.37955838 0.054243393
000340 a4 c5 02 be 71 81 b1 3d ca 52 00 3f 0f 3f 60 bf
       -0.12770706 0.08667267 0.50126326 -0.8759622
000350 01 81 21 be 5a c3 e4 3e 4d c9 df bd c5 5d f8 bd
       -0.15771867 0.4468029 -0.10927067 -0.1212726
000360 16 7a 84 be d0 a0 38 be 76 41 f2 3d da 50 d1 be
       -0.25874394 -0.18030095 0.11828892 -0.40881997
000370 02 21 e2 be 3f 2e fc 3c ea 32 93 be e3 39 07 bd
       -0.44165808 0.03078377 -0.28749782 -0.03301419
000380 98 83 87 3e 91 78 e0 bd e1 59 19 be 91 91 16 3d
       0.26467586 -0.10960496 -0.14975692 0.036759917
000390 80 a6 42 3c 44 f9 30 3e a3 1a 44 3e 1a 91 3e be
       0.011880517 0.17282587 0.19150786 -0.1861004
0003a0 61 a3 fa 3e 94 44 65 bc d7 3d 53 3e a6 46 e9 bc
       0.48952773 -0.013993401 0.20629059 -0.02847607
0003b0 ce 1d e8 3d 11 7e ec 3d bb c7 8b be d0 28 36 3e
       0.1133381 0.11547483 -0.2730082 0.17789006
0003c0 ff 8f 10 3e 18 00 3b 3e bd d0 41 3e ec 1b b8 be
       0.1411743 0.18261755 0.18927284 -0.35958803
0003d0 14 e1 b3 bd 9c 54 0d be 51 42 e9 be 0f c7 0a be
       -0.087831646 -0.13801807 -0.45558408 -0.13552497
0003e0 a8 22 f2 bd 26 96 af 3d 8e ad 46 3d 5a c3 56 be
       -0.118230164 0.085735604 0.04850536 -0.20972958
0003f0 d0 53 19 bd f9 89 07 3e 30 c7 a6 3c 8f b6 1c bd
       -0.037433445 0.13236226 0.020358652 -0.03826004

bias_ih_l0 f4 [128]
000000 b3 dc 02 3e 04 80 6f 3e ad c1 e0 3e d3 79 fc 3d
       0.12779503 0.23388678 0.43897763 0.123279236
000010 7d 94 8c 3e cf 19 83 3e 6a 30 95 3e ac 5b 45 3e
       0.27457038 0.25605628 0.291385 0.19273251
000020 70 eb c3 3d 7f e8 ae 3e 5d 03 c6 3e d4 23 88 3e
       0.095663905 0.34161755 0.3867444 0.26589835
000030 a8 54 93 3e 4a 2a 32 3e 4e 13 5a 3e c1 be 95 3e
       0.28775525 0.17398944 0.21296427 0.29247096
000040 a6 e0 bd 3e da 23 7d 3e 4f 87 92 3d 0c 88 5b 3e
       0.37085456 0.24720708 0.07154714 0.21438617
000050 bb 26 14 3f ee 3d 3e 3c ce af e7 3e 71 78 20 3e
       0.578716 0.011611445 0.45251316 0.15670945
000060 c1 cb 0c 3f c0 ab b0 3e d1 c7 a7 3e 0b 41 29 3e
       0.54998404 0.34506035 0.32769635 0.16528718
000070 25 60 d8 3b 4f 07 b1 3d 68 0d 95 3e 01 c7 be 3e
       0.006603258 0.08643972 0.2911179 0.37261203
000080 76 1e e4 3d 36 a9 5f be 02 24 d5 be 01 0f 56 3d
       0.111386225 -0.21841893 -0.41629034 0.052260403
000090 a2 17 c7 be d2 5e c5 bd 97 2b c9 be 37 62 ef bd
       -0.38885218 -0.09637226 -0.3929107 -0.11688655
0000a0 a9 02 29 be 38 ef ae bc 30 c5 9f bc 91 9b 12 bd
       -0.16504921 -0.021354303 -0.019503206 -0.03579289
0000b0 ac 5a 6c bd c3 57 82 3d 83 ce 35 bd 48 90 cf be
       -0.05770366 0.063643955 -0.044386398 -0.40539765
0000c0 45 30 87 be d2 21 01 3d 66 60 16 be ba a0 de 3d
       -0.26404014 0.031526394 -0.1468521 0.108705
0000d0 fa fb 0d bf 4a f5 26 3d 6a ea ef bd 87 d5 cb 3c
       -0.5546261 0.04076127 -0.11714633 0.024882091
0000e0 5b 7e 9f be c4 77 85 3d 74 88 65 bd 60 37 9d 3d
       -0.3115109 0.06516984 -0.056038335 0.076765776
0000f0 bf 3b 73 bd 7b 6c 94 be c4 f3 ce be 81 35 9a be
       -0.05938315 -0.28989014 -0.40420353 -0.30118945
000100 c7 c3 06 3e 6d fd f4 3d db d0 85 bd 2e 82 d2 3d
       0.1316062 0.119624 -0.06533977 0.10278736
000110 12 46 db bd 16 7a 39 3d d7 49 d4 3d fa 37 60 bd
       -0.10706724 0.045282446 0.10365646 -0.054740883
000120 c8 04 1e bd c1 25 93 3d f3 bf 9c bd 20 80 93 3c
       -0.03857878 0.07184935 -0.07653799 0.01800543
000130 9b 10 0a be 95 6f 05 bd a0 22 61 bd f0 9a de bd
       -0.13482897 -0.032577116 -0.05496466 -0.10869396
000140 86 9f aa bd 8c e3 d9 bd e7 fa a7 3d 7c 4c f9 bd
       -0.08331208 -0.10639104 0.08202153 -0.12172791
000150 58 c0 38 3d 67 12 06 3e 98 f6 ff 3d c0 b5 18 be
       0.04510531 0.13092957 0.12498206 -0.14913082
000160 4b f7 08 3e 63 3d 8f bd c9 6b cc 3c da e1 14 be
       0.13375585 -0.069941305 0.02495374 -0.1453928
000170 f0 26 f2 bd 8e a8 ce 3d b1 0e cc 3c 78 4d 6c bd
       -0.11823833 0.10090743 0.02490935 -0.057691067
000180 94 9a b5 3e be c6 89 3e b2 e8 fa 3e 1f 88 39 3e
       0.35469496 0.2690944 0.49005657 0.18118332
000190 ed 42 dd 3e 80 d9 50 3e 3e cd a5 3e 12 d4 87 3e
       0.43215123 0.2039547 0.3238315 0.26528984
0001a0 b1 10 97 3b 5d 0e c9 3e a1 4f 57 3e 68 fe 83 3e
       0.004610144 0.3926877 0.2102647 0.25780034
0001b0 d2 72 80 3e 94 8f 61 3e bb 81 90 3e e7 f6 06 3f
       0.250876 0.22027427 0.28223976 0.52720493
0001c0 ed ad 0d 3f 79 2e 33 3e 50 58 5f 3e f0 ef b7 3d
       0.55343515 0.17498197 0.21811032 0.08981311
0001d0 f4 76 3d 3f 73 35 d0 3c 01 76 e5 3e dd 9d 68 3e
       0.74009633 0.025416112 0.44816592 0.2271647
0001e0 e2 57 d0 3e bb 25 c8 3e a4 00 fc 3e ca 73 03 3e
       0.4069205 0.39091286 0.4921924 0.12837139
0001f0 18 ea f0 3d 76 3d 88 3e 44 a0 d0 3e 9c 10 8e 3e
       0.117634 0.2660939 0.40747273 0.27747047

bias_hh_l0 f4 [128]
000000 c5 04 ab 3d 18 ec 7c 3e 7d 41 9c 3e 74 cc 91 3e
       0.08350519 0.24699438 0.30518714 0.28476298
000010 6f 31 d6 3e d4 28 47 3c eb 49 42 3e 99 97 bd 3e
       0.4183459 0.01215573 0.1897351 0.37029722
000020 1f 24 39 3e e1 aa 01 3f dd 6a 05 3e ce 74 10 3e
       0.18080185 0.50651366 0.13029046 0.14107057
000030 69 97 4a 3d 96 bf ef 3e 6d ce 81 3e 63 e1 e7 3e
       0.049460802 0.46825856 0.25352803 0.45289144
000040 c9 59 91 3e 89 85 75 3e c1 c8 c5 bc 10 31 2e 3e
       0.28388813 0.23976721 -0.024143578 0.17010903
000050 ea f4 39 3f c3 f1 44 3e b5 4a f6 3e b4 4f 62 3e
       0.72639334 0.1923285 0.48103872 0.22100717
000060 02 3e e7 3e d2 ec a8 3e c2 70 cd 3e c3 f2 96 3d
       0.45164496 0.3299318 0.4012509 0.07370522
000070 90 a5 99 bd e0 e4 9d 3d 6d a5 b8 3e a4 79 d8 3e
       -0.07502282 0.0770967 0.3606371 0.42280304
000080 97 5c b9 3c f0 f1 44 be 4e e3 36 be ad 93 1d be
       0.022627158 -0.19232917 -0.17860147 -0.15388365
000090 3c d6 a4 bd 13 22 88 3d fd 01 81 be 22 ff 85 be
       -0.080486745 0.06647124 -0.2519683 -0.26171213
0000a0 5b c0 bc bd 6d e0 9e bd 19 0f 15 ba 5e 9e c6 bd
       -0.092163764 -0.077576496 -0.00056861487 -0.09698175
0000b0 25 c0 77 bd b8 24 ed bd 1c 2f 7c 3d f7 e7 b5 be
       -0.060485978 -0.11579269 0.061568365 -0.35528538
0000c0 3a 28 ca be 77 15 15 bd af af f2 bd 3e a5 94 bd
       -0.39483815 -0.036397424 -0.11849915 -0.0725808
0000d0 fa 49 d2 be 87 ed f9 bd 73 30 ae be eb 85 4b bb
       -0.41072065 -0.12203508 -0.3402134 -0.0031055163
0000e0 23 dd 03 bf 2a 4d 79 be a8 80 9e be 39 ab 83 3c
       -0.515093 -0.24345842 -0.30957532 0.016072856
0000f0 d4 69 b3 bd 7a 44 65 bd 30 53 8b be 14 14 54 39
       -0.087604195 -0.055973507 -0.27211905 0.00020225375
000100 dc 4a 1b be 96 ba 18 be 73 81 d6 3d da 26 41 3d
       -0.15165275 -0.14914927 0.10473909 0.047156192
000110 15 2f 19 3e 99 ee 9e 3d 6e ee a8 bd 05 9e 00 bc
       0.14959367 0.07760353 -0.08248602 -0.007850175
000120 67 49 d2 3d df 54 b2 bc bd 1a 52 3d a3 95 10 3d
       0.10267907 -0.021768985 0.05129503 0.035298955
000130 d0 f0 3b 3d 49 b8 0a 3d 8d da 07 be 88 dd 19 3d
       0.045883954 0.033867154 -0.13266964 0.037564784
000140 0b c4 1d 3c 6b 43 0b 3e 70 bb f4 3b cc 44 7e be
       0.00962926 0.13599937 0.0074686334 -0.24830931
000150 fc 1b e5 bd f4 55 90 3d 48 eb f2 bd a3 a4 ca 3d
       -0.11186978 0.07047644 -0.118612826 0.09894683
000160 69 82 d6 bd 4b 39 12 3d 33 ba e4 3c 7c 3c fa bc
       -0.104740925 0.03569917 0.027920818 -0.03054642
000170 66 b1 da bd a9 00 36 be 5a d5 bc 39 fa a9 3d 3d
       -0.10678367 -0.1777369 0.00036017114 0.04630468
000180 1c 68 75 3e f7 8c ce 3e 4a fc aa 3e 71 26 d1 3e
       0.23965496 0.40341923 0.33395606 0.4084964
000190 3a e0 07 3f 5f d7 db 3d c1 bc 05 3f 20 6d 13 3f
       0.5307652 0.10734438 0.5224114 0.57588387
0001a0 2e 4e 4a bd e1 7f d4 3e 4f 2f e7 3e d7 5c ab 3e
       -0.049390964 0.41503814 0.4515328 0.3346927
0001b0 d2 ac 86 3e 97 b0 d3 3e b8 f1 4e 3e 43 fa 08 3f
       0.26303726 0.41345665 0.20209396 0.5350687
0001c0 dc 69 12 3f 5d 6d 1c 3d 54 7b a5 3e 44 f0 09 bd
       0.5719278 0.038190234 0.32320654 -0.0336764
0001d0 49 01 34 3f 14 b5 5d 3e b2 95 19 3f c1 31 b8 3e
       0.7031446 0.21651107 0.5999404 0.3597546
0001e0 87 41 18 3f e8 ad bb 3e a2 4a 0b 3f 01 ce 09 3e
       0.59474987 0.36656117 0.54410756 0.1345749
0001f0 53 cc 3f bc 13 67 85 3e 8f 75 de 3e d3 d7 f4 3e
       -0.0117064295 0.26055202 0.43449065 0.4782091

weight_ih_l0 f4 [128, 2]
000000 99 cb f5 3e 3f a9 06 3e 51 8b 14 be 5b 4c 3e bd
       0.48006895 0.131505 -0.1450627 -0.046459537
000010 be b6 ab 3e 6a cd 47 3e ec a5 1d be 84 69 9a bd
       0.3353786 0.19511953 -0.15395325 -0.07539657
000020 06 67 87 bc 57 9c aa bd 8b d8 a0 3c 34 44 db 3d
       -0.016528618 -0.08330601 0.019634506 0.10706368
000030 cf 94 c9 3c c3 a3 28 bd 7f 88 9b 3c 69 61 c7 bd
       0.02460709 -0.0411718 0.018985985 -0.097353764
000040 d5 54 9a 3e 45 f5 27 bd 60 eb 8e 3b 47 6d af bd
       0.30142847 -0.04100539 0.004361555 -0.08565765
000050 ba b5 7c bd 10 8d 20 3e 40 80 10 bd ca 7b 55 bc
       -0.061696745 0.15678811 -0.03527856 -0.013030002
000060 e7 db 60 be 88 54 10 bd 07 cd 2b bd c8 21 09 be
       -0.21958886 -0.035236865 -0.041943576 -0.13391793
000070 30 e4 5f 3c 91 b6 29 3d 33 b5 42 bd 5e 90 db 3d
       0.013665244 0.041433875 -0.047536086 0.10720895
000080 dd e2 18 be 63 5f 7c 3d 92 30 0b 3e 4b 42 78 3e
       -0.14930291 0.061614405 0.13592747 0.24244039
000090 a5 8f 7e bb d4 16 d6 3c 67 af a1 bd 33 4e 92 bd
       -0.0038842943 0.026133932 -0.078947835 -0.071438216
0000a0 a1 87 12 3f e2 3a b9 bd ec 97 c4 bd ba 34 1c 3d
       0.57238203 -0.09044434 -0.09599289 0.03813622
0000b0 56 c4 03 bc 3a 6d e9 3c 12 44 d3 bd 51 0f 7f 3c
       -0.008042416 0.028494466 -0.10315718 0.015567617
0000c0 8f 94 fa 3d c0 3c 88 3d 2b 89 a2 3c f3 35 ed bc
       0.122353666 0.06652212 0.019840797 -0.028956389
0000d0 b5 95 ae 3e 99 cf c7 3d 44 05 27 be 68 f8 ba 3c
       0.34098592 0.09756393 -0.16310602 0.022823527
0000e0 d7 b9 c3 bd 2f 5a 89 3e 70 35 83 3d 50 a3 99 3d
       -0.095569305 0.26826617 0.06406677 0.075018525
0000f0 70 45 31 3e 1b 26 70 3d e8 34 c0 bd 8c 67 8d bc
       0.17311645 0.05863009 -0.09385091 -0.017261289
000100 c2 1e a5 bd 61 68 d5 bd 24 6e ef 3c 8b b8 f1 bd
       -0.08062507 -0.10420299 0.029227324 -0.11802777
000110 ac ab 6f 3d ac 9d d3 3c 7e ec b0 3d 09 5c 51 bc
       0.05851333 0.02583202 0.08638857 -0.012778291
000120 6b 1a 0b 3e f2 2b 89 3b 14 a9 b8 bd 90 6a be bd
       0.13584296 0.004186147 -0.09016624 -0.09297669
000130 27 bb 16 3c 9c 11 02 3e 50 78 44 3e 59 16 79 3d
       0.009199894 0.1270203 0.1918652 0.060812328
000140 66 bc 1b be 27 8c d0 3b c6 5e 6d 3d b2 ca 08 bd
       -0.15208587 0.0063643637 0.05795171 -0.03339643
000150 da 43 79 3c 1e 9a ff bd fe 7a c0 bd 9a e7 28 3e
       0.015213931 -0.124805674 -0.09398459 0.16494599
000160 4c 19 a6 bd d3 b4 a2 3d 2b b9 ab 3d 6b 23 a0 3d
       -0.08110294 0.07944646 0.08384927 0.078192554
000170 7a 80 9e 3d fe 85 97 3d e2 19 e1 3c 8a af 30 bc
       0.07739349 0.07398604 0.027478162 -0.010784039
000180 9c e4 24 bc e1 6d e0 bd ea e4 57 be 86 6d e0 be
       -0.01006427 -0.10958458 -0.21083418 -0.4383356
000190 d5 d3 be bc 04 7e 3e 3d 05 b5 05 be ad 68 c2 bd
       -0.023294369 0.046506897 -0.13057335 -0.094926216
0001a0 09 e7 a3 be 66 67 99 bd 9e 0f 2f 3e 37 e2 bc bd
       -0.32012203 -0.07490425 0.17095801 -0.092228346
0001b0 08 f1 13 bd d0 d5 cc bd 9a 5f 00 3c 55 41 55 bd
       -0.036118537 -0.10001719 0.007835293 -0.05206426
0001c0 36 59 38 be ba 57 22 bd 02 f1 1c bc 63 89 58 3b
       -0.18002781 -0.039634444 -0.009578945 0.0033040873
0001d0 ba 68 0e 3d 04 2e 69 bd f6 45 94 3d e9 24 a0 bd
       0.034767844 -0.05692865 0.072399065 -0.0781954
0001e0 f6 21 4c 3e 92 33 20 bc 7b d8 b3 3c 33 8f 11 3d
       0.1993483 -0.00977792 0.021953812 0.035536956
0001f0 01 6c 75 3d 5e fa c5 bd 55 e8 15 bd ef 07 e3 bc
       0.059917454 -0.096668944 -0.036598522 -0.027713744
000200 55 7e d3 3d 2f 74 b8 3e c1 a9 98 be ce ab a5 be
       0.1032683 0.3602614 -0.29817012 -0.3235764
000210 40 1e 17 be 70 66 a8 bd 07 c0 10 be 9a e7 4d be
       -0.14757633 -0.082226634 -0.14135753 -0.2010788
000220 d0 8d a7 be 32 82 a0 3d f0 8d 95 3e 5c 56 14 be
       -0.32725382 0.07837333 0.29209852 -0.14486068
000230 c3 4e 20 be ea df 9c be 3c 4b 88 3e 41 93 5a be
       -0.15655045 -0.30639583 0.266199 -0.21345235
000240 fe dd 8a 3e 1a 16 3a 3c 92 c9 07 bd b4 0b 7b 3e
       0.27122492 0.0113578085 -0.033151217 0.24516183
000250 f2 21 48 3e b2 62 e9 3e 05 fd f0 bd db 9b 05 3f
       0.19544199 0.4558311 -0.1176701 0.5219094
000260 93 45 8c be 43 2f 4f 3d bd 5f 0e 3d 86 76 48 3e
       -0.2739683 0.05058218 0.034759272 0.19576463
000270 7a 77 b2 bd 3a bb 98 be 5e 70 c8 bc ce ce f9 3e
       -0.087141946 -0.29830343 -0.024467643 0.48790592
000280 49 31 d9 3d c5 57 99 3d 42 0a 8e be 8d 94 91 3d
       0.106051035 0.07487444 -0.277422 0.07108412
000290 87 32 8e bd 4b 12 11 3e ec bc c1 3c 31 58 ea 3c
       -0.06943231 0.14167134 0.023649655 0.028606506
0002a0 54 d6 2d be 70 ae ed 3d cf 9d 1c be 9a b4 1f 3e
       -0.16976291 0.11605537 -0.15294574 0.15596238
0002b0 d3 88 af bc fd cb c1 be c7 ed ff 3e 0e dd 98 3c
       -0.021427548 -0.37850943 0.49986097 0.018660095
0002c0 53 79 4c 3e 04 94 a2 3e 9f f2 ca bd 4f b6 f4 3e
       0.19968157 0.31753552 -0.099095576 0.4779534
0002d0 07 04 d9 be ca 2c 4d 3d af a9 f2 3e 7f 09 b9 bb
       -0.42385885 0.050091542 0.47395083 -0.005646884
0002e0 26 9f ba 3e 7d 26 30 3d 55 4d 79 3e 53 96 80 3e
       0.36449546 0.043005455 0.24345906 0.25114688
0002f0 32 82 81 3e 4a e9 91 3d fd 49 38 bd 05 22 9a be
       0.25294644 0.071245745 -0.044992436 -0.3010408
000300 a8 e0 fa be 00 1f 73 be 4d 34 24 3f e0 13 b8 3e
       -0.48999524 -0.23742294 0.64142305 0.35952663
000310 11 17 d1 3d 88 a9 2d be 11 87 bc 3e 5c 2b 03 bd
       0.10209478 -0.16959202 0.36821797 -0.032023773
000320 0a 1c f8 be c1 7d 75 3e bf 99 05 be e4 ae 97 bc
       -0.48458892 0.23973753 -0.1304693 -0.018516012
000330 e5 b1 bf be 40 19 0c bf cf 67 e0 be 76 6e 51 3e
       -0.3744041 -0.5472603 -0.438292 0.20452294
000340 f7 99 95 be 4c 7a d9 3d 02 8c 02 3e e4 f7 ac be
       -0.29219028 0.106190294 0.12748721 -0.33782876
000350 e7 f2 2a 3f 00 43 60 bc ca 68 0e 3e 3f 0b 59 be
       0.6677689 -0.013687849 0.13907161 -0.21195696
000360 bf a0 61 3d 82 ff 67 3e 5a 7e a4 3e 51 b5 d2 3e
       0.05508494 0.22656062 0.3212765 0.41153958
000370 44 47 d8 3d b3 9b ef 3d f0 90 d2 bd c1 98 e5 3e
       0.10560468 0.11699619 -0.10281551 0.44843104
000380 58 0b e9 be c3 38 68 be f6 b7 75 be 31 f4 f0 be
       -0.45516467 -0.22677903 -0.23995957 -0.47061303
000390 dd 8a 13 be 19 27 5d bd 60 86 a5 3c 56 87 b5 3e
       -0.14408441 -0.053992365 0.020205677 0.35454816
0003a0 21 70 b7 3d 7c 53 86 3e fc f5 ed bd d4 47 d1 3d
       0.08956934 0.2623557 -0.116191834 0.10218778
0003b0 b9 94 c7 3e 9d 2c 37 be b1 be f1 bd b7 24 30 be
       0.38980654 -0.17888112 -0.118039496 -0.17201506
0003c0 7c be ac 3e 2f f2 a1 3e 22 4e 26 3e dc c1 fe be
       0.33739078 0.31630084 0.16240743 -0.49757278
0003d0 c6 d6 43 3e e0 e7 90 be 80 33 e5 3c 45 62 e3 3d
       0.19124898 -0.28301907 0.027978659 0.11102728
0003e0 da 77 6b be 96 27 5e be ab 51 fe bd 68 50 09 bf
       -0.22994938 -0.21694788 -0.12417921 -0.53638315
0003f0 d7 75 b8 bd 12 26 a7 3d 00 fa c0 bd da f8 cb be
       -0.09006851 0.08161558 -0.09422684 -0.39838296

weight_hh_l0 f4 [128, 32]
000000 da 5c e8 3e 82 09 0c bf 02 23 53 bf 8c bc a1 3c
       0.4538334 -0.5470201 -0.8247529 0.019743226
000010 9c f0 60 be 73 05 48 3e 59 13 8c be 11 de 9b 3d
       -0.21966785 0.19533329 -0.2735851 0.07610715
000020 a0 38 0f 3e f4 d7 12 be bc c1 f2 3e eb 9c 93 bd
       0.13986444 -0.14340192 0.47413433 -0.07207664
000030 21 04 88 bd c6 26 a7 3e 35 f9 89 be 8c bf 49 bd
       -0.066414125 0.3264677 -0.26947942 -0.04925494
000040 7b 93 88 3e 88 30 4f bd 63 03 d9 3c c7 20 be 3e
       0.2667502 -0.050583392 0.026490873 0.37134382
000050 74 be 4a be ac b7 22 be 49 b0 62 be 0b e6 7b 3e
       -0.19799215 -0.15890378 -0.2213756 0.24599473
000060 7d 7b 82 bd 3c 83 00 3f 4b a2 a7 be a3 2a a3 3e
       -0.0637121 0.5020025 -0.32741007 0.31868467
000070 87 13 31 3f aa bb 9c bd 44 a1 3c bc c8 b6 31 be
       0.6917042 -0.076529816 -0.011513058 -0.17354882
000080 b0 9d e4 bb 82 d2 09 be ef ee f5 3d e7 be a5 bd
       -0.0069768056 -0.13459209 0.120084636 -0.08093052
000090 7d 83 f9 bb 2f f0 65 be 8a 87 a1 be 81 37 0c bd
       -0.0076145516 -0.22454904 -0.3154872 -0.03423262
0000a0 dd 99 bc be 56 9d 90 3e 49 e3 85 be 43 fd c4 3c
       -0.36836138 0.28245038 -0.26149967 0.024046546
0000b0 78 55 ee 3c cd c6 97 3e 96 4f 99 3e 27 d6 a8 be
       0.029093489 0.2964386 0.29943532 -0.32975885
0000c0 e9 c8 3b be 47 ae 72 3e 70 85 09 bc 46 18 26 3e
       -0.1833836 0.23699294 -0.00839363 0.16220197
0000d0 fd bb ab 3e b2 52 bf be 75 7c 35 3d 47 bd a2 3e
       0.3354186 -0.3736778 0.044308145 0.31785032
0000e0 db 1c af be 99 c7 2d 3e 8b 36 fe 3e 59 28 6e 3d
       -0.34201702 0.16970672 0.49650988 0.058143947
0000f0 01 0b 81 3e ce e0 af bd a1 09 87 be cf ce b2 be
       0.25203708 -0.085878 -0.26374534 -0.34923407
000100 2f fb 75 bc e8 f6 b3 bd bf 84 9b 3d 91 be c5 bd
       -0.0150135 -0.08787328 0.07593679 -0.09655488
000110 98 78 b7 be c8 7b 48 be 9e a2 84 be 12 30 1e bd
       -0.35834193 -0.19578469 -0.25905317 -0.038620062
000120 3c 34 32 be 48 8b d5 3b 61 f6 20 be 7f dc 6c bd
       -0.17402738 0.0065168478 -0.15718986 -0.05782747
000130 c5 f3 08 be 8d 17 ca 3e a3 72 d0 3c 1b 17 ea bd
       -0.1337424 0.39471093 0.025445288 -0.11430188
000140 a5 80 67 3d a2 6e 28 3e 06 3b 49 be 39 00 32 be
       0.05651917 0.16448453 -0.19651422 -0.17382897
000150 97 a0 62 3c 24 c1 81 be 06 58 84 be b9 68 9b 3e
       0.013832233 -0.25342667 -0.25848407 0.30353335
000160 9b ac 05 be 7d e2 14 3e 1e 50 cd bc 35 ad ba 3d
       -0.13054125 0.14539523 -0.025062617 0.09115068
000170 de 09 2c 3e a6 8e fb 3d c0 66 37 bc 3e 54 03 bf
       0.16800639 0.122830674 -0.011193931 -0.5130042
000180 31 98 60 3e 29 f8 2e bc cf 4c 64 3d c7 cf 9d bd
       0.21933056 -0.010679283 0.055737313 -0.07705646
000190 04 4d fe 3c e7 78 05 3e 05 f0 41 3d 59 b1 90 3d
       0.031042583 0.13034402 0.04734804 0.070650764
0001a0 06 8a 54 3e 29 91 7f 3e ec 3a fd bc 3b fe 6e 3d
       0.20755777 0.24957718 -0.030911885 0.05834792
0001b0 7a 16 e0 3b 59 19 55 b9 b4 09 9c bd 30 7e 17 be
       0.006838617 -0.00020322706 -0.07619038 -0.1479423
0001c0 d3 0f 14 be 41 1d 92 3d 12 d0 e9 bd 5a 71 30 be
       -0.14459161 0.07134486 -0.114166394 -0.1723074
0001d0 ce 24 2d 3d 1f 84 fc 3d cd 9b 07 bd fc 14 cd 3d
       0.042271428 0.123298876 -0.033107568 0.10013768
0001e0 39 af ae bb ea f2 b4 3e 47 7e 17 bc 31 27 2d bd
       -0.0053309468 0.3534158 -0.009246415 -0.042273704
0001f0 21 c2 b6 3d d4 24 33 3d 26 fd 07 3e d8 46 40 be
       0.08923746 0.043736294 0.13280162 -0.18777025
000200 01 b1 14 3e 37 05 2f 3e 13 23 27 3d e2 f8 f4 3d
       0.14520647 0.17091833 0.040804934 0.11961533
000210 9d 23 a0 3d 0e cd b0 3d 00 81 ba bc 08 a7 19 be
       0.07819293 0.08632861 -0.02276659 -0.15005124
000220 2d 6e a4 bd cb 99 b7 3e eb 95 9b bd de ca 12 3e
       -0.08028827 0.35859522 -0.07596954 0.143352
000230 11 b5 d3 bb 44 d9 2b 3e e4 a6 09 3e 79 aa b5 bd
       -0.006460794 0.16782099 0.1344257 -0.08870406
000240 01 e2 5c be 1d 66 41 3e 44 94 06 be 76 90 a2 bd
       -0.21570589 0.1888661 -0.13142496 -0.0793771
000250 18 8a 01 3e 1d 57 12 be bc 9f ec bc 40 76 03 be
       0.12650335 -0.14291044 -0.028884761 -0.12838078
000260 bc bc 1e be c6 19 3f 3e a9 51 83 bd 52 f0 b6 3d
       -0.15501684 0.18662176 -0.0641206 0.08932556
000270 c7 4f 1c be bd 42 f9 3b f3 64 6e bc ef 3e 28 be
       -0.15264808 0.007606833 -0.014550435 -0.16430257
000280 0a d1 2c 3f 70 f4 e3 be 5a 1c 95 be dc 5b 20 be
       0.6750647 -0.4452243 -0.29123193 -0.15660042
000290 0a aa 39 be ab ad 83 3e a9 51 28 be 78 2d 95 3e
       -0.18131271 0.25718436 -0.16437401 0.29136252
0002a0 7f 4f 82 3e 35 d8 43 be c1 6a 4a 3d d1 2f 6d bc
       0.25451276 -0.19125445 0.049418215 -0.014476732
0002b0 61 17 87 bd 3e ec 6b 3a ac a7 af bd 37 ee 5d be
       -0.06596256 0.00089997414 -0.08576903 -0.21672903
0002c0 b5 94 24 bd 6d d9 72 3c 4b 8f 31 be e8 a1 06 3f
       -0.04018088 0.014822346 -0.17339818 0.525908
0002d0 88 de c2 be f6 de 09 be 56 49 19 be a8 4c 59 3e
       -0.38060403 -0.13463959 -0.14969382 0.21220648
0002e0 e1 64 73 3e 0f 5f 29 3e 6e f5 64 bc 53 cd cd 3d
       0.23768951 0.16540168 -0.013974531 0.10048928
0002f0 7d f8 96 3e 15 1c 08 be 66 8e 16 3e f5 83 03 be
       0.29486457 -0.13291962 0.14702758 -0.12843306
000300 19 bf e5 3d 6c b1 4d 3e ee 29 e5 3d 76 e0 16 3d
       0.112180896 0.20087212 0.11189638 0.036835156
000310 ef 11 04 3e 93 6e 06 be b3 9f 20 be 1a c4 0f bd
       0.12897466 -0.13128118 -0.1568592 -0.035099126
000320 55 db 3c be c0 c3 16 3c d0 63 56 bd 95 56 1a 3e
       -0.18443044 0.009201944 -0.052341282 0.15072091
000330 13 23 b8 3d 74 c9 da 3d 75 9a e6 bd 8b b4 1c be
       0.08991065 0.106829554 -0.11259929 -0.15303247
000340 69 ea bf 3c 0e 3a 2f bb 71 f8 85 3d 23 6a a0 bd
       0.023427205 -0.0026737484 0.06541527 -0.07832744
000350 6e a7 82 3e e3 05 10 3e ee 95 da bd 7d e3 0d 3e
       0.25518364 0.14064746 -0.10673128 0.13856311
000360 81 b5 9a bc d4 4b e7 3d 7c df a3 3d 87 00 20 3c
       -0.018885376 0.1129376 0.08001611 0.009765751
000370 74 07 78 3d eb 38 b9 bd 51 91 9d bd 2f d1 a0 3c
       0.060553983 -0.09044059 -0.076937325 0.019630997
000380 58 00 5a 3d 4d 94 ff 3d ea 5c ac 3d be b1 56 3d
       0.053222984 0.12479458 0.084161595 0.052415602
000390 64 7e 44 3d a8 31 f1 be e8 a4 6f bd b4 af 8a 3d
       0.047972098 -0.47108197 -0.058506876 0.06771794
0003a0 d4 01 6c be 5f f4 40 3c 98 bc e4 bd 2f 16 27 3e
       -0.23047572 0.011777013 -0.11168784 0.16317056
0003b0 58 7f 13 3e 08 dc 08 bd 92 0b f6 3d 3b c7 6e bc
       0.14404047 -0.033412963 0.120139256 -0.014573867
0003c0 49 62 2e bc e4 86 a4 3d 03 63 66 be 46 54 ab 3d
       -0.01064355 0.08033541 -0.22498707 0.08365683
0003d0 be 83 ca 3c b4 2b 32 bd de fe 24 be be 5c e7 bb
       0.024721023 -0.04349871 -0.16112849 -0.0070606163
0003e0 e0 95 fb bb 75 1c ef 3d da 19 75 3e f8 b4 2a 3e
       -0.0076777786 0.116753496 0.23935643 0.16670597
0003f0 ea 20 9f 3d 09 43 a2 3c 2d d7 e6 3b a9 f4 3a bd
       0.0776995 0.019807355 0.007044694 -0.045643482

bias_ih_l0 f4 [128]
000000 b9 a6 29 bd 9c c6 12 bd ea 7e d8 3d 94 de 65 3d
       -0.041418765 -0.03583394 0.10571082 0.05612047
000010 d3 dd 4b 3d 92 e8 5e 3d a5 f8 2a 3e 68 24 a9 bd
       0.049772095 0.054421015 0.16696413 -0.08258897
000020 1e 61 2e 3d d6 35 6f 3d e0 9b 09 be 1d a0 54 be
       0.042573087 0.05840095 -0.13438368 -0.20764203
000030 eb 32 99 3c 8d c1 2e 3e e2 ce 09 be 16 4e da 3b
       0.018701037 0.17066021 -0.13457826 0.0066621406
000040 a4 5b 3c 3d 0b 2a e5 3d d3 65 4a 3e 9f 9a 7f bd
       0.045985833 0.1118966 0.19765405 -0.062403318
000050 39 25 49 3e 1e 59 92 bd a0 88 22 be a0 3f 06 3b
       0.19643106 -0.07145904 -0.15872431 0.00204847
000060 ff 6f 2a bc 1a 9f a0 3d 86 14 a4 3d 49 f4 dd 3c
       -0.0104026785 0.07842846 0.08011727 0.027094023
000070 e0 8f 10 3e c9 4c a7 3d a4 4b 47 3e 7c 10 9a 3d
       0.14117384 0.081689425 0.19462448 0.075226754
000080 fe 78 38 3e 30 94 15 be ab d7 e4 bd e5 09 1e be
       0.18014905 -0.1460731 -0.11173948 -0.15433462
000090 3b 61 82 bd cd 28 e7 3c 89 81 27 3d b6 c6 31 3e
       -0.063662015 0.028217698 0.04089502 0.17360958
0000a0 d3 83 1a 3e fd 10 22 3e 0f 72 c5 3c c4 e8 30 3e
       0.1508935 0.15826793 0.024102239 0.17276293
0000b0 63 79 f5 bd 04 dd 4a 3e 3b 57 f8 3c 8e 37 b6 bd
       -0.11986043 0.19810873 0.030315032 -0.08897315
0000c0 29 76 9f bd 06 f4 73 3e c5 a7 5c 3e a3 a0 3d 3e
       -0.07786209 0.23823556 0.21548374 0.1851831
0000d0 69 ba c2 3d 9d dd c6 3d d3 3a 02 be e3 5b e1 3d
       0.09508211 0.09710238 -0.12717752 0.11003854
0000e0 d7 2f 3d bd a1 9f 4a 3e 0e 23 58 3d a4 d1 60 3e
       -0.0461882 0.19787456 0.052767806 0.21954972
0000f0 23 80 df bd 55 f7 11 3c 92 93 19 3d 67 d1 6b 3d
       -0.10913112 0.008909066 0.03749425 0.05757275
000100 88 0e dc bc f7 be cf 3b a9 78 ec 3d 8b 79 3d be
       -0.026862398 0.0063399035 0.115464516 -0.18503396
000110 fc 04 04 3c 6d 76 67 3d 58 40 a1 3d 25 64 eb 3d
       0.008057829 0.056509424 0.07873601 0.114937104
000120 7b 19 db 3d 93 21 de bd f5 42 98 3d cc f7 31 bd
       0.106982194 -0.108462475 0.07434646 -0.04344921
000130 05 fb 08 bc 56 e9 59 3d 06 d5 9d 3d ab ec 13 be
       -0.008360629 0.053201042 0.077066466 -0.1444575
000140 00 18 4b be 35 95 42 bd 6f e2 4f 3d 71 1a 6e bd
       -0.19833374 -0.047505576 0.050753053 -0.058130685
000150 9d 24 64 3d c1 ec 18 be a7 bc 05 be 7c f5 2a 3e
       0.05569898 -0.14934064 -0.13060246 0.16695207
000160 2a 07 08 be 83 7c 5a 3d d9 fb 5e 3e 5d 2b 59 3d
       -0.13283983 0.0533414 0.2177576 0.05301987
000170 bd 6d 31 3e 9c 37 40 bd c8 75 0f be 18 6e 8d 3c
       0.17327018 -0.046928033 -0.14009774 0.01726441
000180 c4 25 a1 bc 0a 5c 43 3e 92 a9 87 3e b8 74 e1 3d
       -0.019671328 0.19078079 0.2649656 0.110085905
000190 d2 75 1e 3e f5 00 5f 3e 95 7e 21 3e 14 d9 28 3d
       0.15474632 0.21777709 0.15770943 0.041222647
0001a0 64 f0 44 3d 36 fa 3c 3e 38 c5 76 3d 0d 5d dd bd
       0.048080817 0.18454823 0.060246676 -0.10808764
0001b0 e6 63 c8 bd 01 1d 58 3e 78 8e 8b 3d d3 89 92 3d
       -0.09784679 0.21104814 0.06814283 0.07155194
0001c0 0e 77 6a 3d 26 a0 34 bd e0 44 f5 3d a2 20 1f 3e
       0.057242446 -0.044098042 0.119760275 0.15539792
0001d0 a1 ec 93 3c e0 8f 03 3e 82 73 c9 bb 31 34 04 bd
       0.01805717 0.12847853 -0.006147803 -0.032276336
0001e0 90 0d 26 3e be 00 1c 3e 6b 3d 9f 3e cc 6c 2e 3c
       0.16216111 0.15234658 0.31101546 0.010646056
0001f0 87 3b 47 3c 5c dc 3a bd a3 70 35 3e df 2e 01 3e
       0.0121601885 -0.045620307 0.17718749 0.12615536

bias_hh_l0 f4 [128]
000000 9a 1f 40 3e a2 05 65 3e 64 0a 13 3d 23 09 e7 bd
       0.18762055 0.2236543 0.03589858 -0.112810396
000010 0f 42 13 3e 0d 83 11 3e d0 21 a3 bd a7 17 b0 3c
       0.14380668 0.14210148 -0.079654336 0.021495653
000020 1d 52 f8 3d 2d aa 05 3e 40 bd 90 3d b9 c4 91 3a
       0.12125037 0.13053198 0.070673466 0.001112125
000030 91 a2 9d 3c ad 43 38 3e 5e f5 c1 3d a6 7d 6c 3d
       0.019242557 0.17994566 0.09470628 0.057737015
000040 5b d6 a5 bb 97 3d 06 3d ba fa db 3d 1d e2 db bd
       -0.0050609536 0.03277358 0.10741182 -0.10736487
000050 e7 54 4e 3e 5b 8c 1b 3d 6c ea 0a 3e 08 49 92 bd
       0.20149575 0.03797565 0.13565987 -0.07142836
000060 a4 6f f0 bd 40 fe 9a bb cc b1 35 3d 56 7a 8d bd
       -0.11740044 -0.004730016 0.044359013 -0.06908099
000070 4e 06 2b 3e 2b e1 d8 3d 01 67 5c 3d b4 65 d5 3d
       0.16701624 0.105898224 0.05380917 0.10419789
000080 03 2d 3c 3d 90 7a 99 3d 04 a4 47 3c 4f 80 4c bd
       0.045941364 0.0749408 0.0121851005 -0.049927052
000090 b6 1c 5a bd c7 f9 0d be 96 5e a8 bd 5f 4e ee bd
       -0.053250037 -0.13864814 -0.08221166 -0.11636042
0000a0 ce d0 e2 bd a6 57 a7 bc 87 69 6a bd 91 3b 89 3d
       -0.110749826 -0.020427536 -0.057229545 0.067008145
0000b0 6e 36 ca 3c 20 45 58 3e cf 27 01 be e2 ce 26 be
       0.024684157 0.21120119 -0.12612842 -0.16289857
0000c0 69 53 2a bc 25 16 b3 bc e6 57 90 3d 5a 19 03 bb
       -0.010395863 -0.021861145 0.07048015 -0.0020004124
0000d0 3c 2d b3 3d 2e ac a5 3c fd aa 90 3c b6 be 19 bd
       0.08748862 0.020223703 0.017659659 -0.03753539
0000e0 ac 33 b2 bc ff 9a 78 3e 52 87 15 bd 19 b9 1b 3a
       -0.021753155 0.24277876 -0.036506005 0.00059403625
0000f0 0c ec b6 3d 9c c3 3b be f3 05 a8 bd 41 27 70 3e
       0.08931741 -0.18336338 -0.0820426 0.23452474
000100 95 15 1c 3e 5d eb c6 3c 14 03 96 bd 05 80 1b be
       0.15242608 0.024282152 -0.07324806 -0.15185554
000110 c8 05 a7 3d 07 3a 14 be 6b 79 00 be f9 04 ea 3d
       0.081553996 -0.1447526 -0.12546317 0.1142673
000120 fe 6f 1d be 05 e0 e9 3d 08 fb 3f ba 24 d3 82 3d
       -0.15374753 0.114196815 -0.00073234783 0.06387928
000130 83 73 41 bd eb 1b 01 3e bd de 5d 3d c8 5b 1a bd
       -0.0472293 0.12608306 0.054167498 -0.037685186
000140 d0 1e e0 bd e2 46 fd 3d 4e 07 6e be e7 80 23 3d
       -0.10943377 0.123670354 -0.23244974 0.039917853
000150 03 42 d2 3d c2 78 dc bd 17 bb 80 3a f9 2c d2 3d
       0.10266497 -0.1076522 0.0009821382 0.10262484
000160 4a ab 8c bd d3 3f 8d 3e 01 25 5e 3c 07 a2 8d 3d
       -0.06868608 0.27587757 0.013558627 0.0691567
000170 be 15 c9 3c 29 47 af bd a1 ef ad 3d 2e 32 26 be
       0.0245465 -0.085584946 0.08492971 -0.1623008
000180 e5 95 7a 3e 44 c1 2a 3e f3 50 28 3e 25 fb 1f be
       0.24471243 0.16675287 0.1643713 -0.15623148
000190 52 03 97 bc 2d 84 6c 3e 10 92 a9 3d d0 69 eb 3d
       -0.0184342 0.23097296 0.08279812 0.114947915
0001a0 21 af ba 3d 15 02 4a 3e 4f 77 b3 3b 1e d3 b2 bd
       0.091154344 0.19727357 0.005476869 -0.08731674
0001b0 e6 3f b8 bd 65 c8 8f 3d 88 19 09 3e e7 cc 31 3e
       -0.08996563 0.07020644 0.13388646 0.1736332
0001c0 77 43 52 3e 84 15 6a 3c 91 4a d1 bd 81 10 10 3e
       0.20533548 0.014287356 -0.102193005 0.14068796
0001d0 0d 38 69 3a 1a 88 7c bd 0a f0 ea 3d 0b 4e 82 3e
       0.0008896597 -0.061653234 0.11471565 0.25450167
0001e0 0a f2 17 3d 97 6d 8e 3e 72 78 cb 3d f0 bf 48 3e
       0.03709606 0.27817985 0.099350825 0.19604468
0001f0 5d 4a 93 3e 8b b5 b0 3c f7 e9 d0 3d 4a 72 43 3e
       0.28767672 0.021570941 0.10200875 0.19086567

weight_ih_l0_reverse f4 [128, 2]
000000 61 f2 05 3f 6e fb 44 3d bd 10 1c 3e 6c 28 9b be
       0.52322966 0.048091345 0.1524076 -0.30304277
000010 ec 5c 8f be 4f 9e 81 bc 1d 2f 75 3e b6 57 25 bb
       -0.2800058 -0.015822558 0.23943754 -0.0025229282
000020 69 f4 bb be 95 9b 2c be 0e 08 ab bd 0f 43 9f bd
       -0.36709908 -0.16856225 -0.08351146 -0.07776462
000030 09 4e 36 3e 28 ed 67 be c0 4b 7b bc b6 34 e4 be
       0.17803206 -0.22649062 -0.015337884 -0.44571465
000040 b5 b3 0c 3e d3 2c 4b be 34 5b e8 be a9 c2 e1 3e
       0.13740428 -0.19841318 -0.45382082 0.44093826
000050 24 36 85 bd ff 47 d9 3d 9f 8b ee 3e 83 9e c2 be
       -0.06504467 0.10609435 0.46590897 -0.3801156
000060 1c 43 77 be a8 70 8a be 0f e6 22 bf 54 07 28 bf
       -0.24146694 -0.27039075 -0.6363229 -0.6563618
000070 f4 cd 50 bd ca 7b 73 be c2 4d 05 3f 7d fd ed 3e
       -0.050977662 -0.2377769 0.52071774 0.4648246
000080 51 dc 77 be cc eb ad 3e 93 a6 7e be 5b 90 45 bf
       -0.24205138 0.3396896 -0.2486823 -0.77173394
000090 47 d4 ba be c3 7c 74 3e 9c 22 c1 be a3 57 88 3e
       -0.3649008 0.23875718 -0.37721717 0.26629362
0000a0 5b d7 18 bf 3e 61 10 3e f0 c3 1a bf b5 41 8a 3e
       -0.59703606 0.14099595 -0.60455227 0.27003255
0000b0 89 11 f2 bd aa 85 31 3d 3c ff 42 3e 17 fa 47 be
       -0.11819751 0.043340363 0.19042677 -0.19528995
0000c0 5c 16 2b be 03 c5 1e 3f a1 1a ae be de ee 95 bd
       -0.16707748 0.62019366 -0.3400469 -0.07320951
0000d0 9f 62 95 3e 63 2e 7a 3e bc a3 6c bd 25 8a d1 3e
       0.29176804 0.24431758 -0.057773337 0.40925708
0000e0 52 3e 84 be 5d 04 b1 3d fd a3 d1 3e 34 a1 59 3e
       -0.25828797 0.0864341 0.40945426 0.212529
0000f0 18 a8 40 3e d0 65 de be 44 a1 96 3e f3 e3 b0 be
       0.18814123 -0.43437052 0.2941991 -0.3454891
000100 12 7e 61 3c e9 74 8d 3e d5 73 e8 3c 66 2c 97 bd
       0.013762968 0.27628258 0.028375546 -0.07381515
000110 07 7c 0d be 06 da bf 3e d1 e6 25 3d 15 5d f4 bb
       -0.13816844 0.37471026 0.040503327 -0.0074573853
000120 9c 94 4f be 47 bc 6f 3d 77 31 d3 3e 9e bd 49 3e
       -0.20271534 0.058529165 0.41248676 0.1970124
000130 5d 5b 60 be 12 8a 42 3c ad 94 1b 3c c9 8d bf bc
       -0.21909852 0.011873739 0.009495896 -0.023383038
000140 83 93 3b 3e ba 1b f4 3d a6 37 84 bd ec 60 46 3d
       0.1831799 0.11919351 -0.064559266 0.048432276
000150 7f 23 bb 3e b6 40 a7 bc 80 a3 a1 3e b0 ed 8e bd
       0.3655052 -0.020416599 0.31570053 -0.06978929
000160 b1 5e 9a bd 57 6c a9 3c 3d 25 b1 bd dd ee 2d be
       -0.07537592 0.020681543 -0.08649681 -0.1698565
000170 ec c7 33 be 89 cf 7d be 71 62 57 3e f8 5a 2c 3e
       -0.17556733 -0.247862 0.21033646 0.16831577
000180 d5 30 cf bd 2e aa 96 3c 50 4f 6a be e5 76 41 be
       -0.10116736 0.018391695 -0.22881818 -0.18893011
000190 6c a1 ea bc 76 e1 ce 3b 7d 48 d3 bc 4b 17 68 bd
       -0.028641425 0.006313498 -0.025791401 -0.05666284
0001a0 37 37 40 bd a1 0c ba 3d 48 fe 12 be 23 b4 65 3d
       -0.046927657 0.0908444 -0.14354813 0.056079995
0001b0 3c ba 84 3e 53 8d 91 be 4b c1 b7 be 8d 5e 63 be
       0.25923336 -0.28428134 -0.35889658 -0.22204037
0001c0 36 c7 9e 3c fc 29 07 3c 42 b3 d5 3d 09 87 8e bc
       0.0193821 0.008249756 0.10434581 -0.017398374
0001d0 f1 be c7 3d 02 4a e4 3d 5e d3 40 3d c6 5e cc bd
       0.09753216 0.11146928 0.047076575 -0.09979014
0001e0 e5 3a 5a be 50 8f a2 3e c0 1f 54 3e 5d 76 1e 3e
       -0.21311529 0.31749964 0.20715237 0.1547484
0001f0 98 cd 39 3e 73 b2 a5 be a8 96 90 3d b9 9e 4f be
       0.18144834 -0.32362708 0.070599854 -0.20275392
000200 c2 bd c1 be 00 c2 a7 be 18 f6 10 3b 86 d2 c4 3e
       -0.37840086 -0.32765198 0.002211934 0.38441867
000210 dd 6c 61 3e c7 de 1e be 78 7b 81 be e6 5a 53 3c
       0.22014184 -0.1551467 -0.25289512 0.01290009
000220 f9 f3 9a 3e 6f 22 f4 3d f0 26 72 3e e6 e6 ed 3b
       0.3026426 0.1192063 0.23647666 0.0072601913
000230 44 8f 8f 3d 93 65 3a be e5 7c 9d be e3 ed 9b 3e
       0.070097476 -0.1820281 -0.3075935 0.3045493
000240 1b 33 ee bd 5a 08 3f be 3e 88 ed be c7 c6 fb 3e
       -0.11630841 -0.1865553 -0.46393007 0.49175093
000250 ba f4 d9 3d 43 6f 10 bd c1 d6 f6 3e a9 eb 52 be
       0.10642381 -0.035262357 0.4821072 -0.2059771
000260 63 7d 44 3e 77 14 83 be 12 20 a2 3e 98 aa b8 3e
       0.19188456 -0.2560155 0.31665093 0.36067653
000270 77 b2 0b 3d 98 70 b7 be be 3b 31 3e d5 f5 8c 3e
       0.034105744 -0.3582809 0.17307946 0.27531305
000280 26 5f f8 3d 9f e0 c2 3c 9a 92 4a 3e 96 ee eb 3e
       0.12127523 0.023788748 0.19782487 0.46080464
000290 57 34 51 3e c4 aa a4 be fc 3c a0 be f1 8a 3d 3e
       0.20430122 -0.32161534 -0.31296527 0.18510033
0002a0 8e b1 11 bf 3b cc 0d 3e d4 75 c2 3e 29 40 01 be
       -0.5691155 0.13847439 0.3798052 -0.12622131
0002b0 fa 9f cd be 93 11 60 3e d9 0e 0d 3e 25 58 a7 3e
       -0.40161115 0.21881704 0.13775195 0.32684436
0002c0 97 65 4e be 15 dc 3b 3f 36 87 85 3e 78 b3 94 3e
       -0.20155941 0.73382694 0.2607972 0.29043174
0002d0 3e ff 43 be 04 1c ff bd 63 d7 0b bc d2 b4 c2 be
       -0.19140336 -0.124565154 -0.008535239 -0.3802858
0002e0 b1 4f b6 be ec e8 b1 3e f4 2b e6 3e 3e db 4c 3e
       -0.35607675 0.34748018 0.4495541 0.2000551
0002f0 40 62 29 3e 5d 27 8e be 00 f0 82 3e 5a 99 a3 be
       0.16541386 -0.27764407 0.2557373 -0.31952935
000300 0d 93 11 3f 80 17 a4 3e e0 8c 1e 3e 9b 10 80 be
       0.56865007 0.3204918 0.15483427 -0.2501267
000310 28 9b b1 be fb 75 33 3e d6 b8 5d be 6a 6b 2b be
       -0.34688687 0.17525475 -0.2165254 -0.16740194
000320 1f 44 ec be 0f d7 f9 bd 81 6c b0 be 0f 38 ae be
       -0.46145722 -0.12199222 -0.34457782 -0.34027144
000330 03 ad 52 be 8f 13 8d be bc 7a 92 3e 92 7d 0f bf
       -0.20573811 -0.27553985 0.28609264 -0.5605098
000340 25 13 ef be ee c1 31 bd de 06 94 be 2b ce 27 3e
       -0.46694294 -0.043397836 -0.2891149 0.1638724
000350 ba 2a a0 3e 77 f8 16 bd dd bc f4 3e 94 a6 6b be
       0.31282598 -0.03685805 0.4780034 -0.23012763
000360 40 6b a0 3e 27 28 b7 be cf ef ea be cc 3f e6 be
       0.31331825 -0.3577282 -0.45886084 -0.44970548
000370 c5 c5 85 3d 66 f2 67 be aa 1d 90 3e 39 8c 05 3f
       0.06531862 -0.22651061 0.28147632 0.5216709
000380 48 74 9c 3d 04 bf 22 3f e7 f9 a9 be 4c a8 2b bf
       0.076393664 0.63572717 -0.33198473 -0.67053676
000390 76 65 95 be a8 6a 9e 3e 96 04 c8 be 9d 74 69 3e
       -0.2917897 0.30940747 -0.39066 0.2279839
0003a0 44 05 dc be 13 42 23 bc 15 31 04 bf e0 b4 b0 3e
       -0.42972767 -0.009964484 -0.51637393 0.34512997
0003b0 16 f2 ad 3e 49 92 bf be 16 d8 94 be b9 a3 77 be
       0.3397376 -0.37416294 -0.2907111 -0.24183549
0003c0 97 1c 2d 3c 39 dd cd 3e c4 2e ee 3d 53 af 87 be
       0.010565898 0.40207842 0.116300136 -0.2650095
0003d0 a4 b1 72 3d 32 3a e8 3d 44 1f ae 3e 19 d9 0b 3f
       0.059251443 0.11339225 0.3400823 0.5462814
0003e0 df 76 eb bc 2e 3c 88 3e 18 10 c8 3e ea 09 f6 bd
       -0.028743206 0.26608413 0.3907478 -0.1201361
0003f0 66 80 25 3e 30 2b a8 bd 15 78 17 3e 79 28 c1 be
       0.16162261 -0.08211362 0.14791901 -0.3772619
