TS-CVAE/experiments/EOT/models/models_24_Jul_2021_19_35_18_eot/model_registrar-13.pt (torch_old, 552549 bytes, 43 tensors)

weight_ih_l0 f4 [128, 6]
000000 6a fe 87 bd 11 68 8c 3d 26 27 73 be b3 3c bf bd
       -0.066403225 0.068557866 -0.23745403 -0.09337749
000010 a3 46 8e be 82 d6 e0 3d 6c d1 62 be c7 a1 2b be
       -0.27788267 0.10978414 -0.221502 -0.16760932
000020 85 10 f0 bd 27 bd e5 3d f3 c3 35 bd 9b 5f a4 3c
       -0.11721901 0.112177186 -0.044376325 0.02006512
000030 96 4e 97 bd 8b dc b5 bd 7a 79 28 bd fe 82 a1 bc
       -0.07388036 -0.08879956 -0.041131474 -0.019715782
000040 a0 8d 8a be 8a 5d 36 3e e2 8e ad 3c 3a 8b eb 3d
       -0.27061176 0.1780912 0.021186296 0.11501165
000050 a0 ff ab 3d 2b 92 7a bd 84 d2 7d 3c 2e 7b 5b 3e
       0.08398366 -0.061174553 0.015492085 0.21433708
000060 d7 60 4f be 18 e7 a3 bb 9e e1 51 3d 2a 4b 59 3e
       -0.20251785 -0.0050019138 0.051240556 0.21220079
000070 ef ae 39 3d 22 18 5e be 76 b2 a8 3d b1 71 79 3d
       0.045332845 -0.21688893 0.08237164 0.06089944
000080 5a 09 35 3e 5d 97 80 bd d3 15 2f 3e 00 f7 84 be
       0.17679349 -0.0627887 0.17098169 -0.25969696
000090 80 b9 6c be d5 e4 ad bb 5a 56 d7 bd 21 0d 06 be
       -0.23117638 -0.00530682 -0.10514517 -0.13090946
0000a0 5d 3a d2 3c 80 b6 82 be 5f bb e6 bd 74 36 a1 3e
       0.025662595 -0.2552986 -0.11266207 0.31486857
0000b0 15 45 0d 3e 99 64 1d be 42 46 3e 3d 2e 8e 87 bd
       0.13795884 -0.15370406 0.04645372 -0.066189155
0000c0 af 84 32 3e b9 9e 8c 3d 19 07 a3 3c 93 5b bf 3d
       0.17433427 0.068662114 0.019900845 0.09343638
0000d0 2b 36 f0 b9 fe b6 31 3e d5 bb 41 bd e4 00 a4 bd
       -0.00045816725 0.17354962 -0.04729827 -0.080079824
0000e0 ee 63 08 be 82 54 6f 3d a8 b5 00 3d 37 33 22 bd
       -0.1331937 0.058430202 0.03142324 -0.039599624
0000f0 70 d4 d8 3c 0b f5 83 3e 24 67 04 be 53 2f 80 be
       0.026468486 0.2577289 -0.1292997 -0.25036106
000100 29 a8 db bd 81 ee a9 bc f9 cd a9 bd 0c 52 54 3d
       -0.107254334 -0.02074361 -0.08291239 0.05183606
000110 77 75 90 be d9 dd 9f 3a 45 ab ce 3c 9d eb c3 bd
       -0.2821462 0.0012196853 0.025228152 -0.09566424
000120 76 82 14 bc bf 97 94 be c5 7d 8b bd 32 1c 5c 3e
       -0.009064307 -0.29022023 -0.06811098 0.2149513
000130 97 bc 19 3d 46 5b a2 be f8 e5 c1 bd ed fa 1d 3e
       0.03753337 -0.3171026 -0.09467691 0.15427752
000140 f8 bf 37 3e 0a 44 10 bd ff e3 93 3d 2d 3e 8f 3d
       0.17944324 -0.035221137 0.07221221 0.06994281
000150 c1 dd de bd ec 21 ee bd 1c c7 d6 bd e2 21 28 3e
       -0.1088214 -0.11627564 -0.10487196 0.16419175
000160 fe 54 3e 3d 1f 87 85 3d 2e d3 a1 be 49 83 d9 3d
       0.046467774 0.06519913 -0.3160643 0.10620744
000170 5c ea 2a 3e e1 d4 1e 3e c1 71 1c bd 15 94 dd 3c
       0.16690964 0.15510894 -0.03819442 0.02704815
000180 d8 d5 10 3d 6e eb 0a 3e ad d2 74 3e a3 f9 47 bd
       0.035360187 0.13566372 0.23908491 -0.048822057
000190 86 3c 83 3d e5 29 09 be 5f 0a 8d 3d 17 05 ae bd
       0.06408028 -0.13394888 0.06886744 -0.084970646
0001a0 30 e5 23 be 62 72 d4 bd 1a 6c 94 3c 13 93 4d 3e
       -0.16005397 -0.10373379 0.018117953 0.20075636
0001b0 31 68 8d bd 58 e3 85 3d 20 7c 83 3e 42 9c 60 be
       -0.069046386 0.06537503 0.25680637 -0.21934608
0001c0 09 c4 43 3d 1c d5 13 be d6 b4 7e bd 3d d7 28 3d
       0.047794376 -0.14436764 -0.062184177 0.041220892
0001d0 df c6 51 be 02 2f b8 3c df 3b 04 3e aa 9c 92 3e
       -0.2048602 0.022483353 0.12913464 0.2863515
0001e0 33 1f 13 be f7 5e f8 3d 29 a5 59 3e 29 aa fe bd
       -0.1436737 0.12127488 0.2125441 -0.12434799
0001f0 79 5e 27 3e 00 83 3b bc 0f eb e2 3d 92 6c 9a bc
       0.16344632 -0.011444807 0.1107999 -0.018850598
000200 26 9e 44 3d d0 f4 80 3e 46 27 39 3d 95 43 6a 3e
       0.048002385 0.25186777 0.04520347 0.22877343
000210 33 84 89 3d 68 41 7e be 2c 5a 42 be 01 37 68 3d
       0.06714668 -0.24829638 -0.1897971 0.05669308
000220 d8 23 c2 3d 9e 44 ef 3d a6 63 87 39 00 d1 5b bd
       0.09479493 0.116830096 0.0002582345 -0.053666115
000230 c0 34 87 bc e4 d0 f0 bc 71 94 15 bd 42 24 bf 3d
       -0.016504645 -0.029396482 -0.036518518 0.093330875
000240 c0 e4 9d bd 12 6c 24 be 04 29 1f bd dc 2d 87 3d
       -0.07709646 -0.1605685 -0.038857475 0.06600544
000250 c1 7b 5e bc 19 0f 09 be a4 7a d1 bc d5 f4 99 bd
       -0.01357931 -0.13384666 -0.025571175 -0.07517401
000260 b9 73 eb bd 21 86 a3 3d d1 c8 cf bc 61 9d 0f 3b
       -0.11496682 0.079845674 -0.025364311 0.0021913873
000270 d3 c9 d3 bd 01 54 f5 3c d3 16 42 be c8 3d ef 3c
       -0.10341229 0.029947283 -0.18954019 0.029204264
000280 58 a1 33 bc 95 c6 ba bd 8b a8 f0 bd 9b 00 50 3e
       -0.01096376 -0.09119908 -0.11750897 0.20312731
000290 e3 8e 2c 3e 43 30 8f 3d 03 bd 8c bb ae 6d 8b 3e
       0.16851382 0.06991627 -0.004294993 0.27232116
0002a0 f6 c7 29 3e b2 39 00 3d 4c 91 2a be 70 cd 30 bc
       0.16580185 0.031305023 -0.16656989 -0.010791168
0002b0 f4 35 aa 3d 54 69 60 3e 79 56 b3 bc 72 0a fd bd
       0.08311072 0.2191518 -0.02189182 -0.12355508
0002c0 8f 28 a1 be 95 50 88 3d 7a de 5d be 29 87 8e bc
       -0.31476256 0.06655995 -0.216669 -0.017398434
0002d0 7d ee 0d be aa 3d 74 bd 95 83 7b 3e 21 c7 32 bd
       -0.13860507 -0.05962912 0.24561913 -0.043646935
0002e0 9e 1c 1f bd ac f1 7a bd bc ed 40 bd fc be 07 be
       -0.03884565 -0.061265633 -0.04710172 -0.13256449
0002f0 c1 a9 9d 3d d7 09 09 3e d2 41 87 bd ec fd 0c be
       0.076983936 0.1338266 -0.06604351 -0.13768739
000300 22 2d f8 bd 0a 04 96 3d 48 f1 04 be b2 9c fd bd
       -0.121179834 0.07324989 -0.12982666 -0.12383403
000310 48 74 1f be b1 59 9d be 63 01 c6 3c 8d 9a 51 3d
       -0.15571702 -0.30732492 0.024170583 0.05117278
000320 b1 a8 f3 b9 24 51 42 3c 5d d6 d3 3d ce 1a d1 bc
       -0.00046474257 0.011860166 0.10343621 -0.025525477
000330 a1 7c 29 39 b3 aa 2e 3d ba 8e cd bd 98 a8 cc bc
       0.00016163524 0.04264326 -0.100369886 -0.024982736
000340 f4 76 ac bd 03 97 01 bd 25 4d 08 bb 77 7d 94 bc
       -0.08421126 -0.031638157 -0.0020797935 -0.018126233
000350 2e c4 19 bd c3 4e 18 be 51 d7 08 bd 1b 88 ad ba
       -0.037540607 -0.14873795 -0.033408467 -0.0013239415
000360 19 4d df 3d 85 da 85 bd 8a 5d 8a 3d c2 87 34 3d
       0.10903377 -0.0653582 0.067561224 0.04407478
000370 5f 21 82 bd ed 04 82 bd 62 f5 04 3e 2e 7b 5c be
       -0.06354021 -0.06348596 0.12984231 -0.21531364
000380 78 d8 04 3e ac 27 5a be 52 9e 08 bd 0c 89 83 be
       0.12973201 -0.21304196 -0.03335411 -0.25690496
000390 3e d7 5b 3c d6 58 9c bd 94 dd cc 3c fa c8 2f bd
       0.013418017 -0.076341316 0.025008 -0.042916276
0003a0 6a 4c ca bd b2 c4 1d be 2a c4 b5 3b 62 c0 25 be
       -0.09877856 -0.15407065 0.005547066 -0.1618667
0003b0 be 10 fa 3d d1 37 b3 bd 66 c5 54 bc 0a b1 32 be
       0.122102246 -0.087508805 -0.012986517 -0.17450348
0003c0 6c e8 c2 3d 73 46 70 bd 3b 45 24 be 45 14 89 3d
       0.09516987 -0.058660936 -0.16042034 0.06693319
0003d0 8b 8b a4 bd 7d 9d de 3e 12 51 2e be d1 ae 4f bd
       -0.08034428 0.4347953 -0.17023113 -0.050703827
0003e0 79 ef b5 3d 2a fa 8f 3d da f2 b6 3d e7 68 39 bd
       0.088835664 0.07030137 0.08933039 -0.04526606
0003f0 5a 52 d1 3d e8 1f 6c be 8e a4 26 3d 63 5a 5c bd
       0.102207854 -0.23059046 0.040684275 -0.053797137

weight_hh_l0 f4 [128, 32]
000000 f0 44 88 bd 92 34 7e bd 5b 83 b0 3c de b7 29 3e
       -0.06653774 -0.062061854 0.02154701 0.16574046
000010 c7 dc 5d bd 6c 03 bf 3d 83 2b 28 be fe d4 95 3d
       -0.054165628 0.093268245 -0.16422848 0.07316016
000020 b5 e4 62 3e e0 85 c2 3d bd fd 9f bd 52 f5 17 3e
       0.22157557 0.09498191 -0.078120686 0.14839676
000030 33 25 02 be f0 ae 4b 3c 29 37 bb 3d e1 5c 61 3e
       -0.12709503 0.012431845 0.0914138 0.22008087
000040 9e eb 42 3e b1 4c 32 be 77 4b 02 3e 61 55 72 be
       0.19035193 -0.17412068 0.127241 -0.23665382
000050 d2 40 3f 3c f4 64 32 bb 64 7c 23 3d 00 4f 14 be
       0.011673169 -0.0027220817 0.03991355 -0.14483261
000060 6f 2a c0 3d 45 99 fc bd 21 e3 e1 3d a9 7f 42 3d
       0.093830936 -0.12333921 0.110296495 0.047485027
000070 f7 ac e4 3c 66 ba 88 3d f2 68 9a bd 52 96 37 bd
       0.027914507 0.06676178 -0.07539548 -0.04482109
000080 d5 a3 23 3e 83 a1 50 be 6b 56 db 3d 80 66 20 bd
       0.15980466 -0.20374112 0.10709842 -0.03916025
000090 19 89 6e 3e dc e9 5a 3e d8 81 6f 3d da 78 ed bd
       0.23294486 0.21378273 0.058473438 -0.11595316
0000a0 4b 1a 81 3e 9e 20 7b 3c 70 d9 4b be 16 9d e1 bd
       0.25215372 0.015327601 -0.19907165 -0.1101629
0000b0 b4 9a 86 be c7 1b 1e 3e a7 14 4e 3d 47 71 19 be
       -0.26289904 0.15440284 0.050312664 -0.14984618
0000c0 d5 53 9a 3d ee 69 2a 3e d6 a6 8c ba eb 04 af bd
       0.07535521 0.16641971 -0.0010730873 -0.0854586
0000d0 f3 dc 24 bd 4f 18 69 bc a0 45 d6 bd 10 20 9c bd
       -0.040249776 -0.014226987 -0.10462499 -0.07623303
0000e0 ff 0b 97 3d f1 13 3a bd 2a cd 12 be e8 bf 7c be
       0.07375335 -0.045429174 -0.14336076 -0.24682581
0000f0 e4 36 ef bd 7c b9 74 3c f4 cc 47 3e 9f cc 5f be
       -0.116803914 0.014936801 0.19511777 -0.218554
000100 e5 4b 28 3e ba a2 36 be 7d 52 f1 3a 99 83 98 3e
       0.16435201 -0.17835513 0.0018411424 0.297879
000110 e6 a4 fe 3c 11 e7 57 3e af 41 0d 3b 33 7a a6 be
       0.03108449 0.21084239 0.0021554043 -0.32515106
000120 0b 13 13 3e 2a 55 69 3d 7f d1 f8 bd a9 bc d9 3d
       0.14362733 0.056965984 -0.12149333 0.10631687
000130 f8 3e 67 be 0f e9 80 be 06 27 53 bd 46 eb 18 bd
       -0.22582614 -0.2517781 -0.051550888 -0.03733375
000140 26 b1 05 3e 36 be cc 3c 9c bb 70 3e e5 25 b0 be
       0.13055858 0.024993043 0.23509067 -0.3440391
000150 0e ed b4 3d 02 38 33 3e 22 cc 99 bd eb e5 9e 3d
       0.08834277 0.17501834 -0.07509638 0.07758697
000160 16 ba 90 3c 55 dc 5c 3c df 4d 23 3e 80 d8 6c bd
       0.017666858 0.013480266 0.15947674 -0.057823658
000170 47 28 59 bc 07 4a 9b bd 00 b6 b3 bd cd ce d5 3d
       -0.013254232 -0.07582479 -0.08774948 0.10439835
000180 28 27 b6 3d f1 e3 07 3e 21 e8 fc bb 07 37 b7 3d
       0.08894187 0.13270546 -0.0077181016 0.089460425
000190 27 f6 54 be 2a dd ba bd f7 c7 49 3c 0e c4 fc 3d
       -0.20797025 -0.09124215 0.012315742 0.12342082
0001a0 a9 33 a8 bd 40 41 47 bd 06 7a 89 bd 0e da 50 be
       -0.082129784 -0.04864621 -0.06712727 -0.20395681
0001b0 e1 a5 4a be 40 f0 65 be ce 66 11 be 0f 97 3f bd
       -0.1978984 -0.2245493 -0.14199373 -0.04677492
0001c0 53 ff 1e 3d fe 42 25 3e ac 4c ab bd 3d ce ab bd
       0.038817715 0.16138837 -0.083642334 -0.08388946
0001d0 bd de 47 bd 49 c9 a0 3d e4 95 1e 3e 0f bd 73 bd
       -0.048796404 0.07850892 0.15486866 -0.059506472
0001e0 e9 9a 82 be 12 ea e7 3c ae 15 41 be 8f bd 71 3d
       -0.25508812 0.028309856 -0.18855926 0.059018668
0001f0 90 53 a2 bd 55 a3 e2 3d 62 0a 54 3d 4f c3 cf 3d
       -0.079260945 0.11066309 0.051767714 0.10144674
000200 9a 37 64 be c1 38 b0 bd 52 f4 16 3e 6f 42 b9 bd
       -0.22286835 -0.08604575 0.14741638 -0.09045874
000210 15 62 48 3e fd 45 02 3e 2d a4 41 bd b2 1a 21 3e
       0.19568665 0.12722011 -0.04727571 0.1573284
000220 f4 a2 fe 3c 52 4b 7b bd 4e 81 90 be d0 8c 94 bd
       0.031083561 -0.061351128 -0.28223652 -0.0725342
000230 ec 00 ab be 6c d2 09 3e 88 bb 33 bc 63 94 43 be
       -0.3339914 0.13459176 -0.010970004 -0.19099574
000240 bf 40 4d bd e7 65 c3 3d 4c 02 5c bd e2 aa 46 be
       -0.050110575 0.09540921 -0.053713128 -0.19401124
000250 b4 c5 63 3d 62 08 c8 3e 70 fa a5 3d 09 9a d7 bd
       0.055608466 0.39068896 0.08104408 -0.10527427
000260 dd 93 ba 3d bc 39 65 bd 89 6f b8 bd e6 ca ce be
       0.09110234 -0.055963263 -0.09005649 -0.40389174
000270 dd 8e 05 be 9a 98 a3 be 83 6d 54 3e fb a7 31 bd
       -0.1304278 -0.31952363 0.207449 -0.04337309
000280 50 18 00 3e b4 65 f1 bc 53 34 00 3e d9 f9 19 be
       0.12509274 -0.029467441 0.1251996 -0.15036716
000290 28 b5 3f be e2 63 61 bc 23 25 6a 3d da 28 a6 bd
       -0.1872145 -0.013756724 0.057164323 -0.081132606
0002a0 67 26 ea bc 10 9d 82 bd cc 5c 77 3d 39 7d 31 be
       -0.028582765 -0.063776135 0.060391232 -0.17332925
0002b0 78 6c 56 be 52 9c 5e 3d 4b db 60 bc 14 80 ea 3c
       -0.20939815 0.054348297 -0.0137241585 0.028625526
0002c0 84 e2 08 3d 80 07 4c 3e 35 c1 32 be 9e c3 f4 3d
       0.033419147 0.19924736 -0.17456515 0.119513735
0002d0 7e c5 85 3d b3 9a 32 bd 80 98 f0 3d 5b ac 66 bd
       0.06531809 -0.043604564 0.11747837 -0.056316715
0002e0 ea de 3f be ba dd a0 bd b8 92 31 3e 37 de f9 3d
       -0.18737379 -0.07854791 0.17341125 0.12200587
0002f0 8d 98 11 3c f5 30 72 3d 13 f7 17 3d de 4b 86 3e
       0.008886469 0.05912872 0.037100863 0.26229757
000300 66 da 0b 3e 06 14 80 3d 98 11 3c bd 1d 2b cb 3e
       0.13657531 0.06253819 -0.045915216 0.3968133
000310 e3 2a b3 bd f4 73 95 3d 7d ef 4c 3e 9c ba 90 be
       -0.08748414 0.07297507 0.20013233 -0.28267372
000320 0b 35 3d 3e 6b 8a 6d 3d e2 60 2b be fe f7 c0 bd
       0.18477266 0.057993334 -0.16736177 -0.09422301
000330 12 a3 2b be 98 5f 08 3e d7 34 1f be 87 66 ae 3d
       -0.16761425 0.13317716 -0.155475 0.08515649
000340 03 f8 06 bd 6f eb 1d 3d c7 74 29 3e d2 61 df be
       -0.032951366 0.038554605 0.16548453 -0.43629318
000350 c4 cf 8d bd ab 49 b6 3e 10 59 c9 3d 05 dd bd bd
       -0.06924394 0.3560308 0.098314404 -0.09270672
000360 ff 31 86 be aa f8 3d bd 7b c9 40 3e 12 d9 64 be
       -0.2621002 -0.046379723 0.18826859 -0.22348431
000370 cf 2c b0 be bd e8 54 3d 6c ea 90 be 19 52 f3 3d
       -0.34409186 0.05197977 -0.2830385 0.11880893
000380 77 2e 48 3e fd 6e ed bd 57 da 15 3c 8b 02 16 3e
       0.19548975 -0.11593435 0.009146295 0.14649408
000390 5f af 96 bc 03 f6 a2 3d c5 6b 16 3e 4c 35 02 be
       -0.01839417 0.07957079 0.14689548 -0.12715644
0003a0 4e ce 5b 3d 5e b1 09 be a9 c3 10 3d 73 06 b8 bd
       0.053663544 -0.13446566 0.035342846 -0.08985605
0003b0 bf b4 a8 bc 99 19 25 3e 4a f2 16 bd da 17 98 3c
       -0.020593999 0.16123046 -0.03685216 0.01856606
0003c0 f7 90 3b bc a9 56 d3 3d 66 b8 b3 bc 1d 3b 2f be
       -0.0114481365 0.103192635 -0.021938514 -0.17112394
0003d0 77 65 8b be 58 08 bc 3d 2b 2c 26 bd 60 1d 8d be
       -0.2722585 0.09181279 -0.040569466 -0.27561474
0003e0 74 f7 40 bd 78 4f 36 3e 76 91 ba 3b 80 8d f6 3c
       -0.04711099 0.17803752 0.00569361 0.03009677
0003f0 a2 1c 7f bd 54 12 09 bd 54 0d a7 bc 8e 15 6f 3e
       -0.062283166 -0.033464745 -0.020392098 0.23348066

bias_ih_l0 f4 [128]
000000 f9 47 4a 3d 7a 21 53 3d d7 5a 2c 3e e2 45 0e 3c
       0.049385045 0.051545598 0.16831528 0.008683654
000010 49 94 e8 3d 93 8d 61 3e f8 20 26 3e 91 92 80 3c
       0.11356408 0.22026663 0.16223514 0.015694888
000020 e4 37 55 3d 2b b3 35 3e fe bc 88 3e a0 b1 50 3e
       0.052055255 0.17744128 0.2670669 0.20380259
000030 f0 aa 65 3e a7 28 a1 3d 74 25 12 3e b8 90 21 3e
       0.22428489 0.07869082 0.142721 0.15777862
000040 4e 4c 14 3e e1 01 62 3e 19 12 74 bc 6a 4d 2f 3e
       0.14482233 0.22071029 -0.014896893 0.17119375
000050 b9 29 a1 3e cf 53 d7 bb e9 e3 aa 3e d3 67 64 3d
       0.31477144 -0.00657127 0.33377007 0.055763077
000060 08 d7 b8 3e a2 bb 5a 3e 57 9c e0 3d f8 82 fd 3d
       0.36101556 0.21360639 0.109673195 0.12378496
000070 5b de 01 3d 70 89 e9 3c 7f d5 17 3e 88 88 60 3e
       0.031706195 0.028507918 0.14827536 0.21927083
000080 ef 62 f4 3d 77 61 16 be 03 e2 6f be 98 92 a3 3d
       0.119329326 -0.14685617 -0.2342606 0.07986945
000090 b2 7e 85 be f6 76 8f bd a6 3e 89 be f0 c8 a3 bd
       -0.26073223 -0.07005112 -0.2680561 -0.0799731
0000a0 ac ba 07 be 01 d2 5a 3d ce 7a 2c bd 58 38 4d 3c
       -0.13254803 0.05342293 -0.042109303 0.01252564
0000b0 76 0a 9e bc 39 f9 e7 3d 2d 94 0c bd 71 37 89 be
       -0.019292098 0.11326832 -0.034321 -0.2680011
0000c0 c4 92 7b bd 14 ee 9a 3d 05 fd d0 bd b9 25 c9 3d
       -0.061419263 0.07564941 -0.1020451 0.09821648
0000d0 78 b0 c5 be 23 95 8b 3d 84 4d 19 bd d7 33 e1 3d
       -0.38611197 0.06815555 -0.03742744 0.10996216
0000e0 4a 1c ea bd cc 6d c3 3d ca 32 4c 3d 21 e8 e2 3d
       -0.11431177 0.095424265 0.049853124 0.11079431
0000f0 93 db c8 bc fc da 30 be 62 33 a5 be 16 88 32 be
       -0.024518764 -0.17271036 -0.32265764 -0.17434725
000100 35 21 0b 3e b1 bc f4 3d eb 93 59 bd a2 1d dd 3d
       0.13586886 0.119500525 -0.05311958 0.10796668
000110 8c 12 e4 bd d1 b6 57 3d 5c 58 d5 3d 06 79 63 bd
       -0.1113635 0.05266458 0.10417244 -0.05553534
000120 62 43 c8 3c 89 6a 9e 3d cb 8a d8 bd 91 1c d4 3c
       0.024446193 0.07735164 -0.10573348 0.025892528
000130 98 ab 23 be e4 39 30 bd 03 ff 81 bd e3 ed f6 bd
       -0.15983427 -0.04302396 -0.06347468 -0.12057092
000140 8d 2d a9 bd c8 9a a9 bd 50 47 f6 3d 25 87 b0 bd
       -0.08260641 -0.08281475 0.120253205 -0.08619527
000150 c1 b4 30 3d 4f 5b 0b 3e 3c fb 02 3e 0e a7 19 be
       0.04314113 0.1360905 0.12791151 -0.15005133
000160 5b 45 fb 3d 3e 62 b3 bd d9 e3 3b 3d de 6c 2e be
       0.12269088 -0.087589726 0.04587159 -0.17033717
000170 83 f6 14 be 65 e5 ae 3d 44 99 b0 3c 14 bc 8f bd
       -0.14547162 0.08539847 0.021557458 -0.07018295
000180 c4 e8 71 3e 28 10 b7 3c a1 9a 5c 3e 73 22 5e 3d
       0.2362395 0.022346571 0.21543361 0.054232072
000190 51 96 87 3e 39 e2 1c 3e cf d9 4e 3e 94 f0 24 3c
       0.2648187 0.15320672 0.20200275 0.010067124
0001a0 70 b0 7f bd 77 22 4b 3e b5 2e 60 3d 5b 36 12 3e
       -0.062424123 0.19837366 0.054732043 0.14278547
0001b0 f5 ac 26 3e 2b 7f bb 3d 84 fb 3f 3e 52 9c b1 3e
       0.16276915 0.09155115 0.1874829 0.34689575
0001c0 e1 1a a7 3e 08 7e 08 3e 43 a7 c8 3d 9d 83 4c 3d
       0.32637694 0.13329327 0.09797528 0.049930204
0001d0 00 bf ef 3e 5c 4a 6d 3b ae bd 99 3e 3f b1 e5 3d
       0.4682541 0.0036207652 0.30027527 0.11215448
0001e0 4f 5d 23 3e b2 98 67 3e de ec 6a 3e 25 30 88 3d
       0.15953563 0.22616842 0.2294192 0.06649808
0001f0 fb db 10 3e 50 60 4c 3e 59 d3 5f 3e 72 de f0 3d
       0.14146416 0.19958615 0.21857966 0.11761178

bias_hh_l0 f4 [128]
000000 04 f4 a6 3b e6 68 84 3d dd 69 0d 3d 3b 40 2e 3e
       0.005095007 0.0646532 0.034524787 0.1701669
000010 0e c2 83 3e db 9b c1 bc 51 28 78 3d c5 e5 45 3e
       0.2573399 -0.023633888 0.060585324 0.19325931
000020 56 7c 0c 3e c9 46 af 3e c3 e2 2d 3c 81 bd a1 3d
       0.13719305 0.34233692 0.010613146 0.07897473
000030 a4 85 65 bc 92 f4 be 3e fa ae 3b 3e 05 eb a2 3e
       -0.014008913 0.37295967 0.18328467 0.3181993
000040 ff f9 6c 3d 90 63 5a 3e b0 7b e2 bd 6e f6 01 3e
       0.057855602 0.21327043 -0.11058748 0.12691662
000050 13 c6 ec 3e 47 53 32 3e d0 7e b9 3e 89 e2 f5 3d
       0.4624487 0.1741458 0.36229563 0.12006099
000060 8c 7d 86 3e bf 3d 4b 3e 17 a0 3b 3e 41 e7 03 3d
       0.2626766 0.19847773 0.18322788 0.032202963
000070 cc 78 4c bd ce ff 9c 3c 94 05 5f 3e ed f6 89 3e
       -0.04991989 0.019164946 0.21779472 0.26946202
000080 75 6e fa 3c 67 54 f7 bd c2 b2 60 3b 21 4e 01 be
       0.030570248 -0.12076645 0.0034286235 -0.1262746
000090 e4 1a 43 3d ef 09 be 3d 24 2a 02 be a6 31 66 be
       0.047633067 0.092792384 -0.12711388 -0.22479877
0000a0 79 60 74 bd 38 74 37 bb d0 d8 bd bc 1e 53 47 bd
       -0.059662316 -0.0027992856 -0.023174673 -0.04866325
0000b0 60 d5 b4 bc 42 83 87 bd b4 b4 92 3d 3c 1e 5f be
       -0.022074401 -0.06616832 0.07163373 -0.21788877
0000c0 9a d4 44 be 5e 26 fd 3b e9 eb 96 bd 3f 20 aa bd
       -0.19221726 0.007725521 -0.07369215 -0.08306932
0000d0 78 04 78 be 03 d3 c1 bd 6e 5f 85 be 3e e2 a7 3d
       -0.24220455 -0.094640754 -0.2604937 0.08197449
0000e0 fa c2 a2 be 33 52 5a be 80 92 50 be 42 37 4d 3d
       -0.3178938 -0.21320419 -0.20368385 0.050101526
0000f0 c2 05 58 bd 5a b3 7a 3d 9a 25 43 be cb 17 02 3e
       -0.052739866 0.0612062 -0.19057313 0.12704389
000100 6e ed 16 be e8 da 18 be 64 88 ef 3d e8 5d 56 3d
       -0.1473901 -0.14927256 0.11695936 0.05233565
000110 cc c8 14 3e fa 0c ae 3d e9 df a7 bd 2d a2 0d bc
       0.14529723 0.08498569 -0.08197004 -0.008644623
000120 56 ae 29 3e a3 41 85 bc 49 0a b5 3c e2 e3 30 3d
       0.1657041 -0.01626665 0.02209963 0.043186076
000130 39 0a ab 3c f4 db bf 3c 61 91 10 be 07 6f d2 3c
       0.020878898 0.023420312 -0.14117958 0.025687708
000140 a8 53 29 3c c9 67 23 3e 33 30 3b 3d 35 e2 59 be
       0.010334887 0.1595756 0.045700263 -0.21277697
000150 b1 21 e9 bd c9 e7 9a 3d 57 eb ec bd 2b c2 c8 3d
       -0.11383379 0.07563741 -0.11568325 0.098026596
000160 ba 2b ed bd 39 df 93 3c 0c 0b 48 3d 5b 4a 63 bd
       -0.11580606 0.018050777 0.04883866 -0.055490833
000170 b8 3b 09 be 3b e2 45 be e5 0f 44 bb 61 7f 0a 3d
       -0.13401687 -0.19324581 -0.00299167 0.033812884
000180 79 37 f8 3d b1 6e 20 3e cf 07 73 3d b2 26 90 3e
       0.121199556 0.15667225 0.05933362 0.28154522
000190 da 13 ba 3e 5c d1 67 3d 2b 19 cd 3e 9a 2d a4 3e
       0.3634327 0.056596145 0.40058264 0.3206604
0001a0 66 70 ee bd 8a 05 62 3e 57 8d 97 3e 1f f3 60 3e
       -0.11642532 0.22072425 0.2960002 0.21967743
0001b0 04 21 33 3e 98 c8 91 3e 97 d3 db 3d 12 a3 b5 3e
       0.17493063 0.28473353 0.10733717 0.35475975
0001c0 bf 92 b0 3e 6b 44 65 bb eb f1 4f 3e 39 a6 96 bd
       0.34486958 -0.0034983407 0.20307128 -0.07355923
0001d0 a8 d3 dc 3e 81 63 47 3e 3b 73 e7 3e 2c 9e 7a 3e
       0.4313023 0.19471551 0.452051 0.244744
0001e0 cd d9 b1 3e 12 a9 4e 3e 05 0b 90 3e 94 e4 94 3d
       0.3473648 0.20181683 0.28133407 0.0727016
0001f0 b9 a2 46 3c 8a b3 46 3e f7 7d 7b 3e c8 fe a2 3e
       0.012123757 0.19404426 0.2455977 0.31835008

weight_ih_l0 f4 [128, 2]
000000 82 36 bf 3e 62 92 1c 3e 3c cd d1 bd 2e 6d 8d bc
       0.37346274 0.15290216 -0.102442235 -0.017263975
000010 7d 45 7f 3e 3f ff 16 3d 05 14 13 be 20 d7 85 bd
       0.24928851 0.036864515 -0.14363106 -0.065351725
000020 8e b3 31 bd 96 b0 9d bd 47 42 5d 3d 7f 28 c5 3d
       -0.043384127 -0.07699697 0.054018285 0.09626865
000030 d9 fb a9 3c 7b ef 6d bd 2e 68 19 bd 76 6e 9e bd
       0.020749973 -0.058089714 -0.03745287 -0.077359125
000040 26 c5 91 3e 91 e0 5f bd 1c f4 79 bc 0d 5a 3e bd
       0.28470725 -0.054657523 -0.015255954 -0.046472598
000050 59 3d e2 bc 51 e0 01 3e ac 5f 91 bc 2b cc b8 bc
       -0.027617143 0.12683226 -0.017745815 -0.022558292
000060 14 2d 71 be 35 ec 22 bd 42 0c 5a 3b 77 25 f6 bd
       -0.23552352 -0.039776046 0.0033271466 -0.120188646
000070 9f 70 a9 bc c1 43 75 3c 08 f4 c3 bc a3 11 c5 3d
       -0.020683585 0.014969767 -0.023920074 0.096225046
000080 15 de 28 be 00 91 95 3d 46 c3 23 3e 5e 15 39 3e
       -0.16490968 0.07303047 0.1599246 0.18074557
000090 b3 04 cc 3c 9d e0 43 3d 8f 0c 42 bd 44 82 8a bd
       0.024904585 0.04782163 -0.047375258 -0.067631274
0000a0 9b 90 cd 3e eb 58 05 be ec f8 bd bd 03 a3 df 3c
       0.40149388 -0.13022201 -0.09275994 0.02729941
0000b0 db e3 c4 3c a2 5c 1e 3d 6d 89 c0 bd 23 32 fd 3c
       0.024034431 0.03866256 -0.09401212 0.030907696
0000c0 89 bb aa 3d 12 fb 21 3d 1b 8b 37 3b 83 b3 2d bd
       0.08336551 0.03954608 0.0028006497 -0.042407524
0000d0 42 7e 90 3e aa 36 c7 3d ef 1e 1e be 2d 8a bb 3c
       0.28221327 0.09727223 -0.15441488 0.022893036
0000e0 91 78 16 be a9 a0 54 3e 80 a3 56 3d 23 3d 14 3d
       -0.1469443 0.20764412 0.05240202 0.036191117
0000f0 25 e6 46 3e a8 70 c6 bc 61 a5 79 bd 53 d0 01 bd
       0.1942373 -0.02422364 -0.060948733 -0.031692814
000100 e3 25 8c bd 08 6f f3 bd 9f ef 4c 3d 22 eb ff bd
       -0.06843164 -0.11886412 0.050033208 -0.1249602
000110 ed 8c de 3c e0 96 fa 39 03 84 90 3d 30 55 2e bc
       0.027166808 0.00047796126 0.07056429 -0.0106404275
000120 6d d3 fd 3d 67 08 d0 3b d6 1e 30 bc 33 35 55 bd
       0.12393842 0.006348658 -0.010749539 -0.052052688
000130 2d 57 bc bc 29 b0 9d 3d 0c 8a d4 3d a3 7a c6 3d
       -0.022990787 0.076996155 0.10377893 0.0969136
000140 aa 54 be bd 05 c0 15 bd 81 68 a4 3d 23 97 ad bb
       -0.09293492 -0.036560077 0.08027745 -0.005297558
000150 54 ed 67 3d 33 d5 03 be 17 d6 70 bd 8c 2d 0b 3e
       0.056622818 -0.12874298 -0.058797922 0.13591594
000160 a3 fb a4 bd 20 bd d2 3c 82 07 2d 3c b3 11 2c 3d
       -0.080558084 0.025724947 0.010560872 0.042009067
000170 20 be 87 3d bd 8b 4b 3d fd 4e a6 3d 13 6a a1 bb
       0.0662806 0.04969381 0.081205346 -0.004925975
000180 e8 a5 ff 3c 00 57 44 bd 85 cb 0b be c6 87 b0 be
       0.03120704 -0.047934532 -0.13651855 -0.34478587
000190 06 30 02 3c c0 9e 6b 3d 48 12 c1 bd 61 be c6 bd
       0.00794602 0.057524443 -0.09427315 -0.09704281
0001a0 fd ea 77 be 5d 9f 0b bd 10 d9 b9 3d 47 81 70 bd
       -0.24210735 -0.034087528 0.090746045 -0.05871704
0001b0 9a 34 ef bc 70 b7 b4 bd b1 47 38 bc aa e2 94 bd
       -0.029199887 -0.088240504 -0.011247561 -0.07269795
0001c0 b7 2d fb bd f4 54 db bc e8 e4 15 3c cd 74 6c bd
       -0.12264579 -0.026773907 0.009148814 -0.057728577
0001d0 c9 58 05 3d 00 1b 09 bd 03 d6 6d 3d 37 b5 e2 bd
       0.032555375 -0.033473015 0.058065426 -0.1106972
0001e0 9b cf 22 3e df ed 4d bd d0 dd 96 bc e9 4b 35 3d
       0.15899508 -0.05027568 -0.018416315 0.044261847
0001f0 6b 73 a7 3d f1 0e 48 bd 36 e2 38 bd fe 57 82 bd
       0.08176311 -0.048842374 -0.045137607 -0.063644394
000200 0c 7b e0 3d f1 16 7b 3e ce 20 82 be 5d a2 8f be
       0.10960969 0.2452047 -0.25415653 -0.2805356
000210 d9 4c f7 bd 57 c8 a0 bd 6e 20 14 be d0 1c 44 be
       -0.120752044 -0.07850712 -0.14465496 -0.19151616
000220 b9 60 54 be 27 4a 0f 3d 51 11 77 3e 76 73 ca bd
       -0.20740022 0.034982827 0.241277 -0.09885304
000230 b2 cf de bd 7f f7 2b be 8e 1d 84 3e b7 26 1e be
       -0.108794585 -0.16793631 0.25803798 -0.15444456
000240 34 d3 7c 3e ee d3 38 3c 13 ce a4 bc 54 7e 7c 3e
       0.24689943 0.011280997 -0.020117795 0.24657565
000250 6a 47 52 3e f3 04 c2 3e b0 2e cf bd fc bf 9c 3e
       0.20535055 0.378944 -0.10116327 0.30615222
000260 1f ee 86 be 58 b1 cf 3c 69 d4 8f 3d 1a 9b 3b 3e
       -0.26353547 0.025353119 0.07022936 0.18320885
000270 98 f1 b4 bd 19 07 7e be 3c 90 4e bd 21 d5 a8 3e
       -0.08835143 -0.24807395 -0.05043052 0.32975104
000280 69 89 ef 3d 32 54 5a 3d ef 49 89 be 6f 2d d9 3d
       0.11696131 0.05330295 -0.2681422 0.10604369
000290 bb 2d 85 bd b9 23 0e 3e 1c d0 e9 3c af 94 0d 3d
       -0.06502863 0.13880815 0.028541617 0.034565624
0002a0 6c 6f 2c be 02 86 2a 3d 14 67 24 be d3 7d 01 3e
       -0.16839379 0.041631706 -0.16054946 0.12645654
0002b0 ed 78 93 3c 51 b7 a9 be 3b 89 77 3e 35 18 b5 3c
       0.018001998 -0.33147672 0.24173443 0.02210627
0002c0 46 34 11 3e 5b 64 5c 3e c4 80 fa bc 38 70 a8 3e
       0.14180097 0.21522658 -0.030578978 0.32898116
0002d0 4f f3 b6 be 0c 30 d4 3c 6f c3 a0 3e 8d 75 4f bc
       -0.35732505 0.025901817 0.31399104 -0.012662304
0002e0 13 f7 8d 3e f5 e0 90 3c ca 7f 4a 3e 43 46 6d 3e
       0.27727565 0.017685393 0.1977531 0.23171334
0002f0 0c 94 5d 3e 6e e2 cc 3c 67 8e 43 bd 1a e1 e4 bd
       0.21638507 0.025010314 -0.047743227 -0.11175747
000300 f3 57 d9 be 0f dc 61 be de db dc 3e 35 73 5d 3e
       -0.42449912 -0.22056602 0.43136495 0.21625979
000310 2d 0b 27 3d 62 78 4e be ff 15 81 3e 2c 3b 86 bc
       0.040782142 -0.2016311 0.25212094 -0.016385637
000320 25 9b 94 be fa e3 4b 3d ef 63 88 bd e5 2b df bc
       -0.29024616 0.049777962 -0.06659686 -0.02724261
000330 d7 c6 36 be 3e 76 ac be b1 8a ad be dc 46 c7 3d
       -0.17849289 -0.33683962 -0.33894876 0.09730312
000340 c8 c7 03 be c7 35 bd 3d 9c bd 2e 3d 33 ad 9a be
       -0.12869179 0.09238773 0.042661294 -0.30210266
000350 d7 4b cd 3e 72 f3 48 3b 78 0d ed 3d 07 c6 38 be
       0.40096924 0.0030662683 0.115748346 -0.18044291
000360 b0 1b a1 3d 16 91 42 3e ba 80 57 3e bd ee 5b 3e
       0.07866609 0.19000658 0.21045199 0.2147779
000370 b5 ca 06 3e 11 25 b2 3d 6e 4c e1 bc 7e 5a a8 3e
       0.13163264 0.08698476 -0.027502265 0.3288154
000380 74 e2 74 be 81 31 b6 bd 2c b3 1d be 57 99 b3 be
       -0.2391451 -0.08896161 -0.1540038 -0.35077927
000390 17 b8 0d be 4e 42 c5 bd 9b c2 86 3d ed ae 8d 3e
       -0.13839756 -0.09631787 0.06580087 0.2767252
0003a0 a4 d6 fa 3d ff cf 42 3e 22 86 ca bd b9 6c b3 3d
       0.12247971 0.19024657 -0.09888865 0.087609716
0003b0 e3 60 a5 3e d0 fe 11 be 53 0c e6 bd bd f1 de bd
       0.3230048 -0.1425736 -0.112328194 -0.10885952
0003c0 13 0c a1 3e 2e 76 3b 3e 12 de e7 3d 70 2c 02 bf
       0.31454524 0.183068 0.113216534 -0.50849056
0003d0 d9 1a 76 3e 0a 35 29 be 74 12 90 3d 69 86 cf 3d
       0.24033679 -0.16524139 0.0703477 0.101330586
0003e0 6d fa 4b be f4 86 ec bd 45 f7 03 bd 6c d2 99 be
       -0.19919749 -0.11549178 -0.032218236 -0.30043352
0003f0 56 62 c2 bc 2a 42 85 3d 42 7e e0 bc 70 9c cc be
       -0.02372853 0.065067604 -0.027403954 -0.39963102

weight_hh_l0 f4 [128, 32]
000000 16 be f0 3d ba 9c 9f be 39 21 b5 be 67 30 10 3d
       0.11755006 -0.3117426 -0.3537691 0.03520241
000010 1d b7 3d be 44 9f 5c 3e c8 05 86 be 0f 49 65 bc
       -0.18526883 0.2154513 -0.26176286 -0.013994469
000020 96 a6 7a 3d 45 a2 49 bc 31 1d 7c 3e f2 94 31 bd
       0.061194025 -0.0123067545 0.2462051 -0.043354936
000030 b6 24 32 3c 28 fb 79 3e 20 6e 2c be dd 75 35 bd
       0.01087301 0.24412215 -0.16838884 -0.044301856
000040 f2 a2 7b 3e fc 2b 9f bd ef 0f 59 3c c5 40 86 3e
       0.24573877 -0.07772061 0.013248428 0.2622129
000050 f2 32 d6 bd b9 6e 2b be d4 94 3e be 73 c2 31 3e
       -0.10458936 -0.16741456 -0.18611461 0.17359333
000060 a7 13 c2 bd ae 34 e2 3e 29 78 83 be 18 50 a3 3e
       -0.09476405 0.44180816 -0.25677612 0.31897044
000070 2e d9 c1 3e 6e b5 ee bd ac fc 26 bc 96 64 eb bd
       0.37861007 -0.11655699 -0.010192078 -0.114937946
000080 e3 e1 bd bc ca 86 fc bd 2c 02 d4 3d 9b 60 9a bd
       -0.023179 -0.123303965 0.10351977 -0.07537957
000090 11 46 08 3a e3 93 fa bd 59 8b 7c be a3 e9 3c bd
       0.0005198429 -0.122352384 -0.24662532 -0.04612125
0000a0 e5 1a 81 be 94 56 98 3e 82 6d 80 be 90 7a fd bc
       -0.2521583 0.29753554 -0.25083548 -0.030942231
0000b0 cf 14 44 3d 08 5f 7c 3e c7 a7 98 3e 49 30 98 be
       0.047871407 0.24645627 0.29815504 -0.2972434
0000c0 c3 7b 04 be 59 fa b2 3d 2f d5 16 3c 63 98 1c 3e
       -0.12937836 0.08739156 0.0092061 0.15292506
0000d0 06 13 97 3e 99 0c b4 be 75 f0 8c 3d 19 6c 84 3e
       0.295067 -0.3516586 0.06881801 0.25863722
0000e0 06 83 93 be db a3 da 3d 8e eb 9e 3e af 5c 10 3b
       -0.288109 0.10675784 0.3103909 0.00220279
0000f0 3d c0 f9 3d 54 78 50 bd 73 79 29 be 96 45 85 be
       0.1219487 -0.050896004 -0.16550235 -0.26029652
000100 1e 63 40 3d cb 46 a0 bd 19 de 02 bc d1 12 da bd
       0.046969526 -0.07826003 -0.0079875225 -0.1064812
000110 25 b4 9e be 32 16 d1 bd 04 fe 66 be a2 c6 77 3d
       -0.30996814 -0.102093115 -0.22557837 0.060492165
000120 0e f6 d2 bd c2 32 8a bd 81 c8 01 be 61 84 d3 bd
       -0.103008375 -0.067479625 -0.12674142 -0.10327984
000130 68 4a f7 bd e0 98 b7 3e 71 bb b8 3c 07 4a c4 bd
       -0.12074739 0.35858822 0.022550317 -0.09584432
000140 32 b9 a7 3d 63 91 d8 3d 2b fe 4d be c6 d3 00 be
       0.0818962 0.10574605 -0.20116489 -0.12580785
000150 9f 97 d5 bd 33 bc 78 be cb f4 71 be ac b2 8c 3e
       -0.1042931 -0.24290542 -0.23628537 0.27480066
000160 88 89 b9 bd ff d6 01 3e 22 43 ab bd 1b 39 75 3d
       -0.09059435 0.12679671 -0.08362414 0.059868913
000170 dd 29 3c 3d 39 8d d8 3d c9 70 28 3d cb 16 ea be
       0.04593836 0.10573811 0.041123185 -0.45720515
000180 28 ec 00 3e 33 df 13 bb c1 e9 bb 3d b7 e9 4d bc
       0.12590086 -0.0022563457 0.091754444 -0.012567929
000190 cb 0a 04 bc 5b d6 d4 3d 27 8b ea 3d b6 18 90 3d
       -0.008059214 0.103924476 0.114523225 0.07035963
0001a0 c7 ca 19 3e 31 76 62 3e df 00 1b bd 78 26 20 3c
       0.1501876 0.22115399 -0.037842628 0.009774797
0001b0 b8 e4 30 3c 5a 12 4a bd 20 c0 35 bd 8d ae 2b be
       0.010796718 -0.049333908 -0.044372678 -0.16765805
0001c0 6d 6f 3d be 8a a3 e2 3c 14 39 d7 bd 8c 2d 54 be
       -0.18499537 0.027665872 -0.10508934 -0.207205
0001d0 66 01 41 3d 1e cd 02 3e 43 0a 98 bb 0c a8 59 3d
       0.047120474 0.12773558 -0.004639895 0.053138778
0001e0 92 48 eb bc e5 09 8b 3e af 24 ca 3b de 20 8b bd
       -0.028721128 0.27155986 0.006168924 -0.06793378
0001f0 dc 62 0f 3c 77 e9 35 3c e1 6b f2 3d 6d 17 24 be
       0.008751597 0.011103026 0.118369825 -0.16024561
000200 30 25 32 3d 8c a2 e2 3d 3f 52 ef 3c bd ac 9e 3d
       0.043492496 0.110661596 0.029214023 0.07747791
000210 e1 ac 7a 3d e6 54 13 3e 91 34 86 bc 87 b3 12 be
       0.061200026 0.14387855 -0.016382487 -0.14326297
000220 09 17 0e 3b 25 46 97 3e 2b 47 fb bd 15 99 75 3d
       0.002168121 0.29545704 -0.122694336 0.059960444
000230 1e 7a b3 3c 6a fe 1f 3e f4 72 cf 3d 6d 46 20 bd
       0.021908816 0.15624395 0.101293474 -0.039129663
000240 9f 3f 32 be bc 82 24 3e a8 7a cf bd 62 54 df bc
       -0.17407082 0.16065496 -0.10130817 -0.027261917
000250 5f e3 04 3e 70 1a 3c bd b6 1e 47 3d 29 6e 8a bd
       0.1297736 -0.04592365 0.048613273 -0.06759293
000260 9e 0f 0f be 99 2e 11 3e b9 4c aa bd 08 78 e6 3d
       -0.13970801 0.14177932 -0.08315415 0.11253363
000270 70 c2 4f bd 62 a4 e6 3d d8 4f c5 3c 54 d3 e5 bd
       -0.05072254 0.11261822 0.024085924 -0.11221948
000280 3f 86 85 3e 9f 30 86 be ff 19 48 be cf 9b 2d be
       0.26078984 -0.2620897 -0.19541167 -0.16953968
000290 7c d7 2a be 84 e7 7e 3e 94 2b 50 be cd ef 74 3e
       -0.16683763 0.24893004 -0.20329124 0.23919602
0002a0 a3 1e 32 3e 5b 8f 11 be 53 e2 b6 bd 99 66 2b 3d
       0.173945 -0.14214842 -0.08929887 0.04184589
0002b0 b2 90 6f bd d1 db a1 3c ab 84 98 bc d5 a0 3d be
       -0.0584876 0.019758137 -0.018617949 -0.18518384
0002c0 50 c2 0a bd fd 8c 88 3d cc 31 28 be e1 6a 97 3e
       -0.033876717 0.066675164 -0.16425246 0.2957373
0002d0 ef 9f 62 be 61 8a 0f be 29 be 2f be 31 d1 5a 3e
       -0.22131322 -0.14017631 -0.17162384 0.21368863
0002e0 f2 c6 5a 3e 26 c0 4a 3e 60 d3 c5 3d 9b 3c 9a 3d
       0.21364954 0.19799861 0.09659457 0.07531091
0002f0 75 82 89 3e 5b 4a dc bd 39 be 57 3e 97 03 fd bd
       0.26857343 -0.1075637 0.21068658 -0.123542
000300 81 d4 c2 3d 96 d4 c4 3d aa 4f a5 3d 90 e1 aa 3c
       0.09513188 0.0961086 0.08071835 0.02085951
000310 63 8a ca 3d 2e 19 17 be 69 c4 6e be 66 95 b5 3c
       0.098896764 -0.14755699 -0.23317112 0.022165965
000320 9f e8 41 be 8b 56 ba bc 21 71 31 bd d5 79 e4 3d
       -0.18936394 -0.022746345 -0.04332078 0.1115605
000330 44 a0 47 3d 92 f7 f8 3d fb c8 b6 bd c8 ae 3e be
       0.048736826 0.12156595 -0.08925053 -0.18621361
000340 d0 57 ca bb 74 b5 3a 3d 8e 20 3d 3d 8e 63 99 bd
       -0.006175019 0.045583203 0.046173625 -0.07489692
000350 12 9c 86 3e bd aa f3 3d 20 34 f5 bd 16 e7 48 3e
       0.26290947 0.118978 -0.11972833 0.19619402
000360 4e 41 66 bd dc 38 f7 3d a4 d5 83 3d 7a 77 7f 3d
       -0.056214623 0.12071392 0.06437233 0.0623698
000370 c7 48 28 3e a5 58 db bd 5a 08 1f be be 7f 9e 3a
       0.16434012 -0.10710267 -0.1553053 0.0012092513
000380 10 1a c5 3d 67 67 d5 3d 98 e5 96 3d 95 d1 3a 3d
       0.09624112 0.10420113 0.0736801 0.04561003
000390 ec 44 08 3d e8 91 ba be 99 40 d3 bd b8 73 7f 3d
       0.033268854 -0.36439443 -0.103150554 0.062366217
0003a0 f0 56 2c be b1 9e 43 3d 15 4f dd bd 4e 38 38 3e
       -0.16830039 0.04775876 -0.10806099 0.17990229
0003b0 91 7e fd 3d c9 b2 f6 bc 84 c8 f6 3d 29 ff 98 39
       0.12377656 -0.030114548 0.12049964 0.00029181808
0003c0 61 a3 1a 3c 9b e4 56 3d de 81 7c be 90 09 ec 3d
       0.009438367 0.05246411 -0.24658915 0.115252614
0003d0 77 ff 96 3c d2 44 36 bd 92 28 25 be c4 29 6a 3a
       0.018432362 -0.044499226 -0.16128758 0.0008932615
0003e0 30 a3 0a 3c 42 df fb 3d ae 91 52 3e 53 40 40 3e
       0.0084617585 0.122984424 0.20563385 0.18774538
0003f0 03 ed 73 3d 2b 33 af 3c 59 0d 06 3d a8 cf 73 bd
       0.059552204 0.021386703 0.032727573 -0.05952421

bias_ih_l0 f4 [128]
000000 80 88 1e bd ab d0 ed bc bb ab fa 3d ee 42 6f 3d
       -0.038704395 -0.029030165 0.12239786 0.05841344
000010 d1 f7 78 3a 2d 8c 98 3d 19 1f 2f 3e 7e 24 ae bd
       0.0009497377 0.074486114 0.17101707 -0.08503054
000020 4c 85 5e 3d da a2 65 3d 4b e5 f8 bd 5c fe 51 be
       0.05432634 0.05606351 -0.12153109 -0.20507187
000030 36 17 df 3c 41 8c 48 3e 81 8e 0f be 95 0e 20 3c
       0.027232748 0.19584753 -0.14019205 0.009769102
000040 19 3b 91 3d 7d 65 12 3e ae 31 56 3e 26 a6 73 bd
       0.0709135 0.14296527 0.20917389 -0.059484623
000050 f2 67 61 3e bb fe 85 bd 18 43 20 be 31 64 1d 3c
       0.22012308 -0.065427266 -0.15650594 0.009606407
000060 30 f3 f1 ba 60 18 af 3d 67 46 c7 3d cd 14 df 3c
       -0.0018459316 0.08549571 0.09730225 0.027231598
000070 d9 b1 17 3e 94 ef be 3d cd e6 59 3e bf 69 ab 3d
       0.14813937 0.0932304 0.2127945 0.08369779
000080 d7 ec 43 3e c9 0c fc bd b9 53 c2 bd 9b dd 2c be
       0.19133316 -0.12307126 -0.09488625 -0.16881411
000090 f7 76 91 bd 6b 58 e7 3c 8b d2 31 3c 94 bc 2b 3e
       -0.07102769 0.028240403 0.01085342 0.16771156
0000a0 dc 81 39 3e 03 cb 0a 3e ec a4 34 3d 7a 82 2f 3e
       0.18115944 0.13554005 0.044102594 0.17139617
0000b0 03 45 dd bd 11 b5 5a 3e 94 71 aa 3c 23 c6 a8 bd
       -0.108041786 0.21358134 0.020806111 -0.082409166
0000c0 ac d6 6c bd 1c ae 79 3e 09 ac 63 3e 3e 59 43 3e
       -0.057821915 0.24382824 0.22233595 0.19077012
0000d0 7b 2d cf 3d 5c 5c bf 3d 60 43 0a be 1b 0c e9 3d
       0.101160966 0.09343788 -0.13502264 0.11379262
0000e0 69 8e 11 bd a9 18 4e 3e 9a 30 ab 3d 82 e6 4b 3e
       -0.035536204 0.20126595 0.083588794 0.1991215
0000f0 02 91 08 be b6 c0 85 3c 8b cd 35 3d b2 7e 63 3d
       -0.13336566 0.016327243 0.044385474 0.055540748
000100 d8 95 20 bd df 82 aa 3c 02 0b cb 3d 88 9b 35 be
       -0.039205402 0.020814357 0.09914209 -0.17735112
000110 07 7c 4a 3c 31 ba 98 3d d3 88 bf 3d 61 34 bd 3d
       0.012358672 0.07457388 0.09352269 0.09238506
000120 1e 65 0b 3e b3 f4 d7 bd cf 4a b5 3d 33 72 e8 bc
       0.13612792 -0.105447195 0.08852159 -0.028374767
000130 ee 5d 20 3b 93 55 09 3d 3a a0 90 3d c5 db ff bd
       0.002447005 0.033528876 0.07061811 -0.124930896
000140 d3 73 0a be f3 e8 96 bd df be aa 3d e2 59 71 bd
       -0.13520746 -0.0736865 0.08337187 -0.05892361
000150 60 d4 02 3c 5d 32 27 be 73 e3 04 be cb 6c 1a 3e
       0.007985204 -0.16327806 -0.1297739 0.15080564
000160 9c 4f 10 be c5 14 54 bd ad 16 27 3e 17 56 0c 3d
       -0.14092869 -0.05177762 0.16317244 0.03426179
000170 db 85 81 3d cd 72 54 bd 11 61 99 bd 04 87 45 3d
       0.06324359 -0.051867295 -0.07489217 0.048224464
000180 b2 f9 9f bc 92 b3 51 3e 15 78 87 3e 58 38 db 3d
       -0.019528244 0.20478657 0.26458803 0.10704106
000190 32 1f f0 3d 5b 7b 61 3e 4f 57 20 3e 72 7e 1f 3d
       0.117247 0.22019713 0.15658306 0.038938947
0001a0 3a 69 76 3d 10 ba 0f 3e 9d 19 8d 3d 4e 82 10 be
       0.060158946 0.14035821 0.06889651 -0.14112207
0001b0 61 47 b8 bd f7 d0 55 3e c3 a6 5e 3d cf bd 9f 3d
       -0.089979894 0.20880495 0.054358255 0.07799875
0001c0 8a df 99 3d bb 67 11 bd 94 c8 04 3e 42 53 18 3e
       0.0751334 -0.035499316 0.1296714 0.1487551
0001d0 54 e6 84 3c 02 48 07 3e bd a5 1e bc 32 3b c9 bc
       0.01622311 0.13211063 -0.00968307 -0.02456436
0001e0 0a 5d 2f 3e 6d b6 1b 3e 13 17 a4 3e 15 54 ba bb
       0.17125335 0.15206309 0.32048854 -0.005686293
0001f0 69 df 30 bc dd 07 43 bd 3d 33 38 3e 36 2b 02 3e
       -0.010795453 -0.04761492 0.17988296 0.12711796

bias_hh_l0 f4 [128]
000000 35 e7 42 3e 3b fd 6b 3e fc 63 57 3d 00 57 e2 bd
       0.19033511 0.23045819 0.052585587 -0.1105175
000010 15 87 c2 3d 08 0f 26 3e df d4 9a bd 4e 17 9c 3c
       0.09498421 0.16216671 -0.07560133 0.019054081
000020 16 32 08 3e 73 45 03 3e b7 0f ab 3d ed 54 71 3b
       0.13300356 0.12819462 0.08352607 0.0036824301
000030 dc 86 e3 3c 61 0e 52 3e ef 75 b6 3d 86 37 79 3d
       0.027774267 0.20513298 0.08909213 0.060843967
000040 67 bf a2 3c d6 bf 82 3d 6c 92 f3 3d e3 e7 d5 bd
       0.019866658 0.06384246 0.11893162 -0.104446195
000050 a0 97 66 3e f4 40 34 3d f4 2f 0d 3e 7e ce 82 bd
       0.22518778 0.044007257 0.13787824 -0.063870415
000060 64 e9 de bd b2 2d 19 3b 94 15 7c 3d 40 32 8d bd
       -0.108843595 0.0023373184 0.061544016 -0.0689435
000070 47 28 32 3e f6 83 f0 3d f7 69 93 3d f7 be e6 3d
       0.17398177 0.117439196 0.071979456 0.112668924
000080 0f fc 69 3d 15 96 c8 3d e9 e1 ed 3c 99 e7 83 bd
       0.057125147 0.09794251 0.029038386 -0.06440658
000090 17 48 78 bd d3 f3 0d be f9 e4 e5 bd c5 62 fa bd
       -0.060615625 -0.13862543 -0.11225314 -0.1222587
0000a0 b6 d4 a4 bd cb c3 30 bd a0 7d 18 bd 1f 6f 86 3d
       -0.08048384 -0.043155473 -0.03722918 0.065641634
0000b0 e9 83 15 3d 2d 1d 68 3e 8b e4 0a be 31 16 20 be
       0.036502752 0.2266738 -0.13563745 -0.15633465
0000c0 ef 02 1e 3c 71 45 85 bc 88 60 9e 3d ba 0c 6b 3b
       0.009644254 -0.016268464 0.077332556 0.003586574
0000d0 4e a0 bf 3d 3e a7 87 3c 62 cc 20 3c 74 5e 0a bd
       0.093567476 0.01655924 0.009814354 -0.033781484
0000e0 a7 e1 35 bc 07 14 7c 3e 9a 49 ba bb 62 7b a2 bc
       -0.011101163 0.24617015 -0.0056850435 -0.019834224
0000f0 2e 4a 85 3d fe 2a 34 be e1 e8 99 bd a7 12 6e 3e
       0.06508289 -0.17594525 -0.07515121 0.23249303
000100 e9 71 0f 3e 2b bf 1e 3d bb 70 b7 bd 02 a2 13 be
       0.14008297 0.03875653 -0.089570485 -0.1441727
000110 9e d4 af 3d 91 ba 01 be 59 aa e2 bd 35 d5 bb 3d
       0.085854754 -0.12668826 -0.110676475 0.091715254
000120 4c 2f ff bd e5 0c f0 3d 17 3f 5c 3c 8f b2 a1 3d
       -0.12460193 0.117212094 0.013442776 0.078953855
000130 e1 2e 15 bd f1 ed d9 3d 01 75 43 3d 95 c1 94 bc
       -0.03642166 0.10641087 0.047719005 -0.018158713
000140 78 ac 3d bd 85 a8 c7 3d 86 a0 4c be 76 41 20 3d
       -0.046307057 0.097489394 -0.1998311 0.03912493
000150 72 14 61 3d f1 03 f9 bd a5 57 ed 3a af 1b b1 3d
       0.05495114 -0.12158955 0.0018107785 0.08647858
000160 41 3c 9d bd 75 db 2e 3e 8f 0b 28 bd c9 6e 4e 3d
       -0.07677508 0.17075904 -0.041026648 0.05039862
000170 56 10 af bd a4 64 b9 bd 15 bd 19 3e 2c 7e 06 be
       -0.08548038 -0.09052399 0.15013535 -0.13134068
000180 67 bb 7a 3e cc 18 39 3e fe ed 27 3e 50 19 23 be
       0.24485551 0.18075866 0.1639938 -0.15927625
000190 6c 1a 65 bd 93 fe 6e 3e 67 43 a7 3d 60 bc e6 3d
       -0.0559334 0.233393 0.08167153 0.112663984
0001a0 7a 6b d3 3d ef c1 1c 3e eb 73 67 3c ae 7a f6 bd
       0.10323234 0.15308355 0.014126758 -0.12035118
0001b0 61 23 a8 bd 27 30 8b 3d dc f7 f5 3d dc 66 38 3e
       -0.08209873 0.06796294 0.12010166 0.18007988
0001c0 66 95 64 3e a6 7b bb 3c 3d fe bc bd 21 43 09 3e
       0.22322616 0.022886109 -0.092281796 0.13404514
0001d0 8b 8f 77 ba 75 a7 6d bd 7e b2 e3 3d 00 41 86 3e
       -0.0009443692 -0.058021028 0.11118029 0.26221466
0001e0 29 30 3d 3d 5b 48 8e 3e c2 de de 3d 8e 06 38 3e
       0.046188507 0.27789578 0.108823314 0.1797125
0001f0 8d 89 87 3e 6f 5e a0 3c 25 6f d6 3d 8d 6e 44 3e
       0.2647213 0.01957628 0.10470418 0.19182797

weight_ih_l0_reverse f4 [128, 2]
000000 82 cf 95 3e 91 8a 82 3d d7 59 1e 3e 73 82 4c be
       0.29259878 0.06374086 0.15463959 -0.19971637
000010 aa 60 63 be 8f b7 3c 3d f9 ca 60 3e 1c 51 75 bc
       -0.22204843 0.046073493 0.21952428 -0.014972951
000020 69 c5 7f be ed 7f 42 be 1b 7a f8 bb 85 34 fa bd
       -0.2497765 -0.18994112 -0.0075829155 -0.122170486
000030 49 71 32 3e 5e e0 12 be 2f df da bc 4e 86 a0 be
       0.17426027 -0.14343402 -0.02671775 -0.31352466
000040 f7 a0 90 3d 93 16 60 be 18 11 8e be db 36 d7 3e
       0.070619516 -0.21883611 -0.27747416 0.4203404
000050 80 27 e7 bc 23 9f c9 3d fa fb d8 3e 8b e1 a4 be
       -0.028217077 0.09844806 0.42379743 -0.32203326
000060 b3 84 61 be 52 4e c9 bd 05 1e 00 bf 2b 27 cb be
       -0.22023277 -0.098293915 -0.50045806 -0.3967832
000070 65 b5 70 bc 4a 1c 47 be 62 4f a5 3e a8 c6 a3 3e
       -0.014691685 -0.19444385 0.32287127 0.319875
000080 23 2f 15 be c9 6d 5a 3e db d4 71 be 58 69 07 bf
       -0.14568762 0.21330942 -0.23616354 -0.52895117
000090 46 c3 49 be 1b d5 0e 3e 19 95 2f be 7f 94 6b 3e
       -0.19703397 0.13948481 -0.1714672 0.23005866
0000a0 26 5a f1 be 1f 49 0b 3e f6 b3 cd be 6a 16 36 3e
       -0.4713909 0.13602112 -0.40176362 0.17781988
0000b0 d3 be c8 bd 03 07 ab 3d 78 c3 d4 3d f5 b1 18 be
       -0.09802022 0.08350947 0.10388845 -0.14911635
0000c0 24 ab e5 bd b6 d0 cd 3e ae 9b a9 be 90 90 fd bd
       -0.11214283 0.40198296 -0.33126587 -0.12381089
0000d0 74 90 74 3e 72 78 1e 3e 84 61 0a bd 12 28 93 3e
       0.2388323 0.15475634 -0.033784404 0.2874151
0000e0 1d 5d 32 be f0 63 f1 3d fa a8 84 3e 34 25 2c 3e
       -0.17418332 0.1178664 0.2591017 0.16811067
0000f0 7d 2a 0d 3e c2 2c 9a be 71 c2 fe 3d e6 0a 83 be
       0.13785739 -0.30112273 0.124394305 -0.25594252
000100 e4 67 21 3c e6 8a 86 3e f6 97 85 3d 7b b7 06 be
       0.00985143 0.26277846 0.06523125 -0.1315593
000110 82 33 f4 bd 3f d2 71 3e ec 17 30 3d 6a ff 1c bd
       -0.11923887 0.23615359 0.042991564 -0.03832952
000120 e1 89 09 be 10 a5 30 bc 6f ee 9f 3e c0 de 8c 3d
       -0.13431503 -0.0107815415 0.31236598 0.06878424
000130 71 75 1c be 91 65 0d 3d ea 8c 38 bc 7f 70 2d bc
       -0.15279175 0.03452069 -0.011264065 -0.010585903
000140 68 46 01 3e 2b be 40 3d 91 96 6b bd 66 bb bd 3d
       0.12624514 0.04705636 -0.05751664 0.09264259
000150 f4 8b a3 3e fb 33 42 3a 27 f3 8f 3e fb f7 18 be
       0.31942713 0.00074082584 0.28115198 -0.14938347
000160 8a c3 51 bd b3 d7 b1 bc d1 2d df bd e6 02 24 be
       -0.05121187 -0.021709299 -0.10897411 -0.1601673
000170 7d ae 9d bd 30 31 75 be 4a a4 1f 3e 13 3c 2c 3e
       -0.076992966 -0.23944545 0.15590015 0.16819791
000180 20 98 a2 bd 00 47 41 3d 82 69 4d be 0d bd 3e be
       -0.07939172 0.04718685 -0.2005978 -0.18626805
000190 00 a4 0e 3b f8 b6 ce bb 86 99 48 bd 58 03 93 3c
       0.0021765232 -0.0063084327 -0.048974536 0.01794593
0001a0 fb 04 9a bd 2a 1a dd 3d 97 39 12 be 67 d0 a0 3c
       -0.07520481 0.10796006 -0.14279781 0.019630624
0001b0 96 05 5d 3e 0f b5 29 be 93 b7 72 be bd c4 11 be
       0.21584162 -0.16572975 -0.2370284 -0.14235206
0001c0 62 51 38 3d 85 ce 96 3b b6 14 6c 3d 07 ff cd bd
       0.044999488 0.0046022558 0.05763694 -0.10058408
0001d0 15 60 e8 3d 5a 80 8b 3d 6a f7 b7 3d 95 b0 88 bd
       0.11346451 0.068115905 0.08982737 -0.06674305
0001e0 cf f5 28 be 05 d5 6f 3e 3e 72 57 3e d1 ce b3 3d
       -0.16500019 0.23421104 0.21039674 0.087796815
0001f0 10 07 1c 3e 0b f3 60 be f7 ce cb 3d 69 2e 58 be
       0.15237069 -0.21967714 0.09951585 -0.21111454
000200 0f 7f 8d be ca cb 81 be d8 84 7b 3d 16 80 a3 3e
       -0.27636 -0.2535079 0.061405987 0.3193366
000210 95 50 c0 3d 20 62 c8 bd fe df 6b be 3c ed 42 3c
       0.0939037 -0.09784341 -0.23034665 0.011897381
000220 e6 5a 62 3e a4 15 dd 3d 21 63 60 3e 06 a9 36 bb
       0.22104988 0.10795143 0.21912815 -0.0027871742
000230 a6 82 8e 3d a6 e3 41 be 68 37 71 be b7 23 77 3e
       0.06958513 -0.18934497 -0.23556292 0.24134718
000240 da e2 1e be 74 c6 1b be ad d2 8a be e5 75 c8 3e
       -0.15516225 -0.15212423 -0.27113858 0.39152446
000250 59 7c f2 3d 88 5d de bc 11 bc c9 3e 22 8b f6 bd
       0.11840124 -0.027144209 0.39401296 -0.12038256
000260 b1 b5 4a 3e 31 35 14 be 6f 65 78 3e 42 f3 5d 3e
       0.19795872 -0.14473416 0.24257444 0.21674827
000270 81 92 f1 3c fe 43 91 be d9 25 f3 3d 93 e1 3c 3e
       0.029488804 -0.28372186 0.11872453 0.18445425
000280 e3 4d 03 3e 98 fa 01 3c 50 a0 1a 3e 1a 06 ab 3e
       0.1282268 0.007933281 0.15100217 0.33403093
000290 2b 0c 1a 3e c3 bb 83 be e4 0a 61 be ab 04 05 3e
       0.15043704 -0.25729188 -0.2197681 0.12990062
0002a0 e7 15 c4 be 51 2c 9b 3d 0a ad a6 3e f7 43 dd bd
       -0.3829796 0.07576812 0.32553893 -0.10803979
0002b0 d8 ea 83 be 20 fa 9a 3d d6 f8 0c 3e 4a 64 89 3e
       -0.2576511 0.07567239 0.13766798 0.26834327
0002c0 61 c3 01 be 60 d2 d9 3e 7f a1 66 3e 6f 8d 7e 3e
       -0.12672187 0.42543316 0.22522543 0.2485864
0002d0 41 81 26 be 62 64 92 bd 57 3c b9 bb 21 40 9f be
       -0.16260244 -0.07148053 -0.005652945 -0.31103614
0002e0 22 7e 96 be c2 5d 82 3e 7b 4d a6 3e fb 36 31 3d
       -0.29393107 0.25462157 0.32480988 0.043265324
0002f0 3b d9 09 3e b1 f5 51 be 20 80 5f 3e 64 a5 82 be
       0.13461773 -0.2050388 0.2182622 -0.25516808
000300 a0 8a e2 3e 43 28 8b 3e 9d 5b 29 3e 9d cc 24 be
       0.44246387 0.27179155 0.16538854 -0.16093679
000310 aa 3a 9f be 88 73 07 3e eb ce 10 be 79 de 2a be
       -0.31099445 0.13227665 -0.14141433 -0.16686429
000320 99 15 cc be 91 93 c5 bd f0 78 8d be 44 fe 39 be
       -0.39860228 -0.09647287 -0.2763133 -0.18163401
000330 60 f0 44 be 4e 16 6d be 9b a5 34 3e 6b 29 d3 be
       -0.19232321 -0.2315304 0.17641298 -0.41242537
000340 29 c3 73 be a5 93 d9 bd 8f 1d 55 be f8 25 24 3e
       -0.23804916 -0.10623864 -0.20812057 0.16030109
000350 b4 ba 4f 3e 1c 05 79 bd 55 9f d0 3e e9 85 7e be
       0.20286065 -0.06079589 0.4074656 -0.2485577
000360 9f f1 7a 3e c4 6b 35 be ba 1c c6 be 38 c5 7d be
       0.24506234 -0.1771689 -0.38693792 -0.24782264
000370 a0 ac 0c 3e 57 86 69 be eb a2 ef 3d 30 84 88 3e
       0.13737726 -0.22805153 0.11700996 0.2666335
000380 49 3b fa 3d 3a a9 e5 3e e4 71 87 be 35 9d 04 bf
       0.12218339 0.44855672 -0.2645408 -0.5180238
000390 9c 08 35 be 2d 94 6a 3e 97 e2 96 be 9b 62 89 3e
       -0.17679065 0.22908087 -0.2946975 0.26833043
0003a0 50 f3 c4 be 9d da 11 bd 48 20 ba be bf e6 89 3e
       -0.38466883 -0.035608876 -0.36352754 0.26933858
0003b0 91 1f 49 3e 84 c8 2e be 66 0c a7 be 78 4c 58 be
       0.19640948 -0.17068678 -0.32626647 -0.2112292
0003c0 f5 1e 3c 3c a1 4b ba 3e 73 c4 64 3d 18 d7 98 be
       0.01148199 0.36385825 0.05585141 -0.29851604
0003d0 c5 68 14 3d 95 11 90 3d f9 83 78 3e 16 43 e1 3e
       0.03623273 0.070346035 0.24269094 0.43996495
0003e0 1e c2 d5 3b 73 11 46 3e fe 08 97 3e c6 f9 e6 bd
       0.0065233847 0.19342594 0.29499048 -0.11278109
0003f0 13 e8 b8 3d f4 15 ab bd 4f 1c b0 3d 26 f8 b0 be
       0.0902864 -0.083537966 0.085991494 -0.34564322
