TS-CVAE/experiments/EOT/models/models_24_Jul_2021_19_35_18_eot/model_registrar-12.pt (torch_old, 552549 bytes, 43 tensors)

weight_ih_l0 f4 [128, 6]
0	0xbd83ab77	-0.06429189
1	0x3d82a805	0.063797034
2	0xbe715697	-0.23568188
3	0xbdb4ce00	-0.08828354
4	0xbe8fd657	-0.28093216
5	0x3de49d9b	0.11162873
6	0xbe5962b1	-0.21229054
7	0xbe214134	-0.1574753
8	0xbdef8aa0	-0.116963625
9	0x3de7dde5	0.1132162
10	0xbd41eb48	-0.047343522
11	0x3d077c8d	0.033077765
12	0xbd7ec44b	-0.06219892
13	0xbdb5a243	-0.088688396
14	0xbd5ace19	-0.053419206
15	0xbcce6a6b	-0.025197228
16	0xbe8c3b0a	-0.27388793
17	0x3e2f043f	0.17091464
18	0x3c9a07cc	0.018802546
19	0x3def9a8c	0.11699399
20	0x3daeea12	0.08540739
21	0xbd7a9629	-0.06117836
22	0x3cbc101b	0.022956898
23	0x3e5c21d3	0.21497278
24	0xbe4a74b5	-0.19771083
25	0xbbaa6757	-0.0052003074
26	0x3d42d339	0.04756472
27	0x3e5a9a6e	0.21347973
28	0x3d768084	0.060181156
29	0xbe54302c	-0.20721501
30	0x3db4b563	0.08823659
31	0x3d738765	0.059455294
32	0x3e3280d0	0.1743195
33	0xbd68d9fb	-0.056848507
34	0x3e2978cd	0.16549988
35	0xbe79bff4	-0.2438963
36	0xbe6960d5	-0.22790845
37	0xbc3aec2f	-0.01140885
38	0xbdd6422a	-0.104618385
39	0xbe043ff9	-0.12915029
40	0x3cb342b9	0.021882402
41	0xbe82873a	-0.25493795
42	0xbde931d2	-0.113864556
43	0x3ea025ab	0.31278738
44	0x3e0eb7e5	0.13937338
45	0xbe1e5505	-0.1546212
46	0x3d3a5990	0.04549557
47	0xbd82e13a	-0.06390615
48	0x3e32b45e	0.17451617
49	0x3d8f751e	0.0700476
50	0x3cabaa35	0.020955184
51	0x3dbcb4fb	0.09214207
52	0xbada4b10	-0.001665445
53	0x3e298c24	0.16557366
54	0xbd0bd414	-0.0341378
55	0xbda6f824	-0.08152798
56	0xbe12b867	-0.14328156
57	0x3d65675b	0.05600677
58	0x3d26ef57	0.040755596
59	0xbd3beb1a	-0.045878507
60	0x3cf5a6ed	0.029986823
61	0x3e7d6b7e	0.24748036
62	0xbe09aafd	-0.13444133
63	0xbe7cb87d	-0.24679752
64	0xbdd0d289	-0.101964064
65	0xbcb32642	-0.021868829
66	0xbd9f9afe	-0.07793234
67	0x3d563581	0.05229712
68	0xbe919b49	-0.28438786
69	0x3a34a822	0.0006891509
70	0x3d04c111	0.032410685
71	0xbdb2d890	-0.08732712
72	0xbcc81f07	-0.024428857
73	0xbe933fef	-0.28759715
74	0xbd834107	-0.06408887
75	0x3e59ca6d	0.21268626
76	0x3d5d3e7a	0.05401466
77	0xbe9cada2	-0.3060122
78	0xbdc8da3a	-0.098072484
79	0x3e20d757	0.15707146
80	0x3e3c935a	0.18415585
81	0xbd23c67f	-0.039984223
82	0x3d918760	0.07105899
83	0x3d91c11f	0.07116913
84	0xbde2788c	-0.11058149
85	0xbdf60dd0	-0.12014353
86	0xbdcf453d	-0.10120628
87	0x3e2e01e7	0.16992913
88	0x3d5d1ba6	0.053981446
89	0x3d8fa827	0.070144944
90	0xbe995831	-0.29950097
91	0x3de522e5	0.11188296
92	0x3e262a25	0.16227014
93	0x3e1c563a	0.15267268
94	0xbd0ed3c5	-0.034869928
95	0x3cdd20dc	0.026993208
96	0x3d20bd26	0.039242886
97	0x3e042cc9	0.12907709
98	0x3e7aa628	0.24477446
99	0xbd2d053d	-0.042241324
100	0x3d79d9ff	0.060998913
101	0xbe0864d6	-0.13319716
102	0x3d904264	0.07043913
103	0xbda9e1d6	-0.08295028
104	0xbe1fa1f9	-0.15589131
105	0xbdd9811a	-0.10620327
106	0x3caed8d4	0.021343626
107	0x3e4b86d8	0.19875658
108	0xbd8fd189	-0.070223875
109	0x3d7e7b98	0.062129587
110	0x3e826d52	0.2547403
111	0xbe5e7215	-0.21723206
112	0x3d6201f8	0.05517766
113	0xbe048819	-0.12942542
114	0xbd53eb5f	-0.05173814
115	0x3d300e41	0.042982344
116	0xbe489338	-0.1958741
117	0x3c994a68	0.018712237
118	0x3e0655ac	0.13118619
119	0x3e8ae39e	0.27126783
120	0xbe058e21	-0.13042499
121	0x3dffd9e8	0.12492734
122	0x3e63ecd5	0.22258313
123	0xbe0cf2d1	-0.13764502
124	0x3e2ee610	0.1707995
125	0xbc95a902	-0.018269066
126	0x3dded318	0.10880107
127	0xbc6059d1	-0.013693289
128	0x3d55f767	0.052237894
129	0x3e7b3d21	0.24535038
130	0x3cf5e029	0.030014114
131	0x3e5d4f30	0.21612239
132	0x3d91c44a	0.07117517
133	0xbe75892e	-0.23978111
134	0xbe48c130	-0.19604945
135	0x3d460ee0	0.04835403
136	0x3dbd166d	0.09232793
137	0x3de28253	0.110600136
138	0xbb19adfe	-0.0023449655
139	0xbd448642	-0.0479796
140	0xbc4e1355	-0.012577851
141	0xbd112cdf	-0.035443183
142	0xbd06deb5	-0.032927234
143	0x3de2049b	0.11036035
144	0xbd90f9c0	-0.07078886
145	0xbe1d6d74	-0.15373784
146	0xbd1db11b	-0.03849898
147	0x3d842858	0.064530075
148	0xbcb2bf31	-0.021819683
149	0xbe0b3760	-0.13595343
150	0xbcee5265	-0.029092023
151	0xbd9b37f6	-0.07579033
152	0xbde780b6	-0.113038465
153	0x3da74735	0.081678785
154	0xbc9d49f3	-0.0192003
155	0x3c031c7f	0.0080023995
156	0xbdd5f08d	-0.10446272
157	0x3cc1f89c	0.023678117
158	0xbe44978a	-0.19198433
159	0x3d013d39	0.031552527
160	0x3a635b36	0.0008672954
161	0xbda4bab0	-0.0804342
162	0xbde6b7e0	-0.1126554
163	0x3e538e8d	0.20659848
164	0x3e281284	0.16413313
165	0x3d89bc10	0.06725323
166	0xbb0b2fec	-0.002123828
167	0x3e8370dd	0.25672045
168	0x3e26cf17	0.16289936
169	0x3d143381	0.03618193
170	0xbe25e0a7	-0.1619898
171	0xbc2044ba	-0.009782011
172	0x3da6c364	0.081427366
173	0x3e5a8243	0.21338753
174	0xbcb3ab93	-0.021932399
175	0xbdf21a4e	-0.118214235
176	0xbe9ff1fd	-0.3123931
177	0x3d78f74b	0.060782712
178	0xbe4dedf2	-0.201103
179	0xbc450931	-0.012026117
180	0xbe0c69dc	-0.13712257
181	0xbd726050	-0.059173882
182	0x3e7d41bd	0.24732108
183	0xbd3663f6	-0.044528924
184	0xbd314c47	-0.043285634
185	0xbd550178	-0.052003354
186	0xbd52b157	-0.051438656
187	0xbe025f9f	-0.12731789
188	0x3da230f5	0.07919494
189	0x3e033d4e	0.12816355
190	0xbd93bb9c	-0.07213518
191	0xbe15f8e1	-0.14645721
192	0xbdf30592	-0.11866297
193	0x3d8fcde1	0.0702169
194	0xbe055097	-0.13019024
195	0xbdf5dcd7	-0.120050125
196	0xbe1f9e8e	-0.15587828
197	0xbe99baac	-0.30025232
198	0x3cf191a5	0.029488394
199	0x3d67b441	0.056568388
200	0xbb929c23	-0.0044741794
201	0x3c5d5e01	0.013511182
202	0x3dcf7aa2	0.10130812
203	0xbbb66952	-0.0055667544
204	0x3c052d6b	0.008128504
205	0x3d1be4b7	0.038059916
206	0xbddeda1c	-0.10881445
207	0xbcc97e1b	-0.024596265
208	0xbdb17fd6	-0.08666961
209	0xbd00259a	-0.03128586
210	0x3b2b15ac	0.0026105447
211	0xbc41cb17	-0.011828206
212	0xbcf0ec0c	-0.02940943
213	0xbe211478	-0.15730464
214	0xbca5222c	-0.020157896
215	0x389a2208	7.349631e-05
216	0x3dd4dbbc	0.103934735
217	0xbd92042d	-0.07129703
218	0x3d824e4e	0.06362592
219	0x3d3a4a69	0.04548112
220	0xbd831ab2	-0.06401576
221	0xbd840a76	-0.06447308
222	0x3e09d52b	0.13460223
223	0xbe55de4b	-0.2088558
224	0x3e020281	0.12696268
225	0xbe580662	-0.21096185
226	0xbce4fbde	-0.02795213
227	0xbe8a2a68	-0.26985478
228	0x3c6a0942	0.014284434
229	0xbd9aeeef	-0.07565104
230	0x3ca30070	0.01989767
231	0xbd384384	-0.044986263
232	0xbdc9fd9b	-0.098628245
233	0xbe2597b5	-0.16171153
234	0x3a182c00	0.00058048964
235	0xbe24d732	-0.16097715
236	0x3e034919	0.12820853
237	0xbdbb1274	-0.09134379
238	0xbc81c3ef	-0.015840499
239	0xbe2aa19c	-0.16663212
240	0x3dc6257d	0.09675119
241	0xbd73fffd	-0.0595703
242	0xbe237333	-0.15961914
243	0x3d868917	0.065691166
244	0xbd89ed9c	-0.067347735
245	0x3ed3f4db	0.41397747
246	0xbe230fb7	-0.15923963
247	0xbd5e55c9	-0.05428103
248	0x3da273b9	0.079322286
249	0x3d89fdca	0.067378595
250	0x3dd2dd6c	0.10296139
251	0xbd3ed288	-0.046587497
252	0x3df1a9ed	0.11799989
253	0xbe709ad4	-0.23496562
254	0x3cf1113d	0.029427165
255	0xbd566776	-0.05234476

weight_hh_l0 f4 [128, 32]
0	0xbd81a4a1	-0.063302286
1	0xbd52f332	-0.05150146
2	0x3c95d4bd	0.018289918
3	0x3e25d1f8	0.16193378
4	0xbd8a0e73	-0.06741037
5	0x3db989e9	0.090595074
6	0xbe20d4ba	-0.15706149
7	0x3d8fc9d9	0.07020921
8	0x3e6586c1	0.22414686
9	0x3db7f4c9	0.08982236
10	0xbd973227	-0.07382613
11	0x3e124ccf	0.14287113
12	0xbdd7e1ee	-0.105411395
13	0x3bb6bc96	0.0055766804
14	0x3dcbd40c	0.09952554
15	0x3e6e6d49	0.23283876
16	0x3e4d1cc0	0.20030499
17	0xbe36475f	-0.17800663
18	0x3e010dfb	0.1260299
19	0xbe7177be	-0.23580834
20	0x3c0c5ceb	0.008567075
21	0xbbbf4b4a	-0.0058378326
22	0x3d25e935	0.040505607
23	0xbe12d69d	-0.14339681
24	0x3da31715	0.07963387
25	0xbe039ffd	-0.12854
26	0x3dd97df9	0.106197305
27	0x3d3df0ae	0.04637211
28	0x3d17eeed	0.03709309
29	0x3da64226	0.081180856
30	0xbdb3fc74	-0.08788386
31	0xbd4c833d	-0.049929846
32	0x3e193b6c	0.14964074
33	0xbe53445c	-0.20631546
34	0x3dc587c1	0.09645034
35	0xbd2b5fae	-0.041839294
36	0x3e68980c	0.22714251
37	0x3e53807f	0.20654486
38	0x3d6ee225	0.058321137
39	0xbdf10d84	-0.11770156
40	0x3e7cf42c	0.24702519
41	0x3c9d9131	0.019234272
42	0xbe494149	-0.1965381
43	0xbdccba4b	-0.0999647
44	0xbe7d7779	-0.24752606
45	0x3e1a1fe7	0.15051232
46	0x3d56a576	0.05240389
47	0xbe137d55	-0.14403279
48	0x3d95d42a	0.07315858
49	0x3e27e63d	0.16396423
50	0xbaa457d0	-0.0012538377
51	0xbda1f0b3	-0.07907238
52	0xbd1f5621	-0.0389005
53	0xbcc163f1	-0.023607226
54	0xbde928cd	-0.11384735
55	0xbda21ef1	-0.07916058
56	0x3d8f7dd4	0.07006422
57	0xbd312e1e	-0.04325687
58	0xbe08c4d0	-0.13356328
59	0xbe72a903	-0.23697285
60	0xbddb5198	-0.10708922
61	0x3cba4665	0.022738645
62	0x3e3cf85c	0.18454117
63	0xbe62b941	-0.22140981
64	0x3e27cf77	0.16387735
65	0xbe33391d	-0.17502256
66	0x3b64d6ed	0.0034918145
67	0x3e93273b	0.28740868
68	0x3cbeb8bf	0.023281453
69	0x3e52a60b	0.20571153
70	0x3b128ca1	0.0022361653
71	0xbea2f44f	-0.31827018
72	0x3e0b8186	0.13623628
73	0x3d685fa8	0.05673185
74	0xbdfff651	-0.12498153
75	0x3dd10919	0.10206813
76	0xbe59cabe	-0.21268746
77	0xbe83a981	-0.2571526
78	0xbd11dc18	-0.03561029
79	0xbd01c715	-0.031684
80	0x3e07b567	0.13252793
81	0x3c896e10	0.016776115
82	0x3e65995b	0.22421782
83	0xbeaba201	-0.33522037
84	0x3db5e435	0.08881418
85	0x3e317b63	0.17332225
86	0xbd783c47	-0.06060436
87	0x3da1b249	0.07895333
88	0x3c66ca90	0.014086381
89	0x3c380958	0.0112326965
90	0x3e1f9c91	0.15587069
91	0xbd343d7d	-0.044003952
92	0xbb8b0d0a	-0.0042434977
93	0xbd87d120	-0.06631684
94	0xbdd1c7be	-0.10243176
95	0x3de1076c	0.10987744
96	0x3dbfde19	0.09368534
97	0x3e02b062	0.12762597
98	0xbb6efba8	-0.0036465917
99	0x3db92d90	0.090418935
100	0xbe4ff451	-0.20308043
101	0xbdb777bc	-0.089583844
102	0x3b5aba8d	0.0033375353
103	0x3e0718ea	0.13193098
104	0xbdb5b3a4	-0.08872154
105	0xbd6c93c1	-0.057758097
106	0xbd8afb4a	-0.06786211
107	0xbe53eaa9	-0.20694984
108	0xbe4a216e	-0.19739315
109	0xbe66e729	-0.22549118
110	0xbe0e1fee	-0.13879368
111	0xbd52e3c1	-0.051486734
112	0x3d076040	0.033050776
113	0x3e1bf51a	0.15230218
114	0xbdaf189a	-0.08549614
115	0xbd9eaef2	-0.07748212
116	0xbd2df58d	-0.042470504
117	0x3da265e8	0.07929593
118	0x3e257bbf	0.16160487
119	0xbd81ef72	-0.06344499
120	0xbe7ba40b	-0.24574296
121	0x3cda7f1c	0.026671939
122	0xbe423c98	-0.18968427
123	0x3d810403	0.06299593
124	0xbd97ef51	-0.07418693
125	0x3ddddf32	0.10833587
126	0x3d5d8b7a	0.054088093
127	0x3dd0364d	0.10166607
128	0xbe69125b	-0.22760908
129	0xbdbd9ca5	-0.09258393
130	0x3e120988	0.14261448
131	0xbdb996f6	-0.09061997
132	0x3e4b3882	0.19845775
133	0x3deed645	0.116619624
134	0xbd3ae742	-0.0456307
135	0x3e19c073	0.1501482
136	0x3d062d3c	0.032757983
137	0xbd6bf8fc	-0.057610497
138	0xbe8c7f60	-0.2744093
139	0xbd85920f	-0.06521999
140	0xbea1d01e	-0.31604093
141	0x3e0d907b	0.13824646
142	0xbc88b766	-0.016689014
143	0xbe47b12e	-0.19501182
144	0xbd6e3b11	-0.0581618
145	0x3dbd5101	0.09243966
146	0xbd49a547	-0.049229886
147	0xbe428801	-0.18997194
148	0x3d55e0a8	0.052216202
149	0x3ec2a437	0.3801591
150	0x3d980056	0.07421939
151	0xbddf7b6f	-0.10912215
152	0x3dbed481	0.09317876
153	0xbd66e732	-0.05637283
154	0xbda5857b	-0.080821
155	0xbec844f2	-0.391151
156	0xbdf576dd	-0.11985562
157	0xbe9de927	-0.30841944
158	0x3e537b35	0.20652469
159	0xbd6452c7	-0.055743005
160	0x3e065e17	0.1312183
161	0xbd1382cb	-0.036013406
162	0x3dfcaad4	0.123372704
163	0xbe1d07a1	-0.15334941
164	0xbe34c222	-0.17652181
165	0xbcab2b17	-0.02089457
166	0x3d85659b	0.0651352
167	0xbdb26657	-0.08710926
168	0xbce8ce17	-0.028418584
169	0xbd6f934e	-0.05849009
170	0x3d8494be	0.06473683
171	0xbe33c4c7	-0.17555533
172	0xbe52d0b0	-0.2058742
173	0x3d830522	0.063974634
174	0xbc73e2ee	-0.014885647
175	0x3c478d1c	0.012179639
176	0x3cb951a4	0.022621937
177	0x3e48d973	0.196142
178	0xbe30564f	-0.17220424
179	0x3df83229	0.12118942
180	0x3d60b891	0.054863516
181	0xbd2ef022	-0.042709477
182	0x3df7c108	0.12097365
183	0xbd76f384	-0.06029083
184	0xbe3403f0	-0.17579627
185	0xbda31d14	-0.079645306
186	0x3e34efe0	0.1766963
187	0x3e024b06	0.12723932
188	0x3c34df9c	0.011039641
189	0x3d808f8d	0.0627738
190	0x3d4b9ae7	0.049708273
191	0x3e81488a	0.25250655
192	0x3e157b59	0.14597835
193	0x3d5a08b5	0.05323096
194	0xbd4b2cb6	-0.049603187
195	0x3ec3df75	0.38256422
196	0xbd9aec76	-0.075646326
197	0x3d8596b2	0.065228835
198	0x3e492ad0	0.19645238
199	0xbe8dfaca	-0.277304
200	0x3e2aa3d4	0.16664058
201	0x3d5b251e	0.053502195
202	0xbe2710f0	-0.16315055
203	0xbdc4a38a	-0.09601505
204	0xbe225fb6	-0.15856823
205	0x3e0e0730	0.1386993
206	0xbe15ba98	-0.14621961
207	0x3d9765a1	0.07392431
208	0xbd1a3720	-0.037650228
209	0x3cdc5af2	0.026898835
210	0x3e25f952	0.1620839
211	0xbed558d4	-0.41669333
212	0xbd8811cf	-0.06644022
213	0x3eb4cece	0.3531403
214	0x3debe04a	0.11517389
215	0xbdc8ec24	-0.09810665
216	0xbe80d33a	-0.25161153
217	0xbd2e5016	-0.042556845
218	0x3e40c1c6	0.18823919
219	0xbe502c37	-0.20329367
220	0xbeab806b	-0.33496413
221	0x3d717ca7	0.05895677
222	0xbe8bd436	-0.27310342
223	0x3df61d53	0.12017312
224	0x3e4d870d	0.20071049
225	0xbdee5174	-0.1163663
226	0x3cab6e56	0.020926636
227	0x3e046825	0.12930353
228	0xbca4c227	-0.02011211
229	0x3d749776	0.059714757
230	0x3e253ebb	0.16137211
231	0xbe0b7dfa	-0.13622275
232	0x3cadb7f4	0.02120588
233	0xbe161145	-0.14655025
234	0x3d468125	0.048463006
235	0xbdcc960f	-0.09989559
236	0xbcd0380a	-0.025417347
237	0x3e2c6c42	0.16838172
238	0xbcb5e153	-0.02220217
239	0x3c429240	0.011875689
240	0xbcb00db1	-0.021490904
241	0x3dc6932a	0.09696038
242	0xbc80e71f	-0.015735207
243	0xbe176272	-0.14783648
244	0xbe91c802	-0.28472906
245	0x3db7eba7	0.08980494
246	0xbc89ced4	-0.016822256
247	0xbe96b099	-0.29431608
248	0xbd25bd02	-0.040463455
249	0x3e3d2afe	0.18473431
250	0xbc366fc7	-0.011135048
251	0x3d73e7c4	0.0595472
252	0xbd6783e9	-0.056522284
253	0xbd14c873	-0.036323976
254	0xbcacca8c	-0.021092676
255	0x3e82108a	0.25403243

bias_ih_l0 f4 [128]
0	0x3d3305b6	0.04370662
1	0x3d3d8ce9	0.04627696
2	0x3e1fa759	0.15591182
3	0xbb2cac5f	-0.0026347858
4	0x3de49866	0.1116188
5	0x3e612d06	0.21989831
6	0x3e1c388a	0.15255943
7	0x3b07c75e	0.0020718197
8	0x3d4fb645	0.050710935
9	0x3e2ec5b7	0.1706761
10	0x3e861863	0.2619048
11	0x3e50c14c	0.20386237
12	0x3e64619d	0.22302862
13	0x3d9691be	0.07352017
14	0x3e0e3a22	0.13889363
15	0x3e1301d6	0.14356169
16	0x3e0bd4b7	0.13655363
17	0x3e61f1d2	0.22064903
18	0xbc95eefe	-0.018302437
19	0x3e2df0f2	0.16986445
20	0x3e94c6df	0.29057977
21	0xbc14bfed	-0.009078962
22	0x3ea3d7c2	0.32000548
23	0x3d516aca	0.051127233
24	0x3eb1b995	0.347119
25	0x3e5151fc	0.20441431
26	0x3dc90e00	0.098171234
27	0x3df35892	0.11882128
28	0x3d05a59f	0.03262865
29	0x3cd980cd	0.026550675
30	0x3e097c28	0.13426268
31	0x3e54dac9	0.20786585
32	0x3dfb910d	0.122835256
33	0xbe134832	-0.14383009
34	0xbe614608	-0.21999371
35	0x3daf1318	0.08548564
36	0xbe753c81	-0.23948862
37	0xbd8ac5ca	-0.067760065
38	0xbe8092fa	-0.25112134
39	0xbd921420	-0.07132745
40	0xbe06d862	-0.13168481
41	0x3d79bf60	0.060973525
42	0xbd21c05b	-0.039490085
43	0x3c9436b1	0.018092485
44	0xbc6b5eb7	-0.0143658435
45	0x3df57519	0.11985225
46	0xbd0a24e2	-0.03372658
47	0xbe7978c4	-0.24362475
48	0xbd31fbf4	-0.04345317
49	0x3da6184f	0.08110105
50	0xbdca8742	-0.0988908
51	0x3dc9bbdf	0.09850287
52	0xbeb8cfb4	-0.36095965
53	0x3d8c4a56	0.06850116
54	0xbc981ff0	-0.018569916
55	0x3deb84cd	0.11499939
56	0xbdc4dda0	-0.09612584
57	0x3dd525b0	0.10407579
58	0x3d7c74be	0.06163477
59	0x3de76ba0	0.11299825
60	0xbca90f70	-0.020637244
61	0xbe258cba	-0.16166964
62	0xbe9e1ad1	-0.30879834
63	0xbe28b8b5	-0.1647671
64	0x3e0aa34b	0.13538854
65	0x3deeea9d	0.11665843
66	0xbd5619ac	-0.052270576
67	0x3ddad219	0.10684604
68	0xbde706a5	-0.11280564
69	0x3d5c48e1	0.05378044
70	0x3dcce5c0	0.10004759
71	0xbd5634a4	-0.052296296
72	0x3cde12f4	0.027108647
73	0x3da4e4bb	0.080514394
74	0xbddc5160	-0.107577085
75	0x3cdd3fd7	0.02700798
76	0xbe25a2e7	-0.16175424
77	0xbd3e402a	-0.04644791
78	0xbd81d4fa	-0.0633945
79	0xbdfa2268	-0.12213594
80	0xbda3a2f4	-0.07990065
81	0xbda58be1	-0.080833204
82	0x3df86d81	0.12130261
83	0xbdb11d9a	-0.08648224
84	0x3d3c800f	0.046020564
85	0x3e09d82b	0.13461368
86	0x3e007b48	0.12547028
87	0xbe19a3b7	-0.15003859
88	0x3dfeefcc	0.124480814
89	0xbdb3312f	-0.087496154
90	0x3d4d280d	0.050087024
91	0xbe30d1de	-0.17267558
92	0xbe143883	-0.14474683
93	0x3dae2881	0.08503819
94	0x3cb0f726	0.021602225
95	0xbd885e19	-0.06658573
96	0x3e6c83b8	0.23097122
97	0x3c6a1b03	0.014288667
98	0x3e50016b	0.20313041
99	0x3d322b5b	0.04349838
100	0x3e85296e	0.2600817
101	0x3e1bdd79	0.15221204
102	0x3e4535c9	0.19258799
103	0xbba91d2c	-0.0051609483
104	0xbd840bfd	-0.06447599
105	0x3e42cdbe	0.19023797
106	0x3d490ef2	0.04908652
107	0x3e128dba	0.14311877
108	0x3e27b2df	0.16376828
109	0x3dad7ac5	0.08470682
110	0x3e3be2d3	0.18348245
111	0x3ea9acfa	0.33139783
112	0x3ea32c44	0.3186971
113	0x3e0821ff	0.13294218
114	0x3dbfda38	0.09367794
115	0x3d46e433	0.04855747
116	0x3ee385f9	0.4443815
117	0x3a8a883c	0.0010569165
118	0x3e92228a	0.28541976
119	0x3ddca4a3	0.107735895
120	0x3e14526a	0.14484563
121	0x3e5cde64	0.2156921
122	0x3e6159b4	0.22006875
123	0x3d777149	0.06041077
124	0x3e11c9aa	0.14237085
125	0x3e4b2d8a	0.1984159
126	0x3e4f1374	0.20222265
127	0x3ddd238e	0.10797797

bias_hh_l0 f4 [128]
0	0xba18f17a	-0.00058343227
1	0x3d733d37	0.05938455
2	0x3cb537d4	0.022121347
3	0x3e22a929	0.15884842
4	0x3e82c315	0.2553946
5	0xbcc4a037	-0.024002178
6	0x3d508699	0.050909612
7	0x3e37f291	0.17963625
8	0x3e0b1bed	0.13584872
9	0x3eabd00f	0.33557174
10	0x3bb29f0d	0.0054510892
11	0x3da1dcdf	0.07903456
12	0xbc7a1af5	-0.015265216
13	0x3ebc4ed8	0.36778903
14	0x3e37c3a8	0.1794573
15	0x3e9ba394	0.30398238
16	0x3d4b1b8e	0.049586825
17	0x3e5a5381	0.21320917
18	0xbde9752d	-0.11399303
19	0x3e0099f6	0.12558731
20	0x3ee06339	0.438257
21	0x3e2fc1e5	0.17163809
22	0x3eb272a9	0.34853104
23	0x3dec6405	0.11542515
24	0x3e7ec032	0.24878004
25	0x3e41d419	0.18928565
26	0x3e2fd8ed	0.17172594
27	0x3cdf24eb	0.027239284
28	0xbd48b188	-0.048997432
29	0x3c8cf72b	0.017207703
30	0x3e50ac3d	0.20378204
31	0x3e842010	0.25805712
32	0x3d0b937f	0.03407621
33	0xbdf121db	-0.117740355
34	0x3c90f61e	0.017695483
35	0xbdf71bbe	-0.12065838
36	0x3d8d0f3d	0.06887672
37	0x3dc2bb1b	0.09508344
38	0xbde1a599	-0.11017913
39	0xbe5d573d	-0.2161531
40	0xbd70d75c	-0.058799133
41	0x3b9bb0e5	0.004751312
42	0xbca863e9	-0.020555453
43	0xbd3085db	-0.043096405
44	0xbc8c7a45	-0.017148146
45	0xbd740ec6	-0.0595844
46	0x3d93ec5a	0.07222815
47	0xbe46281e	-0.19351241
48	0xbe326ee5	-0.17425115
49	0x3c57e517	0.013177178
50	0xbd907626	-0.07053785
51	0xbda98a19	-0.08278293
52	0xbe5e42f1	-0.21705224
53	0xbdc11dd0	-0.094295144
54	0xbe776f7a	-0.24163619
55	0x3db23334	0.087011725
56	0xbe99734f	-0.29970786
57	0xbe517643	-0.2045527
58	0xbe448203	-0.1919022
59	0x3d563e41	0.052305464
60	0xbd481fb2	-0.048858352
61	0x3d93f62d	0.07224689
62	0xbe34f473	-0.17671375
63	0x3e0be72c	0.13662404
64	0xbe176b58	-0.14787042
65	0xbe1bc3f0	-0.15211463
66	0x3df14582	0.11780836
67	0x3d51c6d9	0.051215027
68	0x3e134ebe	0.14385507
69	0x3db05600	0.08610153
70	0xbdb05285	-0.08609489
71	0xbbb1214d	-0.005405581
72	0x3e2c6848	0.16836655
73	0xbc56b1a9	-0.013103881
74	0x3ca5eff9	0.02025603
75	0x3d357586	0.044301532
76	0x3c9b4fc7	0.01895894
77	0x3ca3cf68	0.01999636
78	0xbe107c61	-0.14109947
79	0x3cc59ce6	0.024122667
80	0x3c55a870	0.013040647
81	0x3e256f3a	0.16155711
82	0x3d3f7c94	0.046749666
83	0xbe5a2d6f	-0.21306394
84	0xbde33c07	-0.11095434
85	0x3d97e181	0.07416058
86	0xbdf1eb3c	-0.118124455
87	0x3dc8c8db	0.09803935
88	0xbde98149	-0.11401612
89	0x3c94a37a	0.018144358
90	0x3d594f40	0.053054094
91	0xbd6cde55	-0.05782922
92	0xbe087db8	-0.13329208
93	0xbe4640a8	-0.19360602
94	0xbb4120bf	-0.002946898
95	0x3d193b5b	0.03741012
96	0x3ded6d63	0.115931295
97	0x3e182e5b	0.14861433
98	0x3d40a2ea	0.047030367
99	0x3e8aa7d1	0.2708116
100	0x3eb7a6f7	0.35869572
101	0x3d63be66	0.0556015
102	0x3ec84726	0.39116782
103	0x3e9c61a1	0.30543235
104	0xbdf2a42b	-0.11847719
105	0x3e59b0d1	0.21258856
106	0x3e94a95e	0.29035467
107	0x3e614a7e	0.22001073
108	0x3e3426ee	0.17592975
109	0x3e8e477e	0.2778892
110	0x3dd3a236	0.10333674
111	0x3eadb3ba	0.33926183
112	0x3eaca422	0.33718973
113	0xbb7c46f0	-0.003849443
114	0x3e4b8b63	0.1987739
115	0xbd9975f0	-0.07493198
116	0x3ed09aa1	0.40742972
117	0x3e44c369	0.19215168
118	0x3edfd817	0.4371955
119	0x3e7617dd	0.2403254
120	0x3eaa545a	0.3326748
121	0x3e43eec4	0.1913405
122	0x3e8b416e	0.27198356
123	0x3d886d14	0.0666143
124	0x3c557db0	0.0130304545
125	0x3e4580c4	0.19287401
126	0x3e6abe12	0.22924069
127	0x3e9e100f	0.30871627

weight_ih_l0 f4 [128, 2]
0	0x3ebc4213	0.3676916
1	0x3e1cc817	0.15310703
2	0xbdcd8e9c	-0.10036966
3	0xbc6a4904	-0.014299635
4	0x3e7449d6	0.23856291
5	0x3d0c69f7	0.034280743
6	0xbe12c58b	-0.14333169
7	0xbd81f92a	-0.063463524
8	0xbd448b4c	-0.047984406
9	0xbd970063	-0.07373121
10	0x3d74cfb8	0.05976841
11	0x3dc24f6b	0.09487804
12	0x3caf0194	0.021363057
13	0xbd4d1397	-0.05006751
14	0xbcf03c7b	-0.029325714
15	0xbd9924fe	-0.07477759
16	0x3e8e565a	0.27800256
17	0xbd7caf96	-0.06169089
18	0xbcae30bd	-0.021263475
19	0xbd293f0f	-0.041319903
20	0xbcf67f64	-0.030090041
21	0x3e01318d	0.12616558
22	0xbce8e155	-0.02842776
23	0xbcc1c12e	-0.023651686
24	0xbe685003	-0.22686772
25	0xbd2b13b0	-0.041766822
26	0x3c4ec289	0.012619623
27	0xbdedc31c	-0.1160948
28	0xbcd50737	-0.026004417
29	0x3c7fdea8	0.01561705
30	0xbccbf8b2	-0.02489886
31	0x3dbcf07e	0.09225558
32	0xbe2a14cd	-0.16609497
33	0x3d9dea48	0.07710701
34	0x3e216784	0.15762144
35	0x3e33d0cd	0.1756012
36	0x3d01c8b8	0.03168556
37	0x3d327d2a	0.043576397
38	0xbd39e526	-0.04538455
39	0xbd810757	-0.06300228
40	0x3eca0e38	0.39463973
41	0xbe01aa39	-0.12662591
42	0xbdbe8260	-0.09302211
43	0x3ce0bb36	0.02743302
44	0x3caddf31	0.02122459
45	0x3d2b0792	0.041755266
46	0xbdb84464	-0.089974195
47	0x3d132c2f	0.03593081
48	0x3da8c65f	0.08240961
49	0x3d130c14	0.03590019
50	0x3ad026cc	0.0015880703
51	0xbd1f2cef	-0.03886121
52	0x3e8cc751	0.27495816
53	0x3dba806e	0.09106527
54	0xbe1ba244	-0.15198618
55	0x3cf40dd2	0.029791746
56	0xbe14ef48	-0.14544404
57	0x3e554fc9	0.20831217
58	0x3d48bb15	0.04900654
59	0x3d0b7ed4	0.0340565
60	0x3e44005e	0.19140765
61	0xbd08c932	-0.033395
62	0xbd6b750b	-0.057484668
63	0xbcea67a5	-0.028613875
64	0xbd907624	-0.070537835
65	0xbddfd8ad	-0.109299995
66	0x3d4efaee	0.050532274
67	0xbdfddd9a	-0.12395783
68	0x3cf99b43	0.030469542
69	0xbb082e4a	-0.0020779544
70	0x3d9a2b46	0.07527785
71	0xbc01e845	-0.0079289125
72	0x3df849a9	0.121234246
73	0x3b54f9a7	0.0032497437
74	0xbb92d0fc	-0.0044804793
75	0xbd550679	-0.052008126
76	0xbcc40ed1	-0.023932846
77	0x3da8c573	0.082407854
78	0x3dd17007	0.10226446
79	0x3dc786eb	0.097425304
80	0xbdbed304	-0.09317592
81	0xbd21d9d9	-0.039514396
82	0x3d94e61c	0.072704524
83	0xba7de9a4	-0.0009685999
84	0x3d5b86c4	0.05359532
85	0xbe01ab6e	-0.12663051
86	0xbd8704c8	-0.06592709
87	0x3e09851d	0.13429685
88	0xbda959bf	-0.08269071
89	0x3cc004a2	0.02343971
90	0x3c7147ef	0.014726623
91	0x3d32302f	0.043502983
92	0x3d843470	0.06455314
93	0x3d50cd62	0.05097712
94	0x3da68c32	0.08132209
95	0xbbcd8b69	-0.0062727225
96	0x3d058c91	0.032604758
97	0xbd2fcf9d	-0.042922605
98	0xbe09e9da	-0.13468114
99	0xbead33d6	-0.3382861
100	0x3c811ddd	0.01576131
101	0x3d6b205d	0.05740391
102	0xbdbc5bec	-0.0919722
103	0xbdc131c3	-0.094333194
104	0xbe72b5be	-0.23702142
105	0xbce780fc	-0.028259747
106	0x3db53e55	0.088497795
107	0xbd69d966	-0.057092093
108	0xbd0fbd1b	-0.035092454
109	0xbdb04c9c	-0.08608362
110	0xbc28e80a	-0.010309229
111	0xbd902427	-0.070381455
112	0xbdf4b216	-0.1194803
113	0xbcd5896d	-0.026066506
114	0x3b8a2059	0.004215282
115	0xbd681a59	-0.056665752
116	0x3d09a2ae	0.03360241
117	0xbd137e3b	-0.036009055
118	0x3d759a5a	0.059961654
119	0xbddb24be	-0.107003674
120	0x3e29d695	0.16585763
121	0xbd45199c	-0.048120126
122	0xbcc21036	-0.02368937
123	0x3d39e889	0.04538778
124	0x3da9deb6	0.08294432
125	0xbd573480	-0.052540302
126	0xbd38ad6e	-0.04508727
127	0xbd7c7206	-0.06163218
128	0x3ddf4100	0.1090107
129	0x3e71ddb1	0.23619725
130	0xbe80b26b	-0.25136122
131	0xbe8eb6c1	-0.27873805
132	0xbdf31638	-0.11869472
133	0xbd9b982f	-0.07597386
134	0xbe16a35e	-0.14710757
135	0xbe38c5bf	-0.18044184
136	0xbe486895	-0.19571145
137	0x3cf030e0	0.02932018
138	0x3e729d15	0.23692735
139	0xbdc47368	-0.095923245
140	0xbdddbb6d	-0.10826764
141	0xbe1fa0a9	-0.1558863
142	0x3e829127	0.25501367
143	0xbe1aefbc	-0.15130514
144	0x3e7aa8bc	0.2447843
145	0x3bebfd2a	0.0072018104
146	0xbca08a5c	-0.019597225
147	0x3e794545	0.2434283
148	0x3e5326f9	0.20620336
149	0x3ebe6d14	0.37192595
150	0xbdd4333d	-0.103613354
151	0x3e9483a0	0.29006672
152	0xbe8509e2	-0.25984102
153	0x3cc6a492	0.024248395
154	0x3d8e0bd9	0.069358535
155	0x3e3666cb	0.1781265
156	0xbdb50961	-0.088396795
157	0xbe7578d0	-0.23971868
158	0xbd59a40c	-0.053134963
159	0x3ea3862d	0.31938305
160	0x3df0d93c	0.11760184
161	0x3d53b1e9	0.05168334
162	0xbe88d399	-0.26723936
163	0x3dda5a14	0.10661712
164	0xbd7bd827	-0.061485436
165	0x3e0b3494	0.13594276
166	0x3cf2755e	0.02959698
167	0x3d046aa3	0.03232826
168	0xbe2aec56	-0.16691718
169	0x3d28ada1	0.04118121
170	0xbe1f40df	-0.1555209
171	0x3df7a6d1	0.120923646
172	0x3cc48c02	0.023992542
173	0xbea6d988	-0.32587838
174	0x3e64869f	0.22316979
175	0x3c681537	0.014165214
176	0x3e123017	0.14276157
177	0x3e51aad8	0.20475328
178	0xbcf6db1e	-0.03013378
179	0x3ea0663b	0.31327996
180	0xbeb4ee72	-0.3533817
181	0x3cd5de83	0.026107078
182	0x3e9bd33d	0.304346
183	0xbc7423d9	-0.014901125
184	0x3e8ac53e	0.2710361
185	0x3c959ab5	0.018262247
186	0x3e486473	0.19569568
187	0x3e69f1c2	0.2284613
188	0x3e5aa831	0.21353222
189	0x3c921ff6	0.017837506
190	0xbd3ab113	-0.045579027
191	0xbdcf3f3f	-0.10119485
192	0xbed78687	-0.42094824
193	0xbe5c5465	-0.21516569
194	0x3ed85c91	0.42258123
195	0x3e5d974c	0.21639746
196	0x3d1a46fe	0.03766536
197	0xbe484102	-0.19556049
198	0x3e7c9fd6	0.24670348
199	0xbc11734d	-0.0088775875
200	0xbe8cb175	-0.2747914
201	0x3d342634	0.043981746
202	0xbd8685cd	-0.06568489
203	0xbccffc79	-0.025388943
204	0xbe333460	-0.17500448
205	0xbea55c5b	-0.32297024
206	0xbea55381	-0.3229027
207	0x3dba361e	0.09092353
208	0xbdf89b29	-0.121389695
209	0x3dc4c5ed	0.09608064
210	0x3d29dc38	0.041469783
211	0xbe986220	-0.29762363
212	0x3ec4cbb1	0.38436654
213	0x3b83c25d	0.0040209726
214	0x3de0e9f7	0.10982125
215	0xbe3aca1f	-0.18241166
216	0x3dac2435	0.084053434
217	0x3e3ef383	0.1864758
218	0x3e4e59ee	0.20151493
219	0x3e63a46c	0.2223069
220	0x3e018ad4	0.12650615
221	0x3db388dd	0.08766339
222	0xbce768e1	-0.028248252
223	0x3ea1ed03	0.31626138
224	0xbe63c7b0	-0.22244143
225	0xbd9d3dc7	-0.07677799
226	0xbe1fbe98	-0.1560005
227	0xbeaf2eeb	-0.34215483
228	0xbe0b0ff4	-0.13580304
229	0xbdd0dee2	-0.101987615
230	0x3d8e2f7e	0.06942652
231	0x3e90e921	0.28302863
232	0x3dfdaa5a	0.123860076
233	0x3e3b7e43	0.18309884
234	0xbdc5d44d	-0.09659634
235	0x3db72c35	0.08943979
236	0x3ea0c517	0.31400368
237	0xbe0d4301	-0.13795091
238	0xbde06ef1	-0.109586604
239	0xbdce6c67	-0.1007927
240	0x3e9e5213	0.30921993
241	0x3e34e16d	0.17664118
242	0x3dd68282	0.10474111
243	0xbf006441	-0.50152975
244	0x3e72e573	0.2372034
245	0xbe23afc9	-0.15985025
246	0x3d91bc27	0.07115965
247	0x3dd1aba8	0.10237819
248	0xbe3ba924	-0.18326241
249	0xbde3e83e	-0.11128281
250	0xbd23aa4a	-0.039957322
251	0xbe94a588	-0.2903254
252	0xbcb37049	-0.021904128
253	0x3d98dcf6	0.0746402
254	0xbcb9c24c	-0.022675656
255	0xbec890b8	-0.39172912

weight_hh_l0 f4 [128, 32]
0	0x3dd632ef	0.104589336
1	0xbe9739f6	-0.29536408
2	0xbea91bf0	-0.33029127
3	0x3d192437	0.037388053
4	0xbe3b18cd	-0.1827118
5	0x3e4e5ef7	0.20153414
6	0xbe848c2e	-0.258882
7	0xbc8ebf63	-0.017425245
8	0x3d5bc876	0.05365797
9	0xbc2b16a6	-0.0104424115
10	0x3e7651eb	0.24054687
11	0xbd293e15	-0.04131897
12	0x3c701ebb	0.014655764
13	0x3e72f230	0.237252
14	0xbe295448	-0.16536057
15	0xbd333d2e	-0.043759517
16	0x3e77c833	0.24197464
17	0xbd98d5b1	-0.074626334
18	0x3c5d9d50	0.013526276
19	0x3e8317d5	0.2560412
20	0xbdcc7a08	-0.09984213
21	0xbe2af9f0	-0.16696906
22	0xbe3cf660	-0.1845336
23	0x3e2c231b	0.16810267
24	0xbdc53efd	-0.09631155
25	0x3edccfa0	0.43127155
26	0xbe7f832e	-0.24952385
27	0x3ea27241	0.31727794
28	0x3eb8a709	0.36064938
29	0xbdf6afb1	-0.12045229
30	0xbc4b9d3a	-0.012427622
31	0xbdda20e2	-0.10650803
32	0xbcbadf0a	-0.022811431
33	0xbdfdd98a	-0.12395008
34	0x3dcec547	0.100962214
35	0xbd9955f2	-0.07487096
36	0x3a0b763d	0.0005320048
37	0xbdef94df	-0.11698317
38	0xbe79b6e0	-0.24386168
39	0xbd4304da	-0.04761205
40	0xbe79fa39	-0.24411859
41	0x3e96c6c4	0.2944852
42	0xbe7f084e	-0.24905512
43	0xbd0473f9	-0.032337163
44	0x3d44e275	0.04806753
45	0x3e7aa758	0.24477899
46	0x3e976184	0.29566586
47	0xbe95ea92	-0.29280525
48	0xbdfa2f6a	-0.12216075
49	0x3da30207	0.07959371
50	0x3c3898c9	0.011266896
51	0x3e1c6a49	0.1527492
52	0x3e95da16	0.2926795
53	0xbeb31bba	-0.3498209
54	0x3d8f7ac6	0.07005839
55	0x3e82d820	0.25555515
56	0xbe90a33e	-0.28249544
57	0x3dcfb0c8	0.1014114
58	0x3e98c36e	0.298366
59	0xba3e6b89	-0.0007263949
60	0x3df27754	0.11839166
61	0xbd45727e	-0.04820489
62	0xbe2544ae	-0.1613948
63	0xbe823d49	-0.25437382
64	0x3d31cb1d	0.043406595
65	0xbd9abb7a	-0.075552896
66	0xbc35bb74	-0.011092056
67	0xbdd67cfb	-0.10473057
68	0xbe9def38	-0.30846572
69	0xbdc9742d	-0.09836612
70	0xbe656591	-0.22402026
71	0x3d7d0d8b	0.061780494
72	0xbdc9fac6	-0.09862284
73	0xbd9b9cf9	-0.075982995
74	0xbe0661a4	-0.13123184
75	0xbdd7b60c	-0.105327696
76	0xbdf5a057	-0.11993473
77	0x3eb5cbe1	0.3550711
78	0x3cb2a471	0.021806927
79	0xbdbe7a87	-0.09300714
80	0x3dac41a8	0.084109604
81	0x3dd638fc	0.10460088
82	0xbe4cfa53	-0.20017366
83	0xbe02ddc6	-0.12779912
84	0xbdd991c8	-0.10623509
85	0xbe76ba33	-0.24094467
86	0xbe707357	-0.23481499
87	0x3e8c2941	0.27375224
88	0xbdb292f5	-0.08719436
89	0x3dfdd9f6	0.123950884
90	0xbdb0f810	-0.08641064
91	0x3d67c329	0.056582604
92	0x3d22f685	0.03978588
93	0x3dd709c8	0.104999125
94	0x3d216d90	0.039411128
95	0xbee6e687	-0.45097753
96	0x3dfe2249	0.12408883
97	0xbb8645a4	-0.0040976573
98	0x3dbb3ef6	0.09142868
99	0xbc4331ee	-0.01191376
100	0xbc0ea0b9	-0.008705311
101	0x3dd3a9bf	0.10335111
102	0x3de56cd3	0.11202397
103	0x3d8fcb25	0.070211686
104	0x3e17e2a0	0.14832544
105	0x3e623dd3	0.22093897
106	0xbd1d5168	-0.038407713
107	0x3c2e46f0	0.01063703
108	0x3c3180fa	0.010833973
109	0xbd4c0992	-0.049813814
110	0xbd3333bd	-0.043750513
111	0xbe2bf88d	-0.16794033
112	0xbe3f141c	-0.18660015
113	0x3cee65d7	0.029101295
114	0xbdda01ab	-0.106448494
115	0xbe5568d4	-0.2084077
116	0x3d414c8f	0.047192153
117	0x3e02ceb5	0.12774165
118	0xbb88827a	-0.0041659446
119	0x3d6c43ca	0.057681836
120	0xbcf0759f	-0.029352961
121	0x3e8aac26	0.27084464
122	0x3bf54dc4	0.007486077
123	0xbd896b1b	-0.06709882
124	0x3c384b6d	0.011248452
125	0x3c35ae1b	0.011088873
126	0x3df0aca2	0.11751677
127	0xbe252ac6	-0.16129598
128	0x3d0d1b6d	0.034449983
129	0x3de2f76e	0.1108235
130	0x3cee75e0	0.029108942
131	0x3da52856	0.08064334
132	0x3d82240e	0.06354533
133	0x3e156419	0.14588965
134	0xbc260263	-0.010132405
135	0xbe11a239	-0.1422204
136	0x3bb03905	0.005377891
137	0x3e965ff2	0.29370075
138	0xbdf81872	-0.121140376
139	0x3d68dd30	0.056851566
140	0x3ccb2bde	0.024801191
141	0x3e223e8e	0.15844175
142	0x3dc3a32c	0.09552607
143	0xbd0b2f62	-0.033980735
144	0xbe32a238	-0.17444694
145	0x3e248327	0.16065656
146	0xbdbbfe12	-0.091793194
147	0xbced5141	-0.028969409
148	0x3e0438f2	0.12912348
149	0xbd094967	-0.033517268
150	0x3d53d35f	0.05171525
151	0xbd947bf8	-0.07250208
152	0xbe0aed9b	-0.13567202
153	0x3e0ff700	0.14059067
154	0xbdabafd8	-0.08383149
155	0x3dddfa9e	0.10838817
156	0xbd4bf7a9	-0.049796734
157	0x3defea1a	0.11714573
158	0x3cd12b2a	0.025533278
159	0xbddb7985	-0.107165374
160	0x3e72f440	0.23725986
161	0xbe83a5c8	-0.2571242
162	0xbe45e998	-0.1932739
163	0xbe2ba2ca	-0.16761318
164	0xbe2c7def	-0.16844915
165	0x3e7e17b2	0.24813727
166	0xbe533bb0	-0.20628238
167	0x3e769c76	0.24083123
168	0x3e2f7cd8	0.17137468
169	0xbe16dd7e	-0.1473293
170	0xbdc1130e	-0.094274625
171	0x3d27963b	0.040914755
172	0xbd73acfa	-0.059491135
173	0x3ca715d1	0.020396145
174	0xbc8a9ce6	-0.016920518
175	0xbe3e45f9	-0.1858138
176	0xbd0e237b	-0.034701806
177	0x3d8f7abd	0.07005832
178	0xbe28e5f5	-0.16493972
179	0x3e92e81f	0.2869272
180	0xbe5ef937	-0.21774755
181	0xbe102fe5	-0.1408077
182	0xbe2f94e5	-0.17146643
183	0x3e605014	0.21905547
184	0x3e597a86	0.21238145
185	0x3e5012f6	0.20319733
186	0x3dd48ba0	0.10378194
187	0x3d9a0034	0.0751957
188	0x3e8a0330	0.26955557
189	0xbddda74c	-0.10822925
190	0x3e54aefa	0.20769873
191	0xbe001543	-0.1250811
192	0x3dc6bec4	0.097043544
193	0x3dae637f	0.08515071
194	0x3da72fd1	0.08163417
195	0x3c98ad5e	0.018637355
196	0x3dcd1e25	0.10015515
197	0xbe1a0415	-0.1504062
198	0xbe71ea7b	-0.23624603
199	0x3cc7e955	0.024403254
200	0xbe43781a	-0.19088784
201	0xbccc7438	-0.024957761
202	0xbd247f61	-0.04016054
203	0x3de0aa19	0.109699436
204	0x3d401769	0.046897326
205	0x3dff3146	0.1246057
206	0xbdb3b092	-0.087739125
207	0xbe3fc885	-0.18728836
208	0xbc157f86	-0.009124642
209	0x3d49bf13	0.04925449
210	0x3d345f9a	0.044036485
211	0xbd976de3	-0.07394006
212	0x3e84b4b3	0.25919113
213	0x3df034f0	0.11728847
214	0xbdfa2dd8	-0.12215775
215	0x3e4d17db	0.20028631
216	0xbd6f89c6	-0.058481
217	0x3dfde4c3	0.123971485
218	0x3d80c510	0.06287587
219	0x3d81dffc	0.0634155
220	0x3e2b2e54	0.16716892
221	0xbde040db	-0.1094987
222	0xbe1e6c01	-0.15470888
223	0xbaec3628	-0.0018021511
224	0x3dc359b0	0.09538591
225	0x3dd4b8f9	0.10386843
226	0x3d8f6326	0.07001333
227	0x3d3d011e	0.046143644
228	0x3cefa90d	0.029255414
229	0xbeb226e1	-0.34795287
230	0xbdd6d87f	-0.10490512
231	0x3d81d90d	0.06340227
232	0xbe240378	-0.16016948
233	0x3d2eb94f	0.042657193
234	0xbddddc2b	-0.10833009
235	0x3e35acb1	0.17741658
236	0x3dfaadd1	0.12240184
237	0xbcff78c0	-0.031185508
238	0x3df40cf0	0.1191653
239	0x3a93f554	0.0011288323
240	0x3c66e629	0.01409296
241	0x3d4a93b6	0.049457274
242	0xbe7d0cde	-0.2471194
243	0x3ded58ab	0.11589178
244	0x3c810cad	0.015753115
245	0xbd35a9b5	-0.0443513
246	0xbe24a80d	-0.16079731
247	0x3b177094	0.0023107873
248	0x3c2fe9fa	0.010736937
249	0x3dfd1aab	0.12358602
250	0x3e4c556a	0.19954458
251	0x3e41356b	0.18868034
252	0x3d7e303d	0.062057722
253	0x3cb4a290	0.022050172
254	0x3d0bd05b	0.03413425
255	0xbd71bf6f	-0.059020456

bias_ih_l0 f4 [128]
0	0xbd1ff709	-0.03905395
1	0xbcf21131	-0.029549213
2	0x3df8a734	0.121412665
3	0x3d6e5eb9	0.058195803
4	0xbb45a92a	-0.0030160644
5	0x3d988446	0.07447104
6	0x3e315247	0.17316543
7	0xbdafaa70	-0.0857743
8	0x3d5fc337	0.05462953
9	0x3d6583b6	0.056033812
10	0xbdfa0b44	-0.1220918
11	0xbe5026cb	-0.20327298
12	0x3cdbbd1d	0.026823575
13	0x3e4965be	0.19667718
14	0xbe0fda45	-0.14048107
15	0x3c3bbbfb	0.011458392
16	0x3d9580d2	0.07299961
17	0x3e14fdc6	0.14549932
18	0x3e580fdd	0.21099801
19	0xbd7410f7	-0.05958649
20	0x3e613988	0.21994603
21	0xbd828b15	-0.06374184
22	0xbe2059ab	-0.15659206
23	0x3c34bbd0	0.011031106
24	0xb9d45387	-0.00040498024
25	0x3db03922	0.08604647
26	0x3dc92939	0.09822316
27	0x3cec6f85	0.02886177
28	0x3e168684	0.14699751
29	0x3dc3db7c	0.09563348
30	0x3e594654	0.21218234
31	0x3daff8a6	0.08592348
32	0x3e44f8a1	0.1923547
33	0xbdfa8296	-0.122319385
34	0xbdc3f475	-0.09568111
35	0xbe2ce574	-0.16884404
36	0xbd958656	-0.07301013
37	0x3ce0c1a9	0.027436094
38	0x3c4ae70b	0.0123841865
39	0x3e2ae1b3	0.1668766
40	0x3e39bfd3	0.18139581
41	0x3e0b1a7b	0.1358432
42	0x3d3364d1	0.043797318
43	0x3e30b894	0.17257911
44	0xbddd3f02	-0.108030334
45	0x3e5bcc19	0.21464576
46	0x3cace233	0.021103954
47	0xbda51248	-0.080601275
48	0xbd6511d3	-0.0559252
49	0x3e78e292	0.2430518
50	0x3e657314	0.2240718
51	0x3e437fcd	0.19091721
52	0x3dce414d	0.10071049
53	0x3dc2c440	0.09510088
54	0xbe0a1a37	-0.13486563
55	0x3deca683	0.11555197
56	0xbd0a4895	-0.033760626
57	0x3e4e76d0	0.20162511
58	0x3dae058d	0.084971525
59	0x3e4d4b61	0.20048286
60	0xbe09b139	-0.13446511
61	0x3c9ca1ef	0.019120185
62	0x3d31ca99	0.043406103
63	0x3d6c9034	0.05775471
64	0xbd213cb9	-0.03936455
65	0x3cb3ba77	0.0219395
66	0x3dc9b021	0.09848047
67	0xbe359c0e	-0.17735311
68	0x3c45457a	0.01204049
69	0x3d9bba06	0.076038405
70	0x3dc1946f	0.094521396
71	0x3dbbede7	0.09176236
72	0x3e0dd59b	0.13851015
73	0xbdd6fdf0	-0.104976535
74	0x3db571f0	0.088596225
75	0xbcdc6d32	-0.026907537
76	0x3b450ea8	0.003006855
77	0x3d048d1d	0.03236114
78	0x3d91fba2	0.07128073
79	0xbdf96aa7	-0.121785454
80	0xbe029c0f	-0.12754844
81	0xbd9dd8d7	-0.077073745
82	0x3db49303	0.08817103
83	0xbd721f35	-0.059111793
84	0x3bdef667	0.006804276
85	0xbe2934d5	-0.1652406
86	0xbe04d177	-0.1297053
87	0x3e16a8c4	0.14712816
88	0xbe114379	-0.14185895
89	0xbd6af37e	-0.05736112
90	0x3e235d96	0.15953669
91	0x3d10cd68	0.03535214
92	0x3d76e4b7	0.060276713
93	0xbd579796	-0.052634798
94	0xbd8d325b	-0.0689437
95	0x3d5f594a	0.054528512
96	0xbca3b861	-0.01998538
97	0x3e516df3	0.20452099
98	0x3e86b90f	0.26313064
99	0x3dda642a	0.10663636
100	0x3deaedf8	0.1147117
101	0x3e604214	0.21900207
102	0x3e22579b	0.15853731
103	0x3d1c3df4	0.03814502
104	0x3d753f47	0.0598748
105	0x3e0f3dc2	0.13988402
106	0x3d8b7037	0.06808513
107	0xbe1002a2	-0.14063504
108	0xbdba9fa5	-0.09112481
109	0x3e552d68	0.20818102
110	0x3d5d69e8	0.05405608
111	0x3da2ed71	0.079554446
112	0x3d9d26b2	0.07673396
113	0xbd10a7c7	-0.035316255
114	0x3e067194	0.13129264
115	0x3e17357e	0.147665
116	0x3c6fa1e4	0.014626
117	0x3e08b98a	0.13352028
118	0xbc21ce73	-0.0098758815
119	0xbcbd2505	-0.023088941
120	0x3e30c607	0.17263041
121	0x3e1c1acf	0.15244602
122	0x3ea45a3e	0.321001
123	0xbba25cdf	-0.0049549188
124	0xbc5b5392	-0.013386624
125	0xbd3d2c0d	-0.04618459
126	0x3e36f43c	0.17866606
127	0x3e043449	0.1291057

bias_hh_l0 f4 [128]
0	0x3e428b92	0.18998554
1	0x3e6b752a	0.22993913
2	0x3d535ae2	0.051600344
3	0xbde2c91c	-0.11073515
4	0x3dba67dd	0.091018416
5	0x3e260b10	0.16215158
6	0xbd966e7e	-0.073452935
7	0x3c95ff96	0.01831035
8	0x3e088191	0.13330676
9	0x3e033dab	0.12816493
10	0x3da9e9be	0.08296536
11	0x3bb39c6a	0.0054812925
12	0x3ce02cc3	0.027365094
13	0x3e52e7de	0.20596263
14	0x3db5de66	0.0888031
15	0x3d80116f	0.06253325
16	0x3cb3d639	0.021952735
17	0x3d87f065	0.066376485
18	0x3df74ecb	0.120755754
19	0xbdd61d4d	-0.104548074
20	0x3e666936	0.22501072
21	0x3d3b2848	0.045692712
22	0x3e0d1961	0.13779213
23	0xbd7fc70c	-0.062445685
24	0xbddbf5e9	-0.10740263
25	0x3b3d4641	0.0028880986
26	0x3d7fdb3a	0.06246493
27	0xbd89db92	-0.06731333
28	0x3e30fcf2	0.17283991
29	0x3df56fde	0.119842276
30	0x3d922900	0.071367264
31	0x3deb4dde	0.11489461
32	0x3d6e2b2a	0.058146633
33	0x3dca2048	0.098694384
34	0x3ce75eed	0.028243506
35	0xbd83f74b	-0.06443652
36	0xbd803369	-0.06259806
37	0xbe0ec6ae	-0.13942978
38	0xbde2c26a	-0.11072238
39	0xbdfc1888	-0.123093665
40	0xbda458ca	-0.08024748
41	0xbd2f85e3	-0.042852294
42	0xbd19bdbb	-0.037534457
43	0x3d88db4f	0.06682455
44	0x3d158fee	0.036514215
45	0x3e693435	0.22773822
46	0xbe0a967d	-0.13533969
47	0xbe1e3c46	-0.1545268
48	0x3c3d165b	0.0115409745
49	0xbc8ba1b3	-0.017044878
50	0x3da1ee9e	0.07906841
51	0x3b74afda	0.003733626
52	0x3dbeb420	0.093117
53	0x3c9546d5	0.018222252
54	0x3c235f1c	0.009971406
55	0xbd0329a4	-0.032022133
56	0xbc18ca59	-0.009325587
57	0x3e7c722e	0.24652931
58	0xbb8cfa52	-0.0043023014
59	0xbc975455	-0.01847283
60	0x3d8309c1	0.06398345
61	0xbe314ed7	-0.17315231
62	0xbd9bea5c	-0.0761306
63	0x3e705709	0.23470701
64	0x3e0f4831	0.13992383
65	0x3d235af5	0.039881665
66	0xbdb8cb9c	-0.090232104
67	0xbe13a288	-0.1441747
68	0x3daf2dd2	0.085536614
69	0xbe003aa4	-0.1252237
70	0xbde09ebd	-0.10967777
71	0x3dba8ebb	0.09109255
72	0xbdfa4e4f	-0.122219674
73	0x3df103a8	0.117682755
74	0x3c5d7800	0.01351738
75	0x3da4b3d0	0.08042109
76	0xbd12e3d3	-0.0358618
77	0x3dd789b9	0.105243154
78	0x3d462bd6	0.04838165
79	0xbc75fa4f	-0.0150132915
80	0xbd1e4d6f	-0.038648065
81	0x3dc0b8a1	0.09410215
82	0xbe47b675	-0.19503196
83	0x3d1f7c23	0.038936745
84	0x3d5c3e26	0.053770207
85	0xbdfd08e1	-0.12355209
86	0x3af65625	0.0018793984
87	0x3da993a2	0.08280112
88	0xbd9f23fa	-0.07770534
89	0x3e2923c4	0.1651755
90	0xbd36eff4	-0.04466243
91	0x3d52e61a	0.051488973
92	0xbdb523d6	-0.08844726
93	0xbdbaf707	-0.09129148
94	0x3e1fd46e	0.15608379
95	0xbe00099b	-0.12503664
96	0x3e7a438e	0.24439833
97	0x3e38d32d	0.18049307
98	0x3e266fec	0.16253632
99	0xbe23836c	-0.15968102
100	0xbd6f7cdd	-0.05846869
101	0x3e6dc54c	0.23219794
102	0x3dab43fd	0.08362577
103	0x3de51c20	0.11187005
104	0x3dd2d67f	0.10294818
105	0x3e1c45a1	0.15260936
106	0x3c5a28bd	0.013315377
107	0xbdf57b58	-0.119864166
108	0xbdaa7ba5	-0.083243646
109	0x3d89e90b	0.067339025
110	0x3df55972	0.11979951
111	0x3e39feaf	0.1816356
112	0x3e6638f7	0.22482668
113	0x3cbcfb8a	0.023069162
114	0xbdb9ac3e	-0.09066056
115	0x3e08255d	0.13295503
116	0xbb268f03	-0.0025414831
117	0xbd67e155	-0.056611378
118	0x3de34d67	0.11098748
119	0x3e870267	0.2636902
120	0x3d42d420	0.04756558
121	0x3e8e7a8e	0.27827877
122	0x3ddfeb71	0.10933579
123	0x3e38c64a	0.18044391
124	0x3e8635e9	0.26213005
125	0x3cac161e	0.02100664
126	0x3dd3f124	0.10348728
127	0x3e4677a0	0.19381571

weight_ih_l0_reverse f4 [128, 2]
0	0x3e8dcbaa	0.27694446
1	0x3d672bde	0.05643832
2	0x3e18d2fe	0.14924237
3	0xbe3d4323	-0.18482642
4	0xbe669614	-0.22518188
5	0x3d556d46	0.052106164
6	0x3e5d6fc3	0.21624665
7	0xbc442574	-0.01197182
8	0xbe722560	-0.2364707
9	0xbe461033	-0.19342117
10	0xba890467	-0.0010453583
11	0xbdf56d05	-0.119836845
12	0x3e2d1238	0.16901481
13	0xbe14a983	-0.14517789
14	0xbcdb233b	-0.026750198
15	0xbe9bcb9d	-0.30428782
16	0x3d9f72aa	0.07785542
17	0xbe5e1753	-0.21688585
18	0xbe8c13d9	-0.27358893
19	0x3ed2fb88	0.41207528
20	0xbcfc671b	-0.030810883
21	0x3dc76d45	0.097376384
22	0x3ed2f371	0.41201356
23	0xbea200d0	-0.31641245
24	0xbe5e30b2	-0.21698263
25	0xbdbda651	-0.09260238
26	0xbef61791	-0.48064855
27	0xbec334d3	-0.3812624
28	0xbaaf1016	-0.0013356234
29	0xbe391758	-0.18075311
30	0x3e99530b	0.2994617
31	0x3e9cc791	0.30621007
32	0xbe097d50	-0.13426709
33	0x3e4eb469	0.20186009
34	0xbe6db1f8	-0.23212421
35	0xbf029719	-0.51011807
36	0xbe3c7647	-0.18404494
37	0x3e05aa14	0.13053161
38	0xbe241138	-0.16022193
39	0x3e5678c9	0.20944513
40	0xbee8bb51	-0.4545541
41	0x3e07d3b6	0.13264355
42	0xbec5d8fc	-0.38642108
43	0x3e32cb26	0.17460307
44	0xbdc2a569	-0.09504206
45	0x3daead54	0.085291535
46	0x3dd87c3f	0.10570573
47	0xbe17207b	-0.14758484
48	0xbde9f94b	-0.11424502
49	0x3ec436c8	0.38323045
50	0xbea3fda6	-0.32029456
51	0xbdf91115	-0.12161461
52	0x3e734a02	0.237587
53	0x3e12130b	0.14265077
54	0xbcdea04a	-0.027176041
55	0x3e8c6d36	0.2742707
56	0xbe2b57c9	-0.16732706
57	0x3dfb28d4	0.12263647
58	0x3e756b74	0.23966771
59	0x3e264510	0.16237283
60	0x3e0b3252	0.13593414
61	0xbe9609c4	-0.29304326
62	0x3dda708c	0.10665998
63	0xbe7c3cc6	-0.24632558
64	0x3c59be7c	0.013290044
65	0x3e86a685	0.2629892
66	0x3d92e411	0.071724065
67	0xbe0aab57	-0.13541923
68	0xbe01eb43	-0.12687401
69	0x3e6d77d4	0.23190242
70	0x3d2dd8fe	0.042443268
71	0xbd1efabf	-0.03881335
72	0xbe07e34e	-0.13270304
73	0xbbfd9b81	-0.007739485
74	0x3e9cd42b	0.3063062
75	0x3d879b3d	0.06621406
76	0xbe206a79	-0.15665616
77	0x3d0797b2	0.033103652
78	0xbc817889	-0.015804546
79	0xbc12905f	-0.008945554
80	0x3dfed49c	0.12442896
81	0x3d42e2e9	0.04757968
82	0xbd78fdaa	-0.060788788
83	0x3dafa30e	0.08576022
84	0x3ea00ee6	0.31261367
85	0x39662361	0.00021947689
86	0x3e8ab245	0.27089134
87	0xbe196fb8	-0.14984024
88	0xbd497259	-0.049181316
89	0xbcc83ae5	-0.024442146
90	0xbdd81f20	-0.105528116
91	0xbe210d91	-0.15727831
92	0xbd76a2a6	-0.060213707
93	0xbe6d836c	-0.23194665
94	0x3e2145cb	0.1574928
95	0x3e2ddce4	0.16978794
96	0xbd99bd5a	-0.07506819
97	0x3d31060e	0.043218665
98	0xbe466707	-0.1937524
99	0xbe3c0a4b	-0.18363301
100	0x3bf25b1b	0.0073961145
101	0xbc30e5d9	-0.010796987
102	0xbd314a12	-0.04328353
103	0x3bdddd76	0.006770785
104	0xbd997a3a	-0.07494016
105	0x3ddc14a1	0.10746122
106	0xbe14206c	-0.14465493
107	0x3cb81912	0.022472892
108	0x3e5b97fb	0.21444695
109	0xbe23d78c	-0.16000193
110	0xbe6820ad	-0.22668715
111	0xbe13ff27	-0.14452802
112	0x3d243442	0.0400889
113	0x3ac892aa	0.0015302498
114	0x3d629d6e	0.055325918
115	0xbddbeeab	-0.10738882
116	0x3dfa2005	0.122131385
117	0x3d676ce1	0.05650032
118	0x3dd9e18b	0.10638722
119	0xbd888e8d	-0.066678144
120	0xbe281a61	-0.16416313
121	0x3e6f52e0	0.23371458
122	0x3e5ab849	0.21359362
123	0x3dc4b52a	0.09604867
124	0x3e1a3d89	0.15062536
125	0xbe5882e1	-0.21143676
126	0x3dc7ac4d	0.09749661
127	0xbe56713b	-0.20941631
128	0xbe89f76c	-0.2694658
129	0xbe710638	-0.23537529
130	0x3d8af8af	0.06785714
131	0x3e9fef60	0.31237316
132	0x3dae5cd5	0.085138
133	0xbdbbce64	-0.09170225
134	0xbe653e85	-0.2238713
135	0x3b658a36	0.0035025007
136	0x3e595ad0	0.21226048
137	0x3dd4bb51	0.1038729
138	0x3e5c71d5	0.21527798
139	0x3a5fa509	0.0008531367
140	0x3d854351	0.0650698
141	0xbe3d5266	-0.18488464
142	0xbe679f2b	-0.22619312
143	0x3e6fd33c	0.23420423
144	0xbe1f27b4	-0.1554249
145	0xbe19acb9	-0.15007295
146	0xbe8345af	-0.25639102
147	0x3ec27095	0.37976518
148	0x3ded2231	0.11578787
149	0xbcd43130	-0.02590236
150	0x3ec46879	0.38360956
151	0xbdd8f704	-0.105939895
152	0x3e46e369	0.19422688
153	0xbe028652	-0.12746552
154	0x3e6920bc	0.22766393
155	0x3e540fc1	0.20709135
156	0x3cef3a02	0.029202465
157	0xbe8b034d	-0.27150956
158	0x3deb1cb3	0.11480083
159	0x3e30a619	0.17250861
160	0x3e05a9ab	0.13053004
161	0x3bc20f9d	0.0059222714
162	0x3e144640	0.14479923
163	0x3ea15e41	0.31517223
164	0x3e10cd10	0.14140725
165	0xbe805572	-0.2506519
166	0xbe541b03	-0.20713429
167	0x3dfd1f54	0.12359491
168	0xbeb8af9c	-0.3607148
169	0x3d939ce5	0.0720766
170	0x3ea002e5	0.31252208
171	0xbdd4b0a9	-0.10385258
172	0xbe7d12fc	-0.24714273
173	0x3d97f0b8	0.0741896
174	0x3e0a6f49	0.13519014
175	0x3e8588c9	0.2608092
176	0xbde9f834	-0.11424294
177	0x3ecd11af	0.40052554
178	0x3e5f0022	0.21777394
179	0x3e7a5af2	0.24448755
180	0xbe24369a	-0.16036454
181	0xbd89a97c	-0.0672178
182	0xbc4c9ae4	-0.012488101
183	0xbe99bfb4	-0.3002907
184	0xbe915943	-0.28388414
185	0x3e7bee63	0.24602656
186	0x3ea18258	0.31544757
187	0x3d16f880	0.03685808
188	0x3e04c810	0.12966943
189	0xbe4de763	-0.20107798
190	0x3e57c7bd	0.21072288
191	0xbe7a1b24	-0.24424416
192	0x3ed9901b	0.42492756
193	0x3e881eda	0.26586038
194	0x3e27404a	0.16333118
195	0xbe1aa241	-0.15100957
196	0xbea00f46	-0.31261653
197	0x3e0848db	0.13309042
198	0xbe0fce96	-0.1404365
199	0xbe2b38dc	-0.16720909
200	0xbec99a6f	-0.39375636
201	0xbdbfc089	-0.09362895
202	0xbe8a3605	-0.2699434
203	0xbe305f8c	-0.17223948
204	0xbe4628e8	-0.19351542
205	0xbe6f6328	-0.23377669
206	0x3e2a84ff	0.16652296
207	0xbecc5110	-0.39905596
208	0xbe6b9c1d	-0.23008771
209	0xbdd4cc3c	-0.10390517
210	0xbe54e13e	-0.20789048
211	0x3e1f693f	0.15567492
212	0x3e4913cd	0.1963646
213	0xbd7ce05d	-0.061737407
214	0x3ecb043a	0.39651662
215	0xbe819e9a	-0.25316316
216	0x3e7604d4	0.2402528
217	0xbe2c99bc	-0.1685552
218	0xbec04cac	-0.37558496
219	0xbe76fe8d	-0.24120541
220	0x3e08716d	0.13324519
221	0xbe691423	-0.22761588
222	0x3db938c4	0.0904403
223	0x3e763649	0.24044146
224	0x3df6b33e	0.120459065
225	0x3eda6fdb	0.42663464
226	0xbe83ed32	-0.25766903
227	0xbf01a890	-0.5064783
228	0xbe2aea90	-0.16691041
229	0x3e5e2dda	0.21697178
230	0xbe93398f	-0.2875485
231	0x3e7c9285	0.24665268
232	0xbec29396	-0.38003224
233	0xbd17a2fb	-0.037020665
234	0xbeb73020	-0.35778904
235	0x3e86238c	0.26198995
236	0x3e4082e5	0.18799932
237	0xbe2bcacc	-0.1677658
238	0xbea7e9ba	-0.32795507
239	0xbe584946	-0.21121702
240	0x3aadc719	0.0013258188
241	0x3eb55a94	0.35420668
242	0x3d71f3a0	0.05907023
243	0xbe98df72	-0.29857975
244	0x3d03caef	0.032175954
245	0x3d8cd8c2	0.06877281
246	0x3e69f481	0.22847177
247	0x3edbbfc1	0.42919734
248	0x3bb4a5d3	0.005512932
249	0x3e4125d7	0.18862091
250	0x3e8ee308	0.27907586
251	0xbdec8e37	-0.11550563
252	0x3dadf816	0.08494584
253	0xbda7ae5e	-0.08187555
254	0x3d9721c0	0.07379484
255	0xbeafb390	-0.34316683
