TS-CVAE/experiments/EOT/models/models_24_Jul_2021_19_35_18_eot/model_registrar-182.pt (torch_old, 552549 bytes, 43 tensors)

weight_ih_l0 f4 [128, 6]
00000000: 28e6 983e e9d5 313f 1761 adbe 8fd3 7cbe
00000010: 6d00 26bd 33c9 0c3d 6cba 92be daa4 a7be
00000020: 5649 993d e892 b43c 63ba 96bd e748 bfbd
00000030: 8025 24be ec46 bdbc 387a 2f3d a14d b1bd
00000040: eef2 14bd 3617 413e 4df0 df3e 2624 793e
00000050: cac5 44be 7990 b2be fb5b a5bc 9247 803d
00000060: 8a8d 4dbf 6fb9 cdbe 6663 b73e 25ff ba3e
00000070: 06ee 223c a1a3 10be bd29 dc3c f5f5 363d
00000080: 1b4b 163f bd50 55be 1991 d43e dc50 43bf
00000090: 7725 1cbf 4d17 bd3e c2bc 30bd b67b 01bf
000000a0: ec06 9dbd 3680 243e fe9a 8dbe d5ae 323f
000000b0: ca7a 073e 14bb cdbe 2255 543d 033d 753e
000000c0: 0455 a43e 9fbd 2abf 84ad ee3b 4f72 cb3e
000000d0: 85c9 0a3d c7dc b0bc 3aae 43be f432 b9be
000000e0: 9597 083d e82c 823e dd3a f93b 9a67 3f3e
000000f0: 534c 393e d9e3 ed3e 809f a0be 8fdb 0fbf
00000100: 19b0 05be 5cb3 8bbe 38b7 383d 2464 873e
00000110: e198 88be c3e5 88bc 53a0 c8bc d133 353c
00000120: f73b b4be 7e25 01bf ff93 5a3e d0fa 4a3f
00000130: 7186 cabe 15d3 1b3e bac0 10bf 5e44 943e
00000140: 500a 773e 7f77 323c 265f 483d 385f 183d
00000150: 12f3 37be 37e5 54be a452 98be 6781 41be
00000160: b935 46be 1e98 973e f800 42bf 3804 06be
00000170: 3f56 873e 5e88 463e 58b5 4b3c 91f2 713d
00000180: 4977 7ebe b200 133e 705a 223e 3c4c c2bd
00000190: f755 ac3e ac8e 2cbe 4f1d a93d 0b29 8a3e
000001a0: fe09 c7be bb08 50be 5765 d63d fc7f a5bc
000001b0: 9054 80bd 720e 033f 77ff 043e 9052 e7be
000001c0: e722 93bb 1c8e 76be 02fd 35be 2aae f3be
000001d0: 4b27 d8be 8280 8c3e 3973 cc3d 5b93 a4bd
000001e0: 747b c2be 6022 be3b 651d 0f3e abf5 beb9
000001f0: fcc8 123e a14d 5cbd 6488 4dbc 51c7 ab3e
00000200: b5bf 6b3d 68de e23e 2cd7 c3bb df39 953e
00000210: 6538 9e3e e24c 04bf 5621 e5be 356d 0d3e
00000220: 3bd9 ca3d 78bb c6bd c8c4 ad3c 28b0 acbd
00000230: 14e1 33bd 79ce 4cbd 66e2 5a3b 6ad7 23bd
00000240: 6e9c 163e 4cda ccbd b647 e3bd 1114 883d
00000250: 8696 153d e2e3 84bd 45dc 3c3e c1be e7bd
00000260: d082 22be 1cbd 013e 1583 a2bd 95e6 97bd
00000270: 70ff 3e3e 11fc 58bc 8806 04be 184e c43d
00000280: 0572 933d 000d 953c 2ced cc3e bb34 4d3d
00000290: 52ad a8bd 9a0e a63d 09ae 19bc 945b 893e
000002a0: 085e 7b3d 7de2 ac3e ff92 98be 0df7 42bd
000002b0: 8c23 a1bd 3532 d63b b787 62be 387e 153e
000002c0: b6bb c2be 850d c3bd 95d4 2abf 32e7 953d
000002d0: 7e69 c8be edcd d6be c77c e03e 92d7 993e
000002e0: ffa6 3dbe daf7 8abe 2e6b c4bd 0740 fabe
000002f0: 46aa c43c cb90 c43e dbd6 e83d 2d81 d93d
00000300: c8da e2bd e8b7 343e 9173 b6be 6070 63be
00000310: 9b4e f6bd 2b65 d5bd bd52 333e 05a0 233d
00000320: e0fe c5bd 0bed 15bd a454 723d e034 f4bc
00000330: e72c 223e bd6c a5bd e97d 9d3d af40 833d
00000340: 89ae 0ebd 7d5a c0bc dd42 693e 2330 07be
00000350: 765b 61be c9b2 7ebe 3369 6fbb 68a1 48bd
00000360: 44f3 1f3e b38b bdbd d201 bd3e d748 573e
00000370: 98c9 10bd 73e1 823d 53e1 993d bb3c 5abe
00000380: 0b30 193f 6aa1 24be c59b 873d 795e 623e
00000390: c003 863e c716 40be 501a b03d 9a0a 0bbe
000003a0: 461b 813c 75dc 78be 7aa0 fdb9 2349 b0bc
000003b0: 9545 5e3d efd2 30be 7641 573d b311 7abe
000003c0: 402c 3a3e 2364 5cbe c02a 68be e225 893e
000003d0: c3fa e4bd 64ea 1f3e 6431 34be 5702 81be
000003e0: 05a7 303e 4659 a03e 0856 543c d249 5bbc
000003f0: 3570 5a3e 9ac2 27be 540f 023d bf91 77be
0.29863095 0.69467026 -0.33863136 -0.24690078 -0.04052775 0.034371566 -0.28657854 -0.3274296
0.07484691 0.022042707 -0.07359769 -0.09340077 -0.1602993 -0.023105107 0.042841166 -0.08657385
-0.03636449 0.1885651 0.43738022 0.24330196 -0.19216076 -0.3487585 -0.020185461 0.06263651
-0.80294096 -0.40180537 0.35818022 0.36522785 0.0099444445 -0.1412492 0.026875371 0.044668157
0.5870835 -0.2083158 0.4151695 -0.76295257 -0.60994667 0.3693184 -0.043148763 -0.5057939
-0.07667336 0.16064534 -0.27657312 0.6979802 0.13230434 -0.40181792 0.051839 0.23949055
0.32096112 -0.6669559 0.0072838683 0.39735648 0.03388359 -0.02158965 -0.19109431 -0.36171687
0.033347685 0.25424886 0.007605894 0.18691865 0.18095522 0.46462896 -0.3137169 -0.56194395
-0.13055457 -0.27285278 0.045096606 0.2644359 -0.26679137 -0.016711121 -0.024490511 0.011059717
-0.35202 -0.50447834 0.21345519 0.7928896 -0.39555696 0.1521724 -0.5654408 0.2895841
0.24125028 0.010892748 0.048918866 0.037200183 -0.17963818 -0.20790564 -0.2975055 -0.1889702
-0.19356431 0.29608244 -0.7578273 -0.13087547 0.26432988 0.19387957 0.012433372 0.05906922
-0.24850191 0.14355734 0.15854812 -0.09487197 0.33659336 -0.168513 0.08257543 0.26984438
-0.3887481 -0.2031583 0.10468548 -0.02020263 -0.06266129 0.51193917 0.12988077 -0.45180178
-0.0044902447 -0.24077648 -0.17772296 -0.47593814 -0.42217478 0.27441794 0.099829145 -0.08035918
-0.37984812 0.0058024377 0.13976057 -0.0003642266 0.14334482 -0.05378497 -0.012544725 0.33550504
0.057555873 0.44310308 -0.005976578 0.29145715 0.309024 -0.51679814 -0.44751996 0.1381119
0.09904715 -0.097037256 0.021211997 -0.08432037 -0.043915823 -0.050001595 0.0033399104 -0.040000357
0.1470811 -0.10002574 -0.11097662 0.06644452 0.036520503 -0.06488778 0.18443401 -0.1131568
-0.15870214 0.12669796 -0.07935158 -0.07417027 0.18652129 -0.013243691 -0.12893116 0.09585208
0.07199482 0.018194675 0.40024698 0.050099116 -0.08236183 0.08108254 -0.009379872 0.2682768
0.061368972 0.33766547 -0.2979965 -0.047598887 -0.07868108 0.006536747 -0.22122084 0.1459893
-0.38033837 -0.09524063 -0.66730624 0.07319488 -0.39142984 -0.41953984 0.43845198 0.3004728
-0.18520735 -0.2714222 -0.095907554 -0.48876974 0.024006974 0.38391718 0.113691054 0.106203414
-0.110768855 0.1764828 -0.35635045 -0.22210836 -0.120267116 -0.10419687 0.17512031 0.03994753
-0.09667754 -0.036603015 0.05916275 -0.029810369 0.15837441 -0.08077381 0.07690031 0.06408822
-0.03483442 -0.023480648 0.22779413 -0.13201956 -0.22007546 -0.24872889 -0.003653121 -0.048982054
0.15620142 -0.09255161 0.3691545 0.2102388 -0.035348505 0.06390657 0.0751368 -0.2131223
0.5983893 -0.160772 0.066215076 0.22106351 0.26174736 -0.18758689 0.08598769 -0.13578263
0.015760075 -0.24302848 -0.00048375485 -0.02151925 0.054265577 -0.17267965 0.052552663 -0.24420814
0.18180943 -0.21522574 -0.22672558 0.26786715 -0.111806415 0.15616757 -0.17596966 -0.25197098
0.17251213 0.3131811 0.012959965 -0.013384299 0.21331866 -0.16382828 0.0317529 -0.24176691

weight_hh_l0 f4 [128, 32]
00000000: 1c80 653e a679 2cbe 8e79 1abe 17cc b03e
00000010: 4194 3c3f 6e05 c3bd 5ceb 87be a4ed 9b3d
00000020: 885e 6f3e 5d09 f43e ff55 55be 08b0 d93b
00000030: 888f ddbe 385b d83e d127 a23e 5cc7 05be
00000040: df62 c33c d5fd 02bf f9db a7bb 01b6 c83d
00000050: 8f66 28be 2d5b 243d 28d8 f33d f676 22be
00000060: 10c9 ef3e d059 cebd 4526 793d 6017 433e
00000070: 064d 323e 68c0 023e 7a6f fc3e 8923 54be
00000080: 8a4c 913f 22eb 35bc 4a50 81bb 524e 793e
00000090: e6dd 8c3f 926b 543e 7235 04bd ad7b bf3c
000000a0: 294a 763e 489d 973e ab9e a8be 981e 44bf
000000b0: 2795 32bf fb0b 0b3f fbb4 a13e 118f 53be
000000c0: bfdf f33d 2165 f9be 0807 63be 7995 e2bd
000000d0: c9a7 d5bd 0ba1 4c3e b9da 853e 8543 563c
000000e0: 7d81 1a3e c917 9ebd 4eb8 12bf e0b2 c7be
000000f0: 3efb c4bd 6c5f 5cbc e309 753f e5f3 47be
00000100: 24ca 1a3f 2ed7 21bd 96ee a5bd 158c 2e3f
00000110: 55ec f43e c0ee 503e 8d9e a73e f81e 24bf
00000120: 8f71 e63e 7f65 693e 5b72 5d3e bdba 8bbd
00000130: 6a7f b8be 0c42 0e3d 0c24 18bf ce59 03be
00000140: 64e5 063e 00d0 29be aa7a 1d3f ff21 afbf
00000150: 6f74 9bbd 42a9 493f 4f7c 49be 3c41 71bd
00000160: ed49 60bd 1ad2 c23d c375 ff3b 135f babe
00000170: 4607 01bf bd54 193e 1b6b 2d3e a713 b1bd
00000180: 614e d63d 6ba1 1f3e f6c5 c0bd 37a2 273e
00000190: 65d4 05be 839e 07be bcaa 513e d074 1dbe
000001a0: ac95 803d e6c4 80bd a0ff dbbd 0db1 52be
000001b0: dd4c 36be dc6c 4d3e b26a c5be cba0 09be
000001c0: 639e 54be e1da de3d f980 5e3e 1392 d3be
000001d0: 90d9 84be 1786 b93e ebb3 1a3e 76ba a8bd
000001e0: 751f bdbe ded5 2cbe ebfa e3bd 3444 f0bd
000001f0: 5181 53be 50c5 923e 28bf 063e 9ed8 363e
00000200: 36e4 c03a 282f d5bc 8274 41bc 5dee 15bc
00000210: 70b3 aa3e f5ef 573e a693 643d 403f 4abd
00000220: 9d6a 173e c1b2 a7bd 6ab8 67be 2ab6 72be
00000230: e601 c2be 24d1 9f3e c750 173e f663 c5bd
00000240: 64a7 7ebd 7b91 21bd f0ad 0e3e bc32 9bbe
00000250: c091 93bd 6fb5 393f db2f e13d 9955 4bbe
00000260: 9c90 81bd 6613 ccbd c6ab 93be b39e edbe
00000270: 8662 a8be ecb3 0dbe d199 3f3e f0aa 633d
00000280: 51ca 5e3e 5aaf 73bc 8a66 92be 8e4c 843d
00000290: 4914 53be 6cc0 c13e 35f7 c1bd a125 513d
000002a0: 1146 febb 27b0 96be 0c81 c3bd 3657 89be
000002b0: 2c46 13be 2e8e 6f3e c537 90be c05e 653e
000002c0: 744a ea3d 13b1 803d cbba 81be fec0 0abe
000002d0: a79d 083f 2cf8 a43e f709 88bb c109 363d
000002e0: eea4 0dbf d2e0 5cbe ae85 673e 2c08 f8bd
000002f0: c3cd d5bd 60fd f83d 98e7 b13d 32a4 db3e
00000300: 1788 8a3e b7bb 193d f3f7 a3bd 0d1f 3f3f
00000310: 47ee 1f3d 0c5d a13e a6cd e53e 233a 18bf
00000320: cc71 1e3f 1498 5d3e 7315 f0bd 4340 42bd
00000330: af58 94be 079b 0e3e 0eea 30bf d5f4 a63d
00000340: 980f 273c 4b99 d43c 3cb8 013f d9e7 c4bf
00000350: b614 c1bd 3655 293f 52b1 79be b1c0 babd
00000360: 4db0 b0be 3d73 32be 2ede ab3d 4e52 1abf
00000370: efab 47bf 3a82 d13d ff1c 5cbe 11b7 38be
00000380: f1e5 893e ca18 3abd 6e2c 45be 66dd 59be
00000390: 2378 0ebe b975 8c3e 341b a63e 4471 8abd
000003a0: c9d1 3b3f cff9 f6ba d44a cc3e a794 04be
000003b0: 45d0 753e 85ca f83d 6dde c1be 1234 9f3e
000003c0: 8ead ba3e 710f 8a3e 7493 a73e 842a 20bf
000003d0: e1c1 48ba 9435 bcbe a339 1bbf af2f 2cbb
000003e0: a102 1cbd 2f39 873d 93d7 6ebd 24b9 b9be
000003f0: 2653 79bc 9268 723e 9dea 3fbd c919 00be
0.22412151 -0.1684328 -0.15085432 0.34530708 0.7366372 -0.0952252 -0.26546752 0.07613686
0.23375905 0.47663394 -0.20833586 0.006643299 -0.43273568 0.42257094 0.31671003 -0.13064331
0.023850856 -0.51168567 -0.0051226583 0.098003395 -0.16445373 0.040126015 0.11906463 -0.15865692
0.46833086 -0.10075724 0.060827512 0.19051886 0.17412195 0.1276871 0.493038 -0.2071668
1.1351483 -0.011103423 -0.003946339 0.24346283 1.1005218 0.2074416 -0.032277532 0.023374403
0.24051727 0.29612184 -0.32933554 -0.7660918 -0.6975884 0.54315156 0.3158339 -0.20660044
0.119079106 -0.48709968 -0.22170651 -0.11063666 -0.10432393 0.19983308 0.26143435 0.013077621
0.15088458 -0.077193804 -0.57312477 -0.39003658 -0.09618233 -0.013450485 0.9571821 -0.19526632
0.6046469 -0.039511852 -0.08102147 0.681825 0.47836557 0.20403576 0.32738152 -0.64109755
0.45008513 0.22792624 0.21625654 -0.06822727 -0.3603471 0.034730956 -0.59430003 -0.12827227
0.13173443 -0.16583252 0.61515296 -1.368225 -0.07590567 0.7877389 -0.19676326 -0.058900103
-0.054758 0.0951273 0.0077960207 -0.3640066 -0.50401723 0.14973731 0.16935389 -0.086463265
0.10464168 0.1558892 -0.09412758 0.16370474 -0.13069303 -0.13244061 0.20475286 -0.15376592
0.06278548 -0.062875554 -0.10742116 -0.20575352 -0.17802759 0.20061058 -0.38557965 -0.13440244
-0.20763545 0.108815916 0.21728887 -0.41322383 -0.25947237 0.36235115 0.15107696 -0.082386896
-0.36938062 -0.16878459 -0.11131843 -0.11731759 -0.20654799 0.28666162 0.13158858 0.1785607
0.001471645 -0.026023462 -0.011807563 -0.0091510685 0.33340025 0.2108763 0.05580487 -0.049376726
0.14786763 -0.081883915 -0.22628942 -0.23702303 -0.37892073 0.3121425 0.14776908 -0.09638207
-0.062171355 -0.03944538 0.1393354 -0.30312145 -0.07205534 0.7254247 0.10995456 -0.19856872
-0.0632641 -0.099646375 -0.2884199 -0.4641014 -0.32887667 -0.13838166 0.1871102 0.05558294
0.21756865 -0.01487335 -0.28593856 0.06459914 -0.20613207 0.3784212 -0.09470979 0.051061276
-0.0077598174 -0.2943127 -0.09546098 -0.2682435 -0.14382237 0.23394081 -0.2816755 0.22399426
0.11439982 0.06283774 -0.25337824 -0.13550183 0.5336556 0.3222059 -0.0041515785 0.044442896
-0.5532979 -0.21570137 0.22609589 -0.12110934 -0.104396366 0.121577024 0.08686751 0.4289871
0.27056953 0.037532534 -0.08006277 0.74656755 0.0390456 0.31516302 0.4488346 -0.5946371
0.6189239 0.21640044 -0.11722841 -0.047424566 -0.2897391 0.13926326 -0.6910714 0.08152167
0.010196589 0.025952002 0.50671744 -1.5383254 -0.094277784 0.66145647 -0.24384049 -0.09118784
-0.34509507 -0.17426772 0.08391987 -0.60281837 -0.77996725 0.10229917 -0.21495436 -0.18038584
0.26933244 -0.045433797 -0.1925523 -0.21275863 -0.13913016 0.27433565 0.3244263 -0.06759885
0.7336698 -0.0018842759 0.3990084 -0.12947331 0.2400523 0.121480025 -0.3786501 0.31094414
0.36460537 0.26964906 0.32729685 -0.62564874 -0.0007658285 -0.36759627 -0.6063482 -0.0026273539
-0.038088445 0.06602704 -0.058311056 -0.36274064 -0.015217578 0.23672703 -0.046854604 -0.12509836

bias_ih_l0 f4 [128]
00000000: e829 a4bd ff45 263e 62c9 de3e 47ae 413e
00000010: c295 803e d14e ea3e d6f9 c73e 5b24 953e
00000020: 416f b33e 241b de3e e56b dd3e 480f 833e
00000030: ac7d d53e 155e a43a 4548 933e d902 283e
00000040: 4d9a ae3e 6217 5c3e f500 923e b21d 923e
00000050: e505 923e a778 f13d 4883 ec3e 28ec 683e
00000060: 5038 c13e a821 863e 252e cd3e cf27 543e
00000070: 0219 e33d c869 6b3e f669 ea3d 5889 013f
00000080: 00d8 b63d 8fbf 5fbe db1b a0be b3c2 1638
00000090: d964 cfbe 3de9 d7be 2018 dabe f381 80bd
000000a0: cbf6 a6be b613 edbc 1d6d 753c 04a1 3abc
000000b0: 5ad2 6fbe 17a0 433d 8fdc 99bd d920 bfbe
000000c0: 2fd0 c3be 68e8 dd3c ba55 07be 4b07 cd3d
000000d0: 33ac 10bf 1a57 2a3b fe99 bbbd 8ef6 063e
000000e0: 0d5d 83be 923a a93d 48dd 263d cfce 4d3b
000000f0: c5c7 aabd 9c04 c2be f4d4 e9be eef5 aabe
00000100: a12b 053e ffe5 003e 6d9f 86bd 75c3 e03d
00000110: d5de dabd 115d ab3c beb1 043e 9b6a 5bbd
00000120: 7770 59bd da51 993d 7fe5 8abd f246 9c3c
00000130: 0dae 0bbe 3a95 01bd 730b 44bd 434c e9bd
00000140: 2f68 afbd 57ff f1bd 2ef9 b03d 329b 25be
00000150: fa27 0e3d 3ae4 0a3e 0045 fc3d 4e77 18be
00000160: 4996 f83d 5fc2 95bd 24ca de3c d875 16be
00000170: 5237 01be 29c7 c03d bc53 133d 78b8 59bd
00000180: db81 893e be4e 933e ad28 113f 8c15 763e
00000190: e18c f33e 7373 e53e 87d8 f43e 0145 bd3e
000001a0: 007c a33e 41a1 0a3f c080 933e 5206 be3e
000001b0: 42ab 0b3f 95d6 4d3e 9b84 c03e 81bd e93e
000001c0: 858e 143f a8ec 623e 8fe0 ea3e 18e4 1c3e
000001d0: 4c17 1e3f 9e6c 093e a88a 0a3f 0ed2 ad3e
000001e0: ec9f b83e 4925 dc3e f3b5 1e3f 687b 553e
000001f0: 1b38 663e 1486 fd3e eee3 ad3e 14a9 c73e
-0.080158055 0.16237639 0.43513018 0.18914138 0.25114256 0.45763257 0.39057797 0.291293
0.35045817 0.43380082 0.4324638 0.25597596 0.41697443 0.0012540246 0.28766075 0.16407336
0.34102097 0.21493295 0.28516355 0.2853828 0.28520122 0.11790591 0.4619391 0.22746336
0.37738276 0.26197553 0.40074268 0.20718311 0.11088754 0.22989571 0.11445992 0.50600195
0.089279175 -0.21850418 -0.31271252 3.5944115e-05 -0.40506628 -0.42170134 -0.4259653 -0.06274786
-0.32610163 -0.028940063 0.014979628 -0.011390928 -0.23420087 0.047760095 -0.07512771 -0.37329748
-0.3824477 0.027088359 -0.13216296 0.10011157 -0.56512755 0.0025991858 -0.09160231 0.1317999
-0.2565693 0.082631245 0.040738374 0.0031403785 -0.08338884 -0.37894142 -0.45670283 -0.33390754
0.13004924 0.12587737 -0.06573377 0.109747805 -0.10687033 0.020918401 0.12958428 -0.053568464
-0.05308577 0.07486315 -0.06782054 0.019076798 -0.13640614 -0.031636454 -0.04786248 -0.11391499
-0.08564793 -0.1181628 0.08641277 -0.16172484 0.034706093 0.13563624 0.12317848 -0.14889261
0.121380396 -0.07312464 0.027195998 -0.14693391 -0.1261876 0.09412987 0.035968527 -0.05315444
0.26856884 0.28771013 0.5670269 0.24031657 0.4756842 0.44814643 0.47821447 0.36966708
0.31930542 0.54152304 0.28809166 0.37114197 0.54558194 0.20101388 0.3760117 0.45652393
0.5802997 0.2216059 0.4587445 0.15321386 0.617543 0.1342034 0.5411782 0.33949322
0.3605951 0.42997196 0.6199638 0.20847857 0.2248234 0.49516356 0.3396296 0.38996184

bias_hh_l0 f4 [128]
00000000: 8ade febd 15b2 333e 3749 9a3e 4985 b33e
00000010: b532 ca3e a6dc 5a3e 67ee 933e 130e f03e
00000020: 9906 df3e ff43 193f af3b 343e c84b 063e
00000030: d8f7 363e d94e 973e 0d0d a83e 0d24 a63e
00000040: 7013 823e 0479 543e 4d05 423e 8ae4 763e
00000050: 6ba2 dd3e 09e5 983e 2f1e fb3e c361 953e
00000060: c9de 8e3e 67c5 7c3e 16d7 f23e 44c0 ec3d
00000070: 51b5 ef3c 96d8 613e 3e65 3c3e 9462 0e3f
00000080: 485b 083a 4908 45be c3a5 99bd f10d 53be
00000090: 880b c6bd e088 84be 86ee 91be 1d8e 54be
000000a0: 86a5 81be 8669 aebd 94e9 0a3d f1a4 94bd
000000b0: b3ab 72be 51d6 06be 6689 fc3c 8878 a5be
000000c0: 1364 03bf 2343 27bd 669a d4bd ad3e a6bd
000000d0: 6caa d7be ab0a 24be 5d1c a1be 989b d43d
000000e0: e698 ebbe a46b 67be e2e7 59be 3bbc 6bbd
000000f0: b493 e4bd 9381 14be 6034 a6be b02f 05bd
00000100: 02e3 1cbe 2753 12be d5b2 d53d 37a9 5d3d
00000110: 8d62 193e a711 5a3d 99a9 67bd cdd0 dabb
00000120: b193 b43d 4fa4 99bc 6fcf 753d 12f9 143d
00000130: c97a 353d a292 0e3d be94 00be a47a 043d
00000140: e5fd ee3b 056b fe3d a84f 423c de9c 93be
00000150: 5268 fabd 59f9 993d dc9c f6bd c421 cb3d
00000160: f8da efbd 2f2f 053d 8e18 f73c bc6d 03bd
00000170: 10f9 eabd 2ef1 3cbe 3118 3b3c fa3e 503d
00000180: b036 1d3e f714 d83e 9b64 d23e 736d ef3e
00000190: 1405 133f 7afc b33e 9542 2d3f 9d25 2e3f
000001a0: f0d5 873e 055a 103f 1284 073f c164 e53e
000001b0: 4cc8 0e3f 27d4 c93e ae7b 973e 3ec4 ed3e
000001c0: 744a 193f eab2 ad3d e057 103f 8c80 f33c
000001d0: a1a1 143f 628d a63e 4e65 313f efb4 f13e
000001e0: 9d65 0c3f 76ad cf3e 4700 2c3f 9fd5 5b3e
000001f0: c08c c33d b1af fa3e 39b9 bb3e 5638 173f
-0.1244479 0.17548402 0.30133983 0.35062626 0.3949181 0.21373233 0.28892824 0.46885738
0.4355972 0.5986938 0.17600892 0.13114846 0.17867982 0.29552343 0.32822457 0.3244938
0.25405455 0.20749289 0.18947335 0.24110618 0.43287978 0.2986224 0.49046466 0.2917615
0.27904347 0.24684678 0.47429723 0.11560109 0.029261263 0.22055277 0.18397996 0.5561917
0.000520159 -0.19241442 -0.0750232 -0.20610787 -0.09670168 -0.25885677 -0.2850229 -0.20757337
-0.25321597 -0.08516221 0.033914164 -0.072580226 -0.2369831 -0.13167693 0.030827235 -0.3231852
-0.51324576 -0.04083551 -0.10381012 -0.08117423 -0.4212221 -0.16019695 -0.31466952 0.1038124
-0.4601509 -0.22599655 -0.21279863 -0.057552557 -0.11160985 -0.14502554 -0.32461834 -0.03251618
-0.15320972 -0.14289533 0.104345 0.054116454 0.14979 0.05323949 -0.056558225 -0.006677723
0.088172324 -0.018755106 0.060012277 0.036370344 0.04430655 0.03480781 -0.1255674 0.03234352
0.00729345 0.12422756 0.011859812 -0.28830618 -0.12226929 0.075182624 -0.12041637 0.0991855
-0.11711687 0.0325157 0.030163076 -0.032087073 -0.11473286 -0.18451378 0.011419342 0.05084131
0.15352893 0.42203495 0.4109238 0.4676319 0.57429624 0.35153562 0.6767972 0.68026143
0.2653041 0.5638736 0.529359 0.44803432 0.5577438 0.39419672 0.29586548 0.46438783
0.5987923 0.08481391 0.56384087 0.029724382 0.58059126 0.32529742 0.69295204 0.47208354
0.5484255 0.40562028 0.67187923 0.21468209 0.0954833 0.48962167 0.3666475 0.59070337

weight_ih_l0 f4 [128, 2]
00000000: 073d 583f d6cb 4a3e dbb0 6bbe c938 b0bd
00000010: 2c55 8d3e 1213 c83e 16ee 45be 8fbe 94bd
00000020: f3a3 43bd 87ca f5bd 7baa a9bb e976 ef3d
00000030: b79c 2e3c 1646 d8bc 7826 f83b ff1b 4cbe
00000040: 1138 013f 8712 ccbd 1c3a f13c 503c abbd
00000050: 7130 d0bd 7ef4 6c3e d2a8 68bd 6232 2d3d
00000060: 521b 18be 8481 afbd 38da 923c 6108 94be
00000070: da8c 9f3c dd23 323d c947 49bc 438f c73d
00000080: 5f4c d7bd a831 633d 9eed ea3d 06f6 973e
00000090: d1b5 403d 6dbb 8bbc 21b6 bfbd f5cd adbd
000000a0: d60b 3b3f 186b c4bd fc70 13be c58e 143d
000000b0: e608 3b3c a378 913d 229e 27be bf46 893d
000000c0: d1b6 123e 941a 263d 1d4c 083c 8f06 38bb
000000d0: 9956 aa3e 1d78 0b3e a159 12be 23d3 95bc
000000e0: fd49 a7bd 0f61 483e d655 de3d 839b 033e
000000f0: d720 013e a6c6 4a3e 756b 24be 6b36 d33c
00000100: ad36 e3bd 035a 19be 9e6f 873c 78e4 95bd
00000110: 5cde 953d f23b 843c e4cc c03d 1efc a03c
00000120: ef39 2b3e 9ee4 cc3b d843 72bd 52b8 95bc
00000130: b138 903d 683f 303e 4f38 5b3e ad8d f63d
00000140: f1ec 72be eb42 653d f142 d63d 0a93 c8bd
00000150: 7b96 053c 8db2 08be 6d29 efbd 2c0a 453e
00000160: c328 fbbc 2ac8 ea3d c958 1d3d c8c6 e43d
00000170: 7ad5 5c3d 0c8e 9f3d d471 c63c 74cf 89bd
00000180: 0025 a2bd d0f4 edbd 80a8 c8be 5dca e1be
00000190: 7cb8 9b39 5b0e c73c 80a1 a2be 094f 48be
000001a0: f1a9 f4be 1cdb ebbc 95be bc3e 52a0 9dbd
000001b0: ab40 b7bc d72a a2bd 2d9b 343d 9548 adbd
000001c0: bb1f 79be 4ce7 efbd fd69 5f3b 9603 913d
000001d0: 51c6 a0bb 12c3 82bd 8267 913d 30a0 aebc
000001e0: 4a00 ce3e b284 233d 8d4f 193d 24d1 313d
000001f0: e9d7 0b3d 0041 17be 8075 4f3d 2611 853c
00000200: c901 663e ea57 133f 4141 cfbe 265f b3be
00000210: f6da 5ebe 0f76 0fbe 0b6c b7bd a1f2 77be
00000220: 797b 0cbf 5d37 9d3d 0b2d ae3e b299 8ebe
00000230: d9dd 98be 801e ffbe d54d 8c3e 85db 9cbe
00000240: 9d17 ab3e c851 613d 22f9 0dbd 8c66 0f3e
00000250: cc9e 7a3e 41ae 123f 4b8b 63be 18e2 3d3f
00000260: a016 7ebe ab90 013e 254b 1dbd b0bc 1b3e
00000270: 176f ffbd 0b86 02bf 288b d43c 9f95 393f
00000280: ce0a b83d 8327 5f3d a3ce 64be 833a 973d
00000290: 2892 a9bb 8946 eb3d 0298 453d 8932 393d
000002a0: fdf6 52be 8a03 d53d abf0 7cbd d41a f73d
000002b0: 1ecb c5bc 776c 9dbe 2d62 8e3f 1900 98bd
000002c0: a128 7b3e ad09 0c3f 02b1 39be 2f34 143f
000002d0: 8b7e 0cbf b2d5 463e 70dc 443f 52aa c33d
000002e0: 6806 0c3f 75ad 693c 03ca 993e eb6c 983e
000002f0: e2f2 5b3e d618 1e3e 553c b0bd 2e44 b8be
00000300: 1216 02bf 87c5 5dbe f781 813f d81e b73e
00000310: e9b6 133e 782e 9cbe 7f70 e13e 20a1 92bd
00000320: 6cd1 08bf 8617 ff3e ff50 bcbd 0747 52bd
00000330: 9183 1bbf d370 5bbf 36d8 e0be 21ad e53e
00000340: 01bd 36bf 0c7d 6a3e 1b62 bc3d c79e a3be
00000350: 3ae5 4c3f c082 3cbd c800 9c3d a363 7cbe
00000360: beab ff3d 0d7c 853e 281d 9d3e 5d83 ef3e
00000370: e41b 9f3d 6868 283e 6588 08be 7f3b 083f
00000380: a818 31bf a4c6 adbe de02 d7be 4403 63bf
00000390: f9cf ffbb 7717 1abc 3fc5 c5bc dd10 193d
000003a0: 4c95 033a 6ed3 c73e e4eb b5bc e3b2 9e3d
000003b0: 3cc1 f13e 5762 8dbe 5ff5 9cbe 4d78 a2be
000003c0: b9b9 cf3e 1d70 bd3e a4f2 953e e6a6 09bf
000003d0: 8993 1b3e 48d3 bbbe eb64 e53b 4f8e 233e
000003e0: 7452 a8be 3fb4 a9be 4fc3 1dbe e955 f4be
000003f0: 1fef f8bd fd5d ae3d 974f 87bd 0b95 e6be
0.8446812 0.1980432 -0.23016684 -0.08604581 0.27604043 0.3907705 -0.19329104 -0.07262909
-0.047763776 -0.1200152 -0.0051777936 0.11692602 0.010657481 -0.026400607 0.007572945 -0.19932555
0.50476176 -0.09964471 0.029446654 -0.08361113 -0.101654895 0.23140141 -0.056801625 0.042284377
-0.14854172 -0.08569625 0.01792632 -0.28912643 0.019476343 0.043491233 -0.012285181 0.09744122
-0.105126135 0.055467278 0.11471103 0.29679888 0.047048394 -0.017057145 -0.0936091 -0.08486549
0.73064935 -0.09590739 -0.14398569 0.036268968 0.011415696 0.07103088 -0.16368917 0.06702947
0.14327551 0.04055269 0.008318928 -0.002808008 0.33269194 0.13620038 -0.14292003 -0.018289154
-0.08168409 0.19568275 0.10856216 0.12852292 0.12610184 0.19802341 -0.16056617 0.025782784
-0.11094413 -0.14975743 0.016532715 -0.073189676 0.07317802 0.016141865 0.0941408 0.019651469
0.16721319 0.006252839 -0.059146732 -0.018276367 0.07042063 0.17211688 0.21408199 0.12038741
-0.23723198 0.05597202 0.10461987 -0.097936705 0.008153553 -0.13349362 -0.11677823 0.19242162
-0.030659085 0.114639595 0.03841475 0.11170727 0.053914525 0.07790765 0.0242242 -0.06729022
-0.079172134 -0.1161896 -0.39191055 -0.44099703 0.00029701355 0.024298837 -0.3176384 -0.195614
-0.47785905 -0.028791003 0.36864153 -0.07696594 -0.022369703 -0.07918327 0.0440933 -0.084611095
-0.2432851 -0.11714038 0.0034090274 0.07080762 -0.0049064537 -0.06384863 0.07099821 -0.021316618
0.40234596 0.03992147 0.03742938 0.043412343 0.034141455 -0.1477089 0.050649166 0.016243529
0.22461618 0.5755602 -0.40479472 -0.3503353 -0.21763214 -0.1400988 -0.089561544 -0.2421365
-0.54875904 0.07676575 0.3401874 -0.27851635 -0.29856756 -0.49827957 0.2740313 -0.3063623
0.33416453 0.055009633 -0.03466142 0.14003962 0.24474639 0.5729714 -0.22221105 0.74173117
-0.24813318 0.12652843 -0.03840174 0.15208697 -0.124723606 -0.50985783 0.025945261 0.7249393
0.08986436 0.05448104 -0.2234445 0.07384207 -0.005174894 0.11488063 0.04824067 0.04521421
-0.20602031 0.10401066 -0.061752956 0.12065664 -0.024144705 -0.30746815 1.1123711 -0.074218936
0.24527217 0.54702264 -0.1813393 0.57892126 -0.5488059 0.19417456 0.7689886 0.095539704
0.54697275 0.014262547 0.30036935 0.29770598 0.21479371 0.15439162 -0.086052574 -0.35989517
-0.50814927 -0.21657382 1.0117787 0.3576572 0.14425243 -0.30504203 0.4403114 -0.071596384
-0.5344455 0.49822634 -0.09195136 -0.05133727 -0.6074763 -0.8571903 -0.43914956 0.4485865
-0.7138215 0.22899264 0.091984 -0.31957075 0.8003727 -0.04602313 0.076173365 -0.24647383
0.12483929 0.26071206 0.30686307 0.4677991 0.077689916 0.16446078 -0.1333328 0.53215784
-0.6917825 -0.33940613 -0.41994375 -0.8867686 -0.0078067747 -0.0094050085 -0.024141906 0.037369598
0.00050195004 0.39028496 -0.022207208 0.07748964 0.4721774 -0.2761409 -0.30655953 -0.31732407
0.40571383 0.36999598 0.29286683 -0.5377029 0.15192999 -0.36684632 0.0070005557 0.15972255
-0.32875407 -0.3314533 -0.15406536 -0.47721794 -0.12154984 0.085140206 -0.066069774 -0.45035586

weight_hh_l0 f4 [128, 32]
00000000: 5c7e 1c3f ab6d 39bf 03a8 bebf a1a7 1e3d
00000010: f5d5 adbe 05a7 4f3e ff2b 96be 3f51 143d
00000020: 358e 2b3e 2584 51be 2d83 903f 9b17 063e
00000030: 379d afbd 04b6 903e 6a25 bebe 5e02 aebd
00000040: a74a 603e e8c7 b2bd f554 41bc e52d c83e
00000050: c9fd 35be 801c 15be e721 65be 08b5 773e
00000060: 2da3 bdbc ece9 073f 0bee bbbe 7031 9f3e
00000070: dac5 463f 338a b63d 2668 93bb 8224 0cbe
00000080: 5082 4f3d 7a17 4fbe b78c db3c 970e eabd
00000090: 7dd2 903e 4b63 87be e3ce d0be 7401 cc3d
000000a0: cdd7 abbe e9ae 1b3e b519 48be 6c7e 083e
000000b0: d42e 4abd fb4b cc3e 7735 aa3e 8870 ddbe
000000c0: 3625 55be e91a b53e a5b2 45bd 2e46 7e3e
000000d0: 299f 413e 088c dbbe 3f6f 1bbd 5948 bc3e
000000e0: ccc7 f8be fe8f 893e 9f50 213f e7aa 923d
000000f0: b34b c13e 024e 3abe d7b6 b3be 27ef ecbe
00000100: f6f8 6dbe b44f 5ebd 69ec 1f3e afaa 07be
00000110: b2dc 503d ad2b 57be becc 9bbe e2fd 91bc
00000120: 9a35 8abe fd6b b3ba 5c5e 7ebe 3045 e83e
00000130: f356 cebd 81f9 033f e0c8 123d 0f05 c5bd
00000140: 544e bfbd 5bf7 343e d31f 4fbe c0ba 57be
00000150: b04f b93e 341b 85be c2a5 96be 95b1 d23e
00000160: 4aba 22be f49d 633e d4a9 ab3d 25d5 0d3e
00000170: 3f62 b13e 87d8 673e 1ebc 5f3c 476a 10bf
00000180: 15fd c93e 595d cebd 7dcc a8bd a683 48be
00000190: 6bd9 923e fdfe f63d c065 b6bd b5cd 9f3d
000001a0: 873c 993e a2ce e33d f748 01bd e24e 173e
000001b0: 75b4 b53b 1d4f 0a3e c4e2 dabd b82d 26be
000001c0: 8d01 1abe 4094 503e 35ba 2bbe ea4c 04be
000001d0: 5c25 00bd a94f b93d 41d1 8dbd 183f dc3d
000001e0: ba07 e6bb 6ab8 e03e 2cb0 c63c 41e4 78bc
000001f0: 5114 523e 0725 3a3d 99d9 60bd a66d 92be
00000200: 8099 1e3e 04ce 5e3e a6bd d5bd 7640 b93d
00000210: 30d8 303e f38b 7c3e e0e9 03be 4816 29be
00000220: 085f ba3c f4b3 973e fefe 943d 2562 333f
00000230: df49 1e3d 7743 1ebd 5f9a 7a3e 68d6 14be
00000240: 7512 43be 0a6f 7fbd 6936 40bf 08d3 98be
00000250: 9680 5ebd d968 dfbd ee1b efbd 1920 9fbe
00000260: 158c 25bd d169 5b3e 8377 ec3c ee6e 35bd
00000270: 2e23 a5be bc94 143e 009b fb3b 4d4a 2b3e
00000280: 30ab 303f 10eb fbbe 1c45 0ebf f0ef 52be
00000290: 0b10 3bbe 87a9 bd3e 0601 32be 3a37 1f3f
000002a0: dd56 a73e 6a8f 973e d167 5d3d 2c2c d7be
000002b0: 7f61 0fbb cc93 8fbc f6ba fabd 174d 82be
000002c0: efa4 0fbe 4e9b 67bd d07e 71be 067a 493f
000002d0: 5321 2bbf 53bd 3ebe bd35 bcbd 121a 783e
000002e0: ff77 863e 52e4 2d3e 1696 b2bd 560e 583e
000002f0: e6b5 c63e a9c8 04be 0c21 a43d 43cb b3bd
00000300: e8bf 94bc 17a9 9e3e f46b 613e 3af9 dd3d
00000310: 9a68 b43d 7efd ebbd 0a43 a6bd 37d3 2dbd
00000320: 52be 16be df47 793d 8798 7fbd 8a8a d23d
00000330: bcd0 f73d a18c 1e3c 2590 9cbd b2e0 19be
00000340: d11b 7b3d 3d6d 77bd b4bf 1f3d 7e48 e4bd
00000350: 59f3 263e 567c 273e 6cbe d6bd 6433 a23c
00000360: fbd6 103d bf08 3d3d 472e c73d 4aa4 b9bd
00000370: b3e6 b3bd 1b28 87bd 5c45 81bb 4d94 183e
00000380: 5330 143d 6919 f33d 46a3 ce3d 2a9d ee3b
00000390: 0fb0 833e 20a0 1fbf f9bf 1dbd 4b3d 943d
000003a0: b4c6 a3be 7a67 48be 3525 b3bd 53ab 953e
000003b0: 6b4b 403e 0258 313d 2fc8 083e 1e18 12bd
000003c0: 06c5 dcbd 746e e23d e856 73be 03a7 5b3d
000003d0: 3248 693e 0590 8dbd a3b5 3fbe d765 85bc
000003e0: 9895 87bd 1e98 553e 7d7a ef3e 8c18 183e
000003f0: 1126 243e 44dd 8a3c 4600 f7bd 5c02 81bd
0.6113031 -0.72432965 -1.4895023 0.038734082 -0.339523 0.20278557 -0.2933044 0.036210295
0.16753466 -0.20460565 1.1290032 0.13094942 -0.08574908 0.28263867 -0.3713792 -0.08496545
0.21903478 -0.08729535 -0.0118000405 0.39097515 -0.17772593 -0.14561653 -0.22376214 0.24190152
-0.023149097 0.5309131 -0.3670505 0.31092405 0.7764565 0.08913078 -0.0044984994 -0.13685802
0.050661385 -0.202238 0.026800497 -0.11428564 0.2828559 -0.26442942 -0.40782842 0.09961215
-0.3356308 0.15203442 -0.19541056 0.13329476 -0.049361065 0.39901718 0.33243915 -0.43249917
-0.20814976 0.35372093 -0.04826607 0.24831459 0.18908371 -0.42880273 -0.03794789 0.36773947
-0.48589933 0.2686767 0.63013643 0.07161503 0.37753066 -0.1819382 -0.35100433 -0.4627621
-0.23239502 -0.05427523 0.15617527 -0.13248704 0.05099172 -0.21012755 -0.30429643 -0.017821256
-0.2699402 -0.0013688799 -0.24840683 0.45365286 -0.10075178 0.5155259 0.0358361 -0.096201055
-0.09341112 0.17672484 -0.20226984 -0.21067333 0.3619361 -0.25997317 -0.29423338 0.4115111
-0.15891376 0.22228223 0.083820015 0.1385084 0.34645268 0.22641192 0.0136556905 -0.56412166
0.394509 -0.100763984 -0.08242128 -0.1958147 0.28681502 0.12060354 -0.08906126 0.078029074
0.2992899 0.111233965 -0.031563725 0.14776185 0.005545194 0.13506742 -0.10687783 -0.16228378
-0.15039654 0.20369053 -0.16770251 -0.12919965 -0.03128563 0.09048397 -0.06924678 0.10754222
-0.007019964 0.43890697 0.024253927 -0.015191139 0.20515563 0.04544547 -0.054895017 -0.2859928
0.15488243 0.21758276 -0.10436563 0.09045498 0.17269969 0.24662761 -0.12882185 -0.16512406
0.022750393 0.2962948 0.072751984 0.7007163 0.038644668 -0.03863856 0.2447295 -0.14534914
-0.1905001 -0.062361754 -0.75083023 -0.29848504 -0.054321848 -0.1090867 -0.11675249 -0.31079176
-0.040416796 0.21427085 0.028865581 -0.044295244 -0.32253402 0.14509863 0.0076783895 0.16727562
0.6901121 -0.49202776 -0.555742 -0.20599341 -0.18267839 0.37043402 -0.17383203 0.62193644
0.3268346 0.29601604 0.054054085 -0.42025888 -0.002187818 -0.01752653 -0.12242691 -0.2544944
-0.14027761 -0.056544594 -0.23583531 0.7870182 -0.66847724 -0.18626909 -0.09189937 0.24228695
0.26263425 0.16981629 -0.08720033 0.21099219 0.38810652 -0.12967171 0.08014116 -0.087790035
-0.018157914 0.3098838 0.22013837 0.10838552 0.08809014 -0.11522959 -0.081182554 -0.04243776
-0.14721039 0.060859557 -0.06240132 0.102803305 0.1210036 0.009677083 -0.07644681 -0.1502712
0.061305825 -0.060406912 0.03900118 -0.11146639 0.16303767 0.16356024 -0.10485539 0.019799896
0.03536127 0.04615092 0.097256236 -0.09064539 -0.08784237 -0.065994464 -0.003945036 0.14900322
0.036178898 0.11870081 0.10089736 0.007281919 0.2572026 -0.62353706 -0.038513158 0.07238253
-0.31987536 -0.19570723 -0.08747331 0.29232273 0.1877877 0.04329682 0.13357614 -0.03566753
-0.10779767 0.110562235 -0.23763621 0.05362607 0.22781447 -0.06912235 -0.18721633 -0.016283913
-0.066203296 0.2085881 0.4677314 0.14853114 0.16030146 0.01695121 -0.12060599 -0.06299278

bias_ih_l0 f4 [128]
00000000: ae3a 0e3b ce4e 05bd 532a e03d fb0b 4e3d
00000010: b52c 573e 22f1 743d 8fb1 483e b993 76bd
00000020: 2355 883d 0194 e53d bed4 f6bd 6213 0bbe
00000030: 2a38 e13c 62f2 163e dc8f 03be 18be 0c3d
00000040: 11af b23c 618c 9c3d 6f23 503e 7309 7bbd
00000050: 7e92 4f3e 6322 50bd 500a 11be fb72 c6bb
00000060: 30e9 193d b3f1 bc3d ee09 a83d d7fa 863d
00000070: 0f37 ff3d c720 863d 5997 183e 963e c33d
00000080: fb7b 1e3e f0a1 1dbe 02bd d3bd d8f7 cfbd
00000090: 1420 673d 69a6 733d 81f8 e43d b974 593e
000000a0: a929 2c3e 7d62 063f 746a c83c fb9a 893e
000000b0: 9899 e6bd af88 673e bd85 ba3d 4698 82bd
000000c0: 7c76 cdbd f9e3 203e 7b04 7b3e c40d 473e
000000d0: c423 993d a84b 173e 0e33 aabd 4a7d a23d
000000e0: 04ac 7939 e2f3 583e a2bb e13c 5c6c 6e3e
000000f0: 4059 dcbd 8ba9 1d3d 047f 053d 68c0 8e3d
00000100: c3c9 b7bc b37f 173d 1fc7 173e 2535 40be
00000110: 937d 843c 76cc 2b3d 3745 afbd f657 6b3e
00000120: 0ccb d33d 7851 02be d259 543d addf efbc
00000130: 8efa a4bc 96b5 383d 728b e13d 6ce3 18be
00000140: ec26 60be 4b76 02bd 1130 0a3d 8711 4fbd
00000150: 124f f03d 449a 1ebe f6ee 0abe 8805 333e
00000160: 5797 37be cd9a 8e3e 6b1b b43e b17e 0b3e
00000170: 4821 943e 22dd 95bd 54ef 25be 0606 923c
00000180: e3a2 dc3c 04b0 523e 50b9 8b3e 3965 023e
00000190: eae4 9e3e 9d3d 813e c68c 413e 2c8a 993d
000001a0: 498d 903d b16e ea3e 0249 833d 745b 163e
000001b0: 8382 a7bd a4d5 623e d9f8 153e 8f07 d13d
000001c0: 5525 573d 5671 7ebd 01c0 113e c519 5b3e
000001d0: 691f 463d 09bd 203e fae2 fc3c 7660 0dbd
000001e0: 4084 693e 9d6e 323e 0b31 a43e 97df bb3d
000001f0: f1f2 023d d246 513d cc94 2a3e 0df0 103e
0.0021702456 -0.032545857 0.10945573 0.050304394 0.21013148 0.059800275 0.19598983 -0.060199473
0.066568635 0.1120987 -0.12052296 -0.13581613 0.027492601 0.14740899 -0.12847847 0.034360975
0.021811994 0.07643963 0.20326017 -0.06128831 0.20270726 -0.050814044 -0.1416409 -0.006056187
0.0375759 0.09225788 0.08205019 0.06590813 0.124616735 0.065492205 0.14901485 0.09533422
0.15476982 -0.15393806 -0.10338785 -0.10154694 0.056427076 0.059484873 0.11180211 0.21235932
0.16812767 0.5249403 0.024464823 0.26876053 -0.112597644 0.22610734 0.0910754 -0.063767
-0.10032365 0.15711965 0.24513428 0.19438845 0.07477525 0.14774954 -0.08310519 0.07934053
0.00023810571 0.21186784 0.02755529 0.23283523 -0.107592106 0.038491767 0.032591835 0.06970292
-0.022435075 0.036987018 0.14822052 -0.18770273 0.01617316 0.041943036 -0.085581236 0.22982773
0.103414625 -0.1272639 0.05184347 -0.029281462 -0.020139005 0.04509505 0.11012925 -0.14930505
-0.21889848 -0.031851094 0.033737246 -0.050553825 0.117338315 -0.15488535 -0.13567719 0.17482579
-0.17928825 0.2785248 0.35177168 0.13622548 0.28931642 -0.07317568 -0.16204578 0.017825138
0.02693314 0.20574957 0.2728982 0.12733926 0.31034023 0.2524232 0.18901357 0.07497057
0.07058198 0.45787576 0.064104095 0.14683324 -0.0817919 0.2215181 0.14645709 0.1020652
0.052525837 -0.062119804 0.142334 0.21396549 0.0483698 0.15697111 0.03086995 -0.03451582
0.22804356 0.17425008 0.32068667 0.09173506 0.03196997 0.05109293 0.16658324 0.14154072

bias_hh_l0 f4 [128]
00000000: 5fc2 6c3e 7d63 683e 4661 223d 4ef2 f2bd
00000010: 9ebb 9b3e 3705 173e 5760 4fbd e6c0 333d
00000020: 5fbb 143e caa6 3c3e 0c20 ad3d 5f60 953d
00000030: d0a7 e53c 8274 203e 3573 ce3d 04f9 ae3d
00000040: 9a7d efbc 8cdb 2fbb cc75 e73d c899 d9bd
00000050: 2cc2 543e 681c 703d bc68 1c3e 2ce2 a2bd
00000060: 082d 8ebd 1c16 153c 929c 3d3d 96f1 f7bc
00000070: f511 1a3e 29b5 b73d 4256 063c cd93 fe3d
00000080: df72 a83c 805f 893d f93c a83c b776 3b3b
00000090: fbe2 883d 7bea dbbd 2538 39bc 2df2 9ebd
000000a0: bf84 bfbd 1947 b13e 64ed 68bd 27eb 263e
000000b0: c0da 023d cbf0 743e b6df 85bd 32ff 0cbe
000000c0: 7695 06bd 99e5 d2bd 5711 cd3d 9113 ec3b
000000d0: 9796 893d 9824 913d 6bda 7c3d d9bd 8bbd
000000e0: 461f ca3c e377 833e a2cc 7cbd d263 633c
000000f0: ef12 ba3d da78 1dbe 1310 b2bd 4f93 7c3e
00000100: 249e 203e 88fd 603d e2da 25bd 9f3b 1ebe
00000110: a5a4 b73d 8224 23be 305e 94be 62a8 6a3e
00000120: 5a17 21be a95e c33d e258 bebc 31d7 9f3d
00000130: e8b1 71bd 279e f13d dba5 b23d aa36 2ebd
00000140: 8a1e 05be 2cab 0e3e 0074 7fbe d189 423d
00000150: 933f 283e bad3 e7bd ce1e 86bb f74c e23d
00000160: f0cb ebbd 7c45 003f 991d 173e e204 1c3e
00000170: 8af7 0f3e 9008 e5bd 74fc 803d 359f 25be
00000180: 9327 953e 3e15 3a3e 9670 303e 3850 0ebe
00000190: 5573 0c3e 1dff 873e 77ae e93d b043 183e
000001a0: 47c4 e83d a5f2 f03e e6ee 183c 70a0 2b3e
000001b0: 835e 97bd f739 a53d 224b 593e bc0b 513e
000001c0: 276f 4d3e c7be 74bb 570f a3bd a409 4c3e
000001d0: b49b ff3c 17d4 07bd ef5f 1b3e 8628 813e
000001e0: 1be6 d23d 66a4 993e 0447 df3d 6ce4 8d3e
000001f0: d26e 9d3e f83e f23d bb31 bb3d 7633 533e
0.23121022 0.22694202 0.03964355 -0.11862622 0.30416578 0.14748083 -0.050628986 0.043885134
0.14524601 0.18423 0.08453378 0.07293772 0.02803412 0.15669444 0.10080568 0.0854359
-0.029234696 -0.002683374 0.11301765 -0.106250346 0.20777196 0.05862084 0.15274328 -0.07953295
-0.06942183 0.00909951 0.046291895 -0.030266564 0.15045913 0.089701004 0.008199276 0.124305345
0.020562587 0.06707668 0.020536887 0.0028604695 0.06683918 -0.10738083 -0.01130489 -0.07761035
-0.09351491 0.34624556 -0.05686702 0.16300641 0.031946898 0.2391998 -0.0653681 -0.13769224
-0.03285738 -0.102976985 0.10013073 0.007204481 0.06718176 0.07087058 0.061731737 -0.0682332
0.024673115 0.25677404 -0.06171859 0.0138787795 0.090856425 -0.15378132 -0.08694472 0.24665569
0.15685326 0.054929286 -0.040491946 -0.15452431 0.0896695 -0.15931895 -0.2897811 0.22915795
-0.15731564 0.09539539 -0.023235742 0.078047164 -0.059007555 0.11797743 0.08723041 -0.0425326
-0.12999931 0.13932484 -0.24946594 0.047494713 0.16430502 -0.113196805 -0.0040930277 0.11049836
-0.11513507 0.50106025 0.14757384 0.15236238 0.14059272 -0.11183274 0.062981516 -0.16174014
0.29131755 0.18172166 0.17230448 -0.13897789 0.1371587 0.26561823 0.1141023 0.1486957
0.11365562 0.47060123 0.009334302 0.16760421 -0.073910736 0.080676965 0.21220067 0.20414633
0.20061933 -0.0037345157 -0.0796191 0.19925553 0.031202175 -0.03316125 0.15173315 0.2522623
0.102977954 0.3000824 0.10902217 0.27713335 0.30748612 0.118284166 0.09140345 0.206251

weight_ih_l0_reverse f4 [128, 2]
00000000: 055f 173f d06f 073e da05 4c3c dea2 98be
00000010: 8d7e a8be da67 7dbe 857a 8e3e ed95 1b3a
00000020: 06dc a4be 850a 58be 0b6d f3bd e107 9ebc
00000030: cee3 443e 5aed 8dbe 2a25 84bc 17c0 60bf
00000040: c0f6 153e 0c41 5abe 7437 16bf 4734 023f
00000050: 96b9 3fbd aef0 9a3d b07c ec3e 5fcb bfbe
00000060: 6602 98be f1bd 0fbf 1058 fdbe 6818 61bf
00000070: 4705 55bd 2eff 7fbe 6b66 0c3f 858b 063f
00000080: f4ad 6dbe ac87 8a3e 1dcf d4be 35c6 7bbf
00000090: 1909 18bf 2989 b53e 3199 dbbe e9a2 9b3e
000000a0: 428f 2fbf 7d9f ff3d c03a 87bf 50da c23e
000000b0: ec9b 82be afdc 383e 0d94 763e 742d 41be
000000c0: 6ff0 19be a023 813f 8d17 99be 55a6 d3bc
000000d0: 7b3f bc3e 100b d33e 2940 31be 6210 9f3e
000000e0: ee4d 84be d91f 2a3d 2778 f63e bd57 c03e
000000f0: b331 f13e bdf8 47bf b66f 0e3f a4f1 d3be
00000100: 64c8 843d ad7c 893e fafd 4e3d e62c bb3d
00000110: cac1 2dbd 22a8 083f 7f34 bfba 9125 753d
00000120: 4147 97be f500 8d3d fc68 2a3f 9b14 663e
00000130: cf76 6fbe 1f09 ca3d 5c60 80bb c849 c33d
00000140: 809f 083e f670 de3e df89 55bc 55d6 6ebd
00000150: ec89 e43e 6748 87bd d2ec a43e b340 a93d
00000160: 8e4d c6bd 545f 0b3d 26ff 2a3c ead0 18bd
00000170: a88f c4be 83b6 2ebe bd61 633e 12cc cb3d
00000180: ae54 dabc f0b2 233c 8c71 48be 37e2 d2bd
00000190: 2076 bcbd 2247 eebc cb2e b23e 1a1b f4be
000001a0: a709 1e3c 2a98 bbbc 22f6 0dbe 5016 86bd
000001b0: 0f62 873e 07d0 07bf 3578 fabe 4048 b0bd
000001c0: 0bbb 9ebc 6434 91bd 1aed d33d b2f5 e33d
000001d0: 6bb7 a63d 3f9c 573d 874b 4f3d 08e9 aabe
000001e0: 8e2d f6bd 42a2 b33e 1754 613e 8760 0d3e
000001f0: ff16 553e 9d89 ffbe 3b22 003d f990 2dbe
00000200: 10af d4be ed8b 59be 2b21 5a3c edab d43e
00000210: 60ee cb3e ab75 1bbe 439a 32be 649e 113d
00000220: fb21 9b3e fb98 af3d 7e23 943e 1d01 8eba
00000230: 1c8f 94bc 81c4 16bd 45da b4be f9c4 c73e
00000240: ab09 c0bd 99bb 4dbe b948 2fbf 1a51 223f
00000250: 91cb eb3d 5e6d 2dbd 8934 0e3f d03a 13be
00000260: b0db dc3d 321d bfbe 28d7 513e 7a07 0e3f
00000270: bf68 553d acc9 b2be d6bf 363e 76ff cb3e
00000280: 846f 023e 4bf4 eabd f4df 8f3e cf52 033f
00000290: ddd9 6d3e 1d9a a4be 601d c6be 2ec2 633e
000002a0: 55c7 63bf e618 713e 7192 b03e 40af ddbd
000002b0: fac1 09bf ae5e 2d3f 6560 3f3e dd08 be3e
000002c0: 674b 5cbe 765b 983f e632 8d3e 05f0 833e
000002d0: 6d01 53be bcea 1bbe d42d 493c 38fa ddbe
000002e0: 23d2 d1be 5b57 fa3e 5ee4 263f ad52 d33e
000002f0: b664 613e 0af1 d0be 9bc4 ab3e 1a59 9bbe
00000300: 1bab 243f d75a bd3e da5b 513e 2458 4fbe
00000310: 83e3 cfbe c352 513e 3bfc a9be 0b8f d5bd
00000320: 05a5 05bf d39e 03be 99d0 01bf 70c3 1cbf
00000330: e418 edbd fce1 b0be bfae e93e df64 14bf
00000340: b670 b1bf e616 c73e 8c93 b4be c00b 473e
00000350: be9e 533f 1aa6 353d 32d1 173f 3c3b b0be
00000360: c5bb a33e d0aa febe a7f3 debe 2fd2 02bf
00000370: 4691 1b3d 5fa2 31be 57cf e03e 5f1e 1b3f
00000380: 2fc4 e53d e1f9 063f bd14 dfbe 99ea 49bf
00000390: cb66 4abe 2412 ba3e 1a50 b1be f122 f93c
000003a0: 8ea8 ddbe 0658 8f3d 6e9b 82bf 3bb0 ea3d
000003b0: 51aa cd3e 9164 59bf 3e0d 95be aa46 4cbe
000003c0: d2f2 3dbd b784 f03e 9ae8 123e c4e4 61be
000003d0: d819 96bb 5a70 553e 4266 b43e d9f3 ea3e
000003e0: 3b8f 8cbd bcb0 b93e 1fa4 0a3f 0497 62bd
000003f0: e952 fa3e 3dcf 47be e648 1c3e f805 e6be
0.59129363 0.13226247 0.012452567 -0.29811758 -0.3290905 -0.24746647 0.2782785 0.00059351214
-0.32199115 -0.21097763 -0.11886033 -0.019290866 0.19227526 -0.27720147 -0.016131002 -0.87793106
0.14644909 -0.21313876 -0.58678365 0.5086102 -0.046807848 0.07565437 0.4618888 -0.37459847
-0.2968933 -0.561492 -0.4948125 -0.87927866 -0.052006986 -0.24999687 0.5484378 0.5255664
-0.23210889 0.27056634 -0.41564265 -0.98349315 -0.5938888 0.35456207 -0.42890313 0.30397728
-0.6857797 0.12481592 -1.0564804 0.38057184 -0.25509584 0.18052934 0.24079914 -0.18864995
-0.15033124 1.0088997 -0.2990078 -0.02583615 0.36767182 0.41219378 -0.17309631 0.31067187
-0.25840706 0.04153428 0.48138544 0.3756694 0.4710823 -0.7811392 0.5563921 -0.41395295
0.06483534 0.26852933 0.05053518 0.09139423 -0.04242114 0.5338155 -0.0014587789 0.05985028
-0.2954655 0.06884948 0.66566443 0.22468798 -0.23385166 0.09865021 -0.003917737 0.09535557
0.13342094 0.43445557 -0.013033359 -0.05830987 0.44636476 -0.066056065 0.3221193 0.082642935
-0.09682761 0.03402646 0.010436809 -0.03730861 -0.3839085 -0.1706181 0.22205253 0.09951033
-0.026651707 0.0099913925 -0.19574565 -0.10297053 -0.09202218 -0.029086653 0.34801325 -0.47676927
0.009645856 -0.022899706 -0.13863423 -0.065472245 0.26442 -0.530518 -0.48919836 -0.086075306
-0.019376298 -0.07090071 0.10347958 0.11130847 0.08140453 0.052639242 0.050609138 -0.33380914
-0.120204076 0.3508473 0.22004734 0.13806354 0.20809554 -0.49909678 0.031282645 -0.16949834
-0.41539812 -0.21244784 0.013313572 0.4153742 0.39830303 -0.15181606 -0.17441659 0.035551444
0.30299363 0.085741006 0.28933328 -0.0010834072 -0.018134646 -0.036808494 -0.35322776 0.39017466
-0.09376844 -0.20091094 -0.6847034 0.63405 0.115134366 -0.04234063 0.5554891 -0.14377904
0.107840896 -0.37326962 0.20492232 0.5548016 0.052101847 -0.34919488 0.17846617 0.3984334
0.12737852 -0.114723764 0.2810055 0.5129823 0.2322764 -0.3214883 -0.38694286 0.22242042
-0.8897603 0.23544654 0.34486726 -0.10824442 -0.5381161 0.67722595 0.18689115 0.37116137
-0.21513139 1.1902912 0.27577895 0.25769058 -0.20606013 -0.15226263 0.012278993 -0.43354964
-0.40980634 0.48894772 0.6519221 0.41274014 0.22011074 -0.40808898 0.33548436 -0.30341417
0.64323586 0.36983368 0.20445195 -0.20248467 -0.40603265 0.20441727 -0.3320025 -0.10427674
-0.52204925 -0.12853555 -0.5070892 -0.61235714 -0.11577013 -0.34547412 0.45641133 -0.5796642
-1.3862522 0.38884658 -0.3526882 0.19438076 0.82664096 0.04434786 0.5930358 -0.34420192
0.31979194 -0.49739695 -0.43545267 -0.51101965 0.03798034 -0.17347096 0.43908188 0.6059322
0.1121906 0.52725035 -0.4357051 -0.7887359 -0.19765775 0.36341965 -0.34631425 0.03041217
-0.4329266 0.06999211 -1.0203683 0.114593945 0.40169004 -0.8491908 -0.29111665 -0.19948831
-0.04637415 0.46976253 0.14346543 -0.22059923 -0.0045807175 0.2084364 0.35234267 0.45889166
-0.068632565 0.3626765 0.5415668 -0.0553198 0.4889138 -0.19512649 0.15262184 -0.4492643

weight_hh_l0_reverse f4 [128, 32]
00000000: 486e fcbd e8f2 123e a769 5cbd 956f e1bc
00000010: 2bfb ed3d 459e 3d3e 9845 03be 0ec2 2a3e
00000020: 480a 57be b999 e13d 5198 313e 5dc5 21bd
00000030: db8c 01bd 34d7 a63d 2f8c 37be c9c9 483e
00000040: b6a6 c93d 68c8 613e eb0f bf3c a33b 28bd
00000050: ef7b 31bd 2743 003e 15e6 2e3d 535a ed3d
00000060: 3bf9 85bd 0fe1 bf3e e386 76be 3879 78be
00000070: 9efb 2d3d b35e 413e d032 96be 407a 93bb
00000080: e09a 0d3e 2a16 10bd cd0e 1d3e 850c b53e
00000090: b1f5 c8bc 80e4 6dbe 343d 893d 1e2a 51be
000000a0: 3cf9 563e 270e e5bd d7b4 58be 3d3b 03be
000000b0: 1450 923d d6eb 5abc 83f8 9e3d e494 33be
000000c0: 014a 72be daf8 49bb e9f2 5f3e 1566 80be
000000d0: 5d53 42be 18bf 2c3e 41e6 4c3d e2c9 d4bd
000000e0: 9de9 77be 22a4 13be d8db 5a3e bce4 c03e
000000f0: 5e84 10be 75b2 4bbe 24aa 26bc f1e3 a63d
00000100: d13b a53d 3903 2fbe e637 1dbe 6f33 abbd
00000110: 5287 323d b0c8 2d3d d8c8 933d b173 47bd
00000120: fddd 133d c62e dc3d 2cfa 85bc b25f 083d
00000130: acaf 023e 57b8 a8bd 7208 963d 69fb 433e
00000140: 87a8 90be 5522 fabd 7159 c73d 6a71 db3c
00000150: a11b 363d 7343 86be fb65 683e ab60 cdbd
00000160: 3384 35bd 92bc f53d 440f ff3d 1d9b 4cbe
00000170: 933d 263e a7e6 f83d 20eb a2bd e933 57be
00000180: 7f9e 873d 47a6 febd 4210 17be 4e1e aebc
00000190: 0def d13d 2c30 44bd 2072 4cbd a0fc e03d
000001a0: 5508 073d b5f4 19be 32ae d9bd cd6f c93d
000001b0: 5b77 afbe af15 563d 3aeb b73c d4e1 413e
000001c0: 0a3d c03d 88be 563e 5c4c 52bd 516c d2bd
000001d0: d1cc 2ebe c0d7 683e b2da 3e3d 9846 08bc
000001e0: f463 4ebe f469 3b3e 91e6 e53e 5ea0 f3bc
000001f0: 8889 443d 59d4 43be cd33 96bd ce48 21be
00000200: 58d7 813e 966b 2fbd 848c 5dbe 3f07 0d3e
00000210: f77d 93be 72d8 d1bd c2e6 243e 1c34 0c3e
00000220: 90c2 253e d13d 3abd a66d 23be 8854 22be
00000230: 0746 4ebe 6737 1bbe 73b8 0d3d 6581 c2be
00000240: bb94 193c 6201 b1bd 4685 883d b47f 9d3d
00000250: 79c2 823d e635 f8bd 4ece 453e 182d c83d
00000260: da6a fbbd aed9 b93d 64cf 90bd 837c c53e
00000270: e3ae dc3d 9d06 d63b 3a50 4fbe 606b efbd
00000280: a9b9 48be 0dfd f7bd bb89 6cbe ec7d d5bd
00000290: 0eb0 e5be 2659 6d3e 1de7 d4bd 711e 94be
000002a0: c524 bcbe 45ff 733d 718f 843e 178d e6bd
000002b0: ff72 03bf 496b b8be f6d9 c33d f8f5 5e3e
000002c0: 6ab6 083f bbf6 ebbe ef37 b7be e899 3b3e
000002d0: 03b6 a43e 1576 84bd eef7 babe 18fc 9cbe
000002e0: ded3 703e 5e0a f4be fb74 6cbe 76e0 cfbe
000002f0: ac38 ddbc 8e48 6a3e c000 c03e a9f2 483d
00000300: 0653 643e 34d9 f8bd 12e5 95bd abb3 e8bd
00000310: 6c94 48be d3ee 90bd b01f 033e d1ea 98be
00000320: d8b1 4cbe 76ff 10be 6a70 243e de52 523e
00000330: 5f84 84be 1903 7e3d 6cc3 2c3d 9b1e 90bd
00000340: b116 363d 0eb8 7abd d378 c13d 2dc9 03bd
00000350: f2a3 a73d 5627 273e 13ce 5abe 994c 7fbe
00000360: 91ab 84bd e226 31be 6470 f73d 6641 33be
00000370: 198e 11be 4cc8 c1bd 3404 be3c 99e4 143e
00000380: 700e 353e 7e80 dabc c790 803e 0197 12be
00000390: a4be f23e 10e7 cabc d97a 173c 414e b3be
000003a0: 8eda 2bbe 1d06 90bd 322e f23d 1455 cd3d
000003b0: ef99 8d3e e6ee b3bd d5f1 1d3d 7557 e8be
000003c0: 1264 583f 2da7 1cbe aa38 35bf 1205 c73d
000003d0: 29cd 1cbd 35ea 8bbc 60aa 7ebf b138 83bd
000003e0: 0413 aa3d c5ac 153f 1b00 1d3d b837 fcbd
000003f0: 8f5f 23be 1aaa 7cbd 7f58 763d 5efc 9ebc
-0.12325722 0.14350474 -0.053811695 -0.027519027 0.11620172 0.18517406 -0.12819517 0.16675588
-0.21000016 0.110156484 0.1734326 -0.03949486 -0.03162847 0.081465155 -0.1792457 0.19608225
0.09846251 0.22049105 0.02332302 -0.0410725 -0.043331083 0.12525617 0.042699892 0.115894936
-0.065416776 0.37476394 -0.24074893 -0.24264991 0.04247629 0.18883781 -0.29335642 -0.0045006573
0.13828611 -0.035177387 0.15337677 0.35361114 -0.024531217 -0.23231697 0.06701127 -0.20426223
0.20993513 -0.1118434 -0.21162735 -0.12815566 0.0714418 -0.013361892 0.077622436 -0.17537266
-0.23661043 -0.0030818493 0.21870007 -0.25077882 -0.18977113 0.16869771 0.050024275 -0.103900686
-0.2421021 -0.1441808 0.21372926 0.3767451 -0.14112994 -0.19892295 -0.010172401 0.08148945
0.0806805 -0.17091073 -0.15353355 -0.083594196 0.043586083 0.04242772 0.07216042 -0.048694316
0.036100376 0.10751109 -0.016354643 0.033294387 0.12762326 -0.08238285 0.073258296 0.19138874
-0.28253576 -0.122135796 0.097338565 0.026787478 0.044459943 -0.26223335 0.22695152 -0.100282036
-0.044315528 0.119988576 0.124540836 -0.19981046 0.16234426 0.121533684 -0.07955003 -0.21015896
0.066220276 -0.12434059 -0.14752296 -0.021254685 0.102506734 -0.047897503 -0.049913526 0.109856844
0.03296693 -0.15034755 -0.10628928 0.098357774 -0.34270748 0.052266773 0.022451032 0.18933803
0.09386642 0.2097112 -0.051342353 -0.10274566 -0.17070319 0.22738552 0.046595283 -0.008317612
-0.20155317 0.18302137 0.4490247 -0.029739555 0.047982723 -0.19123973 -0.07334099 -0.15750429
0.25359607 -0.04282721 -0.21635634 0.13772295 -0.2880704 -0.10246362 0.16103652 0.13691753
0.16187501 -0.04546911 -0.15959796 -0.15852559 -0.20143901 -0.15157853 0.034599733 -0.37989345
0.009373839 -0.08642842 0.06666045 0.07690373 0.06384749 -0.12119655 0.1931698 0.09774226
-0.1227624 0.09074722 -0.070708066 0.38571557 0.107755445 0.00653155 -0.20245448 -0.11690402
-0.19602074 -0.121088125 -0.23099415 -0.10424408 -0.44860882 0.23178539 -0.10395644 -0.28929475
-0.36746803 0.059569616 0.25890687 -0.112573795 -0.51347345 -0.36019352 0.09563057 0.21773517
0.5340334 -0.46086678 -0.3578486 0.1832043 0.32170114 -0.06467835 -0.3651728 -0.30661082
0.23518321 -0.4766416 -0.230915 -0.40600938 -0.027004562 0.2287924 0.37500572 0.049059544
0.22297296 -0.12150803 -0.07319082 -0.11362394 -0.19587868 -0.07076802 0.12805057 -0.2986665
-0.19989717 -0.1415995 0.16058508 0.20539424 -0.2588224 0.062014673 0.042178556 -0.070370875
0.044455234 -0.061210684 0.094468735 -0.032174278 0.08185567 0.16323599 -0.21367674 -0.24931563
-0.06478036 -0.17299989 0.12081984 -0.17505416 -0.14214362 -0.09462032 0.023195364 0.14540328
0.17681289 -0.026672598 0.25110456 -0.14315416 0.47411072 -0.024768382 0.009245598 -0.3502064
-0.16782591 -0.07032416 0.11825217 0.10025993 0.27656505 -0.08785801 0.038560707 -0.45379224
0.84527695 -0.15298147 -0.7078959 0.09717764 -0.038281593 -0.017079452 -0.9947872 -0.064072974
0.08304408 0.5846675 0.03833018 -0.12315315 -0.15954421 -0.06168566 0.06014299 -0.019407447
