TS-CVAE/experiments/EOT/models/models_24_Jul_2021_19_35_18_eot/model_registrar-175.pt (torch_old, 552549 bytes, 43 tensors)

weight_ih_l0 f4 [128, 6]
0.28841996 0.68449724 -0.3365327 -0.24815485 -0.04180426 0.033213966 -0.2828126 -0.32997775
0.07255808 0.028994039 -0.07519744 -0.1016468 -0.16223119 -0.029171653 0.043047268 -0.086471744
-0.044789746 0.19146508 0.4442416 0.24621807 -0.19496824 -0.35028198 -0.01577598 0.066880606
-0.80017984 -0.39113206 0.3575982 0.35517365 0.0070717796 -0.142881 0.03152642 0.04955232
0.5804499 -0.21165916 0.41636437 -0.738972 -0.60665613 0.36417395 -0.047091193 -0.49691468
-0.07452322 0.15521659 -0.28505597 0.68752503 0.13446185 -0.38843477 0.04531803 0.23986086
0.32263976 -0.6617569 0.0069888677 0.40242493 0.029347628 -0.023629284 -0.19037421 -0.35883638
0.027461458 0.25521109 0.014928218 0.1795175 0.17623873 0.4600811 -0.30714974 -0.5528064
-0.1284508 -0.26640627 0.03673762 0.26430324 -0.26773003 -0.014218628 -0.024908109 0.020753257
-0.35171473 -0.5094071 0.20769802 0.7896165 -0.39658427 0.13484158 -0.56421816 0.28556862
0.2436079 0.009817632 0.04365483 0.04345397 -0.17929924 -0.20984463 -0.3012493 -0.18227683
-0.19114675 0.2801463 -0.73922914 -0.120678656 0.2564612 0.1831045 0.008905645 0.0709147
-0.25838 0.15057266 0.15977329 -0.09859956 0.33362365 -0.16994305 0.08073527 0.26277712
-0.3855442 -0.20426376 0.10452421 -0.016733833 -0.061504383 0.50865686 0.12584329 -0.44590405
-0.009511211 -0.23156919 -0.17552689 -0.46203136 -0.429612 0.27415705 0.085522406 -0.0777139
-0.37967032 0.0057583973 0.137203 -0.0043907217 0.14123248 -0.047108367 -0.0034948923 0.3226176
0.055708215 0.44361633 -0.02018434 0.29438844 0.3096522 -0.5203238 -0.44033176 0.12845024
0.09632474 -0.08919308 0.019809239 -0.08126355 -0.04205137 -0.052234475 -0.0007126998 -0.034755237
0.13646653 -0.10701232 -0.10156883 0.06549761 0.030171309 -0.055518176 0.17583336 -0.10311168
-0.15542579 0.12353796 -0.08447163 -0.06717678 0.1897264 -0.004502312 -0.13765274 0.08137725
0.078327574 0.04778397 0.3950578 0.057089187 -0.080908604 0.078596614 -0.010092525 0.2676995
0.06101778 0.3318069 -0.2923073 -0.041052684 -0.085698314 0.016545173 -0.18483911 0.14387554
-0.39368978 -0.0908927 -0.659211 0.07190392 -0.3844016 -0.41700664 0.42952165 0.29726124
-0.18460129 -0.25731665 -0.099360615 -0.47266364 0.024651539 0.37135926 0.10252684 0.114456505
-0.106056936 0.18074502 -0.35411316 -0.22665007 -0.11660473 -0.110981055 0.17718643 0.043490242
-0.10050599 -0.04321657 0.06319744 -0.02431032 0.15575773 -0.07686558 0.06618504 0.062408138
-0.03696772 -0.023095114 0.22432952 -0.13957562 -0.21480145 -0.24067953 -0.0013223866 -0.04781322
0.14731587 -0.09936206 0.36348334 0.20933628 -0.039082825 0.06828644 0.07970381 -0.21687698
0.5860812 -0.16679536 0.070383385 0.21625036 0.265183 -0.1798385 0.08396243 -0.14213574
0.008118589 -0.23857069 -0.013487087 -0.009820612 0.06535962 -0.17382935 0.04868233 -0.24925038
0.1798695 -0.21742311 -0.22028036 0.26832548 -0.12440595 0.16590843 -0.17374198 -0.24913257
0.16556211 0.31248683 0.014637761 -0.011145761 0.21919034 -0.1595784 0.02981689 -0.23759468
00000000: c8ab 933e 363b 2f3f 044e acbe 4e1c 7ebe
00000010: f23a 2bbd 5e0b 083d d0cc 90be d8f2 a8be
00000020: 5599 943d e884 ed3c 1e01 9abd 332c d0bd
00000030: ef1f 26be 64f9 eebc 5552 303d 1918 b1bd
00000040: 7475 37bd 6c0f 443e a373 e33e 9720 7c3e
00000050: c1a5 47be 2958 b3be a13c 81bc b3f8 883d
00000060: 96d8 4cbf 7642 c8be 1c17 b73e 52d9 b53e
00000070: 63ba e73b 664f 12be d921 013d 60f7 4a3d
00000080: 5d98 143f 2ebd 58be b62d d53e 452d 3dbf
00000090: d14d 1bbf 0275 ba3e b2e2 40bd 9a6b febe
000000a0: a19f 98bd 19f1 1e3e dbf2 91be a401 303f
000000b0: 5eb0 093e ece0 c6be 669f 393d 169e 753e
000000c0: 0a31 a53e e668 29bf df02 e53b a40a ce3e
000000d0: 706a f03c 3392 c1bc 75f1 42be 67b9 b7be
000000e0: daf6 e03c 07ab 823e 7c95 743c 6fd3 373e
000000f0: ed77 343e c08f eb3e bb42 9dbe b884 0dbf
00000100: 9b88 03be 6766 88be 307a 163d c152 873e
00000110: e913 89be 40f5 68bc 170c ccbc bc02 aa3c
00000120: f413 b4be 8168 02bf caae 543e 4f24 4a3f
00000130: 180d cbbe e913 0a3e 9a70 10bf 0d36 923e
00000140: 5974 793e 22da 203c 68cf 323d cafc 313d
00000150: 389a 37be 83e1 56be 593d 9abe c7a6 3abe
00000160: f9bb 43be 566f 8f3e 1f3e 3dbf 5f26 f7bd
00000170: e24e 833e bf7f 3b3e fce8 113c ba3b 913d
00000180: 624a 84be b82f 1a3e 9c9b 233e 91ee c9bd
00000190: b8d0 aa3e 8d05 2ebe 8958 a53d b98a 863e
000001a0: 0d66 c5be 852a 51be ca10 d63d 6415 89bc
000001b0: 05ec 7bbd 5637 023f 10dd 003e 894d e4be
000001c0: e9d4 1bbc 7920 6dbe 52bd 33be 608f ecbe
000001d0: 1bf6 dbbe 505e 8c3e 5f26 af3d 7728 9fbd
000001e0: 2664 c2be f0b0 bc3b f17e 0c3e 0be0 8fbb
000001f0: 3f9f 103e b4f4 40bd 900a 65bb 222e a53e
00000200: 4c2e 643d ae21 e33e a159 a5bc 15ba 963e
00000210: bc8a 9e3e f133 05bf 2a73 e1be 7688 033e
00000220: e845 c53d ddaa b6bd fc46 a23c 816d a6bd
00000230: 0f3e 2cbd d1f3 55bd 79d4 3aba 825b 0ebd
00000240: e2bd 0b3e 4629 dbbd 5203 d0bd 9c23 863d
00000250: d229 f73c 0767 63bd a90d 343e 372c d3bd
00000260: f027 1fbe 7801 fd3d 76ff acbd fb93 89bd
00000270: a347 423e 2188 93bb d7f4 0cbe 1ea9 a63d
00000280: 356a a03d 20b9 433d 0445 ca3e 5ad6 693d
00000290: 69b3 a5bd 43f7 a03d 1e5b 25bc e90f 893e
000002a0: c8ed 793d 98e2 a93e 4da9 95be dc26 28bd
000002b0: 9982 afbd be89 873c 7746 3dbe 1c54 133e
000002c0: b591 c9be f425 babd 0dc2 28bf 5d42 933d
000002d0: 49d0 c4be e581 d5be 43ea db3e a032 983e
000002e0: 1f08 3dbe 02bf 83be 947d cbbd f800 f2be
000002f0: 06f2 c93c cd22 be3e 98f9 d13d 2c68 ea3d
00000300: 6134 d9bd 3915 393e 524e b5be f516 68be
00000310: 76ce eebd 094a e3bd 5c70 353e d322 323d
00000320: 16d6 cdbd dc03 31bd a96d 813d 7026 c7bc
00000330: f47e 1f3e b46b 9dbd 068c 873d ad9f 7f3d
00000340: 776b 17bd f731 bdbc a3b6 653e e9ec 0ebe
00000350: e9f4 5bbe b274 76be ee53 adba ccd7 43bd
00000360: f9d9 163e 567e cbbd 7d1a ba3e 405c 563e
00000370: 5015 20bd c3d9 8b3d c03b a33d 0015 5ebe
00000380: 6b09 163f 67cc 2abe 2a25 903d bc70 5d3e
00000390: 11c6 873e 9527 38be 7ff4 ab3d 088c 11be
000003a0: d503 053c e04b 74be f1f8 5cbc a2e6 20bc
000003b0: 44db 853d 5200 32be 1f67 473d 7e3b 7fbe
000003c0: b62f 383e 2aa4 5ebe 2d91 61be f561 893e
000003d0: 8cc8 febd e6e3 293e 6be9 31be 9c1c 7fbe
000003e0: 1d89 293e 46fe 9f3e 38d3 6f3c b69c 36bc
000003f0: 6f73 603e 8568 23be 8d42 f43c 054c 73be

weight_hh_l0 f4 [128, 32]
0.21434744 -0.17289098 -0.14220513 0.3382475 0.7218652 -0.09424356 -0.2572723 0.07099324
0.23487976 0.4728018 -0.20593241 0.014864809 -0.42948416 0.42318332 0.31020856 -0.13047628
0.017214488 -0.5017392 -0.00037592315 0.09227398 -0.16445166 0.04351444 0.11759206 -0.16184063
0.46414477 -0.10107254 0.06550308 0.1908362 0.17252317 0.122616485 0.48950118 -0.1984181
1.108163 -0.021349348 -0.0023387882 0.23076656 1.088085 0.2088271 -0.019700423 0.01171034
0.23979945 0.29726803 -0.32625455 -0.747805 -0.69194466 0.53805095 0.31261888 -0.21317679
0.120452866 -0.46199888 -0.21749674 -0.095268734 -0.10951153 0.20261854 0.25936455 0.009086468
0.14871272 -0.071909055 -0.5701416 -0.38408893 -0.09883037 -0.016376477 0.94751537 -0.19419248
0.5951658 -0.03671982 -0.07891604 0.6726028 0.4558906 0.20594446 0.3174888 -0.6400194
0.4543783 0.21806397 0.20407411 -0.06950108 -0.33915687 0.017281841 -0.5886858 -0.12475131
0.12844147 -0.1591018 0.6078871 -1.3623592 -0.06928612 0.76866937 -0.20289649 -0.05032982
-0.047240455 0.082398325 0.009607154 -0.36788478 -0.48621348 0.15292038 0.15803142 -0.08613406
0.116950154 0.16530809 -0.09134351 0.16562687 -0.14242221 -0.12945135 0.20093036 -0.15158933
0.061546512 -0.07010192 -0.10848841 -0.22004797 -0.17387688 0.18941587 -0.37750283 -0.12702483
-0.20108517 0.10352273 0.21272339 -0.40972108 -0.25551087 0.3534911 0.15243742 -0.078003906
-0.36941803 -0.16935422 -0.12303098 -0.11912176 -0.19807889 0.2944689 0.11635865 0.1783946
0.006718132 -0.021902276 -0.0027880026 -0.0082653 0.33393905 0.20500226 0.05826249 -0.049822208
0.14591938 -0.08363661 -0.23130202 -0.24153678 -0.38460758 0.30961227 0.15379864 -0.099783756
-0.06361253 -0.038705785 0.13487883 -0.29778406 -0.075186044 0.72481304 0.119031355 -0.19559385
-0.05759565 -0.09787903 -0.2933225 -0.46997055 -0.31732562 -0.13673942 0.18854618 0.056057677
0.21559446 -0.011013536 -0.28500012 0.067546755 -0.207312 0.37685907 -0.1007334 0.057440415
-0.0045502777 -0.29395488 -0.100481644 -0.2686333 -0.14078742 0.2283889 -0.27059102 0.22721641
0.11713653 0.06341575 -0.25390017 -0.117155835 0.5212862 0.30962133 0.0037187412 0.050844133
-0.5488 -0.21386321 0.22043975 -0.122707196 -0.09071443 0.12930077 0.08159843 0.42532602
0.2754278 0.041120887 -0.08294188 0.73940986 0.031001827 0.31313914 0.43838 -0.5862279
0.61658156 0.21050593 -0.11192276 -0.05636573 -0.284461 0.14339714 -0.69387335 0.09442996
0.010673959 0.024343763 0.5084453 -1.534743 -0.087795414 0.66729826 -0.24143867 -0.08951957
-0.34453878 -0.17363626 0.08186322 -0.5983964 -0.77972054 0.10298337 -0.22261038 -0.1749757
0.26803672 -0.04234255 -0.20136437 -0.22011735 -0.13632862 0.27335912 0.31843373 -0.07340339
0.72755164 -0.003966509 0.38859448 -0.12429296 0.24039896 0.12132923 -0.37594175 0.31512782
0.36293745 0.27246368 0.32577527 -0.6030554 0.0076092253 -0.36618698 -0.61643755 -0.011896265
-0.056953017 0.07449704 -0.051018808 -0.34996727 -0.023148887 0.24013388 -0.051791888 -0.1155388
00000000: e57d 5b3e 550a 31be 399e 11be c72e ad3e
00000010: 28cc 383f c502 c1bd 32b9 83be e764 913d
00000020: 5284 703e 1413 f23e f2df 52be 878b 733c
00000030: 59e5 dbbe 7cab d83e a8d3 9e3e 939b 05be
00000040: 6605 8d3c fb71 00bf 8d17 c5b9 24fa bc3d
00000050: 0466 28be 333c 323d 1bd4 f03d 8db9 25be
00000060: 62a4 ed3e 1fff cebd 7b26 863d 916a 433e
00000070: eaa9 303e 5a1e fb3d e69f fa3e 1d2e 4bbe
00000080: 49d8 8d3f d4e4 aebc 5b46 19bb 124e 6c3e
00000090: 5f46 8b3f c5d6 553e c862 a1bc badc 3f3c
000000a0: fd8d 753e 8433 983e d60a a7be 2670 3fbf
000000b0: 4923 31bf b5bd 093f 950f a03e 044b 5abe
000000c0: feaf f63d 1e8b ecbe 77b7 5ebe 411c c3bd
000000d0: 9547 e0bd 3c7b 4f3e 6ecb 843e 69df 143c
000000e0: 2648 183e 0e45 93bd cdf4 11bf 4ea7 c4be
000000f0: 9467 cabd f627 86bc 5e90 723f 65da 46be
00000100: c95c 183f 8667 16bd bc9e a1bd b22f 2c3f
00000110: 7e6a e93e 1be3 523e e48d a23e 50d8 23bf
00000120: 46a4 e83e 294c 5f3e cef8 503e 9556 8ebd
00000130: f8a5 adbe a692 8d3c 1db4 16bf 9d7d ffbd
00000140: 2986 033e 95eb 22be 7d9e 1b3f c961 aebf
00000150: e2e5 8dbd 84c7 443f 19c4 4fbe a426 4ebd
00000160: 357f 41bd 74c0 a83d 5367 1d3c 655b bcbe
00000170: f9f0 f8be 2997 1c3e fdd2 213e 0e67 b0bd
00000180: 9083 ef3d 8646 293e 4e12 bbbd 179a 293e
00000190: 21d7 11be e58e 04be b0c0 4d3e 3c3a 1bbe
000001a0: 3218 7c3d 9891 8fbd 2c2f debd 4154 61be
000001b0: c80c 32be 3cf6 413e 0d48 c1be cc12 02be
000001c0: 45e9 4dbe ba03 d43d 29d4 593e f6c6 d1be
000001d0: 52d2 82be c9fc b43e 8e18 1c3e 83c0 9fbd
000001e0: 5c24 bdbe 316b 2dbe abf7 fbbd 1cf6 f3bd
000001f0: 31d5 4abe a1c4 963e 724d ee3d 13ad 363e
00000200: c723 dc3b 676c b3bc ecb6 36bb 2e6b 07bc
00000210: 0ffa aa3e 1dec 513e a6a4 6e3d 5f12 4cbd
00000220: e46b 153e ac49 abbd 70da 6cbe 6b55 77be
00000230: 49eb c4be 8085 9e3e 647d 1d3e 6d5b ccbd
00000240: 4947 82bd f589 1ebd ad1d 0a3e 2777 98be
00000250: 24fb 99bd 598d 393f b6c6 f33d c149 48be
00000260: 6be9 6bbd cd74 c8bd 5e2e 96be fb9f f0be
00000270: 8178 a2be 6b05 0cbe 4012 413e bc9c 653d
00000280: cbc4 5c3e 1e72 34bc 89eb 91be f455 8a3d
00000290: 9949 54be acf3 c03e 504d cebd a446 6b3d
000002a0: 7f1a 95bb 4181 96be 52c9 cdbd 4e8a 89be
000002b0: 942a 10be c8de 693e e88a 8abe 6bab 683e
000002c0: 47e5 ef3d 1ee0 813d 34ff 81be 66ef efbd
000002d0: 0373 053f b086 9e3e 20b6 733b f041 503d
000002e0: 287e 0cbf f5fe 5abe f5ba 613e e94d fbbd
000002f0: 7dc8 b9bd 6c67 043e 141d a73d 55c4 d93e
00000300: df04 8d3e 606e 283d 6fdd a9bd f749 3d3f
00000310: 8bf7 fd3c c653 a03e 5873 e03e 0813 16bf
00000320: 4ad8 1d3f de8e 573e c337 e5bd c0df 66bd
00000330: dfa4 91be b3d6 123e afa1 31bf 7f64 c13d
00000340: d4e1 2e3c 926c c73c 7929 023f 7572 c4bf
00000350: 15ce b3bd 0fd4 2a3f b33b 77be 0956 b7bd
00000360: 6367 b0be b4cd 31be e7a7 a73d 8230 19bf
00000370: c49b 47bf f2e8 d23d faf3 63be d42c 33be
00000380: 1c3c 893e 626f 2dbd 7632 4ebe 7166 61be
00000390: bb99 0bbe baf5 8b3e bf09 a33e 8454 96bd
000003a0: d340 3a3f 7df9 81bb dbf5 c63e 4f8d febd
000003b0: 252b 763e 767b f83d 707b c0be 6f58 a13e
000003c0: f0d2 b93e 5c80 8b3e 04cc a63e d761 1abf
000003d0: cf56 f93b dc7c bbbe dace 1dbf 8de8 42bc
000003e0: 9147 69bd e791 983d 19f9 50bd e92e b3be
000003f0: bca2 bdbc a8e5 753e bb23 54bd 9b9f ecbd

bias_ih_l0 f4 [128]
-0.07569792 0.16489677 0.4433074 0.1868206 0.25341362 0.44271854 0.38851136 0.2835321
0.33806288 0.43238652 0.42953736 0.2599639 0.41110817 0.008497184 0.2825438 0.15977716
0.3429021 0.2139002 0.27808964 0.28156957 0.29280117 0.115224525 0.4577521 0.23068865
0.3821615 0.2644106 0.396829 0.20647955 0.106463306 0.22904663 0.11716002 0.50726306
0.08881583 -0.21594423 -0.32037395 0.003460183 -0.4053536 -0.40654287 -0.42456278 -0.063775554
-0.31995794 -0.027584529 0.011313963 -0.010119383 -0.22250375 0.04617383 -0.075091064 -0.37849408
-0.37762287 0.024311908 -0.13310674 0.10137599 -0.56597024 0.0061236075 -0.087263815 0.12920943
-0.25698736 0.08239374 0.033141438 0.0076254774 -0.083042376 -0.3781419 -0.45316413 -0.3385384
0.12903203 0.12503421 -0.06398017 0.11275781 -0.106804095 0.02260239 0.13094428 -0.05374502
-0.051619772 0.07774428 -0.06837248 0.0182865 -0.1380168 -0.032320935 -0.046404842 -0.1115202
-0.082298264 -0.118984334 0.08332461 -0.15859763 0.031561825 0.13587883 0.12674569 -0.15062657
0.12109217 -0.07184903 0.025305634 -0.14826898 -0.12436588 0.093582965 0.036083132 -0.05523313
0.27150086 0.2895291 0.5733118 0.23721926 0.47789592 0.4318104 0.4745925 0.36608154
0.3058166 0.5377574 0.28753045 0.37548265 0.53647095 0.20447728 0.37054574 0.45186013
0.5798933 0.21877131 0.45366794 0.15000325 0.6199767 0.13174887 0.53183675 0.34118918
0.36540127 0.4308439 0.61881536 0.20766222 0.21998337 0.49125484 0.3414058 0.39146757
00000000: 8307 9bbd b3da 283e 30f9 e23e e64d 3f3e
00000010: 6ebf 813e 01ac e23e f6ea c63e 1f2b 913e
00000020: 9416 ad3e c461 dd3e 52ec db3e fd19 853e
00000030: c57c d23e c637 0b3c 95a9 903e a09c 233e
00000040: dd90 af3e a708 5b3e c461 8e3e e329 903e
00000050: 09ea 953e d6fa eb3d 7c5e ea3e a539 6c3e
00000060: acaa c33e d360 873e 2c2d cb3e 606f 533e
00000070: 6f09 da3d 338b 6a3e 98f1 ef3d fedb 013f
00000080: 13e5 b53d 7c20 5dbe 0e08 a4be 3dc4 623b
00000090: 828a cfbe 6326 d0be 4b60 d9be c29c 82bd
000000a0: 87d1 a3be f3f8 e1bc 335e 393c c5cb 25bc
000000b0: 06d8 63be c520 3d3d 58c9 99bd fac9 c1be
000000c0: c957 c1be c429 c73c 224d 08be 379e cf3d
000000d0: 6de3 10bf 8ba8 c83b 5fb7 b2bd 7a4f 043e
000000e0: d993 83be 0dbe a83d 51bf 073d 24df f93b
000000f0: 1f12 aabd d19b c1be 2105 e8be e854 adbe
00000100: f920 043e f808 003e 0908 83bd 91ed e63d
00000110: 1bbc dabd a628 b93c 4216 063e bd23 5cbd
00000120: 416f 53bd 6538 9f3d df06 8cbd 92cd 953c
00000130: 4754 0dbe f562 04bd 0113 3ebd b464 e4bd
00000140: fe8b a8bd 0fae f3bd 18a6 aa3d 6b67 22be
00000150: f946 013d d223 0b3e 9fc9 013e da3d 1abe
00000160: 2cff f73d 9625 93bd c34d cf3c d3d3 17be
00000170: 8ab3 febd 6da8 bf3d e8cb 133d 223c 62bd
00000180: 2902 8b3e 283d 943e 90c4 123f 9be9 723e
00000190: c6ae f43e 4116 dd3e cafd f23e 0a6f bb3e
000001a0: fe93 9c3e 78aa 093f 3137 933e 433f c03e
000001b0: 2956 093f 7e62 513e 2cb8 bd3e 365a e73e
000001c0: e373 143f 9605 603e 2a47 e83e 749a 193e
000001d0: cbb6 1e3f 2de9 063e 7426 083f 59b0 ae3e
000001e0: e015 bb3e 9297 dc3e af6a 1e3f 68a5 543e
000001f0: 5243 613e c185 fb3e becc ae3e 706e c83e

bias_hh_l0 f4 [128]
-0.11998778 0.1780044 0.30951706 0.34830552 0.39718914 0.19881831 0.28686163 0.4610965
0.42320192 0.59727985 0.17308271 0.13513626 0.17281337 0.3027666 0.32310763 0.3201977
0.25593567 0.20646013 0.18239959 0.23729284 0.44047973 0.29594117 0.48627767 0.29498675
0.2838222 0.24928193 0.47038355 0.11489746 0.024837028 0.21970369 0.1866801 0.5574528
5.683087e-05 -0.18985447 -0.08268454 -0.20268363 -0.09698864 -0.24369828 -0.2836204 -0.2086011
-0.24707222 -0.08380669 0.030248515 -0.071308635 -0.22528599 -0.1332632 0.030863939 -0.3283818
-0.50842154 -0.043611977 -0.10475397 -0.07990981 -0.4220652 -0.15667251 -0.31033108 0.10122182
-0.46056896 -0.22623414 -0.22039552 -0.053067468 -0.11126338 -0.14422601 -0.32107964 -0.03714701
-0.15422693 -0.14373845 0.1060986 0.057126414 0.14985624 0.0549235 -0.055198297 -0.0068542827
0.0896383 -0.015873939 0.059460368 0.035580028 0.04269591 0.034123328 -0.12410977 0.03473836
0.0106430305 0.12340603 0.008771583 -0.2851788 -0.12541357 0.07542533 -0.11684917 0.09745164
-0.117405094 0.03379137 0.028272713 -0.03342219 -0.11291123 -0.18506077 0.011533946 0.04876262
0.15646097 0.4238539 0.41720805 0.4645347 0.57650816 0.3351996 0.6731751 0.67667526
0.25181526 0.56010795 0.52879757 0.452375 0.5486328 0.39766 0.29039952 0.45972404
0.59838593 0.081979334 0.55876386 0.02651387 0.583025 0.322843 0.68361056 0.4737795
0.55323094 0.4064922 0.67073077 0.21386574 0.09064339 0.48571295 0.36842373 0.5922088
00000000: 27bc f5bd c946 363e 0579 9e3e 1a55 b23e
00000010: 605c cb3e 0797 4b3e 87df 923e d714 ec3e
00000020: ecad d83e 55e7 183f 983c 313e 2961 0a3e
00000030: fdf5 303e 3904 9b3e 5d6e a53e f4f0 a33e
00000040: 000a 833e 496a 533e f5c6 3a3e e5fc 723e
00000050: 8f86 e13e 9a85 973e 63f9 f83e 8108 973e
00000060: 2551 913e c343 7f3e 1dd6 f03e 5c4f eb3d
00000070: 0677 cb3c 01fa 603e 1129 3f3e 3ab5 0e3f
00000080: af5d 6e38 3669 42be 8356 a9bd 4c8c 4fbe
00000090: fba1 c6bd 0b8c 79be b136 91be 879b 55be
000000a0: 8000 7dbe d8a2 abbd bccb f73c 430a 92bd
000000b0: 5fb1 66be 2676 08be 5fd6 fc3c a921 a8be
000000c0: ea27 02bf 79a2 32bd 4089 d6bd c1a7 a3bd
000000d0: ee18 d8be c26e 20be b7e3 9ebe 634d cf3d
000000e0: b2cf ebbe eca9 67be 5daf 61be 465d 59bd
000000f0: 0ede e3bd fcaf 13be 8d64 a4be 7727 18bd
00000100: aaed 1dbe 2c30 13be 394a d93d 63fd 693d
00000110: ea73 193e 77f7 603d 9c17 62bd e499 e0bb
00000120: 4994 b73d 100a 82bc b78c 733d 5dbc 113d
00000130: e8e1 2e3d e7c4 0b3d 432d febd d049 0e3d
00000140: 1b60 2e3c 4dbc fc3d b0b6 0f3c f502 92be
00000150: 6a6c 00be 9878 9a3d 9e4e efbd ba94 c73d
00000160: 1572 f0bd d268 0a3d 2d9c e73c b5e5 08bd
00000170: 013e e7bd 9280 3dbe e0f8 3c3c 50bb 473d
00000180: 4e37 203e 6103 d93e 4b9c d53e 7ed7 ed3e
00000190: 0a96 133f 489f ab3e 3455 2c3f 973a 2d3f
000001a0: eeed 803e 3c63 0f3f 475f 073f b29d e73e
000001b0: 3373 0c3f 179a cb3e 3faf 943e f360 eb3e
000001c0: d22f 193f c8e4 a73d 260b 0f3f 9e33 d93c
000001d0: 2041 153f ad4b a53e 1a01 2f3f 3a93 f23e
000001e0: 8ba0 0d3f bf1f d03e 03b5 2b3f 9fff 5a3e
000001f0: 3ea3 b93d 5eaf f83e 09a2 bc3e ff9a 173f

weight_ih_l0 f4 [128, 2]
0.8323641 0.18634892 -0.2248947 -0.082244165 0.27589214 0.38984334 -0.19249846 -0.07120734
-0.04889233 -0.11640994 -0.0074700927 0.12236528 0.01536596 -0.02913771 0.0086242445 -0.19066247
0.49741253 -0.093655564 0.02843927 -0.08315866 -0.09393577 0.23253354 -0.055508777 0.038466334
-0.1508389 -0.08162109 0.0052807326 -0.27906963 0.02454552 0.0431124 -0.009903747 0.09898988
-0.107165106 0.05407138 0.11519262 0.294018 0.041133616 -0.010566597 -0.093340635 -0.08381167
0.72633696 -0.097301856 -0.14528887 0.038946975 0.00902583 0.06907304 -0.16302247 0.06084568
0.15053314 0.040198155 0.009256131 -0.0026361141 0.33635443 0.13737388 -0.14634098 -0.015980508
-0.078696914 0.20291941 0.10497953 0.1269064 0.12726955 0.19309388 -0.16549516 0.020247689
-0.110145055 -0.14770658 0.013439257 -0.073716015 0.071031064 0.018664816 0.0908092 0.01947808
0.15785174 0.0050522755 -0.06827963 -0.021857755 0.06861991 0.1696619 0.21237926 0.12029862
-0.23391633 0.062022496 0.10032064 -0.09693964 0.006459421 -0.13229457 -0.107876725 0.19120842
-0.037392154 0.11750156 0.028529268 0.111912966 0.058478314 0.07764064 0.028325096 -0.06416459
-0.0824347 -0.12178518 -0.38372833 -0.45063698 -0.005464633 0.028694045 -0.30814376 -0.20754857
-0.47648025 -0.0251228 0.35997477 -0.070199095 -0.023876827 -0.08114842 0.042457003 -0.08365522
-0.24405287 -0.11223994 -0.0022298035 0.07355636 -0.0036390922 -0.06061221 0.06871327 -0.022148717
0.3963115 0.046805635 0.032157123 0.04243801 0.036721706 -0.1521754 0.04619717 0.011951677
0.22267318 0.56738865 -0.40352848 -0.35101953 -0.21502939 -0.14022294 -0.08901995 -0.24067022
-0.54722375 0.079641156 0.33932406 -0.2742453 -0.29354703 -0.49380276 0.27603132 -0.2942308
0.33245772 0.053420138 -0.03368982 0.13682367 0.24235696 0.56762683 -0.22104065 0.7383715
-0.2507179 0.12084105 -0.03526492 0.15197113 -0.119641386 -0.49911073 0.022815803 0.7182778
0.08922721 0.053394172 -0.22506562 0.07489585 -0.0078266375 0.11513454 0.047767214 0.04109967
-0.20424978 0.10458501 -0.06431088 0.12317863 -0.027321357 -0.31602478 1.1060109 -0.07613732
0.24952862 0.5403438 -0.18321104 0.5735712 -0.5455133 0.18315391 0.7658147 0.09093646
0.54582804 0.010412593 0.30168256 0.2903063 0.2199626 0.14395954 -0.07621074 -0.37181702
-0.5109384 -0.21626547 1.0024245 0.3630692 0.14568534 -0.3005624 0.43969256 -0.066228695
-0.542595 0.48283568 -0.09696899 -0.049366277 -0.6051784 -0.8583644 -0.43996593 0.43982908
-0.7092934 0.2319309 0.0894679 -0.31310248 0.8010117 -0.044478618 0.076484166 -0.24430221
0.12477522 0.26054904 0.29618618 0.4754454 0.08429756 0.16228336 -0.13416724 0.52999514
-0.6923921 -0.3349125 -0.4198648 -0.86382204 -0.020197561 -0.0034644753 -0.020680444 0.043397196
4.186486e-05 0.38025758 -0.027970636 0.07713635 0.47288898 -0.26622418 -0.3010529 -0.3083494
0.39754197 0.3708078 0.29035372 -0.5349204 0.15405999 -0.36500263 0.0057745064 0.15579043
-0.32461926 -0.32579392 -0.1591204 -0.48523358 -0.1213551 0.08698269 -0.07171567 -0.4511861
00000000: d015 553f 40d2 3e3e cc4a 66be a16f a8bd
00000010: bc41 8d3e 8c99 c73e 511e 45be 27d5 91bd
00000020: 5343 48bd 5668 eebd aec7 f4bb a69a fa3d
00000030: 82c1 7b3c 35b2 eebc b44c 0d3c 063d 43be
00000040: dbac fe3e 7dce bfbd 79f9 e83c 164f aabd
00000050: 6661 c0bd 461d 6e3e 2c5d 63bd e08e 1d3d
00000060: 8375 1abe f528 a7bd ff09 ad3b 37e2 8ebe
00000070: b013 c93c a196 303d 5343 22bc 35bb ca3d
00000080: 6179 dbbd f479 5d3d 1cea eb3d 8789 963e
00000090: b97b 283d 851f 2dbc 6029 bfbd 74a5 abbd
000000a0: 38f1 393f 3246 c7bd 9bc6 14be dd86 1f3d
000000b0: 13e1 133c 2a76 8d3d 5def 26be 5239 793d
000000c0: 5c25 1a3e d2a6 243d 07a7 173c a8c2 2cbb
000000d0: a636 ac3e bdab 0c3e 69da 15be 8ee9 82bc
000000e0: d92b a1bd 1bca 4f3e 82ff d63d c0f3 013e
000000f0: f352 023e 67ba 453e 9077 29be 7bde a53c
00000100: bb93 e1bd 6540 17be 5430 5c3c 6cf8 96bd
00000110: bc78 913d f5e6 983c 2dfa b93d 7f90 9f3c
00000120: e3a3 213e 8f8d a53b 31d6 8bbd 090f b3bc
00000130: 9888 8c3d d9bb 2d3e f379 593e 1f5f f63d
00000140: c387 6fbe 4d0b 7e3d e874 cd3d 4a88 c6bd
00000150: 8da9 d33b 3a78 07be 79ee dcbd 24cc 433e
00000160: 8428 19bd a8a4 f03d 36b6 e93c a032 e53d
00000170: f586 6f3d 0e02 9f3d 080a e83c b968 83bd
00000180: 86d3 a8bd 826a f9bd 0a78 c4be e4b9 e6be
00000190: aa10 b3bb c60f eb3c 05c5 9dbe 9d87 54be
000001a0: 38f5 f3be 55ce cdbc 9d4e b83e 8bc4 8fbd
000001b0: 5699 c3bc 2531 a6bd 65e7 2d3d 6e53 abbd
000001c0: ffe8 79be 0ede e5bd e521 12bb b8a4 963d
000001d0: d67d 6ebb 8244 78bd 8bb9 8c3d 3a71 b5bc
000001e0: 57e9 ca3e 44b7 3f3d 30b7 033d 7bd3 2d3d
000001f0: 8069 163d ded3 1bbe 3e39 3d3d f7d0 433c
00000200: 7004 643e 6240 113f 499b cebe d5b8 b3be
00000210: aa30 5cbe 9a96 0fbe 1750 b6bd 4172 76be
00000220: db16 0cbf e71a a33d e2bb ad3e e169 8cbe
00000230: cc4b 96be b7d3 fcbe fa53 8d3e 6ba5 96be
00000240: e637 aa3e 13cf 5a3d 56fe 09bd 811b 0c3e
00000250: 6c2c 783e fe4f 113f 7b58 62be ea05 3d3f
00000260: 195e 80be 837b f73d f371 10bd 529e 1b3e
00000270: 8b06 f5bd 718b ffbe 35e8 ba3c 0ee1 373f
00000280: c1bc b63d d9b3 5a3d 9a77 66be ff62 993d
00000290: 4c3b 00bc a8cb eb3d 8ea7 433d 2158 283d
000002a0: db26 51be aa30 d63d 6cb5 83bd 1445 fc3d
000002b0: 0ad1 dfbc 00ce a1be c491 8d3f e2ed 9bbd
000002c0: 6e84 7f3e f953 0a3f ad9b 3bbe 90d5 123f
000002d0: c2a6 0bbf b38c 3b3e 6f0c 443f e53c ba3d
000002e0: 63bb 0b3f 9599 2a3c 2376 9a3e 07a3 943e
000002f0: e03d 613e 216a 133e 6014 9cbd cd5e bebe
00000300: dccc 02bf b274 5dbe 724f 803f 35e4 b93e
00000310: 8a2e 153e 51e3 99be 621f e13e e9a2 87bd
00000320: 82e7 0abf 3d36 f73e ae97 c6bd 4b34 4abd
00000330: f9ec 1abf c5bd 5bbf 3743 e1be 4731 e13e
00000340: 4194 35bf 4b7f 6d3e f23a b73d f84e a0be
00000350: 1a0f 4d3f 362f 36bd bba3 9c3d 5c2a 7abe
00000360: 278a ff3d af66 853e b7a5 973e 946d f33e
00000370: 33a4 ac3d 9c2d 263e 2363 09be c3ad 073f
00000380: 9c40 31bf a779 abbe 85f8 d6be 7123 5dbf
00000390: 5b75 a5bc 400c 63bb 096a a9bc 42c1 313d
000003a0: 0d98 2f38 1fb1 c23e ad22 e5bc aaf9 9d3d
000003b0: 811e f23e 894e 88be 9b23 9abe f9df 9dbe
000003c0: 9f8a cb3e 85da bd3e 3ea9 943e 8bf0 08bf
000003d0: e7c1 1d3e a0e1 babe 1238 bd3b 8787 1f3e
000003e0: 7f34 a6be 76ce a6be 75f0 22be 8970 f8be
000003f0: 0689 f8bd fb23 b23d aadf 92bd dd01 e7be

weight_hh_l0 f4 [128, 32]
0.61633813 -0.72176605 -1.4785663 0.03617898 -0.3370232 0.19829167 -0.29480344 0.04248297
0.16774468 -0.20382781 1.1241235 0.123198606 -0.08615805 0.28374833 -0.3702566 -0.08226263
0.21982323 -0.0832648 -0.009616834 0.39325804 -0.16448767 -0.14911592 -0.2240985 0.24352075
-0.023546027 0.5310283 -0.36543873 0.31294242 0.7786814 0.08375957 -0.006517736 -0.13949148
0.050582588 -0.201174 0.02760231 -0.1145999 0.2638794 -0.26781443 -0.40646085 0.096922226
-0.3381838 0.15055805 -0.19282138 0.13325012 -0.04962373 0.39792982 0.32910535 -0.42812878
-0.20683901 0.3527542 -0.04650665 0.24656852 0.19773944 -0.42799288 -0.03687477 0.36862078
-0.47737998 0.26710695 0.6260503 0.073572814 0.37590793 -0.1650964 -0.3450615 -0.46339712
-0.22897086 -0.054333474 0.15434912 -0.13068156 0.03415268 -0.21468627 -0.30285886 -0.018434186
-0.26560766 -0.006366792 -0.24603431 0.43751103 -0.10181716 0.5128534 0.034344144 -0.09686111
-0.08589651 0.17718795 -0.2016569 -0.21064672 0.3574864 -0.25965965 -0.2933072 0.40822324
-0.15791295 0.22073437 0.08086396 0.1369399 0.34332335 0.22484669 0.011473152 -0.56527835
0.39022684 -0.096225955 -0.08082522 -0.19533347 0.28194425 0.12393973 -0.088053524 0.07906179
0.29930842 0.1130035 -0.035258945 0.14646548 0.006280498 0.13429627 -0.106206514 -0.16158837
-0.14917776 0.20241395 -0.16602688 -0.12869307 -0.032115635 0.092194684 -0.0694748 0.11070369
-0.0062133935 0.4385751 0.022574756 -0.013053715 0.20511667 0.048810814 -0.046051085 -0.28660566
0.1570643 0.22242835 -0.083838046 0.09060807 0.17102857 0.22678001 -0.10383212 -0.16185333
0.012059719 0.30137542 0.0778107 0.67853796 0.021164266 -0.028212177 0.24857187 -0.14682268
-0.18628053 -0.04779024 -0.70020825 -0.29057533 -0.04396736 -0.11908732 -0.12334167 -0.31371006
-0.049805213 0.21433972 0.02556858 -0.05074962 -0.31940332 0.13531277 0.006432362 0.15499572
0.7147192 -0.4959625 -0.5626415 -0.20273486 -0.18180372 0.36650622 -0.16766278 0.6047652
0.3270032 0.25166392 0.0654302 -0.40969035 -0.0032768755 -0.0184023 -0.12644708 -0.2512952
-0.13446085 -0.05837282 -0.23360114 0.77758026 -0.66414726 -0.18458506 -0.090217374 0.23701543
0.26602843 0.16887413 -0.0849252 0.20481364 0.3826653 -0.13288195 0.082443744 -0.0880703
-0.010159872 0.30839157 0.21963319 0.106799394 0.089252055 -0.11600088 -0.07704364 -0.04201662
-0.145835 0.059590038 -0.059985243 0.1045454 0.12023625 0.01202458 -0.07757647 -0.15007082
0.061359264 -0.06004639 0.042387437 -0.11063871 0.16681214 0.16315877 -0.10322763 0.02223863
0.034537625 0.046973657 0.09525761 -0.090423055 -0.084547035 -0.06391474 -0.0032535547 0.14191228
0.035751693 0.11823134 0.09823005 0.006489595 0.25627586 -0.617986 -0.038998116 0.073096536
-0.31875575 -0.1835837 -0.09032344 0.28487757 0.18726371 0.04252972 0.13439105 -0.034493327
-0.106469065 0.11038086 -0.23721245 0.056495763 0.22384892 -0.06906815 -0.18800496 -0.014839705
-0.06404972 0.20759153 0.46539837 0.14960855 0.16003868 0.015802301 -0.11891067 -0.062196728
00000000: 56c8 1d3f a9c5 38bf a941 bdbf 6930 143d
00000010: 4e8e acbe f90c 4b3e 7af0 96be 9f02 2e3d
00000020: 43c5 2b3e 3db8 50be 47e3 8f3f 8d4f fc3d
00000030: a273 b0bd 7647 913e 4692 bdbe 4f79 a8bd
00000040: 5719 613e bc86 aabd ed8f 1dbc 1e59 c93e
00000050: 756f 28be d8b1 18be 147a 65be 815d 793e
00000060: 99e3 c0bc 78f1 073f c91a bbbe fd39 a03e
00000070: aa57 473f 238a ab3d bb92 d5bb dbd6 0ebe
00000080: b02f 4f3d 8f00 4ebe 3d1e e23c 5ab3 eabd
00000090: 331b 873e f91e 89be a31b d0be 297f c63d
000000a0: 6d26 adbe e42b 1a3e f872 45be b872 083e
000000b0: 4142 4bbd 75bd cb3e 7f80 a83e b233 dbbe
000000c0: 9bcd 53be 339c b43e c27d 3ebd 757c 7c3e
000000d0: 357c 4a3e e221 dbbe 000a 17bd ddbb bc3e
000000e0: 266b f4be 3ec2 883e d544 203f 58ad 963d
000000f0: 0177 c03e 080f 29be e7ab b0be 6342 edbe
00000100: 5677 6abe c78c 5ebd b20d 1e3e 63d1 05be
00000110: aee3 0b3d b8d6 5bbe 5110 9bbe 4a03 97bc
00000120: bafd 87be 86a0 d0bb 6bf0 7bbe 7201 e03e
00000130: 8485 d0bd 5c4a 033f 72ac 0c3d 1e5f c6bd
00000140: 82ea afbd c270 353e 257f 4ebe c6b3 57be
00000150: 7508 b73e 1cf2 84be 5c2c 96be a302 d13e
00000160: efb3 21be 3108 623e 019c a53d f939 0c3e
00000170: 14c8 af3e 363e 663e e3f9 3b3c 15b6 10bf
00000180: d0cb c73e 1d12 c5bd b187 a5bd 7f05 48be
00000190: ff5a 903e 1dd4 fd3d 6855 b4bd 26eb a13d
000001a0: f43e 993e 616e e73d af6b 10bd 0cfb 153e
000001b0: a3cc cd3b f684 093e cd82 d9bd 6c77 25be
000001c0: 0ec2 18be 9a45 4f3e f302 2abe 1ec8 03be
000001d0: af8b 03bd 91d0 bc3d ce48 8ebd 9eb8 e23d
000001e0: b999 cbbb ea8c e03e b2ee b83c 40df 55bc
000001f0: 1b0a 523e d9ed 473d 10a0 3cbd fabd 92be
00000200: 77d5 203e 42c4 633e 48b3 abbd b990 b93d
00000210: 1d22 2f3e 0539 683e efa5 d4bd e1bc 25be
00000220: 2196 453c e14d 9a3e 375b 9f3d aab4 2d3f
00000230: af60 ad3c 391d e7bc a089 7e3e af58 16be
00000240: 53c0 3ebe b3bf 43bd d940 33bf 4ac6 94be
00000250: 1e17 34bd 0ee4 f3bd 8f9a fcbd 9b9e a0be
00000260: 8d00 4cbd df7b 5b3e 3375 d13c d5de 4fbd
00000270: d588 a3be 6e8f 0a3e 90c6 d23b 33b7 1e3e
00000280: d6f7 363f ccee fdbe 4609 10bf ba99 4fbe
00000290: c12a 3abe b4a6 bb3e cbaf 2bbe e4d1 1a3f
000002a0: f76c a73e 18da 803e 4500 863d efc2 d1be
000002b0: d9c0 56bb 6cc0 96bc 587b 01be c4a9 80be
000002c0: 1bb0 09be 5718 6fbd 2335 6fbe 800f 473f
000002d0: 8e05 2abf de03 3dbe e3c3 b8bd 2cb4 723e
000002e0: e134 883e 57ed 2c3e 43ed adbd abba 513e
000002f0: b5ec c33e 3512 08be 44d8 a83d 345e b4bd
00000300: 9775 26bc 80e5 9d3e 86e7 603e a4b9 da3d
00000310: c8c9 b63d df91 edbd 0ec9 9dbd 9f19 2cbd
00000320: c555 15be af14 743d 16b3 75bd e61b d63d
00000330: 6c3e f63d be02 453c 6ae0 9ebd 2aac 19be
00000340: da53 7b3d 34f3 75bd 739e 2d3d 8c96 e2bd
00000350: cdd0 2a3e 1813 273e 0269 d3bd ca2d b63c
00000360: 5377 0d3d 7367 403d 6c16 c33d b92f b9bd
00000370: ff26 adbd bbe5 82bd 9739 55bb 7451 113e
00000380: 5e70 123d 4623 f23d d62c c93d aba6 d43b
00000390: 9736 833e 5534 1ebf 7dbc 1fbd a3b3 953d
000003a0: f433 a3be 5efd 3bbe 7ffb b8bd 79db 913e
000003b0: 0fc2 3f3e a533 2e3d cf9d 093e e048 0dbd
000003c0: 740c dabd 5c0f e23d d2e7 72be 1a68 673d
000003d0: a738 653e 9a73 8dbd 5f84 40be 3c22 73bc
000003e0: 802c 83bd e092 543e b248 ee3e fc32 193e
000003f0: 2ee1 233e d473 813c 7087 f3bd ffc1 7ebd

bias_ih_l0 f4 [128]
0.0011187816 -0.03171582 0.10871572 0.049898393 0.21071349 0.05986961 0.19524229 -0.05949957
0.06570139 0.10712707 -0.12096085 -0.13748278 0.027432 0.14841674 -0.12805612 0.03345976
0.023269812 0.07718935 0.20303227 -0.059662744 0.20148411 -0.052082237 -0.14224951 -0.005516931
0.03669428 0.092196 0.081637874 0.0660292 0.12598708 0.06621671 0.14987688 0.09608967
0.15581964 -0.15440334 -0.104710095 -0.10267863 0.05604394 0.059084296 0.111667626 0.2122951
0.16690335 0.5219057 0.024786055 0.2701223 -0.11284877 0.22434333 0.09096428 -0.06472433
-0.098402776 0.15761875 0.24499442 0.19646724 0.07380838 0.14571583 -0.08356195 0.08035142
-0.00024245099 0.21211305 0.027752144 0.23399143 -0.10778604 0.037771963 0.0330394 0.07066861
-0.02251702 0.03442968 0.14717282 -0.18807065 0.011864207 0.041490152 -0.08219808 0.22504224
0.10267213 -0.12899636 0.053072773 -0.029633923 -0.020370726 0.045186188 0.10974807 -0.14944652
-0.21843864 -0.03220473 0.033822853 -0.04997461 0.11662529 -0.15530811 -0.13612653 0.17480917
-0.17511632 0.27474603 0.34650514 0.13550758 0.28587893 -0.07418945 -0.16201334 0.01778104
0.023688888 0.20415302 0.27215385 0.12686914 0.30869296 0.25153348 0.18814081 0.07474266
0.069602564 0.45465246 0.06410136 0.14124665 -0.08319909 0.22055052 0.14485578 0.10105531
0.053052135 -0.06219136 0.14177139 0.2133908 0.04672624 0.1553705 0.029482432 -0.03480575
0.22672625 0.17424479 0.31987798 0.08957097 0.03173695 0.047294203 0.16630226 0.14151351
00000000: 15a4 923a 73e8 01bd 59a6 de3d 4262 4c3d
00000010: 47c5 573e d639 753d 98ed 473e d2b5 73bd
00000020: 738e 863d 7065 db3d 52ba f7bd 49c8 0cbe
00000030: 13b9 e03c 8ffa 173e 2521 03be 1a0d 093d
00000040: 55a0 be3c 7315 9e3d b1e7 4f3e ec60 74bd
00000050: da51 4e3e 2f54 55bd dba9 11be 5fc7 b4bb
00000060: be4c 163d 42d1 bc3d c231 a73d 513a 873d
00000070: c202 013e a09c 873d 5379 193e a9ca c43d
00000080: 2f8f 1f3e e91b 1ebe 3f72 d6bd 2c49 d2bd
00000090: 558e 653d 6002 723d ffb1 e43d e363 593e
000000a0: b6e8 2a3e 9d9b 053f 200c cb3c 784d 8a3e
000000b0: 421d e7bd 42ba 653e 7b4b ba3d 318e 84bd
000000c0: 6587 c9bd cf66 213e d1df 7a3e b52e 493e
000000d0: d928 973d 8836 153e 8722 abbd 498f a43d
000000e0: 713a 7eb9 2a34 593e 7758 e33c 739b 6f3e
000000f0: edbe dcbd c6b6 1a3d 5254 073d b4ba 903d
00000100: 9d75 b8bc 2306 0d3d 79b4 163e 9895 40be
00000110: 1762 423c 94f1 293d 7857 a8bd 7971 663e
00000120: c445 d23d 9f17 04be d662 593d d7c2 f2bc
00000130: 82e0 a6bc 2715 393d 99c3 e03d 8208 19be
00000140: 61ae 5fbe 1be9 03bd d589 0a3d 2db2 4cbd
00000150: 3dd9 ee3d 1709 1fbe c164 0bbe 2d01 333e
00000160: b151 33be 83ab 8c3e 1f69 b13e 80c2 0a3e
00000170: b95e 923e a3f0 97bd d3e6 25be 8ba9 913c
00000180: 330f c23c 7d0d 513e c057 8b3e fce9 013e
00000190: 010d 9e3e ffc8 803e fca7 403e ae12 993d
000001a0: ca8b 8e3d 35c8 e83e 9347 833d f6a2 103e
000001b0: 4964 aabd ffd7 613e 1355 143e 16f6 ce3d
000001c0: 324d 593d 5ebc 7ebd 852c 113e 1e83 5a3e
000001d0: 0464 3f3d 7219 1f3e 2485 f13c 7990 0ebd
000001e0: ed2a 683e 3a6d 323e 0cc7 a33e fc70 b73d
000001f0: 9bfe 013d 91b7 413d 244b 2a3e ebe8 103e

bias_hh_l0 f4 [128]
0.23015864 0.22777209 0.03890352 -0.11903222 0.30474764 0.14755031 -0.051376514 0.044585038
0.14437877 0.17925845 0.084095895 0.071271144 0.02797352 0.1577022 0.10122801 0.08453469
-0.027776878 -0.0019337081 0.11278976 -0.10462475 0.20654881 0.057352647 0.15213467 -0.07899374
-0.07030347 0.009037674 0.045879584 -0.030145526 0.15182948 0.090425506 0.0090613905 0.12506081
0.021612493 0.06661133 0.019214666 0.0017288266 0.06645597 -0.10778141 -0.011439377 -0.07767464
-0.09473938 0.34321067 -0.056545783 0.1643684 0.031695813 0.23743579 -0.06547922 -0.13864964
-0.030936548 -0.102477886 0.09999079 0.009283221 0.06621489 0.0688369 0.061274935 -0.06722231
0.024192592 0.25701925 -0.06152176 0.015035122 0.090662494 -0.15450104 -0.086497135 0.2476213
0.15677139 0.05237195 -0.041539714 -0.15489224 0.08536053 -0.15977184 -0.286398 0.22437246
-0.15805809 0.0936629 -0.02200646 0.077694766 -0.059239265 0.11806862 0.08684923 -0.042674057
-0.12953947 0.13897122 -0.24938041 0.04807393 0.1635918 -0.113619775 -0.0045424476 0.1104817
-0.110963 0.49728137 0.1423072 0.15164448 0.137155 -0.1128465 0.06301386 -0.1617842
0.28807315 0.1801251 0.17155999 -0.139448 0.1355117 0.26472852 0.11322946 0.1484677
0.1126762 0.46737793 0.009331563 0.16201761 -0.07531793 0.079709314 0.21059936 0.2031364
0.20114553 -0.0038060779 -0.080181755 0.19868083 0.02955861 -0.034761768 0.15034556 0.25197238
0.10166048 0.30007732 0.108213365 0.27496946 0.30725327 0.11448546 0.09112263 0.20622379
00000000: b5ae 6b3e 163d 693e 4c59 1f3d 2ac7 f3bd
00000010: e207 9c3e 6e17 173e 2e70 52bd cd9e 363d
00000020: 07d8 133e 878f 373e 783a ac3d 9bf6 913d
00000030: b928 e53c af7c 213e a250 cf3d 8620 ad3d
00000040: 568c e3bc 7a74 fdba 51fe e63d 8045 d6bd
00000050: 8881 533e 9cea 6a3d 31c9 1b3e 78c7 a1bd
00000060: 44fb 8fbd c112 143c 3bec 3b3d c0f3 f6bc
00000070: 3079 1b3e 0231 b93d 3a76 143c f10f 003e
00000080: af0c b13c 856b 883d 1368 9d3c cb99 e23a
00000090: 111a 883d 80bc dcbd 3a6c 3bbc e213 9fbd
000000a0: b806 c2bd 4fb9 af3e 8d9c 67bd 3150 283e
000000b0: 78d3 013d 5e22 733e f819 86bd 2cfa 0dbe
000000c0: a56e fdbc eddf d1bd f9c7 cc3d a718 183c
000000d0: ac9b 873d 5cfa 8c3d 6dfb 7a3d daab 89bd
000000e0: 8b2f c63c 0798 833e 3efe 7bbd df55 763c
000000f0: 42ad b93d 8535 1ebe 6925 b1bd 7090 7d3e
00000100: ae88 203e f883 563d 8c25 2abd 129c 1ebe
00000110: 80d1 ae3d 3b9b 23be c2a2 92be e5c1 653e
00000120: fbd9 21be 56d2 bf3d e446 b4bc 6f1e 9f3d
00000130: dfa4 72bd f6cd f13d 02de b13d feca 2ebd
00000140: ffa5 04be 794e 0e3e 945d 7fbe 2be9 443d
00000150: 9c84 273e 7cb1 e8bd d0d8 94bb 3b44 e23d
00000160: 9240 e3bd aa9b fe3e fbb8 113e b148 1b3e
00000170: 5c72 0c3e 111c e7bd 690d 813d c2aa 25be
00000180: 537e 933e b772 383e 6cad 2f3e 75cb 0ebe
00000190: 94c3 0a3e 7f8a 873e d9e4 e73d eb07 183e
000001a0: c8c2 e63d 294c ef3e 69e3 183c f2e7 253e
000001b0: 4940 9abd a33e a33d 5ca7 573e fd02 503e
000001c0: 18f9 4d3e 646f 79bb 5536 a4bd fd72 4b3e
000001d0: e624 f23c 5b62 0ebd 30f4 193e 8602 813e
000001e0: 5f33 d03d bca3 993e f89e dd3d ccc8 8c3e
000001f0: 4d50 9d3e 5a77 ea3d 809e ba3d 542c 533e

weight_ih_l0_reverse f4 [128, 2]
0.59309745 0.12552412 0.013418438 -0.29776135 -0.33271775 -0.23591039 0.2807246 0.005722077
-0.32482105 -0.21579649 -0.1279528 -0.015628157 0.18592535 -0.27866983 -0.007043336 -0.85935783
0.14063609 -0.21505463 -0.59451485 0.5053699 -0.052980117 0.0800449 0.46091706 -0.37446332
-0.30042794 -0.5603533 -0.50343627 -0.87461054 -0.054947454 -0.2488478 0.54488707 0.529201
-0.24016215 0.27622023 -0.4072642 -0.9798514 -0.5986232 0.35349292 -0.43068868 0.30150595
-0.68338656 0.1276925 -1.0522119 0.37726632 -0.25442222 0.18058304 0.23911586 -0.18817855
-0.15131213 0.9929644 -0.30249265 -0.032390773 0.36377627 0.4114831 -0.17177688 0.31475306
-0.2569469 0.04922071 0.47734404 0.37222546 0.45412546 -0.7639815 0.5441891 -0.41601467
0.0612289 0.27511165 0.046297807 0.09115589 -0.045943853 0.5353923 -0.004570127 0.054489862
-0.29402372 0.068411365 0.65121746 0.2261658 -0.23097154 0.10479273 -0.0019250455 0.0913967
0.13797392 0.43117744 -0.016132707 -0.05498676 0.44263813 -0.06017824 0.31217185 0.08343537
-0.101374574 0.03783728 0.008870892 -0.03742723 -0.37938008 -0.17244378 0.21401215 0.110301696
-0.030675692 0.0070578083 -0.19862518 -0.10061433 -0.09555777 -0.025861917 0.33022764 -0.4644414
0.009084321 -0.015963664 -0.13916352 -0.06570597 0.26028118 -0.5304545 -0.48454526 -0.08828618
-0.019232333 -0.06655145 0.10254535 0.10925369 0.0766481 0.06421236 0.04270784 -0.32825583
-0.119086035 0.3572217 0.21214086 0.14873007 0.20879255 -0.5024537 0.026428627 -0.16878143
-0.41649687 -0.21432008 0.011016861 0.41569626 0.39277825 -0.15938929 -0.1780808 0.027830888
0.30458266 0.08806045 0.2899377 0.0057960805 -0.015635412 -0.038540725 -0.34633517 0.38630065
-0.09317914 -0.20579596 -0.6804005 0.629885 0.11264135 -0.035351347 0.5547459 -0.1451707
0.10896615 -0.37258995 0.21341048 0.55268455 0.05111182 -0.3522994 0.17748418 0.39665517
0.124505475 -0.11375269 0.28395677 0.50784844 0.23344028 -0.32378587 -0.38555226 0.22263694
-0.8815864 0.23056982 0.34647936 -0.11005587 -0.5329145 0.6645059 0.18847118 0.37167117
-0.21117556 1.1832119 0.2754343 0.26195216 -0.21269354 -0.14788131 0.011733351 -0.4331478
-0.4087432 0.48344457 0.6436175 0.412036 0.22162174 -0.40172383 0.3306153 -0.3060245
0.6352479 0.36940643 0.2018073 -0.20092812 -0.40130088 0.21044171 -0.3316409 -0.10401566
-0.52053905 -0.12404034 -0.49674544 -0.6061204 -0.1313825 -0.34119993 0.45615456 -0.57755923
-1.3640181 0.37459105 -0.35102397 0.19398795 0.8130996 0.04099281 0.58855337 -0.34113735
0.31867614 -0.49499363 -0.43376693 -0.5129971 0.03819416 -0.17434283 0.43494233 0.60949165
0.09883117 0.5285432 -0.43503323 -0.78610337 -0.20044117 0.36698025 -0.34819198 0.0270784
-0.43359688 0.06404136 -1.008531 0.13356875 0.40231895 -0.84076315 -0.2819 -0.2049512
-0.041274987 0.4682706 0.14203739 -0.22042057 -0.00203384 0.20758858 0.34611836 0.46604607
-0.06684839 0.36455613 0.5352476 -0.059713554 0.4784433 -0.18908338 0.15097028 -0.44665384
00000000: 3cd5 173f 6589 003e 02d9 5b3c 2d74 98be
00000010: fb59 aabe 7e92 71be 23bb 8f3e 4380 bb3b
00000020: f24e a6be c1f9 5cbe 0f06 03be 9f06 80bc
00000030: 3763 3e3e d0ad 8ebe c9cb e6bb e0fe 5bbf
00000040: e802 103e 4837 5cbe 2032 18bf ec5f 013f
00000050: ae01 59bd 95ee a33d 52fd eb3e a8b9 bfbe
00000060: b1d1 99be 5073 0fbf 33e1 00bf 7ae6 5fbf
00000070: 9510 61bd f5d1 7ebe b87d 0b3f b779 073f
00000080: 11ed 75be bd6c 8d3e ef84 d0be 8bd7 7abf
00000090: 5f3f 19bf 06fd b43e 3a83 dcbe fd5e 9a3e
000000a0: 6cf2 2ebf d3c1 023e e1ae 86bf 0d29 c13e
000000b0: a143 82be c3ea 383e cada 743e e1b1 40be
000000c0: 91f1 1abe ea32 7e3f 51e0 9abe 30ac 04bd
000000d0: e240 ba3e eaad d23e 47e6 2fbe 5027 a13e
000000e0: 8b8e 83be a89b 493d 7066 f43e 5694 be3e
000000f0: 2283 e83e 4b94 43bf fa4f 0b3f e0ff d4be
00000100: 28cb 7a3d 6fdb 8c3e c5a2 3d3d f0af ba3d
00000110: 9f2f 3cbd 780f 093f 01c1 95bb c330 5f3d
00000120: 478a 96be 421b 8c3d 30b6 263f 0298 673e
00000130: ce83 6cbe 929d d63d cf51 fcba 312e bb3d
00000140: 0949 0d3e 4ac3 dc3e bd28 84bc cc39 61bd
00000150: 77a1 e23e 757d 76bd fdd4 9f3e 2ae0 aa3d
00000160: 799d cfbd 44fb 1a3d 3857 113c 4c4d 19bd
00000170: 1b3e c2be 1a95 30be 0026 5b3e dbe5 e13d
00000180: 974b fbbc 3045 e73b 6664 4bbe e30e cebd
00000190: cbb3 c3bd 5fdc d3bc 9913 a93e 43cb edbe
000001a0: 67d6 143c 3bc6 82bc e280 0ebe da90 86bd
000001b0: 9343 853e decb 07bf 5116 f8be 62cf b4bd
000001c0: 208d 9dbc 204c 88bd 4c03 d23d 66c0 df3d
000001d0: aef9 9c3d c581 833d 6bee 2e3d 2611 a8be
000001e0: 61e3 f3bd c3e5 b63e 743b 593e b24c 183e
000001f0: b7cd 553e cea0 00bf d980 d83c 0ad5 2cbe
00000200: 143f d5be b976 5bbe 1080 343c 24d6 d43e
00000210: 3b1a c93e f236 23be d05a 36be 9afd e33c
00000220: 42f2 9b3e 0a59 b43d b772 943e 0ced bd3b
00000230: d615 80bc e1dc 1dbd d852 b1be 33c9 c53e
00000240: b4d4 bebd 2dbc 52be ba2e 2ebf 2540 213f
00000250: 82b0 e63d 93cc 10bd d403 0e3f a1a7 14be
00000260: a529 df3d 1cc4 bebe 4788 5a3e bc7c 0d3f
00000270: a15a 513d 9660 b4be 6abe 353e 6316 cb3e
00000280: bafc fe3d 2cf7 e8bd c862 913e 5b02 023f
00000290: f80a 6f3e 43c7 a5be 1b67 c5be f0fa 633e
000002a0: a5af 61bf 7f1a 6c3e be65 b13e f964 e1bd
000002b0: 166d 08bf 0f1d 2a3f 97fe 403e af4b be3e
000002c0: 683e 58be 7d73 973f b905 8d3e 981e 863e
000002d0: 56cc 59be 336e 17be 3e3d 403c 8cc5 ddbe
000002e0: ca46 d1be 0c86 f73e 1ec4 243f 62f6 d23e
000002f0: cff0 623e bfae cdbe 6946 a93e 3eaf 9cbe
00000300: 9b9f 223f d722 bd3e 93a6 4e3e 1ac0 4dbe
00000310: 4f77 cdbe 087e 573e d6cc a9be 2a06 d5bd
00000320: 0c42 05bf dd08 febd 6b55 febe b52a 1bbf
00000330: 2289 06be c2b1 aebe 178d e93e ecda 13bf
00000340: 2598 aebf 66ca bf3e 6ab9 b3be c7a4 463e
00000350: 4c27 503f 14e8 273d 6fab 163f 8ea9 aebe
00000360: 8529 a33e ce6f fdbe b316 debe c753 03bf
00000370: 7b71 1c3d ed86 32be c3b0 de3e a507 1c3f
00000380: ff67 ca3d 9b4e 073f adbc debe 123e 49bf
00000390: 7340 4dbe d6e4 bb3e 3846 b2be 85d3 dd3c
000003a0: 6900 debe 1e28 833d 8b17 81bf 3fc6 083e
000003b0: c0fc cd3e 413c 57bf 3255 90be bade 51be
000003c0: f60f 29bd 2ac1 ef3e 4072 113e eeb5 61be
000003d0: 2c4a 05bb 1a92 543e 6d36 b13e 979d ee3e
000003e0: cfe7 88bd 1aa7 ba3e fd05 093f 3396 74bd
000003f0: 85f6 f43e 139f 41be f497 1a3e d0af e4be

weight_hh_l0_reverse f4 [128, 32]
-0.12213968 0.1439312 -0.053229492 -0.026729232 0.12172433 0.18219182 -0.12745927 0.16269368
-0.20860109 0.10905768 0.16834994 -0.04115875 -0.03173434 0.08107106 -0.1766652 0.19414906
0.10661489 0.22300828 0.02158624 -0.042151652 -0.044778127 0.12681201 0.036887918 0.11693424
-0.06550764 0.3705749 -0.24139833 -0.24198422 0.041910417 0.18792519 -0.29634857 -0.0040918957
0.13725895 -0.036013503 0.1526287 0.3535958 -0.025741834 -0.23122664 0.067282334 -0.20456342
0.20972571 -0.11070703 -0.21021104 -0.12749985 0.07088072 -0.015329355 0.07891819 -0.17170346
-0.23671259 -0.004116152 0.21877812 -0.248672 -0.18924628 0.16826785 0.05088422 -0.10471612
-0.24141355 -0.14527509 0.21065833 0.37223116 -0.14048144 -0.19854079 -0.00672625 0.08212323
0.07892777 -0.16892499 -0.15540531 -0.08205758 0.044010993 0.04049307 0.068306744 -0.05251823
0.03520491 0.10893727 -0.017958445 0.031488802 0.12268103 -0.08336117 0.07210231 0.19016011
-0.27696863 -0.121423416 0.088235244 0.027707823 0.044898044 -0.2572753 0.22410889 -0.100751854
-0.043294474 0.12018153 0.12108976 -0.20201984 0.16304044 0.12143667 -0.089293376 -0.21145765
0.059476703 -0.12349266 -0.14572537 -0.022532137 0.1033256 -0.044580825 -0.047626864 0.110066116
0.021775097 -0.14790851 -0.108560905 0.09951912 -0.33925194 0.057056017 0.021741504 0.19515745
0.09116557 0.21236107 -0.053428717 -0.10098773 -0.17045178 0.2260187 0.038334098 0.00036580107
-0.20043555 0.18369281 0.43094942 -0.031438414 0.05015777 -0.18873163 -0.076983154 -0.1520388
0.26064485 -0.041896347 -0.21482067 0.13992229 -0.28823042 -0.10547921 0.15982564 0.1381719
0.16407709 -0.04642617 -0.16075931 -0.16051754 -0.20339267 -0.15167488 0.032743566 -0.38590202
0.009414177 -0.08574682 0.06564354 0.07712936 0.06316063 -0.11821789 0.19702393 0.09799065
-0.12522681 0.091440536 -0.049816016 0.38725618 0.10639002 0.0032650863 -0.20578289 -0.119475655
-0.18884833 -0.1196258 -0.22718711 -0.10172193 -0.43764135 0.23109862 -0.10546855 -0.283334
-0.3562263 0.05811992 0.24669813 -0.114540175 -0.5183559 -0.35928372 0.0923393 0.2151244
0.53278625 -0.45557594 -0.3585748 0.18341605 0.31871197 -0.0625801 -0.360392 -0.30271673
0.23284493 -0.47372898 -0.22502652 -0.40525657 -0.027714694 0.22532474 0.36957788 0.046220385
0.22405988 -0.12088056 -0.078237705 -0.111939624 -0.20383574 -0.07614829 0.1300798 -0.29370466
-0.20173767 -0.13250037 0.15846607 0.20514329 -0.26826277 0.055458333 0.044680677 -0.062070478
0.043010168 -0.0658659 0.09248026 -0.029074902 0.08797596 0.1629894 -0.19866821 -0.2526197
-0.061078615 -0.17296739 0.12397882 -0.17749141 -0.1354872 -0.0967514 0.017724775 0.1430251
0.18093055 -0.029601822 0.25398418 -0.13981932 0.4712626 -0.027820252 0.005648395 -0.34487927
-0.15821068 -0.073289946 0.11588644 0.09873481 0.2493682 -0.077981286 0.043692984 -0.44472694
0.83948684 -0.14394498 -0.7007189 0.08389948 -0.041592445 -0.01694016 -0.965985 -0.057062835
0.081625484 0.57925504 0.048843276 -0.11469951 -0.16238008 -0.06470411 0.053880062 -0.020789212
00000000: 5e24 fabd b362 133e 2b07 5abd 43f7 dabc
00000010: 9b4a f93d 7e90 3a3e af84 02be 2c99 263e
00000020: 869b 55be a259 df3d ed63 2c3e 1496 28bd
00000030: defb 01bd 9508 a63d b9e7 34be 03cf 463e
00000040: e858 da3d 485c 643e a0d5 b03c 36a7 2cbd
00000050: 4569 37bd 02db 013e c917 173d 387b ef3d
00000060: df28 86bd febb bd3e 2031 77be b6ca 77be
00000070: 42aa 2b3d 766f 403e 00bb 97be 4f15 86bb
00000080: 9c8d 0c3e e582 13bd b34a 1c3e 820a b53e
00000090: 8ae0 d2bc adc6 6cbe 52cb 893d 1379 51be
000000a0: 56c2 563e 5eba e2bd 9041 57be 528f 02be
000000b0: e929 913d fa27 7bbc dc9f a13d 08d3 2fbe
000000c0: c964 72be c9e0 86bb 5f07 603e dfa3 7ebe
000000d0: c7c9 41be 684e 2c3e f96b 503d 6875 d6bd
000000e0: 1d35 77be fec2 14be d1b6 573e 1595 be3e
000000f0: 5eda 0fbe 474e 4bbe e067 dcbb 3930 a83d
00000100: e2a4 a13d acfa 2cbe 9222 1fbe ce0d a8bd
00000110: df44 343d 10dc 253d 68e4 8b3d 5b1d 57bd
00000120: 0633 103d 811a df3d 971d 93bc 67fa 003d
00000130: 3140 fb3d 43b9 aabd 60aa 933d 55b9 423e
00000140: d5ce 8dbe d7ac f8bd aeb4 b43d 84fb e23c
00000150: 03e7 373d 97b9 83be cd7c 653e fd56 cebd
00000160: 8c55 31bd bc21 f63d e8fd f73d 4ade 4ebe
00000170: 13f4 263e cab3 f83d 72df b6bd 5b88 58be
00000180: d89d 733d b8e9 fcbd 0839 15be 5195 b8bc
00000190: 5f9c d33d 629a 36bd 6314 43bd 586a e13d
000001a0: b061 b23c 5475 17be 2e55 debd aed0 cb3d
000001b0: 6eb2 adbe 92b3 693d 3d1b b23c 5bd7 473e
000001c0: 04b5 ba3d 2e75 593e 12d8 5abd a8d2 cebd
000001d0: e98a 2ebe 7271 673e 3704 1d3d fdc8 bf39
000001e0: fa3e 4dbe f819 3c3e 67a5 dc3e 91c5 00bd
000001f0: 3c72 4d3d dd42 41be 58a9 9dbd 0fb0 1bbe
00000200: 3e73 853e 819b 2bbd f3f9 5bbe ca47 0f3e
00000210: f092 93be 7c05 d8bd 55a9 233e ef7c 0d3e
00000220: d303 283e 5e29 3ebd 179e 24be b65e 24be
00000230: 2b46 50be a950 1bbe 1e1e 063d f394 c5be
00000240: ec3d 1a3c 079c afbd 1f70 863d fff5 9d3d
00000250: 5c5a 813d 391c f2bd a4c0 493e 52af c83d
00000260: 753b 00be 2d45 bb3d e10b 4cbd 7146 c63e
00000270: 03e3 d93d 0ffb 553b c0b8 52be a7af f4bd
00000280: 7561 41be 5ffe f4bd bda3 68be 9653 d0bd
00000290: 8712 e0be 1ea5 6c3e e5ff d7bd 2711 91be
000002a0: 4b63 b6be 270f 6e3d 6f9e 7c3e 0a94 eabd
000002b0: f9b2 04bf 09f4 b7be 631c bd3d 9249 5c3e
000002c0: ae64 083f 4041 e9be 1e97 b7be 6bd1 3b3e
000002d0: 372e a33e ff29 80bd 4d85 b8be b0fd 9abe
000002e0: e76e 6e3e 9b8c f2be 5a6d 66be ca7d cfbe
000002f0: ed09 e3bc 87bb 663e 5039 bd3e 9651 3d3d
00000300: f46f 653e 3a90 f7bd 173b a0bd 9a40 e5bd
00000310: 51ba 50be a2f3 9bbd a433 053e 7560 96be
00000320: 5294 4ebe 2dae 07be ee44 223e 1511 523e
00000330: bd59 89be 4728 633d 1603 373d 9d3d 7ebd
00000340: 6e2b 303d b3e4 86bd 4a66 bd3d 7d2e eebc
00000350: bd2c b43d b1e6 263e ae6f 4bbe 5f57 81be
00000360: 922d 7abd 5d1e 31be 9ce8 fd3d 4fc0 35be
00000370: 28bd 0abe 9925 c6bd 8c33 913c 2c75 123e
00000380: dc45 393e 857f f2bc 370a 823e cc2c 0fbe
00000390: 5549 f13e 4ce7 e3bc 2c16 b93b 0494 b0be
000003a0: fb01 22be 0a19 96bd df55 ed3d 7a35 ca3d
000003b0: 615a 7f3e a7b4 9fbd 6af7 323d 40b3 e3be
000003c0: 9ce8 563f 5066 13be 5062 33bf 7ed3 ab3d
000003d0: d75c 2abd 17c6 8abc cb4a 77bf b8ba 69bd
000003e0: 432b a73d 0f4a 143f e30f 483d 94e7 eabd
000003f0: f746 26be 9783 84bd 57b1 5c3d 234e aabc
