TS-CVAE/experiments/EOT/models/models_24_Jul_2021_19_35_18_eot/model_registrar-66.pt (torch_old, 552549 bytes, 43 tensors)

weight_ih_l0 f4 [128, 6]
000000 0c 9b 22 3d db bd d4 3e 07 87 af be fc d6 29 be
       0.039698645 0.41551098 -0.34282705 -0.16585916
000010 d3 1b 00 be dd c4 92 bb 8b a2 33 be e2 ec 84 be
       -0.12510614 -0.0044790343 -0.17542474 -0.25961977
000020 1d 9a a1 bd 16 45 83 3d 68 05 18 bd b6 b3 98 bd
       -0.07890723 0.064096615 -0.03711453 -0.07456152
000030 c9 18 18 be 5b f1 ab bd 48 ba 97 3c 07 bf d5 bc
       -0.14853205 -0.08395644 0.018521443 -0.026092065
000040 df 85 3d be c3 99 a8 3d 34 4e a5 3e 8e f9 54 3e
       -0.18508099 0.08232453 0.32286227 0.20798323
000050 f1 d4 a6 bd 79 f8 98 be 57 4b 36 3d 6d 43 29 3e
       -0.08146084 -0.2987707 0.044505443 0.16529627
000060 af af 03 bf 00 a5 11 be 63 39 55 3e 05 36 55 3e
       -0.51439947 -0.14223099 0.20822673 0.20821388
000070 69 bd 62 3d 69 03 07 be e2 d4 a8 3d c6 16 7f 3d
       0.055356417 -0.13184895 0.08243729 0.062277578
000080 26 cd da 3e 20 9b 5c be 23 0c b2 3e 47 4f f1 be
       0.4273464 -0.2154355 0.34774885 -0.47130796
000090 a4 55 f2 be 33 fe 5f 3e be 42 56 bd 7a 68 94 be
       -0.47330964 0.21874313 -0.052309744 -0.2898596
0000a0 90 6f 92 bd 49 0d 0e bc 1e d4 71 be fa 27 f9 3e
       -0.07150185 -0.00867016 -0.23616073 0.48663312
0000b0 5f 6d c6 3d 3d 44 40 be 35 7c 8d 3c bb fa b7 3d
       0.0968883 -0.18776031 0.01727114 0.0898337
0000c0 04 f0 bf 3e e0 9a be be 92 e7 7f bd b1 6e 8f 3e
       0.37487805 -0.37227535 -0.062476702 0.28014138
0000d0 68 c5 40 3d e3 ff 9e 3d 3a b5 4e be c4 8f 77 be
       0.04706326 0.0776365 -0.2018632 -0.24175936
0000e0 3d 08 96 ba 8c 15 50 3e d1 1d 78 3c 2a 27 dc 3d
       -0.0011446547 0.2032072 0.015143828 0.107496575
0000f0 12 89 06 3e 53 5a b3 3e 8e fe 51 be 06 e0 b7 be
       0.13138226 0.3502985 -0.20507261 -0.35913104
000100 bd 6e e6 bd cf 27 1f be 93 26 d0 bd d5 55 d7 3d
       -0.112515904 -0.1554253 -0.101636074 0.10514418
000110 d0 4c 97 be 6b 97 7e 3c 45 11 0e bd 82 26 81 3d
       -0.2955079 0.015539031 -0.03468444 0.06306173
000120 de 11 80 be c8 90 b0 be 01 de ac 3d f9 b1 e8 3e
       -0.25013632 -0.3448546 0.084407814 0.45448282
000130 34 e4 ba be a2 5a 1d be 63 80 8a be 38 6a 3d 3e
       -0.3650223 -0.15366605 -0.27051076 0.1849755
000140 fd bd 4b 3e 02 33 a0 3c bb ca 9a 3d 86 18 8c 3d
       0.19896694 0.019555572 0.07558199 0.06840615
000150 4b 07 27 be a8 43 7f be 94 40 56 be 05 e2 80 3d
       -0.16311376 -0.24928153 -0.20923072 0.0629311
000160 ea fa 14 be bf 0a f8 3d 40 2c 0b bf c8 fa 1b be
       -0.14548841 0.12111425 -0.54364395 -0.15232384
000170 91 04 3f 3e 6d a2 48 3e f8 e1 69 bd c4 31 89 3d
       0.18654086 0.1959321 -0.057100266 0.06698945
000180 39 c7 0b be f7 32 83 3e 6a bb 0a 3e 84 16 08 be
       -0.13650216 0.2562482 0.13548055 -0.13289839
000190 03 b2 68 3e a4 b6 cd bd e7 7b 7c 3d 7f 45 e7 3d
       0.22724156 -0.100446016 0.0616416 0.11292552
0001a0 7d 6a b2 be 86 f9 31 be 17 43 af bb ed 5f ea 3c
       -0.3484687 -0.17380342 -0.005348574 0.028610194
0001b0 12 07 5d be df af c3 3e 60 4f 55 3e 78 c1 b9 be
       -0.21584728 0.38220116 0.2083106 -0.36280417
0001c0 bf de 73 bd c1 79 2a be d0 43 86 be 6f 81 e0 bd
       -0.0595386 -0.16648008 -0.26223612 -0.109621875
0001d0 4a e9 e4 be b3 9d 46 3e 45 34 c4 3d 72 c8 7e bc
       -0.44709235 0.19396095 0.09580282 -0.01555072
0001e0 0e 7d e4 be 90 0c 75 3d 7b a1 42 3e 7a 46 03 3c
       -0.4462666 0.059826434 0.19006912 0.008012408
0001f0 18 07 2d 3d d8 7b ea bb 0d 37 ef 3d 2d 3e e1 3c
       0.042243093 -0.0071558766 0.11680422 0.027495468
000200 0c b5 53 bc 7d 17 02 3f 32 cf 8d 3d 26 6a 8c 3e
       -0.012921583 0.5081709 0.06924285 0.27424735
000210 91 c7 53 3e 77 4a f3 be 9e f9 76 be f8 c3 9e 3d
       0.20681597 -0.4751775 -0.24118659 0.07752222
000220 f2 b9 f8 3c 3b 3f ba bc fe 78 95 3d 5e 09 cb bd
       0.030362103 -0.022735229 0.07298468 -0.09913896
000230 db d1 85 bd 7a 44 02 3c 43 4e 19 bd ee fc d4 3c
       -0.065341674 0.007950896 -0.03742815 0.025999513
000240 9c 6f 12 be 78 8e 40 be 91 05 bf 39 d4 12 64 3d
       -0.14300388 -0.18804348 0.00036434506 0.05568202
000250 61 c2 1b bc a8 ea 18 3c ba f2 a9 3d ef 9f 84 bd
       -0.009506793 0.00933329 0.082982495 -0.064758174
000260 ab f5 47 be 7b 9e c3 3d aa 1a 65 bd f4 52 00 3c
       -0.19527309 0.09551712 -0.055933632 0.007832278
000270 d6 b1 6d 3d ad d0 b9 bc 47 0f 47 be 71 20 29 3d
       0.058030926 -0.022682512 -0.19439422 0.041290704
000280 64 e1 2a 3d 88 88 e8 3d 71 d7 56 3e 2a b0 c4 3d
       0.041718856 0.11354166 0.20980622 0.09603913
000290 f4 e4 8b 3d 52 1b 0b 3e 25 0a 90 3c 6b 8d 84 3e
       0.06830779 0.1358464 0.017582962 0.25889143
0002a0 0c 04 8b 3d 0b 07 2b 3e bf fc 65 be 87 3f 6d 3d
       0.06787881 0.16701905 -0.22459696 0.057921913
0002b0 bd 46 89 bd ca e8 8b 3e e1 8f d9 3d 33 17 b3 3d
       -0.067029454 0.2732604 0.10623146 0.08744659
0002c0 b0 64 03 bf 9b b3 ce 3d fa c8 de be 28 50 04 bd
       -0.5132551 0.10092851 -0.43512708 -0.032303005
0002d0 1d 2a 90 be 30 0b 92 be 12 e3 bb 3e d8 df a4 3d
       -0.2815713 -0.2852416 0.36696678 0.08050507
0002e0 f1 33 97 bd d3 1d 2b be d1 44 d9 bd 1f 3e 8c be
       -0.07382954 -0.16710596 -0.10608829 -0.27391145
0002f0 a5 17 95 3b 7b a6 78 3e be aa 29 3c be 41 3f 3d
       0.004549938 0.24282257 0.0103556495 0.046693556
000300 c3 5a b6 bd 60 a5 a0 3e fa ed 9e be 83 b6 77 be
       -0.0890403 0.3137617 -0.31040937 -0.24190716
000310 68 b4 d3 bd 59 e2 8f be 9c af a4 3d dc 40 78 3d
       -0.10337144 -0.28102377 0.08041307 0.06060873
000320 a0 55 db bc 0d 99 98 bd 75 5e 8c 3d 8e c7 8a bd
       -0.026774228 -0.07451067 0.06853954 -0.06776343
000330 36 ff 45 3d 48 e4 17 bc 7e 05 87 bb c3 f2 37 39
       0.04833909 -0.009270735 -0.0041205278 0.00017542676
000340 6f 03 a7 bc 8a 78 32 bc f0 f5 49 3c ad 24 c6 bd
       -0.02038738 -0.010892997 0.0123267025 -0.09674964
000350 7d ef 8b bd 92 b8 40 be e8 56 15 3d ea 34 25 bd
       -0.06832788 -0.18820408 0.036459833 -0.040333666
000360 9a c5 c0 3c 15 f1 1a be 41 9f 87 3e 98 c0 16 3e
       0.023531724 -0.15131028 0.2648869 0.14721906
000370 3c 55 c9 bd 76 47 ae 3d 64 23 0f 3e fc 47 a4 be
       -0.0983071 0.08509724 0.13978344 -0.3208617
000380 c4 03 b2 3e b4 75 5e be 6d 97 53 bd 39 86 8d 3d
       0.34768498 -0.21724588 -0.051658083 0.069103666
000390 6c 46 91 3d 30 8d 14 3c eb 43 b8 3d b9 5c 10 be
       0.0709351 0.009066865 0.08997329 -0.14097871
0003a0 e2 bd ec bc 96 bc a4 be f4 f1 97 bc d2 e3 57 3d
       -0.028899137 -0.3217513 -0.01854799 0.0527075
0003b0 8e 71 1c 3e 5b b8 4b be f6 8d 2f bc 6a 0f 28 be
       0.15277693 -0.19894545 -0.0107149985 -0.1641213
0003c0 5e 0c 75 3e d7 42 3f be 52 df 4c be a6 7f 1c 3e
       0.23930499 -0.18677841 -0.20007065 0.15283069
0003d0 31 25 88 be c4 a5 df 3e 73 c0 46 be 92 f8 b5 bd
       -0.26590875 0.43681157 -0.19409351 -0.08885302
0003e0 a2 26 f1 3d d7 a9 20 3e 8a 8a cc 3d 7a fb 19 3d
       0.11774947 0.15689789 0.09987362 0.037593342
0003f0 5b 3b 29 3e ae 5b 1d be dd 0c a8 3d ef 21 37 be
       0.16526549 -0.15367004 0.082055785 -0.17884038

weight_hh_l0 f4 [128, 32]
000000 09 f1 9a 3d e5 78 69 be 83 b4 e4 bc f9 74 98 3e
       0.07565505 -0.22800024 -0.027918106 0.29776743
000010 c7 3f b0 3e 61 b7 96 3d dc c4 89 be 6a 49 f3 3d
       0.34423658 0.073591955 -0.26908004 0.11879237
000020 da b9 5a 3e b1 6b c5 3e 8f da 7e be 58 60 ed 3d
       0.21359959 0.38558725 -0.24888061 0.11590642
000030 f7 84 c5 be 2f 2c 78 3e 6b b3 44 3c 0f 3e c3 bd
       -0.38578007 0.24235605 0.012005667 -0.09533321
000040 51 80 28 3d 44 03 b1 be 8d 09 ec bb a7 c6 60 be
       0.041137997 -0.34572804 -0.007203287 -0.2195078
000050 3a 29 62 bc b8 f1 9b 3d 4d 5f e5 3c c4 f3 07 be
       -0.0138037745 0.076144636 0.027999545 -0.13276583
000060 b5 10 d0 3e 89 82 04 be 57 8c 3d 3e 5d 1e a2 3d
       0.40637746 -0.1294042 0.18510567 0.079159476
000070 51 be 4d 3d ce 14 b8 bc 83 d2 b1 3e b3 ef f0 bd
       0.050230328 -0.022470858 0.3473092 -0.11764469
000080 54 ae 26 3f 45 8d 26 be 60 1a a8 3d a1 98 aa 3d
       0.65109754 -0.16264828 0.08208156 0.08329893
000090 c2 43 2e 3f fd 54 c0 3e c4 b1 e8 3d 45 88 d1 bd
       0.6807214 0.3756484 0.11362031 -0.102310695
0000a0 d1 d6 9d 3e f3 65 33 3e 28 e0 8d be a9 1f d0 be
       0.30827954 0.1751936 -0.2771008 -0.40649155
0000b0 6e 0a 02 bf c1 f9 b5 3e 26 c0 0a 3e 88 ce a2 be
       -0.50797164 0.3554211 0.13549861 -0.31798196
0000c0 61 6c d1 3d 89 5a 8a bd 93 c0 fa bd e7 ef 25 bd
       0.1022575 -0.067555495 -0.12243762 -0.04051199
0000d0 c6 18 01 be 61 6b 4c 3e 01 f9 13 3e 83 90 45 bd
       -0.12607107 0.19962837 0.14450456 -0.04823352
0000e0 eb a0 22 3e 97 d7 ba bd 94 23 d7 be 2b dd b5 be
       0.15881698 -0.09123152 -0.4201933 -0.355203
0000f0 b9 e3 67 be 9e 1a c1 bc 39 ee 28 3f 1a d0 55 be
       -0.22645463 -0.023572262 0.659885 -0.20880166
000100 ea 18 b1 3e 50 0d b0 bd 6b 1b 73 bd 3b 77 ba 3e
       0.3458932 -0.08596289 -0.05935232 0.3641909
000110 fe 81 d7 3d f1 ad 7f 3e eb c0 65 3e 2e 45 04 bf
       0.10522841 0.24968697 0.22436874 -0.5166806
000120 77 87 d4 3e 8c 10 4e 3c 97 91 e9 3d 3c 62 44 bb
       0.415096 0.012577187 0.11404722 -0.0029965779
000130 32 72 5c be 6a 2b 76 be 8e db db be 0f c8 1e bd
       -0.21527937 -0.24039999 -0.42940944 -0.03876501
000140 3a 2f 1a 3e 91 b5 c1 3d 9e d2 04 3f 62 44 6f bf
       0.15057078 0.09458459 0.51883876 -0.9346372
000150 75 70 29 3d 7b 98 53 3e a7 c6 ad be da 17 83 3d
       0.041367013 0.20663635 -0.33940622 0.06401034
000160 0c ee a2 3c 34 a9 86 bc 4f 38 e0 3d ef 3e b4 be
       0.0198889 -0.016438104 0.1094824 -0.35204265
000170 41 e6 64 be 2c b9 68 3d 13 31 56 3d 9e be 1c bd
       -0.2235346 0.05681722 0.052292895 -0.038267724
000180 3b e0 69 3e 70 17 6e 3e a2 f4 3e bd e2 26 0e 3e
       0.22839443 0.23251128 -0.04662002 0.1388202
000190 54 39 56 be 44 d9 22 be bc 78 29 3e 70 75 e9 bd
       -0.20920306 -0.15903193 0.16549963 -0.113993526
0001a0 5d 0d d6 3c 5c 10 bd bd 74 a6 85 bd 6c d0 9e be
       0.026129419 -0.09231636 -0.06525889 -0.31018388
0001b0 b2 92 10 be 39 69 80 3d eb c7 8e be 33 1e b4 bd
       -0.1411846 0.0627007 -0.278869 -0.087948225
0001c0 32 17 e7 bd 47 f7 07 3e cc 6c 20 3e 89 90 98 be
       -0.11283721 0.13277923 0.15666503 -0.29797772
0001d0 5e d5 5d be 7f 6b 6a 3e 9e 08 40 3e 30 f6 a0 bd
       -0.21663424 0.22892569 0.18753287 -0.078594565
0001e0 0b 3a c0 be 8f cf b5 bd 5a 19 86 be c0 be 72 bd
       -0.37544283 -0.08877479 -0.26191217 -0.059263945
0001f0 7e 8d 09 be d0 24 90 3e 63 5c 85 3c 65 e3 25 3e
       -0.13432881 0.28153086 0.016279405 0.16200025
000200 ba 19 5f 3c c0 34 17 bd fb d1 45 3d 6e 94 48 bd
       0.0136169735 -0.03691554 0.048295956 -0.04896968
000210 d0 8a 90 3e 81 6c 50 3e dd 95 f0 3a ab cd d0 3d
       0.28230906 0.20353891 0.001835521 0.10195478
000220 f7 c7 b3 3d f4 8f ab bd f6 0c 91 be d3 8d 7a be
       0.08778375 -0.08377066 -0.283302 -0.24468164
000230 74 c7 e4 be 20 80 6e 3e 48 2c f0 3c aa 60 40 be
       -0.4468342 0.23291063 0.02931799 -0.18786874
000240 69 3b 49 bd 65 66 25 3c 7a 54 39 3d 14 66 a8 be
       -0.049128924 0.010095214 0.04524658 -0.3289038
000250 cd 56 00 3c c7 a5 18 3f 0e 86 d0 3d 06 05 f3 bd
       0.007833195 0.59627956 0.10181819 -0.118661925
000260 20 9e 89 3d 97 19 df bd a0 1d 51 be 6c 18 0d bf
       0.06719613 -0.10893553 -0.20421457 -0.5511539
000270 2d 07 4a be bb 5c 37 be a4 ac 9a 3e ae 11 73 3d
       -0.197293 -0.17906468 0.3020984 0.059343033
000280 e9 e9 ec 3d 9f 9f 9c bc e7 f4 19 bd d2 0a b2 3c
       0.11568052 -0.019119082 -0.037587073 0.021733675
000290 84 b0 56 be b6 89 59 3e 6a 64 8c 3b cd 63 20 bd
       -0.20965773 0.21243939 0.004284431 -0.039157677
0002a0 5b 99 6f 3c fa ba 51 be 73 44 85 bd b5 df 38 be
       0.014623965 -0.20481482 -0.06507196 -0.18054087
0002b0 2b 1a 16 be 90 ce 21 3e f6 a3 ca bd 9f 6d ee 3d
       -0.1465842 0.15801454 -0.09894554 0.11642002
0002c0 97 a9 6d 3d 69 e8 3b 3e 05 18 45 be 30 ad 2c 3d
       0.05802306 0.18350376 -0.19247444 0.042157352
0002d0 9e 98 f0 3d 65 b2 48 3d fd 8c f4 3d 0f e1 e7 3c
       0.117478594 0.048998255 0.11940954 0.028305558
0002e0 07 5c af be d4 0a dd bd 33 da 49 3e dd 6a 54 bd
       -0.342499 -0.10793081 0.19712143 -0.051859725
0002f0 d9 cc 33 bc 9e e8 8e 3c 4e 12 21 3d 8d 61 a5 3e
       -0.010974132 0.017444905 0.039324097 0.32300988
000300 36 28 87 3e b1 ce bb 3d eb a2 4d bd e3 89 03 3f
       0.26397866 0.09170283 -0.0502042 0.51382273
000310 a5 3c 62 bd a3 53 2d 3e 32 b4 bd 3e 86 85 05 bf
       -0.055233616 0.16926436 0.3705154 -0.52156866
000320 9b 76 13 3f 14 f6 ca 3d 96 00 1d bd 40 b9 12 be
       0.5760285 0.09910217 -0.038330637 -0.1432848
000330 54 15 7e be be 58 83 3e ea f5 dc be 97 4f 96 3d
       -0.24812824 0.25653642 -0.43156368 0.07339399
000340 6e 62 cb bd 2d 7e 49 3d 7d 90 07 3f cf ff 7b bf
       -0.09930883 0.049192596 0.52954847 -0.9843721
000350 c7 c3 0a be 5a ae e1 3e be 6d 2d be fc b8 c1 bd
       -0.13551246 0.44078332 -0.16936395 -0.09459111
000360 12 2e 8a be 13 39 5c be 02 df fc 3d 79 43 e1 be
       -0.26988274 -0.21506147 0.12347223 -0.4399679
000370 9e 7e f8 be 42 f3 43 3d 72 30 89 be 98 ee cc bd
       -0.485341 0.04783941 -0.26794773 -0.10006446
000380 b5 24 8b 3e f7 f0 66 bd 5a b9 29 be 22 77 a4 bd
       0.27176443 -0.056382146 -0.16574612 -0.08030535
000390 47 e1 58 bd 58 38 03 3e 02 a0 90 3e d6 35 66 be
       -0.052949216 0.12814462 0.28247076 -0.22481474
0003a0 40 b5 0d 3f 35 f0 03 bd 2f 2f 9a 3e d1 89 34 bd
       0.5535469 -0.0322115 0.30114123 -0.044076744
0003b0 e1 eb 2b 3e 45 17 a9 3d 64 85 8e be 46 84 7e 3e
       0.167892 0.082563914 -0.27836144 0.24855146
0003c0 b3 a7 5b 3e 4b 61 51 3e a6 b5 91 3e cc e7 9c be
       0.21450691 0.2044727 0.284589 -0.30645597
0003d0 c2 64 88 bd 7d 35 8c be 43 19 0d bf 55 a9 f0 bd
       -0.06659843 -0.27384558 -0.5511667 -0.117510475
0003e0 10 87 24 be 6e a3 7f 3d 19 6a 2f 3d bc 06 6f be
       -0.16067147 0.062411718 0.042825792 -0.23342413
0003f0 be 34 23 bc 6c 4b 3d 3e 9f 2b da bc e4 37 63 bd
       -0.009961305 0.18485802 -0.026632128 -0.055473223

bias_ih_l0 f4 [128]
000000 b6 33 9c 3d 15 73 7b 3e 49 51 f7 3e 15 7a 12 3e
       0.076270506 0.24555619 0.48304203 0.14304383
000010 70 c9 95 3e 3a 9c 90 3e 41 43 aa 3e 67 ec 1d 3e
       0.29255247 0.2824419 0.33254436 0.15422212
000020 e7 46 04 3e d0 7e c7 3e bc da d2 3e 77 5d a1 3e
       0.12917672 0.38963938 0.41182506 0.3151662
000030 13 c0 a5 3e b4 67 24 3e 3f 2a 5f 3e b1 15 88 3e
       0.32373103 0.16055185 0.2179346 0.2657905
000040 2c 8d ce 3e ed 91 85 3e 0b ed df 3d bf 1a 67 3e
       0.4034208 0.26087895 0.10933884 0.22568797
000050 92 f7 12 3f 70 ed ce 3c ef 18 d0 3e 3e bd 3e 3e
       0.5740901 0.025259703 0.40644023 0.18626878
000060 8f e8 0c 3f a7 11 af 3e d6 16 b9 3e 5a c4 38 3e
       0.55042356 0.34193155 0.36150235 0.18043652
000070 e5 ff b4 3c 3f eb 05 3e 9a da 88 3e bc 8a c5 3e
       0.022094676 0.1307802 0.2672928 0.38582408
000080 21 ad fd 3d 7c 7d 40 be c6 b1 d7 be ed a1 5e 3d
       0.12386537 -0.18797868 -0.42127818 0.054353643
000090 86 90 c6 be 60 3a f7 bd 37 60 d2 be 09 c5 bd bd
       -0.38782138 -0.12071681 -0.4108903 -0.09266097
0000a0 04 39 4b be 84 26 84 bc d1 eb 08 3c 9c e0 39 bd
       -0.19845968 -0.016131647 0.008357004 -0.04538022
0000b0 9c 6b 97 bd cf 8f 86 3d c0 b3 57 bd 9a 99 cf be
       -0.07393572 0.06570398 -0.052661657 -0.40546876
0000c0 05 40 99 be c5 1d 27 3d be 3b 0b be e6 96 d1 3d
       -0.29931656 0.040799875 -0.13597009 0.1023386
0000d0 5c da 14 bf 20 db 1d 3d fa 21 db bd 20 f2 32 3d
       -0.5814569 0.038539052 -0.1069984 0.04368794
0000e0 4b ef 9c be 80 13 98 3d 50 df d0 bc 49 d5 7a 3d
       -0.30651316 0.07425594 -0.025497109 0.06123856
0000f0 00 9e 8c bd b0 03 9c be d2 5b d0 be 34 67 a1 be
       -0.068660736 -0.30471563 -0.40695053 -0.3152405
000100 d2 c0 09 3e e2 4a fa 3d 1d 6f 80 bd 3f 0c d8 3d
       0.13452461 0.12221314 -0.06271193 0.10549211
000110 7a 52 db bd d4 4c e3 3c b0 fa e2 3d 22 89 51 bd
       -0.107090905 0.027746595 0.11082971 -0.05115617
000120 e6 c8 4c bd 95 74 8c 3d c5 0b 97 bd 12 ad 61 3c
       -0.04999628 0.06858174 -0.07375292 0.013774173
000130 04 9a 04 be 88 8e f3 bc bc ad 4c bd 55 93 d8 bd
       -0.12949377 -0.02973105 -0.049970374 -0.10574976
000140 09 c8 aa bd 59 87 ec bd 37 96 9c 3d 02 1d f6 bd
       -0.08338935 -0.11549253 0.07645839 -0.120172516
000150 48 6b 38 3d 0d 87 ff 3d 6c 02 01 3e 71 99 15 be
       0.045024186 0.12476931 0.1259858 -0.14609315
000160 fc cb 06 3e 8b 14 8e bd 31 dc ae 3c 39 35 11 be
       0.13163751 -0.06937512 0.02134523 -0.14180459
000170 ef ce e4 bd 80 69 d0 3d 66 e9 db 3c 88 03 57 bd
       -0.11172282 0.101763725 0.026844691 -0.052493602
000180 db 9f ad 3e 1d 49 a2 3e c7 22 0a 3f 7e 39 4b 3e
       0.33911023 0.31696406 0.53959316 0.1984615
000190 05 07 ea 3e f6 b6 6e 3e e9 b8 c1 3e 32 9b 82 3e
       0.4570848 0.23311982 0.37836388 0.2550903
0001a0 19 57 63 3d 6d 83 e8 3e 4e a6 86 3e f3 fc ac 3e
       0.055502985 0.4541277 0.26298755 0.33786735
0001b0 6e e4 9c 3e 3c 07 74 3e e3 91 97 3e f8 b9 06 3f
       0.30643028 0.23830885 0.2960349 0.52627516
0001c0 85 34 18 3f b3 89 46 3e ff 6e 89 3e c1 0f cc 3d
       0.5945514 0.19388466 0.26842496 0.09963942
0001d0 b1 fa 42 3f 70 3f 2b 3d f6 de df 3e 08 55 87 3e
       0.76163775 0.041808546 0.43724793 0.2643206
0001e0 02 66 df 3e f9 d0 cf 3e e0 3e 0e 3f fd f4 18 3e
       0.43632513 0.4058912 0.5556469 0.14937206
0001f0 95 bf 06 3e 27 1d a9 3e 32 5d d1 3e e2 f2 94 3e
       0.1315902 0.33030054 0.40891415 0.29091555

bias_hh_l0 f4 [128]
000000 30 fe 02 3d 9b 6f 84 3e 19 d1 b2 3e 05 eb 9b 3e
       0.031980693 0.25866398 0.34925154 0.30452743
000010 62 66 df 3e b4 dd 1d 3d a1 6f 6c 3e fe df a9 3e
       0.436328 0.03854151 0.23089458 0.33178705
000020 57 75 5b 3e 07 f6 0d 3f 95 19 1f 3e fe e7 42 3e
       0.2143148 0.5545353 0.15537103 0.1903381
000030 36 f9 ae 3d 4a de e8 3e dd 59 84 3e 53 38 da 3e
       0.08543627 0.45482093 0.2584981 0.42621097
000040 4f 06 a2 3e c6 c2 81 3e a5 9c 5f 3c c3 c3 39 3e
       0.31645438 0.25343913 0.013648187 0.18141083
000050 c1 c5 38 3f 8d eb 52 3e d6 b3 de 3e 41 4a 80 3e
       0.7217675 0.20597668 0.4349658 0.2505665
000060 9f 77 e7 3e b9 52 a7 3e c7 bf de 3e 6c f9 b5 3d
       0.4520845 0.326803 0.4350569 0.08885464
000070 35 d7 73 bd 16 b4 f8 3d 9f 72 ac 3e 5f 3d df 3e
       -0.05953141 0.12143724 0.336812 0.4360151
000080 95 cb 0f 3d 36 c6 25 be e5 fe 3b be e8 6e 1b be
       0.03510626 -0.16188893 -0.18358953 -0.15179026
000090 8a b9 a2 bd 22 8d 2c 3d 9d 36 8a be b9 2f 73 be
       -0.07945545 0.042126782 -0.26994792 -0.23748673
0000a0 79 96 00 be 42 2e 94 bd a8 92 df 3c f0 40 da bd
       -0.12557401 -0.072353855 0.02729161 -0.10656917
0000b0 53 1e 9d bd ab ec e8 bd df 49 5a 3d 49 f1 b5 be
       -0.076717995 -0.11373266 0.053293105 -0.35535648
0000c0 fa 37 dc be 1a 33 de bc 71 66 dc bd 12 af a1 bd
       -0.43011457 -0.027123976 -0.10761727 -0.0789472
0000d0 f0 06 e0 be 90 7a fe bd 54 fe a8 be ec 9d 80 3c
       -0.43755293 -0.12425721 -0.33006537 0.015700303
0000e0 9b 95 02 bf 46 ff 6f be 9d dd 8e be 19 09 0f 3a
       -0.5100953 -0.23437223 -0.27903453 0.0005456373
0000f0 ef 69 c6 bd f1 fe 90 bd 3e bb 8c be 14 e5 62 bc
       -0.09688174 -0.07079876 -0.27486604 -0.013848562
000100 d1 4d 18 be e5 13 16 be 26 e3 db 3d 0e 3b 4c 3d
       -0.14873435 -0.14656027 0.107366845 0.049861006
000110 e5 28 19 3e 7b 09 76 3d 95 3d 9a bd 85 c5 8b bb
       0.14957006 0.060067635 -0.07531277 -0.0042654895
000120 49 e7 ba 3d b0 19 cd bc 23 83 5d 3d b0 81 fe 3c
       0.091261454 -0.025036663 0.05408014 0.0310677
000130 35 cb 51 3d 96 60 16 3d 40 bd 02 be a8 ec 25 3d
       0.051219184 0.036713205 -0.12767506 0.040508896
000140 46 80 1c 3c 7e f1 01 3e 46 bc f9 3a 1e ad 7c be
       0.009552067 0.12689778 0.0019053302 -0.24675414
000150 91 46 e5 bd 3b b8 83 3d 15 dd f0 bd 4d dd d0 3d
       -0.111951 0.064316235 -0.11760918 0.1019846
000160 1c d9 da bd fc 8a 14 3d 9b 2a c7 3c 41 d7 dc bc
       -0.106859416 0.03626536 0.024312308 -0.02695811
000170 65 59 cd bd 2f 20 35 be cf 70 16 3b ea f3 52 3d
       -0.10026816 -0.17688058 0.0022955423 0.051502146
000180 b2 72 65 3e 56 0f e7 3e 13 59 c4 3e 29 ff d9 3e
       0.22407034 0.45128888 0.38349208 0.42577484
000190 37 42 0e 3f 2b c9 0b 3e a1 b2 13 3f b7 d0 10 3f
       0.55569786 0.13650958 0.5769444 0.56568474
0001a0 d7 d9 c4 3a f1 f4 f3 3e e2 16 01 3f 62 5b d4 3e
       0.0015018535 0.47647813 0.5042554 0.4147597
0001b0 6e 1e a3 3e 72 ec dc 3e 00 12 5d 3e 54 bd 08 3f
       0.31859154 0.43149143 0.21588898 0.5341389
0001c0 74 f0 1c 3f 3b da 69 3d 2f 3e bf 3e 4c 61 c3 bc
       0.613044 0.057092886 0.3735213 -0.023850106
0001d0 06 85 39 3f 49 7e 6e 3e 3b ca 16 3f e9 37 cb 3e
       0.724686 0.23290361 0.5890233 0.39691094
0001e0 91 c8 1f 3f 26 59 c3 3e 34 89 1b 3f 34 4f 1f 3e
       0.62415415 0.38153952 0.6075623 0.15557557
0001f0 e1 70 13 3b c4 46 a6 3e 7d 32 df 3e 19 ba fb 3e
       0.00224977 0.32475865 0.43593207 0.4916542

weight_ih_l0 f4 [128, 2]
000000 ed 95 0b 3f 59 c8 00 3e ca 3f 19 be dd a7 55 bd
       0.54525644 0.12576427 -0.1496574 -0.05216204
000010 65 2c a7 3e c5 1e 85 3e 92 4e 1f be de 12 9e bd
       0.32651058 0.26000038 -0.15557316 -0.077184424
000020 2c 4b b1 bc 74 09 c0 bd f7 f3 83 3b 93 74 ed 3d
       -0.02164229 -0.09376803 0.0040268856 0.115945004
000030 f8 46 dc 3c 9e 1b 88 bc 9d d4 06 3d 79 af fd bd
       0.02688931 -0.016614731 0.032917608 -0.123869844
000040 49 57 aa 3e 8a 7a 6e bd b6 26 4f 3c f9 1d c2 bd
       0.33269718 -0.05822233 0.012643507 -0.09478373
000050 8f dc 84 bd 24 4e 30 3e 03 e3 07 bd 65 b9 a7 ba
       -0.06487381 0.17217308 -0.03317548 -0.0012796341
000060 80 73 46 be 89 33 46 bd ad e7 37 bd 57 10 1f be
       -0.19379997 -0.04838899 -0.044898678 -0.15533577
000070 4c 24 c2 3c 58 36 2b 3d a2 79 e8 bb 32 2a db 3d
       0.023698948 0.041799873 -0.007094578 0.107014075
000080 ce d0 0d be 99 4f 5f 3d 76 3c f9 3d 45 57 89 3e
       -0.13849184 0.05451927 0.12169735 0.26824394
000090 ca 19 1d 3c de aa 7b 3c 61 fd b2 bd 53 38 85 bd
       0.009588668 0.015360562 -0.087397344 -0.065048836
0000a0 76 9e 18 3f f2 87 b7 bd 19 cc c3 bd ba 50 5e 3d
       0.5961679 -0.089614764 -0.09560413 0.054276206
0000b0 e4 7c 58 bb 89 09 df 3c 00 e4 e4 bd 40 52 9c 3c
       -0.0033033425 0.027226226 -0.111763 0.019082189
0000c0 c3 44 05 3e 50 22 86 3d 1a 85 fe 3c fa ec 9b bc
       0.13014512 0.06549513 0.031069327 -0.019033898
0000d0 d3 33 b8 3e 71 5f d7 3d 07 1f 29 be cd 99 ff 3a
       0.3597704 0.10516251 -0.16515742 0.0019500792
0000e0 e8 98 9c bd 89 2f 82 3e bf 7e 87 3d a9 fc b8 3d
       -0.07646352 0.2542689 0.06615972 0.09032566
0000f0 11 cc 0e 3e c9 f8 c6 3d e7 9b f2 bd 43 11 a2 bb
       0.13945033 0.09715421 -0.11846142 -0.0049459054
000100 d5 f8 b0 bd df 23 d9 bd eb b5 9b 3c be 97 e4 bd
       -0.08641211 -0.10602545 0.019007644 -0.11161755
000110 67 ea 74 3d d3 c1 15 3d 9d 56 98 3d a3 e9 58 bc
       0.059793856 0.0365618 0.07438395 -0.013239297
000120 18 80 0d 3e d4 85 2b bc d2 66 db bd 83 5f b7 bd
       0.13818395 -0.010468919 -0.10712971 -0.08953764
000130 a4 33 7e 3c 2b 11 10 3e 8c 4f 47 3e 75 bb 9c 3d
       0.015515242 0.14069049 0.19463938 0.07652942
000140 a7 76 5f be 87 97 3b 3d 46 7c ed 3c a5 ca 28 bd
       -0.21822606 0.045798805 0.028989922 -0.041208882
000150 37 e8 97 3c 81 82 f5 bd b2 15 c8 bd 89 67 3c 3e
       0.018543346 -0.11987782 -0.09769763 0.1839887
000160 78 66 9e bd 81 33 b9 3d 8e 43 be 3d 99 16 9b 3d
       -0.07734388 0.09043027 0.09290229 0.075726695
000170 43 cd a6 3d be 8b 9b 3d 10 69 2f 3d 9b fe ce bc
       0.08144619 0.07595013 0.042824805 -0.02526789
000180 ab fa 04 bd f5 7a d0 bd 41 51 80 be 28 c7 e7 be
       -0.032465618 -0.10179702 -0.25061992 -0.45269132
000190 e5 36 89 bc cd f5 2d 3d ce 5c 20 be 54 e4 dc bd
       -0.016749809 0.042470742 -0.15660402 -0.10785738
0001a0 25 c2 bf be 4e a4 9a bd c7 84 42 3e 59 15 92 bd
       -0.37452808 -0.0755087 0.18995963 -0.07132978
0001b0 e8 1f a5 bc 2a ce d0 bd db fa 78 3c 66 bd 50 bd
       -0.020156816 -0.10195573 0.015196527 -0.050961874
0001c0 b2 bd 50 be b1 53 64 bd 0e bc 22 bb 95 77 0d 3d
       -0.20384863 -0.055743877 -0.0024831328 0.03453787
0001d0 4b 50 18 3d 21 50 6c bd 15 71 95 3d c5 43 95 bd
       0.03718595 -0.057693604 0.07296959 -0.07288317
0001e0 67 3e 85 3e cd a0 4f 3c 28 dd a9 3c 54 26 f6 3c
       0.26024172 0.012672615 0.020735338 0.030047573
0001f0 c1 7c 88 3d c2 d9 f3 bd df 7f a0 bc 5d d9 82 bc
       0.0666442 -0.119067684 -0.019592224 -0.015972788
000200 82 08 ea 3d 66 c0 d5 3e 4b 72 a6 be 10 cd b0 be
       0.11427404 0.4174835 -0.32509074 -0.3453145
000210 db 42 21 be a0 14 d7 bd 7b 29 0b be b7 b4 57 be
       -0.1574816 -0.10501981 -0.13590042 -0.21065031
000220 b0 3d c2 be 62 48 c7 3d 80 3c a1 3e b9 21 24 be
       -0.3793769 0.09730603 0.3149147 -0.16028489
000230 0a d8 49 be 6f 1a af be 08 a9 89 3e 59 ab 6f be
       -0.19711319 -0.34199855 0.26886773 -0.23405208
000240 27 5c 90 3e 96 15 55 3c 25 5e 00 bd 6c 93 63 3e
       0.28195307 0.013005635 -0.031339783 0.22224206
000250 6a 64 4c 3e 16 86 f9 3e 60 09 f6 bd cd 05 1e 3f
       0.1996018 0.48735112 -0.12013507 0.617276
000260 0f d3 89 be 5d 5e 5e 3d 46 7f 6a 3c e0 8d 37 3e
       -0.26918837 0.05428921 0.014312571 0.17925215
000270 bd eb c2 bd 29 ac a3 be 4c c9 c9 bb a4 c0 10 3f
       -0.0951762 -0.31967285 -0.0061580297 0.56543946
000280 9b 2d d4 3d 28 e7 95 3d 1c 0b 89 be 9f ab 7e 3d
       0.10360261 0.0731948 -0.26766288 0.06217539
000290 51 f4 53 bd f1 3b 0f 3e 6e 07 01 3d ff 5d cb 3c
       -0.05174667 0.1398771 0.031501226 0.024825094
0002a0 1a 34 2f be 77 65 03 3e d4 5f fc bd 5a 26 0e 3e
       -0.17109719 0.12831675 -0.12322965 0.13881817
0002b0 be ab 13 bd 2d dd c0 be c1 8d 1f 3f df bf 4e bc
       -0.036052458 -0.37668744 0.62325674 -0.012618988
0002c0 f0 de 5f 3e fb 17 c4 3e 64 84 0c be bb 05 02 3f
       0.21862388 0.38299546 -0.13722378 0.50789994
0002d0 af 05 eb be d4 4a 78 3d 3b 56 0f 3f 5c 49 88 3b
       -0.45902774 0.060618237 0.5599095 0.0041591357
0002e0 46 af d3 3e cf d8 ea 3c 36 af 8e 3e a8 12 84 3e
       0.4134466 0.028667836 0.2786805 0.25795484
0002f0 dd ea 82 3e 98 b3 98 3d 2e c1 32 bd 76 3d c4 be
       0.2556981 0.0745613 -0.04364126 -0.3832814
000300 3f d5 03 bf 60 0f 5b be 0a a2 41 3f 9a 86 cf 3e
       -0.5149726 -0.21392584 0.75637877 0.4053238
000310 27 f4 dc 3d a8 7d 3a be 6c 81 d3 3e ba f7 11 bd
       0.10788756 -0.18211997 0.4130968 -0.03563664
000320 43 0d 06 bf c3 d9 9d 3e 9f c2 06 be 57 7e 3f bc
       -0.52363986 0.30830202 -0.1316018 -0.011687837
000330 fb ba f9 be ca 16 2c bf 1f c4 e2 be 96 f5 8d 3e
       -0.48775467 -0.67222273 -0.44290254 0.2772643
000340 56 de d5 be 87 f1 0e 3e a8 83 f0 3d 5c f6 a9 be
       -0.4177119 0.13959323 0.117438614 -0.3319577
000350 d3 10 42 3f f1 da 13 bd 81 29 f3 3d 25 83 55 be
       0.7580692 -0.03609747 0.118731506 -0.20850809
000360 5c 00 5c 3d 71 e1 7d 3e 89 85 a9 3e ce 91 f5 3e
       0.05371128 0.2479303 0.33109692 0.47962803
000370 a6 91 91 3d 3c 1c 03 3e 2f 50 e5 bd 58 a1 f0 3e
       0.07107858 0.1280374 -0.111969344 0.46998096
000380 54 dd 0e bf c8 8a 52 be d9 de a3 be a0 5d 03 bf
       -0.5580647 -0.20560753 -0.32005957 -0.51314735
000390 fd 51 0d be 9e d3 76 bd 1a f2 a7 3c 6e 42 b3 3e
       -0.13800807 -0.060260408 0.020501185 0.3501162
0003a0 79 e8 2a 3d da 9b 9f 3e 21 f5 e4 bd 53 3b b9 3d
       0.04172561 0.31173593 -0.11179567 0.09044518
0003b0 7a ea d3 3e f5 33 54 be 8c 74 19 be 26 31 4f be
       0.4138983 -0.20722945 -0.14985865 -0.20233592
0003c0 3e d3 be 3e 4f 9d 9e 3e 91 24 4e 3e f6 93 fe be
       0.3727054 0.30979392 0.20131136 -0.4972226
0003d0 2b 12 31 3e 02 3d 9f be 8f d8 2b 3c b7 5f d9 3d
       0.17292087 -0.31101233 0.010488643 0.10613959
0003e0 83 47 6d be ef 55 75 be 13 4d 14 be 9b a2 1d bf
       -0.23171811 -0.23958562 -0.14482526 -0.6157624
0003f0 66 02 ce bd 22 d5 e6 3d 70 d4 e3 bd 65 37 db be
       -0.10059051 0.112711206 -0.111245036 -0.428157

weight_hh_l0 f4 [128, 32]
000000 47 b9 16 3f 10 42 1e bf 91 8e 87 bf aa 42 91 3c
       0.5887646 -0.61819553 -1.0590383 0.017731983
000010 3e 4c 6f be 84 fe 43 3e 77 bd 8b be 58 58 f1 3d
       -0.23368928 0.19140059 -0.27292988 0.11784428
000020 a7 ac 2a 3e d2 4e 2e be 49 44 2e 3f 64 8c 4b bd
       0.16667424 -0.17022255 0.68072945 -0.049694434
000030 05 db a6 bd e8 f7 aa 3e 24 b8 a3 be 27 99 4a bd
       -0.081472434 0.33392262 -0.31976426 -0.049462464
000040 bd 8d 86 3e 0e 62 4a bd 25 36 01 3d 68 57 d3 3e
       0.26280013 -0.04940992 0.031545777 0.41277623
000050 45 12 6d be 2d 83 1d be f7 dd 69 be cf 10 83 3e
       -0.231515 -0.15382071 -0.22838579 0.2559876
000060 c1 d5 4a bd b9 8b 00 3f f6 cb af be a4 00 a0 3e
       -0.049520258 0.502132 -0.34335297 0.3125049
000070 16 60 3e 3f 5a f5 44 bd 2d b4 3c bc 01 08 34 be
       0.74365366 -0.048085548 -0.011517567 -0.17581178
000080 34 40 6d 3c 0f 9f 1f be c5 1a bf 3d f2 39 be bd
       0.014480639 -0.1558802 0.09331278 -0.09288396
000090 3d 18 11 bd c4 6f 7e be 74 9e b6 be 89 da 0f b9
       -0.035423506 -0.24847323 -0.35667765 -0.00013718953
0000a0 db 55 bf be da 1f 70 3e 0e 1d 70 be c1 df d7 3c
       -0.3737019 0.2344965 -0.23448583 0.026351811
0000b0 ff c6 3c bb b4 49 aa 3e ab 67 97 3e 09 e1 b4 be
       -0.0028805134 0.33259356 0.2957128 -0.35327938
0000c0 32 ed 45 be 7a 50 91 3e e3 a2 a6 bc 30 2e 40 3e
       -0.19328764 0.2838171 -0.020341342 0.18767619
0000d0 4a 9a a9 3e 44 76 c8 be bb 2f 9f 3c d4 7d b4 3e
       0.33125526 -0.3915273 0.01943194 0.3525225
0000e0 1a dd ba be 71 65 4b 3e a4 de 06 3f 06 af a7 3d
       -0.36496812 0.19862916 0.5268347 0.0818768
0000f0 b3 9c 9b 3e 2d 66 c8 bd 5d 31 8f be e8 e9 c9 be
       0.3039299 -0.097851135 -0.2796735 -0.3943627
000100 34 39 98 bd f8 91 a2 bd ca ae d4 3d 9a fd c3 bd
       -0.07432786 -0.079379976 0.10384901 -0.09569855
000110 2d c0 c0 be 86 5d 5e be 67 76 8e be 5a 67 87 bd
       -0.37646618 -0.21715364 -0.2782471 -0.066115096
000120 84 ac 4c be ef 7b 9e ba 74 a1 3c be b8 95 3a 3b
       -0.19987684 -0.0012091378 -0.18420964 0.0028470587
000130 93 65 0b be 8a cf d9 3e 80 b1 e0 3c ad e4 f9 bd
       -0.13612966 0.42541152 0.027428389 -0.122018196
000140 f6 98 03 3d 29 98 36 3e b0 37 4e be 73 ba 43 be
       0.032128297 0.17831482 -0.2013843 -0.19114093
000150 5b c5 97 3d 41 29 85 be 94 29 89 be 33 ce aa 3e
       0.074106894 -0.26008037 -0.26789534 0.33360443
000160 f9 f8 1a be 45 b8 27 3e 12 dc 33 bb 6a 92 da 3d
       -0.15134038 0.16378887 -0.0027444405 0.106724575
000170 c3 d5 6a 3e 16 bd 04 3e 5d 5b b2 bc 4e 60 0a bf
       0.22933106 0.12962756 -0.021772081 -0.540532
000180 75 15 8b 3e 14 9d ea bc 94 62 5b 3c d1 7e ec bd
       0.27164808 -0.028639354 0.013390202 -0.11547626
000190 5d e3 e9 3d 0e 4f 24 3e 1c bf b1 3c 0f 3b 9f 3d
       0.11420319 0.16045782 0.021697573 0.077749364
0001a0 ea 45 88 3e 00 15 6d 3e d2 33 fe bc ed 03 9d 3d
       0.2661584 0.23152542 -0.03103057 0.076667644
0001b0 c9 d8 20 3b e6 1c 21 3d fb bc b9 bd ce dc 13 be
       0.0024543277 0.0393342 -0.09069248 -0.14439699
0001c0 e7 9c 0c be 69 d3 cd 3d 1a 6b ff bd 5f 74 10 be
       -0.13731728 0.10050089 -0.124716 -0.14106892
0001d0 b0 3a 65 3b 52 97 f1 3d 96 90 39 bd 19 f2 08 3e
       0.0034977607 0.1179644 -0.045303904 0.13373603
0001e0 d1 bd af 3b a8 4a c3 3e 6b 08 e7 bc 0b dd dd bc
       0.005363204 0.38142896 -0.028202256 -0.02708294
0001f0 74 b5 0e 3e 1f 2f 60 3d 3f a3 10 3e ca 7c 50 be
       0.13936406 0.05473244 0.14124773 -0.20360103
000200 a7 4f 43 3e 5b 83 52 3e ec d6 32 3d 9a 6a f8 3d
       0.19073354 0.2055792 0.043661997 0.12129708
000210 46 c3 a9 3d c7 42 1b 3d 5a ff 84 3c d8 72 19 be
       0.082891986 0.03790548 0.016235042 -0.14985216
000220 c2 b0 ac bd b1 87 bd 3e dc 64 f4 bc f7 3f 34 3e
       -0.084321514 0.37017587 -0.02983325 0.17602526
000230 56 7e fd bc a9 74 15 3e 03 f8 21 3e d2 ea df bd
       -0.03094403 0.14595284 0.15817265 -0.1093346
000240 ca 3d 53 be 7c 1e 1d 3e 32 33 0c be b2 3b ef bd
       -0.2062904 0.1534366 -0.13691404 -0.11681308
000250 a9 51 f7 3d e7 31 2b be fe 20 8c bd 03 28 51 be
       0.12076122 -0.16718255 -0.0684223 -0.2042542
000260 95 a7 1e be 58 e5 48 3e f6 64 5e bd ea e8 ba 3c
       -0.15493615 0.19618738 -0.054295503 0.02281614
000270 ce 94 3c be 26 53 b1 3b 6c f8 b9 bc f4 50 11 be
       -0.1841614 0.0054115234 -0.022701465 -0.14191037
000280 b7 80 42 3f 84 ad fa be ae c5 bc be b9 e4 1c be
       0.75977653 -0.48960507 -0.36869568 -0.15321626
000290 23 a3 41 be e2 f7 8a 3e 1f db 17 be 25 f9 a9 3e
       -0.18909888 0.27142245 -0.14829682 0.33197895
0002a0 ca de 8e 3e b9 d3 5f be f6 2c ca 3d 25 54 d1 bd
       0.2790435 -0.2185811 0.09871857 -0.102211274
0002b0 98 95 5e bd 81 2a 59 bc 73 89 ea bd 5f 34 6f be
       -0.054341882 -0.013254763 -0.114519976 -0.23359822
0002c0 1f f6 62 bd dd e4 4b bc fe f5 41 be c7 a1 12 3f
       -0.0554105 -0.012444702 -0.18941495 0.572781
0002d0 cd 63 ee be 3e e7 0f be 43 4b 01 be 4d d4 53 3e
       -0.46560517 -0.14053056 -0.12626366 0.20686455
0002e0 3f 2f 7e 3e 94 c4 22 3e 82 b8 13 bd 15 3e f1 3d
       0.2482271 0.15895301 -0.036064632 0.11779419
0002f0 5b 05 98 3e 51 2d 15 be e1 5c 00 3e 59 b0 ec bd
       0.29691586 -0.14568068 0.1253543 -0.11557073
000300 c3 ad a0 3d af 41 7f 3e 45 eb 37 3e 03 60 55 3d
       0.078456424 0.249274 0.17960842 0.052093517
000310 85 67 09 3e ad 14 07 be 1a 23 c1 bd b6 fd 3e bd
       0.13418396 -0.13191481 -0.09430523 -0.046628676
000320 26 0b 31 be 43 e7 a6 3c d1 86 60 bd 29 59 0f 3e
       -0.17289409 0.020373946 -0.05481607 0.13998856
000330 21 2f d7 3d 1c 89 b0 3d ea 05 c7 bd 91 4c 17 be
       0.10507036 0.086199015 -0.09717925 -0.14775302
000340 86 c7 1a 3d 1d 57 a6 bc 58 1d 98 3d a0 9e b8 bd
       0.037787937 -0.02030521 0.07427472 -0.0901463
000350 b7 bb 85 3e 7c c9 1a 3e 59 75 d5 bd 38 19 c8 3d
       0.26119778 0.15115923 -0.10422773 0.09770435
000360 b7 c1 57 bc aa f3 c3 3d 6a b0 b4 3d 88 b3 e3 bc
       -0.013168744 0.095679596 0.08822711 -0.027795568
000370 ff db d1 3b f9 09 94 bd 71 5a 28 bd 98 54 18 3d
       0.0064043994 -0.07228465 -0.041101877 0.03719005
000380 f0 79 23 3d be a5 04 3e 3f a2 a2 3d e7 ba 35 3d
       0.03991121 0.1295385 0.07941102 0.044367697
000390 e0 82 aa 3d f7 65 fe be cb d4 19 bd 6e f3 9e 3d
       0.08325744 -0.49687168 -0.03755645 0.07761274
0003a0 35 b8 81 be 31 e0 ce bc 87 06 e8 bd 52 39 20 3e
       -0.2533585 -0.025253387 -0.1132937 0.15646866
0003b0 e1 f1 1d 3e 18 97 e7 bc 49 1b 03 3e c8 f1 04 bd
       0.154243 -0.02827029 0.12803377 -0.032457143
0003c0 f7 bb 0a bd 2b ee b0 3d cd 49 66 be a7 60 9d 3d
       -0.033870663 0.08639177 -0.2248909 0.076844506
0003d0 41 80 11 3d 2a f6 46 bd c9 f8 2b be d6 af 0e bc
       0.035522703 -0.048574604 -0.16794123 -0.008708915
0003e0 2f 9e 0c bd f1 50 0e 3e 5a f5 92 3e 50 ee 1e 3e
       -0.034330543 0.13898064 0.28702813 0.15520597
0003f0 d1 1e cf 3d 79 22 8b 3c 21 cb b5 bc e8 3a 3b bd
       0.101133 0.016984211 -0.022191586 -0.045710474

bias_ih_l0 f4 [128]
000000 03 08 2c bd d2 f8 05 bd e6 ba d1 3d a1 28 6e 3d
       -0.041999828 -0.032707997 0.10240726 0.058144215
000010 b5 96 a4 3d f5 7f 55 3d 4c 78 30 3e a5 f6 95 bd
       0.080365576 0.052123982 0.1723339 -0.07322434
000020 68 3f 3b 3d be f3 67 3d ef d2 08 be 4b 52 52 be
       0.045714766 0.056628935 -0.13361715 -0.20539205
000030 44 f5 9d 3c f1 3e 2b 3e 73 59 0a be 14 97 37 3c
       0.01928199 0.16723229 -0.13510685 0.011205453
000040 9b 87 17 3d b3 cf c8 3d df 00 4a 3e a1 49 78 bd
       0.036994558 0.098052405 0.19726895 -0.060617093
000050 19 55 46 3e ef 7f 8c bd 80 5a 21 be a6 0c 23 3b
       0.193684 -0.06860339 -0.1575718 0.0024879365
000060 a8 e8 ad bb 77 41 ab 3d aa f8 97 3d 64 bf 0d 3d
       -0.005307276 0.08362096 0.07420476 0.034606352
000070 99 a3 10 3e 66 64 a2 3d 35 8f 39 3e f1 26 a4 3d
       0.14124908 0.07929306 0.18121035 0.0801524
000080 11 81 35 3e c6 a7 1a be 3c bc ec bd 43 a5 0e be
       0.17725016 -0.15103063 -0.1155934 -0.1393023
000090 c3 dc 0a bd e0 bd 11 3d 36 dd 9a 3d 57 6d 3f 3e
       -0.03390194 0.03558147 0.07561724 0.18694054
0000a0 21 9d 1e 3e 68 84 3d 3e d0 a7 a8 3c 02 06 3e 3e
       0.15489627 0.1850754 0.020587832 0.1855698
0000b0 ce 3d f7 bd da d2 4b 3e 5e 29 1f 3d ef 2a b1 bd
       -0.12072335 0.19904652 0.03885781 -0.08650767
0000c0 06 81 b0 bd e8 12 69 3e 91 cf 5f 3e 45 3d 43 3e
       -0.08618359 0.22761118 0.21856524 0.19066341
0000d0 1b 1c d2 3d 54 73 d6 3d 3e bb f3 bd 86 0f e3 3d
       0.10259267 0.10471216 -0.11900948 0.11086945
0000e0 c9 d8 25 bd 7b 0c 50 3e 2f 73 31 3d 48 80 6e 3e
       -0.040489946 0.20317261 0.04332274 0.23291123
0000f0 5d 71 d2 bd 8f 6d 59 3c fb ac fa 3c 89 db 88 3d
       -0.102755286 0.01327075 0.030600062 0.06682498
000100 62 f0 be bc dd c3 1d 3a 43 1e ff 3d cd 7c 44 be
       -0.023307983 0.00060182606 0.12456944 -0.19188233
000110 67 ad 08 3c 36 c6 4f 3d f6 49 18 3d 12 a9 06 3e
       0.008342124 0.050726138 0.03717991 0.13150433
000120 94 e7 cc 3d cb 03 dc bd f4 58 8a 3d fb c5 3b bd
       0.100051075 -0.10742911 0.06755248 -0.045843106
000130 5a fb 8c bc 9e 72 6f 3d d4 72 b0 3d 53 93 16 be
       -0.017209698 0.058458917 0.08615652 -0.14704637
000140 c8 27 57 be 6c 37 23 bd 38 c1 39 3d a8 5e 63 bd
       -0.21011269 -0.039847776 0.045350283 -0.055510193
000150 aa 8f a4 3d 59 cd 16 be 22 6f 0b be 2e 94 2a 3e
       0.08035214 -0.14726771 -0.13616613 0.16658089
000160 d5 0a 08 be 13 0d c4 3d aa 15 7e 3e ff 04 a8 3d
       -0.13285382 0.09572806 0.24812952 0.08204078
000170 c2 36 50 3e bd c8 46 bd 5f 99 1f be 6e b9 66 3c
       0.20333388 -0.048531283 -0.1558585 0.014082296
000180 ed 3f 8d bc f6 58 44 3e 97 42 88 3e 53 3d ec 3d
       -0.017242396 0.19174561 0.26613304 0.11535134
000190 39 01 56 3e e4 e0 64 3e b0 68 2b 3e 84 4f 51 3d
       0.20898904 0.22351414 0.16739154 0.051101223
0001a0 27 a1 4d 3d d7 21 67 3e 1c 31 71 3d 92 7a 64 bd
       0.050202515 0.22571503 0.058884725 -0.055780955
0001b0 1a 99 c8 bd e1 a4 5d 3e 0f 4e a6 3d 6d 8a 9a 3d
       -0.09794827 0.21644928 0.08120357 0.07545934
0001c0 b5 5d 55 3d 3f 4a 3f bd 6e 26 f8 3d 45 54 2c 3e
       0.05209132 -0.046701666 0.12116705 0.16829021
0001d0 34 6a c8 3c 0f 27 09 3e 1a e0 1e 3a 2a 1c 01 bd
       0.024464704 0.13393806 0.00060606154 -0.031521
0001e0 00 8b 2a 3e 46 b1 23 3e 12 c9 9d 3e 51 9a e6 3c
       0.16654587 0.15985593 0.30817467 0.028149756
0001f0 67 18 b7 3c 16 61 09 bd 5c 26 2f 3e d3 d4 05 3e
       0.022350503 -0.033539854 0.17104477 0.13069467

bias_hh_l0 f4 [128]
000000 45 87 3f 3e 15 39 68 3e 42 82 05 3d 27 e4 e2 bd
       0.18703945 0.22678025 0.032594927 -0.11078673
000010 f3 95 32 3e d9 28 0f 3e 96 22 98 bd 9c ce fc 3c
       0.17440014 0.13980426 -0.07428472 0.030860238
000020 40 c1 fe 3d a6 d9 03 3e f9 4e 92 3d b9 54 5c 3b
       0.12439203 0.12875995 0.07143969 0.0033619835
000030 ea 64 a2 3c 11 c1 34 3e 3a e0 c0 3d 9b 19 7f 3d
       0.01982351 0.17651774 0.09417768 0.06228028
000040 07 3b 66 bc b4 11 9b 3c bf 30 db 3d 9d 39 d8 bd
       -0.014052159 0.01892934 0.10702657 -0.10557864
000050 c7 84 4b 3e d4 3e 27 3d 8c 18 0c 3e a2 62 91 bd
       0.1987487 0.040831402 0.13681239 -0.07098891
000060 24 00 e6 bd fc 7c f2 39 19 7a 1d 3d 54 2f 7c bd
       -0.112304956 0.00046250958 0.03844652 -0.061568573
000070 07 1a 2b 3e c8 f8 d3 3d 22 75 25 3d 29 7c df 3d
       0.16709147 0.10350186 0.04039491 0.109123535
000080 99 4d 30 3d 67 53 8f 3d 6d 7f 08 3c 00 ee 0e bd
       0.043042753 0.069983296 0.008331162 -0.034894943
000090 03 6e c0 bc 6c 6f 06 be 7a 84 42 bd 11 01 d3 bd
       -0.023489958 -0.13128442 -0.04748962 -0.10302938
0000a0 2a 9e da bd c5 0d d1 3b aa ce 78 bd 0d 76 a3 3d
       -0.10674699 0.0063798153 -0.060743965 0.07981501
0000b0 d1 24 c3 3c f6 3a 59 3e cf d0 f0 bd a3 48 24 be
       0.023821266 0.21213898 -0.11758577 -0.16043334
0000c0 4f 55 99 bc 97 0f 05 bd 98 a7 96 3d 1c 0c 64 3b
       -0.018717436 -0.03248557 0.07356185 0.0034797257
0000d0 ee 8e c2 3d 1d 03 e4 3c 64 94 d3 3c 88 57 16 bd
       0.09499918 0.027833516 0.025827594 -0.03670457
0000e0 a3 85 83 bc d9 07 7e 3e 31 37 3c bd 8f a4 64 3c
       -0.016054934 0.24807681 -0.045951072 0.013955249
0000f0 d2 fa c3 3d 42 4c 37 be 6b 24 b6 bd ab a0 79 3e
       0.095693246 -0.17900184 -0.08893665 0.24377696
000100 5c b9 1f 3e cd e9 97 3c 79 5d 83 bd 47 83 22 be
       0.15598053 0.018544102 -0.06414313 -0.15870391
000110 e3 9a a7 3d 11 26 1a be 15 07 2b be 7e f9 05 3e
       0.08183839 -0.15053584 -0.1670192 0.13083455
000120 eb 88 24 be cd fd eb 3d 4f a0 f6 bb 22 d8 7b 3d
       -0.16067855 0.11523018 -0.0075264345 0.061485417
000130 6d b2 65 bd 4a 7e 06 3e 3d 8d 81 3d 6e f6 24 bd
       -0.056078363 0.13134113 0.06325767 -0.040274076
000140 89 3e f8 bd db 7a 06 3e a1 8f 73 be b0 3c 2e 3d
       -0.12121303 0.13132803 -0.23785259 0.042538345
000150 a9 5f 02 3e ea 39 d8 bd 1f 22 96 bb 50 6a d1 3d
       0.12731804 -0.10557921 -0.0045817043 0.102253556
000160 a0 b2 8c bd 82 f3 a2 3e 8b f0 33 3d 52 11 c9 3d
       -0.068700075 0.31826407 0.04393057 0.09817757
000170 1c af 5f 3d cc 8f b2 bd 80 a8 8d 3d 5a 74 29 be
       0.054610357 -0.08718833 0.069169044 -0.16548291
000180 aa 12 7d 3e 30 be 2b 3e 11 83 29 3e d2 96 1a be
       0.24714151 0.1677177 0.16553904 -0.15096596
000190 07 ac 12 3d 1c 64 72 3e 4f 66 bd 3d 05 a5 ff 3d
       0.03580859 0.23671001 0.092480294 0.12482647
0001a0 8f 07 bf 3d b6 29 74 3e 10 d6 86 3b c4 66 0f bd
       0.093276136 0.23844036 0.0041148737 -0.035010114
0001b0 1a 75 b8 bd 2d d8 9a 3d 63 79 16 3e 42 cd 35 3e
       -0.0900671 0.075607635 0.14694743 0.17754081
0001c0 14 fd 4c 3e 5b 6d 3f 3c 03 69 ce bd 24 44 1d 3e
       0.20018417 0.011683787 -0.10078623 0.15358025
0001d0 6b 1d ef 3b 88 2b 66 bd 03 c5 f8 3d 00 b1 82 3e
       0.007297208 -0.05619386 0.12146952 0.25525665
0001e0 90 e7 29 3d c7 45 92 3e d5 a6 c5 3d 70 ac 5a 3e
       0.0414806 0.2856886 0.09650961 0.21354842
0001f0 02 82 98 3e 07 d6 09 3d 66 55 c4 3d 3c 18 48 3e
       0.29786688 0.033651378 0.09586601 0.19540495

weight_ih_l0_reverse f4 [128, 2]
000000 d1 86 0d 3f 7e 97 5c 3d a9 df ec 3d 51 37 a0 be
       0.5528384 0.05385541 0.11566097 -0.31292203
000010 0e 58 96 be 00 c6 8f bd fd ef 84 3e 5c f1 93 bc
       -0.29364055 -0.070201874 0.25964347 -0.018059425
000020 b6 06 bd be 82 5f 47 be f9 21 c4 bd 63 bb 96 bd
       -0.36919183 -0.19470027 -0.09576792 -0.0735996
000030 da f6 3f 3e d0 6a 7c be b3 f8 d5 3a 5f f8 03 bf
       0.1874651 -0.2465012 0.0016324728 -0.5155086
000040 fd 7f 0c 3e 8e f7 57 be 03 a3 fe be 2f e0 e7 3e
       0.13720699 -0.21090528 -0.49733743 0.45288226
000050 48 25 96 bd 28 fb e1 3d 1f 0b ef 3e 12 83 c9 be
       -0.073313296 0.110342324 0.46688172 -0.3935781
000060 e6 11 80 be 07 2e b7 be 28 fe 21 bf 49 01 3b bf
       -0.25013655 -0.35777304 -0.63278437 -0.73048836
000070 cc f2 50 bd bf 52 76 be be 34 0b 3f ec e1 f7 3e
       -0.0510128 -0.24055003 0.54377353 0.48414552
000080 15 a6 8f be c4 17 bc 3e 09 dd 88 be 2b af 57 bf
       -0.28056398 0.36736882 -0.26731136 -0.8425166
000090 cc 65 e0 be a1 a5 8f 3e 50 5c de be 5c bb 86 3e
       -0.43827665 0.28056052 -0.43429804 0.2631482
0000a0 ab 0e 20 bf ad c5 05 3e 68 43 3e bf fd 24 82 3e
       -0.6252238 0.13063689 -0.74321604 0.25418845
0000b0 59 a7 07 be c2 9a 80 3d 82 b0 62 3e 23 e1 65 be
       -0.13247432 0.06279518 0.22137645 -0.22449164
0000c0 41 76 42 be 56 36 34 3f cb 07 ac be f3 31 81 bd
       -0.18990423 0.7039541 -0.33599696 -0.06308355
0000d0 bc 44 94 3e 81 80 97 3e ba e2 9b bd a8 c4 c6 3e
       0.2895869 0.29590228 -0.07611604 0.38821912
0000e0 77 d2 7a be d0 4b c1 3d d9 79 e1 3e 9c 1c 77 3e
       -0.24494348 0.09438288 0.44038275 0.24132007
0000f0 07 ab 73 3e f5 92 fc be fb 9b b5 3e 7d a1 bc be
       0.2379571 -0.4933087 0.35470566 -0.36841956
000100 00 e3 92 3c a4 29 8c 3e 8b 74 14 3d cf a6 22 bd
       0.017930508 0.2737552 0.036243957 -0.039709862
000110 c5 19 fa bd 26 c9 d1 3e fd 28 23 3d 16 dd a9 3b
       -0.122119464 0.40973777 0.03983401 0.005183826
000120 d1 9a 60 be 46 30 bc 3d df d0 ef 3e dd 17 54 3e
       -0.21934058 0.09188895 0.46839043 0.20712228
000130 0c bd 72 be fe ce 14 3b 25 25 a7 3c 30 15 4b bc
       -0.23704928 0.0022706385 0.020403454 -0.012395188
000140 45 aa 40 3e 51 15 37 3e 94 08 5e bd 99 39 97 3c
       0.18814953 0.17879225 -0.0542074 0.018460082
000150 0b b1 bc 3e bc 55 b3 bc 31 d8 9f 3e 38 b4 ab bc
       0.36853823 -0.021891467 0.31219628 -0.020959958
000160 ea a5 88 bd 5a c7 d6 3c bf 9f 70 bd 23 21 0f be
       -0.066722706 0.026218105 -0.058746096 -0.13977484
000170 a3 ba 6a be de 96 6d be 2d 2e 52 3e c1 d9 23 3e
       -0.22922759 -0.23202083 0.20525427 0.16001035
000180 89 c2 97 bd 90 87 63 bc 95 77 73 be 3d bf 35 be
       -0.074101515 -0.013887301 -0.23776086 -0.17748733
000190 f4 8b 3d bd 42 d4 22 ba 39 11 a4 3c 6d 8d f4 bd
       -0.046276048 -0.00062114384 0.020027744 -0.11941037
0001a0 4a 14 04 bd 33 ca 91 3d d5 9e 10 be de 57 06 3d
       -0.03224591 0.071186446 -0.1412309 0.03279864
0001b0 d9 11 8b 3e ab 34 c3 be ad 37 d7 be df e8 63 be
       0.27162054 -0.3812612 -0.42034665 -0.22256802
0001c0 1b 4a 4a ba c4 37 2f bc dc 13 df 3d 49 ff 87 3c
       -0.0007716731 -0.010694448 0.1089246 0.016601222
0001d0 cc d4 bc 3d 2e b0 00 3e 81 e9 42 3d b2 43 18 be
       0.09220275 0.12567207 0.047585968 -0.14869574
0001e0 c2 7c 3e be f2 60 af 3e 02 a7 64 3e 00 a3 1f 3e
       -0.18602279 0.3425365 0.22329333 0.15589523
0001f0 4a e0 5b 3e 27 f6 bf be 61 80 97 3d 2c a8 5d be
       0.21472278 -0.37492487 0.07397533 -0.21646184
000200 f4 6f c7 be 7e c8 93 be 33 ab 16 bb c3 22 cd 3e
       -0.389526 -0.288639 -0.0022990226 0.40065584
000210 bf 2e 86 3e ee 9f 2e be 80 72 7a be 1a f4 a8 3c
       0.2620754 -0.17053196 -0.24457741 0.02062421
000220 fe 86 a6 3e 8e ee dd 3d 7e 03 7b 3e a4 0a aa 3c
       0.32524866 0.10836516 0.24513051 0.020757027
000230 ed 1e 52 3d 8f 88 1e be 3c 4f a3 be f5 79 a6 3e
       0.051299024 -0.1548178 -0.3189639 0.3251492
000240 b0 5e e6 bd ac b9 46 be 78 26 01 bf e1 b8 06 3f
       -0.11248529 -0.19406766 -0.50449324 0.5262585
000250 f3 0d d3 3d 3f e6 ea bc 01 da 01 3f 85 f2 53 be
       0.10305395 -0.028674243 0.5072327 -0.20697983
000260 ac 3e 2d 3e fb 29 93 be 29 8c 9e 3e 62 0a d7 3e
       0.16918439 -0.28742966 0.3096631 0.4200011
000270 75 2f 6a 3d 1c 46 bc be 99 0d 2f 3e 21 30 9a 3e
       0.057174165 -0.3677224 0.17095031 0.30114844
000280 dc d5 0c 3e 08 72 e0 3b 7d 23 4c 3e f9 48 fd 3e
       0.13753456 0.006849531 0.19935413 0.49469736
000290 b6 e0 5a 3e 43 3c aa be 6a ea aa be 63 4f 48 3e
       0.21374783 -0.332491 -0.3338197 0.19561534
0002a0 d4 dd 1e bf 24 d7 26 3e a8 46 b8 3e 41 eb 00 be
       -0.6205723 0.16293007 0.35991406 -0.12589742
0002b0 4b 47 e6 be b7 81 bb 3e 06 04 09 3e 96 0f b1 3e
       -0.44976267 0.36622402 0.13380441 0.34582204
0002c0 ca 39 55 be 91 b2 56 3f c8 94 87 3e 71 77 9c 3e
       -0.20822826 0.8386622 0.264807 0.30559877
0002d0 66 86 55 be 25 33 09 be 06 6c a6 bb 27 02 cb be
       -0.2085205 -0.13398416 -0.0050787954 -0.3965008
0002e0 86 c8 bb be 02 07 be 3e 0e a3 fc 3e ae d7 83 3e
       -0.36676425 0.37114722 0.4934315 0.25750488
0002f0 50 5b 35 3e 1a 0b 9b be fb 5b 8a 3e 19 90 a6 be
       0.17710614 -0.30281907 0.270233 -0.32531813
000300 79 57 10 3f a5 2f ae 3e 29 25 14 3e 77 c4 7d be
       0.5638347 0.34020725 0.144673 -0.24781977
000310 4a f5 b9 be ba a2 51 3e 26 e9 78 be b9 f9 2f be
       -0.36319953 0.20472232 -0.24307689 -0.17185105
000320 93 a7 f4 be 2a e8 fe bd ba 9d bc be 22 52 d3 be
       -0.477841 -0.124466255 -0.36839086 -0.412736
000330 30 dc 47 be a5 67 99 be 14 2a b3 3e b6 22 17 bf
       -0.19517589 -0.29961887 0.3499304 -0.5903734
000340 d2 4a 23 bf 11 e5 ed 3c 60 48 99 be bd 46 2c 3e
       -0.6378604 0.029039891 -0.2993803 0.1682386
000350 00 c9 db 3e af 2f 0a bd 99 0d 02 3f 2c 05 7a be
       0.42926788 -0.03373688 0.50802 -0.24416035
000360 c5 56 a7 3e d6 31 d8 be 25 2a ed be 63 43 f9 be
       0.32683387 -0.42225522 -0.46321216 -0.48684224
000370 c7 88 51 3d 4b 42 5e be b5 5e a5 3e 3d 0e 12 3f
       0.05115583 -0.21704976 0.32298818 0.57052976
000380 46 69 84 3d 45 34 27 3f 1a 41 b9 be 33 34 37 bf
       0.06465392 0.6531413 -0.3618248 -0.71564025
000390 00 81 9c be 15 0a ac 3e 9d 42 ca be cf 7f 40 3e
       -0.3056717 0.33601442 -0.39503947 0.18798755
0003a0 e5 ea e0 be 0f ee a9 3c f0 24 1c bf e8 ce ac 3e
       -0.4392921 0.020743398 -0.6099386 0.33751607
0003b0 98 fe c4 3e 81 62 0c bf de 5d 8c be d9 87 7c be
       0.3847549 -0.54837805 -0.27415365 -0.24661197
0003c0 1c 1c f6 bb bc 8b d8 3e 75 4d 04 3e 87 bc 7e be
       -0.007510675 0.4229411 0.12920173 -0.24876605
0003d0 ea 94 3e 3d c2 27 1b 3e f4 b8 b6 3e 19 d5 06 3f
       0.046528734 0.15151885 0.35687983 0.5266891
0003e0 e5 21 2b bd 32 90 9e 3e 01 3a db 3e b5 06 fd bd
       -0.04178037 0.30969387 0.4281769 -0.12354795
0003f0 d0 d0 68 3e 6c 59 ac bd 6d 24 3f 3e 5f e6 c7 be
       0.22735906 -0.08415493 0.18666239 -0.39042947
