TS-CVAE/experiments/EOT/models/models_24_Jul_2021_19_35_18_eot/model_registrar-196.pt (torch_old, 552549 bytes, 43 tensors)

weight_ih_l0 f4 [128, 6]
000000 90 95 9f 3e e2 26 39 3f c0 97 ac be b3 8d 81 be
       0.31168795 0.72324955 -0.33709526 -0.2530342
000010 b5 7d 1d bd 05 1f fd 3c d6 21 9a be 0c b7 a5 be
       -0.03844996 0.03089858 -0.3010394 -0.32366216
000020 eb ca 96 3d 36 ff 66 3c 6f 8f b2 bd 7d b3 88 bd
       0.07362922 0.014098933 -0.08718764 -0.0667486
000030 b9 a8 22 be 32 b2 83 bc 0a 64 2f 3d 6e 4d ac bd
       -0.15884675 -0.016076181 0.042820014 -0.08413206
000040 be de 2c bd f3 21 45 3e 25 b2 e4 3e 47 ad 6b 3e
       -0.04220461 0.19251232 0.44667163 0.23015319
000050 f0 93 50 be ca 1c b2 be 96 37 d3 bc 13 9c 55 3d
       -0.20368934 -0.3478759 -0.025783341 0.052150797
000060 ef 1b 51 bf 14 7e db be f9 54 b8 3e f2 e7 c3 3e
       -0.8168325 -0.42869627 0.3600233 0.38262898
000070 57 f2 ba bb d2 5e 16 be 92 f8 ec 3c 45 e0 04 3d
       -0.0057051587 -0.14684609 0.028927121 0.032440443
000080 27 6a 17 3f 8e 4b 54 be 35 33 ce 3e ca 35 49 bf
       0.5914635 -0.20731947 0.40273443 -0.785977
000090 86 de 18 bf 62 29 c4 3e 38 1e 30 bd 8a 95 07 bf
       -0.59714544 0.38312823 -0.04299757 -0.52962554
0000a0 7e 5f 7d bd a8 28 32 3e ad 3d 8e be 3a 99 34 3f
       -0.061858647 0.17398322 -0.2778143 0.70546305
0000b0 1c 91 08 3e fd b2 d2 be ec 8c 85 3d 02 2b 88 3e
       0.13336605 -0.41152182 0.06521019 0.26595312
0000c0 11 5e a4 3e eb 62 2e bf d3 44 27 3c 7f 50 cf 3e
       0.32103017 -0.68119687 0.01020928 0.404911
0000d0 d8 0b 21 3d 56 6c bb bc 84 ae 34 be dc bd c0 be
       0.039317936 -0.022878807 -0.17644697 -0.3764485
0000e0 a5 53 00 3d f6 9e 87 3e 7b 78 63 3c d8 09 3f 3e
       0.03132977 0.26488465 0.013883705 0.18656099
0000f0 4d cd 3c 3e 92 e6 f7 3e 61 25 a4 be 2c 9a 15 bf
       0.18437691 0.484181 -0.32059768 -0.5843837
000100 62 b0 04 be 45 5f 8f be c1 f5 72 3d 74 82 89 3e
       -0.1295791 -0.28002372 0.0593164 0.2685734
000110 79 10 8c be df 33 60 bc f4 81 ff bc 27 ee 3d bb
       -0.27356318 -0.013684242 -0.031189896 -0.0028981061
000120 12 7d bc be 36 b1 fe be f5 30 6a 3e d7 e5 50 3f
       -0.3681417 -0.49744576 0.22870238 0.8160071
000130 dd 0d c4 be 74 c5 1f 3e 5b 63 15 bf b3 66 9d 3e
       -0.38291827 0.15602666 -0.5835473 0.30742416
000140 a8 4c 77 3e ec 1e aa 3b f3 44 1a 3d 7a e3 3a 3d
       0.24150336 0.0051916745 0.03766341 0.045627095
000150 02 d3 3e be c8 65 49 be b6 a6 8e be f0 63 4e be
       -0.1863518 -0.19667733 -0.27861565 -0.2015531
000160 60 64 42 be ff d5 a2 3e d2 d0 46 bf 44 98 0c be
       -0.18983603 0.3180389 -0.77662385 -0.1372996
000170 d4 c3 8a 3e 58 f1 49 3e b3 1c 32 3c a6 1e 76 3d
       0.2710253 0.19720972 0.0108711 0.060087822
000180 22 ba 70 be bf cd 01 3e 15 41 17 3e a1 c4 a9 bd
       -0.23508504 0.12676142 0.1477092 -0.08289457
000190 57 43 a8 3e e3 8a 28 be 43 b2 b6 3d b3 08 91 3e
       0.32863876 -0.16459231 0.089207195 0.2832695
0001a0 06 35 ca be f1 9c 53 be 35 4c f0 3d 23 99 a6 bc
       -0.3949358 -0.20665337 0.11733285 -0.020336693
0001b0 e9 cd 53 bd 1b 46 03 3f 85 e8 02 3e 35 f8 e6 be
       -0.051710043 0.5127885 0.12784012 -0.45111242
0001c0 a2 d0 7c bb 68 38 7a be 64 d4 3c be 7f f6 f9 be
       -0.0038576503 -0.2443558 -0.18440396 -0.48820874
0001d0 48 51 ce be 54 59 8c 3e 39 af e2 3d fd 8a c9 bd
       -0.40296388 0.27411902 0.11068577 -0.09840963
0001e0 d3 ba bd be a6 bc 8a 3c 69 47 14 3e 05 ab 0b bc
       -0.37056598 0.016935658 0.14480366 -0.008524661
0001f0 44 ad 16 3e c8 ee 72 bd 3b 59 06 bd 09 54 b6 3e
       0.14714533 -0.05930975 -0.03279994 0.3561099
000200 8e 36 90 3d f5 a9 de 3e af 7e 49 bc ab 7e 9d 3e
       0.070416555 0.43489042 -0.01229827 0.30760702
000210 39 84 a3 3e 18 65 02 bf 1e 29 e7 be 02 95 0c 3e
       0.31936815 -0.50935507 -0.45148557 0.13728717
000220 af ff cf 3d cd 41 dd bd 2d e4 c6 38 44 96 ae bd
       0.1015619 -0.10803566 9.483877e-05 -0.08524755
000230 b3 1a ce bc bd a5 4c bd 5c 66 42 bb 08 a1 2c bd
       -0.025159216 -0.049962748 -0.0029663062 -0.04214576
000240 4c b9 25 3e b2 76 af bd e4 d0 ea bd 5a a1 6c 3d
       0.16183966 -0.08567561 -0.11465624 0.057771064
000250 39 03 1c 3d fc 44 78 bd d2 cf 3d 3e bb 7a ed bd
       0.03808901 -0.060612664 0.18536308 -0.115956746
000260 d1 9b 1d be d6 7c f6 3d 33 ce a8 bd 52 5b a9 bd
       -0.1539147 0.12035529 -0.082424544 -0.08269371
000270 b0 35 39 3e b4 ef 1a bd 26 82 03 be 8f bd fb 3d
       0.18086886 -0.037826255 -0.12842616 0.12292015
000280 84 9d 43 3d e9 99 8e bb 02 98 d5 3e ae 8f 18 3d
       0.04775764 -0.0043518436 0.41717535 0.0372464
000290 93 7b bd bd 97 29 a2 3d d3 92 81 bc 5e fc 87 3e
       -0.092520855 0.07918089 -0.015817082 0.26559728
0002a0 47 e9 6d 3d 13 ff af 3e 17 d9 97 be a5 14 4f bd
       0.0580838 0.34374294 -0.29657814 -0.050556798
0002b0 c4 eb 98 bd b6 e5 65 bc f9 dc 89 be cb 7e 09 3e
       -0.07466844 -0.014031818 -0.269264 0.13427274
0002c0 0c 61 bb be 7c 7b d1 bd db b2 2e bf 26 68 9e 3d
       -0.36597478 -0.10228631 -0.6824166 0.077347085
0002d0 c6 c7 c7 be 89 cf d6 be b9 4b df 3e f9 cf a0 3e
       -0.39019603 -0.41955212 0.4361246 0.3140867
0002e0 76 27 5d be 70 40 8f be 80 53 c8 bd 6f 65 04 bf
       -0.21597084 -0.2797885 -0.09781551 -0.51717275
0002f0 c9 c0 1c 3d 86 c3 c8 3e fc 70 fc 3d b9 29 ce 3d
       0.03826979 0.39211673 0.123262376 0.10066552
000300 be c5 fd bd 29 83 2e 3e 25 23 b6 be eb 77 60 be
       -0.12391232 0.17042221 -0.35573688 -0.21920745
000310 c5 c6 f9 bd ab 73 cc bd a4 65 31 3e 00 4f 3c 3d
       -0.121961154 -0.099829994 0.17323929 0.045973778
000320 26 e4 ca bd 33 09 1a bd 6a c1 5a 3d 2f 84 12 bd
       -0.09906797 -0.03760643 0.05340711 -0.03577059
000330 3b ab 25 3e e4 5a c8 bd f3 10 af 3d a5 45 a2 3d
       0.161786 -0.09782961 0.08548155 0.0792344
000340 b5 72 15 bd 29 19 b4 bc 64 08 71 3e 6d 76 02 be
       -0.036486346 -0.021984654 0.23538357 -0.12740488
000350 aa 85 73 be 84 b4 83 be 2a 29 53 bc b8 1c 22 bd
       -0.23781458 -0.2572366 -0.012888232 -0.03957817
000360 eb 1e 35 3e 62 0a c5 bd 94 07 c1 3e db 0d 64 3e
       0.17687576 -0.09621121 0.37701094 0.2227091
000370 bf d2 e4 bc 75 6a 62 3d 6f 41 9d 3d 30 77 56 be
       -0.027932523 0.055277307 0.07678496 -0.20943904
000380 2b bf 1b 3f d7 a3 18 be b8 a3 7e 3d 58 26 5e 3e
       0.60838574 -0.1490625 0.062167853 0.21694314
000390 c0 7e 7d 3e 6b a4 44 be 99 cf bf 3d a1 69 00 be
       0.24755383 -0.19203345 0.09365768 -0.12540294
0003a0 50 37 a6 3c 25 5c 84 be 7d 3d a7 3c 84 1b 36 bd
       0.020290047 -0.2585155 0.020415062 -0.044459835
0003b0 51 f1 09 3d c8 d0 23 be b7 68 56 3d c7 ec 72 be
       0.033677403 -0.15997612 0.052345958 -0.23723136
0003c0 0b 27 34 3e f7 5a 5d be 86 4b 6d be 65 36 8d 3e
       0.17593019 -0.21616732 -0.23173341 0.27580562
0003d0 6c 1d da bd 8c 32 14 3e f2 d8 26 be 6f a8 89 be
       -0.10650143 0.14472407 -0.16293696 -0.26886317
0003e0 d4 5b 36 3e a1 3d a7 3e 12 e2 82 3c 31 e9 c8 bc
       0.17808467 0.32664207 0.01597694 -0.024525257
0003f0 bf a1 59 3e 49 42 1f be f0 bd a2 3c fb c0 83 be
       0.21253107 -0.1555263 0.01986596 -0.2573317

weight_hh_l0 f4 [128, 32]
000000 69 20 73 3e b3 d0 28 be f9 92 1d be f6 df b0 3e
       0.23742832 -0.16485862 -0.15388097 0.3454587
000010 81 3d 45 3f 4d 24 f0 bd 8c 15 84 be 9f 3b 81 3d
       0.7704697 -0.11725674 -0.2579769 0.063102
000020 2c f0 69 3e ce 42 f7 3e c1 9c 4a be aa e3 29 bb
       0.22845525 0.48293155 -0.1978636 -0.0025923052
000030 b1 d8 e0 be d9 99 df 3e 05 ee af 3e 6e e2 0b be
       -0.43915322 0.43672064 0.34361282 -0.13660595
000040 ed bb e9 3c 67 74 05 bf 4d b8 a0 bb e0 af f6 3d
       0.028531993 -0.5213074 -0.004904783 0.12045264
000050 46 1c 3a be 45 9a 24 3d 9a f8 09 3e 4f d4 27 be
       -0.18174848 0.040186185 0.1347374 -0.16389583
000060 70 71 f0 3e 87 79 ba bd 72 11 20 3d 9f f9 4c 3e
       0.46961546 -0.09105211 0.039079137 0.20017098
000070 ad 40 2f 3e 61 1d 0e 3e 37 f8 00 3f 43 88 5f be
       0.17114516 0.13878395 0.50378746 -0.21829323
000080 e4 b4 97 3f c2 3a c3 3b 95 a8 8d bb 2e 66 85 3e
       1.1852078 0.005957932 -0.004323075 0.2605452
000090 91 62 8f 3f bf fd 3f 3e bc 90 69 bd 47 ad 0d 3d
       1.1201955 0.1874914 -0.057022795 0.03458908
0000a0 93 99 63 3e d4 bb 93 3e 31 eb aa be aa 92 4c bf
       0.22226553 0.2885424 -0.33382562 -0.7991129
0000b0 23 73 36 bf f3 32 0e 3f 27 6c a8 3e cb fc 4b be
       -0.71269435 0.5554649 0.32895014 -0.19920652
0000c0 38 a2 e7 3d 32 06 08 bf 3a ec 61 be bc ec fc bd
       0.11310238 -0.53134453 -0.2206277 -0.12349841
0000d0 3f 37 c7 bd 44 c0 5c 3e 32 06 88 3e 1f f4 45 3c
       -0.09727334 0.21557719 0.26567227 0.012082129
0000e0 bb d6 18 3e 86 69 a2 bd 0c 4d 17 bf 04 4d c5 be
       0.14925663 -0.07930283 -0.5910194 -0.3853532
0000f0 b8 ba c5 bd 4e 10 ff ba 13 9d 75 3f 0f 80 45 be
       -0.096547544 -0.0019459815 0.959428 -0.19287132
000100 f3 4d 1e 3f 35 08 42 bd f3 37 a9 bd 45 bf 33 3f
       0.6183769 -0.047371108 -0.082626246 0.7021373
000110 30 85 03 3f e1 0f 3f 3e c8 a9 a6 3e 8f 81 23 bf
       0.51375103 0.18658401 0.32551408 -0.63869566
000120 8f 62 eb 3e 88 cd 82 3e f1 67 5f 3e 43 b7 6d bd
       0.45973632 0.25547433 0.21816994 -0.0580361
000130 36 c2 c5 be 8f 03 84 3d 82 c7 1d bf be 8a 14 be
       -0.38624734 0.06445991 -0.6163255 -0.14506051
000140 87 71 02 3e 74 2a 34 be 13 7e 1e 3f 26 e0 b3 bf
       0.1273862 -0.1759432 0.61911124 -1.405278
000150 29 49 bd bd cc 04 52 3f 85 7d 35 be b3 59 8d bd
       -0.0924247 0.8203857 -0.17723663 -0.069018744
000160 f7 84 6e bd ed e5 e5 3d 9d d4 c7 3a 62 70 b9 be
       -0.058232274 0.112254955 0.0015245859 -0.36218554
000170 72 39 07 bf 88 91 14 3e e4 17 3d 3e 1d 9e bb bd
       -0.5282203 0.14508641 0.18466145 -0.09161017
000180 f1 b7 bf 3d f0 8f 1d 3e d2 10 cf bd ca 40 27 3e
       0.09361256 0.15386939 -0.1011063 0.16333309
000190 60 46 f8 bd b3 1d f7 bd d9 2a 56 3e e0 57 17 be
       -0.12122798 -0.120662116 0.20914783 -0.14779615
0001a0 bd 12 8b 3d 2d 41 68 bd ba 21 ec bd 28 86 44 be
       0.067906834 -0.05670278 -0.1152987 -0.19191802
0001b0 56 0f 3a be dc 8d 53 3e b5 bd c6 be 93 2f 0a be
       -0.18169913 0.20659584 -0.3881661 -0.1349471
0001c0 7f 0b 4e be 4e 8b d8 3d fd 0b 67 3e 8a 71 d6 be
       -0.20121573 0.10573445 0.22563167 -0.41883498
0001d0 ba 0b 85 be 49 ac be 3e 4c eb 15 3e cb a3 a5 bd
       -0.2598551 0.37240818 0.1464054 -0.08087882
0001e0 03 25 bf be b6 06 39 be fb b1 cb bd 6b c0 f6 bd
       -0.37332925 -0.18068966 -0.099460565 -0.120484196
0001f0 02 3c 5a be 81 4d 93 3e 26 d4 15 3e a8 4e 3a 3e
       -0.21311954 0.28770068 0.1463171 0.18194067
000200 19 30 35 bc fa 57 3f bd 26 21 a5 bc 63 ff b5 bc
       -0.011058831 -0.04671476 -0.020157408 -0.022216504
000210 49 50 b1 3e a1 50 4e 3e 0a 73 87 3d cd af 74 bd
       0.34631565 0.20147945 0.06613739 -0.05973797
000220 1f b0 24 3e e2 ad 81 bd f7 eb 5d be dc 6e 64 be
       0.1608281 -0.06331994 -0.21672045 -0.22307914
000230 09 ae bb be e4 2d a6 3e dc 39 0c 3e 2c 78 c7 bd
       -0.36656216 0.32456887 0.13693947 -0.09739718
000240 75 e5 6c bd 48 61 06 bd 0f 7c 0f 3e 35 48 a3 be
       -0.057836015 -0.03280762 0.14012168 -0.31891027
000250 df 62 ad bd da 3d 3a 3f 2b d7 db 3d 08 80 51 be
       -0.08466124 0.7275063 0.107343994 -0.20458996
000260 fa c0 97 bd fa d4 bd bd d1 83 93 be 39 4d e4 be
       -0.07409854 -0.09269138 -0.28811505 -0.44590166
000270 73 2b b7 be c1 69 14 be d1 e0 49 3e 50 db 3c 3d
       -0.35775337 -0.14493467 0.19714667 0.04610759
000280 94 32 6e 3e 44 01 f8 bb ae 1b 9a be 23 7b 8f 3d
       0.23261482 -0.0075685102 -0.30099243 0.07005908
000290 e4 d1 56 be 91 25 cc 3e 12 9d cf bd fc 14 80 3d
       -0.20978504 0.3987241 -0.10137381 0.062540025
0002a0 ac e6 98 bc ef 60 9d be ca e4 be bd 39 2e 8f be
       -0.01866468 -0.30738017 -0.09320982 -0.27964953
0002b0 1a 43 16 be 71 f2 71 3e f0 ae 9b be 31 d7 6f 3e
       -0.14674035 0.2362764 -0.30406904 0.23421933
0002c0 49 8f e8 3d 25 b3 45 3d 35 84 7a be d9 0a 3e be
       0.113554545 0.04826655 -0.24464495 -0.18558826
0002d0 fa 4d 12 3f 8b 23 bc 3e d8 89 23 bc c0 e3 19 3d
       0.5715023 0.36745867 -0.009981595 0.037570715
0002e0 45 45 13 bf 6a c2 6e be 31 34 69 3e 9d b4 00 be
       -0.5752757 -0.2331635 0.22773816 -0.12568898
0002f0 4c dc 06 be 66 54 04 3e 8d a1 aa 3d 02 e6 e4 3e
       -0.13169974 0.1292282 0.083315946 0.44706732
000300 bc 2a 84 3e bf 9e 27 3d 6e 5f 8c bd 4a 20 43 3f
       0.25813854 0.040922876 -0.06854139 0.76221144
000310 12 1d 45 3d 7f e3 a4 3e 5c f3 f2 3e 2c 1b 1b bf
       0.048123427 0.32204816 0.47451293 -0.60588336
000320 03 9a 1e 3f 28 7c 67 3e 8b 45 0b be 51 b0 0e bd
       0.61953753 0.22605956 -0.13600747 -0.034836117
000330 13 ca 99 be 7c 25 f8 3d 47 5a 31 bf 6a 6b 8f 3d
       -0.30036983 0.121165246 -0.6927838 0.070029095
000340 0b bf 3a 3c 2b 31 c5 3c b8 ef ff 3e 0d 06 c8 bf
       0.011398087 0.024071297 0.49987578 -1.5626847
000350 a8 46 db bd 64 2f 28 3f b9 10 7b be b2 d1 bc bd
       -0.10706836 0.6569731 -0.24518098 -0.09219684
000360 76 a2 b1 be 15 d7 39 be 74 98 bb 3d 38 c5 1d bf
       -0.3469426 -0.18148454 0.091599375 -0.61629057
000370 95 29 4a bf a1 dc da 3d 9b e6 59 be 68 25 33 be
       -0.789697 0.10686613 -0.21279375 -0.17494738
000380 0a d1 86 3e 0a 7f 82 bd 9e 03 36 be 6c 7b 50 be
       0.2633136 -0.06371887 -0.17774817 -0.20359582
000390 c7 fc 08 be 34 87 90 3e e1 01 a4 3e 6f 58 4a bd
       -0.13377677 0.28228152 0.32032683 -0.049400743
0003a0 b6 15 40 3f d3 48 ec 3b 52 85 d1 3e bb 54 05 be
       0.7503313 0.0072108298 0.40922028 -0.13020603
0003b0 bb 9d 70 3e 1a 59 09 3e d7 2f c4 be ee ea 97 3e
       0.2349767 0.13412896 -0.3831775 0.29671425
0003c0 29 37 b5 3e 96 c4 8a 3e 76 58 a4 3e 3b 11 28 bf
       0.35393646 0.27103108 0.3209874 -0.6565129
0003d0 c4 c2 7c bb 06 9c ba be 9c 1e 19 bf 74 df 86 3c
       -0.0038568238 -0.3644716 -0.5981233 0.016463973
0003e0 f8 8c c5 bb b9 ab 7c 3d 7b cd 5f bd ff f4 bf be
       -0.0060287677 0.061687205 -0.05463932 -0.37491605
0003f0 e5 3f 01 ba 7f 6d 5d 3e 5c e9 f9 bc b7 9c 19 be
       -0.00049304805 0.216238 -0.030506782 -0.15001188

bias_ih_l0 f4 [128]
000000 39 43 bb bd e3 cd 17 3e 4d e7 d6 3e 26 2e 3c 3e
       -0.09143681 0.14824633 0.41973343 0.18376979
000010 e9 7f 7d 3e 4f 29 fa 3e b9 a7 cb 3e 7b 21 9c 3e
       0.24755825 0.4885964 0.397764 0.30494294
000020 92 4a c3 3e 86 0f e0 3e 67 21 e6 3e 4d 6d 72 3e
       0.3814283 0.43761843 0.4494736 0.23674507
000030 f3 69 d9 3e fc bb 81 bc 13 0d 94 3e 68 4d 27 3e
       0.42463645 -0.015836708 0.28916225 0.16338122
000040 87 0a a7 3e f6 5c 56 3e af 3c 92 3e ba 76 95 3e
       0.3262522 0.209339 0.28561923 0.29192144
000050 ac d5 8d 3e c9 16 06 3e df e5 f4 3e 1a cb 6a 3e
       0.2770208 0.1309463 0.47831628 0.2292904
000060 b7 54 bf 3e 77 ae 7d 3e de 53 cb 3e e5 24 52 3e
       0.3736932 0.24773584 0.39712423 0.20521887
000070 39 0f e7 3d 12 ac 6b 3e 44 75 d2 3d be 7d 01 3f
       0.112822 0.23014858 0.10276273 0.5058249
000080 47 27 ba 3d 2f 07 66 be f4 07 9f be d8 04 3d bc
       0.09089523 -0.22463678 -0.31060755 -0.011536799
000090 05 71 ce be bb 65 e8 be 70 d3 d9 be 49 4e 64 bd
       -0.40320602 -0.45390114 -0.42544127 -0.05573872
0000a0 e1 83 a9 be 17 29 07 bd f0 72 a9 3c dd 0e ac bb
       -0.33108428 -0.03299817 0.02068469 -0.0052507953
0000b0 75 3c 7e be 76 e5 2f 3d 0a 8b a4 bd 8f 98 bc be
       -0.2482775 0.04294344 -0.08034332 -0.36835143
0000c0 2e b6 c8 be 24 47 d8 3c 68 cd 0c be 18 a6 c7 3d
       -0.39201492 0.02640111 -0.13750231 0.09748477
0000d0 0f fe 0e bf f7 8e 40 3a 63 ce c0 bd c9 33 0a 3e
       -0.5585641 0.0007345522 -0.09414365 0.13496317
0000e0 06 85 81 be 0d df 9d 3d d3 d5 49 3d c6 28 7c bb
       -0.252968 0.07708559 0.049276184 -0.0038476451
0000f0 bf b9 b1 bd f5 db bf be 33 49 ec be f2 8e a8 be
       -0.086780064 -0.374725 -0.46149597 -0.3292156
000100 72 73 06 3e 62 4b 02 3e 94 5c 85 bd 9b 0f e4 3d
       0.13129976 0.12724069 -0.065117985 0.11135789
000110 73 c4 df bd 2a cc b5 3c f1 d8 06 3e 0f a0 5b bd
       -0.109261416 0.02219208 0.13168694 -0.05361944
000120 06 11 56 bd ef 4c 99 3d 9f f5 87 bd 31 aa 86 3c
       -0.05226233 0.07485377 -0.066386454 0.016438575
000130 de 0f 0e be 4d b1 01 bd eb 58 46 bd 6b 32 e8 bd
       -0.1387324 -0.031663228 -0.048424643 -0.113377415
000140 76 d3 ac bd 86 76 f6 bd 99 87 b2 3d f3 77 27 be
       -0.084387705 -0.12034325 0.087172695 -0.16354351
000150 2f 01 19 3d 1f 47 0d 3e a1 9e fb 3d 0d d9 1a be
       0.037354644 0.13796662 0.122861154 -0.15121861
000160 db e7 f5 3d 68 f7 97 bd 5f de d7 3c 01 f6 13 be
       0.120071135 -0.07420236 0.026351152 -0.14449312
000170 32 04 01 be ce 2b c3 3d b4 43 0b 3d 9c 9b 51 bd
       -0.12599257 0.095298395 0.034000114 -0.05117379
000180 a6 1b 86 3e 90 1d 8b 3e d2 1b 0f 3f c4 22 70 3e
       0.2619297 0.27170992 0.55901825 0.23450762
000190 5e 10 f3 3e 5f 54 f3 3e 19 6b fa 3e b7 a9 c1 3e
       0.47473425 0.47525308 0.48909834 0.37824795
0001a0 bb 78 b3 3e af 8e 0c 3f 3c b0 99 3e dd 8e b7 3e
       0.35053048 0.5490522 0.3001727 0.35851184
0001b0 30 14 10 3f c9 0c 44 3e 8e 09 c2 3e e8 dc e9 3e
       0.56280804 0.19145502 0.37897915 0.4567635
0001c0 17 85 11 3f 2b a7 62 3e 46 2d ee 3e 89 12 23 3e
       0.56843704 0.22134082 0.46518916 0.1592504
0001d0 81 6d 1d 3f 9e fa 16 3e c8 b3 0f 3f db b7 b1 3e
       0.61495215 0.1474404 0.561337 0.34710583
0001e0 74 d9 b5 3e 03 1b d8 3e f3 18 1f 3f 48 22 55 3e
       0.35517466 0.42208108 0.62147444 0.20813859
0001f0 68 30 69 3e f9 84 ff 3e fc 2e a9 3e 15 52 c9 3e
       0.22772372 0.49906138 0.3304366 0.39320436

bias_hh_l0 f4 [128]
000000 ee fb 0a be f9 39 25 3e 22 67 92 3e 3c c5 b0 3e
       -0.13572666 0.16135396 0.2859431 0.34525478
000010 db 5c c8 3e d2 91 7a 3e 4a 9c 97 3e 33 0b f7 3e
       0.39133343 0.24469689 0.29611427 0.48250732
000020 ea e1 ee 3e 1b 3e 1a 3f 83 a6 45 3e e8 34 e5 3d
       0.46656734 0.60251015 0.193018 0.11191732
000030 65 d0 3e 3e b7 8e 8e 3e db d1 a8 3e 62 c9 a5 3e
       0.18634184 0.27843258 0.32972607 0.32380205
000040 63 07 75 3e 98 be 4e 3e ce 7c 42 3e ae 96 7d 3e
       0.23928599 0.20189893 0.18992922 0.24764511
000050 32 72 d9 3e 42 92 9f 3e 5f c0 01 3f 47 51 96 3e
       0.42469937 0.31166273 0.5068416 0.29358885
000060 30 fb 8c 3e 75 30 6e 3e cf fc f0 3e 7b ba e8 3d
       0.2753539 0.23260672 0.47067878 0.11363693
000070 43 8e ff 3c e0 1a 62 3e e6 6a 30 3e fa 56 0e 3f
       0.031195765 0.22080564 0.17228279 0.55601466
000080 9d fe 0b 3b e9 4f 4b be 27 56 95 bd a2 e7 5e be
       0.0021361478 -0.19854702 -0.07291823 -0.21768048
000090 55 3c c2 bd 5e 05 95 be d6 a9 91 be b7 60 4d be
       -0.09484164 -0.29105657 -0.28449887 -0.20056425
0000a0 9c 32 84 be 1c b9 b6 bd c9 47 22 3d b2 11 88 bd
       -0.25819862 -0.089220256 0.03961924 -0.06644
0000b0 e9 8a 80 be ee c4 0b be 75 cf d1 3c 3e f0 a2 be
       -0.2510598 -0.13649341 0.025611619 -0.31823915
0000c0 25 d7 05 bf d1 13 2a bd ad 89 df bd e0 9f ab bd
       -0.5228141 -0.041522805 -0.109149314 -0.08380103
0000d0 36 4e d4 be 80 f3 25 be 77 69 a2 be f5 15 db 3d
       -0.4146592 -0.16206169 -0.31721088 0.10697547
0000e0 df c0 e9 be 54 19 6d be b5 29 51 be d6 2d 84 bd
       -0.4565496 -0.23154193 -0.20426066 -0.06454055
0000f0 ae 85 eb bd 31 30 10 be 9f a8 a8 be 78 ef e3 bc
       -0.11500107 -0.14080884 -0.32941148 -0.027824149
000100 31 9b 1b be c4 ed 10 be ae f5 d6 3d 9d 41 64 3d
       -0.1519592 -0.141532 0.104960784 0.055726636
000110 d0 ef 16 3e 38 49 5f 3d c4 0c 5f bd 76 7c dc bb
       0.14739919 0.054513186 -0.054455534 -0.006728704
000120 69 43 b6 3d e2 b7 99 bc 32 af 7b 3d b0 2a 0a 3d
       0.08899576 -0.01876444 0.061446376 0.033732116
000130 69 f3 2b 3d 90 76 0e 3d 20 28 01 be 53 ae 06 3d
       0.04198018 0.03478104 -0.12612963 0.032881092
000140 a1 24 0c 3c d6 f3 f9 3d ca c2 4e 3c 38 8b 94 be
       0.008553655 0.12204711 0.0126196835 -0.29012465
000150 b6 fb f4 bd 25 bf 9e 3d 3e 43 f7 bd 53 5e c6 3d
       -0.119620726 0.07751302 -0.12073372 0.0968596
000160 66 89 f2 bd 3f c5 00 3d ca 2c f0 3c 90 dc f2 bc
       -0.11842613 0.03143811 0.029318232 -0.029646188
000170 c9 92 ea bd d9 be 3b be 2d d8 1a 3c d6 5b 58 3d
       -0.11453778 -0.18334521 0.009450954 0.052821957
000180 36 6a 16 3e c9 e3 cf 3e e4 4a ce 3e 15 74 ec 3e
       0.14688954 0.40603474 0.40291512 0.46182314
000190 d0 c6 12 3f 66 dd c1 3e f0 0b 30 3f fe 57 30 3f
       0.57334614 0.37864226 0.68768215 0.68884265
0001a0 ab d2 97 3e 73 47 12 3f cb 9b 0a 3f 4c ed de 3e
       0.29652914 0.5714027 0.5414397 0.43540418
0001b0 3a 31 13 3f 47 ef c4 3e a1 00 99 3e a5 e3 ed 3e
       0.5749699 0.38463804 0.29883292 0.46462741
0001c0 06 41 16 3f ee 27 ad 3d 40 fe 11 3f db 79 12 3d
       0.5869297 0.084548816 0.5702858 0.03576074
0001d0 d6 f7 13 3f 5e 54 ad 3e 6e 8e 36 3f bc 9a f5 3e
       0.5780004 0.3385343 0.7131108 0.47969615
0001e0 67 02 0b 3f 30 a3 cb 3e 47 63 2c 3f 7f 7c 5b 3e
       0.5430054 0.3977294 0.67338985 0.2143421
0001f0 63 7d c9 3d 9b ae fc 3e 47 04 b7 3e ce 0c 18 3f
       0.09838369 0.49351963 0.3574545 0.5939454

weight_ih_l0 f4 [128, 2]
000000 3c 71 69 3f 30 9d 4f 3e 6c 78 75 be f7 cb b8 bd
       0.91188407 0.20274806 -0.23971719 -0.09023278
000010 3a e4 8d 3e a7 cd c4 3e 90 d4 50 be 10 09 95 bd
       0.27713186 0.3843815 -0.20393586 -0.07277119
000020 f5 4d 69 bd ea 23 f8 bd 2a b5 d6 bb fc 5b e7 3d
       -0.05695911 -0.12116225 -0.006552358 0.112968415
000030 07 6e 1b 3c 6b 36 0b bd 4b 1d 87 3b 65 83 4d be
       0.009486682 -0.033987444 0.004123365 -0.20069654
000040 0a 79 08 3f a8 0f cf bd e3 ba 10 3d d3 df a5 bd
       0.5330969 -0.10110408 0.03533448 -0.08099332
000050 f4 0a e6 bd d7 95 72 3e 5a eb 51 bd e8 d9 21 3d
       -0.11232558 0.23689972 -0.05124984 0.039514452
000060 37 1f 17 be 45 ef b3 bd e5 34 b3 3c fa 87 97 be
       -0.14758001 -0.087858714 0.021875808 -0.2959593
000070 75 08 c6 3c 71 3f 2a 3d d5 d9 98 bc 28 c3 c5 3d
       0.024173955 0.04156441 -0.018658558 0.09656364
000080 94 79 d2 bd e2 12 6c 3d b0 8c e8 3d 0b ab 98 3e
       -0.102770954 0.057635196 0.11354959 0.29817995
000090 54 8c 29 3d 2a f0 9b bc 13 9c c0 bd 5c c5 a7 bd
       0.041393593 -0.019035418 -0.09404769 -0.0819194
0000a0 9f e7 3b 3f 94 b7 c2 bd 25 3c 0e be 13 a4 18 3d
       0.734003 -0.09507671 -0.13890131 0.03726585
0000b0 28 c7 96 3b 6f 4a 97 3d 3a 9a 2f be a0 02 96 3d
       0.004601378 0.07387244 -0.17148677 0.073247194
0000c0 77 1e 14 3e e0 4c 22 3d 11 79 1c bb 3d 98 35 ba
       0.14464746 0.039624095 -0.0023875872 -0.00069272873
0000d0 84 f8 a5 3e 56 35 0e 3e 6f 28 11 be df 3a 9a bc
       0.32416165 0.13887534 -0.1417558 -0.0188269
0000e0 67 41 ad bd 56 59 3a 3e 35 9c e2 3d fc f0 06 3e
       -0.0845974 0.18198141 0.110649504 0.13177866
0000f0 c4 da ec 3d 44 23 58 3e b6 ba 21 be bd d9 e6 3c
       0.11565164 0.21107203 -0.15793881 0.028179998
000100 57 b1 e6 bd 38 00 1f be 71 bc 8f 3c ca af 8f bd
       -0.11264294 -0.15527427 0.01754591 -0.07015951
000110 65 c7 95 3d 07 be 42 3c 9a ea ba 3d c1 59 aa 3c
       0.07313422 0.011886126 0.09126778 0.020794751
000120 0a 64 2b 3e 69 31 56 3b 4f d8 6b bd bd ea b6 bc
       0.1673738 0.003268326 -0.057579335 -0.022328729
000130 35 cb a0 3d e9 d1 34 3e 58 8f 5b 3e cc 51 00 3e
       0.07851259 0.176582 0.214414 0.12531203
000140 ab a2 76 be 7c 5b 54 3d 9a ca ef 3d d8 10 f1 bd
       -0.2408549 0.05184506 0.11708565 -0.11770791
000150 9f 87 a6 3b 98 57 05 be 9b 0e e7 bd 9b d2 40 3e
       0.0050820853 -0.13021696 -0.11282083 0.1883034
000160 6d 91 c9 bc 57 3e e2 3d 8d 59 f1 3c ec 59 e6 3d
       -0.024605477 0.11047047 0.029461646 0.1124762
000170 c1 5a 74 3d 8c c7 92 3d a5 c2 b0 3c b7 4b 8f bd
       0.059656862 0.07166967 0.021577189 -0.06996863
000180 79 48 aa bd 4e 91 d9 bd d2 65 cf be ad 96 df be
       -0.08314604 -0.10623418 -0.4050737 -0.43669644
000190 29 fb 9c bb 54 05 ba 3c 1f 41 a3 be 9d eb 4e be
       -0.004790683 0.022707619 -0.3188562 -0.20207067
0001a0 9a 2a f8 be 64 8b de bc fa 08 c3 3e d9 e8 9e bd
       -0.48470002 -0.027166076 0.38092786 -0.07759256
0001b0 a1 4b f3 bc ea 50 9e bd e6 cf 29 3d 8e ae a3 bd
       -0.029699149 -0.07730277 0.041458033 -0.07992278
0001c0 cc 34 6f be 4f 64 f8 bd e8 8a 76 3a ba 9a 7c 3d
       -0.23359984 -0.12128507 0.0009404854 0.061670996
0001d0 cd 2b fa bb 11 e2 83 bd 5f 44 8f 3d 44 31 85 bc
       -0.007634616 -0.06439603 0.069954626 -0.016258843
0001e0 87 61 d5 3e 6d 22 1f 3d e6 f7 1c 3d 4a 9d 40 3d
       0.4167597 0.03885119 0.038322352 0.047025003
0001f0 12 d9 d4 3c ad d0 19 be d9 4c 52 3d 38 a5 99 3c
       0.025982413 -0.1502101 0.05134282 0.01875554
000200 34 17 70 3e 5e f2 15 3f 02 69 d1 be 95 45 b2 be
       0.23446351 0.5857295 -0.40900427 -0.34818712
000210 1e 2e 65 be e7 63 0f be 94 7f b6 bd f2 18 7b be
       -0.22380874 -0.14002953 -0.08911052 -0.24521235
000220 40 72 0d bf 48 df 9c 3d 62 ca af 3e 36 f3 90 be
       -0.55252457 0.07659775 0.34334093 -0.28310555
000230 93 87 9b be 6f 5c 02 bf 19 e2 8b 3e 07 ad 9e be
       -0.30376872 -0.5092229 0.27320936 -0.30991384
000240 45 41 ad 3e 60 06 7b 3d 5f 78 15 bd 46 94 15 3e
       0.3383886 0.061285377 -0.036491748 0.14607343
000250 97 83 80 3e a3 6d 14 3f 70 90 6d be 97 55 3f 3f
       0.25100395 0.5797979 -0.2319963 0.74739975
000260 36 51 79 be 8c ee 11 3e 70 6c 2b bd f7 51 1e 3e
       -0.24347386 0.14251155 -0.04185146 0.15460955
000270 14 08 03 be cf c7 07 bf 60 5e ed 3c 49 b6 3b 3f
       -0.1279605 -0.5303926 0.028975666 0.7332502
000280 87 db ba 3d 1d fe 48 3d 2b 89 62 be f7 8f 9b 3d
       0.09123903 0.049070466 -0.22122638 0.075958185
000290 13 74 cf bb 8a 2c ea 3d 02 07 47 3d 9f 5d 37 3d
       -0.006330976 0.114342764 0.048590668 0.04476702
0002a0 7f 5b 57 be d8 c1 c4 3d 13 3f 60 bd 40 b3 f7 3d
       -0.21030997 0.09607285 -0.054747652 0.12094736
0002b0 6e 7e 97 bc 2a ba 97 be ed 31 8f 3f 49 09 95 bd
       -0.018492904 -0.2963422 1.1187111 -0.07277162
0002c0 89 a2 79 3e 18 74 0d 3f 87 5e 31 be 86 15 16 3f
       0.24378408 0.5525527 -0.17321216 0.5862659
0002d0 f3 75 0e bf 07 c5 55 3e b1 37 46 3f 83 9b a1 3d
       -0.55648726 0.20875941 0.7742873 0.0789099
0002e0 f8 10 0d 3f 6f 1e 48 3c 50 f2 99 3e ce 08 9a 3e
       0.5510402 0.012214287 0.30067682 0.30084842
0002f0 51 b3 58 3e 61 65 25 3e 27 59 be bd 7b 15 b4 be
       0.21162154 0.16151954 -0.09294348 -0.35172638
000300 0d d9 02 bf 25 20 5e be 84 7d 85 3f 21 b8 b0 3e
       -0.51112443 -0.2169195 1.0428929 0.3451548
000310 71 a7 15 3e 44 36 9d be d9 fb e2 3e 7f d9 94 bd
       0.14614655 -0.30705464 0.4433277 -0.072680466
000320 7b 1a 08 bf ed 13 01 3f a9 dc bf bd 90 c7 85 bd
       -0.53165406 0.5042103 -0.093682595 -0.06532204
000330 29 4f 1c bf 9a d6 5d bf ad 15 e0 be 00 ce e7 3e
       -0.6105829 -0.8665558 -0.43766537 0.45274353
000340 38 79 38 bf 84 c9 6f 3e 4f 18 be 3d ea c1 a8 be
       -0.72059965 0.23416716 0.0928198 -0.32960445
000350 96 d0 4c 3f 6c cb 30 bd 26 4f a5 3d 8e 86 83 be
       0.80005777 -0.04316275 0.08071737 -0.25688595
000360 a9 e3 07 3e fe 46 86 3e 8f 95 a0 3e b3 77 eb 3e
       0.13270439 0.26226038 0.31364104 0.4598976
000370 ab f3 b7 3d 5d ca 29 3e 27 b3 10 be ce 01 0a 3f
       0.08982023 0.16581102 -0.14130841 0.53909004
000380 49 fb 32 bf 36 31 b2 be e4 30 d7 be d3 44 6f bf
       -0.6991468 -0.3480317 -0.42029488 -0.9346439
000390 b2 fc 26 bc be 14 8c bb ac 06 06 bd bf d8 f9 3c
       -0.010192083 -0.0042749336 -0.032721207 0.03049886
0003a0 79 eb 2f 3b ef 2f ca 3e d2 c7 81 bc de 8b 97 3d
       0.0026843233 0.39489695 -0.015842352 0.073997244
0003b0 b2 54 f3 3e 1f 35 90 be 07 86 a1 be df 5f a5 be
       0.47525555 -0.28165528 -0.31547567 -0.32299706
0003c0 b9 8e d0 3e eb 80 c0 3e 6c c1 97 3e 8a 17 0a bf
       0.4073389 0.37598357 0.29639757 -0.5394217
0003d0 a7 c9 16 3e 0a 41 c2 be c7 12 b4 3b cc f1 28 3e
       0.14725362 -0.37940246 0.0054954025 0.16498488
0003e0 f8 4d ab be bb 30 ac be 62 73 1a be 5a 40 e6 be
       -0.33457923 -0.33630928 -0.15083078 -0.4497097
0003f0 83 1c f9 bd b8 a3 a5 3d 2b 73 53 bd f3 ce e3 be
       -0.12163641 0.080878675 -0.051623505 -0.44493827

weight_hh_l0 f4 [128, 32]
000000 b5 15 19 3f 98 ca 3a bf db e4 c0 bf 69 c0 2f 3d
       0.5979875 -0.72965384 -1.5069841 0.042908106
000010 39 fc b1 be 6e 22 54 3e d7 f2 95 be 3a 95 d7 3c
       -0.34762743 0.20716259 -0.29286835 0.026316274
000020 34 e9 28 3e 40 71 53 be e3 e0 91 3f e5 68 12 3e
       0.1649521 -0.2064867 1.1396755 0.14297827
000030 76 c7 b2 bd 93 45 90 3e d6 93 be be e8 a3 be bd
       -0.087294504 0.2817808 -0.37222165 -0.093086064
000040 28 54 5d 3e 2c 04 bd bd dd 07 92 bc d1 46 c5 3e
       0.21614134 -0.09229311 -0.017826015 0.3853059
000050 f5 8d 4a be 68 ed 12 be 4c 80 65 be 47 c7 76 3e
       -0.19780715 -0.14348376 -0.22412223 0.24099456
000060 96 c9 c3 bc 70 fb 07 3f 3e 73 bd be fe 6f 9e 3e
       -0.023899835 0.5311804 -0.37001985 0.30944818
000070 19 4b 46 3f ec 59 d1 3d 51 7a 9e bb 28 01 09 be
       0.7745834 0.10222229 -0.0048363586 -0.13379347
000080 d0 b2 56 3d 26 4a 51 be 9e 53 b7 3c 9a 70 ee bd
       0.052416623 -0.20438442 0.022378739 -0.11642571
000090 53 b5 9f 3e bf 6b 83 be 92 31 d3 be 84 e7 da 3d
       0.31193027 -0.2566814 -0.41248757 0.10688689
0000a0 2b 2f aa be f4 95 27 3e 75 ab 4c be 0e fc 0a 3e
       -0.3323911 0.16365796 -0.1998728 0.13572714
0000b0 2a 35 49 bd 87 1b cd 3e b0 86 ad 3e 9e 22 e1 be
       -0.049122967 0.40060064 0.3389182 -0.43971723
0000c0 10 34 59 be b2 57 b6 3e b9 88 55 bd fb 48 81 3e
       -0.21211267 0.3561378 -0.052132342 0.25250992
0000d0 39 b5 32 3e 2a 7b dc be 16 e7 2a bd 1f 42 bc 3e
       0.17451943 -0.43062717 -0.041724287 0.36769196
0000e0 40 20 00 bf b0 39 8c 3e 71 97 23 3f fc f5 8e 3d
       -0.5004921 0.27387762 0.63902956 0.069805115
0000f0 72 35 c4 3e 8e 78 56 be 40 12 b9 be 41 da ea be
       0.38322026 -0.20944425 -0.36146736 -0.4586964
000100 e4 41 74 be d1 35 5c bd 41 9a 24 3e e8 c0 0b be
       -0.2385326 -0.05376226 0.16074468 -0.13647807
000110 40 7f b0 3d 16 0b 51 be c8 43 9d be 15 d0 83 bc
       0.08618021 -0.20414385 -0.30715775 -0.016090432
000120 96 2a 8f be e7 3c 88 3b eb d1 81 be 29 29 f8 3e
       -0.27962178 0.0041576508 -0.25355467 0.48468903
000130 54 7a c7 bd 5e 7c 05 3f 8f e9 1d 3d f0 fd bf bd
       -0.09740129 0.52142894 0.038552817 -0.093746066
000140 d9 f5 e4 bd cd 1c 34 3e 33 44 50 be ff f2 57 be
       -0.11179704 0.17589112 -0.20338516 -0.2108879
000150 6f 25 c1 3e ed 0b 85 be 7d 02 98 be be b2 d6 3e
       0.37723872 -0.2598566 -0.29689398 0.41933244
000160 10 59 25 be d9 5f 66 3e e5 25 ba 3d 44 7d 11 3e
       -0.16147256 0.224975 0.09089259 0.14207941
000170 2b 51 b5 3e 55 af 6c 3e 19 a5 81 3c 11 60 0f bf
       0.3541349 0.23113759 0.015825795 -0.5600596
000180 e0 8a cc 3e d4 0e dd bd 1d ba ae bd c5 74 49 be
       0.39949703 -0.10793844 -0.08531592 -0.1967345
000190 0d a7 96 3e 95 88 db 3d 32 7d c2 bd 35 7e 9f 3d
       0.29424325 0.1071941 -0.09496535 0.07787744
0001a0 89 2e 99 3e fd 59 e6 3d a7 c4 cc bc 18 7e 21 3e
       0.29918316 0.11247633 -0.024996115 0.15770757
0001b0 e1 33 61 3b 0d e2 0c 3e c2 ba d9 bd d1 81 29 be
       0.0034363198 0.13758107 -0.10631324 -0.16553427
0001c0 e6 bd 1a be 01 03 55 3e d5 46 2f be 85 0f 08 be
       -0.15111503 0.20801927 -0.17116864 -0.1328717
0001d0 22 a3 e2 bc ad b7 b2 3d 44 ad 8f bd 5f 72 d1 3d
       -0.027665678 0.087264396 -0.0701547 0.10226893
0001e0 f1 21 24 bc c0 83 e1 3e f1 d7 f4 3c a5 03 9d bc
       -0.010017858 0.4404583 0.029888125 -0.019166777
0001f0 e6 3f 55 3e b8 1a 2a 3d 5c 4a 92 bd 62 dd 92 be
       0.20825157 0.041529387 -0.07143089 -0.28684527
000200 6c 35 1c 3e b3 7f 52 3e 3f 8a 14 be 8c 03 b4 3d
       0.15254754 0.20556526 -0.14505862 0.08789739
000210 fe 39 3a 3e b1 16 8f 3e f1 7f 3f be e7 f5 2f be
       0.18186185 0.27947 -0.1870115 -0.17183648
000220 1e 97 27 3d a9 4d 94 3e 4f 4b 84 3d cb cb 3e 3f
       0.0409156 0.289655 0.064596765 0.74529713
000230 78 6a a0 3d c2 10 5b bd c0 59 71 3e 00 f3 10 be
       0.07832807 -0.05348278 0.23569393 -0.14155197
000240 ec 28 4f be 0b 7c b7 bd ee 51 57 bf ae 76 a0 be
       -0.20230454 -0.08959206 -0.8410939 -0.31340545
000250 75 3c 94 bd 18 85 aa bd 51 92 d2 bd e5 41 9c be
       -0.07238094 -0.08326167 -0.10281814 -0.30519024
000260 f1 74 c3 bc 7d a2 5b 3e 06 b6 1f 3d f6 8d 04 bd
       -0.023859473 0.21448703 0.03899195 -0.032361947
000270 38 aa a7 be 84 6b 29 3e bf 13 f3 3b f4 64 43 3e
       -0.32747054 0.1654492 0.0074181254 0.1908148
000280 6e 83 24 3f 43 d2 f7 be 72 a5 0a bf f0 ab 58 be
       0.64263046 -0.48402604 -0.541587 -0.21159339
000290 1f 96 38 be 87 dd bf 3e 55 e2 37 be f4 42 26 3f
       -0.18026017 0.374737 -0.17957433 0.6494591
0002a0 31 9d a7 3e 08 4c c9 3e 21 f3 f8 3c 9c 1b e1 be
       0.32737115 0.3931582 0.03038937 -0.43966377
0002b0 09 66 01 3b 2e 5a 86 bc f8 ac e9 bd d5 bc 83 be
       0.0019744656 -0.016400423 -0.11409944 -0.25730005
0002c0 78 5b 18 be 71 fb 5e bd db 1f 73 be 1d 31 4e 3f
       -0.14878643 -0.054439012 -0.2374262 0.8054369
0002d0 a1 51 2d bf 19 50 3f be 7e 31 be bd 50 3f 7b 3e
       -0.6770268 -0.18682899 -0.09286784 0.2453587
0002e0 bd ac 84 3e 9a 74 2d 3e b6 a4 bc bd eb aa 5f 3e
       0.2591304 0.16939011 -0.092111036 0.21842544
0002f0 25 c3 c8 3e d4 01 00 be a4 ee 9b 3d 5f 96 aa bd
       0.39211383 -0.12500697 0.076138765 -0.08329462
000300 e4 83 c0 bc 2c a4 9f 3e 18 23 5f 3e 91 ea e1 3d
       -0.02350039 0.3117994 0.21790731 0.11031068
000310 46 02 ae 3d 14 3e df bd 3f 68 b4 bd 1b c1 35 bd
       0.084965274 -0.10900512 -0.08808946 -0.044373613
000320 12 d1 17 be 83 08 9f 3d b2 ab 86 bd d7 01 c7 3d
       -0.14825848 0.07765295 -0.06575717 0.09717148
000330 96 f2 f9 3d be a5 9f 3b d0 85 9a bd 6b ed 19 be
       0.12204473 0.004872053 -0.07545054 -0.15031974
000340 9e da 83 3d 74 ae 83 bd d0 d7 07 3d a0 78 df bd
       0.06438182 -0.06429759 0.0331648 -0.10911679
000350 4b 43 1c 3e 46 65 28 3e f9 ef d8 bd c0 1b 82 3c
       0.15260045 0.16444883 -0.10592646 0.015882373
000360 6a ab 1d 3d a4 0b 31 3d 97 d8 ca 3d d0 82 af bd
       0.03849355 0.043223992 0.099045925 -0.085698724
000370 46 e4 bc bd 21 f9 8d bd 3e 00 f4 ba 57 59 27 3e
       -0.09223227 -0.06932283 -0.0018615795 0.16342674
000380 0b 94 0c 3d 54 cb f5 3d 45 55 dc 3d cb fc 07 3c
       0.034320872 0.120016724 0.10758451 0.008300017
000390 7b 8a 86 3e 9a bb 21 bf e2 dc 1b bd df 83 92 3d
       0.26277527 -0.6317688 -0.038052447 0.07154059
0003a0 6e b3 a4 be 90 d8 5d be 4d 83 aa bd 48 c9 9b 3e
       -0.32168144 -0.21664643 -0.08325825 0.30427003
0003b0 84 f3 40 3e eb 90 47 3d 85 c3 08 3e 06 35 18 bd
       0.18842894 0.04872219 0.13355835 -0.037159942
0003c0 90 35 e1 bd f2 36 e2 3d c1 e1 73 be 62 4e 46 3d
       -0.10996544 0.11045636 -0.23816587 0.048414595
0003d0 66 83 72 3e 68 91 8d bd bf 36 3f be 73 2c 97 bc
       0.23682937 -0.069125 -0.18673228 -0.018453812
0003e0 4a e5 8d bd c5 d9 57 3e 4f 37 f2 3e a6 b6 15 3e
       -0.06928499 0.21079166 0.47307822 0.14620456
0003f0 70 c7 24 3e 69 fb 94 3c fd 74 fc bd e0 a9 81 bd
       0.16091704 0.018186288 -0.12327001 -0.06331229

bias_ih_l0 f4 [128]
000000 fa 14 9d 3b 46 f7 05 bd 64 a1 e1 3d 6a 6d 52 3d
       0.0047937604 -0.03270652 0.11017111 0.051373877
000010 88 ee 55 3e 97 5d 76 3d 49 94 49 3e 24 c1 76 bd
       0.20891774 0.060147848 0.19685473 -0.060242787
000020 50 72 8b 3d eb 4b ea 3d da 89 f8 bd 39 e1 09 be
       0.06808913 0.114402615 -0.12135668 -0.13464822
000030 49 15 f4 3c 1d c2 15 3e a8 77 03 be ef 70 14 3d
       0.029795306 0.1462483 -0.12838614 0.036240514
000040 56 4e a3 3c 9e 9b 9c 3d 73 fe 51 3e d2 17 85 bd
       0.019934814 0.07646869 0.20507221 -0.06498684
000050 0e f0 50 3e 30 e3 45 bd 56 4e 0e be 38 cc 0e bc
       0.20404074 -0.048312366 -0.1389707 -0.008715682
000060 ef 85 20 3d 95 46 bf 3d 4f 17 a8 3d b4 10 80 3d
       0.03919023 0.09339634 0.08207571 0.06253186
000070 2f a3 fd 3d 5f 0d 88 3d 66 ca 18 3e be 02 c2 3d
       0.123846404 0.06643175 0.14920959 0.09473179
000080 6c 61 1c 3e 54 c8 1b be e0 64 ce bd 64 9d cc bd
       0.15271538 -0.15213138 -0.10077834 -0.099909574
000090 78 20 6e 3d d8 55 78 3d 62 f5 e6 3d d7 75 5a 3e
       0.058136433 0.060628742 0.11277272 0.21334015
0000a0 bc 39 2f 3e 34 57 07 3f 5b 74 be 3c ad e9 88 3e
       0.17111868 0.52867436 0.023248842 0.2674078
0000b0 af 80 e1 bd ba 8d 6c 3e b6 12 bb 3d c9 03 7c bd
       -0.110108726 0.2310094 0.09134428 -0.061527047
0000c0 db ef ce bd 97 71 21 3e 3d 56 7e 3e 06 dd 43 3e
       -0.101043426 0.15765987 0.24837585 0.19127283
0000d0 74 e7 99 3d f6 b7 1c 3e 46 31 a7 bd 68 0d 9d 3d
       0.07514849 0.1530455 -0.08163695 0.07668573
0000e0 20 cb 6c 3a e8 76 59 3e a7 d5 d9 3c 6e b0 6d 3e
       0.00090329535 0.21236765 0.026591135 0.23211834
0000f0 51 10 da bd f3 91 27 3d f7 1d 0b 3d 61 ae 8b 3d
       -0.10647643 0.040910672 0.033964124 0.068203695
000100 05 0b ba bc ec 4d 38 3d 05 ad 18 3e c0 33 40 be
       -0.022710333 0.044996187 0.14909752 -0.18769741
000110 0a 88 95 3c 4a 7e 27 3d 4d 21 b9 bd 1d 92 74 3e
       0.018253345 0.040891923 -0.09039555 0.23883863
000120 b2 6c d3 3d 8f 57 ff bd 44 a8 4e 3d 18 a0 c5 bc
       0.10323466 -0.12467872 0.05045344 -0.02412419
000130 43 20 af bc ea 8f 32 3d e1 ab e0 3d b2 fb 18 be
       -0.021377688 0.04359428 0.10970283 -0.14939764
000140 a7 52 61 be f7 84 08 bd bd 9b 09 3d 13 af 54 bd
       -0.22004186 -0.03332993 0.03359579 -0.051924776
000150 3f ba f5 3d d7 7f 1b be 68 8f 0a be 97 0d 32 3e
       0.11998414 -0.15185486 -0.13531268 0.17387997
000160 7f 44 40 be 76 2e 92 3e f1 07 b9 3e 64 37 0e 3e
       -0.18776129 0.28551072 0.3613887 0.13888317
000170 91 e5 97 3e 5c 15 9d bd 31 24 27 be e0 a3 94 3c
       0.29667333 -0.076700896 -0.163224 0.018144548
000180 8c 40 ee 3c 68 c4 55 3e 48 2d 8c 3e a7 6a 04 3e
       0.029083513 0.20875704 0.27378297 0.1293131
000190 0b d5 a0 3e 8a 5a 82 3e fd 4f 42 3e ff f7 9c 3d
       0.3141254 0.254597 0.18975826 0.07664489
0001a0 c7 2d 93 3d f9 f3 ec 3e 45 ec 82 3d 7c c2 20 3e
       0.07186466 0.46279886 0.06392721 0.1569919
0001b0 6a 18 a1 bd 1c 22 65 3e a2 29 18 3e 96 01 d5 3d
       -0.07865985 0.22376293 0.14859632 0.10400693
0001c0 3d e1 53 3d 1a 23 7f bd 08 c2 13 3e 71 56 5b 3e
       0.051728476 -0.062289335 0.14429486 0.21419694
0001d0 27 1d 56 3d f9 68 23 3e f1 51 0e 3d 75 e7 0f bd
       0.052273896 0.15958013 0.034746114 -0.035132844
0001e0 d8 94 6c 3e 00 80 33 3e b6 a7 a4 3e 2b e1 c8 3d
       0.23103654 0.17529297 0.32159203 0.098085724
0001f0 1d 86 09 3d 6a 64 75 3d fd 62 2d 3e d8 96 11 3e
       0.033575166 0.059910215 0.16932292 0.14217699

bias_hh_l0 f4 [128]
000000 1d 72 6f 3e 65 39 68 3e 53 4f 25 3d 89 c1 f0 bd
       0.23383375 0.22678144 0.040358853 -0.11755664
000010 8d 1c 9b 3e 5d 60 17 3e 7d d5 4b bd 7b 93 33 3d
       0.3029522 0.14782853 -0.049764145 0.04384182
000020 ff 49 16 3e be 02 3f 3e f0 6a ab 3d bd c4 97 3d
       0.14676665 0.1865339 0.08370006 0.07410572
000030 ef 84 f8 3c 3d 44 1f 3e af a3 ce 3d 84 d2 b2 3d
       0.030336825 0.15553375 0.10089814 0.08731559
000040 53 de fe bc b3 f4 2d bb dc 2b eb 3d dc 2c e1 bd
       -0.031111872 -0.0026543557 0.11482975 -0.10994884
000050 bc 1f 56 3e 9b 5b 7a 3d b6 24 1f 3e 7e 54 a8 bd
       0.20910543 0.061122518 0.15541348 -0.082192406
000060 9e de 8a bd 77 bd 27 3c 72 b7 3d 3d 0c cd 09 bd
       -0.06780742 0.010238043 0.046317525 -0.033642814
000070 02 48 19 3e c1 a1 b9 3d e8 86 09 3c f5 57 fd 3d
       0.14968875 0.09064055 0.008393981 0.12370292
000080 7c 9e 97 3c c6 12 8d 3d 84 9d bd 3c fe 62 93 3b
       0.018508188 0.068883464 0.023146398 0.004497885
000090 29 63 8c 3d b6 92 d9 bd 59 51 29 bc e0 ef 9c bd
       0.06854851 -0.10623686 -0.010334336 -0.0766294
0000a0 bf 64 b9 bd 6a 30 b3 3e 64 e8 6d bd 6a 88 25 3e
       -0.09052419 0.34997874 -0.058082953 0.16165319
0000b0 7d 0c 0d 3d d6 f5 79 3e bd 52 85 bd fe b3 0a be
       0.034435738 0.24410185 -0.06509922 -0.13545224
0000c0 50 88 09 bd 56 ca d1 bd f2 b4 d3 3d e4 fc 85 3b
       -0.033577263 -0.10243671 0.10337247 0.004088985
0000d0 47 5a 8a 3d 21 fd 9b 3d 05 6f 81 3d bb 2d 91 bd
       0.067555 0.0761664 0.063200034 -0.070888005
0000e0 37 92 cf 3c 57 b9 83 3e c8 5f 80 bd 79 a5 57 3c
       0.025338275 0.2572734 -0.06268269 0.01316201
0000f0 de 5b bc 3d bf fe 1a be a9 40 af bd 59 0a 7b 3e
       0.0919721 -0.1513624 -0.08557255 0.24515666
000100 fa 55 20 3e df e5 80 3d 2f 43 22 bd 3a 3a 1e be
       0.15657797 0.062938444 -0.039614853 -0.15451899
000110 4d e7 bb 3d fd 37 24 be 37 d5 96 be 89 e2 73 3e
       0.091749765 -0.16036983 -0.29459545 0.23816885
000120 89 46 21 be 01 aa c8 3d f7 bb c9 bc 21 67 aa 3d
       -0.15749563 0.09798051 -0.024625761 0.083204515
000130 ba c4 76 bd 3c 8b ee 3d 4a c6 b1 3d bc 97 2e bd
       -0.060246207 0.116476506 0.08680399 -0.042625174
000140 45 4a 06 be 84 27 0d 3e 18 99 7f be 45 ec 3c 3d
       -0.13114269 0.13784605 -0.24960744 0.04612376
000150 26 f5 2a 3e f5 9e e1 bd eb 59 74 bb 13 5d e0 3d
       0.16695079 -0.11016647 -0.003728504 0.109552525
000160 26 26 fd bd 4b 0f 02 3f b0 f6 20 3e 95 bd 1e 3e
       -0.12360792 0.50804585 0.15719104 0.15502007
000170 25 80 17 3e ca 40 ec bd a3 25 7d 3d 83 4b 25 be
       0.14794977 -0.11535795 0.06180347 -0.16142087
000180 68 41 96 3e a2 29 3d 3e 93 58 31 3e ca 4a 0c be
       0.29346776 0.18472913 0.17318945 -0.13700405
000190 a0 53 10 3e 0a 1c 89 3e ae 34 eb 3d 9f fa 19 3e
       0.140944 0.26779205 0.11484657 0.1503701
0001a0 c5 64 eb 3d ed 77 f3 3e e2 08 16 3c 78 07 36 3e
       0.1149383 0.47552434 0.009157391 0.17776287
0001b0 6a f4 90 bd f5 d2 a9 3d eb 7b 5b 3e ca 08 53 3e
       -0.07077868 0.0829219 0.2143399 0.20608822
0001c0 20 9e 4c 3e f5 da 7f bb 5f 0b 9f bd 50 46 4c 3e
       0.19982195 -0.003904042 -0.07765841 0.19948697
0001d0 97 cb 0f 3d e0 48 fa bc 10 58 1f 3e a6 d7 80 3e
       0.035106268 -0.030552328 0.15560937 0.25164527
0001e0 64 07 d9 3d 09 2d 9a 3e 9c 21 e1 3d d8 24 91 3e
       0.10597113 0.30112484 0.109927386 0.28348422
0001f0 31 41 9e 3e e4 26 02 3e 21 ce c0 3d 41 da 53 3e
       0.30909112 0.12710148 0.09414316 0.20688726

weight_ih_l0_reverse f4 [128, 2]
000000 fe 53 17 3f 86 bd 19 3e e3 b1 19 b9 32 67 98 be
       0.59112537 0.15013704 -0.00014657485 -0.29766232
000010 da 7c ae be f0 6f 7f be 95 04 8c 3e 77 44 a0 3b
       -0.3407963 -0.24945045 0.27347246 0.004890974
000020 cc b1 a0 be 1b 3a 58 be a4 74 00 be 0b 88 b5 bc
       -0.31385648 -0.21115915 -0.12544495 -0.022159597
000030 c3 14 43 3e e6 55 8d be fa 06 a5 bc 2e c1 66 bf
       0.19050889 -0.27604598 -0.020144928 -0.9013852
000040 7a 10 18 3e 1c 52 53 be c1 7a 15 bf 41 d7 03 3f
       0.14850035 -0.20636791 -0.5839043 0.51500326
000050 35 6b 4e bd 58 ad 9b 3d 8f c3 ea 3e 33 55 c1 be
       -0.05039521 0.07601422 0.45852324 -0.37760314
000060 8f 6a 9a be ad 5e 10 bf 06 1b f7 be d5 95 62 bf
       -0.30159423 -0.56394464 -0.48262805 -0.88509876
000070 67 3d 3a bd 9b 3d 81 be 26 14 0f 3f 31 b0 05 3f
       -0.045468714 -0.25242314 0.5589012 0.5222197
000080 9f 6e 71 be 93 7b 85 3e 08 e9 d8 be b7 c2 7e bf
       -0.23577355 0.26070842 -0.4236529 -0.9951586
000090 e1 ea 16 bf 60 48 b7 3e 08 c5 d8 be 29 91 9b 3e
       -0.58952147 0.35797405 -0.42337823 0.30384186
0000a0 9b 7a 30 bf 21 de e1 3d db 34 86 bf 18 9c cd 3e
       -0.6893708 0.11028696 -1.048488 0.40158153
0000b0 db c2 85 be 66 4b 41 3e cb 5f 79 3e 59 37 38 be
       -0.26125225 0.18876418 0.24352948 -0.17989863
0000c0 f5 bc 0c be 49 46 85 3f 88 25 94 be bb 18 8d bc
       -0.13743956 1.0412074 -0.28934884 -0.017223706
0000d0 c5 77 c6 3e 15 9d d4 3e a3 b8 4a be a8 ae 9b 3e
       0.38763252 0.41526094 -0.19796996 0.3040669
0000e0 d7 e7 83 be c8 06 28 3d 11 67 f7 3e 66 8e c6 3e
       -0.25762817 0.041022092 0.4832082 0.38780516
0000f0 7e bd ff 3e a2 59 4e bf e1 34 11 3f 6d 0e d1 be
       0.4994926 -0.8060552 0.5672131 -0.40831318
000100 2e a7 90 3d af 46 8c 3e 0f 10 38 3d f2 6c ba 3d
       0.07063137 0.27397677 0.04493719 0.09102811
000110 d8 b0 25 bd 23 7f 0b 3f 9a 56 0d bc 9b 9e 8c 3d
       -0.040451854 0.5449087 -0.008626604 0.06866189
000120 99 92 97 be de b5 a2 3d aa 6e 2e 3f e2 1b 62 3e
       -0.29604033 0.07944845 0.6813761 0.22080949
000130 d0 d9 6a be 14 c1 d8 3d cc e0 35 bc a1 54 d5 3d
       -0.22934651 0.10583702 -0.011100959 0.10416532
000140 bd aa 00 3e ed b1 e7 3e f4 41 3c bc 5e 22 67 bd
       0.12565131 0.45252934 -0.011490334 -0.05642926
000150 cd f0 e7 3e 70 d4 88 bd ee 83 a2 3e 5e fb b5 3d
       0.45300904 -0.06681144 0.3174128 0.08885835
000160 76 6f ca bd f6 ba 13 3d 1c 3f 91 3c 3b 7e 04 bd
       -0.09884541 0.03606697 0.017730288 -0.032346945
000170 b3 e8 c7 be 95 2b 33 be 1a 68 71 3e 57 70 be 3d
       -0.39044723 -0.17497094 0.23574868 0.09298771
000180 22 90 f7 bc 93 75 43 3c 48 24 40 be 75 ff d1 bd
       -0.030220095 0.011929887 -0.1876384 -0.10253803
000190 94 d0 c8 bd dc 23 d3 bc 47 38 c2 3e 32 9f 01 bf
       -0.09805408 -0.025773935 0.3793356 -0.5063354
0001a0 fd ca 6d 3c 9f 09 23 bd 76 80 0c be e8 c2 89 bd
       0.014513728 -0.039804097 -0.13720879 -0.067266285
0001b0 37 c8 89 3e 08 1b 09 bf 7b 1a fb be 58 1b 92 bd
       0.26910564 -0.5355687 -0.4904364 -0.07134122
0001c0 9d ab a5 bc a8 fa 95 bd 78 ad d2 3d 9f 73 e8 3d
       -0.020223433 -0.073231995 0.10286993 0.11350178
0001d0 92 da aa 3d 0a d6 70 3d f9 00 12 3d c9 ec ad be
       0.0834247 0.058797874 0.03564546 -0.33969715
0001e0 22 b6 e6 bd fa 90 b2 3e bb 09 5e 3e 82 3a 18 3e
       -0.11265208 0.34876233 0.216834 0.14866069
0001f0 09 4e 54 3e 0c a4 fa be 1a f5 d1 3c c0 e7 2a be
       0.20732893 -0.48953283 0.025629569 -0.16689968
000200 71 1f d5 be 28 8a 5c be 31 9c a3 3c f6 09 d4 3e
       -0.4162555 -0.21537077 0.019971939 0.4141385
000210 99 fb cc 3e 46 0f 1e be 55 10 30 be 5c 02 10 3d
       0.40035704 -0.15435514 -0.1719373 0.0351585
000220 c3 24 97 3e 78 32 b0 3d d3 9c 93 3e ba 7e 28 3b
       0.29520234 0.08603376 0.28830585 0.00257103
000230 0b 3c 92 bc 6f ce c0 bc c0 aa b6 be 22 0e cc 3e
       -0.017850896 -0.023535935 -0.35677147 0.39854532
000240 df 9c b8 bd d9 2a 55 be 12 2b 2f bf 26 2d 25 3f
       -0.09014296 -0.20817126 -0.68425095 0.64522016
000250 74 45 ef 3d c3 09 28 bd 60 3f 0e 3f d5 5e 11 be
       0.11683169 -0.041024935 0.5556545 -0.14196332
000260 8a c6 d3 3d b9 54 c4 be 13 52 3b 3e 03 5d 0f 3f
       0.10340603 -0.38345888 0.18293028 0.560013
000270 fc a1 74 3d 77 2f ae be 25 63 30 3e db 9f cf 3e
       0.059724793 -0.34020588 0.1722532 0.40551648
000280 66 e5 fe 3d b5 60 e6 bd 83 3a 94 3e 80 7b 04 3f
       0.12446098 -0.11248914 0.2895089 0.51750946
000290 c9 b4 6c 3e c8 dd a3 be 26 75 c6 be 92 40 65 3e
       0.23115839 -0.32005143 -0.38761252 0.22387913
0002a0 11 8f 67 bf 2c b8 7f 3e e7 aa ae 3e e9 6a dd bd
       -0.90452677 0.249726 0.34114763 -0.10811407
0002b0 e0 12 0b bf 44 bb 33 3f 28 13 3f 3e 14 13 be 3e
       -0.54325676 0.7020762 0.18659651 0.3712393
0002c0 7a d0 6d be 39 72 9a 3f 5e e0 8d 3e c5 2c 7f 3e
       -0.23224059 1.2066108 0.2771024 0.24919422
0002d0 52 fb 54 be 41 b7 12 be 97 c8 8a 3c 83 26 de be
       -0.20798996 -0.14327718 0.016941352 -0.43388757
0002e0 eb 61 d2 be d3 2e 02 3f 4a ee 29 3f 80 d2 d4 3e
       -0.4109033 0.508527 0.66379225 0.4156685
0002f0 4f f8 62 3e d0 28 d6 be f2 ea ae 3e e7 bd 96 be
       0.22165035 -0.41828012 0.34163624 -0.2944176
000300 23 91 26 3f ea 37 c1 3e 01 d5 54 3e 01 c6 54 be
       0.6506521 0.37737972 0.2078438 -0.20778657
000310 2c e8 d2 be a4 2f 48 3e 0c 1b b1 be 72 07 cf bd
       -0.41192758 0.19549423 -0.34590948 -0.10108842
000320 be 61 05 bf 44 bb fa bd a6 d0 07 bf 14 8d 21 bf
       -0.5210227 -0.12242749 -0.5305275 -0.63105893
000330 76 d0 db bd 06 78 b1 be 31 93 e8 3e ab 29 14 bf
       -0.1073312 -0.34661883 0.45424798 -0.5787608
000340 9f 53 ba bf 31 13 d1 3e 45 02 b6 be 8e aa 4a 3e
       -1.4556769 0.40834954 -0.35548607 0.19791624
000350 5d 2f 58 3f 23 2d 58 3d d3 d5 18 3f 7e 34 b6 be
       0.8444727 0.05277742 0.5970127 -0.35586923
000360 08 67 9f 3e 3a d6 f9 be 3c d4 de be 16 c7 00 bf
       0.31133294 -0.48796254 -0.43521297 -0.5030378
000370 a1 b7 30 3d 12 83 25 be cf a8 e8 3e eb 2f 19 3f
       0.043143872 -0.1616328 0.4544129 0.5983874
000380 98 08 e7 3d 35 3d 07 3f 6d 2e e4 be 41 92 4a bf
       0.11280936 0.5282777 -0.4456667 -0.79129416
000390 e5 e8 44 be 71 6c ba 3e a9 6b b3 be 45 f9 d9 3c
       -0.19229467 0.3641086 -0.35043076 0.026608119
0003a0 ce 06 dd be 10 99 88 3d 9e 84 84 bf 26 42 e0 3d
       -0.43169254 0.06669819 -1.0352972 0.10950117
0003b0 2c f8 ce 3e a3 40 5d bf d0 af 96 be e1 ed 45 be
       0.40423715 -0.8642675 -0.2943101 -0.19329025
0003c0 1e cd 2d bd 57 09 f2 3e 5e 92 1b 3e 3a c2 60 be
       -0.042431943 0.4727275 0.15192553 -0.21949092
0003d0 fe 21 39 bc f2 97 5d 3e 56 38 aa 3e 52 ca ea 3e
       -0.011299608 0.21639994 0.33246106 0.45857483
0003e0 3f 06 95 bd b7 77 b8 3e 12 2c 0c 3f f9 df 42 bd
       -0.07276582 0.36028835 0.54754746 -0.04757688
0003f0 fc ec fe 3e 6e 6f 52 be c9 f2 0e 3e 9b 97 e7 be
       0.4979018 -0.2055032 0.13959803 -0.45232853
